model/tgn/241025_2/epoch_2.pt (torch, 465922 bytes, 91 tensors)

att f4 [1, 1, 30]
00000000: 36b9 c0be 3e8d 8dbe b80f 8dbe 7468 cc3e
00000010: 2091 c1bd d023 4dbe 00ff 933d 24aa efbd
00000020: ac5d c43e e0c8 433e e0d7 b23e e0eb e13d
00000030: 100b 9ebd b8d6 17be f69e 9a3e a003 c43d
00000040: 3848 3cbe ce1d 8f3e 0c16 273e a320 81be
00000050: 40c5 a2be 08d6 443e 4024 d6bb b82b b03d
00000060: a092 0abd 8fc9 cabe 052a 63be 47fb ddbe
00000070: e007 2e3e 1018 fa3d
-0.37641305 -0.27646822 -0.27551055 0.3992344 -0.094515085 -0.20033193 0.07226372 -0.117023736
0.38352716 0.19119596 0.34930325 0.11031318 -0.07716954 -0.14828002 0.30199403 0.09571004
-0.18386924 0.27952427 0.16317004 -0.25220212 -0.31791115 0.19222271 -0.006535083 0.08602089
-0.03383124 -0.39606902 -0.22183998 -0.43355772 0.16995192 0.12211621

bias f4 [30]
00000000: ced2 663d 36ed 21bd 5cfd 1b3e 498d 3cbd
00000010: 7f34 b83d 3e23 bb3d 6c8e 4b3d e487 a2bd
00000020: a16f 1abd 8eed 02be 9a56 30bd d927 4b3c
00000030: a1c6 cc3d 0aee bf3b 3076 adbb a882 cd3d
00000040: 541f d83c 2e30 8f3d 14cc 743d b670 db3d
00000050: 7269 26bd 2b03 dabd 6450 1f3c 3893 cbbd
00000060: 6411 f3bc 4ddd 58bd 7bed 383c fbe6 b43d
00000070: 57ca e53d fd17 2dbd
0.056353383 -0.039532863 0.15233368 -0.046033178 0.08994388 0.09137581 0.04969637 -0.07936075
-0.037704114 -0.12785932 -0.04305134 0.012399637 0.09998823 0.005857234 -0.00529363 0.10034686
0.026382126 0.069916114 0.059764937 0.10714857 -0.040627904 -0.106451355 0.009723756 -0.09940189
-0.029671378 -0.052945424 0.0112870885 0.088331185 0.11220234 -0.042259205

weight f4 [30, 163]
00000000: 72a8 8bbd 2a49 8fbd bcee 47bd 22f3 d8bd
00000010: 2896 ecbd 335e 103d 3415 043e 8835 b23c
00000020: 228d 80be be54 c5be 5e25 31be 2b1f 2a3e
00000030: 29b8 1a3e 2ce5 3ebe d561 b6bd 450a f0be
00000040: a9b7 a13d 79be 5db8 f85d 8bbc 744b 7fbd
00000050: 829a c7be 6e5a 553d c247 993d 6a56 43be
00000060: 8377 4cbd 87b2 8fbc e82e 54be f95e 79bb
00000070: c8b7 8f3e cf7d eebc 8ea9 943c b0a5 05bf
00000080: 2a79 9f3c 474b 95bd 8e00 93bd d029 263e
00000090: cb4e 3a3c 5e87 73bd 6355 87be e851 123e
000000a0: a542 923d 12da 043e 8eea 1d3f 8e84 f8bd
000000b0: 7701 09be eb59 e2bb 4536 3cbf de18 523d
000000c0: 8d56 08be 8536 6dbe 2348 3c3d d454 ac3d
000000d0: a812 0f3e 921d b13e 899d b1bd 391d 1fbe
000000e0: 3be8 23be f278 453d a4d6 afbe d056 93bd
000000f0: 5ebd 563c 449a febd 57e5 dbbe 1715 f3bd
00000100: a9eb 0f3f dd79 8fbe 180e 53bd 6881 0b3f
00000110: 02af 15bf 3329 e9be 4d4b 5a3d 059e 2fbe
00000120: 3b2c a63d 87de 3abe a5d9 313e 7398 c93e
00000130: 0df6 773b a57d 083d b66b 923e b1c9 12bf
00000140: 7a61 dd3d f2df 68bc ddb5 d5be c1e7 503d
00000150: 5491 e83c ed4d 993e d3ce d3bd 6ec8 51bd
00000160: d159 b43d 64e0 9cbd 7544 a23e 5f5b 2e3e
00000170: 9700 aebe 0bf9 103d ddfe 2fbf 9106 9ebe
00000180: f343 69bd d2e0 e63d b190 53be c73f 2dbd
00000190: 996a 9e3d 95c8 b8bd 3ab8 a8bd dbd6 003e
000001a0: 5eab 97bd b822 07be 8152 c3bc d0b2 b13e
000001b0: dd3e 8abe 6ce9 123b e2c0 c23e e67a c3be
000001c0: 20b5 60be 6721 e93d 9bed 66be d3e2 8d3e
000001d0: e477 b93d a734 46bc d2a2 f73e 80a1 ed3c
000001e0: 1803 88bd fd97 4e3e 9d58 63be e57f d03e
000001f0: 4c4e 993d 7bff 72be c552 183e 2b71 a6be
00000200: 2792 bc3e 8d2d a03e 9789 ee3d cc94 bcbd
00000210: 4da1 92bd 3120 803d 95da 213d 2d13 f1be
00000220: d1c5 b5be 5e64 3a3e 8801 62bb 3c1f a13e
00000230: 177f 7c3d 25bb aa3d 0e7e e0bc 6a79 22be
00000240: 1541 06be fce7 303c 8b90 763e fd20 093e
00000250: fac0 2d3d f461 92be d856 e4bd 4d1e 9f3e
00000260: 2cef 1a3e fa72 cfbd cd14 103d 0116 b63d
00000270: 03cd f73d ec93 b5bd 6c4c 143e f240 98be
00000280: dc8a 64be e632 f3bd fbf8 6bbd 8ed8 89bd
00000290: d2e8 483d 9db1 ba3b 47aa 3e3d 9f37 90bc
000002a0: a656 38bd 39b3 d53d 694c c63d b8f9 92be
000002b0: 564b b4be 90f8 46be efe8 d93c 340b 203d
000002c0: 9f84 12be da9a 9a3b 1da3 c0be c069 c13a
000002d0: 1bdd b8bd 5bee de3d b4f8 0f3e 22c5 6a3e
000002e0: 4469 87be 0115 98be 5276 b03c 4669 09bd
000002f0: 51f8 033d e52a 71bd 18fa cd3d be6c 7bbd
00000300: 5fe6 ccbd 3f70 ec3e 007b d6be 0723 763c
00000310: 24f7 d2bd 8efe 00bd 0b72 df39 bea7 3dbe
00000320: 8353 fa3d cfec f7bd 0f20 62bd e8c1 563d
00000330: f573 383e 75f1 e53e 77e6 e9be 7373 aabe
00000340: 0658 2ebe ceed 06bf 4666 d1be 0dcb 03be
00000350: eee2 9ebe 2794 d23e 625f 98be 079a cbbc
00000360: 6943 333e d5f1 2e3e 10be 0abe 7e7a a8bd
00000370: bcd2 cdbd 7bf9 59be a576 413e fcdc cfbd
00000380: 4bec 9abc 3a70 2dbe 9d27 d0be 8a8f 2d3f
00000390: 68df a73e 0af4 19be 9c09 653f 6bc2 1b3d
000003a0: 03d8 963e 26da 5c3d 31a3 99be 9149 023e
000003b0: 80a0 49be c911 fcbd b4cd 033f c929 2abd
000003c0: 18ae b3bd 5816 07be 504e 3abe 18ad 72bb
000003d0: 6cea 5f3e 24dd adbe 27b6 a5bd bc8a 59be
000003e0: 8503 863d 59db 5abe fd7d 153e 7be1 1f3e
000003f0: d895 283e 802e 8e3c 1ab3 21bd d13c 86be
-0.06819238 -0.06996377 -0.04881166 -0.10593249 -0.115520775 0.035246085 0.12898713 0.021754041
-0.25107676 -0.38541216 -0.1729941 0.16613452 0.15109314 -0.1864211 -0.08905379 -0.46882835
0.078963585 -5.2867897e-05 -0.017012581 -0.062327817 -0.38985068 0.052088194 0.0748439 -0.19075933
-0.049918663 -0.017541183 -0.20721018 -0.0038050993 0.280699 -0.029112725 0.018147256 -0.52205944
0.019466955 -0.07289749 -0.0717784 0.16226888 0.011371325 -0.059455268 -0.26432332 0.14289057
0.07141618 0.12973812 0.6168603 -0.12134658 -0.13379465 -0.0069076917 -0.7352031 0.051293246
-0.13314267 -0.23165329 0.045967232 0.08414617 0.1397196 0.34592873 -0.086726256 -0.15538491
-0.16006558 0.048211046 -0.34343445 -0.071942925 0.013106672 -0.124317676 -0.4294841 -0.11869257
0.56218964 -0.28022662 -0.051527113 0.54494333 -0.58470166 -0.45539245 0.05329447 -0.17150123
0.08113905 -0.1824895 0.17368181 0.39374122 0.0037835867 0.03332295 0.28597802 -0.57339007
0.10809608 -0.014213549 -0.41740313 0.051002268 0.02838961 0.29942265 -0.10342183 -0.051216535
0.088061936 -0.076599866 0.31692854 0.17027043 -0.33984825 0.035393756 -0.68748266 -0.30864385
-0.056949567 0.1127335 -0.20660664 -0.04229715 0.07735176 -0.09022633 -0.082382634 0.12581961
-0.074057326 -0.13196838 -0.023843052 0.34706736 -0.27001086 0.0022416962 0.38037783 -0.38179702
-0.21944094 0.11383324 -0.22551577 0.27712116 0.090560704 -0.012097514 0.4836641 0.029007673
-0.06641215 0.20175166 -0.22201772 0.40722576 0.07485637 -0.2373027 0.14875324 -0.32508215
0.36830255 0.31284752 0.11647337 -0.09208068 -0.07159672 0.0625614 0.039515097 -0.47084942
-0.35502484 0.1820235 -0.0034485776 0.31469142 0.06164464 0.08336476 -0.027403858 -0.15866628
-0.13110764 0.010797497 0.24078576 0.1339149 0.042420365 -0.28590357 -0.11149377 0.31077805
0.151303 -0.10129352 0.035176087 0.08890916 0.1209965 -0.088661045 0.14482278 -0.2973705
-0.22318596 -0.118749425 -0.057610493 -0.06730758 0.04905016 0.0056974427 0.046549108 -0.017604647
-0.04500451 0.10434575 0.09682543 -0.28706145 -0.35213727 -0.19430757 0.02660033 0.039073184
-0.14308403 0.004718167 -0.37624446 0.0014756247 -0.090265475 0.108853064 0.14059716 0.22926763
-0.264475 -0.29703525 0.021540795 -0.033547662 0.032219235 -0.058878798 0.10057467 -0.061383
-0.10004877 0.46179387 -0.41890717 0.015023 -0.103010446 -0.031492762 0.00042618843 -0.1852102
0.1222296 -0.121057145 -0.055206355 0.052431017 0.18012984 0.4491078 -0.45683643 -0.33291206
-0.17025766 -0.5270661 -0.4089834 -0.12870426 -0.3103251 0.41128656 -0.2976027 -0.02485372
0.17506184 0.17084439 -0.13549066 -0.082264885 -0.1004996 -0.21286575 0.18892916 -0.10149571
-0.018911501 -0.16937342 -0.40655223 0.6779715 0.32787633 -0.150345 0.8946779 0.03802721
0.2946168 0.05391898 -0.30007318 0.12723376 -0.19690132 -0.1230808 0.51485753 -0.041543756
-0.0877344 -0.13192117 -0.18193936 -0.0037029441 0.21866769 -0.3395778 -0.080913834 -0.21244329
0.0654364 -0.21372737 0.14598842 0.15613358 0.16463411 0.017356157 -0.039477445 -0.26218274

bias f4 [30]
00000000: 0ff1 073e 6905 c8bd b2f3 253e c75d 2ebd
00000010: d451 033e dac4 d93d 06de fa3d 407a 8bbc
00000020: eab2 a53b 04ec cfbd 1caf 12bd 1168 5d3c
00000030: 4a14 e93d e5de 04bd 4e97 683d 67e7 513d
00000040: 087f 7b3d 0fb3 9f3c 467c 0b3e 6c65 023e
00000050: 8bb4 2fbd abd5 8dbd 35f6 cfbc 33c4 10bd
00000060: e159 92bb 329e f5bc b956 7abc 5d1f 5e3c
00000070: f110 663d d0fe e1bd
0.1327555 -0.09766657 0.16206244 -0.0425699 0.12824184 0.106332496 0.12249379 -0.017026067
0.0050567286 -0.10152438 -0.03581153 0.013513581 0.11380823 -0.03243913 0.05678492 0.051246073
0.061400443 0.019494561 0.13621625 0.12734002 -0.04289679 -0.069255196 -0.025385955 -0.03534336
-0.004466281 -0.02998266 -0.015279465 0.013557282 0.0561685 -0.1103493

weight f4 [30, 163]
00000000: 3857 eb3d aa6c cfbd 2187 a53d 5c4f 81bd
00000010: 4c25 b83d a01b cfbd 6979 1a3e e076 00be
00000020: c8b9 5cbd 4aa1 333e c379 993c 6d2b b5bd
00000030: d454 1b3e fb6c 9fbd 3787 f73d 82e6 f53b
00000040: 2296 02be 441b 8d3d ad88 043d e5c7 053e
00000050: 380c 04bd 657e c93d 85c9 32bd c356 f0bd
00000060: 9921 6fbd 621c eabc 6089 0bbe bc94 303e
00000070: 9c90 403d 9b84 3f3d b82d eb3c 01fa c43d
00000080: 30ec 26be 014d 26be 184c 01be 5553 9c3d
00000090: 6b95 913a dca4 263e e4f7 9b3d b61f b93d
000000a0: 7b7b 243e d62a 2c3e df14 e5bd 7473 fabd
000000b0: 24b3 c73d 8ed8 d23d d398 0ebe d06f f53d
000000c0: 385c e23d 4bd6 b73d 1a7b 143e 220a c43d
000000d0: 84e0 80bd a9e7 20be f563 bd3a d7a0 473d
000000e0: 05b4 10be 1b40 d5bd cee9 8b3d 97f7 db3d
000000f0: 1a56 233e e628 e23d 0198 053e 5860 45bd
00000100: ef44 c3bd 3b54 50bd 653b 90bc 2ffc 10be
00000110: 8d48 85bd fed3 b43d 2eff 923d a0f3 76bd
00000120: 1785 153e ac44 1ebd ab6c eabd 4499 2c3e
00000130: 0186 38bd 245f afbd 971d 173e d3c2 2f3e
00000140: cbd5 2e3e f4c3 aa3d 39a5 55bc 42c5 333e
00000150: 185d 1ebe 10ea 113e ddb9 ecbd 697f 32be
00000160: 5f91 e73d 6c66 b0bc a3db 29be 492a aebd
00000170: 8e04 69bd 5a74 863d 20b4 16be a791 16be
00000180: 20a7 163e fd5b 8b3c 13b1 d83d 68d4 733c
00000190: 8560 b93d 63b4 52bd 2073 95bd 2256 61bc
000001a0: 152f ea3d b725 ccbd 54c3 7bbd 66d6 9ebc
000001b0: 4aad 1c3e 085c 2b3e 9f78 10bc ed36 0bbe
000001c0: 3858 f13d 7a5c 363d db7e e3bd 8269 26be
000001d0: 371d 82bd f503 00be 60fb 063d be65 0f3d
000001e0: 1b37 fbbd b09f 453d be6d 7dbd 2acb e83d
000001f0: 18d0 053e 8345 343e 6f3c 023d 6dc0 1dbe
00000200: 1bbf b23d 2697 cebb 1c34 33be edc7 dfbd
00000210: d246 023e 0396 ae3d 13c5 073e 9312 243e
00000220: 5d3a 223e 3d15 d3bd c2d8 413d a145 2d3e
00000230: d46d 56bd a125 ea3d 7b64 b1bd bbe7 e63d
00000240: 5489 ba3d 4ba8 d2bd e206 2d3e 6827 9c3d
00000250: 0acf 11be ed62 1abe 721d ca3d 4821 dbbd
00000260: 740e 1cbe 100f ef3d 52fa ecbd d618 ba3d
00000270: ec55 af3c 083d e63b 5229 c43d b3fe 2fbe
00000280: 13b5 723d 6524 843a f4b8 10be 5d3a 15be
00000290: 832a ba3d 2464 8ebc a4ea 22be a02c bdbd
000002a0: 5454 293e 75f8 153d fe87 403d 6f68 2a3e
000002b0: b17b 4b3c 7cf4 103d f4eb e63d acf1 aa3c
000002c0: 80ad 95bc 281a e7bc 888c 933d 7444 30be
000002d0: e6e3 17bd 51e1 1cbe c6a4 123c 88ff 8cbd
000002e0: bc10 66bd c297 1d3e f314 a5bd cba6 243e
000002f0: b508 27be 4faa 0bbd 180f 41bd 72cf 313e
00000300: be6c d4ba 480f 2ebe 3f18 2cbd afa0 a8bd
00000310: 7ae5 18be 4e9b a43d f4f0 f93d 8b6a b7bd
00000320: 63ab cb3b f35c 1b3e fe0d 09be aed3 a7bd
00000330: 2fc3 a03d 3b2e 02bd bee1 093e b845 b5bc
00000340: e626 77bd 8549 30be 0f00 f83c e093 08be
00000350: 09a7 1dbe 0173 853c afb4 dd3d 9529 83bd
00000360: 8ebd 2f3d 8eab 5fbd 0098 b5bd 3925 83bd
00000370: 9408 a53d acc7 6d3d b202 7abd 4027 0bbe
00000380: 508f e6bd cd78 1b3e ddc9 e53d f9c2 023e
00000390: b4a4 0d3e 5bd5 4dbd a5c0 c03d fa29 d93d
000003a0: 6c97 debd e31d 81bd c2c0 e5bd a4ea 3cbd
000003b0: e71d d33d b9f8 2d3c b5cd e03b bb42 93bc
000003c0: ce41 efbd 88d6 6f3d c835 9d3d d15d c33d
000003d0: 3a43 01be 1c89 d93d ad52 273e c10b 1a3d
000003e0: 0f20 c63d a3a6 96bc 9dba 26be da8f 08be
000003f0: e778 3c3d 65e2 563d 6c14 0f3e fea4 613d
0.11491245 -0.10128148 0.080824144 -0.06313965 0.08991489 -0.10112691 0.15085377 -0.12545347
-0.053888112 0.17541996 0.018734818 -0.088461734 0.15169078 -0.07784458 0.12086337 0.0075042853
-0.12752584 0.06889966 0.032356907 0.13064535 -0.032238215 0.09838561 -0.043649215 -0.117352985
-0.05838165 -0.028577987 -0.13626623 0.17244238 0.04701291 0.04675732 0.028708324 0.09617997
-0.16301036 -0.16240312 -0.12626684 0.07633082 0.0011107152 0.16273826 0.07615641 0.090392515
0.16062729 0.16813216 -0.111856215 -0.12229052 0.09750965 0.10295211 -0.13925485 0.11984217
0.110527456 0.0897642 0.14500085 0.09572245 -0.06292823 -0.15713371 0.0014449345 0.048737373
-0.14131172 -0.10412618 0.06831704 0.107405834 0.15950814 0.11042957 0.13046266 -0.048187584
-0.095346324 -0.05086158 -0.017606447 -0.141587 -0.065079786 0.08829497 0.07177578 -0.060290933
0.14601551 -0.03863971 -0.11446508 0.16855341 -0.04504967 -0.085630685 0.14757381 0.17164163
0.17073743 0.08338156 -0.01303988 0.17555717 -0.154652 0.14249444 -0.11558888 -0.17431416
0.11307024 -0.021533214 -0.16587691 -0.08504159 -0.05688911 0.06565161 -0.1471715 -0.14704
0.1471219 0.017011637 0.10580649 0.014882185 0.09051613 -0.05144156 -0.07297349 -0.013753446
0.114347614 -0.09968131 -0.061465576 -0.019389343 0.1530048 0.16734326 -0.008817821 -0.13595171
0.117844045 0.044521786 -0.1110818 -0.16251186 -0.063532285 -0.1250151 0.032954574 0.03500914
-0.1226637 0.048247993 -0.061872236 0.113668755 0.13067663 0.17604642 0.031795915 -0.15405436
0.08727857 -0.0063046394 -0.17500347 -0.10926805 0.12722328 0.08524706 0.13258772 0.1602271
0.15842576 -0.10306785 0.047325857 0.16921093 -0.052350834 0.114329584 -0.08661743 0.11274668
0.091082245 -0.102860056 0.16897157 0.07624704 -0.14239135 -0.150768 0.098688975 -0.10699707
-0.15239888 0.11672795 -0.11571182 0.09086768 0.021403275 0.0070263185 0.09578194 -0.17187004
0.059254717 0.0010081647 -0.14133054 -0.14573045 0.0909014 -0.017381735 -0.15909821 -0.09237027
0.16536075 0.0366139 0.047004692 0.16641401 0.012419627 0.03538941 0.11275473 0.020867191
-0.018271208 -0.028210714 0.072045386 -0.17213613 -0.037082575 -0.15320326 0.008950418 -0.06884676
-0.056168303 0.15389922 -0.08060636 0.16079251 -0.16311915 -0.034097966 -0.047133535 0.1736429
-0.0016206724 -0.16998017 -0.04201531 -0.08233773 -0.14931288 0.080374345 0.12204161 -0.08955868
0.0062154992 0.15172176 -0.13384244 -0.081946716 0.07849728 -0.03178237 0.1346502 -0.022127971
-0.06033983 -0.17215545 0.030273465 -0.1333766 -0.1539575 0.01629019 0.10825478 -0.064044155
0.042905383 -0.054606967 -0.08866882 -0.06403584 0.08058277 0.05805175 -0.061037727 -0.13589191
-0.112578034 0.151828 0.11220143 0.12769689 0.1383236 -0.0502523 0.09411744 0.106037095
-0.10868725 -0.063045286 -0.11218406 -0.04612221 0.10308438 0.010618382 0.0068604597 -0.017976156
-0.11682473 0.058554202 0.076762736 0.095393784 -0.12623301 0.10621855 0.16340132 0.037608866
0.096740834 -0.018390005 -0.16282125 -0.13336125 0.04601374 0.052462 0.13972634 0.05508899

bias f4 [30]
00000000: 5852 133d 0a3e 74bd a607 90bd 48d3 27bd
00000010: dd89 3fbd f108 af3c d39e 333d 0d1c 4c3c
00000020: 9122 573c 3861 88bd c011 823d e334 2fbd
00000030: 3db5 f73b 4ce8 82bc 4a3c 5fbc 5b8c 3e3d
00000040: 1a59 91bd d954 8e3d 0463 67bd a580 b63c
00000050: 6934 953d 6444 15bd 4b73 a93c b662 20bd
00000060: 93d0 e3bc e4d9 2cbc 249c 8e3c 5a03 9abd
00000070: e395 5e3c f555 66bd
0.0359672 -0.059629478 -0.07032709 -0.040972978 -0.046762336 0.021366568 0.04385264 0.01245786
0.0131308 -0.06659168 0.06351042 -0.042775046 0.007559447 -0.015979908 -0.013625214 0.046520572
-0.07097073 0.06949777 -0.056490913 0.02227814 0.07285387 -0.036442176 0.020684859 -0.039156638
-0.027809417 -0.010549996 0.017408438 -0.075201705 0.0135855405 -0.05623432

att f4 [1, 1, 30]
00000000: 7b17 afbe dad4 87be 1fd2 943e 2adc 093e
00000010: 597c debe af50 083d 9ea3 17be 604c 173e
00000020: e266 0e3e 87d8 f93d 1346 d0be 3ec5 93bd
00000030: 7a0f 40bd 6e1c 7b3e 227a da3e 0552 9c3e
00000040: e08e afbe 4fc2 1cbe 681b 7e3c c338 37be
00000050: 41e3 f5bd 1513 a2bd 564b c5bd 6994 8f3e
00000060: 0dd2 bcbe b25a 42bd 0208 c4be 5c09 4bbe
00000070: ea78 863e 246b 603e
-0.34197602 -0.2652958 0.2906656 0.13462892 -0.43454245 0.03328007 -0.14808509 0.14775229
0.13906434 0.121995024 -0.40678462 -0.07215355 -0.04688976 0.24522564 0.42671305 0.30531326
-0.34288692 -0.15308498 0.015509464 -0.17892747 -0.12006236 -0.07913796 -0.0963351 0.28042915
-0.36879006 -0.047449775 -0.3828736 -0.19827789 0.26264125 0.21915871

bias f4 [30]
00000000: fff2 ad3d 2fe3 79bd ccd6 dcbd e386 87bd
00000010: 7ba9 82bd f12b d6bc 0d45 86bd 8a62 923c
00000020: aa86 12bd c53f cc3d 6efa f9bd 166b 8a3d
00000030: 0e32 46bc 9e79 1fbd 7d4e 3cbd 01c2 d03d
00000040: c225 013d fbc7 313d ebd8 3f3d b223 37bd
00000050: c4b9 35bc fa06 4ebc 3319 adbd 2e76 ae3d
00000060: 224d 35bd c8a2 81bc 6890 61bc 05c2 b03d
00000070: 0a07 80bd a3d5 81bc
0.084936135 -0.061007675 -0.10783157 -0.066175245 -0.06379982 -0.026144 -0.06556139 0.017869253
-0.035772957 0.099731006 -0.12205969 0.06758706 -0.012096895 -0.038934343 -0.04597329 0.10193253
0.03153015 0.043403607 0.04683773 -0.044711776 -0.011091653 -0.0125749055 -0.08452072 0.08518635
-0.044263013 -0.01582469 -0.013767339 0.08630756 -0.062513426 -0.01584894

weight f4 [30, 163]
00000000: 85ae 78bd 4cdf 403e a2bd 10be 56bc 6fbd
00000010: 5096 183d 0c05 e4bd 26ce 2d3d edaa 083e
00000020: e1e3 59bc 2b7e 32be f57f 51bd c685 0c3d
00000030: e761 283e 40f8 e3bd 83bf db3c 7e63 6bbd
00000040: e7e4 89bc 5735 38bc a10d 083e 9202 003e
00000050: d6ec 6cbd 9247 04be 74a4 353e 5542 13be
00000060: e23b ec3d cf81 263e 7846 a9bd 74f4 51bd
00000070: 9330 933d 0a24 283e 917b 82bd 016b 213e
00000080: 83be 1c3d 65d8 32be 593e 3ebe 73ad e5bd
00000090: 7e27 2f3d 2090 62bc 248d 053e a420 22bd
000000a0: 7c9b f0bd 4685 86bd 949f 033e 10ce 123e
000000b0: c498 50bc 7223 173e 020b bdbd 76d1 8f3e
000000c0: e736 19bd 403e 7fbc 3e2e 0a3e 6398 b73d
000000d0: 9838 4a3e 1298 3fbc d5c0 483d 8763 a7bd
000000e0: e687 c13d 09b2 cfbd f43f 923d 339d 28bc
000000f0: 4567 f43d 2bbc f5bc 7047 a6bc 3d7d 5c3d
00000100: f2cb dbbd a18e 11be 16d7 1ebe 6597 d0bd
00000110: c2ab 0d3e f2d9 ac3d 8bf0 88bd 6834 0c3e
00000120: 57cb fd3d a32b 77bd 3f84 2fbe 8cee 04be
00000130: 066f e0ba 668f 8b3d 94e8 113e e281 66bd
00000140: a95c 7f3d f99b 123c 7e6f 57bd 5593 c7bd
00000150: 037c 273e 6b11 3e3e 2432 1dbe d5a4 233d
00000160: a47a bb3d 1b08 0bbb 1f97 143c 1bfa a5bd
00000170: 38f3 2e3e 12e4 1a3e e6c9 d2bd 7082 92be
00000180: 6bfc 3abd 8bca 273e a5f0 4cbe 7954 743e
00000190: 87a4 e93d 2989 f73d e365 fa3d 82e0 993c
000001a0: d90d 803d 12e8 50bd 213f 513e f697 42bd
000001b0: 547b e8bd 47df 4fbe dee6 173d 36cd 183e
000001c0: 7124 b1bd 1c91 18bc 846b 603d 7690 df3c
000001d0: 5dc2 a1bd 2426 2c3d f765 22be 161b c2bd
000001e0: cc84 bd3c 1270 3fbe a307 e0bc f807 653e
000001f0: 776e 163d 293b 0cbb ae12 2c3e 5f3a 543c
00000200: 1c6a 393e 420b 3dbe 13c5 cebd bdb4 d53d
00000210: d1a4 273e 3058 a5bd 36f5 07bd 1f6b 58be
00000220: 5c79 9dbd 3a55 35be 25b0 373e 0b0d 06be
00000230: 63fc 4d3d 99c7 e43d 920c 4d3e ef45 ffbd
00000240: b9f6 03bd ba6a 8dbd ba99 02be c936 403d
00000250: 0a80 873d 24e8 4eb8 88d1 1e3e b542 e83d
00000260: 3da3 553e 8fe3 be3d 4173 0d3e c8c8 b4bd
00000270: 349e 1f3e 6dab eabd c341 19bb 79a9 c03d
00000280: 6e61 8a3d 08d9 db3d c5e3 b53d a2c5 883c
00000290: 01ce 5bbd 5750 c3bd dade 6abd ad57 c7bd
000002a0: b2ca 883d 1765 91bd b652 3dbe e517 c13d
000002b0: 9ba8 45be 5e39 133e eaa5 2ebe 053d 8e3d
000002c0: b557 2bbe 4384 1bbe 012c b93d 067f 133e
000002d0: 59c1 44be b1e4 4f3e bea0 3cbe 522f fbba
000002e0: 2795 833d 7d5b b2bc a32c 2f3c 0187 743c
000002f0: b573 ae3d 223a ac3d 4e07 b23d 7d22 4abe
00000300: 4940 e0bd 636f 30be 076b 1d3e f4f4 103e
00000310: f840 1f3c 113e 94bd 8e8f 0fbe b5e4 5cbc
00000320: 2101 3a3e ea4d 603d 16e0 1b3e 3d2a b13d
00000330: 8b39 a9bd 25be 33bd b136 b7bd d91a b2bd
00000340: 0f5a 8a3c f489 dfbc 55be 3d3d 9ce4 973d
00000350: 4982 65bd 13f7 b43c 679f 1ebe 3e47 4abd
00000360: 9cb9 203e 3e02 0fbe c01d afbd c24f d6bd
00000370: 1355 78bb bdb4 49b8 1ffd 1d3d 2f46 9d3d
00000380: 80ec 863d 9725 3a3d be8a bf3d 78f4 a63c
00000390: d000 ee3d e144 c2bd 77ae 833d 8c1a 463e
000003a0: 146e 0abd 039f 93bc 117d b6bd bc1f 853c
000003b0: 7c6c 713c d024 f0bd 9e04 eebd 9f24 23be
000003c0: 5cf9 f43c c753 1c3e 57c7 833d f675 cf3d
000003d0: 2c8a 023e a7fc bebd 754e 283e dbe8 583e
000003e0: 10fe ac3d d2ce 8fbd 4104 cd3d 73ae 1e3e
000003f0: 5011 ab3d a922 b9bd 3561 713d 54a7 0d3e
-0.06071331 0.18835181 -0.14134839 -0.05852922 0.037252724 -0.11133775 0.042432927 0.13346453
-0.0132989595 -0.17430942 -0.05114742 0.034307264 0.16443597 -0.11131334 0.026824718 -0.05746793
-0.016832782 -0.011243186 0.13286449 0.1250098 -0.05784305 -0.12917927 0.17738515 -0.14380772
0.11534859 0.16260456 -0.08265394 -0.05125852 0.07186999 0.16419998 -0.06371225 0.15763475
0.038267624 -0.1746536 -0.18578471 -0.112147234 0.042762272 -0.013828307 0.13042122 -0.03958191
-0.11748406 -0.06568389 0.12853843 0.14336419 -0.012731735 0.14759615 -0.09230615 0.28089494
-0.037405875 -0.015578806 0.13494202 0.08964612 0.19748151 -0.011693971 0.049012024 -0.0817328
0.09449749 -0.101413794 0.07141104 -0.010291385 0.119337596 -0.029996952 -0.020297736 0.053830374
-0.10732259 -0.14214565 -0.15511736 -0.10185126 0.13835052 0.08440007 -0.06686505 0.13691866
0.123922996 -0.06034435 -0.17140292 -0.12981623 -0.0017122931 0.068144605 0.14248878 -0.05627621
0.062344227 0.00894832 -0.05259656 -0.09744898 0.163559 0.18561332 -0.15351158 0.039952118
0.09154251 -0.0021214548 0.009069233 -0.081043445 0.17084968 0.15126064 -0.10292415 -0.2861514
-0.04565088 0.16385858 -0.20013674 0.23860349 0.11408334 0.12086708 0.122264646 0.018783811
0.06252641 -0.05100257 0.20434238 -0.047508202 -0.11351648 -0.20300017 0.037085406 0.14922032
-0.08649529 -0.0093119405 0.054790035 0.027290564 -0.078984 0.04202856 -0.15859209 -0.094778225
0.023134612 -0.18695095 -0.027347391 0.22366321 0.03672644 -0.0021397567 0.16804 0.01295337
0.18106884 -0.18461326 -0.10096183 0.10434864 0.16371466 -0.08073461 -0.033192836 -0.21134613
-0.07689163 -0.17708293 0.17938288 -0.13090913 0.050289523 0.11170883 0.20024326 -0.12464511
-0.032217715 -0.06905122 -0.12753955 0.046927247 0.066162184 -4.9330425e-05 0.15509617 0.11340848
0.20863052 0.09320747 0.13813497 -0.088273585 0.15587693 -0.11458478 -0.0023385144 0.09407324
0.067568645 0.10734755 0.08881334 0.016695801 -0.053663258 -0.09536808 -0.057341434 -0.0973352
0.06679286 -0.070993595 -0.18488583 0.09428386 -0.19302599 0.14377353 -0.17055479 0.06945232
-0.16732676 -0.15187173 0.09041596 0.14403924 -0.19214381 0.20302083 -0.18420693 -0.0019163883
0.06424933 -0.02177214 0.010691795 0.014924766 0.08518163 0.084095255 0.086927995 -0.19739719
-0.109497614 -0.1722999 0.15372859 0.14155942 0.00972008 -0.07238401 -0.14019606 -0.013482262
0.18164493 0.054761805 0.15222201 0.086506344 -0.082629286 -0.043882508 -0.089459784 -0.08696527
0.016888646 -0.02728746 0.046324093 0.07416651 -0.056032453 0.02209047 -0.15490495 -0.049384348
0.15695804 -0.13965699 -0.08550596 -0.10464431 -0.0037892505 -4.809046e-05 0.038571473 0.07679402
0.065880775 0.045446005 0.09352635 0.020380244 0.11621249 -0.09485794 0.06429761 0.19346064
-0.033796385 -0.018020159 -0.08910573 0.016250484 0.014735337 -0.117257714 -0.116219744 -0.15931939
0.02990406 0.15266334 0.064345054 0.10129921 0.12748021 -0.09325533 0.16436179 0.21182577
0.08446896 -0.0702187 0.10010577 0.15496235 0.083529115 -0.09039814 0.058930594 0.13833362

bias f4 [30]
00000000: 1cb6 35bc 2fd2 3ebd 7939 083d 74db fcbd
00000010: 486a c0bd 4fbb 13bd 095f b9bd caff ddbd
00000020: 1ff2 debd 054c a23d 898c f53d 01e3 4a3d
00000030: 3943 aabc e0a8 61bd c57a d9bc 4aac c53d
00000040: bd4c 823d b057 9cbb b72a 63bd 0628 b23c
00000050: 2781 aabc 3b8c efbc e3a6 dfbd ef25 ae3d
00000060: 47f2 1abd 7eaf a0bd 9a7a 1a3d 3109 44bc
00000070: 7662 623a 647e 0d3e
-0.011090782 -0.046587165 0.033257935 -0.12346545 -0.093952715 -0.036067303 -0.0905133 -0.108398035
-0.10886025 0.07924656 0.119896956 0.049532894 -0.020784007 -0.055092692 -0.026547799 0.09652002
0.06362293 -0.0047711954 -0.055460658 0.0217476 -0.020813538 -0.029241672 -0.10920503 0.08503329
-0.03782871 -0.078459725 0.03771458 -0.011965082 0.00086358876 0.13817745

weight f4 [30, 9]
00000000: a65a 5cbe 9e38 863d 4273 4cbd c59b 593d
00000010: b59e acbe d104 c13e 34b6 4c3d 4db4 c8be
00000020: eda2 1a3d 8b5f be3e bad6 38be 31e0 5b3e
00000030: 7201 9d3e a371 903c 2621 f63d d749 c23e
00000040: 26f1 ffbd 356f 17be 67f2 6d3e be8e c23d
00000050: 1fec f13d 005b 4a3d 8224 8e3e 27ac bdbe
00000060: 293b 96bc 4812 9dbd 59f4 043d 3066 ef3d
00000070: e86c 9b3e eb3f 203e eeeb 08be f9a0 583e
00000080: e86a c0be 6f46 ecbd 031e 553e da7f 92be
00000090: 361c be3e 9dfb b73e d721 01be 4ad3 063e
000000a0: 0aa5 9fbc d279 363e 965c b7be 87ed be3e
000000b0: fc67 67be 8ba6 85be 0881 403e b24c a13d
000000c0: 59f1 a93d 9a3b 163d 6fa4 b8be bab3 fc3d
000000d0: a4db ab3d e232 a33e 6bc8 4a3e efc5 f6bc
000000e0: ec91 46be 5165 983e 38ac a93d fa5f ff3d
000000f0: 82ac ad3d 682e a83e c0fb 093e 4270 c0be
00000100: b004 4d3e 7a87 0abd cc84 9dbe a8a9 353e
00000110: 2846 0ebe b10a 3abe 231a a6be b8fc ad3d
00000120: cfeb 753e 6352 30be 8c96 3a3d 2794 e2bd
00000130: 19c7 b13e 0ad8 acbd 8b52 913c 377b b3bd
00000140: 8f29 32be 3b44 173e caf7 b73e 1478 98be
00000150: 5227 bb3e 8a45 7dbe a26a 033e 2cba 6b3e
00000160: 50c8 a2bd e0da a33e 12b7 983e fc92 83bc
00000170: 17de 08be d7fd a73e 6aa4 82be 26b9 ecbd
00000180: 7158 c03e 03b6 813e a7dc 48be c0e7 75be
00000190: 6837 b6ba 5a42 a23d a409 cbbc 0d4d 323e
000001a0: 1d49 cc3c a24e 56be 4a7c 833e 38a4 173e
000001b0: 0034 47be aa0c 0cbe 5dd9 883e e3e2 273e
000001c0: 0995 643d 319e 2d3b 184f 1c3e 3700 ba3b
000001d0: 8085 b9be 62a8 353e 20e0 62be 4bc7 083d
000001e0: 7943 55bd 5360 c3be 3cbc 0a3d c85a fbbd
000001f0: 46d1 f9bc 8d4f 86be 0145 c33d 5487 76be
00000200: bbfc b2be 2cc1 933e 235b 953e 64a6 9cbe
00000210: 120a b7be 82e9 c33e 2588 b53d 0a10 4fbe
00000220: 8129 88be c905 673d dce3 b6be d5d6 04be
00000230: 8838 bbbe 396e c1be 7370 7fbd 86e1 43be
00000240: bd34 5e3d 346a 83be c434 bd3e db47 9fbd
00000250: 21ff 163e 2ff3 a63e 5cae 843d 71b2 c33e
00000260: 0a0f dabc 9eb2 c43e af8b a43e d023 793c
00000270: 448e 503e 7519 71be 910f b73d 37e0 94bd
00000280: c137 0f3e c80b 3e3e d962 a33c 12db 2abe
00000290: 138d b43e 7cbf 72be 7acc b13e 6ab2 aabd
000002a0: 09bb 3cbe 58b1 2ebd 19d4 1ebe 8bec 34be
000002b0: bb7c 073e a691 863e dd89 cbbd 3e74 a73c
000002c0: e321 8fbd 1ba2 353d 5129 34be dfd9 36be
000002d0: 7411 d73d 1b83 1a3d 3ba6 2ebd 8e2a 933e
000002e0: f56a c2be d70e a2be 3b8c b4be cc91 c33e
000002f0: 858f aabe 935a 813e 4a0e b2be d128 453d
00000300: d6ba 39bd 246a 23be 5280 0e3e e28d a0bd
00000310: ced2 863e 7aec b43e e125 a0be 205a bdbe
00000320: 2824 bdbe 2732 e8bd 9a6c d43d a987 e63b
00000330: c7e0 18be 8531 373e 837d 403c 490e c4be
00000340: 34fa 9fbe b3ea 9c3e 4351 1ebe 92b9 7e3e
00000350: baa6 8c3e c277 353e c2b3 523e 7453 203e
00000360: cccb 8bbd bcc5 fdbd 91d0 993d a9ce 8cbe
00000370: d48d 3fbe 8b4c c6be 4488 2b3d 552a 873e
00000380: aca1 533e 765a eb3d 7f60 42bb 4bf2 1a3d
00000390: 5e16 923c ada0 9b3e e79e 1c3e 8f3d 9d3e
000003a0: 4c43 7bbd 842b 293e f31a 65bd 2327 733e
000003b0: e095 b1be 50a0 51bd 7436 78be f0be 0dbb
000003c0: 734f a7be 9c26 26be 3a20 a6bd ca5b f7bd
000003d0: 1169 aa3e 7fc7 263d 2c66 15be b71b 4dbe
000003e0: a59c 3b3d 2b2a 0c3e e847 443e e76e 9b3e
000003f0: 42f0 003e d751 723d 26d0 4ebe edb7 763e
-0.21518955 0.065537676 -0.049914606 0.05312707 -0.33714834 0.37698987 0.04997845 -0.3920006
0.037753034 0.37182269 -0.18050662 0.21472241 0.30665165 0.017632311 0.12018041 0.3794696
-0.12497167 -0.14788516 0.23237 0.09499882 0.11812615 0.04940319 0.27762228 -0.37045404
-0.018338757 -0.076695025 0.03245959 0.116894126 0.30356526 0.15649383 -0.1337125 0.21155156
-0.37581563 -0.11536872 0.2081223 -0.28613168 0.37130898 0.35934153 -0.12610565 0.13166538
-0.019487876 0.17819908 -0.35812825 0.37290594 -0.2259826 -0.26103625 0.18799222 0.078759566
0.082979865 0.036677934 -0.36062953 0.123389676 0.083915025 0.31874758 0.19803016 -0.030123679
-0.19391602 0.29764798 0.08284801 0.12469478 0.08480169 0.32847905 0.13474941 -0.37585646
0.2002132 -0.033820607 -0.30765378 0.177405 -0.1389395 -0.18168141 -0.32441816 0.08495468
0.24015735 -0.17218928 0.04555373 -0.11063414 0.34722212 -0.08439644 0.017739555 -0.08763736
-0.17398666 0.14772122 0.35931236 -0.29779112 0.36553437 -0.24733558 0.12833646 0.23020238
-0.07948363 0.32002926 0.29827172 -0.016061299 -0.1336597 0.32810852 -0.25516063 -0.11558752
0.37567475 0.25334176 -0.19615422 -0.24014187 -0.001390201 0.07922812 -0.02478487 0.17412205
0.024937207 -0.20928434 0.25680763 0.14808738 -0.1945343 -0.13676706 0.26728335 0.16395144
0.055806194 0.0026491995 0.15264547 0.005676295 -0.36234665 0.17740014 -0.2215581 0.033393186
-0.0520663 -0.38159427 0.03387092 -0.122731745 -0.030495297 -0.26232567 0.09534646 -0.24075061
-0.34958443 0.28858316 0.29171094 -0.30595696 -0.3574987 0.3826409 0.08863858 -0.20220962
-0.26594165 0.056402 -0.35720718 -0.12972577 -0.36566567 -0.37779406 -0.0623631 -0.19128999
0.054249514 -0.25666964 0.3695432 -0.07777377 0.14745761 0.3260741 0.06478569 0.38222077
-0.0266185 0.38417524 0.3213782 0.015206292 0.2036677 -0.23544867 0.08938516 -0.07269328
0.13986112 0.18559182 0.019944595 -0.16685131 0.3526388 -0.23705858 0.34726316 -0.08334811
-0.18430723 -0.042649597 -0.15510596 -0.17668359 0.13231175 0.26282996 -0.09938405 0.02044117
-0.06988885 0.04434405 -0.17593886 -0.17856549 0.10501376 0.03772269 -0.042639 0.28743404
-0.37972227 -0.31651947 -0.35263237 0.38197172 -0.33312622 0.25264415 -0.34776527 0.04813463
-0.045344196 -0.15958458 0.13916138 -0.07839562 0.26332706 0.35336667 -0.312789 -0.36982822
-0.36941648 -0.11337691 0.103722766 0.007035215 -0.14929496 0.17889984 0.011748674 -0.3829215
-0.31245577 0.3064781 -0.15460686 0.24875477 0.27470952 0.17721465 0.20576385 0.15656835
-0.068259805 -0.123912305 0.07510484 -0.2750142 -0.18706447 -0.38730273 0.041878 0.26399484
0.20667142 0.114918634 -0.0029659567 0.037828725 0.017832931 0.30396023 0.15294991 0.30711028
-0.061343476 0.16520506 -0.055933904 0.23745398 -0.34684658 -0.051178277 -0.24239522 -0.00216287
-0.32677802 -0.16225666 -0.081116155 -0.12078054 0.33283284 0.040717598 -0.14589757 -0.20030104
0.045803685 0.13687961 0.19168055 0.3035805 0.12591651 0.05916008 -0.2019659 0.240936

bias f4 [30]
00000000: 8f62 c1bd 7c68 09be 1510 e9bd 50b0 8cbd
00000010: 7668 b83d 2953 68bd 8651 28be a6b5 4d3e
00000020: bc33 17be 1e41 9f3e a22b 2b3e a2af a43e
00000030: 0bc2 7a3e 3337 123e a296 3bbe bc9a 86be
00000040: ea52 85be 3162 063e 9f47 87be 679f 95bc
00000050: 7423 953e e481 8abd f0c6 babd dd1c 14be
00000060: 7979 b13c 7eab 0abe ff1d 953d 3573 8bbe
00000070: aecf 9abd 886c 3a3e
-0.09442627 -0.13418764 -0.113800205 -0.068695664 0.09004299 -0.056719933 -0.16437349 0.20088825
-0.14765829 0.31104368 0.16715863 0.32165247 0.24488084 0.1427887 -0.1831918 -0.26289928
-0.2603982 0.13123395 -0.2642183 -0.018264486 0.2912861 -0.06763056 -0.091199756 -0.14464135
0.021664368 -0.13541982 0.07281112 -0.27236333 -0.07559143 0.18205464

att f4 [1, 1, 30]
00000000: 7859 b0be 735d b4be 57f3 6fbe a3ee 77be
00000010: de04 a33e 9e5d babe c8ae bf3e b706 2cbd
00000020: 069b 79be 493e 1dbe 8780 c43e 3a11 4f3e
00000030: 6f1b 973e 3eb0 11be c4da c43e 5af1 74bd
00000040: 514d a53d d4db 223e b7b5 98be 13eb 8f3e
00000050: c26b c43c 3456 edbe 32c6 813e f5b3 d9be
00000060: 9030 ecbe 06bc 243e 27b8 c5be 34db 88be
00000070: 4517 8b3e 5bc7 e43e
-0.3444326 -0.35227546 -0.2343267 -0.24212126 0.3183965 -0.3639955 0.37438035 -0.04199859
-0.24375543 -0.15355791 0.3837931 0.20221415 0.29513118 -0.14227387 0.38448155 -0.059800483
0.080713876 0.1590417 -0.29826137 0.28109035 0.023977164 -0.4635483 0.25346524 -0.4252011
-0.461308 0.1608735 -0.3861706 -0.2672974 0.2716619 0.44683346

bias f4 [30]
00000000: fff2 ad3d 2fe3 79bd ccd6 dcbd e386 87bd
00000010: 7ba9 82bd f12b d6bc 0d45 86bd 8a62 923c
00000020: aa86 12bd c53f cc3d 6efa f9bd 166b 8a3d
00000030: 0e32 46bc 9e79 1fbd 7d4e 3cbd 01c2 d03d
00000040: c225 013d fbc7 313d ebd8 3f3d b223 37bd
00000050: c4b9 35bc fa06 4ebc 3319 adbd 2e76 ae3d
00000060: 224d 35bd c8a2 81bc 6890 61bc 05c2 b03d
00000070: 0a07 80bd a3d5 81bc
0.084936135 -0.061007675 -0.10783157 -0.066175245 -0.06379982 -0.026144 -0.06556139 0.017869253
-0.035772957 0.099731006 -0.12205969 0.06758706 -0.012096895 -0.038934343 -0.04597329 0.10193253
0.03153015 0.043403607 0.04683773 -0.044711776 -0.011091653 -0.0125749055 -0.08452072 0.08518635
-0.044263013 -0.01582469 -0.013767339 0.08630756 -0.062513426 -0.01584894

weight f4 [30, 9]
00000000: 58cd 9f3d e6fc 773e 4695 8b3c 2903 f93d
00000010: beb3 96be 37e7 713e 8b3c 523a c596 763c
00000020: a2d5 8dbd febc 853a 9910 d3be 81dd 2fbd
00000030: a822 6f3e fcd5 503d 74a4 abbd da5c 5dbe
00000040: 0ae9 cb3d 8921 c1be eda2 403e e629 da3d
00000050: d796 f8be 7e70 2a3e 5a79 a43d 4c2a 9b3e
00000060: d7c5 8d3d faa3 fd3e add1 cdbe 7334 e9be
00000070: e479 16be fc6d 1dbe c972 d13e c8aa b63e
00000080: 2441 2bbd 7fdf 813d 1a72 5d3e 5824 8b3c
00000090: 1006 82be a815 043d 3102 bfbe 74cd a7be
000000a0: dcf5 92bd 2b64 9d3e 3963 32be 4b4a c13c
000000b0: 7c7c fd3e 0f6f ccbe 938e c03e 5691 34be
000000c0: 43f1 b0be 8358 203e 69f6 ad3e 7c4f d53d
000000d0: 083f e1be 59a5 95be 4bec ecbe 9711 d0be
000000e0: 0ebf 68be 14a0 dcba 9bf0 2f3e fc70 3cbd
000000f0: 0729 653e 51da c83e c82f 6ebe bbd5 9fbe
00000100: 0b61 003d 491d 993e cef3 103e aa90 f43c
00000110: f9e3 3ebe 5f69 893e b8c7 a4be 6e17 dcbd
00000120: 368c f8bd 8b8e b83c c651 293e 5330 8ebc
00000130: 269e 56be ef95 973e ddcd 53be 18ea 15bc
00000140: e769 26be 3204 623e 994e f1bd bc8e 7b3e
00000150: 744c ad3e 2e1b 8d3d b51e a5be 53a1 5fbe
00000160: 47df a0bc 74df 6fbe 2a5d 1a3e 7484 c1bb
00000170: e69f 7a3d 64ef d5be f5ff a83e f77f bdbe
00000180: 5643 ce3d 4a2a 803e 759d 23be b314 7a3e
00000190: 7a0d 803e 7b85 83be 2c17 de3b 0872 1fbd
000001a0: 5a05 303e a8fe c6be 6ea3 3dbe c010 633e
000001b0: 29f6 b8bd 5500 b13e ea6b 50be 6b17 9f3e
000001c0: 0de8 80bc 22be 343e 6107 b73c b2da 8cbe
000001d0: e03b 9cbe 1de7 543e 2d0c 583e 4a7f e8be
000001e0: da2e 0cbe a8cb 273d d1f5 be3d 2b34 943e
000001f0: 3e84 683e da1f 183e fefd 4dbe 464c 2b3e
00000200: 5f47 0a3e ee27 4fbe f31a 63bd cfbf 2e3e
00000210: 8919 a93e f3d0 9cbd a3a5 1bbe 315d 183e
00000220: 8734 a53e 35b7 373e 08ca 1ebe ff89 94be
00000230: 4fea 5ebe fbc2 0c3e 81e2 2ebe d618 f83d
00000240: cc5d d13e 0a8e acbd e133 9abe 47a3 7d3e
00000250: e6c1 883c ab70 b43e 42e6 b4be 5027 a83e
00000260: 3b04 a83e e52d 8ebd 4355 44be d8b3 a8be
00000270: 59b3 f5bc f351 afbe 989a bdbe 8c9e 963e
00000280: 527d e33e 0637 c53e 6618 8ebe a71b 133e
00000290: d445 5bbe 8f67 a5be 8df7 cdbd 794b 1e3e
000002a0: 353b dcbd 8702 88be 407c fbbc a7dc 203e
000002b0: dad5 2abe 32f8 52be d88b c5bd 471c dfbe
000002c0: 779e 023e 696c 9cbe 2713 483e 819e 42be
000002d0: 8f4b e53d 7449 c5be 18ee 803e 8281 29be
000002e0: 8c55 a0bc ded2 bd3e c98d 8f3e dfd7 463e
000002f0: b81f dabe ced8 5cbd 61a7 9bbc edcd 2c3e
00000300: 8914 7e3e 173f 38bd fc7a ad3e 3b3a 2bbe
00000310: cae1 2bbe e5f9 4a3e 32e8 f4bc 2956 94be
00000320: 19d8 5d3c 41b2 ce3d 70df 4fbe 0be5 4cbc
00000330: f30b 29be 081c a9bd a922 8ebe fa0d 0bbd
00000340: ff05 32be d7d6 b03e 4b2a 2abe 4eff 90be
00000350: 6ea4 7f3e 7d9f 773e 30df a6be 8f35 583c
00000360: a564 13be 983e b53e 8878 b83e 1c1b 95be
00000370: d1b1 67be df93 c43e fa89 123d 023a a4be
00000380: 7f70 93be 468f d1bd 3cc1 21bc d9bb d9bd
00000390: bf82 993e 5403 6abe 4c90 ad3d 49f1 3ebd
000003a0: ed84 af3e 5615 6ebe 8a3b 3dbe 74ce 4ebe
000003b0: b114 be3d fbcc a13e bbd4 e7bd 310d 6c3c
000003c0: 93f5 283e ef89 a43c bd95 843d 3cac 65be
000003d0: c3c9 933d 7325 a8be 4e85 7e3c 483d abbe
000003e0: 62b7 103e d5e8 f43d be33 803d 1237 eabe
000003f0: 7c28 8e3e f48e 92be 283f 913d ea03 89be
0.07802838 0.24217567 0.017038953 0.12158806 -0.29434007 0.23623358 0.0008019886 0.015050595
-0.06925513 0.0010203419 -0.412236 -0.042935852 0.23353064 0.05098532 -0.08380976 -0.21617451
0.09956558 -0.37720898 0.18812151 0.10652523 -0.48552582 0.16644475 0.080309585 0.30305707
0.069225006 0.49539167 -0.40199032 -0.45547828 -0.14694935 -0.15373987 0.40907887 0.3567717
-0.04181017 0.063414566 0.21625558 0.016985103 -0.2539525 0.032247216 -0.3730636 -0.32773936
-0.071758 0.30740485 -0.17420663 0.023594996 0.49509037 -0.3992848 0.37608775 -0.17633566
-0.34559068 0.15658765 0.3397706 0.10415551 -0.43993402 -0.29227713 -0.46274027 -0.4063842
-0.22729132 -0.0016832375 0.17181627 -0.046006188 0.22378932 0.39229062 -0.23260415 -0.3121775
0.031342547 0.29905155 0.14155504 0.029854137 -0.18641652 0.26838204 -0.32183623 -0.10746656
-0.12136118 0.022528907 0.165351 -0.017357027 -0.20958766 0.29606578 -0.20684 -0.009150051
-0.16251336 0.22071913 -0.117825694 0.24566168 0.33847392 0.0688995 -0.3224999 -0.21838884
-0.019637717 -0.23425084 0.15074602 -0.005905682 0.061187647 -0.41784203 0.3300778 -0.37011692
0.10071437 0.25032264 -0.15978034 0.24421959 0.25010282 -0.25687775 0.0067776646 -0.038927108
0.17189541 -0.38866162 -0.18519375 0.22174358 -0.09031326 0.34570566 -0.20353666 0.31072554
-0.01573565 0.17650655 0.022342386 -0.275106 -0.3051443 0.20791288 0.21098395 -0.45409614
-0.13689747 0.040965706 0.093242295 0.2894605 0.22706696 0.148559 -0.20116422 0.16728315
0.13503788 -0.20230076 -0.055445623 0.17065357 0.33027294 -0.076570414 -0.15199904 0.148793
0.32266638 0.17940982 -0.15506756 -0.29011533 -0.21769069 0.13746254 -0.17078592 0.12114112
0.40891874 -0.08425529 -0.30117705 0.24769317 0.01669402 0.3524221 -0.35331923 0.32842493
0.32815728 -0.069423474 -0.1917315 -0.3294971 -0.029992746 -0.3424221 -0.37032008 0.29417837
0.4443155 0.38518542 -0.2775299 0.14366017 -0.21413356 -0.3230557 -0.10056982 0.15458478
-0.1075348 -0.26564428 -0.030698895 0.15709172 -0.1668314 -0.20602491 -0.09645814 -0.4357626
0.12755762 -0.3055146 0.19538556 -0.19005777 0.11196052 -0.38532603 0.2518165 -0.1655331
-0.019572042 0.3707494 0.2803786 0.19418286 -0.42602324 -0.0539177 -0.01900071 0.1687543
0.24812521 -0.044982042 0.33882892 -0.16721432 -0.1678535 0.1982189 -0.029895876 -0.28971985
0.013540291 0.10092593 -0.20300078 -0.01250578 -0.16508465 -0.082573 -0.2776082 -0.033948876
-0.173851 0.3453891 -0.16617696 -0.28319782 0.24965069 0.24181934 -0.32592154 0.013196363
-0.14393862 0.35399318 0.36029458 -0.29122245 -0.22626425 0.38394067 0.035776116 -0.32075506
-0.28796765 -0.10232405 -0.009872731 -0.10631532 0.29982564 -0.22852832 0.08474788 -0.046616826
0.34281102 -0.23250327 -0.18479744 -0.20195943 0.0928129 0.316017 -0.11319872 0.014407442
0.16499929 0.020085303 0.06473873 -0.22428983 0.07216217 -0.3284107 0.015534712 -0.3344519
0.14132455 0.11958472 0.06259869 -0.4574514 0.27765262 -0.2862469 0.07092124 -0.267608

bias f4 [30]
00000000: 5910 91bd 6f1e b0be f96f 7bbe 92fc debb
00000010: b589 f4bc 6af2 d4bc 07f2 a3be 0d13 13be
00000020: 31c7 7a3e 97bc 40be 5943 75bd 5e0b 9bbd
00000030: 983f c5bd 8df4 113e 1b2d c0bd 6840 833e
00000040: 96cc 6e3d 89c5 813e f9bd 60be e37c 07be
00000050: f6fb c8bd 906c 4ebe 2627 793e 344e 8a3e
00000060: 19be afbd 8a57 063e 9fbe 823e d391 f3bd
00000070: ed59 0c3e 6810 4bbe
-0.07083196 -0.3439822 -0.24554433 -0.006805011 -0.02985082 -0.025994498 -0.3202059 -0.14362736
0.24490048 -0.18821941 -0.05987868 -0.075705275 -0.0963127 0.14253445 -0.09383603 0.25635076
0.058300577 0.2534602 -0.21947469 -0.13231234 -0.09813683 -0.20158601 0.2433134 0.2701279
-0.0858118 0.13119331 0.25536057 -0.11893048 0.13706179 -0.19830477

weight f4 [30, 9]
00000000: f6b8 873d 5590 ecbd 4f7e 8cbe 9c7d cb3d
00000010: 47ed 90be bd06 073d cae9 943d 0057 af3e
00000020: a817 5abe 5d20 323e f469 9a3e fcac 07be
00000030: eb60 e7bd 8748 263e 1372 f4bd b1cd 263d
00000040: 2d4e 28be 3090 b93b a75b b1be a9fc 25be
00000050: 1af4 50be 85d3 a2be 4132 9a3d 3298 8c3e
00000060: d33f 32be 21c6 40be ef8e 2f3d 3362 9a3e
00000070: ea17 3bbe 8d51 3f3c 1adb 81bd cf0e fb3d
00000080: 6142 57be c1b1 b4be 35db b1be e8b8 45be
00000090: 8707 973e c45a e9bc b76e a53e 6dcd 02be
000000a0: 5be3 4ebd f6a5 933e 3729 95be 3c7f 58be
000000b0: cc41 a9bb 2379 8dbe 3865 903e 82cb 6c3e
000000c0: 6ef0 bfbe 8499 94be 4163 453e cfa0 1d3d
000000d0: dbcf b23d 2e00 06be 8a8c 8fbe c5b5 0cbe
000000e0: be03 b9bd b49a 853e e511 aa3e a717 ab3e
000000f0: ef55 6fbe 95e2 0b3e 1de9 be3c f594 c3be
00000100: 93f7 af3e b84f 93be f780 c4be 1a61 c5be
00000110: 33b1 0d3e 4637 163e 40dc 9b3e 8a88 92be
00000120: e825 16bd cf66 b9be a961 5ebe 387c 833d
00000130: 9ae3 bf3e c0f3 3bbe df98 45be 9343 c2be
00000140: 26c1 c03e 88f2 253e 4e03 c93e 2c86 1c3e
00000150: 8ba4 633e 1132 ad3e f3ef 90bd 9508 883e
00000160: 84bf 77be d23d a7be 5e46 f1bc f5f4 923e
00000170: d8e8 b0be 18a9 37be a628 b83d b356 c63e
00000180: 095f 96bd d72d 8ebe 2ed4 e4bd 7c74 fbbd
00000190: 1a2e 21be 68ff 53bc 747c aabe 7331 7cbd
000001a0: 9985 adbd 9395 513e 846f 4bbd 61c5 203e
000001b0: 94c1 ad3c 0d3f 7bbe 07c0 c4be 9336 113d
000001c0: e105 173c 0792 cd3d f75b 173e fd68 243e
000001d0: bf71 45bd 808e a93e 931e 7dbe c176 543e
000001e0: 866b 903e c551 bebe 3bc8 0dbd fcab a93e
000001f0: eff0 c13d 67f0 d63d 56d5 d73d 6d9d 3fbe
00000200: 2510 c73e 5f79 d0be d259 aebe 80cb 003d
00000210: f63c eabd f8d2 a03e 3122 82be 1c47 11be
00000220: 3ad3 ee3d c3f9 fcbd c2ad 9c3d 6993 55be
00000230: ac1b 083e e3ce 803e 287c a3bd 2643 86be
00000240: 0fe8 9f3e ba36 9d3e f693 adbd a671 4dbc
00000250: 0d32 fbbd 7743 383e d5aa 1d3e ff53 103e
00000260: 2615 833d fefa 073b c884 223d ee87 b93d
00000270: ae64 983e 41d4 ad3e 4ae3 3a3e 9b46 c4be
00000280: 9f88 883e 14b8 a4bd c390 4cbe 0728 84be
00000290: b825 483c 75cd 163e 34a7 113c c030 47be
000002a0: 93c8 533e f84a ab3d e708 89bd 0600 9cbe
000002b0: 919b a63d 9846 73bd 2ff0 b3be 0f4a 8b3e
000002c0: 0483 b83e 0be2 443e 459c 043e d1d0 583c
000002d0: 8b2e 9bbd 14e7 7d3e f2db 05be 5075 75be
000002e0: e705 6e3d b475 9f3d 699d 85bd 3a7c cebd
000002f0: 5a79 8d3d 0728 883e 5026 da3d 0501 403e
00000300: 4393 9ebe 2ef8 833d 51a0 473d 2875 51be
00000310: f429 88bc 1e9d 4abe 7988 8d3d f559 8dbe
00000320: 858a 9cbe a722 f03d 3e90 0a3e 5e68 ab3e
00000330: 0d47 773e 8dae 38bd 46fd dd3d 5193 aa3d
00000340: 6a35 37be 9de8 983d 4ba2 eb3d 93cb 6b3e
00000350: adec 023d 0d5c 0fbe 5e4f b33d d7a2 353b
00000360: 0dca e63b 0680 373e f986 93be e538 c03e
00000370: c200 b23b 665c d9bd 60b6 a93e 9853 12be
00000380: 8f2b 4cbe 4161 793e 836e 23be a163 773e
00000390: 4649 82be 90e3 19be b678 51bd 7e4e a1be
000003a0: 2af1 c73e b09e 80be cc8b f6bd ca7e 89be
000003b0: 6340 3cbe df24 cf3d 5b2a 66be f3b4 d8bd
000003c0: 8c31 87bd 10ab 8e3e ee57 1abe 67fa a03e
000003d0: 9b84 e53e 7b69 29be 3186 9b3e 8316 0a3e
000003e0: 4c5c 9d3e a075 243d 5e14 aebe bf8b 333e
000003f0: 5f99 25bd 58de 5fbe 54cb ffbd 7cc1 83be
0.066270754 -0.11550967 -0.27440116 0.099360675 -0.28306028 0.03296541 0.07271154 0.34246063
-0.21298087 0.17395158 0.3015896 -0.13249582 -0.112977825 0.16238604 -0.119358204 0.040723506
-0.16436072 0.0056629404 -0.34640238 -0.16209663 -0.20405617 -0.31802002 0.075291164 0.27459866
-0.1740716 -0.1882558 0.04286092 0.30153045 -0.18270841 0.011677158 -0.063406184 0.12258684
-0.21021415 -0.35291865 -0.34737554 -0.19308817 0.2949793 -0.028485663 0.3231103 -0.12773676
-0.05050979 0.28837556 -0.29133007 -0.21142286 -0.0051653143 -0.27631482 0.28202224 0.23124507
-0.3748812 -0.29023373 0.19276144 0.038483437 0.087310515 -0.13086006 -0.2803691 -0.13741215
-0.09033917 0.26094592 0.33216777 0.33416483 -0.23372625 0.13660653 0.023304516 -0.38199583
0.34368572 -0.28771758 -0.38379642 -0.38550645 0.13837127 0.14669523 0.30441475 -0.28619796
-0.036657244 -0.3621125 -0.21716942 0.06420177 0.37478334 -0.18354702 -0.19296597 -0.3794218
0.3764736 0.162058 0.39260334 0.15285558 0.22230737 0.3382726 -0.07077017 0.26569048
-0.24194151 -0.32664353 -0.029452499 0.28702512 -0.34552646 -0.17935598 0.08992128 0.3873802
-0.07342345 -0.27769348 -0.111732826 -0.12278077 -0.15740243 -0.012939312 -0.33298075 -0.061570596
-0.08472747 0.20467214 -0.049666896 0.15700294 0.02121047 -0.2453577 -0.38427755 0.035452437
0.00921771 0.10037618 0.14781176 0.16055675 -0.04820418 0.3311653 -0.24718694 0.20748426
0.28207034 -0.3717176 -0.034614783 0.33139026 0.094697826 0.10495072 0.105387375 -0.18712397
0.38879505 -0.407176 -0.34052902 0.031444073 -0.114374086 0.31410956 -0.2541671 -0.14187282
0.11661382 -0.12352326 0.07650329 -0.20857014 0.13291806 0.25157842 -0.07982665 -0.26223105
0.31231734 0.30705816 -0.08475487 -0.012539303 -0.12265406 0.17994486 0.15397198 0.14094542
0.06400518 0.0020748968 0.03967741 0.0905913 0.29764313 0.33951 0.18250766 -0.38335118
0.26666734 -0.080429226 -0.19977097 -0.25811788 0.012216024 0.14726813 0.008889962 -0.1945219
0.20681982 0.083639085 -0.06691151 -0.30468768 0.08135141 -0.059393495 -0.35144183 0.2720494
0.36037457 0.19226854 0.12950237 0.013233379 -0.07577237 0.2479518 -0.13072184 -0.23970532
0.058111098 0.07786122 -0.06524164 -0.10082288 0.069079116 0.26593038 0.10651839 0.18750389
-0.30971727 0.06443821 0.048736874 -0.20454848 -0.016621567 -0.19786498 0.06910796 -0.27607694
-0.30574432 0.117253594 0.13531587 0.33478063 0.24148197 -0.04508834 0.10839324 0.083288796
-0.1789147 0.074662425 0.11505564 0.23026876 0.031963993 -0.13999958 0.087553725 0.0027715468
0.0070431293 0.17919931 -0.28813913 0.37543407 0.0054322192 -0.10613327 0.33146954 -0.14289701
-0.19938491 0.24353506 -0.15960126 0.24159099 -0.25446528 -0.15028214 -0.05114051 -0.31505197
0.3905118 -0.2512107 -0.12038383 -0.26854545 -0.18383937 0.101144545 -0.22477095 -0.10581388
-0.06601247 0.27864885 -0.15072605 0.31441042 0.44827732 -0.16544144 0.30375817 0.1348515
0.3073448 0.04015124 -0.33999914 0.17533778 -0.04042947 -0.21862161 -0.12489954 -0.25733554

bias f4 [30]
00000000: ddaf e8bd ceb6 373d 1697 37be 57ad e9bd
00000010: 37c6 03be 825e 723e 9a0d 043e 5f0f 90be
00000020: 2924 3cbe 79f7 193d cf8e 793e 675a e7bc
00000030: b6ca 8b3e 60f9 1e3e 1bc7 10be 8ac6 b2bc
00000040: 9984 27bd 9af1 a1be 6d43 9d3e 0686 4b3e
00000050: d801 10be 41db 913e 82e1 53be 0090 01be
00000060: 5625 fcbd f2dd 1b3e 5f6f 8a3d 8f12 bb39
00000070: 12bd 82be a99c a1be
-0.11361668 0.04485207 -0.17928728 -0.11410015 -0.12868582 0.23668864 0.12895814 -0.28136727
-0.18373169 0.037589524 0.24370883 -0.02824135 0.27303094 0.15524817 -0.14138453 -0.021823186
-0.04089794 -0.3162964 0.30715504 0.19875345 -0.14063203 0.2848759 -0.20691493 -0.12652588
-0.12311809 0.15221384 0.067595236 0.00035681247 -0.25534874 -0.31564835

att f4 [1, 1, 8]
00000000: 029a 07bf c002 2dbd 000e 17bc 30d5 423e
00000010: c471 3f3f b8d0 4fbf d0c0 1ebe d029 623e
-0.5296937 -0.04223895 -0.009219646 0.19026637 0.7478297 -0.81177855 -0.1550324 0.22086263

bias f4 [8]
00000000: d45f 0b3d f6e6 0bbe e469 55bd 75d3 a8bd
00000010: 4b8c 8ebe 984c f83d 51cc c73d 2d98 073c
0.034026936 -0.13662323 -0.05210294 -0.08243457 -0.2784141 0.12123984 0.09755767 0.008276028
