model/gnn/240930_5_best/epoch_1.pt (torch, 405614 bytes, 55 tensors)

att f4 [1, 2, 10]
00000000: 07ba 523c 22cd 633b bca0 04bc ec9f 273c
00000010: 7101 9f3b 66e2 3bbc 684c b83b 2862 4cbc
00000020: 8e66 243a 6d6b dfbb 3306 2abc dee5 02bc
00000030: 6fa3 323a a867 2f3c a3ce 053c 1fa0 9abb
00000040: 1ff1 62bc 38bf caba 810e b23b b07a 89ba
0.012861735 0.003475972 -0.008094963 0.010230999 0.0048524668 -0.011467552 0.0056243427 -0.012474574
0.00062713854 -0.006818226 -0.010377455 -0.007989375 0.00068145146 0.010705866 0.008166942 -0.004718795
-0.013851433 -0.0015468365 0.005433858 -0.0010488834

bias f4 [20]
00000000: d494 a0bb ddc9 a9bb 601b a2bb b971 95bb
00000010: 5e01 3cbd ff5a d8bb fafc 9dbb 40c6 abbb
00000020: 23c6 6ebb 41fe 8dbb e3b6 23bb 8973 94bb
00000030: d8db 78bb 83ce a7bb 3e9f b2bb ec0a 86bb
00000040: 0fd0 b0bb ffc6 85bb deb2 62bc c61f d9bb
-0.004900554 -0.0051815347 -0.004947111 -0.004560676 -0.04589974 -0.0066026445 -0.004821417 -0.005242139
-0.0036434017 -0.004333288 -0.0024980835 -0.0045303744 -0.0037972834 -0.0051210537 -0.005451112 -0.0040906575
-0.0053958963 -0.00408256 -0.013836591 -0.006626102

weight f4 [20, 163]
00000000: 02d2 06bc ec76 ddbb 0014 cebb 63ab 03bb
00000010: 7f5d e1bb e875 f4bb 7337 b6bb da31 d3ba
00000020: c1e3 03bc 69cb 7dbb e168 86bb fdf6 d0bb
00000030: 9241 afbb 5d59 0dbb a3c5 68bb bf79 bfbb
00000040: 11c6 85bb 9b86 dcba 987b c3bb 6544 9abb
00000050: 3a75 08bb 498b 13bc ce33 00bc af9f e4bb
00000060: 93f5 11bc f84f 9d3a 5a4d b4bb edc7 4bbb
00000070: 831d 44bb b7f8 a4ba 34f8 ebbb 83eb c0bb
00000080: 43d1 00bc 9bc1 bfbb c536 01bc b7cf 04bc
00000090: c5ca 8bbb 2ef8 dbbb 05f9 56bb c57d a7bb
000000a0: 8530 3bbb 54bb 15bb 6525 27bb cb5c e8bb
000000b0: ef6b c4bb 2b6f f9bb 5402 27bb 05f8 e2ba
000000c0: 6d70 9fbb 0af7 7fbb 5203 0abc 8517 cfbb
000000d0: 0177 02bc 5351 2bbc ee05 eaba 183b afbb
000000e0: 6f7a 60bb 9be7 25bc 8eb6 91bb eded f1bb
000000f0: 0b58 38bc 3d1e a73a ad53 64bb 5c38 c5bb
00000100: 1740 433b 7e09 1bbc ea8b 65bb 0359 38bb
00000110: e1c6 b4bb ab1f 1ebc 95f4 1b3a 643d 2db9
00000120: b7a5 22bc 18cc 0b3b 4cec 5dbb a1c9 a1bb
00000130: 5860 0d3b 2dbc e739 8a0c 99bb 71c7 cebb
00000140: b050 03bc e0c4 8abb 52fb 1ebb 5973 033a
00000150: 6a3d 50bb 144f 6939 145f b0bb 576b 323a
00000160: 266a 4abb a077 ec3a a3e3 75bb 44ce 88bb
00000170: b768 83bb 5f32 f9bb dd6d e6bb 53f2 23bc
00000180: 3e63 07bc 158b df3a 22c0 f3bb 758f 91ba
00000190: 80e1 a6bb 7ed7 72bb eee2 eabb 32ef dabb
000001a0: 55c9 41bb 6cc7 cebb a4c2 fbbb 276c 63bb
000001b0: 96ee e7bb 60ba 52bb d439 d1bb b584 bebb
000001c0: cf62 afbb 0980 c73a c8fd ca3b e2dc 57bb
000001d0: 5986 a037 78ac d9b8 bca7 1fbb 1d08 c139
000001e0: d560 63ba 1be5 55bb c370 f2bb 77bb 0cbc
000001f0: b311 84bb a227 6dbb 23a6 c6ba 73d7 3fbb
00000200: fa95 c4bb fcd9 a5bb 15cb a43a 3fe5 0d3b
00000210: 00fe 013a e3c3 92bb 23fe 02bc 471f 0bbc
00000220: ae25 c2bb cc66 3fba e97d cdbb 702c acbb
00000230: b9e7 13bb 07c6 09bb 663c afbb 5ac6 63bb
00000240: 3062 e3ba dde1 30bb 7563 b5bb d9a6 52bb
00000250: 2112 8cbb d28b b2bb 4db6 6dbb 9e62 06bc
00000260: 5e0a a3bb 9076 f3bb 3003 afbb 6cfb c0bb
00000270: 0d21 63bb 1f3f 14bc 54d6 78bb 313c 73bb
00000280: 6185 09bc 1786 d5bb 77a0 2fbb 4dfb 9cbb
00000290: c3b2 ebbb 64be 8bbb fa55 f1bb 17c8 01bc
000002a0: 4b09 2fbb 29c4 ddbb 4b7d c1bb 3aec e1bb
000002b0: cf0e bbbb ed74 9bbb 3e53 01bc 43d0 8ebb
000002c0: 8315 17bb 1974 b9bb 1058 59bb f325 1abc
000002d0: f54e d2bb 78bd 8fba 804f bebb 648e 03bb
000002e0: 5353 ecba e23d 94bb d060 a3bb 614d 32bb
000002f0: 616d 523a c80e e5ba 6e2d aa3a a531 b7bb
00000300: d25c f6bb 7aed 8abb 363d e93b 66ff a6bb
00000310: d87f e0bb 297a e4ba cd24 ccbb 8ade eebb
00000320: f9a6 05bc 48ac a6bb fb75 b0bb ebe0 7dbb
00000330: 06a0 2fbb 11f3 d5bb 88b0 d8bb 4535 a2bb
00000340: 002e a9bb e594 81bb 8e69 86bb acb3 1bbb
00000350: 0732 87bb 299a 5abb 4510 f6bb 3c26 4abb
00000360: 2cf1 9dbb 4f98 04bb 4a32 e2bb f1b4 abbb
00000370: a17a 69bb f37a e9bb e0c4 10bc c1e6 afbb
00000380: 6c17 3abb 540f c1bb 1e3e 41bb bacd 583a
00000390: 07de a3bb 2a97 80bb e44e a73b aab5 163c
000003a0: 6c6a dfbb 944b 053b 79b6 84bb bea3 bebb
000003b0: 61f7 08bc 3559 4d3b d80f b73b 4946 45bb
000003c0: cf12 543b fd92 59bb 28a7 80bb 7f8a 7fbb
000003d0: 9526 7abb 7f29 f5bb 7fc7 1d3b af42 33bb
000003e0: 7f5e 1fbc a717 07bc c43b 973a 62e3 143b
000003f0: 5a10 d5ba c37a 9bbb 34ea d3bb ca70 efba
-0.008228781 -0.0067585614 -0.0062890053 -0.0020091168 -0.0068776007 -0.0074603446 -0.0055608093 -0.0016112879
-0.008049906 -0.0038725978 -0.004101858 -0.0063770995 -0.0053483928 -0.0021568157 -0.0035518191 -0.0058433707
-0.0040824492 -0.0016824784 -0.0059656613 -0.0047078603 -0.0020821826 -0.009005376 -0.007824851 -0.0069770436
-0.008908647 0.0012001982 -0.005502385 -0.0031094507 -0.0029924817 -0.001258633 -0.007201219 -0.00588745
-0.007862392 -0.005851937 -0.007886593 -0.008106164 -0.0042661154 -0.006712935 -0.0032802236 -0.0051114284
-0.0028562855 -0.0022847252 -0.0025504467 -0.00709114 -0.005994312 -0.007612129 -0.0025483565 -0.0017316347
-0.004865697 -0.003905716 -0.008423643 -0.0063199424 -0.007962943 -0.010456401 -0.001785455 -0.0053476207
-0.0034252664 -0.01012602 -0.004446811 -0.0073830993 -0.01125146 0.00127501 -0.0034839914 -0.0060186815
0.002979284 -0.009462712 -0.0035026022 -0.0028129227 -0.0055168723 -0.009651105 0.00059492263 -0.00016521435
-0.009927205 0.0021331366 -0.0033862768 -0.004937366 0.0021572318 0.00044199955 -0.004670684 -0.0063103964
-0.008014843 -0.004234895 -0.0024258685 0.00050144416 -0.0031774887 0.0002225007 -0.005382428 0.0006806156
-0.0030886023 0.0018041022 -0.0037519715 -0.0041749794 -0.0040102857 -0.0076048817 -0.0070321397 -0.010006505
-0.008263407 0.0017055 -0.0074386755 -0.0011105376 -0.0050927997 -0.0037054713 -0.0071681654 -0.0066813463
-0.0029569466 -0.006310394 -0.007683115 -0.0034701915 -0.007078002 -0.0032154545 -0.0063850675 -0.0058141598
-0.005352355 0.0015220653 0.006194804 -0.0032938053 1.9136047e-05 -0.00010379491 -0.0024361452 0.00036817873
-0.0008673792 -0.0032637778 -0.007398696 -0.008589617 -0.00403043 -0.0036186953 -0.0015155714 -0.0029272705
-0.005999324 -0.005061386 0.001257273 0.0021651534 0.00049588084 -0.004478918 -0.007995161 -0.008491344
-0.005924902 -0.00073013897 -0.006271113 -0.005254321 -0.0022568537 -0.0021022575 -0.005347776 -0.0034755678
-0.0017347988 -0.0026990094 -0.005535538 -0.0032142906 -0.004274622 -0.005448797 -0.003627199 -0.008202223
-0.004975601 -0.0074299052 -0.005340956 -0.005889347 -0.003465715 -0.009048252 -0.0037969546 -0.0037114734
-0.008393616 -0.006516229 -0.0026798525 -0.0047906996 -0.007192941 -0.0042646397 -0.0073649855 -0.00792124
-0.002670842 -0.006767769 -0.0059048287 -0.0068946155 -0.0057085524 -0.0047441632 -0.007893382 -0.004358323
-0.0023053593 -0.005659592 -0.0033164062 -0.009408462 -0.006418104 -0.00109665 -0.005807817 -0.0020073885
-0.0018030204 -0.0045239786 -0.004985906 -0.0027206766 0.0008027163 -0.0017475719 0.001298351 -0.005590635
-0.0075183893 -0.004239735 0.0071178926 -0.005096364 -0.0068511777 -0.0017431426 -0.006229973 -0.0072897123
-0.008157485 -0.0050864555 -0.005385158 -0.0038738798 -0.0026798262 -0.00652922 -0.006612841 -0.004950198
-0.0051629543 -0.003954517 -0.0041019386 -0.0023758216 -0.004125837 -0.0033356047 -0.0075092637 -0.0030845543
-0.0048200097 -0.0020232385 -0.0069029676 -0.0052400758 -0.003562607 -0.0071252524 -0.008836001 -0.005368084
-0.0028395308 -0.00589172 -0.0029486488 0.0008270402 -0.005000833 -0.00392427 0.00510584 0.0091985855
-0.0068181064 0.0020339238 -0.0040500727 -0.0058178594 -0.008359761 0.003133369 0.0055866055 -0.0030101708
0.0032359844 -0.0033199184 -0.0039261766 -0.0038992462 -0.003816997 -0.0074817534 0.0024075208 -0.002735298
-0.0097271195 -0.008245385 0.0011538197 0.0022718539 -0.0016255483 -0.004744859 -0.006467128 -0.0018267867

bias f4 [20]
00000000: fc52 7fbb b920 8cbb 0bc6 5fbb 6438 72bb
00000010: 9080 39bd 81d1 cebb bd30 c6bb 5818 bcbb
00000020: b4f9 8fbb 79b1 a8bb 7a75 7cbb 248c 95bb
00000030: 8942 53bb cdbb 91bb 6185 9bbb f5e3 a1bb
00000040: b3de c0bb eedb b7bb 6b57 5cbc 9798 b4bb
-0.0038959375 -0.004276362 -0.0034145142 -0.003695988 -0.045288622 -0.006311596 -0.0060482905 -0.0057402067
-0.0043937806 -0.0051481095 -0.003852217 -0.004563825 -0.0032235703 -0.0044474364 -0.0047461246 -0.0049405047
-0.005885923 -0.0056109345 -0.013448576 -0.005511354

weight f4 [20, 163]
00000000: 58b8 0ebb 014f d5ba 820b 5c3b 96f6 19bb
00000010: 5d5f 92b9 b916 683b 8991 18bb af3f 123b
00000020: 8d6d ba38 0122 beba 9143 65bb d4c2 063b
00000030: 1649 a2ba a808 443b b05f b63a 2c4f 59bb
00000040: ff9e c539 47aa 173b 9b4b 933a 1207 53ba
00000050: 40c5 0a3b 87c3 8e3a 7a61 403b dbc5 cfba
00000060: 44c1 b8ba 09f9 91ba c389 423b 282f 403b
00000070: df24 333b 64d5 c2ba f52e 2c3b 2538 87ba
00000080: db17 743a 3cae bdba a8b9 3cb9 d38d 073b
00000090: c19b ce39 7156 d0b8 6517 31bb 6af1 f9ba
000000a0: edf4 99b9 7620 5a3b 4227 463b 5a02 ab3a
000000b0: f679 e23a 1324 8eba 0297 56bb ae94 22bb
000000c0: 20fd df3a 0971 9438 fe8f 4ebb a995 093b
000000d0: 3551 1a3b e303 3e3a 6745 91ba aab9 673b
000000e0: 7d3a c13a 8f0d 103b 06eb 5039 ee8d dab9
000000f0: f988 dd3a 6a83 98ba ec2d 413b da00 123b
00000100: 3a88 47bb 3e36 823a f185 0cbb 6d56 30bb
00000110: 02e6 4e3b 71b8 21bb d85e 153b a8ad 9f3a
00000120: df6d 37b9 372f 11bb 212d 0bba 6fd8 673b
00000130: 5040 a839 ba01 35bb 9e61 35ba 9aee 1cbb
00000140: 8775 01bb 4b76 fc3a ddbb 01ba 49be 44ba
00000150: 8cf4 51b9 48a2 31bb 1f85 81ba 6877 a4ba
00000160: 6ba3 47bb 2b24 ec3a 92db 043b 8b44 5d3b
00000170: ef0c 433b ec7f d5b8 e5c1 c13a 407f b1b8
00000180: 783d 443b 7756 8b3a 8b3d a73a cadc 53bb
00000190: a09a 58bb 8bdc 983a 906a 343a eebd 4d3b
000001a0: 0b6a da3a 091b 88ba f7a8 9bb9 986a 1fbb
000001b0: 63b3 4a3b ea3f 223b 1c32 3bbb b28d 95ba
000001c0: f29b f7ba 7aac 3cbb 8f1c 193b 7d41 603b
000001d0: c1d8 cc3a a504 50bb 1eeb 60bb 558a 13ba
000001e0: 9617 0fbb 424b 86b8 a78d 2c3a 2429 453b
000001f0: 2b31 3bbb 3814 433b db05 d63a 2b1f 97b9
00000200: b8cd b6b7 9c35 a83a b7b3 3a3b 2134 54b9
00000210: 4825 f63a 2c74 e23a f7b9 c1b8 cc76 203b
00000220: 908e 443a e8df bf39 4eff abba 26ad b3ba
00000230: f1d6 103b d1c1 223b f422 10bb b853 35bb
00000240: 5a44 34bb c4ab 483b 2536 e43a 2a49 25bb
00000250: ca7f d7ba 5d4b 9839 792b 363b 531e 67b9
00000260: 2d04 bab9 7923 ff3a 1bc9 cd3a 343e 673b
00000270: ec0c e7ba b17f 1c3b ad9e 3bbb f315 5539
00000280: ec1e ac3a 863c 84ba 43ed b0ba fb3a 6fba
00000290: cff8 1c3a 1b22 813a be38 0c3b 683f 13bb
000002a0: a770 9aba 146e 273b 5d46 b33a 15d6 27ba
000002b0: d9ca a7ba 9f3a cc3a a11f a039 2424 4ebb
000002c0: d551 5f3b ec1d 31bb 5466 913a 6091 7139
000002d0: d206 4f3a 09e9 41bb a2f8 2d3a 31c4 123b
000002e0: 8e27 4c3a 5b20 29bb bad8 caba 49bc 9f3a
000002f0: 0bbe 733a aa45 bbba c6f3 4539 327d 033b
00000300: cf6f 27bb f209 30ba 244d 163a f2b7 7cba
00000310: 8d27 3a39 46e6 8cba addd 46bb 1518 de3a
00000320: ffc6 4a3b 721f cdba ef39 33ba dfa3 01ba
00000330: a9c3 0c3a ad07 3fbb 5ec6 5a3b b3fe a63a
00000340: 2e90 47bb 9564 683b e542 263b 4f51 cc3a
00000350: e940 f5ba 0e96 e4ba 9f95 473b 55e2 d43a
00000360: 60c0 3abb 8603 bbb8 b0f9 07bb 9c53 823a
00000370: ba8d 163b 8e20 81ba acb3 173b 1576 1e3a
00000380: e6c4 33bb 0acf b1ba f5dd 67ba 8760 d6ba
00000390: 087c e23a 3c3d c7ba 9997 d83a fd08 22b9
000003a0: f3bc 053b a540 423b 15d7 f7ba 8654 0bbb
000003b0: 8c20 9739 f8e1 713a 75e1 113b f4f0 0d3a
000003c0: 9e67 3cbb 9f24 5c3b 06da 09bb d52e 5eba
000003d0: 03d9 4ebb e56a 2a3b a7f2 dab8 aeb6 2abb
000003e0: d9c9 5fbb b49e 0a3a 499e ba3a 06b1 14bb
000003f0: a575 013b f27c f2ba db39 5b3b da81 5e3a
-0.0021777358 -0.0016274155 0.0033576195 -0.0023492924 -0.0002791834 0.0035413934 -0.0023280105 0.002231579
8.8895766e-05 -0.0014505984 -0.00349829 0.0020562904 -0.00123814 0.0029912386 0.0013914015 -0.0033158762
0.0003769323 0.0023142265 0.0011237742 -0.0008050065 0.00211747 0.0010892012 0.0029354976 -0.0015851812
-0.0014095684 -0.001113684 0.0029684163 0.0029324982 0.002733521 -0.0014864621 0.0026273106 -0.0010316415
0.0009311416 -0.0014471482 -0.0001799824 0.00206839 0.00039407428 -9.934314e-05 -0.0027022 -0.0019069139
-0.00029364918 0.0033283508 0.0030235802 0.0013046965 0.0017278779 -0.0010844491 -0.0032743816 -0.0024807858
0.0017088987 7.0782444e-05 -0.0031518932 0.0020993745 0.0023546938 0.0007248504 -0.0011083306 0.0035358467
0.0014742162 0.0021980738 0.00019923979 -0.00041685946 0.0016901783 -0.0011635844 0.0029476834 0.002227834
-0.0030446188 0.0009934378 -0.002144214 -0.0026906983 0.00315702 -0.0024676586 0.0022792127 0.0012182491
-0.0001749317 -0.0022153386 -0.0005309154 0.0035376807 0.00032091374 -0.0027619437 -0.0006919148 -0.0023945929
-0.001975389 0.0019261328 -0.0004948953 -0.00075051613 -0.00020022894 -0.0027104784 -0.0009881592 -0.0012547793
-0.0030462395 0.001801615 0.0020272476 0.0033762779 0.0029762348 -0.00010180459 0.0014782517 -8.46372e-05
0.0029943865 0.0010630627 0.001275943 -0.0032327645 -0.0033051148 0.0011662407 0.0006882334 0.0031393724
0.0016663683 -0.0010384034 -0.00029689792 -0.002432501 0.0030929677 0.0024757334 -0.0028563803 -0.0011410026
-0.001889108 -0.0028789327 0.002336297 0.0034218722 0.0015628563 -0.003174105 -0.0034319828 -0.0005628218
-0.0021834127 -6.403636e-05 0.0006582387 0.0030084336 -0.0028563242 0.002976669 0.0016328649 -0.00028824186
-2.1791886e-05 0.001283336 0.0028488466 -0.00020237315 0.0018779421 0.0017277054 -9.237596e-05 0.002448487
0.000749805 0.00036597182 -0.0013122351 -0.0013708218 0.0022100771 0.0024834762 -0.002199349 -0.0027668308
-0.002750656 0.0030619958 0.0017411156 -0.002522061 -0.0016441282 0.0002904785 0.0027796908 -0.00022041173
-0.00035479796 0.0019465528 0.0015700193 0.0035284879 -0.0017627752 0.002387982 -0.0028628514 0.0002032144
0.0013131774 -0.0010088838 -0.0013498444 -0.0009125915 0.0005988003 0.0009852083 0.0021396126 -0.0022468213
-0.0011782841 0.002554779 0.0013677586 -0.0006402445 -0.0012801542 0.0015581435 0.00030541143 -0.0031454647
0.0034075875 -0.0027025891 0.0011093118 0.00023037707 0.00078974396 -0.0029588363 0.00066364754 0.0022394771
0.00077878765 -0.002580664 -0.0015475967 0.0012186851 0.0009298033 -0.0014287729 0.00018878197 0.0020063636
-0.002554882 -0.0006715349 0.0005733541 -0.0009640447 0.00017753076 -0.0010749779 -0.0030344531 0.0016944433
0.0030941365 -0.001564963 -0.0006836941 -0.0004945378 0.0005369732 -0.0029148862 0.0033382396 0.0012740701
-0.0030450928 0.0035460342 0.0025369462 0.0015588197 -0.0018711361 -0.0017439739 0.0030454171 0.0016241769
-0.0028496012 -8.917511e-05 -0.002074819 0.000994313 0.002297266 -0.0009851621 0.0023147864 0.0006044817
-0.0027430593 -0.0013565731 -0.0008845025 -0.0016355672 0.0017279396 -0.0015200744 0.0016524672 -0.00015452872
0.0020406812 0.0029640582 -0.0018908704 -0.0021260097 0.00028825214 0.00092270924 0.0022259627 0.0005414628
-0.0028748284 0.0033591164 -0.0021034493 -0.00084756064 -0.0031562455 0.0026003656 -0.000104402476 -0.0026048827
-0.003414741 0.0005287931 0.0014237846 -0.0022688522 0.001975396 -0.0018500371 0.0033451233 0.00084879773

bias f4 [20]
00000000: 48cd 7f39 2135 94b9 27bf dbb9 2eb6 93ba
00000010: 192b 1dba 8bed f8b9 aad8 a2ba bc6e 26ba
00000020: 6d9b 40ba 2b49 23ba f102 4f39 91c1 b739
00000030: 457f 5bba e77d 47ba 741b c83a 97ea 393a
00000040: 9336 ae3a d858 98ba f91c 1d3a 3464 f039
0.00024395168 -0.00028268344 -0.00041913355 -0.0011269504 -0.0005995497 -0.0004747923 -0.001242419 -0.0006348898
-0.0007347379 -0.00062288594 0.00019742154 0.00035048698 -0.00083731516 -0.00076100085 0.0015266971 0.00070921466
0.0013291411 -0.0011623157 0.0005993392 0.00045851024

att f4 [1, 1, 15]
00000000: 6cd3 183d 5efd 1f3b 33a8 98bc 9996 e339
00000010: b503 813b 6ea7 05bc f958 413c eb41 ed3b
00000020: fcd3 e2bb 3f98 3e3c 394c 26bc 69a2 4bba
00000030: 0d29 a4bc 02f8 1e3c 15b0 003b
0.037311003 0.0024412493 -0.018634891 0.00043409018 0.0039372095 -0.008157594 0.011800998 0.007240524
-0.006922243 0.011632978 -0.010150009 -0.00077680364 -0.020039106 0.009702684 0.0019636203

bias f4 [15]
00000000: e89a 4fbb cfc9 24bb a2c1 e13b edb5 65ba
00000010: d012 5bbc 33fb f43a 73ce 1abb 4276 acba
00000020: 9bc9 c53b d882 e3bb b207 033c 7a17 eabb
00000030: b0eb 04bc 7619 6cbb 48f6 bfb9
-0.0031678025 -0.0025144701 0.006889538 -0.0008762766 -0.0133711845 0.0018690586 -0.0023621588 -0.0013157802
0.006035996 -0.006943088 0.00799744 -0.007143912 -0.008112833 -0.0036025918 -0.00036613853

weight f4 [15, 163]
00000000: d676 a7bb 80cc 80bb 130b b4bb e83a f1bb
00000010: 60d7 83bb f16e 16ba 1d5c 33bb 6776 83bb
00000020: 6cdb 1fbb 6e21 9bbb 63a8 55bb c2e1 3abb
00000030: bdcb adba 6e49 35bb cac8 c5bb 36a7 56bb
00000040: e122 e6bb 672d 95bb 7a63 60b9 e19e 04bb
00000050: b3ff a7bb 379a a7bb 7d7d 8dbb f9c8 5dbb
00000060: 632e eaba 331a 6abb 1efa 87bb a60e 053b
00000070: ae10 69ba c738 47bb c2ab 3dbb 10e4 49bb
00000080: 4fb9 f8ba 1d7d d73b fb84 ca3a 2701 a9ba
00000090: 6a69 8bbb 381d 67bb f2ed f8ba 9bb4 11bb
000000a0: 6350 c2bb 21dd bebb 3bdd 8fbb cef3 8bba
000000b0: a215 aabb 4123 a5bb 53ec cfba b504 b7bb
000000c0: 0ba1 18bb ec77 2cbb f0cb 80bb 5a70 88bb
000000d0: d21e 4bba 8733 473a eff0 c43a 3b59 ccbb
000000e0: 9ad0 46bb 9e21 0cba d545 00bb 7ea2 dbbb
000000f0: ec3e 0dba cf9d 633b 7d89 8bbb e18c 80bb
00000100: daec e03b 4ceb 1e3b bd8c 24bc 9fc4 a8bb
00000110: 4f7f 5d3b 1d83 163c 17f1 f9ba 8ec7 1a3a
00000120: 2ba2 263c 0084 8f3b 2929 43ba 1a0e 233b
00000130: e529 323b fc1b 3dba 937c 49bb 44e4 84bb
00000140: a4b7 caba eeb7 56bb 8057 0abb d984 333b
00000150: b996 27bc 63b5 c13b dcd7 0bbb 6a08 5c3b
00000160: fae3 353b 84f2 6839 c6e6 f6bb 635b d6ba
00000170: 7233 a4bb 9234 0a3b 1763 b33b 8ca3 e2b9
00000180: 1c53 d2bb 12a8 ffba 73cc a93a 5d27 65b8
00000190: 0324 cabb d334 6fbb be0c 6abb 4826 8dbb
000001a0: ebb5 053b 2f62 e0ba 2e36 d8ba 3437 1cba
000001b0: 00f4 413b 4f33 08b7 a9e5 703b 3d52 883b
000001c0: b464 263c d48d 6abb 62e8 933a 99c4 ba3b
000001d0: 4db5 2b3b 7081 61bb 86fd 2d3c 123b f9b9
000001e0: 3347 19b9 59af 01bb ad5c 323a ae49 98bb
000001f0: 19e2 56bb 7615 aeba 95a5 81b9 6bd8 04bc
00000200: e224 6a39 714c fab9 7840 b3ba bfee bf39
00000210: f639 cb36 acb1 5bbb 3bc3 34ba 4c21 8cba
00000220: d041 0e3c aab2 2abb 9894 02ba acba 19bb
00000230: 8fe1 f2bb cd1c d2ba e5db eebb c36b 9abb
00000240: a466 6cba 6ec1 88bb c692 67bb bd7a 36bb
00000250: 52a8 83bb 0dbc 8bb9 2640 45bb 6f26 19ba
00000260: 223d e0ba 6dad acbb 7dd5 9fbb 3ad6 71bb
00000270: 1930 58ba 4fc4 cbbb 50e9 c1bb 5dbd 2cbb
00000280: c77a 92ba 2ec5 55bb fbe7 62bb bbc2 dbba
00000290: 39c8 d9bb 2a46 debb 7686 32b9 111b 72bb
000002a0: 6da1 beba c627 83bb 920c 8abb ebad afba
000002b0: d2ee 3dbb 96a9 adbb 49cf acbb e4bc 8ebb
000002c0: c9ae b6bb 4a8b 95bb d17e 8dba 4b5b cc3a
000002d0: 0ab6 f0ba b867 d8bb e6fe 0039 d47e 65b9
000002e0: d343 abbb 9bc0 9dbb 31a8 6dbb 8f50 69bb
000002f0: 3e36 61bb 28d9 46bb 75d7 44bb 5320 89bb
00000300: ee34 0fbc 52a4 9eba 669e 123c 826e 75b9
00000310: f257 15bc 6ffc 57ba 0ac0 2639 422a b8bb
00000320: c11d 01bb f67e c3bb a264 dcba 72d4 4ebb
00000330: 965b a4bb 5b0e 4abb 8ada 0fbb f1cb 05bb
00000340: 1f6a a7bb 2888 16bb 31c8 d3bb 6a0d 8fbb
00000350: 59d7 293a 1357 f8ba a92e c3bb 61a1 5ab9
00000360: d632 efbb 7618 e1b9 ed6c 9738 d489 2ab9
00000370: 89e0 9fba 7830 92bb 5412 0ebb 5942 9d3a
00000380: 339e 88ba 8f3c afbb 77a7 8fbb 42a4 283a
00000390: 8c2a ccbb 368a ee3a 0365 c5bb 39cb ad3b
000003a0: 7320 09bc 3fc9 5a3b c206 c4ba a054 f2ba
000003b0: 9c71 80bb f704 2b38 491b 7c3a 2644 253b
000003c0: 3a8b 283b 3d20 cdbb 9ea0 d6ba e5a8 c3ba
000003d0: 7a89 0f3a 00f0 b7bb 9529 8cba c9e5 143b
000003e0: a963 dabb ac72 ccbb be7a f438 ee7a 073b
000003f0: 4d19 3dbb a339 6bbb e743 98bb 32d2 a3bb
-0.005110602 -0.0039306283 -0.005494484 -0.0073617585 -0.0040234774 -0.00057385775 -0.0027368136 -0.0040119174
-0.002439226 -0.0047342097 -0.0032601587 -0.002851591 -0.0013259571 -0.0027662176 -0.006035899 -0.0032753474
-0.007023201 -0.0045525315 -0.00021399363 -0.00202363 -0.0051269173 -0.0051148194 -0.004317938 -0.0033841713
-0.0017866608 -0.0035721182 -0.0041496893 0.002030292 -0.000889073 -0.0030398832 -0.0028941487 -0.0030806102
-0.0018976125 0.006576194 0.0015451008 -0.001289402 -0.0042545097 -0.0035265218 -0.0018991812 -0.0022232893
-0.005929993 -0.0058247005 -0.0043903864 -0.0010677518 -0.005190567 -0.005039603 -0.0015863277 -0.005585278
-0.0023289348 -0.0026316596 -0.0039305612 -0.004163784 -0.0007748428 0.0007598926 0.0015025417 -0.006236223
-0.0030336739 -0.00053455855 -0.0019572873 -0.00670272 -0.0005388099 0.0034731512 -0.0042583332 -0.003923044
0.0068641724 0.0024249135 -0.01004332 -0.005150392 0.0033797806 0.009186533 -0.0019069043 0.000590437
0.0101705 0.0043797493 -0.0007444793 0.0024880231 0.0027185616 -0.0007213948 -0.0030744418 -0.0040555317
-0.0015466106 -0.003276344 -0.0021109283 0.0027392416 -0.010228806 0.0059115156 -0.002133838 0.003357435
0.0027754293 0.00022215588 -0.0075348346 -0.001635414 -0.0050110156 0.0021088463 0.005474459 -0.0004322793
-0.006418599 -0.0019505045 0.0012954607 -5.4634515e-05 -0.0061688437 -0.0036499992 -0.0035713161 -0.004307542
0.002040262 -0.0017119105 -0.0016495639 -0.00059591536 0.0029594898 -8.118178e-06 0.0036757982 0.004160194
0.010155845 -0.0035790103 0.0011284465 0.005699706 0.0026200593 -0.0034409426 0.010619527 -0.00047536992
-0.00014617741 -0.0019788353 0.0006803971 -0.004647455 -0.0032788573 -0.0013281542 -0.00024728166 -0.008108239
0.00022329719 -0.0004774067 -0.0013675829 0.0003660824 6.056619e-06 -0.0033522649 -0.00068955467 -0.0010691076
0.008682683 -0.0026046433 -0.00049812486 -0.0023457212 -0.0074121426 -0.0016030312 -0.007289397 -0.004712553
-0.000901798 -0.0041734492 -0.0035335287 -0.0027844154 -0.004017868 -0.00026652255 -0.003009805 -0.0005842214
-0.0017108063 -0.0052696974 -0.0048777447 -0.003690137 -0.0008246913 -0.00621847 -0.0059177056 -0.0026357986
-0.0011175507 -0.003261875 -0.0034623134 -0.0016766408 -0.006646183 -0.0067832666 -0.00017025493 -0.0036942402
-0.0014543958 -0.004002544 -0.0042129243 -0.0013403272 -0.002898146 -0.0052997572 -0.0052737338 -0.0043560136
-0.0055750352 -0.0045637237 -0.001079524 0.0015591172 -0.0018364799 -0.006604161 0.00012301988 -0.00021886389
-0.005226591 -0.00481422 -0.003626358 -0.0035600995 -0.0034364606 -0.0030341838 -0.003003565 -0.0041847616
-0.008740647 -0.0012103415 0.008948898 -0.00023406188 -0.009115206 -0.00082392147 0.00015902534 -0.005620272
-0.0019701573 -0.0059660627 -0.0016814659 -0.0031559733 -0.0050158007 -0.003083131 -0.0021950328 -0.0020415748
-0.005109086 -0.002296934 -0.0064630737 -0.0043656128 0.00064789277 -0.0018946849 -0.00595649 -0.00020850218
-0.0072997613 -0.0004293357 7.22053e-05 -0.00016263808 -0.0012197654 -0.0044613443 -0.0021678405 0.0011997923
-0.0010423124 -0.0053477953 -0.004383977 0.0006433168 -0.006230658 0.0018199149 -0.0060240044 0.005303767
-0.008369553 0.0033384112 -0.0014955627 -0.0018488355 -0.0039197933 4.07742e-05 0.0009617103 0.0025217622
0.002571775 -0.0062599466 -0.0016374772 -0.0014927654 0.00054755027 -0.005613327 -0.0010693545 0.002271997
-0.0066647124 -0.006239256 0.00011657689 0.0020672637 -0.0028854192 -0.0035892508 -0.0046467665 -0.0049994225

bias f4 [15]
00000000: 0955 25bb 4ef0 72bb ec2a e83b 6e82 62ba
00000010: 8888 4abc c2c2 a53b 5801 73bb 15dd f0bc
00000020: 1956 a13b 8e40 d2bb d2eb 213c 69ff fcbb
00000030: d906 06bc b68f 50bb e4c4 bf39
-0.0025227687 -0.0037069502 0.007085195 -0.00086406514 -0.012361653 0.0050586173 -0.0037079658 -0.029402295
0.0049235937 -0.006416387 0.009882884 -0.007720877 -0.008180344 -0.003182394 0.00036577054

weight f4 [15, 9]
00000000: 07a7 b43b 89d5 253b 40ae 1dbc 0dac 233b
00000010: 523f 1bbb 4f52 a23b a4b1 3439 9420 0aba
00000020: 3c8d 82bb 81b9 d53a 7c83 c1ba 847d 193c
00000030: 3031 f73b 9812 ea3b edb5 1c3c 4d5b 323b
00000040: 62b2 e0bb ff0a e43b 6afd 11bc b78d c5bb
00000050: 8642 be3b 3987 cbbb 162e b2bb 00e7 143b
00000060: fffb f1bb 90dc 4d3b d080 c63b 3164 c43a
00000070: c1b2 9ebb 56ab 92ba a54e cfbb ded5 6c36
00000080: 493d b33a e9c5 0b3c 46c7 963b 3010 4abb
00000090: 3a41 123c 026f cabb 9d85 323b a514 1a3b
000000a0: e05e c4ba fbcd 1f3c 246b 5fbb b779 12bc
000000b0: 6e61 d83b c4c1 003c f1d0 18ba 6872 03bc
000000c0: 79d9 013c ee08 143c 8474 28bb 3424 1dbc
000000d0: b364 54bb 7418 743a ebc5 1abc 6c6c 253b
000000e0: 84c7 e8bb a0bb a9ba 1713 d73b 7c24 7b3b
000000f0: 28fe 193c 7671 c43a 9141 63bb 00b0 c23a
00000100: 4d28 17ba 7d09 133c 9166 963b 52df e53b
00000110: 7e3d b43b d748 1abc 778b 06bb 0647 92bb
00000120: 00aa 93bb 543d cdb9 7557 f53b da37 833b
00000130: 70e4 193c 43f5 ad3b 66a1 ad3a ef3f 11bc
00000140: 5a25 14bc 36e5 1d3b 47f8 c0bb efb7 0fbc
00000150: becb 13bc 073d 1ebc 3fd0 5b3b baec 81bb
00000160: 7c05 693b 647c 60bb 2f74 903a f649 1f3c
00000170: 52b2 8c3b 4b71 063a 6726 9f3b ac8b a33b
00000180: 4363 e93b a803 46bb 10c7 0d3c d650 b83b
00000190: 4635 023b c759 2639 6f1e 043c facd 193a
000001a0: 0c10 86ba 6f89 03bb 8ac0 ab3b a538 46bb
000001b0: e0f5 093c 30c7 a6ba c98a ffbb 75e2 bdbb
000001c0: dd51 d53b 9c4f bcbb b126 fc3b 3eeb 0aba
000001d0: bccb bc39 0508 97ba 5493 843b 2def b83b
000001e0: a164 913a 2fef 1dbc 592b cc3a 29b4 e9bb
000001f0: 8c55 1bbc d948 4d3b f494 0cbb 8814 01bc
00000200: ef90 12ba 33a9 04bb 154b 82bb 037d 9cbb
00000210: a478 6b3b 0849 163c 3e34 dabb
0.0055130753 0.0025304279 -0.009624064 0.0024974376 -0.0023688865 0.0049536596 0.00017232314 -0.0005269137
-0.0039841216 0.0016305895 -0.0014763917 0.009368304 0.0075437054 0.00714333 0.009564859 0.0027215064
-0.0068572024 0.0069593186 -0.008910516 -0.0060288566 0.00580627 -0.006211188 -0.005437623 0.0022720695
-0.0073847766 0.0031411983 0.006057836 0.0014983473 -0.0048430865 -0.0011189978 -0.006326514 3.5291228e-06
0.0013674881 0.008531072 0.004601392 -0.0030832402 0.008926684 -0.006177784 0.0027240284 0.002351084
-0.0014981888 0.009753699 -0.003409096 -0.008940152 0.0066034114 0.007858697 -0.00058294745 -0.008022882
0.007925385 0.009035332 -0.0025704214 -0.009591151 -0.0032408654 0.0009311505 -0.009446601 0.0025241626
-0.0071038622 -0.0012949593 0.006563555 0.0038321307 0.0093989745 0.0014987427 -0.0034676532 0.0014853477
-0.0005766198 0.00897443 0.0045898636 0.0070151472 0.0055004945 -0.00941678 -0.0020529905 -0.004464033
-0.0045063496 -0.0003914634 0.0074872323 0.0040044608 0.009392843 0.0053087785 0.0013246953 -0.008865341
-0.009042108 0.002409292 -0.005888972 -0.0087718805 -0.009020744 -0.009658105 0.0033540872 -0.0039649876
0.0035556247 -0.003425383 0.0011020954 0.0097222235 0.0042937184 0.00051285763 0.004856873 0.0049910154
0.0071224286 -0.0030214582 0.008653417 0.005624871 0.001986818 0.00015864438 0.008063897 0.000586718
-0.0010228171 -0.002007093 0.0052414583 -0.0030246165 0.008420438 -0.0012724157 -0.007798527 -0.005794818
0.006510003 -0.005746795 0.007695042 -0.0005299336 0.00036009948 -0.0011522776 0.004045883 0.0056437463
0.0011092612 -0.009639545 0.0015576883 -0.0071320725 -0.009480845 0.0031323938 -0.0021451088 -0.00787843
-0.0005591055 -0.0020242452 -0.0039762356 -0.0047756447 0.0035930062 0.009172685 -0.00665906

bias f4 [15]
00000000: 0394 6d3a b22b 93bb 4c97 9b3b ddee 69bb
00000010: 003f c6bb b3d8 02bb eb77 1e3b 98bf 473b
00000020: cd05 863b e662 ac3a eebd a1bb 7101 9cba
00000030: 8f4c 99b9 bf2f 063b 1637 123b
0.0009062888 -0.004491293 0.0047482606 -0.0035695352 -0.0060499907 -0.0019965589 0.0024180363 0.003047919
0.004090047 0.0013152033 -0.0049359715 -0.0011902285 -0.00029239475 0.0020475236 0.0022310666

att f4 [1, 1, 15]
00000000: 9bc4 9c3a d66f 5c3c f648 69bb 6fca a63c
00000010: e45b 55bc bcbc 6a3b e45d 9b3c 7326 d83b
00000020: 60de bd3c b074 b3bc f4e9 9cbc c6a3 0fbc
00000030: 6e6d 9bbb 23b2 f2ba 1d78 8fbc
0.0011960448 0.013454398 -0.0035596467 0.0203602 -0.013022397 0.003581806 0.018965669 0.0065963804
0.023177326 -0.021906227 -0.019154526 -0.008767074 -0.0047432696 -0.0018516224 -0.01751333

bias f4 [15]
00000000: e89a 4fbb cfc9 24bb a2c1 e13b edb5 65ba
00000010: d012 5bbc 33fb f43a 73ce 1abb 4276 acba
00000020: 9bc9 c53b d882 e3bb b207 033c 7a17 eabb
00000030: b0eb 04bc 7619 6cbb 48f6 bfb9
-0.0031678025 -0.0025144701 0.006889538 -0.0008762766 -0.0133711845 0.0018690586 -0.0023621588 -0.0013157802
0.006035996 -0.006943088 0.00799744 -0.007143912 -0.008112833 -0.0036025918 -0.00036613853

weight f4 [15, 9]
00000000: 2ce5 ac3b a5ce 07bc b5a8 35bb d701 51bc
00000010: 5906 ae3b 6520 63bb 100d 193c 62fa 793b
00000020: 1105 efbb 4b33 95bb 2016 4bbb a909 a5bb
00000030: 1243 1dbc 0546 64bc 9cb5 06bc 1be6 90ba
00000040: 6b26 a339 7674 ffb9 71f7 2a3c ae56 063c
00000050: 5f2f 5d3b 60a1 473c c824 5ebb 4e40 eb3b
00000060: f723 cc3a 3f25 ce3a 31e2 e83b 1a90 0fbc
00000070: 7dd7 0eb9 6761 0c3c 1fa4 29bb 7a60 1a3b
00000080: 15c5 b0bb 6dcb 9fba 87c1 ac3b 1daa 133c
00000090: ea7d 7ebb dfd2 38bc b1d3 5dbc 3285 bdbb
000000a0: b1fb 20bc 497c 18bc 7a25 183c fe10 7abb
000000b0: 8ecd 9cbc 6eba a9bb 14d6 423b d4da 8ebb
000000c0: d6aa da3b 36b4 743b 1d1a ea3c 411c ccbb
000000d0: 2edf 1dbc 567c 1639 d122 50bc f46c f7bb
000000e0: f825 da3a b002 7e3b afd5 17bc 4454 edba
000000f0: dadf cb3a a3f2 a7bb b4e6 c23b 1c7a 31bb
00000100: 554f c3bb 8c58 823a 4af8 783b 0a3a fcbb
00000110: befa 3e3b ddfe 013c 08e3 a5bb ea39 6c3a
00000120: 6a32 6bba fe76 5f3c 4111 893c 7e0f a43b
00000130: 2cf5 713b 0c04 8b3b f6cc 98bb 39be 143c
00000140: a415 083c ea48 5bbb 4efd 85bc 7a69 acbb
00000150: 4d1f d4bb 5a80 6dbc 2a84 ebbb a9e4 023c
00000160: 1ba9 05bc d667 66bc 431f 783c d2d5 103c
00000170: 8dfb 143b 3909 193a 18d5 4a3c d5cd ef3b
00000180: 3eb9 babb 6ce0 6f3c 4dd2 bd3b 6570 a6bb
00000190: f4b5 6cbc 92ce 93b9 5860 8fbb 9982 69bc
000001a0: 5d42 c2bb 49aa 85bb 461d 96bb d28e 4dbc
000001b0: 431b 94bb 5446 9ebc 7910 97bc 7b93 91bc
000001c0: 232d 97bc 88fa d0bc cd14 e43b e41c 08bc
000001d0: a414 13bc 8d4d 8eba ca35 1ebc cf7f 40bc
000001e0: f1d0 4b3b f7ad 47bc b75f 19bc a97c 24bb
000001f0: 9d41 61bc 020a 413b 5fab 813b 2fd7 cf3b
00000200: 2b4b a03b 04bc be3a be2f bb3c 95ac 973c
00000210: ae64 633b d74f 1b3c 5a15 ca3b
0.005276343 -0.008289014 -0.0027718965 -0.012756786 0.0053108153 -0.003465676 0.009341493 0.0038143625
-0.007294305 -0.0045532337 -0.003098853 -0.005036552 -0.00959851 -0.01393271 -0.00822201 -0.0011054905
0.00031118406 -0.0004872416 0.010434971 0.008199377 0.003375016 0.012184471 -0.0033896435 0.0071792966
0.0015574683 0.0015727653 0.0071070422 -0.008762384 -0.00013622451 0.008568144 -0.0025885177 0.002355604
-0.0053945878 -0.0012191363 0.0052720937 0.009012726 -0.0038832375 -0.011280744 -0.013539241 -0.0057837004
-0.009825633 -0.009306976 0.009286279 -0.00381571 -0.019140985 -0.005179695 0.0029729651 -0.0043595824
0.0066731973 0.003733886 0.028576905 -0.006228954 -0.00963573 0.00014351433 -0.012703613 -0.00755083
0.0016643396 0.0038758926 -0.009267255 -0.0018106778 0.0015554384 -0.00512536 0.005947912 -0.002708084
-0.005960385 0.0009944602 0.0037989789 -0.0076973485 0.0029141153 0.007934299 -0.0050624646 0.00090113154
-0.0008972051 0.01363921 0.01673186 0.0050067296 0.0036919815 0.004242426 -0.004663105 0.009078556
0.008305941 -0.0033460208 -0.016356137 -0.005261597 -0.006473458 -0.014495933 -0.007187386 0.007989087
-0.008157994 -0.014062842 0.015144172 0.008840041 0.0022732944 0.0005837861 0.012379907 0.0073182383
-0.005698352 0.014640909 0.005792892 -0.0050793164 -0.014447678 -0.00028191932 -0.0043754987 -0.014252328
-0.0059283213 -0.0040791375 -0.0045811264 -0.012546258 -0.0045198514 -0.019320644 -0.018440472 -0.01777052
-0.01845414 -0.025510088 0.0069604875 -0.008307669 -0.008977089 -0.0010856852 -0.009656379 -0.011749222
0.003109988 -0.012187473 -0.009361199 -0.0025098717 -0.013748554 0.0029455428 0.0039571966 0.0063427906
0.004891773 0.0014551883 0.022849914 0.01851491 0.003469746 0.0094794845 0.006167096

bias f4 [15]
00000000: 35eb e93a 34bc c8bb 7db4 e13b 2b13 cd3a
00000010: 1d87 9dbc 20fd 5dbb 162d 583a 8d78 dabb
00000020: a974 0138 f6e4 38bc 256d d33b 46d5 35bc
00000030: f25a 42bb a548 24bc 6a85 97bb
0.0017846586 -0.006125951 0.006887971 0.0015645971 -0.019229466 -0.0033872798 0.00082464644 -0.006667203
3.0864645e-05 -0.011285057 0.00645222 -0.011098212 -0.0029656258 -0.010027085 -0.0046240585

weight f4 [15, 9]
00000000: 4a47 3bbc f365 073c 4818 dfbb 2052 7bbb
00000010: 1982 103c b018 10bc bd65 903b dd97 ed39
00000020: c945 6a3a 4f85 8d39 0365 9e3a 4e92 113c
00000030: 12ed b9bb fb57 a9bb 5140 afbb cd4f 27ba
00000040: 14bb debb dcbb 053b 22e5 e9ba 95eb 013c
00000050: e138 d73a 6edc ba3b 288d 3a3b 944d b4bb
00000060: b201 983b 928b c2ba a3fc 993b 0bcf 283b
00000070: f7cb 273b a823 05bc d73b ebbb b9b6 e439
00000080: 0d90 8cba ab18 593b 92f3 1d3c 75a0 943b
00000090: f4a2 2a3c c4c9 ac3b c8e7 1d3c 91a6 08bc
000000a0: 5ac6 333b b8b7 893b 9462 9c3b 6b2c 4e3a
000000b0: e236 fabb 1a38 313c 34c7 68bb 37a7 bdb7
000000c0: d011 2eba cc60 223c b0f1 603b de30 193c
000000d0: 17d3 0e3b 78b3 c9bb 5ed5 793b a145 9d3a
000000e0: d2cb 933b dce3 fc39 8188 77bb f210 683b
000000f0: 4cfa 9b3b 1f35 bab9 883b 0e3c e023 95ba
00000100: 649f 9f3b 919d ce3a b212 093c b67a fabb
00000110: 9cf8 913b 5212 123c 30da 093c 2eeb 91bb
00000120: 7e83 08bc 083e bdbb c9cc 8bbb 6340 7f3b
00000130: 3932 1ebb ce1e 573b 1be0 1e3b f339 9937
00000140: a5ea d83b 0542 c0b9 1b43 99b9 94d2 1139
00000150: 53d1 08bc 3fbb c03b c6ae ef3b 8ab7 9eb9
00000160: 7d05 473b 8f5b acbb 17ee 9c3b 0dc3 ee3b
00000170: d59a 44ba 79b9 5abb a612 b23b b15e 443c
00000180: f066 04bc 774c 203c abbd f23a 22d2 e9bb
00000190: 7eae 883b 7dfb e6bb 7429 f53b e35e b13b
000001a0: 2a39 2abb 68d1 db3b 8a19 b33a 282c f83b
000001b0: 760a 363c 363c e1bb 5b63 423b e355 fcbb
000001c0: 3afa fe3b d159 ff3a 1546 1bbc 3adb e8bb
000001d0: 4653 c03b c3e5 debb e8cb 87bb 5df5 233b
000001e0: 2a3e 17bc 5857 bcba a64e f1bb ae18 02bc
000001f0: 6c39 c0bb e6c9 09bc 5a7c f039 ba36 33bb
00000200: f1ae c3bb 5f27 bc3b 908e d73b 707a b8bb
00000210: 8073 b0bb e5ee 97ba bdc3 b73b
-0.011430571 0.008264053 -0.0068083145 -0.003834851 0.00882008 -0.008794948 0.0044066594 0.0004531731
0.00089367904 0.00026992938 0.0012084547 0.008884979 -0.005674013 -0.005167959 -0.0053482433 -0.00063824357
-0.006797204 0.0020406162 -0.0017844776 0.007929702 0.001642015 0.005702547 0.0028465483 -0.005502412
0.004638874 -0.0014842621 0.004699306 0.0025758173 0.002560375 -0.008126177 -0.0071787643 0.00043623688
-0.0010724083 0.0033126276 0.009640591 0.0045357295 0.010414828 0.005273076 0.0096377805 -0.008340494
0.002743146 0.004202809 0.0047724936 0.0007864895 -0.007635937 0.010816598 -0.0035519125 -2.2608421e-05
-0.00066402275 0.0099107735 0.0034323744 0.00935003 0.00217933 -0.0061554275 0.0038121562 0.00119989
0.0045103813 0.00048234954 -0.0037770572 0.003541049 0.0047600623 -0.00035516263 0.008681186 -0.001137849
0.0048712958 0.0015763511 0.008366274 -0.007644023 0.0044546854 0.008915501 0.008413836 -0.0044530844
-0.008332131 -0.005775217 -0.0042663557 0.003894829 -0.0024138822 0.0032824758 0.0024242464 1.8266006e-05
0.0066197687 -0.00036670282 -0.00029232432 0.00013906724 -0.008350688 0.0058816965 0.007314536 -0.00030272856
0.0030368262 -0.005259938 0.0047891247 0.0072864355 -0.00074998784 -0.003337471 0.005434352 0.011985467
-0.008081183 0.009783856 0.001851966 -0.0071356455 0.0041711917 -0.0070490227 0.0074817482 0.0054129227
-0.0025974014 0.006708313 0.0013664227 0.007573623 0.0111108925 -0.006873633 0.0029661271 -0.007700668
0.007781294 0.0019481723 -0.009477158 -0.007106212 0.005869302 -0.006802292 -0.0041441806 0.0025018074
-0.00923113 -0.0014369292 -0.007364112 -0.007940454 -0.00586622 -0.008409953 0.00045869016 -0.0027345852
-0.0059717824 0.005741998 0.006578274 -0.00562983 -0.0053848624 -0.0011591582 0.0056080506

bias f4 [15]
00000000: 5acd 5dbb 814c 043b 6c76 c9bb 2c37 8c3a
00000010: 0fef 2e3a e416 183a 31dc c5ba 5e6f 2c3b
00000020: 1a97 aa3b dca6 a83b 1971 ae3b 49a0 81bb
00000030: 5ffc 383b 9bc2 c1bb 01fe ed3b
-0.0033844323 0.0020187201 -0.00614815 0.0010697595 0.0006673196 0.0005801751 -0.0015095529 0.0026311497
0.005206001 0.0051468443 0.005323541 -0.003955875 0.0028226597 -0.0059130914 0.0072629456

att f4 [1, 1, 5]
00000000: 60c4 dfbe c8fd f53e 00da 39bc 448a 76bf
00000010: 104b 58bf
-0.4370451 0.48045182 -0.011343479 -0.96304727 -0.84489536

bias f4 [5]
00000000: 0000 0000 0000 0000 0000 0000 0000 0000
00000010: 0000 0000
0.0 0.0 0.0 0.0 0.0

weight f4 [5, 20]
00000000: 57b6 66bd 7d7f 06be c176 f03e 21f2 c03e
00000010: 07ab bf3e eaa4 cbbe 3600 413e 1d1c a03e
00000020: 092e 77bd fdbc 033e 0b17 e73e 4055 d63e
00000030: a09a afbe 2b9c 813e 038c 2a3d 08fd be3e
00000040: 36ab 06be 1401 aabd bd19 653e 5b41 bfbe
00000050: 234d 9bbe d902 ccbe 9f4c 263d 9698 80be
00000060: 8211 f4be e091 ebbe 9129 9d3e 80ba ae3d
00000070: 1766 e6be 8c54 863e a6d1 ca3d f33f de3d
00000080: 0459 853e a22b d33e 2a12 35be 7459 e1be
00000090: 05c5 dfbe 25fd ecbd 1712 463d 8aee f1be
000000a0: a1f5 d5be 9de8 a7be 3b9b fb3d 1348 ec3e
000000b0: 75f7 2d3e 2f43 fabd 711b 4bbc d0ca 29be
000000c0: 36a2 943e 451f c1be 0198 f73e b5ea c9be
000000d0: ff2b 703e b0a5 0abe 130d ee3e 4ee8 e9be
000000e0: b1be c83e d684 a6be 1e41 a43e 6712 7e3e
000000f0: 5c88 dd3d 937e babd 9bc3 b13e 2dd2 bebe
00000100: 07f9 9abe 78be 933e 5e27 7bbd 3e2e 93be
00000110: 277e 72bd 6d54 e83d 8965 2cbe 8460 0f3e
00000120: 8d82 dbbe 0c13 ddbe bb3a debd 0c7c a1be
00000130: 3ad6 1bbd eb7f 023d 21b7 85bc 614c 943e
00000140: 3bd7 babd be8c 30be 31bd ae3d 24e5 523e
00000150: 5663 9fbe a414 9e3e 58f5 ca3e ce4f bdbe
00000160: 9547 753e 0d08 333e 5e01 e53e 76dd 5ebe
00000170: 3f21 56be 0b6b dc3e b6b7 8c3e 616f 1cbd
00000180: baf1 77be bfa3 26be 448d df3c 10e0 62bd
-0.056326237 -0.1313457 0.46965602 0.3768473 0.3743517 -0.39774257 0.18847737 0.3127145
-0.060346637 0.12865062 0.45134768 0.41861916 -0.34297657 0.2531446 0.04163743 0.37302423
-0.1315125 -0.08300987 0.223731 -0.3735455 -0.30332288 -0.39845923 0.040600415 -0.25116414
-0.47669607 -0.4600973 0.30695775 0.08531666 -0.44999763 0.2623638 0.099032685 0.10852041
0.26044476 0.41244227 -0.1768271 -0.4401356 -0.43705 -0.11571721 0.048357096 -0.47252303
-0.41788962 -0.32794657 0.12285467 0.46148738 0.16988929 -0.122198455 -0.012396679 -0.16581273
0.29030007 -0.3771917 0.48358157 -0.3943688 0.23454283 -0.13539767 0.4649435 -0.45685047
0.39207986 -0.3252322 0.3208093 0.24811707 0.10817024 -0.09106173 0.34719548 -0.37269726
-0.30268118 0.28856254 -0.06131684 -0.28746217 -0.05920234 0.11344228 -0.16835608 0.14001662
-0.4287304 -0.43178594 -0.10851046 -0.31539953 -0.0380461 0.031860273 -0.016322674 0.28964522
-0.09123083 -0.17241189 0.08532179 0.20595223 -0.31130475 0.30875123 0.39640307 -0.3697495
0.23953088 0.1748354 0.44727606 -0.21764168 -0.2091112 0.43050417 0.2748391 -0.038192157
-0.24213305 -0.16273402 0.02728904 -0.055389464

bias f4 [5]
00000000: 9eeb 37be 8b82 18bd 535e a7bd 152e 853d
00000010: 39ad c53d
-0.17960975 -0.03723387 -0.08172288 0.0650293 0.0965218

weight f4 [5, 20]
00000000: 446b e33e caf5 f5be e1e9 c0be ed80 933e
00000010: 8b58 bf3e 791f e4be af33 ad3a 9e1e 1f3e
00000020: a50e 673d 5f0c afbc c216 523e ea2c 55bd
00000030: 47a9 913e 2f8b e5be f95b 10be 2eb9 2d3c
00000040: 7a13 873d 2b76 9e3e 269f 1e3d 571f c93e
00000050: e562 b33e 52e8 c23d efce cb3e 8ece d63d
00000060: 26d9 60be 5104 4e3e 63f6 933e 4d13 263c
00000070: a86d cebe b3bf 2cbe 78d8 d3be 5bdf b8bd
00000080: efb4 323d 3d81 263e 6d0e ef3e bfd0 843e
00000090: 7c5b 81be 5027 baba 8cbd 433e c19f 31be
000000a0: dff3 1d3d 761e f63e d298 8fbe 5ac2 ea3e
000000b0: 0af4 163e bb21 fabe 5581 56bd ce71 acbe
000000c0: 8a3b af3e b4d0 a03e a38c a33b b30e 3fbe
000000d0: 728f d13e 8ba9 da3d d295 1bbe eb6f e9be
000000e0: c781 9d3e 846c 723c 41ce 963e 3f4a 3a3e
000000f0: 68c5 a43d 7f4d ae3d abac 3f3d 1c5c 24bd
00000100: eb58 d5be f6cc 20bd 61e0 b1bd fe6e 84be
00000110: 71ce b23d 2d9f 66be 99f3 e53e e6b2 b83e
00000120: 2a5b 9c3e e39d a83b a7dc 263d cece 7a3e
00000130: fbf7 943d 91e3 023e a584 29be 268a c73e
00000140: 173d 953d 32a5 bebe 0fcb 1ebd 9509 813e
00000150: 8f3b 923e 23f6 46bd 64dd f83e 76a4 debe
00000160: 5a33 a33d a4a8 383e bc87 c93e 3b90 d8be
00000170: a6ed 2cbe ddf2 44be 375b 87bd 21bf f43c
00000180: e794 dbbe cc69 d63e 94cf 483e ee1d 703e
0.44417775 -0.48039085 -0.37678435 0.288093 0.3737224 -0.44555262 0.0013214255 0.15539023
0.05641045 -0.021368204 0.20516494 -0.052044787 0.2844946 -0.4483275 -0.14097585 0.010603232
0.06595512 0.3094953 0.038725995 0.39281723 0.35036388 0.09516968 0.39806315 0.10488616
-0.21957836 0.20118834 0.28898916 0.010136438 -0.40318036 -0.16870002 -0.4137609 -0.09026977
0.043629583 0.16260238 0.46690693 0.2594051 -0.2526511 -0.001420239 0.19115275 -0.17346098
0.03856265 0.48070115 -0.2804628 0.45851403 0.14741531 -0.4885386 -0.052369434 -0.33680576
0.34225112 0.31409228 0.0049911304 -0.18657951 0.40929753 0.10676869 -0.1519387 -0.455932
0.30763075 0.01479638 0.29454234 0.18192385 0.08045465 0.08510875 0.04679553 -0.040126905
-0.41669402 -0.039257966 -0.08685375 -0.2586593 0.08730782 -0.22521658 0.44912413 0.3607399
0.30538303 0.0051457747 0.040737774 0.24492952 0.07273861 0.12782122 -0.16554506 0.38972586
0.072870426 -0.3723541 -0.03876787 0.25202623 0.28561065 -0.048574578 0.48606408 -0.4348485
0.07968779 0.18033081 0.3936137 -0.4229754 -0.1688753 -0.1923327 -0.06609195 0.029876294
-0.4288704 0.41877592 0.19610435 0.23448917

bias f4 [5]
00000000: e2e5 e63d 26dc 343e f972 3d3d 1b2a 2f3e
00000010: 6b9d b63c
0.112743154 0.17662105 0.046252225 0.17105906 0.02229186

att f4 [1, 1, 10]
00000000: 51ce 073c ef97 84bb 032f 08bb 948a 30bc
00000010: cdab a53a 4dd8 27bb 9643 36bc 8ce2 18bb
00000020: 765c ed3b e5db d13a
0.008288936 -0.004046432 -0.0020779974 -0.010775227 0.0012639702 -0.0025611103 -0.011124512 -0.0023328392
0.007243688 0.0016010968

bias f4 [10]
00000000: 29c2 9fbb 714f a33b 0d2c 5dbb d60f b7bb
00000010: 97e8 053a 7437 e8bb 953b a73b e933 23bc
00000020: 02b9 31bc cd13 20bd
-0.0048754406 0.0049838354 -0.003374818 -0.0055866046 0.0005108206 -0.0070866887 0.0051035383 -0.009961107
-0.010847332 -0.039081383

weight f4 [10, 20]
00000000: 81bf 9fbb 09b3 5dbc 277b f33b 7fd0 0bbc
00000010: 2b19 853a 1b70 3b3b ce41 63bb 74c6 b2bb
00000020: 07fe daba dda7 d0bb 2af8 07bc af34 2abc
00000030: f5e9 57ba f27b 1c3c 5db0 b5bb 219c bdbb
00000040: 34cf acbb 58ae 603b b09b 103a 7c38 263c
00000050: 9676 73bc 6c69 62bb 7bb7 0dbc 0956 49bc
00000060: de50 0bbb e549 bebb 2f6e 22ba bfe1 4fbb
00000070: fea5 923a a8a7 66bc 6129 ffba 2a27 24bc
00000080: 9ece 9fba e52b 03bc 86a2 403b 0d4b 0abb
00000090: b753 0dbc efbe b9bb c824 c33b c379 9a3a
000000a0: b03f 0fbb d48c 8d3a d212 c43b 852f d5b9
000000b0: a9b7 ca3b 1e70 db3a 7fd1 57bb 5932 adbb
000000c0: c6d5 133c 9ff0 9b3b 152a 0dbb 2427 38bb
000000d0: 59f6 46bc de90 4c3c fa16 84ba 974d b8bb
000000e0: 029a 803a 80a9 8bbb 3c56 baba 58c6 2a3a
000000f0: 7ae6 5abb 8966 763c 996a 3c39 692a 333b
00000100: 518e 463a ee67 183b 4012 5fba 21a9 c6bb
00000110: f68e 06bc 8162 0eb9 01d2 65bc 9d55 903a
00000120: 78fa 503a 66bf 6c3c b292 073a 3748 57bb
00000130: 616f 14bc 102d 013b ff4f 333b 95a7 063c
00000140: 278f d2ba 7f9f 223c fbd1 4dbc 5742 e73b
00000150: 8197 c83b 6b70 c6bb be9a cb3b b33a dcb9
00000160: c761 4b3b 50ba db3b c964 b6bb 89fb eebb
00000170: 8b2a 07bc ee4f 933b 4275 cfbb 13f8 98bb
00000180: 5a44 0cbc 1f50 143b 0c85 c33b 1687 0bbc
00000190: c780 b8bb b26e 1bbc b043 ce3b 85e0 273b
000001a0: 258d a93b 7b44 c73a 1d9b 373a 99c8 65bb
000001b0: 84dc 54bc fa6d 01bc f849 a23b 10eb 82bb
000001c0: b39e 103c f378 423c 9671 33bc 6286 e7ba
000001d0: 1b21 bf3a de8c 393c 2852 d8bb 07c9 913b
000001e0: d13f 953b 0fd9 92bb e4d7 88bb d216 893b
000001f0: f0c9 a73b f665 e3bb 2f80 903b 67b4 11ba
00000200: bacf 75bb c653 8ebb 0c99 36ba 890c 16bc
00000210: 14f1 243c 6f81 ccbb 5aac 1ebb 0a1a 7c3b
00000220: 952f a6bb dcb4 e5bb 9deb 6aba 883b d5bb
00000230: 1125 24bc cbd8 28bc c846 c43b f9e0 2dbc
00000240: 982f df3b 7955 4e3b 263a 20bc c5d4 32bc
00000250: 72c9 7dbb 231e 04bc b94c 0cbc 4d5c fcbb
00000260: 8023 83bb ecb0 583c 3316 4bbc 8d23 09bc
00000270: 2dbf 21bb b870 d83b e146 1f3c 62f5 bb3b
00000280: 5e3e deba b0b5 29bc be75 a638 b5d5 99bc
00000290: c0f8 583c 403f 7a3c 975d 61bc 31b8 56bc
000002a0: f6d1 e1bb ba98 05bc e9a5 90bc e4a6 0cbc
000002b0: 4b80 af39 e368 533c c808 e3bb f864 40ba
000002c0: 1750 51bc 3dc9 833c 57b6 e33b 8579 5a3b
000002d0: 41f1 de3c 5363 ed3c 8bdf 243d b3e3 913c
000002e0: 86c8 0e3d 4bd7 343d 1817 bc3c 5a02 2d3c
000002f0: 13af 803c d136 543c c392 fe3b 5ae9 fb3b
00000300: 5185 2b3d 82a5 1a3d 1392 913c 8aef 8b3c
00000310: 1250 513c bebe 333d 7354 fe3c 843e 3f3d
-0.004875124 -0.013531455 0.0074304524 -0.008533596 0.0010154595 0.0028600756 -0.0034676674 -0.0054557864
-0.0016707786 -0.006367667 -0.008298913 -0.010388537 -0.00082364614 0.009551035 -0.005544706 -0.0057864343
-0.005273724 0.0034283604 0.00055163633 0.010145303 -0.014859816 -0.00345477 -0.008649702 -0.012288579
-0.0021257917 -0.0058071488 -0.0006196228 -0.0031720249 0.0011188386 -0.014078058 -0.0019467288 -0.010019103
-0.0012192314 -0.008006071 0.0029393747 -0.0021101863 -0.008625916 -0.005668513 0.0059553124 0.0011785555
-0.002185803 0.0010799416 0.005983689 -0.0004066193 0.006186445 0.0016741788 -0.0032931266 -0.005285543
0.0090231355 0.004758909 -0.0021539975 -0.0028099502 -0.012143695 0.012485711 -0.0010077648 -0.005624484
0.0009811523 -0.0042621493 -0.0014216374 0.0006514541 -0.0033401535 0.015039095 0.00017968788 0.002733851
0.00075743074 0.0023255306 -0.00085094944 -0.006062642 -0.0082127955 -0.00013578871 -0.01402712 0.0011011843
0.0007971893 0.01444993 0.00051717006 -0.003284944 -0.009059758 0.0019710697 0.0027360914 0.008218666
-0.0016064391 0.009925722 -0.01256227 0.007057469 0.0061215763 -0.0060558817 0.006213515 -0.00042005404
0.0031033622 0.00670556 -0.0055662137 -0.007293169 -0.008249889 0.0044956123 -0.006331117 -0.0046682446
-0.008561218 0.0022630764 0.005966788 -0.008516094 -0.005630586 -0.009486841 0.00629469 0.0025616002
0.0051742964 0.0015202904 0.00070040097 -0.0035062192 -0.012992028 -0.007899756 0.0049526654 -0.003995307
0.008826899 0.011869657 -0.010952374 -0.001766395 0.001458201 0.011325089 -0.0066015907 0.004449013
0.0045547266 -0.004481442 -0.004176127 0.0041836286 0.0051205084 -0.006939645 0.004409812 -0.0005558193
-0.0037507848 -0.0043434827 -0.0006965555 -0.009158262 0.010067243 -0.0062410156 -0.0024211616 0.003846767
-0.00507159 -0.0070100855 -0.0008961501 -0.006507341 -0.010018603 -0.010305594 0.005989883 -0.01061272
0.0068110935 0.003148405 -0.009779489 -0.010914986 -0.0038724807 -0.008063826 -0.008563214 -0.007701433
-0.0040020347 0.013225775 -0.012395429 -0.008370292 -0.00246806 0.006605234 0.009721489 0.005736039
-0.0016955843 -0.010358259 7.937428e-05 -0.018778661 0.0132429 0.015273869 -0.013755224 -0.013105438
-0.0068914844 -0.008154089 -0.017657237 -0.008584712 0.00033474187 0.012903425 -0.006928537 -0.0007339264
-0.012775443 0.016087169 0.006949227 0.0033336591 0.027214648 0.028978026 0.04025225 0.01780877
0.034859203 0.044150632 0.02296023 0.010559643 0.015708482 0.012952522 0.00776896 0.00768773
0.041875187 0.037755497 0.017769849 0.017081995 0.012775438 0.043883078 0.031046128 0.04669048

bias f4 [10]
00000000: 8584 e6bb 3ff7 343b 8d99 3bbb e54f 0cbc
00000010: 254d 7eba f088 e5bb 427e a43b a304 4dbc
00000020: e6a6 31bc d227 11bd
-0.0070348405 0.002761319 -0.002862546 -0.00856397 -0.00097008265 -0.0070048496 0.005019934 -0.0125133125
-0.010843014 -0.035438366
