model/tgn/241023_opt/epoch_1.pt (torch, 774728 bytes, 89 tensors)

att f4 [1, 1, 30]
-0.43289036 0.24113494 0.37931967 -0.34314343 -0.004393697 0.13987005 0.28362358 -0.078976065
0.20037544 0.33802402 0.2574504 0.21435034 0.2675478 -0.3942336 0.09354162 0.3392701
-0.34857327 -0.38563928 -0.3633027 0.1350779 0.40829462 -0.0399037 -0.17488757 0.026035845
-0.36274606 0.07615745 -0.2892391 -0.296113 -0.32092196 -0.12455207
00000000: cea3 ddbe 14ec 763e 3036 c23e 7fb0 afbe
00000010: 00f9 8fbb 183a 0f3e 1c37 913e 34be a1bd
00000020: 382f 4d3e 7c11 ad3e 8ad0 833e a87e 5b3e
00000030: 06fc 883e fdd8 c9be c092 bf3d d0b4 ad3e
00000040: 3278 b2be 8372 c5be d002 babe dc51 0a3e
00000050: fe0b d13e 1072 23bd ba15 33be 2049 d53c
00000060: dab9 b9be 70f8 9b3d 2617 94be 209c 97be
00000070: e24f a4be 2815 ffbd

bias f4 [30]
0.08331603 0.07342461 0.0019934257 0.05181866 -0.062563434 -0.022109788 0.07313034 0.055326153
0.04122493 -0.050113786 -0.082113706 0.03225305 0.08136571 0.015809376 -0.06903534 0.061737034
-0.052816585 -0.08601455 -0.12990196 0.07917539 -0.028416589 -0.032590993 -0.03354502 0.0034285756
0.009605934 0.013941061 -0.023566408 0.041435234 -0.11539658 0.03910941
00000000: 98a1 aa3d a45f 963d 22a4 023b ce3f 543d
00000010: 4221 80bd 961f b5bc 5cc5 953d ad9d 623d
00000020: 79db 283d 1d44 4dbd 3b2b a8bd c61b 043d
00000030: 11a3 a63d aa82 813c 6662 8dbd f9df 7c3d
00000040: 3456 58bd 6528 b0bd 0505 05be b526 a23d
00000050: e8c9 e8bc 227e 05bd 8166 09bd f4b1 603b
00000060: 3562 1d3c 0c69 643c 570e c1bc feb7 293d
00000070: 0b55 ecbd 3031 203d

weight f4 [30, 163]
0.1228809 0.001437116 0.05189658 -0.07920168 -0.16057873 0.073752776 0.16295044 0.049484044
0.004566927 -0.21237709 -0.1048034 0.15199655 0.12775244 -0.13775684 0.056794155 -0.16852732
0.12118335 0.023168653 0.15601893 -0.053171985 -0.10572195 0.0637267 0.16622451 -0.058930907
-0.098985404 -0.017541183 -0.11955596 -0.0038050993 0.2286251 0.0020949673 -0.022052417 -0.28701383
-0.029253565 -0.27776355 -0.2014071 0.20933825 -0.060664147 -0.09386296 -0.17616217 0.13196541
0.014988201 -0.03277087 0.24518271 0.009617452 0.16338976 0.09014837 -0.14494202 0.18627203
-0.087210156 0.13798605 -0.05451463 0.22680971 0.2077903 -0.0631487 -0.086726256 -0.14684081
0.227566 -0.05448688 -0.15391302 0.19190203 -0.0028900395 -0.124317676 -0.17216864 -0.017944757
0.021564756 0.14067195 -0.021336049 0.08965256 -0.14611511 -0.16547854 0.05329447 0.12227972
0.037088294 -0.1850559 0.17368181 -0.027188499 0.0037835867 0.03332295 0.05104262 -0.21169475
-0.0028187225 -0.022705613 -0.07664706 0.051002268 0.08341514 -0.074928895 -0.16160528 -0.051216535
0.088061936 -0.076599866 0.07231444 0.18072383 -0.18653694 0.11495079 -0.0729237 -0.26408535
-0.061033774 0.1127335 -0.1108312 0.09091428 -0.069116145 0.06321989 -0.06900429 -0.043870766
-0.074057326 -0.09268364 0.16829531 0.20127252 0.31471694 0.03702899 -0.059712157 -0.31362063
-0.039770786 0.11383324 0.13456088 0.2378334 0.062175468 -0.012097514 0.12568153 0.029007673
-0.06641215 0.13703059 -0.0061187753 0.12439505 -0.10689879 -0.16689216 0.14875324 -0.1091217
0.14272821 0.049601804 0.11647337 -0.09208068 -0.07159672 -0.052036777 -0.10238473 -0.2462326
-0.26420632 0.11893877 0.04554111 0.27139106 0.1073351 0.12816809 0.034215722 -0.100665845
-0.12518197 -0.08301057 0.21774007 0.20016819 0.10404111 -0.14534798 -0.038761772 0.17543995
0.19565299 -0.07098309 0.07352863 0.13456765 0.18812579 -0.022394724 0.12590328 -0.14612631
0.013558249 0.085609466 0.018843604 0.014661969 0.046541534 -0.09370665 0.11911667 0.01349553
0.08926918 0.22382835 0.20961064 0.08015192 -0.24916533 -0.22656228 -0.053962514 0.16442299
-0.14174475 -0.12067656 -0.2098379 -0.0365904 0.031552695 0.24377541 -0.1539977 0.07452402
-0.40499446 -0.11704817 0.09478167 -0.10871555 0.032219235 0.21678971 0.10057467 0.05323426
0.31781617 0.18719886 -0.32563123 -0.12197407 -0.321356 -0.0758052 0.1366213 -0.075634494
0.21924612 0.011942748 0.104796 0.06667433 -0.004390142 0.27240127 0.09979802 0.063126266
0.13099009 -0.26373804 -0.018348243 0.0064540235 -0.046552047 0.3200685 -0.036815472 0.15983073
0.19868478 0.17084439 -0.2192258 0.19486758 -0.08573429 -0.114112765 0.21571434 0.03109322
-0.018911501 -0.2060814 0.07909387 0.0832512 0.06536311 -0.17080283 0.029642457 -0.06104648
0.11689373 0.05391898 -0.083705865 0.19851178 -0.19445258 -0.1230808 0.090537876 -0.041543756
-0.0877344 0.18501663 -0.24385157 0.037352946 -0.14377221 -0.15262339 -0.080913834 -0.09273508
0.12789741 -0.31840834 0.14598842 0.15613358 0.16463411 -0.06337021 -0.040084336 -0.29126495
00000000: fba8 fb3d 9c5d bc3a 8291 543d 7e34 a2bd
00000010: c06e 24be b20b 973d 7bdc 263e c8af 4a3d
00000020: 29a6 953b 6179 59be 2aa3 d6bd fca4 1b3e
00000030: 89d1 023e 2110 0dbe fda0 683d 6d92 2cbe
00000040: fa2e f83d 30cc bd3c 6dc3 1f3e deca 59bd
00000050: c084 d8bd 2583 823d c236 2a3e 8961 71bd
00000060: dcb8 cabd 87b2 8fbc c1d9 f4bd f95e 79bb
00000070: b31c 6a3e b84b 093b 45a7 b4bc 7af3 92be
00000080: 2ca5 efbc 0637 8ebe aa3d 4ebe c45c 563e
00000090: f87a 78bd 393b c0bd db63 34be f121 073e
000000a0: 1291 753c bf3a 06bd 2d11 7b3e 8492 1d3c
000000b0: a54f 273e b59f b83d ae6b 14be 18be 3e3e
000000c0: 3d9b b2bd 374c 0d3e bc4a 5fbd ce40 683e
000000d0: fbc6 543e 1b54 81bd 899d b1bd 705d 16be
000000e0: 1007 693e a22d 5fbd 609b 1dbe f781 443e
000000f0: d166 3dbb 449a febd fa4c 30be e200 93bc
00000100: 92a8 b03c 4f0c 103e f0c8 aebc c39b b73d
00000110: 339f 15be 3573 29be 4d4b 5a3d ca6d fa3d
00000120: e5e9 173d 4b7f 3dbe a5d9 313e 6aba debc
00000130: 0df6 773b a57d 083d 1112 513d 82c6 58be
00000140: 51ba 38bb 1f01 babc 22f9 9cbd c1e7 503d
00000150: 8fd5 aa3d 5274 99bd db7b 25be 6ec8 51bd
00000160: d159 b43d 64e0 9cbd 9819 943d ab0f 393e
00000170: 8a03 3fbe 526b eb3d 0559 95bd 3236 87be
00000180: 8dfe 79bd d2e0 e63d 78fb e2bd 4431 ba3d
00000190: c48c 8dbd 6e79 813d 1f52 8dbd d5b1 33bd
000001a0: 5eab 97bd ecd0 bdbd 9b55 2c3e 621a 4e3e
000001b0: 9422 a13e b6ab 173d bc94 74bd e292 a0be
000001c0: b1e6 22bd 6721 e93d 54ca 093e 998a 733e
000001d0: b4ab 7e3d a734 46bc a9b2 003e 80a1 ed3c
000001e0: 1803 88bd bf51 0c3e 0280 c8bb d5c2 fe3d
000001f0: c1ed dabd c7e5 2abe c552 183e 337b dfbd
00000200: 5827 123e 432b 4b3d 9789 ee3d cc94 bcbd
00000210: 4da1 92bd 8424 55bd 16af d1bd 6624 7cbe
00000220: 0d46 87be 2b96 f33d 5189 3a3d c5f3 8a3e
00000230: 81d2 db3d 7f3e 033e c925 0c3d e529 cebd
00000240: b42f 00be 7201 aabd 41f7 5e3e e4f8 4c3e
00000250: 8113 d53d 1ad6 14be aac4 1ebd 88a6 333e
00000260: 4259 483e 955f 91bd 2e96 963d 1acc 093e
00000270: 0ca4 403e 2475 b7bc caec 003e 23a2 15be
00000280: 6b23 5e3c 0454 af3d e75d 9a3c c138 703c
00000290: 56a2 3e3d 46e9 bfbd 71f3 f33d 5b1c 5d3c
000002a0: c3d2 b63d 4233 653e 2ca4 563e b126 a43d
000002b0: 3225 7fbe f1ff 67be cc07 5dbd 805e 283e
000002c0: 8925 11be 4625 f7bd bfdf 56be d1df 15bd
000002d0: 663d 013d 43a0 793e 93b1 1dbe 0da0 983d
000002e0: 6f5b cfbe f3b6 efbd e41c c23d 42a6 debd
000002f0: 51f8 033d 1ffe 5d3e 18fa cd3d 2b0c 5a3d
00000300: cdb8 a23e 0fb1 3f3e 23b9 a6be 8bcd f9bd
00000310: c688 a4be c23f 9bbd 74e6 0b3e 42e6 9abd
00000320: 0e82 603e 84ab 433c 499f d63d 8d8c 883d
00000330: 2edb 8fbb 2e78 8b3e e862 cc3d 5848 813d
00000340: 4422 063e ac08 87be 0e4f 96bc 467c d33b
00000350: 5cad 3ebd 05e0 a33e d2cb 16bd abaa 233e
00000360: 0674 4b3e d5f1 2e3e ba7c 60be 5e8b 473e
00000370: 7695 afbd f4b3 e9bd 38e4 5c3e 35b7 fe3c
00000380: 4bec 9abc 0107 53be f8fb a13d 9b7f aa3d
00000390: 18dd 853d f0e6 2ebe bdd4 f23c e00b 7abd
000003a0: fb65 ef3d 26da 5c3d fb6d abbd ac46 4b3e
000003b0: 941e 47be c911 fcbd ec6b b93d c929 2abd
000003c0: 18ae b3bd 0075 3d3e 3ab4 79be 67ff 183d
000003d0: 0639 13be 4e49 1cbe 27b6 a5bd e4eb bdbd
000003e0: 8af7 023e 6b06 a3be fd7d 153e 7be1 1f3e
000003f0: d895 283e 3ec8 81bd 792f 24bd ae20 95be

bias f4 [30]
0.15971822 0.01529096 0.011722181 0.055281933 -0.024265504 -0.0071531483 0.14592767 0.11766074
0.0839858 -0.023778856 -0.0748739 0.033366993 0.09518572 -0.022486962 -0.0069568646 0.0126362825
-0.017798226 -0.136436 -0.05345052 0.099366814 -0.030685473 0.0046051415 -0.06865474 0.067487255
0.03481103 0.036903825 -0.05013298 -0.033338632 -0.17143053 -0.0289806
00000000: 2c8d 233e ef86 7a3c 640e 403c 4f6f 623d
00000010: 73c8 c6bc f564 eabb 106e 153e 1df8 f03d
00000020: bf00 ac3d e0cb c2bc 7d57 99bd d4ab 083d
00000030: bbf0 c23d 9436 b8bc 69f6 e3bb 6908 4f3c
00000040: 96cd 91bc e1b5 0bbe efee 5abd d480 cb3d
00000050: 1a60 fbbc bae6 963b db9a 8cbd c236 8a3d
00000060: 0396 0e3d 7728 173d 3d58 4dbd 178e 08bd
00000070: 7c8b 2fbe b968 edbc

weight f4 [30, 163]
0.11491245 -0.10128148 0.080824144 -0.06313965 0.08991489 -0.10112691 0.15085377 -0.12545347
-0.053888112 0.17541996 0.018734818 -0.088461734 0.15169078 -0.07784458 0.12086337 0.0075042853
-0.12752584 0.06889966 0.032356907 0.13064535 -0.032238215 0.09838561 -0.043649215 -0.117352985
-0.05838165 -0.028577987 -0.13626623 0.17244238 0.04701291 0.04675732 0.028708324 0.09617997
-0.16301036 -0.16240312 -0.12626684 0.07633082 0.0011107152 0.16273826 0.07615641 0.090392515
0.16062729 0.16813216 -0.111856215 -0.12229052 0.09750965 0.10295211 -0.13925485 0.11984217
0.110527456 0.0897642 0.14500085 0.09572245 -0.06292823 -0.15713371 0.0014449345 0.048737373
-0.14131172 -0.10412618 0.06831704 0.107405834 0.15950814 0.11042957 0.13046266 -0.048187584
-0.095346324 -0.05086158 -0.017606447 -0.141587 -0.065079786 0.08829497 0.07177578 -0.060290933
0.14601551 -0.03863971 -0.11446508 0.16855341 -0.04504967 -0.085630685 0.14757381 0.17164163
0.17073743 0.08338156 -0.01303988 0.17555717 -0.154652 0.14249444 -0.11558888 -0.17431416
0.11307024 -0.021533214 -0.16587691 -0.08504159 -0.05688911 0.06565161 -0.1471715 -0.14704
0.1471219 0.017011637 0.10580649 0.014882185 0.09051613 -0.05144156 -0.07297349 -0.013753446
0.114347614 -0.09968131 -0.061465576 -0.019389343 0.1530048 0.16734326 -0.008817821 -0.13595171
0.117844045 0.044521786 -0.1110818 -0.16251186 -0.063532285 -0.1250151 0.032954574 0.03500914
-0.1226637 0.048247993 -0.061872236 0.113668755 0.13067663 0.17604642 0.031795915 -0.15405436
0.08727857 -0.0063046394 -0.17500347 -0.10926805 0.12722328 0.08524706 0.13258772 0.1602271
0.15842576 -0.10306785 0.047325857 0.16921093 -0.052350834 0.114329584 -0.08661743 0.11274668
0.091082245 -0.102860056 0.16897157 0.07624704 -0.14239135 -0.150768 0.098688975 -0.10699707
-0.15239888 0.11672795 -0.11571182 0.09086768 0.021403275 0.0070263185 0.09578194 -0.17187004
0.059254717 0.0010081647 -0.14133054 -0.14573045 0.0909014 -0.017381735 -0.15909821 -0.09237027
0.16536075 0.0366139 0.047004692 0.16641401 0.012419627 0.03538941 0.11275473 0.020867191
-0.018271208 -0.028210714 0.072045386 -0.17213613 -0.037082575 -0.15320326 0.008950418 -0.06884676
-0.056168303 0.15389922 -0.08060636 0.16079251 -0.16311915 -0.034097966 -0.047133535 0.1736429
-0.0016206724 -0.16998017 -0.04201531 -0.08233773 -0.14931288 0.080374345 0.12204161 -0.08955868
0.0062154992 0.15172176 -0.13384244 -0.081946716 0.07849728 -0.03178237 0.1346502 -0.022127971
-0.06033983 -0.17215545 0.030273465 -0.1333766 -0.1539575 0.01629019 0.10825478 -0.064044155
0.042905383 -0.054606967 -0.08866882 -0.06403584 0.08058277 0.05805175 -0.061037727 -0.13589191
-0.112578034 0.151828 0.11220143 0.12769689 0.1383236 -0.0502523 0.09411744 0.106037095
-0.10868725 -0.063045286 -0.11218406 -0.04612221 0.10308438 0.010618382 0.0068604597 -0.017976156
-0.11682473 0.058554202 0.076762736 0.095393784 -0.12623301 0.10621855 0.16340132 0.037608866
0.096740834 -0.018390005 -0.16282125 -0.13336125 0.04601374 0.052462 0.13972634 0.05508899
00000000: 3857 eb3d aa6c cfbd 2187 a53d 5c4f 81bd
00000010: 4c25 b83d a01b cfbd 6979 1a3e e076 00be
00000020: c8b9 5cbd 4aa1 333e c379 993c 6d2b b5bd
00000030: d454 1b3e fb6c 9fbd 3787 f73d 82e6 f53b
00000040: 2296 02be 441b 8d3d ad88 043d e5c7 053e
00000050: 380c 04bd 657e c93d 85c9 32bd c356 f0bd
00000060: 9921 6fbd 621c eabc 6089 0bbe bc94 303e
00000070: 9c90 403d 9b84 3f3d b82d eb3c 01fa c43d
00000080: 30ec 26be 014d 26be 184c 01be 5553 9c3d
00000090: 6b95 913a dca4 263e e4f7 9b3d b61f b93d
000000a0: 7b7b 243e d62a 2c3e df14 e5bd 7473 fabd
000000b0: 24b3 c73d 8ed8 d23d d398 0ebe d06f f53d
000000c0: 385c e23d 4bd6 b73d 1a7b 143e 220a c43d
000000d0: 84e0 80bd a9e7 20be f563 bd3a d7a0 473d
000000e0: 05b4 10be 1b40 d5bd cee9 8b3d 97f7 db3d
000000f0: 1a56 233e e628 e23d 0198 053e 5860 45bd
00000100: ef44 c3bd 3b54 50bd 653b 90bc 2ffc 10be
00000110: 8d48 85bd fed3 b43d 2eff 923d a0f3 76bd
00000120: 1785 153e ac44 1ebd ab6c eabd 4499 2c3e
00000130: 0186 38bd 245f afbd 971d 173e d3c2 2f3e
00000140: cbd5 2e3e f4c3 aa3d 39a5 55bc 42c5 333e
00000150: 185d 1ebe 10ea 113e ddb9 ecbd 697f 32be
00000160: 5f91 e73d 6c66 b0bc a3db 29be 492a aebd
00000170: 8e04 69bd 5a74 863d 20b4 16be a791 16be
00000180: 20a7 163e fd5b 8b3c 13b1 d83d 68d4 733c
00000190: 8560 b93d 63b4 52bd 2073 95bd 2256 61bc
000001a0: 152f ea3d b725 ccbd 54c3 7bbd 66d6 9ebc
000001b0: 4aad 1c3e 085c 2b3e 9f78 10bc ed36 0bbe
000001c0: 3858 f13d 7a5c 363d db7e e3bd 8269 26be
000001d0: 371d 82bd f503 00be 60fb 063d be65 0f3d
000001e0: 1b37 fbbd b09f 453d be6d 7dbd 2acb e83d
000001f0: 18d0 053e 8345 343e 6f3c 023d 6dc0 1dbe
00000200: 1bbf b23d 2697 cebb 1c34 33be edc7 dfbd
00000210: d246 023e 0396 ae3d 13c5 073e 9312 243e
00000220: 5d3a 223e 3d15 d3bd c2d8 413d a145 2d3e
00000230: d46d 56bd a125 ea3d 7b64 b1bd bbe7 e63d
00000240: 5489 ba3d 4ba8 d2bd e206 2d3e 6827 9c3d
00000250: 0acf 11be ed62 1abe 721d ca3d 4821 dbbd
00000260: 740e 1cbe 100f ef3d 52fa ecbd d618 ba3d
00000270: ec55 af3c 083d e63b 5229 c43d b3fe 2fbe
00000280: 13b5 723d 6524 843a f4b8 10be 5d3a 15be
00000290: 832a ba3d 2464 8ebc a4ea 22be a02c bdbd
000002a0: 5454 293e 75f8 153d fe87 403d 6f68 2a3e
000002b0: b17b 4b3c 7cf4 103d f4eb e63d acf1 aa3c
000002c0: 80ad 95bc 281a e7bc 888c 933d 7444 30be
000002d0: e6e3 17bd 51e1 1cbe c6a4 123c 88ff 8cbd
000002e0: bc10 66bd c297 1d3e f314 a5bd cba6 243e
000002f0: b508 27be 4faa 0bbd 180f 41bd 72cf 313e
00000300: be6c d4ba 480f 2ebe 3f18 2cbd afa0 a8bd
00000310: 7ae5 18be 4e9b a43d f4f0 f93d 8b6a b7bd
00000320: 63ab cb3b f35c 1b3e fe0d 09be aed3 a7bd
00000330: 2fc3 a03d 3b2e 02bd bee1 093e b845 b5bc
00000340: e626 77bd 8549 30be 0f00 f83c e093 08be
00000350: 09a7 1dbe 0173 853c afb4 dd3d 9529 83bd
00000360: 8ebd 2f3d 8eab 5fbd 0098 b5bd 3925 83bd
00000370: 9408 a53d acc7 6d3d b202 7abd 4027 0bbe
00000380: 508f e6bd cd78 1b3e ddc9 e53d f9c2 023e
00000390: b4a4 0d3e 5bd5 4dbd a5c0 c03d fa29 d93d
000003a0: 6c97 debd e31d 81bd c2c0 e5bd a4ea 3cbd
000003b0: e71d d33d b9f8 2d3c b5cd e03b bb42 93bc
000003c0: ce41 efbd 88d6 6f3d c835 9d3d d15d c33d
000003d0: 3a43 01be 1c89 d93d ad52 273e c10b 1a3d
000003e0: 0f20 c63d a3a6 96bc 9dba 26be da8f 08be
000003f0: e778 3c3d 65e2 563d 6c14 0f3e fea4 613d

bias f4 [30]
0.0359672 -0.059629478 -0.07032709 -0.040972978 -0.046762336 0.021366568 0.04385264 0.01245786
0.0131308 -0.06659168 0.06351042 -0.042775046 0.007559447 -0.015979908 -0.013625214 0.046520572
-0.07097073 0.06949777 -0.056490913 0.02227814 0.07285387 -0.036442176 0.020684859 -0.039156638
-0.027809417 -0.010549996 0.017408438 -0.075201705 0.0135855405 -0.05623432
00000000: 5852 133d 0a3e 74bd a607 90bd 48d3 27bd
00000010: dd89 3fbd f108 af3c d39e 333d 0d1c 4c3c
00000020: 9122 573c 3861 88bd c011 823d e334 2fbd
00000030: 3db5 f73b 4ce8 82bc 4a3c 5fbc 5b8c 3e3d
00000040: 1a59 91bd d954 8e3d 0463 67bd a580 b63c
00000050: 6934 953d 6444 15bd 4b73 a93c b662 20bd
00000060: 93d0 e3bc e4d9 2cbc 249c 8e3c 5a03 9abd
00000070: e395 5e3c f555 66bd

att f4 [1, 1, 30]
0.28671274 0.08935683 0.30616808 -0.4244465 -0.35827845 0.26955852 0.34654877 0.37361354
-0.4085872 0.19705507 -0.43382326 -0.13010906 0.00891102 0.20573373 -0.13439405 -0.38040113
-0.42750967 -0.1764312 0.33527195 0.19088303 0.21760623 -0.35580432 -0.39530143 0.40705875
0.28736717 -0.18962847 0.036991905 0.31694484 0.3960309 -0.3539921
00000000: 03cc 923e b700 b73d 10c2 9c3e 0d51 d9be
00000010: 4670 b7be 9303 8a3e d76e b13e 464a bf3e
00000020: 5732 d1be cec8 493e 151e debe 4f3b 05be
00000030: 87ff 113c ddab 523e 989e 09be f0c3 c2be
00000040: 8ce2 dabe 61aa 34be c4a8 ab3e d776 433e
00000050: 2bd4 5e3e fc2b b6be f364 cabe 016a d03e
00000060: ca21 933e f72d 42be d384 173d 9846 a23e
00000070: 90c4 ca3e 743e b5be

bias f4 [30]
-0.0018803449 -0.0019806998 6.693456e-05 -1.0358902e-05 -2.5036159e-05 9.499454e-06 -2.927059e-06 -2.8990147e-05
-1.4812476e-05 0.0016251547 -0.0007664115 0.0014828531 1.2835242e-05 0.0010058199 -1.2029934e-05 0.0008325334
-0.0013297455 -4.6406527e-05 -1.5717098e-05 0.0020982847 0.0016232943 1.5537009e-05 0.0021567063 1.0865076e-05
-0.0006995386 8.326382e-07 -6.833004e-06 -2.3829916e-05 0.0016013422 -0.0010290833
00000000: e875 f6ba a1ce 01bb 385f 8c38 25cb 2db7
00000010: be04 d2b7 d85f 1f37 7e6e 44b6 de2f f3b7
00000020: 1a83 78b7 2503 d53a 01e9 48ba 4b5c c23a
00000030: f256 5737 b7d5 833a 2cd4 49b7 5f3e 5a3a
00000040: db4a aeba a1a4 42b8 36d8 83b7 6083 093b
00000050: b8c4 d43a 7955 8237 8757 0d3b 2549 3637
00000060: 3e61 37ba 7682 5f35 0f47 e5b6 5be6 c7b7
00000070: 21e4 d13a 4ee2 86ba

weight f4 [30, 163]
-0.061023533 0.17521141 -0.15140115 -0.07418217 0.0013584206 -0.1263194 0.026824681 0.117080696
-0.027737075 -0.13397913 -0.079561464 0.016220585 0.16995558 -0.11214143 0.01979195 -0.07255676
-0.042009242 -0.031845696 0.021841623 0.1128616 -0.17242211 -0.15408336 0.16290687 -0.11656047
0.03219475 0.16260456 0.016141176 -0.05125852 0.13420615 0.1158371 -0.022145145 0.08525433
0.02952254 -0.0653906 -0.13388856 -0.13007899 -0.065280765 -0.033537466 0.045543194 -0.08112779
-0.078985296 0.02328978 0.059616778 0.034998976 -0.007461554 0.0803773 -0.15697086 0.15733236
-0.09029927 -0.010815611 0.14867023 0.0616572 0.17304496 -0.059372086 0.049012024 -0.018539371
0.114395946 -0.10793685 0.03425077 0.037497725 0.10571814 -0.029996952 -0.07347612 -0.0038210545
-0.113550596 -0.12542978 -0.12235632 -0.12272522 0.09780309 0.13645427 -0.06686505 0.14143537
0.16720593 -0.0076668025 -0.17140292 -0.09656755 -0.0017122931 0.068144605 0.14154068 -0.05959551
-0.019123338 0.030537967 -0.0641812 -0.09744898 0.034750108 0.15579775 -0.12920164 0.039952118
0.09154251 -0.0021214548 0.056585673 -0.12845002 0.13860193 0.046436444 -0.098784745 -0.17528178
-0.087120354 0.16385858 -0.02736181 0.15017399 0.12287086 0.09461345 0.04535799 0.039765123
0.06252641 0.008235047 0.14121956 -0.04751242 -0.07840523 -0.1588033 0.009055361 0.14208837
-0.15123764 -0.0093119405 0.05452892 0.07202334 -0.08880439 0.04202856 -0.07765476 -0.094778225
0.023134612 -0.15729141 -0.019058367 0.14131589 -0.040327583 0.068674624 0.16804 -0.07819845
0.17571947 -0.14829242 -0.10096183 0.10434864 0.16371466 -0.05834499 -0.05008366 -0.13484153
-0.15072647 -0.16977568 0.16048156 -0.12393064 0.02920468 0.089448795 0.17573753 -0.14893149
-0.011058176 -0.10116147 -0.109773256 0.034789152 0.040801436 -0.012480305 0.14261101 0.09506183
0.12286779 0.0748606 0.124482684 -0.10868912 0.116654985 -0.1143503 0.022035467 0.13088614
0.09035437 0.14145462 0.0069171255 0.04159106 -0.052797243 -0.07907243 -0.04610499 -0.10781273
0.08322144 -0.054248262 -0.16915086 0.12516451 -0.12641007 0.1430294 -0.16248548 0.09644285
-0.15087982 -0.1533245 0.069119595 0.12038841 -0.17543139 0.10424797 -0.1662459 -0.107376195
0.0630086 0.008391554 0.036921013 -0.08437841 0.08518163 0.13857904 0.086927995 -0.113012426
-0.14142868 -0.13979396 0.098512344 0.12948173 0.077805296 -0.02644687 -0.11747865 -0.09598896
0.1586748 -0.008680157 0.12713927 0.14121692 -0.016172132 -0.11182886 -0.17215614 -0.080326475
-0.047423992 -0.061271474 -0.06439113 0.06656619 -0.044172015 0.05863103 -0.17599182 -0.042381536
0.11565465 -0.13965699 -0.020405976 -0.06561818 0.0077241166 -0.029047666 0.104374945 0.063712046
0.065880775 -0.06742751 0.048512008 0.015073665 0.1397849 -0.05999295 0.0385108 0.1729028
0.013132813 -0.018020159 -0.08737766 0.020467037 0.05770827 -0.117257714 -0.10668306 -0.15931939
0.02990406 0.16845405 0.06421215 0.034165733 0.13767554 -0.10547362 0.16436179 0.13276215
0.033706248 -0.023279162 0.10010577 0.15496235 0.083529115 -0.015179955 0.068546765 0.10157299
00000000: d0f3 79bd 9f6a 333e e708 1bbe d2ec 97bd
00000010: 080d b23a df59 01be 6fbf db3c 01c8 ef3d
00000020: dd38 e3bc d331 09be 1ff1 a2bd 08e1 843c
00000030: d608 2e3e 68aa e5bd ba22 a23c a398 94bd
00000040: e211 2cbd a270 02bd 34ed b23c fc23 e73d
00000050: 6c8f 30be 07c8 1dbe 0fd1 263e 41b7 eebd
00000060: a4de 033d cf81 263e 803a 843c 74f4 51bd
00000070: 566d 093e 003c ed3d bc69 b5bc d299 ae3d
00000080: 41d9 f13c 82eb 85bd 151a 09be 6d33 05be
00000090: ecb1 85bd 955e 09bd 808b 3a3d 5426 a6bd
000000a0: 0bc3 a1bd 35ca be3c b930 743d 165b 0f3d
000000b0: 0d80 f4bb db9c a43d f8bc 20be bc1b 213e
000000c0: d3ee b8bd f633 31bc 023d 183e 438c 7c3d
000000d0: b332 313e 2530 73bd d5c0 483d e1df 97bc
000000e0: 6c48 ea3d ff0d ddbd 894a 0c3d 3797 193d
000000f0: c182 d83d 2bbc f5bc a67a 96bd a86a 7abb
00000100: 378d e8bd aa70 00be f395 fabd 5c57 fbbd
00000110: fd4c c83d abba 0b3e 8bf0 88bd 6fd4 103e
00000120: 0838 2b3e cd39 fbbb 3f84 2fbe 35c5 c5bd
00000130: 066f e0ba 668f 8b3d 0af0 103e 6c1a 74bd
00000140: 8ca8 9cbc c22a fa3c 6f71 83bd 5593 c7bd
00000150: 2156 0e3d 7289 1f3e 6f4d 04be d5a4 233d
00000160: a47a bb3d 1b08 0bbb 61c6 673d 6788 03be
00000170: aaed 0d3e 2434 3e3d a84f cabd 117d 33be
00000180: 286c b2bd 8bca 273e e025 e0bc 36c7 193e
00000190: b8a3 fb3d b2c4 c13d 4dc9 393d c1e0 223d
000001a0: d90d 803d 4aec 063c dc9b 103e 629c 42bd
000001b0: ec92 a0bd 559d 22be f05c 143c 9d7f 113e
000001c0: 0ade 1abe 1c91 18bc b859 5f3d f980 933d
000001d0: 13df b5bd 2426 2c3d 7509 9fbd 161b c2bd
000001e0: cc84 bd3c 0011 21be 4b20 9cbc 1db5 103e
000001f0: 892e 25bd 48a5 8c3d ae12 2c3e 8226 a0bd
00000200: ceef 333e f8d9 17be 13c5 cebd bdb4 d53d
00000210: d1a4 273e 28fb 6ebd 8624 4dbd e613 0abe
00000220: 0a58 1abe add9 2dbe 4755 243e 59cf fdbd
00000230: a73e ef3c ee30 b73d 8af4 333e 7f81 18be
00000240: 5a2d 35bc bf2d cfbd cdd0 e0bd 127f 0e3d
00000250: 681f 273d 317a 4cbc 9f08 123e c7af c23d
00000260: 1ca2 fb3d 8450 993d c7f0 fe3d 6798 debd
00000270: cfe8 ee3d 7d30 eabd b983 b43c 0407 063e
00000280: b60b b93d 7bd9 103e 0ea9 e23b 635b 2a3d
00000290: ec41 58bd baf0 a1bd 96d8 3cbd eccc dcbd
000002a0: 0170 aa3d 6d33 5ebd e235 2dbe 202b 003e
000002b0: a471 01be 4d76 123e 9862 26be d483 c53d
000002c0: 3d80 1abe 1901 1dbe 938e 8d3d 338e f63d
000002d0: 49a4 33be f67f d53d 5d3c 2abe 0de8 dbbd
000002e0: a70a 813d ba7c 093c 7d3a 173d 96ce acbd
000002f0: b573 ae3d aae7 0d3e 4e07 b23d 0f73 e7bd
00000300: aed2 10be 2626 0fbe d7c0 c93d dc96 043e
00000310: 6258 9f3d 1ba7 d8bc a598 f0bd dc95 c4bd
00000320: a67b 223e 3837 0ebc cc30 023e 2b9b 103e
00000330: 6b7b 84bc 8806 e5bd b349 30be 3582 a4bd
00000340: a93f 42bd ccf7 7abd 7fdf 83bd db53 883d
00000350: b7ed 34bd 1727 703d 3337 34be 4398 2dbd
00000360: 58dc ec3d 3e02 0fbe 6f2a a7bc d362 86bd
00000370: 961a fd3b 5ff5 edbc 88c2 d53d 767b 823d
00000380: 80ec 863d 6f17 8abd 87b4 463d 89f7 763c
00000390: c623 0f3e 2bbb 75bd 80bd 1d3d 6e0d 313e
000003a0: 032b 573c 039f 93bc 0ff3 b2bd 7daa a73c
000003b0: 825f 6c3d d024 f0bd a67c dabd 9f24 23be
000003c0: 5cf9 f43c 387f 2c3e a981 833d 5ef1 0b3d
000003d0: d1fa 0c3e 8e02 d8bd 754e 283e cdf2 073e
000003e0: 900f 0a3d f1b3 bebc 4104 cd3d 73ae 1e3e
000003f0: 5011 ab3d 59b5 78bc 3f62 8c3d 8005 d03d

bias f4 [30]
-0.0287375 -0.029942567 0.017578077 -0.043010984 -0.061902575 -0.042189144 -0.045960505 -0.070343785
-0.044875942 0.035581626 0.073059596 -0.047966555 -0.009032501 -0.066953644 -0.004983387 0.06427428
-0.038114157 0.03361092 0.06654912 0.023945848 -0.032454576 -0.012508078 -0.059191667 0.024994388
0.01894817 -0.05533056 0.06672063 0.0017918278 -0.07199607 0.019945297
00000000: e86a ebbc 1d4a f5bc e6ff 8f3c 492c 30bd
00000010: 8e8d 7dbd 86ce 2cbd 1541 3cbd 6710 90bd
00000020: d6cf 37bd 0abe 113d 45a0 953d 9478 44bd
00000030: 0efd 13bc fe1e 89bd ae4b a3bb 3ca2 833d
00000040: 971d 1cbd 9bab 093d e84a 883d 152a c43c
00000050: 17ef 04bd aeee 4cbc f672 72bd 08c1 cc3c
00000060: 3139 9b3c 4ca2 62bd d3a4 883d c4db ea3a
00000070: ad72 93bd 5264 a33c

weight f4 [30, 9]
-0.21534958 0.06553765 -0.049914647 0.05312707 -0.33714834 0.37698987 0.04997845 -0.3920006
0.037753034 0.3707885 -0.18050691 0.21472211 0.30665165 0.017632293 0.12018041 0.3794696
-0.12497167 -0.14788516 0.23310865 0.09499913 0.11812639 0.04940319 0.27762228 -0.37045404
-0.018338757 -0.076695025 0.03245959 0.11704727 0.30356526 0.15649383 -0.1337125 0.21155156
-0.37581563 -0.11536872 0.2081223 -0.28613168 0.37006503 0.35934123 -0.12610607 0.13166538
-0.019487897 0.17819908 -0.35812825 0.37290594 -0.2259826 -0.26098618 0.18799222 0.078759566
0.082979865 0.036677934 -0.36062953 0.123389676 0.083915025 0.31874758 0.1980057 -0.03012369
-0.19391602 0.29764798 0.08284801 0.12469478 0.08480169 0.32847905 0.13474941 -0.37576726
0.2002132 -0.033820592 -0.30765378 0.177405 -0.1389395 -0.18168141 -0.32441816 0.08495468
0.24060673 -0.1721892 0.04555386 -0.11063414 0.34722212 -0.08439644 0.017739555 -0.08763736
-0.17398666 0.14764567 0.35931236 -0.29779112 0.36553437 -0.24733558 0.12833646 0.23020238
-0.07948363 0.32002926 0.29702353 -0.016061794 -0.13366011 0.32810852 -0.25516063 -0.11558752
0.37567475 0.25334176 -0.19615422 -0.2402021 -0.0013902242 0.07922812 -0.02478487 0.17412205
0.024937207 -0.20928434 0.25680763 0.14808738 -0.19450706 -0.13676706 0.26728335 0.16395144
0.055806194 0.0026491995 0.15264547 0.005676295 -0.36234665 0.17829663 -0.22155781 0.033393484
-0.0520663 -0.38159427 0.033870924 -0.122731745 -0.030495297 -0.26232567 0.09655808 -0.2407502
-0.3495841 0.28858316 0.29171094 -0.30595696 -0.3574987 0.3826409 0.08863858 -0.20195952
-0.26594165 0.056402072 -0.35720718 -0.12972577 -0.36566567 -0.37779406 -0.0623631 -0.19128999
0.052818045 -0.25666997 0.36954284 -0.07777377 0.14745761 0.3260741 0.06478569 0.38222077
-0.026618497 0.3834847 0.32137808 0.015206082 0.2036677 -0.23544867 0.08938516 -0.07269328
0.13986112 0.18559182 0.02008352 -0.16685131 0.3526388 -0.23705858 0.34726316 -0.08334811
-0.18430723 -0.042649597 -0.15510596 -0.17686051 0.13231175 0.26282996 -0.09938405 0.02044117
-0.06988885 0.04434405 -0.17593886 -0.17856549 0.10428475 0.037722405 -0.042639215 0.28743404
-0.37972227 -0.31651947 -0.35263237 0.38197172 -0.33312622 0.25257638 -0.34776527 0.048134606
-0.045344196 -0.15958458 0.13916138 -0.07839562 0.26332706 0.35336667 -0.31283426 -0.36982822
-0.36941648 -0.11337691 0.103722766 0.007035215 -0.14929496 0.17889984 0.011748674 -0.38269407
-0.31245577 0.3064781 -0.15460686 0.24875477 0.27470952 0.17721465 0.20576385 0.15656835
-0.06845928 -0.12391236 0.07510479 -0.2750142 -0.18706447 -0.38730273 0.041878 0.26399484
0.20667142 0.11513156 -0.0029658896 0.03782878 0.017832931 0.30396023 0.15294991 0.30711028
-0.061343476 0.16520506 -0.056076895 0.23745398 -0.34684658 -0.051178277 -0.24239522 -0.0021628723
-0.32677802 -0.16225666 -0.081116155 -0.12089989 0.33283284 0.04071757 -0.14589757 -0.20030104
0.045803685 0.13687961 0.19168055 0.3035805 0.12630562 0.059160266 -0.20196578 0.240936
00000000: 9a84 5cbe 9a38 863d 4d73 4cbd c59b 593d
00000010: b59e acbe d104 c13e 34b6 4c3d 4db4 c8be
00000020: eda2 1a3d fed7 bd3e ced6 38be 1de0 5b3e
00000030: 7201 9d3e 9971 903c 2621 f63d d749 c23e
00000040: 26f1 ffbd 356f 17be 09b4 6e3e e78e c23d
00000050: 40ec f13d 005b 4a3d 8224 8e3e 27ac bdbe
00000060: 293b 96bc 4812 9dbd 59f4 043d 7bb6 ef3d
00000070: e86c 9b3e eb3f 203e eeeb 08be f9a0 583e
00000080: e86a c0be 6f46 ecbd 031e 553e da7f 92be
00000090: 2a79 bd3e 93fb b73e f321 01be 4ad3 063e
000000a0: 15a5 9fbc d279 363e 965c b7be 87ed be3e
000000b0: fc67 67be fb9f 85be 0881 403e b24c a13d
000000c0: 59f1 a93d 9a3b 163d 6fa4 b8be bab3 fc3d
000000d0: a4db ab3d e232 a33e 02c2 4a3e f5c5 f6bc
000000e0: ec91 46be 5165 983e 38ac a93d fa5f ff3d
000000f0: 82ac ad3d 682e a83e c0fb 093e 9164 c0be
00000100: b004 4d3e 7687 0abd cc84 9dbe a8a9 353e
00000110: 2846 0ebe b10a 3abe 231a a6be b8fc ad3d
00000120: 9c61 763e 5e52 30be af96 3a3d 2794 e2bd
00000130: 19c7 b13e 0ad8 acbd 8b52 913c 377b b3bd
00000140: 8f29 32be 6d30 173e caf7 b73e 1478 98be
00000150: 5227 bb3e 8a45 7dbe a26a 033e 2cba 6b3e
00000160: 50c8 a2bd e0da a33e 7813 983e 0694 83bc
00000170: 32de 08be d7fd a73e 6aa4 82be 26b9 ecbd
00000180: 7158 c03e 03b6 813e a7dc 48be 8af7 75be
00000190: 2f38 b6ba 5a42 a23d a409 cbbc 0d4d 323e
000001a0: 1d49 cc3c a24e 56be 4a7c 833e 38a4 173e
000001b0: dc2c 47be aa0c 0cbe 5dd9 883e e3e2 273e
000001c0: 0995 643d 319e 2d3b 184f 1c3e 3700 ba3b
000001d0: 8085 b9be 6493 363e 0de0 62be 9bc7 083d
000001e0: 7943 55bd 5360 c3be 3dbc 0a3d c85a fbbd
000001f0: 46d1 f9bc 8d4f 86be 3ec0 c53d 3887 76be
00000200: b0fc b2be 2cc1 933e 235b 953e 64a6 9cbe
00000210: 120a b7be 82e9 c33e 2588 b53d 7ace 4ebe
00000220: 8129 88be dc05 673d dce3 b6be d5d6 04be
00000230: 8838 bbbe 396e c1be 7370 7fbd 86e1 43be
00000240: bc57 583d 3f6a 83be b834 bd3e db47 9fbd
00000250: 21ff 163e 2ff3 a63e 5cae 843d 71b2 c33e
00000260: 090f dabc 1b58 c43e ab8b a43e ee22 793c
00000270: 448e 503e 7519 71be 910f b73d 37e0 94bd
00000280: c137 0f3e c80b 3e3e 3286 a43c 12db 2abe
00000290: 138d b43e 7cbf 72be 7acc b13e 6ab2 aabd
000002a0: 09bb 3cbe 58b1 2ebd 19d4 1ebe ec1a 35be
000002b0: bb7c 073e a691 863e dd89 cbbd 3e74 a73c
000002c0: e321 8fbd 1ba2 353d 5129 34be dfd9 36be
000002d0: 3e93 d53d cf82 1a3d 75a6 2ebd 8e2a 933e
000002e0: f56a c2be d70e a2be 3b8c b4be cc91 c33e
000002f0: 858f aabe b151 813e 4a0e b2be cb28 453d
00000300: d6ba 39bd 246a 23be 5280 0e3e e28d a0bd
00000310: ced2 863e 7aec b43e d02b a0be 205a bdbe
00000320: 2824 bdbe 2732 e8bd 9a6c d43d a987 e63b
00000330: c7e0 18be 8531 373e 837d 403c 7af0 c3be
00000340: 34fa 9fbe b3ea 9c3e 4351 1ebe 92b9 7e3e
00000350: baa6 8c3e c277 353e c2b3 523e 7453 203e
00000360: 6134 8cbd c3c5 fdbd 8ad0 993d a9ce 8cbe
00000370: d48d 3fbe 8b4c c6be 4488 2b3d 552a 873e
00000380: aca1 533e 18ca eb3d 5f5f 42bb 5af2 1a3d
00000390: 5e16 923c ada0 9b3e e79e 1c3e 8f3d 9d3e
000003a0: 4c43 7bbd 842b 293e e3b0 65bd 2327 733e
000003b0: e095 b1be 50a0 51bd 7436 78be fabe 0dbb
000003c0: 734f a7be 9c26 26be 3a20 a6bd 5d9a f7bd
000003d0: 1169 aa3e 77c7 263d 2c66 15be b71b 4dbe
000003e0: a59c 3b3d 2b2a 0c3e e847 443e e76e 9b3e
000003f0: 4356 013e 0952 723d 1ed0 4ebe edb7 763e

bias f4 [30]
-0.094426334 -0.13418816 -0.113799796 -0.06869559 0.09004235 -0.05671992 -0.16437349 0.20088825
-0.14765814 0.31104368 0.16715798 0.32165247 0.24488084 0.14278917 -0.18319115 -0.26289928
-0.2603989 0.13123362 -0.2642183 -0.018264573 0.29128584 -0.06763059 -0.091199756 -0.14464128
0.021664262 -0.13541977 0.07281105 -0.27236333 -0.07559121 0.18205464
00000000: 9862 c1bd 9f68 09be de0f e9bd 46b0 8cbd
00000010: 2068 b83d 2653 68bd 8651 28be a6b5 4d3e
00000020: b233 17be 1e41 9f3e 762b 2b3e a2af a43e
00000030: 0bc2 7a3e 5337 123e 7696 3bbe bc9a 86be
00000040: 0153 85be 1b62 063e 9f47 87be 969f 95bc
00000050: 6b23 953e e881 8abd f0c6 babd d81c 14be
00000060: 4079 b13c 7bab 0abe f61d 953d 3573 8bbe
00000070: 90cf 9abd 886c 3a3e

att f4 [1, 1, 30]
-0.21806806 0.17083308 0.3360486 0.0766365 -0.02690773 0.017128037 0.40044084 -0.34534496
0.2004277 -0.31503186 0.04158263 -0.41563013 0.28508368 -0.24539307 0.029334016 -0.27591676
0.039797425 -0.2140459 -0.22493903 -0.19069032 0.2729321 0.061504085 -0.11333319 0.37474516
0.08618191 -0.14222893 -0.019867964 -0.17193493 -0.17479694 -0.1378638
00000000: 3c4d 5fbe deee 2e3e 900e ac3e 99f3 9c3d
00000010: 9a6d dcbc 1950 8c3c 9506 cd3e 0ed1 b0be
00000020: eb3c 4d3e db4b a1be 8c52 2a3d 79cd d4be
00000030: 7df6 913e 5248 7bbe e44d f03c f644 8dbe
00000040: a002 233d d92e 5bbe 6b56 66be 5344 43be
00000050: c2bd 8b3e b5eb 7b3d 3b1b e8bd 99de bf3e
00000060: 2480 b03d 76a4 11be 24c2 a2bc b60f 30be
00000070: f8fd 32be 2b2c 0dbe

bias f4 [30]
-0.0018803449 -0.0019806998 6.693456e-05 -1.0358902e-05 -2.5036159e-05 9.499454e-06 -2.927059e-06 -2.8990147e-05
-1.4812476e-05 0.0016251547 -0.0007664115 0.0014828531 1.2835242e-05 0.0010058199 -1.2029934e-05 0.0008325334
-0.0013297455 -4.6406527e-05 -1.5717098e-05 0.0020982847 0.0016232943 1.5537009e-05 0.0021567063 1.0865076e-05
-0.0006995386 8.326382e-07 -6.833004e-06 -2.3829916e-05 0.0016013422 -0.0010290833
00000000: e875 f6ba a1ce 01bb 385f 8c38 25cb 2db7
00000010: be04 d2b7 d85f 1f37 7e6e 44b6 de2f f3b7
00000020: 1a83 78b7 2503 d53a 01e9 48ba 4b5c c23a
00000030: f256 5737 b7d5 833a 2cd4 49b7 5f3e 5a3a
00000040: db4a aeba a1a4 42b8 36d8 83b7 6083 093b
00000050: b8c4 d43a 7955 8237 8757 0d3b 2549 3637
00000060: 3e61 37ba 7682 5f35 0f47 e5b6 5be6 c7b7
00000070: 21e4 d13a 4ee2 86ba

weight f4 [30, 9]
0.0175386 0.13841969 -0.083809815 0.07797038 -0.32771733 0.039010417 0.0008019886 -0.017710745
-0.035152763 0.07905589 -0.39298493 -0.06102831 0.26561117 0.08615651 -0.20209867 -0.21617451
0.068847634 -0.30365717 0.31848386 0.19473702 -0.3532042 0.27378622 0.11388598 0.28411654
0.069225006 0.3404061 -0.30074352 -0.39985377 -0.12894614 -0.10754378 0.39107734 0.3558066
-0.0273562 0.063414566 0.31117016 0.09746735 -0.21030183 0.023510674 -0.37687606 -0.29772455
-0.049693484 0.33233806 -0.17420663 -0.08458989 0.38950902 -0.35923794 0.34738192 -0.17090283
-0.3759172 0.13330801 0.30768234 0.10415551 -0.344846 -0.22113268 -0.36644265 -0.37442413
-0.18907458 0.0444958 0.20409065 -0.03475508 0.22378932 0.29162392 -0.30579314 -0.25383827
0.010475258 0.281219 0.13291319 0.027175002 -0.19116217 0.26838204 -0.27388158 -0.11342412
-0.026736682 0.06720056 0.22263932 -0.012118582 -0.21839815 0.31518382 -0.20684 0.092304155
-0.08939137 0.08923142 -0.21371755 0.12765893 0.24165967 0.098088205 -0.32183006 -0.21838884
-0.04100746 -0.1764315 0.13125138 0.12340558 0.13301669 -0.3505252 0.38308275 -0.22728969
0.10071437 0.18050197 -0.14567465 0.1630325 0.19885096 -0.2851902 0.024509108 0.0013067558
0.11209094 -0.38866162 -0.3175095 0.24306098 -0.12575604 0.29505113 -0.25978434 0.3108306
-0.020736579 0.26088995 0.022342386 -0.33615145 -0.36469898 0.2134522 0.27847818 -0.3884629
-0.11752137 0.079031 0.18117449 0.2894605 0.24411924 0.16670406 -0.11155155 0.21588664
0.19677942 -0.15137707 -0.033812985 0.22611223 0.33027294 -0.15253535 -0.23719609 0.07674325
0.23988573 0.0899802 -0.26676968 -0.34847367 -0.067163736 0.13746254 -0.047023255 0.054198764
0.32535222 -0.108130805 -0.34624398 0.2774237 0.06541811 0.3042895 -0.35331923 0.2064327
0.32112253 -0.09856907 -0.2323339 -0.36835203 -0.019949973 -0.2996432 -0.34435245 0.29417837
0.361934 0.3166295 -0.21297352 0.12210225 -0.1985755 -0.35414886 -0.12552434 0.16209154
-0.1075348 -0.15289329 0.05662724 0.17652105 -0.10228686 -0.12294974 -0.04854318 -0.37951487
0.2541635 -0.3055146 0.17724419 -0.15608008 0.14000201 -0.38679117 0.25385007 -0.11796423
0.041851953 0.3064203 0.2803786 0.020304827 -0.34814355 -0.02434753 0.017223958 0.1925377
0.2161783 -0.072071955 0.32031518 -0.16721432 -0.049268074 0.30842856 0.052388128 -0.185764
0.1394098 0.18828286 -0.19691452 0.043746248 -0.16508465 -0.05804897 -0.28375188 -0.14933972
-0.13098295 0.3633766 -0.21229808 -0.2934992 0.261928 0.24181934 -0.21122299 0.10566291
-0.012806916 0.37163785 0.38312927 -0.32910615 -0.24154192 0.36075407 0.035776116 -0.2175739
-0.20208985 -0.10057683 -0.005945623 -0.10717052 0.33127815 -0.21059275 0.11399719 -0.046616826
0.24727255 -0.32600763 -0.08650232 -0.15285979 0.13893251 0.28830013 -0.14138874 0.019031398
0.16499929 0.13557272 0.15107465 -0.29195592 0.03929843 -0.34889245 -0.036579013 -0.36325324
0.16477571 0.11958472 0.19175002 -0.33775735 0.21092378 -0.1623566 0.088425666 -0.13943644
00000000: 1cad 8f3c e4bd 0d3e 7ba4 abbd efae 9f3d
00000010: 91ca a7be 63c9 1f3d 8b3c 523a 2016 91bc
00000020: 58fc 0fbd 0ee8 a13d 5235 c9be d2f8 79bd
00000030: 30fe 873e d372 b03d f4f2 4ebe da5c 5dbe
00000040: fdff 8c3d f478 9bbe 5110 a33e 2469 473e
00000050: 2ed7 b4be b52d 8c3e 0d3d e93d b977 913e
00000060: d7c5 8d3d b549 ae3e 0efb 99be a2b9 ccbe
00000070: 750a 04be ea3f dcbd 4a3b c83e 482c b63e
00000080: 1c1a e0bc 7fdf 813d b251 9f3e f69c c73d
00000090: 5d59 57be 7599 c03c e6f5 c0be 5a6f 98be
000000a0: 658b 4bbd 3728 aa3e 3963 32be 773d adbd
000000b0: ba6d c73e 09ee b7be 0bdc b13e 2701 2fbe
000000c0: 3878 c0be e581 083e 8a88 9d3e 7c4f d53d
000000d0: a88f b0be 9b70 62be 5f9e bbbe 85b4 bfbe
000000e0: c49c 41be 3a41 363d 24fd 503e 585b 0ebd
000000f0: 0729 653e bb4f 953e eb90 9cbe 17f7 81be
00000100: 6ba0 2b3c f0fb 8f3e 651a 083e 1c9e de3c
00000110: 04c0 43be 5f69 893e 353a 8cbe e84a e8bd
00000120: e306 dbbc 72a0 893d 90fb 633e 048d 46bc
00000130: c4a3 5fbe c65f a13e ddcd 53be f609 bd3d
00000140: d312 b7bd f6be b63d c6d8 5abe 06b9 023e
00000150: a275 773e 78e2 c83d e9c6 a4be 53a1 5fbe
00000160: 70f7 27bd 76aa 34be c366 063e 11bc fc3d
00000170: 8735 083e 0a78 b3be 6c23 c43e a1be 68be
00000180: 5643 ce3d 82d5 383e bc2b 15be fef1 263e
00000190: 969f 4b3e 7304 92be 53c7 c83c 7347 ab3a
000001a0: ef8f e53d a8fe c6be 9b90 a2be fae4 783e
000001b0: 31c6 00be f110 973e 7402 85be 3025 9f3e
000001c0: c2df a9bc 5e93 853e 6107 b73c 0b1c acbe
000001d0: d3b9 babe 3793 5a3e b194 8e3e 9ce4 c6be
000001e0: 0baf f0bd 01db a13d ce85 393e 2b34 943e
000001f0: 65fa 793e 78b4 2a3e 2475 e4bd 6311 5d3e
00000200: 8b80 493e 9702 1bbe 7c7f 0abd f789 673e
00000210: 8919 a93e 3a32 1cbe 88e3 72be 912b 9d3d
00000220: 9ba4 753e 8a47 b83d 0996 88be 246b b2be
00000230: 248d 89bd fbc2 0c3e 759b 40bd 86ff 5d3d
00000240: 9194 a63e af73 ddbd e446 b1be 7b0a 8e3e
00000250: eef9 853d d5cb 9b3e 42e6 b4be 1863 533e
00000260: 2c6a a43e 95de c9bd f0e8 6dbe a398 bcbe
00000270: 206e a3bc d56a 99be f74e b0be 8c9e 963e
00000280: 6a4f b93e 431d a23e bb15 5abe bf10 fa3d
00000290: 6057 4bbe 0053 b5be 7489 00be 53fb 253e
000002a0: 353b dcbd 0f90 1cbe f7f1 673d efc1 343e
000002b0: c67b d1bd 13cd fbbd 37d5 46bd c64f c2be
000002c0: b821 823e 696c 9cbe 807f 353e 75d3 1fbe
000002d0: b05c 0f3e 7e09 c6be a3f8 813e 3b97 f1bd
000002e0: f46c 2b3d 1fe3 9c3e c98d 8f3e 4f56 a63c
000002f0: df3f b2be 7974 c7bc 4219 8d3c 9a28 453e
00000300: d85d 5d3e 769a 93bd 5a00 a43e 3b3a 2bbe
00000310: 52cd 49bd 59ea 9d3e ef94 563d eb38 3ebe
00000320: 71c1 0e3e 39cd 403e f6a3 49be 442f 333d
00000330: f30b 29be c2c4 6dbd ed47 91be 83ec 18be
00000340: 6520 06be 7f0c ba3e ab64 59be 8745 96be
00000350: 6d1b 863e 7d9f 773e d74a 58be cc65 d83d
00000360: 19d4 51bc 5147 be3e 8529 c43e 9a80 a8be
00000370: c456 77be c2b4 b83e fa89 123d b1cb 5ebe
00000380: a4f0 4ebe 3afb cdbd 80d3 c2bb 387c dbbd
00000390: 4a9d a93e a0a5 57be 5c77 e93d 49f1 3ebd
000003a0: 0435 7d3e 79ea a6be 2128 b1bd 4787 1cbe
000003b0: 5344 0e3e 139c 933e 36c8 10be bce7 9b3c
000003c0: 93f5 283e 93d3 0a3e 50b3 1a3e 3f7b 95be
000003d0: 64f7 203d 08a2 b2be e0d3 15bd 54fc b9be
000003e0: f7ba 283e d5e8 f43d 1e5a 443e 88ee acbe
000003f0: 67fc 573e cf40 26be 8418 b53d 6dc8 0ebe

bias f4 [30]
-0.1576506 -0.2849604 -0.13764653 0.001657975 0.023164796 8.126342e-05 -0.25458676 -0.16153075
0.28060547 -0.28632906 0.038802907 -0.14901327 -0.083396904 0.18247303 -0.054087948 0.15524995
0.025442202 0.21169633 -0.26641458 -0.08550185 -0.08545101 -0.18940037 0.32952553 0.23513296
-0.03558784 0.14720957 0.26905006 -0.22066174 0.20118673 -0.1834776
00000000: 296f 21be 54e6 91be 36f3 0cbe 6950 d93a
00000010: 19c4 bd3c f76b aa38 3259 82be 5168 25be
00000020: 85ab 8f3e b999 92be ccef 1e3d ef96 18be
00000030: ffcb aabd 36da 3a3e 538b 5dbd d8f9 1e3e
00000040: 2a6c d03c ecc6 583e 7e67 88be 981b afbd
00000050: f000 afbd 2cf2 41be 92b7 a83e b2c6 703e
00000060: 8ec4 11bd 1bbe 163e eec0 893e 27f5 61be
00000070: e503 4e3e 8de1 3bbe

weight f4 [30, 9]
0.019319233 -0.11649658 -0.27583408 0.099441394 -0.28396744 0.03305818 0.07271154 0.34215316
-0.21303268 0.12881579 0.30036125 -0.13405408 -0.112909466 0.16145085 -0.11929092 0.040723506
-0.1646683 0.005616258 -0.38767374 -0.16242382 -0.20429584 -0.31801635 0.07516347 0.27460727
-0.1740716 -0.18829742 0.04285318 0.2582253 -0.21366051 0.0059564207 -0.08243554 0.12245223
-0.21021116 -0.35291865 -0.34741792 -0.19309297 0.3723479 -0.063509315 0.29788718 -0.13370925
-0.049653552 0.29296663 -0.29133007 -0.21113871 -0.003738304 -0.30542225 0.28167403 0.23089607
-0.3748684 -0.29043606 0.19276665 0.038483437 0.08724665 -0.13086757 -0.24768138 -0.1370928
-0.08999343 0.26093104 0.33237097 0.3341521 -0.23372625 0.13667266 0.023314012 -0.37331554
0.34362686 -0.28776404 -0.38379544 -0.3855322 0.13836837 0.14669523 0.30440766 -0.28619787
-0.057540853 -0.36239916 -0.21742879 0.06420828 0.37464455 -0.18354537 -0.19296597 -0.37946388
0.37646857 0.119585514 0.39207938 0.15219492 0.22234212 0.33786747 -0.07073136 0.26569048
-0.24207817 -0.32666606 -0.046514895 0.25439245 -0.3701316 -0.20325677 0.090968944 0.38734278
-0.07342345 -0.27739042 -0.11172248 -0.15996405 -0.1886801 -0.00047323402 -0.350396 -0.060979687
-0.0847895 0.20467214 -0.04951749 0.15698263 0.16239634 -0.23948188 -0.3731322 0.036076114
0.014585045 0.11280186 0.14781176 0.16062416 -0.048120555 0.2901344 -0.24772647 0.20684414
0.2821002 -0.37209493 -0.034579143 0.33139026 0.094572 0.104929395 0.17712426 -0.15135658
0.36911988 -0.38104632 -0.3381772 0.03357794 -0.114374086 0.31421563 -0.25411624 -0.19473402
0.11598741 -0.12359426 0.076493025 -0.2085521 0.13296467 0.25157842 -0.079832695 -0.26220274
0.3358537 0.30751985 -0.084343344 -0.012549634 -0.122418776 0.17995508 0.15397198 0.14101543
0.06400871 0.097421505 0.05146614 0.09441704 0.2983986 0.3396956 0.19532593 -0.38335118
0.26686847 -0.08086408 -0.22584888 -0.25841162 0.011927055 0.1472783 0.008723122 -0.19451848
0.20681982 0.08358674 -0.0669173 -0.27889138 0.08161609 -0.05912826 -0.3514518 0.27220494
0.3603708 0.19226854 0.12955154 0.01323889 -0.1525461 0.18247367 -0.16101713 -0.25147918
0.010047629 0.029455313 -0.06524164 -0.10008712 0.06794992 0.22208975 0.10488787 0.18543345
-0.30963394 0.0631884 0.048793796 -0.20454848 -0.01702325 -0.19791846 0.14326862 -0.31919476
-0.34427816 0.0996764 0.13601248 0.3341996 0.24148197 -0.04486451 0.13439468 0.046961114
-0.15648414 0.1181392 0.10356884 0.22914262 0.0020352704 -0.13999958 0.087015666 0.030908544
0.017089864 0.1850268 -0.28389496 0.37598512 0.014857128 -0.09716712 0.33146954 -0.14223975
-0.19914737 0.28301865 -0.15905602 0.24231328 -0.254502 -0.14984684 -0.051174093 -0.31505197
0.39065585 -0.25118935 -0.15019357 -0.2689177 -0.18421133 0.10115773 -0.22498609 -0.105808444
-0.06601247 0.27858087 -0.15073378 0.24329695 0.38528967 -0.17230189 0.28120783 0.16056992
0.2766865 0.04015124 -0.34169555 0.15254545 0.00072811305 -0.21743 -0.12360934 -0.2573794
00000000: 5e43 9e3c c295 eebd 203a 8dbe eea7 cb3d
00000010: 2e64 91be 0468 073d cae9 943d b32e af3e
00000020: 3d25 5abe 49e8 033e f3c8 993e 7945 09be
00000030: 143d e7bd 5f53 253e cc4e f4bd b1cd 263d
00000040: cf9e 28be 9608 b83b 2c7d c6be 6e52 26be
00000050: ee32 51be 0ad3 a2be 4eef 993d 5399 8c3e
00000060: d33f 32be 0ad1 40be d186 2f3d 1b36 843e
00000070: d2c9 5abe 142e c33b f7d3 a8bd 3cc8 fa3d
00000080: 9841 57be c1b1 b4be c3e0 b1be 2aba 45be
00000090: 62a4 be3e 2c11 82bd ab84 983e 14eb 08be
000000a0: 8661 4bbd b9ff 953e 3729 95be bf34 58be
000000b0: 55fe 74bb 4e60 9cbe 9437 903e 0570 6c3e
000000c0: c0ee bfbe 09b4 94be 9f64 453e cfa0 1d3d
000000d0: 5fae b23d 2602 06be 30a0 7dbe 0e62 0cbe
000000e0: 7a4e b8bd c198 853e 872c aa3e fc15 ab3e
000000f0: ef55 6fbe ebf3 0b3e 07fd be3c 3723 bfbe
00000100: dcef af3e cf55 93be d680 c4be 7a64 c5be
00000110: 70b0 0d3e 4637 163e 52db 9b3e 8788 92be
00000120: f5af 6bbd 628c b9be a7a5 5ebe a17f 833d
00000130: 69d1 bf3e 51f3 3bbe df98 45be 1749 c2be
00000140: 7dc0 c03e 40e9 f43d a1be c83e fcd8 1b3e
00000150: a7ad 633e f7fc ac3e 9adb 90bd 9508 883e
00000160: 57e3 77be c640 a7be 6786 3ebd ba3f 823e
00000170: e481 bdbe 8b22 50be ed4d ba3d cb51 c63e
00000180: 095f 96bd 1e06 8ebe c1ce e4bd 9ecd 23be
00000190: 5b35 41be 651c f8b9 1b67 b3be d6c5 79bd
000001a0: 1ea6 adbd 9395 513e dad2 4abd 0ec0 203e
000001b0: 3a4b 263e bd3a 75be 2f0b bfbe 8cc4 133d
000001c0: 1df6 6e3c a904 e73d f75b 173e a97a 243e
000001d0: 0f1a 45bd 7f8c 943e 02ac 7dbe f3ce 533e
000001e0: 706f 903e 3a83 bebe dca2 0dbd fcab a93e
000001f0: f7ae c13d 39e5 d63d 1060 353e 38fd 1abe
00000200: 48fd bc3e 8118 c3be 9025 adbe 0689 093d
00000210: f63c eabd dfe0 a03e 861b 82be 5b68 47be
00000220: cf8a ed3d fd1e fdbd 60a8 9c3d af8e 55be
00000230: e427 083e e3ce 803e 537f a3bd 703f 86be
00000240: 04f5 ab3e 3e73 9d3e 34bc acbd fb9c 4dbc
00000250: b2b6 fabd 2546 383e d5aa 1d3e 5966 103e
00000260: 0017 833d ed84 c73d 29ce 523d b95d c13d
00000270: b4c7 983e 95ec ad3e 8503 483e 9b46 c4be
00000280: fca2 883e 119c a5bd ee44 67be 874e 84be
00000290: b269 433c 1fd0 163e 6deb 0e3c da2f 47be
000002a0: 93c8 533e 862f ab3d f00b 89bd daca 8ebe
000002b0: 5626 a73d 7930 72bd 7ef1 b3be 725e 8b3e
000002c0: 8682 b83e 0be2 443e 29a9 043e eee7 583c
000002d0: 0b35 1cbe 61da 3a3e ade1 24be e1c1 80be
000002e0: cf9e 243c 454c f13c 699d 85bd 7afa ccbd
000002f0: 5429 8b3d 7f6b 633e 74cf d63d 44e2 3d3e
00000300: 5788 9ebe eb68 813d 01dc 473d 2875 51be
00000310: 5874 8bbc 23ab 4abe 02b5 123e 7f6d a3be
00000320: 3a45 b0be 2423 cc3d db46 0b3e 361c ab3e
00000330: 0d47 773e d9c3 37bd c29e 093e 4c5a 403d
00000340: 613d 20be f7f2 f13d e61b d43d 5da4 6a3e
00000350: 2c62 053b 0d5c 0fbe 4535 b23d ea33 fd3c
00000360: 0b00 8c3c aa77 3d3e ae5a 91be 1f81 c03e
00000370: 506b 733c 8eff c6bd 60b6 a93e 4ca7 11be
00000380: 4aed 4bbe d2e7 903e 95df 22be f920 783e
00000390: 164e 82be 7371 19be ed9b 51bd 7e4e a1be
000003a0: 0b04 c83e e49b 80be 58cc 19be 95af 89be
000003b0: e5a1 3cbe c92b cf3d c162 66be 19b2 d8bd
000003c0: 8c31 87bd 27a2 8e3e f559 1abe d622 793e
000003d0: b044 c53e e86f 30be 79fa 8f3e 716c 243e
000003e0: daa9 8d3e a075 243d b8f2 aebe e034 1c3e
000003f0: d7de 3e3a f8a5 5ebe e526 fdbd 3cc7 83be

bias f4 [30]
-0.11512761 0.04303519 -0.17978501 -0.14816836 -0.16289328 0.23613851 0.12948 -0.28145564
-0.18418133 0.036722146 0.20938775 -0.061983112 0.28619468 0.154363 -0.103671595 -0.022123497
-0.040207885 -0.3031046 0.30669054 0.19917393 -0.20574841 0.2826844 -0.24923253 -0.1325039
-0.115771934 0.15312394 0.067008376 -0.06578394 -0.25363392 -0.3134747
00000000: 06c8 ebbd ab45 303d 9019 38be 72b9 17be
00000010: 7fcd 26be 4bce 713e 6896 043e f41a 90be
00000020: 089a 3cbe f669 163d be69 563e 01e2 7dbd
00000030: 1c88 923e 5611 1e3e c651 d4bd 563c b5bc
00000040: 06b1 24bd 8730 9bbe 8b06 9d3e 40f4 4b3e
00000050: b6af 52be 02bc 903e d036 7fbe 1aaf 07be
00000060: d619 edbd 86cc 1c3e b03b 893d bbb9 86bd
00000070: 4edc 81be c27f a0be

att f4 [1, 1, 7]
0.20638543 -0.77113557 -0.6744361 0.58134574 -0.20741528 -0.03197515 0.30246073
00000000: b456 533e 2469 45bf d8a7 2cbf 13d3 143f
00000010: ac64 54be 60f8 02bd 22dc 9a3e

bias f4 [7]
0.15208673 -0.042726737 0.01902656 -0.016219696 0.0690399 -0.108688176 -0.17796978
00000000: a0bc 1b3e 3b02 2fbd 97dd 9b3c 2bdf 84bc
00000010: cb64 8d3d e897 debd b63d 36be
