model/gnn/240930_2/epoch_1.pt (torch, 542528 bytes, 49 tensors)

att f4 [1, 3, 10]
000000 de 1b 98 3d 24 1f b4 3d 05 7f f6 3c bd 7b ba bd
       0.0742719 0.08795002 0.030089865 -0.091056325
000010 53 f4 a9 3d 66 15 02 3e 89 75 88 3d b5 38 e8 3d
       0.08298554 0.12703475 0.06663043 0.11338941
000020 5d 99 06 be 1a 0e 11 be 9f 6c 1a bd 30 74 2f 3d
       -0.13144441 -0.14165536 -0.037701245 0.042835414
000030 2c 35 d6 3d 30 c3 43 bd be 95 93 bd d0 06 d7 3d
       0.104593605 -0.047793567 -0.072062954 0.10499346
000040 96 7a a3 bb 75 e4 34 3c 6f 0c 1f be 2a be 77 bc
       -0.0049889786 0.0110407965 -0.15532087 -0.015121022
000050 d9 bd a1 3d 5f fa 20 3e 2e 83 78 3c 0b c5 d3 3d
       0.07897539 0.15720509 0.015167994 0.10340317
000060 71 5e b9 3c 4c 8e 03 be 21 c2 b3 bb 7c dc 63 bd
       0.022628041 -0.1284725 -0.0054857885 -0.055630192
000070 c8 19 b5 bc 2f ae 81 bd
       -0.02210702 -0.06332051

bias f4 [30]
000000 69 e4 e0 bc 5f 0e 0f bd ea 24 f4 bc 45 0c e0 bc
       -0.027452664 -0.034925815 -0.029802758 -0.0273496
000010 2f d8 ed bc d3 3f 18 bd f5 85 87 bc 95 07 ce bc
       -0.029033748 -0.037170243 -0.016543368 -0.0251501
000020 46 01 fe bc 8f 74 00 bd 36 73 f9 bc 1a 80 0c bd
       -0.031006467 -0.03136116 -0.030450445 -0.034301855
000030 85 62 01 bd f5 03 b9 bc f1 05 68 bc c0 27 db bc
       -0.031588096 -0.022584895 -0.014161573 -0.026752353
000040 e4 5d f8 bc 29 be cc bc 53 00 c7 bc 3f 28 06 bd
       -0.030318208 -0.02499302 -0.024292147 -0.032753225
000050 3b 8e 34 bd ee 23 d7 bc f5 ef 03 bd 32 fb d9 bc
       -0.044080954 -0.02626225 -0.032211263 -0.026609037
000060 41 59 e4 bc 17 71 14 bd b7 c0 0b be b7 37 d1 3d
       -0.02787459 -0.036240663 -0.13647734 0.10215705
000070 cb 50 b3 bc f5 9f c1 bc
       -0.021889111 -0.023635844

weight f4 [30, 163]
000000 b5 62 bc bc a8 10 1c bc ef a9 47 bd 44 c5 71 bd
       -0.022996286 -0.009525456 -0.048746046 -0.059026018
000010 69 af 9c bb ca 6f 09 3b 15 2f 59 bd 3f 65 ed bc
       -0.0047816527 0.0020971172 -0.053023417 -0.028978942
000020 00 fd 7a bd 0a f6 2e bd ca 38 73 3c 62 fe 5d bd
       -0.061276436 -0.04271511 0.014845083 -0.054197676
000030 29 8a 80 bd fc 43 09 bd 14 12 69 bd 12 ed 84 3c
       -0.06276352 -0.0335121 -0.056902006 0.016226325
000040 b5 4e 27 bd 8a a5 df bc a3 ab 6c bc 35 6c 36 bd
       -0.040846545 -0.027300615 -0.014445218 -0.044536788
000050 72 5b 99 bc 42 4a 03 bd e9 65 5e bd 75 31 db 3b
       -0.018720362 -0.03205324 -0.054296408 0.0066892453
000060 ba 2a 1c bd 8e a1 21 3d e9 a3 31 bd 8e 1e d0 bc
       -0.038126685 0.03946071 -0.043369208 -0.025405195
000070 a5 38 b7 bc a9 cc 18 bd b1 f7 0f bd 79 f4 74 bd
       -0.022365877 -0.037304554 -0.035148326 -0.05980346
000080 46 96 6e 3c 31 c4 53 3d 37 81 0a 3b 6b 50 88 bc
       0.014562195 0.051700775 0.0021134147 -0.016639909
000090 45 65 0c bd 2d 0f 88 bd bc 48 6b bd 2c 3d 81 bd
       -0.034276266 -0.066435196 -0.05744241 -0.06310496
0000a0 80 e1 83 bd 2b 78 67 3c 7a 12 12 bc bc f0 e5 bb
       -0.06439495 0.014127771 -0.008915538 -0.007017223
0000b0 35 af e7 3b 91 f0 b7 bc 0d 81 a7 3b a4 a7 9e bc
       0.007070447 -0.022453578 0.0051118196 -0.019367047
0000c0 4b a2 6e bd b1 92 28 3b 95 c4 d0 bc ee c0 56 bc
       -0.058260243 0.00257222 -0.025484363 -0.013107521
0000d0 57 56 63 3b 95 09 17 bd 90 55 56 bc 41 de d5 bb
       0.0034688914 -0.036874373 -0.013081923 -0.006526739
0000e0 83 3a a6 bc 69 c9 66 bc 6c 6b c2 39 53 8d 0e bd
       -0.020291572 -0.014086106 0.000370826 -0.034802746
0000f0 ea f0 be bc 3a 7b 8c bc 18 bd 1d 3b 54 97 61 bc
       -0.023308236 -0.017148603 0.0024069007 -0.01376899
000100 1b 78 2c 3d b8 fb 19 bd 9c 2f 01 bd 63 29 e2 3b
       0.04210673 -0.037593573 -0.031539544 0.0069019063
000110 b8 16 61 bc ba 80 30 bb 72 e9 86 bc 02 92 6d 3a
       -0.013738327 -0.0026932196 -0.016468737 0.00090625894
000120 8a ca 12 bd 1d 7e c6 bc 37 db fa 3c 22 51 78 bd
       -0.035837688 -0.024230057 0.030622108 -0.06062425
000130 41 f4 e2 bb 8d 24 73 bc 54 7b e9 bc cf 78 db bc
       -0.00692609 -0.014840257 -0.02850119 -0.026791004
000140 dd 74 f4 bc 0f c0 0b bd 6b 3e a7 bc 85 fc 07 3d
       -0.029840881 -0.03411871 -0.020415505 0.033199806
000150 b2 37 7e bd fa 48 9d 3c a9 fe e3 bc 78 02 47 3c
       -0.062064834 0.019199837 -0.027831392 0.012146585
000160 5f 49 fe bc 41 62 09 bc 13 77 46 bb 66 89 79 bd
       -0.031040845 -0.008385242 -0.0030283376 -0.06092205
000170 2c d9 89 bc dc 56 10 bd f3 df 78 bc 12 fb b7 3c
       -0.016827188 -0.035239086 -0.015190112 0.022458587
000180 74 f2 09 bc 3a 4a 09 bc 02 48 20 bc 58 07 7b bd
       -0.008419622 -0.008379513 -0.009782793 -0.0612863
000190 20 a2 85 bd a6 5d 10 bd cf a3 35 bd 71 11 33 bd
       -0.065250635 -0.03524556 -0.044345673 -0.043717805
0001a0 f0 3f e6 bb 24 7a ef bc 2a fe 28 3b 62 28 12 bd
       -0.007026665 -0.029233046 0.002578626 -0.035683043
0001b0 3b d9 bf bc 58 76 24 bc 87 db b4 3c d6 3d ce 3b
       -0.023419013 -0.010037981 0.022077335 0.0062939925
0001c0 f3 77 38 3d db 65 b3 b9 7d 4e 2d 3d 78 ea 2a bd
       0.045036267 -0.0003421743 0.04231118 -0.041727513
0001d0 b7 8b d6 bc 69 07 00 3d b5 d4 85 bc 47 d8 66 bb
       -0.026189668 0.031257067 -0.016336778 -0.0035224126
0001e0 17 9b 5c 3c 4c 6a 20 3c 39 31 28 3d 00 16 22 bd
       0.013464711 0.009790968 0.041062567 -0.039571762
0001f0 be e5 27 3c 32 5f 2e bd 80 21 b6 3c b3 24 99 bc
       0.010247646 -0.042571254 0.02223277 -0.018694257
000200 ae fa 43 bc c7 9a 37 bd 1f 78 c3 b9 93 b6 d2 bc
       -0.011961622 -0.04482534 -0.00037282796 -0.025721824
000210 11 06 7c 3c 7f 6c 8c bd 20 82 84 bc 1c fd 91 ba
       0.015382306 -0.068566315 -0.01617533 -0.0011138055
000220 6d 51 6d 3b 27 22 17 bd 18 69 92 bc b3 5e 74 bd
       0.0036211864 -0.036897805 -0.017872378 -0.059660625
000230 0a 0f 15 bd 33 e4 81 bd 2f 2e 1c bd 0d a6 8d bb
       -0.036391295 -0.06342354 -0.03812998 -0.0043227733
000240 fb dd 7b bd bd 4a 29 3c 74 c2 d2 bb 9d 2d a1 bc
       -0.061490994 0.01033276 -0.006431872 -0.01967507
000250 1e f5 ff bc 97 20 8d bd 7e d1 85 bd 00 f5 59 bd
       -0.03124481 -0.06890982 -0.06534098 -0.053212166
000260 54 79 8a bd 4b 36 ae bc de 54 62 bd fa 6e ad bc
       -0.06761423 -0.021266123 -0.055256717 -0.021171082
000270 b1 b3 0a bd e9 04 9f bc 7b 5d 4b 3b 04 f1 a7 bb
       -0.033862773 -0.019411521 0.003103106 -0.005125167
000280 c8 7a 97 3b e4 c6 78 bd a1 84 22 bc f4 75 04 bd
       0.004622791 -0.060736552 -0.0099193165 -0.03233905
000290 ef a8 46 bc 1f 8c e2 bc a6 39 8c bd f8 db ed bc
       -0.012125238 -0.027654706 -0.06846933 -0.029035553
0002a0 12 ff 8a 3b af ca 84 3b a1 d3 0d bd bb 82 9a bd
       0.0042418325 0.004052482 -0.034625653 -0.07544466
0002b0 25 d0 09 bd 29 ca 67 bd 59 4e e2 bc ab b9 09 bd
       -0.033645768 -0.05658928 -0.02762525 -0.033624332
0002c0 6e 51 d4 bc cc 72 91 bb cd c4 72 bd 22 0f 0b bd
       -0.025917735 -0.0044387337 -0.059269715 -0.03394998
0002d0 64 1e 92 bb 48 63 14 bd 2f 27 ca 3b 11 8d 98 bd
       -0.0044591893 -0.036227494 0.006169222 -0.07448781
0002e0 86 e6 cd bc e1 0c 97 bd 97 da 69 bd c7 3a f3 3b
       -0.025134336 -0.07375503 -0.05709323 0.0074227783
0002f0 a4 0c 26 bd de fc 81 bd c0 b1 25 3c a0 c2 90 bc
       -0.0405394 -0.06347059 0.01011318 -0.01767093
000300 2c 34 57 bc e7 10 b0 bd 67 a5 34 bd 66 44 44 bb
       -0.013134997 -0.08596974 -0.044103052 -0.0029947995
000310 d6 2b e3 bc 38 ed 71 bd c9 ac e6 bc 56 b0 29 ba
       -0.027730864 -0.05906412 -0.028158562 -0.00064731145
000320 0d 06 b0 bb 9d 3e 95 bb 69 58 81 bd 48 92 0b bd
       -0.005371815 -0.004554583 -0.06315691 -0.03407505
000330 28 31 99 bc b7 b9 9a bd 4f 89 fd bc 37 c7 35 bd
       -0.018700197 -0.075549535 -0.030949263 -0.04437944
000340 58 fc 5a bd 55 a6 8e bd 52 3b 58 bd 7c a4 5c bd
       -0.05346331 -0.06965319 -0.052790947 -0.053867802
000350 41 23 5f bd 2c 38 50 bd 1c 6d 4a bd 49 c8 6b bd
       -0.05447698 -0.05083482 -0.04942046 -0.057564054
000360 06 f7 d6 3a 26 4d 81 3c 87 53 c8 bc c4 e3 5d bd
       0.0016400523 0.015783858 -0.024453891 -0.054172292
000370 f9 21 4d bd 5c 3b fb bc 91 61 56 bd 84 29 f1 bc
       -0.050081227 -0.030667953 -0.05233914 -0.029438742
000380 e8 ae 0a bd a6 6c 0c bd dd a2 af bd 60 23 67 bc
       -0.03385821 -0.034283303 -0.085759856 -0.014107555
000390 c0 05 bb bc 7f 61 95 bd 68 71 91 bb d3 25 3d 3c
       -0.02282989 -0.072939865 -0.004438568 0.0115446625
0003a0 3a be 21 bb bc 9c cb 3c fc 9e f3 bc 52 ca da 3b
       -0.0024680034 0.02485501 -0.029738896 0.0066769505
0003b0 6e c3 79 3c c7 07 9e 3c 2c df 3e ba 5f d6 24 bd
       0.015244348 0.019290818 -0.000728118 -0.040243503
0003c0 75 eb 79 3c 3f e2 80 bd fb 91 61 bd 1f 28 f4 bc
       0.015253891 -0.06293153 -0.05507086 -0.029804287
0003d0 27 c3 74 bd 8c 66 3e bd 5d 41 0d bd e2 f3 32 bd
       -0.059756424 -0.046484515 -0.034486163 -0.043689616
0003e0 ed 35 86 3c a4 f8 8b bc 67 12 a6 bb c0 74 4c 3c
       0.016383136 -0.017086335 -0.0050681117 0.012479007
0003f0 35 ae f9 3c 64 be 62 bd 7a d8 30 bd 26 0f 75 bd
       0.030478576 -0.055357352 -0.0431752 -0.0598289

bias f4 [30]
000000 f2 31 e6 bc e4 fd 01 bd 6f 8f a4 bc 69 75 f5 bc
       -0.028099988 -0.03173627 -0.020087926 -0.029963212
000010 8f f3 e5 bc df ad 4b bd 16 fd f7 ba 33 77 3c bc
       -0.02807024 -0.049726363 -0.001892003 -0.011503029
000020 5f 32 45 bd b3 ba c3 bc 29 07 ad bc 10 2b 9f bc
       -0.04814374 -0.023892736 -0.021121578 -0.019429713
000030 b2 3e 19 bd b4 7f b4 bc 54 4c 3f bc 75 1e 38 bd
       -0.037413307 -0.02203355 -0.011675913 -0.04495092
000040 c5 ca 8c bc d8 bb 2d bd 5a bf 2f bc 79 c4 18 bd
       -0.017186532 -0.04241547 -0.010726774 -0.037296746
000050 f7 4a 21 bd 3f 88 f4 bc 22 11 30 bd 89 58 7d bc
       -0.039378133 -0.029850123 -0.04298509 -0.015463003
000060 f6 f8 09 bd 86 40 05 bd 2e 3d 18 be 9c 1f d4 3d
       -0.033684693 -0.032532237 -0.14867088 0.103575915
000070 51 ff 01 bc a1 92 b6 bc
       -0.007934407 -0.022286715

weight f4 [30, 163]
000000 74 38 00 3d ca 3f 89 bc e9 42 11 bc cc 51 3b bc
       0.031303838 -0.01675405 -0.00886605 -0.011433076
000010 1b 4c 14 3c 0d 6a 8b bb 8c f7 01 3b 99 32 2a 3c
       0.009051348 -0.0042545856 0.0019831387 0.01038804
000020 6f 7c 02 3d 85 60 60 bc 43 12 b0 bb ab 0d a2 3b
       0.03185695 -0.013694887 -0.0053732707 0.004945477
000030 cc 57 25 3d a5 d9 0e 3d 0b 10 0e bb 32 3b 8b bc
       0.040366933 0.03487553 -0.0021677043 -0.016996
000040 e2 10 cf bc f2 b5 42 3c 0e c3 9b 3b 62 42 f3 3c
       -0.025276605 0.011884199 0.004753477 0.02969474
000050 35 98 14 bd 17 37 08 3d e3 bb 02 bd 3d 3b 17 3d
       -0.03627797 0.033255663 -0.031917464 0.03692173
000060 43 39 cb 3c d8 fe ed bc 97 3f 85 bc d5 f4 25 bd
       0.024807578 -0.029052183 -0.016265674 -0.040516693
000070 a5 be c2 bc 81 92 0e 3d 85 1c e8 bc 6d b0 d9 3c
       -0.023772547 0.034807686 -0.028333912 0.026573384
000080 4b 62 0e 3d b9 3f 2a 3c 09 2a 04 bd fe f6 3b bb
       0.03476171 0.010391169 -0.03226665 -0.0028681154
000090 90 51 fa 3b 0c fd d2 bc ab e2 15 bc 4e 75 13 bd
       0.0076391175 -0.025755428 -0.00914828 -0.036000542
0000a0 68 31 64 bc a9 bb ed 3c ef 0c 18 bc 15 01 0b 3d
       -0.013927795 0.029020147 -0.009280427 0.03393658
0000b0 cb 9a 01 3a b2 9a df 3c 50 16 0f bc 3e 42 08 3d
       0.00049440254 0.027295444 -0.008733347 0.0332663
0000c0 bb 89 24 bd 79 68 b4 bb 3b 3a be 3b 50 90 16 3d
       -0.040170413 -0.005505618 0.0058052815 0.03675872
0000d0 9c 7b d6 bc c7 be e7 3b 3c 72 f8 3c 33 9d b5 3c
       -0.026181988 0.007072303 0.030327909 0.022169685
0000e0 4d 27 ad bc 12 c8 6b b9 84 3f b4 3c 98 19 25 bd
       -0.021136904 -0.00022485878 0.022002943 -0.04030761
0000f0 55 74 36 bc 2f db b2 3c 10 1e 50 3c ed a7 b6 bc
       -0.011136134 0.02183303 0.01270248 -0.02229687
000100 7f ea c3 3c b5 d1 f1 3c 64 6c cf bc bd bd 4c bc
       0.023915527 0.029518941 -0.02532024 -0.012496409
000110 ef 55 08 3c 9e 95 47 bc 08 1d 1f bd 62 1b 9f 3b
       0.008321269 -0.012181668 -0.038846046 0.004855559
000120 13 79 24 bb 00 ff 3c 3b 68 31 f5 3c f5 8b e2 3c
       -0.002509658 0.0028838515 0.029930785 0.027654627
000130 d8 1d ca 3c 6b 75 2b bd fe c2 dc 3b d7 a7 21 3d
       0.024672434 -0.041860025 0.006737112 0.039466705
000140 30 c8 3b bc da bd a3 bc f4 de 02 bd e3 89 06 bd
       -0.011461303 -0.01998799 -0.031950906 -0.032846343
000150 17 0c 8b bc bb 49 39 3c f1 6e bb bb e2 63 a2 bc
       -0.016973538 0.011309083 -0.0057200124 -0.019823018
000160 5e fe be bc 84 6c 83 bc 88 35 d5 bc 2d 49 1d 3a
       -0.023314651 -0.016042955 -0.026026502 0.0005999979
000170 6b e0 22 3d f2 0e 40 bc 27 f7 05 3d 60 65 0a bd
       0.039764803 -0.011722313 0.032706406 -0.033788085
000180 76 56 ce bc 88 98 87 3c 1b e1 eb bb 4b 2a de bc
       -0.025187712 0.016552225 -0.0071984655 -0.027119776
000190 1c 1e 2c bd 3f 5c e9 bc f7 c4 52 3c 01 58 c3 3c
       -0.042020902 -0.02848637 0.012864343 0.023845674
0001a0 6f 16 01 3d 76 82 28 bc 85 45 ae 3c 56 f4 00 bb
       0.031515535 -0.010285011 0.021273384 -0.0019676886
0001b0 ac b9 8a bc a8 b4 05 bd 0e 3d fa 3b b3 74 49 bc
       -0.016934238 -0.03264299 0.007636673 -0.01229589
0001c0 10 53 bc 3c 0e 23 cb ba 86 32 1c 3d 65 08 09 3d
       0.022988826 -0.0015498118 0.03813412 0.03345527
0001d0 59 74 c8 bb b7 6b 1a 3c 2c 6b 93 bc 3e a1 28 3d
       -0.0061173853 0.009425095 -0.01799544 0.041169398
0001e0 0f c8 3f 3c e1 4e a6 bc 22 ed 7b 3c 57 f5 1a 3d
       0.0117054125 -0.020301284 0.015376361 0.03783163
0001f0 5c 2f a0 3c b1 20 ee bc 37 3e 49 bc 54 1d a6 3c
       0.019553833 -0.029068323 -0.0122829 0.020277657
000200 0b 0c 09 3d 62 d6 b4 3c 1d 5d 1f 3d 03 25 29 3d
       0.03345875 0.022074882 0.03890716 0.041295063
000210 97 11 9c 3c d5 33 06 bd 75 91 1b 3d 2c b3 e3 bc
       0.019051356 -0.032764275 0.037980516 -0.027795397
000220 90 b3 07 3d 85 ae 25 3b 88 31 bf 3c f0 54 d2 bc
       0.03313023 0.0025281024 0.023339048 -0.025675267
000230 ac cb 91 3c 82 1e fc bc ea c7 16 3d c7 83 1e 3d
       0.017797314 -0.030776266 0.036811747 0.03869989
000240 a7 d2 ea bc 28 c8 f4 ba 53 f9 f7 bc 68 9d 46 bc
       -0.0286649 -0.0018675374 -0.030270254 -0.0121224895
000250 58 28 9a bc e4 34 13 3c 8b 76 19 3d 0f 34 fc 3b
       -0.018818066 0.008984778 0.037466567 0.0076966356
000260 2d 74 02 bc 78 ea 11 bd 7a 05 e7 bb c4 ba 89 3b
       -0.007962269 -0.035623997 -0.0070502134 0.0042031724
000270 11 83 b8 bc 01 53 b3 bc c2 77 f7 bc fd 97 d3 3c
       -0.022523435 -0.021890165 -0.030208472 0.02582931
000280 e3 08 f7 3b 3b 6c 73 bc 84 72 81 3b c0 6b 5a bb
       0.007538901 -0.014857347 0.003950419 -0.0033328384
000290 57 51 1f bc de f0 23 bd 4d 9a 5f 3c a0 60 f2 3c
       -0.009723983 -0.04002463 0.013647628 0.02958709
0002a0 c6 12 1d bd 9f e2 45 3b cc 1e 00 3d a9 0d 17 bd
       -0.038347982 0.003019489 0.03127937 -0.03687826
0002b0 71 33 19 bd c8 3d 33 3a 54 78 dd ba c0 88 aa bc
       -0.037402574 0.0006837514 -0.0016896822 -0.02081716
0002c0 de 85 8e bc 61 02 22 3d 9e 89 1a bd 18 c1 16 3c
       -0.017397817 0.03955305 -0.0377289 0.009201311
0002d0 83 5f ca bc 0f e3 b3 3c 44 b1 25 3d 10 af 67 3b
       -0.024703747 0.021958856 0.040452257 0.0035352148
0002e0 d4 91 3f bb 17 0f d9 bc 6a ac e7 3b c3 32 c1 3c
       -0.0029231207 -0.026496453 0.007070114 0.023583775
0002f0 29 b6 f7 bc 14 c2 17 bd bd 11 08 bd 2e 9a 37 bc
       -0.030238228 -0.03705032 -0.03322004 -0.011206193
000300 9c 4e 04 bd 40 07 60 3c f5 86 0b 3c dc 83 0c bd
       -0.03230153 0.013673604 0.008516063 -0.03430544
000310 a4 67 23 3c 5d 93 8f bc 0e 78 dc 3a 89 68 1a bd
       0.00997344 -0.017526323 0.0016820447 -0.03769735
000320 81 d3 0a 3d fe 4e d2 3c 28 92 e7 bc 44 50 00 3d
       0.033893112 0.025672432 -0.028267935 0.031326547
000330 20 c4 2c bd 0e b3 9a bc 28 7f ac 3c 2b 52 34 bb
       -0.042179227 -0.018884208 0.021056727 -0.0027514796
000340 6e 7a dc 3c 9b be cb 3c d4 38 20 3d e2 0b b4 bc
       0.026913848 0.024871161 0.039116696 -0.021978322
000350 15 46 c2 bc 28 59 1b 3d 7e 1b 1d bd 6b 81 08 bd
       -0.023715058 0.037926823 -0.038356297 -0.033326548
000360 a9 f0 6e bc 8b b5 00 3c 21 47 23 3b a6 57 35 bb
       -0.014583745 0.007855783 0.0024914222 -0.002767065
000370 4f c2 6d 3b b2 13 bb 3c 0b 24 b7 3b e5 54 2a 3d
       0.0036279147 0.02283654 0.0055890135 0.041584868
000380 c0 c7 9d 3b e2 af 24 bd dd 29 0b bc 23 5b 97 bc
       0.004815072 -0.040206797 -0.008493868 -0.018476075
000390 82 33 8d bc 05 6c 23 3d 38 40 be 3a 66 7e c2 bc
       -0.017236475 0.039897937 0.0014514988 -0.023741912
0003a0 46 a8 9b 3c c2 51 07 3d 57 06 30 bc db bf 02 bb
       0.019001137 0.033036955 -0.010743699 -0.001995078
0003b0 4d 41 24 bd 44 9d f4 bb e6 ab 0f 3c a3 e5 cc bc
       -0.04010134 -0.0074650366 0.008769011 -0.025011843
0003c0 5a c6 b8 bb 04 17 c6 3c 71 41 0e bc 00 8d 27 bb
       -0.0056388797 0.024180897 -0.008682595 -0.002556622
0003d0 4b 92 6f 3b 6d 1a 38 bb 0a 42 71 3c c5 e9 19 3d
       0.0036555703 -0.0028091923 0.014725218 0.037576456
0003e0 11 6d 27 3d 16 e8 28 3d af e4 1e 3d 38 fc 03 bd
       0.0408755 0.04123696 0.03879231 -0.032222956
0003f0 c6 d7 03 bd a8 35 f2 3c 06 b2 e6 3c e2 4f 06 bd
       -0.0321882 0.0295666 0.02816106 -0.032791026

bias f4 [30]
000000 80 6f 4b bc a6 cc 88 3c 6d eb 88 3c 23 07 98 3c
       -0.01241672 0.016699146 0.016713822 0.01855809
000010 ee bb 7b bc e8 fd ce 3b 01 69 90 3c f6 da 04 bc
       -0.01536463 0.006316889 0.017628195 -0.008108845
000020 fa 80 3e 3c af e0 67 bc 3e 9e 20 3c 78 9a 82 bc
       0.01162743 -0.01415269 0.009803353 -0.015942797
000030 ec 2c 6f bc 4b ee 00 bb cf 6e 11 3c 80 82 ff ba
       -0.014598113 -0.0019673284 0.0088765165 -0.0019493848
000040 41 7a dd bb 6e f3 92 3c 62 71 2c 3c 52 44 23 bc
       -0.0067589586 0.017938342 0.010525079 -0.009965019
000050 ff c6 13 3c 7c 12 82 bc a3 76 60 bc 37 b7 b3 3b
       0.009019612 -0.015877955 -0.01370016 0.0054844874
000060 e9 31 42 3c a8 bf e8 bb 57 7a e2 3b 1a c5 04 bc
       0.01185272 -0.0071029253 0.0069115567 -0.008103633
000070 4d cf 1a bb f7 78 0a 3c
       -0.0023622096 0.008451692

att f4 [1, 1, 15]
000000 02 30 50 3e 05 35 91 bb dd 88 cb bd 2e 96 16 bd
       0.20330814 -0.0044313692 -0.09938214 -0.036764316
000010 d4 b1 cf 3d 04 80 d7 bd ab ab 13 bd d3 06 9c bc
       0.1014134 -0.10522464 -0.036052387 -0.019046223
000020 c0 5d 82 3c f5 97 56 3d dc 67 21 3d 38 d6 8f 3d
       0.015913844 0.05239101 0.03940569 0.07023281
000030 15 6e fb 3c cc 80 58 bd b2 17 0f bd
       0.03069214 -0.052857205 -0.034934707

bias f4 [15]
000000 f3 15 dd bd a6 48 f4 bc df ea 2a 3d f4 f8 3f 3d
       -0.10795202 -0.029819798 0.041727897 0.04686828
000010 52 d6 17 bd 1b 94 09 bd fb 23 3f bd af da 7c bd
       -0.037069626 -0.03358851 -0.046665173 -0.06173199
000020 26 60 23 bd 2b 26 5e bd 69 71 8a 3b 3c 13 5e bb
       -0.039886616 -0.05423562 0.0042249453 -0.0033885976
000030 5d 58 47 3c ec f3 25 bd 3f b0 c7 bc
       0.012167064 -0.040515825 -0.024376033

weight f4 [15, 163]
000000 61 1a 2d be f3 1a ed bd f1 2c c3 bd a3 ff f6 bd
       -0.16904594 -0.11577406 -0.09530056 -0.120604776
000010 86 ee da bd 4f ac de bd 7d 3a b6 bd 9e 40 30 be
       -0.10690026 -0.10872709 -0.088978745 -0.1721215
000020 8a 96 11 be eb 8b c1 bd 67 8f 00 be b1 b5 cf bd
       -0.14217582 -0.09450515 -0.12554704 -0.10142077
000030 eb cc f0 bd 86 64 bf bd 09 6f b2 bd 80 48 be bd
       -0.11757835 -0.09345345 -0.087125845 -0.09291172
000040 43 de 22 bc b6 ac 25 be df 28 d1 bd a3 4c 1b be
       -0.009940687 -0.16179165 -0.10212874 -0.15165953
000050 ed 0a 16 be d2 52 02 be 76 aa 02 be fc 51 31 be
       -0.14652605 -0.12726906 -0.12760338 -0.17316431
000060 de d6 83 bd fb 42 36 bc 03 e5 03 be de 45 28 bd
       -0.06437467 -0.011124368 -0.1288033 -0.041082256
000070 ce df 25 be 1e bd cd bd 53 ef 9d bd dc 1a 21 bc
       -0.16198656 -0.10045837 -0.07711663 -0.009833064
000080 b8 63 10 bd 18 13 db bc d7 ba 38 bd d5 df f4 bd
       -0.03525135 -0.026742503 -0.04510006 -0.11956755
000090 b7 2d 25 be 49 bf 17 be 6b 2d 1e be a6 e2 12 be
       -0.1613072 -0.14819063 -0.15447013 -0.14344272
0000a0 7b 39 dc bd 15 a7 f0 bd 50 1e d9 bd 3d 2b c1 bd
       -0.10753151 -0.11750618 -0.10601485 -0.09432075
0000b0 8c 95 e7 bd ad 92 d6 bd f6 9a d1 bd 9e 22 1b be
       -0.11307821 -0.10477195 -0.102346346 -0.15149924
0000c0 a9 2c a7 bd 22 cf 05 be cc d2 1c be 93 2a 15 be
       -0.08162815 -0.13067296 -0.15314788 -0.14567022
0000d0 f7 28 0b be 1c 52 8d bc 5a 54 1a 3c 89 7f 0c be
       -0.13589846 -0.017251067 0.009419525 -0.13720526
0000e0 2a a7 97 bd f1 f0 18 be df 55 8d bd 08 ec 6e bd
       -0.07404931 -0.14935662 -0.06901144 -0.058330566
0000f0 67 8d 3a be 5a 0c 1e 3d 61 1e 1e be 12 23 c7 bd
       -0.18218003 0.038585998 -0.15441276 -0.09723486
000100 53 38 ef 3c 68 cd 44 bc ad a5 76 bd 3d a2 ac bc
       0.029201662 -0.012011863 -0.060216594 -0.021073455
000110 f1 e6 84 3b 33 af 63 bd a7 c7 6e 3b 23 c4 8e 3b
       0.0040558507 -0.055587005 0.003643492 0.0043568774
000120 32 94 28 3d 35 a9 a9 bb 1e 38 0e bd 43 e2 e2 bc
       0.041156955 -0.0051776418 -0.034721486 -0.02769578
000130 cc 64 2a 3b 61 21 a5 3c 9e 50 90 bc b5 35 0c bd
       0.002600002 0.020157518 -0.017616566 -0.034230907
000140 db 18 b2 bd 39 9c 99 bd 0d 95 ad bd f6 de bf 3a
       -0.08696147 -0.075005 -0.08475695 0.0014638591
000150 71 a3 c7 3b 42 90 b2 3b fa c2 33 bc 0a 90 26 bd
       0.006092482 0.005449326 -0.010971779 -0.04066471
000160 ac 84 ac 3c 7a ab 2d 3c f7 f5 fe bd 68 d6 36 be
       0.021059357 0.010599965 -0.12449258 -0.17855227
000170 31 0e 23 be 05 36 c7 bd 7b e4 2b bc 70 29 5e bd
       -0.15923382 -0.097271 -0.010491486 -0.054238737
000180 13 3d 28 be 8e bb ae bb 64 b5 c5 bd 9a 6b fe bc
       -0.16429548 -0.005332417 -0.09653738 -0.031057168
000190 76 c1 9e bd 90 16 9f bc 14 b0 9d bc bc 41 56 bd
       -0.077517435 -0.019419938 -0.019249 -0.052308783
0001a0 59 32 06 bd 7f dd df bd c7 87 b5 bb 7b f9 95 bc
       -0.03276286 -0.10930919 -0.0055398676 -0.018307438
0001b0 a5 47 0b bd 45 4a b1 bd 3b 80 87 bd a3 d3 b6 bc
       -0.034003872 -0.08656744 -0.06616255 -0.022317713
0001c0 2d 85 20 bd d1 7c ae 3c 2a e2 bc bc ff 9d 4b bb
       -0.039189506 0.021299751 -0.023057062 -0.0031069515
0001d0 3b 44 73 3c be 8e 19 3d c5 23 c2 3c b9 44 2a bd
       0.01484781 0.037489645 0.023698697 -0.041569445
0001e0 b0 ad 87 3c a4 9c 81 bd 81 a5 aa bd 29 31 05 be
       0.016562313 -0.06328705 -0.083323486 -0.13007034
0001f0 97 7f f0 bd 00 e7 b8 bd f8 3d 22 bd e7 06 36 bd
       -0.11743086 -0.09028435 -0.03960988 -0.044440176
000200 da 88 0c bc f4 2c ac bd 74 f6 b9 bc c4 30 d3 bb
       -0.00857755 -0.08407012 -0.022700526 -0.0064450223
000210 91 54 26 3d a3 e9 a7 bd b8 ab bf 3b f7 7a 48 bd
       0.040607993 -0.081988595 0.005849328 -0.048945393
000220 cc 22 8a bd 4b 50 e5 3c 24 b7 2d be fd e6 c0 bd
       -0.06744918 0.027992388 -0.16964394 -0.094190575
000230 45 7e 1b be 27 f4 0d be cd f2 0d be 94 08 18 be
       -0.15184887 -0.13862668 -0.13862152 -0.14847022
000240 62 d9 38 be 9c 1f fc bd e3 bd 1b be ea f9 cf bd
       -0.18051675 -0.123107165 -0.15209155 -0.10155089
000250 23 84 fb bd 5c e0 26 be 26 44 44 be 21 df 28 be
       -0.122810625 -0.16296524 -0.19166622 -0.16491367
000260 bc 45 eb bd e3 5d 1c be 14 26 33 be 42 3f 00 be
       -0.1148791 -0.1527019 -0.17494994 -0.12524131
000270 8f b0 36 be 4e 6f 16 be f8 8e 38 be e5 68 07 be
       -0.1784079 -0.14690897 -0.18023288 -0.13223608
000280 62 50 d6 bd de 9c 84 bd 49 55 15 be fb 1c 21 bd
       -0.104645506 -0.064752325 -0.14583315 -0.03933428
000290 b4 76 90 bd 88 fe ba 3a f9 73 33 3c 03 5b ca bb
       -0.07053891 0.001426653 0.010952943 -0.0061754
0002a0 32 ab c9 bc eb 5e a5 bc 35 82 3f bd 68 a0 92 bc
       -0.024617765 -0.020186862 -0.046755034 -0.017898753
0002b0 e1 05 27 bd 15 04 ca 3c 31 f2 61 3c e9 a5 db bc
       -0.04077709 0.02466015 0.013790653 -0.02681251
0002c0 fe c7 52 3c fa 24 27 3c e5 02 46 bd d4 d7 f5 bc
       0.012865065 0.010201687 -0.048342604 -0.030010141
0002d0 f0 08 7e bd 36 65 6b 3c b8 dc 20 bd 47 e4 59 bd
       -0.062020242 0.014367392 -0.039272994 -0.053196218
0002e0 f4 f8 8f bd 90 3d 1d 3c fe f3 0a b9 84 96 3d bd
       -0.07029906 0.009597197 -0.000132516 -0.04628612
0002f0 26 c5 11 3d 4e be 57 3b 15 72 a3 3b 48 5d 08 bc
       0.035588406 0.0032919827 0.004987965 -0.008323021
000300 f1 9c 55 bd 2a ef a9 3b 3f d2 2b bd 2a 71 e1 bc
       -0.052151624 0.0051859813 -0.041948553 -0.027519781
000310 4c e9 36 3c f8 f4 0f bd 82 34 12 bd 6d 4c 0d bd
       0.011164021 -0.03514573 -0.035694607 -0.034496713
000320 82 2c 0a bd 96 32 49 bc 9a b1 3b bd 38 d3 e3 bc
       -0.033733852 -0.012280127 -0.04582367 -0.027810678
000330 32 e0 4c bd 80 ea ff bc d7 3b 9f 3c 2d 05 3a 3c
       -0.050018497 -0.031239748 0.019437714 0.011353773
000340 06 46 ba bc e9 47 68 3c db f9 37 bd 68 d0 49 bd
       -0.022738468 0.014177301 -0.044916015 -0.049271017
000350 27 e2 31 bd e3 0c 6b bd 58 7e d2 bc e3 44 6e bd
       -0.043428566 -0.057385337 -0.025695011 -0.058171164
000360 84 0c 21 3c 5b e1 02 bd 31 58 8a 3a 76 21 05 3d
       0.009829644 -0.031953197 0.0010554848 0.032502614
000370 71 bd 5c bd 04 39 de 3a 98 13 26 bd f5 5e 29 3d
       -0.053891603 0.0016954248 -0.04054603 0.041350324
000380 9b cc 0e bd 79 99 53 3c 60 13 e4 bc c5 7a 02 bd
       -0.034863096 0.012915009 -0.02784127 -0.031855363
000390 71 84 85 bd bd 52 32 bd c4 4b bb 3b 75 fa e0 bc
       -0.06519402 -0.043535937 0.005715819 -0.027463177
0003a0 e0 43 e4 bc 4a 49 20 3d 5a 2e 4e bc d1 16 7c 3c
       -0.027864397 0.039132394 -0.012584293 0.015386299
0003b0 7a 77 a9 bc 21 84 b1 bc 42 47 75 bc 17 ca 97 3c
       -0.020686854 -0.02166945 -0.0149706025 0.018528981
0003c0 a7 30 e4 bc 7f 9a 43 bd b6 9a a3 bc bd c4 47 bd
       -0.02785523 -0.04775476 -0.019971233 -0.04877161
0003d0 31 af b9 bc 63 ef 95 bc 06 44 b8 3c 51 95 b7 bc
       -0.022666546 -0.018302625 0.022493374 -0.022410067
0003e0 ad ac 16 bd 42 00 21 bc 99 db 27 3c 05 c2 12 3d
       -0.03678577 -0.009826722 0.010245227 0.035829563
0003f0 bf 68 35 3c 37 b4 be bc 19 4a 55 bd 89 1b 45 bb
       0.011072337 -0.023279293 -0.05207262 -0.0030076227

bias f4 [15]
000000 09 b3 f1 bd 68 b4 45 bd 7e 00 7f 3d 71 a0 1c 3c
       -0.11801726 -0.048267752 0.06225633 0.009559737
000010 81 3a 1f bd 20 9d 82 bd 6a 72 3b bd be f8 eb bd
       -0.038874153 -0.063776255 -0.04576341 -0.11522053
000020 f7 fa 9e bd 4e cc 8a bd ec 92 b1 3b bf 92 97 bc
       -0.077627115 -0.06777249 0.005419126 -0.018502591
000030 56 92 fc 3c 04 2a 84 bc f4 c3 12 bd
       0.030831497 -0.016133316 -0.035831407

weight f4 [15, 9]
000000 3b c9 de bd 65 6b ee 3d 33 bc 80 bd 5d 92 92 bd
       -0.108782254 0.11641578 -0.06285896 -0.07156823
000010 53 c4 37 3d e7 84 20 bd d0 14 50 3c 49 30 90 bd
       0.044864964 -0.039189246 0.012700275 -0.0704046
000020 54 6d 09 3d 9a a3 b8 bb 69 b1 be bd 46 b0 9e 3d
       0.03355153 -0.005634737 -0.09311182 0.07748465
000030 44 28 91 3c 19 7f 84 3c 24 b8 a8 bd 01 b6 85 3d
       0.017719395 0.016173886 -0.08238247 0.06528855
000040 06 70 b1 bd 17 fa a2 bd d5 4c a3 bd bf b5 3b bd
       -0.08663945 -0.07957857 -0.07973639 -0.045827623
000050 f8 7f 22 bc 42 4a ef 3d 6d 43 91 3d bf d7 ee bd
       -0.009918205 0.116840854 0.070929386 -0.11662244
000060 82 54 de 3b ab 58 ef 3d e0 74 12 3a 80 65 1b 3c
       0.0067849765 0.11686834 0.0005586874 0.009484649
000070 e6 7a f3 3d a4 f6 de bd 41 84 d2 bd f5 3e a4 3d
       0.118886754 -0.10886887 -0.10279132 0.080198206
000080 76 89 cf 3d fd f3 ee 3d b6 2d fe 3c 22 c2 d9 ba
       0.101336405 0.11667631 0.031027656 -0.0016613642
000090 db 0d dc bc 92 cd 82 3c 1e e6 b6 bd 95 96 20 bd
       -0.026862076 0.015967164 -0.0893061 -0.039206106
0000a0 2c 95 5e bd 34 c5 3f bd f5 e8 da bd 29 49 cc bd
       -0.05434148 -0.046818927 -0.10688964 -0.09974892
0000b0 a4 38 2f bd b5 e6 a6 3d d8 c1 5e 3d 74 83 a3 3d
       -0.042778626 0.081494726 0.054384083 0.07984057
0000c0 b3 8c 78 bb 08 99 b5 3d a5 3a 79 3d 0a 06 e3 3d
       -0.003792566 0.08867079 0.060846943 0.11085136
0000d0 33 a5 54 bd 44 39 4d 3d 72 ce 8c bb 72 22 52 bd
       -0.05191536 0.05010344 -0.004297071 -0.05130238
0000e0 e4 28 9b bc 51 d7 8f 3c da 09 a0 bd 98 4f b2 bd
       -0.018940397 0.017558726 -0.07814379 -0.087065876
0000f0 18 01 c8 bd 98 e8 b6 bd 00 0f b4 3c 4b dd ce 3c
       -0.097658336 -0.089310825 0.021979809 0.025252005
000100 5c 46 40 3d 9d 0b c7 bc 73 63 ef 3d 28 6e 16 3d
       0.0469421 -0.02429753 0.1168889 0.036726147
000110 dd cc 4a 3d e2 54 e1 bd d4 04 b7 bd a4 83 65 3d
       0.04951178 -0.11002518 -0.08936468 0.056033745
000120 d7 c4 b0 bd c3 b6 6d 3c 16 fe 0b bb 2a 30 8b 3d
       -0.08631294 0.014508906 -0.0021361164 0.06796296
000130 fa b7 b8 bd 7e e5 4d bc 7b 12 18 3d 11 88 89 3d
       -0.09019466 -0.012566922 0.037127 0.06715406
000140 ad 64 a5 bd 12 52 39 3d 55 38 cb 3d bf 86 88 bd
       -0.08075843 0.045244284 0.09922854 -0.06666326
000150 a7 ba 5d bd 61 49 9e bd e8 03 ec 3d dc 8d 47 3d
       -0.054133084 -0.0772884 0.115241826 0.048719272
000160 32 69 8a bc e7 3b ed bd 8d e7 8f bd bb 2d f8 3c
       -0.016895864 -0.11583691 -0.07026587 0.030295243
000170 ed 6f 11 3d de 2c 3a 3c 52 6f de bd bc 55 77 3d
       0.03550713 0.011363236 -0.108610764 0.060384497
000180 59 b2 38 3d eb 19 f2 bd b5 94 24 3d 2d 85 53 3d
       0.04509196 -0.1182135 0.04018088 0.05164068
000190 4c 8d 4f 3d 06 c1 c5 3b 5d 0c 42 3c aa 48 18 3d
       0.05067186 0.006034973 0.011843768 0.037178673
0001a0 71 d1 98 3d 8b ea da bb 7d 4a 21 3d fb ad ca bd
       0.07461823 -0.0066807917 0.03937768 -0.098964654
0001b0 15 71 23 3d 6b 40 e8 bc 7f 5d 8a 3a cc 77 89 3d
       0.039902765 -0.02835103 0.0010556428 0.067123026
0001c0 13 48 9b bd 7e 94 a6 3c 7e 45 cf 3c 9f e0 de 3d
       -0.075821064 0.020334478 0.025301691 0.10882687
0001d0 05 b5 1d 3d ee 69 45 bd 65 46 ec bc b6 5f 28 3d
       0.03850271 -0.048196726 -0.02884216 0.041106902
0001e0 5a ae 26 bd 0c 4e b7 3d 8e dc 49 3d 7c 6b 6e 3d
       -0.04069362 0.08950433 0.049282603 0.058207974
0001f0 9d d1 cf 3d 77 7a 7e bd 3c db 92 bd 3d 43 b9 3d
       0.101474024 -0.06212851 -0.07170722 0.09046028
000200 73 b5 d8 3d d1 84 82 bd 3b 87 8f bd e0 0f c6 3c
       0.10581484 -0.06372989 -0.07008215 0.024177492
000210 9b 95 cb 3d 56 0b df 3d ca 9e a6 bd
       0.09940644 0.10890834 -0.08135755

bias f4 [15]
000000 0c d8 8f 3d dd d2 66 3d 9d 82 0b bd 69 9c 8f bd
       0.070236295 0.05635344 -0.03406011 -0.07012255
000010 ad b8 c1 3c fc 95 53 bc c3 37 9e bd 74 a8 2c 3d
       0.02364763 -0.012914177 -0.077254795 0.042152837
000020 d4 23 e6 3a c6 cd a0 3d 49 6d c0 3c bb 71 44 bd
       0.0017558285 0.07851748 0.023489611 -0.047960024
000030 3a 23 11 bd a5 5c c8 bc 4c 5e 99 3b
       -0.035433985 -0.024458239 0.0046804305

att f4 [1, 1, 15]
000000 4c 7b 42 3d e9 e2 ff bd 02 32 ac 3d 89 ca 01 3e
       0.047480866 -0.124944516 0.08407976 0.12674917
000010 12 82 1a 3d 6f c9 fb 3c 11 79 65 bd 67 cf a0 bd
       0.0377217 0.0307357 -0.05602366 -0.07852059
000020 15 c1 33 be 42 cf 6d be e0 08 44 3d c9 66 a5 3c
       -0.17554124 -0.23223594 0.047860026 0.020190613
000030 53 99 21 3e 28 01 84 bd cd 03 15 be
       0.15781145 -0.06445533 -0.14552231

bias f4 [15]
000000 f3 15 dd bd a6 48 f4 bc df ea 2a 3d f4 f8 3f 3d
       -0.10795202 -0.029819798 0.041727897 0.04686828
000010 52 d6 17 bd 1b 94 09 bd fb 23 3f bd af da 7c bd
       -0.037069626 -0.03358851 -0.046665173 -0.06173199
000020 26 60 23 bd 2b 26 5e bd 69 71 8a 3b 3c 13 5e bb
       -0.039886616 -0.05423562 0.0042249453 -0.0033885976
000030 5d 58 47 3c ec f3 25 bd 3f b0 c7 bc
       0.012167064 -0.040515825 -0.024376033

weight f4 [15, 9]
000000 bc d6 e8 bd 7b b3 c1 bd f6 32 5a be 8d d0 73 be
       -0.11369082 -0.09458061 -0.21308503 -0.23810025
000010 76 1d 23 be c8 82 e4 3c 81 81 6b bd 75 db 23 bd
       -0.15929207 0.027894393 -0.05749655 -0.040004212
000020 d7 81 df bd c5 37 35 bd cd 29 dd bd 80 98 38 3d
       -0.10913437 -0.04424264 -0.107989885 0.04506731
000030 3f ab 06 bd e8 94 a4 3d db b3 e8 bd df 78 93 bb
       -0.032878157 0.08036214 -0.1136243 -0.004500493
000040 5e 42 36 bd 90 5c ad 3d 4f 79 9e 3d 93 4a 34 3d
       -0.044496886 0.084649205 0.077379815 0.044016432
000050 62 e2 fa 3d 74 05 a2 3d 57 a2 74 bd 68 e3 fb 3d
       0.1225021 0.07911196 -0.05972513 0.12299234
000060 b1 3b 66 bd 7d 70 7a bd d1 32 1e 3c 51 f9 9c 3d
       -0.05620927 -0.061142433 0.00965567 0.07664741
000070 4b 7d ab 3d 92 ad 1f 3e 02 fd 67 3d d2 23 04 3c
       0.08373507 0.15593556 0.05663777 0.008065181
000080 cd a6 b3 3d fb cd 85 bd 20 80 08 3e 0a 38 bb bd
       0.08772049 -0.06533428 0.13330126 -0.09141548
000090 98 c4 f5 3b 25 4f d5 bd e4 38 57 bc b6 5a 8c bc
       0.0075002424 -0.10415486 -0.013136122 -0.017133098
0000a0 7a 3e 0c bc 6c 2b be bd fa a2 8c 3b a3 34 20 3d
       -0.008559817 -0.09285626 0.0042918893 0.0391127
0000b0 d7 3f aa 3c a1 60 99 bd ab 96 f5 bc 98 79 c8 bd
       0.020782394 -0.074891336 -0.02997907 -0.09788817
0000c0 fe bb b4 bd e6 05 e3 bd aa 80 60 3d f5 e9 6d 3d
       -0.08824919 -0.110851094 0.054810204 0.058084447
0000d0 9b 82 47 bd dc 02 77 3d f0 5f 69 bd 4f 97 1a 3d
       -0.04870854 0.06030546 -0.05697626 0.037741955
0000e0 63 1c 36 bd 2b df f0 3b 5f 49 76 bc 0b 41 85 bd
       -0.044460665 0.0073508224 -0.0150321415 -0.065065466
0000f0 55 e9 b6 3d c0 e1 b2 bd 76 32 96 3b 60 27 25 be
       0.08931223 -0.08734465 0.004583652 -0.16128302
000100 7b 02 0e be b6 0f 80 3c a3 35 26 bb 6b 62 de bd
       -0.13868134 0.015632492 -0.002536156 -0.108586155
000110 10 70 83 3b 6c 1a f2 3b b7 f8 89 3d b2 08 a1 3c
       0.0040111616 0.0073884036 0.06736892 0.019657467
000120 7d 5a 95 bd 65 ff 1a be 07 ba 05 be 86 49 22 be
       -0.0729265 -0.15136488 -0.13059245 -0.1584836
000130 4d c4 7c 3c 30 0b b6 bd 06 82 c8 bd 6a a3 ea bd
       0.015427661 -0.088888526 -0.09790425 -0.1145695
000140 a5 1f 08 be ee 1f a5 bc c9 f2 5a 3b 56 38 c1 bc
       -0.13293321 -0.020156827 0.0033408871 -0.023586433
000150 43 af c9 bd 39 26 30 bd 5c d0 2e bd 24 7a e8 3c
       -0.09847882 -0.043005202 -0.042679176 0.028378554
000160 a7 34 ee bd c2 65 d2 bd 91 bd 06 bb 9e b6 98 bd
       -0.116311364 -0.10273315 -0.0020559768 -0.074567065
000170 ba 19 ad bd 77 6a 9e 3d de 9f 00 be 17 27 9b 3d
       -0.084521726 0.0773515 -0.12560984 0.07575815
000180 cf 1f ca 3d 47 fd 5f 3d 8e b4 a6 bd 39 e3 ab bd
       0.09869348 0.054684903 -0.08139907 -0.08392949
000190 49 ef e6 bd 68 62 e0 bd 32 58 6c bd 84 cc dd bd
       -0.11276109 -0.109562695 -0.057701297 -0.10830024
0001a0 73 bd d2 3d 14 5b 4e 3b a3 be e4 3d 07 ac 71 bd
       0.10290041 0.0031487392 0.111691736 -0.05900195
0001b0 45 f1 f6 3d aa 7d b0 3c 2a 30 b4 bd c8 08 91 bc
       0.12057737 0.021544296 -0.08798249 -0.017704383
0001c0 40 65 d8 bd dc 98 9c bd 08 69 92 3d 30 f3 ab bd
       -0.10566187 -0.07646343 0.07148939 -0.08395994
0001d0 d6 81 e2 3d a1 dd b0 bd 28 b8 a6 3d ae ed f3 bd
       0.110599205 -0.08636022 0.08140594 -0.11910568
0001e0 12 8c 96 bd d2 91 d9 bb c2 2f 58 bd 67 e5 0a bc
       -0.07350935 -0.0066396976 -0.05277992 -0.008477545
0001f0 07 84 f0 3c 05 14 04 3d ab b8 81 bc 75 ef f8 bd
       0.02935983 0.032245655 -0.015835127 -0.12155048
000200 a6 27 4e bd 94 b2 92 3d 9c fc be bb f9 c4 0d bd
       -0.05033078 0.07162967 -0.005828453 -0.034611676
000210 85 45 df bd ad 6d ba 3d 3f 49 fd bd
       -0.10901932 0.0910295 -0.12367486

bias f4 [15]
000000 a8 12 34 be 6f 8c b8 bd f5 9e a0 bc db b3 c9 bb
       -0.17585242 -0.090111606 -0.019607047 -0.0061554736
000010 a3 e9 5e bd 47 0d 3a 3c 06 10 b3 3c 6a 34 f2 bd
       -0.054422032 0.011355705 0.021858227 -0.118264034
000020 dc 0a 01 bc cc af 4b bc ab 6e 8c bc cb 9b 2b bd
       -0.007876124 -0.01243205 -0.017142614 -0.041896623
000030 67 f8 64 bd 71 72 e6 3b 8c 61 52 3d
       -0.055900957 0.0070326854 0.05136256

weight f4 [15, 9]
000000 bb 61 08 3c aa 07 f6 bd 09 b9 b6 bd 2a 1a b6 bb
       0.008324082 -0.120131806 -0.089220114 -0.005557318
000010 59 d8 d5 bd d9 31 d7 3d cc 48 62 3d aa 37 36 3d
       -0.10441656 0.105075546 0.055245206 0.04448668
000020 44 e9 c0 3d 96 25 23 3c 98 f7 8c bd 0b 00 77 3d
       0.09419492 0.009957692 -0.06883162 0.060302775
000030 11 4b d1 3d 0a 8f dc 3d a8 39 33 bc 62 b7 37 3d
       0.10219396 0.1076947 -0.010939039 0.04485262
000040 e2 3e a1 bd 76 0d be bd 25 65 c6 3d e0 fb bd bd
       -0.07873322 -0.09279911 0.096872605 -0.09276557
000050 71 76 a6 bd f3 db 27 3c e3 bb fb 3c 31 46 a5 bc
       -0.0812806 0.010245311 0.03072924 -0.020175071
000060 ea 9a 54 bc 6f e6 12 3d 96 c5 17 3c 63 df 1f 3d
       -0.0129763875 0.03586429 0.009263417 0.039031398
000070 8f fc 84 3d 91 26 04 3e 7b 86 ba bc 3d 9a b0 bd
       0.06493484 0.12905337 -0.022769203 -0.086231686
000080 df 56 ac bd b8 87 48 3c f8 eb a9 bb e9 6b f0 bc
       -0.08415007 0.012239389 -0.0051856004 -0.02934833
000090 4b 6a 13 be 06 de 14 be 24 88 a9 bd ec c3 93 bd
       -0.14396016 -0.1453782 -0.0827792 -0.072151035
0000a0 80 90 f2 bd 47 4e 37 3c 55 6d d3 bc 1f 22 62 3d
       -0.118439674 0.011188096 -0.02580897 0.05520832
0000b0 29 17 05 3d 6d 13 0a 3e 03 7a 18 bc 1c 9d 45 bd
       0.03249279 0.13483973 -0.009306434 -0.048245534
0000c0 b9 b8 ce bd 77 bf a9 b9 c8 47 93 bd 5e e6 be 3d
       -0.10093827 -0.00032376844 -0.071914256 0.09321283
0000d0 59 86 cd 3d 09 58 c4 3d 87 34 06 bd 80 2a bb 3d
       0.100353904 0.09587104 -0.032764938 0.091389656
0000e0 23 43 0d bd 9c 62 81 bd 2f ab ae 3c 68 12 23 3c
       -0.034487855 -0.06317636 0.021321861 0.009953119
0000f0 6a 5f 89 3d e9 44 8d bd a1 66 e5 3b 4f 5b ee bd
       0.06707652 -0.06897909 0.0070007597 -0.116385095
000100 cb e6 b5 3d bb fd 32 bd 99 c4 92 3c 16 74 05 3d
       0.08881911 -0.043699007 0.01791601 0.03258141
000110 a6 07 d4 bd 8f 7c 75 bd 85 9e c9 3c 99 a2 4f 3d
       -0.10353021 -0.05993324 0.02461172 0.050692175
000120 41 9b b4 bd 7b 4d e7 3d de 60 cb 3c b9 d1 29 bc
       -0.08818675 0.11294075 0.024826463 -0.010364943
000130 ce f8 06 bd 57 cf 04 3d ed 41 29 3d e9 0a c4 3d
       -0.032952122 0.032424297 0.041322637 0.095723934
000140 60 6a 61 3c 2d 0a ee 3d c2 a2 89 bc d5 5d 97 3d
       0.013758272 0.116230346 -0.016801242 0.07390944
000150 c8 c0 8e 3d 56 86 ab 3d 3a 86 87 3d 62 ac 4f bd
       0.06970364 0.08375232 0.066173986 -0.050701506
000160 a0 14 dd 3d d9 4e b1 3d 68 66 9a 3c 07 25 9a 3d
       0.107949495 0.08657617 0.01884766 0.07526594
000170 3a ca 10 3d db e7 cc 3d 8d 36 96 bd a1 0b ba 3d
       0.03534911 0.100051604 -0.073346235 0.09084249
000180 82 cb bd 3b c5 b2 46 bd a9 e0 2a bd f1 cb 32 3c
       0.0057920823 -0.04851033 -0.04171816 0.010912881
000190 a8 b3 9d 3d 48 23 c7 bd 58 bb 8c bd 83 bb 30 3d
       0.07700282 -0.09723526 -0.068716705 0.043147575
0001a0 f2 aa 6b 3d 9a 27 85 3d 0c 68 d8 bc 88 6b db bc
       0.057536073 0.06501694 -0.0264168 -0.026784673
0001b0 db f6 f3 3d d9 60 94 3d 86 81 f4 3d 06 11 51 bd
       0.11912318 0.07245035 0.11938767 -0.051041625
0001c0 a8 98 7b 3d 15 1c 33 bd 2d 20 64 3d 48 7b 94 3d
       0.06142488 -0.043727953 0.055694748 0.072500765
0001d0 bb 44 3d 3c 94 df dd bc 00 07 67 bd f7 c9 06 be
       0.011552031 -0.02708415 -0.05640316 -0.13162981
0001e0 d2 8a 89 3d 13 51 56 bc db 6b ec 3c f7 94 c2 bd
       0.06715931 -0.013080853 0.028860023 -0.09501069
0001f0 4d 2c 6e bb b5 87 fb bd eb a7 f3 3c 9e 43 a1 3d
       -0.0036342323 -0.122817434 0.029743155 0.07874225
000200 ed 6a a6 3d bf f7 c5 bc 80 55 55 3d 14 d1 56 3d
       0.08125863 -0.024165986 0.052083492 0.052445486
000210 bb 83 75 bd d0 bd 96 bd 1e 84 1d 3a
       -0.05994008 -0.073604226 0.00060087617

bias f4 [15]
000000 b3 a0 83 bd 90 79 d4 3b 5c 06 29 3b 30 d1 8b 3c
       -0.06427135 0.006484218 0.0025791144 0.017067522
000010 dd 4a 10 be 64 d7 54 bd 20 d1 7e bd 09 76 21 3d
       -0.14091058 -0.051963225 -0.062211156 0.039419208
000020 5c 18 16 3d 4f 42 84 3d dd cc 4c bd bf b2 77 bb
       0.036644325 0.0645796 -0.05000006 -0.003779575
000030 15 5c 70 3d 5e 51 3c bd 50 62 8a bd
       0.058681566 -0.045976035 -0.06757033

att f4 [1, 1, 5]
000000 ec 5e 5c bf 00 3c 7c 3d 80 4c 0c bf 60 aa 35 3e
       -0.8608234 0.061580658 -0.5480423 0.17740774
000010 c8 56 29 3f
       0.6614804

bias f4 [5]
000000 00 00 00 00 00 00 00 00 00 00 00 00 00 00 00 00
       0.0 0.0 0.0 0.0
000010 00 00 00 00
       0.0

weight f4 [5, 30]
000000 e5 6c a4 3e f4 f2 d1 bd 97 3e 24 3e 32 a2 d0 bd
       0.3211433 -0.10251418 0.16039501 -0.10187186
000010 fa c8 c9 be d6 61 7e be e1 4b 89 be 6f aa 62 be
       -0.39411145 -0.24842009 -0.26815704 -0.22135328
000020 01 a8 ba be 69 66 86 3e e3 70 0c 3e 2e ef b0 3c
       -0.36456302 0.26250008 0.13714938 0.021598425
000030 53 4f 5e 3e 9d bd 5c be 49 5b 92 3e 06 63 14 3d
       0.21709947 -0.21556707 0.2858527 0.03622725
000040 4a 3e 48 3e b4 72 d3 3e 48 20 08 be 8a 10 9e be
       0.19555011 0.4129845 -0.13293564 -0.30871993
000050 3b 1e d6 3d 2f 8d 2c 3d ff 02 b6 be 3d 4c f1 3d
       0.10454985 0.04212683 -0.3554916 0.117821194
000060 5e 52 d5 bd 5f cd 74 3e 6a f0 1a 3e ae cb 6f be
       -0.10416101 0.23906468 0.15130773 -0.23417541
000070 03 f0 9a bd 00 12 14 be 7d 47 60 be c9 b1 2e 3e
       -0.0756531 -0.14459991 -0.2190227 0.17060007
000080 d8 b0 88 3c 95 e2 6c 3d f6 1a 2e 3e 3e 96 c9 be
       0.016685888 0.057833273 0.17002472 -0.39372438
000090 8e 7b 14 3e 03 f7 3c 3d 6b ef a1 be 40 b1 71 3e
       0.14500257 0.046134006 -0.31627974 0.23602772
0000a0 53 dd b9 3e 26 ce 17 3e 75 dc 91 3e f5 72 0a 3e
       0.3630167 0.14824733 0.28488508 0.13520415
0000b0 78 93 b0 3d 7a 5c f6 bd 37 c1 0d be 9b 7b 02 3d
       0.086218774 -0.12029357 -0.13843237 0.03185616
0000c0 cc e3 f0 bd bc 7f 86 be 05 59 58 be 48 43 31 bd
       -0.11762199 -0.2626933 -0.21127708 -0.043277055
0000d0 4a 11 b6 3e 91 ab 6c 3d e6 df f2 bd f8 67 6f 3c
       0.35560066 0.057780806 -0.118591115 0.01461219
0000e0 aa 40 ab be 45 79 c9 be 3d 6a 98 3e c8 81 c9 be
       -0.33447772 -0.39350334 0.29768553 -0.39356828
0000f0 2f 55 a6 3e d8 a9 81 3d b1 a3 ef 3d 00 43 35 be
       0.32486865 0.06331223 0.117011435 -0.1770134
000100 0e e9 14 3e 3d 49 12 3c a6 2c 2c 3e bd d2 9a 3e
       0.14542028 0.008928594 0.16813907 0.30238906
000110 8a 7a 9a bd 9f 56 47 be 0b ae b2 3e 9f 25 d9 3d
       -0.07542904 -0.19466637 0.3489841 0.10602879
000120 34 e3 3a 3e 1f 06 7a 3e 2e bd 93 be 0b 31 7f 3d
       0.18250734 0.24416398 -0.2885527 0.06230263
000130 bd 36 d1 3e 72 c2 c9 be d5 8d c3 3e 3f d0 11 be
       0.40862074 -0.39406163 0.38194147 -0.14239596
000140 13 7c 6b be 37 5a 2b 3e d6 d4 86 3e bb 76 be be
       -0.2299655 0.16733633 0.26334256 -0.3719996
000150 b8 48 1a be cc e6 a3 be 41 82 b7 be 78 2d b5 3e
       -0.15066803 -0.32012022 -0.35841563 0.35386252
000160 fd 45 12 3e df 89 d9 bd 13 c8 9d be 88 fc 21 be
       0.14284511 -0.10622 -0.30816707 -0.1581899
000170 86 0a ef bd 0a 60 72 3d 39 6b 33 be 1b a9 c3 be
       -0.11671929 0.05917362 -0.17521371 -0.38214955
000180 df 85 50 be 59 ca 86 3c f5 8a ad be 4e 14 4f 3d
       -0.20363568 0.016453909 -0.33895078 0.050556473
000190 e4 e9 08 3e be 6c 5f be f3 21 f5 3d 93 a6 3e be
       0.13370472 -0.21818826 0.11969366 -0.1861823
0001a0 91 a9 24 3e 45 81 bf be d3 96 57 3d 60 81 c6 be
       0.1608031 -0.37403312 0.05263407 -0.3877058
0001b0 9e 10 7c be 8f 9e 94 be ae c8 b0 be 60 11 31 3e
       -0.24615714 -0.2902722 -0.34528106 0.17291784
0001c0 7e 05 b5 be 83 ba c4 3e 99 99 b0 be 63 14 80 be
       -0.35355753 0.38423547 -0.34492186 -0.25015554
0001d0 82 a1 8e 3c 7c 31 76 bd fa bc f6 bd 0e 5d 43 3d
       0.017410997 -0.060105786 -0.12047763 0.047696166
0001e0 32 f9 84 3e bd 2c 90 be 84 03 9c bd 13 e4 89 be
       0.2597137 -0.28159133 -0.07617858 -0.2693182
0001f0 cc 9f ff 3d 2f 99 b0 be fd 74 4d be 0d 0c 3d bd
       0.12481651 -0.3449187 -0.20064159 -0.04615407
000200 22 47 83 bd 69 73 47 be fb cd 13 3e 28 a8 36 bc
       -0.06410052 -0.19477619 0.14434044 -0.01114849
000210 01 51 b1 3e 22 eb bc 3d ca 0e 7f be 72 62 08 be
       0.34632114 0.092245355 -0.24907985 -0.13318804
000220 bb 9e b1 be a7 10 80 3e 9c f8 46 3e 05 61 44 3e
       -0.34691414 0.25012705 0.19430774 0.19177635
000230 e5 72 d1 be af ac c8 3d c9 d7 7a be 84 92 95 3e
       -0.4090797 0.09798562 -0.24496378 0.29213345
000240 23 23 9e 3e 3d f1 b6 be 15 75 a1 3d 4b fd 83 be
       0.30886182 -0.35730925 0.0788366 -0.25779185
000250 4d d3 93 3c d3 81 72 3e
       0.018045092 0.23682337

bias f4 [5]
000000 76 8c ab 3d ed 59 dd 3d 60 91 00 be d2 4a 06 3e
       0.083764 0.108081676 -0.12555456 0.13114479
000010 f3 60 9f 3b
       0.004863852

weight f4 [5, 30]
000000 b6 20 f1 3c 76 32 a8 bd 47 0b 90 3e e4 55 cb be
       0.029434543 -0.0821275 0.28133604 -0.39713967
000010 c7 13 39 be f9 e3 ac 3e a1 48 93 3e 71 1a fd 3d
       -0.1807395 0.3376768 0.2876635 0.12358559
000020 da ef a1 3e 14 76 e3 3b 99 a7 14 3d 5c 5b 9a 3e
       0.31628305 0.0069415662 0.036292646 0.30147827
000030 0c 59 4d 3e ea 21 8a be 1a 69 af be ba 7e 35 be
       0.200535 -0.26979 -0.34259874 -0.17724124
000040 53 70 ba be c2 38 60 bd 46 67 d0 bd 71 f9 8f be
       -0.36413822 -0.05474163 -0.10175948 -0.28119996
000050 c6 7a 13 be 5c 42 83 bd a8 ce 64 be 82 c9 51 3d
       -0.14402303 -0.064091414 -0.22344458 0.051217563
000060 76 bb cb be 6d 88 ba be 61 4a 05 3e 41 a5 08 bc
       -0.3979146 -0.3643221 0.13016655 -0.008340181
000070 82 1e 29 be f9 0c e4 3d 13 56 e4 ba 37 7b 6c 3e
       -0.16515544 0.11135287 -0.0017420672 0.23093878
000080 10 ed 55 3e cf 4a b1 be d7 18 81 3e c7 e6 9f bd
       0.20891213 -0.34627387 0.25214264 -0.07807689
000090 7d a4 d3 be 2a bc ce 3c 55 06 c5 3e 62 f5 ca 3c
       -0.41336432 0.025236208 0.38481393 0.02477521
0000a0 45 c6 9e bd 2a 5e b0 b9 37 90 18 3e 01 90 c0 3e
       -0.07752661 -0.00033639494 0.14898764 0.37609866
0000b0 70 e2 85 bc 5d 56 13 3c 59 0c 04 be 32 0e 6c be
       -0.016343325 0.008992759 -0.12895335 -0.2305229
0000c0 7d a6 f4 3b f3 66 2e be f0 d6 cc bd 18 56 79 be
       0.007466136 -0.1703146 -0.100019336 -0.24349248
0000d0 9e bb be be f5 0a 53 3e e0 63 b2 3e 51 1d 03 3e
       -0.37252516 0.20609649 0.34841824 0.12804152
0000e0 52 df d5 3b 2c 4c 46 3e 4e a2 71 3c 94 17 7d be
       0.006526866 0.19364995 0.014748169 -0.24716026
0000f0 66 a9 35 be ea 49 64 3d 80 7e b1 3e a2 bd a4 3d
       -0.17740402 0.055734552 0.34666824 0.08043982
000100 e0 30 8a 3e a5 a6 c3 3e f4 2a ce 3e 87 30 cc be
       0.26990414 0.38213077 0.40267146 -0.39880773
000110 2f f9 60 bd 8a ce 60 3e e7 12 66 be 13 59 36 3c
       -0.05492514 0.21953788 -0.22468148 0.011129635
000120 c7 f6 5e 3e 36 64 41 bd 86 bc 49 bd 85 9e 2e 3e
       0.21773826 -0.04721471 -0.049252056 0.17052658
000130 91 77 b9 be 80 c4 9a be ae 32 3a 3e 75 19 5d bd
       -0.36224034 -0.30228043 0.18183395 -0.053979356
000140 64 5a bf 3d 2d a1 65 be 17 83 10 3e 5f 81 2e 3e
       0.093434125 -0.22424765 0.14112507 0.17041539
000150 d4 37 91 bd 1d b1 d7 3c f3 91 94 be 37 71 91 be
       -0.070907265 0.026329571 -0.290176 -0.2840669
000160 a1 49 40 bd 06 ef 9b be 2e 4d 0f bd 75 ec be be
       -0.046945218 -0.30455798 -0.034985714 -0.37289777
000170 2a 27 65 3e 1a b1 9e 3e dc 58 a7 3e f0 15 c0 3e
       0.22378221 0.30994493 0.32684982 0.37516737
000180 ba aa da bd 4c 1b c0 3e 68 e3 57 3e 09 e4 f3 bd
       -0.10677095 0.37520826 0.21082842 -0.11908729
000190 8d 43 3c be a2 9e ed 3d 7d 66 1f be 97 3c 91 be
       -0.18385144 0.116025224 -0.1556644 -0.2836654
0001a0 8c d0 e3 3c ab f0 b2 3e 7a c9 47 be 62 30 ef 3d
       0.027809404 0.3494924 -0.19510451 0.1167915
0001b0 35 97 ff bc 3b d9 bf bd 8d c5 96 be eb c8 bc 3e
       -0.03120003 -0.09367605 -0.29447594 0.36872038
0001c0 57 19 7c be fc 3c af be 67 e8 bd 3e 3c c3 b8 bc
       -0.24619041 -0.34226215 0.3709137 -0.022554033
0001d0 bf de b2 3e c4 e5 31 3e 8c ac d1 3e 77 b6 fa 3d
       0.34935567 0.17372805 0.40951955 0.12241834
0001e0 48 af 22 be 9e 35 55 3e 3f ba 7b be 28 70 24 3e
       -0.15887177 0.20821235 -0.24582766 0.16058409
0001f0 c2 cf c5 be a1 1c b5 3e b6 42 a8 3d 03 db c5 be
       -0.3863507 0.35373405 0.08215849 -0.38643655
000200 3d 8b c3 be be 30 4e be 9a c9 ad 3e f0 02 06 3d
       -0.38192168 -0.20135781 0.33942872 0.032717645
000210 f0 7c d1 3d 60 c8 c4 be b9 7c a8 3e 1a a2 93 3e
       0.10228908 -0.38434124 0.32907656 0.2883461
000220 74 25 d1 be e0 02 93 3e 86 d4 56 3e 72 11 bb 3e
       -0.40848887 0.2871313 0.20979509 0.36536747
000230 71 88 8a be 49 03 a4 3e d1 1b 53 3e 2a 65 59 3e
       -0.27057222 0.32033756 0.2061608 0.21229997
000240 8e 18 c8 3e 8e 2f 3d be 8f a1 0f be 93 4a 83 3d
       0.39081234 -0.18475172 -0.14026473 0.06410708
000250 57 af 42 be 99 c5 cc bd
       -0.190122 -0.09998626

bias f4 [5]
000000 f6 bb 7b 3d 4c a8 b1 bd 21 77 9d bd f9 6a e4 3d
       0.06145855 -0.08674678 -0.07688738 0.11153216
000010 9e 1b d1 3d
       0.10210346

att f4 [1, 1, 10]
000000 8c 85 b2 3e fc 74 23 3e a2 78 10 be 25 08 ae be
       0.34867513 0.15962595 -0.14108518 -0.3399059
000010 af 23 23 3c ab 03 74 be df 24 9c be 2e ff 49 be
       0.009957238 -0.23829524 -0.3049688 -0.1972625
000020 9c 27 8d 3e 3e af 2f be
       0.27569282 -0.17156693

bias f4 [10]
000000 f1 28 07 bd 6d be 30 bd 4b 4f b2 bd 76 41 cf 3b
       -0.03299803 -0.043150354 -0.0870653 0.006324942
000010 91 81 4c bb ca f7 1c bd 55 07 fa 3b 80 77 9f bc
       -0.0031205157 -0.038322248 0.0076302686 -0.019466162
000020 95 45 30 bd 0a 82 47 bc
       -0.04303511 -0.012177
