model/tgn/241025_4/epoch_3.pt (torch, 456358 bytes, 101 tensors)

att f4 [1, 1, 30]
00000000: db6b 6bbe 3a37 01be ae17 4c3d 0bf7 503e
00000010: f5d5 973e ba33 bcbe 7d60 9dbc 7b13 d9bd
00000020: 3d0d 993e 6a1f 39be 1c5f fcbd b288 92be
00000030: f79c 5c3e 0cab f3bd 8601 b13c d730 28be
00000040: 24dd 8abe f23a bfbe 9d0b 95bc 2801 f53c
00000050: 06cf c73c 143a c63e a3d8 a0be c6d8 4abd
00000060: 554a 143d 53ea a43e 02fc 883e 7689 8b3e
00000070: 1159 c0be 5493 0f3e
-0.22990362 -0.12618724 0.04982727 0.2040674 0.29655424 -0.36758214 -0.019211048 -0.10599419
0.29892913 -0.1807839 -0.12322828 -0.28619915 0.21544252 -0.11897859 0.021607172 -0.16424881
-0.27121842 -0.3734966 -0.018194014 0.029907778 0.024390709 0.38716185 -0.3141528 -0.049523138
0.0362037 0.32210025 0.26754767 0.27253312 -0.37567952 0.14021045

bias f4 [30]
00000000: 0fea 543d b3f9 56bd 620c 63ba 3da3 96bd
00000010: 5b64 f13c 9287 f33c 0ccf d73c 3bcc 05bd
00000020: 1b60 b8bd be62 c2bd 18b8 39bd 51ed 5bbd
00000030: 7853 163c d9c4 1dbd a2a0 61bc cd09 06bd
00000040: fab5 40bd aeef 64bb eacc dfbd 2329 313d
00000050: 41c6 4dbd e275 78bd e5fb a0bb 7101 63bc
00000060: 1606 34bd b07f 4a3d 4e2f cdbc bdaa a73d
00000070: c5f4 5b3d fd15 8abd
0.05198103 -0.052484225 -0.0008661208 -0.07355354 0.029466799 0.02972773 0.026343845 -0.032665472
-0.09002706 -0.0949149 -0.04534158 -0.05369312 0.009175174 -0.038517807 -0.013771208 -0.03272419
-0.047048546 -0.00349329 -0.10927756 0.04325212 -0.050237898 -0.060659297 -0.0049128407 -0.013855324
-0.043951117 0.04943818 -0.02504697 0.081868626 0.053700227 -0.06742475

weight f4 [30, 163]
00000000: 73b5 42be 4f3b 5bbd 81ad abbe 92f4 30be
00000010: 38c1 27be 438b ee3b 3a0a e53d f71c 843c
00000020: 337e 02bf 3d8b 9cbe be1b e7bd 29f8 de3d
00000030: 0498 e33d ed59 03be 74b6 43be 58c9 fbbe
00000040: 1899 373e 7d35 0a3e c147 32be 5bc6 2ebe
00000050: 8fa5 12bf 2ec2 78be 4c42 c33d 019e 0abe
00000060: 82a0 18be eba2 8fbc e9de d73d c13f 79bb
00000070: 4cc1 b83d 67c5 a53e ba6e 9cbb 4b6a 87bf
00000080: 1b57 5a3e 57b3 7cbe 519d 15be 0bc2 cd3d
00000090: f3dd 0cbe 7dbe 54be 3421 98be d655 9d3e
000000a0: 9313 003c 91b8 d8bd ef69 193f e929 cbbe
000000b0: 4ce9 833e bd10 723e 6ad3 27bf ab62 083e
000000c0: 8f62 3dbd 1b29 91bd b5ed 95bc 8613 c33e
000000d0: 4964 223e c06c eeba 1f86 b1bd bee2 1dbe
000000e0: bd26 573e 9fef 25bd df7d 9fbe 93ab fabe
000000f0: f66b 68be 0c7b febd a8c9 02bf d16a 33bc
00000100: b616 463f ed4a cdbe 27e2 8fbd add2 123f
00000110: 1269 48bf 297d 69be fc2f 5a3d a2ac 7abe
00000120: c1a0 9a3e 18a6 f8be 3bc2 313e 6086 323e
00000130: d5d6 773b 096e 083d 09f3 fabd a03d 00bf
00000140: 2311 18bb f692 c5bd 04d5 443e 70cc 503d
00000150: e60f 80be 48e3 38be 1c96 1abf 1dad 51bd
00000160: 6742 b43d e1cc 9cbd 1716 7d3e 49ca c4bd
00000170: 34fc ebbc 87df a93d e93a 50bf cf90 cbbe
00000180: 83a5 6dbc 81c5 e63d c764 f9bc d341 12bf
00000190: 7f6e e03c f9b6 943d 8c20 2fbe 9c4e 2e3e
000001a0: db97 97bd 6217 5ebe f049 24be 37b2 a33e
000001b0: 765b dbbe d758 aa3d ef25 eb3e 45be cebe
000001c0: a782 ec3d 1606 e93d 8d0c 29be fa94 273e
000001d0: aa7c 9cbd 3d1d 46bc 03a1 883e 2f86 ed3c
000001e0: 7cf3 87bd 2d27 c0bd e990 10bd 86d5 123e
000001f0: ae6f b0bd f381 ca3d 423f 183e fbe5 d3bd
00000200: da7b 523d 348f fd3b 466e ee3d 627d bcbd
00000210: ca8d 92bd 3a0f 44be 623d a0bc bafa bdbe
00000220: 398d 0bbd a54a 033f 5e9d 183d 2431 ff3e
00000230: 2c7a 8b3d 24fb 0f3e 7d83 7c3d 7013 efbd
00000240: ef39 4eb9 08e7 893c 5685 c73e 61b9 eb3d
00000250: 206c 113e b165 abbd 6b72 f5bc 1645 e63e
00000260: 8493 933e 2a48 95bd fd35 46bc 460b 293e
00000270: 561b 9e3c 6cb5 86bd f041 8b3e 0e65 aabe
00000280: 3c83 54be 3d39 99be af10 2dbf db6b f0bc
00000290: c3d4 adbd 9597 3abe f86c 29bc 34a2 aebc
000002a0: f232 30bd 1828 bb3d 560a ad3d 2190 403d
000002b0: 9b3a 0dbe 8246 d5bd b12c 2a3c c600 153e
000002c0: 3b7d 55bd 7fed bfbe 2d8b dabe 99ed 19be
000002d0: e060 f5bd a1f9 d93d de4a 21be 1cfd 2a3e
000002e0: 2c76 04bf 9813 a0bd c990 2ebd e362 60be
000002f0: b5e8 033d ea95 993e aee2 cd3d a830 67be
00000300: 2201 9e3d 8508 453e 9ee0 84bf 1893 2c3d
00000310: c9bf 17be 7667 193d 70f6 cd3b b4ec a5be
00000320: ada7 cc3c b41d e1bd a3d9 cdbd e0f2 34be
00000330: c88e 6fbe e020 c73d aa63 10bf d64a 22be
00000340: ff03 b0bd ec6e 86bd c491 28be a1dd 01be
00000350: a839 06be 7e46 1a3e 07e5 4bbe 4f61 853d
00000360: 59fd 7b3d 52de 2e3e c581 41be d0c3 773e
00000370: 83b6 ba39 be4a 09be 17a9 803e 9313 1ebe
00000380: c8d8 9abc 617f 86bd d3fa b73c 72f3 0d3f
00000390: 135c 873e da36 31be e693 fb3e d5ab 773d
000003a0: d9ac 383e d5be 5c3d 9f79 b8bd eb5f 113e
000003b0: 12a0 95be 91f2 fbbd 769e d73e 4616 2abd
000003c0: ae96 b3bd ccb5 563e dd55 1abe 943a e5bd
000003d0: 19ab 41be d41e 793d a4a2 a5bd 6fe8 b2be
000003e0: 7987 8b3c 21d9 e1bd 7a6a 153e f8cd 1f3e
000003f0: 5582 283e 5ceb c43c 99be 413d 2c7a 213e
-0.1901453 -0.053523358 -0.3353081 -0.17280796 -0.16382301 0.007279785 0.11183591 0.016127093
-0.50973815 -0.3057498 -0.11284588 0.108871765 0.11112979 -0.12827273 -0.19112569 -0.4917705
0.17929494 0.13496967 -0.17410184 -0.17067854 -0.5728387 -0.24292824 0.095341295 -0.13536836
-0.14904979 -0.01753374 0.105405636 -0.0038032385 0.090212435 0.3237717 -0.004773942 -1.0579313
0.2132229 -0.24677788 -0.14610793 0.100467764 -0.13756542 -0.2077579 -0.29712832 0.3072955
0.007817167 -0.10582078 0.59927267 -0.39680412 0.2576393 0.23639198 -0.6555697 0.13318889
-0.04623657 -0.07087918 -0.018301824 0.38100833 0.15858568 -0.0018190369 -0.0866816 -0.15418527
0.21010871 -0.040511724 -0.3115072 -0.48959026 -0.22697434 -0.12425813 -0.51088953 -0.01095076
0.77378404 -0.40096226 -0.07025557 0.57352716 -0.78285325 -0.22801651 0.053268418 -0.24479917
0.3020077 -0.4856422 0.1735925 0.17434072 0.003781726 0.033308063 -0.122533865 -0.5009403
-0.0023203574 -0.09647171 0.19221884 0.050976217 -0.2501213 -0.18055451 -0.603853 -0.051190484
0.08801728 -0.07656265 0.24715458 -0.09608895 -0.028806783 0.082945876 -0.8133989 -0.39758918
-0.014504793 0.1126814 -0.030443562 -0.5713169 0.027396439 0.07261462 -0.1710226 0.17022175
-0.07402011 -0.21688607 -0.1604383 0.31971905 -0.42843217 0.08317726 0.4592738 -0.4037954
0.115483575 0.11378114 -0.16508694 0.16365424 -0.07640965 -0.012091932 0.26685342 0.028994648
-0.06638238 -0.09382472 -0.035294447 0.14339265 -0.08615051 0.09888067 0.14867881 -0.103466
0.051387645 0.0077380184 0.11642127 -0.092036024 -0.0715595 -0.19146433 -0.01956052 -0.37105352
-0.034070227 0.51285774 0.037259452 0.4984218 0.06810412 0.14060646 0.061648834 -0.11673629
-0.00019667273 0.016833797 0.38968915 0.115099676 0.14201403 -0.083690055 -0.029961785 0.44974583
0.28823483 -0.07289155 -0.012097833 0.16508207 0.019300144 -0.06577572 0.27198744 -0.33280224
-0.20753187 -0.29926482 -0.6760358 -0.029348304 -0.08487847 -0.18221886 -0.010340922 -0.021317579
-0.043017335 0.09138507 0.08449237 0.047012452 -0.13791887 -0.10413839 0.010386632 0.14551076
-0.052121382 -0.37485883 -0.42684308 -0.15032043 -0.11981368 0.10643316 -0.15751216 0.16698116
-0.51742816 -0.07816237 -0.042618547 -0.21912722 0.03220435 0.29997188 0.10053001 -0.22577155
0.0771506 0.19241531 -1.0381048 0.042132467 -0.14819254 0.037452184 0.006285481 -0.32407153
0.024982298 -0.109919935 -0.100512765 -0.17670774 -0.2339431 0.09723067 -0.56402075 -0.1584886
-0.08594512 -0.065641254 -0.16461855 -0.12682201 -0.13107932 0.15065953 -0.19911586 0.06512701
0.061520908 0.17076996 -0.1889716 0.2419579 0.00035612666 -0.13407418 0.25129005 -0.15437154
-0.018902197 -0.06567264 0.02245847 0.55449593 0.26437435 -0.1730608 0.49136275 0.060466606
0.18034686 0.05389293 -0.090075724 0.14196746 -0.29223686 -0.12302125 0.42113084 -0.041525148
-0.08768974 0.20967788 -0.15071817 -0.111928135 -0.18912925 0.060820416 -0.08087662 -0.34942958
0.017032372 -0.11027742 0.14591399 0.15605915 0.16455968 0.02403801 0.04730091 0.15769261

bias f4 [30]
00000000: 1a6d 033e c17c e2bd 0f21 113c 9e8c 8fbd
00000010: b2be 8a3d 8cff 363d 9cf8 ca3d fbcd f23c
00000020: 71af 41bd e978 8cbd 3414 1cbd ab5d 57bd
00000030: 8f52 bc3c 1747 9dbd d0be 453d c087 a7bd
00000040: e05f 45bc a5bc 5cbd d79a 06bd cbe9 813d
00000050: 1110 57bd 9c5a c0bc 2add 23bd 7282 4d3d
00000060: 73aa 99bc 4b41 943d 715b 53bd 0fa8 e93b
00000070: a632 17bb 0bbc 0abe
0.12834588 -0.11058951 0.008857979 -0.070092425 0.067746535 0.044677302 0.099107 0.029639235
-0.047286455 -0.06858999 -0.038105205 -0.052579563 0.022988586 -0.07679575 0.048277676 -0.08180189
-0.012046784 -0.053890843 -0.03286251 0.063434206 -0.052505556 -0.023480706 -0.04000584 0.05017323
-0.018758034 0.07239016 -0.051600877 0.00713063 -0.002307096 -0.13548295

weight f4 [30, 163]
00000000: e73b eb3d 4055 cfbd 9e73 a53d c03f 81bd
00000010: e20d b83d 3604 cfbd e665 1a3e 4467 00be
00000020: 779e 5cbd e089 333e 4066 993c 0314 b5bd
00000030: 5141 1b3e 7859 9fbd ff67 f73d 4ac7 f53b
00000040: 8686 02be a80b 8d3d 1179 043d 49b8 053e
00000050: 9cfc 03bd fb66 c93d 1bb2 32bd 8b37 f0bd
00000060: 4806 6fbd 1101 eabc c479 0bbe 527d 303e
00000070: 3279 403d 316d 3f3d 6712 eb3c 97e2 c43d
00000080: add8 26be 7e39 26be 7c3c 01be d23f 9c3d
00000090: e881 913a 5991 263e 61e4 9b3d 4c08 b93d
000000a0: f867 243e 5317 2c3e 8ef9 e4bd 3c54 fabd
000000b0: ba9b c73d 3dbd d23d 3789 0ebe 9850 f53d
000000c0: e740 e23d e1be b73d 9767 143e b8f2 c33d
000000d0: e8d0 80bd 26d4 20be 8b4c bd3a 6d89 473d
000000e0: 82a0 10be ca24 d5bd 32da 8b3d 46dc db3d
000000f0: 9742 233e 950d e23d 6588 053e ee48 45bd
00000100: 852d c3bd ea38 50bd e227 90bc ace8 10be
00000110: f138 85bd 94bc b43d abeb 923d 68d4 76bd
00000120: 9471 153e 2931 1ebd 5a51 eabd c185 2c3e
00000130: 976e 38bd a14b afbd 140a 173e 50af 2f3e
00000140: 48c2 2e3e 71b0 aa3d e889 55bc d8ad 333e
00000150: 9549 1ebe 8dd6 113e 8c9e ecbd ff67 32be
00000160: 0e76 e73d 024f b0bc 20c8 29be c616 aebd
00000170: 3de9 68bd be64 863d 9da0 16be 247e 16be
00000180: 9d93 163e 614c 8b3c c295 d83d 30b5 733c
00000190: 1b49 b93d 1299 52bd 9d5f 95bd d13a 61bc
000001a0: c413 ea3d 4d0e ccbd 1ca4 7bbd e3c2 9ebc
000001b0: c799 1c3e 8548 2b3e 1c65 10bc 5127 0bbe
000001c0: 0039 f13d 1045 363d 8a63 e3bd ff55 26be
000001d0: 9b0d 82bd b2e8 ffbd c4eb 063d 2256 0f3d
000001e0: e317 fbbd 4688 453d 864e 7dbd d9af e83d
000001f0: 7cc0 053e 192e 343e d32c 023d eaac 1dbe
00000200: b1a7 b23d bc7f cebb b21c 33be 9cac dfbd
00000210: 3637 023e 8082 ae3d 77b5 073e 10ff 233e
00000220: da26 223e ecf9 d2bd 58c1 413d 1e32 2d3e
00000230: 8352 56bd 500a ea3d 114d b1bd 6acc e63d
00000240: ea71 ba3d fa8c d2bd 5ff3 2c3e e513 9c3d
00000250: 87bb 11be 6a4f 1abe 0806 ca3d f705 dbbd
00000260: f1fa 1bbe bff3 ee3d 01df ecbd 6c01 ba3d
00000270: 6942 af3c b721 e63b e811 c43d 30eb 2fbe
00000280: db95 723d c914 843a 71a5 10be da26 15be
00000290: 1913 ba3d 8854 8ebc 21d7 22be 3615 bdbd
000002a0: d140 293e f2e4 153d 9470 403d ec54 2a3e
000002b0: 4764 4b3c f9e0 103d a3d0 e63d 29de aa3c
000002c0: fd99 95bc d7fe e6bc 0579 933d 0a2d 30be
000002d0: 63d0 17bd cecd 1cbe 4391 123c ecef 8cbd
000002e0: 6bf5 65bd 3f84 1d3e 7001 a5bd 4893 243e
000002f0: 32f5 26be b39a 0bbd aef7 40bd 08b8 313e
00000300: 6d51 d4ba c5fb 2dbe bc04 2cbd 2c8d a8bd
00000310: f7d1 18be cb87 a43d bcd1 f93d 2153 b7bd
00000320: f993 cb3b 7049 1b3e 62fe 08be 2bc0 a7bd
00000330: acaf a03d 9f1e 02bd 22d2 093e 4e2e b5bc
00000340: ae07 77bd 1b32 30be d7e0 f73c 4484 08be
00000350: 8693 1dbe 6563 853c 5e99 dd3d f919 83bd
00000360: 0baa 2f3d 3d90 5fbd 9680 b5bd 9d15 83bd
00000370: 11f5 a43d 5bac 6d3d 7ae3 79bd a417 0bbe
00000380: ff73 e6bd 4a65 1b3e 8cae e53d 5db3 023e
00000390: 1895 0d3e f1bd 4dbd 3ba9 c03d a90e d93d
000003a0: 1b7c debd 470e 81bd 71a5 e5bd 3ad3 3cbd
000003b0: 9602 d33d 36e5 2d3c 64b2 e03b 382f 93bc
000003c0: 7d26 efbd 37bb 6f3d 4522 9d3d 6746 c33d
000003d0: 9e33 01be cb6d d93d 2a3f 273e 3ef8 193d
000003e0: a508 c63d 2093 96bc 1aa7 26be 3e80 08be
000003f0: 7d61 3c3d 14c7 563d d004 0f3e ad89 613d
0.11486035 -0.10123682 0.08078693 -0.063109875 0.08987023 -0.10108225 0.15077934 -0.12539393
-0.05386206 0.17533064 0.018725514 -0.088417076 0.15161635 -0.07780737 0.120803826 0.0075005637
-0.12746629 0.06886989 0.03234202 0.1305858 -0.03222333 0.09834095 -0.043626886 -0.11729344
-0.0583556 -0.028564962 -0.13620669 0.17235306 0.04699058 0.046734992 0.028695298 0.09613531
-0.16293593 -0.16232869 -0.12620729 0.0762936 0.0011101337 0.16266383 0.07611919 0.09034786
0.16055286 0.16805772 -0.11180411 -0.12223098 0.09746499 0.102900006 -0.13919531 0.11978263
0.110475354 0.08971954 0.14492641 0.09567779 -0.06289846 -0.15705928 0.0014442367 0.048715044
-0.14123729 -0.104074076 0.06828727 0.10735373 0.15943371 0.11037747 0.13040312 -0.048165254
-0.095301665 -0.050835527 -0.017597143 -0.14151257 -0.06505001 0.08825031 0.07173856 -0.06026116
0.14594108 -0.0386211 -0.11441298 0.16847898 -0.04502734 -0.08559347 0.14749938 0.1715672
0.170663 0.08334435 -0.013033368 0.17546785 -0.15457757 0.14242001 -0.11553678 -0.17422484
0.11301814 -0.021522049 -0.16580248 -0.085004374 -0.05686306 0.06562184 -0.14709707 -0.14696556
0.14704747 0.017004194 0.10575439 0.014874741 0.09047147 -0.05141551 -0.072936274 -0.013746933
0.11429551 -0.09963665 -0.061435804 -0.019380039 0.15293036 0.16726883 -0.008813169 -0.13589217
0.1177845 0.044499457 -0.1110297 -0.16243742 -0.06350251 -0.12495555 0.032939687 0.034994252
-0.122604154 0.048225664 -0.061842464 0.11361665 0.13061708 0.1759571 0.03178103 -0.15397993
0.08723391 -0.006301848 -0.17491415 -0.109215945 0.12716374 0.08520985 0.13252817 0.16015267
0.15835133 -0.10301575 0.047303528 0.1691365 -0.052324783 0.11427748 -0.086572774 0.11269458
0.09103759 -0.102807954 0.16889714 0.07620982 -0.14231692 -0.15069357 0.098644316 -0.10694497
-0.15232445 0.11667585 -0.11565972 0.090823025 0.021393972 0.007023062 0.09573728 -0.1717956
0.059224945 0.0010076995 -0.14125611 -0.14565602 0.09085674 -0.017374292 -0.15902378 -0.09232561
0.16528632 0.036595292 0.046982363 0.16633958 0.012414045 0.0353708 0.11270263 0.020857887
-0.018261904 -0.028197689 0.07200817 -0.17204681 -0.037063967 -0.15312883 0.008945766 -0.06881699
-0.056142252 0.15382479 -0.08056915 0.16071808 -0.16304472 -0.03408308 -0.047111206 0.17355359
-0.0016198583 -0.16990574 -0.041996703 -0.082300514 -0.14923845 0.08033713 0.12198207 -0.089514025
0.006212708 0.15164733 -0.1337829 -0.0819095 0.07846007 -0.031767484 0.13459066 -0.022116806
-0.06031006 -0.17206614 0.03025858 -0.13331705 -0.15388307 0.016282747 0.10820268 -0.06401438
0.042886775 -0.054580916 -0.088624164 -0.06400607 0.08054555 0.0580257 -0.061007954 -0.13583237
-0.11252593 0.15175357 0.11214933 0.12763734 0.13826406 -0.05022997 0.09407278 0.10598499
-0.10863515 -0.06301551 -0.11213196 -0.04609988 0.103032276 0.01061373 0.0068572033 -0.017966852
-0.11677263 0.05852815 0.07672552 0.095349126 -0.12617347 0.106166445 0.16332689 0.037590258
0.096696176 -0.018380702 -0.16274682 -0.1333017 0.04599141 0.05243595 0.1396668 0.05506294

bias f4 [30]
00000000: d53e 133d d21e 74bd 82f6 8fbd c5bf 27bd
00000010: 7372 3fbd 6ef5 ae3c 6987 333d a304 4c3c
00000020: 4007 573c 9c51 88bd 2402 823d 6021 2fbd
00000030: 0596 f73b b0d8 82bc f920 5fbc f174 3e3d
00000040: 9745 91bd 3d45 8e3d b347 67bd 3b69 b63c
00000050: e620 953d e130 15bd c85f a93c 334f 20bd
00000060: 42b5 e3bc 61c6 2cbc 888c 8e3c d7ef 99bd
00000070: 927a 5e3c a43a 66bd
0.035948593 -0.059599705 -0.070294395 -0.04095437 -0.046740007 0.021357264 0.04383031 0.012452277
0.013124287 -0.06656191 0.063480645 -0.04275644 0.0075557255 -0.015972465 -0.013618701 0.046498243
-0.07093351 0.069468 -0.056464862 0.022266975 0.072816655 -0.036423568 0.020675555 -0.03913803
-0.027796391 -0.010545344 0.017400995 -0.07516449 0.013579028 -0.056208268

att f4 [1, 1, 30]
00000000: 713c bdbe b32e 023e d098 bdbe 9066 b83e
00000010: d8cb de3e 48ab aa3d 079b 7a3d e81f bdbe
00000020: f8db 16be 2f1a 5fbc 0e65 5ebd a963 d7be
00000030: 5a15 8abe e7f0 59be ed2e 633e 044e ba3d
00000040: 8965 6ebe ccd6 653e aacb b1be a84b c33d
00000050: 63b4 983e 1e81 85bd 0514 2c3d e3b6 14be
00000060: 118a aabd a482 6fbe ef55 ac3d 94d0 34be
00000070: aeb2 f5bd 6cd4 b7be
-0.36960176 0.12713127 -0.3703065 0.3601575 0.43514895 0.083334506 0.061183 -0.36938405
-0.14732349 -0.0136170825 -0.054295592 -0.42068222 -0.26969415 -0.21283303 0.2218587 0.090969115
-0.2328092 0.2244522 -0.34725696 0.09535915 0.29825124 -0.06518768 0.04201128 -0.14522891
-0.08327115 -0.23389679 0.08414828 -0.17657691 -0.11996971 -0.35904253

bias f4 [30]
00000000: 20c2 063b 41ff a23a f900 893c fb0a d43b
00000010: bafd e73b 4594 d93a 4e38 7d3b 6d44 c53c
00000020: 99d4 df3b 27b7 83bd afa7 e43c 02f0 a4bc
00000030: 27af e2bb fd7c 22bc aaea 0fbb b8c6 43bc
00000040: 0bc1 f23c 3b30 003d 514e 263b e529 b4bc
00000050: 3247 c1bb 26bf a6bb 0d53 1cbd f1f0 003b
00000060: b4c3 20bd 9300 9d3b 728a 1b3c a4ce 123c
00000070: cc10 b7bb 0fab f13c
0.0020562485 0.0012435691 0.016724097 0.0064710355 0.007079807 0.0016599974 0.0038638297 0.02408048
0.0068307635 -0.06431418 0.027911989 -0.020133976 -0.0069178524 -0.009917495 -0.002195994 -0.011949234
0.029633066 0.031295996 0.002537627 -0.021992633 -0.0058983797 -0.0050887046 -0.03816514 0.0019674862
-0.039249137 0.004791328 0.009493457 0.0089604 -0.005586719 0.029500512

weight f4 [30, 163]
00000000: e461 c4bd 158b 1d3e e47c 24be 724d ddbd
00000010: 1da8 20bd 140f 26be c5dc 06bc d4fc a83d
00000020: 21dc 6bbd 69b6 29be b7fb c2bd eaf2 873b
00000030: 329a 243e 394e 07be 06d7 febc 1bf7 e3bd
00000040: 6c5c 1fbd cb5c 83bd 04e3 dcbc a629 7d3d
00000050: 054a 39be 04af 4bbe 9545 0c3e df38 04be
00000060: efd7 033c 4c6e 263e f8f1 2fbd 23d9 51bd
00000070: 7914 1a3e 42b8 113e e0b1 bc3a 50a5 663d
00000080: 46a9 623c 4595 21bd 4a19 e2bd 7723 2abe
00000090: 9744 e5bd 336e afbd dac9 3e3a bd2a 01be
000000a0: 6d23 15be 1d25 a2bc 8bf9 ae3b eb5a c7bc
000000b0: 790e 5fbd cc58 083d d9d8 34be 03a8 ed3d
000000c0: 01a4 eabd f1ff 41bd 5451 d13d b686 973c
000000d0: 3af9 153e 4f19 00be 6ba9 483d 5afd 56bd
000000e0: f4e4 1d3d 204c 66bd 0072 ca3c eeb6 653d
000000f0: 4e41 bf3d f39c f5bc 60d0 c2bd 499a c1bc
00000100: 637c e8bd 720c d6bd 8e5c 17be 098b ecbd
00000110: f9ce de3d 9d0d 133e efe0 88bd 69d6 103e
00000120: e516 2e3e 3326 0fbc bc70 2fbe 07a7 c6bd
00000130: b553 e0ba ca7f 8b3d 9579 333e ac86 c6bc
00000140: fdc5 81bd 0547 4b3c 5e2b b4bd eb7b c7bd
00000150: be05 c53c 7ce7 3d3e d4dd 07be 5291 233d
00000160: 3a63 bb3d 7ff8 0abb cc0f 693c fb81 2fbe
00000170: 1340 c53d c83b c33d 53a1 dbbd 7625 21be
00000180: 63b6 d6bd 08b7 273e 990b 083d d185 133e
00000190: a3e9 c63d 8dd1 8d3d 2c4e 4f3d 53dc 123d
000001a0: 7afc 7f3d 65a0 793c 5375 e43d f884 42bd
000001b0: 606a 77bd 182c 3fbe e19e 853c efd6 1b3e
000001c0: c94d 14be 997d 18bc b845 5f3d 7476 973d
000001d0: 07e2 c8bd a112 2c3d 7304 9ebd ac03 c2bd
000001e0: 626d bd3c 123b fcbd b1c9 9a3c ad42 ea3d
000001f0: bc71 a1bd 63dd 5a3d 2bff 2b3e e897 a6bd
00000200: e926 473e 472a 13be a9ad cebd 6c99 d53d
00000210: 4e91 273e 22ad f4bd 4b0d 9fbd fce0 1cbe
00000220: 132f 17be ed5e 2fbe e033 fa3d b127 1abe
00000230: 1eeb 05bc 4665 4e3d d5ef 0b3e 2caf 40be
00000240: e081 53bd 7722 07be 077f 15be a4e8 c5bb
00000250: e480 fb3a ec35 24bd 044a e83d 7b33 883d
00000260: 4c10 b13d bb88 153d 37ba b73d 651a 16be
00000270: c14c 953d 4807 16be 9fe4 66bc 6df5 bf3d
00000280: a72c 3f3d 222e 1f3e a094 773c 420d bd3b
00000290: 6c4c b0bd 8497 b6bd 6bad a3bd d130 24be
000002a0: c308 3d3d dac8 b9bd f8d8 51be 2a5f bf3d
000002b0: 3859 23be d5e8 e23d d185 41be 9340 a13d
000002c0: 77a2 39be 3ab8 59be c322 af3c 4901 fe3d
000002d0: 401e 58be ec00 8a3d a871 53be a713 cabd
000002e0: ddad a13c fc5b b8bc 9ebb df3c 0e40 cdbd
000002f0: 3260 ae3d cab4 c23d e4ef b13d b8be c8bd
00000300: 92f3 f3bd 3186 e3bd 8e3e a83d e7f2 f93d
00000310: 44e2 b63d 08c3 8939 b6ca 20be 263b 08be
00000320: aa28 e33d e360 31bd 950e b83d ec0b a43d
00000330: 5339 5abd d18f 25be 0aa8 62be a487 f7bd
00000340: 2dc3 afbd 6269 8fbd f1df c9bd 58f1 243d
00000350: 4419 a6bd 0eba 663c 1460 65be b992 92bd
00000360: b3ce 753d a2f2 0ebe e9ea 3bbd 70aa e8bd
00000370: 0154 993c 78cd 1cbd b823 f13d b695 673d
00000380: e4dc 863d 5848 a7bd fdad 1e3d 8eb7 763c
00000390: 4a8a 123e 0b45 a2bd 394c 293d aa7d 3d3e
000003a0: 636e 793c 808b 93bc 0e32 b3bd f652 aa3c
000003b0: 7807 7f3d 9805 f0bd 8f04 dbbd 1c11 23be
000003c0: 24da f43c 79f0 4f3e 5bec 9c3d caf6 eebc
000003d0: 583b 173e 250e f6bd f23a 283e c1b2 033e
000003e0: 20f9 6d3d f41f 73bc d7ec cc3d f09a 1e3e
000003f0: cdfd aa3d ad73 23bd 8d7e 763c 06b6 a33d
-0.09588984 0.15385087 -0.16063267 -0.10805787 -0.039222825 -0.1621669 -0.0082313465 0.08251348
-0.05758298 -0.1657349 -0.09520667 0.0041488307 0.16074446 -0.13213433 -0.03110839 -0.11131116
-0.0389065 -0.06414183 -0.026963718 0.061807297 -0.18094642 -0.19890982 0.13698418 -0.1291232
0.008047088 0.16253012 -0.04295537 -0.05123247 0.15046872 0.14230445 0.0014396273 0.056309998
0.013834303 -0.039448995 -0.1103998 -0.16615091 -0.11194723 -0.08565941 0.0007278003 -0.1261396
-0.14564295 -0.019793088 0.0053398064 -0.024335345 -0.05445716 0.03328781 -0.17660846 0.11604311
-0.114570625 -0.047363225 0.1022059 0.018496852 0.14645854 -0.12509654 0.048989695 -0.05248771
0.038548425 -0.056224942 0.024712563 0.05608266 0.09338628 -0.029982066 -0.095124006 -0.02363314
-0.1135185 -0.104515925 -0.147814 -0.11549956 0.10879321 0.14360662 -0.06683528 0.14144291
0.17000921 -0.008737135 -0.17132849 -0.09699827 -0.001711479 0.06811483 0.17526849 -0.024234138
-0.063365914 0.012407069 -0.08797334 -0.09740432 0.02405059 0.18545336 -0.13268214 0.03993351
0.09149785 -0.0021205244 0.014224958 -0.17139427 0.09631362 0.09532887 -0.107241295 -0.15736946
-0.10484006 0.16378415 0.033214185 0.14406516 0.097125314 0.06924734 0.05061166 0.03585465
0.06249664 0.015235995 0.1115519 -0.04749009 -0.06040418 -0.18669164 0.01631111 0.1521871
-0.14482798 -0.009307289 0.05450985 0.0739564 -0.09808736 0.042009953 -0.07715692 -0.094733566
0.023123447 -0.12315954 0.018895002 0.11438499 -0.07883021 0.053433787 0.16796558 -0.081344426
0.19448437 -0.14371596 -0.10091717 0.104296535 0.16364023 -0.11947085 -0.07766207 -0.153202
-0.14764051 -0.17126055 0.122169256 -0.15054204 -0.008173732 0.05038955 0.13665707 -0.18816823
-0.05163753 -0.13196741 -0.14599238 -0.006039696 0.0019188193 -0.040090486 0.11342242 0.06650444
0.086456865 0.03650735 0.089710645 -0.14658506 0.0729003 -0.14651215 -0.014092593 0.09372983
0.046673443 0.15544942 0.015111119 0.0057694027 -0.08608326 -0.08915618 -0.07992061 -0.16034247
0.046150934 -0.090715125 -0.20492923 0.09344323 -0.15952003 0.110795654 -0.18898703 0.07873645
-0.18128382 -0.21261683 0.02137888 0.12402589 -0.2110529 0.06738457 -0.20648825 -0.0986703
0.019736225 -0.022504799 0.027311143 -0.10021983 0.085144415 0.09507139 0.08688334 -0.09802002
-0.11911692 -0.11109579 0.08215056 0.12204533 0.089298755 0.00026275986 -0.15702328 -0.13303813
0.110917404 -0.04330529 0.08987156 0.080100864 -0.053277325 -0.16168143 -0.22134414 -0.12086418
-0.08582149 -0.07002522 -0.098571666 0.040269226 -0.08110288 0.014082445 -0.22399932 -0.071568914
0.060011577 -0.13959745 -0.045878325 -0.113606334 0.018716814 -0.038281888 0.11774391 0.05653926
0.065851 -0.08168095 0.038740147 0.015058411 0.14310566 -0.07923325 0.041332457 0.18504968
0.015224072 -0.018010855 -0.087497815 0.020791512 0.062262982 -0.11719817 -0.10694229 -0.15924495
0.029889174 0.20306577 0.07662269 -0.029170413 0.14768732 -0.120144166 0.16428736 0.12861158
0.058098912 -0.014839161 0.10006111 0.15488791 0.0834919 -0.03990524 0.0150448205 0.079937026

bias f4 [30]
00000000: ec40 84bd e91f 8abd 88ed 363c 7bbd 35bd
00000010: bc2f 76bd d60a 26bd c092 4abd 6e20 88bd
00000020: bc91 37bd 3a4c d1bc c05c c63d 7784 96bc
00000030: 34c6 00bc 2137 33bd 38a4 b7bb 6dae 1d3d
00000040: 31c8 2b3c 8a91 093d fc8a 7d3d 077f 233d
00000050: eb09 72bd 5412 bebb 2b3e 8fbd a6e7 bf3c
00000060: a159 3bbc 5302 5abd 435f 8f3d bd77 89ba
00000070: a4a8 24bd fdbe 283d
-0.06457695 -0.06744368 0.01116503 -0.044370156 -0.060104117 -0.040537678 -0.049456358 -0.066468105
-0.044816718 -0.025549043 0.096856594 -0.018373711 -0.007859755 -0.043753747 -0.005604293 0.038496424
0.010484741 0.033586062 0.061900124 0.039916065 -0.05909149 -0.0058005247 -0.069942795 0.023425888
-0.011434943 -0.053224873 0.070005916 -0.0010487955 -0.04019989 0.041197766

weight f4 [30, 9]
00000000: 6769 5cbe fe28 863d e35b 4cbd 7480 593d
00000010: 328b acbe 67ed c03e ca9e 4c3d e39c c8be
00000020: 6a8f 1a3d b3c0 bd3e 64bf 38be ccc4 5b3e
00000030: efed 9c3e 165e 903c ee01 f63d 6d32 c23e
00000040: eed1 ffbd b25b 17be d597 6e3e 7d77 c23d
00000050: 08cd f13d 9643 4a3d e614 8e3e bd94 bdbe
00000060: a627 96bc c5fe 9cbd bde4 043d 0e9d ef3d
00000070: 6559 9b3e 682c 203e 52dc 08be a885 583e
00000080: 7e53 c0be 1e2b ecbd b202 553e 576c 92be
00000090: 4762 bd3e 29e4 b73e 5712 01be aec3 063e
000000a0: 9291 9fbc 6862 363e 2c45 b7be 1dd6 be3e
000000b0: ab4c 67be 5a90 85be 9e69 403e 2f39 a13d
000000c0: d6dd a93d 1728 163d 058d b8be 8294 fc3d
000000d0: 21c8 ab3d 5f1f a33e b0aa 4a3e bda6 f6bc
000000e0: 827a 46be ce51 983e b598 a93d c240 ff3d
000000f0: ff98 ad3d e51a a83e 24ec 093e 344d c0be
00000100: 46ed 4c3e da77 0abd 4971 9dbe 3e92 353e
00000110: 8c36 0ebe 47f3 39be a006 a6be 35e9 ad3d
00000120: 0942 763e f43a 30be 457f 3a3d d678 e2bd
00000130: afaf b13e 87c4 acbd 083f 913c cd63 b3bd
00000140: 2512 32be e81c 173e 60e0 b73e 9164 98be
00000150: e80f bb3e 5226 7dbe 065b 033e db9e 6b3e
00000160: cdb4 a2bd 5dc7 a33e e7ff 973e 6a84 83bc
00000170: 96ce 08be 54ea a73e ce94 82be d59d ecbd
00000180: 0741 c03e 67a6 813e 3dc5 48be 7bd8 75be
00000190: c520 b6ba d72e a23d 3af2 cabc a335 323e
000001a0: b331 cc3c 5133 56be ae6c 833e b590 173e
000001b0: 8f15 47be 0efd 0bbe c1c9 883e 60cf 273e
000001c0: b879 643d ae8a 2d3b 953b 1c3e cde8 b93b
000001d0: 166e b9be 647b 363e bcc4 62be ffb7 083d
000001e0: 2828 55bd e948 c3be a1ac 0a3d 903b fbbd
000001f0: 0eb2 f9bc f13f 86be dfa9 c53d 0068 76be
00000200: 46e5 b2be a9ad 933e a047 953e e192 9cbe
00000210: a8f2 b6be 18d2 c33e bb70 b53d 08b7 4ebe
00000220: e519 88be 8bea 663d 72cc b6be 39c7 04be
00000230: 1e21 bbbe cf56 c1be 3b51 7fbd 1cca 43be
00000240: 613a 583d a35a 83be 4e1d bd3e 5834 9fbd
00000250: 9eeb 163e acdf a63e c09e 843d 079b c33e
00000260: b8f3 d9bc f340 c43e 2878 a43e b603 793c
00000270: f372 503e 3dfa 70be 27f8 b63d b4cc 94bd
00000280: 2528 0f3e 5ef4 3d3e 7d6b a43c 8fc7 2abe
00000290: a975 b43e 44a0 72be 10b5 b13e e79e aabd
000002a0: 9fa3 3cbe d59d 2ebd 96c0 1ebe 7b03 35be
000002b0: 1f6d 073e 0a82 863e 7372 cbbd bb60 a73c
000002c0: 4712 8fbd b18a 353d e711 34be 75c2 36be
000002d0: 6279 d53d 4c6f 1a3d f292 2ebd 0b17 933e
000002e0: 8b53 c2be 54fb a1be d174 b4be 627a c33e
000002f0: 027c aabe 0542 813e e0f6 b1be 6111 453d
00000300: 6ca3 39bd a156 23be b670 0e3e 5f7a a0bd
00000310: 32c3 863e 10d5 b43e 4d18 a0be b642 bdbe
00000320: be0c bdbe d616 e8bd 4951 d43d 586c e63b
00000330: 44cd 18be 1b1a 373e 1966 403c 16d9 c3be
00000340: b1e6 9fbe 30d7 9c3e c03d 1ebe 5a9a 7e3e
00000350: 1e97 8c3e 5860 353e 7198 523e f13f 203e
00000360: d524 8cbd 8ba6 fdbd 07bd 993d 0dbf 8cbe
00000370: 6a76 3fbe 2135 c6be c174 2b3d b91a 873e
00000380: 5b86 533e c5ad eb3d f547 42bb d7de 1a3d
00000390: db02 923c 2a8d 9b3e 648b 1c3e 0c2a 9d3e
000003a0: 1424 7bbd 0118 293e 7895 65bd eb07 733e
000003b0: 767e b1be ff84 51bd 3c17 78be 5eaf 0dbb
000003c0: f03b a7be 1913 26be b70c a6bd 417b f7bd
000003d0: 8e55 aa3e f4b3 263d a952 15be 4d04 4dbe
000003e0: 3b85 3b3d 8f1a 0c3e 7e30 443e 645b 9b3e
000003f0: 6046 013e d132 723d b4b8 4ebe b598 763e
-0.21524583 0.065507874 -0.049892318 0.053101018 -0.33699948 0.37681124 0.04995612 -0.39182195
0.037734427 0.3706108 -0.1804176 0.21461791 0.3065028 0.017622989 0.12012087 0.37929097
-0.12491213 -0.14781073 0.23300107 0.09495447 0.11806685 0.04938086 0.2775032 -0.3702754
-0.018329453 -0.07665781 0.032444704 0.11699878 0.3034164 0.1564194 -0.13365296 0.21144736
-0.375637 -0.115316615 0.2080181 -0.28598282 0.36989042 0.3591626 -0.12604652 0.13160583
-0.019478593 0.17810977 -0.3579496 0.3727273 -0.2258784 -0.26086694 0.1879029 0.07872235
0.08294265 0.036659326 -0.3604509 0.12333013 0.08387781 0.31859872 0.19791675 -0.030108804
-0.1938267 0.29749912 0.0828108 0.124635234 0.08476447 0.3283302 0.13468987 -0.375589
0.20012388 -0.033805706 -0.30750492 0.17731568 -0.13887995 -0.18159209 -0.3242693 0.08491746
0.24048628 -0.17209989 0.04553153 -0.11058204 0.34704348 -0.08435922 0.017730251 -0.0875927
-0.17389734 0.1475712 0.35913372 -0.29764226 0.36535573 -0.2472165 0.12827691 0.23009817
-0.07944641 0.3198804 0.29687425 -0.01605435 -0.13360056 0.32795966 -0.25504154 -0.115535416
0.37549612 0.25322267 -0.1960649 -0.24008362 -0.0013895264 0.0791909 -0.024773706 0.17403273
0.024926042 -0.20918013 0.25668854 0.14801295 -0.19441818 -0.13670751 0.26716426 0.16387701
0.055780143 0.0026480365 0.15257104 0.005673504 -0.362168 0.17820507 -0.2214536 0.033378597
-0.05204025 -0.38141564 0.033856038 -0.1226722 -0.03048041 -0.26220658 0.09651541 -0.2406311
-0.34940547 0.2884343 0.29156208 -0.3058081 -0.35732007 0.38246226 0.08859392 -0.20187008
-0.26582256 0.05637602 -0.35702854 -0.12966622 -0.36548704 -0.37761542 -0.062333327 -0.19120067
0.05279005 -0.25655088 0.3693642 -0.07773656 0.14738318 0.32592523 0.06475592 0.38204214
-0.026605472 0.38330802 0.32122922 0.015198639 0.2035635 -0.23532958 0.0893405 -0.072656065
0.13980158 0.1855025 0.020070786 -0.16677688 0.35246018 -0.23693949 0.34708452 -0.083310895
-0.18421791 -0.04263099 -0.15503153 -0.17677109 0.1322522 0.26271087 -0.09933939 0.020431867
-0.06985908 0.04432172 -0.17584954 -0.17847617 0.104235426 0.037703797 -0.042620607 0.28728518
-0.37954363 -0.3163706 -0.35245374 0.38179308 -0.33297735 0.2524568 -0.34758663 0.048112277
-0.045321867 -0.15951015 0.13910183 -0.078358404 0.26320797 0.35318804 -0.3126854 -0.3696496
-0.36923784 -0.113324806 0.103670664 0.0070319586 -0.14922053 0.17881052 0.011743092 -0.3825156
-0.3123069 0.30632925 -0.15453243 0.24863568 0.27459043 0.17712533 0.20565964 0.15649392
-0.06842963 -0.12385281 0.07506757 -0.2748951 -0.18697515 -0.3871241 0.041859392 0.26387575
0.20656721 0.11507753 -0.002964494 0.037810173 0.017823627 0.30381137 0.15287548 0.30696142
-0.061313704 0.16513063 -0.056050748 0.23733489 -0.34666795 -0.051152226 -0.24227613 -0.002161942
-0.32662916 -0.16218223 -0.08107894 -0.12084056 0.33268398 0.04069896 -0.14582314 -0.20021172
0.045781355 0.13682006 0.19159123 0.30343163 0.12624502 0.059130494 -0.20187646 0.2408169

bias f4 [30]
00000000: 2e4b c1bd 0359 09be 8df4 e8bd aaa0 8cbd
00000010: b650 b83d d537 68bd 033e 28be 3c9e 4d3e
00000020: 2f20 17be 9b2d 9f3e f317 2b3e 1f9c a43e
00000030: d3a2 7a3e d023 123e 0c7f 3bbe 208b 86be
00000040: 6543 85be 7f52 063e 0338 87be 138c 95bc
00000050: e80f 953e 4c72 8abd 86af babd 5509 14be
00000060: d661 b13c df9b 0abe 730a 953d 9963 8bbe
00000070: 0dbc 9abd 1e55 3a3e
-0.094381675 -0.13412862 -0.11374769 -0.06866582 0.089997694 -0.05669387 -0.16429906 0.20079893
-0.14758371 0.31089482 0.16708355 0.3215036 0.24476175 0.14271474 -0.18310183 -0.2627802
-0.2602798 0.13117407 -0.2640992 -0.01825527 0.29113698 -0.06760082 -0.0911551 -0.14456685
0.021653097 -0.13536023 0.07277384 -0.27224424 -0.07555399 0.18196532

att f4 [1, 1, 30]
00000000: ec66 863e 4f0a a2be 1264 25be a91b e63d
00000010: dc90 a83e bda1 d5be 5384 03bf 9c1f 033e
00000020: a857 62be 85c6 863e 5876 013f 30fc c03e
00000030: 0204 0abd 0a99 d7bd 828a 64be f767 a23d
00000040: 4b87 463e 8c69 653e af83 7e3e 03b5 0b3e
00000050: 7e73 7ebd 2a32 ba3e 0036 a7be 0638 d6be
00000060: 880d 903d 49e4 0f3e 956d e7ba cbe1 21be
00000070: d638 ae3e fb06 84be
0.26250398 -0.3164849 -0.16151455 0.112357445 0.3292302 -0.4172496 -0.51373786 0.12805027
-0.2210375 0.26323333 0.50571203 0.37692404 -0.03369523 -0.10527237 -0.22318462 0.07929986
0.19387548 0.22403544 0.24854921 0.13643269 -0.06212186 0.36366397 -0.32658386 -0.41839617
0.07033831 0.14051928 -0.0017656559 -0.1580879 0.34027737 -0.25786576

bias f4 [30]
00000000: 20c2 063b 41ff a23a f900 893c fb0a d43b
00000010: bafd e73b 4594 d93a 4e38 7d3b 6d44 c53c
00000020: 99d4 df3b 27b7 83bd afa7 e43c 02f0 a4bc
00000030: 27af e2bb fd7c 22bc aaea 0fbb b8c6 43bc
00000040: 0bc1 f23c 3b30 003d 514e 263b e529 b4bc
00000050: 3247 c1bb 26bf a6bb 0d53 1cbd f1f0 003b
00000060: b4c3 20bd 9300 9d3b 728a 1b3c a4ce 123c
00000070: cc10 b7bb 0fab f13c
0.0020562485 0.0012435691 0.016724097 0.0064710355 0.007079807 0.0016599974 0.0038638297 0.02408048
0.0068307635 -0.06431418 0.027911989 -0.020133976 -0.0069178524 -0.009917495 -0.002195994 -0.011949234
0.029633066 0.031295996 0.002537627 -0.021992633 -0.0058983797 -0.0050887046 -0.03816514 0.0019674862
-0.039249137 0.004791328 0.009493457 0.0089604 -0.005586719 0.029500512

weight f4 [30, 9]
00000000: 95b9 123d 7328 0d3e 1a68 92bd 6662 a63d
00000010: 5edc 95be dc08 7b3d 3a21 523a 24d1 0bbd
00000020: 823b 85bc 8290 bd3d 0fdb c9be 7997 48bd
00000030: b8bb 893e 41da c13d 81a6 34be 8941 5dbe
00000040: 0c57 7e3d db6d 84be 3d2a 963e b3cd 543e
00000050: 9409 aabe d204 943e 5da8 123e 42f1 a03e
00000060: 3bb6 8d3d a87a ad3e cba5 79be 33b7 c6be
00000070: 11db 09be a164 e8bd 93fe c73e a9c3 bf3e
00000080: 1474 c7bc e3cf 813d 039b 9f3e 7d6a bd3d
00000090: 2c16 37be cb43 c53a 5770 c4be 2d05 99be
000000a0: d16e 973c f889 b03e cf4b 32be a9c0 b9bd
000000b0: 3d6d be3e 0b58 d4be 59e6 b43e a81f 2fbe
000000c0: 5696 c0be 0c8a c53d 3be5 9b3e 2b34 d53d
000000d0: 9452 b0be fdad 53be 719a c9be 334b bbbe
000000e0: 972d 43be 8e50 343d f576 233e b26f 1dbd
000000f0: b60d 653e a4d2 953e 601c 93be 51ae 1ebe
00000100: 31c6 e33c 2771 963e 3cec 093e fcc1 593d
00000110: f283 3abe c359 893e e10f 8cbe a07b f6bd
00000120: 8227 26bd 871e 9a3d 6472 653e aded 45bc
00000130: badd 78be f742 a13e 8cb2 53be 773c be3d
00000140: 3b22 a1bd 4dd4 cebb c6d8 8ebe 5781 833d
00000150: 77dd 533e 4f71 a63d e62a c2be 0286 5fbe
00000160: 049d 64bd 266b 7abe 6277 473e 2bab 1e3e
00000170: 170f 123e d13a aabe 5ace e03e 2330 69be
00000180: ec2b ce3d cec2 3e3e c13b 15be 6d4c 013e
00000190: 4f17 3e3e 3b27 9ebe 971c 353c 2b8f f6ba
000001a0: 23f0 a23d 3ee7 c6be 14bd 9bbe 0146 3b3e
000001b0: 4a66 0abe 5b32 943e ce1a 89be d35d 9e3e
000001c0: 005b 96bc 6a22 863e f7ef b63c f30c acbe
000001d0: 7081 b8be 48d6 3c3e 6bae 8a3e 16b8 cfbe
000001e0: 5eb9 02be c395 0f3d 5773 1e3e a820 943e
000001f0: 19f4 863e ba9a 103e 24e3 02be 29d3 683e
00000200: 47bb 4d3e 3177 1abe c5de b7bd ac83 623e
00000210: 0606 a93e b1da 19be 890f 5dbe 10c9 013d
00000220: 95a9 6c3e 9a01 973d e493 8cbe b210 bbbe
00000230: a59b b1bd 5fb3 0c3e 9ff8 0ebd 44c2 053d
00000240: fe2a c53e f301 a0bd f3e5 a1be a7dc 993e
00000250: b0f8 c93d 700d a83e d8ce b4be a07f 5f3e
00000260: d8df a23e 55c7 99bb 518b 61be 59f5 b0be
00000270: d01a 7abc f5e5 6dbe 16a9 a8be 098b 963e
00000280: c3d8 b83e 1d92 9a3e eff7 20be dad7 f53d
00000290: 43aa 47be 4fef b4be a359 babd c193 2b3e
000002a0: e41f dcbd a583 1cbe 078b 3b3d 11c3 083e
000002b0: d731 fdbd 7094 18be df98 8bbd 1808 dbbe
000002c0: b24e 5f3e e658 9cbe 1bf1 3f3e c7b1 51be
000002d0: da9c cd3d 40b3 cbbe 9d6e 833e a815 fdbd
000002e0: 1aad 743d 54ea 9f3e 2d7e 8f3e 90cc aaba
000002f0: 61e1 b4be e776 3fbb c42a 463a e25e 473e
00000300: 664e 5e3e 52d1 f63b 6f37 ab3e b826 2bbe
00000310: 0dbf 50bd 886f 943e 3ff4 a5bc 70c7 67be
00000320: fd88 d43d c0e2 1f3e 6a49 8dbe 257a e73a
00000330: 70f8 28be 224d b3bd 1aa8 94be 75a6 43be
00000340: e796 ffbd 8336 b93e 5cc5 59be 73e8 aabe
00000350: a067 843e 4580 773e adef 57be 7faa fa3d
00000360: 089e 94bc 5bbd a73e 2711 ba3e c494 b2be
00000370: 01b5 86be c6fd b63e 7776 123d bfa4 67be
00000380: bc7b 23be 1a63 30bd 9b7c 1fbc 1a07 d3bd
00000390: fd11 aa3e 393b 1dbe 40ba fc3d dfd9 3ebd
000003a0: bc32 7c3e 4847 afbe 53e6 5dbd 3c2f 13be
000003b0: 3217 0f3e 7ccd 933e 523a 0cbe f723 a33c
000003c0: 10e2 283e b61b 0b3e 7c90 193e d2b8 89be
000003d0: 3df0 733d 596e acbe b4ba 0fbd c2c5 c8be
000003e0: b08b 333e 9dc9 f43d c469 443e df14 9fbe
000003f0: 93cd 403e 94cf 29be e764 973d b7b0 15be
0.035821516 0.13784961 -0.07148762 0.08124237 -0.2926969 0.061287746 0.00080158154 -0.034135
-0.016263727 0.09256078 -0.3942494 -0.04897258 0.2690103 0.09465457 -0.17641641 -0.21607031
0.062094733 -0.25865063 0.293291 0.20781593 -0.33210433 0.28909928 0.14322038 0.31434065
0.06919523 0.33882642 -0.24379651 -0.38811645 -0.13462473 -0.113473184 0.39061412 0.37453964
-0.024347343 0.06338479 0.31172952 0.09248827 -0.17879552 0.0015050111 -0.38366958 -0.2988676
0.018485459 0.34480262 -0.17411731 -0.0906995 0.37192717 -0.4147342 0.3533199 -0.1710192
-0.37614697 0.09645471 0.30448326 0.10410341 -0.34438002 -0.2067184 -0.39375642 -0.3658081
-0.1906036 0.044022135 0.15963347 -0.0384366 0.22368512 0.2926227 -0.28732586 -0.15496184
0.027804466 0.29383203 0.13469023 0.053163514 -0.18214396 0.26826295 -0.27355865 -0.12035298
-0.04056502 0.07525354 0.22406918 -0.012080592 -0.24303332 0.31496403 -0.20673579 0.092888765
-0.07867857 -0.0063119293 -0.2789976 0.06421154 0.20689951 0.08127081 -0.37923354 -0.21828464
-0.055813804 -0.24454936 0.19479135 0.15494983 0.14263569 -0.33247998 0.43907434 -0.22772269
0.10066971 0.18629 -0.14573576 0.1262681 0.18563579 -0.30889305 0.01105418 -0.0018810978
0.07955959 -0.388483 -0.30417693 0.18288423 -0.13515583 0.28944668 -0.26778263 0.30930957
-0.018353939 0.2619813 0.022331221 -0.3360363 -0.36036253 0.18441117 0.27086195 -0.40570134
-0.12766024 0.035054933 0.15473686 0.28931165 0.26358107 0.14121523 -0.1278196 0.22736801
0.20090972 -0.1508453 -0.08978037 0.22120541 0.33012408 -0.1502483 -0.21587957 0.03168589
0.23111565 0.07373352 -0.27456582 -0.36536175 -0.08672265 0.137403 -0.034905072 0.03265597
0.38509363 -0.07812872 -0.3162075 0.30051157 0.098618865 0.32822752 -0.3531406 0.21826029
0.31811404 -0.0046929517 -0.22025801 -0.34562185 -0.015265182 -0.23232253 -0.32941502 0.2940295
0.36102876 0.301896 -0.15719579 0.12004061 -0.19498543 -0.35338828 -0.09099128 0.16755582
-0.1074827 -0.15284593 0.045786884 0.13355662 -0.12363022 -0.14900374 -0.06816267 -0.42779613
0.21807364 -0.30536574 0.18744318 -0.20477973 0.10039683 -0.39785194 0.2567033 -0.12357646
0.059735395 0.31233466 0.28025952 -0.0013030935 -0.353282 -0.0029215158 0.0007559473 0.19469789
0.21709594 0.007532277 0.3344073 -0.16713989 -0.05096345 0.28991342 -0.020258067 -0.22634673
0.10377691 0.15613842 -0.27595073 0.0017660303 -0.16501021 -0.08754946 -0.290345 -0.19106467
-0.12479954 0.36174402 -0.21266693 -0.3338047 0.2586031 0.24170025 -0.21087523 0.12239551
-0.018141761 0.32761654 0.3634121 -0.34879124 -0.2630997 0.3574049 0.035757508 -0.2262144
-0.1596517 -0.04306326 -0.009734298 -0.10304089 0.3321685 -0.15354623 0.12340212 -0.046594497
0.24628729 -0.3423407 -0.054174732 -0.14373487 0.13973692 0.2886771 -0.13694122 0.01991461
0.16492486 0.1358479 0.14996523 -0.2689882 0.05955528 -0.3367794 -0.035090163 -0.39213377
0.17533755 0.11952517 0.19180971 -0.3107061 0.1882842 -0.16583091 0.073922925 -0.14618193

bias f4 [30]
00000000: 6c53 1dbe 642c 90be 40df f8bd 8a53 40bb
00000010: e595 ac3b 7be2 e23a 884e 80be 70a5 0cbe
00000020: a219 933e 1a49 b4be d22a 8a3d d5bb 2cbe
00000030: 11ca babd e895 2f3e 3d4d 37bd 36ce 113e
00000040: 1afd 663d c8c3 783e fc08 87be 81e6 dfbd
00000050: 9c96 bebd 2a15 47be 95fc 933e 84a8 723e
00000060: 3bce 97bd 9793 1b3e 188f 8e3e 1fc9 4bbe
00000070: 728f 463e 1187 1cbe
-0.15363854 -0.28158867 -0.121519566 -0.0029346668 0.0052668923 0.0017309928 -0.25059915 -0.13734984
0.28730494 -0.35212022 0.067464486 -0.16868527 -0.09120572 0.17147028 -0.044751395 0.1423882
0.05639372 0.24293435 -0.26374042 -0.10932637 -0.0930607 -0.19441667 0.28903642 0.23697096
-0.07412382 0.1519302 0.27843547 -0.1990094 0.19390658 -0.15285899

weight f4 [30, 9]
00000000: 7eac 8a3c 6479 eebd 712a 8dbe 8f90 cb3d
00000010: 6850 91be 4e5b 073d 47d6 943d 2c1b af3e
00000020: 7b09 5abe f14c 043e f9b4 993e 8136 09be
00000030: e521 e7bd 083f 253e bd31 f4bd 2eba 263d
00000040: 268b 28be 41dd b73b bc65 d3be f9a3 30be
00000050: de70 58be 9497 a3be 78f6 8f3d ac89 8c3e
00000060: 6928 32be f8db 40be 4d67 373d d4b0 603e
00000070: 87e4 68be bd79 f7ba 8469 aabd 25a9 fa3d
00000080: 3326 57be 579a b4be 8b10 b2be 72eb 46be
00000090: 0ef4 b23e 6621 b0bd 98d2 8f3e 810e 0dbe
000000a0: 291e 6cbd c4ec 953e b415 95be 0608 58be
000000b0: 4a75 90b9 64c6 9bbe ff23 903e 9f54 6c3e
000000c0: 56d7 bfbe 9aa0 94be fa4c 453e 4c8d 1d3d
000000d0: 0297 b23d a8f2 05be 6657 7cbe a952 0cbe
000000e0: 4337 b8bd 2589 853e ea18 aa3e 5702 ab3e
000000f0: 9e3a 6fbe 50e4 0b3e 38e4 be3c 3d09 bfbe
00000100: 6bdc af3e 4242 93be 6c69 c4be 0b4d c5be
00000110: eba0 0d3e c323 163e cfc7 9b3e 0075 92be
00000120: 9ef5 68bd 0b75 b9be 5c8a 5ebe 0470 833d
00000130: f7b9 bf3e 00dc 3bbe 7581 45be ad31 c2be
00000140: 0da9 c03e b471 ef3d 70a7 c83e a4c5 1b3e
00000150: 6392 633e b7e9 ac3e abc6 90bd f9f8 873e
00000160: 36c4 77be 0e2d a7be 6bc5 48bd 9d30 823e
00000170: 3d6a bdbe 2b07 50be b738 ba3d 183b c63e
00000180: 864b 96bd 9af6 8dbe b9b1 e4bd 1ebb 0dbe
00000190: 70ed 32be 613a 2a3c e7c2 b1be 61d6 59bd
000001a0: 5b92 adbd 427a 513e 0bb8 49bd 3944 1d3e
000001b0: d60a 023e d364 76be a543 bfbe c45c 133d
000001c0: ba6f 6a3c 31df e63d 7448 173e c066 243e
000001d0: a8b6 44bd b037 943e 388d 7dbe 47b3 533e
000001e0: ea5b 903e f86b bebe fe94 0dbd 7998 a93e
000001f0: ad97 c13d 72c9 d63d ccd8 463e 59ae 0fbe
00000200: 66d5 c03e 6220 c2be 7fa1 aabe 1477 093d
00000210: a521 eabd 03df a03e 6202 83be 17aa 47be
00000220: 8c6f ed3d cdff fcbd dd94 9c3d 5e73 55be
00000230: 4c18 083e 47bf 803e d06b a3bd d42f 86be
00000240: 3e82 aa3e df5f 9d3e 96a8 acbd 5585 4dbc
00000250: bb96 fabd 392f 383e 5297 1d3e cb52 103e
00000260: 0408 833d a122 c73d dab5 523d 5747 c13d
00000270: 36b4 983e 5cd9 ad3e e5ec 473e 312f c4be
00000280: 5593 883e ac87 a5bd c85f 67be cd3e 84be
00000290: 0654 433c 9dbc 163e f1dd 0e3c 4518 47be
000002a0: 42ad 533e fc1b ab3d 23fc 88bd 7ced 7dbe
000002b0: 0224 c23d f8a3 51bd 5b2e b3be 2ecc 8c3e
000002c0: 206b b83e a1ca 443e 7f94 043e d1e7 463c
000002d0: 3e30 32be 08de 323e 92aa 29be 7e25 81be
000002e0: 745c f53b 9e2c f13c cd8d 85bd 7703 cdbd
000002f0: b60c 8d3d f298 623e 53b6 d63d 86cb 3d3e
00000300: c974 9ebe 2f5b 813d 83c9 473d d759 51be
00000310: 0766 8bbc 0a93 4abe 5ad7 143e 505a a3be
00000320: f42d b0be a30b cc3d 9036 0b3e 3c08 ab3e
00000330: d527 773e fbab 37bd 9b8e 093e 7d65 443d
00000340: 092a 20be 99d3 f13d 9000 d43d df88 6a3e
00000350: 4143 053b 714c 0fbe e81d b23d 9213 fd3c
00000360: 27ae 91bc 894b 3d3e 105e 91be a268 c03e
00000370: d44d 733c 2365 c7bd dda2 a93e 8492 11be
00000380: f2d7 4bbe bff7 903e 8dcb 22be 2502 783e
00000390: 763e 82be 865d 19be 707e 51bd fb3a a1be
000003a0: a0ec c73e 278c 80be fc72 19be f49f 89be
000003b0: 758a 3cbe 5f14 cf3d 6f47 66be c396 d8bd
000003c0: f021 87bd 8b92 8e3e 7246 1abe 80d9 933e
000003d0: 2246 cb3e 0058 2abe 1a96 903e 9f4f 273e
000003e0: f56c 8d3e 1d62 243d f2a9 aebe ba1d 1b3e
000003f0: 478a ffba 068a 5ebe 2e07 fdbd 9bb7 83be
0.016927954 -0.11644247 -0.27571443 0.09939682 -0.28381658 0.03304606 0.07267433 0.34200418
-0.21292679 0.12919976 0.30020884 -0.13399698 -0.11285762 0.16137326 -0.11923549 0.0407049
-0.16459331 0.0056110923 -0.41288555 -0.1725005 -0.21136805 -0.31951582 0.07029432 0.27448785
-0.17398228 -0.18833911 0.04477625 0.21942455 -0.22743426 -0.0018880885 -0.08320907 0.12239293
-0.21010666 -0.35274002 -0.34778246 -0.19425753 0.34951824 -0.0860012 0.28090358 -0.13775064
-0.05764595 0.292822 -0.2911812 -0.2109681 -0.00027553207 -0.30424798 0.28152463 0.23079155
-0.37468976 -0.2902878 0.19267645 0.03846483 0.08720209 -0.13080847 -0.24642715 -0.13703407
-0.08994915 0.26081195 0.33222133 0.33400223 -0.23362204 0.13661313 0.023302183 -0.37311736
0.34347853 -0.28761488 -0.3836168 -0.38535342 0.13830917 0.1466208 0.3042588 -0.2860489
-0.056874864 -0.3622211 -0.21732467 0.0641785 0.37446567 -0.18345642 -0.19287665 -0.37928525
0.37628976 0.11691609 0.39190245 0.15212113 0.22223811 0.3377206 -0.07069143 0.2655714
-0.24195942 -0.32651561 -0.049016397 0.25427714 -0.36995116 -0.20315234 0.09092849 0.3871696
-0.07338624 -0.27727205 -0.111667104 -0.13840911 -0.17473388 0.010389895 -0.3471901 -0.053182963
-0.08475181 0.20456794 -0.049247783 0.15358056 0.12699446 -0.24061899 -0.37356296 0.03597714
0.014308864 0.11273039 0.14773732 0.16054821 -0.048025757 0.28948736 -0.24760902 0.20673858
0.28195125 -0.3719175 -0.03456592 0.3312414 0.09452758 0.104876414 0.19418639 -0.14031352
0.3766281 -0.3791533 -0.33326337 0.033560827 -0.114321984 0.31420144 -0.25587755 -0.19498478
0.115935415 -0.123534776 0.07645581 -0.2084479 0.13290519 0.25145933 -0.07979548 -0.26208365
0.33302492 0.30737206 -0.08430593 -0.012543996 -0.12235781 0.17986764 0.15389755 0.14094083
0.06398013 0.09723402 0.05144296 0.09437435 0.2982499 0.33954895 0.19523962 -0.38317254
0.26674905 -0.08082518 -0.22595131 -0.25829163 0.011921888 0.14720388 0.008719907 -0.19442852
0.20671561 0.08354947 -0.06688716 -0.24797624 0.09479524 -0.051181763 -0.34996304 0.27499527
0.3601923 0.19217922 0.12947272 0.01214023 -0.17401215 0.1746751 -0.16568974 -0.25223917
0.007487828 0.02944022 -0.06521187 -0.100104265 0.0688719 0.22128657 0.10483994 0.1853467
-0.30948475 0.0631622 0.04877616 -0.20444427 -0.017016424 -0.19782653 0.14535275 -0.3190484
-0.3441006 0.09963157 0.13595033 0.3340472 0.24136288 -0.044841748 0.13433306 0.04794835
-0.15641035 0.11807937 0.1035167 0.22903775 0.0020334276 -0.13994004 0.086971104 0.03089312
-0.017783238 0.18485846 -0.28392076 0.37579829 0.014850099 -0.09736087 0.33132067 -0.14216048
-0.19906595 0.28314015 -0.15897961 0.24219568 -0.2543828 -0.14977083 -0.05114597 -0.3149031
0.39047718 -0.25106928 -0.1498527 -0.26879847 -0.18412192 0.10111307 -0.22488187 -0.105756305
-0.0659827 0.27846178 -0.15065935 0.28876877 0.39701945 -0.16635132 0.28239518 0.16338967
0.2762219 0.04013263 -0.34114033 0.15148059 -0.0019496166 -0.2173234 -0.12354885 -0.25726017

bias f4 [30]
00000000: 35ab ebbd b127 303d 7281 44be 4e2a 27be
00000010: fa15 3fbe d5ae 713e 7786 043e 5707 90be
00000020: c082 3cbe 1c59 163d 1950 563e a851 3ebd
00000030: 6992 913e 06fd 1d3e 1df8 b9bd dd24 b5bc
00000040: fe9b 24bd 621c 9bbe 2cf3 9c3e 337c 5b3e
00000050: e14c 5cbe 5ba9 903e 9f18 7fbe be9f 07be
00000060: f95f edbd f6b9 1c3e 372c 893d 6e97 53bd
00000070: 3acc 81be ee6c a0be
-0.115072645 0.043006603 -0.19190004 -0.16324732 -0.18660727 0.2360185 0.1294192 -0.281306
-0.18409252 0.036706075 0.20928992 -0.046464592 0.28432015 0.15428552 -0.09080527 -0.022112304
-0.04018783 -0.30295092 0.30654275 0.21434097 -0.21513702 0.28254208 -0.24911736 -0.1324453
-0.11590571 0.15305313 0.066978864 -0.051658086 -0.25351125 -0.31333107

att f4 [1, 1, 8]
00000000: 2f14 5f3d cae0 093f bdd9 1abe 4acb 443f
00000010: 91c9 c9be d6e5 07bf c063 3a3f b5d2 123e
0.054462608 0.53858626 -0.15122123 0.76872694 -0.39411595 -0.53085077 0.72808456 0.14338191

bias f4 [8]
00000000: 8c04 333e 9a86 f33c f652 0ebe 5e15 643d
00000010: 5b1f 3f3d 271f c63d d68f 0e3d 2b9a 4abe
0.17482203 0.029727269 -0.13898835 0.05568444 0.046660762 0.096739106 0.03480514 -0.19785373
