model/gnn/240927_1/epoch_13.pt (torch, 407216 bytes, 52 tensors)

att_src f4 [1, 1, 20]
-7.396148e-24 9.411718e-24 1.9043845e-23 3.816323e-24 8.95737e-24 2.2046182e-23 -8.197627e-24 1.9185517e-23
-2.1940382e-23 2.3888322e-23 -8.557112e-24 -9.818859e-25 1.4634763e-23 1.9152667e-24 2.2811626e-23 -1.14660475e-23
-1.4378763e-23 2.328846e-23 -1.5746337e-23 1.7953105e-23
00000000: f30f 0f99 920c 3619 472e b819 08a3 9318
00000010: bf42 2d19 b437 d519 af90 1e99 0a8d b919
00000020: c131 d499 9f08 e719 c484 2599 82f0 9797
00000030: eb89 8d19 c42f 1418 da9e dc19 1ec9 5d99
00000040: 1810 8b99 6f3b e119 0b4a 9899 bca1 ad19

att_dst f4 [1, 1, 20]
2.5125622e-23 1.7659562e-23 -9.863133e-24 -3.8563692e-25 -2.351033e-23 -1.4205187e-23 -5.399539e-24 -1.7236237e-23
1.5050453e-23 1.3669852e-23 -7.465352e-24 -4.1027776e-24 2.519973e-23 -1.6068404e-24 2.215814e-23 2.4165495e-23
-9.1509096e-24 -2.4915874e-23 2.4333835e-23 -1.4026095e-23
00000000: 0700 f319 f5ca aa19 dec7 3e99 9cb2 ee96
00000010: c260 e399 5762 8999 72e2 d098 dbb2 a699
00000020: 1e8f 9119 ea34 8419 a266 1099 f1b7 9e98
00000030: 82b7 f319 82a5 f897 e64c d619 deb6 e919
00000040: 1c01 3199 b7f8 f099 a857 eb19 eea6 8799

bias f4 [20]
-4.9298782e-05 -6.144212e-05 -5.807697e-05 -4.973585e-05 -0.00010571898 -6.1282284e-05 -4.9562826e-05 -4.958974e-05
-5.1475905e-05 -6.286345e-05 -5.759653e-05 -6.224125e-05 -4.9620277e-05 -0.00011246362 -4.9307273e-05 -4.9783823e-05
-5.002038e-05 -5.7929235e-05 -6.205057e-05 -6.256919e-05
00000000: 2ac6 4eb8 7dda 80b8 ac97 73b8 769b 50b8
00000010: 72b5 ddb8 ad84 80b8 aee1 4fb8 94fe 4fb8
00000020: d5e7 57b8 8fd5 83b8 ce93 71b8 8487 82b8
00000030: 5e1f 50b8 72da ebb8 48cf 4eb8 f9ce 50b8
00000040: f9cc 51b8 0bf9 72b8 2521 82b8 9437 83b8

weight f4 [20, 163]
-5.6500772e-05 -4.463951e-05 -6.0145427e-05 -5.1359664e-05 -5.3844844e-05 -5.1473442e-05 -5.0317827e-05 -5.0599585e-05
-4.887693e-05 -4.679471e-05 -5.4573266e-05 -5.5564455e-05 -5.051949e-05 -5.4491564e-05 -6.726068e-05 -6.3888714e-05
-2.8802551e-05 -4.7988273e-05 -4.3755957e-05 -4.717103e-05 -5.222602e-05 -4.7712765e-05 -4.8910384e-05 -5.05548e-05
-5.981916e-05 -1.4271154e-24 -2.400031e-05 7.85642e-24 -5.7049456e-05 -7.635208e-05 -2.3974731e-05 -1.0672623e-05
3.4237328e-05 -2.588129e-06 -2.3827146e-05 -5.0354443e-05 -3.950189e-05 -3.9887815e-05 -3.973449e-05 -3.7991445e-05
-4.1855787e-05 -4.3374137e-05 -3.9488743e-05 -3.5533623e-05 -4.1610205e-05 -4.1838408e-05 -4.765515e-05 -4.483884e-05
-5.0461364e-05 -4.9572907e-05 -5.083537e-05 -4.818231e-05 -5.0976607e-05 -5.7761255e-05 -3.2470278e-24 -3.8347567e-05
-4.6622436e-06 -6.61331e-05 -9.1351736e-05 -7.896953e-05 1.2311671e-05 9.032459e-25 -4.224256e-05 -8.347627e-05
8.995743e-25 -9.212975e-05 -6.272941e-05 -0.00012163846 -0.00012141384 -0.00010824099 8.142438e-24 -4.620791e-08
0.00010309835 -0.00011597909 3.838721e-24 0.000106284955 2.6946065e-24 7.0401245e-24 -5.5350134e-05 -2.2775566e-05
-6.7575915e-05 -4.6481196e-05 -2.1817583e-05 -6.5207176e-05 0.00017387288 -7.4537995e-05 -2.5741861e-05 -1.5623683e-24
-2.3874806e-24 -6.353486e-24 -5.2620053e-05 -4.2449203e-05 -3.22543e-05 -5.5211614e-05 0.00014495835 -8.330421e-05
-4.9518083e-05 -7.61015e-24 -4.5286615e-05 -1.5750735e-05 -8.0650054e-05 -9.868938e-05 -6.4328735e-05 1.6114385e-05
1.7035577e-24 -0.00012298643 -5.8039826e-05 -5.4033316e-24 -8.8930145e-05 -7.868105e-05 -0.00012588939 -0.00012140365
-9.710468e-05 6.983805e-24 -7.350496e-08 0.0001032142 6.0953716e-06 -1.8682904e-24 4.899682e-06 -7.798926e-24
2.7015376e-24 -3.1538246e-05 -2.3669101e-05 -6.51802e-05 -1.0637219e-05 -2.4945524e-05 -4.9060465e-05 0.00013381614
-9.585291e-05 -3.290941e-05 -3.1639866e-24 -4.63452e-24 7.2215885e-24 -7.326181e-05 -7.3935516e-06 -4.2321088e-05
-3.1895495e-05 9.628027e-05 -4.9972725e-05 -5.068995e-05 -4.989305e-05 -5.0474646e-05 -5.062681e-05 -5.041085e-05
-5.1890434e-05 -5.175462e-05 -4.8178674e-05 -5.149904e-05 -5.069144e-05 -5.5275654e-05 -5.2733212e-05 -5.205455e-05
-5.2318133e-05 -5.0625127e-05 -5.0117862e-05 -5.1589508e-05 -5.2436935e-05 -4.750705e-05 -5.3222742e-05 -5.3737604e-05
-5.680125e-05 -4.772338e-05 -5.5200682e-05 -6.622092e-05 -5.4715794e-05 -6.1691426e-05 -6.136391e-05 -6.440337e-05
-6.166099e-05 -6.1034083e-05 -6.1366125e-05 -5.832728e-05 -5.6357185e-05 -6.162324e-05 -6.201745e-05 -5.942762e-05
-6.2587176e-05 -7.024484e-05 -6.83447e-05 -3.3735178e-05 -6.0407296e-05 -5.1086477e-05 -5.7132012e-05 -5.8249272e-05
-5.5366272e-05 -5.9022834e-05 -5.7279627e-05 -6.274026e-05 2.9124964e-24 -3.2775744e-05 1.2611145e-24 -6.320055e-05
-7.930029e-05 -2.5505664e-05 -1.8087538e-05 2.9740593e-05 -3.6606466e-06 -2.5247084e-05 -6.2283514e-05 -4.6910198e-05
-4.682476e-05 -4.5600704e-05 -4.3923217e-05 -4.9441893e-05 -4.8572718e-05 -4.60951e-05 -3.8955346e-05 -4.7910904e-05
-4.7992653e-05 -5.022059e-05 -5.251967e-05 -5.6222107e-05 -5.7040113e-05 -5.94222e-05 -5.868636e-05 -6.19052e-05
-6.218889e-05 3.760616e-24 -4.246438e-05 -7.761265e-06 -7.582507e-05 -8.815111e-05 -7.7087905e-05 5.4441475e-06
8.790212e-24 -4.2219363e-05 -8.360476e-05 -2.455057e-24 -8.993735e-05 -6.249725e-05 -0.000121749785 -0.00012002597
-0.00010706147 1.9799582e-25 -1.00498845e-08 0.00011038694 -0.00011686151 2.0993194e-24 0.000106561754 7.9782177e-25
-8.071768e-24 -5.403526e-05 -2.7426613e-05 -7.519893e-05 -4.7794656e-05 -2.5511885e-05 -6.434449e-05 0.00017007024
-7.6881704e-05 -2.9997602e-05 2.711653e-24 4.951584e-24 4.5621076e-24 -5.9132322e-05 -5.027732e-05 -3.4779132e-05
00000000: 3efb 6cb8 4f3b 3bb8 a944 7cb8 056b 57b8
00000010: 76d7 61b8 30e5 57b8 5b0c 53b8 e43a 54b8
00000020: 3401 4db8 7045 44b8 99e5 64b8 e10d 69b8
00000030: e4e4 53b8 df8d 64b8 4d0e 8db8 fefb 85b8
00000040: 029d f1b7 0447 49b8 9a86 37b8 82d9 45b8
00000050: 430d 5bb8 311f 48b8 2025 4db8 ce0a 54b8
00000060: 55e6 7ab8 ded5 dc97 4654 c9b7 1cf7 1719
00000070: 6348 6fb8 361f a0b8 581d c9b7 910e 33b7
00000080: 0d9a 0f38 b8af 2db6 68e0 c7b7 ac33 53b8
00000090: d5ae 25b8 374d 27b8 95a8 26b8 0159 1fb8
000000a0: 4f8e 2fb8 a0ec 35b8 b7a0 25b8 f009 15b8
000000b0: 9e86 2eb8 a67b 2fb8 54e1 47b8 5611 3cb8
000000c0: 7aa6 53b8 81ec 4fb8 1038 55b8 5d17 4ab8
000000d0: b7cf 55b8 ad44 72b8 033a 7b98 63d7 20b8
000000e0: 5e70 9cb6 f0b0 8ab8 1794 bfb8 729c a5b8
000000f0: 398e 4e37 42c5 8b17 9a2d 31b8 fb0f afb8
00000100: cf33 8b17 c835 c1b8 988d 83b8 2718 ffb8
00000110: 8f9f feb8 70ff e2b8 667f 1d19 2276 46b3
00000120: 8136 d838 cd39 f3b8 da80 9418 4de5 de38
00000130: 2e7c 5018 022d 0819 c127 68b8 280e bfb7
00000140: 8bb7 8db8 cef4 42b8 e704 b7b7 d6bf 88b8
00000150: a551 3639 4851 9cb8 3af0 d7b7 c9c3 f197
00000160: edb8 3898 e1c9 f598 5ab4 5cb8 7c0b 32b8
00000170: ca48 07b8 0593 67b8 f6ff 1739 9bb3 aeb8
00000180: a3b1 4fb8 a333 1399 22f2 3db8 7220 84b7
00000190: ab22 a9b8 75f7 ceb8 3ae8 86b8 612d 8737
000001a0: 70ce 0318 ebf5 00b9 ca6f 73b8 0108 d198
000001b0: 0280 bab8 9101 a5b8 2d01 04b9 179a feb8
000001c0: aea4 cbb8 2116 0719 c7d9 9db3 b474 d838
000001d0: d886 cc36 4e8d 1098 f367 a436 69da 1699
000001e0: 7705 5118 ef47 04b8 028d c6b7 5ab1 88b8
000001f0: 8276 32b7 1b42 d1b7 46c6 4db8 ff50 0c39
00000200: a404 c9b8 3608 0ab8 36cd 7498 104a b398
00000210: 93af 0b19 22a4 99b8 2016 f8b6 ec81 31b8
00000220: 87c7 05b8 14ea c938 ce99 51b8 eb9b 54b8
00000230: 4144 51b8 bdb4 53b8 2058 54b8 3d70 53b8
00000240: eea4 59b8 1a13 59b8 7513 4ab8 ac00 58b8
00000250: 859d 54b8 c8d7 67b8 db2d 5db8 2655 5ab8
00000260: 2b70 5bb8 5156 54b8 a535 52b8 d061 58b8
00000270: bbef 5bb8 4e42 47b8 7c3b 5fb8 5064 61b8
00000280: e13d 6eb8 972a 48b8 4887 67b8 16e0 8ab8
00000290: a37e 65b8 5560 81b8 80b0 80b8 4c10 87b8
000002a0: fe4f 81b8 d9fe 7fb8 b0b1 80b8 71a4 74b8
000002b0: 1161 6cb8 ba3b 81b8 5d0f 82b8 ec41 79b8
000002c0: 3c41 83b8 6950 93b8 4854 8fb8 df7e 0db8
000002d0: d75d 7db8 b045 56b8 08a1 6fb8 ae50 74b8
000002e0: 1539 68b8 498f 77b8 883f 70b8 6c93 83b8
000002f0: ef57 6118 b078 09b8 e425 c317 898a 84b8
00000300: 054e a6b8 fff4 d5b7 b1ba 97b7 707b f937
00000310: 6ea9 75b6 b3c9 d3b7 359e 82b8 71c1 44b8
00000320: b465 44b8 6243 3fb8 323a 38b8 d45f 4fb8
00000330: 8fba 4bb8 3d56 41b8 fc63 23b8 f1f3 48b8
00000340: b84b 49b8 f3a3 52b8 9148 5cb8 07d0 6bb8
00000350: 5b3e 6fb8 1a3c 79b8 0026 76b8 1ad3 81b8
00000360: 686b 82b8 567b 9118 c81b 32b8 6136 02b7
00000370: 4604 9fb8 c4dd b8b8 41aa a1b8 dfac b636
00000380: 0607 2a19 b214 31b8 f754 afb8 6af3 3d98
00000390: bf9c bcb8 f510 83b8 eb53 ffb8 74b6 fbb8
000003a0: 3086 e0b8 611b 7516 dca7 2cb2 8a7f e738
000003b0: 8c13 f5b8 4e6d 2218 e879 df38 f4e9 7617
000003c0: 7621 1c99 eba3 62b8 3412 e6b7 1eb4 9db8
000003d0: 1f77 48b8 5b02 d6b7 aff0 86b8 e254 3239
000003e0: 8d3b a1b8 5ca3 fbb7 d2cd 5118 1d8e bf18
000003f0: ed7c b018 d904 78b8 dce0 52b8 cfdf 11b8

weight f4 [20, 163]
-3.2095354e-24 1.3823351e-24 -3.2621278e-24 2.350859e-24 -1.2652683e-24 -1.0036529e-24 -4.0194853e-24 -8.3900824e-24
-4.090203e-24 -1.3198143e-24 2.109501e-24 -9.324206e-25 4.684818e-24 2.8514671e-24 6.49196e-24 -3.6739486e-25
-3.270597e-24 -5.2393637e-25 -6.4262384e-25 1.5622253e-24 1.476125e-24 -4.725941e-24 8.754602e-24 6.1164255e-24
1.618149e-24 -3.887198e-24 6.595459e-24 2.9085223e-25 -4.0762368e-24 -4.2645178e-24 3.4103344e-24 -2.8164778e-24
1.4651564e-24 -2.588103e-24 5.2550257e-24 7.395317e-24 7.185637e-24 -3.3081602e-24 -6.990406e-24 5.440922e-24
-2.4261752e-24 -2.1957016e-24 5.7290455e-24 -5.0197353e-24 7.685864e-24 4.0817416e-25 3.4911075e-24 -6.2083117e-24
-7.532795e-24 -3.216388e-24 8.411086e-24 7.23466e-24 -3.9091213e-24 -2.5685889e-24 3.7782765e-24 -4.5976628e-24
1.0912362e-24 3.4538882e-24 -7.0900775e-24 -7.5335396e-24 -6.353217e-24 -2.340515e-24 2.809735e-24 -7.288057e-24
7.791614e-25 -8.592824e-24 -3.5442795e-24 -5.9192983e-24 4.2529826e-24 2.5334158e-24 -1.7822926e-24 4.615899e-24
-5.1516684e-24 1.8154898e-25 -1.261278e-24 -1.1998901e-24 -4.5946166e-24 2.1069745e-24 -3.1846707e-24 -7.794065e-24
7.424687e-24 3.8685948e-24 8.246252e-24 -7.70682e-24 7.4312704e-25 6.325107e-24 -7.214895e-24 7.693033e-24
-2.6826515e-24 8.114058e-24 -4.1737976e-24 -5.8042752e-24 -2.905116e-24 4.6573378e-24 -1.5002915e-24 6.019612e-24
5.0587958e-24 -7.258798e-24 -1.67522e-24 -5.3956792e-24 -6.2822185e-24 8.525106e-24 2.014916e-24 6.716668e-24
8.828825e-24 -1.4776998e-24 -6.703207e-24 -8.388074e-24 -2.5139516e-24 2.7183826e-25 7.911827e-24 5.0593208e-24
7.899706e-24 7.885267e-24 3.8928424e-24 5.8117895e-24 7.892388e-24 1.5572484e-25 -2.1445935e-24 -6.669506e-24
-4.2648424e-24 -1.6327758e-24 8.007669e-24 2.6896836e-24 -2.1161083e-24 -3.6490086e-24 6.5184326e-25 -3.4670283e-24
3.1734192e-24 7.369962e-25 2.2677507e-24 -3.7303363e-24 2.686092e-26 5.4492717e-24 3.8433757e-24 -6.0603064e-24
-6.28881e-24 2.519146e-24 -6.916218e-24 3.928203e-24 -4.0288673e-24 2.9938046e-24 -1.5980916e-25 -6.844318e-24
1.170169e-24 2.0343628e-24 5.2415756e-24 -3.0739038e-24 2.2001638e-24 4.742117e-24 -2.8090528e-25 -8.221136e-24
3.6266184e-24 6.4956992e-24 -7.786351e-24 7.214237e-24 -3.388805e-24 -1.8747919e-26 -8.188227e-24 -2.7086626e-24
-2.7120348e-24 1.765516e-24 2.563357e-26 7.9070935e-25 -2.1522405e-24 9.878207e-25 -3.7656528e-24 -4.4511107e-25
1.9805692e-24 8.193528e-24 -3.5814474e-24 -1.6862764e-24 5.296461e-24 4.7047896e-25 -4.141402e-25 -1.7658523e-24
-2.0823125e-24 -8.020612e-24 3.957218e-25 -6.776754e-24 7.5724265e-24 -3.6239588e-24 6.2569236e-24 -4.4137943e-24
3.1081749e-24 7.437893e-24 -1.5953147e-24 -2.7158586e-24 -4.2421457e-24 -4.9996237e-24 4.3011233e-24 1.5151978e-24
5.9767238e-24 -1.7739222e-24 2.8603878e-24 -5.1692923e-24 -6.479518e-25 -6.187787e-24 -6.98977e-24 -7.149359e-24
-5.9899944e-24 4.8012354e-24 -3.6114005e-24 -2.1239315e-24 -2.6588486e-24 -6.5415293e-24 2.9189565e-24 3.4720825e-24
4.7423714e-24 6.0047887e-24 -5.7367626e-24 -5.529842e-24 6.417067e-24 -1.915997e-24 7.301623e-24 8.18035e-24
7.2317325e-24 -6.39105e-24 -5.047701e-25 7.35487e-24 6.503907e-24 7.990239e-24 -3.2939544e-24 -1.475832e-24
-2.171251e-24 -1.2740851e-24 3.4919027e-24 -1.9308617e-24 6.6135803e-24 -5.1298888e-26 -3.189e-25 2.147351e-24
-8.183998e-24 1.8245457e-24 7.274304e-24 -8.792142e-24 7.136076e-24 6.3602056e-24 1.9494074e-24 1.654714e-24
-2.8454868e-24 -4.2505885e-24 1.432425e-26 4.82453e-24 -1.0483189e-24 -8.557305e-24 6.350446e-24 2.8119361e-24
-3.930264e-24 2.1656628e-26 -6.917931e-24 -1.9137422e-25 6.6524624e-24 8.6500105e-24 6.018619e-24 5.1756513e-24
00000000: 6653 7898 efe7 d517 1965 7c98 8fe3 3518
00000010: 71ca c397 ca4e 9b97 0e7f 9b98 ad49 2299
00000020: 693b 9e98 3b3b cc97 f936 2318 fc48 9097
00000030: 313c b518 209f 5c18 4225 fb18 0a68 e396
00000040: d90c 7d98 8426 2297 e8e1 4697 1fbe f117
00000050: 566b e417 74d3 b698 b056 2919 259e ec18
00000060: 7c65 fa17 f260 9698 4326 ff18 6007 b416
00000070: 18b1 9d98 bdf9 a498 51ee 8318 17ea 5998
00000080: d3b8 e217 a93e 4898 414b cb18 d60b 0f19
00000090: 8dfd 0a19 ddf4 7f98 d036 0799 487c d218
000000a0: 5ab7 3b98 5ae2 2998 b8a1 dd18 0d31 c298
000000b0: 8eaa 1419 c7a5 fc16 410e 8718 242c f098
000000c0: 98b4 1199 21db 7898 aeb1 2219 4df0 0b19
000000d0: 103a 9798 25bc 4698 3d2a 9218 0cdd b198
000000e0: 52dc a817 a79d 8518 5d24 0999 48b8 1199
000000f0: 37c7 f598 ad16 3598 8964 5918 b6f8 0c99
00000100: 8723 7117 9b35 2699 d81c 8998 e4fd e498
00000110: 8087 a418 7803 4418 f1e5 0998 a691 b218
00000120: a74b c798 2bbf 6016 5f2c c397 8bac b997
00000130: e1be b198 ee04 2318 e766 7698 57c2 1699
00000140: 459d 0f19 b5a8 9518 7681 1f19 5312 1599
00000150: 97fc 6517 d3b0 f418 6e8e 0b99 0ece 1419
00000160: 638f 4f98 def2 1c19 4a77 a198 c28a e098
00000170: c0c5 6098 0a2c b418 ab28 e897 5adf e818
00000180: e3b3 c318 d467 0c99 279d 0198 38bc d098
00000190: 1408 f398 48e6 2419 86e5 1b18 54eb 0119
000001a0: 39c6 2a19 b8a9 e497 aca8 0199 bb3f 2299
000001b0: f181 4298 7e42 a816 7809 1919 16b9 c318
000001c0: 73cd 1819 f385 1819 d898 9618 2dd5 e018
000001d0: 36a9 1819 2cc7 4016 0dee 2598 cb01 0199
000001e0: f4fc a498 eaa8 fc97 0ee4 1a19 ac1a 5018
000001f0: d8b9 2398 082a 8d98 58bc 4917 c91f 8698
00000200: 0b88 7518 db16 6417 6e75 2f18 764f 9098
00000210: 4302 0515 f9ce d218 f3ae 9418 5e72 ea98
00000220: 5c49 f398 d4e8 4218 74c7 0599 0af7 9718
00000230: f8db 9b98 69a2 6718 8bd5 4596 6c63 0499
00000240: 2b13 b517 b566 1d18 0dc6 ca18 f0d4 6d98
00000250: bc3a 2a18 a773 b718 38df ad96 1805 1f99
00000260: 4a4c 8c18 4a4a fb18 259c 1699 2c8b 0b19
00000270: 1919 8398 9fab b994 2362 1e99 9792 5198
00000280: 62d5 5198 a699 0818 d2dc fd14 73b6 7417
00000290: 8485 2698 9cdb 9817 38ad 9198 55c1 0997
000002a0: 373d 1918 637c 1e19 f08c 8a98 2578 0298
000002b0: 9ce5 cc18 2f9b 1117 912b 0097 4fa0 0898
000002c0: 731c 2198 2624 1b99 9ff0 f416 dc14 0399
000002d0: d778 1219 f331 8c98 920d f218 1ac0 aa98
000002e0: bf7b 7018 aade 0f19 eddc f697 1f21 5298
000002f0: 2d1c a498 e069 c198 4364 a618 2b77 ea17
00000300: 9b36 e718 2640 0998 d14f 5d18 31fa c798
00000310: 0888 4897 e060 ef98 aa33 0799 e949 0a99
00000320: 08ba e798 22bd b918 94b5 8b98 cc54 2498
00000330: ecb7 4d98 2b10 fd98 e4d7 6118 d751 8618
00000340: 2c76 b718 8c4c e818 25ee dd98 e7ec d598
00000350: 8e3f f818 3b3e 1498 e33b 0d19 223b 1e19
00000360: cee1 0b19 e53d f798 0238 1c97 8d43 0e19
00000370: 939b fb18 bf8d 1a19 7ddb 7e98 bb5f e497
00000380: 0ffe 2798 b627 c597 2116 8718 a864 1598
00000390: bad9 ff18 1105 7e95 b963 c596 ab24 2618
000003a0: 324d 1e99 da2a 0d18 9cb4 0c19 9410 2a99
000003b0: 2308 0a19 6d0c f618 fed3 1618 fd06 0018
000003c0: ac28 5c98 ca6f a498 4adc 8d14 d5a3 ba18
000003d0: 3138 a297 b985 2599 c5ab f518 2290 5918
000003e0: 730b 9898 137a d614 efcf 0599 e9e8 6c96
000003f0: 66ad 0019 c750 2719 84d5 e818 2b39 c818

att_src f4 [1, 1, 15]
-0.000115836956 -0.00013994402 -9.5232805e-05 0.00014787311 0.00014715262 -0.00015121336 0.0001333709 0.00016341527
0.00015185704 0.00010844051 -0.00010511172 -0.00019592223 0.00013647843 -0.00020249664 -0.0001285521
00000000: 7eed f2b8 f0bd 12b9 b9b7 c7b8 630e 1b39
00000010: fb4c 1a39 078f 1eb9 7ad9 0b39 745a 2b39
00000020: d03b 1f39 8e6a e338 6d6f dcb8 7970 4db9
00000030: a61b 0f39 4755 54b9 f1cb 06b9

att_dst f4 [1, 1, 15]
-2.9603282e-21 7.342544e-21 3.9425003e-21 5.1822583e-21 -1.1889649e-21 4.5458054e-21 -4.649285e-22 2.3742584e-21
-4.536832e-21 7.066373e-21 -7.5515486e-22 -7.939538e-21 -4.7295235e-21 4.9982538e-21 2.7030138e-21
00000000: 13ad 5f9d 5db2 0a1e 86f1 941d bac7 c31d
00000010: daab b39c 55bc ab1d 1a84 0c9c d664 331d
00000020: 8c65 ab9d e27a 051e 473b 649c 40f9 159e
00000030: 25ad b29d 25d4 bc1d e43b 4c1d

bias f4 [15]
-0.00010348991 0.00010321165 -0.00011419273 -0.00016127797 -0.0001632671 -4.7375015e-05 -7.992798e-05 -0.00014825792
-0.00015019243 -8.165645e-05 0.00015208269 0.00010151106 -3.0786807e-05 0.000101708734 -8.7288965e-05
00000000: b908 d9b8 5573 d838 c17a efb8 ba1c 29b9
00000010: ae32 2bb9 89b4 46b8 029f a7b8 af75 1bb9
00000020: f97c 1db9 f93e abb8 6378 1f39 56e2 d438
00000030: 1521 01b8 764c d538 e80e b7b8

weight f4 [15, 163]
-9.455317e-05 -9.8792145e-05 -9.43214e-05 -9.5953954e-05 -9.651689e-05 -9.63602e-05 -9.622553e-05 -9.633942e-05
-9.588928e-05 -9.698359e-05 -9.259686e-05 -9.075547e-05 -9.13997e-05 -9.182141e-05 -9.22203e-05 -9.118851e-05
-0.000102379214 -9.716587e-05 -0.00010170607 -9.812035e-05 -9.4656716e-05 -9.8424935e-05 -9.569282e-05 -9.6325566e-05
-0.00010403577 8.9001165e-24 -0.000103983024 -1.4533533e-24 -8.1434395e-05 -9.500073e-05 -9.9589975e-05 -0.00010787065
0.0001293228 -3.88545e-05 -9.897449e-05 -9.579711e-05 -0.00010015788 -0.00010072873 -0.00010082352 -0.0001000276
-0.000100245685 -0.0001014765 -9.980244e-05 -0.00010006432 -0.000100394325 -0.00010127301 -8.8640634e-05 -9.871058e-05
-9.7203636e-05 -9.758995e-05 -9.753019e-05 -9.7272685e-05 -9.582666e-05 -9.7426055e-05 -5.6162917e-24 -9.762136e-05
-0.00010727994 -8.477851e-05 -4.1746862e-05 -9.8861914e-05 -0.000107374406 2.6902587e-24 -0.000104918734 7.631317e-06
6.5169034e-24 -8.9597146e-05 -9.5310905e-05 0.00013758376 0.0001339286 9.741072e-05 6.812258e-24 -1.1214917e-07
0.00010825152 0.00014767547 4.401857e-24 0.000114258466 8.293833e-24 6.827983e-24 -0.00010072165 -9.30057e-05
-9.19183e-05 -0.00010029287 -0.00010187248 -5.1280915e-07 0.00012219496 0.00016780249 -0.00010310414 -4.623279e-24
-1.0043503e-24 -4.3967774e-24 -9.456584e-05 -9.628173e-05 -0.00010014334 -9.900037e-05 -0.00010882184 3.3151944e-06
-9.832258e-05 -3.362784e-24 -6.440239e-05 -0.00011481706 7.680619e-06 6.5339955e-05 4.2404627e-05 -0.000106583444
4.8916456e-24 -9.262268e-06 3.3194392e-05 -6.744601e-24 -9.836616e-05 3.3351233e-05 0.000120882345 0.00013393117
8.236721e-05 -7.44824e-24 4.715544e-10 0.00010831844 5.058586e-08 -1.2730065e-25 1.2414597e-07 3.0035016e-26
1.5650242e-24 -9.910451e-05 -9.559104e-05 -9.310504e-05 -0.0001063654 -9.591667e-05 -4.6019298e-07 0.00012250544
0.00016674388 -0.000100536265 -4.1063937e-24 5.7692706e-25 2.2583082e-24 -8.904434e-05 -0.00010943269 -0.00010334542
-5.5096363e-05 1.6636857e-05 -9.60918e-05 -9.7807555e-05 -9.6089265e-05 -9.602916e-05 -9.583697e-05 -9.598276e-05
-9.528287e-05 -9.703264e-05 -9.7320015e-05 -9.509658e-05 -9.582579e-05 -9.512918e-05 -9.4432864e-05 -9.6941e-05
-9.5766314e-05 -9.601168e-05 -9.632293e-05 -9.5749965e-05 -9.491014e-05 -9.4757044e-05 -9.5168456e-05 -9.544699e-05
-9.478791e-05 -9.3839175e-05 -8.335943e-05 0.00011844284 0.000116883704 0.000112282934 0.00011830634 0.0001181003
0.00011788052 0.00011817256 0.00011817858 0.00011718739 0.00011633882 0.000116169474 0.000116715004 0.000117444324
0.00011711204 0.000111256275 0.000112760106 0.00010472847 0.000118107295 0.000109796085 0.00011547773 0.00011475714
0.00011474287 0.00011758111 0.00011737218 0.00010627296 -4.174063e-24 0.00010501588 8.915044e-24 0.00011910963
0.00011869673 9.339291e-05 9.984596e-05 0.000113631824 0.00012226512 9.329523e-05 0.00011900965 0.000111247726
0.000110639754 0.000108757726 0.00011016493 0.00011185038 0.00010921193 0.000111216046 0.0001080131 0.00011062809
0.00010951939 0.000114663286 0.000113523834 0.00011377045 0.00011522216 0.00011616263 0.000116933596 0.000118561875
0.00011316067 1.8437746e-24 0.00011151549 8.6791704e-05 0.00012108314 0.00012243912 0.00011500418 8.666943e-05
4.641199e-24 9.8619144e-05 0.00012259741 1.1138357e-24 0.00011584105 0.00010797427 0.00012559828 0.00012640742
0.00012228523 -8.195543e-24 7.4434224e-06 0.00010859817 0.00012355438 -4.61903e-24 0.00011376833 -1.05211365e-24
-3.4414392e-24 0.00011022251 0.00011229896 0.000119527416 8.715163e-05 0.00010667664 2.8915425e-05 -0.00012627304
0.00011976586 9.326019e-05 2.2757483e-24 2.8029082e-24 3.17031e-24 0.000116923205 0.00011471091 0.00010206854
00000000: d94a c6b8 a12e cfb8 6bce c5b8 e33a c9b8
00000010: 1c69 cab8 fd14 cab8 b0cc c9b8 d509 cab8
00000020: 2a18 c9b8 ab63 cbb8 9030 c2b8 f953 beb8
00000030: d7ad bfb8 3e90 c0b8 6666 c1b8 753c bfb8
00000040: 6cb4 d6b8 87c5 cbb8 084b d5b8 f6c5 cdb8
00000050: 7082 c6b8 7c69 ceb8 b1ae c8b8 6502 cab8
00000060: c72d dab8 3e27 2c19 7611 dab8 41e5 e097
00000070: c2c7 aab8 213b c7b8 f6da d0b8 9d38 e2b8
00000080: d39a 0739 b4f7 22b8 8690 cfb8 afe6 c8b8
00000090: da0b d2b8 533e d3b8 3771 d3b8 e9c5 d1b8
000000a0: fe3a d2b8 c8cf d4b8 074d d1b8 9fd9 d1b8
000000b0: cb8a d2b8 8962 d4b8 94e4 b9b8 d702 cfb8
000000c0: ced9 cbb8 35a9 ccb8 1f89 ccb8 e0fe cbb8
000000d0: 8cf6 c8b8 3751 ccb8 0f45 d998 12ba ccb8
000000e0: 7bfb e0b8 1ecb b1b8 5a19 2fb8 1654 cfb8
000000f0: 322e e1b8 1026 5018 d107 dcb8 4208 0037
00000100: 491c fc18 1ae6 bbb8 a7e1 c7b8 5c44 1039
00000110: 2f6f 0c39 fb48 cc38 abc4 0319 a9d6 f0b3
00000120: 1805 e338 55d9 1a39 e149 aa18 0c9e ef38
00000130: 126d 2019 8912 0419 863a d3b8 0e0c c3b8
00000140: 43c4 c0b8 5354 d2b8 5fa4 d5b8 faa7 09b5
00000150: 7621 0039 23f4 2f39 9d39 d8b8 bdda b298
00000160: 6a6a 9b97 9317 aa98 a651 c6b8 dcea c9b8
00000170: 0c04 d2b8 6b9e cfb8 4837 e4b8 9b7a 5e36
00000180: 8832 ceb8 6617 8298 c50f 87b8 f1c9 f0b8
00000190: 02dc 0037 1f07 8938 9fdb 3138 8d85 dfb8
000001a0: 833c bd18 2365 1bb7 353a 0b38 a675 0299
000001b0: ee49 ceb8 9de2 0b38 3782 fd38 e06f 0c39
000001c0: 8fbc ac38 e611 1099 b19e 0130 0529 e338
000001d0: be43 5933 3097 1d96 fc4c 0534 e8b9 1415
000001e0: ff2c f217 54d6 cfb8 0c78 c8b8 6341 c3b8
000001f0: 7d10 dfb8 df26 c9b8 7110 f7b4 ce74 0039
00000200: f8d7 2e39 ffd6 d2b8 c1db 9e98 df8c 3217
00000210: 67ba 2e18 51bd bab8 3a7f e5b8 26bb d8b8
00000220: 4517 67b8 618f 8b37 e484 c9b8 081e cdb8
00000230: 8883 c9b8 4363 c9b8 15fc c8b8 5a4a c9b8
00000240: 9ad2 c7b8 007e cbb8 4918 ccb8 966e c7b8
00000250: 14f6 c8b8 1780 c7b8 420a c6b8 ce4c cbb8
00000260: 26d6 c8b8 e159 c9b8 fb00 cab8 5fcd c8b8
00000270: 7e0a c7b8 4db8 c6b8 2d95 c7b8 b62a c8b8
00000280: dfc8 c6b8 86cb c4b8 41d1 aeb8 8464 f838
00000290: 761f f538 7179 eb38 3c1b f838 9eac f738
000002a0: 9f36 f738 69d3 f738 a4d6 f738 80c2 f538
000002b0: eefa f338 03a0 f338 e4c4 f438 714c f638
000002c0: 0c9a f538 4252 e938 9f79 ec38 aba1 db38
000002d0: 5fb0 f738 5342 e638 a22c f238 c5a9 f038
000002e0: 1ca2 f038 e195 f638 b625 f638 dcde de38
000002f0: eb79 a198 f93b dc38 2971 2c19 7fca f938
00000300: d2ec f838 f0db c338 6464 d138 9f4d ee38
00000310: 4b34 0039 7fa7 c338 d294 f938 ab4d e938
00000320: 4407 e838 dc14 e438 5908 e738 3791 ea38
00000330: b508 e538 a93c e938 1785 e238 0101 e838
00000340: c6ad e538 6277 f038 a513 ee38 0c98 ee38
00000350: 6da3 f138 569c f338 3f3a f538 6ca4 f838
00000360: ac50 ed38 b8a7 0e18 6cdd e938 f103 b638
00000370: 04ee fd38 0063 0039 662e f138 4cc2 b538
00000380: 358c b318 c0d1 ce38 7e8d 0039 945b ac17
00000390: b1ef f238 3f70 e238 08b3 0339 3c8c 0439
000003a0: b139 0039 5d86 1e99 83c2 f936 33bf e338
000003b0: 608e 0139 a8b0 b298 e896 ee38 84ce a297
000003c0: 5d22 8598 4227 e738 0c82 eb38 cbaa fa38
000003d0: 2dc5 b638 96b7 df38 678f f237 2968 04b9
000003e0: ce2a fb38 af94 c338 d713 3018 51dd 5818
000003f0: 754a 7518 ab34 f538 f390 f038 a10d d638

weight f4 [15, 9]
-3.8941725e-21 1.9539133e-23 -1.7099896e-23 1.483463e-23 -8.1385115e-24 1.1337612e-23 -2.4389478e-23 -1.9842952e-23
1.964428e-24 2.685376e-22 -7.5213864e-24 2.3151629e-23 -9.321589e-24 -5.0242744e-24 1.7779999e-23 -1.844117e-23
-1.816063e-23 -1.3459419e-23 4.9959484e-21 1.2571249e-23 2.133576e-23 -8.104331e-24 -1.8141437e-23 -1.3433782e-23
3.4778716e-24 -2.1322759e-23 -1.5927562e-23 -1.7980883e-21 -2.2295252e-23 -1.4284567e-23 -2.0270706e-23 -1.5365977e-23
-2.2258455e-23 -1.3151687e-23 -1.2322506e-23 -1.0451785e-24 3.47653e-21 1.9663436e-23 -2.0927399e-23 -8.702694e-24
-1.0169832e-23 -3.7447377e-24 -2.208172e-23 1.1840299e-23 -4.2455946e-24 3.9090468e-21 -1.4433341e-23 8.381164e-24
2.2237727e-23 -2.300226e-23 5.428145e-24 8.82006e-24 1.6707104e-23 1.8481246e-23 2.2916595e-21 9.6896866e-24
-4.869823e-24 3.025051e-24 1.8417201e-23 8.596663e-24 2.3586051e-23 6.1459222e-24 6.847533e-24 8.954973e-21
-7.722923e-24 1.3976474e-23 -7.820346e-24 6.3823498e-24 1.2962217e-24 8.572098e-24 2.1753082e-23 1.900628e-23
5.6060384e-22 -1.0954179e-23 1.1778893e-23 1.5806807e-23 -1.5426532e-23 -8.708121e-24 -1.0194503e-23 2.5019e-24
1.6323872e-23 8.495233e-21 -6.87728e-24 2.4237262e-23 -1.9423133e-23 6.529737e-24 7.1145245e-25 -2.2486477e-23
-4.8883077e-25 -2.330008e-23 -3.0453153e-21 -4.469045e-24 2.114191e-23 1.1256177e-23 -1.6895288e-23 -9.2335025e-24
-1.2473051e-23 2.3069967e-24 1.6264387e-23 -1.1123662e-20 -1.6932682e-23 -1.753139e-23 1.9914637e-23 1.7461666e-23
1.5153542e-23 -1.3749131e-23 -2.3467045e-23 9.806147e-24 5.192315e-21 5.295528e-24 -2.3344327e-23 5.702901e-24
2.0848442e-23 1.1676748e-23 1.6581367e-23 -2.3823432e-23 -2.3076545e-23 5.4578556e-21 -1.8330151e-24 1.9882294e-23
-6.391232e-24 5.4879795e-24 2.4469839e-23 1.3257087e-23 -2.3843062e-23 -7.443553e-24 9.2956966e-21 -1.5077968e-24
1.515919e-23 -6.3423683e-24 -1.30279085e-23 5.2694623e-24 2.2621195e-23 -1.2893781e-23 -1.6177036e-23
00000000: 201e 939d 8df8 bc19 4b61 a599 c478 8f19
00000010: f56b 1d99 234d 5b19 6ce1 eb99 c5e8 bf99
00000020: 81fd 1718 2e52 a21b 1a7c 1199 a8e8 df19
00000030: 464e 3499 015e c298 25f5 ab19 205a b299
00000040: 8ba3 af99 e82b 8299 d9bd bc1d cf29 7319
00000050: c858 ce19 b4c2 1c99 0674 af99 6fec 8199
00000060: 2c8b 8618 9838 ce99 bc0a 9a99 16dc 079d
00000070: 5fa0 d799 e026 8a99 d60b c499 519c 9499
00000080: 4445 d799 0064 7e99 185a 6e99 c9bb a197
00000090: ef56 831d 4f2c be19 bb65 ca99 a755 2899
000000a0: 92b6 4499 16de 9098 b18f d599 5206 6519
000000b0: 553e a498 fbad 931d 3997 8b99 841d 2219
000000c0: f211 d719 d676 de99 bffd d118 d29a 2a19
000000d0: c994 a119 59bd b219 2427 2d1d 016d 3b19
000000e0: 6464 bc98 4f0d 6a18 c81e b219 9d48 2619
000000f0: 3c1c e419 44c2 ed18 5773 0419 9827 291e
00000100: 1062 1599 132c 8719 7a44 1799 bbe7 f618
00000110: a294 c817 f9ce 2519 0662 d219 45d1 b719
00000120: 9f6e 291c 78e2 5399 41d6 6319 c2df 9819
00000130: 3e32 9599 8770 2899 bc30 4599 3c93 4118
00000140: f3df 9d19 6d78 201e a406 0599 8e68 ea19
00000150: 59d9 bb99 629b fc18 122f 5c17 d279 d999
00000160: 2a49 1797 3458 e199 f718 669d 47e3 ac98
00000170: d578 cc19 e4b9 5919 b566 a399 179a 3299
00000180: 8f43 7199 c77e 3218 ac4c 9d19 bb1e 529e
00000190: 4ac3 a399 9f8d a999 419a c019 fee0 a819
000001a0: 5a8e 9219 33f9 8499 97f5 e299 b0ad 3d19
000001b0: fd28 c41d 5edc cc18 c1c5 e199 cc9e dc18
000001c0: 3ea2 c919 75dc 6119 7a5d a019 f667 e699
000001d0: c22e df99 2431 ce1d 9bd2 0d98 2d4a c019
000001e0: b23f f798 514e d418 63a8 ec19 f536 8019
000001f0: 9098 e699 b0fa 0f99 3b97 2f1e fc51 e997
00000200: 569c 9219 c65b f598 14ff 7b99 3ada cb18
00000210: 5ec7 da19 e966 7999 6774 9c99

att_src f4 [1, 1, 15]
-0.000122307 -0.00013966828 -0.000116457435 0.00018671136 0.00018626425 -0.00013639119 0.0001372178 0.00015388575
0.00015691303 -0.00022959508 -0.00022688562 -0.00018718878 0.0001792076 -0.00019537899 -0.00012585406
00000000: 893f 00b9 eb73 12b9 9c3a f4b8 f3c7 4339
00000010: ee4f 4339 3b04 0fb9 1fe2 0f39 645c 2139
00000020: 0589 2439 76bf 70b9 25e8 6db9 1b48 44b9
00000030: ace9 3b39 a6de 4cb9 b1f7 03b9

att_dst f4 [1, 1, 15]
2.8929366e-05 0.00032405433 9.972056e-05 -1.5912568e-05 0.00036689456 1.264905e-06 -6.57451e-05 -0.00017395552
-7.058297e-05 8.463567e-05 0.00017354208 -0.00013415143 6.749191e-05 -5.621637e-06 -4.871692e-07
00000000: 57ad f237 d6e5 a939 1121 d138 fb7b 85b7
00000010: c15b c039 cec5 a935 a2e0 89b8 d467 36b9
00000020: f205 94b8 6e7e b138 d9f8 3539 00ab 0cb9
00000030: 718a 8d38 7ea1 bcb6 03c6 02b5

bias f4 [15]
-0.00010348991 0.00010321165 -0.00011419273 -0.00016127797 -0.0001632671 -4.7375015e-05 -7.992798e-05 -0.00014825792
-0.00015019243 -8.165645e-05 0.00015208269 0.00010151106 -3.0786807e-05 0.000101708734 -8.7288965e-05
00000000: b908 d9b8 5573 d838 c17a efb8 ba1c 29b9
00000010: ae32 2bb9 89b4 46b8 029f a7b8 af75 1bb9
00000020: f97c 1db9 f93e abb8 6378 1f39 56e2 d438
00000030: 1521 01b8 764c d538 e80e b7b8

weight f4 [15, 9]
-0.00010369931 -0.000103465914 -0.00010351322 -0.00010350499 -9.807096e-05 -0.00010390117 -4.434215e-24 -9.825869e-05
-0.00010607828 0.00010362133 0.00010308132 0.00010335873 0.000101728525 0.000121867764 0.00010895369 1.5581833e-23
0.00010689457 9.837179e-05 -0.000113951195 -0.00011419051 -0.00011416365 -0.00011383744 -0.00011370703 -0.000113912334
-6.5182906e-24 -0.000106747015 -0.00011334866 -0.00016309506 -0.00016155366 -0.00016223203 -0.00016295572 -0.00016652807
-0.00016326224 2.2561442e-23 -0.00013348916 -0.00014976398 -0.00016643423 -0.00016359052 -0.00016426193 -0.00016776033
-0.00017082885 -0.00016520785 -1.0746772e-23 -0.00013587085 -0.00015176652 -4.7854457e-05 -4.7298883e-05 -4.771154e-05
-4.739148e-05 1.359982e-05 -3.7950012e-05 2.3139972e-24 -3.814308e-06 -5.258827e-05 -7.949433e-05 -7.999955e-05
-8.4352985e-05 -8.261352e-05 -0.00020338685 -0.00023721434 2.2626558e-24 -7.2554074e-05 -9.175431e-05 -0.00014836043
-0.00014809091 -0.00014825237 -0.00014071165 -0.000157987 -0.00015734303 7.032404e-24 -0.00010166118 -0.00012247452
-0.00014996463 -0.00015023674 -0.0001507993 -0.00014870327 -0.00015897672 -0.00016067998 -5.962049e-24 -0.000113703
-0.00013508071 -8.114005e-05 -8.123225e-05 -8.746767e-05 -8.376684e-05 -0.00016849683 -7.7235796e-05 -3.8696467e-24
-7.5251395e-05 -8.180312e-05 0.00014549657 0.0001532521 0.00014110049 0.00015043061 -1.8280869e-05 0.00015557052
1.9891891e-23 0.00016574096 0.00014576422 0.00010152066 0.000101519436 0.00010157992 0.00010143162 0.00011678781
0.00010499095 1.0605364e-24 0.00011268274 9.923762e-05 -4.813971e-05 -3.353596e-05 -3.0424764e-05 -0.00011067853
-0.00017820459 -0.00017617004 -6.701667e-24 -0.00014548317 -0.00016320967 0.000102017875 0.000101639416 0.00010190622
0.00010137227 0.000117526026 0.00010571479 -1.1582453e-23 0.00011139979 9.966795e-05 -8.762682e-05 -8.72177e-05
-8.738129e-05 -8.725939e-05 -5.953038e-05 -8.452166e-05 9.463921e-24 -6.771834e-05 -9.067412e-05
00000000: 2579 d9b8 d7fb d8b8 3d15 d9b8 d210 d9b8
00000010: 72ab cdb8 84e5 d9b8 578a ab98 3c10 ceb8
00000020: 5876 deb8 474f d938 5d2d d838 4cc2 d838
00000030: 1657 d538 4293 ff38 117e e438 c0b2 9619
00000040: 962c e038 f44c ce38 15f9 eeb8 9079 efb8
00000050: 256b efb8 03bc eeb8 ff75 eeb8 38e4 eeb8
00000060: 062a fc98 5edd dfb8 99b5 edb8 7f04 2bb9
00000070: bb66 29b9 d41c 2ab9 18df 2ab9 0a9e 2eb9
00000080: 6031 2bb9 6d33 da19 39f9 0bb9 f609 1db9
00000090: d984 2eb9 7f89 2bb9 ba3d 2cb9 d2e8 2fb9
000000a0: 8520 33b9 a53b 2db9 70df 4f99 8e78 0eb9
000000b0: 8423 1fb9 55b7 48b8 ca62 46b8 e01d 48b8
000000c0: 37c6 46b8 c82a 6437 842c 1fb8 7009 3318
000000d0: 50f9 7fb6 3a92 5cb8 32b6 a6b8 6ec5 a7b8
000000e0: aae6 b0b8 cc40 adb8 3e44 55b9 bdbc 78b9
000000f0: 8410 2f18 2c28 98b8 386c c0b8 3391 1bb9
00000100: da48 1bb9 3174 1bb9 ff8b 13b9 50a9 25b9
00000110: 73fc 24b9 c706 0819 ee32 d5b8 816c 00b9
00000120: d33f 1db9 de88 1db9 e11f 1eb9 3bed 1bb9
00000130: fdb2 26b9 347c 28b9 46a5 e698 d573 eeb8
00000140: 74a4 0db9 bc29 aab8 3b5b aab8 d96e b7b8
00000150: fbab afb8 86ae 30b9 a7f9 a1b8 20b3 9598
00000160: 49d0 9db8 b78d abb8 7090 1839 4cb2 2039
00000170: 60f4 1339 e9bc 1d39 de59 99b7 a520 2339
00000180: f061 c019 c0ca 2d39 49d8 1839 7de7 d438
00000190: d5e6 d438 4e07 d538 b0b7 d438 faeb f438
000001a0: 962e dc38 2d1c a417 1650 ec38 cb1d d038
000001b0: 9fe9 49b8 f6a8 0cb8 af38 ffb7 151c e8b8
000001c0: 6edc 3ab9 49ba 38b9 0ca1 0199 d78c 18b9
000001d0: 4323 2bb9 6ef2 d538 3f27 d538 7cb6 d538
000001e0: d397 d438 4e78 f638 32b3 dd38 8709 6099
000001f0: 4f9f e938 d304 d138 4ac4 b7b8 a5e8 b6b8
00000200: 7940 b7b8 07ff b6b8 42b0 79b8 3841 b1b8
00000210: 110f 3719 0204 8eb8 4c28 beb8

weight f4 [15, 9]
7.355205e-06 -2.8419842e-07 1.2984017e-06 -1.5962296e-08 -2.549879e-08 7.390815e-07 1.6566308e-23 -7.321744e-08
-1.2649424e-08 -0.0003341946 -1.1692557e-05 -5.035832e-06 -4.456731e-07 -3.0830536e-06 -3.4790496e-06 1.8514315e-23
-2.8614102e-07 1.0670811e-06 -9.642345e-05 -2.3518828e-06 -1.4445361e-06 -9.502598e-08 -5.2928823e-07 -1.5295573e-06
2.2528006e-23 -6.753214e-08 2.2075943e-07 -2.1545802e-05 2.0797374e-07 -1.428909e-06 1.0106152e-08 1.1751862e-07
-5.406278e-07 2.3991494e-23 4.4868855e-08 -2.0396417e-08 -0.00037026155 -1.5449375e-05 -6.9433963e-06 -5.6280214e-07
-4.269677e-06 -4.6270266e-06 1.2596629e-24 -3.1303065e-07 1.3095438e-06 8.770846e-06 1.5226935e-07 -2.406079e-07
2.0762672e-08 -1.92219e-07 4.041343e-07 1.3989227e-23 4.3450406e-08 5.2972833e-08 -6.9070375e-05 3.8069015e-06
9.168843e-06 -9.344833e-08 1.303035e-05 1.9415274e-05 -9.782703e-24 7.324702e-07 -1.5161761e-06 0.0001578688
2.236911e-06 1.5014336e-06 9.460524e-08 2.6043932e-07 7.659822e-07 -1.9591395e-23 1.9885024e-07 -1.4000273e-07
8.5118976e-05 9.5290886e-07 6.3692306e-07 5.549972e-08 -8.419882e-08 7.381313e-07 -1.6028841e-23 1.1766713e-07
-2.3462569e-08 -8.134054e-05 -9.262437e-07 -7.4928704e-07 -4.8559272e-08 1.2663194e-08 -3.5141747e-07 1.4132937e-23
-1.15802834e-07 6.709123e-08 -0.00014797282 -3.3480947e-06 -1.4321029e-06 -1.3708596e-07 -9.56524e-07 -1.8885041e-06
2.2671367e-23 -1.5875182e-07 4.6510405e-07 0.00012804766 3.0242932e-06 2.1495364e-06 1.243498e-07 6.382237e-07
1.8089049e-06 6.4741586e-24 9.2105175e-08 -2.9293966e-07 -8.01568e-05 -9.607239e-07 -6.776171e-07 -2.569576e-08
-4.323768e-07 -4.2872634e-07 1.7691922e-23 -5.0007074e-08 1.6537109e-07 5.001689e-06 1.5216195e-07 1.8521456e-07
7.610007e-09 -1.0078611e-08 1.0981645e-07 8.3761e-25 2.5109726e-08 -1.6665554e-08 4.774024e-07 1.6645727e-08
1.9640067e-08 8.197468e-10 -1.0125917e-09 1.1531355e-08 -1.8750948e-23 2.6082512e-09 -1.721604e-09
00000000: bbcc f636 ef93 98b4 be44 ae35 761d 89b2
00000010: 6f08 dbb2 4b65 4635 3138 a019 b73b 9db3
00000020: c150 59b2 d736 afb9 262b 44b7 78f9 a8b6
00000030: d844 efb4 75e6 4eb6 9e79 69b6 390f b319
00000040: ec9e 99b4 a138 8f35 f236 cab8 0ad5 1db6
00000050: e2e1 c1b5 1611 ccb3 6914 0eb5 304b cdb5
00000060: a4e0 d919 3006 91b3 e409 6d34 42bd b4b7
00000070: 634f 5f34 f0c8 bfb5 549f 2d32 8b5e fc33
00000080: a91f 11b5 1008 e819 d4b5 4033 3234 afb2
00000090: aa1f c2b9 4899 81b7 52fb e8b6 7813 17b5
000000a0: 3f44 8fb6 db41 9bb6 63ec c217 9b0e a8b4
000000b0: 95c3 af35 7f26 1337 7b7f 2334 e62c 81b4
000000c0: 9959 b232 c264 4eb4 ccf7 d834 a64b 8719
000000d0: 3a9e 3a33 3f84 6333 e0d9 90b8 127a 7f36
000000e0: e1d3 1937 c3ad c8b3 ed9c 5a37 fcdd a237
000000f0: 9939 3d99 f89e 4435 6a7f cbb5 9589 2539
00000100: d71d 1636 de84 c935 c829 cb33 82d2 8b34
00000110: e59d 4d35 f279 bd99 8a83 5534 a853 16b4
00000120: e781 b238 66cb 7f35 05f9 2a35 965e 6e33
00000130: cad0 b4b3 ff23 4635 7d05 9b99 30b0 fc33
00000140: bc8a c9b2 5f95 aab8 fba2 78b5 9d22 49b5
00000150: 7c8f 50b3 518d 5932 73aa bcb4 75af 8819
00000160: 48af f8b3 cb13 9033 2729 1bb9 d4af 60b6
00000170: ae36 c0b5 e731 13b4 ea61 80b5 8278 fdb5
00000180: 9643 db19 5e75 2ab4 6ab3 f934 8844 0639
00000190: f6f4 4a36 c140 1036 0385 0534 6652 2b35
000001a0: 80c9 f235 f674 fa18 5bcb c533 5245 9db4
000001b0: db19 a8b8 39f2 80b5 7ee5 35b5 93b9 dcb2
000001c0: 6a21 e8b4 b32b e6b4 141b ab19 5cc7 56b3
000001d0: dc90 3134 2ed4 a736 f561 2334 64df 4634
000001e0: 2abd 0232 3326 2db2 3bd4 eb33 279d 8117
000001f0: dfb0 d732 f127 8fb2 d826 0035 57fc 8e32
00000200: f7b4 a832 8e54 6130 672b 8bb0 701b 4632
00000210: 1959 b599 d73c 3331 8e9d ecb0

att_src f4 [1, 1, 5]
-0.1943003 0.31251645 0.5469177 -0.048240304 0.8058455
00000000: a8f6 46be 2802 a03e cc02 0c3f a097 45bd
00000010: e44b 4e3f

att_dst f4 [1, 1, 5]
-0.3960724 0.1994127 -0.51197076 0.26871002 0.8534694
00000000: 00ca cabe d832 4c3e 8410 03bf 5c94 893e
00000010: f87c 5a3f

bias f4 [5]
0.0 0.0 0.0 0.0 0.0
00000000: 0000 0000 0000 0000 0000 0000 0000 0000
00000010: 0000 0000

weight f4 [5, 20]
-0.14473166 -0.082325794 0.4071523 -0.3273741 -0.16042145 0.33314115 0.0027028867 -0.022902207
-0.4072938 -0.18064968 0.4605137 -0.011581001 0.34161866 -0.27751186 -0.37240928 -0.12792572
-0.14100388 0.27082086 0.48028448 0.119644985 0.19515528 -0.092648126 -0.24437869 0.1845462
0.43875468 -0.38437575 0.10516117 -0.32108632 0.03550247 -0.10798713 0.37172213 -0.41723087
-0.0047195978 0.15165108 -0.40138292 0.20824824 0.36547843 0.17391822 0.39081988 -0.33946934
0.3384808 0.43514505 0.027377458 -0.28783622 -0.3180313 -0.44732824 0.18473957 0.41570446
-0.069994114 -0.3774188 -0.41263476 0.30431512 0.35918644 -0.29390794 0.35374463 0.47331437
0.01696946 0.38511112 -0.09599718 0.049535614 -0.34381709 -0.20275025 -0.28349274 -0.4664975
0.05740565 -0.3515084 0.4447771 -0.25545207 0.10499974 -0.43728885 0.47593534 -0.42056483
0.3134844 -0.050520714 0.15224104 0.08526456 -0.2595679 -0.4598318 -0.114754125 0.37531674
-0.13796571 -0.371792 0.1684976 0.43776688 0.3714919 0.44765675 -0.31440124 0.1363798
-0.30073354 -0.18069527 -0.44287392 0.075936675 0.41196287 0.2416931 -0.25420928 0.24133013
-0.38462207 0.23811467 0.07130757 0.4711749
00000000: 8934 14be 6d9a a8bd 4476 d03e 949d a7be
00000010: 8545 24be 7a91 aa3e ea22 313b 699d bbbc
00000020: d088 d0be 3bfc 38be 74c8 eb3e 3dbe 3dbc
00000030: a4e8 ae3e 0916 8ebe 6eac bebe f6fe 02be
00000040: 5263 10be 08a9 8a3e d9e7 f53e 6e08 f53d
00000050: c9d6 473e 4dbe bdbd 683e 7abe aef9 3c3e
00000060: 74a4 e03e e6cc c4be bd5e d73d 6d65 a4be
00000070: 0a6b 113d 5b28 ddbd 5d52 be3e 499f d5be
00000080: dba6 9abb 6c4a 1b3e 1082 cdbe 073f 553e
00000090: fd1f bb3e 9e17 323e 8b19 c83e edce adbe
000000a0: 5b4d ad3e 55cb de3e b146 e03c 455f 93be
000000b0: 00d5 a2be 3508 e5be 5f2c 3d3e 37d7 d43e
000000c0: 1359 8fbd 093d c1be dd44 d3be 31cf 9b3e
000000d0: 49e7 b73e 1a7b 96be 041e b53e 4356 f23e
000000e0: 8903 8b3c 492d c53e 2b9a c4bd dbe5 4a3d
000000f0: cb08 b0be c39d 4fbe f625 91be c3d8 eebe
00000100: 3022 6b3d e9f8 b3be d3b9 e33e 9dca 82be
00000110: 1b0a d73d 53e4 dfbe ccad f33e 4654 d7be
00000120: 0781 a03e cfee 4ebd 13e5 1b3e 309f ae3d
00000130: 15e6 84be 136f ebbe 3604 ebbd 8429 c03e
00000140: e246 0dbe 855b bebe a38a 2c3e fb22 e03e
00000150: 3034 be3e 4433 e53e 33f9 a0be 25a7 0b3e
00000160: bff9 99be 2e08 39be 5fc0 e2be b084 9b3d
00000170: ccec d23e 657e 773e b827 82be 3f1f 773e
00000180: 2fed c4be 55d4 733e b409 923d d63d f13e

weight f4 [5, 20]
-0.09604259 -0.332146 -0.24744079 0.314861 0.16268432 -0.23198143 -0.3237047 -0.005549847
-0.28306335 -0.07238576 0.0027733175 0.32111993 -0.050088406 -0.1345457 0.105249755 0.3556413
-0.018848462 -0.36772102 0.46974128 0.28757957 0.1406436 -0.42503154 -0.3537243 0.20869441
-0.29518512 0.27420002 0.03236596 0.15755898 -0.15920097 -0.23408544 -0.30006495 -0.4233495
-0.11305094 -0.14081551 -0.15911141 0.43227118 0.25332424 -0.40169507 0.071153335 -0.06816852
0.30613464 -0.026056413 -0.037045497 0.02354616 -0.43332613 -0.18302386 -0.33683214 -0.479081
-0.45301908 0.2451834 -0.15058093 0.044156764 -0.24123943 -0.29082066 0.36959964 0.45289883
-0.34315223 -0.06310451 0.12054102 -0.18659315 0.3035506 -0.29657924 -0.21750341 -0.15402377
-0.12975012 -0.43485442 0.35595664 0.02754863 -0.19976027 -0.17959552 0.07507673 0.28418228
-0.43164358 0.39721507 0.3068105 0.3392234 0.45476246 -0.025934298 -0.47006577 0.2797044
0.41732523 -0.37194848 -0.1045851 -0.20880894 0.34212843 0.03931619 -0.45371827 0.0062846406
-0.22854432 -0.021704532 -0.42829025 -0.10754463 0.22120553 -0.23254377 -0.17357637 -0.2586959
-0.15458319 0.4460008 0.2807964 -0.13057894
00000000: fab1 c4bd 0a0f aabe 1e61 7dbe 7635 a13e
00000010: b896 263e 8a8c 6dbe 9fbc a5be 7edb b5bb
00000020: aeed 90be fc3e 94bd 8cc0 353b d569 a43e
00000030: 8029 4dbd 59c6 09be 2f8d d73d 9e16 b63e
00000040: 1768 9abc ee45 bcbe ee81 f03e a13d 933e
00000050: e004 103e bc9d d9be 5a1b b5be fdb3 553e
00000060: 8122 97be f263 8c3e 2b92 043d 2457 213e
00000070: 9405 23be 18b4 6fbe 1da2 99be 44c1 d8be
00000080: 4087 e7bd f131 10be 1aee 22be a652 dd3e
00000090: b7b3 813e faaa cdbe d7b8 913d f09b 8bbd
000000a0: aebd 9c3e 4274 d5bc 05bd 17bd e0e3 c03c
000000b0: ecdc ddbe 9b6a 3bbe 4375 acbe 1b4a f5be
000000c0: 1ef2 e7be 5b11 7b3e e331 1abe b9dd 343d
000000d0: 7807 77be 72e6 94be 2a3c bd3e 5be2 e73e
000000e0: a6b1 afbe f03c 81bd 36de f63d 4612 3fbe
000000f0: fc6a 9b3e 3cd9 97be 37b9 5ebe 68b8 1dbe
00000100: 37dd 04be 3da5 debe f33f b63e aaad e13c
00000110: f58d 4cbe e3e7 37be d4c1 993d 5780 913e
00000120: 6300 ddbe c65f cb3e 4416 9d3e b1ae ad3e
00000130: a0d6 e83e 2a74 d4bc 76ac f0be 6a35 8f3e
00000140: a7ab d53e 0870 bebe b730 d6bd 03d2 55be
00000150: 752b af3e 030a 213d c34d e8be 63ef cd3b
00000160: 8607 6abe b4cd b1bc dc48 dbbe 5c40 dcbd
00000170: b483 623e f41f 6ebe 01be 31be ca73 84be
00000180: 0e4b 1ebe 385a e43e 8cc4 8f3e 7cb6 05be

att_src f4 [1, 1, 10]
0.00018695531 0.00018108245 -0.00018206041 -0.00020486448 0.00018551246 -0.00017558949 0.00022128613 -0.00018179374
-0.0001776211 -0.00018550808
00000000: 6f09 4439 f3e0 3d39 78e7 3eb9 e4d0 56b9
00000010: 1f86 4239 721e 38b9 0b09 6839 e39f 3eb9
00000020: cd3f 3ab9 f284 42b9

att_dst f4 [1, 1, 10]
-1.692759e-24 -1.1222271e-22 -6.4153633e-23 2.23649e-23 -7.0425986e-23 -1.1876171e-22 -5.528471e-23 1.1591913e-22
6.248196e-24 7.901018e-23
00000000: 8cf8 0298 3fab 079b 2d1d 9b9a cf4c d819
00000010: 9347 aa9a f892 0f9b 94ab 859a 3c23 0c1b
00000020: 23b7 f118 ef08 bf1a

bias f4 [10]
-0.00021340245 -0.00020599709 0.00011697983 0.00012649769 -0.00018589328 -0.00014578263 -0.00017296494 0.00011858302
-1.1885391e-05 -1.3955037e-05
00000000: c9c4 5fb9 ec00 58b9 1153 f538 77a4 0439
00000010: 59ec 42b9 3add 18b9 ec5d 35b9 c6af f838
00000020: 5e67 47b7 6d20 6ab7

weight f4 [10, 20]
0.000144986 0.00013212101 0.0001163604 0.00013995261 6.208239e-05 0.00014981367 0.00014125927 0.0001409508
0.00016466276 0.00013791508 8.8768764e-05 0.00014299675 0.00014045878 0.00020012764 0.00014643252 0.00013964958
0.00013817303 0.00016908151 0.00013370263 0.0001407871 0.00014118786 0.00013242807 0.00011613278 0.00013701005
8.175837e-05 0.00015326604 0.00013808536 0.00013783091 0.00015904693 0.00013911947 8.775285e-05 0.00014525169
0.00013742594 0.00021467014 0.00014240763 0.00013676213 0.00013555404 0.00017256475 0.00013418226 0.0001425853
4.480515e-05 2.5502723e-05 0.0001083022 5.838943e-05 -0.00011482301 2.7788865e-06 5.4286356e-05 5.521436e-05
1.9554263e-05 4.2766264e-06 0.00014690224 2.8664351e-06 5.681291e-05 -7.995147e-05 4.1760282e-05 5.9411366e-05
6.480897e-05 4.969922e-06 1.6711687e-05 2.7157648e-06 -2.1367532e-06 -2.0628104e-05 6.565762e-05 1.0112439e-05
-0.000116733 -3.661639e-05 6.3315015e-06 7.1801696e-06 -2.3145869e-05 -3.6778372e-05 0.00012033178 -3.7129284e-05
8.650253e-06 -9.982619e-05 -4.780422e-06 1.1065656e-05 1.6180904e-05 -3.4629822e-05 -2.7930726e-05 -3.748418e-05
0.0001408516 0.00013383194 0.000119665034 0.00013677009 8.290532e-05 0.0001547662 0.00013781979 0.00013757095
0.0001585236 0.00014033835 9.508043e-05 0.00014659639 0.00013717638 0.00020087906 0.00014204522 0.00013652832
0.0001353513 0.00017379217 0.0001354699 0.00014386352 5.410792e-05 5.473068e-05 5.4394823e-05 5.4190827e-05
0.00017270853 5.4690157e-05 5.4160537e-05 5.413746e-05 5.4647302e-05 5.487427e-05 5.4241456e-05 5.4862696e-05
5.421893e-05 5.1906743e-05 5.409045e-05 5.4201188e-05 5.4214826e-05 5.358401e-05 5.476386e-05 5.486988e-05
0.00014143104 0.00013738539 0.00012922661 0.00013726296 8.146523e-05 0.00015711592 0.00013833451 0.0001380803
0.00015954222 0.00014295506 0.00011544147 0.00014905239 0.00013767765 0.00017205512 0.00014265157 0.00013701529
0.00013581388 0.00017584063 0.00013862456 0.00014635673 2.225878e-05 3.214186e-06 8.3289786e-05 3.4607143e-05
-0.00011522503 -1.5452364e-05 3.0845033e-05 3.1693406e-05 -1.123616e-07 -1.4487717e-05 0.00012506494 -1.5575684e-05
3.31583e-05 -8.674738e-05 1.9531304e-05 3.554818e-05 4.0552433e-05 -1.3170714e-05 -4.3091018e-06 -1.5733778e-05
-4.803858e-06 5.4233435e-05 8.797679e-05 -1.19244705e-05 -0.00011323435 3.4124823e-05 -9.937645e-06 -1.0396021e-05
1.3646678e-05 3.975082e-05 0.000100790414 3.6325502e-05 -1.107638e-05 2.2962664e-05 -3.044719e-06 -1.2405436e-05
-1.4843271e-05 2.9503304e-05 4.877678e-05 3.718505e-05 -9.891552e-06 5.1465926e-05 8.6908985e-05 -1.7121578e-05
-0.0001132298 3.057104e-05 -1.5114526e-05 -1.5578365e-05 9.196423e-06 3.640508e-05 0.00010042447 3.2854936e-05
-1.626569e-05 1.7867187e-05 -8.090514e-06 -1.7605931e-05 -2.0054285e-05 2.5755397e-05 4.5778226e-05 3.374626e-05
00000000: 6207 1839 f789 0a39 8406 f438 3ec0 1239
00000010: 3b32 8238 4d17 1d39 ff1e 1439 31cc 1339
00000020: 53a9 2c39 4c9d 1039 5e29 ba38 66f1 1539
00000030: 1e48 1339 5bd9 5139 ae8b 1939 e66e 1239
00000040: 8ae2 1039 794b 3139 8732 0c39 40a0 1339
00000050: d40b 1439 64dc 0a39 508c f338 5baa 0f39
00000060: b175 ab38 0ab6 2039 02cb 1039 b486 1039
00000070: d6c5 2639 99e0 1139 f407 b838 b44e 1839
00000080: ff19 1039 1419 6139 4253 1539 ce67 0f39
00000090: 8323 0e39 7ff2 3439 47b3 0c39 f382 1539
000000a0: 2aed 3b38 aeee d537 4d20 e338 2ce7 7438
000000b0: 22cd f0b8 e87c 3a36 88b1 6338 f895 6738
000000c0: 7608 a437 f17f 8f36 c509 1a39 fb5c 4036
000000d0: 664a 6e38 9eab a7b8 c327 2f38 7830 7938
000000e0: 0dea 8738 4ec3 a636 1330 8c37 7c40 3636
000000f0: 2465 0fb6 840a adb7 abb1 8938 98a8 2937
00000100: 8dce f4b8 8d94 19b8 2f73 d436 30ed f036
00000110: 6029 c2b7 7a42 1ab8 a25a fc38 44bb 1bb8
00000120: 8e20 1137 c759 d1b8 8367 a0b6 a1a6 3937
00000130: 3abc 8737 7d3f 11b8 c74c eab7 5538 1db8
00000140: 90b1 1339 3d55 0c39 adf4 fa38 f169 0f39
00000150: 74dd ad38 bc48 2239 b883 1039 ec40 1039
00000160: 5b39 2639 ca27 1339 eb65 c738 abb7 1939
00000170: 01d7 0f39 10a3 5239 f9f1 1439 0b29 0f39
00000180: 17ed 0d39 fb3b 3639 ed0c 0e39 12da 1639
00000190: f0f1 6238 9f8e 6538 ff25 6438 f54a 6338
000001a0: 1819 3539 1c63 6538 6f2a 6338 a811 6338
000001b0: 1835 6538 cc28 6638 5281 6338 5f1c 6638
000001c0: 2269 6338 71b6 5938 2edf 6238 1556 6338
000001d0: ba64 6338 65bf 6038 3fb2 6538 1624 6638
000001e0: 1b4d 1439 1c0f 1039 0181 0739 3fee 0f39
000001f0: 50d8 aa38 7cbf 2439 e30d 1139 a6c9 1039
00000200: ca4a 2739 35e6 1539 2b19 f238 f24a 1c39
00000210: 905d 1039 b269 3439 bd94 1539 c3ab 0f39
00000220: 4369 0e39 dc61 3839 bf5b 1139 5677 1939
00000230: 5eb8 ba37 4cb3 5736 ddab ae38 2327 1138
00000240: f8a4 f1b8 b39f 81b7 9a5f 0138 89ee 0438
00000250: 714b f1b3 4510 73b7 dd23 0339 87a8 82b7
00000260: 7413 0b38 25ec b5b8 28d7 a337 9119 1538
00000270: d816 2a38 c9f7 5cb7 e796 90b6 08fc 83b7
00000280: d330 a1b6 b578 6338 2e80 b838 360f 48b7
00000290: 3b78 edb8 4021 0f38 dcb9 26b7 926a 2eb7
000002a0: 09f4 6437 1eba 2638 715f d338 365c 1838
000002b0: b1d4 39b7 f29f c037 e053 4cb6 f120 50b7
000002c0: 5d07 79b7 dd7d f737 ab95 4c38 25f7 1b38
000002d0: e4f3 25b7 1edd 5738 e842 b638 4fa0 8fb7
000002e0: c975 edb8 6739 0038 6594 7db7 49ae 82b7
000002f0: 564a 1a37 a8b1 1838 fa9a d238 b8cd 0938
00000300: 4e72 88b7 7ee1 9537 7ebc 07b7 73b0 93b7
00000310: 403a a8b7 4b0d d837 ff01 4038 c58a 0d38
