model/gnn/240927_1/epoch_6.pt (torch, 407095 bytes, 52 tensors)

att_src f4 [1, 1, 20]
000000 9b ff 94 ab 83 9a bd 2b d8 d2 3f 2c 03 c3 19 2b
       -1.0586977e-12 1.3472143e-12 2.7259774e-12 5.462715e-13
000010 0a 73 b4 2b 1a 10 5e 2c 22 25 a5 ab ad 3f 41 2c
       1.2821699e-12 3.1557036e-12 -1.1734262e-12 2.7462297e-12
000020 d1 ff 5c ac c1 9e 70 2c c5 62 ac ab 4a 3e 1e aa
       -3.1405887e-12 3.4194177e-12 -1.2248749e-12 -1.405483e-13
000030 4d 69 13 2c b2 55 9a 2a fe c5 65 2c a3 fc e6 ab
       2.094841e-12 2.7415358e-13 3.2652765e-12 -1.6412604e-12
000040 0c d5 10 ac 1a 94 6a 2c 9f 9b 1e ac 20 d6 34 2c
       -2.0581896e-12 3.3335613e-12 -2.2539538e-12 2.5698402e-12

att_dst f4 [1, 1, 20]
000000 21 15 7d 2c 02 e1 31 2c 15 b2 c6 ab ed 99 78 a9
       3.5965191e-12 2.5278117e-12 -1.4118174e-12 -5.520057e-14
000010 8d cf 6c ac 78 15 0f ac 4e 8d 59 ab 63 9d 2d ac
       -3.365283e-12 -2.033344e-12 -7.7289986e-13 -2.4672146e-12
000020 1b 99 17 2c 25 b1 09 2c 6f 64 96 ab 07 4e 25 ab
       2.1543381e-12 1.9567206e-12 -1.0686017e-12 -5.872806e-13
000030 45 d4 7d 2c 63 7b 81 aa f7 30 5f 2c 27 69 73 2c
       3.6071296e-12 -2.300062e-13 3.1717387e-12 3.4590748e-12
000040 69 59 b8 ab 68 f8 7a ac 61 1b 75 2c f9 47 0d ac
       -1.3098803e-12 -3.566503e-12 3.4831792e-12 -2.0077258e-12

bias f4 [20]
000000 e7 71 28 ac a1 8b 05 ac e3 20 09 ac 97 6b 52 ac
       -2.3937464e-12 -1.8977946e-12 -1.9487127e-12 -2.990252e-12
000010 8f b8 0b ac eb 98 26 ac d2 21 54 ac e8 da 47 ac
       -1.9855539e-12 -2.3674905e-12 -3.0145786e-12 -2.8401118e-12
000020 49 66 f7 ab 5a d0 0a ac 47 5b 04 ac 22 65 11 ac
       -1.7578795e-12 -1.9726638e-12 -1.8808997e-12 -2.066188e-12
000030 15 83 63 ac 4f 0a 2e bc 94 28 27 ac c9 0e 6e ac
       -3.2331405e-12 -0.010622575 -2.3754653e-12 -3.3830042e-12
000040 e5 35 67 ac f6 fd fa ab 13 a0 17 ac 04 7d 1b ac
       -3.2856992e-12 -1.7834057e-12 -2.154725e-12 -2.2096222e-12

weight f4 [20, 163]
000000 e6 27 d1 ab cb 0d d3 aa fe 8f 37 ac fe a7 c4 ab
       -1.4861417e-12 -3.74907e-13 -2.6085796e-12 -1.3973265e-12
000010 e7 86 bd ab fc 7f 38 ac e2 7f f9 ab 26 3b 72 ac
       -1.3466701e-12 -2.6219018e-12 -1.7728009e-12 -3.4423102e-12
000020 ce e9 82 ac 97 f8 10 ac b5 26 81 ac f7 9a e4 ab
       -3.7207798e-12 -2.0601626e-12 -3.670698e-12 -1.6243386e-12
000030 83 38 7c ac cc 8b 4e ac 5c e4 d1 2b 57 f4 81 2c
       -3.5842724e-12 -2.9351964e-12 1.4913726e-12 3.6935277e-12
000040 b9 5a 0b ac d1 91 0f ac 6e b3 1e ac 2b 8a 6c ac
       -1.980345e-12 -2.0402467e-12 -2.2552754e-12 -3.3614316e-12
000050 51 94 03 ac 98 23 65 ac 6b 95 43 ac 39 bd 85 ab
       -1.8698552e-12 -3.2562616e-12 -2.779411e-12 -9.502738e-13
000060 65 35 0c ac c1 ff 65 aa 65 75 9a ac 32 45 9e 2b
       -1.9924837e-12 -2.0428018e-13 -4.3899767e-12 1.1245781e-12
000070 5b 87 84 ac 70 7f f2 ab 2e 7a b9 aa 57 55 54 2c
       -3.766693e-12 -1.7230505e-12 -3.294738e-13 3.0174385e-12
000080 7e b6 63 2c f4 03 f1 ab 7a 3f 20 2b 21 71 bb ab
       3.2359944e-12 -1.7125177e-12 5.693151e-13 -1.3318549e-12
000090 6e 12 12 ac 29 1c db ab 28 20 84 ac a5 45 75 ac
       -2.0758078e-12 -1.5568702e-12 -3.7552357e-12 -3.4855255e-12
0000a0 1f 90 80 ac e4 8b 5e ac a0 36 2b ac bb 48 4a aa
       -3.6539795e-12 -3.1625752e-12 -2.4330885e-12 -1.7966438e-13
0000b0 52 b2 17 ac f8 25 15 ac 7e e2 fb ab d2 f0 68 ac
       -2.1557378e-12 -2.119525e-12 -1.7897487e-12 -3.3102865e-12
0000c0 ca ef 67 ac d7 1f 00 ac 12 a4 17 ac 80 b2 5d ac
       -3.2960184e-12 -1.8207569e-12 -2.1549468e-12 -3.1505076e-12
0000d0 00 38 64 ac de 85 2f ac 40 d3 02 ab e5 ae 1a ac
       -3.2431835e-12 -2.4943307e-12 -4.6478446e-13 -2.1981802e-12
0000e0 ab dd 41 ac 36 f3 04 ac 1f 78 b3 2b 8b d6 fa 29
       -2.755e-12 -1.8893337e-12 1.2752055e-12 1.11394475e-13
0000f0 d8 a0 8e ac 08 92 11 2a 2d e2 47 ab d9 0d 0c ab
       -4.05374e-12 1.2929252e-13 -7.1012884e-13 -4.975721e-13
000100 43 fa 10 2a d8 9f d6 2a 05 55 e8 ab 2c 5b 2b a9
       1.2876596e-13 3.812495e-13 -1.6508189e-12 -3.8048706e-14
000110 18 da 09 ac 03 91 4d ac 76 08 a4 2b 43 46 b8 2a
       -1.9589937e-12 -2.921275e-12 1.1655249e-12 3.273372e-13
000120 42 bb 53 2c 25 26 9b ab 57 aa 1a 2b 4a e4 3e ab
       3.0088852e-12 -1.1024e-12 5.4948185e-13 -6.7818375e-13
000130 79 22 d9 2a 58 d3 8d 2b 6f 23 c5 ab 9d d8 33 ac
       3.8570864e-13 1.0077312e-12 -1.4007527e-12 -2.5557674e-12
000140 39 78 32 ac 6f c4 d3 ab 70 2b c2 ab 4b 64 75 2a
       -2.5362058e-12 -1.5046973e-12 -1.3796585e-12 2.1795167e-13
000150 13 06 d9 ab 66 88 00 2c 00 70 fe aa 87 cb 7b aa
       -1.5420463e-12 1.826561e-12 -4.519718e-13 -2.2363891e-13
000160 b7 62 c0 aa 80 fc 7f ab c0 7b 65 ac 47 3e 54 ac
       -3.4174548e-13 -9.0944613e-13 -3.2611552e-12 -3.0161583e-12
000170 5f 92 4d ac 1b aa 27 ac 99 06 19 2c a8 bb ed ab
       -2.9213504e-12 -2.3826555e-12 2.174627e-12 -1.6891948e-12
000180 7b 53 ee ab f7 4e 99 ab 06 52 a4 ab e3 1c 15 ac
       -1.6934088e-12 -1.0893221e-12 -1.1675667e-12 -2.1190209e-12
000190 5d 43 87 aa ab b3 e7 2b ca 6f 1d ac 46 18 f3 2b
       -2.402756e-13 1.6463405e-12 -2.2373097e-12 1.7272926e-12
0001a0 71 46 89 2a cc 3b 0d ab 41 16 d2 2b 77 b4 59 ab
       2.4384967e-13 -5.017625e-13 1.4927574e-12 -7.734433e-13
0001b0 a6 72 c6 2b 3f 2e 04 ac 27 6f 8a 2b d4 33 33 ab
       1.4100568e-12 -1.8784e-12 9.836341e-13 -6.36655e-13
0001c0 75 d2 08 ac d9 b0 8c 2b 26 dc f3 28 de 3e 6b 2c
       -1.944359e-12 9.996683e-13 2.7073894e-14 3.3430407e-12
0001d0 ed 8f 21 ac a2 8c 96 aa 3d c2 89 ab a2 1c 9d ab
       -2.295937e-12 -2.6742936e-13 -9.788347e-13 -1.1163468e-12
0001e0 8b b1 d9 2a 38 c7 0c ac ae 37 45 ac 3a 68 93 ab
       3.8670139e-13 -2.0005785e-12 -2.8026292e-12 -1.0473907e-12
0001f0 aa be 0d ac 95 5e 17 ac 29 6a 45 ab 8c 43 32 ac
       -2.0143145e-12 -2.1510894e-12 -7.0135786e-13 -2.5332817e-12
000200 6c 66 8e 2c 53 d0 a2 ab 63 f5 fe aa 94 ba 3a ab
       4.047254e-12 -1.1568614e-12 -4.5289735e-13 -6.6339404e-13
000210 4b 7b 91 2b 09 9e 8a ac b6 de 1b ac 70 da 81 ac
       1.033709e-12 -3.9397413e-12 -2.2150454e-12 -3.690652e-12
000220 16 54 08 ac da 4f 4b a9 13 c5 27 ac d7 ac 6f ac
       -1.937344e-12 -4.5144315e-14 -2.3841526e-12 -3.4059888e-12
000230 35 ab 18 ac 0e f5 dc ab ea 6d fc ab b0 59 2c ac
       -2.1695538e-12 -1.5699957e-12 -1.7936184e-12 -2.4492457e-12
000240 09 70 df ab 05 f8 3e ac 2d ce f5 ab 71 3c 95 ab
       -1.5876199e-12 -2.7138302e-12 -1.7465522e-12 -1.0603863e-12
000250 94 09 05 ab 0b 9b ff ab 78 7a 3f aa ff 91 e5 ab
       -4.7264384e-13 -1.8161873e-12 -1.7006698e-13 -1.6311951e-12
000260 96 ad bd ab 30 4e 27 ac 01 d4 1d ac 6f 17 35 ac
       -1.3477437e-12 -2.377553e-12 -2.2428728e-12 -2.5734655e-12
000270 d1 19 1a ab f8 24 0e ac f4 d8 25 ac 36 5b 28 ac
       -5.474762e-13 -2.0199935e-12 -2.3568343e-12 -2.3924868e-12
000280 d8 76 07 ac 1a b0 28 2c e0 c0 fa aa 61 52 81 ab
       -1.9250625e-12 2.3971992e-12 -4.4542755e-13 -9.188866e-13
000290 0d 63 2d ac f9 fe 79 ab 55 31 57 ac a9 0f 86 ac
       -2.4639763e-12 -8.8816416e-13 -3.0580722e-12 -3.8102477e-12
0002a0 21 07 82 ac 50 bb 52 ac 08 9e 20 ac 5d a0 c0 ab
       -3.6956137e-12 -2.9946774e-12 -2.2825093e-12 -1.368693e-12
0002b0 74 20 2e aa 03 29 da ab 2c 40 5f ac ef c5 9a ab
       -1.5465564e-13 -1.5501215e-12 -3.1725829e-12 -1.0997296e-12
0002c0 af 20 41 ac 34 dd 53 ac c8 04 71 ac 21 85 68 ac
       -2.7445093e-12 -3.0107696e-12 -3.4250814e-12 -3.3043084e-12
0002d0 4d 7e 0b ac 5b 54 5e ac 31 82 28 ac 8f 2c 8b ab
       -1.98232e-12 -3.1594924e-12 -2.3946507e-12 -9.888912e-13
0002e0 dc 1f 85 ab 18 3c 8d ab 7e 97 96 aa 75 31 4b ac
       -9.459061e-13 -1.0035332e-12 -2.6750471e-13 -2.887549e-12
0002f0 3c b1 ea 2a 01 0d 6f ab a5 3e 4b 2a 35 6a 7c a9
       4.168973e-13 -8.4927903e-13 1.8051756e-13 -5.604736e-14
000300 b8 4f 92 ac 5e 2b a1 ab 1c c9 4b ac 33 25 a9 ab
       -4.15842e-12 -1.1451775e-12 -2.8959673e-12 -1.2018497e-12
000310 9a c9 dc 2b 4a e3 af ab 6b 71 3f ac bf d0 3f ac
       1.5687896e-12 -1.2497583e-12 -2.7205692e-12 -2.725861e-12
000320 26 92 8a ab 95 fc 80 ab 95 97 d8 ab 25 76 07 ac
       -9.846054e-13 -9.165053e-13 -1.5389796e-12 -1.9250237e-12
000330 e3 6f cf ab d7 ba 38 ac 15 47 d1 ab fa b3 4e ac
       -1.4739289e-12 -2.625169e-12 -1.4870072e-12 -2.9374268e-12
000340 ff 58 29 ac 17 b9 05 ac b3 0b 11 ac b2 d7 35 ac
       -2.4065747e-12 -1.9003182e-12 -2.0612234e-12 -2.5841382e-12
000350 80 37 10 ac 2d b8 df ab 79 70 52 ac 7c f0 97 ab
       -2.049444e-12 -1.5896222e-12 -2.990523e-12 -1.0795943e-12
000360 b7 90 d3 ab 78 84 17 2b 7a c4 a0 aa 0b 92 a5 ab
       -1.5032618e-12 5.3829814e-13 -2.8558042e-13 -1.176449e-12
000370 a6 a2 15 ac a1 19 2e ab 5e 0f 26 ac b5 3f 5b ac
       -2.1264462e-12 -6.1852785e-13 -2.359855e-12 -3.1157136e-12
000380 dc 14 b1 2b ba 6d ea ab dc 69 96 ac d4 d4 c5 aa
       1.2582396e-12 -1.6657155e-12 -4.275009e-12 -3.514191e-13
000390 e0 7a 7e ac 27 c7 7b ab 72 32 13 ac 5c 87 21 2c
       -3.616378e-12 -8.9449493e-13 -2.091796e-12 2.2954616e-12
0003a0 9a 5a ca ab 8b 46 ff 28 f9 ba 9a ab 9d 23 0b ac
       -1.437811e-12 2.834128e-14 -1.0994253e-12 -1.9772857e-12
0003b0 93 72 f1 ab 87 2a a9 2a 48 0f 03 ac 49 94 00 2a
       -1.7155881e-12 3.004994e-13 -1.8624702e-12 1.142013e-13
0003c0 aa 9b a2 ab f2 8a 52 aa 7b 3b 27 ac c0 c3 08 ac
       -1.1553998e-12 -1.8699953e-13 -2.3765146e-12 -1.9435425e-12
0003d0 0c 6d cd ab ba 9c 1a ac 8f dd 40 ab 87 24 21 2c
       -1.4596393e-12 -2.1971717e-12 -6.8519577e-13 2.2899753e-12
0003e0 1c 13 ec ab c6 da 85 2a 8e 82 da 2a 9d 80 47 2b
       -1.6774112e-12 2.377735e-13 3.881517e-13 7.087749e-13
0003f0 63 cf 37 2b 16 a6 e2 ab 2e f7 2b ac 95 ee ab ab
       6.5302467e-13 -1.6104364e-12 -2.4437774e-12 -1.2216501e-12

weight f4 [20, 163]
000000 69 50 01 ab 59 c8 5e 2a b6 6e 03 ab 4d 6f bd 2a
       -4.59416e-13 1.978707e-13 -4.669419e-13 3.3650375e-13
000010 f4 e9 4b aa 3f c0 21 aa 9c f2 21 ab 6c 05 a9 ab
       -1.8111191e-13 -1.4366371e-13 -5.753538e-13 -1.2009677e-12
000020 26 cc 24 ab 92 b4 54 aa ce fc a9 2a 83 45 16 aa
       -5.8547817e-13 -1.889203e-13 3.019585e-13 -1.3346793e-13
000030 0e c1 3c 2b ad c6 e5 2a 50 c8 82 2b 11 d7 6c a9
       6.7058934e-13 4.081643e-13 9.292653e-13 -5.2589067e-14
000040 28 c6 03 ab d6 e0 a8 a9 48 22 cf a9 a4 c5 7b 2a
       -4.6815546e-13 -7.4997015e-14 -9.1985935e-14 2.2361849e-13
000050 d0 e5 6d 2a 80 69 3e ab 0e 5d b0 2b b6 6f 76 2b
       2.1129561e-13 -6.764797e-13 1.253138e-12 8.7551787e-13
000060 57 64 82 2a 02 9e 1c ab 22 de 84 2b 67 7f 3b 29
       2.3162264e-13 -5.5641613e-13 9.440818e-13 4.1632845e-14
000070 08 3c 24 ab 10 d2 2b ab 6d 67 09 2b a5 f4 e2 aa
       -5.8347814e-13 -6.1042924e-13 4.881571e-13 -4.031542e-13
000080 f3 20 6c 2a 7f 8d d0 aa 87 ba 53 2b 27 fb 94 2b
       2.0972442e-13 -3.7046405e-13 7.522112e-13 1.0585741e-12
000090 a3 c1 90 2b b1 49 05 ab f7 d2 8c ab ad 37 5b 2b
       1.028556e-12 -4.735336e-13 -1.0006153e-12 7.7881695e-13
0000a0 1b 81 c3 aa fc ee b0 aa 0e d4 66 2b 71 3f 4a ab
       -3.4728543e-13 -3.142971e-13 8.20067e-13 -7.185286e-13
0000b0 c5 d5 9a 2b 77 90 83 29 c0 a8 0c 2b 12 23 7a ab
       1.1001691e-12 5.842629e-14 4.997218e-13 -8.886651e-13
0000c0 30 c0 97 ab 20 97 01 ab a6 71 a9 2b b7 be 91 2b
       -1.0782538e-12 -4.6039735e-13 1.2039716e-12 1.0355804e-12
0000d0 36 80 1d ab 05 fb ce aa 89 3a 18 2b 12 3e 39 ab
       -5.5955533e-13 -3.676713e-13 5.408248e-13 -6.5811343e-13
0000e0 b9 dd 2f 2a bc 28 0b 2b f9 d4 8e ab 2c c4 97 ab
       1.5620048e-13 4.943925e-13 -1.0148819e-12 -1.0783644e-12
0000f0 4e f9 7f ab f5 99 bc aa 7b 69 e2 2a 09 d2 92 ab
       -9.094018e-13 -3.3502338e-13 4.0218856e-13 -1.043222e-12
000100 b1 24 fb 29 2a 1b ad ab 11 cd 0e ab 73 7e 6e ab
       1.1153004e-13 -1.2299929e-12 -5.073312e-13 -8.473007e-13
000110 ee 5a 2b 2b 92 25 cc 2a 9a 9e 8f aa 42 fa 39 2b
       6.0877594e-13 3.626375e-13 -2.5511955e-13 6.6072506e-13
000120 86 90 4f ab f0 11 ea 28 96 45 4b aa ce 60 41 aa
       -7.374174e-13 2.5986998e-14 -1.8054164e-13 -1.717543e-13
000130 d3 1e 39 ab 63 c8 a9 2a dc 4f 00 ab 91 03 9d ab
       -6.576798e-13 3.0159477e-13 -4.558556e-13 -1.1156511e-12
000140 7a 92 95 2b 2c de 1b 2b 88 1f a6 2b e6 41 9b ab
       1.0627742e-12 5.537539e-13 1.1803761e-12 -1.1031703e-12
000150 2b 87 ef 29 ef d7 7e 2b c2 58 91 ab 97 fa 9a 2b
       1.063718e-13 9.0538596e-13 -1.0327505e-12 1.1011911e-12
000160 02 2c d8 aa ca 75 a3 2b 38 2a 28 ab 82 db 69 ab
       -3.8399844e-13 1.161454e-12 -5.974418e-13 -8.3082857e-13
000170 eb 18 ea aa a0 a5 3b 2b 7a ca 71 aa b5 88 72 2b
       -4.158404e-13 6.6665597e-13 -2.1475348e-13 8.616539e-13
000180 74 d2 4b 2b 11 3b 92 ab dc fd 86 aa 09 65 59 ab
       7.241215e-13 -1.0390318e-12 -2.3979332e-13 -7.72341e-13
000190 50 1d 7d ab ad bd ab 2b 33 5d a2 2a 14 4f 87 2b
       -8.9924335e-13 1.2202926e-12 2.884165e-13 9.614276e-13
0001a0 3a dc b1 2b ad 26 6e aa d1 09 87 ab 31 fb a8 ab
       1.2637732e-12 -2.1152065e-13 -9.595052e-13 -1.2006838e-12
0001b0 bb 93 ca aa a2 3d 2f 29 be 62 9f 2b 1d d8 4b 2b
       -3.5984917e-13 3.8911264e-14 1.1325036e-12 7.2420005e-13
0001c0 6e 24 9f 2b f1 d9 9e 2b 7c d8 1c 2b 40 29 6a 2b
       1.1307741e-12 1.1287066e-12 5.5722766e-13 8.3190746e-13
0001d0 b8 fe 9e 2b e4 c6 c8 28 50 d0 ac aa 07 5c 86 ab
       1.1297274e-12 2.2290716e-14 -3.0697883e-13 -9.546815e-13
0001e0 9d d5 2b ab 30 92 83 aa 6e 51 a1 2b 40 bd d8 2a
       -6.104785e-13 -2.3371713e-13 1.1462339e-12 3.8500626e-13
0001f0 b5 84 aa aa a5 05 13 ab 59 1b d2 29 90 b0 0b ab
       -3.029015e-13 -5.2232724e-13 9.3306175e-14 -4.962775e-13
000200 54 b8 ff 2a 5e 8d ed 29 08 bd b6 2a 38 4c 16 ab
       4.5425003e-13 1.05494376e-13 3.246086e-13 -5.339648e-13
000210 e3 86 8a 27 de 8d 5b 2b 0b da 1a 2b a2 2c 74 ab
       3.844894e-15 7.800131e-13 5.5014386e-13 -8.6748154e-13
000220 74 61 7d ab 05 ff ca 2a 58 54 8b ab 04 45 1e 2b
       -9.00189e-13 3.6059364e-13 -9.899954e-13 5.6228655e-13
000230 aa 53 22 ab 86 3e f1 2a 9f 0a ce a8 84 e1 89 ab
       -5.767007e-13 4.2853584e-13 -2.28752e-14 -9.797029e-13
000240 5e 96 3c 2a 78 ee a3 2a bd 2f 53 2b e0 b2 f7 aa
       1.6749923e-13 2.9120087e-13 7.502851e-13 -4.4000133e-13
000250 ca 4a b1 2a 0c 10 3f 2b 0d 16 35 a9 1a 9e a5 ab
       3.1493411e-13 6.78791e-13 -4.02092e-14 -1.1767837e-12
000260 64 1e 12 2b a1 db 82 2b ae db 9c ab 82 55 91 2b
       5.1911795e-13 9.298015e-13 -1.114544e-12 1.0326603e-12
000270 80 89 08 ab 95 5f 41 a7 47 f4 a4 ab ec 44 da aa
       -4.8507726e-13 -2.6835946e-15 -1.1720701e-12 -3.8772403e-13
000280 06 8a da aa 72 44 8e 2a 9b 32 84 27 e5 dd fe 29
       -3.8820352e-13 2.527176e-13 3.6692226e-15 1.13183585e-13
000290 17 6e ad aa 3e 33 1f 2a 7b b8 17 ab 79 78 8f a9
       -3.0807363e-13 1.4139815e-13 -5.3901995e-13 -6.3713744e-14
0002a0 ff 98 9f 2a bb 0f a5 2b 88 4c 10 ab b7 e1 87 aa
       2.8350236e-13 1.1728321e-12 -5.1265285e-13 -2.4137438e-13
0002b0 ec 65 55 2b be a5 97 29 d6 7c 85 a9 64 4b 8e aa
       7.5814246e-13 6.734499e-14 -5.928042e-14 -2.527658e-13
0002c0 a8 cb a7 aa f1 93 a1 ab 27 1a 7f 29 21 85 88 ab
       -2.9806474e-13 -1.14808e-12 5.6644058e-14 -9.700332e-13
0002d0 87 8c 98 2b 17 03 12 ab 56 18 7c 2b c3 d5 31 ab
       1.0839254e-12 -5.187391e-13 8.956216e-13 -6.3179686e-13
0002e0 4e 76 fa 2a b8 d6 95 2b 92 8d 80 aa c9 d8 da aa
       4.449101e-13 1.0646683e-12 -2.2835602e-13 -3.8875004e-13
0002f0 14 eb 2a ab 20 70 49 ab a1 4b 2d 2b 20 31 74 2a
       -6.072237e-13 -7.156515e-13 6.1566903e-13 2.1688597e-13
000300 52 ce 70 2b d9 f1 8e aa b0 7e e6 2a dd 45 50 ab
       8.5551455e-13 -2.5392083e-13 4.0944114e-13 -7.39934e-13
000310 cf d9 d0 a9 c4 4f 79 ab a5 cf 8c ab cc 06 90 ab
       -9.274839e-14 -8.857327e-13 -1.0005231e-12 -1.0233702e-12
000320 56 57 71 ab ec 71 41 2b 98 81 11 ab 26 26 ab aa
       -8.57416e-13 6.872547e-13 -5.1694196e-13 -3.0402173e-13
000330 e8 40 d6 aa 0b c8 83 ab 60 36 eb 2a 7b e4 0b 2b
       -3.8059074e-13 -9.363633e-13 4.1782116e-13 4.96998e-13
000340 18 13 3f 2b db ef 71 2b 13 23 67 ab 61 cd 5e ab
       6.788333e-13 8.5953266e-13 -8.211636e-13 -7.9155264e-13
000350 11 46 81 2b e5 64 9a aa 0c 18 93 2b b1 cb a4 2b
       9.185449e-13 -2.7425905e-13 1.0451653e-12 1.1709437e-12
000360 a5 af 91 2b 15 c0 80 ab 3e b3 a2 a9 6c 2a 94 2b
       1.0351621e-12 -9.14826e-13 -7.225339e-14 1.0527807e-12
000370 f3 05 83 2b 55 f7 a0 2b 52 b7 04 ab 65 d9 6d aa
       9.309761e-13 1.1437332e-12 -4.715023e-13 -2.1125252e-13
000380 3e f6 ae aa f0 55 4d aa d7 b0 0c 2b 82 97 9b aa
       -3.1079474e-13 -1.8237473e-13 4.9983406e-13 -2.763866e-13
000390 93 3b 85 2b c3 47 04 a8 4e 94 4d a9 a4 09 ad 2a
       9.466754e-13 -7.343033e-15 -4.5647778e-14 3.0737663e-13
0003a0 ca de a4 ab 38 06 93 2a dd 8a 92 2b e7 1e b1 ab
       -1.1714737e-12 2.611676e-13 1.0412466e-12 -1.2585184e-12
0003b0 27 c2 8f 2b 0a 21 80 2b e6 15 9d 2a c3 56 85 2a
       1.0214649e-12 9.104117e-13 2.7903997e-13 2.368575e-13
0003c0 63 4b e5 aa 81 42 2b ab 3b bf 13 27 92 62 42 2b
       -4.0730882e-13 -6.0843697e-13 2.0504014e-15 6.905944e-13
0003d0 19 f3 28 aa bc 63 ac ab 7e dd 7f 2b 36 97 e2 2a
       -1.5005739e-13 -1.2249017e-12 9.090158e-13 4.0250588e-13
0003e0 45 5a 1e ab df 5f 5f 27 34 5d 8b ab 54 bd f6 a8
       -5.625815e-13 3.0999439e-15 -9.902413e-13 -2.7393594e-14
0003f0 55 04 86 2b 27 42 ae 2b 66 7e 72 2b b3 87 50 2b
       9.522475e-13 1.2381805e-12 8.6151084e-13 7.4084765e-13

att_src f4 [1, 1, 15]
000000 ad e6 0e 2c 23 c6 53 2a e3 cf 44 2c df 6e 92 ab
       2.0307464e-12 1.8809307e-13 2.7968676e-12 -1.0404697e-12
000010 43 81 5e ac 1c 5c d3 2c d2 a9 85 ab 63 40 cd 2a
       -3.1619852e-12 6.007207e-12 -9.497353e-13 3.6459992e-13
000020 89 96 bf 2b ca ba 8f 2b 69 aa 74 ab 5e 65 bd 2c
       1.3613148e-12 1.0212606e-12 -8.6922705e-13 5.382957e-12
000030 53 bd 92 ab 86 fe d6 2c 0c 4a 62 ac
       -1.0426472e-12 6.1105036e-12 -3.2157636e-12

att_dst f4 [1, 1, 15]
000000 34 37 c6 ab e7 be b2 aa fd 43 fd 2b aa ad 91 ab
       -1.4084068e-12 -3.1751617e-13 1.7995602e-12 -1.0351071e-12
000010 82 42 d0 2b 00 f9 b9 2b 82 c4 86 2b c9 1a 76 2c
       1.4797749e-12 1.3214152e-12 9.575815e-13 3.4973571e-12
000020 73 a5 0a 2b cb ca 55 2c bd af a7 ab 40 9e 8e ac
       4.9257056e-13 3.0381693e-12 -1.1914841e-12 -4.053452e-12
000030 ec bb 27 2c e6 8b 07 2c eb 8f 7e 2c
       2.3836445e-12 1.9262313e-12 3.6175461e-12

bias f4 [15]
000000 a8 90 18 ac 4f 42 11 2c 97 15 19 2c 8d f1 0f ac
       -2.16808e-12 2.0642548e-12 2.1754592e-12 -2.045561e-12
000010 81 76 0f ac 07 73 13 2c 7d 93 00 2c 3f ad 18 2c
       -2.0387305e-12 2.095381e-12 1.8271766e-12 2.169667e-12
000020 cc 78 2b 2c 74 9e 17 ac 08 cf 1e ac 89 c5 12 2c
       2.4367617e-12 -2.154635e-12 -2.2568076e-12 2.0857502e-12
000030 ad 97 30 ac 3a 33 06 2c 17 c8 18 ac
       -2.5095301e-12 1.9070982e-12 -2.1711571e-12

weight f4 [15, 163]
000000 ac 87 47 ac 10 bc 40 ac 5c c2 bd ab 18 1e 20 ac
       -2.8354914e-12 -2.7389237e-12 -1.3483203e-12 -2.2754073e-12
000010 c2 56 3d ac 88 17 aa ab 69 86 3e ac 83 b8 22 ac
       -2.6906676e-12 -1.2085758e-12 -2.7075237e-12 -2.312401e-12
000020 ac 14 65 ac 1c 2a 78 ac f4 bb 5f ac 71 b6 4b ac
       -3.2554332e-12 -3.5266295e-12 -3.179454e-12 -2.894931e-12
000030 e0 1a 98 ac 6e 13 96 ac 3f b0 85 ac 4b d6 59 ac
       -4.3230836e-12 -4.2654135e-12 -3.7996546e-12 -3.0956511e-12
000040 fe 57 3b ac 85 8f 66 ac 9a 9c c5 ab 1f d2 cc ab
       -2.6623144e-12 -3.2764635e-12 -1.4041158e-12 -1.4553392e-12
000050 1d 81 22 ac 78 b0 75 ac ec 89 62 ac e6 fc 3b ac
       -2.3093257e-12 -3.4914554e-12 -3.2193094e-12 -2.6714685e-12
000060 9c 9a 72 ac f1 4b b3 2b 4a 46 37 ac 32 3a 6a aa
       -3.4476094e-12 1.2739793e-12 -2.6044882e-12 -2.0803566e-13
000070 85 d3 61 ac f5 ab 03 ac bb c0 2f ac d6 ab 2b ac
       -3.209184e-12 -1.8711675e-12 -2.4975983e-12 -2.439595e-12
000080 b7 54 e1 ab 36 b8 27 ac 57 da 45 ac c9 a0 7a ac
       -1.6010725e-12 -2.3834385e-12 -2.8116587e-12 -3.561639e-12
000090 a0 c7 16 ac 6d 7c c3 ab 29 e1 c0 ab e2 65 6e ac
       -2.1427096e-12 -1.3890118e-12 -1.3704915e-12 -3.387839e-12
0000a0 a3 ce 5a ac f9 e8 41 ac c0 81 80 ac 81 40 62 ac
       -3.109437e-12 -2.7556275e-12 -3.652384e-12 -3.2152339e-12
0000b0 6b 5d 6e ac 3d 88 5b ac fb 98 89 ac aa 9c 71 ac
       -3.3873692e-12 -3.11974e-12 -3.9107584e-12 -3.4335126e-12
0000c0 92 c6 24 ac 20 9c 62 ac e3 c5 2d ac 0d 92 d6 ab
       -2.341603e-12 -3.2203198e-12 -2.4694628e-12 -1.5246152e-12
0000d0 25 33 04 ac 68 cc 34 ac b2 48 62 ab 98 ff 18 ac
       -1.878672e-12 -2.5693007e-12 -8.0392214e-13 -2.1742382e-12
0000e0 bf 95 0c ac f9 ab 79 ac ba 40 31 ac ad 69 71 ac
       -1.9978322e-12 -3.5480492e-12 -2.5189143e-12 -3.4306822e-12
0000f0 ad 2f 1e ac 87 c8 d8 2a 52 fb e8 ab b0 b0 71 ac
       -2.2479616e-12 3.8508452e-13 -1.6554347e-12 -3.4346241e-12
000100 2a 49 83 2b ae 53 d9 ab 9d 83 0d ac 4e ff 0d ac
       9.328417e-13 -1.5442003e-12 -2.0110365e-12 -2.0179028e-12
000110 8a c7 f3 ab 6c ba 57 ac 27 3c 89 2b 61 75 3a 2b
       -1.7321572e-12 -3.0656823e-12 9.751131e-13 6.624337e-13
000120 db e0 98 2b 9a 9b 75 ac 97 5a 31 2b 9a 7f 55 2b
       1.086266e-12 -3.490297e-12 6.300875e-13 7.5849884e-13
000130 d6 14 a7 2b 84 8d 89 2b 56 b6 66 ac d8 d2 5c ac
       1.1871847e-12 9.773714e-13 -3.2786183e-12 -3.1380922e-12
000140 f7 15 5d ac d6 82 87 ac 07 06 82 ac 29 65 5c ab
       -3.1418182e-12 -3.8514565e-12 -3.6954914e-12 -7.830009e-13
000150 ab ae 25 ac bf a8 90 ab b3 a4 82 ac 52 46 3a ab
       -2.354487e-12 -1.0278652e-12 -3.7131075e-12 -6.6178063e-13
000160 48 dd 21 aa 1b 26 31 ab 09 54 7c ac f2 9b 2d ac
       -1.4376445e-13 -6.2935914e-13 -3.5858003e-12 -2.4671346e-12
000170 f3 5f d3 ab af 15 56 ac 6c 35 39 ac 41 52 48 ac
       -1.5019083e-12 -3.0423266e-12 -2.6319736e-12 -2.846737e-12
000180 72 a2 87 ac 0d 7d 07 ab 44 f3 0c ac c3 ac ae ab
       -3.854966e-12 -4.813518e-13 -2.0030236e-12 -1.2411395e-12
000190 73 55 77 ac 73 a3 75 ac a3 a2 6f ac 73 ec 1b ac
       -3.5148245e-12 -3.4907327e-12 -3.4054224e-12 -2.215808e-12
0001a0 3a 16 45 2b 2c 16 e0 ab 8d 9e 6e ac 4b df 87 ab
       7.0019305e-13 -1.5922311e-12 -3.3909848e-12 -9.654303e-13
0001b0 5a 13 e4 ab 4e 1e 28 ac 9d 92 05 ab a9 de 01 ac
       -1.6205746e-12 -2.3891058e-12 -4.745456e-13 -1.8455604e-12
0001c0 96 22 da ab 41 0c 96 ab 24 6f 7a 2b 91 d9 21 2c
       -1.5499431e-12 -1.0661542e-12 8.897208e-13 2.300025e-12
0001d0 e2 1a 58 ab d5 20 a4 a8 5d 10 b3 ab 96 e5 9a 27
       -7.6775923e-13 -1.8221896e-14 -1.2723257e-12 4.2992504e-15
0001e0 1f 39 7c 2a 38 8e e9 ab 70 84 79 ac 24 0a 61 ac
       2.2401914e-13 -1.6595119e-12 -3.5458546e-12 -3.1980052e-12
0001f0 79 31 00 ac 95 d8 3e ac 11 90 7c ab 6a b1 98 2a
       -1.8217357e-12 -2.7120851e-12 -8.9728317e-13 2.712373e-13
000200 a9 a6 34 ab f1 4f 7b ac 5c 73 25 ab 9f f5 b9 29
       -6.4180134e-13 -3.5713622e-12 -5.877987e-13 8.258259e-14
000210 61 fa b5 2a 58 c3 02 ac 75 40 6a ac 3a 16 38 ac
       3.2325794e-13 -1.8582549e-12 -3.328918e-12 -2.616031e-12
000220 ca 4a 27 ac 0b 6b 53 aa 76 06 44 ac 1c 13 02 ac
       -2.3773644e-12 -1.8777703e-13 -2.7856862e-12 -1.848472e-12
000230 56 b6 17 ac d1 e4 53 ac 5a e6 ff ab a3 2e ab ab
       -2.1559607e-12 -3.0111922e-12 -1.8182775e-12 -1.2163225e-12
000240 ff fa 35 ac c7 4a e1 ab d3 22 71 ac cd c2 1f ac
       -2.5860978e-12 -1.6007966e-12 -3.4267491e-12 -2.2703395e-12
000250 a1 7b 56 ac 0a 90 1b ac dc 38 5c ac 60 ab 44 ac
       -3.0479857e-12 -2.2106783e-12 -3.1295444e-12 -2.7948407e-12
000260 e0 98 73 ac ac 09 a8 ab d7 b0 32 ac 8d c6 33 ac
       -3.461724e-12 -1.1939802e-12 -2.5393487e-12 -2.5547648e-12
000270 86 2a 6d ac 98 26 2d ac e3 8e 55 ac 14 71 e0 ab
       -3.370333e-12 -2.4606202e-12 -3.0348439e-12 -1.5947543e-12
000280 ee 8e 38 ac af 28 59 ac e5 9a 6e ac 37 93 56 2c
       -2.6227315e-12 -3.0860139e-12 -3.3907818e-12 3.049295e-12
000290 97 a2 7c 2c a1 97 e6 2b af c2 42 2c db d0 08 2c
       3.590161e-12 1.6384568e-12 2.767713e-12 1.94427e-12
0002a0 0d 51 0e 2c 37 c6 2e 2c e5 3a 1e 2c 1b fd 19 2c
       2.0224406e-12 2.4836919e-12 2.2485843e-12 2.188311e-12
0002b0 eb bb 9e 2b ad d0 62 2c a3 95 38 2c af e6 48 2c
       1.1278733e-12 3.223237e-12 2.6231038e-12 2.8549765e-12
0002c0 82 62 55 2c 86 2c 21 2c f8 ce 1d 2c f2 f1 82 2c
       3.0323803e-12 2.2904192e-12 2.2425933e-12 3.7216836e-12
0002d0 74 99 60 2c 62 27 75 2c a0 d3 24 2c bb dd 07 2c
       3.1917498e-12 3.4838456e-12 2.3423277e-12 1.930774e-12
0002e0 ce 07 18 2c 31 27 cb 2b 96 e4 46 2c a7 73 07 2c
       2.1604832e-12 1.4434895e-12 2.8264383e-12 1.9248854e-12
0002f0 11 2d 28 ab 56 7b 1a 2c c8 98 b3 2b 4a 18 15 2c
       -5.974813e-13 2.1953181e-12 1.276112e-12 2.1187657e-12
000300 df 35 61 2c d1 6a 05 2c 21 59 18 2c 20 13 6b 2c
       3.2004328e-12 1.8959732e-12 2.1649976e-12 3.3406125e-12
000310 86 8a 61 2c 0d 52 b6 2b eb 7f 10 2c a1 84 3e 2c
       3.205132e-12 1.2954651e-12 2.053464e-12 2.7074248e-12
000320 41 21 5b 2c c7 01 7f 2c 6c 57 a0 2b cb 78 2e 2c
       3.1140231e-12 3.6238666e-12 1.1392948e-12 2.479394e-12
000330 79 2b 94 2c 73 aa 07 2c 95 84 2b 2c 0a 8b 88 2c
       4.2112394e-12 1.9279272e-12 2.437416e-12 3.880789e-12
000340 f5 bc 13 2c 13 01 71 2c 19 60 ad 2b 9e 09 7b 2c
       2.0994849e-12 3.4248756e-12 1.2319062e-12 3.5674584e-12
000350 97 6d 4f 2c c4 f3 47 2c 0a c4 2f 2c 9b fe 3e 2c
       2.9477304e-12 2.8414918e-12 2.497782e-12 2.7141958e-12
000360 be aa 8d 2c f9 92 94 2a 77 34 34 2c cc 61 82 2c
       4.0264172e-12 2.6392064e-13 2.5608662e-12 3.70568e-12
000370 83 c9 15 2c 47 7e 39 2c b6 6c f1 2b ff 9b 89 2c
       2.1286035e-12 2.636018e-12 1.7154253e-12 3.9110932e-12
000380 25 ff 3a 2b 72 75 47 2c ae 74 69 2c 40 82 33 2a
       6.643456e-13 2.8344796e-12 3.3176062e-12 1.5943583e-13
000390 4e 49 0b 2c 15 76 50 2c e9 3c bb 2b 19 4a 15 2c
       1.979378e-12 2.9624127e-12 1.3304055e-12 2.1215306e-12
0003a0 ef c9 1b 2c 3d 1a a5 ab f0 8e 23 2a f6 43 0e ac
       2.213892e-12 -1.1731238e-12 1.45269e-13 -2.021714e-12
0003b0 9a a2 83 2c 65 1a 3a ab 30 cf 52 ab 01 90 29 aa
       3.7412963e-12 -6.6117104e-13 -7.489452e-13 -1.5060177e-13
0003c0 86 a8 0a ab b6 03 69 2c 23 88 85 2c 23 97 63 2c
       -4.926132e-13 3.3113351e-12 3.7952016e-12 3.2342538e-12
0003d0 ec 6b 35 2c 98 ce 3e 2c 2b 7e b4 29 de 65 24 2c
       2.5781556e-12 2.7115307e-12 8.0154924e-14 2.336235e-12
0003e0 74 63 50 2c e0 20 77 2c fc 61 b7 2a 5f dc e1 2a
       2.9613785e-12 3.511906e-12 3.257532e-13 4.0120942e-13
0003f0 c1 77 ff 2a 49 66 56 2c 05 d7 78 2c 2e b2 47 2c
       4.5380195e-13 3.0468009e-12 3.536228e-12 2.837851e-12

weight f4 [15, 9]
000000 68 4d 89 ab 83 4c 51 2c 41 29 28 ac 73 f8 15 2c
       -9.75592e-13 2.9743159e-12 -2.3897136e-12 2.131209e-12
000010 61 b7 a3 ab 3d 02 ea 2b e2 aa 75 ac 7c dd 47 ac
       -1.1632744e-12 1.6627321e-12 -3.4911453e-12 -2.840255e-12
000020 f4 0e a3 2a 4c dc 50 2c e9 1c 99 ab f0 da 6a 2c
       2.8964992e-13 2.9680867e-12 -1.0879328e-12 3.3374935e-12
000030 c9 d4 bb ab 93 0e 4b ab 28 1c 34 2c 5a c0 39 ac
       -1.3346209e-12 -7.2140313e-13 2.5595168e-12 -2.6396858e-12
000040 1c f2 36 ac fb 20 08 ac 1d 61 b8 2b 6f 36 dd 2b
       -2.5998153e-12 -1.934507e-12 1.3100941e-12 1.5718103e-12
000050 cf b5 51 2c b0 a9 a4 ab 2b e3 36 ac 54 e3 0a ac
       2.980161e-12 -1.1699999e-12 -2.598986e-12 -1.9737172e-12
000060 5a 20 0c 2b 3b c9 56 ac e4 34 21 ac be 5b 1b 2c
       4.978289e-13 -3.0522934e-12 -2.2908836e-12 2.2077752e-12
000070 57 be 5a ac 52 37 0c ac f4 e9 4b ac 5a db 1a ac
       -3.1085323e-12 -1.9925906e-12 -2.8977905e-12 -2.200648e-12
000080 5b cb 5d ac 16 79 04 ac 74 45 f8 ab c3 a1 2b aa
       -3.1518874e-12 -1.8825544e-12 -1.7640737e-12 -1.5243973e-13
000090 9f 80 41 ab 22 e1 3a 2c 94 7a 57 ac f0 4e b0 ab
       -6.874587e-13 2.6557164e-12 -3.0621382e-12 -1.2527462e-12
0000a0 89 ed cc ab 42 7e 23 ab 04 6c 5e ac 1e 89 ee 2b
       -1.4561001e-12 -5.808445e-13 -3.1608058e-12 1.6948975e-12
0000b0 d6 13 2c ab 02 94 e3 2b 6a e7 1d ac 7a 81 a1 2b
       -6.1134203e-13 1.61704e-12 -2.2439503e-12 1.1475675e-12
0000c0 ff 72 5f 2c 8a d8 67 ac 0a 84 50 2b c7 ae b1 2b
       3.1754042e-12 -3.2947278e-12 7.4079686e-13 1.2625117e-12
0000d0 45 46 28 2c bd 71 39 2c e6 d2 b5 aa ab 76 b4 2b
       2.3913243e-12 2.6353219e-12 -3.22984e-13 1.2822706e-12
0000e0 d1 36 50 ab b3 27 f1 2a a3 7c 39 2c ee 21 a9 2b
       -7.397252e-13 4.2837747e-13 2.6359269e-12 1.201759e-12
0000f0 15 93 6d 2c 9e a1 77 2b 8f 90 89 2b 6e 58 f8 2a
       3.3761373e-12 8.7976317e-13 9.774559e-13 4.411501e-13
000100 08 19 d5 ab e3 30 02 2c 61 12 a0 ab a0 36 80 2b
       -1.5141508e-12 1.8501249e-12 -1.1373785e-12 9.110109e-13
000110 77 5a bb 29 24 b0 ac 2b 7b 1b 5b 2c 4c 65 3e 2c
       8.3201614e-14 1.2270224e-12 3.1137027e-12 2.7056855e-12
000120 02 ef 03 ac 21 5d e0 ab a9 6a e9 2b 80 20 1f 2c
       -1.8748896e-12 -1.5942006e-12 1.658525e-12 2.26133e-12
000130 d4 4c 1b ac d3 eb b1 ab 46 5f cd ab be b4 c9 2a
       -2.2069473e-12 -1.2642061e-12 -1.459257e-12 3.5830188e-13
000140 a6 b2 24 2c da 24 27 2c 8c 05 c1 ab 82 65 6b 2c
       2.3404972e-12 2.3752584e-12 -1.3715014e-12 3.3451857e-12
000150 11 d5 44 ac 5b 00 83 2b 96 5d 93 28 1a 80 62 ac
       -2.797155e-12 9.308209e-13 1.6360865e-14 -3.2187642e-12
000160 42 19 9e a9 90 09 6c ac 59 57 10 aa 0f f1 0c ab
       -7.020991e-14 -3.3542925e-12 -1.2820074e-13 -5.007253e-13
000170 27 92 58 2c 6b 9e e3 2b f8 1e 2a ac b6 18 b5 ab
       3.0776577e-12 1.617329e-12 -2.4175644e-12 -1.2867682e-12
000180 f1 45 fb ab 5f e9 b9 2a bd 2d 24 2c 02 28 35 ac
       -1.7854035e-12 3.3024535e-13 2.3331192e-12 -2.5743856e-12
000190 49 e1 06 ac 60 ca 24 ac 08 27 4a 2c b3 36 30 2c
       -1.9167604e-12 -2.3418142e-12 2.8727593e-12 2.5041468e-12
0001a0 0c bc 20 2c 82 7d 0a ac 9b 5b 6c ac f4 df c8 2b
       2.2841755e-12 -1.968065e-12 -3.3588468e-12 1.4273014e-12
0001b0 18 81 1c ac d7 6f 12 2b 1b f0 72 ac fd c9 62 2b
       -2.2240595e-12 5.202483e-13 -3.4523554e-12 8.0571644e-13
0001c0 bc 05 52 2c cc ce e0 2b ca 04 27 2c 76 f3 6f ac
       2.9845978e-12 1.5973555e-12 2.3734786e-12 -3.409909e-12
0001d0 14 9c 68 ac 03 0e f1 2b f0 d5 0f ab 33 c7 42 2c
       -3.3055824e-12 1.7127969e-12 -5.1100704e-13 2.7679636e-12
0001e0 1f 47 82 ab 30 61 5c 2b 8a b0 72 2c c4 88 05 2c
       -9.256796e-13 7.8294576e-13 3.4488267e-12 1.8976357e-12
0001f0 39 2d 70 ac 18 be 97 ab 24 79 1c 2b 14 27 34 ab
       -3.4131155e-12 -1.0781957e-12 5.559045e-13 -6.400308e-13
000200 2c c4 0d 2c 52 64 82 ab 29 6b 03 ac 41 91 36 2b
       2.0146202e-12 -9.2649e-13 -1.8675706e-12 6.486097e-13
000210 6c db 63 2c 5f e1 01 ac 14 0d 24 ac
       3.2380444e-12 -1.8457109e-12 -2.3313062e-12

att_src f4 [1, 1, 15]
000000 e7 2d d3 ab e6 d4 53 ac cb d5 e2 aa 0f 32 81 ab
       -1.5005192e-12 -3.0103086e-12 -4.0294013e-13 -9.179895e-13
000010 b5 5d 8e 2c 6a 99 af 2a 8d 54 73 2b 32 c4 f5 2b
       4.0462863e-12 3.1192697e-13 8.644828e-13 1.7462752e-12
000020 a9 e0 b9 2c 38 d6 b6 ac b7 c1 e3 ab 70 81 ea ac
       5.2829585e-12 -5.196534e-12 -1.6183087e-12 -6.6650505e-12
000030 65 72 70 ab 1e d6 c7 ac 72 33 88 ac
       -8.542388e-13 -5.679692e-12 -3.871064e-12

att_dst f4 [1, 1, 15]
000000 d3 89 1c ab 07 fc 91 2c 91 65 46 ab 0e 8d 9e 2b
       -5.5613603e-13 4.1491285e-12 -7.048468e-13 1.1265726e-12
000010 24 46 6f 2c d1 9a 96 2b c4 26 08 ac 63 e5 57 2b
       3.4002879e-12 1.0701111e-12 -1.9348282e-12 7.670168e-13
000020 87 4e 5a 2b 17 14 94 2c 89 40 d0 2b aa 86 20 ab
       7.7558137e-13 4.2086434e-12 1.4797201e-12 -5.7030303e-13
000030 0d 0f b2 2b f1 0e a6 ac 2d 70 aa ac
       1.2651838e-12 -4.7196626e-12 -4.8441446e-12

bias f4 [15]
000000 a8 90 18 ac 4f 42 11 2c 97 15 19 2c 8d f1 0f ac
       -2.16808e-12 2.0642548e-12 2.1754592e-12 -2.045561e-12
000010 81 76 0f ac 07 73 13 2c 7d 93 00 2c 3f ad 18 2c
       -2.0387305e-12 2.095381e-12 1.8271766e-12 2.169667e-12
000020 cc 78 2b 2c 74 9e 17 ac 08 cf 1e ac 89 c5 12 2c
       2.4367617e-12 -2.154635e-12 -2.2568076e-12 2.0857502e-12
000030 ad 97 30 ac 3a 33 06 2c 17 c8 18 ac
       -2.5095301e-12 1.9070982e-12 -2.1711571e-12

weight f4 [15, 9]
000000 77 f0 c0 2a 35 98 47 ac 40 c3 27 ac af 61 18 ac
       3.4272907e-13 -2.8364093e-12 -2.3840513e-12 -2.1654724e-12
000010 eb 6e c0 ac b4 09 e0 aa 4b a8 32 ab 70 cc 54 ac
       -5.4692826e-12 -3.9797126e-13 -6.3471857e-13 -3.0240498e-12
000020 3d cf 93 a9 4f b2 38 2c a7 07 54 2c da 91 3a 2c
       -6.5640615e-14 2.6246954e-12 3.013126e-12 2.6513154e-12
000030 5c d2 0a 2c 54 a0 a6 2c 23 76 48 2c 6c f3 1c 2c
       1.9727752e-12 4.7358038e-12 2.8487288e-12 2.230406e-12
000040 e6 d9 2c 2b 6a 48 93 2c d0 ce 1d 2c db 7b 75 2c
       6.140907e-13 4.186031e-12 2.2425846e-12 3.4885348e-12
000050 0f c6 6a 2c 2c b9 fd 29 3c eb b2 2c 59 98 9e 2c
       3.3363345e-12 1.1267579e-13 5.0851805e-12 4.507544e-12
000060 21 50 83 ab f5 72 4a 2c bd d3 a4 2a 41 0e 87 ac
       -9.33035e-13 2.876974e-12 2.9279175e-13 -3.8385133e-12
000070 58 27 84 ac 4a 81 df ac c9 be c0 2c df eb 79 2b
       -3.7560337e-12 -6.352395e-12 5.4781496e-12 8.878991e-13
000080 54 3f d5 aa dc 40 63 2c 8e a5 5d ac 51 8b a7 2b
       -3.7880343e-13 3.2294644e-12 -3.149789e-12 1.1904732e-12
000090 45 70 91 ac 06 03 89 ac ac 2f 43 aa 11 e7 25 ac
       -4.1336123e-12 -3.89411e-12 -1.7336019e-13 -2.3576178e-12
0000a0 0c bf 17 ac 52 ee b7 ac 2e 7f d8 ab 86 65 ad ac
       -2.1564443e-12 -5.2276317e-12 -1.5383023e-12 -4.928227e-12
0000b0 19 c6 4a aa bb b0 bb 2c 6b e7 ef 2a f5 7e 34 2c
       -1.8009933e-13 5.3344807e-12 4.2615507e-13 2.5650014e-12
0000c0 e8 06 82 2c ec 47 09 2c 79 55 6d 2c 1d 77 ba 2a
       3.695589e-12 1.9508796e-12 3.3727173e-12 3.312289e-13
0000d0 31 16 06 2c f8 ae c7 aa 20 7d 0f 2c 77 7f a4 2c
       1.9054864e-12 -3.547091e-13 2.039098e-12 4.675312e-12
0000e0 63 5b b0 2c 22 97 7e 2c 02 04 3a 2a 2c 1c 15 ab
       5.012367e-12 3.6179467e-12 1.6521509e-13 -5.297453e-13
0000f0 36 54 b6 2a 72 7e 59 2c b6 ce 25 2c 88 cb 8e ab
       3.2388128e-13 3.0907746e-12 2.3562658e-12 -1.0146198e-12
000100 4d 80 44 2b 3b e5 e6 28 a8 c6 d6 2a 2e 2a 08 2c
       6.981124e-13 2.5634542e-14 3.8151882e-13 1.9350177e-12
000110 c4 cb 98 2b 67 ab 8d 2b c5 0c ab 29 cc bd f0 2b
       1.0856806e-12 1.0066226e-12 7.5961406e-14 1.7105705e-12
000120 43 3f aa ab f5 fc 51 2c 20 a8 12 2c ec 61 21 2b
       -1.2096785e-12 2.9841106e-12 2.0841176e-12 5.7334584e-13
000130 df dc 33 ac f4 88 ac ac a3 36 70 ab ea 77 aa ab
       -2.5560038e-12 -4.903739e-12 -8.534095e-13 -1.2112509e-12
000140 47 6b 9d 28 d6 f0 12 ab 9f 77 fb ab 36 46 c7 ac
       1.7477026e-14 -5.2203847e-13 -1.7867824e-12 -5.663715e-12
000150 a2 f7 c9 ac 2d 8e c7 ab 7f 69 cd aa 0c e9 1b ab
       -5.7402564e-12 -1.4179262e-12 -3.6488518e-13 -5.539048e-13
000160 3b 7a 88 ac 1e 10 bd ab 05 cf db aa 79 16 74 ac
       -3.878923e-12 -1.3433731e-12 -3.9045863e-13 -3.468696e-12
000170 77 f1 a0 ab a5 b6 19 ac fd 67 3e ac 89 d6 ae ab
       -1.1435704e-12 -2.1843996e-12 -2.705835e-12 -1.2422989e-12
000180 3f 5d 48 2c 50 dd 65 ac 25 23 45 ac ba 95 7f 2c
       2.8473471e-12 -3.266571e-12 -2.8014893e-12 3.6320794e-12
000190 a8 59 07 2c 8b 85 c2 2c 72 1e 3f 2c db 66 c2 2b
       1.9234423e-12 5.528638e-12 2.7159633e-12 1.3813077e-12
0001a0 e7 a4 e2 aa 1f eb 2a 2a 3d 89 b6 ab fb 26 c0 2c
       -4.0260089e-13 1.5180607e-13 -1.2969969e-12 5.461296e-12
0001b0 df 8d 15 ac 2e 4d 43 ac 3f f0 74 24 09 82 04 ab
       -2.1252928e-12 -2.775401e-12 5.3112562e-17 -4.707628e-13
0001c0 8d 3d ac 2b f2 b5 bc 2b da 01 87 ab 05 2d b2 ab
       1.2238419e-12 1.3408703e-12 -9.592841e-13 -1.2660156e-12
0001d0 c7 a0 53 2c 41 e7 91 2c 9b eb 53 ab 2c 01 b5 2c
       3.0074153e-12 4.146822e-12 -7.5289227e-13 5.1444595e-12
0001e0 3d f2 f9 2b 0c e4 ed aa 48 4d 34 2c cc 54 e9 ab
       1.7759749e-12 -4.2257896e-13 2.5622438e-12 -1.6579182e-12
0001f0 7e ae 20 ab 6c 6b 36 2c 3e 9f 16 2b bd e9 fe ab
       -5.7085575e-13 2.5923387e-12 5.35117e-13 -1.8112661e-12
000200 79 38 61 ac 3b 7a 08 ac 81 8c 28 ac 8e 09 eb a9
       -3.2005772e-12 -1.9394614e-12 -2.3952231e-12 -1.0437754e-13
000210 63 a7 be 2b 63 fc fa ab 05 59 ce ab
       1.3546771e-12 -1.783362e-12 -1.4661888e-12

weight f4 [15, 9]
000000 58 a7 9c ab d1 5e a6 ac af 2c 82 2c b7 45 5f ac
       -1.1130914e-12 -4.7285305e-12 3.699783e-12 -3.1728906e-12
000010 cb f1 60 ac c8 c7 f6 ab 03 de 26 2c 09 e3 75 ab
       -3.1966537e-12 -1.7534802e-12 2.371326e-12 -8.735656e-13
000020 ea bc 43 ac 37 e9 39 ac 48 82 14 2b 4f 00 8c 2c
       -2.7816035e-12 -2.6419541e-12 5.2760964e-13 3.9790736e-12
000030 ee e2 8a 2b d9 3d 40 2b ea 82 6f 2c f0 7c 3a 2c
       9.868475e-13 6.8297933e-13 3.4036615e-12 2.6501544e-12
000040 b2 06 85 aa ab b7 67 2c 24 4d fa 2b 03 41 d2 2b
       -2.3630192e-13 3.292903e-12 1.7784979e-12 1.4939442e-12
000050 40 21 04 2b c9 18 fc 2a d2 70 65 ac ba cd 91 aa
       4.6941964e-13 4.478139e-13 -3.2605485e-12 -2.5899926e-13
000060 cb ea 62 2c 34 9c 07 ac 10 d0 00 2c 35 0a 05 2b
       3.2246868e-12 -1.9271364e-12 1.8305392e-12 4.7265257e-13
000070 5b bd 4d 2c 1f 01 89 aa c8 84 89 2c f7 a4 50 aa
       2.9237366e-12 -2.4336867e-13 3.908516e-12 -1.8531345e-13
000080 2d 22 64 ac ac a8 71 2c 65 85 5f 2a 4d db ed aa
       -3.241972e-12 3.4341792e-12 1.9852659e-13 -4.2251828e-13
000090 29 08 52 ac fd 6b 90 ac 7f 66 c7 2b dd a4 fb ab
       -2.9847325e-12 -4.1047153e-12 1.4168249e-12 -1.7880381e-12
0000a0 11 3d 5b ac a0 ee 83 ab c4 02 4b 2a df a8 a0 2a
       -3.115567e-12 -9.374342e-13 1.8030981e-13 2.8538887e-13
0000b0 22 0d 04 2c d9 be 6e aa ab b6 a0 2c 85 ad 9e ac
       1.8765618e-12 -2.120486e-13 4.5677537e-12 -4.5098946e-12
0000c0 d6 46 a7 2c f4 d6 71 ac 68 3f 50 2c f8 e8 0c 2c
       4.75429e-12 -3.4367483e-12 2.9593775e-12 2.002452e-12
0000d0 ce 3a 19 ac 0a 4f 03 ac b2 5a f8 ab ac f0 56 ac
       -2.177525e-12 -1.8660095e-12 -1.7646633e-12 -3.0544829e-12
0000e0 d3 3e 4f 2c 44 1c 0f ab d3 e0 87 aa ee 78 68 ac
       2.9451344e-12 -5.084303e-13 -2.413682e-13 -3.3036312e-12
0000f0 74 13 c5 ab 3a aa 3c ac c7 20 1e 2c 9c 6e 4d ab
       -1.4003091e-12 -2.6810902e-12 2.2471346e-12 -7.298413e-13
000100 55 18 03 ac 6b 61 c1 2b 57 4c ae ac 2f 8f 8f 2b
       -1.8629727e-12 1.3740514e-12 -4.953853e-12 1.0200503e-12
000110 f4 df e1 2b 72 56 45 ac 66 d6 f6 2b c9 0d 6b ac
       1.6049371e-12 -2.804337e-12 1.7538859e-12 -3.340316e-12
000120 13 62 17 2a 2b 75 47 ab 3b 19 5a ac 7b 5f 48 ab
       1.344552e-13 -7.0861605e-13 -3.099367e-12 -7.118678e-13
000130 92 90 c7 ab 69 2f 75 29 05 74 21 ac d8 4b 70 ac
       -1.4179927e-12 5.444205e-14 -2.294388e-12 -3.4148153e-12
000140 3b 07 1a ac cb 3f 82 ac 4a 6c 60 ac ec d2 fa 2b
       -2.188873e-12 -3.7019047e-12 -3.1892427e-12 1.7822111e-12
000150 0d e5 64 ac 34 06 17 2b 3e c1 44 ab 2c 5b 0e 2c
       -3.2527897e-12 5.3654585e-13 -6.9901366e-13 2.0230024e-12
000160 d5 1f 8b 2b 46 f7 a9 2b 6b eb c8 ab d8 db ba ac
       9.885379e-13 1.2076804e-12 -1.4276196e-12 -5.3108455e-12
000170 7e c1 eb 2b 42 1d b5 ac 3c db 30 2c 4e 34 fc 2b
       1.6751459e-12 -5.1475777e-12 2.5132804e-12 1.7920194e-12
000180 47 5c 64 2c 8c 04 42 2c 40 70 61 ab 3d cc c5 ab
       3.2451973e-12 2.7571582e-12 -8.0091836e-13 -1.4054379e-12
000190 4d 4b 9c ac ff 60 ed ab c5 23 f3 ab d6 91 f4 ab
       -4.4421467e-12 -1.6866785e-12 -1.7276117e-12 -1.737772e-12
0001a0 fe 2c 5b ac 9d 6c 82 2b e5 c3 8f ab 78 ae 98 ab
       -3.1146748e-12 9.267202e-13 -1.0215133e-12 -1.0848674e-12
0001b0 7c 36 a9 ab fe 71 85 2c 59 93 5b ac ce 39 45 2c
       -1.2023295e-12 3.792743e-12 -3.1203566e-12 2.8027472e-12
0001c0 85 31 11 2c 6c bd bd 2b 6f 34 32 2c 4f d9 b5 2b
       2.0633228e-12 1.3481833e-12 2.5324428e-12 1.2921139e-12
0001d0 6c 62 65 ac 43 41 97 2c f0 4b e2 aa 92 65 01 ac
       -3.2597492e-12 4.2989236e-12 -4.0198357e-13 -1.8388385e-12
0001e0 3b ef 8e 2c d9 29 35 2c 82 65 cd 2b df fd 06 2a
       4.0624427e-12 2.5744877e-12 1.45943e-12 1.198967e-13
0001f0 d1 3d 88 ab 86 17 a7 2b e9 38 a6 2c bd 14 32 2b
       -9.680539e-13 1.1872593e-12 4.724322e-12 6.3267084e-13
000200 60 d7 27 ab 19 1b b3 2c 28 e1 7a 2b 46 a8 e3 2b
       -5.962921e-13 5.0904944e-12 8.913031e-13 1.6176025e-12
000210 62 df 3c ac de 03 62 2c 1e 90 00 2c
       -2.684041e-12 3.2118678e-12 1.8269895e-12

att_src f4 [1, 1, 5]
000000 a8 f6 46 be 28 02 a0 3e cc 02 0c 3f a0 97 45 bd
       -0.1943003 0.31251645 0.5469177 -0.048240304
000010 e4 4b 4e 3f
       0.8058455

att_dst f4 [1, 1, 5]
000000 00 ca ca be d8 32 4c 3e 84 10 03 bf 5c 94 89 3e
       -0.3960724 0.1994127 -0.51197076 0.26871002
000010 f8 7c 5a 3f
       0.8534694

bias f4 [5]
000000 00 00 00 00 00 00 00 00 00 00 00 00 00 00 00 00
       0.0 0.0 0.0 0.0
000010 00 00 00 00
       0.0

weight f4 [5, 20]
000000 89 34 14 be 6d 9a a8 bd 44 76 d0 3e 94 9d a7 be
       -0.14473166 -0.082325794 0.4071523 -0.3273741
000010 85 45 24 be 7a 91 aa 3e ea 22 31 3b 69 9d bb bc
       -0.16042145 0.33314115 0.0027028867 -0.022902207
000020 d0 88 d0 be 3b fc 38 be 74 c8 eb 3e 3d be 3d bc
       -0.4072938 -0.18064968 0.4605137 -0.011581001
000030 a4 e8 ae 3e 09 16 8e be 6e ac be be f6 fe 02 be
       0.34161866 -0.27751186 -0.37240928 -0.12792572
000040 52 63 10 be 08 a9 8a 3e d9 e7 f5 3e 6e 08 f5 3d
       -0.14100388 0.27082086 0.48028448 0.119644985
000050 c9 d6 47 3e 4d be bd bd 68 3e 7a be ae f9 3c 3e
       0.19515528 -0.092648126 -0.24437869 0.1845462
000060 74 a4 e0 3e e6 cc c4 be bd 5e d7 3d 6d 65 a4 be
       0.43875468 -0.38437575 0.10516117 -0.32108632
000070 0a 6b 11 3d 5b 28 dd bd 5d 52 be 3e 49 9f d5 be
       0.03550247 -0.10798713 0.37172213 -0.41723087
000080 db a6 9a bb 6c 4a 1b 3e 10 82 cd be 07 3f 55 3e
       -0.0047195978 0.15165108 -0.40138292 0.20824824
000090 fd 1f bb 3e 9e 17 32 3e 8b 19 c8 3e ed ce ad be
       0.36547843 0.17391822 0.39081988 -0.33946934
0000a0 5b 4d ad 3e 55 cb de 3e b1 46 e0 3c 45 5f 93 be
       0.3384808 0.43514505 0.027377458 -0.28783622
0000b0 00 d5 a2 be 35 08 e5 be 5f 2c 3d 3e 37 d7 d4 3e
       -0.3180313 -0.44732824 0.18473957 0.41570446
0000c0 13 59 8f bd 09 3d c1 be dd 44 d3 be 31 cf 9b 3e
       -0.069994114 -0.3774188 -0.41263476 0.30431512
0000d0 49 e7 b7 3e 1a 7b 96 be 04 1e b5 3e 43 56 f2 3e
       0.35918644 -0.29390794 0.35374463 0.47331437
0000e0 89 03 8b 3c 49 2d c5 3e 2b 9a c4 bd db e5 4a 3d
       0.01696946 0.38511112 -0.09599718 0.049535614
0000f0 cb 08 b0 be c3 9d 4f be f6 25 91 be c3 d8 ee be
       -0.34381709 -0.20275025 -0.28349274 -0.4664975
000100 30 22 6b 3d e9 f8 b3 be d3 b9 e3 3e 9d ca 82 be
       0.05740565 -0.3515084 0.4447771 -0.25545207
000110 1b 0a d7 3d 53 e4 df be cc ad f3 3e 46 54 d7 be
       0.10499974 -0.43728885 0.47593534 -0.42056483
000120 07 81 a0 3e cf ee 4e bd 13 e5 1b 3e 30 9f ae 3d
       0.3134844 -0.050520714 0.15224104 0.08526456
000130 15 e6 84 be 13 6f eb be 36 04 eb bd 84 29 c0 3e
       -0.2595679 -0.4598318 -0.114754125 0.37531674
000140 e2 46 0d be 85 5b be be a3 8a 2c 3e fb 22 e0 3e
       -0.13796571 -0.371792 0.1684976 0.43776688
000150 30 34 be 3e 44 33 e5 3e 33 f9 a0 be 25 a7 0b 3e
       0.3714919 0.44765675 -0.31440124 0.1363798
000160 bf f9 99 be 2e 08 39 be 5f c0 e2 be b0 84 9b 3d
       -0.30073354 -0.18069527 -0.44287392 0.075936675
000170 cc ec d2 3e 65 7e 77 3e b8 27 82 be 3f 1f 77 3e
       0.41196287 0.2416931 -0.25420928 0.24133013
000180 2f ed c4 be 55 d4 73 3e b4 09 92 3d d6 3d f1 3e
       -0.38462207 0.23811467 0.07130757 0.4711749

weight f4 [5, 20]
000000 fa b1 c4 bd 0a 0f aa be 1e 61 7d be 76 35 a1 3e
       -0.09604259 -0.332146 -0.24744079 0.314861
000010 b8 96 26 3e 8a 8c 6d be 9f bc a5 be 7e db b5 bb
       0.16268432 -0.23198143 -0.3237047 -0.005549847
000020 ae ed 90 be fc 3e 94 bd 8c c0 35 3b d5 69 a4 3e
       -0.28306335 -0.07238576 0.0027733175 0.32111993
000030 80 29 4d bd 59 c6 09 be 2f 8d d7 3d 9e 16 b6 3e
       -0.050088406 -0.1345457 0.105249755 0.3556413
000040 17 68 9a bc ee 45 bc be ee 81 f0 3e a1 3d 93 3e
       -0.018848462 -0.36772102 0.46974128 0.28757957
000050 e0 04 10 3e bc 9d d9 be 5a 1b b5 be fd b3 55 3e
       0.1406436 -0.42503154 -0.3537243 0.20869441
000060 81 22 97 be f2 63 8c 3e 2b 92 04 3d 24 57 21 3e
       -0.29518512 0.27420002 0.03236596 0.15755898
000070 94 05 23 be 18 b4 6f be 1d a2 99 be 44 c1 d8 be
       -0.15920097 -0.23408544 -0.30006495 -0.4233495
000080 40 87 e7 bd f1 31 10 be 1a ee 22 be a6 52 dd 3e
       -0.11305094 -0.14081551 -0.15911141 0.43227118
000090 b7 b3 81 3e fa aa cd be d7 b8 91 3d f0 9b 8b bd
       0.25332424 -0.40169507 0.071153335 -0.06816852
0000a0 ae bd 9c 3e 42 74 d5 bc 05 bd 17 bd e0 e3 c0 3c
       0.30613464 -0.026056413 -0.037045497 0.02354616
0000b0 ec dc dd be 9b 6a 3b be 43 75 ac be 1b 4a f5 be
       -0.43332613 -0.18302386 -0.33683214 -0.479081
0000c0 1e f2 e7 be 5b 11 7b 3e e3 31 1a be b9 dd 34 3d
       -0.45301908 0.2451834 -0.15058093 0.044156764
0000d0 78 07 77 be 72 e6 94 be 2a 3c bd 3e 5b e2 e7 3e
       -0.24123943 -0.29082066 0.36959964 0.45289883
0000e0 a6 b1 af be f0 3c 81 bd 36 de f6 3d 46 12 3f be
       -0.34315223 -0.06310451 0.12054102 -0.18659315
0000f0 fc 6a 9b 3e 3c d9 97 be 37 b9 5e be 68 b8 1d be
       0.3035506 -0.29657924 -0.21750341 -0.15402377
000100 37 dd 04 be 3d a5 de be f3 3f b6 3e aa ad e1 3c
       -0.12975012 -0.43485442 0.35595664 0.02754863
000110 f5 8d 4c be e3 e7 37 be d4 c1 99 3d 57 80 91 3e
       -0.19976027 -0.17959552 0.07507673 0.28418228
000120 63 00 dd be c6 5f cb 3e 44 16 9d 3e b1 ae ad 3e
       -0.43164358 0.39721507 0.3068105 0.3392234
000130 a0 d6 e8 3e 2a 74 d4 bc 76 ac f0 be 6a 35 8f 3e
       0.45476246 -0.025934298 -0.47006577 0.2797044
000140 a7 ab d5 3e 08 70 be be b7 30 d6 bd 03 d2 55 be
       0.41732523 -0.37194848 -0.1045851 -0.20880894
000150 75 2b af 3e 03 0a 21 3d c3 4d e8 be 63 ef cd 3b
       0.34212843 0.03931619 -0.45371827 0.0062846406
000160 86 07 6a be b4 cd b1 bc dc 48 db be 5c 40 dc bd
       -0.22854432 -0.021704532 -0.42829025 -0.10754463
000170 b4 83 62 3e f4 1f 6e be 01 be 31 be ca 73 84 be
       0.22120553 -0.23254377 -0.17357637 -0.2586959
000180 0e 4b 1e be 38 5a e4 3e 8c c4 8f 3e 7c b6 05 be
       -0.15458319 0.4460008 0.2807964 -0.13057894

att_src f4 [1, 1, 10]
000000 16 5d 49 ab ba 4e 23 2b 62 d2 ac ac f2 f0 c2 ab
       -7.153873e-13 5.801849e-13 -4.911891e-12 -1.3851405e-12
000010 1c da 82 ac 5b de f1 ac 12 f8 0a 2c 94 a3 a4 ac
       -3.7190372e-12 -6.8743184e-12 1.9748686e-12 -4.679321e-12
000020 ae e0 38 2b b2 a5 01 ad
       6.568174e-13 -7.369593e-12

att_dst f4 [1, 1, 10]
000000 a6 b9 af ab 9a 1d 96 2c a7 7d 92 2b 06 68 78 ab
       -1.2486026e-12 4.266543e-12 1.04088e-12 -8.825166e-13
000010 7e 58 56 2c ce 7b 90 2c 37 72 96 2c 13 f4 95 ac
       3.0460352e-12 4.1064712e-12 4.275937e-12 -4.2619324e-12
000020 a7 44 f8 2a ac 59 95 ac
       4.4101287e-13 -4.2447903e-12

bias f4 [10]
000000 77 72 ae 2b 26 7d 7b ab a5 05 19 ac c0 92 17 2c
       1.2395214e-12 -8.934679e-13 -2.174574e-12 2.1539853e-12
000010 00 9b 21 2c bc 6f 15 ac 00 a2 1d ac 68 fc 10 ac
       2.2965518e-12 -2.1236199e-12 -2.240097e-12 -2.0603744e-12
000020 50 ec 08 ac 18 a1 0b ac
       -1.9457942e-12 -1.9842513e-12
