model/tgn/241024_2/epoch_1.pt (torch, 463974 bytes, 79 tensors)

att f4 [1, 1, 30]
0.40294248 -0.43739918 -0.08353391 0.11900425 -0.09562451 0.13174707 -0.10013923 -0.052696884
-0.038258225 0.35421997 0.26185054 -0.2997883 -0.28634456 0.35443288 -0.18234667 0.34433484
-0.21496537 -0.25814578 -0.019735575 0.14109159 0.30231726 0.19541693 0.3516724 -0.3862628
0.25463927 0.13783026 -0.21838972 -9.4771385e-05 -0.33036634 0.07774222
00000000: 7a4e ce3e c9f2 dfbe d413 abbd 80b8 f33d
00000010: c8d6 c3bd b4e8 063e cc15 cdbd b0d8 57bd
00000020: a8b4 1cbd 525c b53e 4611 863e da7d 99be
00000030: c19b 92be 3a78 b53e 16b9 3abe a84c b03e
00000040: e21f 5cbe af2b 84be 80ac a1bc 507a 103e
00000050: 54c9 9a3e 601b 483e 680e b43e 3dc4 c5be
00000060: 1460 823e 6023 0d3e 8ea1 5fbe 00c0 c6b8
00000070: c725 a9be 5037 9f3d

bias f4 [30]
0.034693185 -0.032882705 0.018683463 -0.06568832 -0.049402494 -0.035774436 -0.07153347 0.020278716
-0.0654492 -0.03516516 0.006748581 -0.00864461 0.026824076 0.0036885082 -0.008924793 0.017324904
-0.025060747 0.056081284 -0.06867417 0.039617293 -0.004080538 0.008081608 -0.040459603 -0.0013198492
-0.039706536 -0.038587898 -0.015431244 0.035286263 -0.023314634 0.07091975
00000000: 711a 0e3d 04b0 06bd 100e 993c 9987 86bd
00000010: 455a 4abd 3788 12bd 2480 92bd 8d1f a63c
00000020: 3b0a 86bd 5809 10bd 3323 dd3b 1fa2 0dbc
00000030: 2abe db3c e6ba 713b 4c39 12bc f5ec 8d3c
00000040: 324c cdbc 7db5 653d 0ba5 8cbd be45 223d
00000050: 09b6 85bb b968 043c f8b8 25bd cafe acba
00000060: 52a3 22bd 580e 1ebd 54d3 7cbc 5488 103d
00000070: 55fe bebc 603e 913d

weight f4 [30, 163]
-0.0043042274 -0.0075745666 -0.13036315 -0.16754603 -0.21405786 0.015811432 0.10876327 -2.536763e-05
0.058349263 -0.21502875 -0.1022466 0.12629516 0.24760626 -0.1226572 -0.12012927 -0.20177303
-0.029644134 -0.06564698 -0.10815935 -0.29189545 -0.25469273 -0.16467781 0.30329534 -0.04531205
-0.14507248 -0.017541183 -0.3032752 -0.0038050993 0.2332218 -0.09585284 -0.20892195 -0.4947053
0.09467965 -0.20308988 0.049369637 0.14160949 0.045695033 -0.11626058 -0.069193095 0.43146047
0.0072419844 -0.2349861 0.44412002 -0.017501345 0.06745982 0.2711019 -0.26108053 0.40649578
-0.09876965 -0.10657018 -0.24188398 0.11266841 0.23339474 0.16470087 -0.086726256 -0.081225984
0.12427231 0.077371985 -0.05344922 -0.08765167 -0.08093235 -0.124317676 -0.10017816 0.025427694
0.13025464 -0.2855987 -0.05556519 0.07255602 -0.32626292 -0.012027034 0.05329447 -0.12317166
0.3984626 -0.119455405 0.17368181 0.16184069 0.0037835867 0.03332295 0.23774432 -0.37133265
0.111384735 0.016450081 0.082119666 0.051002268 -0.18342385 0.20827997 -0.1599208 -0.051216535
0.088061936 -0.076599866 0.19092181 0.23746765 0.098224014 0.023635743 -0.37635797 -0.35108507
0.10033295 0.1127335 0.029478809 -0.10498668 0.0036429458 0.06073974 -0.067671396 0.035078783
-0.074057326 0.07284669 0.21834852 0.17650846 -0.09910127 0.07538402 0.021704694 -0.42229894
0.06934718 0.11383324 -0.08124806 0.5220205 0.1255519 -0.012097514 0.34778595 0.029007673
-0.06641215 0.2240488 -0.12878652 0.16923675 -0.14688051 -0.014235151 0.14875324 -0.31035477
0.44249555 0.07211754 0.11647337 -0.09208068 -0.07159672 0.13308038 -0.06320618 -0.1342319
-0.22853352 0.19292237 0.0069310204 0.33244133 0.058259457 0.0922544 0.0063259266 -0.14355268
-0.056794938 -0.10114153 0.2953822 0.12126853 0.08440276 -0.21798079 -0.009734436 0.19484253
0.17142266 -0.10763259 0.022005849 0.09201268 0.08933204 -0.123069584 0.22638863 -0.13983914
-0.071481496 0.07798544 -0.24991246 0.12234208 -0.015062669 -0.0035936951 0.06410783 -0.020161722
-0.010340775 0.13310543 0.1066921 0.37339908 0.45439404 -0.026854021 0.07749297 0.12322763
-0.023362853 0.06872444 -0.023009825 -0.028702177 -0.12688224 0.24581207 0.20656128 0.22980824
0.05401411 0.06507436 0.049881913 0.04807668 0.032219235 0.18334936 0.10057467 -0.10643258
-0.14541052 0.09525235 0.4051514 0.044920262 0.329993 0.071015656 0.059992976 -0.31913906
0.11221644 -0.1648406 -0.34424707 0.05508165 0.07455899 -0.12765628 0.15171053 -0.044713404
-0.2595532 0.078285694 -0.22986504 -0.19240808 -0.015816368 0.26059988 -0.120273165 0.041537933
0.058285512 0.17084439 -0.12919424 0.17481767 -0.07548012 0.112787925 0.43937933 -0.1465227
-0.018911501 0.061740313 -0.08909102 -0.24222352 0.14113358 -0.046426408 -0.29004735 0.6478883
0.063800864 0.05391898 0.37414026 -0.39635152 0.055562664 -0.1230808 -0.21052922 -0.041543756
-0.0877344 0.026061866 0.26961178 0.20697355 0.15266295 0.05979356 -0.080913834 0.39144194
-0.09221606 0.18989363 0.14598842 0.15613358 0.16463411 0.099748336 0.037063282 -0.15132187
00000000: 7a0a 8dbb 1234 f8bb eb7d 05be 3091 2bbe
00000010: fc31 5bbe fa86 813c 47bf de3d 92cc d4b7
00000020: a3ff 6e3d 7f30 5cbe aa66 d1bd 8553 013e
00000030: 7f8c 7d3e b333 fbbd 5606 f6bd 979d 4ebe
00000040: 41d8 f2bc ed71 86bd a682 ddbd 5273 95be
00000050: 1667 82be 4da1 28be 8749 9b3e 2199 39bd
00000060: e18d 14be 87b2 8fbc e346 9bbe f95e 79bb
00000070: b2d1 6e3e 7e4e c4bd a3ef 55be 034a fdbe
00000080: 68e7 c13d cbf6 4fbe d137 4a3d 1402 113e
00000090: b72a 3b3d 071a eebd 1cb5 8dbd 63e8 dc3e
000000a0: 2b4e ed3b 32a0 70be b363 e33e fb5e 8fbc
000000b0: 6028 8a3d decd 8a3e 59ac 85be 3720 d03e
000000c0: be47 cabd 7741 dabd 6fb0 77be b2be e63d
000000d0: 08ff 6e3e 58a7 283e 899d b1bd cf59 a6bd
000000e0: 7b82 fe3d 3475 9e3d 92ed 5abd b882 b3bd
000000f0: dcbf a5bd 449a febd 352a cdbd bd4d d03c
00000100: 7961 053e fe39 92be 5398 63bd 4098 943d
00000110: ef0b a7be 090d 45bc 4d4b 5a3d 6c41 fcbd
00000120: 4a03 cc3e 09a5 f4bd a5d9 313e 91b9 253e
00000130: 0df6 773b a57d 083d 3f73 733e 501f bebe
00000140: ae1d e43d 52c2 863c 5b2e a83d c1e7 503d
00000150: 76d3 3bbe 5847 553e 47c2 23be 6ec8 51bd
00000160: d159 b43d 64e0 9cbd 0281 433e b82a 733e
00000170: ac29 c93d bf9f c13c feb1 c0be 6cc1 b3be
00000180: 5d7b cd3d d2e0 e63d 8b7d f13c 4203 d7bd
00000190: 7dbe 6e3b 3cca 783d 4d97 8abd c5ae 0f3d
000001a0: 5eab 97bd a530 953d c196 5f3e a2be 343e
000001b0: 9bf5 cabd f062 9a3d 0bce b13c 9137 d8be
000001c0: e505 8e3d 6721 e93d 6265 a6bd 23a3 053f
000001d0: ad90 003e a734 46bc 0011 b23e 80a1 ed3c
000001e0: 1803 88bd 0c6d 653e 9de0 03be 664c 2d3e
000001f0: d867 16be 8d3a 69bc c552 183e d2e6 9ebe
00000200: c78e e23e 5cb2 933d 9789 ee3d cc94 bcbd
00000210: 4da1 92bd 3946 083e 3e72 81bd 1674 09be
00000220: b104 6abe 718d 453e 9d1d e33b c035 aa3e
00000230: 78a1 6e3d e0ef bc3d b849 cf3b 79ff 12be
00000240: cfa1 68bd 4a23 cfbd 563c 973e a35b f83d
00000250: 5bdb ac3d 5b36 5fbe 2f7d 1fbc cd84 473e
00000260: 6c89 2f3e 7a6e dcbd 9c45 b43c 2571 bc3d
00000270: b7f3 b63d e80b fcbd 6cd2 673e fe31 0fbe
00000280: e464 92bd d5b6 9f3d 0de9 7fbe 7c8e fa3d
00000290: 6ac9 76bc 3384 6bbb f74a 833d 322a a5bc
000002a0: 5b6c 29bc ca4c 083e 6381 da3d 2a2e bf3e
000002b0: 56a6 e83e f7fc dbbc a2b4 9e3d c55e fc3d
000002c0: 7463 bfbc 66bf 8c3d 1a7f bcbc d420 ebbc
000002d0: 6bed 01be 29b6 7b3e cd84 533e da52 6b3e
000002e0: e63d 5d3d b545 853d fa50 4c3d 0eec 443d
000002f0: 51f8 033d efbf 3b3e 18fa cd3d 53f9 d9bd
00000300: 7fe6 14be aa13 c33d 0170 cf3e 4ffe 373d
00000310: d8f4 a83e a870 913d 32bb 753d 3266 a3be
00000320: bcd1 e53d f9cb 28be 2741 b0be 4c9d 613d
00000330: 62b2 983d 54b8 02be 015a 1b3e 6725 37bd
00000340: 28e4 84be 4054 a03d be61 6bbe a006 45be
00000350: 5491 81bc 596d 853e c751 f6bd ae23 2a3d
00000360: cabc 6e3d d5f1 2e3e 7f4b 04be 6703 333e
00000370: 5295 9abd 5bfd e63d 54f6 e03e 0c0a 16be
00000380: 4bec 9abc 69e3 7c3d 5a75 b6bd 7109 78be
00000390: 5285 103e 9e29 3ebd 1681 94be 02dc 253f
000003a0: 07aa 823d 26da 5c3d 508f bf3e 96ee cabe
000003b0: ad95 633d c911 fcbd f994 57be c929 2abd
000003c0: 18ae b3bd b27f d53c 8e0a 8a3e e0f0 533e
000003d0: ad53 1c3e 18ea 743d 27b6 a5bd 146b c83e
000003e0: c6db bcbd 7a73 423e fd7d 153e 7be1 1f3e
000003f0: d895 283e db48 cc3d abcf 173d 1ff4 1abe

bias f4 [30]
0.11109529 -0.09101635 0.028412199 -0.06222508 -0.011104559 -0.02081778 0.0012638363 0.082613304
-0.022688411 -0.008830249 0.013988396 -0.007530666 0.040644065 -0.034607835 0.053153694 -0.03177585
0.009957612 0.005659759 0.0077772215 0.05980871 -0.006349422 0.045277722 -0.07556932 0.06273878
-0.014501438 -0.015625123 -0.041997805 -0.039487544 -0.07934853 0.0028297163
00000000: ed85 e33d c866 babd b3c0 e83c badf 7ebd
00000010: e5ef 35bc 0d8a aabc 4fa7 a53a 2a31 a93d
00000020: 0cdd b9bc c0ac 10bc 962f 653c cec3 f6bb
00000030: 647a 263d f2c0 0dbd b0b7 593d 6527 02bd
00000040: 4025 233c 8075 b93b 10d8 fe3b faf9 743d
00000050: d00e d0bb 2275 393d 16c4 9abd 317d 803d
00000060: 7097 6dbc 4200 80bc e405 2cbd b1bd 21bd
00000070: 7b81 a2bd c372 393b

weight f4 [30, 163]
0.11491245 -0.10128148 0.080824144 -0.06313965 0.08991489 -0.10112691 0.15085377 -0.12545347
-0.053888112 0.17541996 0.018734818 -0.088461734 0.15169078 -0.07784458 0.12086337 0.0075042853
-0.12752584 0.06889966 0.032356907 0.13064535 -0.032238215 0.09838561 -0.043649215 -0.117352985
-0.05838165 -0.028577987 -0.13626623 0.17244238 0.04701291 0.04675732 0.028708324 0.09617997
-0.16301036 -0.16240312 -0.12626684 0.07633082 0.0011107152 0.16273826 0.07615641 0.090392515
0.16062729 0.16813216 -0.111856215 -0.12229052 0.09750965 0.10295211 -0.13925485 0.11984217
0.110527456 0.0897642 0.14500085 0.09572245 -0.06292823 -0.15713371 0.0014449345 0.048737373
-0.14131172 -0.10412618 0.06831704 0.107405834 0.15950814 0.11042957 0.13046266 -0.048187584
-0.095346324 -0.05086158 -0.017606447 -0.141587 -0.065079786 0.08829497 0.07177578 -0.060290933
0.14601551 -0.03863971 -0.11446508 0.16855341 -0.04504967 -0.085630685 0.14757381 0.17164163
0.17073743 0.08338156 -0.01303988 0.17555717 -0.154652 0.14249444 -0.11558888 -0.17431416
0.11307024 -0.021533214 -0.16587691 -0.08504159 -0.05688911 0.06565161 -0.1471715 -0.14704
0.1471219 0.017011637 0.10580649 0.014882185 0.09051613 -0.05144156 -0.07297349 -0.013753446
0.114347614 -0.09968131 -0.061465576 -0.019389343 0.1530048 0.16734326 -0.008817821 -0.13595171
0.117844045 0.044521786 -0.1110818 -0.16251186 -0.063532285 -0.1250151 0.032954574 0.03500914
-0.1226637 0.048247993 -0.061872236 0.113668755 0.13067663 0.17604642 0.031795915 -0.15405436
0.08727857 -0.0063046394 -0.17500347 -0.10926805 0.12722328 0.08524706 0.13258772 0.1602271
0.15842576 -0.10306785 0.047325857 0.16921093 -0.052350834 0.114329584 -0.08661743 0.11274668
0.091082245 -0.102860056 0.16897157 0.07624704 -0.14239135 -0.150768 0.098688975 -0.10699707
-0.15239888 0.11672795 -0.11571182 0.09086768 0.021403275 0.0070263185 0.09578194 -0.17187004
0.059254717 0.0010081647 -0.14133054 -0.14573045 0.0909014 -0.017381735 -0.15909821 -0.09237027
0.16536075 0.0366139 0.047004692 0.16641401 0.012419627 0.03538941 0.11275473 0.020867191
-0.018271208 -0.028210714 0.072045386 -0.17213613 -0.037082575 -0.15320326 0.008950418 -0.06884676
-0.056168303 0.15389922 -0.08060636 0.16079251 -0.16311915 -0.034097966 -0.047133535 0.1736429
-0.0016206724 -0.16998017 -0.04201531 -0.08233773 -0.14931288 0.080374345 0.12204161 -0.08955868
0.0062154992 0.15172176 -0.13384244 -0.081946716 0.07849728 -0.03178237 0.1346502 -0.022127971
-0.06033983 -0.17215545 0.030273465 -0.1333766 -0.1539575 0.01629019 0.10825478 -0.064044155
0.042905383 -0.054606967 -0.08866882 -0.06403584 0.08058277 0.05805175 -0.061037727 -0.13589191
-0.112578034 0.151828 0.11220143 0.12769689 0.1383236 -0.0502523 0.09411744 0.106037095
-0.10868725 -0.063045286 -0.11218406 -0.04612221 0.10308438 0.010618382 0.0068604597 -0.017976156
-0.11682473 0.058554202 0.076762736 0.095393784 -0.12623301 0.10621855 0.16340132 0.037608866
0.096740834 -0.018390005 -0.16282125 -0.13336125 0.04601374 0.052462 0.13972634 0.05508899
00000000: 3857 eb3d aa6c cfbd 2187 a53d 5c4f 81bd
00000010: 4c25 b83d a01b cfbd 6979 1a3e e076 00be
00000020: c8b9 5cbd 4aa1 333e c379 993c 6d2b b5bd
00000030: d454 1b3e fb6c 9fbd 3787 f73d 82e6 f53b
00000040: 2296 02be 441b 8d3d ad88 043d e5c7 053e
00000050: 380c 04bd 657e c93d 85c9 32bd c356 f0bd
00000060: 9921 6fbd 621c eabc 6089 0bbe bc94 303e
00000070: 9c90 403d 9b84 3f3d b82d eb3c 01fa c43d
00000080: 30ec 26be 014d 26be 184c 01be 5553 9c3d
00000090: 6b95 913a dca4 263e e4f7 9b3d b61f b93d
000000a0: 7b7b 243e d62a 2c3e df14 e5bd 7473 fabd
000000b0: 24b3 c73d 8ed8 d23d d398 0ebe d06f f53d
000000c0: 385c e23d 4bd6 b73d 1a7b 143e 220a c43d
000000d0: 84e0 80bd a9e7 20be f563 bd3a d7a0 473d
000000e0: 05b4 10be 1b40 d5bd cee9 8b3d 97f7 db3d
000000f0: 1a56 233e e628 e23d 0198 053e 5860 45bd
00000100: ef44 c3bd 3b54 50bd 653b 90bc 2ffc 10be
00000110: 8d48 85bd fed3 b43d 2eff 923d a0f3 76bd
00000120: 1785 153e ac44 1ebd ab6c eabd 4499 2c3e
00000130: 0186 38bd 245f afbd 971d 173e d3c2 2f3e
00000140: cbd5 2e3e f4c3 aa3d 39a5 55bc 42c5 333e
00000150: 185d 1ebe 10ea 113e ddb9 ecbd 697f 32be
00000160: 5f91 e73d 6c66 b0bc a3db 29be 492a aebd
00000170: 8e04 69bd 5a74 863d 20b4 16be a791 16be
00000180: 20a7 163e fd5b 8b3c 13b1 d83d 68d4 733c
00000190: 8560 b93d 63b4 52bd 2073 95bd 2256 61bc
000001a0: 152f ea3d b725 ccbd 54c3 7bbd 66d6 9ebc
000001b0: 4aad 1c3e 085c 2b3e 9f78 10bc ed36 0bbe
000001c0: 3858 f13d 7a5c 363d db7e e3bd 8269 26be
000001d0: 371d 82bd f503 00be 60fb 063d be65 0f3d
000001e0: 1b37 fbbd b09f 453d be6d 7dbd 2acb e83d
000001f0: 18d0 053e 8345 343e 6f3c 023d 6dc0 1dbe
00000200: 1bbf b23d 2697 cebb 1c34 33be edc7 dfbd
00000210: d246 023e 0396 ae3d 13c5 073e 9312 243e
00000220: 5d3a 223e 3d15 d3bd c2d8 413d a145 2d3e
00000230: d46d 56bd a125 ea3d 7b64 b1bd bbe7 e63d
00000240: 5489 ba3d 4ba8 d2bd e206 2d3e 6827 9c3d
00000250: 0acf 11be ed62 1abe 721d ca3d 4821 dbbd
00000260: 740e 1cbe 100f ef3d 52fa ecbd d618 ba3d
00000270: ec55 af3c 083d e63b 5229 c43d b3fe 2fbe
00000280: 13b5 723d 6524 843a f4b8 10be 5d3a 15be
00000290: 832a ba3d 2464 8ebc a4ea 22be a02c bdbd
000002a0: 5454 293e 75f8 153d fe87 403d 6f68 2a3e
000002b0: b17b 4b3c 7cf4 103d f4eb e63d acf1 aa3c
000002c0: 80ad 95bc 281a e7bc 888c 933d 7444 30be
000002d0: e6e3 17bd 51e1 1cbe c6a4 123c 88ff 8cbd
000002e0: bc10 66bd c297 1d3e f314 a5bd cba6 243e
000002f0: b508 27be 4faa 0bbd 180f 41bd 72cf 313e
00000300: be6c d4ba 480f 2ebe 3f18 2cbd afa0 a8bd
00000310: 7ae5 18be 4e9b a43d f4f0 f93d 8b6a b7bd
00000320: 63ab cb3b f35c 1b3e fe0d 09be aed3 a7bd
00000330: 2fc3 a03d 3b2e 02bd bee1 093e b845 b5bc
00000340: e626 77bd 8549 30be 0f00 f83c e093 08be
00000350: 09a7 1dbe 0173 853c afb4 dd3d 9529 83bd
00000360: 8ebd 2f3d 8eab 5fbd 0098 b5bd 3925 83bd
00000370: 9408 a53d acc7 6d3d b202 7abd 4027 0bbe
00000380: 508f e6bd cd78 1b3e ddc9 e53d f9c2 023e
00000390: b4a4 0d3e 5bd5 4dbd a5c0 c03d fa29 d93d
000003a0: 6c97 debd e31d 81bd c2c0 e5bd a4ea 3cbd
000003b0: e71d d33d b9f8 2d3c b5cd e03b bb42 93bc
000003c0: ce41 efbd 88d6 6f3d c835 9d3d d15d c33d
000003d0: 3a43 01be 1c89 d93d ad52 273e c10b 1a3d
000003e0: 0f20 c63d a3a6 96bc 9dba 26be da8f 08be
000003f0: e778 3c3d 65e2 563d 6c14 0f3e fea4 613d

bias f4 [30]
0.0359672 -0.059629478 -0.07032709 -0.040972978 -0.046762336 0.021366568 0.04385264 0.01245786
0.0131308 -0.06659168 0.06351042 -0.042775046 0.007559447 -0.015979908 -0.013625214 0.046520572
-0.07097073 0.06949777 -0.056490913 0.02227814 0.07285387 -0.036442176 0.020684859 -0.039156638
-0.027809417 -0.010549996 0.017408438 -0.075201705 0.0135855405 -0.05623432
00000000: 5852 133d 0a3e 74bd a607 90bd 48d3 27bd
00000010: dd89 3fbd f108 af3c d39e 333d 0d1c 4c3c
00000020: 9122 573c 3861 88bd c011 823d e334 2fbd
00000030: 3db5 f73b 4ce8 82bc 4a3c 5fbc 5b8c 3e3d
00000040: 1a59 91bd d954 8e3d 0463 67bd a580 b63c
00000050: 6934 953d 6444 15bd 4b73 a93c b662 20bd
00000060: 93d0 e3bc e4d9 2cbc 249c 8e3c 5a03 9abd
00000070: e395 5e3c f555 66bd

att f4 [1, 1, 30]
-0.10377238 -0.15296492 0.14673772 0.4080567 -0.34768897 -0.34976286 0.43715632 0.25368115
-0.030013215 0.107230276 0.34453595 -0.24087366 -0.3528822 -0.3523137 0.03103083 -0.105856866
-0.14440438 0.07334255 0.29066983 0.3342717 -0.067411065 -0.39584735 0.29652956 -0.079591006
-0.43359876 0.24830054 -0.2568967 0.34818727 0.18223089 -0.056499317
00000000: 9d86 d4bd d6a2 1cbe 6a42 163e cfec d03e
00000010: 4a04 b2be 1e14 b3be f4d2 df3e 7fe2 813e
00000020: 46de f5bc 8c9b db3d 0467 b03e 96a7 76be
00000030: faac b4be 7662 b4be 5e34 fe3c 7ccb d8bd
00000040: bede 13be 9e34 963d add2 943e a925 ab3e
00000050: d00e 8abd 81ac cabe b9d2 973e 9c00 a3bd
00000060: a800 debe 7f42 7e3e f787 83be 9a45 b23e
00000070: bc9a 3a3e d46b 67bd

bias f4 [30]
-0.067466795 -0.07084764 -0.044903483 0.05400207 -0.024397435 -0.03901047 0.054375544 -0.035702024
0.04956804 -0.033881105 0.03188384 0.07766741 -0.054955155 -0.04263052 0.011534369 -0.058529902
0.08662477 0.05443951 -0.057534836 -0.083657034 -0.030315392 -0.051421557 -0.0929081 0.05669587
0.03330555 0.0557899 -0.04350245 0.047526512 -0.04488227 0.03419402
00000000: 082c 8abd 9118 91bd b7ec 37bd 4631 5d3d
00000010: 21dd c7bc 71c9 1fbd e4b8 5e3d 493c 12bd
00000020: db07 4b3d eac6 0abd a198 023d 1710 9f3d
00000030: a818 61bd 579d 2ebd a6fa 3c3c 0dbd 6fbd
00000040: 5468 b13d f7fb 5e3d a6a9 6bbd 6154 abbd
00000050: fc57 f8bc 699f 52bd 9a46 bebd ee39 683d
00000060: 676b 083d f383 643d a02f 32bd 29ab 423d
00000070: 79d6 37bd 070f 0c3d

weight f4 [30, 163]
-0.12833895 0.11459387 -0.19409697 -0.13871466 -0.06226963 -0.1909976 -0.038931333 0.05116779
-0.09119377 -0.19795616 -0.13885178 -0.04250256 0.10692954 -0.17347066 -0.033435836 -0.12825164
-0.08511391 -0.0999394 -0.03168343 0.04894821 -0.2299706 -0.21354406 0.098210864 -0.18109141
-0.008425026 0.16260456 -0.041145038 -0.05125852 0.074874006 0.14198965 0.006239816 0.08486038
0.033871144 -0.079883754 -0.11135598 -0.19869457 -0.121539325 -0.08917621 -0.005983475 -0.13253132
-0.13891335 -0.029887974 0.00537782 -0.008546479 -0.05781477 0.030733442 -0.18989612 0.09762362
-0.14270146 -0.06645738 0.08778426 -0.0018248268 0.10644068 -0.10698119 0.049012024 -0.07690463
0.078162946 -0.16586116 0.007902096 0.06578197 0.05297441 -0.029996952 -0.11192531 -0.05816669
-0.11359708 -0.15425704 -0.16450858 -0.1243694 0.09777863 0.14260744 -0.06686505 0.14202905
0.16430037 0.0006649335 -0.17140292 -0.096574284 -0.0017122931 0.068144605 0.105817676 -0.1035055
-0.07715082 -0.022197904 -0.11716687 -0.09744898 0.03439684 0.15563679 -0.16720034 0.039952118
0.09154251 -0.0021214548 -0.00083727436 -0.18629451 0.08444026 -0.003861524 -0.10669773 -0.20171733
-0.14086342 0.16385858 -0.07450667 0.1644797 0.09109763 0.06687898 0.071908146 0.00703509
0.06252641 -0.00521284 0.10305897 -0.04751242 -0.105224736 -0.19271691 0.0076104724 0.14206453
-0.1515306 -0.0093119405 0.05512266 0.07108841 -0.08879091 0.04202856 -0.077662155 -0.094778225
0.023134612 -0.19309619 -0.059148546 0.08385494 -0.086594805 0.019742493 0.16804 -0.07944455
0.1739158 -0.11181007 -0.10096183 0.10434864 0.16371466 -0.08574958 -0.098834686 -0.166583
-0.14928715 -0.1697668 0.093851715 -0.18732218 -0.03790709 0.023206415 0.109385036 -0.21540855
-0.073479876 -0.16412346 -0.17557827 -0.030147342 -0.025590178 -0.07189846 0.081956536 0.0319085
0.058150843 0.009907637 0.05775789 -0.1731651 0.0529049 -0.18557408 -0.039181434 0.07128011
0.0321456 0.105059214 -0.037549514 -0.027031861 -0.11032867 -0.10678363 -0.11024599 -0.17182225
0.01878018 -0.12029443 -0.23547325 0.062058546 -0.19032243 0.08709874 -0.21757485 0.03410469
-0.21019222 -0.19792204 0.019821143 0.0927026 -0.24556005 0.059235275 -0.23024702 -0.16073085
0.0076133623 -0.056405805 -0.027420465 -0.10910641 0.08518163 0.08663953 0.086927995 -0.17008995
-0.13016178 -0.12542127 0.09783023 0.13050096 0.07100909 -0.0153279435 -0.18783614 -0.14507855
0.11052694 -0.049084224 0.08665681 0.08506449 -0.059700515 -0.15718682 -0.2010455 -0.119391926
-0.08495722 -0.080508985 -0.11975112 0.024275972 -0.09283397 0.00013467316 -0.23890966 -0.109363444
0.08194035 -0.13965699 -0.0746433 -0.08590178 -0.045503523 -0.041384332 0.11935637 0.020948455
0.065880775 -0.09102183 0.0019022945 0.015023894 0.12517056 -0.08653548 0.037854653 0.17288475
0.01488808 -0.018020159 -0.08719981 0.019572873 0.06002772 -0.117257714 -0.10668856 -0.15931939
0.02990406 0.15066244 0.034851924 -0.020412138 0.09381833 -0.1495183 0.16436179 0.13016231
0.033741727 -0.044496793 0.10010577 0.15496235 0.083529115 -0.069747455 0.012399291 0.055433758
00000000: 496b 03be 31b0 ea3d 5bc1 46be 370b 0ebe
00000010: 710e 7fbd e094 43be 7676 1fbd 5195 513d
00000020: cdc3 babd 05b5 4abe 292f 0ebe 2a17 2ebd
00000030: e0fd da3d 4ba2 31be 04f4 08bd 6654 03be
00000040: 3450 aebd 07ad ccbd 7cc6 01bd eb7d 483d
00000050: 6a7d 6bbe 4bab 5abe c722 c93d 0770 39be
00000060: 1f09 0abc cf81 263e b387 28bd 74f4 51bd
00000070: 8b57 993d bc65 113e 5f77 cc3b 47cb ad3d
00000080: 78bc 0a3d 189a a3bd 9b0e e4bd 9776 4bbe
00000090: 9ce9 f8bd 04a2 b6bd 0711 c4bb 4ab6 07be
000000a0: 4d3f 0ebe a0d7 f4bc 6d38 b03b 8806 0cbc
000000b0: 2ecf 6cbd b3c4 fb3c 2174 42be e4ee c73d
000000c0: 5520 12be cf1a 88bd 3cc8 b33d 072f efba
000000d0: 92fd d93d f418 dbbd d5c0 483d 2d80 9dbd
000000e0: e513 a03d 82d7 29be cb77 013c b3b8 863d
000000f0: b2fb 583d 2bbc f5bc 1939 e5bd 3240 6ebd
00000100: 96a5 e8bd 8ff5 1dbe f074 28be 62b5 febd
00000110: 2a40 c83d af07 123e 8bf0 88bd 1070 113e
00000120: 5b3e 283e ef4e 2e3a 3f84 2fbe bdc8 c5bd
00000130: 066f e0ba 668f 8b3d f0b6 d83d b1fa d3bd
00000140: 4001 9ebd 61d8 b5bc 2ff5 efbd 5593 c7bd
00000150: b3e3 0c3d 405f 1f3e 9136 2bbe d5a4 233d
00000160: a47a bb3d 1b08 0bbb 887c 5bba fdc3 3ebe
00000170: 04ef ac3d 9f11 7dbb 5784 dabd fd8e 4ebe
00000180: 803e 10be 8bca 273e f496 98bd 5e6d 283e
00000190: 6591 ba3d d9f7 883d 9444 933d 9d86 e63b
000001a0: d90d 803d 79d0 aabb 9510 d33d 629c 42bd
000001b0: 1180 d7bd 9557 45be 4561 f93b 5d79 113e
000001c0: d62a 1bbe 1c91 18bc 4cc8 613d cd96 913d
000001d0: 02d8 b5bd 2426 2c3d 560d 9fbd 161b c2bd
000001e0: cc84 bd3c 02bb 45be bf45 72bd 24bc ab3d
000001f0: 9e58 b1bd 02bb a13c ae12 2c3e d3b3 a2bd
00000200: fc16 323e aefc e4bd 13c5 cebd bdb4 d53d
00000210: d1a4 273e 7a9d afbd d769 cabd bc94 2abe
00000220: bbde 18be 59d7 2dbe 5435 c03d 63d1 3fbe
00000230: 7744 1bbd 611b be3c 4305 e03d 0f94 5cbe
00000240: 9e7c 96bd fb0f 28be caca 33be 8ff7 f6bc
00000250: 7ea2 d1bc 803f 93bd d4d8 a73d 7db2 023d
00000260: 942f 6e3d a453 223c 8a93 6c3d 3152 31be
00000270: cfb2 583d 2207 3ebe b67c 20bd 4efb 913d
00000280: 1bab 033d 4929 d73d 85cd 19bd ec71 ddbc
00000290: fff3 e1bd 60b1 dabd a6c8 e1bd 2cf2 2fbe
000002a0: e4d8 993c ed5c f6bd e61f 71be 1a31 7e3d
000002b0: e2e3 42be d360 b23d f1cb 5ebe 5cb1 0b3d
000002c0: a13c 57be 13ac 4abe f35f a23c dcda bd3d
000002d0: 1874 7bbe b0a0 723d e0c5 6bbe a196 24be
000002e0: 8379 f93b c609 67bd e2a0 e0bc 2e73 dfbd
000002f0: b573 ae3d 1170 b13d 4e07 b23d 0f2c 2ebe
00000300: 2149 05be 6f6e 00be 375b c83d 0ba2 053e
00000310: 376d 913d 0e22 7bbc 1e58 40be 798f 14be
00000320: f35b e23d 8a0c 49bd 2079 b13d 4b36 ae3d
00000330: 8788 74bd 95f5 20be dfde 4dbe c183 f4bd
00000340: 0dfe adbd e5e1 a4bd 1340 f5bd 67de c63c
00000350: bd1f bebd 0d37 0d39 bca4 74be f1f9 dfbd
00000360: 58d0 a73d 3e02 0fbe 96de 98bd 46ed afbd
00000370: e761 3abd 9e82 29bd 1d71 f43d 189c ab3c
00000380: 80ec 863d a769 babd 6956 f93a c726 763c
00000390: b62c 003e 8439 b1bd 7b0d 1b3d b308 313e
000003a0: 22ed 733c 039f 93bc d095 b2bd 4a57 a03c
000003b0: a0df 753d d024 f0bd 887f dabd 9f24 23be
000003c0: 5cf9 f43c 4147 1a3e e4c0 0e3d 5b37 a7bc
000003d0: d323 c03d 531b 19be 754e 283e 4549 053e
000003e0: c434 0a3d 4542 36bd 4104 cd3d 73ae 1e3e
000003f0: 5011 ab3d c1d7 8ebd 6526 4b3c 820e 633d

bias f4 [30]
-0.09775478 -0.10082253 -0.036943667 -0.011433226 -0.062990606 -0.051050708 -0.013117707 -0.0761831
-0.032269645 -0.015179765 0.11883075 0.019173069 -0.03343709 -0.014391472 -0.0021328218 0.00940606
0.030580612 0.066168 0.046375856 -0.035455417 -0.08581631 -0.027654456 -0.100581944 0.054444764
0.016674789 -0.038662344 0.06269938 0.01074532 -0.121771485 0.07220832
00000000: a833 c8bd 0b7c cebd 3e52 17bd 6d52 3bbc
00000010: 3801 81bd 8c1a 51bd a7eb 56bc e305 9cbd
00000020: 2d2d 04bd 8db4 78bc 895d f33d d710 9d3c
00000030: 55f5 08bd 35ca 6bbc d0c6 0bbb e01b 1a3c
00000040: 3184 fa3c 1783 873d 9cf4 3d3d b339 11bd
00000050: 76c0 afbd 998b e2bc e8fd cdbd 7901 5f3d
00000060: 9199 883c 685c 1ebd 8868 803d 230d 303c
00000070: 5463 f9bd f5e1 933d

weight f4 [30, 9]
-0.21534958 0.06553765 -0.049914647 0.05312707 -0.33714834 0.37698987 0.04997845 -0.3920006
0.037753034 0.3707885 -0.18050691 0.21472211 0.30665165 0.017632293 0.12018041 0.3794696
-0.12497167 -0.14788516 0.23310865 0.09499913 0.11812639 0.04940319 0.27762228 -0.37045404
-0.018338757 -0.076695025 0.03245959 0.11704744 0.30356526 0.15649383 -0.1337125 0.21155156
-0.37581563 -0.11536872 0.2081223 -0.28613168 0.37006503 0.35934123 -0.12610607 0.13166538
-0.019487897 0.17819908 -0.35812825 0.37290594 -0.2259826 -0.26098618 0.18799222 0.078759566
0.082979865 0.036677934 -0.36062953 0.123389676 0.083915025 0.31874758 0.19800587 -0.03012369
-0.19391602 0.29764798 0.08284801 0.12469478 0.08480169 0.32847905 0.13474941 -0.37576726
0.2002132 -0.033820592 -0.30765378 0.177405 -0.1389395 -0.18168141 -0.32441816 0.08495468
0.24060673 -0.1721892 0.04555386 -0.11063414 0.34722212 -0.08439644 0.017739555 -0.08763736
-0.17398666 0.14764567 0.35931236 -0.29779112 0.36553437 -0.24733558 0.12833646 0.23020238
-0.07948363 0.32002926 0.29702374 -0.016061794 -0.13366011 0.32810852 -0.25516063 -0.11558752
0.37567475 0.25334176 -0.19615422 -0.2402021 -0.0013902242 0.07922812 -0.02478487 0.17412205
0.024937207 -0.20928434 0.25680763 0.14808738 -0.19450706 -0.13676706 0.26728335 0.16395144
0.055806194 0.0026491995 0.15264547 0.005676295 -0.36234665 0.17829672 -0.22155781 0.033393484
-0.0520663 -0.38159427 0.033870924 -0.122731745 -0.030495297 -0.26232567 0.09655808 -0.2407502
-0.3495841 0.28858316 0.29171094 -0.30595696 -0.3574987 0.3826409 0.08863858 -0.20195952
-0.26594165 0.056402072 -0.35720718 -0.12972577 -0.36566567 -0.37779406 -0.0623631 -0.19128999
0.052818008 -0.25666997 0.36954284 -0.07777377 0.14745761 0.3260741 0.06478569 0.38222077
-0.026618497 0.3834847 0.32137808 0.015206082 0.2036677 -0.23544867 0.08938516 -0.07269328
0.13986112 0.18559182 0.020083662 -0.16685131 0.3526388 -0.23705858 0.34726316 -0.08334811
-0.18430723 -0.042649597 -0.15510596 -0.17686051 0.13231175 0.26282996 -0.09938405 0.02044117
-0.06988885 0.04434405 -0.17593886 -0.17856549 0.10428475 0.037722405 -0.042639215 0.28743404
-0.37972227 -0.31651947 -0.35263237 0.38197172 -0.33312622 0.25257617 -0.34776527 0.048134606
-0.045344196 -0.15958458 0.13916138 -0.07839562 0.26332706 0.35336667 -0.31283426 -0.36982822
-0.36941648 -0.11337691 0.103722766 0.007035215 -0.14929496 0.17889984 0.011748674 -0.38269407
-0.31245577 0.3064781 -0.15460686 0.24875477 0.27470952 0.17721465 0.20576385 0.15656835
-0.06845926 -0.12391236 0.07510479 -0.2750142 -0.18706447 -0.38730273 0.041878 0.26399484
0.20667142 0.115131564 -0.0029658896 0.03782878 0.017832931 0.30396023 0.15294991 0.30711028
-0.061343476 0.16520506 -0.056076895 0.23745398 -0.34684658 -0.051178277 -0.24239522 -0.0021628723
-0.32677802 -0.16225666 -0.081116155 -0.12089989 0.33283284 0.04071757 -0.14589757 -0.20030104
0.045803685 0.13687961 0.19168055 0.3035805 0.12630552 0.059160266 -0.20196578 0.240936
00000000: 9a84 5cbe 9a38 863d 4d73 4cbd c59b 593d
00000010: b59e acbe d104 c13e 34b6 4c3d 4db4 c8be
00000020: eda2 1a3d fed7 bd3e ced6 38be 1de0 5b3e
00000030: 7201 9d3e 9971 903c 2621 f63d d749 c23e
00000040: 26f1 ffbd 356f 17be 09b4 6e3e e78e c23d
00000050: 40ec f13d 005b 4a3d 8224 8e3e 27ac bdbe
00000060: 293b 96bc 4812 9dbd 59f4 043d 91b6 ef3d
00000070: e86c 9b3e eb3f 203e eeeb 08be f9a0 583e
00000080: e86a c0be 6f46 ecbd 031e 553e da7f 92be
00000090: 2a79 bd3e 93fb b73e f321 01be 4ad3 063e
000000a0: 15a5 9fbc d279 363e 965c b7be 87ed be3e
000000b0: fc67 67be fb9f 85be 0881 403e b24c a13d
000000c0: 59f1 a93d 9a3b 163d 6fa4 b8be bab3 fc3d
000000d0: a4db ab3d e232 a33e 0dc2 4a3e f5c5 f6bc
000000e0: ec91 46be 5165 983e 38ac a93d fa5f ff3d
000000f0: 82ac ad3d 682e a83e c0fb 093e 9164 c0be
00000100: b004 4d3e 7687 0abd cc84 9dbe a8a9 353e
00000110: 2846 0ebe b10a 3abe 231a a6be b8fc ad3d
00000120: 9c61 763e 5e52 30be af96 3a3d 2794 e2bd
00000130: 19c7 b13e 0ad8 acbd 8b52 913c 377b b3bd
00000140: 8f29 32be 6d30 173e caf7 b73e 1478 98be
00000150: 5227 bb3e 8a45 7dbe a26a 033e 2cba 6b3e
00000160: 50c8 a2bd e0da a33e 7f13 983e 0694 83bc
00000170: 32de 08be d7fd a73e 6aa4 82be 26b9 ecbd
00000180: 7158 c03e 03b6 813e a7dc 48be 8af7 75be
00000190: 2f38 b6ba 5a42 a23d a409 cbbc 0d4d 323e
000001a0: 1d49 cc3c a24e 56be 4a7c 833e 38a4 173e
000001b0: dc2c 47be aa0c 0cbe 5dd9 883e e3e2 273e
000001c0: 0995 643d 319e 2d3b 184f 1c3e 3700 ba3b
000001d0: 8085 b9be 6a93 363e 0de0 62be 9bc7 083d
000001e0: 7943 55bd 5360 c3be 3dbc 0a3d c85a fbbd
000001f0: 46d1 f9bc 8d4f 86be 3ec0 c53d 3887 76be
00000200: b0fc b2be 2cc1 933e 235b 953e 64a6 9cbe
00000210: 120a b7be 82e9 c33e 2588 b53d 7ace 4ebe
00000220: 8129 88be dc05 673d dce3 b6be d5d6 04be
00000230: 8838 bbbe 396e c1be 7370 7fbd 86e1 43be
00000240: b257 583d 3f6a 83be b834 bd3e db47 9fbd
00000250: 21ff 163e 2ff3 a63e 5cae 843d 71b2 c33e
00000260: 090f dabc 1b58 c43e ab8b a43e ee22 793c
00000270: 448e 503e 7519 71be 910f b73d 37e0 94bd
00000280: c137 0f3e c80b 3e3e 7e86 a43c 12db 2abe
00000290: 138d b43e 7cbf 72be 7acc b13e 6ab2 aabd
000002a0: 09bb 3cbe 58b1 2ebd 19d4 1ebe ec1a 35be
000002b0: bb7c 073e a691 863e dd89 cbbd 3e74 a73c
000002c0: e321 8fbd 1ba2 353d 5129 34be dfd9 36be
000002d0: 3e93 d53d cf82 1a3d 75a6 2ebd 8e2a 933e
000002e0: f56a c2be d70e a2be 3b8c b4be cc91 c33e
000002f0: 858f aabe aa51 813e 4a0e b2be cb28 453d
00000300: d6ba 39bd 246a 23be 5280 0e3e e28d a0bd
00000310: ced2 863e 7aec b43e d02b a0be 205a bdbe
00000320: 2824 bdbe 2732 e8bd 9a6c d43d a987 e63b
00000330: c7e0 18be 8531 373e 837d 403c 7af0 c3be
00000340: 34fa 9fbe b3ea 9c3e 4351 1ebe 92b9 7e3e
00000350: baa6 8c3e c277 353e c2b3 523e 7453 203e
00000360: 5e34 8cbd c3c5 fdbd 8ad0 993d a9ce 8cbe
00000370: d48d 3fbe 8b4c c6be 4488 2b3d 552a 873e
00000380: aca1 533e 19ca eb3d 5f5f 42bb 5af2 1a3d
00000390: 5e16 923c ada0 9b3e e79e 1c3e 8f3d 9d3e
000003a0: 4c43 7bbd 842b 293e e3b0 65bd 2327 733e
000003b0: e095 b1be 50a0 51bd 7436 78be fabe 0dbb
000003c0: 734f a7be 9c26 26be 3a20 a6bd 5d9a f7bd
000003d0: 1169 aa3e 77c7 263d 2c66 15be b71b 4dbe
000003e0: a59c 3b3d 2b2a 0c3e e847 443e e76e 9b3e
000003f0: 3c56 013e 0952 723d 1ed0 4ebe edb7 763e

bias f4 [30]
-0.094426334 -0.13418816 -0.113799796 -0.06869559 0.09004235 -0.05671992 -0.16437349 0.20088825
-0.14765814 0.31104368 0.16715798 0.32165247 0.24488084 0.14278917 -0.18319115 -0.26289928
-0.2603989 0.13123362 -0.2642183 -0.018264573 0.29128584 -0.06763059 -0.091199756 -0.14464128
0.021664262 -0.13541977 0.07281105 -0.27236333 -0.07559121 0.18205464
00000000: 9862 c1bd 9f68 09be de0f e9bd 46b0 8cbd
00000010: 2068 b83d 2653 68bd 8651 28be a6b5 4d3e
00000020: b233 17be 1e41 9f3e 762b 2b3e a2af a43e
00000030: 0bc2 7a3e 5337 123e 7696 3bbe bc9a 86be
00000040: 0153 85be 1b62 063e 9f47 87be 969f 95bc
00000050: 6b23 953e e881 8abd f0c6 babd d81c 14be
00000060: 4079 b13c 7bab 0abe f61d 953d 3573 8bbe
00000070: 90cf 9abd 886c 3a3e

att f4 [1, 1, 30]
0.14754449 0.30258533 -0.31114468 -0.359162 -0.29989043 -0.12966916 -0.34670365 0.028783504
0.09507987 0.3514839 0.09468399 0.29042837 -0.008650999 -0.20304735 0.4432997 -0.31062675
0.37916374 -0.28747782 -0.14833523 -0.38342133 -0.07974416 -0.29342422 -0.19372366 -0.32754773
0.34892687 -0.3858234 -0.15967685 0.31194985 0.21245696 -0.24437915
00000000: e715 173e 77ec 9a3e 5b4e 9fbe 15e4 b7be
00000010: 3d8b 99be fec7 04be 2483 b1be 62cb eb3c
00000020: 3cb9 c23d b3f5 b33e aee9 c13d 07b3 943e
00000030: ebbc 0dbc a5eb 4fbe 2ef8 e23e 780a 9fbe
00000040: c021 c23e 4b30 93be 31e5 17be cd4f c4be
00000050: e850 a3bd b33b 96be 7f5f 46be 56b4 a7be
00000060: 8ba6 b23e a58a c5be 5482 23be e4b7 9f3e
00000070: 518e 593e 873e 7abe

bias f4 [30]
-0.067466795 -0.07084764 -0.044903483 0.05400207 -0.024397435 -0.03901047 0.054375544 -0.035702024
0.04956804 -0.033881105 0.03188384 0.07766741 -0.054955155 -0.04263052 0.011534369 -0.058529902
0.08662477 0.05443951 -0.057534836 -0.083657034 -0.030315392 -0.051421557 -0.0929081 0.05669587
0.03330555 0.0557899 -0.04350245 0.047526512 -0.04488227 0.03419402
00000000: 082c 8abd 9118 91bd b7ec 37bd 4631 5d3d
00000010: 21dd c7bc 71c9 1fbd e4b8 5e3d 493c 12bd
00000020: db07 4b3d eac6 0abd a198 023d 1710 9f3d
00000030: a818 61bd 579d 2ebd a6fa 3c3c 0dbd 6fbd
00000040: 5468 b13d f7fb 5e3d a6a9 6bbd 6154 abbd
00000050: fc57 f8bc 699f 52bd 9a46 bebd ee39 683d
00000060: 676b 083d f383 643d a02f 32bd 29ab 423d
00000070: 79d6 37bd 070f 0c3d

weight f4 [30, 9]
-0.0014897701 0.06897261 -0.1560882 0.011148501 -0.4037301 -0.039574217 0.0008019886 -0.07397217
-0.09341005 0.062393643 -0.46559966 -0.13601993 0.1980252 0.007947711 -0.28224623 -0.21617451
0.0157854 -0.3569169 0.27404034 0.14750242 -0.4038515 0.2177427 0.06255539 0.23356403
0.069225006 0.28464457 -0.35487774 -0.38232756 -0.0748983 -0.05419168 0.42886394 0.40855375
0.024919994 0.063414566 0.3356071 0.09829581 -0.25501266 0.0052482057 -0.36823237 -0.301579
-0.1037246 0.37844688 -0.17420663 -0.05969933 0.3535614 -0.39735568 0.3115308 -0.19467998
-0.3818844 0.10000498 0.30631143 0.10415551 -0.3417907 -0.2284436 -0.35165668 -0.32004085
-0.13543965 0.08299057 0.25719732 0.017824924 0.22378932 0.31644183 -0.30405784 -0.26839098
-0.021377428 0.26198462 0.12889673 0.0055379528 -0.20460615 0.26838204 -0.2741559 -0.11417235
0.010560065 0.11489394 0.2622972 0.0016876904 -0.17555076 0.3509497 -0.20684 0.094772555
-0.08355401 0.0327466 -0.2492293 0.08394313 0.18834941 0.060424775 -0.3586796 -0.21838884
-0.097573884 -0.22989993 0.17632763 0.15660124 0.17067711 -0.30146796 0.41771752 -0.19332352
0.10071437 0.23408438 -0.09554334 0.18765128 0.27603477 -0.20907117 0.08942347 0.079770796
0.19038624 -0.38866162 -0.2634645 0.29933128 -0.20828903 0.24083492 -0.31044278 0.28219038
-0.07313743 0.2122256 0.022342386 -0.34298787 -0.38219026 0.17261773 0.24012896 -0.43351924
-0.13090385 0.0322798 0.1421766 0.2894605 0.22500841 0.12212893 -0.054911494 0.2225367
0.18097073 -0.14809154 0.0171336 0.17466725 0.33027294 -0.17873362 -0.20027477 -0.036298823
0.18289693 0.033791594 -0.3227692 -0.40269783 -0.11943733 0.13746254 -0.102838464 0.0004642779
0.45813066 -0.023113953 -0.26407233 0.34400007 0.14682487 0.38604116 -0.35331923 0.26321888
0.38037193 -0.022877352 -0.17790891 -0.3147714 0.017368782 -0.24946482 -0.29105937 0.29417837
0.39428338 0.28500417 -0.26964557 0.06606969 -0.2479063 -0.3777639 -0.17835379 0.11244906
-0.1075348 -0.15815298 0.04385302 0.04119125 -0.18288444 -0.19531691 -0.1080429 -0.45222455
0.18185638 -0.3055146 0.12152487 -0.21164201 0.12173496 -0.42180505 0.20882203 -0.17335062
0.0010292445 0.26430112 0.2803786 -0.036275614 -0.40385455 -0.10520402 -0.033336785 0.1467
0.1931977 -0.12541687 0.32366478 -0.16721432 -0.028874025 0.27198866 -0.089711815 -0.27652186
0.056059115 0.14326882 -0.28238094 -0.035462674 -0.16508465 -0.056720838 -0.31594786 -0.060622733
-0.07486829 0.41673514 -0.17775963 -0.23994812 0.3154476 0.24181934 -0.18997972 0.102410875
0.0845438 0.40336776 0.41433376 -0.29584137 -0.21207325 0.38092873 0.035776116 -0.18523327
-0.16187851 -0.046123017 0.048351787 -0.05882308 0.35065606 -0.2573055 0.16823563 -0.046616826
0.27755532 -0.36414522 -0.15105474 -0.1930378 0.11054322 0.28107193 -0.18069601 0.0009910646
0.16499929 0.13808689 0.1410679 -0.21488467 0.08540279 -0.30858654 -0.02131833 -0.31850123
0.19873911 0.11958472 0.19168423 -0.3242359 0.13456276 -0.2072489 0.03996731 -0.19198316
00000000: 6444 c3ba 8341 8d3d 96d5 1fbe 34a8 363c
00000010: b6b5 cebe 9318 22bd 8b3c 523a b97e 97bd
00000020: c54d bfbd 7a90 7f3d 1463 eebe cf48 0bbe
00000030: 1ec7 4a3e 1e37 023c 9482 90be da5c 5dbe
00000040: 6250 813c d0bd b6be 044f 8c3e e00a 173e
00000050: a0c5 cebe f1f7 5e3e 0a1d 803d 692b 6f3e
00000060: d7c5 8d3d efbc 913e 89b2 b5be 70c0 c3be
00000070: 4864 99bd 18f8 5dbd 0e94 db3e f52d d13e
00000080: 0425 cc3c 7fdf 813d b2d4 ab3e 504f c93d
00000090: 0591 82be 24f9 ab3b f488 bcbe 9068 9abe
000000a0: 906d d4bd cac3 c13e 3963 32be 4987 74bd
000000b0: 0006 b53e 3472 cbbe f780 9f3e 305a 47be
000000c0: 5a86 c3be 69cf cc3d dad4 9c3e 7c4f d53d
000000d0: 31ff aebe 1eed 69be 580c b4be 65dc a3be
000000e0: b1b0 0abe f6f6 a93d 5eaf 833e 9305 923c
000000f0: 0729 653e aa04 a23e 78ad 9bbe 8b6a 89be
00000100: b71f afbc d922 863e 81fd 033e b777 b53b
00000110: 4684 51be 5f69 893e 2a5e 8cbe 31d3 e9bd
00000120: 1f04 2d3c 844d eb3d d24b 863e 7e35 dd3a
00000130: 94c3 33be aeaf b33e ddcd 53be 1d18 c23d
00000140: 5d1e abbd 4d21 063d f735 7fbe 60ea ab3d
00000150: abde 403e f87f 773d daa4 b7be 53a1 5fbe
00000160: d1d4 c7bd e36a 6bbe 3b8f 343e 135c 203e
00000170: fbc5 2e3e 025a 9abe 12df d53e 9af6 45be
00000180: 5643 ce3d d1b3 6f3e 3aac c3bd a827 403e
00000190: 6e54 8d3e c116 56be a723 b73d df5e a33d
000001a0: 9cf4 423e a8fe c6be d2e4 86be f341 993e
000001b0: b849 55be 6e9d 763e 5bf2 9ebe 427b 903e
000001c0: 14c9 95bd ab51 593e 6107 b73c 1b9c afbe
000001d0: 71ae c3be b4c2 303e 5ee4 753e 3cf6 ddbe
000001e0: a90b 06be d337 043d be96 113e 2b34 943e
000001f0: 9b68 663e bc1e fa3d e0ea 60bd a9e0 633e
00000200: 6450 393e 4fa5 17be c35b 8c3c f9db 323e
00000210: 8919 a93e f205 37be d414 4dbe 13ae 14bd
00000220: 5549 3b3e 0e69 0a3d 0142 a5be 692e cebe
00000230: 8f9b f4bd fbc2 0c3e f99c d2bd 536a f339
00000240: 1a90 ea3e 7959 bdbc 7d34 87be c720 b03e
00000250: 4259 163e 30a7 c53e 42e6 b4be a0c4 863e
00000260: 1cc0 c23e 4969 bbbc c12d 36be b829 a1be
00000270: fa48 8e3c b573 7fbe bc05 95be 8c9e 963e
00000280: 83df c93e 11ec 913e fc0e 8abe 8c4f 873d
00000290: 26db 7dbe 456a c1be 60a2 36be b14b e63d
000002a0: 353b dcbd dbf2 21be 399f 333d 28b8 283d
000002b0: 0f46 3bbe 2801 48be 9945 ddbd fa89 e7be
000002c0: 8f38 3a3e 696c 9cbe 08e2 f83d afb8 58be
000002d0: 2e50 f93d d5f6 d7be 71d5 553e d382 31be
000002e0: b7e7 863a 7a52 873e c98d 8f3e bd95 14bd
000002f0: 06c6 cebe 3575 d7bd 278c 08bd 8638 163e
00000300: 9ed5 453e 486d 00be 64b7 a53e 3b3a 2bbe
00000310: 3889 ecbc 1942 8b3e d4ba b7bd 4694 8dbe
00000320: 3e9e 653d 10b5 123e 3c94 90be 4f41 11bd
00000330: f30b 29be 1c54 68bd ebc3 a1be 8b4f 78bd
00000340: 8c54 99bd 4f5e d53e 9f06 36be f6b4 75be
00000350: 5982 a13e 7d9f 773e 0b8a 42be cbbc d13d
00000360: 4d25 ad3d 3886 ce3e 8e23 d43e 8578 97be
00000370: bb29 59be 1709 c33e fa89 123d caad 3dbe
00000380: 7bc3 25be 7deb 3cbd 860c 463d 78f0 70bd
00000390: 3189 b33e 8cbd 83be f645 2c3e 49f1 3ebd
000003a0: bb1b 8e3e 3e71 babe 18ae 1abe b3ab 45be
000003b0: 7c64 e23d a9e8 8f3e 6008 39be 9ce6 813a
000003c0: 93f5 283e a666 0d3e 1b74 103e ba0a 5cbe
000003d0: a8e7 ae3d 0eff 9dbe c7a3 aebc 9812 a3be
000003e0: 4482 4b3e d5e8 f43d df48 443e 3f02 a6be
000003f0: d2ca 093e 0e39 54be c3b4 233d 3c97 44be

bias f4 [30]
-0.22323716 -0.3538273 -0.1826168 0.055670407 -0.0012160707 -0.038938887 -0.20020823 -0.1972037
0.33018792 -0.32183495 0.07145308 -0.072829284 -0.13836598 0.13883679 -0.04252973 0.095887765
0.1133967 0.266182 -0.32393378 -0.1712572 -0.11738962 -0.2408375 0.23446096 0.2918177
-0.0015827438 0.20299861 0.2255543 -0.17321344 0.15470329 -0.14825453
00000000: 4898 64be da28 b5be e6ff 3abe a706 643d
00000010: 9064 9fba 627e 1fbd 6303 4dbe c4ef 49be
00000020: 640e a93e 8dc7 a4be fe55 923d 8527 95bd
00000030: d0af 0dbe 3b2b 0e3e a733 2ebd ce60 c43d
00000040: 873c e83d 0249 883e a6da a5be 0c5e 2fbe
00000050: f869 f0bd 1b9e 76be 8916 703e 2169 953e
00000060: 1274 cfba dede 4f3e b5f7 663e dd5e 31be
00000070: 8a6a 1e3e 09d0 17be

weight f4 [30, 9]
0.026098836 -0.11648259 -0.27583638 0.09944192 -0.28396714 0.033065718 0.07271154 0.34215292
-0.21303244 0.13981247 0.30038583 -0.13405827 -0.112908505 0.16145153 -0.119277634 0.040723506
-0.16466886 0.005616753 -0.38950637 -0.16242726 -0.20429529 -0.31801635 0.075163394 0.27460548
-0.1740716 -0.18829739 0.04285312 0.25525126 -0.21366617 0.005957397 -0.08243574 0.12245209
-0.2102142 -0.35291865 -0.34741792 -0.19309305 0.3613541 -0.06353392 0.29789123 -0.13371018
-0.049654264 0.29295352 -0.29133007 -0.21113816 -0.0037387987 -0.30678055 0.28167155 0.23089646
-0.3748684 -0.29043606 0.19276534 0.038483437 0.087246686 -0.13086757 -0.2505674 -0.1370983
-0.089992516 0.26093093 0.33237094 0.3341492 -0.23372625 0.13667275 0.023313906 -0.3734957
0.34362662 -0.28776404 -0.38379544 -0.3855322 0.13836823 0.14669523 0.30440766 -0.28619787
-0.056860175 -0.36239803 -0.21742895 0.0642083 0.37464455 -0.18354474 -0.19296597 -0.37946388
0.37646857 0.13172875 0.3921072 0.1521902 0.22234318 0.33786818 -0.070716314 0.26569048
-0.24207881 -0.32666558 -0.041366678 0.25440264 -0.37013328 -0.20325641 0.09096922 0.38734823
-0.07342345 -0.2773906 -0.11172229 -0.15822771 -0.18867582 -0.000474278 -0.35039595 -0.060979646
-0.084787324 0.20467214 -0.049517598 0.15698268 0.15817183 -0.23948798 -0.37313202 0.036075868
0.0145833045 0.11279756 0.14781176 0.16062422 -0.048120633 0.28509152 -0.24773648 0.2068458
0.2820999 -0.37209514 -0.03458456 0.33139026 0.094572216 0.104929216 0.18889055 -0.15132982
0.3691154 -0.38104534 -0.33817652 0.033592332 -0.114374086 0.31421506 -0.2541158 -0.19671173
0.1159837 -0.12359364 0.0764929 -0.20855217 0.1329627 0.25157842 -0.07983263 -0.26220274
0.34872276 0.30754992 -0.08434848 -0.012548449 -0.122417904 0.17997125 0.15397198 0.14101474
0.0640093 0.08678523 0.051442478 0.09442106 0.29839775 0.339695 0.19531325 -0.38335118
0.26686895 -0.08086453 -0.22732322 -0.25841427 0.011927525 0.14727823 0.008723044 -0.1945199
0.20681982 0.08358678 -0.06691733 -0.28130293 0.081611544 -0.059127487 -0.35145187 0.27220494
0.36036846 0.19226854 0.1295516 0.013238801 -0.15338993 0.18247214 -0.16101691 -0.25147918
0.010047586 0.029454473 -0.06524164 -0.10008711 0.06794992 0.21148586 0.10486424 0.18543746
-0.30963477 0.063187726 0.048781086 -0.20454848 -0.017022679 -0.19791889 0.13752364 -0.31920633
-0.34427625 0.09967597 0.13601218 0.33419344 0.24148197 -0.044864234 0.1343945 0.044280954
-0.15648921 0.118140064 0.10356866 0.22914252 0.0020325112 -0.13999958 0.08701577 0.030908447
0.029196467 0.1850546 -0.28389966 0.3759861 0.014857942 -0.09715216 0.33146954 -0.14224039
-0.19914687 0.27006742 -0.15908639 0.24231844 -0.2545031 -0.14984769 -0.05119041 -0.31505197
0.39065647 -0.25118986 -0.1516977 -0.26892045 -0.1842109 0.10115765 -0.22498612 -0.105809934
-0.06601247 0.27858087 -0.15073378 0.19662052 0.38507867 -0.17236641 0.28119755 0.16038337
0.27643827 0.04015124 -0.34169585 0.15254767 0.009384697 -0.21741146 -0.12361249 -0.2573788
00000000: 3acd d53c 6d8e eebd 6d3a 8dbe 35a8 cb3d
00000010: 2464 91be eb6f 073d cae9 943d ab2e af3e
00000020: 2d25 5abe 002b 0f3e 2ccc 993e 9246 09be
00000030: 933c e7bd 8d53 253e d547 f4bd b1cd 263d
00000040: f49e 28be bd0c b83b 616d c7be 5553 26be
00000050: c932 51be 0ad3 a2be 44ef 993d 1799 8c3e
00000060: d33f 32be 08d1 40be c186 2f3d 4bb0 823e
00000070: 4ecb 5abe 4536 c33b 12d4 a8bd 29c8 fa3d
00000080: 6442 57be c1b1 b4be c3e0 b1be 2fba 45be
00000090: 6803 b93e 121e 82bd 3385 983e 52eb 08be
000000a0: 4562 4bbd 01fe 953e 3729 95be 9a34 58be
000000b0: a206 75bb 5712 9dbe 4137 903e 1f70 6c3e
000000c0: c0ee bfbe 09b4 94be 4764 453e cfa0 1d3d
000000d0: 64ae b23d 2602 06be 5f4a 80be 7f63 0cbe
000000e0: ff4d b8bd bd98 853e 862c aa3e 9b15 ab3e
000000f0: ef55 6fbe f1f3 0b3e cefc be3c d43a bfbe
00000100: d4ef af3e cf55 93be d680 c4be 7a64 c5be
00000110: 67b0 0d3e 4637 163e 52db 9b3e 8788 92be
00000120: 37e6 68bd 3c8c b9be b2a5 5ebe a47f 833d
00000130: 69d1 bf3e 27f3 3bbe df98 45be 1749 c2be
00000140: 7dc0 c03e e7e3 063e 46c2 c83e bfd7 1b3e
00000150: eead 633e 0ffd ac3e b7d3 90bd 9508 883e
00000160: 82e3 77be b640 a7be 1b70 29bd 1041 823e
00000170: 1c82 bdbe 7322 50be 124e ba3d 8252 c63e
00000180: 095f 96bd 2406 8ebe a8ce e4bd 7206 22be
00000190: 3c34 41be 84a8 f8b9 1967 b3be cbc5 79bd
000001a0: faa4 adbd 9395 513e f7d2 4abd 11c0 203e
000001b0: ccf7 213e 563c 75be 290b bfbe 4ac4 133d
000001c0: d0ee 6e3c 6802 e73d f75b 173e ad7a 243e
000001d0: 241a 45bd 84f7 913e a2ae 7dbe 63cf 533e
000001e0: 666f 903e 4183 bebe 8aa8 0dbd fcab a93e
000001f0: 14af c13d 21e5 d63d 866c 413e 34f6 1abe
00000200: b2fc bc3e 6018 c3be 7925 adbe 1d98 093d
00000210: f63c eabd cce0 a03e 771b 82be cd6e 49be
00000220: dd88 ed3d aa1e fdbd 4fa8 9c3d b38e 55be
00000230: 6027 083e e3ce 803e 4a7f a3bd 703f 86be
00000240: ca8b b23e 2f77 9d3e e5be acbd 0398 4dbc
00000250: 3db6 fabd 624a 383e d5aa 1d3e 2b66 103e
00000260: 4f17 833d 74bc b13d 59b5 523d d45f c13d
00000270: 97c7 983e 81ec ad3e 3200 483e 9b46 c4be
00000280: 0ca3 883e 4d9c a5bd 6bc7 68be e04e 84be
00000290: aa6b 433c 1bd0 163e 19eb 0e3c 3a30 47be
000002a0: 93c8 533e 8c2f ab3d f40b 89bd f006 90be
000002b0: f423 a73d aa2f 72bd 80f1 b3be 725e 8b3e
000002c0: 3782 b83e 0be2 443e 2da9 043e 8ee7 583c
000002d0: 4012 1dbe fad9 3a3e 9ee1 24be e1c1 80be
000002e0: a19e 243c 824a f13c 699d 85bd 79fa ccbd
000002f0: 5429 8b3d c08f 583e 10c3 d63d 51e3 3d3e
00000300: 7388 9ebe 9168 813d adce 473d 2875 51be
00000310: 2573 8bbc 40ab 4abe ffd2 0c3e 036f a3be
00000320: fa44 b0be ea22 cc3d c746 0b3e 671b ab3e
00000330: 0d47 773e 8fc3 37bd b69e 093e f25f 353d
00000340: b53e 20be 6bf3 f13d ce1b d43d 56a4 6a3e
00000350: e133 053b 0d5c 0fbe 5335 b23d b633 fd3c
00000360: 6e2d ef3c f47e 3d3e 4c5b 91be 4081 c03e
00000370: ba6e 733c b6f7 c6bd 60b6 a93e 77a7 11be
00000380: 28ed 4bbe 4746 8a3e 8be7 22be 5322 783e
00000390: 3b4e 82be ac71 19be 09ad 51bd 7e4e a1be
000003a0: 2004 c83e f59b 80be a456 1bbe f1af 89be
000003b0: c8a1 3cbe be2b cf3d c362 66be e1b2 d8bd
000003c0: 8c31 87bd 27a2 8e3e f559 1abe e456 493e
000003d0: 0829 c53e d280 30be 20f9 8f3e 8a3b 243e
000003e0: 5189 8d3e a075 243d c2f2 aebe 7535 1c3e
000003f0: 46c2 193c 1ca1 5ebe 8c28 fdbd 27c7 83be

bias f4 [30]
-0.11511573 0.043056194 -0.17978795 -0.14817314 -0.1629142 0.23613638 0.12947533 -0.2814558
-0.18418032 0.036745906 0.20939645 -0.061979715 0.28618905 0.15435445 -0.1036488 -0.022126669
-0.040182296 -0.30312464 0.3066883 0.19917008 -0.20574969 0.28266442 -0.24924238 -0.13250819
-0.11574827 0.1530982 0.067006014 -0.06603212 -0.25361827 -0.31348562
00000000: ccc1 ebbd b15b 303d 551a 38be b3ba 17be
00000010: fbd2 26be bccd 713e 2e95 043e fa1a 90be
00000020: c499 3cbe e082 163d 066c 563e 71de 7dbd
00000030: 5f87 923e 180f 1e3e d245 d4bd fd42 b5bc
00000040: 3196 24bd 2733 9bbe 4006 9d3e 3ef3 4b3e
00000050: 0cb0 52be 64b9 903e 6539 7fbe 3ab0 07be
00000060: 6e0d edbd c6c5 1c3e 733a 893d d93b 87bd
00000070: 41da 81be 3081 a0be

att f4 [1, 1, 10]
-0.09917587 -0.18559283 0.32736295 -0.18233442 -0.16558278 -0.49003476 -0.5681559 0.42731482
0.479423 -0.722142
00000000: b81c cbbd 0c0c 3ebe 1e9c a73e e0b5 3abe
00000010: 888e 29be d6e5 fabe aa72 11bf 02c9 da3e
00000020: ee76 f53e 4cde 38bf

bias f4 [10]
-0.016095102 -0.12949933 0.029044036 -0.012244746 -0.09045084 0.058540348 0.10426324 -0.014001194
-0.02727223 0.08139741
00000000: e0d9 83bc 799b 04be c2ed ed3c 309e 48bc
00000010: 4a3e b9bd 01c8 6f3d f787 d53d 4465 65bc
00000020: 036a dfbc afb3 a63d
