model/gnn/241004_5p/epoch_3.pt (torch, 98024 bytes, 57 tensors)

att f4 [1, 1, 5]
0.02739508 0.053329676 0.056214962 -0.035423588 -0.05821213
00000000: a66b e03c 3870 5a3d a941 663d 5318 11bd
00000010: d86f 6ebd

bias f4 [5]
-0.0075897384 -0.009407354 -0.0061406363 -0.0097574815 -0.008757444
00000000: 57b3 f8bb 4d21 1abc 6437 c9bb d8dd 1fbc
00000010: 627b 0fbc

weight f4 [5, 163]
-0.017789496 -0.00042749487 0.0033059358 -0.015754139 0.00031056194 -0.010086519 -0.007904853 -0.0013547529
-0.015728924 -0.0057501076 0.0012327058 0.0034781126 -0.013915182 0.00040212777 -0.002727384 -0.012959023
-0.015317731 0.0030524172 -0.007947048 -0.009307633 0.0029111155 -0.018276848 -0.01695808 -0.00733721
-0.011548059 0.0013635703 -0.008540228 -0.0073618568 -0.008068868 -0.009424437 0.0013004331 0.005563886
-0.0019336254 0.010005055 0.0015792787 -0.00015021027 0.00029263433 -0.010849256 -0.002826481 -0.0066409223
-0.017760085 -0.017099245 -0.009899658 -0.008530722 -0.012648273 -0.002734686 -0.018383553 -0.009891272
-0.017329425 0.0032201195 -0.015009444 -0.006794496 -0.000118173004 -0.0036578171 0.004311451 0.001006276
0.013167128 -0.000245016 -0.010134444 0.00024827453 0.0015133444 0.008394401 -0.016792947 -0.01582238
0.0045828596 -0.0117799025 -0.0037141852 -0.007488417 0.0016148858 -0.0015727862 0.0037480567 -0.0058651753
-0.00267677 -0.0050649415 -0.0015141079 -0.0085029565 -0.0009920223 -0.007219955 -0.015530757 -0.004190574
0.0013805842 -0.010540793 -0.018253796 0.000685422 -0.022038152 -0.009534997 -0.010185259 -0.00018700416
0.00068796653 0.00097156106 -0.01594346 -0.01552326 -0.012993206 -0.012377519 2.9196395e-05 0.0021971012
-0.015510149 7.975755e-05 0.0059911585 -0.011391052 -0.010880507 0.0011161364 -0.0012687213 -0.008485685
-0.0062355436 0.013324849 -0.035609026 -0.0013862125 -0.011796895 -0.0034089445 -0.010237365 -0.010165107
0.0151908295 0.010546531 -0.008990565 -0.004352942 -0.0014514645 0.010687694 -0.0059143454 -0.010794225
-0.0011341434 -0.010601726 -0.0018932829 -0.0062902584 -0.003991834 -0.009628842 0.0036871666 -0.017612487
0.0030798824 -0.013232329 -0.010095545 0.0057513905 -0.0042498503 -0.0048411745 -0.009021872 0.00187487
-0.01783381 0.0031002066 -0.0141842915 0.0022002603 -0.0053463085 -0.013901891 -0.015946425 -0.009309645
-0.008787206 0.0018050706 -0.010808776 -0.011255357 -0.003552707 -0.002062576 3.1918178e-05 -0.008449347
-0.015770163 -0.000101212274 0.0015619133 0.0023230892 -0.0089744935 -0.008840237 -0.009265359 -0.018554816
-0.008636732 -0.012756906 -0.009949117 -0.012674932 -0.0084704915 -0.0074103144 -0.019557362 -0.007199503
-0.018002234 -0.014529539 0.00012311031 0.0011304473 -0.006810926 0.0015863908 -0.01782588 -0.00040641412
-0.00905187 -0.004215413 -0.019717399 -0.0012378915 -0.01619156 -0.020045236 -0.0038365007 -0.016742565
-0.0057196524 0.0024832746 -0.0036684053 -0.020195337 -0.0055258186 -0.0023832163 0.0045952983 0.0046428097
-0.0009582441 -0.016222345 0.0006618578 -0.0018884685 0.0039140885 -0.0003694619 -0.006688924 0.0010032642
-0.01979952 -0.019268394 0.001150295 -0.0026050159 -0.016742356 -0.0153213935 -0.015746685 -0.013918661
0.00063917413 -0.0047821556 -0.0022097079 -0.004682127 0.00026840158 -0.0022801473 -0.008044061 -0.00012788206
-0.008354114 -0.0057384023 -0.0026202942 -0.01057815 0.004456209 -0.0064885914 0.0066290367 -0.0045668455
-0.004407182 -0.013054948 -0.0071128514 0.0067564333 -0.0024085757 -0.015482272 0.012079229 -0.009934359
-0.008194058 0.0053013484 -0.005538118 -0.008472308 -0.017148413 -0.0070757023 -0.0012709863 0.0068457
-0.003964698 -0.01855156 -0.0007059748 -0.00803373 -0.00076641113 -0.004227206 -0.0030671821 -0.0055461833
0.00013971348 -0.011237474 -0.00963151 0.010843648 0.0019562184 -0.015082289 -0.008699132 -0.014408165
00000000: 47bb 91bc 6421 e0b9 66a8 583b d30e 81bc
00000010: ebd2 a239 ed41 25bc 5b83 01bc f791 b1ba
00000020: f2d9 80bc 666b bcbb be92 a13a 0cf1 633b
00000030: 81fc 63bc add4 d239 e9bd 32bb 1552 54bc
00000040: 38f7 7abc 100b 483b 5634 02bc 0b7f 18bc
00000050: 6ac8 3e3b 54b9 95bc aceb 8abc fa6c f0bb
00000060: 1234 3dbc d4b9 b23a 50ec 0bbc bb3b f1bb
00000070: 4933 04bc f468 1abc 4b73 aa3a 4251 b63b
00000080: b471 fdba 3eec 233c cdff ce3a c381 1db9
00000090: b76c 9939 14c1 31bc 7b3c 39bb 189c d9bb
000000a0: 997d 91bc b713 8cbc 2d32 22bc 71c4 0bbc
000000b0: b43a 4fbc 6b38 33bb 1b99 96bc 000f 22bc
000000c0: 70f6 8dbc a408 533b 2cea 75bc 5da4 debb
000000d0: a6d3 f7b8 fdb7 6fbb 1347 8d3b 05e5 833a
000000e0: f0ba 573c 7e75 80b9 f00a 26bc d82a 8239
000000f0: 695b c63a ab88 093c 5d91 89bc f09d 81bc
00000100: d02b 963b 7e00 41bc b069 73bb 6561 f5bb
00000110: 93aa d33a f325 ceba f5a1 753b a830 c0bb
00000120: c06c 2fbb cff7 a5bb 0875 c6ba fc4f 0bbc
00000130: bf06 82ba 5f95 ecbb b774 7ebc 1551 89bb
00000140: b8f4 b43a 4ab3 2cbc fc88 95bc e4ad 333a
00000150: 5b89 b4bc ad38 1cbc 13e0 26bc 8c16 44b9
00000160: a758 343a 5cb0 7e3a dc9b 82bc 4655 7ebc
00000170: 75e1 54bc 14cb 4abc c8ea f437 3efd 0f3b
00000180: 481e 7ebc 8243 a738 7b51 c43b 89a1 3abc
00000190: 2744 32bc 534b 923a 394b a6ba 8b07 0bbc
000001a0: 8853 ccbb 7850 5a3c c5da 11bd 93b1 b5ba
000001b0: c447 41bc 9968 5fbb 9fba 27bc 8d8b 26bc
000001c0: f5e2 783c 5bcb 2c3c 2a4d 13bc 20a3 8ebb
000001d0: 113f beba 701b 2f3c 20cd c1bb 43da 30bc
000001e0: 8aa7 94ba ddb2 2dbc 0828 f8ba 831e cebb
000001f0: eecd 82bb 4ac2 1dbc 64a4 713b 1048 90bc
00000200: dad7 493b 69cc 58bc c967 25bc 2976 bc3b
00000210: 5442 8bbb b7a2 9ebb 79d0 13bc 33be f53a
00000220: 3618 92bc d62c 4b3b 3b65 68bc 3e32 103b
00000230: 1630 afbb c2c4 63bc 14a2 82bc 7b87 18bc
00000240: 37f8 0fbc 1e98 ec3a 4b17 31bc 6468 38bc
00000250: 88d4 68bb 482c 07bb e2df 0538 216f 0abc
00000260: 6e30 81bc ed41 d4b8 1db9 cc3a f83e 183b
00000270: c109 13bc a4d6 10bc bbcd 17bc 4500 98bc
00000280: 1481 0dbc 5802 51bc 9f01 23bc 85aa 4fbc
00000290: d1c7 0abc 39d2 f2bb c336 a0bc cfe9 ebbb
000002a0: 6c79 93bc 4e0d 6ebc 2c17 0139 842b 943a
000002b0: 302e dfbb 71ee cf3a 9407 92bc fb13 d5b9
000002c0: 4b4e 14bc 7221 8abb 6286 a1bc bf40 a2ba
000002d0: 2aa4 84bc e835 a4bc cd6d 7bbb b427 89bc
000002e0: ec6b bbbb 6fbe 223b a169 70bb b170 a5bc
000002f0: ed11 b5bb bc2f 1cbb 2894 963b b622 983b
00000300: ac32 7bba b9e4 84bc 8680 2d3a 7d86 f7ba
00000310: c141 803b 56b4 c1b9 c32e dbbb f67f 833a
00000320: 9a32 a2bc c0d8 9dbc 7fc5 963a eab8 2abb
00000330: 4427 89bc 9506 7bbc 31ff 80bc 180b 64bc
00000340: 408e 273a a1b3 9cbb bfd0 10bb 876c 99bb
00000350: 40b8 8c39 866e 15bb 3dcb 03bc 1418 06b9
00000360: b2df 08bc 3509 bcbb 3eb9 2bbb fa4f 2dbc
00000370: 6405 923b 409e d4bb 6438 d93b 7aa5 95bb
00000380: 1f6a 90bb 6ce4 55bc ec12 e9bb 1265 dd3b
00000390: 32d9 1dbb 5ba9 7dbc f5e7 453c b9c3 22bc
000003a0: 5f40 06bc efb6 ad3b 1a79 b5bb 6fcf 0abc
000003b0: d47a 8cbc 4bdb e7bb 3997 a6ba e551 e03b
000003c0: 4cea 81bb 71f9 97bc 2b11 39ba e89f 03bc
000003d0: fbe8 48ba 6084 8abb c702 49bb c2bc b5bb
000003e0: 0d80 1239 621d 38bc 7bcd 1dbc 8ea9 313c
000003f0: e633 003b b51b 77bc ce86 0ebc 3910 6cbc

bias f4 [5]
-0.0111464225 -0.008098305 -0.0019756684 -0.0059158583 -0.012139245
00000000: 7c9f 36bc c1ae 04bc 377a 01bb d1d9 c1bb
00000010: afe3 46bc

weight f4 [5, 163]
0.0063409656 -0.00072959566 -0.0010222578 0.0064754286 -0.00553202 -0.006595988 -0.0062903976 0.0052062315
0.0019140481 -0.010283161 -0.0075045004 -0.010241056 0.0086174 0.009793689 -0.0022096678 0.011049197
-0.008851414 0.0038467932 -0.0075504016 -0.01043734 -0.010054199 0.008732872 -0.0020882639 -0.0030830111
-0.0093996795 0.01056785 -0.006406911 -0.005848728 -7.4165255e-05 0.0070609762 0.008533371 -0.005846696
0.004915776 -0.004234186 0.010380519 -0.004213141 -0.00011456776 -0.0074813273 -0.0021674244 -0.0058674407
0.0075178 0.0034580026 0.0028417485 0.007925968 0.00533935 0.0006136913 -0.0022146294 0.00237813
-0.00168923 -0.007113404 -0.002886537 -0.004556007 -0.0024219807 0.007869594 0.00032788553 0.0061422107
-0.00025234575 0.005575752 0.008648366 -0.009549148 -0.0009140832 -0.010630078 -0.0036295084 0.006751161
0.0011035887 -0.0077314135 0.009771475 0.002386512 -0.0050035743 0.004642183 -0.0055329935 -0.0062556337
0.002366051 0.0050070346 -0.00024404954 0.005277799 0.0044242577 0.007474574 0.004836663 -0.0052609653
0.00037092177 -0.00015356728 0.0009956089 -0.007234038 -0.003114396 -0.005407171 -0.010201149 -0.0021094938
0.0038566939 -0.009486542 -0.0056039663 -0.005976427 -0.0026695712 0.0030703617 0.0021470366 0.0035381843
-0.00073646137 -0.003295193 -0.0027218827 0.00060183543 0.009560621 0.0108457105 -0.009200378 0.00018850945
0.0012176702 0.001503523 0.007073994 -0.0034266817 0.0055803084 0.0031834072 0.0017303645 -0.00073428446
0.008806976 -0.007085613 -0.0063107456 -0.003200607 0.0035743502 0.008876343 -0.0032193898 -0.0015489202
0.0031035691 -0.0059820977 0.00486849 0.010095413 0.0033488115 -0.002250365 -0.0012397021 0.000984276
-0.010329797 -0.005068466 0.010741869 0.0069914865 0.0082145585 -0.0034915565 0.0031663121 -0.0040662265
0.0058121653 0.0006050646 -0.01034282 -0.003175661 0.008809414 0.010411742 0.0031219812 0.005796125
-0.00127801 -0.0007385607 -0.002582532 -0.007711153 -0.0078097726 0.00180068 -6.9218535e-05 -0.01041746
0.0025505861 0.009308932 -0.010554772 8.265616e-05 -0.0014789515 -0.00793948 0.00736999 -0.0077971816
-0.010345371 0.0020762812 -0.0047834944 -0.0053081117 -0.0011843751 0.0006624678 -0.0057493616 0.009569259
-0.009056203 -0.0038922422 -0.006267613 -0.0018755738 7.798191e-05 0.008838607 0.007980762 0.003649833
0.010915326 0.004521982 -0.009483039 0.00788361 0.009963164 2.931991e-05 -0.001544439 0.0057439194
0.007499688 0.0086213015 -0.005149564 0.0038009183 0.009881952 0.000745636 -0.009386597 0.01010532
-0.0028430175 -0.003711063 -0.005392442 0.0042938916 -0.010132626 0.0041606985 0.00097205717 0.009261016
0.0060348185 0.003827071 -0.0029519545 -0.007922343 0.008148602 -0.009993896 0.0067171794 -0.0033547988
0.0034879665 -0.00674984 -0.010333456 0.009708837 0.00010465668 -0.007141359 -0.006043226 0.0019384747
-0.0015958962 -0.008838618 -0.007721894 0.009874351 -0.009412529 -0.009001809 0.0044012927 -0.008788618
-0.00050584454 0.0032111746 -0.0101636145 -0.0036088766 -0.008983758 0.009277783 -0.00017422398 0.0006318635
0.009802698 0.00697538 0.008630571 0.008985629 0.009006957 0.004195376 0.0049753436 -0.008198053
-0.009625214 0.0015932071 -0.00825688 0.0059444 -0.0061535602 -0.006656467 -0.005103874 0.011038495
0.0034248019 -0.002085888 0.005471215 0.0029275357 -0.0076705157 0.010448358 -0.008817536 0.0018612639
00000000: e0c7 cf3b 5642 3fba 48fd 85ba d52f d43b
00000010: f245 b5bb 2823 d8bb ae1f cebb 0999 aa3b
00000020: cce0 fa3a b47a 28bc 50e8 f5bb 1aca 27bc
00000030: ff2f 0d3c b575 203c 13d0 10bb b107 353c
00000040: 8505 11bc 7b1a 7c3b 5c69 f7bb 6001 2bbc
00000050: 5eba 24bc 5214 0f3c 41db 08bb 580c 4abb
00000060: 1d01 1abc c724 2d3c 11f1 d1bb b0a6 bfbb
00000070: 2b89 9bb8 c35f e73b 8dcf 0b3c a495 bfbb
00000080: 8514 a13b edbe 8abb 0d13 2a3c 630e 8abb
00000090: 1944 f0b8 ec25 f5bb 590b 0ebb a943 c0bb
000000a0: e157 f63b a89f 623b a13c 3a3b ebdb 013c
000000b0: b7f5 ae3b 20e0 203a 5123 11bb 67da 1b3b
000000c0: 2769 ddba 8f17 e9bb 0e2c 3dbb 8f4a 95bb
000000d0: 18ba 1ebb 78ef 003c 0de8 ab39 9944 c93b
000000e0: 464d 84b9 ccb4 b63b e0b1 0d3c 0874 1cbc
000000f0: 169f 6fba c729 2ebc 0cdd 6dbb d838 dd3b
00000100: 4ba6 903a cc57 fdbb 8918 203c 0767 1c3b
00000110: 06f5 a3bb 741d 983b 1d4e b5bb 0ffc ccbb
00000120: c00f 1b3b 0d12 a43b 8de7 7fb9 63f1 ac3b
00000130: 5df9 903b 45ed f43b df7c 9e3b 2d64 acbb
00000140: 4778 c239 e706 21b9 177f 823a 820b edbb
00000150: e51a 4cbb a32e b1bb b822 27bc 6f3f 0abb
00000160: 96c0 7c3b 716d 1bbc 7aa1 b7bb e7d5 c3bb
00000170: f9f3 2ebb 1f38 493b 4cb5 0c3b e2e0 673b
00000180: 160f 41ba 2af4 57bb 9d61 32bb 7ec4 1d3a
00000190: 27a4 1c3c 35b2 313c 2fbd 16bc 9faa 4539
000001a0: 3b9a 9f3a dc11 c53a f6cc e73b 2e92 60bb
000001b0: 05db b63b b6a0 503b 66cd e23a ff7c 40ba
000001c0: 224b 103c 6e2e e8bb 5fca cebb 46c1 51bb
000001d0: a53f 6a3b 156e 113c 66fc 52bb 2305 cbba
000001e0: 4065 4b3b 7905 c4bb db87 9f3b 3b67 253c
000001f0: bc77 5b3b dc7a 13bb 807d a2ba d202 813a
00000200: 4f3e 29bc 6015 a6bb aafe 2f3c d718 e53b
00000210: 5b96 063c 99d2 64bb e781 4f3b fb3d 85bb
00000220: fa73 be3b 339d 1e3a ee74 29bc c01e 50bb
00000230: 5c55 103c 0396 2a3c 279a 4c3b 6ced bd3b
00000240: e682 a7ba f89b 41ba b23f 29bb d7ad fcbb
00000250: 1fe9 ffbb cb04 ec3a 6b29 91b8 ffad 2abc
00000260: bc27 273b 7e84 183c eced 2cbc b057 ad38
00000270: 61d9 c1ba 9814 02bc f57f f13b 807f ffbb
00000280: a27f 29bc 3812 083b dcbe 9cbb abef adbb
00000290: 093d 9bba 76a9 2d3a 2465 bcbb 62c8 1c3c
000002a0: 7860 14bc fd14 7fbb 8c60 cdbb d0d5 f5ba
000002b0: 388a a338 cecf 103c bec1 023c 0932 6f3b
000002c0: 32d6 323c 222d 943b c05e 1bbc 422a 013c
000002d0: 8a3c 233c 07f4 f537 c66e caba 7d37 bc3b
000002e0: f1bf f53b 5c40 0d3c acbd a8bb d418 793b
000002f0: e9e7 213c c976 433a 3eca 19bc c990 253c
00000300: eb51 3abb 4e35 73bb 15b3 b0bb c6b3 8c3b
00000310: 5003 26bc 7856 883b a7d1 7e3a 84bb 173c
00000320: babf c53b 99cf 7a3b 9475 41bb b7cc 01bc
00000330: b781 053c 70bd 23bc c91b dc3b 2fdc 5bbb
00000340: 5e96 643b c32d ddbb a84d 29bc d011 1f3c
00000350: 217b db38 1002 eabb 4106 c6bb 6b14 fe3a
00000360: 642d d1ba dacf 10bc f107 fdbb 08c8 213c
00000370: 0237 1abc 537c 13bc b838 903b 23fe 0fbc
00000380: a79a 04ba 9272 523b 4a85 26bc e782 6cbb
00000390: 9d30 13bc d801 183c e5af 36b9 a4a3 253a
000003a0: 7f9b 203c ba91 e43b 3d67 0d3c 7638 133c
000003b0: ea91 133c 5d79 893b 3508 a33b 2051 06bc
000003c0: 13b3 1dbc 29d3 d03a dd47 07bc 3ec9 c23b
000003d0: cea3 c9bb 7e1e dabb 663e a7bb ceda 343c
000003e0: a472 603b 65b3 08bb e147 b33b e6db 3f3b
000003f0: f358 fbbb 972f 2b3c 6d77 10bc a7f5 f33a

bias f4 [5]
-0.00062547944 0.0030569911 -0.0005641549 -0.0017527007 0.0009440996
00000000: 37f7 23ba cd57 483b cbe3 13ba e0ba e5ba
00000010: 747d 773a

weight f4 [10, 163]
0.0050807195 0.017036572 -0.005304409 -0.10228108 0.0065640174 0.011903282 0.012875072 0.0059139905
-0.01687726 -0.021063952 0.003728066 0.008071453 0.011695022 0.0010751986 -0.0029366591 0.0014171789
0.000989974 -0.09386531 -0.018557567 -0.09203876 -0.0024727748 -0.019332552 -0.031097068 -0.011525961
0.012408137 -0.0021098482 0.0078182435 0.00023768544 -0.110430986 -0.029835144 0.052757274 -0.007796471
0.038071685 -0.002864026 0.0014129747 -0.019664992 0.0017533135 -0.007584491 0.0051652133 -0.0007889155
-0.012554466 -0.03799638 -0.0055006477 0.00076048536 -0.0046031373 0.013216143 0.032382216 0.015187831
0.0044774627 0.002519764 0.034073938 -0.0063265203 -0.027536275 0.0010744579 0.002322961 0.081608966
-0.018062226 0.010915962 0.008321108 -0.08190921 0.049433205 -0.00085506315 -0.010525654 -0.023802774
0.0021076982 -0.09816959 0.04351072 0.009355309 0.0029910584 0.20303966 -0.0010611258 -0.005307797
-0.0003876818 -0.014792318 0.00021616086 -0.0019173268 -0.0028769062 -0.0015224771 0.009579553 -0.18227056
-0.00553111 -0.004682727 -0.00110227 0.0027116083 -0.01982624 0.006202819 -0.007528917 0.0031444384
0.00091764546 -0.0011120867 -0.001528185 0.0061731064 0.25788307 -0.00069594657 -0.05060186 -0.001572995
-0.020595908 0.002372992 0.17335032 0.058184117 0.14579347 0.016765462 0.009600887 0.04816463
0.00062938716 -0.036145296 -0.11741947 -0.0043082293 -0.11395653 -0.005128132 0.007981257 0.0012192721
0.19685298 -0.0022308314 -0.0002621381 0.0024003233 -0.011395868 0.002251187 0.0038062807 0.0041371738
-0.0011685109 0.004495115 -0.16275103 -0.0019701296 -0.005567872 0.00048739213 0.0017512927 -0.017307593
-0.0096747475 -0.0067291874 0.00085174077 0.0033891802 0.0006390615 -0.026549011 0.077354744 0.109636955
0.021539489 -0.004259583 0.008829489 0.026007183 -0.00063911435 0.004765303 0.0014002543 -0.008571221
-0.018847454 0.0071542556 -0.013088907 -0.016256915 -0.005477211 0.00076713384 -0.029587394 0.05058008
0.017144138 0.005606948 0.026616042 -0.00085291127 0.012523318 -0.00055565324 -0.019923145 -0.01239631
-0.038902484 0.012402442 -0.088561326 -0.007526229 -0.008600839 -0.011946502 -0.04543239 0.017901825
0.0015725639 -0.0029465533 -0.0086252885 -0.007801358 -0.006352054 0.003392618 -0.0006609502 0.0049644676
0.0022572977 -0.0041946815 0.0031546594 -0.012333298 -0.12825812 -0.032287076 -0.05015065 -0.016896216
0.0036308244 -0.01853359 -0.00807352 -0.0029410338 0.0019903127 0.026151095 -0.0021739453 0.027063247
-0.01580838 0.018249929 0.0099454485 -0.0071658147 0.0025429185 -0.082686886 -0.022469228 0.008709292
-0.003020662 0.006457188 0.028424652 -0.024118276 -0.031552218 0.008802824 0.009143983 0.018929385
0.017305665 0.04415732 0.02596019 0.009328167 0.022396958 -0.014374038 -0.012370359 0.010148319
-0.00037280336 0.0004045095 0.051054765 -0.020694135 0.00094777136 -0.008253469 -0.06420945 0.11747632
0.0025092761 0.004099477 -0.005570204 0.0035463984 -0.06349106 0.027004333 0.008076315 0.0011698671
0.10217359 -0.0013523941 -0.0049358206 -0.0031729643 -0.0071502407 0.0023235222 0.0031908404 -0.00418777
0.0018176272 -0.0036008707 -0.028688747 -0.0096188905 0.0054366956 -0.006312694 -0.0038324487 -0.0010173657
-0.00064023945 0.00714332 0.0037556451 -0.003443631 0.0033634515 -0.018685862 0.08980501 0.2098939
00000000: 2a7c a63b 4890 8b3c 9cd0 adbb be78 d1bd
00000010: f816 d73b fc05 433c f7f1 523c 26ca c13b
00000020: 2e42 8abc 4f8e acbc 9252 743b 213e 043c
00000030: 7a9c 3f3c aeed 8c3a f774 40bb a2c0 b93a
00000040: 04c2 813a 753c c0bd 0a06 98bc d17e bcbd
00000050: 470e 22bb 4d5f 9ebc 47bf febc 62d7 3cbc
00000060: 804b 4b3c 6145 0abb 1718 003c 333b 7939
00000070: a429 e2bd d568 f4bc 0318 583d 8a79 ffbb
00000080: 0ef1 1b3d 62b2 3bbb 9033 b93a 7a18 a1bc
00000090: 70cf e53a 5287 f8bb f340 a93b 39cf 4eba
000000a0: 3fb1 4dbc 18a2 1bbd c73e b4bb 4f5b 473a
000000b0: ead5 96bb 8588 583c 37a3 043d 61d6 783c
000000c0: aeb7 923b a022 253b 1d91 0b3d b34e cfbb
000000d0: c193 e1bc d3d4 8c3a d23c 183b 9a22 a73d
000000e0: 3cf7 93bc ddd8 323c 4255 083c 04c0 a7bd
000000f0: 797a 4a3d 5126 60ba cb73 2cbc 09fe c2bc
00000100: 4f21 0a3b 230d c9bd 4c38 323d 0347 193c
00000110: a205 443b a1e9 4f3e 7915 8bba 07ed adbb
00000120: c541 cbb9 7b5b 72bc 3da9 6239 d04e fbba
00000130: 7a8a 3cbb db8d c7ba 8ff3 1c3c 22a5 3abe
00000140: 503e b5bb 9071 99bb 0b7a 90ba 3db5 313b
00000150: a46a a2bc 0441 cb3b 22b5 f6bb ec12 4e3b
00000160: 258e 703a 70c3 91ba 614d c8ba c547 ca3b
00000170: 4009 843e 2f70 36ba e543 4fbd f42c ceba
00000180: c0b8 a8bc 3384 1b3b bf82 313e 7852 6e3d
00000190: e24a 153e b957 893c 0a4d 1d3c 4648 453d
000001a0: 75fd 243a 170d 14bd 9e79 f0bd 0c2c 8dbb
000001b0: 0b62 e9bd e409 a8bb d1c3 023c fccf 9f3a
000001c0: d493 493e 2433 12bb 956f 89b9 be4e 1d3b
000001d0: bcb5 3abc a788 133b cb72 793b 2191 873b
000001e0: b828 99ba c24b 933b 35a8 26be 4a1d 01bb
000001f0: b272 b6bb aa88 ff39 a28b e53a a7c8 8dbc
00000200: d582 1ebc 8480 dcbb 5b47 5f3a 021d 5e3b
00000210: b186 273a 507d d9bc 2a6c 9e3d 5789 e03d
00000220: 9573 b03c f993 8bbb 90a9 103c 040d d53c
00000230: 3d8a 27ba 4226 9c3b bd88 b73a 4e6e 0cbc
00000240: fa65 9abc 3f6e ea3b db72 56bc 392d 85bc
00000250: 2d7a b3bb 7b19 493a 4361 f2bc 0f2d 4f3d
00000260: dd71 8c3c 7dba b73b e309 da3c e895 5fba
00000270: 9a2e 4d3c 42a9 11ba dd35 a3bc e519 4bbc
00000280: 3658 1fbd 9d33 4b3c a45f b5bd 969e f6bb
00000290: 89ea 0cbc 43bb 43bc 5017 3abd d9a6 923c
000002a0: 7d1e ce3a f61a 41bb 1551 0dbc 89a2 ffbb
000002b0: e424 d0bb af56 5e3b 9e43 2dba f9ac a23b
000002c0: 2cef 133b 8a73 89bb 67be 4e3b 9a11 4abc
000002d0: 1956 03be 743f 04bd c56a 4dbd ef69 8abc
000002e0: 20f3 6d3b c1d3 97bc cc46 04bc 5cbe 40bb
000002f0: e86f 023b d23a d63c c078 0ebb beb3 dd3c
00000300: 9380 81bc e080 953c 3cf2 223c 36cf eabb
00000310: 18a7 263b be57 a9bd 6311 b8bc 6bb1 0e3c
00000320: 4df6 45bb d296 d33b d1da e83c b193 c5bc
00000330: e63c 01bd b839 103c a5d0 153c cc11 9b3c
00000340: 9cc4 8d3c 4ede 343d 77aa d43c 2bd5 183c
00000350: d379 b73c 1681 6bbc 0cad 4abc 2345 263c
00000360: d274 c3b9 5914 d439 cd1e 513d bf86 a9bc
00000370: dc73 783a 8f39 07bc 3e80 83bd 6d97 f03d
00000380: ab72 243b e854 863b 4286 b6bb b16a 683b
00000390: 9a07 82bd 3138 dd3c 8552 043c 3a56 993a
000003a0: 6340 d13d d142 b1ba aabc a1bb 82f1 4fbb
000003b0: 914c eabb 3c46 183b 6b1d 513b 9039 89bb
000003c0: 733d ee3a 96fc 6bbb aa04 ebbc 8d98 1dbc
000003d0: 4f26 b23b b7da cebb d229 7bbb 2159 85ba
000003e0: bed5 27ba 8312 ea3b 4521 763b 8bae 61bb
000003f0: 5a6d 5c3b 1813 99bc b0eb b73d 6dee 563e

bias f4 [10]
-0.0005035033 0.0012275993 0.00051707233 0.001701107 0.0017317221 0.0036063576 0.0039828834 0.0030867737
0.00042561523 -0.0012801758
00000000: 89fd 03ba 66e7 a03a 238c 073a aef7 de3a
00000010: f4fa e23a a458 6c3b d982 823b 784b 4a3b
00000020: 1c25 df39 92cb a7ba

weight f4 [10, 9]
-0.02912056 0.006453234 0.0060253493 -0.0036385935 -0.016086558 -0.0002778215 -0.019465387 -0.0048404518
0.0027413594 -0.05715396 -0.01730894 0.007185806 -0.0056923446 0.014149209 0.011361151 0.003172499
-0.0048604505 -0.0052306824 -0.015264297 -0.00045003268 0.0026154334 -0.009783041 0.017797276 -0.0048713293
0.015809024 0.0018010804 0.014208034 0.012651074 0.0005846481 -0.0053617368 -0.004717635 -0.0065699075
-0.012606994 0.013496673 0.0053419895 0.0026699326 -0.027767338 -0.004042696 -0.015107789 -0.0093506845
0.015417968 -0.017466877 -0.0039795013 -0.00095409725 0.015219569 0.014380174 0.0016117314 -0.005688775
-0.009456204 0.01575768 -0.012507709 -0.015238472 -0.012165272 0.011529549 0.061664168 0.019218203
0.0005777735 0.018230923 -0.0051731328 0.013943223 0.014454755 0.017132062 0.015777843 -0.01823641
-0.0044632712 0.008883657 -0.011103932 -0.009216126 -0.009795088 -0.011144724 -0.0062511466 -0.016909925
0.049383756 0.018580142 0.008791418 -0.004551271 0.012557644 -0.0056901416 -0.00093248836 -0.013447621
0.009938366 -0.03679345 0.012605346 -0.0003479046 -0.0041693803 -0.00841981 0.01693587 0.017458227
-0.0066758846 -0.0021429579
00000000: 3e8e eebc a675 d33b 4b70 c53b 7875 6ebb
00000010: f5c7 83bc 92a8 91b9 e075 9fbc a79c 9ebb
00000020: 61a8 333b 451a 6abd 7acb 8dbc e976 eb3b
00000030: d986 babb 15d2 673c 1f24 3a3c b3e9 4f3b
00000040: 6a44 9fbb 2566 abbb 1a17 7abc 5df2 ebb9
00000050: b167 2b3b 0c49 20bc 98cb 913c ac9f 9fbb
00000060: ed81 813c 3b12 ec3a d0c8 683c 7346 4f3c
00000070: 1243 193a 82b1 afbb 6496 9abb 6148 d7bb
00000080: 918d 4ebc 2621 5d3c db0b af3b 09fa 2e3b
00000090: 5478 e3bc 9878 84bb a986 77bc 9d33 19bc
000000a0: a59b 7c3c b216 8fbc 7a66 82bb 621c 7aba
000000b0: 805b 793c d29a 6b3c bb40 d33a e768 babb
000000c0: 32ee 1abc 4016 813c 22ed 4cbc c9aa 79bc
000000d0: d950 47bc 6fe6 3c3c 9193 7c3d 7e6f 9d3c
000000e0: b975 173a 0459 953c 6283 a9bb 1e72 643c
000000f0: a3d3 6c3c 8a58 8c3c 8940 813c 8664 95bc
00000100: a240 92bb c28c 113c 44ed 35bc 3cff 16bc
00000110: 947b 20bc 5c98 36bc 6bd6 ccbb af86 8abc
00000120: 9f46 4a3d 6235 983c e109 103c d422 95bb
00000130: 94be 4d3c 5e74 babb 3c72 74ba 6953 5cbc
00000140: 87d4 223c bbb4 16bd a786 4e3c f766 b6b9
00000150: 4c9f 88bb 3ef3 09bc 18bd 8a3c 8e04 8f3c
00000160: 61c1 dabb de70 0cbb

bias f4 [10]
-0.015976865 0.002804459 -0.009444816 0.008895548 -0.010372827 0.017502155 -0.012253269 -0.007628555
-0.0100964205 -0.020229992
00000000: eae1 82bc 04cb 373b 6ebe 1abc a2be 113c
00000010: caf2 29bc ae60 8f3c efc1 48bc f5f8 f9bb
00000020: 756b 25bc 5eb9 a5bc

weight f4 [10, 163]
0.008075284 0.008741432 0.006010395 0.007228506 0.007014768 0.0065472065 0.007435673 0.005061642
0.007909387 0.009003221 0.009178443 0.012052956 0.011843545 0.004808375 0.0030539548 0.0029347304
-0.008203531 0.011151774 0.012806036 0.006571883 0.0055530453 0.011615801 0.012101751 0.009416855
0.013553722 0.0035684837 0.0073571145 0.0029950587 0.011486253 0.009556759 0.0043054065 0.003058536
0.013778798 0.000980458 0.0067036464 0.009177001 0.008278868 0.007955167 0.005909856 0.012693148
0.0036548476 0.004518904 0.006561054 0.0009196094 0.0049812878 0.0026169335 -0.0013621625 0.012912939
0.009415908 0.010653046 0.007125138 0.004335096 0.005031575 -0.00029407832 -0.004007893 0.012722335
0.0115622375 0.0146039855 0.008388473 0.021724304 -0.0118024135 0.00084708864 -0.0075121867 0.01464309
-0.002565343 0.027528396 0.0015116358 0.0032152433 0.0041989456 0.036575634 -0.0021491565 0.0012059484
0.007867838 0.008307268 -0.0009829783 0.015001272 -0.001429438 -0.0044040405 0.036599044 0.07992748
0.010556868 0.01692838 0.004604114 0.0015210349 0.019982373 0.012406865 0.01310798 -0.0033978436
0.0011935642 -0.0007950783 0.010998827 0.011681648 0.0021539405 0.0016799639 0.0051336633 0.00043613804
0.014904827 0.00027318756 0.013617696 -0.27493405 -0.014905881 0.0077277804 0.010281963 -0.015229485
-0.0022941583 0.18312936 0.042552307 -0.0006419616 0.024658974 0.003564494 0.03777795 0.0073724957
0.06958508 0.0008083484 -0.0037280153 0.004230815 0.012886955 0.00023973464 0.009474347 -0.0036803037
0.004375701 0.027961737 0.087217115 0.0070024333 0.0066442178 0.006150012 0.0042097196 0.013304119
0.007543939 0.0069075963 0.0017272343 -0.004065466 -0.003338754 0.0065170913 -0.01525053 -0.0041149505
0.011597789 0.0003895249 0.007627986 0.009290774 0.0129220085 0.012924325 0.008633098 0.012838634
0.0076140645 0.008194396 0.0069411374 0.010840778 0.010370742 0.010721074 0.010459573 0.008286284
0.007873983 0.0137969935 0.005436489 0.0070011416 0.010927296 0.01400906 0.013199586 0.012422172
0.0166155 0.02231245 0.016671246 0.0135844955 0.004873015 0.006542577 0.009925475 0.0094421
0.006368112 0.0007169111 0.006015221 0.006920115 0.005830273 -0.005037487 -0.0033042894 -0.010380403
-0.00504414 -0.017770955 -0.01334641 -0.034315545 0.0061806706 0.016295506 0.002472775 0.011842661
-0.0070097996 0.0066198753 0.008959194 0.017687628 0.00039758332 -0.010870417 0.0011042925 -0.0008453266
0.014192049 0.022661867 0.013129871 -0.002251004 0.0005252761 0.025692193 0.0023584084 0.004211115
0.0070904866 0.00057935424 0.0065110787 -0.00023103313 0.007972722 -0.0041799406 0.001959588 -0.0008114015
0.00025576755 -0.060917657 0.012005139 0.005490758 0.0004529539 0.007628253 0.013287958 0.0059849583
0.0007218025 0.0021644642 0.011365248 -0.025030376 0.016674258 -0.005267731 -0.0025333827 -0.048811093
0.0019973442 -0.0137993265 0.020706471 0.0015443767 0.001723387 -0.008645658 -0.00094468263 -0.0008092294
0.0013670049 -0.0022481368 0.00072210643 0.013355913 0.0030370906 -0.00012048249 0.0032029236 -0.00047887737
-0.0033781491 -0.018986126 0.02042567 0.007032917 0.014563067 0.009356954 -0.004327137 -0.0028375818
0.016897958 0.019591078 0.0021264716 -0.0034319141 0.0035114589 0.020696167 -0.0022397593 0.012827588
00000000: 324e 043c 3938 0f3c d9f2 c43b 1add ec3b
00000010: 24dc e53b f389 d63b f2a6 f33b 21dc a53b
00000020: 6096 013c 3f82 133c 2e61 163c c379 453c
00000030: 6e0b 423c 938f 9d3b dc24 483b 9b54 403b
00000040: 1a68 06bc eeb5 363c 68d0 513c f358 d73b
00000050: 52f6 b53b 3350 3e3c 6c46 463c 2749 1a3c
00000060: 6e10 5e3c 39dd 693b f313 f13b bf48 443b
00000070: d630 3c3c f493 1c3c 5e14 8d3b b871 483b
00000080: 78c0 613c b682 803a 43aa db3b 225b 163c
00000090: 17a4 073c 6456 023c 77a7 c13b ecf6 4f3c
000000a0: 2b86 6f3b 5013 943b 1cfe d63b f111 713a
000000b0: 123a a33b dc80 2b3b 978a b2ba cb90 533c
000000c0: 2e45 1a3c 1d8a 2e3c fd79 e93b 6c0d 8e3b
000000d0: e9df a43b 862e 9ab9 a554 83bb 5771 503c
000000e0: 8a6f 3d3c 8e45 6f3c ce6f 093c 2bf7 b13c
000000f0: e95e 41bc 280f 5e3a ca28 f6bb 92e9 6f3c
00000100: 501f 28bb 3b83 e13c 1522 c63a d5b6 523b
00000110: 4f97 893b 55d0 153d ddd8 0cbb ea10 9e3a
00000120: 1be8 003c 351b 083c 47d7 80ba e5c7 753c
00000130: fb5b bbba c54f 90bb e1e8 153d 05b1 a33d
00000140: b7f6 2c3c 63ad 8a3c 1cde 963b 765d c73a
00000150: 13b2 a33c 2a46 4b3c dac2 563c 5bae 5ebb
00000160: 5e71 9c3a cd6c 50ba 6d34 343c 6264 3f3c
00000170: 2029 0d3b 3c32 dc3a 4a38 a83b 75a9 e439
00000180: 6033 743c 9d3a 8f39 c21c 5f3c 28c4 8cbe
00000190: cc37 74bc 5239 fd3b ae75 283c 1785 79bc
000001a0: 9759 16bb 4386 3b3e 544b 2e3d 5049 28ba
000001b0: 9e01 ca3c 499a 693b 0dbd 1a3d fa94 f13b
000001c0: 9f82 8e3d 58e7 533a b851 74bb a6a2 8a3b
000001d0: cf23 533c 4761 7b39 4b3a 1b3c 4031 71bb
000001e0: 0a62 8f3b 0310 e53c e39e b23d ab74 e53b
000001f0: bdb7 d93b 0a86 c93b b0f1 893b 85f9 593c
00000200: 2633 f73b 1e59 e23b 5e64 e23a 9a37 85bb
00000210: ffce 5abb 538d d53b 5cdd 79bc b5d6 86bb
00000220: a704 3e3c 2639 cc39 2ff4 f93b 5538 183c
00000230: d5b6 533c 8cc0 533c d671 0d3c 2259 523c
00000240: 677f f93b ca41 063c 7b72 e33b 859d 313c
00000250: 0bea 293c 72a7 2f3c a15e 2b3c 32c3 073c
00000260: e101 013c c90c 623c 9324 b23b d569 e53b
00000270: 6708 333c 4286 653c 1443 583c 5e86 4b3c
00000280: 3b1d 883c 99c8 b63c 2392 883c 8191 5e3c
00000290: d0ad 9f3b 1d63 d63b 769e 223c 0ab3 1a3c
000002a0: 98ab d03b 17ef 3b3a 551b c53b 22c2 e23b
000002b0: e00b bf3b 8111 a5bb c78c 58bb 9112 2abc
000002c0: 5049 a5bb 6594 91bc e7aa 5abc 758e 0cbd
000002d0: 3987 ca3b 277e 853c 480e 223b b807 423c
000002e0: 76b2 e5bb 8aeb d83b 95c9 123c a5e5 903c
000002f0: bb72 d039 d519 32bc e8bd 903a e898 5dba
00000300: c585 683c 61a5 b93c ac1e 573c 9585 13bb
00000310: afb2 093a 6f78 d23c 878f 1a3b 65fd 893b
00000320: 5057 e83b cedf 173a e35a d53b 7c41 72b9
00000330: 05a0 023c e2f7 88bb 6e6c 003b 3cb4 54ba
00000340: 8a18 8639 cb84 79bd 34b1 443c d1eb b33b
00000350: 717a ed39 6df6 f93b bcb5 593c 781d c43b
00000360: 5937 3d3a afd9 0d3b 4e35 3a3c 810c cdbc
00000370: 7498 883c ee9c acbb 1c07 26bb 24ee 47bd
00000380: e0e5 023b 9216 62bc 9ea0 a93c af6c ca3a
00000390: 46e3 e13a 85a6 0dbc 94a4 77ba 7722 54ba
000003a0: 132d b33a 7a55 13bb be4b 3d3a c2d2 5a3c
000003b0: ed09 473b 8bab fcb8 24e8 513b d511 fbb9
000003c0: f063 5dbb cb88 9bbc bc53 a73c 6274 e63b
000003d0: ee99 6e3c e94d 193c a8ca 8dbb b9f6 39bb
000003e0: 966d 8a3c 787d a03c 465c 0b3b f7e9 60bb
000003f0: 8120 663b 028b a93c edc8 12bb ce2a 523c

bias f4 [10]
0.012229471 0.006610488 -0.008562111 0.17247091 0.011017791 -0.006830456 -0.00879322 -0.0053717257
-0.00392862 -0.0090420805
00000000: 1e5e 483c cb9c d83b 1948 0cbc 379c 303e
00000010: f783 343c 05d2 dfbb 7011 10bc 4d05 b0bb
00000020: a7bb 80bb 3c25 14bc

weight f4 [10, 9]
0.005913733 0.01794323 0.027708882 -0.008712232 -0.00084643473 0.015320028 0.017230479 -0.022492126
-0.011557482 0.007445138 -0.013856812 0.011412202 -0.006295539 -0.008843661 0.006764693 -0.016932731
-0.04889103 -0.008778914 -0.009162481 0.011648231 0.0056763114 -0.0115425475 -0.0029096701 0.0007477801
-0.015005688 0.023051172 -0.002430397 0.10089481 0.106829844 0.1514734 0.09350384 0.028544629
0.20535354 0.0082655465 -1.789347 -0.39593056 0.019267576 0.013567343 0.025248347 0.023358833
0.0064207776 0.019611467 -1.4027225e-05 -0.022269562 -0.011764982 0.0015641275 0.003947949 -0.0051903166
-0.0022619625 -0.010866208 -0.021095818 -0.009654 -0.031067744 -0.02315605 -0.027471844 0.0071907574
0.0036848616 0.005113017 -0.001712421 -0.0052523008 -0.016159048 -0.012069872 -0.013584562 -0.02342199
-0.0071299677 -0.018791407 -0.0010300073 -0.002050021 0.015910694 0.0039765085 0.015141841 0.012316458
0.004368475 -0.006298201 0.0061658574 0.0069019794 0.010552942 -0.0043616546 0.0069405288 -0.0019309787
-0.014006277 0.012160929 -0.00062592665 0.006584037 0.010532719 0.01708061 -0.012279079 -0.017872281
-0.02265941 -0.024846092
00000000: fdc7 c13b aefd 923c bdfd e23c c0bd 0ebc
00000010: 46e3 5dba db00 7b3c ef26 8d3c 6841 b8bc
00000020: 985b 3dbc 58f6 f33b af07 63bc 3ffa 3a3c
00000030: cf4a cebb 01e5 10bc 5caa dd3b 83b6 8abc
00000040: f641 48bd 6fd5 0fbc 3b1e 16bc 39d8 3e3c
00000050: 5a00 ba3b f41c 3dbc 2ab0 3ebb ac06 443a
00000060: 6bda 75bc d0d5 bc3c 4c47 1fbb f0a1 ce3d
00000070: 9bc9 da3d d81b 1b3e f17e bf3d 6dd6 e93c
00000080: 3348 523e 376c 073c 5309 e5bf 69b7 cabe
00000090: 09d7 9d3c 9049 5e3c 9fd5 ce3c 065b bf3c
000000a0: 6365 d23b 3aa8 a03c 7956 6bb7 a86e b6bc
000000b0: e9c1 40bc 6903 cd3a cc5d 813b 8813 aabb
000000c0: 6f3d 14bb 2e08 32bc 23d1 acbc d02b 1ebc
000000d0: c881 febc c2b1 bdbc a20c e1bc 72a0 eb3b
000000e0: b87d 713b 188b a73b 5073 e0ba 7e1b acbb
000000f0: fb5f 84bc b6c0 45bc c891 5ebc 79df bfbc
00000100: 81a2 e9bb 70f0 99bc 4f01 87ba a559 06bb
00000110: 2557 823c 5f4d 823b 7c15 783c f8ca 493c
00000120: 6d25 8f3b 2461 cebb f60a ca3b 002a e23b
00000130: 3fe6 2c3c 36ec 8ebb 606d e33b e518 fdba
00000140: 957a 65bc a23e 473c 3a15 24ba e8be d73b
00000150: 6d91 2c3c a3ec 8b3c 312e 49bc e468 92bc
00000160: 3aa0 b9bc 088a cbbc

bias f4 [10]
-0.003907175 0.001102254 -0.016774535 0.12731011 0.011829008 0.012645023 0.0057185916 0.010142548
0.0018863726 0.00483229
00000000: c207 80bb 8279 903a c06a 89bc 955d 023e
00000010: 75ce 413c 122d 4f3c 0663 bb3b ee2c 263c
00000020: 2940 f73a 3058 9e3b

weight f4 [10, 9]
0.0077163624 -0.01824942 -0.017525384 0.014087269 0.36987597 0.0033984175 -0.0011457813 -0.006534021
0.12752056 -0.005176258 -0.023605088 -0.013912783 0.0103238 -0.2409554 0.0086104665 -0.017568396
-0.050956555 0.0220339 -0.01998782 -0.02248366 -0.0041169412 0.0067990134 -0.33758864 0.0030471245
0.003629569 -0.14246257 0.020301316 -0.015109012 0.0007526025 0.014432231 0.0026178523 -0.23683657
-0.038380112 0.0052651544 0.02139564 -0.1849949 0.20100015 0.028968006 -0.04307351 0.013955831
0.42502424 0.2414057 0.017284408 0.2561528 -0.16882052 0.02869644 0.0019921756 0.019126793
0.007156062 0.21426933 0.010104521 0.0007620507 -0.0868505 0.18944834 -0.0068924166 -0.016639536
-0.020880964 0.004725988 -0.25802445 -0.012847841 -0.013665582 0.04729961 -0.07734936 -0.031618953
-0.01669255 -0.0026171259 0.020176949 -0.24867314 -0.01136133 0.005336527 0.10890172 -0.18419188
-0.06021989 0.012526397 -0.0087921135 -0.0032688354 -0.30722177 -0.023609906 0.0031091438 -0.33936208
0.124484524 -0.01370702 0.0008915234 0.0021918283 0.009817727 -0.18841994 -0.02214441 0.002778104
0.027823502 -0.0894293
00000000: 8ad9 fc3b cf7f 95bc 6591 8fbc 4ace 663c
00000010: 6260 bd3e fcb7 5e3b 0a2e 96ba 571b d6bb
00000020: c094 023e 999d a9bb 755f c1bc 71f2 63bc
00000030: 2825 293c 03bd 76be ea12 0d3c 99eb 8fbc
00000040: d2b7 50bd 7080 b43c 7fbd a3bc a72f b8bc
00000050: 68e7 86bb 42ca de3b 6bd8 acbe 44b2 473b
00000060: 10de 6d3b b5e1 11be f24e a63c ca8b 77bc
00000070: 4c4a 453a 2a75 6c3c 4690 2b3b 4985 72be
00000080: 7734 1dbd 5187 ac3b e945 af3c 4e6f 3dbe
00000090: fcd2 4d3e 504e ed3c d96d 30bd ffa6 643c
000000a0: c79c d93e 0e33 773e 0898 8d3c 7626 833e
000000b0: 49df 2cbe cc14 eb3c 298f 023b cbaf 9c3c
000000c0: 667d ea3b 6b69 5b3e 6f8d 253c 5bc4 473a
000000d0: adde b1bd bffe 413e c8d9 e1bb a34f 88bc
000000e0: 8e0e abbc 76dc 9a3b c81b 84be c07f 52bc
000000f0: 9be5 5fbc 3cbd 413d 5769 9ebd e082 01bd
00000100: d1be 88bc 1684 2bbb 214a a53c 2ca4 7ebe
00000110: df24 3abc 08de ae3b dd07 df3d cc9c 3cbe
00000120: 22a9 76bd 843b 4d3c cc0c 10bc f539 56bb
00000130: 2c4c 9dbe 9069 c1bc c7c2 4b3b dec0 adbe
00000140: bef1 fe3d 6993 60bc 1fb5 693a c7a4 0f3b
00000150: 88da 203c 28f1 40be 3268 b5bc da10 363b
00000160: 1dee e33c b526 b7bd

bias f4 [10]
0.010828447 -0.004408497 -0.01569647 0.0180745 0.012845343 -0.005800473 -0.015113699 -0.010791027
-0.0065971585 0.00073539204
00000000: cc69 313c 2775 90bb e295 80bc f910 943c
00000010: 4675 523c e511 bebb 739f 77bc d9cc 30bc
00000020: fa2c d8bb 53c7 403a

weight f4 [10, 9]
0.019141322 0.030528095 -0.0012070577 0.005432839 -0.0071409307 0.008451672 -0.010625415 0.00855957
-0.0013305377 -0.018736975 -0.040037114 -0.027067905 0.0035926136 -0.030408239 -0.028849117 0.006086939
0.011228901 -0.02032122 -0.15821873 -0.0657 -0.016540973 0.0113283675 -0.024460092 -0.08245476
-0.016002985 -0.01546464 0.003669437 -0.0011928974 -0.002928159 -0.021321267 0.014370451 0.008841292
0.0022553848 -0.015337748 -0.001271425 0.01112751 0.13099204 0.15013929 0.048907764 0.013208541
0.06964976 0.1491708 -0.0045987586 0.013082141 0.017873373 -0.01919684 -0.027948363 0.0012634218
-0.02037527 0.0008990189 -0.039606217 -0.008163708 0.004367979 -0.00449028 0.005029237 -0.022242874
-0.03170215 0.0040759672 -0.02701468 -0.022378588 0.013161699 -0.0065001682 0.008882297 0.031220648
0.046097174 0.04309788 0.019383362 0.020690408 0.05482739 -0.0026533375 -0.010800197 -0.010894789
-0.31936517 -0.12906021 -0.07979971 0.00698841 -0.0866289 -0.09525739 0.0123844445 -0.012265398
-0.0028281393 0.00423814 0.0041638734 0.017993687 0.010622528 0.0013309948 0.037503205 0.012659101
-0.0022645798 -0.015664233
00000000: 43ce 9c3c 0e16 fa3c 2336 9eba f505 b23b
00000010: 78fe e9bb e278 0a3c 3816 2ebc 703d 0c3c
00000020: 7065 aeba 497e 99bc f5fd 23bd 83bd ddbc
00000030: 0e72 6b3b b31a f9bc fc54 ecbc f274 c73b
00000040: 6df9 373c b078 a6bc 1704 22be b98d 86bd
00000050: ef80 87bc 9e9a 393c 8860 c8bc 0bde a8bd
00000060: b118 83bc 675f 7dbc f07a 703b ff5a 9cba
00000070: 5be6 3fbb f0a9 aebc 0a72 6b3c 11db 103c
00000080: 14cf 133b 2e4b 7bbc f2a5 a6ba 2950 363c
00000090: c722 063e 1dbe 193e 8253 483d a368 583c
000000a0: 89a4 8e3d 3bc0 183e 2fb1 96bb 7a56 563c
000000b0: 2e6b 923c b142 9dbc f7f3 e4bc 6799 a53a
000000c0: 0aea a6bc 23ac 6b3a 213a 22bd 13c1 05bc
000000d0: 4321 8f3b 3323 93bb 4ccc a43b b036 b6bc
000000e0: 1dda 01bd b18f 853b e44d ddbc 4d53 b7bc
000000f0: 2ba4 573c 5dff d4bb 0e87 113c 72c2 ff3c
00000100: 64d0 3c3d 6787 303d dbc9 9e3c ee7e a93c
00000110: af92 603d 9ee3 2dbb 4ff3 30bc 0f80 32bc
00000120: d583 a3be 5c28 04be 086e a3bd 08ff e43b
00000130: 7e6a b1bd 4e16 c3bd 20e8 4a3c cff4 48bc
00000140: 4e58 39bb 18e0 8a3b 1a71 883b 7f67 933c
00000150: 1d0a 2e3c c674 ae3a f69c 193d 1e68 4f3c
00000160: 5869 14bb 4752 80bc

bias f4 [10]
0.002821582 -0.033958428 -0.08154404 0.014151767 0.15330116 -0.02921433 -0.022858426 0.02098365
-0.13687092 0.0101490645
00000000: 4aea 383b fe17 0bbd 9000 a7bd d0dc 673c
00000010: fbfa 1c3e e452 efbc 9841 bbbc e7e5 ab3c
00000020: e427 0cbe 4348 263c

weight f4 [10, 9]
0.024509277 0.02636095 -0.006839153 0.013880301 -0.002920663 -0.0049281646 0.0066736606 -0.044230793
0.012455939 -8.52375e-05 -0.008346288 -0.0021343683 0.0015286703 0.0040288684 0.0069447765 0.01094483
-0.0321297 -0.032880347 -0.025612356 0.011189094 -0.023498083 -0.012523138 -0.01359954 0.014034908
-0.013276557 -0.011407805 -0.004273411 0.1611271 0.10825441 0.16847287 0.09356229 0.19263853
0.1852158 -0.009385889 -1.9458686 -0.2529804 0.009562141 0.0022306566 0.006526334 0.020630982
0.020729758 0.0132524045 0.003761164 -0.06939466 -0.019278742 0.005574984 -0.020475354 -0.0032280046
-0.0006693626 -0.022564976 0.0068079564 0.0041315584 -0.03174698 -0.0046040365 -0.028300097 -0.019630615
-0.00057728204 -0.015610413 -0.027945522 -0.020493126 0.016646363 -0.008223777 0.0056264587 -0.006199601
0.0050161197 -0.008039583 0.011583654 0.0031364658 -0.0029384142 -0.0014431906 -0.0065936125 0.018437793
0.010069956 0.010781679 -0.023251968 0.015028378 -0.009018535 0.00050057424 0.0055875303 -0.035778034
0.009140494 0.0045177145 -0.005073526 -0.01174484 -0.021631036 -0.0034546095 -0.012029547 0.014997342
-0.0013988736 -0.020612916
00000000: aec7 c83c ebf2 d73c f91a e0bb 346a 633c
00000010: 9868 3fbb 717c a1bb b9ae da3b 592b 35bd
00000020: ff13 4c3c 89c1 b2b8 dfbe 08bc c2e0 0bbb
00000030: aa5d c83a 9904 843b 0291 e33b f251 333c
00000040: 6f9a 03bd 8bad 06bd 01d1 d1bc 7652 373c
00000050: 0d7f c0bc d92d 4dbc 9bd0 5ebc acf2 653c
00000060: eb85 59bc cde7 3abc f807 8cbb 81fe 243e
00000070: 7db4 dd3d 2784 2c3e 969d bf3d 0943 453e
00000080: 36a9 3d3e 46c7 19bc 3912 f9bf a686 81be
00000090: 87aa 1c3c 3530 123b dcda d53b 4e02 a93c
000000a0: 74d1 a93c 9d20 593c dc7d 763b ca1e 8ebd
000000b0: 74ee 9dbc 5bae b63b eebb a7bc ee8c 53bb
000000c0: 2a78 2fba 2fda b8bc 4715 df3b 0662 873b
000000d0: 1f09 02bd 75dd 96bb 9bd5 e7bc 62d0 a0bc
000000e0: be54 17ba d1c2 7fbc 02ee e4bc 33e1 a7bc
000000f0: f45d 883c 05bd 06bc 285e b83b 0626 cbbb
00000100: 435e a43b 75b8 03bc 5ec9 3d3c 2a8d 4d3b
00000110: 6992 40bb 7129 bdba 3b0f d8bb db0a 973c
00000120: 75fc 243c a4a5 303c e97a bebc 9639 763c
00000130: 7ac2 13bc f838 033a 9a17 b73b fd8b 12bd
00000140: 03c2 153c 5609 943b d23f a6bb 6e6d 40bc
00000150: 9233 b1bc bb66 62bb 9417 45bc 69b7 753c
00000160: 695a b7ba 6bdc a8bc

bias f4 [10]
0.0062627974 -0.003656428 -0.023638163 0.11824331 -0.0077430997 -0.023738803 -0.005066316 0.00690889
0.0070696594 -0.0054573906
00000000: 2738 cd3b afa0 6fbb d2a4 c1bc 8c29 f23d
00000010: d4b9 fdbb e177 c2bc 5703 a6bb f863 e23b
00000020: 9aa8 e73b e9d3 b2bb

weight f4 [10, 9]
0.02548998 0.009768901 0.024948368 0.023804767 -0.00710298 0.0068581603 0.019345455 -0.029373314
0.006501769 0.01969289 0.008446518 -0.009766517 -0.0071197134 0.0050498415 -0.0016037751 -0.011851982
-0.051823456 -0.028186185 -0.009112516 -0.022943877 -0.015402997 -0.02281556 0.009608208 0.0010182579
-0.017971149 -0.0015447106 0.008407376 0.112381995 0.11180467 0.18022974 0.12785748 0.044314165
0.19089617 0.0043447237 -1.7789338 -0.39418095 0.010393426 0.0031954397 0.019622482 0.010282806
0.0060591395 -0.012911023 -0.013128752 -0.009902675 0.015104358 0.006381586 0.0047941497 0.0063591693
-0.014192264 0.006856053 -0.025312252 -0.0025737148 -0.028892675 0.0029889583 -0.02479582 -0.0060004285
-0.024365278 -0.0010617402 -0.021358306 -0.029338872 -0.008233426 0.0013581963 -0.01738137 0.00014150946
0.011752903 0.01313516 -0.0041364646 0.017717563 -0.0028019315 -0.010455656 0.020526098 -0.0025894304
0.010848434 -0.011844424 -0.015630903 -0.0094773425 -0.009904866 0.017557198 0.0010172263 -0.027259227
-0.0011467026 0.0027707496 -0.0018167642 -0.023821017 -0.022089375 -0.011618364 0.012438372 0.016578127
0.0058023706 -0.014703575
00000000: 5dd0 d03c be0d 203c 8560 cc3c 3702 c33c
00000010: 1dc0 e8bb 6bba e03b 5c7a 9e3c 4ea0 f0bc
00000020: cb0c d53b fc52 a13c 4463 0a3c be03 20bc
00000030: 7c4c e9bb 2479 a53b c335 d2ba d12e 42bc
00000040: d544 54bd b7e6 e6bc aa4c 15bc ccf4 bbbc
00000050: da5c 7cbc b3e7 babc bf6b 1d3c 1177 853a
00000060: 3b38 93bc e377 caba 17bf 093c 8828 e63d
00000070: d9f9 e43d 258e 383e 12ed 023e c582 353d
00000080: 497a 433e 2f5e 8e3b 1ab4 e3bf 16d2 c9be
00000090: 3049 2a3c 956a 513b 54bf a03c 3779 283c
000000a0: bf8b c63b c188 53bc fa19 57bc d43e 22bc
000000b0: 4578 773c a01c d13b 3e18 9d3b 9460 d03b
000000c0: ab86 68bc bea8 e03b a45b cfbc c5ab 28bb
000000d0: 55b0 ecbc 66e2 433b 9a20 cbbc 3e9f c4bb
000000e0: b199 c7bc 172a 8bba 9df7 aebc 1358 f0bc
000000f0: 7ee5 06bc 8105 b23a 6063 8ebc 2862 1439
00000100: 408f 403c db34 573c 2e8b 87bb 6c24 913c
00000110: 9ca0 37bb 334e 2bbc 5926 a83c 6fb3 29bb
00000120: a1bd 313c 1d0f 42bc 610c 80bc db46 1bbc
00000130: 0548 22bc 1dd4 8f3c 7354 853a be4e dfbc
00000140: f44c 96ba 7795 353b 7e20 eeba 4b24 c3bc
00000150: c7f4 b4bc f35a 3ebc 50ca 4b3c dace 873c
00000160: d021 be3b 43e7 70bc

bias f4 [10]
0.021482477 -0.0010914934 -0.015043075 0.1261918 0.021496424 -0.009359137 -0.015804559 -0.004770432
0.004328082 0.0014256813
00000000: 05fc af3c 7110 8fba 3b77 76bc 6c38 013e
00000010: 4519 b03c 1157 19bc 9078 81bc 4951 9cbb
00000020: 95d2 8d3b eddd ba3a

att f4 [1, 1, 2]
-0.98893166 0.39839363
00000000: a02a 7dbf 40fa cb3e

bias f4 [2]
0.0 0.0
00000000: 0000 0000 0000 0000

weight f4 [2, 5]
-0.09609036 0.062369574 -0.2801353 -0.66095424 0.0036131737 0.58903146 -0.34640887 0.897659
0.6903039 0.04513035
00000000: 06cb c4bd 3d77 7f3d e56d 8fbe 4c34 29bf
00000010: ffca 6c3b c4ca 163f 815c b1be fbcc 653f
00000020: c2b7 303f 9ada 383d

bias f4 [2]
-0.22018082 0.4446411
00000000: 1577 61be 00a8 e33e

weight f4 [2, 5]
-0.08635257 -0.7640643 0.42231134 -0.8523909 0.79860955 -0.89035857 0.47711232 0.0139625585
-0.095543 -0.106937386
00000000: 9ed9 b0bd b899 43bf 3139 d83e 4a36 5abf
00000010: ad71 4c3f 8aee 63bf 1148 f43e 37c3 643c
00000020: 0cac c3bd fd01 dbbd

bias f4 [2]
0.4438614 -0.40133005
00000000: cd41 e33e 227b cdbe

weight f4 [5, 5]
-0.0031952986 -0.0136528835 -0.01303688 -0.003774638 0.011388802 0.0040191584 0.026102418 0.019818537
-0.003116009 0.018180128 0.023320075 -0.03324432 0.008949609 0.0046876348 -0.0020531898 0.01928997
0.013220503 0.00020885404 -0.020597056 -0.018859917 -0.022704441 -0.014213319 -0.0071714325 0.016797585
0.019590147
00000000: 3768 51bb 58b0 5fbc a398 55bc eb5f 77bb
00000010: 1998 3a3c 25b3 833b bdd4 d53c 7c5a a23c
00000020: f535 4cbb 7eee 943c be09 bf3c 322b 08bd
00000030: 61a1 123c bb9a 993b cf8e 06bb 0006 9e3c
00000040: cf9a 583c d4ff 5a39 28bb a8bc 1d80 9abc
00000050: aafe b9bc fbde 68bc 56fe eabb 179b 893c
00000060: 847b a03c

bias f4 [5]
0.020919172 -0.00044609848 0.016449021 0.007302649 0.017580936
00000000: af5e ab3c 53e2 e9b9 19c0 863c 0f4b ef3b
00000010: e505 903c

weight f4 [5, 10]
0.00036414844 -0.00944685 0.01961405 0.013428942 -0.018397842 0.0066569843 -0.0013377618 0.003111799
0.009029079 0.004116522 -0.027036296 -0.01958142 -2.7042666e-05 0.020025607 -0.018124707 0.009215859
0.019340629 -0.0144300675 0.0049362318 -0.014314385 -0.011658761 0.02036099 -0.00031501128 0.00067103875
-0.016280556 -0.007319766 -0.006737895 0.003953227 0.01097907 -0.010124041 -0.014440709 0.0038217548
-0.0117041655 0.016959928 -0.017176608 -0.014577812 -0.010850699 -0.005514651 -0.007936693 -0.009187568
0.022537392 0.0076298853 -0.018202297 -0.010674926 0.013385689 0.018716775 -0.0075660385 -0.005266972
0.009551369 -0.00091575243
00000000: 2deb be39 f6c6 1abc a5ad a03c 1105 5c3c
00000010: 12b7 96bc d522 da3b d657 afba 53ef 4b3b
00000020: b4ee 133c e4e3 863b 397b ddbc 3769 a0bc
00000030: afd9 e2b7 be0c a43c 447a 94bc 1dfe 163c
00000040: 3d70 9e3c 176c 6cbc 1dc0 a13b e286 6abc
00000050: 6304 3fbc 17cc a63c 1928 a5b9 a6e8 2f3a
00000060: cd5e 85bc a6da efbb 8fc9 dcbb 128a 813b
00000070: 8fe1 333c 4edf 25bc b998 6cbc 6876 7a3b
00000080: d4c2 3fbc 8cef 8a3c f5b5 8cbc c6d7 6ebc
00000090: 21c7 31bc 3fb4 b4bb e708 02bc 7487 16bc
000000a0: 56a0 b83c 1e04 fa3b fc1c 95bc e3e5 2ebc
000000b0: a64f 5b3c ec53 993c 88ec f7bb 9096 acbb
000000c0: 587d 1c3c 1b0f 70ba

bias f4 [5]
-0.004119687 -0.0012669757 -0.016907234 0.011203495 0.0054503167
00000000: 70fe 86bb a610 a6ba 0a81 8abc dd8e 373c
00000010: 9298 b23b

weight f4 [5, 5]
0.009716147 -0.03438428 -0.019550906 -0.03715848 -0.027418112 -0.0038860347 -0.028895164 -0.00090263213
0.010249453 0.004153193 -0.0046992092 -0.0116661815 -0.030651795 -0.016393913 0.030919034 0.017453605
-0.00047417593 -0.008239187 -0.014318391 0.035342447 0.012962913 0.011100066 0.018324353 -0.020078883
0.028480278
00000000: 7930 1f3c 88d6 0cbd 3929 a0bc 7e33 18bd
00000010: f39b e0bc d8ac 7ebb 8db5 ecbc 9e9e 6cba
00000020: 52ed 273c 8217 883b d3fb 99bb 8323 3fbc
00000030: 7919 fbbc 874c 86bc ea49 fd3c ddfa 8e3c
00000040: d19a f8b9 a8fd 06bc af97 6abc 3ec3 103d
00000050: 6662 543c 0ddd 353c f41c 963c 787c a4bc
00000060: 794f e93c

bias f4 [5]
-0.010374047 -0.0324113 -0.030266263 0.0065999636 -0.021454751
00000000: e8f7 29bc b6c1 04bd f4f0 f7bc 8244 d83b
00000010: e0c1 afbc

weight f4 [5, 10]
-0.032487154 -0.010715437 0.021691365 -0.24570033 -0.017955868 -0.036157075 0.022980263 0.015537305
-0.032339726 -0.031671736 0.0063074576 -0.022242544 0.029176269 -0.2682309 -0.026512904 0.003736387
0.025103554 0.0058921203 -0.013082172 -0.0070394035 -0.02008655 -0.01155001 0.018647756 -0.321188
-0.015319529 -0.002923434 0.015775407 0.002761193 -0.01625831 -0.003200344 -0.018109333 -0.018645057
0.014963568 -0.06455097 -0.026265426 -0.018421046 0.011629141 0.024690418 0.0034643584 -0.0017941839
-0.0019136799 0.0005820023 0.0011032398 -0.045611177 0.008132265 0.001653954 0.020100305 -0.010970397
-0.008437983 -0.0013664726
00000000: 4011 05bd cd8f 2fbc 17b2 b13c de98 7bbe
00000010: 2f18 93bc 7119 14bd 1b41 bc3c 2e90 7e3c
00000020: a976 04bd 39ba 01bd caae ce3b ff35 b6bc
00000030: 1203 ef3c 8f55 89be 9731 d9bc 2cde 743b
00000040: f8a5 cd3c b012 c13b 9b56 56bc ccaa e6bb
00000050: 8c8c a4bc 413c 3dbc 2ec3 983c c172 a4be
00000060: c3fe 7abc 1597 3fbb 6d3b 813c 22f5 343b
00000070: 2630 85bc ddbc 51bb 065a 94bc 85bd 98bc
00000080: c129 753c 4d33 84bd 972a d7bc bce7 96bc
00000090: 2788 3e3c 8f43 ca3c 4a0a 633b d22a ebba
000000a0: 71d4 faba 8391 183a 969a 903a c9d2 3abd
000000b0: 313d 053c 7dc9 d83a 65a9 a43c 2ebd 33bc
000000c0: 773f 0abc 361b b3ba

bias f4 [5]
-0.023767743 -0.025332721 -0.0015227705 0.0037356995 -0.0033035642
00000000: 92b4 c2bc 9186 cfbc b397 c7ba a3d2 743b
00000010: 9c80 58bb

weight f4 [5, 10]
-0.014555818 -0.008064878 0.006123547 -0.04715398 0.0076098195 0.009175727 0.015856123 0.022336127
0.000508067 0.004207342 -0.008779984 0.0048117964 0.0037942822 -0.007250094 0.0014951916 -0.0066781775
0.009499907 -0.020867817 0.01253659 -0.005870429 -0.025837854 0.0060668443 0.0063662413 -0.037164576
0.0072560073 -0.021826888 0.018632062 -0.010942345 -0.006715724 -0.020922981 0.015664594 0.008014506
-0.009544509 0.21609263 0.014750539 0.02546969 -0.014728735 -0.011215331 0.025667554 0.0049009603
0.015321455 0.0064563113 0.0014803361 0.024641292 0.014227531 0.006501657 -0.016297782 0.0068121594
0.022270637 0.017252812
00000000: 877b 6ebc 8d22 04bc 09a8 c83b 8824 41bd
00000010: cb5b f93b ca55 163c b3e4 813c 41fa b63c
00000020: cd2f 053a bedd 893b ecd9 0fbc 46ac 9d3b
00000030: 7ea9 783b 3292 edbb 4efa c33a 9dd4 dabb
00000040: 7fa5 1b3c fcf2 aabc 4566 4d3c ba5c c0bb
00000050: e8a9 d3bc 61cc c63b e79b d03b e239 18bd
00000060: cdc3 ed3b 4dce b2bc 44a2 983c 8547 33bc
00000070: 930f dcbb ac66 abbc 0953 803c 464f 033c
00000080: 9360 1cbc 6347 5d3e 3fac 713c d0a5 d03c
00000090: cb50 71bc 82c0 37bc c344 d23c 3c98 a03b
000000a0: d706 7b3c 778f d33b d607 c23a 89dc c93c
000000b0: 971a 693c da0b d53b ed82 85bc 8938 df3b
000000c0: e970 b63c c555 8d3c

bias f4 [5]
-0.013718512 -0.008235251 -0.015866928 -0.003921045 -0.008463368
00000000: 9cc3 60bc 25ed 06bc 5cfb 81bc 1c7c 80bb
00000010: f0a9 0abc

weight f4 [5, 10]
-0.0082493145 0.0016286293 -0.011463054 -0.03696176 -0.0001382272 0.015437374 -0.004686796 0.009972738
0.00065602356 0.01180588 -0.021751393 0.00052001374 0.023128413 -0.0051892833 -0.0058046784 -0.0037840025
-0.009525247 0.0053629945 0.01016204 0.0059206802 -0.022064723 -0.018815853 0.0054528015 -0.03935197
-0.017467659 -0.010338924 0.023715219 0.016093874 -0.02232323 0.0069219493 -0.010270266 0.011913092
0.006489043 0.09743411 0.0112177525 -0.0012349053 -0.015819998 -0.0041669426 0.012537379 0.022463866
0.014490784 0.025632009 -0.0071747545 0.033946875 0.009065609 -0.005353906 -0.018115496 -0.02159959
0.025537927 0.014562049
00000000: 2228 07bc bb77 d53a 89cf 3bbc 3765 17bd
00000010: 15f1 10b9 0aed 7c3c b293 99bb b264 233c
00000020: fff8 2b3a 736d 413c fa2f b2bc 8851 083a
00000030: cc77 bd3c dd0a aabb 2c35 bebb 07fd 77bb
00000040: c80f 1cbc 0fbc af3b af7e 263c 4402 c23b
00000050: 14c1 b4bc b423 9abc 6aad b23b 882f 21bd
00000060: 5618 8fbc 9764 29bc 6b46 c23c 4dd7 833c
00000070: 35df b6bc 85d1 e23b 9e44 28bc 212f 433c
00000080: 0aa2 d43b 898b c73d aaca 373c 8cdc a1ba
00000090: f198 81bc d98a 88bb 9469 4d3c 2406 b83c
000000a0: c16a 6d3c 38fa d13c 341a ebbb e10b 0b3d
000000b0: ec87 143c d26f afbb f366 94bc a0f1 b0bc
000000c0: ea34 d13c a995 6e3c

bias f4 [5]
0.005857145 -0.022335298 -0.017046524 0.014264055 -0.0014369764
00000000: 4bed bf3b 84f8 b6bc 27a5 8bbc c8b3 693c
00000010: ed58 bcba
