model/gnn/241002_1/epoch_1.pt (torch, 573084 bytes, 61 tensors)

att f4 [1, 1, 30]
000000 25 23 ff 3b cc fb ef bb f1 1a da 3b 6e 0f bc 3a
       0.007786172 -0.0073237177 0.0066560437 0.001434786
000010 e4 76 37 bb c1 93 ae 3b 05 1e b0 3a 09 42 e4 3b
       -0.0027994448 0.005327672 0.0013436681 0.00696588
000020 36 12 77 3a 26 31 32 bb d5 cf 17 3b d0 38 19 bb
       0.0009425016 -0.002718994 0.002316465 -0.002337981
000030 ea ca 6d 3b 37 3b fc 3b cb 4e a3 3b e1 02 77 bb
       0.0036284276 0.0076974886 0.004983758 -0.0037690925
000040 3f 15 a3 3b 9d 31 ca 3a ea 77 8f 3b e8 30 ac bb
       0.004976898 0.0015426163 0.0043783085 -0.0052548535
000050 52 d4 0b bc 23 4d 5a bb 0d b1 d8 bb 80 cf e7 3b
       -0.008534508 -0.0033310137 -0.006612903 0.0070742965
000060 58 be 22 3b fe 09 6a 3b a8 b1 32 3b dd 43 1d b9
       0.0024832692 0.0035711522 0.0027266536 -0.00014997968
000070 2e 18 dd 3b 35 ba c8 bb
       0.006747267 -0.0061257132

bias f4 [30]
000000 6b b3 d9 ba 62 38 e0 ba 0c 90 f5 ba 3c 24 6a bb
       -0.0016609257 -0.0017106647 -0.0018734946 -0.0035727164
000010 b7 49 8b bb af 7e eb bb 1d 8a b9 ba d4 08 cf bb
       -0.004250731 -0.0071867327 -0.0014155541 -0.006318191
000020 cc 92 e0 bb 83 ec b3 ba 3c 25 d0 bb ff 33 c3 ba
       -0.006853437 -0.0013727102 -0.006352095 -0.0014892815
000030 f0 33 dd bd 9d 8e b0 be e5 f2 a3 bc bd bf d0 ba
       -0.10800922 -0.34483805 -0.020013282 -0.0015926283
000040 b0 1d e7 ba 9c 71 c4 ba 9b 97 20 bc 7d d0 f2 bb
       -0.0017632749 -0.0014987472 -0.009801771 -0.0074101076
000050 4d 1d d2 ba 91 ae 96 bb 8b 78 99 bb 4c 7f ab be
       -0.0016030461 -0.0045984467 -0.0046835593 -0.33495557
000060 bb 24 ce bb 66 b2 cd ba f3 b3 19 bf 56 f7 ff ba
       -0.0062909997 -0.0015693426 -0.60040206 -0.0019528668
000070 be 58 56 be 96 3e f5 ba
       -0.2093229 -0.0018710669

weight f4 [30, 163]
000000 30 af 63 ba 84 62 a7 bb d1 a9 26 bb 88 63 9d bb
       -0.0008685468 -0.0051081795 -0.0025430808 -0.004803125
000010 2c 9b 84 bb f1 6e e9 ba 73 31 8a b8 c5 4e 17 bb
       -0.0040468182 -0.0017809552 -6.5895634e-05 -0.0023087722
000020 0b 5b db ba 4d 70 58 bb 6b a5 7f bb 52 3d 59 3a
       -0.0016735507 -0.003302592 -0.003900851 0.00082870305
000030 15 a6 dc 39 98 c1 a8 bb 8e 65 32 bb b7 72 9d bb
       0.0004208541 -0.0051500313 -0.0027221176 -0.004804935
000040 d7 7b 29 bb e0 05 50 bb d5 e0 a4 ba 0a 8f 79 bb
       -0.0025861168 -0.0031741783 -0.0012579212 -0.0038079643
000050 a0 e4 a7 bb 09 61 40 3a cd 6c be 3a 79 7d d1 bb
       -0.00512369 0.0007338678 0.0014528275 -0.0063931313
000060 fe ec 8b bb e7 39 b4 b9 d0 5d 9d bb 9e 61 9c b8
       -0.004270195 -0.00034375416 -0.004802443 -7.456842e-05
000070 4a 4e a7 3a d8 36 86 bb fa 53 a0 bb b2 05 38 bb
       0.0012764421 -0.0040958934 -0.0048928233 -0.0028079567
000080 32 19 07 bb 1e 71 de bb c4 f3 84 bb 4e f4 50 3a
       -0.0020614383 -0.006788387 -0.0040573794 0.00079709745
000090 f6 ad 31 bb 41 b2 56 bb 46 94 85 bb 01 9f 3b 3a
       -0.0027111745 -0.0032760056 -0.0040765135 0.00071571773
0000a0 b1 cb c7 b9 56 7a 13 bb a0 92 14 3b a2 7a 8a ba
       -0.00038108 -0.0022503338 0.0022670403 -0.0010565112
0000b0 43 d6 df 3a 30 96 9a 39 24 f0 89 bb 07 21 4b 3a
       0.0017077405 0.00029485067 -0.004209535 0.0007748757
0000c0 1e d4 8d bb 6e bb 77 ba ed a2 7a bb f7 20 fa 39
       -0.004328265 -0.00094502314 -0.0038244084 0.00047708277
0000d0 33 e3 62 3a e4 fe 49 3a 24 c4 de ba 06 07 c5 bb
       0.0008655071 0.0007705523 -0.001699571 -0.0060128
0000e0 d2 84 12 bb e8 23 34 bb 43 e6 97 bb f2 1c 31 ba
       -0.0022357 -0.0027487222 -0.0046356036 -0.00067563273
0000f0 90 9d e2 38 84 a9 1f bb 55 b6 d3 bb 19 42 47 bb
       0.00010805868 -0.0024362514 -0.0064609447 -0.0030404388
000100 77 2b 4a 3b 19 8e 3a bb e0 4d 86 bb 9f d1 15 bc
       0.003084866 -0.0028466044 -0.004098639 -0.009144216
000110 cc a6 7b ba a4 0c a2 bb 93 e4 88 3a 6f e4 58 3c
       -0.0009599745 -0.0049453545 0.0010444097 0.013238057
000120 fd ee 80 bb a6 c6 b9 b9 8c 0f 5f 3b d3 9c fe bb
       -0.0039347396 -0.00035433954 0.0034036366 -0.0077701597
000130 3f 7f 9b 38 14 30 2b 3a 00 87 48 bb 20 f5 82 bb
       7.4146774e-05 0.00065302965 -0.0030598044 -0.0039965063
000140 ee 27 a0 b9 d5 3e 9d bb 26 be bc ba 49 01 83 3a
       -0.00030547328 -0.00479875 -0.001439993 0.000999489
000150 43 cb 5d 3b 3f 29 cd 3a fb a9 7f bb 3f 8e 83 ba
       0.0033843077 0.0015652551 -0.0039011228 -0.00100369
000160 72 32 e2 3a 5e c1 c4 ba c2 34 79 38 a3 de 43 3a
       0.0017257466 -0.0015011241 5.941536e-05 0.0007471835
000170 fc d8 b7 bb d9 d0 64 39 53 1f 7d 38 a8 c6 ac bb
       -0.0056105834 0.00021821576 6.0349073e-05 -0.005272705
000180 fc 49 bc b9 c7 c8 10 3b ca a0 cc bb 75 ac bc ba
       -0.00035913277 0.002209233 -0.0062447535 -0.0014394658
000190 7e 0c d1 ba 4c ec 18 3b d9 66 17 bb 78 03 bc 39
       -0.0015949158 0.0023334203 -0.0023102073 0.0003586074
0001a0 8f 39 be ba d5 d9 af bb e1 3b 40 bb db f7 2e 3b
       -0.0014513003 -0.005366544 -0.0029332566 0.0026698026
0001b0 5d 4d 94 b9 a1 8f cb ba 6b a3 36 bb 73 17 91 bb
       -0.000282864 -0.0015530476 -0.00278684 -0.004427844
0001c0 2c b1 19 ba 66 32 12 3b c3 e5 3e 3c 89 db 1b 3c
       -0.00058628875 0.0022307872 0.011651459 0.0095127905
0001d0 e2 c7 db bb 35 97 78 b9 ad 6b 72 bb e6 04 15 3a
       -0.0067071775 -0.00023707452 -0.003699045 0.0005684629
0001e0 5e 96 aa ba 5f cf e9 ba 3e 60 df b9 b5 c9 87 b9
       -0.0013014784 -0.0017838291 -0.0004260558 -0.0002589949
0001f0 ef 16 d2 bb db d6 87 bb 78 0b 3f 3b 31 37 6d b9
       -0.0064114253 -0.004145486 0.0029151123 -0.00022622642
000200 67 1f a4 3b 82 b9 f0 ba 61 96 15 3b 14 85 ec ba
       0.0050086263 -0.0018365833 0.0022825229 -0.0018045031
000210 80 e7 b7 ba 4a bb 94 bb 47 0c 76 bb 69 b0 77 bb
       -0.0014030784 -0.004538928 -0.003754394 -0.0037794358
000220 fd b1 de bb 2b ce 77 bb bf 26 10 bb 2f 9f cd 3a
       -0.00679612 -0.0037812095 -0.002199575 0.0015687699
000230 81 a8 94 ba d3 81 ac b9 c9 f2 f6 ba 7e 32 a2 bb
       -0.0011341722 -0.00032903123 -0.0018840666 -0.004949867
000240 c6 55 72 bb c4 33 9a bb dd 45 c4 3a 53 03 ca 3a
       -0.0036977394 -0.004705878 0.0014974434 0.0015412368
000250 91 07 fa b9 3d 97 84 bb 61 89 94 ba 56 2f b7 b9
       -0.00047689353 -0.0040463493 -0.0011332446 -0.00034939748
000260 42 25 cb 39 9b d3 92 bb b0 cf e4 ba 57 34 16 3a
       0.00038746936 -0.0044807917 -0.0017456915 0.0005729845
000270 80 e0 bb 3a 29 a9 02 bb 0e a3 82 3a a0 90 8e bb
       0.0014333874 -0.0019937253 0.0009966807 -0.0043507367
000280 b9 8e 91 ba 0f 00 25 ba 28 11 14 bb d9 17 3d b9
       -0.0011105157 -0.0006294259 -0.0022593234 -0.00018033329
000290 88 99 b1 ba 0f b7 0a bb 65 fb 8f b9 5f 88 11 bb
       -0.0013549784 -0.002116624 -0.0002746239 -0.0022206528
0002a0 8b a6 d0 ba 3b 21 9f 3a f8 77 81 3a 6b 35 64 3a
       -0.0015918774 0.0012140641 0.0009877672 0.00087054697
0002b0 6c c4 a5 38 6a 03 81 bb 90 6e f0 ba d8 16 1c 3a
       7.9043995e-05 -0.0039371746 -0.0018343497 0.0005954332
0002c0 86 05 41 bb 3a 11 30 bb 25 30 98 bb 1c bc c9 bb
       -0.0029452755 -0.0026865737 -0.004644411 -0.0061564576
0002d0 4d 53 53 bb 7c 65 6d 39 19 cf 92 ba d4 71 7a 3a
       -0.0032245696 0.00022639887 -0.0011200636 0.0009553705
0002e0 37 a3 a7 bb 9a 2f 16 bb f5 2c 64 39 7e 91 cb bb
       -0.0051158923 -0.0022916556 0.00021760522 -0.0062124124
0002f0 6b 84 25 3a 1c 42 ec 3a 31 2b 01 3b 26 90 85 bb
       0.00063139823 0.0018025073 0.0019709582 -0.0040760217
000300 b5 07 53 39 b3 a7 9b 3a 98 c9 81 bb 5a 63 2a bb
       0.00020125399 0.001187554 -0.0039607994 -0.002599916
000310 c1 97 73 bb 18 f6 9d ba c8 eb b2 b9 22 fd 97 bb
       -0.003716931 -0.0012051491 -0.00034126476 -0.00463833
000320 85 47 96 3a 22 11 06 bb 6a 47 d3 ba a4 0e de ba
       0.0011465406 -0.002045699 -0.0016119306 -0.0016941619
000330 a5 fe 6c bb 62 ab 0d 3b 75 03 ea ba 6b 1e f0 ba
       -0.0036162522 0.0021617045 -0.0017853813 -0.0018319612
000340 a2 2c 8c ba dc 9e 46 bb 28 9d 52 bb 6b 16 01 bb
       -0.0010694454 -0.003030709 -0.003213713 -0.00196972
000350 57 a1 34 bb 80 c5 d6 3a ff 73 90 bb 64 97 50 3a
       -0.0027561986 0.0016385764 -0.004408359 0.0007957129
000360 88 3d 29 3a b5 6a 5b 3b fc ff 9e bb cc 5b 29 3b
       0.0006456007 0.003348035 -0.004852293 0.0025842069
000370 85 7c 2c bb 33 83 91 3a 2a 7c 82 3a 55 2b 78 bb
       -0.0026319337 0.0011101722 0.0009955217 -0.0037867625
000380 41 4e c2 b9 e1 33 4f ba 1b 31 01 bb a2 f8 81 bb
       -0.00037060867 -0.0007904154 -0.0019713107 -0.003966407
000390 02 e6 79 3a c1 f8 ad bb d1 5f a2 bb b5 b8 a5 bb
       0.000953287 -0.005309195 -0.00495527 -0.005057419
0003a0 4d 6e f8 3a 37 7f 8a 3a fb 46 a0 3b 01 05 3f bc
       0.0018953771 0.0010566477 0.004891274 -0.011658908
0003b0 b5 d0 11 3b d2 12 1e bb 08 dd a9 bb 78 6b 55 ba
       0.0022249643 -0.0024120104 -0.0051838197 -0.0008141319
0003c0 1a 5b e1 ba e0 2a 3a 3a e5 c2 7d bb 9d 3a 8f 3a
       -0.0017193288 0.0007101726 -0.0038720903 0.0010927502
0003d0 43 8d 92 bb 56 8b 9b ba 22 d6 cf ba 34 4b be bb
       -0.004472406 -0.0011867087 -0.0015856663 -0.0058073048
0003e0 f4 84 88 3b 0f 1d 59 bb 8b 7e 3b 3b fc 85 48 3b
       0.00416624 -0.0033128893 0.002860936 0.003059744
0003f0 dd 70 53 3b 5a 2d 55 ba 5a b2 cd ba 99 05 82 bb
       0.0032263317 -0.0008132063 -0.0015693412 -0.0039679524

bias f4 [30]
000000 38 9f 2b b9 b5 c5 3a bb bd 92 dc ba 6a b1 65 bb
       -0.00016367144 -0.002849919 -0.0016828399 -0.0035048374
000010 92 63 65 bb e9 e3 e1 bb bf 7f 39 37 a7 01 a7 bb
       -0.0035001975 -0.006893624 1.10566025e-05 -0.0050966325
000020 4b 1d c5 bb 16 8f 60 ba 06 7f cb bb 93 57 c0 ba
       -0.006015455 -0.00085662433 -0.0062102107 -0.0014674537
000030 f0 a5 dc bd 01 f1 b0 be 9d fb 99 bc 4f 6f 27 bb
       -0.107738376 -0.3455887 -0.018796736 -0.0025548523
000040 b9 2a 8d ba 92 fa 22 bb 9a 0b 08 bc 40 d9 e5 bb
       -0.0010770179 -0.002486859 -0.008303547 -0.0070144236
000050 54 f1 d7 ba b9 97 7d bb 47 04 b0 bb bb da aa be
       -0.001647512 -0.003869517 -0.0053716036 -0.33370003
000060 1f f5 bd bb fa b6 92 ba 0f d6 19 bf ee 03 60 bb
       -0.005797043 -0.0011193447 -0.6009225 -0.003418203
000070 a7 78 57 be 00 12 52 bb
       -0.21042119 -0.0032054186

weight f4 [30, 163]
000000 34 95 13 3b 91 13 02 bb 29 9b cf 3a 73 2e a2 ba
       0.0022519352 -0.0019848088 0.0015839088 -0.0012373462
000010 06 f5 e6 3a bf e0 01 bb 27 be 41 3b e6 1e 21 bb
       0.001762063 -0.0019817797 0.0029562803 -0.0024585067
000020 ee 6a 8a ba 18 4b 61 3b 79 7d c0 39 44 39 e3 ba
       -0.0010560432 0.0034377035 0.00036714578 -0.0017335792
000030 52 d1 42 3b ec f3 c7 ba d1 39 1b 3b 60 34 1a 39
       0.0029726815 -0.001525519 0.0023685584 0.00014706096
000040 3d c8 23 bb 09 fa b0 3a 85 39 26 3a ef c9 27 3b
       -0.0024991177 0.0013502251 0.00063409685 0.002560254
000050 79 9d 25 ba e0 b6 fc 3a 66 3c 60 ba 9b b7 16 bb
       -0.0006317716 0.0019280575 -0.0008553922 -0.002299762
000060 ba f5 95 ba c4 cf 12 ba ff 01 2f bb 1e 78 5d 3b
       -0.001144103 -0.00056004175 -0.002670407 0.003379352
000070 2d 84 71 3a f1 33 70 3a 2f 7b 13 3a 96 0c f7 3a
       0.0009213116 0.00091630133 0.0005625961 0.0018848355
000080 f3 5a 51 bb 48 93 50 bb 53 2a 22 bb 95 10 c4 3a
       -0.003194508 -0.0031826068 -0.0024744465 0.0014958555
000090 94 97 b6 37 8c 01 51 3b df 9d c3 3a f6 2e e8 3a
       2.1766675e-05 0.003189179 0.0014924369 0.0017714191
0000a0 68 4b 4e 3b e9 ee 57 3b 71 a8 0f bb 0a 0f 1d bb
       0.003147805 0.0032948798 -0.0021920467 -0.0023965263
0000b0 f5 76 fa 3a df 38 04 3b 80 d8 32 bb 16 ea 19 3b
       0.0019108938 0.00201755 -0.0027289689 0.0023485473
0000c0 76 f3 0d 3b cb 91 e6 3a b1 39 3a 3b ae df f5 3a
       0.0021660007 0.0017591057 0.0028415734 0.0018758678
0000d0 6b a3 a1 ba d5 ce 49 bb f6 88 ed 37 05 60 7a 3a
       -0.0012332028 -0.0030793448 2.8316379e-05 0.0009551051
0000e0 ca 7c 35 bb da ba 05 bb f2 7a af 3a 27 f1 09 3b
       -0.0027692788 -0.0020405562 0.0013388081 0.002104828
0000f0 8e db 4c 3b 66 d3 0d 3b d6 8d 27 3b 0b 8d 77 ba
       0.0031258794 0.0021640896 0.0025566719 -0.0009443319
000100 5f e8 f4 ba cf a4 82 ba 87 e5 b4 b9 4e d7 35 bb
       -0.0018684975 -0.000996733 -0.00034503287 -0.002774674
000110 41 2a a7 ba a9 cb e2 3a 3d 5d b8 3a 39 dd 9a ba
       -0.0012753682 0.0017303127 0.0014065873 -0.0011815197
000120 4c 87 3b 3b 3e 80 46 ba 20 02 13 bb 62 79 58 3b
       0.0028614579 -0.000757221 -0.0022431687 0.0033031334
000130 31 6e 67 ba c4 f3 db ba c0 87 3d 3b b9 70 5c 3b
       -0.00088283705 -0.0016781022 0.0028920025 0.0033636524
000140 79 47 5b 3b ca 2c d6 3a 5d fa 85 b9 0e 78 61 3b
       0.003345935 0.0016340252 -0.00025554272 0.0034403834
000150 df 9e 46 bb b4 01 37 3b a3 73 14 bb 78 df 5f bb
       -0.0030307097 0.00279246 -0.0022651933 -0.0034160297
000160 8d 37 11 3b ef 3d dd b9 77 09 55 bb 72 70 da ba
       0.0022158355 -0.0004219855 -0.0032506862 -0.0016665591
000170 52 20 92 ba 26 a2 a8 3a 76 03 3d bb 19 d8 3c bb
       -0.0011148548 0.0012865707 -0.0028841174 -0.0028815328
000180 19 f3 3c 3b 15 c9 ae 39 56 e3 07 3b 04 e8 98 39
       0.002883142 0.00033337684 0.0020734868 0.00029164564
000190 30 80 e8 3a 28 22 84 ba cd 70 bb ba 2d 4f 8d b9
       0.0017738398 -0.001008098 -0.0014300585 -0.00026952606
0001a0 98 db 12 3b 70 05 00 bb 9b e1 9d ba fc 36 c7 b9
       0.002240872 -0.001953449 -0.0012045385 -0.00037997204
0001b0 58 81 44 3b 8c eb 56 3b 58 32 35 b9 9b 9a 2e bb
       0.0029984321 0.0032794205 -0.0001728026 -0.0026642445
0001c0 06 59 17 3b fe b7 64 3a cf a9 0e bb ff b6 50 bb
       0.0023093834 0.0008724927 -0.0021768694 -0.0031847355
0001d0 a0 30 a3 ba dd 8e 20 bb 9d 4b 29 3a 8d d9 33 3a
       -0.0012450404 -0.0024499216 0.00064581056 0.00068607257
0001e0 a1 89 1d bb 72 dc 77 3a 15 ed 9e ba 44 fc 11 3b
       -0.0024038332 0.0009455151 -0.0012125099 0.0022275606
0001f0 35 d4 27 3b f7 18 62 3b b9 57 23 3a 6a da 45 bb
       0.0025608663 0.0034499743 0.0006231028 -0.003019
000200 52 2f e0 3a b5 8d 01 b9 13 c2 60 bb 6d 55 0c bb
       0.0017103946 -0.00012355189 -0.0034295365 -0.0021413222
000210 c2 64 23 3b 95 f7 da 3a 93 48 2a 3b f9 c7 4d 3b
       0.0024931883 0.0016705865 0.00259832 0.003139971
000220 b3 77 4b 3b e6 5e 04 bb ba 1f 73 3a 89 51 59 3b
       0.0031046688 -0.0020198165 0.0009274442 0.003316017
000230 15 78 86 ba 9a d5 12 3b 9e 7c de ba 30 cd 10 3b
       -0.0010259176 0.0022405148 -0.0016974395 0.0022094958
000240 8f f4 e9 3a a0 1a 04 bb d7 02 59 3b 7d d9 c3 3a
       0.0017849373 -0.0020157471 0.0033113265 0.0014942136
000250 e2 df 36 bb f1 a1 41 bb 66 7e fd 3a c2 6a 09 bb
       -0.002790444 -0.0029545987 0.0019340038 -0.0020968174
000260 12 ba 43 bb 0e ea 15 3b 0a 9c 14 bb 6f 67 e9 3a
       -0.0029865545 0.0022875103 -0.0022676014 0.0017807315
000270 3c e8 db 39 14 62 10 39 e1 06 f6 3a cc bb 5c bb
       0.00041943963 0.00013769447 0.0018770361 -0.0033681272
000280 e2 33 98 3a c2 bb a5 37 00 83 35 bb 9d 29 3b bb
       0.0011612142 1.9756964e-05 -0.002769649 -0.002855874
000290 a1 7d e9 3a 80 96 b2 b9 af 54 4c bb 71 43 ed ba
       0.001781393 -0.00034062937 -0.0031178405 -0.0018101764
0002a0 bd 5f 54 3b 01 18 3c 3a 5e 79 71 3a 06 ba 55 3b
       0.0032405697 0.0007175208 0.00092115055 0.00326121
0002b0 ce 35 7f 39 b0 cd 35 3a cf cf 10 3b 19 66 d6 39
       0.00024338739 0.0006935252 0.002209652 0.0004089333
0002c0 05 ba bb b9 b9 ec 10 ba 82 0e b9 3a 59 13 5d bb
       -0.00035806015 -0.00055284385 0.0014118704 -0.0033733456
0002d0 7c 80 3e ba 99 c2 44 bb f0 eb 37 39 42 d7 b0 ba
       -0.00072670705 -0.0030023216 0.00017540134 -0.0013491886
0002e0 53 46 90 ba 65 a7 45 3b ee 0b cf ba cc 81 4e 3b
       -0.0011007286 0.003015959 -0.0015796402 0.003151047
0002f0 ca 7e 51 bb 50 2b 2f ba ce 22 72 ba b2 02 5f 3b
       -0.0031966441 -0.0006682174 -0.00092367537 0.0034028706
000300 5a 36 05 b8 85 4e 5a bb 87 d7 57 ba 6d 7e d3 ba
       -3.176029e-05 -0.0033310961 -0.0008233715 -0.00161357
000310 69 c3 3f bb 53 73 ce 3a 1d bd 1c 3b a4 0a e6 ba
       -0.002926076 0.0015750922 0.0023916431 -0.0017550779
000320 98 71 ff 38 7e db 42 3b 12 e5 2b bb 5f 7d d2 ba
       0.00012180506 0.0029732878 -0.0026229066 -0.0016059092
000330 12 a1 c9 3a 00 46 23 ba af ee 2c 3b 50 5a e3 b9
       0.0015383086 -0.00062283874 0.0026387384 -0.00043364102
000340 66 fd 9a ba c2 19 5d bb 89 85 1b 3a e8 4b 2b bb
       -0.0011824786 -0.0033737277 0.0005932679 -0.0026137773
000350 7c ba 45 bb 69 5f a7 39 4a 08 0b 3b 39 81 a4 ba
       -0.0030170968 0.00031923808 0.0021214657 -0.0012550718
000360 39 6a 5c 3a a0 43 8c ba a0 c1 e3 ba c2 7b a4 ba
       0.00084081624 -0.0010701306 -0.001737643 -0.001254909
000370 78 fc ce 3a cb 1c 95 3a 32 c8 9c ba e8 86 2e bb
       0.0015791794 0.0011376379 -0.0011961518 -0.0026630703
000380 b2 95 10 bb 56 fe 42 3b e8 19 10 3b 89 00 24 3b
       -0.0022061882 0.0029753647 0.0021988098 0.0025024733
000390 70 a6 31 3b 2f 14 81 ba 4d c0 f1 3a 39 2f 08 3b
       0.002710726 -0.0009847934 0.0018444151 0.00207801
0003a0 6f 96 0b bb 5d f0 a1 ba 25 14 10 bb b6 f0 6c ba
       -0.0021299382 -0.0012354959 -0.0021984663 -0.0009038554
0003b0 44 64 04 3b 59 32 5a 39 9b f9 0c 39 f9 b1 b8 b9
       0.0020201365 0.00020808856 0.00013444426 -0.00035227815
0003c0 f8 09 16 bb 3b 67 96 3a 87 2c c5 3a 9d 07 f5 3a
       -0.0022894125 0.0011474857 0.0015043177 0.0018694286
0003d0 31 1f 22 bb d0 6a 08 3b 84 db 51 3b 8b 34 41 3a
       -0.002473783 0.0020815618 0.003202171 0.0007370195
0003e0 63 7d f8 3a 87 f2 bc b9 cb 1c 51 bb ec 46 2b bb
       0.0018958267 -0.0003603885 -0.003190803 -0.0026134802
0003f0 16 62 6c 3a 3a c1 86 3a a0 73 33 3b 9f 80 8d 3a
       0.00090173015 0.0010280975 0.002738215 0.0010795778

bias f4 [30]
000000 88 c5 38 3a 3f 2a 99 ba a3 a4 b4 ba c0 7c 52 ba
       0.00070484774 -0.0011685564 -0.0013781976 -0.00080294535
000010 9c 3a 70 ba 9c 87 db 39 e6 47 61 3a f3 fe 7f 39
       -0.0009164007 0.00041871972 0.00085937825 0.00024413671
000020 6e e9 86 39 62 0c ab ba 32 22 a3 3a d8 be 5b ba
       0.0002573239 -0.0013049955 0.0012446104 -0.0008382625
000030 ac 56 1b 39 40 2f a4 b9 e3 fd 8b b9 af fc 6e 3a
       0.0001481424 -0.00031315722 -0.00026701306 0.0009116632
000040 d7 4b b6 ba 51 83 b2 3a 6a 1a 91 ba 61 e5 e4 39
       -0.00139081 0.0013619458 -0.0011070494 0.0004365845
000050 21 22 bb 3a 39 36 3b ba 88 86 d4 39 1e 28 49 ba
       0.0014277139 -0.00071415637 0.00040536025 -0.00076735194
000060 04 dd 0e ba 84 ca 58 b9 b4 dc b2 39 06 2a c1 ba
       -0.0005449804 -0.00020674808 0.00034115242 -0.0014737255
000070 83 95 8b 39 cd 71 90 ba
       0.0002662354 -0.0011020243

weight f4 [15, 163]
000000 41 99 84 3b 24 67 b8 3b da 14 a1 3b 96 3c a7 3a
       0.0040465896 0.0056275297 0.004915816 0.0012759145
000010 20 18 12 3c c2 6f 28 3c 08 f7 d1 bb eb 18 8f 3a
       0.008916885 0.010280551 -0.0064076222 0.001091746
000020 af 7a c1 3b 3d cb b2 3b 15 fe 74 3c 0f 17 3d 3c
       0.0059045176 0.005456357 0.014953156 0.011541142
000030 68 14 34 3c f8 00 46 3c 1c 01 71 3b 1e 8d 9c 3b
       0.010991193 0.012085192 0.0036774343 0.0047775647
000040 f1 b7 41 3b eb 62 c1 bb 59 a5 b7 3b e2 96 04 3c
       0.00295591 -0.0059016845 0.005604428 0.008092614
000050 51 51 0d 3c 84 f1 b1 3b 67 27 b3 3b 5d 0e 87 3b
       0.008625344 0.0054304022 0.0054673436 0.0041215853
000060 eb 8a 3f b9 ad 5b 9d b9 2f c0 54 3b 70 26 f0 39
       -0.0001826693 -0.00030013677 0.0032463183 0.00045805005
000070 5b ea 28 3b 54 7b ea 3a ff 4b f2 3b 06 f3 ed bb
       0.0025774452 0.0017889538 0.0073943133 -0.0072616367
000080 1d dc b7 3a 62 47 9a bb f1 e8 48 3c c6 6a 1f bc
       0.0014027391 -0.0047082165 0.012262569 -0.009730047
000090 0f 38 e7 3b e3 6f 9a 3b 71 48 0a 3b 57 48 92 3b
       0.0070562433 0.004713045 0.0021100307 0.00446419
0000a0 a8 12 85 bb 4f 58 df bb 7a f2 3d 3b d8 ae e2 3a
       -0.004061062 -0.006815947 0.0028983639 0.0017294539
0000b0 39 11 ac 3b f9 ec 00 3c 6a 64 87 39 30 34 8c 3b
       0.0052510765 0.007868999 0.0002582402 0.004278682
0000c0 f0 d3 82 3b 87 ec e0 3b 20 cf fa bb 66 10 74 bb
       0.00399255 0.0068641338 -0.0076540858 -0.003724122
0000d0 5f 53 d7 3b be 63 0a bd a5 20 4b 3a 1d 04 0e 3b
       0.006571218 -0.033786528 0.00077487 0.0021669932
0000e0 cf 71 2b 3b 35 12 06 bb b1 c9 30 3c 33 47 29 bc
       0.0026160365 -0.002045763 0.0107902745 -0.010331917
0000f0 e5 f5 ba 3b fc 7c a8 3a 2d f4 ad 3c 27 94 b4 bb
       0.0057055824 0.0012854631 0.021234596 -0.005510825
000100 dd 10 d2 ba 5d 78 b9 3b 6d 90 47 bc 50 83 7b bc
       -0.0016026754 0.0056601004 -0.01218043 -0.015351132
000110 62 61 cf bc 2a 31 b9 3b b5 67 a6 ba 8c ed 96 3a
       -0.02531499 0.0056516128 -0.0012695702 0.0011514886
000120 3d a9 bb 38 59 af 92 3b e8 ed 3a 39 c9 2b 23 ba
       8.948378e-05 0.0044764695 0.00017826969 -0.0006224481
000130 35 1a b2 3a b9 28 ad b9 de cf b4 bc e3 b9 e3 3b
       0.0013588133 -0.00033027472 -0.022071775 0.0069496497
000140 45 e3 00 3d 5e 3e ae bc 22 61 12 3d 45 bf 98 ba
       0.03146674 -0.021269973 0.035737164 -0.0011653682
000150 25 74 b8 3b fc 19 44 bc fb b2 80 bb 61 28 6c 3a
       0.00562908 -0.011969086 -0.003927586 0.00090087025
000160 6a 14 a3 b9 79 27 a4 3a 17 d2 f1 3b a3 08 9d 3a
       -0.00031104992 0.0012523971 0.007379781 0.0011980723
000170 62 f8 c1 bc eb ad 0b 3c 6c f1 be 3b 82 b1 f5 bc
       -0.023678008 0.008525352 0.0058271196 -0.029991869
000180 be 5f b4 3b 96 f2 81 3a 3b 14 6d 3c 24 f1 1e bc
       0.0055045774 0.0009914215 0.014470155 -0.009701047
000190 d8 d6 4d bc 3f 09 d8 3b 11 89 08 3c 7e 14 93 bb
       -0.01256343 0.006592899 0.00833346 -0.004488527
0001a0 84 a8 cc 38 3c 3b a5 3c af 89 11 bc 19 eb 17 3a
       9.7588665e-05 0.020169847 -0.008882924 0.0005795225
0001b0 eb b5 a2 3b 40 2b c7 3b 22 c9 d6 bb f9 0a 3a bc
       0.004965534 0.006078154 -0.0065547386 -0.011355155
0001c0 87 97 1b 3c 54 ef 2d 37 a1 b6 13 3a bd 4e b9 ba
       0.009496576 1.03673265e-05 0.0005634819 -0.0014137846
0001d0 09 ba 87 3b 9a e8 36 3a 54 f9 73 ba 8c 07 09 39
       0.00414205 0.00069774094 -0.0009306867 0.0001306815
0001e0 0d a7 55 b9 9f b4 a2 bc 03 fc c1 bb dc 7a 11 3d
       -0.00020375494 -0.019861517 -0.0059199347 0.03551756
0001f0 69 a1 2f bb 25 f4 b7 3c 9b 1c c6 39 50 93 2d bb
       -0.0026799089 0.022455284 0.00037786816 -0.002648551
000200 ff 8d d1 bb a1 05 93 3c f1 a0 95 3a 8b ef 9c ba
       -0.006395101 0.01794702 0.0011415762 -0.0011973245
000210 ac 5f b7 ba 68 03 0d 3c d1 13 47 3b 36 f8 21 bc
       -0.0013990304 0.008606769 0.0030376802 -0.009885838
000220 94 dc 66 bc 9c c4 30 3b bb 02 e3 bb a0 2e 94 3a
       -0.014090676 0.0026972657 -0.0069278157 0.0011305399
000230 08 b9 b1 bb 44 86 2c bc 9d b7 17 bb 34 09 66 3b
       -0.005423669 -0.010530058 -0.0023150214 0.00351007
000240 5d 86 eb bb c2 f0 99 bb f1 a2 60 bc 32 cd 8a 3b
       -0.007187648 -0.00469789 -0.013710723 0.004235887
000250 35 56 18 bc d9 3c a9 bb ad 8d c8 bb 27 a6 77 3b
       -0.009297897 -0.0051647243 -0.0061204047 0.0037788243
000260 9d cc 21 3c 90 eb 14 bb 07 f4 90 bb 1b fb fc 3a
       0.009875444 -0.0022723414 -0.0044236216 0.001930091
000270 47 1a e7 3b d4 6c b2 3b 18 f9 bb ba 52 12 17 3c
       0.007052693 0.005445102 -0.0014341203 0.0092206765
000280 ef 20 23 bc 02 46 de bb b8 20 fd 3c 09 25 86 3b
       -0.009956582 -0.006783248 0.03089939 0.0040937704
000290 95 4b e9 3b b1 e4 7e 3b c3 b4 99 3b e7 46 0c 3c
       0.007119606 0.0038893635 0.004690738 0.008561826
0002a0 a9 70 9b 3b 8f bd 11 bc 94 39 61 3b e2 c9 a4 3b
       0.0047436547 -0.008895292 0.0034366595 0.005028949
0002b0 0c ef 99 3b f8 46 75 3c 58 a0 24 3c e7 25 09 3c
       0.004697686 0.014970534 0.010047995 0.008370853
0002c0 17 fc 44 3c 02 1b 62 3b fa 00 23 3b ce 50 9a 3c
       0.0120229935 0.0034500961 0.0024872408 0.018837359
0002d0 1d 0d c2 bb 8f b2 bd 3b ae 23 fa 3b 16 e7 21 3c
       -0.0059219734 0.005789108 0.007633648 0.009881755
0002e0 cf 2f 56 3b 43 2b e6 3a ed ca 93 3b 93 c1 91 b8
       0.0032682305 0.00175605 0.0045102746 -6.950195e-05
0002f0 30 df aa ba 8a fe 8b ba 82 61 b2 ba 1b f9 00 3b
       -0.0013036486 -0.0010680717 -0.0013609382 0.0019679728
000300 de e7 c8 3b 12 e7 38 3b bb 9b e9 3b 0e 2e 02 bc
       0.0061311563 0.00282139 0.00712916 -0.007945551
000310 f8 7d 0d bb 81 4d 2f bb 3d 13 d4 bb b6 f6 64 3b
       -0.0021589976 -0.0026749077 -0.00647202 0.003493709
000320 23 6e 69 39 df 33 96 3a 4e fb 77 3b 9b 1a 3a bb
       0.0002226164 0.0011459551 0.0037838998 -0.0028397206
000330 2c 9c 97 bb 9c 77 9e 3b 14 18 47 3b a3 d7 9b 3b
       -0.0046267714 0.004836036 0.0030379342 0.0047559305
000340 8e 10 01 3c 26 71 be ba 97 0b 14 3b f8 32 49 3b
       0.007877482 -0.001452957 0.0022589916 0.0030700546
000350 0b 35 fc 3b 88 4b 8b bb 9b 67 cd bb f8 19 b6 3b
       0.007696753 -0.0042509474 -0.0062684542 0.005557295
000360 59 46 15 bc 5c 3c fe b9 09 6a 04 3c 85 da 8d 3b
       -0.0091110105 -0.00048491627 0.008081921 0.004329028
000370 ba ee 75 bb 7d 76 20 bc eb 2f 88 bc 19 3a e1 3b
       -0.0037526325 -0.009793875 -0.016624412 0.006873381
000380 9a 04 54 3a 76 54 08 3d 0f 19 f6 bb b3 f1 d7 ba
       0.0008087844 0.033283673 -0.0075103114 -0.001647523
000390 fd e4 a6 3b a9 e1 2c bb bf d3 b6 bb 0b 38 73 bc
       0.0050932155 -0.002637962 -0.0055794413 -0.014844905
0003a0 73 9d ff 3b 95 7a 29 3a 5d a6 c3 39 ee 7d fb 39
       0.007800752 0.00064651045 0.0003731725 0.00047968276
0003b0 2b 1d 31 3b 34 02 52 b9 c3 4a 97 ba 3e 01 0e b7
       0.0027025442 -0.00020027981 -0.0011542666 -8.464149e-06
0003c0 94 9d a7 ba 21 5c 62 bc cf b8 37 bb 98 7f 7f 3c
       -0.0012788051 -0.013815911 -0.0028033738 0.015594386
0003d0 4a ff 8f 3b 57 f8 ca 3b f6 ab 15 ba a6 a1 87 3b
       0.0043944465 0.006194155 -0.0005709523 0.004139143
0003e0 b5 42 f0 bb 5e 2d b3 3b 93 a3 44 3a 7d b7 9b 3a
       -0.007332171 0.0054680547 0.0007501181 0.0011880245
0003f0 b0 92 01 3a b4 c0 8a bb a5 0f e7 ba aa 5f 82 bb
       0.00049428176 -0.004234398 -0.0017628564 -0.003978689

bias f4 [15]
000000 d5 92 ee b9 9d e7 1f ba 82 75 04 ba 42 e9 af b9
       -0.00045504296 -0.0006099882 -0.00050529104 -0.00033552392
000010 35 d8 d9 39 e8 aa 89 b9 59 e0 46 ba 55 ba 73 3a
       0.00041550552 -0.0002625801 -0.0007586531 0.000929748
000020 5d 73 2e ba 30 74 bb 3a 88 ec 4a 3a 66 c1 c3 3a
       -0.0006654764 0.0014301594 0.00077409344 0.0014934957
000030 c4 1f 92 3a 3e 2b 2b 3a 04 0a 58 ba
       0.0011148383 0.0006529576 -0.00082412385

weight f4 [15, 9]
000000 ef 6d 74 bc 7f a6 cb 3b 90 df d3 bb 89 0d 34 bb
       -0.014918788 0.0062149162 -0.0064658597 -0.0027473888
000010 4d a1 d5 b8 fd d0 99 bb a8 6e 81 3a c1 e6 8d 3b
       -0.00010186676 -0.004694103 0.0009874897 0.0043304865
000020 2a be 84 ba da ca b7 bb b7 da 26 bb 86 2d 74 3a
       -0.0010127474 -0.0056088986 -0.0025459954 0.0009314645
000030 28 85 ce 3b b9 50 7f bb 47 97 38 3a 03 3b 30 bb
       0.0063024946 -0.0038958027 0.0007041585 -0.0026890642
000040 bd af cb ba 1a 93 9f ba bd 87 3c 3c e1 a9 a7 3b
       -0.0015540045 -0.0012174577 0.011506972 0.0051166867
000050 5d fb c7 bb 82 ca b8 bb 2d cc ca 3b ec 11 8e bb
       -0.006102963 -0.005639375 0.0061888904 -0.0043356325
000060 dd e9 9b 3a 13 6d c5 3b 7b ba 13 3a c7 da b7 bc
       0.0011895258 0.0060249656 0.0005635393 -0.022443188
000070 f5 32 8d 3b aa 75 a7 3b b2 bc 6b ba 15 ce 37 3b
       0.004309053 0.005110462 -0.00089926564 0.0028046418
000080 06 f8 8f 3a 00 c7 1e bb 70 b0 a2 bb b3 cb 9d bb
       0.0010983951 -0.00242275 -0.0049648806 -0.0048155426
000090 0e 25 18 bc ec 18 0f bb 9a 42 16 b8 79 fe 48 bb
       -0.009286178 -0.0021834923 -3.5824814e-05 -0.0030669256
0000a0 db b5 62 bb c0 0a 59 3a 30 95 10 3b a0 c9 a9 3a
       -0.0034593258 0.0008279495 0.002206158 0.0012953766
0000b0 fa 7b 89 b9 88 8d dc 39 65 9c e4 bb 29 54 a0 3b
       -0.00026223046 0.0004206712 -0.0069766515 0.004892845
0000c0 99 d7 62 bb 00 fd 59 ba e4 d7 b3 3b 67 1b 15 3b
       -0.003461337 -0.0008315593 0.0054883827 0.0022751929
0000d0 83 dd d1 3b 0e 3f 0e bb dc 60 a5 3b fd ea a3 3a
       0.00640458 -0.0021705064 0.005046947 0.0012505945
0000e0 db c9 bc 3b 71 ed 76 bb ed 33 d8 3a 57 48 b6 3a
       0.0057613677 -0.0037678147 0.0016494967 0.0013907057
0000f0 29 2c 80 3b c5 5d 91 ba 53 43 33 bb d5 65 5d 3a
       0.0039115143 -0.0011090568 -0.002735336 0.0008445655
000100 bb 5b 9d bb d5 9a cd bb 7d 78 94 bb 7d aa 99 bb
       -0.004802195 -0.006274561 -0.004530965 -0.0046895132
000110 97 d4 6c 3b 25 a8 a5 3b f2 93 22 bb 53 aa ac 3b
       0.0036137456 0.005055445 -0.002480742 0.0052693277
000120 75 3d 50 3c 9b be 8e 3a ba 0a 93 bb d0 3f 64 bb
       0.012709965 0.0010890545 -0.0044873627 -0.0034828074
000130 01 d4 7e b9 5f 5d 24 3b 20 d7 ab 3b 72 be 10 bb
       -0.00024302305 0.0025080068 0.0052441508 -0.002208617
000140 fd b4 37 ba 89 3e 91 bb a3 67 82 bb f2 08 bf bb
       -0.00070078654 -0.0044325036 -0.0039796396 -0.005829924
000150 41 10 9a 3a 6a 54 c5 3b 1a 90 9c bb 21 02 c2 3a
       0.0011754112 0.006022026 -0.0047779204 0.001480166
000160 d2 63 5e 3b 14 49 46 b8 60 b7 b0 3a 07 c5 af bb
       0.003393401 -4.7274938e-05 0.0013482384 -0.0053640637
000170 a5 01 a0 3b b1 56 d9 3a 73 ab 70 bb df ca d3 bb
       0.0048830085 0.0016581622 -0.0036723285 -0.006463393
000180 55 10 53 bb 47 e2 c6 3b 83 78 82 ba 72 73 3e 3c
       -0.003220578 0.006069455 -0.0009954128 0.011624204
000190 c8 63 c9 3b 1e 77 9c 3b 9a 1a f1 3a 7d 75 b0 3a
       0.006145928 0.004774942 0.0018394769 0.0013462749
0001a0 2c 3f 16 3b 7c 5e a0 39 3d 72 ab 3b 35 b8 e5 ba
       0.0022925837 0.00030587974 0.005232124 -0.0017526211
0001b0 4c 88 5c bc 3d 17 dc bb f7 81 9d 39 6a cd a9 3b
       -0.01346023 -0.0067166374 0.00030042205 0.005181958
0001c0 55 6f b8 bb ec a1 c1 b9 99 65 04 3b 1b e8 2e 3b
       -0.005628506 -0.0003693247 0.0020202158 0.0026688639
0001d0 78 10 58 bb 11 50 03 bd 0e b4 22 bb 6f 22 79 bb
       -0.00329688 -0.03205878 -0.002482656 -0.0038014909
0001e0 41 33 6e 3a 7e ff be bb 45 ef 42 ba b1 7b ab 3b
       0.0009086617 -0.005828797 -0.00074361666 0.005233251
0001f0 7c c3 c3 ba e3 01 26 3b a2 b7 8e 3b 89 30 90 bb
       -0.0014935578 0.0025330714 0.004355387 -0.004400317
000200 05 f8 aa 3b 78 75 b9 bb af 00 59 bb f8 c9 7f 3b
       0.0052175545 -0.0056597553 -0.003311198 0.0039030295
000210 2a c0 c6 3b de f5 0d bb 5f 80 f1 ba
       0.006065388 -0.002166144 -0.0018425098

bias f4 [15]
000000 5c c2 4d bb 91 8e fc ba eb cf 31 3b d3 41 8a bb
       -0.0031396365 -0.0019268562 0.0027131985 -0.0042192726
000010 1c 28 df bb cf af a8 bb de d0 b8 ba fb c1 e7 bb
       -0.0068102013 -0.005147911 -0.0014100333 -0.007072685
000020 a1 bc e0 ba f4 08 38 3a 53 93 af 3b 31 2a fa ba
       -0.001714606 0.0007020377 0.0053581386 -0.001908606
000030 78 47 fa ba f1 9a ab bb 5a f6 17 bb
       -0.0019094786 -0.0052369763 -0.0023187608

weight f4 [15, 163]
000000 e7 ad db 3b d0 06 c2 3b db 0b b0 3b 41 66 c1 3b
       0.0067040804 0.0059212223 0.005372507 0.005902082
000010 1b 34 a3 3b 5a a1 b9 3b 59 e6 b8 3b 92 95 b3 3b
       0.0049805767 0.0056649866 0.005642694 0.0054804767
000020 0a e2 22 3b 03 c0 c7 39 e8 8b ca 3b 5a 5a ec 3b
       0.0024853968 0.00038099298 0.006181229 0.007212919
000030 6d 55 a5 3b fe 86 b7 3b 9e 11 53 3c 52 e0 34 3c
       0.005045584 0.005600809 0.012882618 0.01103981
000040 f3 62 a2 bc 20 08 9f 3b 06 d5 cb 3b e6 a0 ad 3b
       -0.019822573 0.0048532635 0.0062204627 0.0052987216
000050 ba 1f 55 3b a4 0a ab 3b 67 b4 58 3b e7 44 cc 3b
       0.0032520131 0.0052197743 0.0033066513 0.0062337997
000060 c6 09 61 3b 7c 9b ae 3a 6e c3 68 bc 31 6b c8 ba
       0.00343381 0.0013321484 -0.01420675 -0.0015290735
000070 3e d6 c8 ba 14 75 e1 3c 61 69 f8 3a 02 37 6c bc
       -0.0015322638 0.027521648 0.0018952304 -0.014417412
000080 40 83 8e 3c 24 e8 8e 3d 62 b7 a5 bb 50 cc c1 3b
       0.01739657 0.06977871 -0.0050572613 0.0059142485
000090 94 b2 6d b8 01 c5 21 3b e6 cb 35 b7 3e 76 2c 3a
       -5.6671517e-05 0.0024684074 -1.08359145e-05 0.0006578899
0000a0 00 1e 15 3a ea f0 1a 3b 34 cb 74 39 8f 87 ac bb
       0.0005688369 0.002364213 0.00023345352 -0.0052651833
0000b0 4d 83 39 3b 08 e5 09 b9 e8 33 f6 b9 20 90 3b 3b
       0.002830702 -0.00013150659 -0.0004695945 0.002861984
0000c0 42 47 17 3b 70 6c bb 3b b5 91 ad 3b 47 4f 06 3c
       0.0023083244 0.005719714 0.0052969106 0.008197612
0000d0 40 8f 9d 3b 84 88 a7 3b 1d fd b9 ba 90 dc 0b 3c
       0.0048083365 0.0051127095 -0.0014189814 0.008536473
0000e0 cb 0d 2b bb 57 88 78 3b 24 84 13 bd 02 99 70 3c
       -0.002610075 0.0037923062 -0.03601469 0.014684917
0000f0 76 d8 0c bd 66 95 95 3a 4d bc 64 bd 54 ab d0 b9
       -0.03438612 0.0011412322 -0.05584364 -0.000398005
000100 90 02 77 3d 8f 5b df 3c 45 af 60 3c 66 96 cb 3d
       0.06030518 0.027265338 0.0137136625 0.099407956
000110 e9 f2 8d 3e 3c 9b d5 3c 68 7b 8c ba 89 bb e1 bb
       0.27724388 0.026074998 -0.001071793 -0.006888811
000120 23 8b c9 3d 3d c5 82 3d 1f 66 64 3a 28 3c 29 3d
       0.09840991 0.063852765 0.0008712727 0.041317135
000130 94 0a 60 ba 07 ac a1 3a b6 5b 05 bc a4 23 63 3d
       -0.0008546498 0.0012334593 -0.008139541 0.05545391
000140 6f 9f 8d b9 27 ed ee 3b 1c 13 de 3a bf f0 02 3a
       -0.00027012403 0.0072914544 0.0016942951 0.00049949804
000150 77 97 4d be c2 d9 0c 3c 44 b2 d0 bb c2 09 60 ba
       -0.2007731 0.008596839 -0.006368907 -0.0008546376
000160 80 9c 28 b9 72 0e 35 ba eb 07 c4 38 59 95 13 ba
       -0.0001608003 -0.00069067546 9.347483e-05 -0.00056298595
000170 5b 1c 6f bb 06 0b 3a bb 90 93 72 bb 9d cb 6e 3d
       -0.0036485407 -0.0028387918 -0.0037014224 0.05829965
000180 fd df c3 3b 6a 34 39 3a 8c 40 a3 3c 8b 5e 4e bd
       0.005977629 0.0007065 0.01992824 -0.050383132
000190 58 bf 2b bc bb 26 99 bd c0 be 3e bc 79 e1 3e bd
       -0.010482632 -0.074780904 -0.011642158 -0.046601746
0001a0 c3 6c e5 39 0d 19 93 bd d0 75 b7 bc 90 19 d9 3b
       0.00043759317 -0.071825124 -0.022395045 0.0066253617
0001b0 2d b4 33 3d 8c a5 9d 3c db 01 3d 3e c4 ae 37 3e
       0.043873 0.019243978 0.18457739 0.17937762
0001c0 31 98 19 3d 44 d5 85 3a 43 90 f5 3c c0 1c b1 3d
       0.037498657 0.0010210653 0.029976016 0.08648062
0001d0 01 6e 72 3e 0a 23 45 3a f3 63 e6 3c 42 3d c7 ba
       0.23674776 0.0007520175 0.028123831 -0.0015200751
0001e0 69 34 f1 b9 cc e2 df bb e4 7a 80 3d 70 10 0b 3b
       -0.0004600615 -0.006832456 0.062734395 0.0021219514
0001f0 a0 c7 17 3c 47 bc d6 3b 22 d7 d4 b9 16 d5 17 be
       0.009263903 0.006553206 -0.00040596077 -0.1482738
000200 c8 b6 1d 3d 1b 52 ea bb a9 ba 0a b9 6f f7 67 3a
       0.038504392 -0.007150901 -0.00013230242 0.0008848821
000210 91 68 a9 3a 44 e6 33 bc c3 27 05 bc b2 77 e0 bc
       0.001292484 -0.010980193 -0.008127156 -0.027400825
000220 db 1a 30 bc 8d ab c4 3b c1 20 a5 3b f8 a0 6f 39
       -0.01074859 0.0060018958 0.005039305 0.00022852782
000230 4c dd bf 3b 1d fd df 3b cb 1d d1 3b 1b 89 d2 3b
       0.005855238 0.0068355934 0.0063817254 0.0064250357
000240 2a 1c 11 3c 9f 32 b2 3b 1a b4 81 3a 3a 00 15 3c
       0.0088568125 0.0054381634 0.0009895593 0.009094292
000250 a8 6a e0 3b c6 f8 32 3c b9 34 03 3c 80 10 ac 3b
       0.006848652 0.01092357 0.0080081755 0.0052509904
000260 21 75 dc 3b f0 2a c3 3b 77 d0 9c 3b 5f 30 bc 3b
       0.00672783 0.0059560463 0.004785593 0.005743071
000270 34 2b ff 3b 14 33 fe 3b 73 95 d9 3b a8 e1 1e 3c
       0.0077871326 0.007757554 0.00664013 0.009697355
000280 30 63 32 3c 8d 5a b0 3c 1a 53 2f bb db fe 08 bb
       0.010887906 0.021527553 -0.0026752413 -0.0020903859
000290 69 1d 51 bb 65 d1 60 bb 25 8d 44 bb 5b fd fe ba
       -0.00319084 -0.0034304496 -0.0029991355 -0.0019454168
0002a0 12 9a 40 bb 21 44 4a bb 55 28 16 bb 87 25 d5 ba
       -0.0029388708 -0.0030863362 -0.0022912223 -0.0016261794
0002b0 8e ca 2f bb 33 4a 30 bb b9 54 1d bb cc d2 79 bb
       -0.0026823613 -0.0026899695 -0.0024006797 -0.003812003
0002c0 de 67 b1 ba e0 b1 f8 ba fe 8a 7c 38 b8 7d 34 3b
       -0.0013534983 -0.0018973909 6.021093e-05 0.0027540755
0002d0 c5 3f 0b bb d1 d2 82 bb 5d d5 b5 ba 72 30 44 bb
       -0.0021247726 -0.0039924164 -0.0013872791 -0.0029936102
0002e0 dd a8 dc ba 23 ee 88 ba 69 ab 9f ba 59 8d 12 bb
       -0.0016834993 -0.0010446947 -0.0012181822 -0.0022362082
0002f0 92 a2 b2 ba 55 9e 86 ba e5 40 8d 38 dd d9 b1 ba
       -0.0013628772 -0.0010270575 6.7354915e-05 -0.0013568957
000300 84 5b 1f bb ae 48 ae ba a1 8a 91 ba 14 92 a6 ba
       -0.0024316022 -0.0013296807 -0.0011103937 -0.001270833
000310 64 ef c5 3b e3 f3 83 b8 64 ce 1f bb 71 2c 6b bb
       0.0060405005 -6.291994e-05 -0.0024384493 -0.0035884643
000320 dd 5f 12 bb 87 61 f1 ba 93 4f 54 bb cd cc 2c bb
       -0.002233497 -0.0018415906 -0.0032396063 -0.0026367188
000330 f0 cb 07 bb 7d c1 43 bb 86 99 37 bb d8 d2 56 bb
       -0.0020720921 -0.0029869967 -0.002801509 -0.0032779481
000340 d9 d1 5c bb fc ea ea 39 de 11 65 bb 33 0c 6a bb
       -0.0033694415 0.00044807035 -0.0034953277 -0.0035712838
000350 7e ef af ba 74 85 cb ba 6c 47 53 bb ec c7 07 bb
       -0.0013422815 -0.0015527443 -0.0032238616 -0.0020718528
000360 d8 1d be ba a7 ed be 3a ce 12 46 b9 15 a9 7b bb
       -0.0014504744 0.0014566676 -0.00018889757 -0.0038400341
000370 0a 96 4a bb 03 11 a6 b9 71 59 47 ba 41 36 39 bb
       -0.0030912184 -0.00031674662 -0.00076045754 -0.0028261098
000380 17 48 4f ba 3e 3b 70 bb 6c 92 30 bb 37 83 8e bb
       -0.00079071656 -0.0036656405 -0.0026942743 -0.004349138
000390 2a 02 ba b9 05 b1 59 ba 46 ce c2 3b 8d 21 11 3c
       -0.00035478297 -0.0008304271 0.005945 0.008858097
0003a0 9d 01 b3 3a 24 38 a7 ba d4 e3 8b ba f2 45 45 3b
       0.0013657097 -0.001275782 -0.0010672756 0.0030101505
0003b0 55 d5 aa bb 0c e1 93 3a 0e af 9c 3b 70 32 9c 38
       -0.0052134194 0.0011282279 0.0047816103 7.4480544e-05
0003c0 88 44 29 3a 9d 2e 11 bb 67 28 a7 ba 6f 82 2f bb
       0.00064570503 -0.0022153028 -0.001275313 -0.0026780625
0003d0 38 cc 16 b7 3f 57 8e bb fb 18 16 b9 bf bc 3f 3a
       -8.988245e-06 -0.0043438966 -0.0001431442 0.0007314197
0003e0 5e b4 7d bb 31 df 87 ba 51 b6 44 3a fe 3e ad ba
       -0.0038712244 -0.0010366199 0.0007503974 -0.0013217626
0003f0 e8 44 44 3a 38 ef 24 bb 1a 78 e0 ba d2 00 2d bb
       0.00074870745 -0.0025167 -0.0017125637 -0.0026398194

bias f4 [15]
000000 4b 9b 9e 3b 6c ab 7b bb 6b a6 35 bb d1 6b 5f bb
       0.0048402897 -0.0038401736 -0.00277176 -0.0034091363
000010 6a 27 03 bc fe 84 2c 3a 90 4d 00 ba 21 fb 6e bb
       -0.0080050025 0.00065810967 -0.000489437 -0.0036465602
000020 98 71 ab bb 23 b1 c0 bb 9b f2 cd ba 61 bd cf bb
       -0.0052320473 -0.0058804913 -0.0015712561 -0.0063397144
000030 2a 64 81 bb ff 0e 7d bb 90 51 88 bb
       -0.003948708 -0.0038613675 -0.0041601136

weight f4 [15, 9]
000000 05 20 8c 3b 3a 8a 04 3b c1 71 9e 3a 7e c7 b6 3b
       0.004276278 0.002022399 0.0012088345 0.0055779805
000010 19 41 a3 b9 0a 0a 58 3b ef b8 9e 3a c9 3c 66 bb
       -0.00031138284 0.0032964968 0.0012109558 -0.0035131446
000020 14 7d 2b bc ef 35 98 3a 7a 34 70 3b 86 3a 71 bb
       -0.010466833 0.0011612753 0.0036652372 -0.0036808564
000030 27 63 58 bb 11 70 1e 3a 1e c0 c5 bb 69 ca 31 3a
       -0.0033018084 0.0006043921 -0.006034865 0.00067821756
000040 9d 44 7f bb e0 d2 26 bb 87 30 07 bc 35 7c 92 bb
       -0.0038950809 -0.002545528 -0.008251316 -0.004470373
000050 53 04 e5 bb 66 4d ec bb 0b 99 40 3a b1 c5 b4 3a
       -0.006989041 -0.007211375 0.0007347024 0.0013791827
000060 a5 fd 3d bb c2 ad b8 bb 9d 31 e4 ba 1b 37 8a 3a
       -0.0028990295 -0.005635948 -0.0017409805 0.0010544987
000070 83 8c d9 bb 67 dc 2f bb 3f f5 8a bb 61 3e 30 bb
       -0.0066390648 -0.002683425 -0.0042406614 -0.002689265
000080 8c 30 70 38 cd 98 c0 bb c0 0f e2 bb a0 df 8c bb
       5.726567e-05 -0.0058775903 -0.00689885 -0.004299119
000090 ce 49 17 bb 8f 43 1e bc 6b 33 72 bb 30 d2 30 bc
       -0.0023084763 -0.009659662 -0.0036956917 -0.0107923
0000a0 01 04 19 bc af 1f 06 bb 7a fc 9e bb fd 5c 40 bc
       -0.0093393335 -0.0020465662 -0.004851875 -0.01174092
0000b0 44 78 d1 bb 8f 9a 84 bb 5c 1f 02 3c 06 d9 a9 3b
       -0.0063925106 -0.004046745 0.007942047 0.005183342
0000c0 ce 80 4d bb 9f 34 e1 ba 2b bd ea 3b d0 02 28 3a
       -0.003135729 -0.001718182 0.007163664 0.00064091105
0000d0 7d d7 0b 3c 36 29 aa 3b ce 9b 7e bb f7 8a 0b bb
       0.008535263 0.005192901 -0.003885019 -0.0021292546
0000e0 be 0a ab ba c4 61 97 3b d6 f1 e5 3b 51 78 cc 3b
       -0.0013049466 0.004619809 0.0070173545 0.006239929
0000f0 d9 19 7f bb d4 66 14 3c 43 a6 da 3b 6a e8 f4 bb
       -0.0038925319 0.009057719 0.006672652 -0.007473995
000100 7f 47 91 3b d0 85 c7 bb 23 03 fe bb d6 8a a3 3a
       0.004433572 -0.0060889497 -0.007751839 0.001247729
000110 c7 9a 66 ba 66 1c 20 3b 01 4d fb 3a b2 bd e5 bb
       -0.00087968673 0.002443099 0.0019172729 -0.007011139
000120 1f 20 f5 bb 3c ff 4d bc 97 7e 26 bc 69 db b2 bb
       -0.007480636 -0.01257306 -0.010162017 -0.0054582846
000130 15 f8 bd b9 11 4f f9 bb e8 9c 52 bb 13 6c 32 bc
       -0.00036233725 -0.0076083024 -0.003213698 -0.010890025
000140 19 04 a0 b9 58 f0 dd ba 46 99 28 3b 4b e4 b7 ba
       -0.0003052063 -0.001693259 0.0025726124 -0.0014029829
000150 d1 ea 65 b9 18 e0 89 3b 9b 72 8d bb 7d fe 90 3b
       -0.00021926618 0.0042076223 -0.0043166406 0.0044248686
000160 18 b8 01 bc 0f 44 2a bc a5 14 74 ba 85 74 00 3b
       -0.0079174265 -0.010392203 -0.00093109376 0.00196007
000170 02 da 0b bc 12 12 8b bb 22 de 05 bb f1 66 17 3c
       -0.008535864 -0.0042440975 -0.002042659 0.009240852
000180 c2 46 a0 ba 92 6e 87 bb 91 cf 41 bb bd 8c 0c bc
       -0.0012228119 -0.004133054 -0.0029573182 -0.0085784765
000190 29 77 12 bc 90 8f bb bb ea 94 3e bc 7e cc dd bb
       -0.008939543 -0.005723901 -0.011632184 -0.006768762
0001a0 71 2c 1c bc d8 63 5f 3b bb 63 fc bb b1 5d 83 bb
       -0.00953208 0.003408661 -0.0077023185 -0.0040089716
0001b0 1c 1f 1e ba 8e 1a f0 bb 10 2c 1c bc a1 4a 32 bb
       -0.00060318573 -0.0073273843 -0.00953199 -0.0027205127
0001c0 ad b6 2e bb e8 ac bb ba 4a 54 21 3b b8 86 f5 ba
       -0.0026659176 -0.0014318498 0.002461689 -0.0018732166
0001d0 2f dd c8 bb c1 a5 60 3a 96 2b 0a bc 78 cc 6b ba
       -0.0061298828 0.0008569621 -0.008433243 -0.0008995007
0001e0 bb c8 09 3a 88 da 08 bc fd f0 65 3b 2d d9 b4 3b
       0.00052560464 -0.008352883 0.0035086267 0.0055190534
0001f0 cc a2 40 3b de bb 3e 3b 7b 00 16 ba a3 d3 cc bb
       0.002939391 0.0029103677 -0.00057221175 -0.006250815
000200 87 6a 1a 3b 84 fd 25 bc 82 05 19 bc c6 69 a6 bb
       0.002356203 -0.010131244 -0.009339692 -0.005078527
000210 dc aa f9 ba 37 62 8b 3a 53 9a 18 bc
       -0.0019048112 0.0010634129 -0.0093141375

bias f4 [15]
000000 c1 38 db 3a dd 3e f4 b9 9d 98 ac bb 6e e5 c0 bb
       0.0016725288 -0.00046586143 -0.0052672164 -0.005886725
000010 77 1b 41 bc 47 78 bf 3b 7a b1 2e 3b ce 9e df bb
       -0.011786333 0.0058431956 0.0026656077 -0.006824351
000020 51 4a 26 bc ec de 53 bb ae 5d 75 3b 5c 66 e5 bb
       -0.010149554 -0.0032328917 0.003743987 -0.0070007276
000030 72 58 16 3b 25 6b 9a ba a1 0a bc bb
       0.00229409 -0.0011781199 -0.0057385718

weight f4 [15, 9]
000000 0b 77 1e 3b a9 aa bf 3a 99 97 18 3a 81 f0 ee bb
       0.0024179842 0.0014623004 0.00058209297 -0.007291854
000010 5b 18 42 bc 1d 78 ff ba 93 f7 cf bb 57 53 ba bc
       -0.011846627 -0.0019490753 -0.006346652 -0.022744818
000020 99 00 03 3c 07 57 ca 3a d9 72 f2 3b bb 3e b4 3b
       0.007995748 0.0015437313 0.007398945 0.005500642
000030 f7 8f a9 bb f7 fc 9d bc 7e bd 58 bc 59 92 b7 3b
       -0.0051746326 -0.019285662 -0.013228772 0.005602163
000040 3b 56 16 bd 41 82 0e 3c 3d ac 31 3b c8 b7 b3 3a
       -0.03670333 0.008698047 0.0027110719 0.0013711387
000050 86 ec b3 39 34 6b b0 bb 54 4d d2 bb ca 7e 59 ba
       0.00034317764 -0.0053838734 -0.0064179096 -0.0008296786
000060 d5 a8 b5 ba 49 5f af bc 3b b2 63 3c 16 b6 4f bb
       -0.001385952 -0.02140774 0.013897474 -0.0031694225
000070 94 5e 00 b9 18 70 b5 3a ba 4c ea 3b dc 1d c0 3b
       -0.00012242264 0.0013842611 0.00715026 0.0058629345
000080 5b b5 ac ba 6c f4 a4 3b 97 42 a0 3c bd 28 90 bb
       -0.0013176607 0.00503402 0.019563003 -0.0043993876
000090 06 14 a9 39 f3 4e 99 3b b9 f2 7c ba 7a a3 85 bb
       0.0003224911 0.004678601 -0.00096492056 -0.004078326
0000a0 8e 9f 6c bb c1 a7 bc 3b 16 1c 5a bb dc 94 a4 bc
       -0.0036105844 0.0057573025 -0.00332809 -0.020090513
0000b0 d7 8b 92 3b 05 1c 10 3c 22 ba 90 3a 84 3b 4c bc
       0.0044722366 0.008795743 0.00110418 -0.0124653615
0000c0 5d 9e 36 bc b8 dc 70 ba fc 6a 69 3c 94 67 86 bb
       -0.011146155 -0.0009188163 0.0142466985 -0.004101703
0000d0 c4 38 8c 3d 94 96 61 bb 23 bf 0d 37 0b 71 32 3c
       0.06846765 -0.0034422027 8.448757e-06 0.010891209
0000e0 ee 3d 47 bb f7 88 23 bb 5a b8 3e bc 12 f2 7b 3b
       -0.0030401903 -0.0024953464 -0.0116406325 0.0038443846
0000f0 5a fb bb bb d4 29 f5 bc 2e 54 93 3b 8b d7 33 3c
       -0.0057367506 -0.029927172 0.004496119 0.010976682
000100 c1 39 26 3b 40 5e a2 bc a1 04 c9 bb ab 85 2e bc
       0.0025364014 -0.019820333 -0.006134585 -0.010651986
000110 a7 b4 04 3c 18 b6 55 b9 7e 41 77 3d f9 d1 15 3b
       0.0080997115 -0.00020381098 0.060365193 0.002286075
000120 48 db ef 3b 5c 14 a0 3b c4 cf a5 bc bd 31 69 bb
       0.0073198415 0.0048852395 -0.020240672 -0.0035582625
000130 58 2d 37 bc 60 8b a6 3c ca 96 12 ba 49 c4 41 3d
       -0.011180244 0.020330131 -0.00055919273 0.047306333
000140 6a 56 43 bc 41 0b 1d 3b de 8f 41 3c f1 be 46 3b
       -0.011922458 0.0023963007 0.011814086 0.0030326212
000150 84 7b 37 bb 23 62 12 bc 4a 8b e1 3b 46 e0 8b bb
       -0.0027997205 -0.00893453 0.0068830596 -0.004268679
000160 27 ec 35 bc f5 90 08 3c f4 07 76 3a 43 0d 6c 3b
       -0.011103666 0.008335342 0.00093853404 0.0036018647
000170 a5 d8 bf ba dd f6 0a 39 81 08 87 bc be c6 f3 bc
       -0.0014636709 0.0001325267 -0.016483547 -0.029757854
000180 80 f8 b3 3b a1 a3 3d bd f7 b1 36 3c 7d c8 73 bb
       0.00549227 -0.046298627 0.011150829 -0.0037198358
000190 13 d1 fc ba 55 e5 03 3b 09 aa f2 3b 5b c5 72 3c
       -0.0019288383 0.0020125706 0.0074055237 0.014817561
0001a0 c5 29 af 3b 60 65 92 bb 02 cd 90 3c ed e6 c7 bb
       0.0053455555 -0.0044676512 0.01767588 -0.0061005265
0001b0 97 cd 6e bb 0f 47 41 bb 38 b8 00 3b cc e2 bf 3b
       -0.003643846 -0.0029491817 0.0019641053 0.0058558937
0001c0 58 ec b7 3a ff 64 ef bb a5 00 82 bb a7 46 61 bb
       0.0014032228 -0.007305741 -0.003967362 -0.0034374387
0001d0 7e a8 15 bc 4c 25 30 3c 2a 12 9e 3b 75 fd 94 bc
       -0.00913441 0.01075108 0.0048239427 -0.018187264
0001e0 9f f9 1f bc e4 7d 53 bc 4c 70 39 3c b0 61 ff b9
       -0.009764104 -0.012908433 0.011318278 -0.00048710173
0001f0 ef 94 79 3d f0 55 33 3b e0 9b e8 bb d5 36 00 bc
       0.06093305 0.0027364455 -0.00709866 -0.007825573
000200 28 f2 82 3c b7 f2 d2 3b 62 90 86 3a e7 2c 4a bc
       0.01598461 0.0064376253 0.0010266418 -0.012339807
000210 1a 83 f9 b9 8e 85 95 bd 96 1c 01 3b
       -0.0004759066 -0.07300864 0.0019700876

bias f4 [15]
000000 b6 60 11 3c 71 1c 33 3c 30 24 dc b9 9b ec 34 bc
       0.008873155 0.010932074 -0.00041988632 -0.011042739
000010 01 58 c8 b7 d2 c9 3e 3c f5 e6 2a 3c 40 95 fc 3b
       -2.3882838e-05 0.011644797 0.010431041 0.0077082217
000020 91 c5 01 3c 48 d2 2c 3c b3 7b 1e 3b 56 f9 e0 bb
       0.007920639 0.010548182 0.0024182617 -0.0068656607
000030 0b 6b 37 bc fd b8 2f 3b aa c4 6a 3a
       -0.011194955 0.0026813142 0.0008955697
