model/gnn/240929_1/epoch_9.pt (torch, 422455 bytes, 52 tensors)

att_src f4 [1, 1, 20]
0	0x279d47e0	4.365418e-15
1	0x27aabfc7	4.7392404e-15
2	0xa6c0c726	-1.3376656e-15
3	0x27bcfa04	5.245155e-15
4	0xa6b44bf4	-1.2510596e-15
5	0x26a60c5f	1.1521917e-15
6	0xa7484fcb	-2.7798831e-15
7	0x2771a172	3.3532988e-15
8	0x27b559b7	5.033486e-15
9	0xa796ebf4	-4.1889184e-15
10	0x27b2cf7f	4.9629892e-15
11	0x269a021a	1.0686466e-15
12	0x2797fca1	4.218482e-15
13	0x265ee2a4	7.732888e-16
14	0x2746644c	2.753239e-15
15	0xa6685de0	-8.0618394e-16
16	0x279e95f2	4.401638e-15
17	0x267341ea	8.439689e-16
18	0xa74013b6	-2.6656038e-15
19	0x26d1bfd1	1.455428e-15

att_dst f4 [1, 1, 20]
0	0xa73d9067	-2.63073e-15
1	0xa64100f2	-6.6961607e-16
2	0xa7271bf8	-2.3191068e-15
3	0x27887829	3.787786e-15
4	0xa7a263ce	-4.507224e-15
5	0xa73dada7	-2.6323156e-15
6	0xa6e85c2d	-1.6123218e-15
7	0xa777633b	-3.4331929e-15
8	0x261b5528	5.3891836e-16
9	0xa7cb2f59	-5.6395153e-15
10	0x27b9c9b8	5.156652e-15
11	0xa7aec08c	-4.850346e-15
12	0x279ed26f	4.408196e-15
13	0x2688f198	9.50238e-16
14	0xa7059872	-1.8540099e-15
15	0x277e3fe8	3.5284225e-15
16	0x26803f03	8.898864e-16
17	0x27a6370c	4.6133937e-15
18	0x2633e98a	6.2419605e-16
19	0xa701c19a	-1.8007298e-15

bias f4 [20]
0	0x3ec77565	0.38956752
1	0xa758a2dd	-3.006431e-15
2	0xa750df24	-2.8986763e-15
3	0xa77d280e	-3.5132517e-15
4	0xa839216c	-1.027681e-14
5	0xa7965367	-4.172379e-15
6	0xa79698ad	-4.1798895e-15
7	0xa73e0d24	-2.637492e-15
8	0xa80919d9	-7.6106325e-15
9	0xa7d7f14b	-5.99361e-15
10	0xa765f629	-3.1913578e-15
11	0xa700cb9b	-1.7873943e-15
12	0xa741cb3b	-2.6894302e-15
13	0xa7e9f2f9	-6.4933923e-15
14	0xa6dd6622	-1.5362639e-15
15	0xa74a7789	-2.8097932e-15
16	0xa74c7df5	-2.8378969e-15
17	0xa78257e9	-3.617756e-15
18	0xa6f4c606	-1.6984575e-15
19	0xa8077610	-7.519606e-15

weight f4 [20, 163]
0	0xbe0403b4	-0.12892038
1	0xbdab3ad7	-0.08360832
2	0xbe18982b	-0.14901797
3	0xbe3bae1b	-0.18328135
4	0x3d3d04c0	0.046147108
5	0x3da7b471	0.08188713
6	0x3e40acf1	0.18815972
7	0x3ebf729d	0.3739213
8	0xbfa487b3	-1.2853912
9	0xbfadfd26	-1.359288
10	0xbd5e363b	-0.054250937
11	0x3d8c6105	0.068544425
12	0x3dcc25e8	0.099681675
13	0xbdaae021	-0.083435304
14	0xbe16f606	-0.14742288
15	0xbe52a224	-0.20569664
16	0x3d8b0597	0.067881756
17	0x3eb90c00	0.36141968
18	0xbf1035a7	-0.56331867
19	0xbd907fa1	-0.07055593
20	0x3c4a1013	0.012332934
21	0xbf3abe66	-0.72946775
22	0xbf29a3b7	-0.66265434
23	0xbd82b4d6	-0.06382148
24	0x3e03bfdc	0.12866157
25	0xa55ddadd	-1.9242848e-16
26	0xbe206db6	-0.15666851
27	0xa44080f2	-4.1742584e-17
28	0x3d2d9117	0.042374697
29	0x3eef409e	0.46728987
30	0x3e195c7b	0.14976685
31	0xbfb9b5c5	-1.4508597
32	0x3d5f87e6	0.054572962
33	0xbf263842	-0.6492959
34	0xbea295ad	-0.3175482
35	0x3db8a636	0.09016077
36	0x3e9ca329	0.3059323
37	0xbf123ecf	-0.5712709
38	0xbbbc51ca	-0.0057470547
39	0x40050daf	2.0789602
40	0x3e791279	0.24323453
41	0xbf0df1a0	-0.55446815
42	0x3fe6d04a	1.8032315
43	0xbf77deb3	-0.9682419
44	0x3f2b3af3	0.66886824
45	0x3e22b1bf	0.15888117
46	0xbfb81087	-1.4380044
47	0xbd5b832d	-0.053591896
48	0x3e7e5929	0.248387
49	0xbf25d1c8	-0.64773226
50	0x3f06dd02	0.5268098
51	0x3e8d2a68	0.27571416
52	0x3e86f100	0.26355743
53	0x3f04cc14	0.518739
54	0xa6891c90	-9.514027e-16
55	0xbebb2d7b	-0.36558136
56	0xbee7fff8	-0.45312476
57	0xbe25791e	-0.16159484
58	0xbf12ad8b	-0.57296056
59	0xbeb3ac04	-0.35092175
60	0xbf0bf3f2	-0.54669106
61	0xa6c48a4a	-1.3637715e-15
62	0xbf5976b1	-0.84946734
63	0xbe7ce708	-0.24697506
64	0x40b3c3e6	5.6176634
65	0xbe1d82bc	-0.15381902
66	0xbe7e7854	-0.24850589
67	0x407aeb29	3.920603
68	0xc0005f0e	-2.0058017
69	0xbf10c426	-0.565493
70	0x262883a5	5.846512e-16
71	0xbfe561b8	-1.7920446
72	0xbfcabdf1	-1.5839216
73	0xbf8e07c5	-1.1096121
74	0x27094ae3	1.9053165e-15
75	0x3fbcd19b	1.4751467
76	0x243f6a5d	4.1506616e-17
77	0x25d2bb1b	3.655598e-16
78	0xbe261a41	-0.16220953
79	0xbf90071e	-1.1252172
80	0xbf0efb2e	-0.5585202
81	0xbea8e097	-0.32983848
82	0xbe4d6002	-0.20056155
83	0x26214440	5.595059e-16
84	0xbf2abf7e	-0.66698444
85	0x3ef6e646	0.4822256
86	0xbec5fea5	-0.3867084
87	0xa621f186	-5.618542e-16
88	0x268b392e	9.660561e-16
89	0xa6723413	-8.403119e-16
90	0x3d5b0fdb	0.053481918
91	0xbd60fca0	-0.054928422
92	0xbe3d009f	-0.18457268
93	0x3d93b41d	0.07212088
94	0xbfd9a56d	-1.7003609
95	0xbfaf4fd1	-1.3696233
96	0xbe6d0010	-0.23144555
97	0x26b23a6b	1.2367065e-15
98	0x3da3003d	0.0795903
99	0xbf12080d	-0.57043535
100	0xbd3522b7	-0.04422256
101	0xbf8d10dd	-1.1020771
102	0x3f18c6be	0.59678257
103	0x3edbf30b	0.42958865
104	0xa66a2a40	-8.124232e-16
105	0xbe710f22	-0.23540929
106	0xbecd200c	-0.40063512
107	0x3f61d224	0.88211274
108	0xbf0870d2	-0.5329715
109	0xbc37ef19	-0.011226439
110	0x3e804e3e	0.25059694
111	0xbedb89d1	-0.42878583
112	0x3ee313b7	0.4435098
113	0x26b3f759	1.2487664e-15
114	0xbfbd63e5	-1.479611
115	0xc00f2945	-2.236894
116	0xbeaa73ed	-0.3329157
117	0xa51901a8	-1.3271196e-16
118	0xbe03b14e	-0.12860605
119	0x25b770c7	3.182186e-16
120	0xa651fdbf	-7.285533e-16
121	0xbef0d5ce	-0.4703812
122	0xbe21575b	-0.1575598
123	0x3e15b593	0.14620046
124	0x3cbf059b	0.023318103
125	0xbd55601e	-0.052093618
126	0x26eb2cce	1.6318545e-15
127	0xbee0c24f	-0.43898246
128	0x3f3066d4	0.68906903
129	0xbe208406	-0.15675363
130	0x26b823c4	1.2777259e-15
131	0xa69193c0	-1.0101444e-15
132	0xa6626214	-7.854242e-16
133	0x3e3cf764	0.18453747
134	0xbe2c0a5f	-0.16800831
135	0xbf84d5f6	-1.0377796
136	0xbea5f600	-0.32414246
137	0x3f5ef943	0.87099093
138	0x3e012a8f	0.12613891
139	0x3f532c4a	0.82489455
140	0x3d1f3f40	0.03887868
141	0x3d20d3a2	0.03926433
142	0x3e9642f0	0.29347944
143	0x3e1954c8	0.14973748
144	0x3e9a9227	0.3018963
145	0x3f8841eb	1.0645117
146	0x3e640888	0.2226888
147	0x3e1b5dd5	0.15172513
148	0x3eba4623	0.36381635
149	0x3e775efb	0.24157326
150	0x3dd9eeaa	0.10641225
151	0x3f876ed2	1.0580695
152	0x3f14ee10	0.58175755
153	0x3e5137b5	0.20431407
154	0x3ea64ca3	0.32480344
155	0x3ed54b8e	0.41659206
156	0xbf1356b9	-0.57554203
157	0xbde05f33	-0.10955658
158	0x3ca2dafd	0.019879812
159	0xbe9016d9	-0.2814243
160	0xbd834750	-0.06410086
161	0xbef8851f	-0.48539063
162	0xbf4f12f6	-0.8088831
163	0xa71ebe5a	-2.2030095e-15
164	0xa7452e12	-2.7364217e-15
165	0xa764e8ca	-3.1767551e-15
166	0xa72093c8	-2.2284573e-15
167	0xa76ba9f5	-3.2704935e-15
168	0xa753bee7	-2.938562e-15
169	0xa6c3c514	-1.3584261e-15
170	0xa6d7a9ba	-1.4964626e-15
171	0xa6de65bb	-1.5431919e-15
172	0xa709e858	-1.9138523e-15
173	0xa7930fc5	-4.0817794e-15
174	0xa7507153	-2.8927232e-15
175	0xa6e65f92	-1.598536e-15
176	0xa77fdae8	-3.5507028e-15
177	0xa7a37079	-4.536353e-15
178	0xa7cc09e4	-5.6632098e-15
179	0xa7bb88e6	-5.205135e-15
180	0xa7895b6d	-3.8124263e-15
181	0xa713e02d	-2.0521874e-15
182	0xa73a0713	-2.581652e-15
183	0xa6d9a183	-1.5101178e-15
184	0xa7abeed4	-4.7720972e-15
185	0xa76d6b3b	-3.2948487e-15
186	0xa7167def	-2.088495e-15
187	0xa7ac3649	-4.7798446e-15
188	0x25cbbffa	3.5344975e-16
189	0xa6af2062	-1.2151842e-15
190	0x269f0162	1.1033216e-15
191	0xa797316e	-4.196451e-15
192	0xa78bba07	-3.878194e-15
193	0xa5a19523	-2.8030107e-16
194	0xa75a5775	-3.0300988e-15
195	0xa7592b92	-3.013842e-15
196	0xa6f71166	-1.7143784e-15
197	0xa7028125	-1.8111134e-15
198	0xa7218f38	-2.2420877e-15
199	0xa7a786ed	-4.64981e-15
200	0xa6c5d1f3	-1.3726528e-15
201	0xa7650679	-3.1783643e-15
202	0xa753c61c	-2.9389528e-15
203	0xa75b1077	-3.040128e-15
204	0xa79204a2	-4.0528163e-15
205	0xa681293d	-8.962351e-16
206	0xa7613e20	-3.12587e-15
207	0xa75b9b78	-3.0476635e-15
208	0xa73a8a4f	-2.5887663e-15
209	0xa7801e52	-3.556001e-15
210	0xa78977d5	-3.815506e-15
211	0xa76056fb	-3.1133397e-15
212	0xa78069f6	-3.564202e-15
213	0xa6a146bf	-1.1190795e-15
214	0xa79e70b1	-4.397599e-15
215	0xa6e7d9c7	-1.6087874e-15
216	0xa6f120b0	-1.6731594e-15
217	0x27070cf6	1.874204e-15
218	0xa7a676e7	-4.620317e-15
219	0xa695d047	-1.0395406e-15
220	0xa7767862	-3.4204618e-15
221	0xa6ab5b6a	-1.1890286e-15
222	0xa57a9765	-2.1735338e-16
223	0xa7a6342a	-4.613081e-15
224	0xa56f2ffc	-2.0746203e-16
225	0xa78aa5ba	-3.8482375e-15
226	0xa748fb57	-2.7891827e-15
227	0xa7813c31	-3.5869952e-15
228	0xa746562a	-2.752473e-15
229	0xa7979731	-4.207484e-15
230	0xa741aa0a	-2.6876309e-15
231	0xa6ac4963	-1.1954789e-15
232	0xa6fa3884	-1.7362553e-15
233	0x262a7d01	5.915001e-16
234	0xa72ca671	-2.3960023e-15
235	0xa6d758ad	-1.4942658e-15
236	0xa7a107df	-4.469501e-15
237	0xa6c29631	-1.3502164e-15
238	0x27933f47	4.08693e-15
239	0xa6035bcf	-4.557418e-16
240	0xa68ab499	-9.624625e-16
241	0xa77a4a7a	-3.4734843e-15
242	0xa776f4d4	-3.427208e-15
243	0xa6b0c571	-1.226597e-15
244	0xa72d881d	-2.408236e-15
245	0xa7469b7e	-2.7562312e-15
246	0xa67fd84b	-8.876403e-16
247	0xa74b4835	-2.8211053e-15
248	0x2797b24e	4.2104238e-15
249	0xa785da89	-3.715185e-15
250	0x26e6cd71	1.6015141e-15
251	0x26f6d731	1.7128007e-15
252	0x270223ef	1.8060604e-15
253	0xa727aec1	-2.327064e-15
254	0xa74a225b	-2.8051756e-15
255	0xa78bfdaa	-3.8855273e-15

weight f4 [20, 163]
0	0x2707f432	1.8867392e-15
1	0xa6cee424	-1.4355959e-15
2	0x258a7e7b	2.402489e-16
3	0x24c534a1	8.552429e-17
4	0x26884c34	9.457551e-16
5	0x25d4ea71	3.6935001e-16
6	0x270189e7	1.7977103e-15
7	0x26ddd75a	1.5393327e-15
8	0x26982e43	1.0559658e-15
9	0x263b721d	6.503331e-16
10	0x254e2000	1.7878494e-16
11	0x23fdb8ad	2.7508528e-17
12	0x25c4bc7a	3.4128297e-16
13	0xa6884acc	-9.457169e-16
14	0x26dcee30	1.5330127e-15
15	0xa6aebe1a	-1.2125203e-15
16	0x267940a1	8.647682e-16
17	0xa6b371b9	-1.2451445e-15
18	0x27080a58	1.8879399e-15
19	0x260fb795	4.986189e-16
20	0xa48131f2	-5.602944e-17
21	0x2684605b	9.185457e-16
22	0xa679e72f	-8.670254e-16
23	0x26e3fa50	1.5819137e-15
24	0x263367a2	6.224355e-16
25	0x26237199	5.670594e-16
26	0xa63d1895	-6.560586e-16
27	0xa7050e40	-1.8465183e-15
28	0xa6c76b2b	-1.3837447e-15
29	0xa6f2536f	-1.6814738e-15
30	0xa5c3b8f5	-3.395244e-16
31	0x25b21994	3.089541e-16
32	0x26b34b18	1.2440974e-15
33	0x265bad30	7.62156e-16
34	0x25ac057b	2.9840957e-16
35	0xa6f045d5	-1.6672273e-15
36	0x2683b1ac	9.138109e-16
37	0x24b4f52b	7.847789e-17
38	0x26560c33	7.42627e-16
39	0xa626f7dd	-5.7928737e-16
40	0xa7076e8a	-1.8794937e-15
41	0x26e4d94e	1.5879579e-15
42	0xa6de2ded	-1.5416793e-15
43	0xa67c9324	-8.7629476e-16
44	0x26603b31	7.779583e-16
45	0xa6b4ef32	-1.2554843e-15
46	0x268bf8ed	9.712534e-16
47	0xa6f88986	-1.7245733e-15
48	0x2702a58e	1.8130872e-15
49	0x25e48827	3.9643956e-16
50	0xa6d0f320	-1.4498798e-15
51	0xa623598b	-5.667334e-16
52	0xa6f2abcb	-1.6838688e-15
53	0xa69b3354	-1.0769198e-15
54	0xa6bd9afd	-1.3156519e-15
55	0xa5fe802d	-4.4148832e-16
56	0x26c2a4a5	1.3506081e-15
57	0x26758292	8.5178406e-16
58	0x26a39be7	1.1352654e-15
59	0x26c17b98	1.3425565e-15
60	0xa655653a	-7.403641e-16
61	0x26258f06	5.743971e-16
62	0x26e44c65	1.5841385e-15
63	0xa5adb606	-3.013406e-16
64	0xa4aa669a	-7.389956e-17
65	0x27082a80	1.889683e-15
66	0x26bb0d38	1.2979315e-15
67	0xa69e935f	-1.1003397e-15
68	0x266630fd	7.986367e-16
69	0x26b95f2a	1.2862748e-15
70	0x26a435ba	1.1394349e-15
71	0xa6c07ccd	-1.3356504e-15
72	0x27093d68	1.9045858e-15
73	0x26170540	5.2395764e-16
74	0xa455aded	-4.6334333e-17
75	0x264a00ae	7.008375e-16
76	0x26ba739b	1.2937678e-15
77	0xa528351e	-1.4589674e-16
78	0x26db4ea2	1.5217491e-15
79	0x26419df6	6.7174403e-16
80	0xa6697ffb	-8.101156e-16
81	0xa6c6943e	-1.3779191e-15
82	0x27013e38	1.7936075e-15
83	0x26928154	1.016584e-15
84	0xa58e0447	-2.4635972e-16
85	0x26bc59f6	1.3069505e-15
86	0x26c71e4d	1.3816612e-15
87	0x27025cbe	1.80914e-15
88	0xa60ad76e	-4.817033e-16
89	0x26f41f9d	1.693947e-15
90	0xa6acd159	-1.1991641e-15
91	0xa69d00b6	-1.0894256e-15
92	0x25bd10ed	3.2797743e-16
93	0xa691b407	-1.0110193e-15
94	0xa63b44d7	-6.4971953e-16
95	0xa59aa345	-2.6825377e-16
96	0x25b86d14	3.1992826e-16
97	0xa5d6f084	-3.7286062e-16
98	0xa6eb4830	-1.6325967e-15
99	0xa61d9927	-5.4677877e-16
100	0x27089d98	1.8959223e-15
101	0x264bbc7c	7.0685217e-16
102	0xa702f7fc	-1.8175557e-15
103	0xa6694b74	-8.094037e-16
104	0x2308a34a	7.4071526e-18
105	0x2600d010	4.46909e-16
106	0xa64f4e21	-7.1923436e-16
107	0xa6b0bd5d	-1.226378e-15
108	0xa59174ad	-2.5232553e-16
109	0xa6a91b20	-1.1734083e-15
110	0xa54dfd4a	-1.7866733e-16
111	0x261e40a0	5.4904845e-16
112	0xa6d0c576	-1.4486421e-15
113	0xa7014b74	-1.794325e-15
114	0x26d62fec	1.4862222e-15
115	0x26e355d2	1.5774551e-15
116	0xa70a2f70	-1.9177063e-15
117	0x25cfdce3	3.6058455e-16
118	0xa60fa8b4	-4.9841727e-16
119	0x258c4656	2.433379e-16
120	0xa3fd09e1	-2.7434499e-17
121	0xa6a840e8	-1.1674935e-15
122	0x2709c3ca	1.9118707e-15
123	0xa6b73246	-1.2711802e-15
124	0xa48c7791	-6.0917875e-17
125	0xa6b9309c	-1.2850129e-15
126	0xa6b051c4	-1.2234616e-15
127	0x26a38434	1.1346231e-15
128	0x26bef364	1.324987e-15
129	0xa70845de	-1.8911666e-15
130	0x26ddd0a0	1.5391503e-15
131	0xa65e9c17	-7.7233264e-16
132	0xa6dc79f4	-1.5298622e-15
133	0xa5c4bf2d	-3.4130126e-16
134	0xa6f7812c	-1.717408e-15
135	0x2587e558	2.3574176e-16
136	0x26fbbf89	1.7468539e-15
137	0x25be6e81	3.3034626e-16
138	0x26823aae	9.036467e-16
139	0x25fd89b3	4.3981813e-16
140	0x26be9726	1.3224867e-15
141	0xa6f7dc1b	-1.7198728e-15
142	0xa57d3499	-2.1962073e-16
143	0xa692af4f	-1.0178303e-15
144	0xa589d1f7	-2.390799e-16
145	0x270af631	1.9284808e-15
146	0x2470fe71	5.2257225e-17
147	0xa6c1bb0e	-1.3442767e-15
148	0xa6bc91bc	-1.3084622e-15
149	0xa6b3d982	-1.2479576e-15
150	0xa68e0e48	-9.8571e-16
151	0x26115e21	5.043455e-16
152	0xa6728f0a	-8.415447e-16
153	0xa5f7401f	-4.289112e-16
154	0x26ea6ea7	1.6267004e-15
155	0xa6b572dc	-1.2590531e-15
156	0xa6373f6f	-6.357685e-16
157	0xa687003a	-9.367568e-16
158	0xa6b9dc70	-1.2896703e-15
159	0xa65ba4c5	-7.620419e-16
160	0xa69ce573	-1.0886867e-15
161	0x267d1e5f	8.781817e-16
162	0x26a5a8e7	1.1494956e-15
163	0x268e9c67	9.895622e-16
164	0x26bf55f6	1.3276587e-15
165	0xa6d9bfb6	-1.5109363e-15
166	0xa690746f	-1.0023567e-15
167	0x23cdf650	2.2330462e-17
168	0xa6b585da	-1.2595679e-15
169	0xa6f0c143	-1.6705729e-15
170	0x26a385e9	1.1346693e-15
171	0xa5db675a	-3.8060478e-16
172	0x2709ec88	1.9140793e-15
173	0xa6e77b6c	-1.6062298e-15
174	0x2706f660	1.8729796e-15
175	0x27099b2b	1.9096686e-15
176	0xa618dbd5	-5.303352e-16
177	0xa6efd877	-1.6642629e-15
178	0xa61f188f	-5.519749e-16
179	0x26abe92c	1.192871e-15
180	0xa6bc495b	-1.3065004e-15
181	0x268a7052	9.606118e-16
182	0x26ffa6d5	1.7739399e-15
183	0xa6acca8e	-1.19898e-15
184	0xa6981e45	-1.0555323e-15
185	0x2689e949	9.569517e-16
186	0x2696411c	1.0425989e-15
187	0x25948683	2.5765056e-16
188	0xa65d5e56	-7.6802627e-16
189	0xa68e6c0b	-9.882514e-16
190	0x248080cc	5.572934e-17
191	0xa69a2e7e	-1.0698498e-15
192	0x24d8078c	9.368785e-17
193	0xa5af78b2	-3.0439447e-16
194	0x26adc264	1.2056976e-15
195	0x2602e397	4.541125e-16
196	0xa6a54eeb	-1.1470566e-15
197	0x250e07f2	1.2319229e-16
198	0xa603a14d	-4.566836e-16
199	0x262f2ee8	6.077889e-16
200	0x2646592b	6.8815895e-16
201	0x25ab43ba	2.9709665e-16
202	0x253226e8	1.5452221e-16
203	0x25e77f9d	4.0158586e-16
204	0x26f6ce3b	1.7125578e-15
205	0xa60a13ea	-4.7905357e-16
206	0x24c486ce	8.522982e-17
207	0xa696973c	-1.0449333e-15
208	0xa6899e87	-9.549254e-16
209	0x26ec2119	1.6384761e-15
210	0x261ff4bf	5.54959e-16
211	0x26842a73	9.170846e-16
212	0x26e7e158	1.6089924e-15
213	0x26e01a11	1.5550188e-15
214	0xa6f1c55e	-1.6776231e-15
215	0x26435aff	6.777754e-16
216	0x26d75d4a	1.4943908e-15
217	0x25e3fd34	3.95498e-16
218	0x27075ada	1.8784264e-15
219	0x269e7447	1.0994969e-15
220	0xa562bd73	-1.9666563e-16
221	0x26e9322e	1.6181224e-15
222	0xa58740bb	-2.346263e-16
223	0xa6da49e0	-1.5146813e-15
224	0x26ad4846	1.2023876e-15
225	0xa6fd8e39	-1.7593951e-15
226	0xa698a38b	-1.0591447e-15
227	0x25f1bbd3	4.193411e-16
228	0xa5da8fb0	-3.7914338e-16
229	0xa62add50	-5.928053e-16
230	0x26bcdd95	1.310518e-15
231	0xa545f7dc	-1.7171004e-16
232	0xa6b9ecf7	-1.2901183e-15
233	0x26f6737f	1.7100984e-15
234	0x2668d676	8.078182e-16
235	0x269cebec	1.0888621e-15
236	0x25425bee	1.6857965e-16
237	0x26fc26ba	1.749651e-15
238	0x26da1dcd	1.5134866e-15
239	0x26b752fb	1.2720668e-15
240	0xa62b0b91	-5.934322e-16
241	0xa6d66bd2	-1.4878458e-15
242	0x26a95c6f	1.1751785e-15
243	0x264f5d03	7.1943606e-16
244	0x25909039	2.5077747e-16
245	0x2679aeea	8.662628e-16
246	0xa6cc05b0	-1.4156885e-15
247	0xa6005ae8	-4.453212e-16
248	0x23bda44f	2.0561008e-17
249	0x2655e8a7	7.4214523e-16
250	0x26d15396	1.4524944e-15
251	0x2578c3b8	2.1576883e-16
252	0xa6b8e8b2	-1.2830637e-15
253	0x261cdc29	5.4421745e-16
254	0xa707280b	-1.875672e-15
255	0x26aa45de	1.1815057e-15

att_src f4 [1, 1, 15]
0	0xa7c45249	-5.449014e-15
1	0xa82856d3	-9.3447e-15
2	0xa784374f	-3.6697326e-15
3	0x27cb9d76	5.651454e-15
4	0x278c6721	3.896962e-15
5	0x27d7a82b	5.9856816e-15
6	0x2859284a	1.2054656e-14
7	0xa7e56514	-6.3669857e-15
8	0xa78a8f6d	-3.8458197e-15
9	0x27bc0ef0	5.2196677e-15
10	0x27376cdf	2.545537e-15
11	0xa84ff9cc	-1.1544974e-14
12	0xa7c94eb0	-5.587402e-15
13	0x27baa91b	5.1808715e-15
14	0x276d24d0	3.2910313e-15

att_dst f4 [1, 1, 15]
0	0x27bc3e52	5.224805e-15
1	0xa69c88b8	-1.0861732e-15
2	0xa75fb8f9	-3.104774e-15
3	0x2705666e	1.8512985e-15
4	0xa77c5f0e	-3.5023555e-15
5	0x275521af	2.9577948e-15
6	0xa805ee18	-7.4346115e-15
7	0x27672146	3.2075727e-15
8	0xa7b03df9	-4.8917004e-15
9	0xa42328a3	-3.537941e-17
10	0xa7a1cecd	-4.491069e-15
11	0x2807f282	7.546591e-15
12	0xa7fab483	-6.958465e-15
13	0xa6cc0297	-1.4156046e-15
14	0xa7bfa826	-5.3195456e-15

bias f4 [15]
0	0x272eb576	2.424572e-15
1	0x26ce1a0e	1.4301184e-15
2	0x2608b2d5	4.742684e-16
3	0xa6e1bf4c	-1.5664362e-15
4	0x279e0447	4.3858447e-15
5	0x27f9932d	6.927095e-15
6	0x276ca2ad	3.2839766e-15
7	0xa7b3a3ae	-4.9859942e-15
8	0x24ebac76	1.02207164e-16
9	0xa646772e	-6.885657e-16
10	0xa6a41b1d	-1.1387135e-15
11	0xa679ef29	-8.671335e-16
12	0x2789c5d2	3.8239616e-15
13	0xa726d183	-2.3150704e-15
14	0x27d27f66	5.8424834e-15

weight f4 [15, 163]
0	0xa7defaf4	-6.188946e-15
1	0xa81433b1	-8.226859e-15
2	0xa7c38fc5	-5.4279248e-15
3	0xa80f7879	-7.964218e-15
4	0xa7c60ba4	-5.496866e-15
5	0xa815e11c	-8.319974e-15
6	0xa7c63020	-5.5008217e-15
7	0xa81b9386	-8.6362175e-15
8	0xa80dc683	-7.870118e-15
9	0xa7c2cdcb	-5.4068938e-15
10	0xa812b11f	-8.143035e-15
11	0xa821d368	-8.983137e-15
12	0xa7ced672	-5.7408988e-15
13	0xa81f648c	-8.848076e-15
14	0xa7e5c80a	-6.377715e-15
15	0xa80cd6d1	-7.818142e-15
16	0xa5a0022e	-2.7757053e-16
17	0xa7f0cdb7	-6.683642e-15
18	0xa7f1a0e2	-6.7065367e-15
19	0xa7cf123c	-5.747381e-15
20	0xa808c1d3	-7.5915455e-15
21	0xa7a34357	-4.53146e-15
22	0xa810938f	-8.0256024e-15
23	0xa80a0fdc	-7.663978e-15
24	0x27e238f2	6.278934e-15
25	0xa5b73e79	-3.1787773e-16
26	0xa741fe54	-2.6922002e-15
27	0x270a36c4	1.9181036e-15
28	0xa8078e0d	-7.524808e-15
29	0xa75c0380	-3.053303e-15
30	0xa7d67c6a	-5.953182e-15
31	0x28079180	7.525556e-15
32	0xa80fdc36	-7.985845e-15
33	0xa720a05a	-2.2291387e-15
34	0xa8035513	-7.290408e-15
35	0xa7ed3b77	-6.5845186e-15
36	0xa7e968bc	-6.4784044e-15
37	0xa7b903ea	-5.135206e-15
38	0xa7cf5528	-5.754637e-15
39	0xa7cad7ee	-5.6300374e-15
40	0xa7b3a682	-4.986301e-15
41	0xa79faf7f	-4.432164e-15
42	0xa81a6e36	-8.5726155e-15
43	0xa810eee0	-8.0454035e-15
44	0xa7db3d4b	-6.0851165e-15
45	0xa7dcbf3e	-6.126961e-15
46	0xa73c711c	-2.6151558e-15
47	0xa7d53c34	-5.918465e-15
48	0xa7bb64e0	-5.2012295e-15
49	0xa7d504a8	-5.9124424e-15
50	0xa7bc136e	-5.2201548e-15
51	0xa7e721e1	-6.415211e-15
52	0xa8113d6b	-8.062435e-15
53	0xa86c0e3f	-1.3103721e-14
54	0x23943da2	1.6072295e-17
55	0xa7fb247e	-6.970606e-15
56	0xa7d64664	-5.947325e-15
57	0xa833e824	-9.9868335e-15
58	0xa7c8723a	-5.5634996e-15
59	0xa7aa145a	-4.7206544e-15
60	0x265be9af	7.629759e-16
61	0x26b10542	1.2283267e-15
62	0xa7f20d94	-6.7183214e-15
63	0xa6f4bebf	-1.6982603e-15
64	0x272c37bf	2.3900015e-15
65	0xa806801f	-7.466276e-15
66	0xa7ac9fa8	-4.791269e-15
67	0xa80b4398	-7.730707e-15
68	0xa7b3c9b1	-4.9901155e-15
69	0xa5c9b770	-3.4992244e-16
70	0x26661dbd	7.9837583e-16
71	0xa6106451	-5.009599e-16
72	0xa6186da8	-5.2884206e-16
73	0x27f8662a	6.8944594e-15
74	0xa6b77d5d	-1.2732156e-15
75	0x269b9f3a	1.0798444e-15
76	0xa6106e54	-5.010956e-16
77	0xa6894498	-9.524877e-16
78	0xa558e8cd	-1.881389e-16
79	0xa7c1f973	-5.3838714e-15
80	0xa7dfa00c	-6.2068457e-15
81	0xa7ddc396	-6.1551877e-15
82	0xa798bced	-4.239331e-15
83	0x270cb5f0	1.9527531e-15
84	0x27b31a1f	4.97108e-15
85	0xa7ab2634	-4.7503454e-15
86	0xa8132251	-8.16758e-15
87	0xa70bb6f9	-1.9389315e-15
88	0x26b5408a	1.2576891e-15
89	0xa58a12af	-2.3951844e-16
90	0xa81c9f14	-8.694234e-15
91	0xa821d274	-8.98293e-15
92	0xa80b6238	-7.737348e-15
93	0xa840a6aa	-1.06942805e-14
94	0xa7fbe465	-6.991412e-15
95	0xa5bb0981	-3.244577e-16
96	0xa744050f	-2.7203206e-15
97	0x255a28f2	1.8922359e-16
98	0xa7c9afc8	-5.597929e-15
99	0x26184fc2	5.2843686e-16
100	0xa77e3e20	-3.528326e-15
101	0xa7df073f	-6.190279e-15
102	0xa83e1cd2	-1.0553368e-14
103	0xa7057885	-1.8522792e-15
104	0x26b74cef	1.2719029e-15
105	0xa8034cae	-7.288588e-15
106	0xa70c3d28	-1.9462056e-15
107	0x272d29b4	2.403118e-15
108	0xa748eb41	-2.7883107e-15
109	0xa76a5cfe	-3.2524435e-15
110	0xa77c2443	-3.4991683e-15
111	0xa7b6f756	-5.078331e-15
112	0xa63afdc6	-6.487564e-16
113	0x260ebd3c	4.9522607e-16
114	0xa6619246	-7.8260794e-16
115	0xa76a808d	-3.254371e-15
116	0x2778db3c	3.453576e-15
117	0xa6c866cb	-1.390565e-15
118	0x23b6dbd7	1.9825585e-17
119	0x25e07b2b	3.8941268e-16
120	0xa6c4a20e	-1.3644157e-15
121	0xa779f4ea	-3.468846e-15
122	0xa81c862f	-8.688836e-15
123	0xa8081fb7	-7.556394e-15
124	0xa7114329	-2.01592e-15
125	0xa7850f29	-3.6931352e-15
126	0x25cbe0e3	3.5367276e-16
127	0x261f4c50	5.526763e-16
128	0xa7b0525d	-4.893911e-15
129	0xa7ef4b7a	-6.6417658e-15
130	0xa70c446e	-1.9465999e-15
131	0xa6af286a	-1.2154019e-15
132	0x26cbf110	1.4151295e-15
133	0xa71c93ec	-2.1729538e-15
134	0xa8063d74	-7.45182e-15
135	0xa7d41e0b	-5.8874393e-15
136	0x27d9a59e	6.040916e-15
137	0xa6aac8c8	-1.1850542e-15
138	0xa8045519	-7.3459246e-15
139	0xa794df4f	-4.1320364e-15
140	0xa8150d50	-8.274048e-15
141	0xa7f1b100	-6.708284e-15
142	0xa81f2c00	-8.835814e-15
143	0xa7f107c3	-6.6899353e-15
144	0xa7f73272	-6.8610965e-15
145	0xa80f5990	-7.957515e-15
146	0xa7ba9db9	-5.1796374e-15
147	0xa8034d54	-7.288729e-15
148	0xa82abe1e	-9.478121e-15
149	0xa8094fd9	-7.622342e-15
150	0xa7ecab56	-6.568892e-15
151	0xa81915cc	-8.497933e-15
152	0xa828d418	-9.371864e-15
153	0xa7f853e7	-6.8924795e-15
154	0xa81aaf6e	-8.5867575e-15
155	0xa7fe4b07	-7.0580507e-15
156	0xa80b9d2a	-7.7501295e-15
157	0xa801a233	-7.19611e-15
158	0xa7ee0087	-6.605884e-15
159	0xa83533db	-1.0058763e-14
160	0xa806c13b	-7.4803944e-15
161	0xa81548ed	-8.286975e-15
162	0xa8214a83	-8.9534525e-15
163	0x25da96d8	3.7919187e-16
164	0x27660d00	3.192596e-15
165	0x273f210e	2.6524494e-15
166	0x2551df1d	1.8203454e-16
167	0x269a8ea5	1.072456e-15
168	0x278615c0	3.7216053e-15
169	0x27248b7c	2.2835187e-15
170	0x272b3ed4	2.3765076e-15
171	0xa7b21653	-4.942913e-15
172	0xa7ed7427	-6.5906647e-15
173	0x27bd8255	5.2599344e-15
174	0x27b49d47	5.0130557e-15
175	0x2760041f	3.1088479e-15
176	0x278da46d	3.9313632e-15
177	0xa769b9ec	-3.2436034e-15
178	0xa722321e	-2.2509185e-15
179	0xa7d6fefb	-5.9673382e-15
180	0x26e5d410	1.5947547e-15
181	0x26804e87	8.903069e-16
182	0x2732f599	2.48356e-15
183	0x271220a8	2.0279273e-15
184	0x269d4906	1.0913856e-15
185	0xa7ade20a	-4.8262218e-15
186	0xa7dcaead	-6.125165e-15
187	0x27511651	2.9016674e-15
188	0xa702bde6	-1.8144068e-15
189	0x24c2df87	8.451276e-17
190	0xa6171cd4	-5.242772e-16
191	0xa67fab76	-8.870327e-16
192	0x2766a88d	3.2010284e-15
193	0xa74f30e1	-2.8753518e-15
194	0x26817a19	8.984268e-16
195	0xa79cb874	-4.3498682e-15
196	0x277f256f	3.5408652e-15
197	0x276dc1a7	3.2995336e-15
198	0x276dfc79	3.3027223e-15
199	0x264edeb6	7.1772437e-16
200	0xa7f0567a	-6.670714e-15
201	0x2782a732	3.626352e-15
202	0x2608cf50	4.746544e-16
203	0x266b32e1	8.1600957e-16
204	0x275552e9	2.9604634e-15
205	0x270891fc	1.895293e-15
206	0x2788d7e1	3.798164e-15
207	0x2710033f	1.9985774e-15
208	0x26a8fd6d	1.1726033e-15
209	0x24bd417b	8.207661e-17
210	0x272ed4fa	2.4262806e-15
211	0x2623f553	5.688446e-16
212	0x261fce4a	5.544378e-16
213	0x270db8d1	1.966787e-15
214	0x276aa787	3.256484e-15
215	0x26b793af	1.2738206e-15
216	0x281ef45b	8.823748e-15
217	0xa62f1235	-6.0739997e-16
218	0xa803f379	-7.3247555e-15
219	0x27358690	2.5191742e-15
220	0x27aba729	4.764327e-15
221	0xa6e65342	-1.5982023e-15
222	0x2758afca	3.0071317e-15
223	0x257ccbd0	2.192657e-16
224	0xa6b47711	-1.2522282e-15
225	0xa70cbfd8	-1.9532902e-15
226	0xa7ddc64e	-6.1554824e-15
227	0x27c4e3bd	5.4647843e-15
228	0x279aa246	4.2919524e-15
229	0x2798024a	4.2190957e-15
230	0x2598258c	2.639324e-16
231	0x27709ba6	3.3391068e-15
232	0x2711a7e9	2.0213817e-15
233	0xa64a1ff5	-7.012614e-16
234	0xa6c1e682	-1.3454545e-15
235	0x26d9f413	1.5123556e-15
236	0x268f3461	9.936816e-16
237	0x25082bd7	1.1810973e-16
238	0x253b117c	1.6225588e-16
239	0xa566874a	-1.9995158e-16
240	0xa6bb4566	-1.2994542e-15
241	0x27618887	3.1299034e-15
242	0x27b9e4e5	5.1595983e-15
243	0x27c6669e	5.5067297e-15
244	0x271e47bc	2.1965792e-15
245	0xa7e08224	-6.231359e-15
246	0x2702f7ea	1.8175519e-15
247	0x25ecdf6b	4.1090868e-16
248	0x27bb1cfe	5.193436e-15
249	0x27584241	3.0011938e-15
250	0xa70280ae	-1.8110882e-15
251	0xa6d5c7e9	-1.483403e-15
252	0x2613858c	5.118186e-16
253	0xa7e1dd42	-6.2689933e-15
254	0xa7abacfb	-4.764958e-15
255	0xa7c2e8d4	-5.409825e-15

weight f4 [15, 9]
0	0x27b6ee8d	5.0773785e-15
1	0xa7926252	-4.062974e-15
2	0xa7acb1d0	-4.7932375e-15
3	0xa7494fe4	-2.7937662e-15
4	0xa765bcc5	-3.1882466e-15
5	0x26d1fc87	1.4570736e-15
6	0x27577a4f	2.9903547e-15
7	0x2674da36	8.4950237e-16
8	0x26810c72	8.954546e-16
9	0xa7262e98	-2.3062386e-15
10	0x279c1d06	4.3330165e-15
11	0xa7520f58	-2.9151672e-15
12	0x26149ea3	5.156281e-16
13	0xa69cfcfc	-1.0893246e-15
14	0xa685e457	-9.290621e-16
15	0x276495d2	3.1722574e-15
16	0xa7ae5cf2	-4.8395473e-15
17	0x27aabe4b	4.7390795e-15
18	0xa79a4c4f	-4.282632e-15
19	0x26dae5f3	1.5189117e-15
20	0x27b2fb3e	4.967732e-15
21	0xa73310dd	-2.4850382e-15
22	0x26cb4563	1.4104762e-15
23	0xa740672d	-2.6701284e-15
24	0xa708a500	-1.8963238e-15
25	0xa64f5b2d	-7.194112e-16
26	0x26ab13d3	1.1870882e-15
27	0xa7062b30	-1.8619648e-15
28	0x26865664	9.321534e-16
29	0xa78a0076	-3.8303194e-15
30	0xa78a0838	-3.8311605e-15
31	0xa5ea6722	-4.0662415e-16
32	0xa5e7350d	-4.010806e-16
33	0xa771b5a5	-3.3543938e-15
34	0x2792df6a	4.0765366e-15
35	0xa5292160	-1.4669721e-16
36	0xa72be8a6	-2.3857136e-15
37	0xa74dbdcc	-2.8552354e-15
38	0xa6cab416	-1.4065378e-15
39	0xa74127ab	-2.6805635e-15
40	0xa7a15508	-4.4778668e-15
41	0x26776a01	8.5839e-16
42	0xa7ba3349	-5.1680974e-15
43	0x272cb28f	2.3966592e-15
44	0x267a30d0	8.6802327e-16
45	0x277764bf	3.433275e-15
46	0x2787900a	3.7626195e-15
47	0x278cf4fb	3.9123414e-15
48	0x272cea8c	2.3996943e-15
49	0xa733aecb	-2.4935996e-15
50	0x27876a9c	3.7585613e-15
51	0xa751bba2	-2.9106292e-15
52	0xa6248b86	-5.708802e-16
53	0x25036de4	1.1399671e-16
54	0xa7f6a731	-6.8459985e-15
55	0x24d412cb	9.197218e-17
56	0x2724b649	2.285839e-15
57	0xa7a88a34	-4.6779207e-15
58	0x27ab4c1e	4.754456e-15
59	0x27b4018e	4.996172e-15
60	0xa7ac0397	-4.7743482e-15
61	0x2654f982	7.389042e-16
62	0xa7844ba2	-3.671936e-15
63	0x27540886	2.942553e-15
64	0x26cee6b6	1.4356656e-15
65	0xa6d5041f	-1.4780961e-15
66	0x276f8b91	3.3243572e-15
67	0xa6d02e79	-1.4445496e-15
68	0xa74c0140	-2.8311365e-15
69	0x260f3153	4.967994e-16
70	0xa70df0f7	-1.9698308e-15
71	0xa6b8262a	-1.2777909e-15
72	0xa7ba5930	-5.172207e-15
73	0x26ab2bc8	1.1877376e-15
74	0xa75e42e5	-3.0844953e-15
75	0x26beed29	1.3248181e-15
76	0x277558fe	3.4048823e-15
77	0xa69580d1	-1.0373868e-15
78	0xa73b33c8	-2.5979534e-15
79	0xa74df57b	-2.858254e-15
80	0x258baf1f	2.4231323e-16
81	0x2619c334	5.334709e-16
82	0x2758d443	3.009109e-15
83	0x269b5a63	1.0779785e-15
84	0xa780b060	-3.5718363e-15
85	0x26d680da	1.4884158e-15
86	0x27512c05	2.902844e-15
87	0x275e18ed	3.0822201e-15
88	0x26e177d8	1.5644995e-15
89	0xa6aad331	-1.1853363e-15
90	0xa7e1bc5f	-6.2654277e-15
91	0x2730ed38	2.4553503e-15
92	0xa7547b60	-2.9487792e-15
93	0x266b30a4	8.1597924e-16
94	0xa798cfa8	-4.2413616e-15
95	0x2624b7f0	5.714821e-16
96	0x26940080	1.0269699e-15
97	0x277497d7	3.3944115e-15
98	0xa7941d51	-4.1110037e-15
99	0x27b43291	5.001486e-15
100	0xa7b666da	-5.062666e-15
101	0xa6e38735	-1.5787937e-15
102	0x2616c2d3	5.230574e-16
103	0x276f5167	3.3212041e-15
104	0xa7bafbfc	-5.1898573e-15
105	0xa7729866	-3.3666862e-15
106	0xa71a0432	-2.1374068e-15
107	0xa5cd6146	-3.5627746e-16
108	0xa8008350	-7.133901e-15
109	0xa785533d	-3.7005163e-15
110	0x279d3133	4.3629596e-15
111	0x26114a7a	5.0407915e-16
112	0xa7a2a641	-4.5144285e-15
113	0x272b3a67	2.3762677e-15
114	0x27941ae8	4.1107424e-15
115	0x275ba72c	3.048298e-15
116	0x2774d0df	3.3975031e-15
117	0xa6028932	-4.5288745e-16
118	0xa7bb3064	-5.195539e-15
119	0xa6c9dbe5	-1.4006779e-15
120	0x27b26edc	4.952512e-15
121	0xa7ab32fa	-4.7517303e-15
122	0x267d0756	8.778695e-16
123	0xa7221846	-2.2495175e-15
124	0x27658b98	3.1855808e-15
125	0xa6e7a9b5	-1.6074844e-15
126	0xa78a0eb3	-3.831863e-15
127	0xa7825af0	-3.6180843e-15
128	0x268fbf4a	9.974467e-16
129	0x27a6ccd7	4.6296343e-15
130	0x27257775	2.2963108e-15
131	0xa66b6e08	-8.1681124e-16
132	0xa7a987db	-4.7054218e-15
133	0x2704529a	1.8363458e-15
134	0x25bb818f	3.252712e-16

att_src f4 [1, 1, 15]
0	0x25090c17	1.1886952e-16
1	0x2882580b	1.4471082e-14
2	0xa7b17b5e	-4.9261124e-15
3	0x28ad933e	1.9270714e-14
4	0xa7d605a2	-5.940304e-15
5	0xa93b6f8d	-4.1619096e-14
6	0xa9375e30	-4.0715857e-14
7	0x29f0f582	1.070073e-13
8	0xa89bed70	-1.7311429e-14
9	0xa788a3a9	-3.7925024e-15
10	0xa869e154	-1.29829585e-14
11	0xa8b595f2	-2.0160065e-14
12	0x26d5c105	1.4832162e-15
13	0xa827511f	-9.287953e-15
14	0xa8d44406	-2.3566229e-14

att_dst f4 [1, 1, 15]
0	0x277dd43d	3.5225858e-15
1	0xa6c43a80	-1.3616089e-15
2	0xa827dbaf	-9.3179985e-15
3	0xa7aac240	-4.7395085e-15
4	0x27dc6470	6.117116e-15
5	0xa78237fc	-3.6142947e-15
6	0x275e2c77	3.0832793e-15
7	0x280e6026	7.903432e-15
8	0x27e0bc6b	6.2376773e-15
9	0xa81d45bd	-8.730373e-15
10	0x26e75acf	1.6053459e-15
11	0x264bdc22	7.072811e-16
12	0x273b8c0c	2.6027383e-15
13	0xa7ebdb64	-6.5463466e-15
14	0xa839c835	-1.0312976e-14

bias f4 [15]
0	0x272eb576	2.424572e-15
1	0x26ce1a0e	1.4301184e-15
2	0x2608b2d5	4.742684e-16
3	0xa6e1bf4c	-1.5664362e-15
4	0x279e0447	4.3858447e-15
5	0x27f9932d	6.927095e-15
6	0x276ca2ad	3.2839766e-15
7	0xa7b3a3ae	-4.9859942e-15
8	0x24ebac76	1.02207164e-16
9	0xa646772e	-6.885657e-16
10	0xa6a41b1d	-1.1387135e-15
11	0xa679ef29	-8.671335e-16
12	0x2789c5d2	3.8239616e-15
13	0xa726d183	-2.3150704e-15
14	0x27d27f66	5.8424834e-15

weight f4 [15, 9]
0	0x25f427b6	4.2354162e-16
1	0x27d5ded1	5.9360954e-15
2	0xa7068f2a	-1.8673845e-15
3	0xa71590d1	-2.075641e-15
4	0xa7e318da	-6.30321e-15
5	0xa7db73a9	-6.091011e-15
6	0x2668b8b4	8.074149e-16
7	0xa764bca7	-3.1743625e-15
8	0xa79ee556	-4.4102456e-15
9	0xa73d65e2	-2.628425e-15
10	0xa69b796e	-1.0788199e-15
11	0x270d7792	1.96325e-15
12	0x27eec41b	6.627089e-15
13	0xa79b77b2	-4.3150916e-15
14	0xa65719b9	-7.462797e-16
15	0xa71e6eb5	-2.198692e-15
16	0xa80c5bd0	-7.79147e-15
17	0xa7c9fa2d	-5.605995e-15
18	0x2689d543	9.564089e-16
19	0x2795811c	4.149579e-15
20	0xa7b97e61	-5.1484835e-15
21	0xa7944ec3	-4.1163646e-15
22	0x27865782	3.7287347e-15
23	0xa7b11cc8	-4.9158574e-15
24	0x268c2af4	9.726094e-16
25	0xa6f1b756	-1.6772428e-15
26	0xa7bbe817	-5.215456e-15
27	0xa75b11d6	-3.0402024e-15
28	0x2737cd27	2.5507565e-15
29	0x27186ba8	2.1152598e-15
30	0xa71d14ac	-2.1799333e-15
31	0x276df3e2	3.3022566e-15
32	0x271fc63d	2.2173148e-15
33	0xa70ebdc5	-1.9809333e-15
34	0xa7cae386	-5.6312944e-15
35	0xa8188c34	-8.468097e-15
36	0x2733c28f	2.494671e-15
37	0x27813177	3.5858322e-15
38	0x27c73719	5.5293332e-15
39	0x27228237	2.2552606e-15
40	0x27af2259	4.8609497e-15
41	0x283be5a5	1.04303815e-14
42	0x2701fb0b	1.8038437e-15
43	0x27f9e8e5	6.936389e-15
44	0x273a36a9	2.5842317e-15
45	0x282bd41e	9.5384024e-15
46	0x270d9a3a	1.9651287e-15
47	0x285a5cde	1.2121568e-14
48	0x27925244	4.0612333e-15
49	0x27b91ac0	5.1376817e-15
50	0x284a4aef	1.1229501e-14
51	0x27060c4e	1.8602906e-15
52	0x282b3535	9.503944e-15
53	0x2749bc54	2.7996446e-15
54	0x27d0cef1	5.7955964e-15
55	0x2741a6ea	2.6874615e-15
56	0x280da0fe	7.861982e-15
57	0x249d5b28	6.824232e-17
58	0x27e49185	6.3440485e-15
59	0x27cc29a2	5.6666513e-15
60	0x276674a1	3.1982137e-15
61	0x277875c2	3.448075e-15
62	0x26c5e0a6	1.3730512e-15
63	0xa7b596ee	-5.040123e-15
64	0xa82aa0e0	-9.47178e-15
65	0xa81e75f3	-8.796338e-15
66	0xa82928a9	-9.390201e-15
67	0xa840e38c	-1.0707482e-14
68	0xa7726c9b	-3.3643122e-15
69	0x2794ed33	4.1335424e-15
70	0xa7b3368b	-4.9741616e-15
71	0x24cea25d	8.961331e-17
72	0x27b7309c	5.0845406e-15
73	0xa4d9f5f8	-9.4525436e-17
74	0xa7be1ab2	-5.2764537e-15
75	0xa7467765	-2.7542744e-15
76	0x25caac3d	3.5158127e-16
77	0x27222492	2.250184e-15
78	0x279a7c48	4.2878332e-15
79	0x257dee60	2.2025017e-16
80	0x26b89b65	1.2809685e-15
81	0x25beb31d	3.3081118e-16
82	0xa7446eff	-2.7260635e-15
83	0xa76fa684	-3.3258181e-15
84	0x2588acae	2.3709252e-16
85	0x277aea56	3.4821503e-15
86	0xa7aee48a	-4.8542484e-15
87	0x26ae6a00	1.2102407e-15
88	0xa63f2060	-6.6310313e-16
89	0xa752c2b3	-2.92489e-15
90	0x262b4e22	5.943343e-16
91	0xa7b7b83d	-5.0992455e-15
92	0x2767c0c0	3.216218e-15
93	0x257aca28	2.1752537e-16
94	0xa779392c	-3.4586685e-15
95	0xa7e6fdd5	-6.411303e-15
96	0xa73dbf53	-2.6332736e-15
97	0x270a03a7	1.9153327e-15
98	0xa7875c39	-3.7570015e-15
99	0x277f3497	3.5416868e-15
100	0x2757e569	2.9961607e-15
101	0x26f06e44	1.6683233e-15
102	0x26386be5	6.398405e-16
103	0x2750d630	2.898191e-15
104	0xa73854b4	-2.5581047e-15
105	0x25902c1c	2.5009908e-16
106	0x27ccd4f2	5.685225e-15
107	0xa54d518c	-1.7808545e-16
108	0x26d7d6eb	1.4976876e-15
109	0xa72d669f	-2.4064204e-15
110	0x2798c85c	4.2405705e-15
111	0x27f4f6f3	6.7991347e-15
112	0xa7d3e6cb	-5.881449e-15
113	0xa72c0f58	-2.3878113e-15
114	0x26ee0d01	1.6518092e-15
115	0xa79463c2	-4.118641e-15
116	0xa7e8ab01	-6.457834e-15
117	0xa69dc73d	-1.0948067e-15
118	0xa7a7b3ba	-4.654667e-15
119	0xa7bc1508	-5.2203284e-15
120	0xa6e70f8a	-1.6033057e-15
121	0xa80eddff	-7.930721e-15
122	0xa757410d	-2.9872508e-15
123	0x279a2a19	4.278923e-15
124	0xa7652c18	-3.1804037e-15
125	0x26363dca	6.3227674e-16
126	0x2842a5f3	1.0805148e-14
127	0x27812390	3.584325e-15
128	0x28474bb1	1.1063132e-14
129	0x26cabeb8	1.406826e-15
130	0x276ff42c	3.3300279e-15
131	0x2822eed0	9.044591e-15
132	0x27b2ad7f	4.959303e-15
133	0x279c58d4	4.3395006e-15
134	0x27bf48c0	5.3092025e-15

weight f4 [15, 9]
0	0x27735fc1	3.3774933e-15
1	0xa712216f	-2.0279695e-15
2	0x26ad57bb	1.2028066e-15
3	0xa753518c	-2.9326339e-15
4	0xa798cad2	-4.2408373e-15
5	0xa7509255	-2.8945125e-15
6	0xa761d55d	-3.1340687e-15
7	0xa7ace63e	-4.798922e-15
8	0xa75d2760	-3.0691256e-15
9	0xa72db0eb	-2.410448e-15
10	0x27ae9a39	4.846191e-15
11	0xa76b52c3	-3.2657667e-15
12	0xa63198d1	-6.1616316e-16
13	0xa7a1105a	-4.4704205e-15
14	0xa597a9a1	-2.630927e-16
15	0x279e2246	4.389097e-15
16	0xa73b9f1d	-2.6037719e-15
17	0x2727f161	2.3306757e-15
18	0x281e84d0	8.799561e-15
19	0x27070dc6	1.874248e-15
20	0xa71e4236	-2.1962798e-15
21	0xa675b8a4	-8.5251685e-16
22	0xa795f4d5	-4.1621255e-15
23	0x26e2a074	1.5725391e-15
24	0x26b965e5	1.2864572e-15
25	0xa7887482	-3.78739e-15
26	0x27a187b3	4.4833602e-15
27	0x279cb5c1	4.3495756e-15
28	0xa7acbde8	-4.7945487e-15
29	0x26c2bdb5	1.3512874e-15
30	0xa795b03e	-4.154689e-15
31	0x2718c99e	2.1203534e-15
32	0x273fc72b	2.6614544e-15
33	0xa67eac81	-8.835774e-16
34	0xa6d308dd	-1.4643469e-15
35	0xa5d58508	-3.7039756e-16
36	0xa7fd0de6	-7.0236675e-15
37	0x269bd5f7	1.0813281e-15
38	0x26cd4369	1.4243004e-15
39	0x2756d3fe	2.9813387e-15
40	0xa710a026	-2.0070831e-15
41	0xa7264f69	-2.3080176e-15
42	0x266473df	7.9260425e-16
43	0xa7b32d74	-4.973176e-15
44	0xa7a538eb	-4.585841e-15
45	0xa7803128	-3.558043e-15
46	0xa78839c1	-3.78102e-15
47	0xa6c399f9	-1.3572577e-15
48	0x278fae46	3.987942e-15
49	0x2794fd09	4.1352593e-15
50	0x2735137a	2.5129354e-15
51	0xa6976f39	-1.0507877e-15
52	0xa685c110	-9.281059e-16
53	0xa7651f28	-3.1797024e-15
54	0x2642da7e	6.7603383e-16
55	0x255329c0	1.8315478e-16
56	0x272bc27d	2.383645e-15
57	0xa68cc8f5	-9.768921e-16
58	0xa6e11cec	-1.5620351e-15
59	0x2780d510	3.575814e-15
60	0xa5d62872	-3.715049e-16
61	0xa73bbd8d	-2.6054219e-15
62	0xa77f6237	-3.5441601e-15
63	0xa7e6ea3e	-6.409179e-15
64	0xa75be24d	-3.0515033e-15
65	0x2692baa2	1.0181372e-15
66	0xa70ff63e	-1.9978725e-15
67	0x278a01de	3.830472e-15
68	0xa75f15eb	-3.0959349e-15
69	0xa68f195a	-9.92949e-16
70	0x27b984ec	5.149193e-15
71	0xa6d923c2	-1.5067092e-15
72	0xa79fa537	-4.431049e-15
73	0x2754c916	2.952992e-15
74	0xa70c56cc	-1.9475956e-15
75	0x27a2bdd4	4.5169845e-15
76	0xa6a395e9	-1.135103e-15
77	0x2799a698	4.264665e-15
78	0x279fc554	4.434531e-15
79	0x25b6e354	3.172601e-16
80	0x276d3718	3.2920223e-15
81	0x27e5a9bd	6.37443e-15
82	0xa4ba9f17	-8.093415e-17
83	0x2792b8bf	4.0723443e-15
84	0x27744d6d	3.3903775e-15
85	0xa768470f	-3.2234989e-15
86	0xa730a28a	-2.451302e-15
87	0xa7b8cf41	-5.1294964e-15
88	0xa651a744	-7.273813e-16
89	0xa68ae643	-9.638086e-16
90	0x273120b8	2.4581421e-15
91	0xa633f561	-6.243565e-16
92	0xa71f8037	-2.2135188e-15
93	0xa7a1fc49	-4.4960005e-15
94	0x2795e1dc	4.1600685e-15
95	0xa74e977f	-2.867037e-15
96	0x260e52d5	4.9378405e-16
97	0xa77f7966	-3.545417e-15
98	0x25bda1cc	3.2895912e-16
99	0xa7442d44	-2.7225003e-15
100	0xa79865c4	-4.229881e-15
101	0xa7960bde	-4.164623e-15
102	0xa7b0c73d	-4.9065828e-15
103	0x26a31e73	1.131865e-15
104	0x27578849	2.9911124e-15
105	0xa744ba75	-2.7301543e-15
106	0x26843f7c	9.176547e-16
107	0xa7063445	-1.862457e-15
108	0x269bb873	1.0805281e-15
109	0x26bc4f8a	1.306668e-15
110	0xa78373ff	-3.6485567e-15
111	0x2724081d	2.276397e-15
112	0xa78f6f0f	-3.9810883e-15
113	0xa7adca12	-4.823623e-15
114	0x27bac88a	5.1842796e-15
115	0x278f99d6	3.9857262e-15
116	0x260a489a	4.797676e-16
117	0x28177d78	8.4093905e-15
118	0xa61e4c44	-5.492062e-16
119	0x2797137a	4.1932036e-15
120	0xa7b16a3b	-4.9242544e-15
121	0x279d81d6	4.3717022e-15
122	0x27937026	4.0922288e-15
123	0xa66d3c2e	-8.230745e-16
124	0x26f255b7	1.6815356e-15
125	0xa6ca83cc	-1.4052289e-15
126	0x27e71293	6.4135518e-15
127	0x277e1ccd	3.5265194e-15
128	0x2779fec4	3.46938e-15
129	0x2787c2de	3.7681303e-15
130	0x271f72d4	2.2127931e-15
131	0xa488bd75	-5.930155e-17
132	0xa7abb603	-4.765937e-15
133	0xa793d99a	-4.103662e-15
134	0xa7c2bc2f	-5.4049846e-15

att_src f4 [1, 1, 5]
0	0xbf129a84	-0.5726702
1	0x3e7fcc88	0.24980366
2	0xbe072938	-0.13199317
3	0xbf39d3aa	-0.725886
4	0x3cc02840	0.023456693

att_dst f4 [1, 1, 5]
0	0xbf2ede6e	-0.6830815
1	0xbf593086	-0.84839666
2	0xbf0cf83a	-0.55066264
3	0xbf600de6	-0.8752121
4	0xbf230144	-0.63673806

bias f4 [5]
0	0x00000000	0.0
1	0x00000000	0.0
2	0x00000000	0.0
3	0x00000000	0.0
4	0x00000000	0.0

weight f4 [5, 20]
0	0xbe89b6a3	-0.26897153
1	0x3da7a460	0.08185649
2	0xbd7f5bc4	-0.062343374
3	0x3d87e57d	0.06635568
4	0xbed79a2d	-0.42109814
5	0x3ef11496	0.47086018
6	0x3d7faf53	0.06242306
7	0xbefaadfa	-0.4896086
8	0x3d41240d	0.04715352
9	0x3eed1d5f	0.4631147
10	0xbe66dd2a	-0.22545305
11	0x3e894fea	0.26818782
12	0x3ec41998	0.38300776
13	0x3cb46901	0.022022726
14	0x3e19b533	0.15010528
15	0x3ef2aa8b	0.4739574
16	0xbe1fd5f2	-0.15608957
17	0xbe3d243a	-0.1847085
18	0x3e9511f4	0.2911526
19	0x3df300cd	0.11865387
20	0x3e1714ad	0.14753981
21	0x3d7cbdec	0.06170456
22	0x3eb1893b	0.3467501
23	0xbeece69d	-0.46269694
24	0xbcbba379	-0.022905098
25	0xbdc42e9f	-0.09579205
26	0x3d260f62	0.040542014
27	0x3e15b35a	0.14619198
28	0x3ec22053	0.37915286
29	0x3e4826db	0.19546072
30	0xbe2b03d8	-0.16700685
31	0x3e8748de	0.2642278
32	0xbef0545a	-0.46939355
33	0xbe138dc4	-0.14409548
34	0x3e851778	0.25994468
35	0xbeb6fa4b	-0.35737833
36	0x3eeca6ee	0.46221107
37	0x3ee5cb5a	0.44881707
38	0xbe21495d	-0.15750642
39	0x3e286594	0.16444999
40	0xbcc76577	-0.024340374
41	0x3e63e98b	0.22257058
42	0xbee504c6	-0.44730204
43	0x3eee7803	0.46575937
44	0xbe90835c	-0.2822522
45	0xbea6e5c1	-0.32597163
46	0x3e706ffc	0.23480219
47	0x3dc9768e	0.09837066
48	0x3dd4422a	0.10364182
49	0x3d3ba406	0.04581072
50	0xbee69e41	-0.45042613
51	0x3e1dcff8	0.15411365
52	0x3dd6a689	0.10480983
53	0x3ecbd5cf	0.3981156
54	0x3e7d3e95	0.24730904
55	0xbd1a1c20	-0.03762448
56	0xbe78038c	-0.24220103
57	0x3ebe579d	0.3717622
58	0x3dd3ebd1	0.10347713
59	0x3e1f7b48	0.15574372
60	0x3dd8eb28	0.105917275
61	0x3ed20eef	0.41027018
62	0x3e2c575a	0.16830197
63	0xbef04c6f	-0.46933314
64	0x3e8008ad	0.2500662
65	0xbd2d05d9	-0.042241905
66	0xbec4bda8	-0.38425946
67	0x3e62e58c	0.22157878
68	0xbe31b342	-0.17353538
69	0xbe685db8	-0.22692001
70	0xbecf7622	-0.40519816
71	0x3dd94f57	0.10610836
72	0x3e99dd75	0.3005177
73	0xbe5c39cd	-0.21506424
74	0x3d690c91	0.05689675
75	0xbe0d7f95	-0.138182
76	0x3ede0b57	0.43368027
77	0xbdd7e1c9	-0.10541112
78	0x3cb581f6	0.022156697
79	0xbde02c0e	-0.10945903
80	0xbe5e8652	-0.21730927
81	0x3e3cd5d0	0.18440938
82	0x3ee5c69f	0.44878098
83	0xbebe6f0d	-0.371941
84	0x3ee9c137	0.45655224
85	0xbe9e2b07	-0.30892202
86	0x3e2423a2	0.16029218
87	0x3e93362c	0.28752267
88	0xbdcb50b3	-0.099275015
89	0x3ecca7a1	0.3997164
90	0x3ebdf163	0.37098226
91	0xbca45755	-0.020061174
92	0xbe2af2b1	-0.16694142
93	0x3ed1d247	0.4098074
94	0xbea32c0f	-0.31869552
95	0xbe13d567	-0.14436875
96	0x3ef03d4a	0.4692176
97	0x3ea2024b	0.31642374
98	0xbe7ae05f	-0.24499653
99	0xbe999b37	-0.30001232

weight f4 [5, 20]
0	0xbe0e1bc4	-0.13877779
1	0xbe49f2dc	-0.1972155
2	0xbe2b43ce	-0.16725084
3	0xbdcec4e4	-0.10096148
4	0x3e0782bf	0.1323347
5	0xbdaab920	-0.08336091
6	0xbe776067	-0.24157868
7	0x3e972a3f	0.2952442
8	0xbe5e3875	-0.21701224
9	0x3eea0e1e	0.45713896
10	0x3e7b9130	0.24567103
11	0x3ef209bf	0.4727306
12	0x3eb844cb	0.35989985
13	0x3e56e495	0.20985635
14	0xbe89d928	-0.2692349
15	0xbec5d3c9	-0.38638142
16	0xbec3f21f	-0.3827066
17	0x3e45808f	0.19287322
18	0xbec6d1e0	-0.38831997
19	0xbcdbe68a	-0.026843328
20	0x3edb300d	0.42810097
21	0xbdcb9044	-0.09939626
22	0xbe0940a9	-0.13403572
23	0xbe59ae27	-0.2125784
24	0x3d026a7c	0.031839833
25	0xbe4bcd5d	-0.19902559
26	0x3ddb2808	0.10700995
27	0xbeccf2e7	-0.4002907
28	0xbde38643	-0.11109593
29	0x3e88fe39	0.26756456
30	0xbe18af71	-0.14910676
31	0x3dca3154	0.0987269
32	0xbebe028c	-0.37111318
33	0xbb0487e2	-0.0020222594
34	0xbef8664a	-0.4851554
35	0xbef2dc1f	-0.47433564
36	0xbdf5d05f	-0.12002634
37	0xbd8d5ead	-0.069028236
38	0x3e69e4a4	0.22841126
39	0x3ee4a49d	0.4465684
40	0xbed078ac	-0.40717065
41	0x3e35096f	0.1767938
42	0xbe261793	-0.1621993
43	0xbe4fcddd	-0.20293374
44	0x3e94ba76	0.29048508
45	0x3e4fde66	0.20299682
46	0x3d321fa4	0.043487206
47	0x3e423f42	0.18969443
48	0xbd0978f3	-0.03356261
49	0xbef5f360	-0.48037243
50	0xbee9578a	-0.455746
51	0xbe41623f	-0.18885134
52	0xbef557d1	-0.4791856
53	0x3eb71b92	0.35763222
54	0xbd8c31c1	-0.06845427
55	0xbede8acf	-0.43465278
56	0xbd35c4d5	-0.044377167
57	0xbe88e551	-0.26737455
58	0xbe5d24f3	-0.21596126
59	0x3eac5bb9	0.3366373
60	0x3d0dadc7	0.034589555
61	0x3ec02a88	0.3753245
62	0xbed99ab0	-0.4250083
63	0x3e83c25c	0.25734222
64	0xbd2604da	-0.04053197
65	0xbeb0ea3f	-0.34553716
66	0xbe091399	-0.13386382
67	0x3eadca52	0.3394342
68	0xbea4e433	-0.32205352
69	0xbe14e3f9	-0.1454009
70	0x3e21cec5	0.15801533
71	0x3ec8ccf8	0.3921888
72	0x3dea776e	0.11448561
73	0x3dfdaf0b	0.123869024
74	0xbe962727	-0.29326746
75	0x3e6275e9	0.22115292
76	0x3cff5c1a	0.031171847
77	0xbe36d9cb	-0.17856519
78	0x3ec9b1e5	0.39393535
79	0x3ebae419	0.3650215
80	0x3e1dfbb9	0.15428056
81	0xbeac97b8	-0.33709502
82	0x3ec78efc	0.38976276
83	0x3d8fc13a	0.07019277
84	0xbe1d34ed	-0.15352221
85	0xbe3cb0cb	-0.18426816
86	0xbe301d6a	-0.1719872
87	0xbeb9713f	-0.36219212
88	0xbe1f067b	-0.15529816
89	0x3ef8f683	0.48625574
90	0x3ea66a79	0.32503107
91	0x3e739687	0.2378789
92	0xbe9236c7	-0.28557417
93	0x3e60fb20	0.21970797
94	0x3dafbf86	0.08581452
95	0x3da72a2d	0.08162341
96	0x3e277849	0.16354479
97	0xbe856307	-0.26052114
98	0x3dce1db6	0.10064261
99	0x3dddc50c	0.10828599

att_src f4 [1, 1, 10]
0	0x27879d94	3.7640874e-15
1	0x266cdab9	8.217537e-16
2	0x277d4da5	3.5152894e-15
3	0xa83acd8c	-1.0369645e-14
4	0x27035e38	1.8230978e-15
5	0xa4797d49	-5.409939e-17
6	0x2725c537	2.300526e-15
7	0x2709dc2d	1.9131927e-15
8	0xa81845f1	-8.452861e-15
9	0xa64d88bb	-7.1308967e-16

att_dst f4 [1, 1, 10]
0	0xa49c1d92	-6.770431e-17
1	0xa759306d	-3.0141051e-15
2	0xa5de77f7	-3.8592153e-16
3	0xa7c73239	-5.5288047e-15
4	0xa7b3ff42	-4.995923e-15
5	0xa798467e	-4.2264903e-15
6	0xa74976b2	-2.7958698e-15
7	0xa7dd4548	-6.1414937e-15
8	0x27e3520f	6.3094125e-15
9	0xa6ea4d77	-1.6258009e-15

bias f4 [10]
0	0xa65573d1	-7.405618e-16
1	0x27a94443	4.6980932e-15
2	0xa80e34d0	-7.894035e-15
3	0x2628a443	5.8509325e-16
4	0x2741482c	2.6823255e-15
5	0x238c7b29	1.523099e-17
6	0xa7e0b31d	-6.2366684e-15
7	0x27a89156	4.678694e-15
8	0x27e14a70	6.253075e-15
9	0x280156da	7.1797714e-15

weight f4 [10, 20]
0	0x2751f592	2.91377e-15
1	0x281ebfb9	8.812335e-15
2	0x26ed591d	1.6469333e-15
3	0x27252281	2.2917054e-15
4	0xa737f1cd	-2.5527432e-15
5	0x26efa43e	1.6628474e-15
6	0x26a38fda	1.1349388e-15
7	0x27ffc24b	7.098737e-15
8	0x271dafa1	2.1883335e-15
9	0x27825137	3.61703e-15
10	0xa716abca	-2.0909809e-15
11	0x27d90c04	6.0242626e-15
12	0x283f381e	1.0614798e-14
13	0x2782ccfe	3.63045e-15
14	0xa6baf164	-1.2971772e-15
15	0x27a8dde1	4.686993e-15
16	0x280ecf6f	7.9275635e-15
17	0xa6ace862	-1.1997885e-15
18	0x282fe93a	9.765024e-15
19	0x2789f123	3.828658e-15
20	0xa939704c	-4.1175654e-14
21	0xa721604e	-2.2395445e-15
22	0xa7c53a61	-5.474178e-15
23	0xa728a1b1	-2.3402337e-15
24	0xa7a0dd9e	-4.46492e-15
25	0xa702c667	-1.8148678e-15
26	0xa835b447	-1.008661e-14
27	0xa805bc3d	-7.423801e-15
28	0xa81425a0	-8.223809e-15
29	0xa805661a	-7.405123e-15
30	0xa7256469	-2.2952782e-15
31	0x275f8d1b	3.102396e-15
32	0xa78dbe8c	-3.9341953e-15
33	0xa7c6aac5	-5.514119e-15
34	0xa6ad9c38	-1.204663e-15
35	0xa77500b8	-3.400097e-15
36	0xa804b66d	-7.367029e-15
37	0xa7dc2032	-6.1097173e-15
38	0xa804cbe4	-7.371684e-15
39	0xa83179f4	-9.851918e-15
40	0x27baf497	5.1890555e-15
41	0x281cf57a	8.712969e-15
42	0x274a6a2a	2.8090683e-15
43	0x27cddc66	5.7137886e-15
44	0x2853d02f	1.17579955e-14
45	0x27a3a3b2	4.5419067e-15
46	0x28400b00	1.0660526e-14
47	0xa7849bd0	-3.680629e-15
48	0x26936bbe	1.0229378e-15
49	0x2810bb53	8.034225e-15
50	0x2821255e	8.945398e-15
51	0xa689a5bd	-9.551208e-16
52	0xa78b3e3f	-3.8647737e-15
53	0x276ec7d1	3.3137456e-15
54	0x2799220c	4.2502944e-15
55	0xa77a4834	-3.473361e-15
56	0x27090787	1.901665e-15
57	0x27f4b930	6.7924385e-15
58	0xa6aae186	-1.1857248e-15
59	0x27dbcada	6.1004643e-15
60	0xa8de481f	-2.4678229e-14
61	0xa720cd0e	-2.231562e-15
62	0xa84b650f	-1.1290677e-14
63	0xa8396dfa	-1.029341e-14
64	0xa6f14d80	-1.6743741e-15
65	0xa7736b58	-3.3781216e-15
66	0xa7d4dd03	-5.908144e-15
67	0xa805a2c2	-7.418276e-15
68	0xa83184e6	-9.8542915e-15
69	0xa798ebae	-4.2444e-15
70	0xa84466f5	-1.0902511e-14
71	0xa80de45b	-7.876589e-15
72	0xa80e14f0	-7.8871236e-15
73	0xa7f1a8db	-6.707401e-15
74	0x26defcf6	1.547291e-15
75	0xa809abf1	-7.6423116e-15
76	0xa77e0f10	-3.5257746e-15
77	0xa785848e	-3.705863e-15
78	0xa83f9255	-1.0634361e-14
79	0xa7e563ba	-6.366839e-15
80	0xa7aa54f5	-4.727659e-15
81	0xa7d6b462	-5.9592503e-15
82	0xa7b771f2	-5.0916243e-15
83	0xa60749f2	-4.693775e-16
84	0x268ee8b2	9.916302e-16
85	0xa71f3895	-2.2096356e-15
86	0xa7b86d93	-5.118906e-15
87	0xa832def0	-9.929327e-15
88	0xa75ef4f9	-3.0941489e-15
89	0xa78ddf66	-3.937757e-15
90	0xa62e2ca8	-6.04289e-16
91	0xa7c749dd	-5.531368e-15
92	0xa7c85f3f	-5.5614417e-15
93	0xa7df80ba	-6.20345e-15
94	0x274665f1	2.7533282e-15
95	0xa824245e	-9.111715e-15
96	0xa7c73553	-5.529141e-15
97	0xa677e7c7	-8.6009457e-16
98	0xa8140c33	-8.218296e-15
99	0xa662df06	-7.8711754e-16
100	0xa9cad81e	-9.0080924e-14
101	0xa807784e	-7.520092e-15
102	0xa62be6a0	-5.96401e-16
103	0xa747abb4	-2.7709878e-15
104	0x239c0929	1.6917433e-17
105	0xa80fcaff	-7.982112e-15
106	0xa7f028ae	-6.6657486e-15
107	0xa682335e	-9.034485e-16
108	0xa79f95bf	-4.429372e-15
109	0x27419b9e	2.686849e-15
110	0xa7e69c15	-6.400705e-15
111	0x2611c4ec	5.057386e-16
112	0xa74dbb44	-2.8550982e-15
113	0x2732d6ca	2.48189e-15
114	0xa73daa03	-2.6321182e-15
115	0xa7f3ac2c	-6.7632718e-15
116	0xa8058ab9	-7.413064e-15
117	0xa6329994	-6.1964293e-16
118	0xa5b99e2b	-3.2199563e-16
119	0xa809bf57	-7.646518e-15
120	0x270d7975	1.9633523e-15
121	0x27f02320	6.6651464e-15
122	0x279e61b6	4.395975e-15
123	0x280e6a6e	7.905662e-15
124	0x2804aff9	7.36563e-15
125	0x28107858	8.019701e-15
126	0x2719a303	2.1321384e-15
127	0x27a01598	4.4432333e-15
128	0x27b58ed0	5.039243e-15
129	0x26e009b6	1.5545754e-15
130	0x270c41a0	1.9464478e-15
131	0x27965f2c	4.173655e-15
132	0x27ffe5e5	7.102597e-15
133	0x26a26174	1.1267423e-15
134	0x273c1c75	2.6105668e-15
135	0x278dc997	3.9353926e-15
136	0x281a94a7	8.580951e-15
137	0x27a20529	4.4969627e-15
138	0xa66f6e4e	-8.3069273e-16
139	0xa5a8afd5	-2.9262503e-16
140	0xa68a6010	-9.601711e-16
141	0x2705002c	1.845755e-15
142	0xa6c8eb45	-1.3941558e-15
143	0xa6e1c9a3	-1.5667165e-15
144	0xa56e8581	-2.0688442e-16
145	0xa7578f21	-2.9914834e-15
146	0xa7d01192	-5.7750647e-15
147	0x270b1a5d	1.9304417e-15
148	0xa4750e65	-5.31381e-17
149	0x26ef2e3d	1.6596489e-15
150	0xa7b71794	-5.0818267e-15
151	0xa6cc5f8e	-1.4181244e-15
152	0x277ca449	3.5061084e-15
153	0xa72e35f0	-2.417659e-15
154	0xa8078879	-7.523598e-15
155	0xa7a5418b	-4.586776e-15
156	0xa6a7519f	-1.1610076e-15
157	0xa7ab1188	-4.748104e-15
158	0xa8096bab	-7.6283745e-15
159	0x272de83b	2.4134465e-15
160	0xa6c2cea1	-1.3517461e-15
161	0xa6e24ae2	-1.5702197e-15
162	0xa8121395	-8.108874e-15
163	0xa792e50b	-4.077147e-15
164	0xa7f22b03	-6.7215126e-15
165	0xa84390f6	-1.0856108e-14
166	0xa8040a67	-7.329728e-15
167	0xa6195fa7	-5.321217e-16
168	0xa806a130	-7.473446e-15
169	0xa806d683	-7.485009e-15
170	0xa7d36d7b	-5.8682964e-15
171	0x269bca44	1.081011e-15
172	0xa7902f7c	-4.001951e-15
173	0xa7cc0cb3	-5.6635143e-15
174	0xa7d97ebd	-6.036701e-15
175	0xa819da70	-8.540572e-15
176	0xa68bc9a8	-9.699722e-16
177	0xa82ee42a	-9.7084155e-15
178	0xa66a681e	-8.1326164e-16
179	0xa812086e	-8.106456e-15
180	0xa767163a	-3.2069739e-15
181	0xa811e3e1	-8.09853e-15
182	0xa64f7c12	-7.19857e-16
183	0xa7e96c6f	-6.4788055e-15
184	0xa7bab456	-5.182089e-15
185	0xa774736a	-3.3924368e-15
186	0xa6cd3b84	-1.4240864e-15
187	0xa67c3521	-8.7502066e-16
188	0xa818d5ee	-8.484084e-15
189	0xa7bba468	-5.2081176e-15
190	0xa78750d2	-3.7557653e-15
191	0x26657153	7.960392e-16
192	0x269c4a3e	1.0844798e-15
193	0xa7c56daa	-5.479738e-15
194	0xa7529858	-2.922594e-15
195	0xa785df72	-3.7157175e-15
196	0xa78a484b	-3.8381075e-15
197	0xa687fe7d	-9.436486e-16
198	0xa67b30d9	-8.714932e-16
199	0xa7ffc414	-7.0989306e-15
