model/gnn/240929_1/epoch_5.pt (torch, 422455 bytes, 52 tensors)

att_src f4 [1, 1, 20]
000000 4b f9 f2 31 d2 e3 03 32 ec e7 14 b1 29 f8 11 32
       7.0714683e-09 7.677004e-09 -2.1668667e-09 8.496536e-09
000010 c7 43 0b b1 7d 42 00 31 a2 b9 9a b1 fb a3 ba 31
       -2.026569e-09 1.8664246e-09 -4.503094e-09 5.431955e-09
000020 3b 14 0c 32 7a 26 e9 b1 0c 1e 0a 32 86 eb ed 30
       8.153672e-09 -6.7855668e-09 8.039489e-09 1.7310959e-09
000030 c7 cb ea 31 68 29 ac 30 e8 3d 99 31 34 7c b3 b0
       6.833463e-09 1.2526415e-09 4.459924e-09 -1.3059265e-09
000040 c4 fd f4 31 c0 e5 bb 30 4c 5d 94 b1 d1 03 22 31
       7.1301844e-09 1.367134e-09 -4.3179735e-09 2.3576272e-09

att_dst f4 [1, 1, 20]
000000 73 6c 92 b1 6a 14 95 b0 40 14 81 b1 b5 d2 d2 31
       -4.2614885e-09 -1.0846979e-09 -3.7566963e-09 6.135759e-09
000010 d0 dd fa b1 d2 82 92 b1 d7 7a 33 b1 4b 16 bf b1
       -7.3011748e-09 -4.264032e-09 -2.6117755e-09 -5.561366e-09
000020 d3 f6 6f 30 cf f1 1c b2 bf 81 0f 32 6d fb 06 b2
       8.729845e-10 -9.135376e-09 8.353196e-09 -7.856994e-09
000030 d1 5a f5 31 5b 8e d3 30 6b 62 4e b1 30 63 c4 31
       7.140763e-09 1.539273e-09 -3.003289e-09 5.715627e-09
000040 d1 1e c6 30 48 63 00 32 ee f7 8a 30 08 74 48 b1
       1.4415155e-09 7.4731545e-09 1.0111287e-09 -2.9169787e-09

bias f4 [20]
000000 5f 08 f4 3e a4 55 a7 b1 97 55 a1 b1 3e 8a c3 b1
       0.47662637 -4.870076e-09 -4.695447e-09 -5.6909633e-09
000010 12 ff 8e b2 ea 3d e8 b1 cd a5 e8 b1 a2 cc 92 b1
       -1.6646968e-08 -6.7591275e-09 -6.770938e-09 -4.2724233e-09
000020 df cb 53 b2 df c8 26 b2 8b a0 b1 b1 b1 f7 46 b1
       -1.2328171e-08 -9.7081445e-09 -5.1696296e-09 -2.8953588e-09
000030 cc b0 95 b1 40 b5 34 b2 a7 02 2b b1 c6 63 9c b1
       -4.35657e-09 -1.051859e-08 -2.4885283e-09 -4.5515405e-09
000040 41 f4 9d b1 d2 5b c9 b1 4c 11 3d b1 cc 43 51 b2
       -4.59707e-09 -5.8603087e-09 -2.7512952e-09 -1.2180816e-08

weight f4 [20, 163]
000000 fa e4 82 be b6 cd 54 bd e8 22 e2 bd 00 8b 31 be
       -0.2556532 -0.051953994 -0.11041814 -0.1733818
000010 89 7e 86 3e 9b 8b 43 3e fd 31 9d 3e 6a f6 e9 3e
       0.26268414 0.19096224 0.307022 0.45695812
000020 c3 7c af bf 22 d3 a6 bf b6 e6 33 be 73 4b 51 be
       -1.3709949 -1.3033183 -0.17568478 -0.20438938
000030 be f5 38 3b 06 bc 34 be d9 a5 8a be 78 30 57 be
       0.0028222646 -0.1764985 -0.27079657 -0.21014583
000040 0a 71 72 be 63 9a a0 3e 8b 2d 6e bf 10 9c 02 be
       -0.23675933 0.31367788 -0.93038243 -0.12754846
000050 7d 00 a4 3d 7e dd 15 bf de 62 1c bf f6 84 e1 bd
       0.08007906 -0.58541095 -0.6108836 -0.110116884
000060 df be e0 3d d9 5d ab af 02 2c 40 3e a3 b1 94 ae
       0.10973906 -3.1171402e-10 0.18766788 -6.7618154e-11
000070 a6 45 59 3e 5f 70 de 3e fe 12 de 3e 83 86 d4 bf
       0.21217975 0.43445107 0.43373865 -1.660355
000080 dc 18 cd bc 0c f2 7a bf fd 28 c0 be 7b ec 93 3e
       -0.025036268 -0.98025584 -0.37531272 0.28891358
000090 77 c3 8e 3e e0 f7 06 bf 9e 5b fd be 44 14 1c 40
       0.27883503 -0.5272198 -0.4948396 2.438737
0000a0 c6 71 e9 3e b9 75 14 bf 48 0a a7 3f 61 ec 84 bf
       0.45594615 -0.5799213 1.3050013 -1.0384637
0000b0 10 77 48 3f c5 7d ae 3e ba ab 84 bf 13 a8 b0 be
       0.78306675 0.3408033 -1.0364907 -0.3450323
0000c0 56 b5 a8 bd 14 79 0b bf 10 59 43 3f a0 37 0e 3e
       -0.08237712 -0.54481626 0.76307774 0.13888407
0000d0 3d 20 81 3e ba dc 77 3e ca d0 d3 b0 a4 b3 cb be
       0.25219908 0.24205294 -1.5411612e-09 -0.39785492
0000e0 10 eb 8b be 2b 65 0d be 07 94 1e be de e6 8b bd
       -0.27327776 -0.13808124 -0.15486155 -0.06831144
0000f0 26 2b ba be f2 cf 17 b1 5d 25 63 bf 93 1a cf be
       -0.36361045 -2.2091595e-09 -0.88728887 -0.40449962
000100 a9 14 b2 40 e5 6e bf 3b ea b2 30 be 6e 71 6b 40
       5.565022 0.005842077 -0.1725575 3.6787982
000110 e0 31 0c c0 0b 4f 0e bf ed 29 82 30 4b 21 c9 bf
       -2.1905441 -0.5558936 9.470661e-10 -1.5713285
000120 32 a8 e1 bf ca 92 b6 bf 72 18 54 31 7b 1a 0f 40
       -1.7629454 -1.4263546 3.0863956e-09 2.2359912
000130 7a da 93 2e d3 c5 22 30 9f da 99 be 37 04 84 bf
       6.723595e-11 5.921638e-10 -0.30049607 -1.0313786
000140 c4 53 19 bf 8b ee 33 be a9 cf 23 be 87 21 79 30
       -0.5989344 -0.17571466 -0.15997185 9.063332e-10
000150 6f 1e 36 bf 95 d7 02 3f ac c7 f4 be 86 2d 7a b0
       -0.7114019 0.511102 -0.47808588 -9.1014163e-10
000160 f0 13 d7 30 49 15 bb b0 37 78 b4 3d 51 69 17 be
       1.5648975e-09 -1.361209e-09 0.08811992 -0.14786269
000170 57 32 16 be 7e a8 a5 bd c1 00 de bf b7 9e a7 bf
       -0.1466764 -0.08088778 -1.734398 -1.3095311
000180 cd 06 8a 3c dd aa 09 31 78 1d a8 3c 55 ff 34 bf
       0.016848946 2.0033248e-09 0.020521864 -0.70702106
000190 7a 07 8f bd 84 0e 88 bf 49 a7 0d 3f 23 76 88 3e
       -0.06983848 -1.062943 0.5533338 0.2665263
0001a0 af df b4 b0 a8 91 33 bf d5 6f 98 3d 1b e3 20 40
       -1.3160298e-09 -0.7014413 0.07443205 2.5138614
0001b0 0a c2 90 be 2f 3f bb 3c e0 44 68 3f ff 1a 1c bf
       -0.2827304 0.022857277 0.90730095 -0.6097869
0001c0 ef 84 6c 3e a3 02 0b 31 e1 cb 41 c0 1d 09 ba bf
       0.23097585 2.022866e-09 -3.0280688 -1.4534031
0001d0 8c cc ff be 02 5f 6c af 98 03 8e 3f 8d b1 0d 30
       -0.49960744 -2.1497829e-10 1.1094847 5.1547816e-10
0001e0 a2 33 a2 b0 ad f0 15 bf 37 75 59 be 40 8b 5e 3d
       -1.1801726e-09 -0.5857037 -0.2123612 0.054332018
0001f0 36 91 b4 be ed cc 6a 3e 5f a7 35 31 c4 76 35 bf
       -0.35267037 0.22929735 2.6434106e-09 -0.70884347
000200 4f c9 4e 3f ef d1 27 3e ee 3b 0e 31 cf e4 e0 b0
       0.8077592 0.16388677 2.0697786e-09 -1.6363176e-09
000210 17 dd ae b0 3d f0 82 bd 44 5c 7a be d2 16 d6 be
       -1.2723004e-09 -0.06393478 -0.24449259 -0.41814286
000220 45 0b e1 be 8e 82 e0 bd 3e 1d b0 3d a6 53 7d 3f
       -0.4395391 -0.10962401 0.085993275 0.9895576
000230 9e b3 34 3c da a6 38 3d c4 d2 85 3e cc 2f 34 3e
       0.011029152 0.045080997 0.26137364 0.17596358
000240 58 f1 12 3e 2c 83 a3 3f 86 d2 90 3e 03 15 11 3e
       0.14349878 1.2774405 0.28285617 0.14168172
000250 73 40 ab 3e e7 75 83 3e 16 73 89 3d 8e 4c 91 3f
       0.33447608 0.2567589 0.06711404 1.1351488
000260 85 4c 17 3f 46 c8 58 3e e6 47 9b 3e b9 7e f5 3e
       0.59101135 0.21170148 0.30328292 0.47948244
000270 c9 8f 40 bf 24 15 19 bd 10 df 4f 3c 80 dc 9a be
       -0.752194 -0.037373677 0.01268746 -0.30246353
000280 9b 40 57 be 67 9f 8e be 2e 8c 19 bf bd 3b 75 b1
       -0.21020739 -0.2785599 -0.5997952 -3.568615e-09
000290 58 4e 98 b1 75 d0 b0 b1 3e 11 78 b1 41 08 b6 b1
       -4.432689e-09 -5.145973e-09 -3.609855e-09 -5.2978355e-09
0002a0 9a 8e a3 b1 79 37 17 b1 2b 95 26 b1 e9 c8 2b b1
       -4.7601363e-09 -2.2004925e-09 -2.4240971e-09 -2.499798e-09
0002b0 93 0b 55 b1 eb 2f e3 b1 82 01 a1 b1 f3 f1 31 b1
       -3.1002159e-09 -6.612017e-09 -4.685888e-09 -2.5894422e-09
0002c0 f2 a0 c5 b1 de 7c fc b1 94 9a 1d b2 17 db 10 b2
       -5.751752e-09 -7.348361e-09 -9.17375e-09 -8.431718e-09
0002d0 ff 31 d4 b1 7d 71 64 b1 21 b1 8f b1 38 1a 28 b1
       -6.175696e-09 -3.3242877e-09 -4.181985e-09 -2.4462121e-09
0002e0 11 ce 04 b2 16 63 b7 b1 a8 7c 68 b1 3c 05 05 b2
       -7.730265e-09 -5.3372657e-09 -3.3831302e-09 -7.742809e-09
0002f0 82 61 1d 30 db 43 07 b1 5a a3 f5 30 dd 91 e9 b1
       5.7254834e-10 -1.9683657e-09 1.7872523e-09 -6.7977752e-09
000300 48 d9 d7 b1 2e 9d f9 af d2 a2 a8 b1 e0 be a7 b1
       -6.2820256e-09 -4.540452e-10 -4.907954e-09 -4.8820397e-09
000310 0d de 3e b1 0f 9c 49 b1 d5 95 79 b1 f4 66 01 b2
       -2.777486e-09 -2.9338059e-09 -3.6319439e-09 -7.532197e-09
000320 35 cd 18 b1 79 e7 b0 b1 52 94 a3 b1 a9 35 a9 b1
       -2.2235558e-09 -5.1485896e-09 -4.7607864e-09 -4.924648e-09
000330 3c 93 e1 b1 7c 89 c7 b0 90 fb ad b1 18 a1 a9 b1
       -6.5651005e-09 -1.4518231e-09 -5.063562e-09 -4.9368616e-09
000340 8b 16 90 b1 40 ec c5 b1 c8 5d d4 b1 cd 48 ad b1
       -4.1935144e-09 -5.760313e-09 -6.1806738e-09 -5.043239e-09
000350 1a 61 c6 b1 a4 25 f9 b0 1e c4 f4 b1 18 16 33 b1
       -5.7735976e-09 -1.8127833e-09 -7.1236306e-09 -2.6060487e-09
000360 b6 40 3a b1 a7 a1 50 31 c1 94 00 b2 52 6d e7 b0
       -2.7103346e-09 3.0359872e-09 -7.484403e-09 -1.6838533e-09
000370 31 61 be b1 bd 59 04 b1 75 a6 c1 af 10 61 00 b2
       -5.540777e-09 -1.9259538e-09 -3.522477e-10 -7.47265e-09
000380 00 c1 b8 af 73 30 d6 b1 3f 3e 9b b1 f9 a5 c7 b1
       -3.360654e-10 -6.2337278e-09 -4.5181703e-09 -5.810531e-09
000390 77 34 99 b1 36 2f ea b1 4d 97 95 b1 f9 16 05 b1
       -4.4588506e-09 -6.8156636e-09 -4.3536716e-09 -1.9367106e-09
0003a0 49 47 41 b1 6c b0 83 30 e3 5b 85 b1 31 54 26 b1
       -2.8125717e-09 9.581647e-10 -3.8812558e-09 -2.4204037e-09
0003b0 ed c1 f8 b1 9a 4d 16 b1 e7 78 e3 31 aa ed 4a b0
       -7.2397968e-09 -2.1871984e-09 6.6203145e-09 -7.3824913e-10
0003c0 41 47 d6 b0 fa 4f c1 b1 00 c2 be b1 52 8a 08 b1
       -1.5590801e-09 -5.6261316e-09 -5.551783e-09 -1.986923e-09
0003d0 87 0a 86 b1 a5 68 99 b1 d4 9e c5 b0 36 04 9d b1
       -3.90111e-09 -4.4647828e-09 -1.4378778e-09 -4.56978e-09
0003e0 ca 4c ea 31 88 c8 ce b1 e4 46 32 31 4a aa 3e 31
       6.8190262e-09 -6.018187e-09 2.5942706e-09 2.7745437e-09
0003f0 f5 0b 49 31 9e 85 81 b1 06 22 9c b1 b0 43 d8 b1
       2.9256146e-09 -3.7695846e-09 -4.5440656e-09 -6.2941226e-09

weight f4 [20, 163]
000000 ce 06 52 31 a9 ce 1f b1 a4 f3 d5 2f 8a 53 18 2f
       3.056289e-09 -2.3255018e-09 3.891759e-10 1.3853999e-10
000010 fc 8e d2 30 ec 75 24 30 fd 1d 48 31 df 5a 2b 31
       1.532015e-09 5.983043e-10 2.9120877e-09 2.493543e-09
000020 81 18 eb 30 77 c9 90 30 1c 37 9f 2f e0 fa 43 2e
       1.7105465e-09 1.0534639e-09 2.896109e-10 4.456069e-11
000030 8f f6 17 30 ea 8c d2 b0 b2 a6 2a 31 a0 f9 06 b1
       5.528386e-10 -1.5319561e-09 2.4833011e-09 -1.9641462e-09
000040 1b 87 c0 30 44 9b 0a b1 6a 29 52 31 44 05 5e 30
       1.4008238e-09 -2.0169901e-09 3.0582563e-09 8.077061e-10
000050 1e 96 c7 ae 28 80 cc 30 da 07 c1 b0 5c 18 30 31
       -9.0761385e-11 1.4879378e-09 -1.404483e-09 2.5625218e-09
000060 7d 93 8a 30 b7 7e 7c 30 bb 0f 92 b0 e8 8c 4d b1
       1.008274e-09 9.185714e-10 -1.0627369e-09 -2.9911522e-09
000070 13 09 1a b1 64 2d 3b b1 1d 2e 17 b0 81 91 09 30
       -2.2415108e-09 -2.7237883e-09 -5.499901e-10 5.0047083e-10
000080 6e 7d 0a 31 d3 ae a9 30 81 df 04 30 a9 97 39 b1
       2.0152942e-09 1.2346056e-09 4.833894e-10 -2.7007252e-09
000090 22 72 cb 30 a8 c6 0b 2f e4 55 a5 30 50 f8 80 b0
       1.4802632e-09 1.2712553e-10 1.2029742e-09 -9.3838e-10
0000a0 cd 38 51 b1 69 c4 30 31 c8 9d 2b b1 02 18 c3 b0
       -3.044579e-09 2.5723017e-09 -2.4973463e-09 -1.4194941e-09
0000b0 51 33 ad 30 fd c1 0b b1 2b 3c d8 30 d0 f9 3f b1
       1.2601992e-09 -2.0337432e-09 1.5733169e-09 -2.793616e-09
0000c0 35 d4 49 31 e3 85 30 30 b3 65 21 b1 9c 59 7c b0
       2.9369975e-09 6.421869e-10 -2.3486393e-09 -9.180441e-10
0000d0 dd 71 3b b1 a8 c2 ef b0 b4 74 12 b1 ee 94 44 b0
       -2.7276805e-09 -1.7444863e-09 -2.1312134e-09 -7.1516026e-10
0000e0 cb 58 16 31 59 a3 bd 30 37 c0 fc 30 60 73 15 31
       2.1878346e-09 1.3797986e-09 1.8390044e-09 2.1747937e-09
0000f0 c1 d4 a4 b0 1b c3 7f 30 b7 57 30 31 96 2d 06 b0
       -1.1993039e-09 9.304572e-10 2.566123e-09 -4.88137e-10
000100 09 9f 03 af 01 5b 52 31 a5 7b 10 31 99 f9 f4 b0
       -1.1970881e-10 3.0610752e-09 2.1025042e-09 -1.7824276e-09
000110 00 ce b1 30 43 2f 0f 31 9b ad fd 30 51 ae 14 b1
       1.2936994e-09 2.0836104e-09 1.8457514e-09 -2.1635922e-09
000120 c0 03 54 31 75 4d 69 30 3b 0d a5 ae f9 07 9c 30
       3.0852192e-09 8.487498e-10 -7.5056815e-11 1.135276e-09
000130 e0 04 10 31 4c ed 81 af e2 65 29 31 b9 8d 95 30
       2.095753e-09 -2.3633573e-10 2.465065e-09 1.0881457e-09
000140 43 5c b4 b0 e8 62 19 b1 02 a9 47 31 cb 53 e2 30
       -1.3122946e-09 -2.2320652e-09 2.9054381e-09 1.646748e-09
000150 df 64 db af 95 7c 11 31 aa cd 19 31 94 63 49 31
       -3.990754e-10 2.1171094e-09 2.2381337e-09 2.9305953e-09
000160 08 7d 56 b0 1c 91 3c 31 0c 7d 05 b1 5d 8b f2 b0
       -7.8030427e-10 2.7440086e-09 -1.9425128e-09 -1.7647427e-09
000170 08 0a 12 30 8f 16 e1 b0 7c a6 90 b0 31 e4 ee af
       5.3128746e-10 -1.6377316e-09 -1.0524697e-09 -4.3454088e-10
000180 66 74 0e 30 08 06 26 b0 d9 bc 35 b1 d1 76 73 b0
       5.182471e-10 -6.039902e-10 -2.6446314e-09 -8.8571733e-10
000190 e8 0c 53 31 dc 5e 9d 30 5c 53 4a b1 93 33 b4 b0
       3.0711877e-09 1.1450214e-09 -2.9442253e-09 -1.3111382e-09
0001a0 8c 15 53 2d d8 fe 46 30 8a 20 a0 b0 97 84 08 b1
       1.1998746e-11 7.2394135e-10 -1.165078e-09 -1.9865973e-09
0001b0 d6 b4 e0 af f1 9e 02 b1 51 1c 9f af da 79 74 30
       -4.0873854e-10 -1.9007838e-09 -2.8942052e-10 8.8939844e-10
0001c0 74 42 21 b1 9b bd 47 b1 83 71 25 31 16 99 2f 31
       -2.3466358e-09 -2.906609e-09 2.4075184e-09 2.555287e-09
0001d0 89 79 55 b1 ae 8e 20 30 47 ee 5d b0 ff b3 d8 2f
       -3.1064664e-09 5.841042e-10 -8.0737944e-10 3.9418066e-10
0001e0 e0 73 43 ae 64 f6 01 b1 2b d3 54 31 60 81 0d b1
       -4.4440784e-11 -1.8912027e-09 3.0970095e-09 -2.0591742e-09
0001f0 d9 ff d8 ae 6c 0b 0f b1 50 31 08 b1 8e 9b fc 30
       -9.8679905e-11 -2.0815731e-09 -1.9818636e-09 1.8379624e-09
000200 9c 7e 13 31 4e 85 52 b1 bb 55 2b 31 cf f2 ab b0
       2.1463284e-09 -3.0634797e-09 2.4932507e-09 -1.2510898e-09
000210 19 4d 2a b1 c2 f8 17 b0 7d 2d 3f b1 27 f0 d1 2f
       -2.478208e-09 -5.5286986e-10 -2.7820015e-09 3.8187517e-10
000220 96 74 42 31 fa 17 13 30 2c 2f c9 30 65 d6 43 30
       2.8296987e-09 5.351236e-10 1.4638082e-09 7.124526e-10
000230 6a 37 13 31 d4 73 3f b1 e0 94 c3 af c5 9a e2 b0
       2.1422815e-09 -2.7859999e-09 -3.5576075e-10 -1.6487652e-09
000240 18 e9 d4 af 90 ac 56 31 1e 26 ba 2e 3b a4 15 b1
       -3.8728198e-10 3.123919e-09 8.465072e-11 -2.1775708e-09
000250 ae a7 11 b1 7e eb 0a b1 54 74 db b0 f5 91 60 30
       -2.1195592e-09 -2.0215505e-09 -1.596741e-09 8.169814e-10
000260 87 5b bb b0 53 fb 3e b0 78 14 35 31 9f 27 0c b1
       -1.3632054e-09 -6.947875e-10 2.6350602e-09 -2.0395203e-09
000270 56 8b 8d b0 38 8e d0 b0 2f 90 0f b1 35 a8 a9 b0
       -1.0298702e-09 -1.5174413e-09 -2.0891198e-09 -1.2344176e-09
000280 70 61 f2 b0 bc 83 c3 30 f5 ea ff 30 f5 4f dc 30
       -1.7635511e-09 1.4225559e-09 1.8620471e-09 1.6029832e-09
000290 d0 ca 13 31 8b 31 28 b1 d5 28 df b0 f4 16 1f 2e
       2.15066e-09 -2.447538e-09 -1.6236991e-09 3.61728e-11
0002a0 4d 36 0c b1 ba f6 39 b1 47 9e fc 30 16 79 29 b0
       -2.0403548e-09 -2.706129e-09 1.8380398e-09 -6.1653915e-10
0002b0 55 12 55 31 46 cd 32 b1 ce 7e 50 31 5c 94 54 31
       3.1006e-09 -2.6019094e-09 3.0340064e-09 3.0934393e-09
0002c0 91 24 6c b0 0f 43 39 b1 5b c7 75 b0 ac c9 04 31
       -8.5908264e-10 -2.6959162e-09 -8.941378e-10 1.9323165e-09
0002d0 d1 6f 11 b1 e4 dd d5 30 78 78 45 31 a7 77 05 b1
       -2.1163837e-09 1.5560855e-09 2.8735752e-09 -1.9422062e-09
0002e0 ab ff ea b0 3a 0d d5 30 b2 1e e8 30 be 72 e5 2f
       -1.7098406e-09 1.5501549e-09 1.6888946e-09 4.1736387e-10
0002f0 8f fd aa b0 10 05 dc b0 5f 84 c6 2e b3 2f ee b0
       -1.2441194e-09 -1.6008546e-09 9.0275114e-11 -1.7330336e-09
000300 ac dd 26 2f e4 89 07 b0 21 37 06 31 f5 33 4a 30
       1.5176366e-10 -4.930867e-10 1.9530904e-09 7.356101e-10
000310 12 60 ff b0 6b 6a 5b 2f db 58 4b b0 b6 50 87 30
       -1.8580997e-09 1.9955741e-10 -7.397724e-10 9.845482e-10
000320 5d 35 99 30 d2 49 04 30 d3 9b 89 2f 5e d0 32 30
       1.1147382e-09 4.8126225e-10 2.5030875e-10 6.505213e-10
000330 6a a3 3e 31 f4 4e 55 b0 2f cd 17 2f bc a3 e8 b0
       2.774153e-09 -7.760115e-10 1.3806266e-10 -1.6926758e-09
000340 82 99 d4 b0 20 64 36 31 71 1b 77 30 05 2d cc 30
       -1.546866e-09 2.65414e-09 8.9897073e-10 1.4855749e-09
000350 ee 1b 33 31 e4 19 2d 31 9b bf 3a b1 91 e5 96 30
       2.6063804e-09 2.518953e-09 -2.7175477e-09 1.0979183e-09
000360 07 5a 26 31 82 1a 30 30 48 1a 51 31 7a c9 f4 30
       2.4207354e-09 6.4066097e-10 3.0428442e-09 1.78106e-09
000370 ca 23 af af 3a 20 34 31 bf f1 d0 af 67 9c 28 b1
       -3.1857744e-10 2.6211766e-09 -3.800675e-10 -2.4536122e-09
000380 d2 d8 05 31 05 da 43 b1 a4 cd eb b0 6c b8 3a 30
       1.9477295e-09 -2.8500164e-09 -1.7156947e-09 6.7928485e-10
000390 48 d2 28 b0 bc fa 83 b0 5f e2 11 31 41 ea 98 af
       -6.141687e-10 -9.602767e-10 2.1228954e-09 -2.7815086e-10
0003a0 e5 9c 0f b1 64 5d 3e 31 65 d9 b3 30 2f 6b f2 30
       -2.0898423e-09 2.7701725e-09 1.3085751e-09 1.7638281e-09
0003b0 a0 20 96 2f 4d c4 42 31 73 7a 28 31 74 9a 0d 31
       2.7308023e-10 2.83423e-09 2.4516822e-09 2.0605997e-09
0003c0 8b 1e 84 b0 98 9f 25 b1 6e d1 02 31 fc 2b a0 30
       -9.612945e-10 -2.4101379e-09 1.9036537e-09 1.1654033e-09
0003d0 ec 53 df 2f 55 dc c0 30 3d 97 1d b1 d3 49 46 b0
       4.0623094e-10 1.4032461e-09 -2.2932476e-09 -7.213689e-10
0003e0 b8 7b 12 2e 47 3a a5 30 3a b0 21 31 a1 26 c0 2f
       3.330644e-11 1.2021893e-09 2.3528757e-09 3.4952044e-10
0003f0 e1 d3 0e b1 e6 52 72 30 6e cb 50 b1 ce 85 03 31
       -2.0784159e-09 8.8156893e-10 -3.038362e-09 1.9139068e-09

att_src f4 [1, 1, 15]
000000 7f a4 17 b2 57 07 82 b2 b9 40 cc b1 ec 46 1d 32
       -8.826759e-09 -1.513733e-08 -5.9445395e-09 9.1547285e-09
000010 5e e6 d8 31 ef 93 26 32 a1 bc a7 32 c1 30 31 b2
       6.312617e-09 9.696108e-09 1.9527137e-08 -1.0313841e-08
000020 e7 0d d6 b1 88 42 11 32 76 ae 8d 31 20 a5 a0 b2
       -6.2298002e-09 8.455238e-09 4.123474e-09 -1.8701542e-08
000030 69 7e 1b b2 3b 2e 10 32 b4 2c b7 31
       -9.05093e-09 8.392415e-09 5.331083e-09

att_dst f4 [1, 1, 15]
000000 4a 67 11 32 1b d2 f1 b0 c9 ce ac b1 e4 14 4e 31
       8.463596e-09 -1.7594773e-09 -5.0293676e-09 2.998882e-09
000010 b5 ef c2 b1 85 a0 a4 31 a3 e6 4e b2 73 87 b2 31
       -5.6733946e-09 4.791277e-09 -1.2043219e-08 5.1958806e-09
000020 fa 21 08 b2 18 0e 7c ae b6 f7 f9 b1 53 04 52 32
       -7.923967e-09 -5.7310684e-11 -7.2750153e-09 1.2224592e-08
000030 7e a6 41 b2 f9 94 1d b1 3d 0a 14 b2
       -1.12719345e-08 -2.2931188e-09 -8.617062e-09

bias f4 [15]
000000 e1 f2 86 31 82 32 1f 31 87 2d 53 30 68 5f 2e b1
       3.9275254e-09 2.3166256e-09 7.682605e-10 -2.5374565e-09
000010 a9 1c f4 31 2a c7 40 32 27 c8 b6 31 e4 c1 0a b2
       7.104593e-09 1.1221156e-08 5.319652e-09 -8.076743e-09
000020 2b 0a 36 2f a3 4c 99 b0 80 84 fd b0 d7 0d c1 b0
       1.6556416e-10 -1.1153997e-09 -1.8445832e-09 -1.4046532e-09
000030 3c d6 d4 31 9f da 80 b1 cc 97 22 32
       6.1943677e-09 -3.7501446e-09 9.464156e-09

weight f4 [15, 163]
000000 32 3c 2c b2 a1 f2 64 b2 4e 0e 17 b2 f3 a3 5d b2
       -1.00254045e-08 -1.3326514e-08 -8.792609e-09 -1.2901171e-08
000010 71 f9 18 b2 59 8a 67 b2 b2 15 19 b2 2b 57 70 b2
       -8.904281e-09 -1.3477426e-08 -8.910705e-09 -1.3989658e-08
000020 73 05 5b b2 af 78 16 b2 a3 9d 62 b2 c4 fe 79 b2
       -1.2748717e-08 -8.758589e-09 -1.3190774e-08 -1.4551635e-08
000030 f5 c3 1f b2 9b 3c 76 b2 ef 7c 31 b2 18 93 59 b2
       -9.2995736e-09 -1.4332865e-08 -1.0331163e-08 -1.2664508e-08
000040 0b 30 f7 af 8c 00 3a b2 a5 a3 3a b2 33 f2 1f b2
       -4.4963175e-10 -1.0826749e-08 -1.0863833e-08 -9.310088e-09
000050 b0 44 53 b2 2b 37 fc b1 1f 59 5f b2 ba 48 55 b2
       -1.2297434e-08 -7.340437e-09 -1.3000572e-08 -1.2414768e-08
000060 22 bd 2e 32 bf 8a 0d b0 6a d8 95 b1 fb 84 55 31
       1.0171137e-08 -5.149267e-10 -4.361074e-09 3.107117e-09
000070 26 69 51 b2 71 f1 a9 b1 62 ac 25 b2 a9 6e 51 32
       -1.2189309e-08 -4.945996e-09 -9.643459e-09 1.2190562e-08
000080 b5 3d 5e b2 7e 24 78 b1 4f e3 4a b2 6b 3e 37 b2
       -1.2936131e-08 -3.6109493e-09 -1.18096315e-08 -1.0666194e-08
000090 54 4a 34 b2 e9 e8 0e b2 fb 25 20 b2 4c ae 1c b2
       -1.0494279e-08 -8.3184455e-09 -9.3218615e-09 -9.120026e-09
0000a0 41 c4 0a b2 95 b0 f6 b1 23 92 6e b2 78 e6 5f b2
       -8.07728e-09 -7.1796173e-09 -1.3886651e-08 -1.3032711e-08
0000b0 4c 58 29 b2 cb 82 2a b2 5f 8e 91 b1 1f b5 24 b2
       -9.857171e-09 -9.925041e-09 -4.236241e-09 -9.587239e-09
0000c0 48 bf 10 b2 2f 8a 24 b2 f9 45 11 b2 2a 88 32 b2
       -8.4253955e-09 -9.577476e-09 -8.456021e-09 -1.0391924e-08
0000d0 74 5f 60 b2 84 55 b6 b2 52 02 e5 2d cc fc 41 b2
       -1.306022e-08 -2.1226477e-08 2.6035316e-11 -1.1291558e-08
0000e0 af 82 25 b2 b6 f6 8a b2 57 d4 1a b2 88 5f 03 b2
       -9.633978e-09 -1.6177506e-08 -9.01226e-09 -7.646925e-09
0000f0 5c dd a9 30 07 bc 08 31 94 f7 3a b2 11 0c 3d b1
       1.2359282e-09 1.9897486e-09 -1.0882918e-08 -2.7509979e-09
000100 49 06 85 31 40 c8 4f b2 91 56 05 b2 24 24 57 b2
       3.871524e-09 -1.2094517e-08 -7.761302e-09 -1.25228645e-08
000110 3b df 0a b2 6f cf 1b b0 1c bf b1 30 ff 0f 5f b0
       -8.083414e-09 -5.668345e-10 1.2932762e-09 -8.114966e-10
000120 5c 7a 6b b0 58 de 3f 32 2a bb 0d b1 6c 69 f0 30
       -8.5666385e-10 1.1168218e-08 -2.062459e-09 1.7492261e-09
000130 9c 1f 5f b0 9a 0e d4 b0 9d 8b a7 af 5f d4 15 b2
       -8.1171847e-10 -1.542918e-09 -3.0476324e-10 -8.721229e-09
000140 87 bb 2c b2 72 4b 2b b2 c4 f4 eb b1 2f 60 59 31
       -1.00543565e-08 -9.970664e-09 -6.867227e-09 3.163233e-09
000150 9c 57 0a 32 22 33 04 b2 8e 4c 63 b2 4b d6 57 b1
       8.052577e-09 -7.6950375e-09 -1.32305455e-08 -3.140843e-09
000160 e9 00 0c 31 10 4d d5 af 9f f4 71 b2 87 fd 79 b2
       2.0373199e-09 -3.879923e-10 -1.4083667e-08 -1.4551353e-08
000170 79 53 57 b2 c6 ce 94 b2 35 91 42 b2 a0 78 10 b0
       -1.2533627e-08 -1.7323497e-08 -1.13253025e-08 -5.2558313e-10
000180 f7 68 97 b1 f2 82 a8 2f 59 c9 1b b2 0a 4c 6b 30
       -4.4066115e-09 3.0652064e-10 -9.067969e-09 8.560056e-10
000190 19 62 c4 b1 8d 45 2c b2 e0 d8 92 b2 ce 30 4e b1
       -5.715503e-09 -1.0027532e-08 -1.709526e-08 -3.0004688e-09
0001a0 ff 95 0d 31 47 d6 4a b2 c3 a5 58 b1 2c c1 85 31
       2.0603463e-09 -1.18066685e-08 -3.1526362e-09 3.8927706e-09
0001b0 89 31 9b b1 06 07 b5 b1 99 c2 c2 b1 af 53 0d b2
       -4.516725e-09 -5.268592e-09 -5.6682663e-09 -8.226308e-09
0001c0 9d 6f 90 b0 43 82 5c 30 79 3c ae b0 5d 22 b5 b1
       -1.0509101e-09 8.0220647e-10 -1.2677354e-09 -5.2717e-09
0001d0 e4 38 c0 31 64 cb 1a b1 98 3e 0d 2e fb 64 2d 30
       5.594403e-09 -2.2525564e-09 3.2115283e-11 6.3080535e-10
0001e0 20 e2 17 b1 58 12 c1 b1 46 ce 71 b2 69 4a 52 b2
       -2.210193e-09 -5.6191247e-09 -1.4074947e-08 -1.2240528e-08
0001f0 54 68 60 b1 4c 8e cd b1 dd 7a 1d 30 57 17 76 30
       -3.2655594e-09 -5.9824625e-09 5.7290866e-10 8.9527447e-10
000200 ec 31 08 b2 38 d6 38 b2 f4 b0 58 b1 b2 4b 07 b1
       -7.927593e-09 -1.0758917e-08 -3.1532723e-09 -1.9688113e-09
000210 76 87 1d 31 34 e3 71 b1 0b 61 4f b2 0f d8 23 b2
       2.2923508e-09 -3.5199266e-09 -1.2071051e-08 -9.536975e-09
000220 68 1d 28 32 d9 ea 03 b1 ba 6e 4c b2 0e fc e5 b1
       9.785573e-09 -1.9196504e-09 -1.1899539e-08 -6.6934325e-09
000230 0f 43 66 b2 32 b0 3a b2 4a e5 75 b2 38 2d 3a b2
       -1.3403009e-08 -1.0866687e-08 -1.4313011e-08 -1.08369065e-08
000240 f2 f0 3e b2 e8 73 5d b2 88 25 10 b2 48 d7 4a b2
       -1.111424e-08 -1.2890247e-08 -8.390437e-09 -1.1806897e-08
000250 9c e2 83 b2 02 20 54 b2 e2 ce 36 b2 35 7e 6c b2
       -1.5353457e-08 -1.2347302e-08 -1.0640834e-08 -1.3765704e-08
000260 22 68 82 b2 60 d0 3f b2 fa f6 6e b2 d5 6b 44 b2
       -1.5181346e-08 -1.1165042e-08 -1.3909579e-08 -1.143322e-08
000270 5b ae 57 b2 79 43 48 b2 7e d6 37 b2 d8 f6 8b b2
       -1.2554291e-08 -1.1656874e-08 -1.0700772e-08 -1.6293981e-08
000280 99 2c 50 b2 24 9f 66 b2 65 2b 79 b2 ea d7 28 30
       -1.2117334e-08 -1.3423946e-08 -1.4503574e-08 6.1424876e-10
000290 51 b2 b1 31 c7 a1 93 31 fe 1b a2 2f 58 c4 ee 30
       5.17165e-09 4.296655e-09 2.9487518e-10 1.7372583e-09
0002a0 e9 23 cf 31 15 32 7e 31 fe 45 84 31 fe 8e 09 b2
       6.0285754e-09 3.6990333e-09 3.849663e-09 -8.006962e-09
0002b0 0d 6a 37 b2 7e 61 12 32 b4 82 0b 32 c7 08 ad 31
       -1.0676115e-08 8.520486e-09 8.120583e-09 5.0359605e-09
0002c0 f7 d0 da 31 2e 89 b4 b1 18 91 7a b1 55 11 26 b2
       6.3683916e-09 -5.254285e-09 -3.6462264e-09 -9.666413e-09
0002d0 44 86 31 31 d3 36 c6 30 76 3b 8a 31 8f be 61 31
       2.5833211e-09 1.4421978e-09 4.0230885e-09 3.285013e-09
0002e0 11 fb f2 30 a9 4f 06 b2 b2 75 2a b2 df 80 a1 31
       1.7679175e-09 -7.817939e-09 -9.922063e-09 4.7003677e-09
0002f0 ac f9 49 b1 38 86 16 2f f1 71 69 b0 24 7c c5 b0
       -2.9391272e-09 1.3690105e-10 -8.4926827e-10 -1.4368919e-09
000300 56 2a b2 31 e2 09 a0 b1 ad 05 c8 30 cc 1b f2 b1
       5.185295e-09 -4.6577364e-09 1.4553528e-09 -7.046287e-09
000310 82 14 c5 31 fa a5 b7 31 74 d3 b7 31 55 ca 9f 30
       5.735786e-09 5.3448703e-09 5.3500404e-09 1.1626279e-09
000320 76 a4 39 b2 dd d6 c9 31 75 59 53 30 35 ac b5 30
       -1.0805811e-08 5.874297e-09 7.688848e-10 1.3218427e-09
000330 ce c6 a4 31 c8 fa 52 31 de 66 d3 31 2e 7a 5e 31
       4.7956297e-09 3.0701575e-09 6.152603e-09 3.2374703e-09
000340 02 88 02 31 8b 2f 12 2f 4a 0b 87 31 0a 4a 7d 30
       1.8994801e-09 1.3295513e-10 3.9303005e-09 9.214608e-10
000350 06 e0 76 30 f3 ef 5a 31 7a 40 b5 31 8b cc 0d 31
       8.9812635e-10 3.185957e-09 5.2751234e-09 2.063447e-09
000360 64 8f 75 32 ac 3a 87 b0 26 d8 4b b2 ec 36 8c 31
       1.429348e-08 -9.839218e-10 -1.1865302e-08 4.08078e-09
000370 ac 96 04 32 8f e8 31 b1 8a 5f a7 31 e2 43 c3 2f
       7.71767e-09 -2.5889084e-09 4.871201e-09 3.5518527e-10
000380 2e 65 0b b1 a8 6f 59 b1 9e 4d 2b b2 e4 14 18 32
       -2.0284676e-09 -3.1641125e-09 -9.971158e-09 8.852314e-09
000390 8a e2 ee 31 73 d4 ea 31 14 0b eb 2f c2 d9 b9 31
       6.952466e-09 6.834449e-09 4.2754122e-10 5.408965e-09
0003a0 02 04 61 31 45 20 9c b0 d3 c5 15 b1 15 5a 28 31
       3.2744087e-09 -1.1359665e-09 -2.1794804e-09 2.4498423e-09
0003b0 69 3a dd 30 30 5d 52 2f ea 7e 90 2f b5 10 b2 af
       1.6096467e-09 1.9132496e-10 2.6283625e-10 -3.2389882e-10
0003c0 28 a7 10 b1 e4 34 ae 31 a1 96 0f 32 9d 3f 19 32
       -2.1049775e-09 5.0700795e-09 8.357945e-09 8.920236e-09
0003d0 ad 84 74 31 30 6a 2d b2 2e 53 4a 31 22 f7 36 30
       3.558209e-09 -1.009407e-08 2.944215e-09 6.656241e-10
0003e0 9c 87 10 32 06 0b a7 31 3c 9b 49 b1 06 21 25 b1
       8.412737e-09 4.861593e-09 -2.933759e-09 -2.4029432e-09
0003f0 f0 e5 63 30 6a 76 2e b2 49 9b 04 b2 61 8d 16 b2
       8.290888e-10 -1.0155057e-08 -7.718719e-09 -8.763295e-09

weight f4 [15, 9]
000000 e2 4c 0d 32 f7 23 e2 b1 a9 64 05 b2 72 7f 9b b1
       8.224761e-09 -6.5815544e-09 -7.764506e-09 -4.5255826e-09
000010 5b 74 b1 b1 d0 32 22 31 6b 70 a6 31 51 21 bd 30
       -5.164606e-09 2.3602986e-09 4.8440163e-09 1.3761029e-09
000020 ff 5b c7 30 d5 5c 80 b1 e1 2b f1 31 34 41 a2 b1
       1.4505303e-09 -3.735844e-09 7.0190116e-09 -4.7222333e-09
000030 1d 98 65 30 ae 85 f2 b0 69 d7 ce b0 80 90 b0 31
       8.352588e-10 -1.7645811e-09 -1.5049696e-09 5.138702e-09
000040 70 ae 06 b2 f2 e2 03 32 e0 5d ee b1 fb 14 29 31
       -7.839489e-09 7.676805e-09 -6.937384e-09 2.4604663e-09
000050 e9 3f 0a 32 57 50 8a b1 ac 02 1d 31 a4 9d 94 b1
       8.047189e-09 -4.025462e-09 2.2848026e-09 -4.3252886e-09
000060 74 18 53 b1 82 2a a0 b0 d2 24 04 31 c4 44 4f b1
       -3.0718441e-09 -1.1653614e-09 1.9229458e-09 -3.0161553e-09
000070 b2 87 cf 30 1e 31 d5 b1 22 3d d5 b1 c9 0e 35 b0
       1.5099799e-09 -6.2047e-09 -6.206066e-09 -6.586843e-10
000080 d1 96 32 b0 93 b3 ba b1 1c e5 e2 31 d3 a3 82 af
       -6.4970346e-10 -5.4337277e-09 6.6035124e-09 -2.3763266e-10
000090 3f c9 84 b1 54 eb 9e b1 9b 92 1c b1 68 32 95 b1
       -3.8645847e-09 -4.625159e-09 -2.2784323e-09 -4.3422013e-09
0000a0 98 3b f9 b1 eb 1b bf 30 35 d3 0f b2 26 65 85 31
       -7.253629e-09 1.3905014e-09 -8.371718e-09 3.8823087e-09
0000b0 a4 40 c1 30 ba 17 bf 31 6b 6c d1 31 8f c1 d9 31
       1.406097e-09 5.561529e-09 6.0950263e-09 6.3375363e-09
0000c0 82 90 85 31 91 ca 8a b1 6b 32 d1 31 9e 00 a2 b1
       3.887238e-09 -4.0393577e-09 6.0884324e-09 -4.7148907e-09
0000d0 42 32 7e b0 ac 09 4b 2f 22 85 3e b2 7d cf 23 2f
       -9.247608e-10 1.8466179e-10 -1.10897265e-08 1.4898478e-10
0000e0 4f 74 7e 31 27 2f 02 b2 4a 50 04 32 84 0a 0b 32
       3.7027978e-09 -7.577717e-09 7.701667e-09 8.093256e-09
0000f0 f6 dd 04 b2 84 81 a4 30 39 60 cc b1 5a c7 a3 31
       -7.733879e-09 1.1969381e-09 -5.9481207e-09 4.766588e-09
000100 ae d0 1f 31 da 89 24 b1 ba 07 b9 31 c3 cd 20 b1
       2.3256166e-09 -2.39435e-09 5.385087e-09 -2.3400026e-09
000110 fa 93 9d b1 a3 35 5d 30 10 47 5b b1 a7 3d 0e b1
       -4.5861244e-09 8.0475554e-10 -3.1909089e-09 -2.0698765e-09
000120 8a f0 0f b2 67 37 04 31 e9 ad ab b1 d2 79 13 31
       -8.378388e-09 1.924002e-09 -4.9965263e-09 2.1460562e-09
000130 3b 83 bd 31 9a f5 e6 b0 57 99 90 b1 83 16 9f b1
       5.515543e-09 -1.6804507e-09 -4.2083843e-09 -4.6300683e-09
000140 51 ca d7 2f ef 89 6d 30 b3 7b a7 31 15 ff ef 30
       3.9252027e-10 8.6416113e-10 4.8744027e-09 1.7462037e-09
000150 08 ce c6 b1 d7 af 25 31 a4 91 a1 31 67 8d ab 31
       -5.7859815e-09 2.4110614e-09 4.702274e-09 4.9928306e-09
000160 16 28 2e 31 f8 f2 03 b1 0b 5d 2e b2 88 a9 88 31
       2.5343119e-09 -1.920112e-09 -1.01492885e-08 3.9773944e-09
000170 2b 20 a4 b1 86 aa b5 30 be 11 ec b1 e3 76 7e 30
       -4.7766853e-09 1.3217949e-09 -6.870521e-09 9.257361e-10
000180 e7 a3 e4 30 d5 ed bc 31 5c d0 e4 b1 58 30 0b 32
       1.6635767e-09 5.4985585e-09 -6.659361e-09 8.101857e-09
000190 39 e4 0c b2 75 bf 2f b1 dc e6 68 30 b5 da b8 31
       -8.200964e-09 -2.5574682e-09 8.472918e-10 5.379969e-09
0001a0 59 6e 10 b2 e4 62 bb b1 6f ee 6d b1 b4 a3 1e b0
       -8.406993e-09 -5.453659e-09 -3.4623573e-09 -5.77127e-10
0001b0 15 88 46 b2 8c f7 cd b1 8d d6 f2 31 aa 73 60 30
       -1.1556058e-08 -5.994428e-09 7.0675186e-09 8.1655094e-10
0001c0 af 44 fb b1 8c 42 84 31 95 cc e4 31 27 aa a9 31
       -7.31287e-09 3.849271e-09 6.6589316e-09 4.9378914e-09
0001d0 b5 19 bd 31 54 a8 49 b0 d5 96 10 b2 b9 eb 1b b1
       5.5035465e-09 -7.336258e-10 -8.416198e-09 -2.2689461e-09
0001e0 62 d3 09 32 ec 3c 04 b2 fa 71 c3 30 16 69 7a b1
       8.022512e-09 -7.697263e-09 1.4220511e-09 -3.6439523e-09
0001f0 6c 4e b1 31 09 f1 32 b1 da 46 d5 b1 13 61 c9 b1
       5.1602935e-09 -2.6039422e-09 -6.2071708e-09 -5.860906e-09
000200 30 11 de 30 1d d7 00 32 aa 9e 7f 31 04 da b5 b0
       1.6157511e-09 7.499492e-09 3.7197574e-09 -1.3231447e-09
000210 05 f3 02 b2 07 6b 4c 31 60 d5 10 30
       -7.622252e-09 2.9746745e-09 5.269012e-10

att_src f4 [1, 1, 15]
000000 8a b7 53 2f a9 5c c9 32 3b 17 09 b2 c5 12 06 33
       1.9255544e-10 2.3441617e-08 -7.9797315e-09 3.1216377e-08
000010 c2 50 25 b2 b1 c7 90 b3 31 a3 8d b3 89 1f 3a 34
       -9.622626e-09 -6.741846e-08 -6.5955085e-08 1.7334072e-07
000020 6c e2 f0 b2 2a 16 d3 b1 c5 a7 b4 b2 c4 42 0c b3
       -2.8042642e-08 -6.143428e-09 -2.103105e-08 -3.2657013e-08
000030 b5 1b 25 31 34 3d 81 b2 47 f5 23 b3
       2.402641e-09 -1.5045408e-08 -3.8174473e-08

att_dst f4 [1, 1, 15]
000000 f4 0f c4 31 69 92 17 b1 4b a8 81 b2 fa e5 03 b2
       5.7061644e-09 -2.2056617e-09 -1.5094107e-08 -7.677494e-09
000010 57 3c 2a 32 f0 2a c9 b1 7e 9c ab 31 ad f2 5b 32
       9.909022e-09 -5.8547514e-09 4.994546e-09 1.2802656e-08
000020 46 97 2d 32 0d f6 72 b2 07 b4 32 31 25 77 9d 30
       1.0104321e-08 -1.4142199e-08 2.6004743e-09 1.1457116e-09
000030 72 dd 90 31 4a 2e 36 b2 9a 80 8f b2
       4.216127e-09 -1.0604319e-08 -1.6705872e-08

bias f4 [15]
000000 e1 f2 86 31 82 32 1f 31 87 2d 53 30 68 5f 2e b1
       3.9275254e-09 2.3166256e-09 7.682605e-10 -2.5374565e-09
000010 a9 1c f4 31 2a c7 40 32 27 c8 b6 31 e4 c1 0a b2
       7.104593e-09 1.1221156e-08 5.319652e-09 -8.076743e-09
000020 2b 0a 36 2f a3 4c 99 b0 80 84 fd b0 d7 0d c1 b0
       1.6556416e-10 -1.1153997e-09 -1.8445832e-09 -1.4046532e-09
000030 3c d6 d4 31 9f da 80 b1 cc 97 22 32
       6.1943677e-09 -3.7501446e-09 9.464156e-09

weight f4 [15, 9]
000000 77 97 3c 30 b2 32 25 32 70 df 4f b1 2a 0e 67 b1
       6.8609246e-10 9.615791e-09 -3.0249474e-09 -3.3622976e-09
000010 1d 6a 2f b2 8f 82 29 b2 62 c2 b3 30 5d ae b0 b1
       -1.0210468e-08 -9.86678e-09 1.3079211e-09 -5.142097e-09
000020 09 78 f5 b1 8f 4b 92 b1 b3 2e f0 b0 5b 8b 5a 31
       -7.144085e-09 -4.2577493e-09 -1.7475571e-09 3.180239e-09
000030 74 6d 38 32 19 2c f0 b1 e4 25 a6 b0 f2 c0 74 b1
       1.0735096e-08 -6.9899326e-09 -1.2088859e-09 -3.561635e-09
000040 00 d5 58 b2 ee 02 1c b2 20 ee d4 30 09 f6 e6 31
       -1.2621285e-08 -9.081061e-09 1.5492709e-09 6.721852e-09
000050 6b 47 0f b2 b1 1c e5 b1 87 89 cf 31 34 ce 08 b2
       -8.339934e-09 -6.668039e-09 6.040128e-09 -7.963127e-09
000060 57 89 d8 30 f1 b4 3a b1 cb 24 11 b2 e8 36 a9 b1
       1.5755103e-09 -2.7169416e-09 -8.448477e-09 -4.9247895e-09
000070 0d f9 8d 31 5c 77 6b 31 41 aa 72 b1 d2 cc b7 31
       4.131954e-09 3.4264849e-09 -3.5312413e-09 5.3492863e-09
000080 bb d3 76 31 4e 83 5c b1 6b b7 1c b2 8d a9 6b b2
       3.5918066e-09 -3.2088852e-09 -9.1220995e-09 -1.3717352e-08
000090 a4 d9 8a 31 64 95 c7 31 be e0 19 32 fc 0c 7b 31
       4.0410715e-09 5.808646e-09 8.956873e-09 3.6532688e-09
0000a0 09 47 07 32 ba 22 91 32 b5 cc 48 31 1f 09 41 32
       7.874186e-09 1.6896013e-08 2.9220193e-09 1.12361525e-08
0000b0 f9 d5 8f 31 6d b9 84 32 c9 c0 5a 31 e6 aa a8 32
       4.1861736e-09 1.5451144e-08 3.183276e-09 1.963549e-08
0000c0 04 0b e2 31 bf fa 0e 32 6d 41 9c 32 57 15 4f 31
       6.578718e-09 8.322501e-09 1.8190542e-08 3.0134595e-09
0000d0 8c 3e 84 32 47 d3 9b 31 9b 49 21 32 cb 94 95 31
       1.5395266e-08 4.535113e-09 9.388169e-09 4.3533865e-09
0000e0 38 cb 5a 32 02 17 f3 2e ee 8c 30 32 06 b3 1d 32
       1.2735477e-08 1.10544476e-10 1.0276592e-08 9.179308e-09
0000f0 4a 02 b2 31 96 ea bf 31 39 d8 18 31 8a 43 0c b2
       5.180742e-09 5.585501e-09 2.224182e-09 -8.164429e-09
000100 f7 cb 83 b2 25 cc 74 b2 5a a9 82 b2 d3 fd 94 b2
       -1.534316e-08 -1.4249086e-08 -1.5211004e-08 -1.7344894e-08
000110 26 41 bb b1 96 11 e6 31 a6 6d 0a b2 e2 9b 1f 2f
       -5.449823e-09 6.6958803e-09 -8.057588e-09 1.4516346e-10
000120 e7 7f 0d 32 99 5b 28 af 30 d7 12 b2 c2 4c 99 b1
       8.236362e-09 -1.5312053e-10 -8.5472465e-09 -4.4616124e-09
000130 62 8c 1c 30 73 7c 7a 31 d0 a7 ee 31 81 24 c4 2f
       5.6951965e-10 3.645053e-09 6.9457897e-09 3.567813e-10
000140 0d 98 0e 31 e1 4c 13 30 9d ba 97 b1 8d 1c b9 b1
       2.075015e-09 5.358754e-10 -4.415894e-09 -5.3874545e-09
000150 2d 24 d3 2f 0f d0 c1 31 31 17 07 b2 a6 b8 06 31
       3.840638e-10 5.640693e-09 -7.863307e-09 1.9604527e-09
000160 8d a1 93 b0 be cb a2 b1 ca 51 84 30 e0 e8 0d b2
       -1.0741573e-09 -4.7379833e-09 9.62751e-10 -8.26023e-09
000170 c0 02 b3 31 0e b7 c1 2f 5a 81 c0 b1 53 6c 32 b2
       5.2098983e-09 3.5236564e-10 -5.602641e-09 -1.0385594e-08
000180 92 90 92 b1 e0 35 55 31 61 1c d1 b1 80 20 c5 31
       -4.265595e-09 3.1026204e-09 -6.085927e-09 5.7371494e-09
000190 74 c3 a6 31 ed b6 39 31 64 73 8e 30 63 4f a1 31
       4.8534563e-09 2.7025024e-09 1.0364656e-09 4.694742e-09
0001a0 96 61 8e b1 41 b9 de 2f 6e 37 1e 32 c4 97 9e af
       -4.143838e-09 4.0513196e-10 9.209414e-09 -2.8847869e-10
0001b0 1c b8 26 31 35 f0 85 b1 86 06 ec 31 3c 37 3d 32
       2.4260833e-09 -3.898118e-09 6.8692456e-09 1.1013807e-08
0001c0 48 ad 23 b2 28 e7 84 b1 13 e0 37 31 fe 3c e5 b1
       -9.527248e-09 -3.867985e-09 2.6757376e-09 -6.671711e-09
0001d0 98 b7 33 b2 fd bd f3 b0 4f 89 01 b2 56 47 11 b2
       -1.0460916e-08 -1.7734575e-09 -7.540009e-09 -8.456331e-09
0001e0 e5 79 32 b1 59 b5 5c b2 58 44 a6 b1 00 29 ee 31
       -2.5971698e-09 -1.2846919e-08 -4.8390056e-09 6.931373e-09
0001f0 a8 04 b1 b1 74 c4 8c 30 a9 59 96 32 d5 7f c7 31
       -5.1519073e-09 1.0242176e-09 1.7503071e-08 5.806195e-09
000200 ca f0 99 32 c4 9a 1c 31 6b 58 b9 31 a5 b4 7b 32
       1.7921042e-08 2.2788962e-09 5.3942606e-09 1.4651197e-08
000210 a7 03 0a 32 31 88 f1 31 7a c0 13 32
       8.033488e-09 7.0295063e-09 8.60029e-09

weight f4 [15, 9]
000000 d2 fc bb 31 ac bf 61 b1 ea e4 05 31 4e 3a a3 b1
       5.4711586e-09 -3.2850762e-09 1.948417e-09 -4.750553e-09
000010 2e 0a ec b1 0e 1b a1 b1 42 70 ae b1 fb 8c 05 b2
       -6.8696613e-09 -4.6887925e-09 -5.0768287e-09 -7.773674e-09
000020 cf d2 aa b1 9f 29 86 b1 ec dd 06 32 d3 c4 b5 b1
       -4.9716173e-09 -3.904645e-09 7.850286e-09 -5.2901696e-09
000030 f3 2d 89 b0 93 d1 f8 b1 79 4b ea af d9 4a f4 31
       -9.981121e-10 -7.241576e-09 -4.2617979e-10 7.109844e-09
000040 52 ec 90 b1 fb b8 81 31 01 e3 74 32 07 a3 50 31
       -4.217818e-09 3.775424e-09 1.4254284e-08 3.0360654e-09
000050 3a 7c 74 b1 cd cc bd b0 a7 a8 e7 b1 2c 0d 2f 31
       -3.5577288e-09 -1.3809768e-09 -6.7421584e-09 2.547334e-09
000060 9d 34 0f 31 3f cd d2 b1 b9 89 f9 31 c9 17 f2 31
       2.0839146e-09 -6.135138e-09 7.262511e-09 7.045831e-09
000070 09 6e 05 b2 eb 6b 16 31 c5 3e e7 b1 4d 08 6c 31
       -7.766638e-09 2.1889217e-09 -6.730121e-09 3.4347238e-09
000080 14 22 94 31 2c b7 c4 b0 f4 01 23 b1 9a ed 24 b0
       4.311241e-09 -1.4312938e-09 -2.3720732e-09 -6.0000505e-10
000090 fe 76 43 b2 fd bd f0 30 cf 8c 1e 31 2d f0 a5 31
       -1.137755e-08 1.7516296e-09 2.3072066e-09 4.829437e-09
0000a0 76 6c 5f b1 5d 76 80 b1 29 76 b0 30 91 66 0a b2
       -3.2512424e-09 -3.7387466e-09 1.2839269e-09 -8.055978e-09
0000b0 0d 3e ff b1 99 09 c6 b1 84 72 d2 b1 5c 16 17 b1
       -7.428531e-09 -5.7636496e-09 -6.1248233e-09 -2.1986102e-09
0000c0 ca f6 dd 31 db 29 e6 31 01 de 8b 31 5e f1 e9 b0
       6.460003e-09 6.6986394e-09 4.0706714e-09 -1.7021582e-09
0000d0 09 a1 ce b0 75 fa b0 b1 55 82 96 30 73 1b a3 2f
       -1.5034242e-09 -5.150748e-09 1.0950979e-09 2.966903e-10
0000e0 c1 ab 84 31 7e 7d d9 b0 bc e1 2d b1 8c 06 c7 31
       3.861232e-09 -1.5824495e-09 -2.5303128e-09 5.7924066e-09
0000f0 96 6b 25 b0 e0 03 91 b1 93 43 c5 b1 23 5d 32 b2
       -6.017954e-10 -4.220496e-09 -5.741137e-09 -1.03821405e-08
000100 bb d7 a9 b1 5d ac e2 30 ed 65 5e b1 6d 33 d5 31
       -4.943073e-09 1.6492653e-09 -3.236319e-09 6.2049623e-09
000110 0a 51 ac b1 c9 10 dd b0 94 4c 0f 32 21 b9 27 b1
       -5.015072e-09 -1.6084637e-09 8.341107e-09 -2.4406932e-09
000120 5e a0 f6 b1 41 5c a4 31 3d cd 58 b1 1f 69 fb 31
       -7.177774e-09 4.7835162e-09 -3.1548801e-09 7.3170123e-09
000130 d5 b6 fc b0 f4 5d ed 31 1e d2 f6 31 20 44 0d 30
       -1.8387377e-09 6.908289e-09 7.18343e-09 5.139231e-10
000140 eb 3a b7 31 87 65 31 32 5b 26 10 af 78 a9 e2 31
       5.332699e-09 1.0325841e-08 -1.311035e-10 6.596732e-09
000150 4e b4 bc 31 90 6a b3 b1 dd 6f 88 b1 2d c0 0e b2
       5.4920184e-09 -5.2217004e-09 -3.9708383e-09 -8.309184e-09
000160 bd f0 a1 b0 de 93 d6 b0 4c d1 88 31 0b 01 8b b0
       -1.1782714e-09 -1.5612576e-09 3.9819152e-09 -1.0113878e-09
000170 5c 67 76 b1 35 3e fa b1 71 8b e7 31 67 93 9f b1
       -3.5856464e-09 -7.2830297e-09 6.7388375e-09 -4.6442667e-09
000180 24 de 5b 30 7c 55 c5 b1 e2 79 12 30 fe 87 97 b1
       7.9987417e-10 -5.743173e-09 5.3287696e-10 -4.410139e-09
000190 27 6e eb b1 5e cc e7 b1 1c 8c 08 b2 1d fe fb 30
       -6.851923e-09 -6.7462187e-09 -7.948099e-09 1.8334877e-09
0001a0 41 7b a6 31 11 f5 97 b1 55 4d cc 30 e5 52 4f b1
       4.845248e-09 -4.4225392e-09 1.4864933e-09 -3.0169585e-09
0001b0 45 90 f0 30 af 74 11 31 43 13 cb b1 3b 67 7d 31
       1.7503302e-09 2.1166604e-09 -5.9102674e-09 3.6875025e-09
0001c0 24 95 dd b1 11 3d 06 b2 68 46 10 32 32 d7 dd 31
       -6.448902e-09 -7.8137115e-09 8.397912e-09 6.4564114e-09
0001d0 46 a0 55 30 5c 07 6a 32 a8 8b 74 b0 af 63 e9 31
       7.771671e-10 1.3622266e-08 -8.8965146e-10 6.792525e-09
0001e0 ee 09 09 b2 02 53 f3 31 bb c4 e3 31 e3 3e b7 b0
       -7.976707e-09 7.0816677e-09 6.628935e-09 -1.3332876e-09
0001f0 19 2f 3b 31 4e 6d 1c b1 6c 7c 32 32 36 48 c4 31
       2.7238853e-09 -2.276312e-09 1.0389254e-08 5.71256e-09
000200 fb 19 c1 31 c3 ba d1 31 b1 52 76 31 09 3e d3 ae
       5.619993e-09 6.103933e-09 3.5844716e-09 -9.606189e-11
000210 20 a2 04 b2 88 67 e4 b1 d3 6a 16 b2
       -7.720274e-09 -6.6474435e-09 -8.755438e-09

att_src f4 [1, 1, 5]
000000 84 9a 12 bf 88 cc 7f 3e 38 29 07 be aa d3 39 bf
       -0.5726702 0.24980366 -0.13199317 -0.725886
000010 40 28 c0 3c
       0.023456693

att_dst f4 [1, 1, 5]
000000 6e de 2e bf 86 30 59 bf 3a f8 0c bf e6 0d 60 bf
       -0.6830815 -0.84839666 -0.55066264 -0.8752121
000010 44 01 23 bf
       -0.63673806

bias f4 [5]
000000 00 00 00 00 00 00 00 00 00 00 00 00 00 00 00 00
       0.0 0.0 0.0 0.0
000010 00 00 00 00
       0.0

weight f4 [5, 20]
000000 a3 b6 89 be 60 a4 a7 3d c4 5b 7f bd 7d e5 87 3d
       -0.26897153 0.08185649 -0.062343374 0.06635568
000010 2d 9a d7 be 96 14 f1 3e 53 af 7f 3d fa ad fa be
       -0.42109814 0.47086018 0.06242306 -0.4896086
000020 0d 24 41 3d 5f 1d ed 3e 2a dd 66 be ea 4f 89 3e
       0.04715352 0.4631147 -0.22545305 0.26818782
000030 98 19 c4 3e 01 69 b4 3c 33 b5 19 3e 8b aa f2 3e
       0.38300776 0.022022726 0.15010528 0.4739574
000040 f2 d5 1f be 3a 24 3d be f4 11 95 3e cd 00 f3 3d
       -0.15608957 -0.1847085 0.2911526 0.11865387
000050 ad 14 17 3e ec bd 7c 3d 3b 89 b1 3e 9d e6 ec be
       0.14753981 0.06170456 0.3467501 -0.46269694
000060 79 a3 bb bc 9f 2e c4 bd 62 0f 26 3d 5a b3 15 3e
       -0.022905098 -0.09579205 0.040542014 0.14619198
000070 53 20 c2 3e db 26 48 3e d8 03 2b be de 48 87 3e
       0.37915286 0.19546072 -0.16700685 0.2642278
000080 5a 54 f0 be c4 8d 13 be 78 17 85 3e 4b fa b6 be
       -0.46939355 -0.14409548 0.25994468 -0.35737833
000090 ee a6 ec 3e 5a cb e5 3e 5d 49 21 be 94 65 28 3e
       0.46221107 0.44881707 -0.15750642 0.16444999
0000a0 77 65 c7 bc 8b e9 63 3e c6 04 e5 be 03 78 ee 3e
       -0.024340374 0.22257058 -0.44730204 0.46575937
0000b0 5c 83 90 be c1 e5 a6 be fc 6f 70 3e 8e 76 c9 3d
       -0.2822522 -0.32597163 0.23480219 0.09837066
0000c0 2a 42 d4 3d 06 a4 3b 3d 41 9e e6 be f8 cf 1d 3e
       0.10364182 0.04581072 -0.45042613 0.15411365
0000d0 89 a6 d6 3d cf d5 cb 3e 95 3e 7d 3e 20 1c 1a bd
       0.10480983 0.3981156 0.24730904 -0.03762448
0000e0 8c 03 78 be 9d 57 be 3e d1 eb d3 3d 48 7b 1f 3e
       -0.24220103 0.3717622 0.10347713 0.15574372
0000f0 28 eb d8 3d ef 0e d2 3e 5a 57 2c 3e 6f 4c f0 be
       0.105917275 0.41027018 0.16830197 -0.46933314
000100 ad 08 80 3e d9 05 2d bd a8 bd c4 be 8c e5 62 3e
       0.2500662 -0.042241905 -0.38425946 0.22157878
000110 42 b3 31 be b8 5d 68 be 22 76 cf be 57 4f d9 3d
       -0.17353538 -0.22692001 -0.40519816 0.10610836
000120 75 dd 99 3e cd 39 5c be 91 0c 69 3d 95 7f 0d be
       0.3005177 -0.21506424 0.05689675 -0.138182
000130 57 0b de 3e c9 e1 d7 bd f6 81 b5 3c 0e 2c e0 bd
       0.43368027 -0.10541112 0.022156697 -0.10945903
000140 52 86 5e be d0 d5 3c 3e 9f c6 e5 3e 0d 6f be be
       -0.21730927 0.18440938 0.44878098 -0.371941
000150 37 c1 e9 3e 07 2b 9e be a2 23 24 3e 2c 36 93 3e
       0.45655224 -0.30892202 0.16029218 0.28752267
000160 b3 50 cb bd a1 a7 cc 3e 63 f1 bd 3e 55 57 a4 bc
       -0.099275015 0.3997164 0.37098226 -0.020061174
000170 b1 f2 2a be 47 d2 d1 3e 0f 2c a3 be 67 d5 13 be
       -0.16694142 0.4098074 -0.31869552 -0.14436875
000180 4a 3d f0 3e 4b 02 a2 3e 5f e0 7a be 37 9b 99 be
       0.4692176 0.31642374 -0.24499653 -0.30001232

weight f4 [5, 20]
000000 c4 1b 0e be dc f2 49 be ce 43 2b be e4 c4 ce bd
       -0.13877779 -0.1972155 -0.16725084 -0.10096148
000010 bf 82 07 3e 20 b9 aa bd 67 60 77 be 3f 2a 97 3e
       0.1323347 -0.08336091 -0.24157868 0.2952442
000020 75 38 5e be 1e 0e ea 3e 30 91 7b 3e bf 09 f2 3e
       -0.21701224 0.45713896 0.24567103 0.4727306
000030 cb 44 b8 3e 95 e4 56 3e 28 d9 89 be c9 d3 c5 be
       0.35989985 0.20985635 -0.2692349 -0.38638142
000040 1f f2 c3 be 8f 80 45 3e e0 d1 c6 be 8a e6 db bc
       -0.3827066 0.19287322 -0.38831997 -0.026843328
000050 0d 30 db 3e 44 90 cb bd a9 40 09 be 27 ae 59 be
       0.42810097 -0.09939626 -0.13403572 -0.2125784
000060 7c 6a 02 3d 5d cd 4b be 08 28 db 3d e7 f2 cc be
       0.031839833 -0.19902559 0.10700995 -0.4002907
000070 43 86 e3 bd 39 fe 88 3e 71 af 18 be 54 31 ca 3d
       -0.11109593 0.26756456 -0.14910676 0.0987269
000080 8c 02 be be e2 87 04 bb 4a 66 f8 be 1f dc f2 be
       -0.37111318 -0.0020222594 -0.4851554 -0.47433564
000090 5f d0 f5 bd ad 5e 8d bd a4 e4 69 3e 9d a4 e4 3e
       -0.12002634 -0.069028236 0.22841126 0.4465684
0000a0 ac 78 d0 be 6f 09 35 3e 93 17 26 be dd cd 4f be
       -0.40717065 0.1767938 -0.1621993 -0.20293374
0000b0 76 ba 94 3e 66 de 4f 3e a4 1f 32 3d 42 3f 42 3e
       0.29048508 0.20299682 0.043487206 0.18969443
0000c0 f3 78 09 bd 60 f3 f5 be 8a 57 e9 be 3f 62 41 be
       -0.03356261 -0.48037243 -0.455746 -0.18885134
0000d0 d1 57 f5 be 92 1b b7 3e c1 31 8c bd cf 8a de be
       -0.4791856 0.35763222 -0.06845427 -0.43465278
0000e0 d5 c4 35 bd 51 e5 88 be f3 24 5d be b9 5b ac 3e
       -0.044377167 -0.26737455 -0.21596126 0.3366373
0000f0 c7 ad 0d 3d 88 2a c0 3e b0 9a d9 be 5c c2 83 3e
       0.034589555 0.3753245 -0.4250083 0.25734222
000100 da 04 26 bd 3f ea b0 be 99 13 09 be 52 ca ad 3e
       -0.04053197 -0.34553716 -0.13386382 0.3394342
000110 33 e4 a4 be f9 e3 14 be c5 ce 21 3e f8 cc c8 3e
       -0.32205352 -0.1454009 0.15801533 0.3921888
000120 6e 77 ea 3d 0b af fd 3d 27 27 96 be e9 75 62 3e
       0.11448561 0.123869024 -0.29326746 0.22115292
000130 1a 5c ff 3c cb d9 36 be e5 b1 c9 3e 19 e4 ba 3e
       0.031171847 -0.17856519 0.39393535 0.3650215
000140 b9 fb 1d 3e b8 97 ac be fc 8e c7 3e 3a c1 8f 3d
       0.15428056 -0.33709502 0.38976276 0.07019277
000150 ed 34 1d be cb b0 3c be 6a 1d 30 be 3f 71 b9 be
       -0.15352221 -0.18426816 -0.1719872 -0.36219212
000160 7b 06 1f be 83 f6 f8 3e 79 6a a6 3e 87 96 73 3e
       -0.15529816 0.48625574 0.32503107 0.2378789
000170 c7 36 92 be 20 fb 60 3e 86 bf af 3d 2d 2a a7 3d
       -0.28557417 0.21970797 0.08581452 0.08162341
000180 49 78 27 3e 07 63 85 be b6 1d ce 3d 0c c5 dd 3d
       0.16354479 -0.26052114 0.10064261 0.10828599

att_src f4 [1, 1, 10]
000000 3a 81 d1 31 80 f3 b6 30 10 a8 c3 31 98 4a 90 b2
       6.097392e-09 1.331145e-09 5.6943534e-09 -1.6797728e-08
000010 71 f1 4a 31 1c b6 c0 ae 7b 0b 80 31 aa f8 54 31
       2.9532112e-09 -8.763498e-11 3.7265955e-09 3.099141e-09
000020 4d 3d 6b b2 53 c2 9e b0
       -1.36927385e-08 -1.1551243e-09

att_dst f4 [1, 1, 10]
000000 79 2c f1 ae e5 c2 a7 b1 fa d6 2b b0 de dc 19 b2
       -1.0967311e-10 -4.8824966e-09 -6.251494e-10 -8.9559915e-09
000010 90 08 0b b2 ce 3d eb b1 5f 9d 9b b1 14 ea 2a b2
       -8.092812e-09 -6.8464265e-09 -4.5289847e-09 -9.948526e-09
000020 5e 96 2f 32 f6 fa 34 b1
       1.022053e-08 -2.6336102e-09

bias f4 [10]
000000 06 e0 a4 b0 dc be 02 32 ae af 5b b2 6d 43 82 30
       -1.1996242e-09 7.610392e-09 -1.2787423e-08 9.477908e-10
000010 81 4b 95 31 a5 05 d9 2d 47 90 2d b2 c6 34 02 32
       4.3450545e-09 2.467255e-11 -1.010273e-08 7.578995e-09
000020 0f 05 2e 32 ec ce 47 32
       1.0129283e-08 1.1630373e-08
