model/gnn/241004_1p/epoch_1.pt (torch, 199196 bytes, 61 tensors)

att f4 [1, 1, 10]
000000 8d 56 96 3d ab 6d f6 bd dd 1d 04 bd 33 ea ba 3d
       0.07340727 -0.12032636 -0.032255042 0.09126701
000010 98 e3 5f 3d 94 5d b5 bd d5 0c 82 3e 5f 72 47 3e
       0.05466041 -0.08855739 0.25400415 0.19477223
000020 62 33 4e be 36 64 d8 bc
       -0.20136788 -0.026414972

bias f4 [10]
000000 67 6d fc bd 8a 60 0a be 21 f3 2b be 1c 4f 09 be
       -0.12325554 -0.13513389 -0.16791965 -0.13409084
000010 c0 b7 91 be 70 3d 02 be 64 fc b6 bd dc 60 c6 bd
       -0.28460503 -0.12718749 -0.089348584 -0.09686443
000020 66 73 f7 bd 45 db 48 3e
       -0.120825574 0.19614895

weight f4 [10, 163]
000000 2b 4c 37 be c2 aa 38 be 06 77 a6 bd ae 2d cc bd
       -0.1790015 -0.18033889 -0.08128171 -0.0996965
000010 0f 88 bc bd 29 01 29 be 87 83 d0 bd 78 4f 4c be
       -0.092056386 -0.16504349 -0.10181337 -0.1995219
000020 b1 d6 33 be 06 79 67 bd 18 d6 39 be bd 65 0a 3e
       -0.17562367 -0.0565119 -0.18148077 0.13515373
000030 33 64 47 3e 65 7f fb bd 7b a8 b3 3d 96 73 8f 3d
       0.19471817 -0.12280158 0.087723695 0.07004468
000040 f5 04 49 be d2 f7 45 be e6 20 00 3e 75 f6 a8 bd
       -0.19630797 -0.19332817 0.1251255 -0.08250133
000050 1d 69 18 3e a1 a0 bf bd 1d 7d 2b be 83 c5 63 3e
       0.14883848 -0.093568094 -0.16746946 0.22243313
000060 00 78 08 3e 33 05 73 bc 21 4e 37 be b9 98 32 bb
       0.13327026 -0.014832783 -0.17900898 -0.0027251674
000070 89 f9 a8 bd d0 da c4 3d 47 c6 df bd 2a f4 ab bd
       -0.0825072 0.09612048 -0.1092649 -0.0839618
000080 ac 7c 53 3e 9c d4 ca 3c c5 58 53 be dc 2d dc bd
       0.20653027 0.024759583 -0.20639332 -0.107509345
000090 f1 48 84 3d fc 4a 46 3e c5 3b 1c 3e f3 fc 2c 3e
       0.06459225 0.19364542 0.15257175 0.16893367
0000a0 95 11 8d 3d e4 7a f5 3d 6c c8 da bd 44 52 11 be
       0.06888119 0.1198633 -0.10682759 -0.14191538
0000b0 01 11 2c 3e f1 1b 2e 3e 93 a6 c9 bd 07 4f 54 3e
       0.16803361 0.17002846 -0.09846225 0.20733272
0000c0 42 b4 e8 bd 49 73 80 bd d1 1b 85 bd 2a 80 46 bd
       -0.113625064 -0.06271989 -0.06499446 -0.04846207
0000d0 1f 6c 40 be 68 9e cf 39 43 30 4b bd 5b 5e 4f be
       -0.18791245 0.0003960014 -0.049606573 -0.20250838
0000e0 e4 27 04 3e bd dc 48 be d8 f9 cb bd c0 97 dd 3d
       0.12905842 -0.19615455 -0.09959763 0.1081996
0000f0 19 55 8e 3d e0 8a a5 3d cb bd 54 be 45 99 ea bc
       0.06949825 0.08083129 -0.20775525 -0.028637538
000100 25 31 4f 3c 20 a3 c8 bd b6 1b 8f bd c6 02 84 3d
       0.012645994 -0.097967386 -0.06987707 0.064458415
000110 42 3e 98 3d 5e 91 17 be 25 ed 44 bd a7 37 18 3c
       0.0743375 -0.14801547 -0.04807772 0.009290612
000120 c4 d7 a6 3d 64 e9 7e bd 30 02 ae 3c 80 f9 5d 3c
       0.08146623 -0.062234297 0.021241277 0.013548255
000130 50 09 08 bc 94 8f a4 bd 76 1e bd 3d 0d 58 04 3e
       -0.0083030015 -0.08035198 0.092343256 0.12924214
000140 72 37 e5 bd 2c 53 7b bd f5 2a 73 3e af a6 37 3d
       -0.11192216 -0.061358616 0.23746856 0.044836696
000150 0a 99 7f 3d 0d d1 17 3e 20 7f 69 bd b1 42 bf bc
       0.06240181 0.1482584 -0.057006 -0.02334723
000160 19 1c 1c bd fd 85 c5 3c 59 f1 c6 bd 3a b7 23 be
       -0.038112734 0.024111742 -0.09714002 -0.15987864
000170 48 16 4d be 3d 0f f4 3d d9 d4 0a 3e 31 07 90 3d
       -0.20028031 0.11916969 0.13557757 0.07032622
000180 eb a8 58 bd 34 ad 33 bd ec 9e c9 3d 57 1e fb 3d
       -0.052895468 -0.04386635 0.09844765 0.12261646
000190 2d 7a 16 bd b3 00 0e be 61 60 98 3d f1 a3 52 3e
       -0.03673761 -0.13867454 0.07440258 0.20570351
0001a0 d3 c2 9c 3c 45 2d a7 3c 61 86 25 3e 53 e4 2b 3d
       0.019135868 0.020407328 0.16164543 0.041965794
0001b0 bc a1 bc 3d 26 62 a2 bd 67 48 95 bc 2c 8a 66 bd
       0.09210536 -0.079288766 -0.018223 -0.056284115
0001c0 7b 7c 01 bd f2 c5 fe bc 0b 5f 0b 3d c4 1a f7 bc
       -0.031612854 -0.031100247 0.034026187 -0.03016413
0001d0 e5 a6 ae bd 50 1e a7 bd 99 d5 31 3d 64 03 82 3c
       -0.08527926 -0.081600785 0.043416593 0.015870757
0001e0 3e f5 62 3d b7 ee 99 3d 92 21 15 3e 9d 8f fb 3d
       0.055409662 0.07516234 0.14563587 0.122832514
0001f0 b1 91 3c be a8 36 8f 3d de 99 3f 3c d3 0c 56 bd
       -0.18414952 0.06992847 0.0116944 -0.052258324
000200 6a 3f a9 3d 9a 08 2d be 3c cf 90 bc bb 97 c2 bb
       0.082640484 -0.16897812 -0.017676942 -0.005938498
000210 8a c3 a5 3d a9 a8 1d be e6 85 d6 bd d9 ca 8e 3d
       0.08093937 -0.1539637 -0.10474758 0.06972284
000220 16 55 37 3d 58 9e 32 bd 04 c1 18 be 73 09 45 be
       0.04475888 -0.04360804 -0.1491738 -0.19241886
000230 55 03 52 bd 2b 2a a3 bd b5 15 32 be b1 54 15 be
       -0.05127271 -0.07967027 -0.17391093 -0.14583088
000240 4e 5b 0c be e0 52 24 be e4 b5 4f be ac ad b3 bd
       -0.13706705 -0.1604724 -0.2028423 -0.0877336
000250 e3 b0 4e be f9 24 27 be 3e c5 15 be 4f c7 4d 3e
       -0.20184664 -0.16322698 -0.14626023 0.20095561
000260 3c 54 79 bd ff ce 9a bd b9 83 81 bd ca 59 a2 bd
       -0.060871348 -0.075590126 -0.06323952 -0.07927282
000270 37 42 e2 bd 3a aa f5 bd 87 84 7f bd e5 d8 08 be
       -0.11047786 -0.11995359 -0.062382247 -0.13363989
000280 ce 07 2d be bc 76 b0 bd d7 12 08 3e e1 16 e7 bd
       -0.16897509 -0.08616397 0.13288437 -0.11283661
000290 f3 93 1a be 35 cd 10 be ac 62 cf bd b0 40 a0 bd
       -0.150955 -0.1414078 -0.10126242 -0.07824838
0002a0 29 1d 62 bd 76 c9 5b bd 16 60 21 be 0e 9b 0c be
       -0.05520359 -0.053658925 -0.1575931 -0.13731024
0002b0 95 a9 14 be 71 9c 90 bd 16 0d da bd fc 45 cc bd
       -0.14517815 -0.07061089 -0.10647027 -0.09974286
0002c0 1e bb 4f be 3e 52 39 be bb d4 15 be 0a 03 01 be
       -0.20286223 -0.18097779 -0.14631931 -0.12598816
0002d0 1c c8 27 be 35 00 5c be 95 2e 0d be 71 27 6c bd
       -0.1638493 -0.21484454 -0.13787301 -0.0576548
0002e0 b1 97 3e be f2 f6 2e be 33 ab 2a be 60 b3 19 be
       -0.18612553 -0.1708639 -0.1666687 -0.15009832
0002f0 89 45 57 bd ca 3d 1c be 5c ab b9 3c e4 30 1e be
       -0.05255655 -0.15257946 0.022664718 -0.15448338
000300 94 1b bc bd 39 22 31 be 3c 94 ab 3d 36 dd db 3d
       -0.091849476 -0.17298211 0.08377883 0.10735552
000310 f8 85 98 3d c7 11 98 bd a1 c0 d4 bd be df f3 bd
       0.074474275 -0.07425266 -0.103883035 -0.1190791
000320 ee 42 95 bd 38 bd 6c bd fd 4e 2b be cc 43 26 be
       -0.072881564 -0.05779764 -0.1672935 -0.162368
000330 d7 2c d7 bd 2f 79 b1 bd d7 c2 15 be 3b b8 17 be
       -0.105065994 -0.08665692 -0.14625107 -0.14816372
000340 5a a6 86 bd 7c 7a d2 bd 4c b1 ed bd d4 58 fb bd
       -0.06574698 -0.10277268 -0.11606082 -0.12272802
000350 14 57 10 be 43 1b f1 bd 75 c6 fb bd 95 33 60 bd
       -0.14095718 -0.11772778 -0.12293712 -0.054736692
000360 08 47 9e 3d 53 4c 32 bd f6 b0 90 bd 49 9f c4 bd
       0.07728392 -0.04352982 -0.070650026 -0.09600694
000370 a6 a8 49 be fd 8c 97 3d f2 44 44 3e d3 7c ac bd
       -0.1969324 0.07399938 0.19166926 -0.08422246
000380 58 56 89 3d 4e e7 de bd f4 6d 00 be 4f b2 a1 bd
       0.06705922 -0.108839616 -0.12541944 -0.07895338
000390 87 f1 25 be 2f e2 f7 bd 72 d6 b3 3c c9 10 ab bc
       -0.16205417 -0.12103688 0.021952841 -0.020882027
0003a0 df f2 20 3e 0c a7 a7 3c 99 e9 1e 3d 7f 8e 35 3d
       0.15717648 0.020465396 0.038796995 0.044325348
0003b0 76 1e f5 bd d8 31 f4 3c 40 b5 90 bc 5e 5b 82 bd
       -0.119687006 0.029808924 -0.017664552 -0.06365083
0003c0 e2 85 3b bd f2 7d 88 bd 97 6a 50 be 10 1e 89 bd
       -0.045781977 -0.06664647 -0.20353161 -0.06695187
0003d0 b6 20 34 be 91 1b 96 bd 99 1b 09 bb 3b 72 2b 3d
       -0.17590603 -0.073294766 -0.002092099 0.041856986
0003e0 c1 af 3c be 69 e3 33 be 2d 48 2a bd 7e 56 ef 3c
       -0.1842642 -0.17567219 -0.04157274 0.029216047
0003f0 ff 38 98 3c b0 ec 0a be af 96 ea bd cc 7c 57 be
       0.018581865 -0.13566852 -0.11454522 -0.210437

bias f4 [10]
000000 54 09 da bd 17 1c 09 be 7b f3 29 be 45 78 1c be
       -0.106463104 -0.13389622 -0.16596787 -0.15280254
000010 0b 46 a3 be 3b 55 e2 bd 17 ee 86 bd 25 f4 d6 bd
       -0.31889376 -0.11051413 -0.06588381 -0.104957856
000020 79 90 e2 bd de e8 4b 3e
       -0.11062712 0.1991305

weight f4 [10, 163]
000000 99 27 96 bd 27 e8 98 3d 51 5e 0b bd e4 a8 3a bc
       -0.073317714 0.074661545 -0.034025494 -0.011392806
000010 c6 35 8b bd 37 6a bd b8 06 57 c7 bc f5 de 0d bc
       -0.06797366 -9.032006e-05 -0.024333488 -0.008659114
000020 83 cc 68 3d 98 b1 86 3d f2 a8 89 3d 31 01 47 3b
       0.056835663 0.06576842 0.06721677 0.00303657
000030 2c 5a 90 bc 80 42 84 bd 38 98 a4 3c 0e 4d 2b bd
       -0.017621122 -0.06457996 0.020092115 -0.041821532
000040 63 f7 18 3d 73 e6 32 bc dd f8 a3 3d f8 3b 3c 3c
       0.0373453 -0.010919201 0.08006451 0.011488907
000050 e2 a9 11 3d 35 d1 01 3d 5b fb 96 bd 61 82 db ba
       0.035562404 0.031693656 -0.07372161 -0.001674723
000060 77 90 6c 3d 5c d8 87 bd de 5c e1 3c d8 f5 22 3c
       0.05775496 -0.06633064 0.027510103 0.009946309
000070 43 87 26 3d 68 6c f9 bb aa a2 a4 3d dc 7d f4 3c
       0.04065634 -0.0076118 0.08038838 0.02984517
000080 bd 92 62 bc de 87 28 bd 1b 27 1a 3d 67 77 05 bd
       -0.01382893 -0.041145198 0.03763495 -0.032584574
000090 c1 cf 9a 3d de 8a 80 3d 48 46 a0 3d 5a a6 86 bd
       0.07559157 0.06276487 0.07825905 -0.06574698
0000a0 0a ce 4f bd b0 e4 42 bd e9 7b 7e bd 0d 92 90 3d
       -0.050733604 -0.047581375 -0.06212989 0.07059107
0000b0 7f e8 6d 3d cb 55 a1 bd 3a 3b 5d bd 4e 3c 51 bd
       0.058083054 -0.07877692 -0.05401156 -0.0510829
0000c0 82 f0 7a bd 94 33 66 bd 24 bf 6b bd 57 2c ff bc
       -0.061264522 -0.056201532 -0.057555333 -0.031149073
0000d0 c8 71 dd bc 82 2c 6f bd 98 1a 2c bd c0 67 a6 3d
       -0.027031794 -0.058392055 -0.04201755 0.081252575
0000e0 25 d9 88 3d 31 c0 86 3c cc 93 22 3d d4 fc 93 bd
       0.06682042 0.016449066 0.03969173 -0.072259575
0000f0 f2 c1 52 bd 0c 5a 8d 3d d8 e3 d2 bc 9b 27 69 3d
       -0.051454492 0.06901941 -0.02574341 0.056922536
000100 44 7f 24 bd ad 3c e2 3c b8 31 95 3c 45 ba 79 3d
       -0.040160432 0.027616823 0.018212184 0.060968656
000110 da 9b e7 3c c4 3c 40 3d aa 61 ff 3c 02 23 70 3d
       0.028272558 0.04693295 0.0311745 0.058627136
000120 ca 9f 14 bd 7f d7 49 3d 7a 82 47 3d f5 f6 89 bd
       -0.0362852 0.04927778 0.048708417 -0.067365564
000130 e5 b3 95 3d 89 4e 37 bd e7 bf 29 bb ef 9d 1a 3d
       0.07309703 -0.04475263 -0.0025901736 0.037748273
000140 1f 45 2b bd fd 03 85 3d 0d 83 e0 3c 3e 8a 56 bc
       -0.041813966 0.06494901 0.02740624 -0.013094483
000150 69 4a 0b 3d 63 4f 1f 3d 3f c8 9b bd 83 28 5c bd
       0.03400651 0.03889407 -0.07606553 -0.053749572
000160 77 c6 ac bc 78 b2 46 3d fa 6a f9 3c 10 2d 6b bd
       -0.02109073 0.048510045 0.030446518 -0.05741602
000170 31 04 00 bd c8 47 1b bd 0b ad 22 3d 2b 04 97 bd
       -0.031253997 -0.037910253 0.039715808 -0.07373842
000180 7d 9e 8f bd a2 fe 22 bd d9 4d 5e bc 43 fd af bc
       -0.07012651 -0.039793618 -0.013568365 -0.02148307
000190 f7 b1 64 3d 13 62 80 3d 60 68 79 3d a0 cb 6e bd
       0.055833783 0.06268706 0.060890555 -0.05829966
0001a0 0f 21 a2 3d 63 b6 1e 3b dc 04 1d 3d 0f 37 45 bd
       0.07916462 0.0024217598 0.038334712 -0.04814821
0001b0 86 ff 6d bd dc 50 96 bd 13 d0 90 3d 99 af 36 bd
       -0.058105014 -0.073396415 0.07070937 -0.044601057
0001c0 8d 0f 87 3d a2 87 bd bc 10 fb 81 3c 08 37 6c 3d
       0.06594763 -0.023135964 0.015866786 0.05766967
0001d0 e9 13 17 bd 81 e5 80 bd da d5 a8 3a de 66 16 3d
       -0.036884222 -0.062937744 0.0012881116 0.036719196
0001e0 60 f0 6b 3d 38 e8 7c 3d 1f 48 fe 3c 42 67 ff 3b
       0.057602286 0.0617449 0.03104025 0.0077942917
0001f0 47 06 4b bd 45 d0 3d 3d 8e 88 85 3c bd d9 30 3d
       -0.049566533 0.0463412 0.016300466 0.0431764
000200 83 a2 71 3d a3 16 1d bc cd 10 95 3d f3 9e a3 3d
       0.058992874 -0.009587917 0.07278595 0.079893015
000210 61 c7 80 bd 10 79 00 bc 7c 39 30 bd ae 51 45 3d
       -0.062880285 -0.007841364 -0.04302357 0.0481736
000220 6d e4 66 bd 79 5a e4 bc 0f 4c db bc cd b2 6e 3d
       -0.056370188 -0.027875172 -0.026769666 0.058275986
000230 31 3d 5c bd 77 2b 41 bd 8b 92 ba 3b 92 28 ab bc
       -0.053769294 -0.047160592 0.005693739 -0.020893369
000240 ca cb 7b bd 6e 88 eb ba ec 8d 02 3c a7 75 ca ba
       -0.061473645 -0.0017969736 0.007968407 -0.001544644
000250 9a b7 c0 3c d0 f0 2b bd 00 96 0b bd 7f e7 11 bd
       0.023525048 -0.041977704 -0.034078598 -0.035621163
000260 44 18 31 3d bd aa 88 bc 39 60 87 bb c1 8b 22 3d
       0.043236032 -0.016682977 -0.0041313437 0.03968406
000270 ea f4 1c 3d 7a d5 17 bd 47 d2 de bc 4f 65 97 bd
       0.038319506 -0.03706882 -0.027199877 -0.0739237
000280 16 6e d2 ba e4 4f e9 3b 78 ae 3a 3a f6 e2 91 3d
       -0.0016054537 0.0071201194 0.0007121335 0.071233675
000290 f9 5a 28 3d f6 be 37 3d 0f 1f 43 bb 49 a4 79 3d
       0.041102383 0.04485985 -0.002977315 0.06094769
0002a0 70 f7 fd bc 64 40 86 bd d4 c1 5f bd 3f e9 40 3d
       -0.031001776 -0.0655525 -0.05462821 0.04709744
0002b0 66 ba 1c 3d e0 a8 56 3d dd e3 9d 3c 3b 28 d4 bc
       0.0382637 0.052407146 0.019273693 -0.02589809
0002c0 fa b5 76 3d c0 d7 5a bd 35 0a a6 3d b9 ac 79 bd
       0.06023214 -0.05342841 0.081074156 -0.060955737
0002d0 6f 00 4b 3d 0e 66 fe bc b1 a3 b8 3c 0a 8a 87 3d
       0.04956096 -0.031054523 0.022538992 0.06618126
0002e0 2d 4a 8c bd d6 44 7b bd df 76 88 3d 19 0f 44 bd
       -0.068500854 -0.061344944 0.06663298 -0.04786596
0002f0 34 b3 44 bc 47 c5 b8 bc 32 b6 37 bd e5 99 ee bb
       -0.012005616 -0.022555007 -0.04485149 -0.0072815293
000300 ef b7 96 bd eb 97 6c bd ec a8 4b 3d 25 d6 9b 3d
       -0.07359301 -0.057762068 0.049721643 0.07609204
000310 62 9f 15 bd 70 0e 98 3d aa 21 8a 3d 6a 0c ea 3b
       -0.036528952 0.07424629 0.06744702 0.007142593
000320 19 ec 9c 3d 65 5a c7 3c 1b 46 fa bc 9e c1 7b bd
       0.076622196 0.024335096 -0.030551007 -0.061463945
000330 6c 50 99 bd 02 b5 79 3d 76 f2 52 3a 50 e5 81 3d
       -0.074860424 0.060963638 0.0008046994 0.06342566
000340 03 60 99 bc 31 f8 2f bd 88 10 0d 3d b7 f8 a1 bd
       -0.01872254 -0.042961303 0.034439594 -0.07908767
000350 46 e4 87 3b cb db 8a 3c 02 96 27 bd a0 36 91 bd
       0.0041470854 0.016950509 -0.040914543 -0.07090497
000360 2b f1 fe bc ca f6 80 ba 66 49 59 3d 56 c8 1e bd
       -0.031120857 -0.0009839174 0.053048514 -0.038765274
000370 02 d5 5f 3c d1 9f cb 3c f9 36 43 bd 26 39 8c 3d
       0.013661625 0.02485648 -0.047659848 0.06846838
000380 20 e2 a5 3d 4c 26 79 3c ab 0a 1f bd e4 af 83 bd
       0.080997705 0.015206885 -0.038828533 -0.06430033
000390 22 3e d1 bb d6 ce 90 bd 8d eb 88 bd 0c b0 51 3d
       -0.0063855806 -0.07070701 -0.06685553 0.051193282
0003a0 8f 23 0f 3d 87 28 23 3c 3a b6 76 3d 5b 39 4e 3d
       0.03494602 0.009958393 0.06023238 0.050347667
0003b0 9b dc 74 bd c5 37 9d bc 4c 74 9b 3c a8 d1 55 3d
       -0.0597807 -0.019191632 0.018976353 0.052201897
0003c0 56 51 99 bd 7e 6f 2a 3d ac 99 4b bc 2a c7 82 bd
       -0.07486217 0.041610233 -0.012426775 -0.06385644
0003d0 b3 3b 68 bc f2 cf 60 3c 7d 62 c3 bb 28 92 39 bd
       -0.01417439 0.013721453 -0.0059626685 -0.0453054
0003e0 19 fb a4 bd 48 b3 9a 3c 3a 1b 82 3c f3 33 00 bd
       -0.080557056 0.018884316 0.015882123 -0.031299543
0003f0 35 ae 84 bd 2c 80 05 bd a0 21 87 3d 17 fd a6 3d
       -0.0647854 -0.032592937 0.0659821 0.08153742

bias f4 [10]
000000 c3 73 94 bc be b1 de bc 0c 0a 47 bc 28 d7 08 bd
       -0.018121606 -0.027184363 -0.012148391 -0.033408314
000010 ac 19 9b bc 51 60 17 3b 93 eb 4e 3b 3e ed 87 bb
       -0.01893314 0.002309818 0.0031573519 -0.0041481545
000020 c3 37 b6 bc 88 89 6d 3c
       -0.022243386 0.014498122

weight f4 [15, 163]
000000 01 4d 17 3d e9 2e f1 3d e3 bd 38 bd f3 a3 e3 3d
       0.03693867 0.117765255 -0.045102965 0.11115255
000010 21 47 1b be c1 d5 ba 3d 93 76 ed 3c f2 10 3f 3c
       -0.15163852 0.091228016 0.028987205 0.011661755
000020 fb 49 09 3e 9f ff 45 3e 38 f8 bb 3d 31 3e de 3d
       0.13407128 0.19335793 0.09178203 0.10851706
000030 e4 83 0e 3e 3a fc 0d 3e 55 56 6e 3e 5c 2a 97 3e
       0.139175 0.13865748 0.2327512 0.29524505
000040 71 f0 1c be a4 03 92 3d 99 86 c2 bd b2 ea d9 bd
       -0.15326096 0.07129601 -0.09498329 -0.10640468
000050 c7 10 07 be df a0 82 3d 4d 7b 16 3e e1 7e 92 3d
       -0.13189994 0.0637834 0.14695473 0.071531065
000060 7d b4 ac bd de e0 e3 bc d2 e8 6a 3d e1 8b 16 3c
       -0.08432863 -0.027817186 0.05735094 0.009188623
000070 b1 ff 22 bd 0f 7a 57 3e 05 50 b4 3d 98 ad 35 3e
       -0.039794628 0.21042655 0.08804325 0.17742002
000080 fc 49 0c 3d 66 41 e1 bb 60 78 98 bc fd e6 7b 3e
       0.034250244 -0.006874251 -0.018612087 0.24599834
000090 2f 8d 6d 3d 11 40 86 3d 0f 08 fb 3a b9 1e e1 bc
       0.05799597 0.065551884 0.0019152182 -0.02748047
0000a0 29 2c 96 3d f3 1b 65 be 0d 3e ca 3d 25 61 01 bd
       0.07332642 -0.22373943 0.098751165 -0.031586785
0000b0 81 44 40 bd c1 df a7 bd eb d0 ef 3d e9 81 54 bd
       -0.04694033 -0.081969745 0.1170977 -0.051881704
0000c0 96 9d bf 3c b3 e6 41 bc a2 41 4f 3c d6 39 95 bd
       0.023390573 -0.011834788 0.012649925 -0.07286422
0000d0 ac 4b 8a bd 51 cd 1e bc 05 cd 10 bc 72 2c 2a 3d
       -0.067527145 -0.009692506 -0.008837943 0.041546293
0000e0 c6 a0 ce 3d 73 24 d3 3d 80 da 4b 3d a4 dd a0 3d
       0.10089259 0.103096865 0.049768925 0.078547746
0000f0 86 c3 d6 3d aa 78 11 bb 1d 09 b9 3d 55 c1 37 3e
       0.10486512 -0.0022197166 0.09034941 0.17944844
000100 b2 fc f6 bc 8f 8c 09 3e c5 39 50 3d 8c 6d d5 3c
       -0.030149791 0.13432525 0.050836343 0.026053213
000110 d4 98 b4 bc ea 20 08 bd 81 ba 43 3c 66 c6 4a 3c
       -0.02204553 -0.033234514 0.011946321 0.012376403
000120 19 20 64 bc d1 8e cc ba 9b f0 d6 bc 44 0c 1c bb
       -0.013923668 -0.0015606527 -0.026237777 -0.0023811022
000130 2e 63 f5 3c 71 23 0a 3d f2 21 4b bc f4 bd 2f be
       0.02995452 0.033725206 -0.01239823 -0.17162305
000140 f3 a6 09 3e 68 aa a2 3d 67 fe 1e be fb 77 82 bc
       0.13442592 0.07942659 -0.15526734 -0.015926352
000150 74 a2 a2 ba 39 06 02 3d f6 c4 1c 3e d7 bf 09 bd
       -0.0012408034 0.031744216 0.1530951 -0.03363022
000160 5d b0 44 bc 4a d7 c8 3c e0 ff d3 bd 98 e4 b6 3d
       -0.012004939 0.02451672 -0.10351539 0.089303195
000170 28 8d 97 bc 00 f5 85 3c cb a0 7e 3c a0 e6 9e bc
       -0.018499926 0.016352177 0.015541266 -0.01939708
000180 c2 c7 34 3e 6f 96 77 bc 74 29 02 be b2 40 0d 3e
       0.17654327 -0.01511155 -0.12711126 0.1379421
000190 19 5e a9 3d ba 69 cf bb 47 f4 01 3e 7f ae 95 bd
       0.08269901 -0.0063297423 0.1269084 -0.07308673
0001a0 89 9d 09 3d 03 de e9 bc 57 2b e4 bc 5e e6 e6 3c
       0.033597503 -0.028548246 -0.027852697 0.02818602
0001b0 29 f0 75 bc a8 bb 90 3d 93 63 07 3d 21 e4 8d 3c
       -0.015010872 0.070670426 0.033053946 0.017320694
0001c0 90 05 b8 bc 6d 18 e0 3c e6 a6 a7 bc 9b 0a d0 3c
       -0.02246359 0.027355397 -0.020465326 0.025395682
0001d0 1b 15 c3 3c 6a a9 9f ba 8c 90 ad 3c 7e 57 06 3d
       0.023813775 -0.0012181227 0.02118709 0.032798283
0001e0 86 de f8 bc 5c 61 22 bd 68 4f 59 bd 1e e0 a4 3d
       -0.030379545 -0.03964363 -0.053054243 0.080505595
0001f0 9a 16 53 3d 8f 13 14 be 1b 95 87 3a cc 63 1c bd
       0.051535226 -0.14460586 0.001034412 -0.03818111
000200 4a de db 3c de 94 0a 3e 22 dd ef bc 23 8c 66 3c
       0.026839394 0.13533351 -0.029280249 0.014071497
000210 50 ad 09 bc b9 58 74 3d 6f e5 b7 bc ff f2 b6 ba
       -0.008403137 0.059654925 -0.02244827 -0.0013957917
000220 c2 5d ab bc 0f c7 fd 3c fb b4 22 3e 9a 7f 19 3d
       -0.02091873 0.030978708 0.15889351 0.037475206
000230 1f 8d 44 3e 99 04 1d 3e aa 5a 6b 3e a6 ba 34 3e
       0.19194458 0.15333785 0.22983804 0.17649326
000240 f7 23 bb 3d 97 d8 c6 3d fc 92 88 3d 22 2b 19 3e
       0.09137719 0.0970928 0.0666866 0.1495786
000250 e6 8f 39 3e 13 62 6f 3e e9 7d b2 3d 6a e8 27 bd
       0.18121299 0.23377256 0.08715422 -0.04099313
000260 ba 70 cc 3d cd 8f 16 3e 9c 8b 88 bd d3 6a f9 3d
       0.099824384 0.14703293 -0.066672534 0.12178578
000270 44 85 03 3e ea 68 f3 bd 30 ba 60 3d dd 28 9b 3d
       0.12843806 -0.11885245 0.054865062 0.075761534
000280 f7 0d ec 3d f8 3c 9a bd db 96 d2 3d fb 56 9b bd
       0.11526101 -0.0753116 0.1028268 -0.075849496
000290 5b 20 1c bd f3 72 0b 3d e1 2f 8c bd c5 0d a3 3d
       -0.038116794 0.03404517 -0.0684507 0.07961611
0002a0 f2 d4 8a bd 7c 75 cf bc e4 22 02 3c f5 f3 32 be
       -0.06778897 -0.025324576 0.007942889 -0.17475875
0002b0 06 59 11 be b1 3a b2 bd e3 85 63 bd 0e 02 d5 bd
       -0.14194116 -0.08702601 -0.055547606 -0.104007825
0002c0 72 db 9d bd a6 b8 34 be b7 c2 3a be f5 1d 05 3e
       -0.077078715 -0.17648563 -0.1823834 0.12999709
0002d0 cb 3a 87 bd 84 6e 93 3d 3f 1a 1a 3e 97 fa fe 3d
       -0.06603011 0.071988136 0.15049075 0.1245014
0002e0 75 19 04 be f5 61 07 be 94 d3 92 bd d7 e6 3d 3d
       -0.12900336 -0.13220961 -0.071692616 0.046362724
0002f0 3e 07 a4 3c 43 f4 80 bd e7 dc c1 bc 55 9e 6a 3d
       0.020022985 -0.06296589 -0.023664905 0.057279903
000300 84 24 e1 bd a6 56 87 bd ab 33 37 be de 96 73 bc
       -0.10993293 -0.06608324 -0.17890804 -0.0148675125
000310 dd ad 5f bc f6 0e 83 3c d1 37 3e be 34 6a 40 bd
       -0.013652292 0.015998345 -0.1857598 -0.046976283
000320 73 46 53 bd 22 9c b4 3d 1b d6 68 3d 8f a5 a3 bd
       -0.051580857 0.088188425 0.056844812 -0.07990562
000330 f3 d7 56 3e a4 6d 66 bd 64 50 a2 bd 08 af 9b bd
       0.20980816 -0.056256905 -0.079254895 -0.07601744
000340 f4 be 96 bd f4 4b c5 3c ab 2f a6 3d fc 17 47 bd
       -0.0736064 0.024084069 0.08114561 -0.048606858
000350 67 f9 79 bd 9e ce 64 bd a8 d2 f6 3c cd 59 7e 3d
       -0.061028864 -0.055861108 0.030129746 0.06209736
000360 f1 46 02 3d b2 9e 87 bc 76 4c 8c bd e3 66 f9 bd
       0.031805936 -0.016555164 -0.06850521 -0.12177827
000370 6c ec 4b bd 6b 85 ea bc df 10 67 bd 12 7c bf bd
       -0.049786016 -0.028628072 -0.056412574 -0.093498364
000380 b3 ae 0c bd be 8a 0d 3c 13 e6 37 be e1 e4 2c 3c
       -0.034346294 0.008639036 -0.1795886 0.010552616
000390 b9 9a 1a be 5c db a4 bd 19 9a f4 3c cd c9 f0 3b
       -0.15098085 -0.08049652 0.029858636 0.0073482753
0003a0 8b 4b 11 3a f7 57 63 3c 5f a4 ac 3c 1a a2 fc bc
       0.0005542568 0.013875953 0.021074472 -0.030839015
0003b0 27 3b f2 3c 72 38 f2 bc c4 ee df bb 68 cc 0a 3d
       0.029569222 -0.02956793 -0.006833883 0.033886343
0003c0 e0 2c 1f 3b e6 e6 82 3d d1 54 34 3e 4d 84 f3 bd
       0.0024288222 0.06391697 0.1761048 -0.11890469
0003d0 b1 77 0b be 45 f1 2a 3e 72 bb da 3b 06 86 f9 3c
       -0.13619877 0.166936 0.0066751773 0.030459415
0003e0 7d 74 07 bd 4d 90 2a be c2 24 f1 bc d8 b7 1e 3c
       -0.033070076 -0.16656609 -0.029436473 0.009687386
0003f0 83 02 87 bc 4d 85 3d 3e e0 be a6 bd 71 e0 c3 3d
       -0.01648069 0.18507881 -0.08141875 0.09564293

bias f4 [15]
000000 e5 cb 81 3c 6b 77 84 bc c8 32 9f 3c 2e e5 ac 3c
       0.015844295 -0.016170224 0.019433394 0.021105375
000010 9c a2 d5 bc ff 6f 61 3c 96 d9 86 3c 62 0d ad bb
       -0.026078515 0.013759612 0.016461175 -0.0052811364
000020 f1 5d f0 bc 5c c4 09 bd b8 c1 30 bc 97 78 66 bc
       -0.02934167 -0.03363453 -0.010788374 -0.014066837
000030 a9 e9 aa bb 06 9a fd 3c 06 98 ad 3c
       -0.0052158427 0.030957233 0.021190654

weight f4 [15, 9]
000000 22 4b 49 3e 02 1a a1 3d 7a 14 0d bd 4a e4 6b bd
       0.19657567 0.07866289 -0.034443356 -0.05759076
000010 34 f4 22 3e 5f 70 9e bd 58 32 ac 3d 76 e9 ac bb
       0.15913469 -0.07736277 0.0840804 -0.005276854
000020 59 b0 06 be 71 ed bd bc ba ad aa 3d c4 88 09 be
       -0.13153209 -0.02318451 0.08333917 -0.13431078
000030 f5 a4 3c bc 8e c3 04 3e 82 2e 40 3c 21 94 fd 3d
       -0.011513938 0.12965223 0.011729838 0.12381769
000040 e7 56 01 3e 00 56 0d be e8 0f a8 bd 55 b2 21 3d
       0.12630807 -0.13802338 -0.08206159 0.03947671
000050 07 a8 8c bd 82 7d ca 3b 74 4f f4 3d d4 dd 9b bd
       -0.06867986 0.0061795125 0.11929217 -0.0761067
000060 7a 6c ad bd c5 45 d5 bd c5 18 3a bd ab 7a dc bd
       -0.08467956 -0.10413698 -0.04543378 -0.107655846
000070 cb b4 55 bd 4e 80 fc bc c1 cd 04 be c8 98 47 3d
       -0.05217437 -0.0308229 -0.12969114 0.048729688
000080 58 29 69 3d 07 a2 f0 3d de 80 d8 bb 48 3c 00 3d
       0.056924194 0.11749654 -0.006607159 0.03130749
000090 22 c3 1c 3e d2 7c d6 3d 88 cd 94 bd 95 8f bc 3d
       0.15308812 0.10473026 -0.072657645 0.092070736
0000a0 c9 79 11 3e 44 24 f8 bc 5b d5 82 bd 70 32 a1 3d
       0.14206614 -0.03029073 -0.063883506 0.07870948
0000b0 3e 34 e5 3c 58 f6 88 be 22 10 b1 3b 89 82 9c 3d
       0.027979013 -0.26750445 0.0054035345 0.07642085
0000c0 35 62 c8 3d 0a ea 2b 3d 12 9b 49 bd 02 29 29 bb
       0.097843565 0.041971244 -0.049220152 -0.0025811796
0000d0 12 be 73 bb 53 f6 ea 3c 9d bb 76 3d 34 1d a0 3d
       -0.0037192148 0.02868191 0.060237516 0.0781807
0000e0 d3 e0 eb bc 07 b9 33 bd fa b1 0c be c3 85 fa 3d
       -0.028793728 -0.043877628 -0.13739768 0.12232544
0000f0 d7 04 12 be 9c fa 2f bd 8c f0 b6 3c 25 35 51 be
       -0.14259659 -0.04296361 0.022331499 -0.2043043
000100 95 d7 05 bd 1b d2 c5 3d c4 61 04 be 33 c9 c9 bc
       -0.0326763 0.09659215 -0.1292792 -0.024632072
000110 ba 14 1a be 4f 6e 15 3e 3b ec 0f be 31 20 95 3d
       -0.15046969 0.1459286 -0.14054959 0.07281531
000120 0e d7 cd 3d 96 f7 f6 3d 99 33 4f 3c 2f 9d c5 3d
       0.10050784 0.12058942 0.012646579 0.09649121
000130 32 fc 75 bd ec e1 1d be d1 6d e8 3d 20 19 f1 3c
       -0.060054965 -0.15418214 0.11349071 0.029430926
000140 c0 98 12 be 5f 2a f0 3d f1 27 96 3d fc 83 47 3d
       -0.14316082 0.11726832 0.07331837 0.048709854
000150 f3 2d 07 be 38 ed 8e bd 1d 8c 82 bd 41 92 36 3d
       -0.13201122 -0.0697884 -0.06374381 0.044573072
000160 c7 f7 bf bd 7d 69 dc 3d c9 35 05 be 6c 77 ed 3d
       -0.09373432 0.10762308 -0.13008799 0.115950435
000170 99 01 cb 3c f6 c7 73 bd a1 15 b3 3d 69 73 c9 bc
       0.024781035 -0.05951687 0.0874436 -0.024591165
000180 d4 e4 e1 bc 20 a1 11 3e cb 5b cb bb 50 d3 af bd
       -0.027574934 0.1422162 -0.006206011 -0.085852265
000190 69 36 23 be db ee 9f bc c6 ae c1 bd b7 e6 21 b9
       -0.15938725 -0.019523075 -0.094571635 -0.00015440104
0001a0 36 85 58 3d e4 d5 db 3d 66 ff 95 bd 40 46 b5 3d
       0.052861415 0.10734156 -0.07324104 0.0885129
0001b0 39 cd c8 3d 7c d1 d8 bd 87 b2 e3 3d c3 90 a5 bd
       0.09804768 -0.10586831 0.11118036 -0.08084252
0001c0 2c 15 2d bd 7b b7 31 3e 62 1d 0d bd e3 04 7a 3d
       -0.04225652 0.17355148 -0.03445185 0.061039817
0001d0 c1 49 da bd 2e b2 ea 3d a4 3c 0d bd 9a 6c e8 bc
       -0.10658599 0.11459766 -0.03448166 -0.028372098
0001e0 a7 33 35 bd 3e cf cf 3d 2e e2 9d bd 93 aa cb bd
       -0.044238713 0.1014695 -0.07709156 -0.09944644
0001f0 03 47 c9 3d e0 a5 19 bd 69 97 3f be 2d 00 14 bd
       0.098279975 -0.037511706 -0.18710102 -0.03613298
000200 a2 72 bc bc f5 f2 e5 bd 00 80 9e 3d 41 79 b3 3d
       -0.02300388 -0.11227981 0.07739258 0.08763362
000210 ab bd 7d bd 93 21 2d 3c 79 f9 51 bc
       -0.06194846 0.010567087 -0.012815827

bias f4 [15]
000000 2a 72 e7 3d 8f a3 00 be d5 03 aa bd ce aa f3 bd
       0.11301072 -0.12562393 -0.08301512 -0.11897813
000010 b6 0b f7 3d 39 9e 25 be 09 7f 1f be de 5c 41 bd
       0.120627806 -0.16173638 -0.15575804 -0.047207706
000020 ce 87 7a bd 41 6f 03 3d a3 92 b7 ba 5a 7b a8 bd
       -0.06116467 0.032088522 -0.0014005493 -0.082266524
000030 15 29 cf 3b 14 2d a7 3d 71 fb c9 3d
       0.006322036 0.08162895 0.09862412

weight f4 [15, 163]
000000 35 65 78 bd 2d a2 b6 bd 93 50 c4 bd 28 b7 c9 bd
       -0.060643394 -0.08917651 -0.09585681 -0.098493874
000010 6e ef a1 bd b1 f4 58 bd 24 6e 64 bd b6 72 80 bd
       -0.07906996 -0.05296773 -0.0557691 -0.062718794
000020 49 17 ad bd b8 67 7a bd e5 e2 05 be 69 c0 fe bd
       -0.08451707 -0.06113407 -0.13074835 -0.12439043
000030 74 e5 ad bd 5e 07 13 be 6c f4 fe bd 02 00 04 be
       -0.0849103 -0.14358279 -0.124489635 -0.12890628
000040 5f 05 cd bd e0 18 cc bd e5 e3 86 bd d9 70 c8 bd
       -0.1001079 -0.09965682 -0.06586436 -0.09787149
000050 01 a9 73 bd 30 0a b5 bd 35 95 c0 bd e8 41 a5 bd
       -0.059487347 -0.08839834 -0.09403459 -0.08069211
000060 99 1f 04 be e1 a1 52 bc 4b 42 9c bd 64 86 ab bc
       -0.12902679 -0.012855978 -0.07629832 -0.020938106
000070 73 01 a4 bd a7 4b b5 bd 06 ac 8a bd cc f2 d6 bd
       -0.08008089 -0.0885232 -0.06771092 -0.104955286
000080 82 cf 6b 3b e4 07 23 3c 16 66 32 3e 1a 11 b9 bd
       0.0035981839 0.009950612 0.17421755 -0.09036465
000090 fc 63 cd bd 6a ad 88 bd 5d 9e e8 bd 8e df ba bd
       -0.10028836 -0.06673701 -0.113583304 -0.09124671
0000a0 02 2f e6 bd 60 83 a3 bd a1 df b8 bd a7 91 fe bd
       -0.11239435 -0.07984042 -0.09027029 -0.12430125
0000b0 40 3d cb bd db e4 cf bd 19 34 fc bd 74 fc 9a bd
       -0.09923792 -0.101510726 -0.12314624 -0.07567683
0000c0 e6 f1 f5 bd 7f 8c ab bd 54 ef ba bd c1 71 fa bd
       -0.12009029 -0.08376407 -0.091276795 -0.12228728
0000d0 3a dd e6 bd d8 72 08 bd ee a1 cd bb 9d 53 70 bd
       -0.11272664 -0.03331265 -0.006275407 -0.05867349
0000e0 8a 97 bb bd df 7e 07 be 14 0d d7 bd 97 ee 76 bd
       -0.09159763 -0.13231991 -0.10500541 -0.06028613
0000f0 d6 ef de bd 71 36 3e bc 43 ae ef bd 70 b2 51 3b
       -0.10885589 -0.0116096595 -0.1170316 0.0031997226
000100 37 57 97 3c 1e d1 3a 3e e5 d8 35 bd 84 91 b5 bd
       0.018474204 0.18243834 -0.0443963 -0.088656455
000110 01 01 57 bc b1 cb 5a 3c 38 e1 ca bc 44 94 77 bb
       -0.013122798 0.013354228 -0.024765596 -0.0037777582
000120 2f ef 83 3b b6 14 53 bc c7 6f 08 3d 88 d0 6a bc
       0.0040263156 -0.012883356 0.033309724 -0.014331944
000130 c3 85 73 bc 13 cd 1a 3c 7b 25 09 be 9b 04 96 bd
       -0.014863434 0.009448308 -0.13393204 -0.07325097
000140 0f 25 b0 bd c9 f1 f2 bd 9a 77 01 be 74 df 20 3c
       -0.08600818 -0.11862523 -0.1264328 0.0098189
000150 75 80 9a bd 9c b2 02 3e d3 f3 bf bd 63 32 cc 3c
       -0.075440325 0.12763447 -0.09372678 0.02492637
000160 7b 0f 04 bd de 95 21 3c f9 68 4f bd 26 a8 73 bd
       -0.032241326 0.009862391 -0.05063722 -0.05948653
000170 af 19 13 be c3 83 97 bd 0d 5b a3 3c 99 70 c3 3b
       -0.14365266 -0.073981784 0.019940877 0.0059643504
000180 8c 5a 97 bd 29 07 19 bc 8e e6 cf bd 77 40 c6 bd
       -0.07390317 -0.009340086 -0.10151397 -0.096802644
000190 d0 3a 12 be 57 04 fd bd 96 3e 0c 3d e9 eb a9 3d
       -0.14280248 -0.123543434 0.034239374 0.082969494
0001a0 7c 13 0c bd cc b7 f6 bd 5e b5 a2 bd f4 c5 9b bc
       -0.03419827 -0.12046775 -0.07944749 -0.01901529
0001b0 c1 38 3f 3e 00 6f 40 bd 85 e5 d0 bd c7 e8 71 3c
       0.18673994 -0.046980858 -0.102000274 0.014764971
0001c0 71 83 45 bd 88 7f ce 3b 0e c4 66 bb 2f c6 2d bc
       -0.048221055 0.006301824 -0.0035212073 -0.010606333
0001d0 1d 05 b0 3b 55 f9 f9 bc 7a ab 81 3c db 70 c1 3a
       0.0053717033 -0.030514399 0.015828837 0.0014758365
0001e0 f7 f9 b1 bc 78 a2 e8 bd 5a 19 8f bd 23 c6 b4 bd
       -0.021725638 -0.113591135 -0.06987257 -0.08826854
0001f0 0f 9a e8 bd 49 39 9f bd 0a b8 39 3c 52 cd 97 bd
       -0.11357509 -0.07774598 0.011335382 -0.074122086
000200 d6 17 cc 3d 21 56 c4 3c 81 88 b8 bc 0e 10 a4 bc
       0.09965484 0.02396685 -0.022526028 -0.020027187
000210 49 5b fa bb be 0f 10 bd d2 0c b2 bd 30 3f a3 3d
       -0.0076402766 -0.035171263 -0.086938515 0.079710364
000220 cf 41 75 3d 48 fe fb 3c 94 ae f4 bd 59 4a aa bd
       0.059877213 0.0307609 -0.11947361 -0.08314962
000230 3a e6 c3 bd 5f 76 84 bd 75 27 d9 bd 7c 69 f7 bd
       -0.095653966 -0.0646789 -0.10603229 -0.120806664
000240 bc 7f e9 bd 29 3c 71 bd a7 c7 8f bd f9 70 5b bd
       -0.114013165 -0.058895264 -0.070205025 -0.053574536
000250 5e 2f e5 bd ce 32 da bd 94 02 8c bd 50 85 b0 bd
       -0.11190675 -0.106542215 -0.06836429 -0.08619177
000260 13 f5 8b bd fc de d9 bd 80 72 ab bd f2 64 97 bd
       -0.068338536 -0.10638234 -0.083714485 -0.07392301
000270 0e fd b0 bd a3 86 bb bd bf 8d dc bd 47 92 e2 bd
       -0.08642016 -0.09156539 -0.107692234 -0.110630564
000280 48 09 ca bd 30 4f c2 bd 72 f8 49 bd 9e 6d 89 3c
       -0.098650515 -0.0948776 -0.0493092 0.016775902
000290 a2 06 67 3d 0e c2 7e bc 74 27 19 3d a2 a0 3c 3d
       0.05640281 -0.015549196 0.03739114 0.04605163
0002a0 94 d6 eb 3c 59 fb 70 3d 37 54 a3 3c b4 33 7e 3d
       0.028788842 0.058833454 0.019937618 0.062061027
0002b0 d5 e9 1a 3d 4e d3 a7 3d 6e 6a 73 3d d6 8a b2 3d
       0.037820656 0.081946 0.05942767 0.08717887
0002c0 5f af a8 3d bd 71 ed 3d fd ed e0 3d d6 47 e6 3c
       0.082365744 0.115939595 0.10982893 0.028110426
0002d0 46 65 49 3d 12 6d ae 3d 07 ea 1d 3c 2b 8e 9c 3b
       0.049168848 0.08516897 0.009638316 0.00477769
0002e0 63 35 2f 3c a4 d5 1d 3d fb a3 ab 3c b6 ae 6b bc
       0.010693881 0.03853382 0.020952215 -0.014384916
0002f0 db 1e 05 bd a6 28 02 3d a9 e9 bd bb 90 29 05 3c
       -0.03250013 0.031777047 -0.0057956767 0.008127585
000300 4f b2 41 3d bf 57 c9 3c 15 0c 1f bc c0 1a 8b bd
       0.04728919 0.024577973 -0.00970747 -0.067922115
000310 3e 61 af 3c 44 f3 21 bd 46 52 2e 3d 01 0f f1 3a
       0.021408673 -0.039538637 0.04255893 0.0018391312
000320 15 15 00 3d 79 49 2b 3d ea d5 64 3d 6b c6 78 3d
       0.031270105 0.041818116 0.055868067 0.0607361
000330 26 52 58 3d 62 14 18 3d 61 01 e9 3c c5 51 8f bc
       0.052812718 0.037128814 0.02844304 -0.017495045
000340 ed 29 2b bb 97 37 af 3c 41 31 29 3d 28 0d 4a bb
       -0.002611752 0.021388812 0.041306738 -0.0030830596
000350 07 32 57 3d 1d d2 0d 3d 99 80 08 3d f6 b3 58 3d
       0.052537944 0.034624208 0.033325765 0.052906
000360 81 73 ce 3c 4c 74 4c bc e3 6a 46 bc d2 78 e1 bd
       0.02520156 -0.012478899 -0.012110445 -0.11009373
000370 5c a2 f0 3d 28 07 13 3d 0f 17 1c bd ae e3 52 3d
       0.117497176 0.035895497 -0.038107928 0.051486664
000380 f4 12 f8 ba c9 1e 7a 3e 87 75 1f 3e f2 c2 89 bc
       -0.0018926547 0.24425806 0.15572177 -0.01681659
000390 39 b8 5b 3e be ba 5c 3a 30 29 b2 bc 89 da ec 3c
       0.21456994 0.0008420161 -0.021748155 0.0289128
0003a0 67 52 a9 3d b7 fe d0 3c 50 94 c0 3b bb ed 97 ba
       0.0826767 0.025512083 0.005877055 -0.0011591235
0003b0 de 15 28 3d 1e 31 69 3c 85 a6 5b bc 5c 2f 2b 3c
       0.04103648 0.014232902 -0.013406401 0.010448303
0003c0 db 2d ac 3c 36 0f 9f bd 76 2b b7 3d d8 32 cf 3d
       0.02101796 -0.07766573 0.089438364 0.101171196
0003d0 ff 23 5e 3d e8 1a aa 3c 0a ca aa 3c ec 6f 16 be
       0.054233547 0.020764783 0.020848293 -0.14691132
0003e0 3c 0c 22 3e f5 27 90 bc b9 91 d0 bc d6 9a f5 bc
       0.1582498 -0.017597178 -0.025460111 -0.029981058
0003f0 9c 7e c2 bc d9 23 7e 3d 74 1e 65 3d 98 6c 1a bd
       -0.023742013 0.062045906 0.055937245 -0.03770122

bias f4 [15]
000000 fd d7 e3 bd f6 1d b1 3c 4c 1b eb 3d 44 6c 23 3e
       -0.11125181 0.021620732 0.11479816 0.15959269
000010 dc 60 2d be 71 da 52 3e f1 af 48 3e a3 a7 20 3e
       -0.1693148 0.20591141 0.19598366 0.15688948
000020 dc 02 d7 3c 93 36 6d be ce 41 45 be e0 85 18 3d
       0.02624648 -0.2316535 -0.19263384 0.03723705
000030 20 42 55 bd 48 1c 06 3e 90 58 19 be
       -0.052065015 0.13096726 -0.1497519

weight f4 [15, 9]
000000 8a 79 0b bd 48 05 e7 bd fa 09 40 be 4c dc 34 3d
       -0.034051456 -0.11280304 -0.18753806 0.044155404
000010 12 0a 37 be 8e 51 0c be a9 67 51 3d 71 a1 80 3c
       -0.17874935 -0.13702986 0.05112425 0.015701981
000020 1c 24 87 3b 30 be 01 be e2 c0 d2 3d e0 24 0e 3e
       0.0041241776 -0.12670207 0.10290696 0.13881254
000030 52 10 27 3e 8b 2e 18 3e 65 36 16 bd 2e 6f 5c 3d
       0.1631482 0.14861505 -0.03667297 0.053816967
000040 0b 0e 8c bd 36 06 d6 3d 40 b6 e1 3d 46 09 01 3e
       -0.06838616 0.104504034 0.110210896 0.12601194
000050 8f 9b f5 3c 30 03 5e 3e 20 3a 30 3d d4 01 63 bd
       0.029981403 0.21680903 0.043024182 -0.055421665
000060 6e 35 d7 3c e3 6d f6 3c 0a 11 2d 3d 22 b1 26 3d
       0.026270594 0.030081695 0.042252578 0.04069627
000070 d8 44 8e 3e db 2e 45 3e de 1a 8b 3e 6b 7f 65 3e
       0.277869 0.19256155 0.27168936 0.22411887
000080 29 ef 78 3e b6 1a 55 bd 08 1e 25 3e 3e 1e 88 3e
       0.24309982 -0.052027427 0.16124737 0.26585573
000090 aa 2a d8 bd 17 17 80 be d8 5c 98 be 7d 77 90 be
       -0.105550125 -0.25017616 -0.29758334 -0.28216162
0000a0 84 5c 56 be 53 49 21 be 08 4f 2e bc 87 bd ba 3d
       -0.2093373 -0.15750627 -0.01063896 0.09118181
0000b0 48 30 99 be 14 cb 9c 3c 9f 9b 1d 3e ee 23 56 3e
       -0.29919648 0.019139804 0.15391396 0.20912144
0000c0 d9 9f d0 3d b9 38 be 3d 1a 32 04 3e 6d 59 8f bc
       0.101867385 0.09288163 0.12909737 -0.017498696
0000d0 bb 8f 01 3d 8d 0d d1 3d 80 5c e8 3d cc 50 bd 3c
       0.031631213 0.10207663 0.11345768 0.023109816
0000e0 f1 4f cf 3d b0 9a aa 3d 81 c0 01 bd cf 96 2c 3d
       0.101226695 0.083302855 -0.031677727 0.04213601
0000f0 be e1 b4 bc af 07 25 be 7e 0b 0c be 8a 99 65 bd
       -0.022080299 -0.16116212 -0.13676259 -0.05605463
000100 4a c6 f9 3d 03 aa 84 3e 19 33 e7 3c df 53 65 3e
       0.12196024 0.2591096 0.028222607 0.22395276
000110 85 74 86 3d 07 ce d0 bd a5 31 1a 3d 99 8d f8 bc
       0.06565193 -0.101955466 0.037645 -0.030340957
000120 dc a4 91 bd aa 5e 22 3c ac b8 7d 3e 0a 25 7a bc
       -0.071115226 0.009910265 0.24777478 -0.01526762
000130 bf 00 9e 3c 98 8b 77 bd a6 38 4e bc 51 81 0d 3e
       0.019287465 -0.06043586 -0.012586748 0.13818862
000140 e1 c0 f9 3d f3 c6 d6 bd 3f aa a6 be ba 7f 8a be
       0.12194992 -0.10487165 -0.32551762 -0.27050573
000150 0c e1 fa bd bc 16 df bd 1b 8e 08 be b4 37 08 be
       -0.122499555 -0.10893008 -0.13335459 -0.13302499
000160 f1 b9 54 bd 50 2f 63 be 17 c2 20 be 17 f6 8a be
       -0.05193514 -0.22186017 -0.1569904 -0.27140877
000170 5a ee 68 be b5 88 5f be a0 54 c8 bd 07 cb 26 be
       -0.22747174 -0.21829493 -0.09781766 -0.16288386
000180 3f 14 05 bd 42 04 5a bd 26 be 91 be 58 b2 0b 3e
       -0.03249001 -0.053226717 -0.28465384 0.13642251
000190 ae a7 da bd 2c 90 dc bd eb c9 15 3e ce 0a 98 bc
       -0.106765136 -0.10769686 0.14627807 -0.01855984
0001a0 30 e8 cf 3d e9 b8 8d 3d bf 45 08 3d f3 e6 45 3e
       0.10151708 0.069200344 0.03326964 0.19326381
0001b0 ff e2 0b bd dd 95 6a be 98 87 f6 bd 9a 8c a9 bc
       -0.034152027 -0.22908731 -0.12037581 -0.020696927
0001c0 12 e5 16 3d d7 47 07 bd de ac 0a 3e ab a9 fb 3c
       0.036839552 -0.033027496 0.13542506 0.030720552
0001d0 35 e9 97 3a bb b6 66 3e 3d 6e 26 3c 92 7f cd bc
       0.0011589887 0.22530644 0.010158119 -0.025085244
0001e0 8e 74 ae bc 2a 08 7b 3c e2 df 34 bd 21 98 cf 3d
       -0.021295812 0.015321771 -0.044158824 0.10136438
0001f0 7a ac e4 be 95 63 2f 3d 63 c6 6f be 1a ae f0 bd
       -0.4466284 0.04281958 -0.23415522 -0.11751957
000200 49 82 66 be c2 e5 84 be 7b 48 c5 bd ab 7a 17 be
       -0.22510637 -0.2595654 -0.09632965 -0.14792888
000210 5b 8b 00 be d3 80 a4 bd 76 d2 9a be
       -0.1255316 -0.08032384 -0.30238694

bias f4 [15]
000000 b6 8d 44 3d fb f7 08 3e 32 ed 3d 3e 4a ad 58 3e
       0.04798671 0.13375847 0.18547514 0.21159855
000010 be fd e4 bd 32 a5 52 3c 4b 97 08 3e 95 d8 45 3e
       -0.1118121 0.012856768 0.13338964 0.193209
000020 85 3b 39 3e f5 29 eb bd 04 f4 86 be fd 90 b4 3b
       0.18089111 -0.11482612 -0.26358044 0.005510448
000030 04 3c 25 bd 49 28 88 3d 5d dc df bd
       -0.04034044 0.06648309 -0.10930703

weight f4 [15, 9]
000000 f1 2f ed 3d bb 6e e4 3d e1 fe 82 3e e9 ad 75 be
       0.1158141 0.11153933 0.25585082 -0.23992123
000010 9c 6d 88 3e f2 cf 6d 3e 73 11 b1 3d 35 86 f6 3c
       0.26646125 0.23223856 0.08645906 0.030093292
000020 47 73 3b bd ae 9f 36 bc 53 2d 15 be 25 67 1c be
       -0.045764234 -0.011146469 -0.14568071 -0.15273722
000030 db d0 60 3e b9 55 82 be 32 7f 82 be 81 d8 5b bb
       0.21954672 -0.25456026 -0.25487667 -0.0033545794
000040 a2 aa c7 bd 6a e1 7d 3d 6e 82 74 3e 47 28 ee 3d
       -0.097493425 0.06198255 0.2387788 0.11628776
000050 c6 fd 80 3e fc 2f 38 be 82 e2 03 3e 48 36 d5 3b
       0.25193614 -0.17987055 0.12879375 0.006506715
000060 4f e6 b4 3d f2 98 99 3c 0c ab 48 bd 0a fa 04 3e
       0.088329904 0.018749688 -0.048991248 0.12986007
000070 a2 b1 a1 3d 8d 37 c0 3c 21 0c 2b be 41 b1 68 3e
       0.07895209 0.023463989 -0.16703846 0.22723867
000080 56 f2 f1 3d a0 a8 88 bd 62 58 fc 3d a0 82 0e 3d
       0.118138 -0.06672788 0.12321545 0.034792542
000090 c6 9c 3d be 8a 90 d9 bb a0 6c 57 be 43 19 2a 3d
       -0.18516836 -0.006639545 -0.21037531 0.041527998
0000a0 37 76 15 be 3a 52 4e be bc 7d 0e 3e 0f c3 dc bd
       -0.14595877 -0.20148554 0.13915151 -0.10779392
0000b0 8c 27 14 3e 7b 87 7f be bb d1 2f be ef f7 00 be
       0.14468211 -0.24954025 -0.1716985 -0.12594579
0000c0 bd fd 59 3e 7d f9 c2 bd dc 3d 67 be bd d8 51 3d
       0.212882 -0.09520242 -0.22582191 0.05123209
0000d0 39 5b 1e be 6f 8d 44 3e 06 a7 f1 3b 91 b4 89 3e
       -0.15464486 0.19194578 0.007374647 0.26895574
0000e0 27 44 53 3d 9a 1b a5 bd e8 1f 6d bb 9d 4c 7d 3e
       0.051578667 -0.08061905 -0.0036182348 0.24736257
0000f0 d0 26 eb 3d e2 7f 31 3e c7 8b 80 bd fa 14 bf 3d
       0.11482012 0.1733394 -0.062766604 0.09330173
000100 8d a2 78 3e 5f 1b 59 3e 7a 2a 82 bd fd ad a6 3d
       0.24280758 0.21201847 -0.06355758 0.081386544
000110 0f 88 74 bc 4e c0 ab bd 79 de a7 bb c9 07 be bd
       -0.014925017 -0.083862886 -0.0051229564 -0.09278829
000120 f7 3f d0 bd 31 e7 b8 bd ba 59 d5 bc f5 ae 6c 3e
       -0.1016845 -0.09028471 -0.026043762 0.23113616
000130 49 49 05 be 4b 1b 85 be d0 b0 b0 bd 32 c0 3b be
       -0.13016237 -0.25997385 -0.08627474 -0.18335035
000140 f2 6e 99 be a2 c5 5d bd b7 72 4b be 99 13 72 be
       -0.29967457 -0.054143555 -0.19867979 -0.23640288
000150 ef 8a 84 3e 03 10 c6 ba af 77 c1 39 5c de 90 bc
       0.25887248 -0.0015110973 0.00036901 -0.017684154
000160 d8 5d 9e bd 07 b9 db 3d 0f f9 30 3e a1 38 34 3e
       -0.07732743 0.107286505 0.17282508 0.17599727
000170 59 01 df ba dc dd 1f be c1 c9 6e 3e 2d f5 de 3d
       -0.0017013951 -0.15611976 0.2331915 0.10886607
000180 8a 5d 24 bc c4 3f 2f 3e 8f 30 f2 bd e2 04 06 be
       -0.010032067 0.17114168 -0.11825668 -0.130878
000190 6b 7d 9e 3b 5e 36 04 be 4b d7 0e 3e d2 d5 c4 bd
       0.0048367283 -0.12911364 0.13949315 -0.096110955
0001a0 3b fb d0 bd e8 79 9e 3c c6 68 71 be da d2 69 3e
       -0.102041684 0.019345239 -0.23575124 0.2283434
0001b0 e2 58 09 3e 3a fa 62 3e 84 8c 1b 3e b2 ce 15 be
       0.13412812 0.22165766 0.15190321 -0.14629629
0001c0 b0 78 67 3e 87 5c 03 3e ff 42 c9 bd 5e 8a fc 3b
       0.22604632 0.12828265 -0.098272316 0.0077069243
0001d0 ec 50 d2 3c b4 e4 41 be 55 ff 80 be c8 4a 82 be
       0.025673352 -0.189349 -0.25194803 -0.2544768
0001e0 34 44 43 3e 6c 37 57 be 98 cd 1e be 54 aa 4b 3d
       0.19068986 -0.21017236 -0.15508115 0.049722984
0001f0 9d bd ef bd 22 91 b4 bc 3c 51 09 be 72 3e 0b be
       -0.11706088 -0.022041861 -0.13409895 -0.1359804
000200 b6 ea 85 be 1e 99 87 3d d9 f2 c5 bd 02 78 44 bd
       -0.26155633 0.06621002 -0.0966546 -0.04796601
000210 ae b6 bf bd 2d b2 8a be 00 c0 33 ba
       -0.09361015 -0.27089062 -0.00068569183

bias f4 [15]
000000 82 46 85 3e db 01 ef 3a bc ed f6 3d f5 c0 06 3d
       0.26030356 0.0018234806 0.12057063 0.032898862
000010 f9 08 03 be e6 a0 34 be 1d 05 0d 3e 0c 26 e4 3a
       -0.12796392 -0.17639503 0.13771482 0.0017406358
000020 44 f6 17 bd d2 88 d8 bd 8b 3e 47 3e a5 33 f5 bd
       -0.03710009 -0.105729714 0.19457452 -0.11972741
000030 0b fa 04 3d 4a 3a cc bd 5d e5 41 be
       0.032465022 -0.09972055 -0.18935151

weight f4 [15, 9]
000000 e2 58 d4 3d 2f 71 4e 3d e7 64 e1 3d 16 2f c0 3d
       0.103685156 0.05040091 0.11005574 0.09383981
000010 6b 0a 32 bc 71 d2 a4 bc fc de da bd c3 8b b2 3d
       -0.010866742 -0.020119878 -0.10687062 0.08718064
000020 cc 7c c3 3c 23 3c d5 bd b8 93 69 be df fd 33 be
       0.023863219 -0.10411861 -0.22810256 -0.17577313
000030 ca 3f 93 3c 7d 94 08 be 5e b6 23 be e0 ec 8b 3b
       0.017974753 -0.13337894 -0.15987536 0.004270181
000040 53 10 f7 3d 41 7a cf bc c5 d8 40 be 87 c3 69 3c
       0.120636605 -0.02532685 -0.18832691 0.014267809
000050 75 31 89 bd 57 90 ec bc 79 d5 f0 bd 65 80 38 be
       -0.06698886 -0.02887742 -0.11759467 -0.18017729
000060 6e 39 c2 3d 8a f9 20 be f2 83 01 3e 1d b1 26 be
       0.0948361 -0.15720192 0.1264799 -0.16278501
000070 26 9d 1b be 4d b3 36 3c 1f 3f 01 3d c8 cd 8b 3c
       -0.15196666 0.011151147 0.031554338 0.017065898
000080 cd 26 30 bd c2 a2 9c 3d e0 71 7d bd 76 33 1c 3e
       -0.043005753 0.07648231 -0.061876178 0.15254006
000090 fc 85 5c 3e 64 a5 d9 3d 4f 43 d1 3d 35 c0 56 3d
       0.21535486 0.10627249 0.10217916 0.052429397
0000a0 d6 43 68 3e ee 07 bf 3d 4f 39 34 bd f4 13 13 3e
       0.22682127 0.09327684 -0.043999966 0.1436308
0000b0 28 28 2b ba b8 ce 0a 3e a7 13 08 3e f0 70 07 3c
       -0.0006529116 0.1355542 0.13288747 0.0082666725
0000c0 63 b0 45 bc ea 57 b4 3d 12 dc 5d 3e 86 07 02 3e
       -0.01206598 0.08805831 0.21665981 0.12698182
0000d0 6a fd ea 3c c6 19 4f be d2 bd b6 3c df 0c 3e bb
       0.02868529 -0.20224676 0.02230731 -0.002899937
0000e0 24 ed 85 3d b7 e7 7e 3e 92 f6 1c 3d 15 71 33 3e
       0.065393716 0.2489308 0.038321085 0.17523606
0000f0 0f 0d 88 3d f1 76 86 3c 0d 96 8f 3d d9 5b 9d 3d
       0.06643116 0.016414138 0.07011042 0.07683534
000100 4f 3a 25 3e e6 95 38 3e 05 6e 52 3e d8 4c 47 3e
       0.16135524 0.18025932 0.20549782 0.19462907
000110 f1 67 1b 3e 5b 4e d7 3d 04 64 ad 3d 87 5f 31 3c
       0.15176369 0.10512992 0.08466342 0.010825998
000120 b2 bd e2 bd bc d0 6d be c7 9b d9 bd 85 d4 4a bd
       -0.11071338 -0.23224157 -0.10625415 -0.04951908
000130 83 18 7d be 31 1a 99 3c 02 16 fc 3d 6f d5 c2 bc
       -0.24716382 0.018689247 0.12308885 -0.023783414
000140 1d 9c 69 3c 8f 1d 09 bd 82 a0 49 be e6 07 4d bd
       0.014258412 -0.033475455 -0.19690135 -0.05005636
000150 e3 ec 4e bd 05 9e f3 bd ca 2e 37 be 92 9a 65 bd
       -0.05051888 -0.11895374 -0.17888942 -0.056055613
000160 22 d8 de bd d1 f8 b3 3c c1 0a 45 be da d9 48 be
       -0.10881068 0.02196923 -0.19242384 -0.19614354
000170 1b f2 1b bc 4a 09 8e bd ae 71 14 be 5c 37 56 be
       -0.009518172 -0.069353655 -0.1449649 -0.20919555
000180 d7 78 66 bd a0 a8 8a 3d 0b 75 06 3e 03 c1 1b 3e
       -0.056267586 0.06770444 0.13130586 0.15210347
000190 ec b3 d1 3c 65 b0 1b 3d ce ba 0f 3a 1c 89 8d 3c
       0.025598489 0.03801002 0.0005482853 0.017277293
0001a0 83 07 87 3d af a6 a2 3d db 39 b2 3b 73 0a 0f 3e
       0.065932296 0.079419486 0.005439026 0.1396883
0001b0 6d ad 3f be 3f 27 38 be c3 f1 79 be 7a b3 80 be
       -0.187185 -0.17983721 -0.24408631 -0.2513693
0001c0 dd 79 15 3b c9 0c 3a be c0 37 f5 3d 55 c7 e5 3d
       0.0022808232 -0.1816894 0.11973524 0.1121966
0001d0 da a9 0f 3e 78 d6 4c 3e 6e 68 2b 3e 78 ab 61 3e
       0.14029637 0.20003688 0.16739056 0.22038066
0001e0 5d d5 a6 3d 6b 7c 28 3e c0 b3 14 ba ca 1c ef bc
       0.081461646 0.16453712 -0.0005672537 -0.029188532
0001f0 35 1e 23 bd 07 13 b9 bd 44 56 80 3e 7f 2c 50 3e
       -0.03982373 -0.09036832 0.25065815 0.20329474
000200 fd 36 1c 3e ed 42 63 3e 41 b7 f7 3d 21 35 e3 3d
       0.15255351 0.22193499 0.120955 0.11094118
000210 db 1c 25 bc 4d dd 12 3e de f7 f2 3d
       -0.01007768 0.14342232 0.11863683

bias f4 [15]
000000 42 46 48 3e 7c 5a 84 bd 33 0c e4 3b bc e3 5c be
       0.19558051 -0.06462571 0.006959462 -0.21571249
000010 ac 0f aa 3c ea 89 70 3d 82 77 bc 3d 14 29 0c 3e
       0.020759426 0.058725275 0.09202482 0.13687545
000020 87 74 09 be 30 d0 1d be f2 96 8b bd 40 aa 6e 3e
       -0.13423358 -0.15411448 -0.068159 0.23307133
000030 18 02 60 bc eb 01 0b 3e 4d f4 15 3e
       -0.013672374 0.1357495 0.14643975
