model/gnn/241004_1p/epoch_3.pt (torch, 199196 bytes, 61 tensors)

att f4 [1, 1, 10]
00000000: feba 673c fbeb bdbc d4a4 cbbb 110e 903c
00000010: 008d 2c3c 2fc7 8bbc 6b75 483d 88b6 193d
00000020: 2deb 1ebd c0c5 a6bb
0.0141437035 -0.023183813 -0.0062147174 0.017584832 0.010531664 -0.017062752 0.048940104 0.03752759
-0.0387985 -0.0050894916

bias f4 [10]
00000000: 0895 c2bc df4f d5bc 2949 02bd 17ac d3bc
00000010: 83c5 8bbe 96ab c8bc ff06 8dbc edea 98bc
00000020: cf3c b4bc 27a8 5b3e
-0.023752704 -0.026039062 -0.031808052 -0.025838895 -0.27299127 -0.024495881 -0.01721525 -0.018666709
-0.022001652 0.21450864

weight f4 [10, 163]
00000000: e675 0dbd 1119 0dbd 9f75 7ebc 3788 9dbc
00000010: a2b9 91bc 8545 02bd 806c a0bc 907b 1dbd
00000020: 8dbf 0abd 265e 32bc 05b9 0dbd 0570 d33c
00000030: d125 153d ecd2 c0bc 8db3 8c3c 2d8b 5f3c
00000040: c5d4 14bd 61cc 18bd 901a a73c a96f 7ebc
00000050: cdf7 eb3c 39a9 90bc ce88 04bd 8b65 2f3d
00000060: 2e1f ba3c 9e4b 3bbb 33ec 0cbd dea4 09ba
00000070: 56fa 81bc c86d 973c 3e5c adbc f29e 75bc
00000080: 587b 233d 2852 9c3b e5c2 23bd 4b51 aabc
00000090: 8e41 503c 58fd 173d c7d3 f03c c922 063d
000000a0: 3555 643c 0093 bd3c 79e5 a4bc a6c4 debc
000000b0: fa60 053d a48a 063d a892 91bc c8cc 213d
000000c0: 3a4f b3bc 39ee 41bc 3641 45bc 2e6c 24bc
000000d0: c276 14bd f202 a038 cc98 1cbc ab92 20bd
000000e0: 9858 cd3c c952 1bbd 7583 9dbc 6ea7 a23c
000000f0: d386 643c a12a 7f3c 7aee 22bd 4555 00bc
00000100: beae 1f3b f97e b1bc e4c4 5bbc cbf1 4d3c
00000110: c27c 6a3c 691b eebc 59c5 17bc 581a e93a
00000120: 0d60 803c 8190 46bc a51b 863b 7aa0 293b
00000130: 8daf d1ba 3aa7 7dbc 0f31 9e3c d978 cb3c
00000140: ad92 afbc 3513 42bc e271 353d 1c8a 0d3c
00000150: c9d7 3e3c 215d e73c e2c4 35bc 7667 93bb
00000160: 7ea0 f0bb 233b 983b 9980 97bc dafe fcbc
00000170: 384c 1ebd 84da b63c c166 d43c 2001 5e3c
00000180: c6e2 28bc f679 0abc a8c3 943c b076 ca3c
00000190: 2c8c 08bc 60eb dabc e236 4e3c b7fe 2a3d
000001a0: 74a1 713b c04c 233b dfae fe3c 0d7a 043c
000001b0: 613d 7f3c ba16 7abc 5875 5ebb fbd3 31bc
000001c0: 4251 cdbb 725a c4bb 8fd3 d63b a441 bfbb
000001d0: 78af 87bc 40cc 80bc ebb5 083c e866 483b
000001e0: 7cea 2e3c 066f 843c 4716 e63c 50df ca3c
000001f0: 5058 11bd dc4c 583c 9faa 133b 0d74 1fbc
00000200: 5fe7 803c 1f45 06bd 7935 5fbb e0f8 95ba
00000210: 0582 7f3c b097 efbc 496d a2bc 3f1e 893c
00000220: 338e 043c 2c38 0abc d527 ecbc ef36 15bd
00000230: ff11 23bc 0b7b 7dbc c4d0 09bd d006 e7bc
00000240: e15a dabc 362a fdbc e3d9 1fbd 24d2 8cbc
00000250: 9adb 1fbd 726a 02bd 49fb e9bc ee51 233d
00000260: e356 3fbc d581 70bc 120f 48bc 2a31 7ebc
00000270: 0449 b0bc f9f5 edbc 4386 4bbc 92b5 d5bc
00000280: 92ef 07bd 4cde 89bc 249f d03c 4525 b2bc
00000290: baea edbc d714 dfbc e3de 9fbc 1727 77bc
000002a0: 5a4d 2ebc e663 29bc bec2 f8bc 0cd2 d8bc
000002b0: 8317 e5bc 7dbd 5ebc f21e a8bc fb89 9dbc
000002c0: 3912 20bd 529b 0ebd adab e6bc fa0f c5bc
000002d0: c454 01bd e4cb 29bd bc53 d9bc 54af 35bc
000002e0: 2fa8 12bd fbe9 06bd c68a 03bd f3b8 eebc
000002f0: d1e8 25bc f09d f0bc 5218 8f3b f7b8 f3bc
00000300: 0de6 90bc d2c4 09bd f334 8c3c 0dad ab3c
00000310: 5c19 6b3c 7d61 6abc d207 a4bc d2eb bbbc
00000320: c13e 66bc cd6f 36bc c711 04bd 1120 00bd
00000330: 3ce2 a5bc fd83 88bc 4636 e6bc f2ad e9bc
00000340: f887 4fbc 0f9d a1bc 234a b7bc 78b7 c1bc
00000350: be5c debc 95d2 b9bc 0b18 c2bc 60d7 2cbc
00000360: ebf7 733c 006a 09bc 3e99 5fbc 9a7b 97bc
00000370: 669a 1bbd 4f85 673c 8017 163d eabd 80bc
00000380: f0b0 533c bec1 aabc c54d c6bc fe3c 79bc
00000390: e58d 00bd 760e bfbc a1ff 8d3b d0b1 84bb
000003a0: 03e2 f53c 9d35 813b 716b f43b c348 0b3c
000003b0: 67f9 bcbc 4c33 bc3b bfa2 61bb 7cee 48bc
000003c0: 0986 10bc 126b 50bc 15bd 20bd b4b8 52bc
000003d0: ebbb 0abd 10d3 67bc 6c56 d3b9 52a8 f23b
000003e0: 31d8 11bd 7235 08bd 5f3c 03bc 1675 b83b
000003f0: b8a2 6a3b ec18 d6bc 360a b5bc 8e0d 26bd
-0.034536265 -0.034447733 -0.015530973 -0.019229991 -0.017788712 -0.03180458 -0.019582987 -0.038447917
-0.033874083 -0.010886705 -0.034600276 0.025810251 0.036413018 -0.023538075 0.01717546 0.013644022
-0.036335725 -0.037304286 0.020398408 -0.015529552 0.028804684 -0.017658817 -0.03235703 0.04282145
0.022719946 -0.0028579007 -0.034404945 -0.00052507024 -0.01586644 0.018484965 -0.021162149 -0.014991509
0.03991255 0.004770536 -0.039980788 -0.020790717 0.012710942 0.03710684 0.029397858 0.032748017
0.013936331 0.023141384 -0.020128952 -0.027193379 0.032563187 0.03284706 -0.017770126 0.039501935
-0.021888364 -0.011836582 -0.012039473 -0.010035558 -0.03624607 7.629943e-05 -0.009557914 -0.039202373
0.025066659 -0.037920747 -0.019227723 0.019855227 0.01394816 0.015574128 -0.03977821 -0.00783283
0.002436563 -0.02166699 -0.013413642 0.012569855 0.014311971 -0.029065805 -0.00926336 0.001778434
0.0156708 -0.012119413 0.004092651 0.0025883005 -0.0015997753 -0.015481764 0.019310502 0.024837898
-0.021432245 -0.0118454 0.04429806 0.008638885 0.011648127 0.02824265 -0.011094304 -0.0044984175
-0.007343351 0.0046457215 -0.018493937 -0.030883241 -0.038646907 0.022320993 0.025927903 0.013550073
-0.010307973 -0.008451929 0.018159702 0.024714798 -0.008334201 -0.026723564 0.012586327 0.04174682
0.0036869915 0.0024917573 0.031089244 0.00808574 0.015578599 -0.0152642075 -0.0033944454 -0.010853763
-0.00626579 -0.0059922272 0.0065559815 -0.0058366824 -0.016563162 -0.015722394 0.008344154 0.0030578915
0.010676023 0.016166221 0.028086795 0.024764687 -0.035484612 0.013201918 0.0022532118 -0.0097322585
0.015735326 -0.032780763 -0.0034058972 -0.0011441968 0.015594964 -0.029247135 -0.019827502 0.016738055
0.008090544 -0.008436244 -0.028827587 -0.036429342 -0.009953021 -0.01547123 -0.03364636 -0.02820149
-0.026654663 -0.030903917 -0.039026152 -0.017190047 -0.039027788 -0.031839795 -0.028562205 0.039873056
-0.01167843 -0.014679392 -0.012210624 -0.015514651 -0.021519192 -0.029047953 -0.012422147 -0.026087556
-0.033187456 -0.016829632 0.02546651 -0.021746287 -0.02904259 -0.027231617 -0.01951546 -0.015085003
-0.010638559 -0.010338759 -0.030366298 -0.026467346 -0.027965313 -0.013594982 -0.020522568 -0.019230833
-0.03907988 -0.034816094 -0.028158033 -0.02405547 -0.03157498 -0.04145421 -0.026529185 -0.011089165
-0.035804924 -0.032937985 -0.032114767 -0.029140925 -0.010126309 -0.029372185 0.004366913 -0.029751284
-0.017687822 -0.033634968 0.017115092 0.02095654 0.014349308 -0.01430547 -0.02002326 -0.022939596
-0.014053048 -0.011135054 -0.032243516 -0.03128058 -0.020249479 -0.0166645 -0.028102051 -0.028525326
-0.012666695 -0.019728212 -0.022374218 -0.023647055 -0.027143832 -0.022683421 -0.023693105 -0.010549396
0.014890651 -0.008387089 -0.013647376 -0.018491555 -0.037989043 0.014130904 0.036643505 -0.015715558
0.012920603 -0.020844337 -0.024207005 -0.015212296 -0.03138532 -0.023322325 0.004333452 -0.004049517
0.030014997 0.003943159 0.007459097 0.008501234 -0.023068143 0.0057434198 -0.003442928 -0.01226389
-0.008821019 -0.01272084 -0.039242823 -0.0128614195 -0.03387062 -0.014149442 -0.00040309445 0.0074053193
-0.035606567 -0.033254094 -0.008009999 0.005629192 0.0035802554 -0.02613493 -0.022099596 -0.04054027

bias f4 [10]
00000000: d213 a8bc c85b d3bc cfbe 00bd d334 f1bc
00000010: 7027 8fbe 785a aebc 40fb 4fbc 34b1 a5bc
00000020: fd23 a4bc ba3e 5c3e
-0.020517264 -0.0258006 -0.03143197 -0.029444134 -0.27959776 -0.021283373 -0.01269418 -0.020226099
-0.020036692 0.21508303

weight f4 [10, 163]
00000000: 9472 67bc a4b0 6b3c 6ad2 d6bb badb 0fbb
00000010: e893 56bc 5cfb 91b7 7ca1 99bb f3ad daba
00000020: ed6a 333c b39d 4f3c 4a30 543c 545f 193a
00000030: f880 5ebb 5ddd 4bbc 8fb4 7d3b 7a05 04bc
00000040: 21c8 eb3b cce0 09bb 09bf 7c3c 5f12 113b
00000050: 7886 e03b 9619 c83b 1bb9 68bc d72c a9b9
00000060: d151 363c 2564 51bc c9af ad3b b92f fb3a
00000070: cd57 003c f13a c0ba 9dc4 7d3c e66d bc3b
00000080: 979e 2ebb e5e2 01bc 489c ed3b 80b9 cdbb
00000090: 3fa0 6e3c 8322 463c fe0b 773c 6f8c 4fbc
000000a0: a027 20bc 3134 16bc 6121 44bc 27d7 5e3c
000000b0: fb5a 373c 62ae 78bc a780 2abc ec41 21bc
000000c0: 0566 41bc 6a6a 31bc 7cb0 35bc 59a9 c4bb
000000d0: b2aa aabb ac54 38bc e3a3 04bc 8e3f 803c
000000e0: f4ef 523c 45b4 4f3b 8e98 fa3b 7d1b 64bc
000000f0: 3f6e 22bc 19e1 593c 5e88 a2bb 28b1 333c
00000100: 2e8e fdbb 515c ae3b aef7 653b e076 403c
00000110: 2380 b23b 2f28 143c 73d2 c43b a712 393c
00000120: b516 e5bb 288f 1b3c 04c3 193c 83a8 54bc
00000130: 4ac0 663c 2946 0dbc 5ed3 02ba 6c53 ee3b
00000140: 5eff 03bc 9007 4d3c e907 ad3b 8058 25bb
00000150: c3b3 d63b 5d8f f53b 3f1f 70bc edac 29bc
00000160: 4428 85bb a822 193c cc39 c03b df3f 35bc
00000170: e252 c5bb 4359 efbb 92bf fa3b 9dc6 68bc
00000180: b25f 5dbc 3f3d fbbb 4f54 2bbb 6fa2 87bb
00000190: 4a41 303c 98e3 453c db37 403c 040a 38bc
000001a0: 9fe7 793c 8ba3 f439 3b07 f23b 40fe 17bc
000001b0: bb6c 37bc 3cb2 67bc ba36 5f3c b7cb 0cbc
000001c0: 9a2e 503c 0312 92bb 185a 483b df0c 363c
000001d0: e8de e8bb 43ae 46bc 071f 8239 26d4 e73b
000001e0: 74d6 353c 3cea 423c 68f9 c33b c2d6 c43a
000001f0: 8678 1cbc f549 123c f0d3 4d3b 674c 083c
00000200: 3b3a 3a3c bb22 f2ba dcc4 653c 6d34 7c3c
00000210: bf7f 46bc 1a07 c6ba e5d0 07bc c612 183c
00000220: c6f2 31bc cafd afbb 0f03 a9bb e4f6 373c
00000230: dabc 29bc 2be0 14bc 89ca 8f3a 5ae9 83bb
00000240: 1a0f 42bc 5f86 b5b9 6f3c c93a 0e09 9cb9
00000250: e086 943b ad83 04bc 3828 d7bb 6ee5 e0bb
00000260: 977c 083c 5aa8 52bb faaa 50ba 3d8c fa3b
00000270: 9dee f13b 3509 eabb 65ba abbb 5a5c 69bc
00000280: 992d a2b9 21d0 b33a 02e0 0f39 6fde 603c
00000290: 43c0 013c db9c 0d3c 2661 16ba 0366 403c
000002a0: 47bb c3bb 42ef 4ebc 0473 2cbc 17ad 143c
000002b0: 7094 f13b 1a70 253c 0f5f 733b 5582 a3bb
000002c0: c023 3e3c 66a9 28bc f4ee 7f3c 806c 40bc
000002d0: fb73 1c3c 8110 c4bb 214d 8e3b 68eb 503c
000002e0: 043e 58bc fba6 41bc 7358 523c 351a 17bc
000002f0: ac98 17bb 0467 8ebb 0e96 0dbc b3e3 b7ba
00000300: 1f51 68bc 9057 36bc cbf5 1c3c a134 703c
00000310: b9a0 e6bb 0261 6a3c 57ea 543c 7661 b43a
00000320: 1ce1 713c 12a4 993b b2e2 c0bb 3d07 42bc
00000330: 5e51 6cbc e372 403c 9593 2239 8338 483c
00000340: 6269 6cbb 889e 07bc ca6f d93b 91a9 79bc
00000350: 8376 513a 3c09 563b 7a28 01bc d5d4 5fbc
00000360: b37b c4bb e5c8 46b9 5f76 273c 3fbf f4bb
00000370: c381 2c3b cbee 9c3b 9e73 16bc cd23 583c
00000380: 1db1 7f3c e104 403b 7325 f5bb 59fb 4abc
00000390: 4a43 a1ba cd34 5fbc 5d0c 53bc 219b 213c
000003a0: 46a2 dc3b e37d fb3a e623 3e3c b1ef 1e3c
000003b0: e2b6 3cbc bc55 72bb d79d 6f3b 2fca 243c
000003c0: ba52 6cbc b75a 033c 08ea 1cbb aa94 49bc
000003d0: 45fb 32bb 2b43 2d3b 2695 96ba de04 0fbc
000003e0: f24c 7ebc 5174 6e3b 988b 483b 919c c5bb
000003f0: 6c83 4cbc 06c7 cdbb 7a4a 503c 99b2 803c
-0.014126439 0.014385376 -0.006555845 -0.0021951036 -0.013096787 -1.7402395e-05 -0.00468844 -0.0016683921
0.010950786 0.012671876 0.012950966 0.0005850692 -0.0033951383 -0.012442914 0.0038712358 -0.008057946
0.007195488 -0.002103853 0.015426406 0.0022136194 0.0068519674 0.0061065657 -0.014204289 -0.000322676
0.011127905 -0.012780224 0.0053004962 0.0019164003 0.007833433 -0.0014666003 0.015488771 0.0057504056
-0.002664482 -0.007927631 0.007251296 -0.006278217 0.014564573 0.012093189 0.015078543 -0.012667759
-0.009775072 -0.009167717 -0.011970849 0.013601101 0.011191125 -0.015178295 -0.01040665 -0.009842377
-0.0118041085 -0.010828594 -0.01108944 -0.006001633 -0.0052083367 -0.011250656 -0.008095714 0.015655305
0.012874592 0.0031693142 0.0076475805 -0.013922569 -0.00991398 0.013298296 -0.004960104 0.01096753
-0.0077378964 0.0053210636 0.0035090256 0.011747092 0.005447404 0.009042784 0.006006533 0.011295951
-0.0069912323 0.00949458 0.009384874 -0.012979629 0.014083931 -0.0086226845 -0.00049906026 0.0072731283
-0.00805649 0.01251401 0.005280484 -0.0025229752 0.006552191 0.007493897 -0.014655887 -0.01035617
-0.004063638 0.009346642 0.005866265 -0.011062591 -0.0060218433 -0.007304342 0.0076522315 -0.014207509
-0.013511585 -0.007667213 -0.002614278 -0.0041392366 0.010757754 0.012078188 0.011732067 -0.011232857
0.015252977 0.00046661156 0.007386116 -0.0092769265 -0.011195357 -0.0141416155 0.013623888 -0.008593491
0.012706423 -0.0044577136 0.0030571278 0.011111467 -0.0071066506 -0.012126508 0.0002481865 0.0070748506
0.011098493 0.011896666 0.0059806593 0.0015017616 -0.009550219 0.008928766 0.0031406842 0.008318997
0.011366422 -0.0018473485 0.014023986 0.015393359 -0.012115418 -0.0015108318 -0.00828955 0.00928182
-0.010861104 -0.00537083 -0.0051578353 0.011228297 -0.010359967 -0.009086649 0.0010970394 -0.0040256204
-0.011844421 -0.00034623125 0.0015353094 -0.00029761385 0.00453268 -0.008088035 -0.0065660737 -0.0068632877
0.008330486 -0.0032143802 -0.0007960048 0.0076461122 0.0073831812 -0.007142211 -0.005240726 -0.01424321
-0.0003093302 0.0013718643 0.00013720992 0.013724907 0.007919374 0.008643354 -0.0005736522 0.0117430715
-0.005973253 -0.012630286 -0.010525469 0.009074471 0.0073724315 0.010097528 0.0037135517 -0.004989902
0.011605203 -0.010294294 0.015620936 -0.011744618 0.009549136 -0.0059834127 0.0043426906 0.012751438
-0.013198379 -0.011819596 0.012838471 -0.009222557 -0.002313177 -0.0043457765 -0.008641733 -0.0014029652
-0.014179497 -0.011129275 0.009580086 0.014660985 -0.0070382026 0.014305355 0.012995324 0.0013761956
0.014763143 0.004688748 -0.005886399 -0.011842546 -0.014423696 0.011746141 0.00015504503 0.012220505
-0.0036073555 -0.008277543 0.0066356407 -0.015238182 0.0007990377 0.0032659313 -0.0078831855 -0.013661583
-0.0059961914 -0.0001895759 0.010221093 -0.0074690874 0.0026322461 0.0047892085 -0.009182839 0.013192129
0.015606192 0.0029299783 -0.007481271 -0.0123890275 -0.0012303379 -0.0136234285 -0.012881366 0.009863646
0.0067332117 0.0019187297 0.011605239 0.009700702 -0.011518212 -0.0036977371 0.0036562586 0.01005797
-0.01442402 0.008017234 -0.0023943204 -0.012303511 -0.0027310413 0.002643774 -0.0011488541 -0.008729188
-0.015521275 0.0036385248 0.0030600782 -0.006030627 -0.012482505 -0.006279829 0.012713069 0.015710162

bias f4 [10]
00000000: ead2 64bb 4ca1 abbb 2b66 19bb ddec d2bb
00000010: 3112 6fbb 9e54 e939 1679 1f3a 4a84 51ba
00000020: 546f 8cbb cb11 373b
-0.0034915754 -0.005237734 -0.0023406844 -0.0064369277 -0.0036479349 0.00044504268 0.0006083412 -0.000799243
-0.0042857323 0.002793419

weight f4 [15, 163]
00000000: 2606 f73b c420 a53c 5eb5 17bc 655b b93c
00000010: 950b eebc 02b9 833c 955e 863b ad0c 723b
00000020: c9de d53c 4942 193d 4c07 e03c 39fb ed3c
00000030: af14 123d 0191 0c3d d266 433d 745d 823d
00000040: ba0d 1abc 6a13 b23c 4ce7 81bc 0d79 ddbc
00000050: 3c59 c2bc 4759 213c 57bb ec3c 2782 693c
00000060: 3e9f 5bbc 1ea0 afbb 1e9f 89bc 490d e83a
00000070: 7c76 b0bb 4c05 693d abb6 aa3c 6903 0c3d
00000080: 4552 3e3c 969a adba 0eb3 2aba 049f e13c
00000090: d0bc 633c 5172 a63c de0e b53c 451c 8bba
000000a0: 45e9 453c 3c31 4ebd a59b 8f3c 084f 40bc
000000b0: b990 53bc 6df2 d0bb 63d5 113c f271 00bc
000000c0: 69b8 d83b 66cd 07bb 0910 4b3a 019d dabb
000000d0: 12ee 39bc e1c6 f4ba 0532 dfba bc87 033c
000000e0: 6565 b33c 07d4 a83c 36d2 573b c5cc 583c
000000f0: c24f a73c a03a e0b9 b1ee 853c 177c 573d
00000100: 3c5a bebb 1e79 d63c 0396 bc3c 117d a43b
00000110: 8e2f 8bbb 0f03 61bc 05d9 163b 3a47 1c3b
00000120: f555 2fbb fea6 9db9 5da7 a5bb 1988 f0b9
00000130: a71e bd3b 1ded d43b 4f92 e9ba 8c61 f2bc
00000140: 3cab 433d 28dc 153c 3499 06bd 911a 49bb
00000150: 12df a0b9 29cb b63b c693 ef3c 8a53 d4bb
00000160: 7d96 17bb a8c9 9a3b 8040 a2bc 610b 973c
00000170: 5d73 dc3b 1c1d a4bb b869 6f3b ceed 74bb
00000180: a826 0c3d afd0 3ebb 5318 93bc b875 f23c
00000190: c11b 833c 7a64 fbbb 63e0 c83c 8154 5cbc
000001a0: b51e d43b 8b72 b1bb e8f0 a2bb 43f4 b13b
000001b0: 39b3 1dbb 57eb e33c 2bb0 d03b cdb5 5a3b
000001c0: a3e3 3ebc b0b5 ac3b 8135 81bb be93 a03b
000001d0: 7759 963b 0e1a 76b9 13c4 853b f812 cf3b
000001e0: 97cd bfbb 37f4 1cbc 6dcc d2bb f25a 113d
000001f0: 9f3b 5a3b 7677 24bd 6efc 5039 4545 f3bb
00000200: 6d28 973b 6352 5e3c cadc b8bb b6ae 313b
00000210: fb36 d4ba 60d8 db3b 0330 25bb 134f bb3a
00000220: 805f c6bb f295 c33b c47f f83c 1c8a 5a3b
00000230: 79e5 0c3d 1631 f13c c049 343d 6fb4 043d
00000240: 0ee0 8b3c cf15 893c 9ea1 353c 01e5 ec3c
00000250: 3009 0f3d 72cf 6e3d 784e 8f3c 391a 4cbc
00000260: 003e f43a f9d4 e43c f3d3 e9bb e14e c73c
00000270: 1e55 d33c fcf7 0dbd a626 1e3c 7a9b 773c
00000280: deb5 b83c d6a8 3abc 90d5 bb3c 34db 6fbc
00000290: 9c65 e4bb 31b1 d93b 386c 5abc 0d80 783c
000002a0: d8ee 53bc 6422 9fbb 72e1 b83a b10f 0abd
000002b0: 2347 e0bc 6389 93bc b944 3dbc 5130 abbc
000002c0: 4233 81bc 11af 0ebd c4ab 14bd 43d8 bd3c
000002d0: 1e1a 6fbc 0015 5f3c fa32 f63c 3e20 c33c
000002e0: 4e93 c9bc 4a4f d1bc cb53 62bc bf33 0e3c
000002f0: 31d5 7c3b 18fe 06bc e768 95bb 8337 353c
00000300: eeef c7bc 0355 59bc a731 0dbd d8f4 83bb
00000310: a163 2cbb 61eb 2d3b 5a1a 0bbd cb7e 1abc
00000320: b8da 31bc 311e 763c dbfc 2c3c 468d 78bc
00000330: a9c9 273d ca0b 30bc ffc7 6ebc b0d5 63bc
00000340: f76f 7ebc 5485 e83b 6d4f 7c3c fbd3 1fbc
00000350: 303e 43bc ba2e 2dbc 11ba 913b 9dde 403c
00000360: fbce c83b 3e0b 51bb afee 58bc 24c9 c0bc
00000370: 01d2 23bc 45a5 a1bb 9e9c 2dbc 9d01 93bc
00000380: e8d8 d8bb 2a46 013b d1db 11bd bf3f 053b
00000390: 7681 eebc 56df 8dbc af83 bc3b 3393 b93a
000003a0: efe8 903a 9736 2f3b 0b0e 853b 6fc1 c2bb
000003b0: d5af ba3b d0ad babb 9e95 acba 8af1 d53b
000003c0: 155a f539 3aaf 473c e799 083d 04bf cebc
000003d0: 1632 d2bc afc8 043d 9993 a83a acbe c03b
000003e0: f2a4 cdbb 585b 03bd 4fd9 b9bb bda5 f43a
000003f0: 821a 50bb f179 113d 0e63 81bc 5c02 8b3c
0.0075385747 0.020157225 -0.00925955 0.022626588 -0.029058257 0.01607943 0.0041006305 0.0036933825
0.026107209 0.03741673 0.02734723 0.029050456 0.035664257 0.034317974 0.04770548 0.06365481
-0.009402687 0.021737773 -0.015857361 -0.02703526 -0.02372419 0.0098479455 0.028897924 0.014252222
-0.0134046655 -0.0053596636 -0.016799506 0.0017704155 -0.005385218 0.056889817 0.020839056 0.03418294
0.011616294 -0.0013244923 -0.00065116666 0.027541645 0.013899997 0.020318182 0.022101816 -0.0010613283
0.012079542 -0.050339922 0.017530272 -0.0117375925 -0.012912923 -0.0063765557 0.008900973 -0.007839667
0.0066137803 -0.0020721792 0.0007746225 -0.0066715484 -0.011348264 -0.0018674993 -0.0017028457 0.008027967
0.021898935 0.020608915 0.0032931692 0.013232415 0.020423774 -0.00042768288 0.016349168 0.052608576
-0.0058090966 0.0261808 0.02302075 0.005019792 -0.0042476123 -0.013733639 0.0023017537 0.0023846165
-0.0026754115 -0.00030069792 -0.0050553516 -0.00045877768 0.0057714763 0.0064979927 -0.0017820093 -0.02958753
0.047770724 0.009146728 -0.03286095 -0.0030686 -0.00030683778 0.005578418 0.029245269 -0.006479685
-0.002313047 0.0047237463 -0.019806147 0.018438043 0.0067276196 -0.005008353 0.003653152 -0.0037373188
0.034216553 -0.0029116084 -0.017955935 0.029597148 0.016004445 -0.00767189 0.024521058 -0.013447882
0.006473387 -0.005415266 -0.004972566 0.0054307296 -0.0024063124 0.02782218 0.006368657 0.0033372522
-0.0116509525 0.0052706823 -0.0039431457 0.0049004247 0.0045883018 -0.00023470094 0.0040822118 0.0063194
-0.0058533656 -0.00957971 -0.006433061 0.035487123 0.0033299697 -0.04015299 0.00019930463 -0.007424029
0.0046129734 0.013569447 -0.0056415545 0.0027112192 -0.0016190702 0.0067091435 -0.002520562 0.0014290534
-0.006053865 0.0059688026 0.03033436 0.003334648 0.03439853 0.029442351 0.044015646 0.032398637
0.017074611 0.016734032 0.011085896 0.028917791 0.03492087 0.058303304 0.017493472 -0.012457424
0.00186342 0.027933585 -0.007135862 0.024329605 0.025797423 -0.034660324 0.009652769 0.015112752
0.022547659 -0.011392793 0.022928983 -0.014639664 -0.0069701206 0.0066434373 -0.013331465 0.015167248
-0.012935363 -0.0048563946 0.0014105274 -0.03370637 -0.02737767 -0.018009847 -0.011552029 -0.020897062
-0.015771512 -0.034834925 -0.03629662 0.02317441 -0.014593629 0.013615847 0.030053604 0.023819085
-0.024606373 -0.025550503 -0.013813923 0.008679329 0.003857922 -0.008239292 -0.0045596245 0.011060598
-0.0244064 -0.013264897 -0.03447118 -0.0040269904 -0.00263045 0.0026538002 -0.033960678 -0.009429644
-0.010855369 0.015021847 0.010558332 -0.015170401 0.040963802 -0.010744998 -0.01457405 -0.013905928
-0.015529624 0.007095972 0.015399796 -0.00975513 -0.011916682 -0.0105702225 0.0044472297 0.011771825
0.0061281896 -0.003189757 -0.0132405 -0.023533411 -0.009998799 -0.0049330317 -0.0105964225 -0.017945105
-0.006617654 0.001972566 -0.035610024 0.0020332185 -0.029114466 -0.017318409 0.0057530026 0.0014158249
0.0011055748 0.002673542 0.004060512 -0.0059434692 0.0056972303 -0.0056969896 -0.0013167148 0.006529038
0.00046797158 0.012187773 0.033349898 -0.025237568 -0.025658648 0.03241795 0.001286137 0.005882105
-0.0062757665 -0.032069534 -0.005671657 0.0018665117 -0.003175408 0.035516683 -0.015794303 0.016968898

bias f4 [15]
00000000: 87fb 473b 8d2c 4cbb 006c 753b b845 853b
00000010: 55ae a4bb 1fdc 2d3b 50d5 4f3b a533 85ba
00000020: 2845 b9bb df60 d4bb d62a 08bb bd96 31bb
00000030: fbcc 83ba ef6c c33b 84d4 853b
0.0030514912 -0.0031154484 0.0037448406 0.004067149 -0.005025665 0.0026528907 0.0031712838 -0.0010162486
-0.005653996 -0.0064812745 -0.0020777485 -0.0027097904 -0.0010055596 0.0059639136 0.0040841717

weight f4 [15, 9]
00000000: 36bb 1e3d ecc4 783c e885 d8bb 01c6 35bc
00000010: da3b fb3c bae9 73bc 2db6 843c ba46 85ba
00000020: 299a cfbc 2770 0abc d774 833c 9e17 d4bc
00000030: 396a 11bb 4d87 cc3c 7bc6 123b bd6e c33c
00000040: 525d c73c 74d2 d9bc 628f 8fbc bcee f83b
00000050: 3ae3 58bc b40a 9c3a b53b bc3c 2679 70bc
00000060: 40a8 85bc 045e a4bc dc6d 0fbc fd0d b4bc
00000070: 8458 24bc a5e7 c2bb ceb1 ccbc 7025 1a3c
00000080: 3c71 343c 9274 b93c dae5 a6ba d8a5 c53b
00000090: 1ae7 f03c 8760 a53c 7648 65bc ea53 913c
000000a0: f04b e03c a4be bebb 83aa 49bc ac77 783c
000000b0: 9fa9 b03b 5722 52bd 9d10 883a 625a 713c
000000c0: 8a6f 9a3c db5a 043c 5dab 1bbc 125f 02ba
000000d0: ddd1 3bba 6b1a b53b e570 603c 01ca 763c
000000e0: 45ec b5bb 1c85 0abc 53d3 d8bc 5427 c13c
000000f0: c112 e1bc 20a1 07bc 32e8 8c3b f835 20bd
00000100: 5a9b cebb 7a82 983c 7a0e ccbc c2dd 9bbb
00000110: 5fa0 edbc 0255 e63c 8bd7 ddbc 79dc 653c
00000120: ba47 b53c b959 be3c 56cc 1e3b d54b 983c
00000130: 1580 3dbc 7246 f3bc e921 b33c e7ce b93b
00000140: 1af5 e1bc 689e c03c bf29 673c 5dbf 193c
00000150: a65f d0bc 1db5 5cbc 630b 4abc 13b5 0c3c
00000160: 7bf2 93bc 18ea a93c 741c cfbc 83bc b63c
00000170: 3cab 9a3b 83ef 3bbc dbf1 893c aa19 9cbb
00000180: 8b18 aebb fb78 e03c 0087 9cba 6eaf 89bc
00000190: ca65 fbbc 7416 75bb 0d41 95bc e053 0eb7
000001a0: 23b4 273c 446d a93c d535 67bc 26a0 8b3c
000001b0: ce71 9c3c cf6b a7bc 3030 af3c 4a3f 7fbc
000001c0: 07b9 05bc 71c4 083d 8c83 d9bb 90b1 403c
000001d0: 2134 a8bc 6845 bf3c 343c d9bb 9e28 b2bb
000001e0: 97a1 0bbc 7e15 a03c a6b8 73bc 15f7 9cbc
000001f0: 2b20 9b3c 50bf ecbb 574c 05bd 6324 e4bb
00000200: ca26 91bb 2b39 b1bc f24b 743c c63c 8a3c
00000210: c78e 43bc d470 053b 50ce 21bb
0.038752757 0.015183669 -0.0066077597 -0.011094571 0.030668188 -0.014887268 0.01620015 -0.0010168173
-0.025342064 -0.008449591 0.016046925 -0.025890168 -0.0022188558 0.02496686 0.0022396136 0.023856515
0.02433649 -0.02658961 -0.017524425 0.0075968187 -0.013237769 0.0011905045 0.02297769 -0.014677322
-0.01631558 -0.020064361 -0.00875422 -0.021979326 -0.010030869 -0.0059480243 -0.024987128 0.00940834
0.011013325 0.022638593 -0.0012733296 0.006031733 0.029407073 0.02018763 -0.013994327 0.017740209
0.02737996 -0.005821066 -0.01230872 0.015165251 0.005391314 -0.05130228 0.0010380928 0.014731022
0.018852014 0.008078302 -0.009501305 -0.0004973273 -0.0007164756 0.005526831 0.013698791 0.01506281
-0.005551847 -0.008454587 -0.026467955 0.023578323 -0.027474763 -0.008278161 0.004300141 -0.03911397
-0.0063051404 0.018616904 -0.024909247 -0.00475666 -0.029007135 0.028116707 -0.027080318 0.014029616
0.022128928 0.023236142 0.002423068 0.018590847 -0.011566182 -0.029696677 0.021866756 0.0056704166
-0.027582694 0.023513034 0.014109074 0.0093840035 -0.025436234 -0.013470915 -0.012331816 0.008588093
-0.01805996 0.020741507 -0.025282122 0.022306686 0.0047201198 -0.011470678 0.016838958 -0.0047638016
-0.0053129843 0.027401438 -0.0011942089 -0.016807284 -0.030688185 -0.0037397416 -0.018219495 -8.483388e-06
0.010235819 0.020681985 -0.014111956 0.017044138 0.019097235 -0.02043715 0.021385282 -0.015579054
-0.00816179 0.033390466 -0.006637996 0.011761084 -0.02053267 0.023348525 -0.006629491 -0.005436971
-0.008522413 0.019541498 -0.014875567 -0.019160787 0.018936237 -0.0072249547 -0.032543506 -0.0069623454
-0.004429673 -0.021633705 0.014910685 0.016874682 -0.011935896 0.002036144 -0.0024689622

bias f4 [15]
00000000: 89c9 b23c 0f60 c6bc 3715 83bc fa8a bbbc
00000010: 9084 be3c f64a ffbc 81e9 f5bc c13a 15bc
00000020: 4139 41bc ac88 c93b 4574 b6b9 0f6c 81bc
00000030: 04ad 953a f00d 813c 6299 9b3c
0.021824615 -0.024215726 -0.016001327 -0.022893418 0.02325657 -0.031163674 -0.03001857 -0.009108246
-0.011793436 0.0061503258 -0.00034800373 -0.015798597 0.001141936 0.015753716 0.018994037

weight f4 [15, 163]
00000000: 9d2a 3fbc 3f9b 8cbc ea29 97bc e152 9bbc
00000010: da4a 79bc 20f0 26bc 13c8 2fbc 95b8 45bc
00000020: 9833 85bc 8f82 40bc d62a cebc 672a c4bc
00000030: d8dc 85bc 3d70 e2bc 863d c4bc b932 cbbc
00000040: 67b8 9cbc 632b 9dbc f4fa 4fbc 8a52 9abc
00000050: 5891 3bbc 6e4a 8bbc 563e 94bc 078a 7ebc
00000060: d7b5 cbbc 7655 22bb 900d 70bc a031 84bb
00000070: 5194 7cbc 62a8 8bbc 2b2c 57bc f12a a5bc
00000080: c24c 543a 814b fb3a 03b9 093d 7583 8ebc
00000090: cd33 9ebc e48e 52bc 5734 b3bc 4ef8 8fbc
000000a0: b549 b1bc 60bc 7bbc 565a 8ebc 7c15 c4bc
000000b0: 5980 9cbc 7720 a0bc f340 c2bc fec3 6ebc
000000c0: 6f6c bdbc 650e 84bc 92ec 8fbc a7ed c0bc
000000d0: aacc b1bc 4e52 d2bb 097b 9eba 64db 38bc
000000e0: 5c8b 90bc 16d0 d0bc faaf a5bc 2b45 3ebc
000000f0: 57cc aabc b198 12bb 006c b8bc 3e46 303a
00000100: b346 693b ed2a 103d 9f07 0bbc 3bda 8bbc
00000110: e0ad 25bb 7aac 223b ed5b 9cbb d1f4 3eba
00000120: d48e 4b3a cde6 22bb 7e4d d23b 56f6 34bb
00000130: afae 3bbb 069c ee3a 20ee d2bc 37b5 66bc
00000140: c88c 87bc 9b15 bbbc 5b85 c7bc faf7 f73a
00000150: d5ec 6dbc 095a c93c c7b3 93bc bb5f 9d3b
00000160: b18e cbbb 2d11 f93a 497a 1fbc 1730 3bbc
00000170: 8460 e2bc ad11 69bc 7a86 783b 0aa0 963a
00000180: b92d 69bc 6de0 ebba a36b a0bc bbc1 98bc
00000190: b8b5 e1bc 1ee5 c2bc 2435 da3b 9207 853c
000001a0: a6e9 d7bb 042f bebc 37a7 79bc ad1b 70bb
000001b0: 4971 133d 5f38 13bc 94ec a0bc 1375 3a3b
000001c0: c453 19bc d225 9f3a c2d9 31ba eedf 05bb
000001d0: 3137 873a 7ea7 c0bb 61e0 473b a415 9539
000001e0: 872a 89bb c215 b3bc e995 5bbc 2915 8bbc
000001f0: 9e14 b3bc b27a 75bc 2022 0f3b d28f 69bc
00000200: 1751 9d3c 7fee 983b 2f38 8ebb b4e2 7cbb
00000210: 07f3 c0ba df65 dbbb 3826 89bc 0bdf 7d3c
00000220: 88df 3c3c 5a2c c23b 0476 bcbc 4d06 83bc
00000230: 8adc 96bc 14f1 4bbc 623f a7bc 1491 bebc
00000240: 88e7 b3bc d894 39bc 784e 5dbc 28f9 28bc
00000250: 1485 b0bc 5019 a8bc 38c5 57bc d7e3 87bc
00000260: 6376 57bc 85cd a7bc 3201 84bc 9224 69bc
00000270: e653 88bc a16d 90bc 3dec a9bc 7793 aebc
00000280: 5ab0 9bbc 26c8 95bc 57b7 1cbc daf1 533b
00000290: 3815 323c f208 44bb c009 ec3b 8f3e 113c
000002a0: b5b7 b53b 49b8 393c 75b5 7b3b 30be 433c
000002b0: f966 ee3b 204a 813c bb78 3b3c e08b 893c
000002c0: c1ee 813c a900 b73c 285e ad3c aa12 b33b
000002d0: c42d 1b3c ed39 863c 1ba4 f53a ce71 733a
000002e0: ff8b 083b 40cf f23b ab6d 843b 2b30 36bb
000002f0: 0231 cdbb f47a c83b 8e5d 92ba 4106 cd3a
00000300: 8049 153c f211 9c3b 0078 f5ba bc76 56bc
00000310: 392a 873b 2538 f8bb 474c 063c b40a be39
00000320: 2e82 c53b 64fd 033c fd8a 303c 6fe0 3f3c
00000330: c2c2 263c 6ae1 ea3b 83b2 b33b 4706 5cbb
00000340: dc36 ffb9 579d 863b 8674 023c 1352 1cba
00000350: 3aef 253c 9695 da3b ef50 d23b 71ff 263c
00000360: 941c 9f3b 9292 1dbb 7ecc 19bb 03af adbc
00000370: 6161 b93c 60ef e13b 353d f1bb eaa2 213c
00000380: ab30 bfb9 35c3 403d 9474 f53c 5958 54bb
00000390: e730 293d f82b 1b39 3150 89bb 0d88 b63b
000003a0: 9693 823c 7112 a13b 3569 943a 6bad 6ab9
000003b0: f47d 013c 65b8 333b b948 29bb 93ee 033b
000003c0: b6b2 843b e81c 75bc e920 8d3c 49a3 9f3c
000003d0: cdeb 2a3c 16d2 823b 7ba0 833b f2f7 e7bc
000003e0: 9da6 f93c 9a4b 60bb 6cbe a0bb 8f49 bdbb
000003f0: 79e5 95bb f2bd 433c c4f9 2f3c bc16 eebb
-0.011667875 -0.01716387 -0.018452603 -0.018960418 -0.0152156 -0.010189086 -0.010728854 -0.012067934
-0.016259953 -0.011749878 -0.02516691 -0.023946 -0.016340658 -0.02764141 -0.023955118 -0.02480446
-0.019130899 -0.019185727 -0.012694109 -0.018838186 -0.011448227 -0.017003264 -0.01809613 -0.015535838
-0.024866981 -0.0024770177 -0.014651671 -0.004034236 -0.015416221 -0.017048065 -0.013133089 -0.020162078
0.0008098596 0.0019172282 0.033623707 -0.017396668 -0.01931181 -0.012851451 -0.021875544 -0.017574456
-0.021641592 -0.015364736 -0.01737706 -0.023936026 -0.01910417 -0.01954673 -0.02371261 -0.014573095
-0.023122994 -0.016120145 -0.01756886 -0.023550821 -0.021704037 -0.006418503 -0.0012091111 -0.011282776
-0.017644577 -0.025489848 -0.020225514 -0.011613171 -0.02084939 -0.0022368843 -0.022512436 0.0006724334
0.0035595119 0.035197187 -0.008485704 -0.017071834 -0.002528064 0.0024822042 -0.0047717006 -0.00072844053
0.00077651185 -0.0024856806 0.006417929 -0.0027612648 -0.0028638055 0.0018204458 -0.025748312 -0.014081291
-0.016546622 -0.02283745 -0.024355581 0.0018918507 -0.014521797 0.024579065 -0.01803006 0.0048026717
-0.0062120785 0.0019002311 -0.009733745 -0.01142504 -0.027633913 -0.014225406 0.003792195 0.0011491787
-0.014232093 -0.0017995961 -0.019582575 -0.018647065 -0.02755247 -0.023790892 0.006659167 0.016238961
-0.0065891324 -0.023215778 -0.015237621 -0.003663759 0.03599671 -0.008985608 -0.01964406 0.002845113
-0.00935835 0.0012142009 -0.00067844626 -0.0020427662 0.0010316131 -0.0058793416 0.003049873 0.00028435618
-0.004185978 -0.02186096 -0.013402441 -0.016977863 -0.021860417 -0.014982866 0.0021840408 -0.014255481
0.019203706 0.004667103 -0.0043401937 -0.0038587274 -0.0014720865 -0.0066954936 -0.016741857 0.015495072
0.011527903 0.0059256973 -0.023005493 -0.015994215 -0.018415708 -0.012447614 -0.020415965 -0.023262538
-0.021960989 -0.011326991 -0.013507478 -0.01031331 -0.021547832 -0.020519882 -0.013169579 -0.016588135
-0.013150784 -0.020483742 -0.016113851 -0.01422991 -0.016641568 -0.0176304 -0.02074253 -0.021310551
-0.01900499 -0.018283915 -0.009565196 0.00323402 0.010869317 -0.0029912558 0.0072033107 0.008865013
0.005545581 0.011335441 0.0038407717 0.0119472 0.007275459 0.015782416 0.011442359 0.01679033
0.015860917 0.022339182 0.021163061 0.0054648714 0.009471361 0.016385043 0.0018740924 0.00092866726
0.0020835397 0.00740996 0.0040413938 -0.0027799706 -0.0062619457 0.006118173 -0.0011166797 0.0015642123
0.009111762 0.0047628814 -0.0018727779 -0.013089832 0.0041249064 -0.0075750523 0.008196897 0.00036247598
0.0060274815 0.0080560185 0.010775325 0.011711224 0.01017827 0.0071679847 0.0054839267 -0.0033573078
-0.00048678264 0.004108112 0.007962352 -0.0005963158 0.010127837 0.006670664 0.0064183394 0.010192738
0.0048557017 -0.0024043662 -0.0023467834 -0.021201616 0.022629442 0.006894991 -0.007362033 0.009865502
-0.0003646662 0.047061164 0.029962815 -0.0032401292 0.041306403 0.00014798332 -0.0041904678 0.0055704177
0.015939515 0.0049155285 0.0011322858 -0.00022380582 0.007903565 0.002742314 -0.00258307 0.0020131215
0.0040496243 -0.014960505 0.017227607 0.01948704 0.010432196 0.0039923294 0.0040169335 -0.028316472
0.030474955 -0.003422475 -0.0049055126 -0.005776591 -0.0045744744 0.011947142 0.010740701 -0.0072658937

bias f4 [15]
00000000: 0177 afbc 627a 883b 904b b33c 36ea fa3c
00000010: 00a4 05bd 7888 223d 0b17 173d 4aa0 fd3c
00000020: b469 a73b c0d3 36bd 8b07 18bd c43f c13b
00000030: 740f 1fbc db56 cd3c 6e5e ecbc
-0.02141905 0.00416498 0.021886617 0.030629259 -0.032627106 0.039680928 0.03688721 0.03096022
0.0051090363 -0.044635534 -0.03711657 0.005897494 -0.009708274 0.02506583 -0.028853621

weight f4 [15, 9]
00000000: 58a1 d6bb 77f6 b1bc 50f6 13bd d88f 0b3c
00000010: a607 0dbd f637 d8bc 5a63 213c c7d3 4e3b
00000020: aa57 5d3a c3f9 c7bc a46f a23c fd1b db3c
00000030: aac2 003d 2596 ea3c 9c42 e7bb 67e3 293c
00000040: 3f7b 55bc 7572 a53c b47c ab3c 25a1 c43c
00000050: d238 b43b 12f3 293d 5d4e 033c 63a4 32bc
00000060: 5ddc a53b d0de 65bd 1da2 efbb 5b4d fe3b
00000070: 03f6 5a3d 5fa0 173d fd15 563d 9768 303d
00000080: 5994 3f3d 393d 24bc 07d0 a83c 03fd 4a3d
00000090: 149d a6bc 3d72 45bd c6dc 6abd 75b0 5ebd
000000a0: ab37 25bd dd9e f8bc e156 06bb 308c 8a3c
000000b0: 594d 6cbd 63be 893b e983 f73c 023a 273d
000000c0: 3781 a53c c41a 973c 3d4b d83c 40f5 5cbb
000000d0: f1c0 81bc 2bf0 943c dee2 ab3c ed92 673b
000000e0: 59e8 973c 6964 773c 9fa3 eabb 681d 0b3c
000000f0: bf67 8bbb 0c8b f0bd 2a11 8fbd 09e2 23bc
00000100: 050a c83c b508 503d ebd9 d03b 1164 343d
00000110: 36b2 673c ecec a0bc 3238 203b 5f08 96bb
00000120: 5bdc 5fbc 1f7b ff3a 02b6 433d be22 3ebb
00000130: f3da 753b d823 3ebc 31ef 1ebb bd1d 043d
00000140: 318a d03c 6589 a5bc 4d73 80bd 477c 55bd
00000150: 385c c1bc fcf0 abbc 147e d2bc 26f7 d1bc
00000160: 7fc8 27bc 1268 2fbd 6acc f7bc 9d32 56bd
00000170: d885 33bd cf47 2cbd c966 9abc a68c 00bd
00000180: b120 cdbb 59af 2cbc 82ce 60bd 5353 d43c
00000190: cb9f abbc 0712 adbc c7ac e33c 57ad 94bb
000001a0: d66c 9d3c 3273 5a3c 4bbd b7bc cdba ae3c
000001b0: ecab cbbb 0835 33bd 2bc8 babc 13ac 6cbb
000001c0: 3f09 ff3b 4bb1 c5bb f4c0 d53c e74a 583c
000001d0: f1a9 293c 2429 313d 7fba ea3a 084b a4bb
000001e0: b50a 8cbb f44b 363b 54df 0ebc 14fe 9f3c
000001f0: dd84 f4bd 8cff af3b 83cb 38bd 597e b9bc
00000200: 54a7 31bd 4bd9 4cbd 290c 98bc d57d e9bc
00000210: 3d23 c6bc 78da 7fbc 86b4 6ebd
-0.0065499954 -0.021723969 -0.036123574 0.008518182 -0.034431122 -0.026393872 0.009850347 0.0031559335
0.0008443544 -0.024411088 0.019828625 0.026746744 0.031435646 0.028636048 -0.007057501 0.010369158
-0.013029872 0.020196179 0.020933487 0.024002621 0.0054999376 0.041491576 0.008014289 -0.010903451
0.0050616697 -0.056120694 -0.0073130266 0.0077606863 0.05345727 0.037018176 0.052267063 0.043068495
0.046772335 -0.010024362 0.020607008 0.049557697 -0.020338573 -0.04820465 -0.057339452 -0.0543675
-0.040336292 -0.03034919 -0.0020498561 0.01691255 -0.057690952 0.004203604 0.030214267 0.040826805
0.020203216 0.01844538 0.026403064 -0.0033715516 -0.015839072 0.018180927 0.020982202 0.0035335377
0.01854341 0.015099623 -0.0071606184 0.008490898 -0.004254311 -0.11745271 -0.06985696 -0.010002621
0.02441884 0.050789554 0.006373634 0.044040743 0.01414161 -0.019644223 0.0024447558 -0.0045786346
-0.013663377 0.0019491649 0.047780998 -0.0029012407 0.0037514537 -0.0116052255 -0.0024251456 0.032254923
0.02545652 -0.020207116 -0.06271992 -0.052120473 -0.023603544 -0.020988934 -0.025694884 -0.025630545
-0.010240673 -0.04282386 -0.03024884 -0.052294362 -0.043828815 -0.04206067 -0.01884784 -0.031384133
-0.0062600006 -0.010539853 -0.05488444 0.025918638 -0.020950219 -0.02112676 0.027792348 -0.0045372653
0.019216936 0.013333129 -0.02242913 0.021329308 -0.006215563 -0.043751746 -0.022800526 -0.0036113306
0.0077830846 -0.006033098 0.026092984 0.013201452 0.010355459 0.043252125 0.0017908363 -0.0050138272
-0.0042737373 0.0027816268 -0.008720238 0.019530334 -0.11939404 0.0053710397 -0.04511596 -0.022643255
-0.043372467 -0.050011914 -0.018560486 -0.028502384 -0.024186725 -0.015616052 -0.05827763

bias f4 [15]
00000000: f0a7 173c b821 d33c 5b38 113d 77a8 263d
00000010: 6580 b0bc d604 453b 8c13 cb3c 8e07 1c3d
00000020: a8eb 0e3d 7f3f b5bc fd04 50bd 4455 333a
00000030: 37f8 f1bb de23 4f3c f187 acbc
0.009256348 0.025772914 0.035454135 0.040688004 -0.021545598 0.0030062697 0.024789594 0.038093142
0.034892708 -0.022125004 -0.050786007 0.00068410137 -0.007384326 0.012642829 -0.021060916

weight f4 [15, 9]
00000000: 17c5 b63c ec0c b03c 3ee8 493d b657 3dbd
00000010: 234a 523d 2848 373d 5777 883c d0de cf3b
00000020: 30c5 10bc 0580 0cbb 67f0 e5bc 560f f1bc
00000030: 6343 2d3d d1e5 48bd e025 49bd 486f 29ba
00000040: 7e7d 9ebc 5efd 433c db73 3c3d 778c b73c
00000050: 1cd5 463d 40f4 0dbd 6849 cb3c b451 a43a
00000060: 446b 8b3c 15a8 503b 9b98 1abc 6bff cc3c
00000070: 0a3d 793c c435 943b ded3 03bd ea55 333d
00000080: a477 ba3c 2ca5 52bc 1cc2 bd3c a2cf db3b
00000090: 4524 12bd 67b2 a7ba 1e08 26bd 4419 033c
000000a0: 2f61 e6bc e802 1fbd ada2 db3c 133e a7bc
000000b0: dc56 e43c 04fb 44bd db81 07bd 80d8 c6bc
000000c0: cd02 283d 2e44 96bc 9237 32bd 76ba 213c
000000d0: 8526 eabc ec73 173d 0a38 ba3a 1c42 543d
000000e0: 2dd2 223c 057f 7ebc 62c0 36ba 9c37 433d
000000f0: 203b b53c 53ee 083d 9925 46bc 9f41 933c
00000100: 569f 3f3d 2e52 273d 88a2 48bc af75 803c
00000110: 8575 3cbb 4d5e 84bc b2eb 49ba d97b 92bc
00000120: 6573 a0bc 2080 8ebc 5e50 a4bb 9c68 363d
00000130: 6f72 cdbc 9d2b 4dbd d32c 88bc 1dd5 13bd
00000140: 9b58 6cbd 23ea 2abc 10cc 1cbd 3e91 3abd
00000150: fc4c 4c3d 74a5 98b9 9c19 9538 c54c 5fbb
00000160: 1ffc 74bc 6658 a93c e466 083d 80e5 0a3d
00000170: 4324 abb9 926b f6bc 9608 383d 2fd5 ab3c
00000180: 295a fdba 0060 053d 5fa0 babc 449d cebc
00000190: bf31 743a 89d0 cbbc e92d dc3c 5ab3 97bc
000001a0: 920f a1bc 3646 743b 0517 37bd 852f 343d
000001b0: d5b9 d33c 7eee 2e3d 1cc6 ef3c 53ea e6bc
000001c0: fe64 323d bc7a ca3c af1c 9bbc f5fa 893a
000001d0: 3935 a23b 1671 15bd 18d6 46bd 33d6 48bd
000001e0: 087e 163d e7dd 25bd 2ec7 f4bc def6 1c3c
000001f0: 6493 b5bc 6a45 8bbb 52ac d3bc 6aa1 d6bc
00000200: 2f6c 4ebd 7403 513c f98e 98bc f26a 17bc
00000210: dac0 93bc 5a8c 54bd 6d5b 0db9
0.022310777 0.021490537 0.04929375 -0.046226226 0.051340234 0.044746548 0.016658468 0.0063437
-0.008836076 -0.002143861 -0.028068734 -0.029426258 0.042300593 -0.049047295 -0.049108386 -0.00064634206
-0.019346949 0.011962263 0.046008926 0.022405846 0.04854308 -0.034656763 0.024815276 0.0012536556
0.017018922 0.0031838466 -0.009435798 0.025024137 0.015212307 0.004523011 -0.032184474 0.043783106
0.022762127 -0.012856763 0.023163848 0.0067081014 -0.03567912 -0.0012794257 -0.040535085 0.008001629
-0.028122513 -0.03882113 0.026810968 -0.020415341 0.027873449 -0.04809095 -0.033082824 -0.024273157
0.041018296 -0.018343057 -0.043510027 0.009871116 -0.02858282 0.036975786 0.0014207375 0.05182086
0.009937805 -0.0155332135 -0.00069714163 0.047660455 0.02212292 0.03343041 -0.012093925 0.017975627
0.046782814 0.040849857 -0.012245782 0.015681116 -0.002875657 -0.016158247 -0.0007702663 -0.01788132
-0.019586274 -0.01739508 -0.0050144633 0.044533357 -0.02507898 -0.05009042 -0.016622936 -0.036091913
-0.05770169 -0.010431799 -0.038280547 -0.04554867 0.049878106 -0.0002911497 7.109644e-05 -0.0034072858
-0.0149526885 0.020672034 0.03330125 0.033910275 -0.0003264268 -0.03008059 0.044930063 0.020975677
-0.0019329238 0.032562256 -0.022781549 -0.025221474 0.0009315274 -0.02487971 0.02687736 -0.018518139
-0.019660745 0.0037273294 -0.044699688 0.04399063 0.025845448 0.042707913 0.02926927 -0.028187906
0.043553345 0.024716727 -0.018934576 0.0010527062 0.0049501923 -0.0364848 -0.04854402 -0.0490324
0.036741287 -0.040494826 -0.029880133 0.009580342 -0.022165008 -0.004250218 -0.025839005 -0.026200015
-0.05039614 0.012757171 -0.018622862 -0.009241806 -0.018036295 -0.051891662 -0.00013480867

bias f4 [15]
00000000: b52a 4d3d a375 da39 66cd be3c 5c28 d23b
00000010: b467 cabc 40b1 0bbd fc53 d93c ea5d a039
00000020: 988b e7bb 4fd1 a6bc 55cc 193d 65b0 bdbc
00000030: 30f6 ce3b f4db 9dbc b89f 15bd
0.050089557 0.00041667846 0.023291301 0.0064135026 -0.024707653 -0.034104586 0.026529305 0.0003058755
-0.0070662014 -0.020363478 0.03754838 -0.0231554 0.006315969 -0.01926992 -0.036529273

weight f4 [15, 9]
00000000: 8c87 a33c 8b0e 1f3c 37b3 ad3c fb18 943c
00000010: ca73 0abb effd 7ebb fdae a8bc bf97 893c
00000020: 0564 963b ef56 a4bc 7404 34bd 20b8 0abd
00000030: 7df8 623b e385 d2bc 7358 fcbc 33ae 573a
00000040: 276a be3c 27e0 9fbb 29a2 14bd 0a22 343b
00000050: bb78 53bc c856 b6bb 5ea1 b9bc de32 0ebd
00000060: 38b0 953c 7e26 f8bc 6b81 c73c e38a 00bd
00000070: acea efbc 9bba 0c3b 2f23 c73b 0851 563b
00000080: 71da 07bc 0670 713c 865c 43bc fcb0 f03c
00000090: 7df7 293d 97be a73c c147 a13c 6785 253c
000000a0: 6105 333d dc3c 933c eae5 0abc 02ba e23c
000000b0: 4d49 edb8 53f8 d53c 54c0 d13c 51c9 d03a
000000c0: 4752 18bb aa02 8b3c 74fd 2a3d 476d c83c
000000d0: 9438 b53b 6e8b 1fbd 5fd6 8c3b ea79 12ba
000000e0: f96e 4e3c 7574 443d 51f0 f13b a04b 0a3d
000000f0: 68b5 513c 8539 4f3b 2c50 5d3c 2884 723c
00000100: 51ad fe3c 4c42 0e3d d42c 223d 4296 193d
00000110: 5388 ef3c 95ef a53c 639f 853c ee47 083b
00000120: a8b8 aebc a847 37bd 6cb5 a7bc 2e4e 1cbc
00000130: 620a 43bd bf19 6c3b 3648 c23c 5819 96bb
00000140: f287 343b b154 d3bb a164 1bbd 2504 1ebc
00000150: 4f79 1fbc 83bf bbbc 702d 0dbd 82f4 30bc
00000160: 22bd abbc 9ad2 8a3b 09df 17bd 61cc 1abd
00000170: e966 f0ba f2f2 5abc 4bd8 e4bc f019 25bd
00000180: d79f 31bc 4eaf 553c 8227 cf3c 7051 f03c
00000190: f9d2 a13b fe08 f03b c17f e338 7feb 5b3b
000001a0: 9b55 503c 9eb5 7a3c eea7 893a d48e dc3c
000001b0: a3c3 13bd 12f0 0dbd 98a2 40bd 1763 46bd
000001c0: 7afb df39 9c67 0fbd 24fd bc3c 8113 b13c
000001d0: 655d dd3c 7be0 1d3d 301b 043d 7eec 2d3d
000001e0: a795 803c abdd 013d 7dc2 e2b8 8448 b8bb
000001f0: a757 fbbb b687 8ebc 0de0 453d 2e74 203d
00000200: 9fcb f03c c028 2f3d 430e bf3c b029 af3c
00000210: 0581 feba 4a65 e23c 7555 bb3c
0.019962095 0.009708057 0.02120362 0.018078318 -0.0021126145 -0.003890868 -0.020591253 0.016795991
0.00458956 -0.020060984 -0.04394956 -0.033867 0.0034632974 -0.025698608 -0.030803895 0.0008227557
0.023243977 -0.004879016 -0.03628746 0.002748611 -0.012907202 -0.0055645443 -0.022659954 -0.03471648
0.018272504 -0.030291792 0.024353703 -0.031382453 -0.029286705 0.002147353 0.0060771923 0.0032702107
-0.008291827 0.014736181 -0.011923915 0.029381268 0.04149579 0.020476623 0.019687535 0.010102606
0.0437063 0.017973356 -0.008477667 0.027676586 -0.00011314694 0.026119387 0.025604405 0.0015929138
-0.00232424 0.016969044 0.041745618 0.02446617 0.0055304263 -0.03895133 0.004298016 -0.00055876246
0.0125997 0.047962625 0.0073833843 0.033763528 0.012799598 0.0031619978 0.013507884 0.014802016
0.031088503 0.034731194 0.039593533 0.037496813 0.02923981 0.020255843 0.016311353 0.0020794827
-0.021328285 -0.04474607 -0.02047225 -0.009540124 -0.047617324 0.0036026088 0.023716073 -0.004580658
0.002754685 -0.006449305 -0.037937764 -0.009644543 -0.009733512 -0.022918468 -0.03446716 -0.010800483
-0.020964209 0.0042365314 -0.037077937 -0.037792567 -0.0018341216 -0.013363587 -0.027935168 -0.04030794
-0.010841331 0.013042284 0.025287393 0.029335707 0.00493848 0.0073252907 0.000108479995 0.0033557115
0.012715722 0.01530209 0.0010502317 0.026923575 -0.036075246 -0.034652777 -0.04703006 -0.048434343
0.0004272124 -0.03501092 0.023069926 0.021615745 0.027022073 0.03854416 0.03225249 0.042461865
0.01569636 0.03170554 -0.00010812746 -0.005623879 -0.007670361 -0.017398696 0.048309375 0.039173298
0.02939397 0.04276347 0.02332223 0.021382183 -0.0019417113 0.027636189 0.022867898

bias f4 [15]
00000000: cb4d 1a3d 3c02 4cbc 2f99 af3a 484a 2abd
00000010: 371f 833b a466 393c 3540 913c b607 d83c
00000020: 44da d3bc e53f f3bc f731 57bc b204 383d
00000030: c812 2dbb 6247 d63c 8b38 e73c
0.037671845 -0.012451705 0.0013397093 -0.041574746 0.004001524 0.011315975 0.017730812 0.026370864
-0.025860913 -0.029693553 -0.013134471 0.044926353 -0.00264089 0.026157085 0.028225204

weight f4 [15, 9]
00000000: 2924 11bd 2021 dbbc b275 36bc 93fe 34bd
00000010: c64e 42bd 730a 4cbc a7e8 9ebc 0159 4abc
00000020: 0062 02bd afe4 75bc 7ddc c0bb c2db 053d
00000030: f938 8c3c 0674 b13b 9650 e83c 4f9f b93c
00000040: 0f07 0fbd 219e 713c 2090 db3c 8041 28bb
00000050: 0186 1d3c 5a5e 96ba 088e 4abd 63ec 403c
00000060: 8012 c03b 70b0 76bc 0ad7 3ebc ad38 173c
00000070: 375b e43c e746 e73a 629b 183d cb04 1e3d
00000080: 6976 193d 9311 85bb 9bb5 243d d9f8 4a3d
00000090: 6739 77bd b0fa c7bc b1a7 3ebd 0d81 72bd
000000a0: 4362 57bd 649e 27bd da21 933a bd36 47bc
000000b0: 63cb 3dbd c318 c6bb 1baa 263d 8920 593d
000000c0: e98b a93c 5a42 083d 4d4b 9f3c 991c 1fb8
000000d0: e04b acbc 9d58 27bc bf20 0dbb 3e3e 113d
000000e0: 9b74 1c3d 710d 613b bf1a 133b 1b2b efb9
000000f0: 1a5b e13c 44b8 1fbe 1151 62bd 5123 67ba
00000100: 2d37 cf3c b4b7 923b 47e7 6c3c 2592 f03b
00000110: f6f1 d83c 9e3a 8b3c 2479 54ba 7b37 1dbc
00000120: 1832 0b3a d385 e23b 25bf f13c 43bc df3c
00000130: 268a 9d3c d617 763c 6033 d0bc dd50 153d
00000140: 75f5 b23c a05c bbbc 3525 adbc f00d 20bd
00000150: 87ed 49bd dcae cebb 74e1 85bc b6df c53c
00000160: 7608 f3bc b5f2 48bd ed5d 8dbc c2c2 e4bc
00000170: 78c0 2ebd 2fcc 9dbc 2b03 b9bc db55 46bb
00000180: b2f0 bd3b 723a 54bd 7f71 0bbd 74fa ea3c
00000190: ea35 1d3d 9137 debb 1067 d53c f998 25bb
000001a0: f47f 8ebc 0a10 1fbc 1ec0 72bd 24b1 68bc
000001b0: 8300 1cbd 5bed a9bc 0e61 e9bc 70d5 33bd
000001c0: 3507 093d f5a1 f03c b760 c03c a9b9 0bbc
000001d0: 8aa8 43bd 54a3 283c 7141 d83c f569 973c
000001e0: 9b49 ee3c 0f74 8abc f1d1 133b cea6 9bbc
000001f0: 86a7 833b 6719 453d c301 90bc 2f22 3abd
00000200: aba6 5cbd c006 b1bc 634a 30bd b0b6 22bd
00000210: 8a52 b4bc f1c4 65bd 9a5b 33bd
-0.035434876 -0.026749194 -0.011136459 -0.044188093 -0.047438405 -0.012453663 -0.019398047 -0.012350322
-0.03183174 -0.015008136 -0.0058856593 0.03268028 0.01711701 0.0054154424 0.028358739 0.022658972
-0.03491884 0.0147471735 0.026802123 -0.0025673807 0.009614469 -0.0011472211 -0.049451858 0.011775109
0.0058615804 -0.015056714 -0.011647949 0.009229821 0.027875526 0.0017645032 0.03725756 0.03857879
0.03746644 -0.004060933 0.040212255 0.049553726 -0.060357478 -0.02441153 -0.04654664 -0.059205104
-0.052583944 -0.040922537 0.0011225299 -0.012159047 -0.046336543 -0.0060454323 0.04068957 0.053009544
0.020696597 0.033266403 0.019445086 -3.7935188e-05 -0.021032274 -0.010213998 -0.002153441 0.03545975
0.03819714 0.0034340287 0.0022446362 -0.00045617748 0.02750926 -0.15597636 -0.055253092 -0.0008817213
0.025294865 0.0044774655 0.014459438 0.0073416405 0.026482563 0.016995724 -0.00081052096 -0.009595747
0.0005309894 0.0069129257 0.02951009 0.02731145 0.019230913 0.015020331 -0.025415123 0.03645407
0.021845559 -0.022871315 -0.021135906 -0.03907579 -0.04929879 -0.006307466 -0.016342856 0.024154525
-0.02966712 -0.04905959 -0.017256701 -0.027924899 -0.04266402 -0.019262401 -0.022584518 -0.0030263576
0.0057965154 -0.05181355 -0.034043785 0.028683878 0.038381495 -0.0067815264 0.02605012 -0.002526818
-0.017394997 -0.009708414 -0.05926525 -0.01420239 -0.038086426 -0.020743063 -0.028488662 -0.04390472
0.03345414 0.029374102 0.023483617 -0.008528152 -0.047768153 0.010292847 0.026398392 0.018483141
0.029087832 -0.016901044 0.0022555555 -0.019000437 0.004017773 0.04811993 -0.017578965 -0.045442756
-0.053869884 -0.021609664 -0.04303969 -0.039725006 -0.022012014 -0.05609602 -0.04378853

bias f4 [15]
00000000: e219 acbc 4c44 2ebc 7b09 0b3d 7a04 373d
00000010: 0422 11bd eaae ed3b 98d5 c73c 1ecb 983c
00000020: 313e 103d 182e 8abc 1209 60bd 0eb4 c43c
00000030: 1d9f 57bc 998a 473d 0d8e a8bc
-0.021008436 -0.0106364 0.03394459 0.044682004 -0.03543283 0.0072535174 0.024393842 0.018651541
0.03521556 -0.016867682 -0.05469615 0.024011638 -0.013160494 0.04871616 -0.020575548

weight f4 [15, 9]
00000000: 4ab7 cebc 69c5 c0bc 3b04 3bbd 18c8 33bd
00000010: b33c efbb 164f 33bc 91de 123c e9a6 bcbb
00000020: 1914 0cbc 55ce 7e3b 8cfc d2bb da63 7d3c
00000030: 0fa6 b93a 3b85 193c e1ec a3bc ca24 0a3c
00000040: 79e8 81bb 8d49 cdbc c57d feb9 1dc3 9d3c
00000050: aeea bf3c 1ed3 0c3c 909b 29bc a88f dbb9
00000060: 3a36 e03c 4392 35bd e07a 2cbd d7eb 793d
00000070: fba2 133d 6d05 a83c 71b8 b93c 6879 0a3d
00000080: 7f5c ceb9 e8bd 34bc 4182 79bc a6a8 023d
00000090: 606e 90bc 9332 40bd fd21 2ebd 03e3 02bd
000000a0: 0172 5dbd 8970 2cbd 6cac 39bc 1189 253c
000000b0: d687 5bbd 04a1 bc3c 5fc9 243d 5656 b03c
000000c0: 15d8 bfbb 3682 eb3b 0958 0b3d 36ec e3bc
000000d0: 823e 41bc 5eba 933c 8421 283c c62d 2a3d
000000e0: 4276 803b 97d8 313d 712e 073d f727 8a3c
000000f0: 2598 053c 9286 cebd 9589 5fbd 762f e73c
00000100: 0455 803c 664b d03c e463 1d3d fd07 143d
00000110: 98a2 033c 0d28 a23c eb04 a6bc 42dd a5b9
00000120: d722 72bc 8661 b4bb a26a de3c 1248 eabb
00000130: a33c 143d b3e8 183d 8abf 6cbb 9512 353c
00000140: ce37 8b3c 81f1 43bd 8471 4bbd f063 b4bb
00000150: bb66 30bd dda9 7dbc 35a0 0fbd 802a b7bc
00000160: c57a 8fbb 3741 38bd 1883 45bc 7717 68bd
00000170: 205a 3ebc da97 80bd da37 37bd 4547 c2bc
00000180: b431 4d3c 89fb 0fbd fdbf e7bc bb66 033c
00000190: 058f e3bb 3868 943c 69d3 053c 0362 0ab8
000001a0: 0ce8 173d ccb8 6ebc ad26 4fbd 0cb9 783c
000001b0: 530e 09bd 04dd d4bc f87f 403c 927e 33bc
000001c0: d4b1 0d3d e7a6 1f3c 355b 90bc dbcb cfbb
000001d0: 2764 c6bc aa9d 513c 6681 233d 0539 a13c
000001e0: 8f17 043d a259 a7bb 2ffd e9bb 631f 6d3c
000001f0: 2866 b4bd 2944 ee3a 6132 fabb 71bd a0bc
00000200: 9348 44bc 2b85 02bc 1e25 30bd ac24 85bc
00000210: d437 77bc c143 11bd 21cc aebc
-0.025233883 -0.023531632 -0.04565833 -0.043891996 -0.007300937 -0.0109441485 0.008964197 -0.005757202
-0.0085497135 0.0038880308 -0.0064387973 0.015465701 0.0014163869 0.0093701435 -0.020010414 0.008431623
-0.0039644805 -0.025059486 -0.0004854036 0.019258076 0.023427334 0.008595256 -0.01035203 -0.00041877967
0.027369607 -0.04432894 -0.04210937 0.06101593 0.036044102 0.0205104 0.022670956 0.03380719
-0.00039360297 -0.011031605 -0.015228809 0.031899117 -0.017630756 -0.04692323 -0.042512883 -0.031954776
-0.0540638 -0.04209951 -0.0113326125 0.01010348 -0.05359634 0.023025997 0.040231105 0.021525543
-0.0058546164 0.007187153 0.034019504 -0.027822595 -0.011794688 0.018033203 0.010261897 0.04154756
0.0039203474 0.043419447 0.033003274 0.01686476 0.00815395 -0.10084261 -0.054574568 0.028220873
0.015665539 0.025426578 0.03842534 0.03614043 0.008034371 0.019794488 -0.020266017 -0.00031636102
-0.014778814 -0.0055047898 0.027150456 -0.0071497047 0.03619064 0.037331294 -0.0036124908 0.011051794
0.016994383 -0.047837738 -0.049668804 -0.0055050775 -0.04306672 -0.015482393 -0.035064895 -0.022359133
-0.004378649 -0.04498407 -0.012055181 -0.056663003 -0.011618167 -0.062789634 -0.044731 -0.023715625
0.012524057 -0.035151992 -0.02828979 0.008020098 -0.0069445395 0.018116102 0.00816808 -3.2993044e-05
0.03708653 -0.014570426 -0.050573993 0.015180837 -0.033460926 -0.025984295 0.01174926 -0.01095547
0.03459342 0.009744382 -0.017621616 -0.00634144 -0.024217678 0.012793938 0.039918326 0.01968051
0.03224903 -0.0051071206 -0.0071407775 0.014472815 -0.08808547 0.0018178272 -0.0076354 -0.019621583
-0.011980194 -0.00796632 -0.043004148 -0.016252838 -0.015088994 -0.035465006 -0.02133757
