model/gnn/241004_1p/epoch_2.pt (torch, 199196 bytes, 61 tensors)

att f4 [1, 1, 10]
000000 1c fb 03 3d 80 56 58 bd fa f7 67 bc 69 17 24 3d
       0.0322219 -0.052816868 -0.014158243 0.04006139
000010 00 8d c4 3c 42 38 1f bd 2a 57 e4 3d d7 17 af 3d
       0.023993015 -0.03887201 0.11149438 0.08549469
000020 bd 05 b5 bd 01 f8 3d bc
       -0.08838985 -0.011594773

bias f4 [10]
000000 df e9 5c bd 4e f1 72 bd 5f b4 95 bd 97 18 71 bd
       -0.053933974 -0.059312157 -0.07309794 -0.05886134
000010 75 d4 2d be 95 7d 64 bd 50 a3 20 bd ac 29 2e bd
       -0.16975577 -0.055783827 -0.039218247 -0.04252021
000020 1f 9c 56 bd 47 bb 9e 3e
       -0.052394982 0.31002256

weight f4 [10, 163]
000000 53 d0 a0 bd 79 47 a1 bd e3 45 11 bd 22 a5 32 bd
       -0.07852235 -0.078749605 -0.03546704 -0.043614514
000010 47 27 25 bd 15 0b 94 bd ac 3e 36 bd a9 03 b3 bd
       -0.04032066 -0.07228676 -0.044493362 -0.087409325
000020 dc d2 9d bd f5 d6 ca bc 26 c8 a1 bd 51 95 75 3d
       -0.07706234 -0.024760703 -0.078995034 0.059956852
000030 3d 21 b0 3d 57 40 5b bd 51 40 1f 3d 8a ea fd 3c
       0.0860009 -0.053528156 0.038879696 0.030995626
000040 0f e1 ad bd 87 84 ad bd f6 10 57 3d bb 8d 12 bd
       -0.08490192 -0.08472543 0.05250641 -0.035779696
000050 5a 02 86 3d 89 61 26 bd 9f 9d 96 bd e3 3b c8 3d
       0.06543417 -0.04062036 -0.073542826 0.097770475
000060 28 bb 76 3d 9f 58 d5 bb 59 dd a0 bd f1 c9 9c ba
       0.06023708 -0.0065108086 -0.07854719 -0.0011962039
000070 f1 af 13 bd f5 da 2c 3d e3 9f 44 bd 92 89 11 bd
       -0.036056463 0.042201 -0.048004042 -0.035531588
000080 bd 9c b9 3d 44 10 32 3c 0b 8c b9 bd ff 1c 41 bd
       0.090630986 0.010868136 -0.09059914 -0.047146793
000090 e2 b7 eb 3c 34 df ad 3d 05 43 89 3d 78 47 98 3d
       0.028774206 0.08489838 0.06702236 0.074355066
0000a0 25 1f 00 3d 68 5f 58 3d 9d 35 3d bd f7 7e 7e bd
       0.0312797 0.05282536 -0.046193708 -0.0621328
0000b0 cb ca 97 3d af 6c 99 3d e5 28 2c bd 36 3c ba 3d
       0.074117266 0.07491433 -0.042031188 0.090935156
0000c0 49 de 4b bd cd fb d2 bc 95 bf df bc 06 43 b2 bc
       -0.049772535 -0.025754834 -0.027313033 -0.021760475
0000d0 e3 bd a8 bd 6e 44 36 39 bf 60 b2 bc c9 52 b6 bd
       -0.08239343 0.00017382365 -0.021774648 -0.08902509
0000e0 03 a4 68 3d 7a 96 b0 bd a9 42 33 bd 10 bc 40 3d
       0.05679704 -0.08622451 -0.043764744 0.04705435
0000f0 29 dc fd 3c 27 54 11 3d e4 5a ba bd c7 a7 4f bc
       0.03098877 0.035480645 -0.09099367 -0.012674279
000100 84 e4 b5 3b e0 53 33 bd 79 65 fa bc 08 79 e9 3c
       0.005550923 -0.04378116 -0.030565964 0.028500095
000110 af 94 05 3d 21 3c 87 bd 6d e1 ac bc cd 55 85 3b
       0.0326125 -0.066032656 -0.021103585 0.004069066
000120 4a 49 12 3d e3 69 e1 bc da c2 18 3c 15 f4 c1 3b
       0.035714425 -0.027516311 0.0093238 0.0059189894
000130 d7 d9 6e bb 8c 77 10 bd c2 fc 2b 3d 7a 3b 67 3d
       -0.003644576 -0.03527026 0.041989096 0.056453206
000140 f4 aa 48 bd 92 e9 df bc ef ec d3 3d e9 39 a1 3c
       -0.04899116 -0.027333055 0.10347926 0.019680934
000150 d9 04 e1 3c cf 9c 85 3d 85 f9 cc bc 13 e8 27 bc
       0.027468132 0.065240495 -0.025021324 -0.010248202
000160 3f 0c 89 bc 92 67 2d 3c 1c 4a 2d bd 40 c2 8f bd
       -0.016729472 0.010583775 -0.042307004 -0.07019472
000170 00 1a b4 bd 30 18 52 3d c1 97 72 3d fe e1 fc 3c
       -0.087940216 0.0512926 0.059226755 0.03086948
000180 8c 4c bf bc ac bc 9d bc 3d dc 2d 3d fd f1 63 3d
       -0.02335193 -0.019255005 0.042446364 0.0556507
000190 77 3d 73 bc a1 56 79 bd ad 5c 0d 3d 66 27 bb 3d
       -0.014846197 -0.06087363 0.03451221 0.09138374
0001a0 99 9e 09 3c 2a 81 c7 3b 8e c4 91 3d 24 e7 96 3c
       0.008399629 0.0060883956 0.07117568 0.018420763
0001b0 e7 05 22 3d ed 44 0e bd a5 2d 00 bc 58 7f ca bc
       0.03955641 -0.0347337 -0.0078233825 -0.024718925
0001c0 33 03 6f bc fd a9 5f bc e6 b4 74 3c 6d a6 59 bc
       -0.014588165 -0.013651368 0.014935708 -0.013284308
0001d0 f1 2c 1a bd 58 b6 12 bd 24 e7 9b 3c 92 46 e4 3b
       -0.037640516 -0.035818428 0.019031115 0.0069664204
0001e0 bc 3e c7 3c a1 51 0d 3d ca 88 82 3d fb c1 61 3d
       0.024321906 0.034501676 0.06373747 0.055116635
0001f0 03 cf a5 bd 65 fd fa 3c 93 34 a8 3b 84 ca b6 bc
       -0.08096125 0.030638406 0.0051332205 -0.022313364
000200 7d 83 15 3d 76 f2 97 bd 38 41 fe bb ef d4 2a bb
       0.03650235 -0.07419293 -0.0077592395 -0.002606686
000210 eb 85 11 3d 27 1d 8a bd f4 8f 3c bd ed 80 06 3d
       0.035528105 -0.067438416 -0.046035722 0.032837797
000220 fa 7a 9f 3c 2f 25 9d bc 4f 0a 86 bd 82 7f ab bd
       0.01946782 -0.01918277 -0.06544935 -0.083739296
000230 ee ae b7 bc c3 4b 0f bd 9d 6a 9c bd 23 14 83 bd
       -0.02242228 -0.03498436 -0.07637522 -0.06400325
000240 53 2a 77 bd 94 0f 90 bd aa 22 b6 bd 1c 59 1e bd
       -0.060343098 -0.07034221 -0.088933304 -0.0386592
000250 b4 87 b5 bd ac 35 93 bd a3 14 84 bd 20 92 b7 3d
       -0.08863774 -0.071879715 -0.06449249 0.08963418
000260 4a cd d8 bc 77 ec 07 bd 91 6e e2 bc 57 f4 0e bd
       -0.026465077 -0.033184495 -0.027640613 -0.03490099
000270 94 f8 46 bd 0e dd 64 bd 15 b1 e2 bc 07 48 71 bd
       -0.048576906 -0.055874877 -0.02767233 -0.05890658
000280 2c e5 98 bd 7f 93 1b bd 14 fe 6d 3d 87 db 4a bd
       -0.07465586 -0.03798246 0.058103636 -0.049525764
000290 e4 9c 87 bd 9c 28 7e bd a0 0c 36 bd df b1 0c bd
       -0.066217214 -0.062050447 -0.044445634 -0.03434932
0002a0 fa 77 c6 bc ce e5 c0 bc 28 a9 8d bd 0a e4 76 bd
       -0.024227131 -0.02354708 -0.069170296 -0.06027607
0002b0 b7 7b 82 bd cf d2 fd bc 8c 6e 3f bd f1 4f 33 bd
       -0.06371253 -0.03098431 -0.046736285 -0.04377741
0002c0 71 57 b6 bd 3a 96 a2 bd f1 76 83 bd ea ce 61 bd
       -0.08903397 -0.0793881 -0.06419171 -0.05512897
0002d0 cc 49 93 bd 7a 35 c1 bd 5e bb 77 bd 44 38 cf bc
       -0.0719181 -0.09434028 -0.06048142 -0.025295384
0002e0 ba 31 a7 bd b1 9e 99 bd 0d d3 95 bd d2 eb 86 bd
       -0.081637815 -0.07500971 -0.07315645 -0.06587948
0002f0 52 fc bc bc 1b 1c 89 bd 7b ff 22 3c ff d2 8a bd
       -0.023069534 -0.06694814 0.009948607 -0.067785256
000300 80 f9 24 bd 6e a3 9b bd 59 f6 1a 3d 31 0a 41 3d
       -0.040277004 -0.07599531 0.03783259 0.04712886
000310 3d e6 05 3d 39 47 05 bd 37 c8 3a bd 60 0d 56 bd
       0.032690275 -0.032538626 -0.045601096 -0.05225885
000320 b8 11 03 bd 83 ca cf bc 81 66 96 bd eb f0 91 bd
       -0.03199932 -0.02536512 -0.0734377 -0.071260296
000330 04 e6 3c bd 4f a0 1b bd a6 49 83 bd aa 23 85 bd
       -0.046117797 -0.03799468 -0.06410532 -0.06500943
000340 0b 5a ec bc 74 83 38 bd db af 50 bd 07 a1 5c bd
       -0.02885153 -0.04504724 -0.05094896 -0.053864505
000350 62 54 7d bd ab a2 53 bd 9f 0c 5d bd 96 cc c4 bc
       -0.06184805 -0.051668804 -0.053967115 -0.024023335
000360 6f f3 0a 3d e3 86 9c bc be 49 fe bc b8 9c 2c bd
       0.033923563 -0.019107288 -0.031041022 -0.042141646
000370 67 23 b1 bd 1f 9a 04 3d dc 30 ac 3d 65 aa 15 bd
       -0.086493306 0.032373544 0.08407757 -0.036539454
000380 9a 22 f1 3c 0e 4e 43 bd ad 5d 61 bd ce f3 0d bd
       0.029435445 -0.04768186 -0.055020977 -0.03465634
000390 28 cc 91 bd f0 57 59 bd 3d 94 20 3c e0 cf 16 bc
       -0.07119018 -0.05306238 0.009800968 -0.009204835
0003a0 5d c4 8c 3d 5b 2e 13 3c f7 66 8b 3c c2 d4 9e 3c
       0.06873391 0.00898322 0.01701687 0.01938856
0003b0 ba 3b 57 bd 85 60 56 3c 95 8e ff bb 0e e1 e4 bc
       -0.052547194 0.0130845355 -0.0077989795 -0.027939346
0003c0 0d a0 a4 bc 68 1a ef bc 17 07 b7 bd 52 95 f0 bc
       -0.02009585 -0.029187396 -0.08936899 -0.029368076
0003d0 e4 29 9e bd 07 d6 03 bd 79 bb 70 ba a8 ba 97 3c
       -0.07722834 -0.032186534 -0.0009183209 0.018521622
0003e0 57 af a5 bd af 20 9a bd 4e 7d 95 bc 02 1d 52 3c
       -0.08090084 -0.07525765 -0.018248226 0.012824299
0003f0 ab a2 05 3c 82 c1 73 bd c1 00 4e bd 5c 2f bd bd
       0.008156459 -0.059510715 -0.050293688 -0.09237549

bias f4 [10]
000000 d3 b8 3e bd a4 b7 70 bd 26 f3 93 bd 87 5e 89 bd
       -0.04656298 -0.058768883 -0.07224111 -0.06707483
000010 02 3e 3d be 64 83 46 bd 61 e6 ec bc c9 b6 3c bd
       -0.18480685 -0.048465148 -0.028918447 -0.046072755
000020 1b 46 44 bd cc 66 9f 3e
       -0.04791842 0.31133115

weight f4 [10, 163]
000000 e2 d1 03 bd 6d 3c 06 3d 8f b3 74 bc 0d de a3 bb
       -0.03218258 0.03277247 -0.014935388 -0.0050008358
000010 60 6c f4 bc 51 49 26 b8 d7 ff 2e bc 76 18 79 bb
       -0.029836833 -3.9645765e-05 -0.010681114 -0.0038008965
000020 72 5f cc 3c 57 7e ec 3c a3 b3 f1 3c 75 b4 ae 3a
       0.024947856 0.028868837 0.029504603 0.0013328927
000030 a7 73 fd bb 58 38 e8 bc 21 7f 10 3c 59 62 96 bc
       -0.007734734 -0.02834718 0.008819372 -0.018357443
000040 ca 49 86 3c 32 0e 9d bb 44 f3 0f 3d f1 3f a5 3b
       0.016392607 -0.004792952 0.035144106 0.005043023
000050 28 c1 7f 3c 80 ee 63 3c d0 8b 04 bd af b4 40 ba
       0.015610017 0.013911843 -0.032359898 -0.00073511427
000060 b1 ad cf 3c ef 83 ee bc 3b d8 45 3c d7 0f 8f 3b
       0.025351377 -0.029115645 0.012075479 0.004365902
000070 bf 31 92 3c ab f7 5a bb 4a 88 10 3d 4c a3 56 3c
       0.017845986 -0.0033411782 0.035286225 0.013100456
000080 41 e8 c6 bb c6 f3 93 bc 6e 54 87 3c ba 56 6a bc
       -0.0060701673 -0.018060576 0.016519751 -0.014302904
000090 7b e8 07 3d 81 b1 e1 3c 42 b4 0c 3d 9f 6a ec bc
       0.033180695 0.02755046 0.034351595 -0.028859435
0000a0 3c 6e b6 bc 7b 18 ab bc f6 68 df bc c6 d5 fd 3c
       -0.02226936 -0.020885697 -0.027271729 0.030985724
0000b0 b2 db d0 3c 98 a2 0d bd b7 37 c2 bc d5 af b7 bc
       0.025495384 -0.03457889 -0.023708208 -0.02242271
0000c0 67 4c dc bc a9 17 ca bc e7 f5 ce bc db 03 60 bc
       -0.0268919 -0.024669485 -0.02526374 -0.013672794
0000d0 9a 67 42 bc 22 f8 d1 bc ca 16 97 bc 19 16 12 3d
       -0.011865521 -0.025631014 -0.018443484 0.035665605
0000e0 d2 46 f0 3c 02 98 ec 3b c2 b9 8e 3c d7 ea 01 bd
       0.029330645 0.007220269 0.01742256 -0.0317181
0000f0 dd 05 b9 bc 0f 2f f8 3c a8 23 39 bc 5f af cc 3c
       -0.022585804 0.030295877 -0.011300005 0.024985967
000100 40 69 90 bc b8 9c 46 3c 0f fa 02 3c f7 3b db 3c
       -0.017628312 0.012122326 0.007994189 0.026761992
000110 fe 53 4b 3c 98 c3 a8 3c a7 32 60 3c 8e d0 d2 3c
       0.012410162 0.020601079 0.013683951 0.025734212
000120 ea 79 82 bc 21 32 b1 3c 01 26 af 3c 9d 3c f2 bc
       -0.015927274 0.021630349 0.021380426 -0.029569918
000130 4e 6c 03 3d 84 ec a0 bc ad 05 95 ba bd bc 87 3c
       0.03208571 -0.01964403 -0.0011369489 0.01656949
000140 64 5b 96 bc 0f 8c e9 3c 01 19 45 3c ee 57 bc bb
       -0.018354125 0.028509168 0.012029887 -0.0057477867
000150 a3 90 74 3c 79 db 8b 3c a0 c2 08 bd 8f 46 c1 bc
       0.014927062 0.017072426 -0.033388734 -0.023593215
000160 9c ad 17 bc 58 6f ae 3c 5e f6 5a 3c a6 75 ce bc
       -0.0092577 0.021293327 0.013364403 -0.025202584
000170 0d c5 60 bc dc 51 88 bc f3 cf 8e 3c 8b 93 04 bd
       -0.013718856 -0.016640596 0.017433142 -0.03236727
000180 2b 2a fc bc 87 17 8f bc de 28 c3 bb fc 7f 1a bc
       -0.030781826 -0.017467273 -0.0059557995 -0.009429928
000190 2d c5 c8 3c d4 69 e1 3c 27 f4 da 3c 1d a3 d1 bc
       0.024508083 0.027516283 0.026727749 -0.025590474
0001a0 04 55 0e 3d 30 55 8b 3a 95 d8 89 3c 43 22 ad bc
       0.034749046 0.0010630246 0.016826907 -0.021134501
0001b0 ea ef d0 bc 1d f6 03 bd b3 42 fe 3c fe 60 a0 bc
       -0.025505025 -0.032217134 0.031037664 -0.0195775
0001c0 57 23 ed 3c 21 63 26 bc 00 38 e4 3b 27 5f cf 3c
       0.028947515 -0.01015547 0.0069646835 0.025313927
0001d0 58 a1 84 bc a7 50 e2 bc 3c 38 14 3a 73 09 84 3c
       -0.016190216 -0.027626349 0.00056541315 0.016117787
0001e0 1e 21 cf 3c 90 06 de 3c 80 3b 5f 3c 92 37 60 3b
       0.025284346 0.027102739 0.013625026 0.003421281
0001f0 f0 3b b2 bc d8 a2 a6 3c d3 74 ea 3b 91 41 9b 3c
       -0.021757096 0.020341322 0.00715504 0.018952163
000200 3e 21 d4 3c 38 e8 89 bb 21 dd 02 3d 50 a4 0f 3d
       0.025894757 -0.004208591 0.031949166 0.03506881
000210 b9 1b e2 bc 41 92 61 bb da b4 9a bc a6 39 ad 3c
       -0.02760111 -0.003441945 -0.018885065 0.021145653
000220 f8 b2 ca bc 4f 78 48 bc 05 85 40 bc 49 8d d1 3c
       -0.024743542 -0.012235715 -0.011750464 0.025580065
000230 b7 58 c1 bc 29 95 a9 bc 75 ca 23 3b 51 42 16 bc
       -0.023601873 -0.020701008 0.00249925 -0.0091710845
000240 e9 0c dd bc e9 c5 4e ba cd 39 65 3b f7 bc 31 ba
       -0.026983695 -0.0007887767 0.003497708 -0.0006780172
000250 74 2f 29 3c 19 f2 96 bc 53 15 75 bc a1 16 80 bc
       0.010326255 -0.018425988 -0.014958697 -0.01563579
000260 78 78 9b 3c 43 f5 ef bb fe b0 ed ba ba b2 8e 3c
       0.018978342 -0.0073229386 -0.0018134413 0.017419208
000270 92 ca 89 3c 45 4b 85 bc 1c 9d 43 bc d0 e8 04 bd
       0.016820226 -0.016271243 -0.011939313 -0.03244859
000280 3f bc 38 ba bf d2 4c 3b f4 e2 a3 39 ab 12 00 3d
       -0.0007047094 0.0031253544 0.00031258876 0.031267803
000290 4d cc 93 3c 38 4f a1 3c b9 4b ab ba bc 28 db 3c
       0.018041754 0.019691095 -0.0013068832 0.026752822
0002a0 b1 f4 5e bc 9b b7 eb bc 62 6f c4 bc 03 5b a9 3c
       -0.013608144 -0.028774073 -0.023978893 0.02067328
0002b0 30 97 89 3c d1 72 bc 3c 60 9c 0a 3c 66 40 3a bc
       0.016795725 0.023003967 0.008460134 -0.011367893
0002c0 07 96 d8 3c ed 1e c0 bc f6 c3 11 3d 1c 30 db bc
       0.026438726 -0.023452247 0.035587274 -0.026756339
0002d0 cb 36 b2 3c c2 55 5f bc 07 18 22 3c 5d fa ed 3c
       0.021754643 -0.013631286 0.009893424 0.029050047
0002e0 b1 51 f6 bc 63 96 dc bc 33 9a ef 3c 7f 1e ac bc
       -0.03006825 -0.026927179 0.029248333 -0.021010635
0002f0 90 ae ac bb 8c 35 22 bc 80 47 a1 bc 70 77 51 bb
       -0.005269833 -0.009900462 -0.019687414 -0.003196206
000300 99 50 04 bd 2f b4 cf bc b0 ca b2 3c d0 ce 08 3d
       -0.032303426 -0.025354473 0.021825165 0.033400357
000310 54 5a 83 bc 46 7d 05 3d 98 87 f2 3c 41 78 4d 3b
       -0.016034283 0.032590173 0.029605672 0.0031352194
000320 da c2 09 3d c6 02 2f 3c c8 b6 5b bc fd 03 dd bc
       0.03363309 0.010681814 -0.013410278 -0.02697944
000330 f4 97 06 bd 62 37 db 3c 70 30 b9 39 c4 11 e4 3c
       -0.032859758 0.026759807 0.00035322038 0.027840503
000340 a4 a5 06 bc 88 7b 9a bc fb ad 77 3c a3 31 0e bd
       -0.008218203 -0.018857732 0.015117164 -0.034715306
000350 da 98 ee 3a 68 ce f3 3b 6a 1f 93 bc c5 f6 fe bc
       0.0018203512 0.007440377 -0.017959315 -0.031123528
000360 e6 cf 5f bc fb 6e e2 b9 34 c1 be 3c f4 64 8b bc
       -0.013660407 -0.00043188766 0.023285486 -0.017015912
000370 34 80 c4 3b b2 c2 32 3c ba 60 ab bc d1 33 f6 3c
       0.0059967283 0.010910677 -0.020920146 0.030054005
000380 c4 a0 11 3d 13 ba da 3b 2e 9f 8b bc eb 36 e7 bc
       0.03555371 0.006675014 -0.017043676 -0.02822443
000390 62 b1 37 bb 7d 40 fe bc 23 67 f0 bc 67 15 b8 3c
       -0.0028029312 -0.03103661 -0.029346054 0.022471143
0003a0 64 52 7b 3c 5d 3c 8f 3b 3b 96 d8 3c f9 0a b5 3c
       0.015339468 0.0043712095 0.026438823 0.022099959
0003b0 70 f6 d6 bc 47 05 0a bc f0 78 08 3c da b5 bb 3c
       -0.026240557 -0.00842411 0.008329615 0.022913862
0003c0 c0 98 06 bd d8 9f 95 3c 47 bd b2 bb 59 9e e5 bc
       -0.032860518 0.018264696 -0.0054546925 -0.028029608
0003d0 47 e0 cb bb 80 5c c5 3b f0 86 2b bb 5c e9 a2 bc
       -0.0062218043 0.0060229897 -0.0026172958 -0.019886665
0003e0 ea d5 10 bd 80 cf 07 3c 6a 70 e4 3b e1 18 61 bc
       -0.035360254 0.008289218 0.0069714086 -0.013738842
0003f0 75 f5 e8 bc 19 66 6a bc 15 43 ed 3c 27 99 12 3d
       -0.028437356 -0.014306569 0.028962651 0.03579059

bias f4 [10]
000000 4f 53 02 bc 85 80 43 bc 40 bc ae bb 40 43 70 bc
       -0.007954433 -0.011932497 -0.0053324997 -0.014664471
000010 65 29 08 bc 68 e4 84 3a 69 a7 b5 3a 9a a8 ee ba
       -0.0083106505 0.0010138871 0.0013859096 -0.0018208206
000020 cc f7 1f bc 54 88 d0 3b
       -0.009763669 0.006363908

weight f4 [15, 163]
000000 f6 40 88 3c 37 fa 45 3d 79 94 aa bc a3 b3 4e 3d
       0.016632538 0.048334327 -0.02082275 0.050464284
000010 3a 6e 8b bd 17 e3 0f 3d 68 d5 fb 3b 13 1b 0c 3c
       -0.068081334 0.03512868 0.007685352 0.008551377
000020 ae 9e 72 3d 61 e7 ad 3d 98 69 50 3d 95 6b 80 3d
       0.05923336 0.08491398 0.050881952 0.0627052
000030 99 15 a0 3d f1 b8 82 3d 39 13 cd 3d 02 0c 0b 3e
       0.078166194 0.06382931 0.10013432 0.135788
000040 3c 31 2e bd b0 f7 1b 3d 42 7a 17 bd e2 e5 2f bd
       -0.042527422 0.03807801 -0.03698183 -0.042943843
000050 0b 64 5f bd bf 73 c3 3c 77 1e 85 3d d5 9d 04 3d
       -0.054538768 0.023858903 0.06499951 0.032377083
000060 f0 fd 4c bd 93 0d 48 bc dd 6b 3d bc f2 29 84 3b
       -0.05004686 -0.012210268 -0.011561361 0.0040333206
000070 20 6d cd bb e5 ac cb 3d 48 18 41 3d 03 79 9f 3d
       -0.006269112 0.099450864 0.047142297 0.07786753
000080 24 82 2e 3c 20 c0 45 bb c4 a9 6a bb 76 6c 69 3d
       0.010651145 -0.003017433 -0.0035806755 0.056988202
000090 0a bd fd 3c 3a e1 39 3d 4f ec 36 3d d3 e7 37 bb
       0.03097393 0.04538081 0.044658955 -0.0028061762
0000a0 69 d5 eb 3c 39 9e fb bd 34 ca 22 3d 2d f8 bd bc
       0.028788285 -0.12286038 0.039743617 -0.023189628
0000b0 1b 49 02 bd cf 85 7b bc 5d ab d3 3c ea 7a 9d bc
       -0.031808 -0.015351727 0.025838548 -0.019223649
0000c0 41 96 53 3c ab d2 f5 bb 42 b0 75 3b f1 73 aa bc
       0.012914241 -0.00750192 0.003748909 -0.020807238
0000d0 72 0b e4 bc 4f 69 8b bb 5f 3d 7e bb 1d b5 92 3c
       -0.027837489 -0.004254497 -0.0038793904 0.017908627
0000e0 64 22 37 3d cb e0 23 3d 50 fa bb 3b 4d 06 f2 3c
       0.04471053 0.0400093 0.0057366267 0.02954402
0000f0 1d bb 49 3d b3 6a 7f ba 0d 92 2e 3d 3a d3 f1 3d
       0.04925071 -0.00097433774 0.042619754 0.118078664
000100 1a d4 58 bc 6e 75 74 3d 80 c4 1f 3d f7 5d 3b 3c
       -0.013234163 0.059682302 0.039005756 0.011435977
000110 8b 8b 1e bc be 11 00 bd 39 d4 ab 3b d8 03 b2 3b
       -0.009676824 -0.03126692 0.005243805 0.005432587
000120 1a 86 c8 bb 83 94 33 ba c6 b1 3c bc 5c fe 88 ba
       -0.006119502 -0.0006850438 -0.011516994 -0.0010451782
000130 9d 6c 57 3c b6 8a 72 3c 45 52 ae bb 4a 43 9b bd
       0.013148454 0.014803579 -0.005319866 -0.07581194
000140 da eb be 3d dc d6 f9 3c 21 6a 94 bd 42 13 e5 bb
       0.09322329 0.03049796 -0.07246805 -0.006990821
000150 81 18 19 ba 74 86 58 3c f6 ca 88 3d d8 db 71 bc
       -0.0005840138 0.01321565 0.06679337 -0.0147618875
000160 0f ac ac bb 2c 51 30 3c 0c e5 48 bd 9e 2f 29 3d
       -0.0052695344 0.01076154 -0.04904656 0.041305177
000170 ba 53 1b 3c d7 e1 31 bb 6c 6c e5 3b 81 7f 0b bc
       0.009480411 -0.0027142668 0.0070014503 -0.008514286
000180 58 5a 9f 3d 0f 5b d9 bb 74 b5 14 bd 25 1f 7b 3d
       0.077809036 -0.0066331695 -0.03630586 0.061309
000190 b9 af 14 3d 2d 18 9a bc 18 a5 64 3d 6a 63 f8 bc
       0.036300395 -0.018810356 0.05582151 -0.030320842
0001a0 9c 9f 71 3c 34 6b 4a bc 5c 37 3d bc a8 b4 4a 3c
       0.0147475265 -0.012354661 -0.011548843 0.012372173
0001b0 0c 02 be bb cb 6a 4c 3d df b6 6d 3c 72 21 f9 3b
       -0.005798584 0.049906533 0.014508932 0.007602864
0001c0 d3 3a d9 bc 64 bb 44 3c 3b 2e 13 bc e8 82 36 3c
       -0.026517307 0.012007568 -0.00898319 0.011139609
0001d0 fe 42 2b 3c 7e 2a 0c ba 15 5f 18 3c 2f e0 6b 3c
       0.010452984 -0.0005346908 0.009300013 0.014396711
0001e0 17 7b 5a bc 7b f4 b0 bc 6b 45 b9 bc ba c8 87 3d
       -0.013335011 -0.021600952 -0.022616109 0.066300824
0001f0 22 16 b7 3c b3 95 b4 bd d0 0d ee 39 91 9d 89 bc
       0.022349421 -0.08817615 0.0004540519 -0.016798766
000200 c8 3e 35 3c ce 2c 19 3d 2c 93 52 bc 70 65 ca 3b
       0.0110623315 0.037396245 -0.012852471 0.006176643
000210 51 bb 71 bb fb c0 8c 3c 3e 2b 3c bc 97 42 86 3b
       -0.003688533 0.017181864 -0.011484919 0.0040972936
000220 26 bb 2b bc 28 ca 5e 3c f9 17 95 3d 54 f0 81 3b
       -0.010481631 0.0135980025 0.07279963 0.003965417
000230 c5 0e b8 3d 14 28 8a 3d a8 8f d6 3d 49 2d a0 3d
       0.08987192 0.067459255 0.10476619 0.078211375
000240 8d 60 30 3d 0b 02 2f 3d 9a ce f2 3c 59 eb 94 3d
       0.043060828 0.042726558 0.02963953 0.072714515
000250 b6 18 ac 3d ab ee 05 3e f0 51 52 3d 99 1d fa bc
       0.08403151 0.13079326 0.051347673 -0.030531691
000260 e4 4f 6f 3c 7b 4f 82 3d 26 d3 b5 bc b7 61 57 3d
       0.01460645 0.06362816 -0.02219541 0.052583423
000270 c3 d9 73 3d 90 b1 42 bd e9 4b de 3c bd 52 12 3d
       0.059533846 -0.047532618 0.027135806 0.035723437
000280 0b 7b 60 3d f5 3b 84 bc 00 78 6e 3d 55 44 08 bd
       0.054804843 -0.016141871 0.05821991 -0.03326829
000290 87 ce 85 bc d8 fc 76 3c a7 ae f7 bc 10 db 0e 3d
       -0.016333831 0.015074931 -0.030234648 0.034876883
0002a0 7b 5f ef bc e3 7a 30 bc af 0d 51 3b 8f 2a 9d bd
       -0.029220333 -0.010771486 0.0031899025 -0.07674133
0002b0 37 40 7f bd fa 2f 20 bd 7b ac d2 bc 66 f6 40 bd
       -0.0623171 -0.039108254 -0.02571701 -0.047109984
0002c0 7c 56 0b bd ac 3a 9f bd 43 21 a6 bd 10 6a 61 3d
       -0.034018025 -0.07774863 -0.08111813 0.05503279
0002d0 b0 94 fd bc ce 1c ff 3c 76 ee 86 3d 21 a3 5e 3d
       -0.030954689 0.031141665 0.065884516 0.05435479
0002e0 0f 3e 66 bd 25 e4 6d bd 8a e3 00 bd d1 71 bd 3c
       -0.056211527 -0.058078904 -0.031467 0.023125561
0002f0 df ff 0f 3c 11 e3 bf bc eb 30 2a bc 11 f4 c7 3c
       0.008789032 -0.023423703 -0.0103876395 0.024408372
000300 f0 88 4b bd 17 a1 f5 bc 87 d4 a0 bd 81 30 c8 bb
       -0.04969114 -0.02998404 -0.078530364 -0.0061092977
000310 db 5d c4 bb a7 99 d4 3b 24 a8 9c bd 45 a8 ad bc
       -0.0059926338 0.0064880433 -0.07649258 -0.021198401
000320 e0 3a c8 bc 56 fd 0e 3d a5 3e c5 3c 93 83 0e bd
       -0.024442136 0.03490957 0.024077723 -0.034793448
000330 de 10 c1 3d a8 c3 c8 bc c3 20 0b bd 53 5d fd bc
       0.09427045 -0.024507359 -0.03396679 -0.03092829
000340 6a 73 0f bd eb 26 79 3c f3 b5 10 3d d7 ed b1 bc
       -0.035022177 0.015207033 0.03532977 -0.021719856
000350 3d 6c d4 bc 98 0a c8 bc 03 e0 3b 3c 6a 77 de 3c
       -0.025930518 -0.024419114 0.011466983 0.02715655
000360 2e bd 64 3c a6 1e ee bb 0d 86 f6 bc cd c0 59 bd
       0.01396112 -0.007266837 -0.030093217 -0.053162385
000370 77 2a b0 bc c6 59 32 bc d7 87 c4 bc 7d 22 29 bd
       -0.021504624 -0.0108856615 -0.023990555 -0.041292656
000380 2c 02 77 bc f3 cc 5a 3b 39 a1 a5 bd 5d c8 97 3b
       -0.015076201 0.003338632 -0.080873914 0.0046320395
000390 22 dc 87 bd 2f fc 18 bd 13 bc 56 3c ee 62 53 3b
       -0.06633784 -0.037349876 0.013106364 0.0032255012
0003a0 32 cb 24 3b 67 95 c7 3b bc 8f 17 3c 08 c5 5d bc
       0.0025145528 0.006090808 0.009250578 -0.013535745
0003b0 37 a7 54 3c d9 a4 54 bc d6 96 44 bb 61 b3 73 3c
       0.01297932 -0.012978756 -0.0029997132 0.01487431
0003c0 31 bd 8b 3a 8d aa e5 3c a0 37 9e 3d 50 0a 60 bd
       0.0010661242 0.028035427 0.077254534 -0.054697335
0003d0 e9 e1 72 bd ad 6e 96 3d 16 06 40 3b 50 23 5b 3c
       -0.059297476 0.073453285 0.0029300503 0.013375118
0003e0 5d 02 6c bc d2 a8 95 bd d5 b2 53 bc 70 56 8b 3b
       -0.01440486 -0.073075905 -0.012921055 0.0042522475
0003f0 72 0c ed bb 32 3b a7 3d 9b f4 12 bd 50 2b 23 3d
       -0.0072341496 0.081655875 -0.035877805 0.039836228

bias f4 [15]
000000 14 ce e3 3b c3 92 e8 bb 04 c7 0b 3c b4 ce 17 3c
       0.0069520567 -0.0070975735 0.008531336 0.00926559
000010 71 95 3b bc 1d 08 c6 3b 19 be ec 3b 31 be 17 bb
       -0.011449204 0.0060434476 0.00722481 -0.0023154134
000020 aa 09 53 bc 63 ea 71 bc a4 1c 9b bb f3 4a ca bb
       -0.012880722 -0.014765355 -0.004733639 -0.0061734854
000030 36 20 16 bb f5 9b 5e 3c d8 70 18 3c
       -0.0022907383 0.013586988 0.009304248

weight f4 [15, 9]
000000 61 7d b8 3d c3 b5 0d 3d ce 9d 76 bc 59 0e cf bc
       0.09008289 0.03459717 -0.015052272 -0.025275396
000010 72 19 8f 3d a0 f2 0a bd a5 2b 17 3d 5d cc 17 bb
       0.06987275 -0.03392279 0.036906857 -0.0023162581
000020 c6 7a 6c bd 8c 0f 6f bc 31 b9 15 3d f8 7e 71 bd
       -0.057734273 -0.014591109 0.036553565 -0.058958977
000030 d3 a4 a5 bb 7d f1 68 3d 09 4c a7 3b 7c 9d 5e 3d
       -0.005055049 0.056870926 0.0051054996 0.054349408
000040 bd 17 63 3d c2 2a 78 bd ec c2 1a bd f7 cd 8d 3c
       0.05544256 -0.060587652 -0.03778355 0.017310126
000050 7e d7 f6 bc bd c1 31 3b 32 5e 56 3d bf f3 08 bd
       -0.030132052 0.0027123534 0.052335925 -0.03343558
000060 62 3f 18 bd 0e 3b 3b bd 0b 66 a3 bc ed 26 3e bd
       -0.03716982 -0.045710616 -0.019946119 -0.04642384
000070 ff fb ba bc 8b 98 5d bc 45 29 69 bd 94 ba af 3c
       -0.02282524 -0.013525139 -0.056924123 0.021451272
000080 33 6d cd 3c 08 40 53 3d 23 11 3e bb 1f 41 61 3c
       0.025076484 0.051574737 -0.0029001913 0.013748436
000090 ac 4e 8b 3d ee 69 3c 3d d4 8e 02 bd eb 8a 25 3d
       0.06802115 0.04599946 -0.031874493 0.040415686
0000a0 0a 81 7f 3d d4 57 59 bc 41 b7 e5 bc 97 83 0d 3d
       0.06237892 -0.013265569 -0.028041484 0.034549322
0000b0 ff 3f 49 3c e7 b1 f0 bd 08 43 1a 3b d5 78 09 3d
       0.012283324 -0.11752682 0.002353849 0.0335625
0000c0 32 ea 2f 3d c3 b1 96 3c 13 4b b1 bc 36 81 94 ba
       0.042947955 0.01839531 -0.021642243 -0.0011330012
0000d0 ea fa d5 ba 04 3c 4e 3c 33 80 df 3c ae 90 0c 3d
       -0.0016325389 0.012587551 0.02728281 0.034317665
0000e0 20 b0 4f bc 5b c9 9d bc 69 ed 76 bd 79 06 5c 3d
       -0.012676269 -0.019261053 -0.060285006 0.05371711
0000f0 6f 30 80 bd ac 7d 9a bc f6 a5 20 3c 14 65 b8 bd
       -0.06259238 -0.018858753 0.009805193 -0.09003654
000100 36 8c 6b bc 30 af 2d 3d a6 70 68 bd 15 9c 31 bc
       -0.014376691 0.0424034 -0.056748055 -0.0108404355
000110 01 57 87 bd 37 2f 83 3d b3 b2 7c bd 94 e8 02 3d
       -0.066083916 0.0640549 -0.06169386 0.031960085
000120 f6 8b 37 3d ab cb 58 3d d6 07 b4 3b 29 7a 2d 3d
       0.04481121 0.052928608 0.005494098 0.04235283
000130 25 c2 d7 bc 8b 8e 8a bd 4b 0c 4c 3d 9f a8 53 3c
       -0.026337693 -0.06765469 0.04981641 0.01291862
000140 13 b0 80 bd ae 4b 4b 3d 8f 7c 03 3d 89 ea ae 3c
       -0.062835835 0.04963272 0.03210121 0.02135207
000150 e6 5c 6d bd b8 85 fb bc 09 09 e6 bc 3a 47 a0 3c
       -0.057949923 -0.03070341 -0.02808048 0.019565213
000160 00 87 28 bd 0e 7a 41 3d 2e b3 79 bd 7a 0b 50 3d
       -0.04114437 0.04723554 -0.060961895 0.050792195
000170 82 91 2f 3c f3 14 d6 bc a2 27 1d 3d ec 93 31 bc
       0.010715844 -0.026133036 0.038367875 -0.01083849
000180 97 4f 46 bc bf b1 7f 3d 8e 96 32 bb d7 b7 0b bd
       -0.012103937 0.06242537 -0.0027250382 -0.03411087
000190 5c 0a 8f bd f3 cd 0a bc ce 00 2a bd a9 6b 49 b6
       -0.06984398 -0.008471954 -0.041504674 -3.0014e-06
0001a0 bb df be 3c 0e fe 40 3d 9a ae 03 bd c7 2a 1f 3d
       0.023300042 0.047117285 -0.032148935 0.038859155
0001b0 a4 cd 22 3d e2 f2 3e bd 1e 5c 47 3d 43 62 11 bd
       0.039746895 -0.04661835 0.048671834 -0.0354941
0001c0 e4 75 98 bc 9e d1 9b 3d 88 c4 77 bc 84 7d db 3c
       -0.018610902 0.07608341 -0.01512254 0.026793249
0001d0 fd a9 3f bd c2 96 50 3d ca 1b 78 bc f6 5a 4b bc
       -0.046792973 0.050925024 -0.015143344 -0.0124118235
0001e0 f8 11 9f bc c3 49 36 3d 9f cf 0a bd 1d cc 32 bd
       -0.019417748 0.04450394 -0.03388941 -0.04365169
0001f0 42 b3 30 3d 87 e7 86 bc 8a 5b a9 bd 19 12 82 bc
       0.043139704 -0.016467823 -0.08269413 -0.01587777
000200 25 cd 25 bc 60 e0 49 bd ef 1f 0b 3d 8a 7b 1d 3d
       -0.010119711 -0.049286246 0.033966 0.038447894
000210 f0 c1 de bc ab fd 97 3b 5f 5b b8 bb
       -0.027192086 0.004638394 -0.0056261267

bias f4 [15]
000000 5f a7 4b 3d d0 f6 61 bd 20 47 15 bd fb 81 55 bd
       0.049720164 -0.05516702 -0.036444783 -0.052125912
000010 1f 0e 59 3d c4 6a 91 bd b5 11 8c bd 3d 15 aa bc
       0.052991983 -0.07100442 -0.06839315 -0.02076208
000020 6d 3c dc bc 66 d7 64 3c 36 28 58 ba 5f 19 13 bd
       -0.026884282 0.013967371 -0.0008245738 -0.035912868
000030 00 2a 26 3b 88 cb 12 3d 5d 23 31 3d
       0.0025354624 0.035838634 0.043246616

weight f4 [15, 163]
000000 3a e7 d9 bc be 3c 20 bd 89 44 2c bd 7d 00 31 bd
       -0.026599515 -0.03912043 -0.042057548 -0.043213356
000010 5c 11 0e bd 5b 4d be bc 13 60 c8 bc fd 5d e1 bc
       -0.034684524 -0.023230245 -0.024459874 -0.027510637
000020 ba d1 17 bd 13 82 db bc 42 f5 6a bd 19 8d 5f bd
       -0.037065245 -0.026795423 -0.057362802 -0.05457792
000030 8c 92 18 bd e2 04 81 bd 24 a4 5f bd 2d 8f 67 bd
       -0.037249133 -0.062997594 -0.054599896 -0.056533027
000040 73 35 33 bd ec 18 33 bd f5 d7 ec bc d8 e3 2f bd
       -0.043752145 -0.04372494 -0.02891157 -0.042941898
000050 55 c4 d5 bc 5a d1 1e bd 46 f3 28 bd e7 0a 11 bd
       -0.026094595 -0.038773872 -0.04124763 -0.035410788
000060 53 08 68 bd a9 e9 b8 bb 17 e5 08 bd aa 94 16 bc
       -0.056648564 -0.005643089 -0.033421602 -0.009190718
000070 d1 ef 0f bd 78 1f 1f bd 4c be f4 bc 2e 53 3c bd
       -0.035140816 -0.03884837 -0.029875897 -0.045977764
000080 76 bd db 3a ad 1f 8f 3b 83 bf 9c 3d 84 66 22 bd
       0.0016764838 0.0043677897 0.076537155 -0.039648548
000090 13 44 34 bd 1f f2 ef bc aa 2e 4c bd 25 09 24 bd
       -0.044010233 -0.029290257 -0.04984919 -0.040047783
0000a0 60 05 4a bd f6 74 0f bd 5c 3f 22 bd 7c 71 5f bd
       -0.049321532 -0.035023652 -0.039611205 -0.054551587
0000b0 71 5d 32 bd 43 7b 36 bd 00 63 5d bd b1 08 08 bd
       -0.043546144 -0.044551145 -0.054049492 -0.033211414
0000c0 92 d4 57 bd 6b 83 16 bd df 04 24 bd 79 d1 5b bd
       -0.052692957 -0.036746424 -0.040043708 -0.053666566
0000d0 85 99 4a bd 35 93 6f bc 0e 86 34 bb 1b a3 d2 bc
       -0.049462814 -0.014622499 -0.0027545723 -0.02571254
0000e0 8d b3 24 bd cc e8 6d bd 78 c4 3c bd 1a 57 d8 bc
       -0.040210295 -0.05808334 -0.046085805 -0.02640872
0000f0 f0 1d 43 bd 8c fc a6 bb 05 61 52 bd f9 0a cf 3a
       -0.047635972 -0.005096024 -0.051362056 0.0015796117
000100 75 dc 04 3c 09 ff a3 3d 4b b1 9e bc 27 55 1f bd
       0.008109202 0.080076285 -0.01937165 -0.038899567
000110 84 ba bc bb f5 df bb 3b 61 1b 32 bc 01 6c d9 ba
       -0.005759539 0.005733485 -0.010870785 -0.0016587974
000120 c8 d3 e7 3a a4 80 b9 bb bf 8d 6f 3c de 21 ce bb
       0.0017687017 -0.005661087 0.014621197 -0.0062906584
000130 75 c9 d5 bb 1e e6 87 3b a0 75 70 bd 38 7a 03 bd
       -0.0065242597 0.004147305 -0.058705926 -0.03209898
000140 b5 83 1a bd 0c 29 55 bd f0 47 63 bd b1 3a 8d 3b
       -0.037723262 -0.0520411 -0.055488527 0.004309975
000150 01 8a 07 bd 2b 47 65 3d 2c 61 28 bd 57 43 33 3c
       -0.033090595 0.055976074 -0.041108295 0.010941348
000160 c4 de 67 bc dc da 8d 3b 5c f0 b5 bc 2c 79 d5 bc
       -0.014152233 0.0043290686 -0.022209339 -0.026058756
000170 0e 14 81 bd 1f ef 04 bd 9f cc 0d 3c 54 93 2b 3b
       -0.06302653 -0.032454606 0.0086547425 0.0026180344
000180 31 c5 04 bd a4 57 86 bb 94 b9 36 bd c2 08 2e bd
       -0.03241462 -0.004099803 -0.044610575 -0.04248882
000190 01 7e 80 bd 42 04 5e bd c9 88 79 3c 7a 05 17 3d
       -0.06274033 -0.05420328 0.015230366 0.036870457
0001a0 ad f1 75 bc a2 98 58 bd 24 12 0e bd 9c c0 08 bc
       -0.015011233 -0.052879937 -0.03468527 -0.008346703
0001b0 57 c7 a7 3d 7c e1 a7 bc 3f 54 37 bd f6 62 d4 3b
       0.08192318 -0.020493262 -0.044758078 0.0064815236
0001c0 75 47 ae bc 9a 48 35 3b 84 96 ca ba 2d 82 98 bb
       -0.021274308 0.0027661682 -0.0015456234 -0.00465419
0001d0 e7 23 1a 3b 5b 73 5b bc 67 ad e3 3b 0c d2 29 3a
       0.0023519935 -0.013394202 0.0069481614 0.0006478138
0001e0 97 3e 1c bc 32 2e 4c bd eb a6 fa bc 68 91 1e bd
       -0.009536407 -0.049848743 -0.03059717 -0.03871289
0001f0 b9 16 4c bd ea c7 0b bd aa 0a a3 3b aa 0e 05 bd
       -0.049826358 -0.0341262 0.0049756365 -0.032484688
000200 ff 0e 33 3d 71 d6 2d 3c 2e 00 22 bc 97 07 10 bc
       0.043715473 0.010610209 -0.009887738 -0.008790872
000210 61 c9 5b bb 5a 86 7b bc ea 69 1c bd 71 c8 0f 3d
       -0.003353678 -0.015351856 -0.038186945 0.035103265
000220 35 3f d7 3c ce 31 5d 3c 64 bd 56 bd 11 5b 15 bd
       0.026275257 0.013500644 -0.05242671 -0.0364638
000230 2b e9 2b bd 31 71 e8 bc 5e 93 3e bd 60 23 59 bd
       -0.041970413 -0.028374286 -0.04652726 -0.05301225
000240 51 f8 4c bd 88 94 d3 bc 4c 42 fc bc 68 93 c0 bc
       -0.0500415 -0.025827661 -0.030793332 -0.023507789
000250 25 23 49 bd da 85 3f bd 73 d8 f5 bc 02 df 1a bd
       -0.049105782 -0.04675851 -0.030010438 -0.037810333
000260 1d 92 f5 bc c2 34 3f bd 75 6f 16 bd 2a d9 04 bd
       -0.029976899 -0.046681173 -0.036727387 -0.032433666
000270 a8 57 1b bd ab 91 24 bd eb 98 41 bd 7b e4 46 bd
       -0.037925392 -0.040177982 -0.047264975 -0.04855774
000280 44 5e 31 bd b1 a8 2a bd 02 32 b2 bc a6 36 f1 3b
       -0.04330279 -0.041664783 -0.021752361 0.007361251
000290 fb c5 ca 3c 0d ad df bb 46 69 86 3c 80 72 a5 3c
       0.024752608 -0.006826049 0.01640762 0.0201962
0002a0 65 ee 4e 3c 24 84 d3 3c 61 4c 0f 3c d8 f1 de 3c
       0.01263008 0.025819845 0.0087462375 0.02721493
0002b0 8a bc 87 3c cc 3d 13 3d 49 83 d5 3c 6c a7 1c 3d
       0.016569395 0.035947606 0.026063578 0.038245603
0002c0 50 fa 13 3d 7c 43 50 3d a4 4a 45 3d 9d c4 4a 3c
       0.03612739 0.050845608 0.048166886 0.012375978
0002d0 93 bf b0 3c 49 f5 18 3d 6e 32 8b 3b 07 75 09 3b
       0.021575725 0.037343297 0.004247955 0.0020974295
0002e0 d3 b7 9a 3b 38 4d 8a 3c f4 c6 16 3c e0 22 cf bb
       0.0047216206 0.016882524 0.009202708 -0.006321296
0002f0 44 bb 69 bc 13 4d 64 3c 2b b9 26 bb 48 8a 68 3b
       -0.014265839 0.013934392 -0.0025439959 0.0035482813
000300 03 03 aa 3c 79 be 31 3c 60 e4 8b bb d1 63 f4 bc
       0.02075339 0.010848635 -0.004269168 -0.029832752
000310 08 f7 19 3c ac 98 8d bc ca f7 98 3c 89 39 55 3a
       0.009397276 -0.017284714 0.018672843 0.00081338786
000320 60 e5 60 3c ab 4d 96 3c 65 00 c9 3c 75 7a da 3c
       0.013726562 0.018347582 0.024536321 0.02666972
000330 b4 e7 bd 3c 19 a4 85 3c 84 4c 4c 3c e4 22 fb bb
       0.023181774 0.0163136 0.012469415 -0.0076640714
000340 9d e0 93 ba 65 e1 19 3c e6 84 94 3c 6e 17 b2 ba
       -0.001128215 0.009392117 0.018129777 -0.0013587305
000350 54 f8 bc 3c 8d f7 78 3c 6e 8f 6f 3c 8f 2f be 3c
       0.02306763 0.015195739 0.014621599 0.023216037
000360 0d 3e 35 3c 3b 7d b3 bb 58 19 af bb 50 e2 45 bd
       0.011062157 -0.005477575 -0.0053435974 -0.04831153
000370 3a 2e 53 3d d2 ef 80 3c f6 35 89 bc ed 15 b7 3c
       0.051557757 0.015739355 -0.016749363 0.022349322
000380 60 c8 59 ba 80 83 db 3d 38 e4 8b 3d 4d e1 f1 bb
       -0.0008307751 0.10718441 0.06830639 -0.0073815943
000390 08 d5 c0 3d 5d e7 b2 39 35 60 1c bc bb ec 4f 3c
       0.094156325 0.00034123185 -0.009544422 0.012690718
0003a0 e9 ca 14 3d b4 79 37 3c fc 0f 29 3b 4a 84 05 ba
       0.036326323 0.01119845 0.002579688 -0.000509326
0003b0 6d 85 93 3c b6 b7 cc 3b 3e d1 c0 bb 46 48 96 3b
       0.018007958 0.006247486 -0.0058843186 0.0045862524
0003c0 b0 27 17 3c ad 9d 0b bd 69 d5 20 3d 7c d4 35 3d
       0.009225771 -0.03408592 0.039266024 0.044392094
0003d0 e1 d2 c2 3c 1e ec 14 3c 50 ef 15 3c 4c 15 84 bd
       0.023782196 0.009089498 0.009151295 -0.064493746
0003e0 7f 46 8e 3d ea c0 00 bc 09 1a 37 bc 70 9d 57 bc
       0.0694704 -0.007858494 -0.011175641 -0.013160095
0003f0 d7 be 2a bc fc 18 df 3c c3 c2 c8 3c c1 71 87 bc
       -0.010421476 0.027233593 0.024506932 -0.016533734

bias f4 [15]
000000 67 f1 47 bd a0 66 1b 3c 69 a7 4c 3d 25 0e 8f 3d
       -0.048814204 0.009484917 0.049964342 0.0698512
000010 31 3a 98 bd eb a1 b6 3d 29 00 aa 3d ef 53 8d 3d
       -0.07432974 0.08917602 0.08300812 0.06900775
000020 b1 72 3e 3c 75 41 d0 bd c0 2c ad bd 64 36 66 3c
       0.011624024 -0.10168735 -0.08455801 0.014051054
000030 9f c3 b6 bc 56 68 6a 3d 59 9f 86 bd
       -0.022310076 0.05722841 -0.06573362

weight f4 [15, 9]
000000 c4 ae 74 bc 56 c3 4a bd da 90 a8 bd 47 e0 9e 3c
       -0.0149342455 -0.049502693 -0.08230753 0.019394053
000010 bb aa a0 bd 82 54 76 bd de d5 b7 3c f4 fb e3 3b
       -0.07845064 -0.060139187 0.022440847 0.0069575254
000020 fc 41 f4 3a 90 cc 63 bd 65 05 39 3d a5 93 79 3d
       0.0018635388 -0.055615008 0.04517116 0.06093182
000030 5e aa 92 3d 40 9a 85 3d 99 c1 83 bc 9b 84 c1 3c
       0.07161401 0.065235615 -0.016083525 0.023622802
000040 92 e5 f4 bc 13 0f 3c 3d ee 51 44 3d 41 ed 60 3d
       -0.029894624 0.045912813 0.047929697 0.054913763
000050 21 1f 51 3c 63 12 c2 3d ea 9f 97 3c d8 14 ca bc
       0.012763769 0.09476163 0.01850887 -0.024668142
000060 30 ee 3c 3c 34 a7 4b bd b9 86 9f 3a 35 8b 91 3c
       0.011531398 -0.049720004 0.0012170888 0.017766574
000070 15 98 f9 3d c7 e5 ac 3d 89 0a f4 3d 1d 2e c9 3d
       0.121872105 0.08442264 0.11916072 0.098232485
000080 e8 67 da 3d 43 15 bb bc 2f e9 74 3d 68 a6 eb 3d
       0.1066435 -0.022837287 0.059792694 0.11506349
000090 37 c8 3d bd c4 e7 e0 bd 29 c3 05 be ca a8 fd bd
       -0.046333518 -0.10981706 -0.13062729 -0.123857096
0000a0 84 31 bc bd b4 98 8d bd 4c 06 99 bb a0 2d 21 3d
       -0.09189132 -0.069138914 -0.00466994 0.039350152
0000b0 f7 87 06 be 0f 94 0b 3c 1f a0 8a 3d 9e 39 bc 3d
       -0.13137804 0.008519187 0.06768822 0.09190677
0000c0 c0 ca 37 3d 72 43 27 3d 83 e8 70 3d e5 b0 fb bb
       0.04487109 0.040835805 0.05881549 -0.0076809996
0000d0 01 ca f1 bc 4f a2 20 3d f3 2c 41 3d 42 ff f1 3b
       -0.029515268 0.03921729 0.047162008 0.0073851654
0000e0 0e 97 2a 3d 15 54 0a 3d 2f 1f 89 bc f6 9f 95 3c
       0.041647963 0.033771593 -0.016738502 0.018264752
0000f0 8b cb 1e bc e1 c9 3f be a0 ba f4 bd 96 ca c4 bc
       -0.009692083 -0.18729354 -0.119496584 -0.024022382
000100 e8 09 5e 3d 4f 3c ea 3d 7e 48 56 3c 6b a4 ca 3d
       0.054208666 0.11437284 0.013078807 0.098946415
000110 92 f2 fa 3c 02 4f 37 bd ab 35 0f bb 01 e8 76 bc
       0.030633245 -0.044753082 -0.0021852057 -0.0150699625
000120 db 43 ff bc fe 59 90 3b 73 db de 3d de c1 d9 bb
       -0.031160286 0.004405259 0.108817 -0.006645425
000130 06 75 0b 3c 86 db d8 bc 59 0a b5 bb 66 e2 88 3d
       0.008511787 -0.026471864 -0.005524915 0.06683807
000140 da 38 64 3d e8 8e 3c bd d3 50 12 be 7d 2d f3 bd
       0.05571828 -0.046034724 -0.14288644 -0.118739106
000150 68 40 5c bd 8c da 43 bd 67 c4 6f bd 5d 2b 6f bd
       -0.05377236 -0.047815844 -0.058536913 -0.058390964
000160 e6 b5 bc bc e9 9c c7 bd 81 21 8d bd 1c fd f3 bd
       -0.023035955 -0.09746725 -0.06891156 -0.11913511
000170 bb 7d cc bd bb 3d c4 bd 9e df 2f bd 9a 6d 92 bd
       -0.09984919 -0.09582087 -0.042937867 -0.07149811
000180 a4 a8 69 bc 35 ae c1 bc cd fa ff bd cf 3f 73 3d
       -0.014261398 -0.023642639 -0.12499008 0.059387024
000190 6b 01 42 bd 9d a9 43 bd 79 70 82 3d 9c 1e 19 bc
       -0.047364634 -0.047769178 0.06369109 -0.009345677
0001a0 83 8f 34 3d 97 d5 f8 3c d0 bb 57 bc 64 d0 89 3d
       0.044082176 0.030375285 -0.013167337 0.067292005
0001b0 10 4b 6d bc ba db cc bd 59 3d 56 bd 40 55 0c bc
       -0.014483228 -0.10002847 -0.0523046 -0.008565247
0001c0 8d e0 8b 3c 2d a6 65 bc 06 7c 73 3d e5 29 b2 3c
       0.017074848 -0.01401667 0.05944445 0.021748492
0001d0 b7 ee 46 3c 2c 2c ca 3d b5 fa 8b 3b dd c6 37 bc
       0.012141875 0.09871706 0.00427183 -0.011216846
0001e0 57 49 1c bc 6b 11 d6 3b 07 a3 a0 bc e5 3e 36 3d
       -0.00953897 0.006532838 -0.019608987 0.044493575
0001f0 23 f0 67 be d4 bd 81 3c 70 7f d2 bd ff 4a 53 bd
       -0.22650199 0.015837587 -0.10278213 -0.051585194
000200 f6 5c ca bd 38 57 e9 bd ef 31 2d bd cf fb 84 bd
       -0.09881012 -0.11393589 -0.04228395 -0.06493341
000210 4f b2 61 bd 15 f9 10 bd 44 ef 07 be
       -0.05510169 -0.035393793 -0.13274866

bias f4 [15]
000000 03 a7 ac 3c 61 7d 70 3d 75 e6 a5 3d 77 04 be 3d
       0.021075731 0.05871332 0.08100597 0.09278195
000010 1f 0b 49 bd b4 c1 bc 3b 8e b4 64 3d c4 fd ae 3d
       -0.04908287 0.005760396 0.055836253 0.08544496
000020 57 ba a2 3d 80 74 4e bd 92 f3 ec bd d3 74 fb 3a
       0.07945698 -0.05040407 -0.11569895 0.0019184597
000030 12 b5 8c bc 31 85 ed 3c 04 87 44 bd
       -0.017176185 0.028994175 -0.047980323

weight f4 [15, 9]
000000 c2 38 50 3d 17 8a 48 3d 02 00 e6 3d 34 ae d7 bd
       0.05083538 0.048959818 0.1123047 -0.105312735
000010 f2 89 ef 3d 1d c6 d0 3d 79 72 1b 3d af 6d 56 3c
       0.11696233 0.10194037 0.037950967 0.013087674
000020 7e 8d a4 bc 18 4b a0 bb 2f f6 82 bd fa 4d 89 bd
       -0.020087 -0.0048917644 -0.06394612 -0.06704326
000030 55 5d c5 3d 25 d7 e4 bd fb 1f e5 bd 50 00 c1 ba
       0.09636942 -0.11173848 -0.111877404 -0.0014724825
000040 05 c5 2e bd e5 de de 3c 93 a7 d6 3d bc 13 51 3d
       -0.04266836 0.027205894 0.10481181 0.05104421
000050 43 7b e2 3d 74 b2 a1 bd cf 8f 67 3d 16 2e 3b 3b
       0.110586666 -0.07895365 0.05653363 0.0028561405
000060 91 cf 1e 3d 50 57 08 3c bd 2a b0 bc 83 7b 69 3d
       0.03877217 0.008321598 -0.021504754 0.057002556
000070 43 f3 0d 3d 38 c0 28 3c 55 29 96 bd 7c 47 cc 3d
       0.03465582 0.010299735 -0.07332102 0.09974572
000080 50 67 54 3d 9c f1 ef bc bd 0b 5e 3d b7 36 7a 3c
       0.05185634 -0.029290013 0.054210413 0.015271834
000090 e9 75 a6 bd 81 00 3f bb ab 1e bd bd 2f 54 95 3c
       -0.08127958 -0.0029144587 -0.09234365 0.018228618
0000a0 28 36 83 bd dc 20 b5 bd 25 2f 7a 3d ba 1c 42 bd
       -0.06406814 -0.08844158 0.061080117 -0.047390677
0000b0 6e 10 82 3d 4a 55 e0 bd ef 59 9a bd ea 71 62 bd
       0.0635079 -0.109537676 -0.07536685 -0.05528442
0000c0 9c 5f bf 3d bb 2a 2b bd 86 01 cb bd 1e 39 b8 3c
       0.09344408 -0.041788798 -0.099124 0.022488173
0000d0 0e 9c 8b bd 91 8d ac 3d 7e 24 54 3b fb c7 f1 3d
       -0.068168744 0.08425439 0.0032370384 0.11805721
0000e0 2f 78 b9 3c 7a f2 10 bd a0 2b d0 ba ad 5e de 3d
       0.022640316 -0.035387494 -0.0015882142 0.10857902
0000f0 30 70 4e 3d e8 cf 9b 3d 15 b3 e1 bc 94 bf 27 3d
       0.05039996 0.07608014 -0.027551213 0.040954188
000100 74 46 da 3d c8 98 be 3d 36 8b e4 bc b9 53 12 3d
       0.10657969 0.093064845 -0.027898412 0.035724375
000110 54 ac d6 bb 85 c7 16 bd 30 72 16 bb 6b d3 26 bd
       -0.006551305 -0.03681137 -0.0022956245 -0.040728968
000120 ba d0 36 bd 23 53 22 bd 8e 4a 3b bc 6b c8 cf 3d
       -0.04463265 -0.039630067 -0.011431349 0.101456486
000130 c6 05 6a bd ee b4 e9 bd 95 1d 1b bd e2 76 a4 bd
       -0.057134412 -0.11411463 -0.03787001 -0.080304876
000140 6a b3 06 be 20 b1 c2 bc 1e 9b b2 bd 75 84 d4 bd
       -0.13154379 -0.0237661 -0.087209925 -0.10376827
000150 8c b7 e8 3d b9 e0 2d ba 60 d9 29 39 cb 5b fe bb
       0.11363134 -0.00066329126 0.00016198074 -0.0077624074
000160 54 fb 0a bd a3 e4 40 3d 56 5d 9b 3d 10 37 9e 3d
       -0.03393109 0.047093045 0.07586162 0.07725346
000170 99 b9 43 ba 95 58 8c bd 72 a1 d1 3d be bb 43 3d
       -0.0007466316 -0.06852833 0.102358714 0.047786467
000180 9b 4b 90 bb c5 07 9a 3d 18 9e 54 bd 5a 50 6b bd
       -0.004403544 0.07521013 -0.051908582 -0.057449676
000190 e3 20 0b 3b 5e 23 68 bd 78 cc 7a 3d ef cc 2c bd
       0.0021229319 -0.056674354 0.061230153 -0.042187627
0001a0 b0 76 37 bd 0e 20 0b 3c 74 42 d4 bd d2 45 cd 3d
       -0.044790924 0.008491529 -0.103642374 0.10023083
0001b0 ae 27 71 3d 23 43 c7 3d 3e 8e 88 3d e3 83 83 bd
       0.058875732 0.09729602 0.066677555 -0.0642164
0001c0 1a 35 cb 3d 93 a4 66 3d bf af 30 bd 63 bd 63 3b
       0.09922238 0.056309294 -0.043136355 0.0034750334
0001d0 d1 a1 38 3c 08 38 aa bd ff 7d e2 bd e5 c3 e4 bd
       0.011269049 -0.08311468 -0.11059188 -0.111701764
0001e0 56 6c ab 3d f0 ef bc bd 91 69 8b bd ea cb b2 3c
       0.08370273 -0.09225452 -0.068072446 0.02182575
0001f0 4f ce 52 bd 0f 84 1e bc 05 1a 71 bd 98 7b 74 bd
       -0.051466282 -0.00967504 -0.058862705 -0.05968818
000200 34 21 eb bd e5 14 ee 3c 24 c7 2d bd 95 7a ac bc
       -0.11480942 0.029062698 -0.042426243 -0.021054545
000210 e2 4d 28 bd 93 a6 f3 bd 16 ba 9d b9
       -0.0410899 -0.11897006 -0.00030084018

bias f4 [15]
000000 63 ee e9 3d c9 34 5b 3a 28 e8 58 3d dd 40 6d 3c
       0.11422422 0.00083620526 0.052955776 0.014480797
000010 44 2e 66 bd 87 b5 9e bd 45 97 77 3d f1 31 44 3a
       -0.056196466 -0.07749467 0.060446996 0.00074842485
000020 51 08 85 bc d4 13 3e bd 73 fa ae 3d 5b 74 57 bd
       -0.016239317 -0.04640563 0.08543863 -0.0526012
000030 4a 00 6a 3c 1a 69 33 bd bd 44 aa bd
       0.0142822955 -0.043801405 -0.08313892

weight f4 [15, 9]
000000 00 67 3a 3d 14 35 b5 3c 51 db 45 3d 3f b5 28 3d
       0.045508385 0.022120036 0.04830486 0.041188475
000010 d8 8d 9c bb 6d e3 10 bc 43 25 40 bd e3 bc 1c 3d
       -0.0047776513 -0.008843285 -0.046910536 0.038266074
000020 31 95 2b 3c a4 32 3b bd 4e 0e cd bd 83 03 9e bd
       0.010472582 -0.04570259 -0.10012494 -0.077155136
000030 fb 44 01 3c 3f ce 6f bd dd b8 8f bd e7 ad f5 3a
       0.007889981 -0.0585463 -0.07017682 0.0018743844
000040 a8 e5 58 3d e9 23 36 bc c4 4c a9 bd 30 34 cd 3b
       0.052953392 -0.01111696 -0.08266595 0.0062623248
000050 b7 e2 f0 bc f2 af 4f bc 41 6e 53 bd 62 f9 a1 bd
       -0.029404981 -0.012676226 -0.05161882 -0.07908894
000060 2a 82 2a 3d 4f 53 8d bd 9b 62 63 3d d9 58 92 bd
       0.04162804 -0.069006555 0.05551396 -0.071458526
000070 ca a0 88 bd c1 42 a0 3b fe e2 62 3c c4 39 f5 3b
       -0.06671293 0.00489077 0.0138480645 0.007483693
000080 64 ae 9a bc 72 82 09 3d a5 83 de bc 7d 1f 89 3d
       -0.018881984 0.033571668 -0.027162382 0.06695459
000090 f8 98 c1 3d b0 12 3f 3d 9b b6 37 3d ee 88 bc 3c
       0.094530046 0.04664868 0.04485188 0.023014512
0000a0 38 e8 cb 3d 90 b5 27 3d aa 37 9e bc d9 1f 81 3d
       0.099564016 0.040944636 -0.019313652 0.063049026
0000b0 b5 91 94 b9 cb b7 73 3d 72 ec 6e 3d 7c d5 6d 3b
       -0.0002833732 0.05950145 0.05833096 0.0036290577
0000c0 33 88 ad bb 90 53 1e 3d 42 c5 c2 3d da 4d 64 3d
       -0.005295777 0.03865391 0.0951028 0.055738308
0000d0 f6 5a 4e 3c ca cd b5 bd 78 6d 20 3c c0 d8 a6 ba
       0.012594929 -0.08877142 0.009791724 -0.0012729391
0000e0 69 25 eb 3c 97 c7 df 3d ff cb 89 3c e9 87 9d 3d
       0.028704362 0.109267406 0.016820906 0.076919384
0000f0 76 e0 ee 3c 3d 13 ec 3b 0d 1b fc 3c 63 24 0a 3d
       0.029159766 0.007204442 0.030774618 0.033726107
000100 21 0d 91 3d a0 0b a2 3d d8 bb b8 3d 32 f6 ae 3d
       0.07082582 0.079123735 0.09020203 0.08543052
000110 9a 6d 88 3d 0e 04 3d 3d aa 36 18 3d 21 a9 9b 3b
       0.0666153 0.046146445 0.037161507 0.0047503863
000120 15 0d 47 bd 48 c6 d0 bd 95 08 3f bd 36 0e b2 bc
       -0.04859646 -0.10194069 -0.046639044 -0.021735292
000130 f4 2f de bd 39 6e 06 3c 07 4e 5d 3d c2 03 2b bc
       -0.1084899 0.00820499 0.05402949 -0.010437908
000140 f3 24 cd 3b 52 be 70 bc cd 01 b1 bd 8a fe b3 bc
       0.006260508 -0.014693813 -0.086429216 -0.02197196
000150 3d a8 b5 bc 6c de 55 bd 95 d0 a0 bd 5a 91 c9 bc
       -0.022174949 -0.05221407 -0.07852284 -0.024605442
000160 49 a1 43 bd f0 02 1e 3c c6 fb ac bd d9 53 b0 bd
       -0.047761235 0.009644255 -0.084464595 -0.08609743
000170 70 ed 88 bb 99 64 f9 bc 54 52 82 bd b3 0f bc bd
       -0.0041786954 -0.030443477 -0.06363359 -0.09182682
000180 7e 54 ca bc eb 6e f3 3c c8 10 6c 3d 38 c0 88 3d
       -0.024698492 0.029715976 0.05763319 0.06677288
000190 63 37 38 3c 81 bc 88 3c 54 88 7f 39 13 de f8 3b
       0.011243674 0.016691448 0.00024369481 0.0075948327
0001a0 7f 2b ed 3c 53 ca 0e 3d 6e 9c 1c 3b b5 28 7b 3d
       0.028951405 0.03486092 0.002389695 0.061318118
0001b0 03 47 a8 bd 6a ac a1 bd ea 6d db bd c7 f9 e1 bd
       -0.082166694 -0.078942135 -0.10714324 -0.11033969
0001c0 ef 92 82 3a af 56 a3 bd 79 46 57 3d b5 b6 49 3d
       0.0009962003 -0.07975518 0.052557442 0.04924651
0001d0 99 3b 7c 3d ad d3 b3 3d b5 7a 96 3d 7b 1d c6 3d
       0.061580274 0.08780608 0.07347623 0.09673592
0001e0 19 77 12 3d 74 ea 93 3d 0c 0d 82 b9 4f ea 51 bc
       0.03575811 0.07222453 -0.00024805253 -0.012812211
0001f0 71 2d 8f bc 58 76 22 bd 0d 57 e1 3d 4d c3 b6 3d
       -0.017477723 -0.039663643 0.11002932 0.089239694
000200 a8 25 89 3d 2c 84 c7 3d 3a 7f 59 3d bb 7c 47 3d
       0.066966355 0.09742007 0.05309985 0.048702937
000210 93 f3 90 bb b2 ef 80 3d 71 4f 55 3d
       -0.0044235676 0.06295718 0.052077714

bias f4 [15]
000000 d9 ce af 3d 78 62 e8 bc c8 29 48 3b 40 ee c1 bd
       0.08584375 -0.028367266 0.0030542482 -0.09469271
000010 48 4f 15 3c 06 2c d3 3c 2e 74 25 3d cb 16 76 3d
       0.00911314 0.025777828 0.040394 0.06008033
000020 4c 56 71 bd 04 8b 8a bd 1a 19 f5 bc 11 8b d1 3d
       -0.05892019 -0.067647964 -0.029919196 0.10231603
000030 e4 c2 c4 bb 29 12 74 3d 86 a7 83 3d
       -0.006004678 0.05958763 0.06428437
