model/gnn/240929_4/epoch_4.pt (torch, 253718 bytes, 63 tensors)

att_src f4 [1, 1, 15]
0	0x377f71fc	1.52257235e-05
1	0xb79d951a	-1.878529e-05
2	0xb691d439	-4.3460427e-06
3	0xb730edb3	-1.0545761e-05
4	0xb7033628	-7.820818e-06
5	0x36cb2262	6.053874e-06
6	0xb59bba3b	-1.16026e-06
7	0x37176f45	9.026208e-06
8	0xb7819198	-1.5445796e-05
9	0xb6d8fbf7	-6.466634e-06
10	0x37155fd6	8.903406e-06
11	0xb700ab58	-7.669289e-06
12	0x362bd4c4	2.5604832e-06
13	0xb768f12c	-1.388443e-05
14	0x37967eec	1.7940496e-05

att_dst f4 [1, 1, 15]
0	0xb33901e7	-4.30754e-08
1	0x37002cbd	7.639811e-06
2	0x3596500c	1.1199168e-06
3	0x36084669	2.0306563e-06
4	0x37a56b81	1.9719593e-05
5	0xb712b584	-8.7445405e-06
6	0x3798791e	1.8176212e-05
7	0xb7108282	-8.613455e-06
8	0xb52e5673	-6.494585e-07
9	0xb75ccd22	-1.3160783e-05
10	0x36b2503e	5.314155e-06
11	0xb7ab4575	-2.0417132e-05
12	0x36c25507	5.791549e-06
13	0xb72f57fc	-1.0451298e-05
14	0x37998161	1.8299268e-05

bias f4 [15]
0	0xb74d341f	-1.2231088e-05
1	0xb7084c38	-8.123978e-06
2	0xb756792b	-1.2783606e-05
3	0x3e2eb92e	0.17062828
4	0xb7488e78	-1.19541e-05
5	0xb76a744a	-1.39745625e-05
6	0xb722bee4	-9.700398e-06
7	0xb794b740	-1.7728307e-05
8	0xb7872cb7	-1.6114076e-05
9	0xb6b6ac60	-5.4440898e-06
10	0xb5f6c7c9	-1.8386573e-06
11	0xb75b39e5	-1.3066897e-05
12	0xb7143471	-8.833697e-06
13	0xb72a9192	-1.0166683e-05
14	0xb75afbc4	-1.3052431e-05

weight f4 [15, 163]
0	0xb748ec62	-1.1975966e-05
1	0xb71f43f6	-9.492962e-06
2	0xb72ec58e	-1.0417205e-05
3	0xb787caac	-1.618763e-05
4	0xb773c199	-1.4529004e-05
5	0xb6d7e07d	-6.433633e-06
6	0xb77e4fd9	-1.5158171e-05
7	0xb74314ae	-1.1627721e-05
8	0xb6fae49a	-7.4771933e-06
9	0xb51c93f2	-5.832982e-07
10	0xb73cbceb	-1.1249659e-05
11	0xb75152e1	-1.24766675e-05
12	0xb73bd2f5	-1.1195186e-05
13	0xb7102d4a	-8.5936135e-06
14	0xb695072b	-4.4413805e-06
15	0xb619b4b4	-2.290396e-06
16	0x36996072	4.570983e-06
17	0xb73e1030	-1.1328651e-05
18	0xb6bfb57c	-5.713371e-06
19	0xb7318b3e	-1.0582442e-05
20	0xb71d13c9	-9.362536e-06
21	0xb6b102a1	-5.275317e-06
22	0xb710bac2	-8.626552e-06
23	0xb733e289	-1.0721976e-05
24	0x35df20ea	1.6624374e-06
25	0x368454d2	3.943781e-06
26	0xb6fb0783	-7.4812574e-06
27	0x367c7c5d	3.7623315e-06
28	0xb70b640a	-8.308338e-06
29	0xb71a8313	-9.209633e-06
30	0xb7461c3d	-1.1808294e-05
31	0x375e6bfd	1.3257374e-05
32	0xb5fdb562	-1.8902758e-06
33	0xb6d8b41b	-6.4582687e-06
34	0xb629ee99	-2.5321845e-06
35	0xb6d5d6de	-6.3729085e-06
36	0xb7871f0d	-1.6107713e-05
37	0xb698201b	-4.5336906e-06
38	0xb71f9dd9	-9.51389e-06
39	0xb54424d3	-7.3069276e-07
40	0xb7075635	-8.066699e-06
41	0xb7337a8d	-1.0697765e-05
42	0xb793e18f	-1.76288e-05
43	0x368c3136	4.178054e-06
44	0xb699a2cb	-4.578707e-06
45	0xb7295b8b	-1.0094499e-05
46	0xb74b5d90	-1.2121527e-05
47	0xb7600e25	-1.3354734e-05
48	0xb7348517	-1.0759823e-05
49	0xb77014f8	-1.4309997e-05
50	0xb7182b65	-9.07001e-06
51	0xb784a125	-1.5810665e-05
52	0xb6d8df2f	-6.4632836e-06
53	0x3562fcb7	8.455931e-07
54	0xb6cb7eb2	-6.0646207e-06
55	0xb642572d	-2.8958996e-06
56	0x359b77b4	1.1583238e-06
57	0x36add5ae	5.1806774e-06
58	0x36275a2f	2.4937433e-06
59	0x372f06c8	1.0432392e-05
60	0x363af18c	2.7856759e-06
61	0x35e00759	1.6691439e-06
62	0xb70c4bab	-8.362268e-06
63	0xb7635c20	-1.3551704e-05
64	0xb6a37681	-4.871574e-06
65	0x3611641f	2.1664962e-06
66	0x35c23371	1.4469098e-06
67	0xb6403dfd	-2.8646311e-06
68	0x37015a9d	7.710097e-06
69	0x35cbc3e1	1.5181687e-06
70	0xb6c4e41c	-5.8678106e-06
71	0xb7614ee8	-1.3429417e-05
72	0xb6edf03a	-7.0911165e-06
73	0xb6ff5314	-7.609264e-06
74	0xb450903a	-1.9423979e-07
75	0xb7a4d05f	-1.9647354e-05
76	0x36ce4b88	6.1480714e-06
77	0xb6cb57fb	-6.0601137e-06
78	0x36aa62c8	5.0778945e-06
79	0x372cea38	1.0306532e-05
80	0xb7814a91	-1.5412721e-05
81	0xb7b710ff	-2.1823214e-05
82	0x35755370	9.139103e-07
83	0x36af41b0	5.2230534e-06
84	0x34e3b576	4.2414075e-07
85	0xb78f2800	-1.7065555e-05
86	0x37390d17	1.1029907e-05
87	0xb6cd2e64	-6.1148767e-06
88	0xb69de879	-4.706028e-06
89	0xb561acf4	-8.407071e-07
90	0xb6bb46d6	-5.5812807e-06
91	0x3701789e	7.717083e-06
92	0xb5d4ebcc	-1.5863857e-06
93	0x3764ffbe	1.3649404e-05
94	0x362559c6	2.463917e-06
95	0x360333a0	1.955057e-06
96	0xb51df62f	-5.88453e-07
97	0xb69501db	-4.440762e-06
98	0xb6cbd242	-6.0743487e-06
99	0x35be4deb	1.417878e-06
100	0xb440e975	-1.7966325e-07
101	0xb60d39a0	-2.104418e-06
102	0xb7bc3e51	-2.2440365e-05
103	0x36c616ec	5.9035283e-06
104	0xb63c40ae	-2.8051832e-06
105	0xb7335609	-1.0689263e-05
106	0xb6d68c45	-6.3940265e-06
107	0xb5e037ea	-1.6705574e-06
108	0x36012619	1.9244674e-06
109	0xb739ec59	-1.1081888e-05
110	0xb6c62d7a	-5.906154e-06
111	0x373e41c9	1.1340199e-05
112	0x34fdff48	4.7310664e-07
113	0x36a0e205	4.7946837e-06
114	0xb55517bf	-7.938324e-07
115	0xb775c1a5	-1.4648224e-05
116	0xb4f61ac2	-4.584054e-07
117	0xb6396540	-2.7626083e-06
118	0xb7071c49	-8.053213e-06
119	0x36004fa6	1.9119848e-06
120	0xb696fb00	-4.4995686e-06
121	0xb63971a6	-2.76333e-06
122	0x372dba1c	1.03549355e-05
123	0xb78db4c3	-1.6892684e-05
124	0xb785ea2c	-1.596388e-05
125	0x3589e044	1.0272565e-06
126	0xb625f508	-2.4729543e-06
127	0xb6ecabe6	-7.0533597e-06
128	0xb7744015	-1.4558454e-05
129	0xb640ac12	-2.8710388e-06
130	0x36b18b50	5.291229e-06
131	0x36af06a7	5.216181e-06
132	0x34b9169e	3.4475391e-07
133	0xb5d5845f	-1.5908262e-06
134	0x36d72411	6.411698e-06
135	0xb62c6b44	-2.5692434e-06
136	0x373acdbe	1.1134367e-05
137	0x3534eb07	6.7397235e-07
138	0xb6eba69f	-7.022943e-06
139	0xb7339462	-1.07037795e-05
140	0xb75f4bb4	-1.3309462e-05
141	0xb709d544	-8.215491e-06
142	0xb72beb7f	-1.0247225e-05
143	0xb7249ce6	-9.8116925e-06
144	0xb6f187d4	-7.198172e-06
145	0xb70849f3	-8.123449e-06
146	0xb6aed65d	-5.2105593e-06
147	0xb75e62a6	-1.32551995e-05
148	0xb74cde41	-1.2211095e-05
149	0xb7037190	-7.834649e-06
150	0xb710f9c2	-8.64122e-06
151	0xb794b496	-1.7727067e-05
152	0xb6dcaba1	-6.576491e-06
153	0xb74dce8a	-1.2267041e-05
154	0xb799c1a2	-1.8329189e-05
155	0xb6b570b1	-5.4073394e-06
156	0xb78cdddf	-1.6792617e-05
157	0xb6052af8	-1.9843555e-06
158	0xb6906fa1	-4.3045297e-06
159	0xb739fd83	-1.1085885e-05
160	0xb7a77eed	-1.9967056e-05
161	0x3688b34b	4.0739883e-06
162	0x3617fef7	2.2649162e-06
163	0xb5a7b86a	-1.2496141e-06
164	0x3646ae31	2.9605692e-06
165	0xb66440e8	-3.4012428e-06
166	0xb6111a64	-2.1622045e-06
167	0xb72da35e	-1.034964e-05
168	0xb70afc66	-8.284207e-06
169	0xb6872d52	-4.0285895e-06
170	0xb719a176	-9.157104e-06
171	0xb6b078c9	-5.25927e-06
172	0x364807fb	2.9806968e-06
173	0xb6cd154b	-6.111955e-06
174	0xb6dcfe44	-6.5861113e-06
175	0xb72e0af3	-1.03737575e-05
176	0xb6d40931	-6.3191624e-06
177	0xb7120c81	-8.705189e-06
178	0xb6c3d588	-5.836311e-06
179	0x35c30650	1.4530469e-06
180	0xb70cbfd6	-8.389316e-06
181	0xb643142a	-2.9069001e-06
182	0xb5a44162	-1.2237981e-06
183	0xb710ac95	-8.623251e-06
184	0xb707694c	-8.071143e-06
185	0xb576fba3	-9.200832e-07
186	0xb6ceaaff	-6.159185e-06
187	0x36608ae3	3.3459444e-06
188	0xb4f3b8b5	-4.539667e-07
189	0xb6be57e6	-5.672674e-06
190	0xb594c488	-1.1084057e-06
191	0xb7597ec0	-1.2963719e-05
192	0xb7a0116d	-1.90816e-05
193	0xb725cbe9	-9.882243e-06
194	0x372c5bf6	1.027341e-05
195	0x36f84517	7.399019e-06
196	0xb68ec721	-4.2551114e-06
197	0xb6c4e00f	-5.867339e-06
198	0xb7012b40	-7.699069e-06
199	0xb66d7c45	-3.5388086e-06
200	0xb6d6493e	-6.3862235e-06
201	0xb68c51c7	-4.1818453e-06
202	0x35396637	6.906661e-07
203	0xb713c8ae	-8.808607e-06
204	0xb6b81c58	-5.486927e-06
205	0xb76fa9c4	-1.4285037e-05
206	0xb5c249c7	-1.4475598e-06
207	0xb65e86d3	-3.3159056e-06
208	0xb68d8969	-4.218124e-06
209	0xb7261e85	-9.901477e-06
210	0xb70876e6	-8.133915e-06
211	0xb68d0a23	-4.2033075e-06
212	0xb5a37739	-1.2179145e-06
213	0xb770f990	-1.43632205e-05
214	0xb7645034	-1.3608533e-05
215	0xb5e3365f	-1.6928642e-06
216	0xb72fa3b4	-1.0468928e-05
217	0x3533b113	6.6940373e-07
218	0xb7024eaf	-7.766924e-06
219	0x3739d123	1.1075553e-05
220	0xb70fbfd1	-8.568125e-06
221	0x36b2809d	5.319786e-06
222	0xb6e7e095	-6.9104813e-06
223	0xb6a788e8	-4.992926e-06
224	0x363451f8	2.6869802e-06
225	0x37002405	7.637781e-06
226	0xb69e3918	-4.7154135e-06
227	0xb73d30c8	-1.1276636e-05
228	0x36d4833c	6.33337e-06
229	0x371bf2cd	9.295251e-06
230	0x37144f9c	8.840023e-06
231	0x36a3822d	4.872933e-06
232	0x37401cee	1.14508275e-05
233	0xb5be2485	-1.4166732e-06
234	0xb5cdef73	-1.5343379e-06
235	0xb73ea706	-1.1363771e-05
236	0xb64dff75	-3.0696076e-06
237	0xb655bbab	-3.184871e-06
238	0xb760348e	-1.3363677e-05
239	0xb65ebc1d	-3.3190074e-06
240	0xb6ca4beb	-6.028907e-06
241	0x34e0145a	4.173806e-07
242	0x37a598a5	1.9740613e-05
243	0xb6c09db9	-5.7404072e-06
244	0xb7521244	-1.2521228e-05
245	0xb6a3b87f	-4.8792567e-06
246	0x3693e9ee	4.4081744e-06
247	0x361501db	2.220381e-06
248	0xb6441c5e	-2.9222788e-06
249	0x3610e92a	2.1593391e-06
250	0x360aad0a	2.0664324e-06
251	0x349f18d2	2.9634117e-07
252	0xb6b8f754	-5.51242e-06
253	0x36d74991	6.4160636e-06
254	0x3646f70c	2.96481e-06
255	0xb64e0062	-3.0696615e-06

weight f4 [15, 163]
0	0x361894e4	2.273643e-06
1	0x35c2a1f5	1.4501262e-06
2	0x36840ff6	3.9357647e-06
3	0x36d03e7f	6.2061586e-06
4	0x34f8d81c	4.635084e-07
5	0x31c93c5e	5.856733e-09
6	0x368cf969	4.2013603e-06
7	0x3620fecb	2.3990167e-06
8	0x36cfbb39	6.1908763e-06
9	0x3580c6af	9.594568e-07
10	0x35a096a7	1.1964775e-06
11	0xb6c7f31f	-5.958965e-06
12	0x36849238	3.9509287e-06
13	0xb6bd5d42	-5.6434956e-06
14	0xb665b7ff	-3.423076e-06
15	0x368dc923	4.225543e-06
16	0x368c1f05	4.1759363e-06
17	0xb669180a	-3.4733698e-06
18	0x36c92f3c	5.9957656e-06
19	0x36cd0dde	6.1110904e-06
20	0x368339f3	3.9108504e-06
21	0xb676df31	-3.678677e-06
22	0x32634efb	1.3231097e-08
23	0xb647134a	-2.9664538e-06
24	0xb6ac1375	-5.1282645e-06
25	0x36be2a30	5.6673525e-06
26	0xb6b9b870	-5.534901e-06
27	0x34b2b698	3.3287938e-07
28	0xb684afc2	-3.9543675e-06
29	0x35aa5a32	1.2692237e-06
30	0x35cd4522	1.529381e-06
31	0xb50f39de	-5.335586e-07
32	0x365191b8	3.1228246e-06
33	0xb675803c	-3.6582487e-06
34	0xb613effb	-2.2044394e-06
35	0x3635c45c	2.7085398e-06
36	0xb5a9f467	-1.2662612e-06
37	0x35791b9a	9.2799894e-07
38	0xb0084d10	-4.9586024e-10
39	0xb63abb27	-2.7825097e-06
40	0xb5ce5407	-1.5372651e-06
41	0xb5a1149a	-1.2001431e-06
42	0xb6ceb296	-6.1600686e-06
43	0x36899492	4.100214e-06
44	0x35809a9b	9.581739e-07
45	0x362c7eba	2.5703762e-06
46	0xb69e8472	-4.7241856e-06
47	0xb4e22cb4	-4.2128306e-07
48	0xb69039c7	-4.2982606e-06
49	0x36b230de	5.3105023e-06
50	0xb6a40549	-4.888196e-06
51	0x3660ed73	3.3516815e-06
52	0x3669be03	3.4830307e-06
53	0xb512214d	-5.44377e-07
54	0x36448ef1	2.9289479e-06
55	0xb68ddc1c	-4.2277516e-06
56	0x35c90edd	1.4979993e-06
57	0x36cd3b3a	6.116371e-06
58	0xb692585f	-4.361427e-06
59	0x36baa533	5.5624637e-06
60	0x3651f75e	3.1287414e-06
61	0x354eee8d	7.708812e-07
62	0xb68df20a	-4.2303045e-06
63	0x367f8475	3.8075061e-06
64	0xb6d0c1f5	-6.2214626e-06
65	0xb672d6f1	-3.6185922e-06
66	0xb6cd7d09	-6.124032e-06
67	0x3667c6f3	3.4537486e-06
68	0xb5d1a6d8	-1.5620271e-06
69	0x35a04957	1.1942274e-06
70	0xb5db93db	-1.6359803e-06
71	0xb6c83c01	-5.96745e-06
72	0xb6ae26d7	-5.1901256e-06
73	0xb52afa8c	-6.369453e-07
74	0x363d5aea	2.8216114e-06
75	0xb680092a	-3.815764e-06
76	0xb6c9c907	-6.0136695e-06
77	0x3589a9f2	1.0256756e-06
78	0xb686b71b	-4.0148275e-06
79	0x35e4adae	1.7037871e-06
80	0x3616dd85	2.2480683e-06
81	0x34dd3529	4.1203137e-07
82	0xb45706e3	-2.0025941e-07
83	0xb638c823	-2.7534631e-06
84	0xb68082d2	-3.8299268e-06
85	0xb55c2022	-8.2003146e-07
86	0xb648f4ff	-2.994493e-06
87	0xb69610fe	-4.4723265e-06
88	0xb6c55595	-5.8810206e-06
89	0x36c599ca	5.888961e-06
90	0x367ac265	3.7366055e-06
91	0x36279bac	2.4975552e-06
92	0xb6178386	-2.257731e-06
93	0xb68a55c2	-4.122704e-06
94	0xb5069c8e	-5.0146707e-07
95	0xb640963c	-2.8697677e-06
96	0xb6c9b9e6	-6.011908e-06
97	0x34e26e81	4.2176183e-07
98	0x365422a5	3.1610628e-06
99	0x36746f8c	3.6423762e-06
100	0x35b04541	1.3133177e-06
101	0x351ec1fe	5.914188e-07
102	0x369e208e	4.712557e-06
103	0x36467dd2	2.9577536e-06
104	0x36237570	2.435725e-06
105	0xb622740a	-2.4207425e-06
106	0x3616ced3	2.247213e-06
107	0x360918f9	2.0429127e-06
108	0xb6b4996a	-5.382278e-06
109	0x3604124a	1.9680178e-06
110	0x36200bf0	2.3848806e-06
111	0x35ae3529	1.2979482e-06
112	0x35fe7b60	1.8960382e-06
113	0x36b669a1	5.4363195e-06
114	0x3575384c	9.1351535e-07
115	0x364becc5	3.0387175e-06
116	0x36821ea8	3.8778708e-06
117	0xb5c823a7	-1.4911537e-06
118	0xb5c89d47	-1.4946935e-06
119	0xb53698f5	-6.8022865e-07
120	0x36cb41e7	6.0575435e-06
121	0xb64f7393	-3.0912677e-06
122	0x361d358c	2.3425991e-06
123	0x369de8df	4.7060744e-06
124	0xb63934ba	-2.759784e-06
125	0x356dba82	8.8560785e-07
126	0x36cf1797	6.171827e-06
127	0x361ba7b7	2.3194423e-06
128	0x368e4d31	4.240916e-06
129	0xb63b7b59	-2.793697e-06
130	0x36581e1f	3.220404e-06
131	0x360f5c72	2.136247e-06
132	0x36257524	2.46551e-06
133	0xb6b6e9dd	-5.451248e-06
134	0xb6976414	-4.5118013e-06
135	0xb660dc72	-3.3506917e-06
136	0x3690c2cb	4.3142113e-06
137	0xb687340b	-4.029372e-06
138	0xb4f5746d	-4.5719517e-07
139	0x35fffb15	1.9072055e-06
140	0x36ba4b38	5.5519886e-06
141	0x36a1f445	4.8266106e-06
142	0xb6ae0c44	-5.187032e-06
143	0x369f05c7	4.739242e-06
144	0x34f4e81d	4.5617426e-07
145	0xb6ce2121	-6.143135e-06
146	0x364a8372	3.0176857e-06
147	0xb6be63e4	-5.67407e-06
148	0x36b229f2	5.3096965e-06
149	0xb659cf9d	-3.2456367e-06
150	0xb51b0c44	-5.775985e-07
151	0xb6822ec9	-3.8797484e-06
152	0xb6b4054a	-5.3650338e-06
153	0xb54b9aca	-7.584864e-07
154	0x3596ab77	1.1225774e-06
155	0x36a3f572	4.886352e-06
156	0xb5f8b567	-1.8530235e-06
157	0xb6cb0312	-6.050229e-06
158	0x36a309ad	4.858905e-06
159	0x36ca3bc4	6.0270268e-06
160	0x351eb199	5.9118025e-07
161	0x35c3b098	1.4580028e-06
162	0x35db7f56	1.6353831e-06
163	0xb5abd3c5	-1.2802126e-06
164	0xb560a9f9	-8.3693845e-07
165	0xb6428677	-2.8986522e-06
166	0xb69dfa62	-4.708113e-06
167	0xb6ae0283	-5.1858965e-06
168	0x35f6f101	1.839857e-06
169	0x36bcea6a	5.630126e-06
170	0x362a6a22	2.5393751e-06
171	0xb6afccef	-5.239264e-06
172	0x35350188	6.742998e-07
173	0x36a78f85	4.9936957e-06
174	0x369e4049	4.7162507e-06
175	0xb6096245	-2.0471791e-06
176	0xb6a9016a	-5.036757e-06
177	0xb6bd382c	-5.639178e-06
178	0xb65ff545	-3.3372355e-06
179	0x36b7b522	5.4749116e-06
180	0xb6203308	-2.3871562e-06
181	0xb61b522c	-2.314463e-06
182	0x34905451	2.6883438e-07
183	0xb4f5e95a	-4.5804592e-07
184	0xb5527cd5	-7.841275e-07
185	0xb4fdc0d5	-4.7265226e-07
186	0x36003377	1.9103443e-06
187	0x348862d5	2.5403884e-07
188	0xb625784c	-2.4656938e-06
189	0x369e0726	4.709599e-06
190	0xb6af9e1e	-5.2338137e-06
191	0xb62aa86a	-2.5430004e-06
192	0xb5f7c6c0	-1.8460778e-06
193	0x3673df0b	3.633965e-06
194	0xb64411cf	-2.9216642e-06
195	0xb69675ee	-4.484077e-06
196	0x361bc3db	2.3210803e-06
197	0x368b2260	4.1465246e-06
198	0x350b0c5e	5.179953e-07
199	0xb6a5a53c	-4.936619e-06
200	0xb6977c12	-4.5145944e-06
201	0x35114f25	5.413188e-07
202	0xb6338a4c	-2.6753578e-06
203	0xb5aa50bc	-1.2689484e-06
204	0x349377ed	2.746814e-07
205	0xb651874a	-3.1222175e-06
206	0x368411b2	3.9359666e-06
207	0x35cedb83	1.5412082e-06
208	0x36131c96	2.1921346e-06
209	0xb67daaf0	-3.7799437e-06
210	0x362e1304	2.593909e-06
211	0x36afb22c	5.2361484e-06
212	0x364e4aeb	3.074e-06
213	0xb686b9bb	-4.015133e-06
214	0xb5ec2d64	-1.7596581e-06
215	0x33c7eebc	9.310085e-08
216	0xb69b633d	-4.630913e-06
217	0x36382b8a	2.744348e-06
218	0x3503fd0b	4.916953e-07
219	0xb5da8f43	-1.628396e-06
220	0x367980be	3.717883e-06
221	0xb6c0f141	-5.7501315e-06
222	0xb67e1ed5	-3.7866896e-06
223	0xb4a14ded	-3.0045285e-07
224	0xb6a59a12	-4.9353193e-06
225	0x32eb17e2	2.7368461e-08
226	0x36babdff	5.5653504e-06
227	0x351df8ca	5.8849093e-07
228	0x36927fae	4.366003e-06
229	0xb60fc9a2	-2.1426026e-06
230	0xb6cbd88f	-6.075082e-06
231	0xb526563b	-6.19653e-07
232	0x364e22f6	3.0716742e-06
233	0xb6a32ed0	-4.8632282e-06
234	0xb63924ee	-2.7588644e-06
235	0x36aba7bb	5.1157235e-06
236	0x36cbd729	6.0749194e-06
237	0x369c47ef	4.6575365e-06
238	0x36891954	4.0858667e-06
239	0x363c9dab	2.8105958e-06
240	0xb6a985cf	-5.05217e-06
241	0xb4437106	-1.8201908e-07
242	0xb5f2f95c	-1.8102978e-06
243	0xb6bdce91	-5.6566864e-06
244	0xb68e32a1	-4.2378238e-06
245	0x36c9494e	5.9988006e-06
246	0x36854a15	3.972333e-06
247	0x362331f8	2.4317978e-06
248	0x35a19222	1.2037965e-06
249	0x3637fe96	2.7417314e-06
250	0xb690ccba	-4.3153677e-06
251	0x335f32fb	5.19676e-08
252	0xb51efc3f	-5.9226653e-07
253	0x35f51cab	1.8262266e-06
254	0x3696de33	4.4962158e-06
255	0x36683eee	3.4607324e-06

att_src f4 [1, 1, 15]
0	0xb405a0e7	-1.2445126e-07
1	0x37ebb342	2.8097656e-05
2	0xb81698fc	-3.5905265e-05
3	0x377ca682	1.5059139e-05
4	0xb7bc8ef3	-2.2477912e-05
5	0x368d24bb	4.2064034e-06
6	0x370a87b4	8.257037e-06
7	0xb6a8ef2b	-5.034633e-06
8	0x3747fd8a	1.1920356e-05
9	0x36ee3d5c	7.100096e-06
10	0x37b5e712	2.1684482e-05
11	0xb77ee876	-1.5193704e-05
12	0x37df4052	2.6613623e-05
13	0x379729be	1.802004e-05
14	0x3687aa29	4.0431228e-06

att_dst f4 [1, 1, 15]
0	0x37615167	1.3429998e-05
1	0xb6502adb	-3.101936e-06
2	0x363e2655	2.8334518e-06
3	0xb5843f32	-9.853159e-07
4	0x375cda42	1.3163839e-05
5	0x378b4b74	1.6605227e-05
6	0x3679220a	3.7123705e-06
7	0xb76f32f2	-1.4257372e-05
8	0x379af214	1.8470957e-05
9	0x3746e930	1.1856013e-05
10	0xb791c5cc	-1.7377453e-05
11	0xb66ee00d	-3.5595178e-06
12	0xb7677f94	-1.3798377e-05
13	0xb747cc96	-1.1908958e-05
14	0xb7a41119	-1.9558285e-05

bias f4 [15]
0	0x37b0d11e	2.1078213e-05
1	0xb6f28440	-7.227558e-06
2	0xb6cc1b4c	-6.0828515e-06
3	0xb6910af8	-4.3226137e-06
4	0xb7209113	-9.570521e-06
5	0x37324f58	1.06281e-05
6	0xb75b5577	-1.3073316e-05
7	0xb5c8799a	-1.4936552e-06
8	0xb7bc43d7	-2.2442937e-05
9	0xb79ff20d	-1.906699e-05
10	0x36b7d972	5.479139e-06
11	0xb69fca11	-4.762093e-06
12	0x3744deb0	1.1734359e-05
13	0x362eb9e0	2.6036214e-06
14	0xb681ae93	-3.8648227e-06

weight f4 [15, 163]
0	0x37eac353	2.7985929e-05
1	0x37e147bc	2.6855494e-05
2	0x37d67029	2.5563017e-05
3	0x37c2767a	2.3181772e-05
4	0x3800123b	3.0534557e-05
5	0x37e6b40c	2.7501977e-05
6	0x3801d6be	3.095599e-05
7	0x37c444b7	2.3397019e-05
8	0x37ccd37f	2.441718e-05
9	0x3737f879	1.0965502e-05
10	0xb40a853b	-1.290072e-07
11	0x370f60d6	8.546011e-06
12	0x3693cfb1	4.40512e-06
13	0xb602ec29	-1.9508973e-06
14	0xb6f0e897	-7.1796344e-06
15	0xb6c58684	-5.886717e-06
16	0x37022e76	7.759421e-06
17	0x380146f5	3.082208e-05
18	0x3802ec01	3.121421e-05
19	0x37b00a67	2.0985679e-05
20	0x37e1ace0	2.6902591e-05
21	0x37d06378	2.4841851e-05
22	0x37632a7f	1.3540149e-05
23	0x37df143a	2.659309e-05
24	0x380e1c22	3.388164e-05
25	0x363e4d03	2.8357033e-06
26	0x38000a9c	3.052746e-05
27	0xb5e5b7c7	-1.7115316e-06
28	0x37e82afd	2.7676573e-05
29	0x380783ed	3.2309374e-05
30	0x38009ea5	3.0665327e-05
31	0xb63f642a	-2.851952e-06
32	0x378dbb84	1.6895829e-05
33	0xb75f86a2	-1.3323182e-05
34	0x379dcd3e	1.8811432e-05
35	0x37f373b7	2.9021741e-05
36	0x37bd8108	2.259064e-05
37	0x37e0a0c4	2.6777743e-05
38	0x37b6c877	2.178944e-05
39	0x37c3fc9d	2.3363444e-05
40	0x37c4ec92	2.3475182e-05
41	0x37a94b94	2.0181564e-05
42	0x37c525a1	2.3501752e-05
43	0x37d30805	2.5156894e-05
44	0x37d92e82	2.5890073e-05
45	0x37d9f8cb	2.5984269e-05
46	0x373eaf33	1.1365674e-05
47	0x37ef310b	2.8513858e-05
48	0x37dbc82c	2.6200047e-05
49	0x37d80fda	2.5756588e-05
50	0x37bcb792	2.2496828e-05
51	0x37bd1d2e	2.2544144e-05
52	0x37ccffb8	2.4437773e-05
53	0xb5f9062c	-1.8553742e-06
54	0x369a8692	4.6052237e-06
55	0x370ba0de	8.3225e-06
56	0x378c6a27	1.6738732e-05
57	0x373c1a93	1.12118605e-05
58	0x37c1c4fb	2.3099119e-05
59	0xb7e00dc2	-2.6709287e-05
60	0x37de762e	2.6519494e-05
61	0x3624fb2e	2.458411e-06
62	0xb58f8ab1	-1.0694695e-06
63	0x37c60c4d	2.3609167e-05
64	0xb554f3c9	-7.933091e-07
65	0x3755e005	1.2747948e-05
66	0x37d95fbb	2.5912994e-05
67	0x36aee2ef	5.2120226e-06
68	0x362b4ed6	2.5526874e-06
69	0x372f4d22	1.0448772e-05
70	0xb51fdeb2	-5.955618e-07
71	0xb6eb03c3	-7.0039837e-06
72	0x3751e1c4	1.2509936e-05
73	0x378cc1ca	1.677954e-05
74	0x3601bdda	1.9333006e-06
75	0xb72cb56a	-1.0294238e-05
76	0x367d9e7d	3.779219e-06
77	0x362d5f6f	2.5834559e-06
78	0x37e8f061	2.776849e-05
79	0xb671c1ee	-3.602468e-06
80	0x3747cb57	1.1908668e-05
81	0x37b0da9c	2.1082633e-05
82	0x363b5667	2.7915464e-06
83	0x3659426f	3.237419e-06
84	0x38312433	4.22338e-05
85	0xb7926ebe	-1.7456125e-05
86	0x3788cc77	1.6307675e-05
87	0xb6674449	-3.446143e-06
88	0xb6ac7d06	-5.140554e-06
89	0xb6bfd990	-5.717571e-06
90	0x3702caa7	7.7957875e-06
91	0x3705c3b3	7.9729825e-06
92	0x37b8e524	2.2041211e-05
93	0x3751fb05	1.2515816e-05
94	0xb714ed16	-8.876688e-06
95	0x36a1b830	4.819616e-06
96	0x37ad5a41	2.0665235e-05
97	0xb5bc2d8d	-1.4020349e-06
98	0x37ce94d2	2.4626414e-05
99	0x37cdea57	2.4547027e-05
100	0x37918327	1.734642e-05
101	0xb68ad04c	-4.1369694e-06
102	0xb81cc4e9	-3.7376685e-05
103	0x3637f23f	2.741013e-06
104	0xb6a2f3fd	-4.85638e-06
105	0xb8381415	-4.388772e-05
106	0x37d0fd2c	2.4913425e-05
107	0xb685cf92	-3.9878732e-06
108	0x376f2428	1.4253928e-05
109	0x37638c00	1.3562851e-05
110	0x3735e1da	1.0841026e-05
111	0xb680c6d7	-3.8378453e-06
112	0x37373359	1.0919605e-05
113	0x3694dc83	4.4364147e-06
114	0xb74355d1	-1.1642886e-05
115	0x363e7469	2.8379966e-06
116	0x36e716d4	6.886994e-06
117	0x363b2754	2.7888063e-06
118	0xb602eb46	-1.9508457e-06
119	0xb6ba4a87	-5.551908e-06
120	0x36c254b2	5.7915104e-06
121	0x37e0077c	2.6706366e-05
122	0xb648aa5d	-2.9901487e-06
123	0xb614613e	-2.211032e-06
124	0x37b89138	2.2002132e-05
125	0xb69502af	-4.4408584e-06
126	0xb514ae51	-5.538796e-07
127	0x37f4a656	2.9164523e-05
128	0xb779a1c2	-1.4879219e-05
129	0x3720c899	9.583448e-06
130	0xb69d5886	-4.68927e-06
131	0xb6b55e59	-5.405204e-06
132	0x364f3a7f	3.0879453e-06
133	0x37b886c9	2.1997274e-05
134	0x37dbae73	2.6188069e-05
135	0x37d1dbfc	2.501718e-05
136	0x35bff1b8	1.4300958e-06
137	0xb5cb0c0f	-1.5128188e-06
138	0x37b95196	2.209171e-05
139	0x37c05e60	2.293213e-05
140	0x37c01313	2.2897066e-05
141	0x37e27145	2.6994045e-05
142	0x37b7eb27	2.1924801e-05
143	0x37c6aa03	2.3682607e-05
144	0x37acc778	2.0596883e-05
145	0x37e94ef4	2.781253e-05
146	0x3808243d	3.2458676e-05
147	0x37d3f5c4	2.5267604e-05
148	0x37c0bca3	2.2976024e-05
149	0x37f0ceec	2.8706585e-05
150	0x3775c33e	1.4648596e-05
151	0x37d0427e	2.4826495e-05
152	0x37d17677	2.4969906e-05
153	0x37e8725e	2.7709812e-05
154	0x3803f3a3	3.145974e-05
155	0x37e74d24	2.7573267e-05
156	0x37d24004	2.506376e-05
157	0x37e4cfcf	2.7276486e-05
158	0x379bc1c6	1.8567673e-05
159	0x37d7460f	2.566262e-05
160	0x3763d9fa	1.3581006e-05
161	0xb794d324	-1.7741295e-05
162	0x3776d261	1.4711725e-05
163	0xb6a517e6	-4.9201653e-06
164	0xb4901a9b	-2.6841448e-07
165	0xb44562ae	-1.8382954e-07
166	0x3571f8b0	9.0141384e-07
167	0xb6e13ffd	-6.7129718e-06
168	0xb51a4ab8	-5.74782e-07
169	0x35ef628b	1.7835567e-06
170	0xb5f3ec0e	-1.8173612e-06
171	0x36dff2c8	6.6741813e-06
172	0x36dfcfdc	6.670116e-06
173	0xb7161e86	-8.9478035e-06
174	0xb715f691	-8.9385e-06
175	0xb643caeb	-2.9175378e-06
176	0xb602374c	-1.9403697e-06
177	0xb6d07f44	-6.2136987e-06
178	0xb6bd82bc	-5.6478584e-06
179	0xb6be2545	-5.66678e-06
180	0xb6c56225	-5.882483e-06
181	0x36569fab	3.1981424e-06
182	0x3638d91e	2.7544515e-06
183	0x367615c4	3.6669526e-06
184	0x36742124	3.6378124e-06
185	0x3403e300	1.2282908e-07
186	0x354512c2	7.3415515e-07
187	0x3676d58b	3.6781155e-06
188	0x364422ae	2.9226462e-06
189	0x34c67db5	3.6971838e-07
190	0x36472728	2.9676103e-06
191	0xb58ff0fc	-1.0724466e-06
192	0x362352f4	2.4337178e-06
193	0x373ea0ef	1.1362353e-05
194	0xb7938e02	-1.7589893e-05
195	0x3785aac3	1.5934353e-05
196	0x372d75e3	1.0339051e-05
197	0x3780be82	1.5347501e-05
198	0xb5f6d6fa	-1.8390995e-06
199	0x36a232af	4.8338766e-06
200	0x369a2a96	4.5945153e-06
201	0xb5f90c7f	-1.8555583e-06
202	0x36b47df8	5.3790827e-06
203	0xb50f4c44	-5.338263e-07
204	0x35758f0b	9.147777e-07
205	0x34bb20dc	3.4855373e-07
206	0xb60d5384	-2.105925e-06
207	0x362f0ee0	2.608569e-06
208	0xb6ec874a	-7.049098e-06
209	0x36424eaa	2.8954041e-06
210	0x36ae7281	5.198934e-06
211	0xb6b9ddf5	-5.539269e-06
212	0x36973ca3	4.5072097e-06
213	0x361c1acd	2.3261412e-06
214	0x33636080	5.2940322e-08
215	0xb5babb43	-1.391258e-06
216	0xb4391e8c	-1.724058e-07
217	0x364bf77f	3.039342e-06
218	0x36b5ec8d	5.4217585e-06
219	0x36994785	4.5680813e-06
220	0x36bb8f0f	5.5896885e-06
221	0xb6365bf5	-2.717364e-06
222	0x37931f33	1.7538294e-05
223	0x3600e771	1.9208203e-06
224	0x35bf35f1	1.4246308e-06
225	0x36cd4d44	6.118471e-06
226	0x360e2afe	2.1184674e-06
227	0x368e4b86	4.240722e-06
228	0x367ddaf4	3.7827385e-06
229	0x36984d49	4.53895e-06
230	0x36cba0c6	6.068588e-06
231	0xb7446e0b	-1.1708132e-05
232	0x369da8c0	4.6986097e-06
233	0x35c1e6db	1.4446808e-06
234	0x3617e30b	2.263291e-06
235	0x376c86c0	1.409807e-05
236	0xb6ce219c	-6.143191e-06
237	0x3645a0be	2.9448852e-06
238	0x353acc6a	6.958786e-07
239	0xb5f4f257	-1.8249947e-06
240	0xb5656431	-8.5454946e-07
241	0x377ffb99	1.5257764e-05
242	0xb7042cfb	-7.878286e-06
243	0xb6d96755	-6.4791334e-06
244	0x36be7715	5.676304e-06
245	0x36f2c854	7.2354833e-06
246	0xb2561e83	-1.2463377e-08
247	0x378807b0	1.6216043e-05
248	0x377d5902	1.5100699e-05
249	0x3591883d	1.0842992e-06
250	0x349f77a3	2.9703105e-07
251	0x3633e255	2.680482e-06
252	0xb60d8445	-2.1087628e-06
253	0x36f1843a	7.197753e-06
254	0x36a2cf41	4.8521038e-06
255	0x36a7241e	4.9811924e-06

weight f4 [15, 9]
0	0x37904d4b	1.720213e-05
1	0x3788ffae	1.6331524e-05
2	0xb68d3e3d	-4.209373e-06
3	0xb7089a76	-8.142195e-06
4	0xb736e0d1	-1.09003895e-05
5	0xb5b46f57	-1.3443449e-06
6	0x3754422b	1.2651591e-05
7	0x364c2c92	3.0424312e-06
8	0xb4ac1a5f	-3.2056684e-07
9	0x36b421fe	5.3683752e-06
10	0xb6b3ea4d	-5.361892e-06
11	0x3753bfd3	1.2621243e-05
12	0xb6a54375	-4.925236e-06
13	0x362b8920	2.5560803e-06
14	0xb674b49e	-3.6463966e-06
15	0xb73d3c43	-1.1279309e-05
16	0x36815b56	3.8551325e-06
17	0xb695b09a	-4.461105e-06
18	0x3736367f	1.0860734e-05
19	0xb72cbb04	-1.0295542e-05
20	0xb703dfa7	-7.860282e-06
21	0xb778b2c1	-1.4823571e-05
22	0x37783361	1.47939145e-05
23	0x362f8086	2.6151843e-06
24	0xb443ca3f	-1.8234367e-07
25	0x376359d6	1.3551171e-05
26	0xb68120a3	-3.848299e-06
27	0xb63ed301	-2.8435027e-06
28	0x371da2e6	9.395857e-06
29	0x373171d7	1.05765275e-05
30	0x35fe605f	1.8952522e-06
31	0xb6c4c263	-5.863885e-06
32	0x35be636c	1.4185039e-06
33	0xb7482146	-1.1928676e-05
34	0x377e062c	1.5141017e-05
35	0x3757c99e	1.2861941e-05
36	0xb6a0fdbd	-4.7979106e-06
37	0xb4fbe65c	-4.6920002e-07
38	0x36daf5e3	6.5255313e-06
39	0x35c3f737	1.4600581e-06
40	0xb66455d7	-3.4024613e-06
41	0x376f0f5b	1.4249085e-05
42	0xb7642764	-1.359903e-05
43	0xb72f244d	-1.0439265e-05
44	0xb6982f71	-4.535476e-06
45	0x37041bc2	7.874276e-06
46	0x37110780	8.64442e-06
47	0xb618458d	-2.269025e-06
48	0x35dc716c	1.6424287e-06
49	0xb744b36d	-1.1724286e-05
50	0x375dd8e1	1.3223123e-05
51	0x3638eee8	2.7557198e-06
52	0x3728ad0f	1.0053874e-05
53	0x342de5f5	1.6195538e-07
54	0x377ac7c9	1.4947677e-05
55	0xb715f1ef	-8.937422e-06
56	0x378adaea	1.6552822e-05
57	0x370bc83a	8.3316645e-06
58	0xb78d3183	-1.6831566e-05
59	0x3746101c	1.180547e-05
60	0xb6e5793e	-6.8388463e-06
61	0xb4f6ed52	-4.5993744e-07
62	0x376f8732	1.4276988e-05
63	0xb75e54a9	-1.3251943e-05
64	0x359976c4	1.1433954e-06
65	0xb76876fe	-1.3855983e-05
66	0x360f479a	2.1350338e-06
67	0x377e1e8c	1.5146692e-05
68	0xb78b5804	-1.6611077e-05
69	0xb59735ff	-1.1266092e-06
70	0xb789e341	-1.6437496e-05
71	0xb5803214	-9.551318e-07
72	0x36d2fddc	6.288041e-06
73	0xb755acb7	-1.2736003e-05
74	0x368e0c85	4.2333872e-06
75	0x3714912f	8.855291e-06
76	0x371703f9	9.001226e-06
77	0x37807ac1	1.531595e-05
78	0x361f2b69	2.3718114e-06
79	0xb72879c8	-1.0041935e-05
80	0xb755efcb	-1.27516205e-05
81	0x36ccc558	6.1026476e-06
82	0x362f43e5	2.6116552e-06
83	0x378c60ca	1.6734371e-05
84	0xb704d40e	-7.917186e-06
85	0xb6dcc095	-6.5789304e-06
86	0xb6b3eebd	-5.3624085e-06
87	0xb6aaabb5	-5.086384e-06
88	0x372d0d2b	1.0314669e-05
89	0xb67da8dc	-3.7798227e-06
90	0xb6c9c770	-6.0134844e-06
91	0x377f31dd	1.5210794e-05
92	0xb76ac420	-1.3993151e-05
93	0xb6b757bb	-5.464038e-06
94	0x37491c26	1.1987087e-05
95	0x3759891d	1.2966132e-05
96	0xb7266c1d	-9.919543e-06
97	0xb6a9b4a9	-5.057624e-06
98	0x3661fdd9	3.3675371e-06
99	0xb6b60966	-5.425117e-06
100	0x3482e01b	2.4377445e-07
101	0x36566613	3.19479e-06
102	0x3686dde3	4.019342e-06
103	0x36a7266d	4.981461e-06
104	0xb72547b1	-9.851458e-06
105	0xb48a3be0	-2.5748068e-07
106	0xb70357c5	-7.828644e-06
107	0x3633dea4	2.6802672e-06
108	0xb684d537	-3.958728e-06
109	0xb76601a7	-1.3709453e-05
110	0x3781ba32	1.5464702e-05
111	0x36f018ed	7.155459e-06
112	0x378651c3	1.6012118e-05
113	0x376ed96f	1.4236531e-05
114	0x369347f3	4.3893174e-06
115	0x3715f0ec	8.937186e-06
116	0x374ae558	1.20935365e-05
117	0xb7a3cd3b	-1.9526682e-05
118	0xb705b1f4	-7.968851e-06
119	0xb78b706f	-1.6622447e-05
120	0xb73cb236	-1.1247166e-05
121	0xb72ec8db	-1.04179735e-05
122	0x36b04ca6	5.254132e-06
123	0x36a0c750	4.7915746e-06
124	0xb72a0b56	-1.0135429e-05
125	0xb70640d8	-8.00212e-06
126	0xb71e33fa	-9.429636e-06
127	0xb64e5eed	-3.0751646e-06
128	0xb760025f	-1.33519925e-05
129	0xb789455d	-1.6363972e-05
130	0x36a02b7a	4.773433e-06
131	0x36a293a2	4.845163e-06
132	0xb66630cc	-3.4301074e-06
133	0xb737d0ca	-1.09562625e-05
134	0xb781ed61	-1.5488537e-05

att_src f4 [1, 1, 15]
0	0x37b0971b	2.1051199e-05
1	0x373a0ba0	1.1089171e-05
2	0x37aac6ec	2.035821e-05
3	0x3805c383	3.1891755e-05
4	0x375c1e6d	1.3120106e-05
5	0x38275a42	3.9899962e-05
6	0xb6bcaa3c	-5.6226545e-06
7	0xb7241fd6	-9.782574e-06
8	0xb769bca0	-1.39318e-05
9	0x37f80bbd	2.956937e-05
10	0xb844d0e4	-4.6924586e-05
11	0x382857a3	4.013594e-05
12	0xb87f59ce	-6.0880375e-05
13	0x37b65fe7	2.1740749e-05
14	0x3844d52d	4.6928577e-05

att_dst f4 [1, 1, 15]
0	0xb7639159	-1.3564096e-05
1	0xb5b9f141	-1.3853788e-06
2	0x369103fe	4.3218015e-06
3	0xb6f8a0cc	-7.409695e-06
4	0xb74f823b	-1.2368483e-05
5	0x373ee933	1.1379178e-05
6	0xb64303d7	-2.90595e-06
7	0xb603a709	-1.9617748e-06
8	0xb5dd9fa7	-1.6512248e-06
9	0x372b15c1	1.0197459e-05
10	0xb722dd04	-9.707412e-06
11	0xb6b689f5	-5.440083e-06
12	0xb7045c50	-7.889306e-06
13	0xb6f51a01	-7.3045962e-06
14	0x35adbb81	1.2944075e-06

bias f4 [15]
0	0x37b0d11e	2.1078213e-05
1	0xb6f28440	-7.227558e-06
2	0xb6cc1b4c	-6.0828515e-06
3	0xb6910af8	-4.3226137e-06
4	0xb7209113	-9.570521e-06
5	0x37324f58	1.06281e-05
6	0xb75b5577	-1.3073316e-05
7	0xb5c8799a	-1.4936552e-06
8	0xb7bc43d7	-2.2442937e-05
9	0xb79ff20d	-1.906699e-05
10	0x36b7d972	5.479139e-06
11	0xb69fca11	-4.762093e-06
12	0x3744deb0	1.1734359e-05
13	0x362eb9e0	2.6036214e-06
14	0xb681ae93	-3.8648227e-06

weight f4 [15, 9]
0	0x375004db	1.2398897e-05
1	0x378d75b3	1.6863318e-05
2	0x37adf2a0	2.0736188e-05
3	0x38039c98	3.1378673e-05
4	0xb665851e	-3.4201144e-06
5	0xb7b4e7c5	-2.1565598e-05
6	0x37866155	1.6019369e-05
7	0x38322769	4.247521e-05
8	0x374c8de9	1.2192389e-05
9	0x35cd8cbe	1.5314652e-06
10	0xb72ca2ed	-1.0289933e-05
11	0xb71b9c2d	-9.275082e-06
12	0x36bec6c0	5.685579e-06
13	0x36bb0a4f	5.5742344e-06
14	0x3634563d	2.6872287e-06
15	0xb68a54a0	-4.122572e-06
16	0xb759e938	-1.2988508e-05
17	0x369bfc2e	4.6487175e-06
18	0xb7598701	-1.2965641e-05
19	0xb73262aa	-1.0632599e-05
20	0xb6dc8dab	-6.5730032e-06
21	0x372d8ff9	1.0345125e-05
22	0xb74941e6	-1.1995877e-05
23	0x37273bb8	9.96788e-06
24	0x364cd201	3.0520607e-06
25	0xb6ac8b9c	-5.142252e-06
26	0x355b6df2	8.174385e-07
27	0xb75caa8e	-1.3152732e-05
28	0xb78226ce	-1.5515277e-05
29	0x36ba3a34	5.5500077e-06
30	0xb7fbf7c9	-3.0036916e-05
31	0xb7a0e765	-1.9181238e-05
32	0xb7e8bfde	-2.77459e-05
33	0x3769c067	1.3932679e-05
34	0xb79e8348	-1.88962e-05
35	0xb7e21afe	-2.6953869e-05
36	0xb7898c5f	-1.6397038e-05
37	0xb7173b75	-9.014145e-06
38	0xb7d61b21	-2.552342e-05
39	0x3561ef07	8.416686e-07
40	0x37955f4b	1.7806558e-05
41	0x376fe41d	1.4298622e-05
42	0x37551a1c	1.2701868e-05
43	0xb6893416	-4.0889818e-06
44	0xb6e9236a	-6.948064e-06
45	0xb47a48c0	-2.330953e-07
46	0x37652513	1.3658096e-05
47	0x37a2ecdc	1.9422201e-05
48	0x35a9a4b0	1.2639412e-06
49	0xb7469414	-1.1836197e-05
50	0x352bf914	6.406492e-07
51	0x378578e8	1.5911137e-05
52	0xb7455b77	-1.1763411e-05
53	0xb7b70acc	-2.1820328e-05
54	0xb720e1d6	-9.589325e-06
55	0xb6fb5e3d	-7.4913537e-06
56	0xb773bf94	-1.4528534e-05
57	0xb796a787	-1.7959404e-05
58	0x377f7bcd	1.5228009e-05
59	0xb7b3fc71	-2.1456015e-05
60	0x350bc6b7	5.2070703e-07
61	0xb7af4bc9	-2.0896916e-05
62	0xb50689ae	-5.011924e-07
63	0xb60dfb8b	-2.1157055e-06
64	0x3735d5f4	1.0838256e-05
65	0xb6c03b79	-5.7289694e-06
66	0xb732ec54	-1.0664651e-05
67	0xb7d4de87	-2.5375992e-05
68	0xb755f3e3	-1.2752574e-05
69	0x3606c899	2.008432e-06
70	0xb5cef047	-1.5418126e-06
71	0x3785fc69	1.5972373e-05
72	0xb722a9bf	-9.695475e-06
73	0xb8052894	-3.1747462e-05
74	0xb81c4871	-3.7260765e-05
75	0xb696a9db	-4.490122e-06
76	0xb6b689e8	-5.440077e-06
77	0xb7cb1b91	-2.4212322e-05
78	0xb7842f16	-1.5757552e-05
79	0x372d2054	1.03191305e-05
80	0x36ddbee6	6.6085368e-06
81	0xb7b352c5	-2.1377005e-05
82	0xb71fcbe6	-9.524612e-06
83	0xb7af390f	-2.0888196e-05
84	0xb683e0df	-3.9302827e-06
85	0xb750da35	-1.2448571e-05
86	0xb7a70f25	-1.9915004e-05
87	0x372c7e4b	1.0281404e-05
88	0xb702650c	-7.772131e-06
89	0xb7091806	-8.17143e-06
90	0x37a281ef	1.937241e-05
91	0x372fade2	1.0471298e-05
92	0x37745c63	1.4565044e-05
93	0x3694149c	4.413143e-06
94	0xb54987e6	-7.5076093e-07
95	0x37e6ecb3	2.7528358e-05
96	0xb7847cb5	-1.5793697e-05
97	0x378b3faa	1.6599737e-05
98	0xb6cf7172	-6.1822875e-06
99	0xb77fdb08	-1.5250182e-05
100	0xb7b379cc	-2.1395179e-05
101	0xb768fbd9	-1.3886915e-05
102	0xb5a66fa0	-1.2400451e-06
103	0xb6f4c6a7	-7.294893e-06
104	0xb7565c40	-1.2776873e-05
105	0xb6a41463	-4.889954e-06
106	0x36c8c334	5.983189e-06
107	0xb617a4f8	-2.2596778e-06
108	0x37c0a5dc	2.2965418e-05
109	0xb6e670f9	-6.867686e-06
110	0x37c27307	2.3180166e-05
111	0x37c2fe56	2.3245037e-05
112	0x38025b0a	3.1079202e-05
113	0x37392605	1.1035711e-05
114	0xb6e8394d	-6.9208095e-06
115	0x3681eec4	3.8722956e-06
116	0xb6447f00	-2.92802e-06
117	0x369798f1	4.5179554e-06
118	0x372a3571	1.0145232e-05
119	0x37a58d30	1.9735278e-05
120	0x37fb9849	2.9992445e-05
121	0x36d91ab4	6.4702126e-06
122	0x379d94ea	1.8785202e-05
123	0x33b0f3c2	8.239978e-08
124	0x370b322f	8.29673e-06
125	0x378dbb28	1.6895661e-05
126	0xb7a24577	-1.9344252e-05
127	0x35c32b05	1.4541152e-06
128	0x3593ae1d	1.1003027e-06
129	0xb8083ebb	-3.248335e-05
130	0xb7b17ed6	-2.1159107e-05
131	0xb77cab71	-1.5060287e-05
132	0x370fedb5	8.57881e-06
133	0x36a79c68	4.995196e-06
134	0xb7ae0af1	-2.0747511e-05

weight f4 [15, 9]
0	0xb729bafe	-1.01167225e-05
1	0xb7754fc3	-1.4621709e-05
2	0x35e29e53	1.688439e-06
3	0xb5ffb2b4	-1.905099e-06
4	0xb50be1a5	-5.210989e-07
5	0xb75de694	-1.3226312e-05
6	0x368b8118	4.1575513e-06
7	0xb71f16b9	-9.482429e-06
8	0x376606f1	1.37106845e-05
9	0x36d04002	6.2063345e-06
10	0x37761233	1.466698e-05
11	0xb406db5c	-1.2559525e-07
12	0x372163e4	9.619605e-06
13	0x3702b359	7.790361e-06
14	0x364fe0f0	3.0976335e-06
15	0xb7680598	-1.382958e-05
16	0x36fc2063	7.5139556e-06
17	0x360394b2	1.9607073e-06
18	0xb681173a	-3.8472035e-06
19	0x3684b739	3.9552365e-06
20	0xb489b43e	-2.5649382e-07
21	0x360ef954	2.1304777e-06
22	0x378c271a	1.6707509e-05
23	0xb64eab68	-3.0796164e-06
24	0xb783cf25	-1.5712876e-05
25	0x36d5dcf1	6.3736156e-06
26	0xb6ac5d81	-5.1368847e-06
27	0xb5459a15	-7.361244e-07
28	0xb78a8961	-1.6514854e-05
29	0xb68177b3	-3.8584344e-06
30	0x36419b23	2.8849543e-06
31	0xb6b86e7b	-5.496489e-06
32	0x37215237	9.61549e-06
33	0x3770d2c2	1.4354186e-05
34	0xb71cfbb5	-9.35693e-06
35	0xb77b6a69	-1.4985541e-05
36	0xb75d5f1e	-1.3194773e-05
37	0xb6d95f09	-6.4781675e-06
38	0xb60a6c8b	-2.0626783e-06
39	0xb5614ea2	-8.393346e-07
40	0xb54ec4c9	-7.702734e-07
41	0x3704a0b3	7.905229e-06
42	0xb74c5b9c	-1.2180677e-05
43	0xb6fda096	-7.5586822e-06
44	0xb762bb44	-1.3514251e-05
45	0x37734859	1.4500773e-05
46	0xb74b0ea9	-1.2103156e-05
47	0xb720abc4	-9.5767355e-06
48	0xb766f778	-1.3766687e-05
49	0x36df0897	6.646918e-06
50	0x37636541	1.3553829e-05
51	0xb75a75c5	-1.3021233e-05
52	0xb563173e	-8.459791e-07
53	0x36e74450	6.892289e-06
54	0x36eb2e48	7.0089336e-06
55	0xb78bc97c	-1.6663915e-05
56	0x35865c33	1.0010612e-06
57	0x3734d940	1.07794185e-05
58	0xb6a78d69	-4.99345e-06
59	0xb69ce396	-4.675657e-06
60	0x3589cee2	1.0267506e-06
61	0xb704c4fc	-7.913677e-06
62	0x367665ae	3.6716042e-06
63	0x35ff85a4	1.9037875e-06
64	0xb724c20f	-9.8203445e-06
65	0xb6fec1bd	-7.592344e-06
66	0x371bd0ff	9.287381e-06
67	0x3742f20c	1.1619657e-05
68	0x361c0cbb	2.3253222e-06
69	0xb782ac47	-1.557743e-05
70	0xb69d3941	-4.68563e-06
71	0xb6fd3dbc	-7.5471744e-06
72	0x368b11a0	4.1445746e-06
73	0xb6a8220c	-5.0107537e-06
74	0x37844477	1.5767508e-05
75	0x3784a4d7	1.5812386e-05
76	0xb71946ee	-9.136025e-06
77	0xb78b5c93	-1.66132e-05
78	0x375ae832	1.3047875e-05
79	0xb751e6a3	-1.251107e-05
80	0x356a89ef	8.737251e-07
81	0xb74dac0a	-1.2259008e-05
82	0xb4ff6575	-4.757127e-07
83	0x36c2abd7	5.8016553e-06
84	0xb732058c	-1.0610918e-05
85	0xb78cb20e	-1.6772214e-05
86	0xb78b846c	-1.6631755e-05
87	0x3539a3a5	6.9156005e-07
88	0xb76085a2	-1.3382554e-05
89	0x3738716a	1.0993661e-05
90	0x369f3b7b	4.7454937e-06
91	0x37235fd1	9.737866e-06
92	0x364f0266	3.08468e-06
93	0xb5bd5646	-1.4106706e-06
94	0x3770be45	1.4349415e-05
95	0x3703a63a	7.846911e-06
96	0xb5f0e4cb	-1.7947981e-06
97	0xb6a6c8d4	-4.970565e-06
98	0x378b1da2	1.658389e-05
99	0x36b2df9c	5.330845e-06
100	0xb7039fc9	-7.845411e-06
101	0xb7903b71	-1.7193817e-05
102	0xb6e6d1b1	-6.8789454e-06
103	0x36dfa3bd	6.6649795e-06
104	0x36904bdb	4.300365e-06
105	0x3756118b	1.27594785e-05
106	0x3780fc1f	1.5376192e-05
107	0xb593cb92	-1.10116e-06
108	0x372ff349	1.0487457e-05
109	0x373773f4	1.0934647e-05
110	0x3737e118	1.0960059e-05
111	0x376c5f15	1.4088834e-05
112	0xb76d7a36	-1.4154755e-05
113	0x36115be7	2.1660178e-06
114	0x35bb3da3	1.3950524e-06
115	0xb62ccab7	-2.5747993e-06
116	0xb5986c57	-1.1356414e-06
117	0xb710c59c	-8.629078e-06
118	0x3727d51c	1.0003594e-05
119	0xb627aa58	-2.4984092e-06
120	0xb6e0a6b1	-6.6951256e-06
121	0x3641a744	2.8856603e-06
122	0xb690f9b9	-4.320606e-06
123	0x3764d0c9	1.3638471e-05
124	0xb6dda304	-6.6052908e-06
125	0x372959be	1.009408e-05
126	0xb6ab8794	-5.1119805e-06
127	0xb7536deb	-1.2602172e-05
128	0xb6b31ac8	-5.3377335e-06
129	0x346d9d0d	2.212948e-07
130	0xb6eccd55	-7.057252e-06
131	0xb5de2139	-1.6549958e-06
132	0xb7339b3d	-1.0705376e-05
133	0xb781f486	-1.5491863e-05
134	0x373221b0	1.061747e-05

att_src f4 [1, 1, 10]
0	0xbdc9c390	-0.09851754
1	0x3ec3d246	0.38246363
2	0xbf13472c	-0.57530475
3	0x3f08aebb	0.5339162
4	0x3e4aa74c	0.19790381
5	0x3f046ebf	0.51731485
6	0xbf3490fe	-0.7053374
7	0x3f09c3ad	0.538142
8	0x3ed2aede	0.41149038
9	0x3ef27a5a	0.47358972

att_dst f4 [1, 1, 10]
0	0x3ec7ce12	0.39024407
1	0xbeb15fe7	-0.3464348
2	0xbe3a6488	-0.18202412
3	0x3ca91500	0.020639896
4	0x3e36abf8	0.17839038
5	0xbf34dab9	-0.70646244
6	0xbe12e920	-0.14346743
7	0xbf32f33c	-0.69902396
8	0xbf0129c7	-0.5045437
9	0xbe8dd6fa	-0.27703077

bias f4 [10]
0	0x00000000	0.0
1	0x00000000	0.0
2	0x00000000	0.0
3	0x00000000	0.0
4	0x00000000	0.0
5	0x00000000	0.0
6	0x00000000	0.0
7	0x00000000	0.0
8	0x00000000	0.0
9	0x00000000	0.0

weight f4 [10, 15]
0	0x3ed3d235	0.41371313
1	0x3e8f7177	0.28016254
2	0x3c191177	0.009342543
3	0x3e761a0a	0.2403337
4	0x3ddb23fd	0.107002236
5	0xbee275d4	-0.4423052
6	0xbed8d554	-0.42350256
7	0x3ee09594	0.4386412
8	0xbd953b1d	-0.072866656
9	0xbd0b5605	-0.03401758
10	0x3835046d	4.3157885e-05
11	0x3dc18b35	0.0945038
12	0xbea2bbeb	-0.31783995
13	0x3ee0acb4	0.43881762
14	0x3eccaf7a	0.39977628
15	0xbeb543eb	-0.3540338
16	0xbd6a535c	-0.057208404
17	0x3ec26d18	0.37973857
18	0xbedfd015	-0.43713441
19	0xbec841e4	-0.3911277
20	0xbec15102	-0.37757117
21	0xbe82b3fe	-0.25527948
22	0x3e40a18e	0.18811628
23	0xbe75a81d	-0.23989911
24	0xbe284f19	-0.16436423
25	0xbdc2ca60	-0.09511256
26	0xbef6e1e0	-0.48219204
27	0x3ea1926f	0.31557032
28	0xbeb6ef9b	-0.3572968
29	0xbe727d28	-0.23680556
30	0x3dca91fe	0.09891127
31	0xbe6d44c7	-0.23170768
32	0x3eb5ee1f	0.35533234
33	0x3ec402ea	0.38283473
34	0xbe760487	-0.24025165
35	0xbe7ed3ea	-0.24885526
36	0x3ea5b57f	0.32365033
37	0x3ea6e6bd	0.32597914
38	0xbeb3d1fc	-0.35121143
39	0x3ebb5120	0.3658533
40	0xbe5ac4e9	-0.21364178
41	0x3e8ff00c	0.2811283
42	0x3efaafc0	0.48962212
43	0xbe5b59b4	-0.21420938
44	0x3eea6c83	0.45785913
45	0xbde35edf	-0.111020796
46	0x3d965bcd	0.07341728
47	0xbe99bf71	-0.3002887
48	0xbdb7881f	-0.0896151
49	0xbd99fb68	-0.07518655
50	0xbeaea5da	-0.3411091
51	0x3ee21a4c	0.44160688
52	0x3d85f400	0.0654068
53	0x3ef538b1	0.47894815
54	0xbed04fd0	-0.40685892
55	0xbe93b856	-0.28851575
56	0xbdb4c9fa	-0.088275865
57	0x3ed0e2db	0.40798077
58	0x3e372880	0.17886543
59	0xbeca58ab	-0.39520773
60	0xbee540b7	-0.44775936
61	0xbebd1652	-0.36931092
62	0xbeeef5f7	-0.4667203
63	0xbead75a9	-0.3387883
64	0xbe93e5c4	-0.28886235
65	0x3e87c1eb	0.26515135
66	0xbeb44f7e	-0.35216898
67	0x3db6b45d	0.0892112
68	0x3e69f258	0.22846353
69	0x3eab3961	0.33442214
70	0x3e3016f8	0.17196262
71	0xbe86a400	-0.26296997
72	0x3e75e03f	0.24011324
73	0x3edc4c84	0.43027127
74	0xbd9cd9ff	-0.07658767
75	0xbed5d2fd	-0.41762534
76	0x3d616d3e	0.055035822
77	0x3e102b59	0.14079036
78	0x3e2bf712	0.16793469
79	0x3e719219	0.23590888
80	0x3e8112be	0.25209612
81	0x3ebaf16b	0.36512312
82	0xbdd10f5c	-0.10208008
83	0xbe9519e2	-0.2912131
84	0x3ed568d6	0.41681546
85	0xbebf7047	-0.37390348
86	0xbe68517b	-0.22687332
87	0xbee6c4ae	-0.4507193
88	0xbed4663a	-0.41484243
89	0x3e8111f6	0.25209016
90	0xbe834fa4	-0.25646698
91	0x3d68b104	0.05680944
92	0xbe39788a	-0.18112388
93	0xbecea141	-0.40357402
94	0xbee33b51	-0.44381192
95	0xbedb73ca	-0.42861778
96	0x3ef4bfff	0.4780273
97	0xbdb70c87	-0.08937936
98	0x3d30c19b	0.043153387
99	0xbd30eac2	-0.043192632
100	0x3da430ff	0.08017158
101	0xbef76193	-0.4831663
102	0xbef09252	-0.46986634
103	0xbeecb7ed	-0.46234074
104	0x3e09191d	0.13388486
105	0xbe632a4f	-0.22184108
106	0xbe463aa3	-0.19358306
107	0x3ee0281c	0.437806
108	0x3ee1bbf8	0.4408872
109	0xbc75f151	-0.015011148
110	0x3eedb773	0.46429023
111	0xbe55b0a9	-0.20868172
112	0xbecab8f9	-0.39594248
113	0x3e986f84	0.2977258
114	0xbedc1fc9	-0.42993
115	0xbe8d1182	-0.2755242
116	0x3ede5618	0.4342506
117	0x3e70e216	0.23523745
118	0xbebd780b	-0.37005648
119	0x3eaa8744	0.33306324
120	0x3ea35d72	0.3190723
121	0x3ebd8100	0.37012482
122	0x3e1fb52b	0.15596454
123	0xbe857799	-0.26067808
124	0xbd330b7e	-0.04371213
125	0x3e62896a	0.22122732
126	0xbead5736	-0.338556
127	0xbe87291d	-0.26398554
128	0x3e3fddb4	0.18736917
129	0xbeb9e910	-0.36310625
130	0x3e4be956	0.1991323
131	0xbed24e6b	-0.41075453
132	0xbb3649b8	-0.0027814936
133	0xbd9a226a	-0.07526095
134	0xbdc95321	-0.09830309
135	0x3ece81d8	0.40333438
136	0xbe7f907a	-0.24957457
137	0xbe2ebc1b	-0.17063944
138	0x3e9e04a2	0.3086291
139	0x3de0b6e8	0.109723866
140	0xbcda3539	-0.026636707
141	0x3e89aa0c	0.26887548
142	0xbc84f221	-0.016228737
143	0xbeaf73ce	-0.3426804
144	0x3e588f59	0.21148433
145	0xbe526c8d	-0.20549221
146	0x3eee1529	0.4650052
147	0xbed36619	-0.41288832
148	0x3cc8d8df	0.024517475
149	0x3e9017de	0.2814321

weight f4 [10, 15]
0	0x3ea171e3	0.315322
1	0xbeaa11f5	-0.33216825
2	0xbe8a3a7f	-0.26997754
3	0x3e15b7e2	0.14620927
4	0xbea277f1	-0.31732133
5	0xbef14700	-0.4712448
6	0x3b7a70f1	0.003821429
7	0x3e31dca1	0.1736932
8	0x3ee4ec8a	0.44711715
9	0xbe52e0ae	-0.20593521
10	0xbef2f2bb	-0.47450814
11	0xbede1660	-0.43376446
12	0xbd8c4345	-0.06848768
13	0x3ed4b5dd	0.41545
14	0x3eda82d2	0.42677933
15	0xbe80230a	-0.25026733
16	0x3ed43b3e	0.41451448
17	0x3ea3cc26	0.3199169
18	0x3ef5a7f4	0.479797
19	0xbed62aa2	-0.418294
20	0xbced7a21	-0.0289889
21	0x3e4f0b93	0.20219259
22	0x3dc236ac	0.09483084
23	0xbef14823	-0.47125348
24	0xbed24ee1	-0.41075805
25	0x3db64ee4	0.08901766
26	0xbe372531	-0.17885281
27	0xbe1da410	-0.15394616
28	0x3d801798	0.062545
29	0xbe797a40	-0.24363041
30	0xbdfce1fa	-0.12347789
31	0x3e858a8a	0.2608226
32	0x3d9ea500	0.07746315
33	0x3ea8e55c	0.32987487
34	0x3ea623ce	0.32449192
35	0x3ebd9a7a	0.3703192
36	0x3dee63b0	0.11640108
37	0x3ee7e8c7	0.45294783
38	0xbe308ad4	-0.17240459
39	0xbed7dc03	-0.42160043
40	0xbd110bb9	-0.03541157
41	0xbed5d07f	-0.41760632
42	0x3e3596f0	0.1773336
43	0xbc8fb1f2	-0.017540906
44	0x3eb5196c	0.35370958
45	0xbe602c19	-0.21891822
46	0xbed1df4e	-0.4099068
47	0xbeba2a98	-0.3636062
48	0xbea03a64	-0.3129455
49	0xbe8ad829	-0.27118042
50	0x3e9c11c4	0.30482304
51	0x3e4af110	0.1981852
52	0xbe93af1a	-0.2884453
53	0xbe3b9b15	-0.18320878
54	0xbee8a1e3	-0.4543601
55	0xbe6ad2ae	-0.2293193
56	0xbe5bdf60	-0.2147193
57	0xbdb12640	-0.08649874
58	0x3ef68e19	0.48155287
59	0x3eee5e02	0.46556097
60	0xbeaba8d5	-0.33527246
61	0xbe8f0c7b	-0.2793921
62	0x3edb9998	0.4289062
63	0xbe340916	-0.17581591
64	0xbec05a77	-0.3756902
65	0xbea61160	-0.3243513
66	0x3b698544	0.003563241
67	0x3eb04e2f	0.3443465
68	0xbdb7ce1a	-0.08974858
69	0x3e26901f	0.16265915
70	0xbe49922d	-0.19684668
71	0xbec61fca	-0.38696128
72	0xbec46b68	-0.38363194
73	0xbe6e0e0a	-0.23247543
74	0xbec72b37	-0.38900158
75	0x3e46489f	0.1936364
76	0x3db29632	0.08720054
77	0x3e01c5a2	0.12673047
78	0x3dce7107	0.10080152
79	0xbe352c83	-0.17692761
80	0x3e92d8e8	0.2868111
81	0xbc91c4e0	-0.017794073
82	0xbd98307b	-0.07431122
83	0x3ecccaaa	0.3999837
84	0xbe40049b	-0.18751757
85	0xbee96377	-0.45583698
86	0xbe9132f9	-0.28359202
87	0x3e3b6c35	0.18302996
88	0xbeaff7ac	-0.34368646
89	0xbe290a7a	-0.16507903
90	0x3c078abc	0.008272823
91	0x3dada913	0.08479514
92	0x3d007d47	0.031369474
93	0xbd30b151	-0.043137852
94	0x3da41bd7	0.080131225
95	0xbef96f17	-0.48717567
96	0xbebc452e	-0.3677153
97	0xbe4080b9	-0.18799104
98	0x3ee86a17	0.4539344
99	0x3d97b24d	0.07407055
100	0xbe0f35f9	-0.13985433
101	0x3eeb8c3c	0.46005428
102	0xbd33331d	-0.043749917
103	0x3e7b1e23	0.24523215
104	0xbea9fd07	-0.33200857
105	0xbe700cb3	-0.23442344
106	0x3e82807f	0.2548866
107	0xbef9964b	-0.48747477
108	0xbbc320ef	-0.0059548537
109	0x3ea15d79	0.31516626
110	0x3e61e947	0.22061644
111	0xbe839c9b	-0.25705418
112	0xbe443256	-0.19159827
113	0xbe93f3f1	-0.2889705
114	0xbed2ff3e	-0.4121036
115	0xbed565bc	-0.4167918
116	0xbc9f786b	-0.0194666
117	0xbed5c65d	-0.41752902
118	0xbe95fe07	-0.2929537
119	0xbed33eb6	-0.41258782
120	0xbe6ceb4b	-0.23136632
121	0x3eec4755	0.46148172
122	0x3ec8f5cc	0.39250028
123	0x3eb723e8	0.35769582
124	0xbd67c005	-0.05657961
125	0x3e858248	0.2607596
126	0xbea6f33b	-0.32607445
127	0xbeb8cb15	-0.3609244
128	0xbec20bde	-0.3789968
129	0x3ef21477	0.47281238
130	0x3ee1d934	0.44111025
131	0xbe0d3f97	-0.13793789
132	0x3e74dfa1	0.23913433
133	0x3ed60acb	0.4180511
134	0x3dff2b64	0.12459448
135	0x3ec463f6	0.38357514
136	0x3ea2626d	0.31715718
137	0xbedf3266	-0.43593138
138	0x3e04726b	0.12934272
139	0x3eee348d	0.46524468
140	0x3e74cd23	0.23906378
141	0xbe9b822d	-0.30372754
142	0xbee8b829	-0.45453003
143	0xbec1d7c2	-0.37859923
144	0xbe2dc188	-0.16968358
145	0xbe9371b1	-0.28797677
146	0xbdee6840	-0.11640978
147	0x3dddab05	0.10823635
148	0x3d8c8f09	0.06863219
149	0xbeecd5a2	-0.4625674

att_src f4 [1, 1, 10]
0	0x373681b8	1.0878248e-05
1	0xb795009d	-1.776247e-05
2	0xb6e13722	-6.711941e-06
3	0xb81a9d92	-3.686321e-05
4	0xb811c56b	-3.4754554e-05
5	0x38243686	3.9151426e-05
6	0x3687b8cb	4.0448263e-06
7	0x3869e5b9	5.5765475e-05
8	0xb7b379e9	-2.1395232e-05
9	0x3807c0f5	3.2366213e-05

att_dst f4 [1, 1, 10]
0	0xb7a07534	-1.9128063e-05
1	0x3714dd88	8.873067e-06
2	0x36fa2a94	7.4555373e-06
3	0x37149cb5	8.857974e-06
4	0xb5c23b74	-1.447143e-06
5	0xb63d4ed0	-2.820907e-06
6	0x36a60e3a	4.9488417e-06
7	0xb60ce0ad	-2.0992404e-06
8	0xb6a8158f	-5.0093e-06
9	0xb7ba40e4	-2.2203145e-05

bias f4 [10]
0	0xb8036361	-3.1325388e-05
1	0xb6f30c3e	-7.2433895e-06
2	0xb7b279ec	-2.1276028e-05
3	0xb6b85ea7	-5.4946463e-06
4	0x3801ba3f	3.0929452e-05
5	0x36e2c2f3	6.75802e-06
6	0xb6ac470b	-5.13427e-06
7	0xb80d762f	-3.3727087e-05
8	0x36ccd335	6.1042615e-06
9	0xb7892f93	-1.6353826e-05
