model/gnn/240929_4/epoch_2.pt (torch, 253718 bytes, 63 tensors)

att_src f4 [1, 1, 15]
00000000: 1e46 2b3b c250 53bb e18d 43ba 1242 edba
00000010: f2f3 afba 3833 883a 04d4 50b9 4712 cb3a
00000020: cabf 2dbb 8f7c 91ba 284f c83a 328b acba
00000030: 456c e639 942f 1cbb 00d0 493b
0.0026134322 -0.003224418 -0.0007459801 -0.0018101356 -0.0013424142 0.0010391241 -0.00019915408 0.0015493118
-0.002651202 -0.0011099743 0.001528238 -0.0013164042 0.00043949686 -0.002383207 0.0030794144

att_dst f4 [1, 1, 15]
00000000: 9617 f8b6 5be1 ab3a 2391 4939 14be b639
00000010: 74d3 5d3b 0bbc c4ba d676 4c3b 04c9 c1ba
00000020: b1c8 e9b8 a10b 14bb b61d 6f3a f8ab 65bb
00000030: 574c 823a 2822 ebba 1ad9 4d3b
-7.3937217e-06 0.0013113426 0.00019222921 0.00034855364 0.003384796 -0.0015009654 0.0031198761 -0.0014784639
-0.000111476875 -0.002258994 0.0009121554 -0.0035045128 0.0009940964 -0.0017939257 0.003140992

bias f4 [15]
00000000: 5696 09bb efc5 b6ba 6fcd 0fbb 1415 753e
00000010: b378 06bb 1033 1dbb 483d daba f86c 47bb
00000020: 7844 35bb 5af6 74ba c676 a5b9 4cfd 12bb
00000030: 83bd c6ba d2ba e4ba afd3 12bb
-0.0020994148 -0.0013944487 -0.0021942516 0.23933822 -0.002051872 -0.0023986734 -0.0016650343 -0.003042994
-0.0027659219 -0.00093445706 -0.00031559746 -0.0022428809 -0.001516268 -0.0017450696 -0.0022404005

weight f4 [15, 163]
00000000: aeb7 06bb 9292 d5ba a25d eaba 0d18 36bb
00000010: b86f 23bb 65be 90ba 8e83 2abb d7cc 02bb
00000020: e238 a8ba def7 d1b8 2e18 fdba 7f59 0cbb
00000030: 79de fbba d256 c1ba 33d8 47ba f51d ceb9
00000040: 2aad 4d3a 3fdf feba 258a 80ba 6215 eeba
00000050: 61a3 d2ba 125e 6dba 7c14 c2ba 1939 f1ba
00000060: 249b 9539 4274 313a 2550 a8ba 194a 293a
00000070: a7eb baba ca32 cfba e3d4 04bb d421 153b
00000080: 171c aab9 484c 91ba 64e0 e3b9 a260 8fba
00000090: 1232 35bb 7eff 4bba 040b d6ba 3c83 03b9
000000a0: e37b b5ba a2ad f0ba 534e 46bb e7fe 3b3a
000000b0: ea05 4eba 011b e3ba eb5a 08bb 4a3a 16bb
000000c0: 0913 f2ba 1ff9 20bb 780e ccba a1da 31bb
000000d0: 1469 91ba 6431 1839 2371 88ba d14d 02ba
000000e0: 977a 5039 1e1c 693a ba6a e039 2cb5 ea3a
000000f0: 57b0 fa39 a735 9639 5222 bcba 7071 18bb
00000100: aa33 5bba bdf7 c239 c635 8239 a4e5 00ba
00000110: 3576 ad3a 889f 8839 a703 84ba 3c11 17bb
00000120: 3089 9fba 5231 abba 17d7 0bb8 5a03 5dbb
00000130: b951 8a3a 3557 88ba 0b7c 643a 3fe0 e73a
00000140: ac60 2dbb 447d 75bb 307d 2439 2204 6b3a
00000150: 4bad 9838 55f8 3fbb 7c26 f83a 8592 89ba
00000160: b1c0 53ba 6f50 17b9 7222 7bba 669e ad3a
00000170: fbc2 8eb9 bf8a 193b 90bb dd39 a1f0 af39
00000180: e2d2 d3b8 12d1 47ba 1fa9 88ba e531 7f39
00000190: 9858 01b8 8161 bdb9 756e 7cbb 3dd1 843a
000001a0: 9d71 fcb9 b87c f0ba 5ada 8fba 3b56 96b9
000001b0: c02f ad39 f051 f9ba 64e0 84ba a021 ff3a
000001c0: 864d aa38 c1bd 573a 81e0 0eb9 25c7 24bb
000001d0: da02 a5b8 e89c f8b9 7b2e b5ba 4310 ac39
000001e0: 6076 4aba 60ad f8b9 fdf6 e83a 8606 3ebb
000001f0: c693 33bb c7e3 3839 d08b deb9 bdaf 9eba
00000200: 9fc4 23bb 562f 01ba 6d15 6e3a f9b4 6a3a
00000210: 3c33 7838 5729 8fb9 1f40 903a 3036 e7b9
00000220: 2980 fa3a a59b f238 7600 9eba 1fd0 f0ba
00000230: c8b7 15bb 26d5 b8ba a78a e6ba 4abe dcba
00000240: b4f1 a1ba dcc2 b6ba 6b74 6aba 7d1b 15bb
00000250: be5c 09bb 8843 b0ba 0369 c2ba 6a69 47bb
00000260: 39f5 93ba eafd 09bb 402f 4ebb 184f 73ba
00000270: 5ee6 3cbb 4a93 b2b9 adaf 41ba e168 f9ba
00000280: e29b 60bb 2050 373a 02d3 cb39 0ae9 60b9
00000290: bf36 053a cc0a 19ba ba94 c2b9 89d8 e8ba
000002a0: 9d60 baba 4c45 35ba 4104 ceba 79a5 6cba
000002b0: 921e 063a b781 89ba 912c 94ba 9f63 e9ba
000002c0: 1a2b 8eba 75d9 c3ba 0d4e 83ba 34c3 8239
000002d0: f5bd bcba 7fcc 02ba a143 5cb9 5701 c2ba
000002e0: bf95 b5ba 9599 25b9 d691 8aba d68d 163a
000002f0: e169 a3b8 743f 7fba ba7e 47b9 20d4 11bb
00000300: 1ca6 56bb a054 deba 9a21 e73a 9f76 a63a
00000310: 7376 3fba da00 84ba a736 adba 813b 1fba
00000320: 5bad 8fba 732a 3cba 109e f838 112d c6ba
00000330: c0e3 76ba 3bb1 20bb d944 82b9 e833 15ba
00000340: 57cc 3dba 6fc3 deba 1bff b6ba d021 3dba
00000350: 8034 5bb9 6292 21bb 0d15 19bb 1d58 98b9
00000360: 9787 ebba d4f6 f038 8abd aeba 8d2d f93a
00000370: 02c4 c0ba 825e 6f3a da78 9bba 4fa9 60ba
00000380: 86ce f139 acd5 ab3a ce2c 54ba 76b3 fdba
00000390: f57c 8e3a bf1f d13a fce1 c63a 3843 5b3a
000003a0: 64cf 003b 80fa 7eb9 0014 8ab9 7ca9 ffba
000003b0: a61e 0aba 714e 0fba fa53 16bb 6e57 15ba
000003c0: 68a3 87ba 773e 9638 c50f 5e3b ce25 81ba
000003d0: efd9 0cbb 138c 5bba 8959 463a 14d1 c739
000003e0: bb7d 03ba ad52 c239 52f6 b939 cf58 5538
000003f0: 5b09 78ba 3a59 903a 9867 053a 611f 0aba
-0.002055626 -0.0016294292 -0.0017880688 -0.0027785331 -0.0024938416 -0.001104307 -0.0026018354 -0.001995852
-0.0012834335 -0.000100120655 -0.0019309574 -0.0021415649 -0.0019216082 -0.0014750606 -0.0007623464 -0.00039313702
0.0007845933 -0.0019445195 -0.0009806795 -0.0018164332 -0.0016070419 -0.000905485 -0.001480713 -0.0018403857
0.00028535083 0.0006769338 -0.0012841268 0.000645788 -0.0014260904 -0.0015807983 -0.0020268492 0.002275576
-0.00032445855 -0.0011085356 -0.00043463998 -0.0010938833 -0.0027648252 -0.0007781907 -0.0016330187 -0.00012542022
-0.0013846125 -0.0018362293 -0.0030259087 0.00071714673 -0.00078591576 -0.0017326773 -0.0020806144 -0.0022922927
-0.0018468808 -0.002456255 -0.0015568277 -0.002713837 -0.0011093938 0.00014514249 -0.0010409694 -0.0004970702
0.00019882094 0.00088924344 0.00042804127 0.0017906777 0.000478151 0.00028650204 -0.001435349 -0.0023260973
-0.00083618856 0.00037187143 0.00024835597 -0.00049170316 0.0013234081 0.000260588 -0.0010071889 -0.0023051044
-0.0012171622 -0.0013060963 -3.33405e-05 -0.0033723922 0.001055292 -0.0010401966 0.00087159936 0.0017690732
-0.0026455326 -0.0037458697 0.00015686895 0.00089651544 7.280203e-05 -0.0029292305 0.0018932368 -0.0010495937
-0.00080777245 -0.00014430446 -0.0009580023 0.0013246059 -0.00027229622 0.0023428646 0.0004229215 0.00033557884
-0.00010100544 -0.00076224015 -0.0010426379 0.00024337282 -3.0838506e-05 -0.00036121535 -0.0038517986 0.0010133159
-0.00048149834 -0.0018347716 -0.0010975108 -0.00028674476 0.00033032708 -0.0019021612 -0.0010137674 0.0019464977
8.1206716e-05 0.00082298747 -0.0001362581 -0.0025143113 -7.868344e-05 -0.0004741915 -0.0013823056 0.00032818512
-0.0007723328 -0.0004743142 0.0017773804 -0.0028995587 -0.0027401312 0.00017632461 -0.00042447308 -0.0012106817
-0.0024989021 -0.0004928013 0.0009082172 0.00089533586 5.9175523e-05 -0.00027305886 0.0011005438 -0.00044100126
0.0019111681 0.0001156845 -0.0012054581 -0.0018372572 -0.0022845138 -0.0014101609 -0.0017588929 -0.0016841379
-0.0012355358 -0.0013943571 -0.0008943739 -0.002275198 -0.002095982 -0.001344786 -0.0014832321 -0.0030427822
-0.0011288292 -0.0021055886 -0.0031461269 -0.00092815 -0.0028823833 -0.00034060545 -0.00073885435 -0.0019028449
-0.00342726 0.00069928356 0.0003887639 -0.00021449119 0.0005081705 -0.00058380957 -0.00037113373 -0.0017764728
-0.0014219467 -0.0006914928 -0.001571782 -0.0009027343 0.00051162497 -0.0010490929 -0.0011304786 -0.0017806179
-0.0010846586 -0.0014942127 -0.0010017768 0.0002494097 -0.0014399873 -0.0004989579 -0.00021006029 -0.0014801425
-0.0013853832 -0.0001579284 -0.0010572027 0.0005743181 -7.792167e-05 -0.0009736933 -0.00019025328 -0.002225168
-0.0032752817 -0.0016962476 0.0017633915 0.0012700147 -0.0007303722 -0.0010071055 -0.001321514 -0.00060742354
-0.0010961698 -0.0007177956 0.00011855003 -0.0015119632 -0.00094180927 -0.00245197 -0.00024846828 -0.00056916336
-0.0007240227 -0.00169955 -0.0013961525 -0.0007214816 -0.00020905025 -0.0024653901 -0.0023358495 -0.0002905735
-0.0017969486 0.00011490067 -0.0013331634 0.0019010768 -0.0014706852 0.0009131209 -0.0011861578 -0.0008570151
0.00046120974 0.0013109944 -0.00080938346 -0.0019355852 0.001087098 0.0015954896 0.001517355 0.00083642034
0.0019654864 -0.00024316646 -0.00026336312 -0.0019505466 -0.0005268849 -0.0005466706 -0.0022938238 -0.0005696927
-0.0010348381 7.164192e-05 0.003388391 -0.0009853186 -0.0021492203 -0.00083750597 0.00075664424 0.00038112013
-0.0005015989 0.00037064162 0.00035469473 5.0865867e-05 -0.00094618433 0.001101292 0.0005088984 -0.0005268958

weight f4 [15, 163]
00000000: fe9b cc39 f97f 8239 eb17 313a 38a0 8b3a
00000010: 1cd9 a638 50ed 8635 500b 3d3a 55e4 d739
00000020: 3048 8b3a bfaf 2c39 d158 5739 9210 86ba
00000030: aec6 313a 32ef 7dba 4d06 1aba ea21 3e3a
00000040: 88e6 3b3a a249 1cba 76e4 863a ad7c 893a
00000050: 0af9 2f3a 9986 25ba aa68 1836 7b7a 05ba
00000060: 72c0 66ba fc01 7f3a 600c 79ba d9a6 6f38
00000070: 39ee 31ba a670 6439 cea1 8939 5610 c0b8
00000080: c883 0c3a 449b 24ba cb61 c6b9 47bf f339
00000090: 14e8 63b9 4d06 2739 1bc7 b6b3 4967 fab9
000000a0: 4f57 8ab9 9a01 58b9 cd96 8aba 237e 383a
000000b0: c574 2c39 1250 e739 d991 54ba 09a6 97b8
000000c0: 9c67 41ba 81f3 6e3a 02f3 5bba e3cf 163a
000000d0: eeb8 1c3a 48f5 c3b8 85ca 033a 543b 3eba
000000e0: c3ce 8639 339b 893a 173f 44ba ab49 7a3a
000000f0: d9c7 0c3a febe 0a39 b158 3eba 9d52 2b3a
00000100: 7bf8 8bba 6ed2 22ba 44c7 89ba a267 1b3a
00000110: cf91 8cb9 12f1 5639 b039 93b9 7c41 86ba
00000120: e088 69ba a147 e5b8 0aec fd39 afb1 2bba
00000130: a44b 87ba dd9a 3839 9ea6 34ba ad53 9939
00000140: d04e ca39 7851 9438 852c 10b8 24ca f7b9
00000150: d154 2cba 9497 13b9 6fbd 06ba a23c 49ba
00000160: 9e4f 84ba 647d 843a e321 283a 69c2 e039
00000170: 682d cbb9 4981 39ba 2483 b4b8 be20 01ba
00000180: 7b41 87ba 16d2 9738 2a3c 0e3a 69e4 233a
00000190: 5560 6c39 4be4 d438 b00b 543a 4b16 053a
000001a0: 0032 db39 edd8 d9b9 223b ca39 85d8 b739
000001b0: 592e 72ba 071b b139 e89e d639 1b9c 6939
000001c0: b6a0 aa39 d19c 743a fc6a 2439 e1ba 083a
000001d0: 087d 2e3a 1a31 86b9 ae82 86b9 59dc f4b8
000001e0: 6f48 883a 4418 0bba 8ad0 d239 16c1 533a
000001f0: b25b f8b9 1c65 1f39 76da 8a3a 39bb d039
00000200: e7d2 3e3a 0869 fbb9 bae7 103a a63e c039
00000210: 19e0 dd39 c748 75ba 4d03 4bba 81c4 16ba
00000220: 3f1f 423a 434e 35ba 5493 a4b8 18a2 ab39
00000230: 46d1 793a 9c2d 593a 4465 69ba 243f 553a
00000240: 4435 a438 4d35 8aba 99c8 073a 5c4f 7fba
00000250: 22ea 6e3a 6b0a 12ba adea cfb8 ae92 2eba
00000260: 9367 71ba ec83 08b9 cd0b 4a39 cddd 5b3a
00000270: ccc1 a6b9 2f1e 88ba 70a1 5a3a 9498 873a
00000280: 5ece d438 5a35 8339 e22b 9339 d56a 66b9
00000290: a9a2 16b9 866d 02ba 77d8 53ba 4058 69ba
000002a0: 6292 a539 5d55 7d3a f085 e439 efbe 6bba
000002b0: d7b9 f238 45b2 603a 5836 543a a93a b8b9
000002c0: 3aa2 62ba 8bbd 7dba 7f29 16ba 7759 763a
000002d0: 27d3 d6b9 6f48 d0b9 048b 4138 d0e1 a4b8
000002e0: 7421 0db9 c823 aab8 5cea ab39 4be4 3638
000002f0: 74e4 ddb9 c0e9 533a 4880 6bba 7fd9 e4b9
00000300: e321 a6b9 8d83 233a 8676 03ba eac3 49ba
00000310: b6e0 d039 9e93 3a3a 3876 ba38 bf20 5eba
00000320: 7b23 4bba 6edb c238 c6c2 f0b9 eb63 64b9
00000330: a6c0 4538 c17c 0cba 481a 313a 4db2 8a39
00000340: 6d46 c539 2215 2aba 746e e939 f99a 6b3a
00000350: 3a51 0a3a 3faa 34ba dc5a 9eb9 9a0d 8637
00000360: 4e5f 50ba 01f8 f639 7dfe b038 d68a 92b9
00000370: 284a 273a dd5d 81ba bc62 2aba 874e 58b8
00000380: c811 5eba e8a0 9d36 f66a 7a3a 80d6 d338
00000390: e573 443a 21d1 c0b9 65ad 88ba 110e dfb8
000003a0: 8e36 0a3a 40d3 5aba 6d46 f8b9 cb2f 663a
000003b0: 77ac 883a 0d92 513a f7d8 373a 66ee fc39
000003c0: cd53 63ba d00a 03b8 81e9 a2b9 2a87 7eba
000003d0: 55af 3eba 0df6 863a 1abd 323a 85d7 da39
000003e0: fba9 5839 cabb f639 a82c 42ba 46a7 1537
000003f0: 5f32 d5b8 8358 a439 d24f 4a3a 35b8 1b3a
0.00039026135 0.0002489088 0.0006755578 0.0010652607 7.9559366e-05 1.0052845e-06 0.00072114635 0.00041178116
0.0010626372 0.00016468669 0.00020537084 -0.0010228327 0.000678162 -0.0009686827 -0.00058755727 0.00072529784
0.0007167836 -0.00059619 0.0010291475 0.0010489427 0.000671283 -0.0006314307 2.2710688e-06 -0.00050917984
-0.00088024803 0.0009727774 -0.000950044 5.713743e-05 -0.0006787512 0.00021785739 0.0002625123 -9.158316e-05
0.0005360213 -0.000627924 -0.00037838364 0.00046491085 -0.00021734863 0.00015928708 -8.5112525e-08 -0.0004776067
-0.0002638646 -0.00020599962 -0.0010573507 0.0007037839 0.00016446698 0.0004411941 -0.0008108891 -7.2311675e-05
-0.0007377805 0.00091152644 -0.0008390398 0.00057530234 0.00059784844 -9.344012e-05 0.0005027431 -0.00072567654
0.0002571252 0.0010498523 -0.0007486208 0.00095477205 0.0005370356 0.00013231856 -0.0007261141 0.00065354427
-0.0010678911 -0.0006211166 -0.0010511656 0.0005928223 -0.00026811517 0.00020498436 -0.00028081005 -0.0010242905
-0.00089086406 -0.00010932913 0.00048431783 -0.0006549609 -0.0010322225 0.00017605298 -0.0006891283 0.00029244777
0.00038587162 7.072365e-05 -3.4373737e-05 -0.00047262118 -0.0006573918 -0.0001407548 -0.0005139922 -0.00076765765
-0.0010094529 0.001010817 0.0006413741 0.00042869456 -0.00038753008 -0.0007076455 -8.607496e-05 -0.00049258384
-0.0010319197 7.239373e-05 0.0005425835 0.00062519923 0.000225426 0.000101514706 0.00080889 0.0005076869
0.00041808188 -0.00041551088 0.000385725 0.000350658 -0.0009238474 0.00033780208 0.00040935655 0.00022278765
0.00032544666 0.0009331229 0.00015680114 0.00052158354 0.00066562044 -0.00025595055 -0.00025655836 -0.000116758696
0.0010397563 -0.0005306045 0.00040209695 0.0008077783 -0.00047370564 0.00015201088 0.0010593671 0.00039812343
0.00072793517 -0.00047952705 0.0005527694 0.0003666777 0.0004231937 -0.0009356853 -0.00077443273 -0.0005751327
0.0007405169 -0.0006916264 -7.8475714e-05 0.0003273643 0.00095297804 0.00082846894 -0.00089033344 0.0008134714
7.830051e-05 -0.0010544449 0.00051797327 -0.00097393035 0.0009113868 -0.00055710104 -9.914241e-05 -0.000665943
-0.0009208854 -0.00013019115 0.00019268617 0.0008387238 -0.00031806377 -0.0010384972 0.0008340096 0.0010345154
0.00010147387 0.00025026017 0.0002807072 -0.00021974307 -0.0001436571 -0.0004975427 -0.0008081267 -0.0008901395
0.00031580316 0.0009663904 0.0004358734 -0.000899299 0.000115740746 0.0008571486 0.0008095256 -0.0003513892
-0.00086453895 -0.0009679428 -0.00057282293 0.00093974866 -0.00040974581 -0.0003972682 4.6144254e-05 -7.86219e-05
-0.0001345927 -8.1128965e-05 0.00032790273 4.3604796e-05 -0.00042322616 0.00080838427 -0.0008983654 -0.00043649596
-0.00031687235 0.0006237559 -0.0005014915 -0.0007696735 0.00039840274 0.00071173336 8.891191e-05 -0.00084735075
-0.00077491225 9.291513e-05 -0.00045921485 -0.00021780997 4.7147878e-05 -0.0005359166 0.00067559304 0.00026454256
0.0003762724 -0.00064881344 0.00044523517 0.00089876313 0.0005276386 -0.0006891824 -0.00030203804 1.5980379e-05
-0.0007948772 0.00047105554 8.439736e-05 -0.0002795073 0.00063815946 -0.0009869892 -0.0006499698 -5.1571547e-05
-0.00084712775 4.6976966e-06 0.00095526816 0.00010101218 0.0007494076 -0.00036776907 -0.0010427652 -0.00010636089
0.00052724115 -0.0008347519 -0.00047354717 0.00087809254 0.0010427375 0.00079944805 0.0007013226 0.00048242806
-0.000867185 -3.1242904e-05 -0.00031073022 -0.0009709472 -0.00072740513 0.0010296718 0.00068183395 0.00041740775
0.00020662688 0.0004706069 -0.0007407167 8.920038e-06 -0.00010166014 0.00031346464 0.00077175826 0.000594023

att_src f4 [1, 1, 15]
00000000: 9131 b3b7 0109 9e3b 09f3 c9bb 8066 293b
00000010: b0da 7cbb 7245 3d3a 47c4 b93a e489 62ba
00000020: 9917 063b e2bc 9f3a bced 733b f4e9 2abb
00000030: 29b0 953b f7b4 4a3b a6ec 353a
-2.1361544e-05 0.0048228507 -0.0061630053 0.0025848448 -0.0038582496 0.0007220126 0.0014172875 -0.0008641763
0.0020460843 0.0012187029 0.0037220558 -0.0026079388 0.004568119 0.0030930617 0.00069398654

att_dst f4 [1, 1, 15]
00000000: e612 173b 1493 0bba ddfc fe39 4957 31b9
00000010: 6014 143b a3ca 3a3b a40a 273a 8561 20bb
00000020: 9fc7 4f3b 565e 053b 877a 43bb fe29 20ba
00000030: d037 1bbb bdf6 05bb c202 5cbb
0.0023052036 -0.00053243455 0.00048635053 -0.00016912552 0.0022595152 0.0028502129 0.000637213 -0.0024472189
0.0031704677 0.0020350418 -0.002982767 -0.0006109773 -0.002368439 -0.0020441257 -0.003357098

bias f4 [15]
00000000: d41b 6d3b c79a a2ba 04da 88ba f87f 42ba
00000010: 5151 d7ba 551c ef3a b40f 13bb a36a 86b9
00000020: 0376 7cbb d87b 56bb 2f8a 763a 7146 56ba
00000030: f6ff 033b f44d ea39 d2e6 2dba
0.0036179917 -0.0012405746 -0.001044095 -0.00074195815 -0.0016427432 0.0018242697 -0.002243978 -0.00025637922
-0.003852249 -0.0032727625 0.0009404746 -0.0008173949 0.0020141578 0.00044690038 -0.0006633821

weight f4 [15, 163]
00000000: 0368 9d3b 760c 973b 6ac7 8f3b ca62 823b
00000010: d5bd ab3b 5aaf 9a3b bf1c ae3b a698 833b
00000020: b355 893b b4b3 f63a 08c1 b9b7 b444 c03a
00000030: 6436 463a a490 afb9 0587 a1ba 7470 84ba
00000040: 3392 ae3a da5b ad3b 7290 af3b 6711 6c3b
00000050: 5950 973b 1bb9 8b3b 2250 183b b092 953b
00000060: 4691 be3b be30 ff39 9ab3 ab3b 2606 9ab9
00000070: a8aa 9b3b 37b9 b53b 077a ac3b 8153 00ba
00000080: 930f 3e3b 65df 15bb 249c 533b 8a3b a33b
00000090: 3d1f 7e3b 6a9c 963b ec1b 753b 5068 833b
000000a0: 3909 843b a805 633b 692f 843b ab7e 8d3b
000000b0: 509e 913b f825 923b 6fb4 ff3a 5060 a03b
000000c0: b95c 933b 28de 903b 1811 7d3b 5599 7d3b
000000d0: 4973 893b f5f7 a6b9 4b37 4f3a 503d bb3a
000000e0: 2a4b 3c3b 913e fc3a c5eb 813b fe39 96bb
000000f0: b228 953b ae3c dd39 b47c 40b9 1aca 843b
00000100: 64c8 0eb9 c166 0f3b 73bf 913b 0e85 6a3a
00000110: 7fb8 e539 a413 eb3a fb61 d6b8 5693 9dba
00000120: 63b9 0c3b bac0 3c3b 3afb ad39 8f99 e7ba
00000130: ce0c 2a3a 887d e839 ff2e 9c3b a918 22ba
00000140: edf5 053b 8b28 6d3b 7437 fb39 c2ab 113a
00000150: 518b ed3b 235d 44bb e671 373b f40f 1bba
00000160: ec4d 67ba 42a2 80ba ce63 af3a 5260 b33a
00000170: 25f1 773b 60ca 0c3b 39b5 c7ba ebdc 583a
00000180: 9676 683b 1058 7cb9 ec82 8a3b 9a10 8a3b
00000190: 2b21 433b aa25 3aba 7d39 d2bb 49ab f639
000001a0: 9984 5aba 92d8 f6bb 1620 8c3b 2870 33ba
000001b0: b757 203b 7991 183b d5e6 f33a 05b0 2cba
000001c0: 49ab f53a de9e 473a 91f8 02bb 9165 ff39
000001d0: 91f1 9a3a 58f8 fa39 738f afb9 40d0 79ba
000001e0: 224c 823a ca35 963b 658b 06ba bef9 c6b9
000001f0: 6880 773b 2ad2 47ba ec60 c7b8 1d09 a43b
00000200: 5460 27bb a59b d73a 90ff 52ba 3a36 73ba
00000210: f6f1 0a3a ad72 773b 6c4b 933b 8ab5 8c3b
00000220: 78b2 8039 3f24 88b9 7282 783b 4bfb 803b
00000230: e0c8 803b e7d3 973b e0a1 763b dc33 853b
00000240: c7b1 673b 836e 9c3b 3b90 b63b 2e1e 8e3b
00000250: 8e3a 813b c575 a13b 42c8 243b fca2 8b3b
00000260: 7471 8c3b 8eda 9b3b f9f1 b03b 0416 9b3b
00000270: 8ff8 8c3b 936a 993b fadd 503b e456 903b
00000280: e4c5 183b 4d92 47bb f87d 253b 3a63 5dba
00000290: ca3d 41b8 6758 04b8 783d 2239 3e07 97ba
000002a0: 3be7 ceb8 7881 a039 3c8c a3b9 e527 963a
000002b0: 7d10 963a a34e c9ba 2719 c9ba 0a47 03ba
000002c0: 239e aeb9 aacb 8bba 8021 7eba 56fb 7eba
000002d0: 0958 84ba 48e7 0f3a ebe0 f739 74ff 243a
000002e0: c8af 233a 9bdb b037 d522 0439 0d80 253a
000002f0: db81 033a 3416 8538 cd87 053a e405 41b9
00000300: d403 db39 46a1 ff3a 58de 45bb df3e 333b
00000310: a59b e83a eda4 2c3b 1b81 a5b9 4381 593a
00000320: 28bc 4e3a 37fc a6b9 7709 723a 0229 c0b8
00000330: 31a5 2439 8fef 7a38 2f84 bdb9 0ec0 ea39
00000340: 1e97 9eba 2648 023a 5bee 693a 9b3e 79ba
00000350: 63ce 4a3a 9355 d139 6d74 1837 7d67 7ab9
00000360: db3d f8b7 23c2 083a faf4 733a ab8b 4d3a
00000370: 7d83 7b3a 5b8a f4b9 ce49 453b a4db ac39
00000380: 8b34 8039 33a7 893a f9a4 be39 b3d0 3e3a
00000390: 4d35 2a3a 033c 4c3a f587 883a 74b4 03bb
000003a0: 336b 533a 7402 8239 92ad cb39 da96 1e3b
000003b0: 8535 8aba 0c82 043a 5d7e fa38 183c a4b9
000003c0: 36ce 19b9 60a2 2b3b f13e b1ba 66c4 91ba
000003d0: 3269 7f3a b4c8 a23a c690 0fb6 0b6a 363b
000003e0: 29de 293b 1228 4339 f4d7 5538 b438 f139
000003f0: 8bc5 bdb9 58ef a13a 4b53 5a3a 3622 603a
0.004803659 0.0046096398 0.0043877857 0.0039790617 0.0052411356 0.0047206106 0.0053134854 0.004016
0.0041911243 0.0018821866 -2.2143606e-05 0.0014668913 0.00075612054 -0.00033486367 -0.0012323564 -0.0010104314
0.0013318717 0.0052904906 0.0053577954 0.0036021115 0.0046177325 0.0042640097 0.0023241122 0.0045646057
0.005815658 0.00048673706 0.005239916 -0.0002937775 0.0047505684 0.005545761 0.00526357 -0.00048952556
0.0029000982 -0.002286875 0.0032289112 0.004981463 0.0038775944 0.0045962827 0.0037400676 0.0040102378
0.0040294197 0.0034640823 0.004033972 0.0043180785 0.004443921 0.0044600926 0.001950873 0.004894294
0.0044971374 0.0044210143 0.0038614925 0.003869613 0.0041946513 -0.0003184673 0.00079046626 0.001428524
0.0028731325 0.001924472 0.0039648735 -0.00458455 0.0045519704 0.00042197615 -0.00018357002 0.0040524127
-0.00013616827 0.0021881314 0.0044478714 0.00089462183 0.00043815744 0.001793493 -0.000102225655 -0.0012022059
0.0021472804 0.0028801397 0.0003318431 -0.0017669665 0.00064868934 0.00044344016 0.0047663446 -0.0006183484
0.0020440773 0.0036187496 0.00047915766 0.0005556905 0.007249274 -0.002996274 0.0027991473 -0.0005915158
-0.0008823562 -0.0009813982 0.0013381185 0.0013685322 0.0037832942 0.002148293 -0.0015236504 0.00082726654
0.0035471073 -0.00024065399 0.004227033 0.004213405 0.0029774408 -0.00071009493 -0.0064155445 0.00047048394
-0.00083357986 -0.0075331414 0.004276286 -0.00068450207 0.0024466345 0.0023280068 0.0018608222 -0.0006587508
0.0018743064 0.00076149206 -0.0019984583 0.00048713063 0.001182126 0.00047868746 -0.0003348548 -0.0009529628
0.0009940902 0.004584049 -0.0005132466 -0.00037951575 0.0037765745 -0.00076225644 -9.5071126e-05 0.005005969
-0.0025539594 0.0016449584 -0.0008048946 -0.0009277795 0.0005300337 0.003775756 0.004495075 0.004294102
0.00024547032 -0.00025966947 0.0037919548 0.0039362065 0.003930196 0.004633415 0.0037633106 0.00406502
0.0035353766 0.004773916 0.005571393 0.004337094 0.003943748 0.0049273693 0.0025143777 0.0042613726
0.0042859856 0.0047562784 0.005399939 0.004732849 0.0043020914 0.004681894 0.003187059 0.0044048894
0.0023311311 -0.0030452192 0.0025252085 -0.0008445267 -4.607233e-05 -3.1553584e-05 0.00015472423 -0.0011522544
-9.8659155e-05 0.0003061404 -0.00031194265 0.0011455981 0.0011449006 -0.0015358519 -0.0015342579 -0.0005007839
-0.00033305687 -0.0010665555 -0.0009694323 -0.0009726783 -0.0010097037 0.00054894807 0.00047279088 0.0006294169
0.000624415 2.1083097e-05 0.00012601477 0.00063133315 0.00050166034 6.34607e-05 0.0005093783 -0.00018408109
0.00041773787 0.0019503019 -0.0030192342 0.0027350707 0.0017746581 0.002634342 -0.00031567444 0.00082971546
0.0007886314 -0.00031849902 0.0009232978 -9.162912e-05 0.00015701797 5.982775e-05 -0.00036147374 0.0004477505
-0.001209948 0.00049698574 0.00089237624 -0.0009507925 0.00077364425 0.00039927344 9.0870135e-06 -0.0002388041
-2.9592708e-05 0.0005216917 0.00093062187 0.00078409415 0.00095944834 -0.0004664239 0.0030103805 0.00032970042
0.0002445321 0.00105021 0.00036362538 0.00072790234 0.0006492928 0.0007790925 0.0010416495 -0.0020096572
0.0008064985 0.0002479736 0.00038848497 0.0024198801 -0.0010544515 0.0005054779 0.00011944466 -0.0003132529
-0.00014668037 0.0026189312 -0.0013522786 -0.0011121153 0.00097431534 0.0012419433 -2.139293e-06 0.0027834203
0.0025919771 0.00018611577 5.098428e-05 0.0004600935 -0.0003619607 0.0012354655 0.00083284517 0.00085500197

weight f4 [15, 9]
00000000: b881 413b a7b6 373b 9367 3dba e42e b7ba
00000010: be3c f5ba e0f5 71b9 4f51 0e3b ace5 083a
00000020: b6c9 66b8 0a8e 713a 6f43 71ba e0f9 0d3b
00000030: a49d 5dba c406 e639 d112 24ba dcc2 fdba
00000040: 1a77 2d3a 47bb 48ba 4058 f43a fda0 e7ba
00000050: 36d7 b0ba fbbf 26bb 996a 263b 8858 eb39
00000060: 7d46 03b8 f06f 183b 6928 2dba 67e4 ffb9
00000070: 6563 d33a 5bf3 ed3a ad8e aa39 f8ec 83ba
00000080: b84e 7f39 7d2f 06bb 1c52 2a3b 15af 103b
00000090: 0ee3 57ba 9ee5 a8b8 b3cf 923a a364 8339
000000a0: dc18 19ba b049 203b d7f9 18bb eadc eaba
000000b0: e213 4cba c527 b13a 6e7b c23a a231 ccb9
000000c0: 29ce 9339 f1e2 03bb 27bf 143b 16fe f739
000000d0: 1231 e23a e231 e937 6725 283b ce12 c9ba
000000e0: ec33 3a3b 1272 bb3a 9d56 3dbb c8cc 043b
000000f0: 46dc 99ba 0190 a5b8 149a 203b 2f12 15bb
00000100: eaca 4d39 a2dd 1bbb b522 c039 8662 2a3b
00000110: 95db 3abb 70c5 4ab9 b9e7 38bb 91e8 2bb9
00000120: d677 8d3a 7244 0fbb 457c 3e3a ff39 c73a
00000130: 7082 ca3a ee49 2c3b 7771 d539 6fec e1ba
00000140: 6171 0fbb 004c 893a 0c07 eb39 ab3e 3c3b
00000150: f61e b2ba 4303 94ba 5349 71ba eadd 64ba
00000160: 1b0f e83a 9b13 2aba 9d4a 87ba 361b 2b3b
00000170: a268 1dbb 2bdc 75ba bdd7 063b 21db 113b
00000180: 382b dfba 9d92 63ba 8886 173a da1b 74ba
00000190: 8880 2f38 a8c0 0f3a b4da 343a 4925 603a
000001a0: 66a3 ddba 9d5e 39b8 0121 b0ba a433 f139
000001b0: 7620 32ba b437 1abb 58f6 2d3b a4fb a03a
000001c0: c51e 343b 9725 203b 6680 453a b311 c93a
000001d0: 460a 083b daa7 5bbb 7a48 b3ba 68fc 3abb
000001e0: ef09 fdba 2662 eaba f669 6c3a 149a 573a
000001f0: e606 e4ba 0408 b4ba db25 d4ba b55e 0aba
00000200: 3832 16bb 0a14 38bb 07c9 563a 2303 5a3a
00000210: 4957 1aba 577e f6ba df3a 2ebb
0.0029526781 0.0028032453 -0.00072252116 -0.0013975766 -0.0018710119 -0.00023075147 0.0021715944 0.0005222212
-5.502413e-05 0.0009214586 -0.0009203469 0.002166383 -0.0008453971 0.0004387406 -0.00062589074 -0.0019360441
0.0006617174 -0.0007657301 0.0018642023 -0.001767188 -0.0013491872 -0.002544402 0.0025393127 0.00044888654
-3.129848e-05 0.002326008 -0.0006605448 -0.00048807563 0.0016127644 0.0018154191 0.00032531228 -0.0010065129
0.0002434802 -0.0020475083 0.0025988882 0.0022077013 -0.0008235433 -8.053634e-05 0.0011200815 0.00025061247
-0.0005840191 0.0024457984 -0.0023342276 -0.0017918621 -0.0007784945 0.001351588 0.001483781 -0.0003894689
0.00028191626 -0.0020124281 0.0022696943 0.0004730082 0.0017257056 2.7798993e-05 0.002565706 -0.0015340687
0.0028412296 0.0014300963 -0.0028890737 0.002026366 -0.001173862 -7.894636e-05 0.00245059 -0.0022746434
0.00019625915 -0.0023783226 0.00036646953 0.0025998666 -0.0028512229 -0.00019337772 -0.002821429 -0.00016394469
0.001079316 -0.0021860865 0.00072664424 0.0015199779 0.001545025 0.0026289183 0.00040711064 -0.00172366
-0.0021887647 0.001047492 0.00044827943 0.0028723876 -0.0013589549 -0.0011292476 -0.00092043466 -0.00087305775
0.0017704697 -0.0006487907 -0.0010321919 0.0026108748 -0.0024018665 -0.0009378816 0.0020575367 0.0022255855
-0.001702643 -0.000868121 0.00057802396 -0.00093120115 4.1842955e-05 0.0005483725 0.00068990444 0.0008550478
-0.0016909658 -4.4195553e-05 -0.001343757 0.00046005577 -0.0006794998 -0.0023531737 0.0026544537 0.0012282026
0.002748416 0.0024436468 0.00075340865 0.0015340358 0.0020758077 -0.0033516795 -0.0013678216 -0.0028531794
-0.0019305329 -0.0017882034 0.0009018475 0.00082245586 -0.0017397075 -0.0013735299 -0.0016185598 -0.00052783947
-0.0022918116 -0.0028088116 0.00081934076 0.00083165074 -0.000588764 -0.0018805963 -0.0026585383

att_src f4 [1, 1, 15]
00000000: 17ce 6c3b e27b f93a 8702 653b 2160 b33b
00000010: 8f96 133b cf6a e03b 2dff 7cba 9f16 dcba
00000020: f1b7 1cbb 2150 a63b a3f6 03bc 9bbe e13b
00000030: eb35 2bbc d68f 743b 87f9 033c
0.0036133581 0.0019034112 0.0034944133 0.005474106 0.002252016 0.00684867 -0.0009651061 -0.001679141
-0.0023913349 0.00507547 -0.008054408 0.006889177 -0.010449867 0.0037317178 0.008055097

att_dst f4 [1, 1, 15]
00000000: 2195 18bb 7f58 79b9 a476 423a 18b4 a6ba
00000010: f221 0bbb 1801 003b 72c1 02ba 408b b0b9
00000020: c198 94b9 1a6c e53a 6f65 daba 41c8 74ba
00000030: 527e b1ba ab56 a4ba f4f8 6839
-0.0023282247 -0.00023779458 0.00074181915 -0.0012718467 -0.002122995 0.0019531902 -0.0004987932 -0.00033673085
-0.0002834257 0.001750353 -0.001666231 -0.00093377015 -0.0013541675 -0.0012538036 0.00022217986

bias f4 [15]
00000000: d41b 6d3b c79a a2ba 04da 88ba f87f 42ba
00000010: 5151 d7ba 551c ef3a b40f 13bb a36a 86b9
00000020: 0376 7cbb d87b 56bb 2f8a 763a 7146 56ba
00000030: f6ff 033b f44d ea39 d2e6 2dba
0.0036179917 -0.0012405746 -0.001044095 -0.00074195815 -0.0016427432 0.0018242697 -0.002243978 -0.00025637922
-0.003852249 -0.0032727625 0.0009404746 -0.0008173949 0.0020141578 0.00044690038 -0.0006633821

weight f4 [15, 9]
00000000: 8f79 0b3b eeb1 3d3b e242 693b 417d b03b
00000010: 3de4 19ba 7497 72bb a433 343b dce6 ee3b
00000020: 0027 093b aed1 8939 c880 e7ba a0ab d0ba
00000030: 07d4 7f3a 6fd1 7a3a 42d4 f139 e47f 39ba
00000040: 7f1b 12bb 7f2c 513a aad9 11bb 1236 efba
00000050: 16e1 93ba a8be e83a fef0 06bb d041 e03a
00000060: 8154 093a 7a61 67ba 2320 1339 6af4 13bb
00000070: 0188 2ebb 50ba 793a 5cf1 a8bb 13c5 57bb
00000080: 940e 9cbb 79ba 1c3b 2f90 54bb 0b9a 97bb
00000090: 3373 38bb d8cc caba 658e 8fbb ac7c 1739
000000a0: 424e 483b 5dd8 203b 15e2 0e3b dcfc 37ba
000000b0: 4451 9cba 40d0 27b8 caa3 193b f97a 5a3b
000000c0: 1e7d 6339 4325 05bb fa9c e638 effb 323b
000000d0: a853 04bb ed74 75bb 6fbd d7ba 558a a8ba
000000e0: 6c6e 23bb 7906 4abb d14c 2b3b c25b 71bb
000000f0: fc6f bb38 a911 6bbb bf69 b4b8 7965 beb9
00000100: c5d6 f33a d8e3 80ba d0ee efba 1eba 8ebb
00000110: 2374 0fbb 1fbe b439 1ec0 8ab9 51ac 333b
00000120: 1621 daba 3190 b2bb a492 d1bb a209 4aba
00000130: 31c8 74ba ad2e 88bb aa41 31bb ea28 e83a
00000140: abad 943a 4f78 70bb d448 d6ba 96f8 6abb
00000150: bdd8 30ba c708 0cbb 0f06 60bb 924f e73a
00000160: 7edb aeba 24d7 b7ba 8deb 593b 4495 eb3a
00000170: 80d7 233b e192 463a f11f 07b9 5cd5 9a3b
00000180: cba9 31bb f2ba 3a3b c316 8bba a78c 2bbb
00000190: b1ac 70bb c636 1cbb 2930 5fb9 bf1e a4ba
000001a0: 13ba 0fbb 2407 5cba 0e9c 863a 475a cbb9
000001b0: 402b 813b 5782 9aba 7760 823b d3bd 823b
000001c0: 09ce ae3b 1248 f83a 55b4 9bba d43c 2e3a
000001d0: b6bf 03ba 2f4a 4b3a 6a3f e43a 6e00 5e3b
000001e0: 47b1 a83b 1991 913a 6850 533b 634a 6d37
000001f0: cda8 ba3a 0f0f 3e3b 8e9a 59bb c5db 8239
00000200: 6809 4639 d2b3 b6bb bb04 6ebb be69 29bb
00000210: 9301 c13a 90c3 603a 9263 69bb
0.0021282171 0.0028945166 0.0035592844 0.005386025 -0.0005870497 -0.0037016543 0.00274966 0.007290704
0.0020927787 0.000262869 -0.0017662281 -0.0015920289 0.00097590726 0.0009567951 0.00046125246 -0.0007076247
-0.002229422 0.0007979348 -0.0022254982 -0.0018250367 -0.0011282291 0.0017757015 -0.002059042 0.0017109457
0.00052387273 -0.0008826476 0.00014030984 -0.0022576102 -0.0026631358 0.0009526359 -0.0051557254 -0.0032923862
-0.00476248 0.0023914857 -0.0032434573 -0.0046265176 -0.0028144836 -0.0015472425 -0.0043809884 0.00014446926
0.0030564223 0.0024543025 0.0021802236 -0.0007018575 -0.0011926075 -4.000985e-05 0.0023443573 0.0033337458
0.00021695017 -0.00203164 0.00010996494 0.0027310809 -0.0020191465 -0.0037453726 -0.0016459654 -0.0012858609
-0.0024937643 -0.0030826612 0.0026138315 -0.0036828374 8.9377136e-05 -0.003586868 -8.6027656e-05 -0.00036315227
0.0018603435 -0.0009833528 -0.0018305425 -0.004355683 -0.0021889291 0.00034473927 -0.0002646455 0.002741594
-0.001664194 -0.005449318 -0.0063956548 -0.0007707124 -0.0009337692 -0.004155955 -0.0027047195 0.0017712389
0.0011343261 -0.0036692803 -0.0016348609 -0.0035853735 -0.00067461637 -0.0021367536 -0.0034183299 0.0017647615
-0.001334056 -0.0014025909 0.0033251971 0.0017973562 0.0025000274 0.0007574987 -0.00012886502 0.0047251415
-0.002710926 0.0028492776 -0.0010611642 -0.0026176365 -0.0036724026 -0.0023836358 -0.00021284878 -0.001252137
-0.0021930977 -0.0008393398 0.0010269897 -0.0003878644 0.0039419234 -0.0011788112 0.0039787847 0.003989914
0.00533462 0.0018942377 -0.0011879305 0.00066466373 -0.00050258206 0.00077548897 0.0017413918 0.0033874768
0.005148086 0.0011105865 0.003224397 1.414362e-05 0.001424098 0.0029000675 -0.0033203694 0.00024959273
0.00018886256 -0.0055756355 -0.0036318738 -0.002585038 0.0014725201 0.0008574063 -0.0035612327

weight f4 [15, 9]
00000000: 299b e3ba af7a 24bb 2ef2 9739 9c71 abb9
00000010: 0694 bbb8 74c8 14bb a812 3b3a fc55 d5ba
00000020: 293b 1a3b 45a1 8b3a 1dfd 243b 24d7 b4b7
00000030: 006c d83a 7544 af3a 9561 0b3a a891 1bbb
00000040: 940c a93a ae72 b039 db1b 2dba 66f8 313a
00000050: a1a8 38b8 c6b9 bf39 61f1 3b3b 1492 0aba
00000060: 02c1 30bb c464 8f3a aa23 67ba aa7d 04b9
00000070: 70c6 39bb 199d 2dba aecf 013a e051 77ba
00000080: 5754 d83a 5378 213b 0383 d2ba 6a92 28bb
00000090: 946d 14bb dbbe 91ba ce9f b9b9 1011 17b9
000000a0: 0ea3 0ab9 31da b13a 3505 09bb 0c0e aaba
000000b0: 9405 18bb 871e 233b eb25 08bb 1275 d7ba
000000c0: 92dc 1abb db8a 953a 7377 183b d779 12bb
000000d0: 4543 18b9 0010 9b3a ebaf 9d3a d373 3bbb
000000e0: d42c 3439 f583 f23a 5caf 60ba c062 52ba
000000f0: 85cc 3839 bc0a b2ba 1835 253a 4953 ab39
00000100: 2cf0 dcba f4cf aaba 83f2 d03a 95b5 023b
00000110: b742 d139 f13a 2fbb 8cd5 52ba dfcb a9ba
00000120: 367d 3a3a ab76 61ba 495e 313b addf 313b
00000130: b38a cdba aee1 3abb 79c6 123b 91bc 0cbb
00000140: 9341 1d39 c3e6 09bb d63d abb8 8586 823a
00000150: 60b9 eeba a7ab 3cbb 2317 3bbb 51f0 f838
00000160: 368a 16bb e055 f73a 4287 553a 0615 db3a
00000170: 4bcc 0a3a f5e5 7db9 9e6a 213b 1b8a b03a
00000180: 7884 a1b9 aba7 5fba 4f8d 3a3b cfdd 6f3a
00000190: 7081 b0ba b069 41bb 2fc3 9aba ccf2 953a
000001a0: d17f 413a 0688 0f3b 7af7 2c3b 0731 46b9
000001b0: 51f2 eb3a eb01 f63a 5394 f63a 2e7c 1e3b
000001c0: 153a 1fbb 8eec c239 5516 7b39 23b6 e7b9
000001d0: 8e65 4cb9 1323 c2ba 860f e13a 1fd6 e0b9
000001e0: 71a0 96ba efd7 013a f068 42ba 536b 193b
000001f0: fd9a 94ba a518 e33a d504 66ba f6c2 0dbb
00000200: 252d 70ba 7551 1f38 21c6 9eba a0ef 94b9
00000210: 88d9 f0ba 8c44 2ebb 25df ee3a
-0.0017364967 -0.002509754 0.00028981402 -0.00032700307 -8.9444264e-05 -0.0022702487 0.0007136264 -0.0016276236
0.0023533797 0.001065292 0.0025175281 -2.1557855e-05 0.0016511679 0.0013371842 0.000531697 -0.002373794
0.0012897425 0.0003365478 -0.0006603577 0.00067890284 -4.4026066e-05 0.0003656877 0.0028677809 -0.00052860496
-0.002697051 0.0010940065 -0.0008817265 -0.00012635314 -0.0028347038 -0.00066228356 0.0004951906 -0.00094345026
0.0016504627 0.002463837 -0.0016060773 -0.0025722035 -0.0022648321 -0.0011119501 -0.00035405013 -0.00014406838
-0.00013221448 0.0013569054 -0.0020907645 -0.0012974157 -0.0023196684 0.0024890022 -0.0020774554 -0.0016438088
-0.0023630005 0.001140918 0.0023264557 -0.0022350454 -0.0001452091 0.001183033 0.0012030577 -0.0028602972
0.00017182837 0.0018502461 -0.00085710525 -0.0008025579 0.00017623797 -0.0013583521 0.0006302162 0.00032677714
-0.0016856245 -0.0013031946 0.0015941415 0.0019944657 0.00039913293 -0.0026738013 -0.0008042685 -0.0012954435
0.0007113995 -0.0008600752 0.0027064255 0.0027141378 -0.0015681594 -0.0028515863 0.002239613 -0.00214747
0.00014997115 -0.0021042086 -8.165433e-05 0.0009958303 -0.0018213205 -0.0028788836 -0.0028547726 0.00011870324
-0.0022970564 0.0018870197 0.000814546 0.001671464 0.0005294724 -0.00024213626 0.00246302 0.0013468893
-0.0003080701 -0.00085317594 0.0028465574 0.00091501785 -0.001346631 -0.0029512458 -0.0011807437 0.0011440157
0.0007381412 0.0021901145 0.0026392625 -0.00018901016 0.0018001293 0.0018768882 0.0018812515 0.0024182904
-0.0024296094 0.0003717881 0.00023945545 -0.00044195456 -0.00019492788 -0.0014811478 0.0017170764 -0.00042884142
-0.0011491907 0.0004953136 -0.00074161496 0.0023409917 -0.0011337694 0.001732607 -0.0008774524 -0.0021631098
-0.00091620005 3.7984417e-05 -0.001211349 -0.00028407294 -0.0018375376 -0.002659115 0.0018224461

att_src f4 [1, 1, 10]
00000000: 90c3 c9bd 46d2 c33e 2c47 13bf bbae 083f
00000010: 4ca7 4a3e bf6e 043f fe90 34bf adc3 093f
00000020: deae d23e 5a7a f23e
-0.09851754 0.38246363 -0.57530475 0.5339162 0.19790381 0.51731485 -0.7053374 0.538142
0.41149038 0.47358972

att_dst f4 [1, 1, 10]
00000000: 12ce c73e e75f b1be 8864 3abe 0015 a93c
00000010: f8ab 363e b9da 34bf 20e9 12be 3cf3 32bf
00000020: c729 01bf fad6 8dbe
0.39024407 -0.3464348 -0.18202412 0.020639896 0.17839038 -0.70646244 -0.14346743 -0.69902396
-0.5045437 -0.27703077

bias f4 [10]
00000000: 0000 0000 0000 0000 0000 0000 0000 0000
00000010: 0000 0000 0000 0000 0000 0000 0000 0000
00000020: 0000 0000 0000 0000
0.0 0.0 0.0 0.0 0.0 0.0 0.0 0.0
0.0 0.0

weight f4 [10, 15]
00000000: 35d2 d33e 7771 8f3e 7711 193c 0a1a 763e
00000010: fd23 db3d d475 e2be 54d5 d8be 9495 e03e
00000020: 1d3b 95bd 0556 0bbd 6d04 3538 358b c13d
00000030: ebbb a2be b4ac e03e 7aaf cc3e eb43 b5be
00000040: 5c53 6abd 186d c23e 15d0 dfbe e441 c8be
00000050: 0251 c1be feb3 82be 8ea1 403e 1da8 75be
00000060: 194f 28be 60ca c2bd e0e1 f6be 6f92 a13e
00000070: 9bef b6be 287d 72be fe91 ca3d c744 6dbe
00000080: 1fee b53e ea02 c43e 8704 76be ead3 7ebe
00000090: 7fb5 a53e bde6 a63e fcd1 b3be 2051 bb3e
000000a0: e9c4 5abe 0cf0 8f3e c0af fa3e b459 5bbe
000000b0: 836c ea3e df5e e3bd cd5b 963d 71bf 99be
000000c0: 1f88 b7bd 68fb 99bd daa5 aebe 4c1a e23e
000000d0: 00f4 853d b138 f53e d04f d0be 56b8 93be
000000e0: fac9 b4bd dbe2 d03e 8028 373e ab58 cabe
000000f0: b740 e5be 5216 bdbe f7f5 eebe a975 adbe
00000100: c4e5 93be ebc1 873e 7e4f b4be 5db4 b63d
00000110: 58f2 693e 6139 ab3e f816 303e 00a4 86be
00000120: 3fe0 753e 844c dc3e ffd9 9cbd fdd2 d5be
00000130: 3e6d 613d 592b 103e 12f7 2b3e 1992 713e
00000140: be12 813e 6bf1 ba3e 5c0f d1bd e219 95be
00000150: d668 d53e 4770 bfbe 7b51 68be aec4 e6be
00000160: 3a66 d4be f611 813e a44f 83be 04b1 683d
00000170: 8a78 39be 41a1 cebe 513b e3be ca73 dbbe
00000180: ffbf f43e 870c b7bd 9bc1 303d c2ea 30bd
00000190: ff30 a43d 9361 f7be 5292 f0be edb7 ecbe
000001a0: 1d19 093e 4f2a 63be a33a 46be 1c28 e03e
000001b0: f8bb e13e 51f1 75bc 73b7 ed3e a9b0 55be
000001c0: f9b8 cabe 846f 983e c91f dcbe 8211 8dbe
000001d0: 1856 de3e 16e2 703e 0b78 bdbe 4487 aa3e
000001e0: 725d a33e 0081 bd3e 2bb5 1f3e 9977 85be
000001f0: 7e0b 33bd 6a89 623e 3657 adbe 1d29 87be
00000200: b4dd 3f3e 10e9 b9be 56e9 4b3e 6b4e d2be
00000210: b849 36bb 6a22 9abd 2153 c9bd d881 ce3e
00000220: 7a90 7fbe 1bbc 2ebe a204 9e3e e8b6 e03d
00000230: 3935 dabc 0caa 893e 21f2 84bc ce73 afbe
00000240: 598f 583e 8d6c 52be 2915 ee3e 1966 d3be
00000250: dfd8 c83c de17 903e
0.41371313 0.28016254 0.009342543 0.2403337 0.107002236 -0.4423052 -0.42350256 0.4386412
-0.072866656 -0.03401758 4.3157885e-05 0.0945038 -0.31783995 0.43881762 0.39977628 -0.3540338
-0.057208404 0.37973857 -0.43713441 -0.3911277 -0.37757117 -0.25527948 0.18811628 -0.23989911
-0.16436423 -0.09511256 -0.48219204 0.31557032 -0.3572968 -0.23680556 0.09891127 -0.23170768
0.35533234 0.38283473 -0.24025165 -0.24885526 0.32365033 0.32597914 -0.35121143 0.3658533
-0.21364178 0.2811283 0.48962212 -0.21420938 0.45785913 -0.111020796 0.07341728 -0.3002887
-0.0896151 -0.07518655 -0.3411091 0.44160688 0.0654068 0.47894815 -0.40685892 -0.28851575
-0.088275865 0.40798077 0.17886543 -0.39520773 -0.44775936 -0.36931092 -0.4667203 -0.3387883
-0.28886235 0.26515135 -0.35216898 0.0892112 0.22846353 0.33442214 0.17196262 -0.26296997
0.24011324 0.43027127 -0.07658767 -0.41762534 0.055035822 0.14079036 0.16793469 0.23590888
0.25209612 0.36512312 -0.10208008 -0.2912131 0.41681546 -0.37390348 -0.22687332 -0.4507193
-0.41484243 0.25209016 -0.25646698 0.05680944 -0.18112388 -0.40357402 -0.44381192 -0.42861778
0.4780273 -0.08937936 0.043153387 -0.043192632 0.08017158 -0.4831663 -0.46986634 -0.46234074
0.13388486 -0.22184108 -0.19358306 0.437806 0.4408872 -0.015011148 0.46429023 -0.20868172
-0.39594248 0.2977258 -0.42993 -0.2755242 0.4342506 0.23523745 -0.37005648 0.33306324
0.3190723 0.37012482 0.15596454 -0.26067808 -0.04371213 0.22122732 -0.338556 -0.26398554
0.18736917 -0.36310625 0.1991323 -0.41075453 -0.0027814936 -0.07526095 -0.09830309 0.40333438
-0.24957457 -0.17063944 0.3086291 0.109723866 -0.026636707 0.26887548 -0.016228737 -0.3426804
0.21148433 -0.20549221 0.4650052 -0.41288832 0.024517475 0.2814321

weight f4 [10, 15]
00000000: e371 a13e f511 aabe 7f3a 8abe e2b7 153e
00000010: f177 a2be 0047 f1be f170 7a3b a1dc 313e
00000020: 8aec e43e aee0 52be bbf2 f2be 6016 debe
00000030: 4543 8cbd ddb5 d43e d282 da3e 0a23 80be
00000040: 3e3b d43e 26cc a33e f4a7 f53e a22a d6be
00000050: 217a edbc 930b 4f3e ac36 c23d 2348 f1be
00000060: e14e d2be e44e b63d 3125 37be 10a4 1dbe
00000070: 9817 803d 407a 79be fae1 fcbd 8a8a 853e
00000080: 00a5 9e3d 5ce5 a83e ce23 a63e 7a9a bd3e
00000090: b063 ee3d c7e8 e73e d48a 30be 03dc d7be
000000a0: b90b 11bd 7fd0 d5be f096 353e f2b1 8fbc
000000b0: 6c19 b53e 192c 60be 4edf d1be 982a babe
000000c0: 643a a0be 29d8 8abe c411 9c3e 10f1 4a3e
000000d0: 1aaf 93be 159b 3bbe e3a1 e8be aed2 6abe
000000e0: 60df 5bbe 4026 b1bd 198e f63e 025e ee3e
000000f0: d5a8 abbe 7b0c 8fbe 9899 db3e 1609 34be
00000100: 775a c0be 6011 a6be 4485 693b 2f4e b03e
00000110: 1ace b7bd 1f90 263e 2d92 49be ca1f c6be
00000120: 686b c4be 0a0e 6ebe 372b c7be 9f48 463e
00000130: 3296 b23d a2c5 013e 0771 ce3d 832c 35be
00000140: e8d8 923e e0c4 91bc 7b30 98bd aaca cc3e
00000150: 9b04 40be 7763 e9be f932 91be 356c 3b3e
00000160: acf7 afbe 7a0a 29be bc8a 073c 13a9 ad3d
00000170: 477d 003d 51b1 30bd d71b a43d 176f f9be
00000180: 2e45 bcbe b980 40be 176a e83e 4db2 973d
00000190: f935 0fbe 3c8c eb3e 1d33 33bd 231e 7b3e
000001a0: 07fd a9be b30c 70be 7f80 823e 4b96 f9be
000001b0: ef20 c3bb 795d a13e 47e9 613e 9b9c 83be
000001c0: 5632 44be f1f3 93be 3eff d2be bc65 d5be
000001d0: 6b78 9fbc 5dc6 d5be 07fe 95be b63e d3be
000001e0: 4beb 6cbe 5547 ec3e ccf5 c83e e823 b73e
000001f0: 05c0 67bd 4882 853e 3bf3 a6be 15cb b8be
00000200: de0b c2be 7714 f23e 34d9 e13e 973f 0dbe
00000210: a1df 743e cb0a d63e 642b ff3d f663 c43e
00000220: 6d62 a23e 6632 dfbe 6b72 043e 8d34 ee3e
00000230: 23cd 743e 2d82 9bbe 29b8 e8be c2d7 c1be
00000240: 88c1 2dbe b171 93be 4068 eebd 05ab dd3d
00000250: 098f 8c3d a2d5 ecbe
0.315322 -0.33216825 -0.26997754 0.14620927 -0.31732133 -0.4712448 0.003821429 0.1736932
0.44711715 -0.20593521 -0.47450814 -0.43376446 -0.06848768 0.41545 0.42677933 -0.25026733
0.41451448 0.3199169 0.479797 -0.418294 -0.0289889 0.20219259 0.09483084 -0.47125348
-0.41075805 0.08901766 -0.17885281 -0.15394616 0.062545 -0.24363041 -0.12347789 0.2608226
0.07746315 0.32987487 0.32449192 0.3703192 0.11640108 0.45294783 -0.17240459 -0.42160043
-0.03541157 -0.41760632 0.1773336 -0.017540906 0.35370958 -0.21891822 -0.4099068 -0.3636062
-0.3129455 -0.27118042 0.30482304 0.1981852 -0.2884453 -0.18320878 -0.4543601 -0.2293193
-0.2147193 -0.08649874 0.48155287 0.46556097 -0.33527246 -0.2793921 0.4289062 -0.17581591
-0.3756902 -0.3243513 0.003563241 0.3443465 -0.08974858 0.16265915 -0.19684668 -0.38696128
-0.38363194 -0.23247543 -0.38900158 0.1936364 0.08720054 0.12673047 0.10080152 -0.17692761
0.2868111 -0.017794073 -0.07431122 0.3999837 -0.18751757 -0.45583698 -0.28359202 0.18302996
-0.34368646 -0.16507903 0.008272823 0.08479514 0.031369474 -0.043137852 0.080131225 -0.48717567
-0.3677153 -0.18799104 0.4539344 0.07407055 -0.13985433 0.46005428 -0.043749917 0.24523215
-0.33200857 -0.23442344 0.2548866 -0.48747477 -0.0059548537 0.31516626 0.22061644 -0.25705418
-0.19159827 -0.2889705 -0.4121036 -0.4167918 -0.0194666 -0.41752902 -0.2929537 -0.41258782
-0.23136632 0.46148172 0.39250028 0.35769582 -0.05657961 0.2607596 -0.32607445 -0.3609244
-0.3789968 0.47281238 0.44111025 -0.13793789 0.23913433 0.4180511 0.12459448 0.38357514
0.31715718 -0.43593138 0.12934272 0.46524468 0.23906378 -0.30372754 -0.45453003 -0.37859923
-0.16968358 -0.28797677 -0.11640978 0.10823635 0.06863219 -0.4625674

att_src f4 [1, 1, 10]
00000000: 05bd f43a 67cf 47bb 4501 97ba 3256 cfbb
00000010: 1b7a c3bb 1435 dc3b 3600 363a 98d3 1c3c
00000020: d6ac 70bb 160b b63b
0.0018672055 -0.0030488612 -0.0011520764 -0.006327414 -0.005965484 0.0067201946 0.00069427805 0.009571932
-0.0036724112 0.0055555208

att_dst f4 [1, 1, 10]
00000000: f42b 57bb 4ea0 c73a 03bc a73a 5a49 c73a
00000010: 2c3b 82b9 f0db fdb9 9bad 5e3a 15ea bcb9
00000020: 0d66 61ba 5bc3 79bb
-0.0032832595 0.001523027 0.0012797121 0.0015204356 -0.0002483962 -0.00048419787 0.0008494497 -0.0003603256
-0.00085982756 -0.0038110826

bias f4 [10]
00000000: 9130 b0bb 4af6 a2ba 7455 6fbb b83c 77ba
00000010: 6cf6 ad3b cc0a 983a 7f05 67ba abb2 bdbb
00000020: 5055 893a c6f6 37bb
-0.0053768833 -0.0012433019 -0.003651944 -0.000943135 0.005308917 0.0011599897 -0.00088127697 -0.005789121
0.0010477696 -0.0028070672

weight f4 [10, 15]
00000000: 996f 4e3b 7c63 d93a 69e5 da3b a9b4 99bb
00000010: 3119 b73a c87d d13b 67c2 8e3b ad58 9e3b
00000020: 5ea9 8e3b 07d0 123b 1477 da3b 6788 b73b
00000030: 69b3 b73a 71c1 af3b 44e1 c93b e560 5f3b
00000040: 534a 4c3b 35bc 9b3a b158 d239 3be6 80ba
00000050: 8798 5d3b 3cec df3a 5ede df3a 28a7 99ba
00000060: 84ab 033b 5192 7f3b a547 bb3a d5a4 633b
00000070: 4396 303b b231 cfb9 1fa9 c73b 95fa 3b3b
00000080: 7199 b03a b1cd f5ba d378 163a 10bf ba3b
00000090: 9eca 7b3b 3070 ab3b 4723 1b3b 7ffa 983b
000000a0: c145 a03b b675 d43a 8f1f 643a b9d5 c83a
000000b0: fede 323a cddc 583b 319a d33a 5353 083b
000000c0: 1e8b 473a d952 823b 22d0 443a 0edc c7b9
000000d0: 9d59 7638 b23c 463a 1f1b 2a3b 3f87 4939
000000e0: 41b2 483b 9521 993a bc57 563b 94c3 7f3b
000000f0: 8ff4 12bc cc0b aabb 6303 d4bb fdc6 023c
00000100: 21c5 9dbb f5e3 18bc a8e4 d7bb 45f0 09bc
00000110: e8f7 bbbb f719 d7bb e3a6 c8bb ab83 b9bb
00000120: 346a 83bb 800d 27bc b3e9 15bc bb3b 2d3b
00000130: a091 853a 058a 1c3b c4b4 a7bb f3cd 8a3a
00000140: 1275 7d3b 04ad 463b 00a8 443b b6fa 513b
00000150: a279 8fb9 67df 3cb7 4a36 8e3b 0579 9a39
00000160: d553 7e3b bc1f 9f3b 6dfa 643a d130 e1b9
00000170: 40e9 a1b7 7da3 3538 e8d9 43ba c500 b43a
00000180: 0164 26bb 576a 513b d081 3f3b a26d 3ab9
00000190: 384e 623b a285 033b 9098 77ba 0083 fdb9
000001a0: b4fa 703a aeaa ea3b 8287 523b d329 b23b
000001b0: cfb6 00bc da3e bf3b 41ff 443b 4488 8d3b
000001c0: 9657 f13b 7cb8 663b 3376 853b 4e41 e63b
000001d0: 9370 0c3b 720f 283b cdde 6b3b 00fb 8b3b
000001e0: b67a e7ba 146a 00bb 0a37 aa39 df4f 3f3b
000001f0: 4ef1 f838 4b36 d8ba db06 813a 6a7c 17bb
00000200: 3267 c93a 3b6c 14bb 95fa 84b7 b47b 80bb
00000210: 29d1 f1b8 bc99 57bb 0fb7 a33a 8889 ba3b
00000220: a883 093b 76be 543b 7d14 5cbb 662f 833a
00000230: 52bb 1fb8 c904 643a 01bc 253b e426 bd3a
00000240: aa15 393a 28f5 2f3b f673 fc3a 1ccc 973b
00000250: 23db 823b d30f 5a3b
0.0031499623 0.0016585435 0.00668018 -0.004690726 0.00139693 0.006393168 0.0043566707 0.0048323483
0.0043536862 0.0022401826 0.0066670272 0.005600977 0.001401526 0.005363636 0.006160887 0.0034084853
0.003117223 0.0011881652 0.00040120402 -0.0009834239 0.0033812837 0.0017083953 0.001707982 -0.001172279
0.0020091245 0.0038997123 0.001428832 0.0034735699 0.0026945032 -0.00039519143 0.006093159 0.0028683294
0.0013473463 -0.0018753317 0.000574005 0.005699046 0.003842033 0.0052318797 0.002367215 0.0046685333
0.004891128 0.0016209397 0.00087022124 0.0015322483 0.00068233896 0.0033090592 0.0016143975 0.0020801618
0.00076119776 0.0039771614 0.0007507821 -0.0003812019 5.873443e-05 0.0007562145 0.0025956107 0.00019219237
0.0030623826 0.0011682982 0.0032706102 0.0039026486 -0.00896944 -0.0051893946 -0.0064701303 0.007982013
-0.0048147594 -0.009331693 -0.0065885372 -0.008419101 -0.00573634 -0.0065643745 -0.00612341 -0.005661448
-0.004010463 -0.01019609 -0.0091499565 0.0026433307 0.0010190494 0.0023885977 -0.0051179845 0.0010589942
0.0038674516 0.0030315528 0.0030007362 0.0032040305 -0.0002736571 -1.1257688e-05 0.004339968 0.00029463336
0.0038807292 0.004856078 0.0008734826 -0.00042951715 -1.9301311e-05 4.3306023e-05 -0.000747113 0.001373314
-0.0025389197 0.0031954253 0.0029221661 -0.00017779184 0.0034531485 0.0020068665 -0.0009445036 -0.00048353523
0.0009192631 0.00716146 0.0032124226 0.0054371147 -0.007856085 0.00583635 0.003005937 0.0043192226
0.0073651774 0.0035205176 0.0040729283 0.007026828 0.0021429404 0.0025643972 0.0035990954 0.004271865
-0.0017660472 -0.0019594477 0.00032465934 0.0029191894 0.00011870508 -0.0016495673 0.0009843962 -0.0023114928
0.0015365838 -0.0022647518 -1.5852313e-05 -0.0039209966 -0.000115307346 -0.003289803 0.0012490469 0.0056926645
0.0020983014 0.0032462156 -0.0033581548 0.0010008633 -3.808301e-05 0.0008698223 0.002528906 0.0014431146
0.0007060418 0.0026849005 0.0019260633 0.004632486 0.0039934083 0.0033273592
