model/gnn/240922_1/hetero_gnn_240922_1.pt (torch, 407843 bytes, 52 tensors)

att_src f4 [1, 1, 20]
00000000: 8654 6f37 86e9 8137 3dac 92b6 d6c7 8f37
00000010: 0b2d 89b6 41ac 7c36 9467 18b7 78d7 3737
00000020: 6efa 8937 59a7 65b7 c00b 8837 2b5a 6a36
00000030: 8646 6737 6e94 2936 9cf1 1637 0ccb 30b6
00000040: 3751 7137 6314 3936 9c23 12b7 e095 9f36
1.426519e-05 1.5486741e-05 -4.3711902e-06 1.7139984e-05 -4.088162e-06 3.7651191e-06 -9.084022e-06 1.0957818e-05
1.6448288e-05 -1.3688427e-05 1.6217935e-05 3.4921202e-06 1.3785093e-05 2.526936e-06 8.996951e-06 -2.6344233e-06
1.4383629e-05 2.7579015e-06 -8.710569e-06 4.756017e-06

att_dst f4 [1, 1, 20]
00000000: 5d3a 10b7 19d8 12b6 6e49 feb6 34a9 4f37
00000010: 901a 77b7 6a50 10b7 bfc9 b0b6 b738 3cb7
00000020: 6e5d ec35 3c97 9ab7 bb5a 8d37 35f5 84b7
00000030: d2ac 7137 1162 5036 384a cbb6 2a71 4137
00000040: 1826 4336 b4ec 7c37 81e2 0836 9172 c5b6
-8.596658e-06 -2.188148e-06 -7.578338e-06 1.2377557e-05 -1.4728532e-05 -8.601792e-06 -5.268695e-06 -1.1218878e-05
1.7610562e-06 -1.8428655e-05 1.685076e-05 -1.584981e-05 1.4404957e-05 3.1051497e-06 -6.0585116e-06 1.15300445e-05
2.9079438e-06 1.5075482e-05 2.0397422e-06 -5.884395e-06

bias f4 [20]
00000000: e247 3bb7 f5f1 33b7 134b 4eb7 05f3 33b7
00000010: 71f7 33b7 5ffb 33b7 35ae 35b7 972e 45b7
00000020: c275 3fb7 24fd 33b7 426e 76b7 715c 25b7
00000030: 0639 2bb7 08fd 33b7 2065 3eb7 ca54 2eb7
00000040: 20fc 33b7 08fd 33b7 a8bf 48b7 30eb 39b7
-1.1162805e-05 -1.0725566e-05 -1.2296036e-05 -1.0725814e-05 -1.0726843e-05 -1.0727758e-05 -1.0829001e-05 -1.1752963e-05
-1.1411905e-05 -1.072817e-05 -1.4688414e-05 -9.85629e-06 -1.0205671e-05 -1.0728145e-05 -1.13484275e-05 -1.039095e-05
-1.0727934e-05 -1.0728145e-05 -1.1965552e-05 -1.1081618e-05

weight f4 [20, 163]
00000000: 92e4 20b7 9c87 90b7 714a 4db7 c849 8eb7
00000010: 60cd 82b7 4d74 3fb7 a441 09b7 6831 4fb7
00000020: 8aca 36b7 02a0 67b7 d925 6eb7 1290 bcb6
00000030: 192d e4b6 eea6 8db7 0069 4db7 7cf5 86b7
00000040: 57dc 03b7 60a8 6ab7 f8ad 3bb7 91d5 79b7
00000050: a5e4 afb7 287b d7b6 8b7e afb6 9839 82b7
00000060: 580e 7cb7 eecb 28b5 601f 92b7 bf76 12b4
00000070: a251 b2b6 a6bb 8bb7 00d7 89b7 7e66 1ab7
00000080: a95b 5cb7 771f 34b7 ad00 7eb7 4c06 dfb6
00000090: b892 6eb7 fe39 7cb7 fbd8 8cb7 4b0e 06b7
000000a0: 3c77 28b7 c01c 61b7 16f0 aeb6 a3b1 49b7
000000b0: 9e06 ceb6 eb2a 13b7 c968 88b7 c904 f7b6
000000c0: a7a6 86b7 65f0 23b7 5c50 7fb7 b9c3 e3b6
000000d0: 8b23 dab6 9316 15b7 93a3 50b6 3e1d 80b7
000000e0: 2df2 0ab7 52b5 52b7 56fa 70b7 d94f 37b7
000000f0: 3d62 4eb7 3a89 95b6 d997 a8b7 b316 96b7
00000100: be31 65b6 d505 45b7 773c 39b7 7629 61b7
00000110: a1a4 a6b6 3c34 86b7 2936 0036 4b98 b636
00000120: 9967 43b6 92a5 83b7 1fea d036 792b 56b7
00000130: cfa2 1134 d454 a035 fbd4 13b7 ad5a 5bb7
00000140: 55ee f4b6 64b8 80b7 01eb 47b7 0c65 f535
00000150: d96a a2b6 49fe 56b7 f6ea 80b7 076d f6b5
00000160: 40da 5336 0b47 38b6 0404 00b7 3782 c3b6
00000170: e0bf 71b7 da79 14b7 df7c 32b7 36ba 5db7
00000180: 2f5f 3ab7 609a 8736 fe02 a5b7 5f89 59b7
00000190: 168f 89b7 f90f adb6 d2f7 92b7 c286 71b7
000001a0: 4829 32b6 efe6 88b7 75f9 60b7 d95e ab36
000001b0: 0da3 1bb7 686f aeb6 56bb 65b7 3aa2 80b6
000001c0: 95a5 43b7 f7ec 8836 313e ca36 1198 a136
000001d0: eea0 10b7 6fd3 e8b4 0955 c7b6 9491 8b35
000001e0: ddc4 1fb6 e1e8 d3b6 c854 dab6 c9b1 d7b6
000001f0: f0ca 9bb7 f7af 8db7 dced b236 1352 27b7
00000200: 7315 c4b5 06a3 3ab7 e519 8c36 3b85 5db6
00000210: d73d 2cb6 601c 6db7 095e 84b7 4ed0 92b7
00000220: b018 91b7 7259 2f36 c02d 4bb7 0454 bbb6
00000230: 5565 2ab7 5a8b 11b7 40a9 40b7 8b86 8fb7
00000240: e784 72b7 407a 8cb7 a3e0 b6b6 5969 aab6
00000250: 1062 15b7 1157 7cb7 c96e 1eb7 a85f 15b7
00000260: 5571 f9b6 7c80 88b7 c995 3db7 3350 e8b6
00000270: 9244 b2b6 8e69 80b7 4e99 c3b6 cc1b 83b7
00000280: b815 1fb7 fd00 4fb7 108d 46b7 34f6 06b7
00000290: 4560 26b7 a58a 3ab7 472e 09b7 56b7 42b7
000002a0: 0a4c 30b7 c4ee b2b6 e646 c2b6 f87e 8037
000002b0: 777d 6b37 5f3d ef36 9e28 3837 e2c6 d0b6
000002c0: d6cb 1437 132d 2237 cf00 c836 803c 71b7
000002d0: ec47 61b7 9607 6637 c7c8 1eb7 8125 c8b6
000002e0: 8d40 8bb7 7438 2137 7ad3 03b7 1aed 5ab7
000002f0: 5b05 9b35 e1ba adb6 70f4 7136 86e8 74b7
00000300: d888 05b7 dcdc aab6 76dd 0cb4 c93a 2fb7
00000310: 88f5 b5b6 d0e9 28b7 4d14 0ab7 b144 a336
00000320: 8433 8337 14af 2337 553f 3037 d92f 3eb7
00000330: 2d94 76b7 252b 8e37 0939 47b7 4548 42b7
00000340: d669 2db7 d24e 0a37 cdc3 ff36 c62d 2d37
00000350: 0e2c 55b7 ddb9 9ab6 b230 80b7 c99b cdb6
00000360: e3ec 6d37 9780 cd36 963f 88b7 a0b7 8737
00000370: 1a7c 2037 ef07 5d37 ed77 a1b6 cb3b a936
00000380: b5fb 35b5 8a64 57b7 2d8a 0e37 628c 0db5
00000390: 8b21 4637 689f e936 49c1 7835 7436 a2b6
000003a0: bb6c a0b6 dbb6 0136 31e9 1e35 e95b 85b5
000003b0: 22e0 1eb6 8d0c 94b6 e85e d935 94e2 c7b5
000003c0: 8710 53b6 0844 f8b6 70e3 1137 e997 a7b6
000003d0: 5a89 1bb7 3b70 3737 05a8 42b6 db56 43b7
000003e0: 277b 2cb7 428c 0437 739a af36 61ce bb36
000003f0: 1d08 c636 4891 5037 786e 31b7 d8e3 dd36
-9.589961e-06 -1.7229286e-05 -1.2236284e-05 -1.6962076e-05 -1.5592843e-05 -1.14115655e-05 -8.1811195e-06 -1.2349665e-05
-1.0895203e-05 -1.3805928e-05 -1.4194718e-05 -5.6196086e-06 -6.8001796e-06 -1.6886243e-05 -1.2243399e-05 -1.6088357e-05
-7.85951e-06 -1.398669e-05 -1.1186574e-05 -1.4891281e-05 -2.0968097e-05 -6.4218366e-06 -5.230138e-06 -1.5524027e-05
-1.502371e-05 -6.2881634e-07 -1.7419166e-05 -1.3640509e-07 -5.3143167e-06 -1.6657472e-05 -1.643179e-05 -9.202979e-06
-1.3134363e-05 -1.0736162e-05 -1.5139737e-05 -6.646651e-06 -1.4220066e-05 -1.5033873e-05 -1.679034e-05 -7.99035e-06
-1.0041342e-05 -1.3417739e-05 -5.213554e-06 -1.2021893e-05 -6.1400488e-06 -8.771875e-06 -1.6261258e-05 -7.3617307e-06
-1.6051648e-05 -9.771528e-06 -1.52178945e-05 -6.7879123e-06 -6.501044e-06 -8.886348e-06 -3.1089628e-06 -1.5272406e-05
-8.281827e-06 -1.2559192e-05 -1.4363401e-05 -1.0926241e-05 -1.230143e-05 -4.4565213e-06 -2.009787e-05 -1.7891964e-05
-3.4152613e-06 -1.1743473e-05 -1.1040937e-05 -1.3420698e-05 -4.966351e-06 -1.5998368e-05 1.9105012e-06 5.441752e-06
-2.9117566e-06 -1.5693517e-05 6.2261383e-06 -1.2765516e-05 1.3563407e-07 1.1945617e-06 -8.811471e-06 -1.3074529e-05
-7.299512e-06 -1.5344653e-05 -1.191604e-05 1.8283331e-06 -4.840415e-06 -1.2814599e-05 -1.5368201e-05 -1.8360159e-06
3.1568488e-06 -2.745949e-06 -7.6303295e-06 -5.826612e-06 -1.4409394e-05 -8.849858e-06 -1.0638701e-05 -1.3215982e-05
-1.1108626e-05 4.041285e-06 -1.9670926e-05 -1.2966192e-05 -1.6398302e-05 -5.1576612e-06 -1.7519957e-05 -1.4396095e-05
-2.6548096e-06 -1.632e-05 -1.3409522e-05 5.107239e-06 -9.276683e-06 -5.1985735e-06 -1.3693081e-05 -3.833583e-06
-1.1661458e-05 4.080702e-06 6.027309e-06 4.8158768e-06 -8.620538e-06 -4.3367206e-07 -5.9405616e-06 1.0398676e-06
-2.3807436e-06 -6.3154007e-06 -6.506776e-06 -6.4281962e-06 -1.857194e-05 -1.689045e-05 5.332504e-06 -9.973085e-06
-1.460938e-06 -1.1124421e-05 4.1753397e-06 -3.3009117e-06 -2.5665993e-06 -1.4132907e-05 -1.5779415e-05 -1.7501556e-05
-1.7296843e-05 2.6129096e-06 -1.2110395e-05 -5.582815e-06 -1.0156383e-05 -8.675119e-06 -1.1483498e-05 -1.710958e-05
-1.4455268e-05 -1.6746228e-05 -5.450174e-06 -5.078659e-06 -8.903924e-06 -1.5040642e-05 -9.443328e-06 -8.903364e-06
-7.433972e-06 -1.6272294e-05 -1.1300152e-05 -6.923475e-06 -5.312796e-06 -1.5307942e-05 -5.8293e-06 -1.562936e-05
-9.482195e-06 -1.2338392e-05 -1.1834563e-05 -8.044346e-06 -9.9167855e-06 -1.1118745e-05 -8.176611e-06 -1.1605987e-05
-1.0508122e-05 -5.3326094e-06 -5.789904e-06 1.5317913e-05 1.4036304e-05 7.1298996e-06 1.0976712e-05 -6.222036e-06
8.868947e-06 9.666447e-06 5.9605586e-06 -1.4378806e-05 -1.3427791e-05 1.37108345e-05 -9.464281e-06 -5.9648305e-06
-1.660015e-05 9.609492e-06 -7.857447e-06 -1.3049017e-05 1.1549959e-06 -5.1775573e-06 3.605408e-06 -1.4597672e-05
-7.959279e-06 -5.092106e-06 -1.3119083e-07 -1.04445e-05 -5.422804e-06 -1.0068019e-05 -8.230168e-06 4.8657753e-06
1.5640406e-05 9.756321e-06 1.0505163e-05 -1.1336023e-05 -1.46972425e-05 1.694781e-05 -1.1874604e-05 -1.1580128e-05
-1.0336245e-05 8.243793e-06 7.6223864e-06 1.0322261e-05 -1.2706047e-05 -4.611195e-06 -1.5281465e-05 -6.127612e-06
1.4181455e-05 6.124446e-06 -1.6242073e-05 1.6178761e-05 9.565638e-06 1.3174474e-05 -4.812135e-06 5.0435533e-06
-6.7794036e-07 -1.2838407e-05 8.496031e-06 -5.2730877e-07 1.18095295e-05 6.9624984e-06 9.2668466e-07 -4.8343154e-06
-4.7810295e-06 1.9328934e-06 5.9198925e-07 -9.936022e-07 -2.3674297e-06 -4.412205e-06 1.6195381e-06 -1.4892598e-06
-3.145107e-06 -7.398896e-06 8.695628e-06 -4.9946725e-06 -9.2707e-06 1.0933781e-05 -2.9006053e-06 -1.1643128e-05
-1.02806725e-05 7.900469e-06 5.2333867e-06 5.59706e-06 5.9018043e-06 1.2431592e-05 -1.0575743e-05 6.6128378e-06

weight f4 [20, 163]
00000000: 75e0 ce36 0869 9db6 30be 5235 b40a 9634
00000010: bc66 4f36 7cfe a135 b71d c536 18c9 a836
00000020: db91 6736 9c9d 0e36 d5d3 1c35 7f0a c133
00000030: 14af 9535 9464 4fb6 8417 a836 7ff3 84b6
00000040: fea3 3d36 1887 88b6 9e02 cf36 0db1 da35
00000050: ea97 44b4 176f 4936 ba22 3eb6 4d74 ad36
00000060: 6c7f 0836 5fb5 f835 eade 0fb6 cd77 cab6
00000070: a3b9 97b6 ba5e b8b6 cae9 94b5 5e81 8735
00000080: c269 8836 4b23 2736 4fe1 8235 26cf b6b6
00000090: f764 4836 10ae 8934 3adb 2236 3c12 feb5
000000a0: ad15 ceb6 d31d ae36 fc0a a9b6 e52a 40b6
000000b0: 699a 2a36 89a9 89b6 dcfd 5436 ed18 bdb6
000000c0: 3fcd c636 3de0 ad35 13fa 9eb6 db90 f8b5
000000d0: 43a2 b8b6 252a 6cb6 7842 90b6 3aa2 c1b5
000000e0: ad17 9436 6ecb 3a36 d7f5 7836 9535 9336
000000f0: e75b 22b6 14ed fb35 a8b2 ad36 802a 84b5
00000100: bba5 81b4 8033 cf36 f050 8e36 194d 71b6
00000110: 5823 2f36 8d09 8d36 b5df 7936 7e73 92b6
00000120: a9d5 d036 adcd e535 9593 22b4 08b1 1936
00000130: 0cdc 8d36 ddf4 ffb4 6fdb a636 764f 1336
00000140: c6a7 31b6 0916 97b6 81aa c436 c4ee 5e36
00000150: a11a 58b5 ed4d 8f36 227f 9736 5a5e c636
00000160: a345 d3b5 55bd b936 817c 83b6 32e8 6eb6
00000170: 6dd9 8f35 5cb6 5db6 297b 0eb6 f54e 6bb5
00000180: 8851 8c35 9388 a3b5 3e03 b3b6 0cd0 efb5
00000190: bae2 cf36 ad02 1b36 844a c7b6 aa7f 31b6
000001a0: 17eb cf32 c802 c435 dab9 1db6 7e78 86b6
000001b0: 1756 5db5 6ca9 80b6 87b9 1cb5 8dcf f035
000001c0: 4ad7 9eb6 cdbe c4b6 6ef6 a236 e9f6 ac36
000001d0: 0546 d2b6 4126 9e35 3c9a dab5 3474 5535
000001e0: 6c85 c0b3 7f03 80b6 09a2 d136 3462 8bb6
000001f0: a9be 55b4 3ee6 8cb6 6526 86b6 d4d1 7836
00000200: 5148 9136 035d cfb6 f3c3 a836 ad5e 29b6
00000210: 4abf a7b6 4ab1 95b5 894f bcb6 19ca 4e35
00000220: 178a bf36 34e3 9035 d42a 4636 90e6 c035
00000230: 3702 9136 bc94 bcb6 eaa5 40b5 d434 5fb6
00000240: b7b7 51b5 5c74 d336 795b 3734 c565 93b6
00000250: 6078 8fb6 1ed6 88b6 d829 58b6 ec33 dd35
00000260: 378c 38b6 191e bcb5 3c5d b236 880d 8ab6
00000270: f36b 0bb6 846d 4db6 f768 8db6 c71c 27b6
00000280: dfbe 6eb6 1195 4036 5414 7c36 4f02 5936
00000290: 5d93 9136 cdab a5b6 13d0 5bb6 27b4 9c33
000002a0: fd1b 8ab6 bb2c b7b6 b6d4 7836 8cee a6b5
000002b0: 6ae0 d136 a81e b0b6 515e cd36 3664 d136
000002c0: 119a e8b5 df7b b6b6 d117 f2b5 eacb 8236
000002d0: 9341 8fb6 d4a8 5236 5182 c236 4477 83b6
000002e0: 6479 67b6 64db 5136 8ca3 6436 d601 6235
000002f0: 596d 28b6 67b8 58b6 2b8a 4334 3e9d 6ab6
00000300: 0f5d a434 9481 85b5 de33 8436 b62b c735
00000310: c18b 7bb6 fc1f d834 284c c8b5 2949 0536
00000320: 28e9 1636 fb4d 8235 8b8b 0735 c221 b035
00000330: 8dc7 bb36 ee1b d2b5 5586 9534 8726 65b6
00000340: 5b69 51b6 c9a7 b336 ce66 f335 401d 4936
00000350: 3f6c b036 5481 aa36 b6f2 b7b6 52a2 1436
00000360: 6edb a336 4176 ad35 acf7 cd36 c31d 7136
00000370: 6c83 2cb5 b96c b136 83cf 4db5 1f15 a6b6
00000380: 0ad7 8336 2bea c0b6 5544 68b6 afeb b735
00000390: 354a a6b5 0500 02b6 4cb2 8f36 369f 16b5
000003a0: 8f75 8db6 8d82 bb36 f026 3136 85c8 6e36
000003b0: 4ee0 1335 93d8 bf36 a2f3 a536 c87a 8b36
000003c0: 5223 02b6 ae23 a3b6 33db 8036 ffc4 1d36
000003d0: 64fa 5b35 d8f7 3d36 1b3a 9bb6 8450 c3b5
000003e0: 5249 9033 f7bf 2236 8d43 9f36 dc44 3d35
000003f0: 88af 8cb6 98b0 ee35 cea9 cdb6 f18c 8136
6.1654086e-06 -4.691192e-06 7.8507856e-07 2.7947465e-07 3.0905203e-06 1.20695e-06 5.874517e-06 5.0302006e-06
3.4506581e-06 2.125139e-06 5.8422785e-07 8.989172e-08 1.115232e-06 -3.0903948e-06 5.0095277e-06 -3.9622532e-06
2.825865e-06 -4.068843e-06 6.1693854e-06 1.6293794e-06 -1.8309188e-07 3.0015997e-06 -2.833242e-06 5.169341e-06
2.0339749e-06 1.8530226e-06 -2.1438414e-06 -6.0340158e-06 -4.5217616e-06 -5.494655e-06 -1.1094901e-06 1.0095935e-06
4.0654277e-06 2.4905482e-06 9.751328e-07 -5.448138e-06 2.9861092e-06 2.5644886e-07 2.4267488e-06 -1.8929782e-06
-6.141802e-06 5.189076e-06 -5.0378712e-06 -2.8635197e-06 2.5421853e-06 -4.1026547e-06 3.1738227e-06 -5.6355407e-06
5.9247536e-06 1.2954766e-06 -4.7378794e-06 -1.8519598e-06 -5.502517e-06 -3.5191272e-06 -4.2992724e-06 -1.4426835e-06
4.4135e-06 2.7834571e-06 3.7097977e-06 4.387179e-06 -2.4193375e-06 1.8769956e-06 5.1766e-06 -9.847136e-07
-2.4148707e-07 6.175076e-06 4.241352e-06 -3.5956675e-06 2.6097605e-06 4.2032393e-06 3.7234106e-06 -4.364584e-06
6.2237564e-06 1.7121689e-06 -1.5141116e-07 2.2901822e-06 4.2277443e-06 -4.7675613e-07 4.972731e-06 2.195096e-06
-2.6472712e-06 -4.502716e-06 5.8611045e-06 3.3219558e-06 -8.050502e-07 4.270804e-06 4.514951e-06 5.911844e-06
-1.5740992e-06 5.535471e-06 -3.9185984e-06 -3.559992e-06 1.071761e-06 -3.3037713e-06 -2.1231338e-06 -8.765922e-07
1.0454542e-06 -1.2184195e-06 -5.334993e-06 -1.7867437e-06 6.195475e-06 2.3098357e-06 -5.939337e-06 -2.6449366e-06
2.4204878e-08 1.4603947e-06 -2.3503003e-06 -4.0075383e-06 -8.245419e-07 -3.8344206e-06 -5.8384506e-07 1.7941799e-06
-4.73383e-06 -5.8634673e-06 4.8566644e-06 5.1547436e-06 -6.266639e-06 1.1783051e-06 -1.6287154e-06 7.951778e-07
-8.964966e-08 -3.8151043e-06 6.2475488e-06 -4.153955e-06 -1.9906533e-07 -4.199129e-06 -3.997981e-06 3.7077016e-06
4.3297555e-06 -6.1799087e-06 5.0296017e-06 -2.523807e-06 -4.999257e-06 -1.1152963e-06 -5.6120957e-06 7.703507e-07
5.7083193e-06 1.0794961e-06 2.9529228e-06 1.4372217e-06 4.3215946e-06 -5.6201516e-06 -7.176701e-07 -3.326034e-06
-7.812591e-07 6.301836e-06 1.707648e-07 -4.392789e-06 -4.2757456e-06 -4.0780424e-06 -3.2210864e-06 1.6480894e-06
-2.7499752e-06 -1.4015851e-06 5.3156673e-06 -4.1142957e-06 -2.0775449e-06 -3.0611127e-06 -4.214347e-06 -2.490169e-06
-3.5575865e-06 2.8696998e-06 3.7562759e-06 3.2336864e-06 4.338492e-06 -4.9373834e-06 -3.2754658e-06 7.2970856e-08
-4.1159788e-06 -5.4590323e-06 3.7078694e-06 -1.243739e-06 6.2548106e-06 -5.2487776e-06 6.120456e-06 6.2403515e-06
-1.7330186e-06 -5.438443e-06 -1.8037337e-06 3.8980406e-06 -4.269366e-06 3.139071e-06 5.7968214e-06 -3.9179886e-06
-3.449234e-06 3.127113e-06 3.4069844e-06 8.419423e-07 -2.50976e-06 -3.2293844e-06 1.8211055e-07 -3.4960244e-06
3.061509e-07 -9.946984e-07 3.9399447e-06 1.4839377e-06 -3.7483262e-06 4.0256407e-07 -1.4923326e-06 1.986113e-06
2.2487457e-06 9.70845e-07 5.049448e-07 1.3122847e-06 5.596265e-06 -1.5654348e-06 2.7851152e-07 -3.4146085e-06
-3.1204752e-06 5.3541485e-06 1.8134831e-06 2.996836e-06 5.2578102e-06 5.0814506e-06 -5.4820803e-06 2.2148201e-06
4.8833235e-06 1.2923921e-06 6.138309e-06 3.5929122e-06 -6.4266237e-07 5.287668e-06 -7.667042e-07 -4.9496443e-06
3.929138e-06 -5.7493066e-06 -3.4610468e-06 1.3703155e-06 -1.2389561e-06 -1.937152e-06 4.2824886e-06 -5.6111037e-07
-4.215813e-06 5.5882324e-06 2.639772e-06 3.5581481e-06 5.5088174e-07 5.717456e-06 4.945746e-06 4.1568164e-06
-1.9392069e-06 -4.861932e-06 3.8402154e-06 2.350949e-06 8.1948224e-07 2.8307459e-06 -4.6261243e-06 -1.4552065e-06
6.7188594e-08 2.425162e-06 4.746433e-06 7.050819e-07 -4.1927597e-06 1.7783777e-06 -6.129244e-06 3.8609073e-06

att_src f4 [1, 1, 15]
00000000: 0b77 2437 b30c ddb5 7fa1 c4b6 b3f0 0c38
00000010: 4ced 7c37 40d5 b5b7 e3e3 e137 4736 9737
00000020: 8716 9936 0a2b 9b35 7934 86b7 9306 d936
00000030: 59c6 94b7 0571 cc37 10aa b037
9.802879e-06 -1.6469479e-06 -5.860056e-06 3.360277e-05 1.50756205e-05 -2.1676184e-05 2.6928208e-05 1.8025878e-05
4.562378e-06 1.1560926e-06 -1.599848e-05 6.4678693e-06 -1.7735338e-05 2.4371324e-05 2.1060026e-05

att_dst f4 [1, 1, 15]
00000000: 3883 1737 5b0f d836 dd71 2db5 814d 8937
00000010: 6dd4 7db7 257e cd35 b12f 79b7 32d0 de36
00000020: c1a4 fdb6 9ea2 d736 c9ce 9fb6 0bba 9537
00000030: e476 59b7 65d2 52b7 3de9 56b7
9.030853e-06 6.4390892e-06 -6.4613215e-07 1.6367763e-05 -1.5129434e-05 1.5310403e-06 -1.4852661e-05 6.6403527e-06
-7.5591674e-06 6.4264304e-06 -4.762642e-06 1.7848817e-05 -1.2961889e-05 -1.2565962e-05 -1.2809699e-05

bias f4 [15]
00000000: 0000 0000 0000 0000 3cc7 73b7 0000 0000
00000010: 0000 0000 c0b3 4636 5a78 83b6 063c 2737
00000020: 6648 27b7 2ba8 2d37 f9a9 3937 46af 12b7
00000030: 0000 0000 3027 6bb7 5e2e 74b7
0.0 0.0 -1.4530317e-05 0.0 0.0 2.9608927e-06 -3.918115e-06 9.967951e-06
-9.970832e-06 1.0350758e-05 1.1066434e-05 -8.743087e-06 0.0 -1.4016216e-05 -1.4554329e-05

weight f4 [15, 163]
00000000: 194b a436 96f0 61b4 65c7 bc36 9c00 d3b6
00000010: 1764 08b7 0620 70b6 26d9 f3b4 882e d6b6
00000020: a08d 7bb7 81be c1b6 8c63 0037 a974 9136
00000030: 85ff a9b6 af73 1737 c3ba 2737 33cf a1b6
00000040: 4c70 57b6 bec4 8537 2768 97b4 4db3 e536
00000050: ae48 e0b5 4d54 2937 1f0b 61b7 69bb 50b7
00000060: 153f 45b7 5d6b 8bb5 d86d e435 3951 d236
00000070: 7cfe 21b6 a73f 4237 1559 c5b5 8f1a b636
00000080: 12c7 4eb5 5f1e 49b6 fd5e c2b6 6db4 b9b6
00000090: 9641 0f36 36a2 4337 3bc5 19b6 9764 2e37
000000a0: dd1a e735 08b1 5337 8410 1636 3273 2a36
000000b0: 7a14 76b6 b8e6 1f37 7252 57b7 31ce 2137
000000c0: 43f4 bf36 e986 4037 1738 2537 61e6 5d37
000000d0: ee56 e6b6 13db 1436 f092 6133 928d 0db7
000000e0: f7dc f4b6 067f 0d37 93d7 f3b5 d27c 6db6
000000f0: a079 a236 24af 8636 7829 7db6 5dfd 2bb7
00000100: 7d93 68b6 9566 e8b6 b72c fc36 3baf acb6
00000110: 47bf 1eb6 3c60 5736 b714 2f36 0111 13b6
00000120: 1b16 b236 9581 bcb5 0a9b 8bb6 eb92 cd36
00000130: 0ec7 dbb5 69e0 50b6 4f10 3936 644a 8737
00000140: 1bad d432 7007 0eb7 bb95 f2b6 941d d636
00000150: ea5a 00b7 de95 5136 e953 6036 9199 d4b6
00000160: 72e7 8936 101a 52b5 0d8b cc36 cab7 16b7
00000170: f2bd 9f36 db9e 9a36 e67e b3b6 8572 06b6
00000180: 2b8d 08b6 f3fb 2535 0221 9ab6 f034 1135
00000190: 4c66 6a37 e773 0636 9d23 2cb7 b469 1ab7
000001a0: 7276 8b36 2526 73b6 b6a9 43b7 062f 3db5
000001b0: e22b f336 c845 6337 a812 acb4 f0cf a5b6
000001c0: 3fba 8f36 a433 d935 a47a 87b6 9f34 c6b6
000001d0: fff8 1ab6 2c79 98b6 5ec5 a035 55cb aa35
000001e0: f69a 95b6 fb81 4936 0c12 ac36 dc08 59b6
000001f0: 4dc5 0db6 cc03 4237 3c1e 9b35 67a4 bcb6
00000200: 88e5 5436 ea2d 4236 eb70 d5b6 4c44 85b6
00000210: 9b2a 9b36 34a6 ad35 175a 4337 4168 8a35
00000220: 9600 f936 1b69 7bb6 f625 9736 92b2 91b6
00000230: f4be ad36 5e3d ec36 7e48 85b6 963f ed36
00000240: 20ac 4537 f89d 87b7 88cf e3b5 53a5 2737
00000250: b1d4 c4b6 5c76 0ab7 c6d0 4e37 8331 69b7
00000260: 140d 5136 e7db 0037 4eaa 2036 132d 2437
00000270: b847 0a37 06b0 6b37 4111 8337 6671 8935
00000280: b2a5 2637 fb92 de36 9030 9fb6 9c45 f9b6
00000290: 31c3 b9b5 0efa 68b6 f550 a9b5 fee1 1637
000002a0: 6b75 0137 def9 0837 dabb 8f36 71e7 a537
000002b0: d88e 5837 3250 dfb6 a19b 95b6 0435 4337
000002c0: 6245 51b7 bf25 d5b6 53e8 0b37 08ab 1bb7
000002d0: 98a4 71b7 985b b8b6 9c99 0032 4bc5 e3b5
000002e0: 98a4 12b7 3d53 9b37 a5c2 9936 eaee 8737
000002f0: 32f2 c6b6 8c4a e2b6 92f1 e5b5 7938 4b37
00000300: a482 28b7 498a 2bb6 c04c 95b6 f69e f4b6
00000310: 871b 0cb7 861d 8a36 68ee 5137 f7cf f0b6
00000320: a39d e2b6 9441 1737 4fa8 59b7 45df 0a36
00000330: a720 8ab6 10b9 f8b6 58a5 43b6 46d0 f736
00000340: 554f 13b7 b34b 2936 bd50 aeb6 0c64 0ab7
00000350: ffdb 78b7 4184 35b6 92c0 d4b6 850e 8235
00000360: 36e2 f7b6 8633 05b6 a857 0037 9e75 4ab6
00000370: a576 18b7 2773 a536 170c c336 7b29 fab5
00000380: f74d 89b6 a2ec 7b37 d885 6037 55be 9b36
00000390: 3eb7 2837 d0b4 26b7 f793 6536 ac53 8136
000003a0: 318f 84b6 e4c8 19b6 01d3 88b6 5b02 e1b5
000003b0: 8973 7b36 9835 cf34 4ee0 8534 0e65 2fb5
000003c0: ce7b 8eb6 cb0d 9836 a4c2 08b7 2e24 0837
000003d0: b78a 0337 cab6 1f37 554a c736 b9ee 7836
000003e0: 6c7b bb36 db00 14b7 1b95 c6b6 f2a6 a2b6
000003f0: 187b e035 ee60 28b7 692c 2537 7919 a4b6
4.8963234e-06 -2.1042283e-07 5.626049e-06 -6.288361e-06 -8.129536e-06 -3.5781427e-06 -4.5420273e-07 -6.383114e-06
-1.49937405e-05 -5.774026e-06 7.652572e-06 4.334918e-06 -5.066339e-06 9.027236e-06 9.9974595e-06 -4.822295e-06
-3.2102862e-06 1.594645e-05 -2.8201723e-07 6.845605e-06 -1.6710453e-06 1.0092813e-05 -1.3413634e-05 -1.2441401e-05
-1.1756802e-05 -1.0387554e-06 1.7019292e-06 6.2679433e-06 -2.4139e-06 1.1578121e-05 -1.470357e-06 5.4271145e-06
-7.7030666e-07 -2.9969012e-06 -5.7927086e-06 -5.534434e-06 2.1346837e-06 1.1660673e-05 -2.291358e-06 1.0394629e-05
1.7218659e-06 1.2617798e-05 2.2361355e-06 2.5399027e-06 -3.6668775e-06 9.530857e-06 -1.2834194e-05 9.6443555e-06
5.7206794e-06 1.1475503e-05 9.847826e-06 1.3226266e-05 -6.864654e-06 2.2181237e-06 5.2520534e-08 -8.437217e-06
-7.2974904e-06 8.43383e-06 -1.8167651e-06 -3.5388407e-06 4.8421352e-06 4.0139003e-06 -3.7724076e-06 -1.0251385e-05
-3.4656543e-06 -6.926081e-06 7.5153907e-06 -5.146399e-06 -2.3655173e-06 3.2093512e-06 2.608909e-06 -2.1914605e-06
5.307387e-06 -1.4044805e-06 -4.1605717e-06 6.1265796e-06 -1.6374704e-06 -3.112504e-06 2.757664e-06 1.6127895e-05
2.4758767e-08 -8.465591e-06 -7.229593e-06 6.3811403e-06 -7.650562e-06 3.123066e-06 3.3427443e-06 -6.33597e-06
4.109862e-06 -7.826902e-07 6.0958614e-06 -8.983488e-06 4.760682e-06 4.608051e-06 -5.3493886e-06 -2.0034215e-06
-2.034775e-06 6.1833924e-07 -4.5934003e-06 5.4093744e-07 1.3971305e-05 2.003502e-06 -1.0260291e-05 -9.203726e-06
4.1563117e-06 -3.6232025e-06 -1.166242e-05 -7.0476415e-07 7.247073e-06 1.3546502e-05 -3.205107e-07 -4.9415903e-06
4.283414e-06 1.6182789e-06 -4.0375908e-06 -5.9069857e-06 -2.3092723e-06 -4.5440593e-06 1.197837e-06 1.2725164e-06
-4.458586e-06 3.0026993e-06 5.1281004e-06 -3.2340677e-06 -2.1125481e-06 1.1564185e-05 1.1557199e-06 -5.6219756e-06
3.1724067e-06 2.8934978e-06 -6.36104e-06 -3.9716597e-06 4.62432e-06 1.2937876e-06 1.1643881e-05 1.0312143e-06
7.4208465e-06 -3.7463094e-06 4.50457e-06 -4.342125e-06 5.1780316e-06 7.040492e-06 -3.972148e-06 7.070553e-06
1.1782191e-05 -1.6166814e-05 -1.6973217e-06 9.992468e-06 -5.8660157e-06 -8.252999e-06 1.2327166e-05 -1.389941e-05
3.115104e-06 7.6805945e-06 2.3940988e-06 9.785656e-06 8.242139e-06 1.4048075e-05 1.5624451e-05 1.0240299e-06
9.93295e-06 6.6332263e-06 -4.7442227e-06 -7.428882e-06 -1.3840382e-06 -3.4716245e-06 -1.2615043e-06 8.993315e-06
7.716338e-06 8.164408e-06 4.283601e-06 1.9777306e-05 1.2907862e-05 -6.655254e-06 -4.4586636e-06 1.1635249e-05
-1.2473525e-05 -6.352289e-06 8.339138e-06 -9.278541e-06 -1.4403042e-05 -5.4942902e-06 7.485507e-09 -1.6970238e-06
-8.740601e-06 1.85162e-05 4.582415e-06 1.6204507e-05 -5.929055e-06 -6.7440033e-06 -1.7132136e-06 1.2112891e-05
-1.00439975e-05 -2.5561478e-06 -4.449481e-06 -7.290272e-06 -8.3510595e-06 4.1161575e-06 1.2512879e-05 -7.1767677e-06
-6.753676e-06 9.01557e-06 -1.2973395e-05 2.0693562e-06 -4.1165217e-06 -7.41252e-06 -2.9153507e-06 7.38542e-06
-8.780354e-06 2.5227025e-06 -5.1950033e-06 -8.248735e-06 -1.4833174e-05 -2.7048084e-06 -6.3405105e-06 9.68998e-07
-7.387508e-06 -1.9848535e-06 7.649804e-06 -3.0168808e-06 -9.08753e-06 4.9307887e-06 5.8128603e-06 -1.8638524e-06
-4.0919945e-06 1.5015861e-05 1.3382603e-05 4.6415175e-06 1.0056245e-05 -9.93647e-06 3.4209786e-06 3.8542403e-06
-3.9505762e-06 -2.291571e-06 -4.07768e-06 -1.6764492e-06 3.7469165e-06 3.859575e-07 2.4936384e-07 -6.5339634e-07
-4.2463425e-06 4.5315587e-06 -8.15155e-06 8.114655e-06 7.8405055e-06 9.519697e-06 5.9393155e-06 3.7093835e-06
5.5874025e-06 -8.821687e-06 -5.918218e-06 -4.847411e-06 1.6725126e-06 -1.00361485e-05 9.845106e-06 -4.8905463e-06

weight f4 [15, 9]
00000000: c8bb 0937 e7eb 5eb7 4175 83b7 512d 19b7
00000010: f2d1 2eb7 d6c1 9f36 5ff1 2337 444b 3a36
00000020: 4d5c 4436 6770 76b7 2a6f 6d37 ebe9 1fb7
00000030: 6c16 e235 80f6 6eb6 20c0 4bb6 97ea 2d37
00000040: 60a9 84b7 8ee8 8137 5054 53b7 b792 a636
00000050: 8a2e 8837 143d 08b7 e8a8 9a36 f762 12b7
00000060: 17ee cfb6 8cc3 1db6 a129 8236 3c8b 89b7
00000070: 772c 4b36 0a3b 52b7 ae0f 52b7 4bbd b2b5
00000080: 44f8 afb5 b9e6 37b7 f47d 5f37 d0bf 00b5
00000090: a042 1936 283f 1cb7 a3c9 99b6 d7f0 12b7
000000a0: cc72 75b7 1e45 3c36 1eab 8db7 1665 0337
000000b0: c65e 3e36 e734 0d37 a640 4e37 d477 5637
000000c0: 4c8f 0337 1bb7 08b7 450f 4e37 9b92 1fb7
000000d0: 6a62 fab5 0cfb c734 182b 4fb7 d078 aa34
000000e0: ac11 fb36 3539 80b7 fb59 8237 77f5 8837
000000f0: d2df 82b7 9809 2236 cb4e 49b7 f56c 1c36
00000100: de29 9d36 6343 a2b6 693f 3637 c06e 9eb6
00000110: 9237 1bb7 45e4 d935 22fd d7b6 771c 8cb6
00000120: 356d 19b7 fc85 8236 b4fe 28b7 7848 9136
00000130: 90b1 3a37 527b 63b6 406e 0eb7 f9b3 1cb7
00000140: 9195 5435 a5ce b5b6 4ed9 2437 ac06 6c36
00000150: c3d4 43b7 ef29 a336 a024 1f37 affa 2837
00000160: 688b ab36 03f9 81b6 a4a4 70b7 6db4 0637
00000170: 1d98 21b7 23f7 3236 a883 68b7 12aa fa35
00000180: 3e36 6136 6f18 3a37 7461 61b7 da03 c236
00000190: 4af3 8ab7 fea0 adb6 d23b e535 4f07 3637
000001a0: 3b45 8eb7 8593 38b7 fe5c eab6 ea4b 9cb5
000001b0: c812 66b7 3ca1 4ab7 7e62 6f37 e136 dd35
000001c0: d875 77b7 3948 0237 175e 6137 9e1e 2737
000001d0: 8144 3a37 8a76 0637 304d 8eb7 4038 99b6
000001e0: 64c4 8737 673c 82b7 4689 4036 c0a7 f6b6
000001f0: b6a5 2e37 7340 b0b6 570e 47b6 7c1d 46b7
00000200: 7c7a 5b36 8dd4 7d37 43dd fb36 051a 33b6
00000210: 44fc 80b7 5b5a c936 2eb0 8e35
8.209558e-06 -1.3287156e-05 -1.5671018e-05 -9.130062e-06 -1.042009e-05 4.7611347e-06 9.771756e-06 2.775997e-06
2.9260002e-06 -1.4688913e-05 1.4152183e-05 -9.531602e-06 1.6844838e-06 -3.5608246e-06 -3.0361189e-06 1.0366223e-05
-1.5814498e-05 1.548629e-05 -1.2596211e-05 4.9642654e-06 1.6234135e-05 -8.120453e-06 4.609221e-06 -8.72532e-06
-6.196798e-06 -2.3508646e-06 3.879148e-06 -1.6396509e-05 3.027524e-06 -1.25307215e-05 -1.2520626e-05 -1.3317125e-06
-1.3110771e-06 -1.0961369e-05 1.33211615e-05 -4.796284e-07 2.2837557e-06 -9.313029e-06 -4.583229e-06 -8.758353e-06
-1.4629866e-05 2.8054415e-06 -1.6888192e-05 7.831744e-06 2.8367372e-06 8.416572e-06 1.2293609e-05 1.2783294e-05
7.841572e-06 -8.148864e-06 1.2282112e-05 -9.511273e-06 -1.8655094e-06 3.72493e-07 -1.2348195e-05 3.175287e-07
7.48244e-06 -1.5285428e-05 1.5539108e-05 1.6326767e-05 -1.5601432e-05 2.4145465e-06 -1.1998879e-05 2.3309233e-06
4.6838386e-06 -4.835821e-06 1.0862809e-05 -4.72166e-06 -9.251658e-06 1.6234195e-06 -6.436968e-06 -4.175639e-06
-9.144937e-06 3.8898997e-06 -1.0072883e-05 4.329773e-06 1.1127806e-05 -3.3897418e-06 -8.489529e-06 -9.340228e-06
7.91938e-07 -5.418277e-06 9.825757e-06 3.5170624e-06 -1.1672443e-05 4.8626603e-06 9.485666e-06 1.0071947e-05
5.112426e-06 -3.8734884e-06 -1.4343448e-05 8.029031e-06 -9.631764e-06 2.666792e-06 -1.3858931e-05 1.8675948e-06
3.3559186e-06 1.1092153e-05 -1.3433735e-05 5.782099e-06 -1.6564172e-05 -5.1745437e-06 1.707924e-06 1.0849747e-05
-1.6959957e-05 -1.1001602e-05 -6.984569e-06 -1.1645e-06 -1.3713441e-05 -1.2077679e-05 1.4268442e-05 1.6481755e-06
-1.4749785e-05 7.7654195e-06 1.3432952e-05 9.961104e-06 1.1102414e-05 8.014622e-06 -1.6963662e-05 -4.5663037e-06
1.6184706e-05 -1.5525335e-05 2.8690133e-06 -7.3509e-06 1.0409791e-05 -5.2527116e-06 -2.9661658e-06 -1.18085845e-05
3.2704838e-06 1.51294635e-05 7.506141e-06 -2.6688224e-06 -1.537626e-05 6.0007856e-06 1.06311e-06

att_src f4 [1, 1, 15]
00000000: 6a89 9736 a569 f7b6 80a6 0f38 ee35 04b8
00000010: 4323 13b8 0938 3eb6 41fe 0a35 32c1 8637
00000020: 7d65 b937 e68d 0338 8501 4936 5a39 f6b3
00000030: 79a4 5cb6 989a d736 c00e e637
4.516148e-06 -7.3734723e-06 3.4248922e-05 -3.152148e-05 -3.508037e-05 -2.8344823e-06 5.1778994e-07 1.6064008e-05
2.2100978e-05 3.1364987e-05 2.9952218e-06 -1.14657e-07 -3.287829e-06 6.4254964e-06 2.7425005e-05

att_dst f4 [1, 1, 15]
00000000: 2426 4ab6 8cca 2f37 c363 87b7 b516 bab6
00000010: 5147 c236 341c 1d36 2c08 97b6 2153 4437
00000020: 4a9e 1a37 54eb 71b7 d1e0 21b7 6d53 9237
00000030: 4f6d cdb6 715e eeb6 eb50 a4b7
-3.0122546e-06 1.0477972e-05 -1.613971e-05 -5.5458754e-06 5.789953e-06 2.341124e-06 -4.501102e-06 1.1701865e-05
9.21597e-06 -1.4419511e-05 -9.648692e-06 1.7443404e-05 -6.1222013e-06 -7.103947e-06 -1.9588004e-05

bias f4 [15]
00000000: 0000 0000 0000 0000 3cc7 73b7 0000 0000
00000010: 0000 0000 c0b3 4636 5a78 83b6 063c 2737
00000020: 6648 27b7 2ba8 2d37 f9a9 3937 46af 12b7
00000030: 0000 0000 3027 6bb7 5e2e 74b7
0.0 0.0 -1.4530317e-05 0.0 0.0 2.9608927e-06 -3.918115e-06 9.967951e-06
-9.970832e-06 1.0350758e-05 1.1066434e-05 -8.743087e-06 0.0 -1.4016216e-05 -1.4554329e-05

weight f4 [15, 9]
00000000: 5396 0c37 e8ad 3d36 4d43 f4b7 e569 e3b6
00000010: 6cdf 73b7 57c0 b9b7 2f10 3136 5c85 8c36
00000020: 5556 96b5 84f3 c035 9501 b7b7 ff9a 3ab7
00000030: 3008 8837 ff0c d5b7 0e43 03b7 4f15 f1b6
00000040: 40bd 05b7 4eab 37b6 d247 4bb7 a7f8 59b6
00000050: eaf5 01b8 58df b7b7 dcc5 ab37 d132 d9b7
00000060: e149 5536 c738 ec37 5aac e836 d421 a1b7
00000070: 9f3a e737 29ef d737 033e 81b6 600c c437
00000080: b786 4e37 cb34 d9b6 4a59 c4b6 e9bf 82b7
00000090: 9803 adb7 f63a 3937 0cbc 9e37 16e6 21b7
000000a0: 6502 ee36 768b 4437 e8c9 c536 d4dc 4037
000000b0: e92b 60b6 14e3 b736 2868 20b7 d6a3 1a37
000000c0: 35f4 fe35 4d46 6b37 4643 0137 63fa cb36
000000d0: 0226 a237 6c5d 80b7 995e 10b5 e207 69b3
000000e0: bcd8 8037 dbf0 fbb6 068a c7b4 42e1 9937
000000f0: f256 2f37 1736 0db7 1138 8ab7 fe81 3e37
00000100: 2155 47b6 c351 cab7 0a8a 83b6 93eb a5b6
00000110: 018e 26b6 2e9e 6237 7870 3036 d0e6 b937
00000120: d8ef cb36 1c17 3ab7 ddba 9cb7 f437 beb7
00000130: 9441 7db7 93fa 1837 9513 6b37 384b 24b7
00000140: bd34 f7b6 afdf 5d37 2796 6936 b73a 1036
00000150: fe8a 5237 fdb2 a637 387b 1a36 76b3 8436
00000160: 3237 c5b6 0154 09b7 338f 8a37 4749 e7b5
00000170: a8f1 e137 f80f 7337 fbfb 75b6 9b5f 48b6
00000180: f85d 10b7 7c24 aa35 d9e2 37b7 2c84 c336
00000190: d972 8736 016f 0637 f1ff d1b6 326c 3cb7
000001a0: 8f70 0237 4b62 5b35 afde 8d37 d96d ab36
000001b0: fab0 e336 adc6 fbb7 4940 54b7 3d98 6d37
000001c0: 146b f7b7 0307 32b7 281e b536 4733 e635
000001d0: c1bf ffb6 f0dd 14b7 5d88 b7b7 c7c1 c4b7
000001e0: b5cb f634 fb90 02b7 6f2e 77b7 9b96 6a37
000001f0: 0af6 8736 9b76 3937 e18d dd35 c498 bab7
00000200: 10f3 3e36 a605 dcb7 da93 1ab7 ea70 83b6
00000210: d4f1 8737 e20c 1637 2acc 8ab7
8.37965e-06 2.8264421e-06 -2.9118406e-05 -6.777455e-06 -1.4535948e-05 -2.2143284e-05 2.6384475e-06 4.18785e-06
-1.1200997e-06 1.4375987e-06 -2.1816037e-05 -1.1122552e-05 1.6216276e-05 -2.539763e-05 -7.823821e-06 -7.1848403e-06
-7.971481e-06 -2.7368837e-06 -1.2116465e-05 -3.2480255e-06 -3.0985022e-05 -2.1919303e-05 2.0476924e-05 -2.5892079e-05
3.1782477e-06 2.8159831e-05 6.934203e-06 -1.9208448e-05 2.7564643e-05 2.5741365e-05 -3.8517187e-06 2.3370783e-05
1.2309923e-05 -6.47325e-06 -5.85165e-06 -1.5586573e-05 -2.062488e-05 1.1040587e-05 1.8922634e-05 -9.649919e-06
7.0932315e-06 1.1714981e-05 5.8945625e-06 1.1495507e-05 -3.340416e-06 5.4802604e-06 -9.560994e-06 9.217261e-06
1.8995548e-06 1.402346e-05 7.7046625e-06 6.0790203e-06 1.9329604e-05 -1.5302292e-05 -5.378184e-07 -5.425671e-08
1.5359714e-05 -7.508422e-06 -3.7167064e-07 1.8343915e-05 1.0451056e-05 -8.416849e-06 -1.647699e-05 1.1355149e-05
-2.9702862e-06 -2.411835e-05 -3.920174e-06 -4.9448076e-06 -2.4818585e-06 1.3507479e-05 2.629151e-06 2.2161199e-05
6.077793e-06 -1.10918445e-05 -1.8683664e-05 -2.267582e-05 -1.5095244e-05 9.118247e-06 1.4011651e-05 -9.792675e-06
-7.367313e-06 1.3224707e-05 3.4807106e-06 2.1491849e-06 1.2549337e-05 1.987209e-05 2.301951e-06 3.9547986e-06
-5.877483e-06 -8.185395e-06 1.6517564e-05 -1.7232168e-06 2.693462e-05 1.4487647e-05 -3.6654517e-06 -2.9857972e-06
-8.604948e-06 1.2676605e-06 -1.0960467e-05 5.8268397e-06 4.0366835e-06 8.0128675e-06 -6.258481e-06 -1.1230864e-05
7.774811e-06 8.172689e-07 1.6912205e-05 5.108985e-06 6.78573e-06 -3.0014047e-05 -1.2651152e-05 1.4161747e-05
-2.9494557e-05 -1.0611259e-05 5.397731e-06 1.7151259e-06 -7.6219153e-06 -8.873161e-06 -2.1878799e-05 -2.3455255e-05
4.5969287e-07 -7.78236e-06 -1.4733158e-05 1.3982552e-05 4.0519562e-06 1.1054474e-05 1.6507075e-06 -2.2244065e-05
2.8453687e-06 -2.6228674e-05 -9.21354e-06 -3.917249e-06 1.6205864e-05 8.943696e-06 -1.6545953e-05

weight f4 [15, 9]
00000000: e35d 80b6 fd4f e0b6 a4b5 8436 9bc4 20b7
00000010: a37f 67b7 d4c3 1db7 82d2 2bb7 7e7e 83b7
00000020: f8e8 27b7 dfe6 e336 368d 8737 3a2c 34b7
00000030: c840 07b6 888c 79b7 7676 93b5 09a1 7037
00000040: f338 0fb7 73eb fb36 940d 7237 8170 b936
00000050: 1df3 ecb6 bfe2 3ab6 3583 5cb7 2b08 ba36
00000060: de0e 8d36 67d8 4eb7 50fc 7837 5899 9d33
00000070: 7673 85b7 c0e6 9636 32cc 63b7 6ac2 ee36
00000080: 7aad 1437 ebc3 41b6 61f7 9fb6 a042 99b5
00000090: 27f2 14b7 c411 7d36 6757 9a36 dd75 2337
000000a0: 9cee e1b6 b91b 01b7 b3d0 2d36 c377 88b7
000000b0: 5196 7cb7 92fe 4f36 1eb9 4eb7 398b 95b6
000000c0: 20a0 5a37 3106 6237 da1f 0937 4b6f 66b6
000000d0: 74d2 4bb6 0a8a 2eb7 8ab4 5bb7 10b1 fe34
000000e0: eb11 0337 fe1f 56b6 8196 a7b6 a4b7 4537
000000f0: 6bf0 a2b5 52a3 0eb7 a68b 41b7 f101 e0b6
00000100: d5d6 1fb7 330c 5936 9a11 dbb6 4558 4c37
00000110: d6bc 2eb7 1ac0 59b6 93dc 8c37 99d6 a9b6
00000120: fc35 44b4 a220 2837 c90d d9b6 8fa6 7737
00000130: 1326 86b6 fb84 6537 901e 7337 b650 8735
00000140: 6d9c 3237 4faf da36 e659 57b5 7619 6137
00000150: 6fe2 3937 9ed5 29b7 cf48 00b7 149c 8cb7
00000160: 55ae 1cb6 7602 48b6 781d dfb6 55ae 1cb6
00000170: 4a9d f0b6 9d75 76b7 052a 6837 1a81 19b7
00000180: 0a92 d835 e7f0 41b7 c090 9d35 3412 bf36
00000190: a38e 5eb7 9336 66b7 c285 86b7 5a03 5a36
000001a0: c538 1d37 9bad 15b7 4308 4636 f36c d2b6
000001b0: ff31 40b7 123a 8936 a473 47b7 25a9 f936
000001c0: 0dae 57b7 170f 83b7 8b1c 8e37 07cb 5a37
000001d0: 55ea da35 00e4 5f37 7d88 0bb6 bbe8 6637
000001e0: 77fc 86b7 4537 7337 4778 6337 6f7f 34b6
000001f0: b814 b936 5234 97b6 1b16 dd36 da5e 3537
00000200: 018f 4037 7f9b 4e37 d586 0237 d6ae 9d34
00000210: f6a4 82b7 a104 60b7 5e3f 92b7
-3.825627e-06 -6.685032e-06 3.9550523e-06 -9.582519e-06 -1.3798391e-05 -9.403524e-06 -1.0241407e-05 -1.567532e-05
-1.0008218e-05 6.792004e-06 1.615901e-05 -1.0739133e-05 -2.0154275e-06 -1.48742765e-05 -1.098683e-06 1.4342609e-05
-8.536724e-06 7.507793e-06 1.4427485e-05 5.526527e-06 -7.06165e-06 -2.7848143e-06 -1.3143571e-05 5.544183e-06
4.203858e-06 -1.2328942e-05 1.4840698e-05 7.338775e-08 -1.5908601e-05 4.497211e-06 -1.3577797e-05 7.1155855e-06
8.861878e-06 -2.887328e-06 -4.767368e-06 -1.1418779e-06 -8.877868e-06 3.7710279e-06 4.5997326e-06 9.742999e-06
-6.7333003e-06 -7.695454e-06 2.5900488e-06 -1.6268232e-05 -1.5055369e-05 3.0993583e-06 -1.2321658e-05 -4.4567537e-06
1.3031095e-05 1.3472091e-05 8.173252e-06 -3.4337452e-06 -3.0371857e-06 -1.0403348e-05 -1.3095452e-05 4.7440017e-07
7.81238e-06 -3.1907107e-06 -4.994509e-06 1.1784872e-05 -1.2139911e-06 -8.5018855e-06 -1.1536211e-05 -6.675946e-06
-9.527158e-06 3.234262e-06 -6.5287577e-06 1.2179899e-05 -1.0415175e-05 -3.2447338e-06 1.6792013e-05 -5.061575e-06
-1.8273562e-07 1.0021178e-05 -6.4687088e-06 1.4761127e-05 -3.9979436e-06 1.3680426e-05 1.4491045e-05 1.0081774e-06
1.06460475e-05 6.517315e-06 -8.022456e-07 1.3416973e-05 1.107958e-05 -1.0122922e-05 -7.646347e-06 -1.676198e-05
-2.3347286e-06 -2.9803755e-06 -6.6493485e-06 -2.3347286e-06 -7.1708682e-06 -1.4690127e-05 1.3838061e-05 -9.149569e-06
1.6135757e-06 -1.1559786e-05 1.1739539e-06 5.6943627e-06 -1.3265441e-05 -1.3721775e-05 -1.603633e-05 3.2486482e-06
9.371147e-06 -8.921513e-06 2.9509108e-06 -6.271171e-06 -1.1455732e-05 4.0896784e-06 -1.1888249e-05 7.4404693e-06
-1.2855523e-05 -1.5623444e-05 1.694101e-05 1.3041084e-05 1.6310465e-06 1.3344921e-05 -2.079206e-06 1.3763255e-05
-1.6091608e-05 1.4496797e-05 1.3558259e-05 -2.6896266e-06 5.5158416e-06 -4.5062416e-06 6.5888867e-06 1.0810525e-05
1.14773875e-05 1.2314761e-05 7.779997e-06 2.937074e-07 -1.5574024e-05 -1.3352518e-05 -1.7434064e-05

att_src f4 [1, 1, 5]
00000000: 849a 12bf 88cc 7f3e 3829 07be aad3 39bf
00000010: 4028 c03c
-0.5726702 0.24980366 -0.13199317 -0.725886 0.023456693

att_dst f4 [1, 1, 5]
00000000: 6ede 2ebf 8630 59bf 3af8 0cbf e60d 60bf
00000010: 4401 23bf
-0.6830815 -0.84839666 -0.55066264 -0.8752121 -0.63673806

bias f4 [5]
00000000: 0000 0000 0000 0000 0000 0000 0000 0000
00000010: 0000 0000
0.0 0.0 0.0 0.0 0.0

weight f4 [5, 20]
00000000: a3b6 89be 60a4 a73d c45b 7fbd 7de5 873d
00000010: 2d9a d7be 9614 f13e 53af 7f3d faad fabe
00000020: 0d24 413d 5f1d ed3e 2add 66be ea4f 893e
00000030: 9819 c43e 0169 b43c 33b5 193e 8baa f23e
00000040: f2d5 1fbe 3a24 3dbe f411 953e cd00 f33d
00000050: ad14 173e ecbd 7c3d 3b89 b13e 9de6 ecbe
00000060: 79a3 bbbc 9f2e c4bd 620f 263d 5ab3 153e
00000070: 5320 c23e db26 483e d803 2bbe de48 873e
00000080: 5a54 f0be c48d 13be 7817 853e 4bfa b6be
00000090: eea6 ec3e 5acb e53e 5d49 21be 9465 283e
000000a0: 7765 c7bc 8be9 633e c604 e5be 0378 ee3e
000000b0: 5c83 90be c1e5 a6be fc6f 703e 8e76 c93d
000000c0: 2a42 d43d 06a4 3b3d 419e e6be f8cf 1d3e
000000d0: 89a6 d63d cfd5 cb3e 953e 7d3e 201c 1abd
000000e0: 8c03 78be 9d57 be3e d1eb d33d 487b 1f3e
000000f0: 28eb d83d ef0e d23e 5a57 2c3e 6f4c f0be
00000100: ad08 803e d905 2dbd a8bd c4be 8ce5 623e
00000110: 42b3 31be b85d 68be 2276 cfbe 574f d93d
00000120: 75dd 993e cd39 5cbe 910c 693d 957f 0dbe
00000130: 570b de3e c9e1 d7bd f681 b53c 0e2c e0bd
00000140: 5286 5ebe d0d5 3c3e 9fc6 e53e 0d6f bebe
00000150: 37c1 e93e 072b 9ebe a223 243e 2c36 933e
00000160: b350 cbbd a1a7 cc3e 63f1 bd3e 5557 a4bc
00000170: b1f2 2abe 47d2 d13e 0f2c a3be 67d5 13be
00000180: 4a3d f03e 4b02 a23e 5fe0 7abe 379b 99be
-0.26897153 0.08185649 -0.062343374 0.06635568 -0.42109814 0.47086018 0.06242306 -0.4896086
0.04715352 0.4631147 -0.22545305 0.26818782 0.38300776 0.022022726 0.15010528 0.4739574
-0.15608957 -0.1847085 0.2911526 0.11865387 0.14753981 0.06170456 0.3467501 -0.46269694
-0.022905098 -0.09579205 0.040542014 0.14619198 0.37915286 0.19546072 -0.16700685 0.2642278
-0.46939355 -0.14409548 0.25994468 -0.35737833 0.46221107 0.44881707 -0.15750642 0.16444999
-0.024340374 0.22257058 -0.44730204 0.46575937 -0.2822522 -0.32597163 0.23480219 0.09837066
0.10364182 0.04581072 -0.45042613 0.15411365 0.10480983 0.3981156 0.24730904 -0.03762448
-0.24220103 0.3717622 0.10347713 0.15574372 0.105917275 0.41027018 0.16830197 -0.46933314
0.2500662 -0.042241905 -0.38425946 0.22157878 -0.17353538 -0.22692001 -0.40519816 0.10610836
0.3005177 -0.21506424 0.05689675 -0.138182 0.43368027 -0.10541112 0.022156697 -0.10945903
-0.21730927 0.18440938 0.44878098 -0.371941 0.45655224 -0.30892202 0.16029218 0.28752267
-0.099275015 0.3997164 0.37098226 -0.020061174 -0.16694142 0.4098074 -0.31869552 -0.14436875
0.4692176 0.31642374 -0.24499653 -0.30001232

weight f4 [5, 20]
00000000: c41b 0ebe dcf2 49be ce43 2bbe e4c4 cebd
00000010: bf82 073e 20b9 aabd 6760 77be 3f2a 973e
00000020: 7538 5ebe 1e0e ea3e 3091 7b3e bf09 f23e
00000030: cb44 b83e 95e4 563e 28d9 89be c9d3 c5be
00000040: 1ff2 c3be 8f80 453e e0d1 c6be 8ae6 dbbc
00000050: 0d30 db3e 4490 cbbd a940 09be 27ae 59be
00000060: 7c6a 023d 5dcd 4bbe 0828 db3d e7f2 ccbe
00000070: 4386 e3bd 39fe 883e 71af 18be 5431 ca3d
00000080: 8c02 bebe e287 04bb 4a66 f8be 1fdc f2be
00000090: 5fd0 f5bd ad5e 8dbd a4e4 693e 9da4 e43e
000000a0: ac78 d0be 6f09 353e 9317 26be ddcd 4fbe
000000b0: 76ba 943e 66de 4f3e a41f 323d 423f 423e
000000c0: f378 09bd 60f3 f5be 8a57 e9be 3f62 41be
000000d0: d157 f5be 921b b73e c131 8cbd cf8a debe
000000e0: d5c4 35bd 51e5 88be f324 5dbe b95b ac3e
000000f0: c7ad 0d3d 882a c03e b09a d9be 5cc2 833e
00000100: da04 26bd 3fea b0be 9913 09be 52ca ad3e
00000110: 33e4 a4be f9e3 14be c5ce 213e f8cc c83e
00000120: 6e77 ea3d 0baf fd3d 2727 96be e975 623e
00000130: 1a5c ff3c cbd9 36be e5b1 c93e 19e4 ba3e
00000140: b9fb 1d3e b897 acbe fc8e c73e 3ac1 8f3d
00000150: ed34 1dbe cbb0 3cbe 6a1d 30be 3f71 b9be
00000160: 7b06 1fbe 83f6 f83e 796a a63e 8796 733e
00000170: c736 92be 20fb 603e 86bf af3d 2d2a a73d
00000180: 4978 273e 0763 85be b61d ce3d 0cc5 dd3d
-0.13877779 -0.1972155 -0.16725084 -0.10096148 0.1323347 -0.08336091 -0.24157868 0.2952442
-0.21701224 0.45713896 0.24567103 0.4727306 0.35989985 0.20985635 -0.2692349 -0.38638142
-0.3827066 0.19287322 -0.38831997 -0.026843328 0.42810097 -0.09939626 -0.13403572 -0.2125784
0.031839833 -0.19902559 0.10700995 -0.4002907 -0.11109593 0.26756456 -0.14910676 0.0987269
-0.37111318 -0.0020222594 -0.4851554 -0.47433564 -0.12002634 -0.069028236 0.22841126 0.4465684
-0.40717065 0.1767938 -0.1621993 -0.20293374 0.29048508 0.20299682 0.043487206 0.18969443
-0.03356261 -0.48037243 -0.455746 -0.18885134 -0.4791856 0.35763222 -0.06845427 -0.43465278
-0.044377167 -0.26737455 -0.21596126 0.3366373 0.034589555 0.3753245 -0.4250083 0.25734222
-0.04053197 -0.34553716 -0.13386382 0.3394342 -0.32205352 -0.1454009 0.15801533 0.3921888
0.11448561 0.123869024 -0.29326746 0.22115292 0.031171847 -0.17856519 0.39393535 0.3650215
0.15428056 -0.33709502 0.38976276 0.07019277 -0.15352221 -0.18426816 -0.1719872 -0.36219212
-0.15529816 0.48625574 0.32503107 0.2378789 -0.28557417 0.21970797 0.08581452 0.08162341
0.16354479 -0.26052114 0.10064261 0.10828599

att_src f4 [1, 1, 10]
00000000: 1199 1738 8e6d bfb5 fbc9 ac37 f210 15b8
00000010: 5297 b5b7 38d6 b635 d16f 91b6 535a 33b7
00000020: e353 f8b4 16d7 efb7
3.614376e-05 -1.4262494e-06 2.0598052e-05 -3.554015e-05 -2.1647345e-05 1.3622403e-06 -4.334354e-06 -1.0690262e-05
-4.6254635e-07 -2.8591177e-05

att_dst f4 [1, 1, 10]
00000000: 77c6 9733 5ed5 20b7 d71b f0b5 7193 92b7
00000010: f754 94b7 e020 7cb7 bbf3 13b7 ada1 aab7
00000020: 2447 b537 1ca1 abb6
7.067586e-08 -9.586422e-06 -1.7889496e-06 -1.7473214e-05 -1.768254e-05 -1.5028025e-05 -8.818631e-06 -2.0340865e-05
2.1610009e-05 -5.1149527e-06

bias f4 [10]
00000000: ac28 27b7 5147 27b7 c2ee e2b6 05fd 33b7
00000010: 0000 0000 b102 7837 0000 0000 049d 4837
00000020: a884 8eb6 39bb da36
-9.963445e-06 -9.97058e-06 -6.76312e-06 -1.0728142e-05 0.0 1.4782579e-05 0.0 1.1957487e-05
-4.247373e-06 6.518702e-06

weight f4 [10, 20]
00000000: f9d1 e4b6 3668 1437 122b 6236 c56f 93b5
00000010: f612 65b7 0f52 e3b6 ec33 2eb7 b1ba 3db7
00000020: 074f cb36 4436 3437 c7b6 4cb7 7bf9 27b6
00000030: 26bc d435 01eb 2f37 b304 9fb7 0888 a9b7
00000040: 2f2d 2837 3137 b0b7 b6ab 8837 af9a 3cb5
00000050: ac5a c0b7 1a7a 4537 4bf0 5237 47b3 2837
00000060: 7b83 3036 0635 1737 69f4 b8b7 fb59 d1b6
00000070: f796 a8b6 5b5a c5b5 e630 1f37 6399 5e37
00000080: f728 34b7 d511 bc36 6ac9 0b36 3b19 f1b6
00000090: 7a32 9ab6 954e 97b6 53ff b6b7 2fea afb7
000000a0: 4916 9c36 6155 2936 e24a 94b7 5cb1 6bb7
000000b0: df92 a536 8a2c d4b7 1a26 a237 dda5 96b7
000000c0: dd72 d7b7 9ebc b3b6 c731 ce35 5961 b036
000000d0: 0f83 1bb7 df9e a3b7 bc9b ecb6 5eb2 72b7
000000e0: 0fcd 98b7 21f0 15b7 71de 2bb6 3a03 a436
000000f0: 9c94 e8b5 e7da 7335 fef7 bfb7 636f a9b7
00000100: 0d6e 28b7 ffef fc34 0f75 b5b6 ebc1 21b7
00000110: 69c9 99b7 91f1 74b2 c063 b5b7 6178 97b6
00000120: e469 3eb7 b9bb 06b7 4d46 e9b5 d355 3bb7
00000130: 3a56 a1b7 cda3 f935 9804 9fb7 7e3d ecb6
00000140: a096 0cb6 4796 cab3 6a59 66b7 1bc6 0b37
00000150: 275a 2837 fc7d 3f37 aa44 bfb6 cf9b 38b6
00000160: b072 0cb7 d2af 55b7 e761 9a34 c9a3 a536
00000170: bce7 3637 cdbb a7b7 7770 c737 6cb0 3736
00000180: c4fc 19b6 1d71 8137 510c 52b7 f089 ffb5
00000190: e87d b037 4817 32b5 9df0 4337 5bdf 3337
000001a0: 3a18 7b37 c994 dbb7 318f beb6 fdf5 9137
000001b0: af71 b336 4145 a635 4cb5 da34 f158 5937
000001c0: ef64 5637 4277 f235 a40d 1637 1a13 d235
000001d0: 2d60 80b6 e0fd 9937 b99b fa34 364a bdb5
000001e0: abc2 75b6 0c05 8236 0fd1 1b37 5d71 2f37
000001f0: 9a3b 2137 1e1d 2b36 3cc7 dab6 0309 e236
00000200: 725e 3a37 d495 6fb6 e6fc 0c36 89fc 1637
00000210: 3e14 3d37 77ea 61b6 1ade 55b7 50a9 89b6
00000220: 1e8d 5037 2ff6 bab5 0873 f6b6 540f 34b7
00000230: 761e 2437 a07e 8637 7cb7 52b7 afc5 09b7
00000240: d4e1 8a37 6aae d836 d8da b035 d44d b637
00000250: a4a6 5f37 7dfc be37 4f51 5fb6 e984 0c37
00000260: 096c e637 05c4 fa36 6988 9c36 a063 fc34
00000270: 35f5 3db7 4744 bdb7 d9b7 47b6 9807 9c37
00000280: e692 2436 2cc7 c237 d877 3136 f0d7 8137
00000290: c9be 2236 f9f7 cfb7 d48f 93b7 4d3d 1337
000002a0: 97d5 d436 b145 8cb7 06a0 5837 e6d4 aa36
000002b0: 98ae 40b7 0db6 ad36 411e 66b7 55e8 acb7
000002c0: c141 ae37 f802 c6b5 ccf3 7bb6 19bd 69b7
000002d0: a516 31b6 b82a 9fb6 43ec ae37 45c3 c836
000002e0: 5924 4d37 131e c037 326f c036 5fa3 4937
000002f0: 72a2 52b6 8441 1c37 1f34 3f37 a102 d736
00000300: 739e 8a36 3a82 0337 416f b536 7115 eeb6
00000310: ba7b 1237 0fca c037 22f6 4137 d03a 6cb7
-6.8193735e-06 8.845751e-06 3.3701695e-06 -1.0984883e-06 -1.3653878e-05 -6.77468e-06 -1.0383297e-05 -1.1308745e-05
6.0590714e-06 1.0741471e-05 -1.2201904e-05 -2.5030156e-06 1.5849989e-06 1.0485529e-05 -1.8956465e-05 -2.0209714e-05
1.00241e-05 -2.1006535e-05 1.6292423e-05 -7.026055e-07 -2.2930406e-05 1.1770544e-05 1.2572923e-05 1.0055322e-05
2.6302575e-06 9.012647e-06 -2.2048322e-05 -6.2391605e-06 -5.024365e-06 -1.4703941e-06 9.488524e-06 1.3267944e-05
-1.0738374e-05 5.6049125e-06 2.0829852e-06 -7.185297e-06 -4.595434e-06 -4.509299e-06 -2.1814985e-05 -2.0970676e-05
4.6517566e-06 2.523266e-06 -1.7677845e-05 -1.4048386e-05 4.9344812e-06 -2.529311e-05 1.9329647e-05 -1.795863e-05
-2.5683485e-05 -5.3565736e-06 1.5362683e-06 5.2565415e-06 -9.269234e-06 -1.9505094e-05 -7.051478e-06 -1.4465853e-05
-1.82153e-05 -8.937001e-06 -2.5610464e-06 4.8879565e-06 -1.7328598e-06 9.08431e-07 -2.2884455e-05 -2.0198238e-05
-1.00392035e-05 4.7113278e-07 -5.4078478e-06 -9.641498e-06 -1.833281e-05 -1.4257595e-08 -2.1623331e-05 -4.5141646e-06
-1.1349537e-05 -8.03073e-06 -1.7380313e-06 -1.1166051e-05 -1.9232848e-05 1.8599618e-06 -1.8956416e-05 -7.0405067e-06
-2.09493e-06 -9.433693e-08 -1.3729887e-05 8.331171e-06 1.0034571e-05 1.141382e-05 -5.700237e-06 -2.750883e-06
-8.371353e-06 -1.2736726e-05 2.875597e-07 4.9364503e-06 1.0902e-05 -1.9995403e-05 2.377502e-05 2.7371816e-06
-2.2945906e-06 1.543067e-05 -1.2519843e-05 -1.9039126e-06 2.1039465e-05 -6.6344046e-07 1.1678928e-05 1.0721235e-05
1.49664065e-05 -2.6176118e-05 -5.679111e-06 1.7399894e-05 5.34785e-06 1.2388119e-06 4.0737575e-07 1.2954916e-05
1.2778894e-05 1.8065114e-06 8.943873e-06 1.5651779e-06 -3.8258936e-06 1.8357241e-05 4.6679432e-07 -1.4103196e-06
-3.6621157e-06 3.8748894e-06 9.287395e-06 1.0457207e-05 9.610225e-06 2.5497934e-06 -6.5201e-06 6.736374e-06
1.1108454e-05 -3.5700987e-06 2.1008832e-06 8.999495e-06 1.1269991e-05 -3.366409e-06 -1.2747501e-05 -4.1026287e-06
1.24306225e-05 -1.3929729e-06 -7.3447627e-06 -1.0732405e-05 9.782254e-06 1.603301e-05 -1.2559696e-05 -8.211863e-06
1.6556041e-05 6.457606e-06 1.3176714e-06 2.1732332e-05 1.3330635e-05 2.2767339e-05 -3.3276917e-06 8.375596e-06
2.7468444e-05 7.4734003e-06 4.6650425e-06 4.7011144e-07 -1.132237e-05 -2.256235e-05 -2.9760324e-06 1.8600185e-05
2.452341e-06 2.3219349e-05 2.6444814e-06 1.5478552e-05 2.4250933e-06 -2.4791794e-05 -1.759074e-05 8.7761555e-06
6.3429575e-06 -1.6721753e-05 1.2911862e-05 5.0911794e-06 -1.1484743e-05 5.1769953e-06 -1.3716112e-05 -2.0612186e-05
2.0773035e-05 -1.4753014e-06 -3.7543823e-06 -1.393191e-05 -2.6388236e-06 -4.7435424e-06 2.0852434e-05 5.983197e-06
1.2227415e-05 2.2902188e-05 5.7349907e-06 1.2018571e-05 -3.1386994e-06 9.313579e-06 1.13966225e-05 6.4078054e-06
4.1311664e-06 7.838529e-06 5.407172e-06 -7.095449e-06 8.7310855e-06 2.2982274e-05 1.1561004e-05 -1.40803895e-05
