model/tgn/241020_1/epoch_10.pt (torch, 407598 bytes, 85 tensors)

att f4 [1, 1, 20]
0	0x3f0099cf	0.50234693
1	0xbdb93d78	-0.09044927
2	0x3eec11a4	0.4610721
3	0x3e1f0750	0.15530133
4	0x3f0490eb	0.5178363
5	0x3eb544b2	0.35403973
6	0x3ec98e14	0.3936621
7	0x3eee9a92	0.46602303
8	0xbe21b72a	-0.15792528
9	0xbe167ddc	-0.14696449
10	0x3e305c78	0.17222774
11	0x3ef117a2	0.47088343
12	0xbe496df8	-0.19670856
13	0xbed746f0	-0.4204631
14	0xbed615f3	-0.4181362
15	0xbe7ce052	-0.24694946
16	0x3daead28	0.08529121
17	0xbd7d5be8	-0.061855227
18	0xbe11f7a6	-0.14254627
19	0xbe7fe2ae	-0.24988815

bias f4 [20]
0	0xbbb2ae91	-0.005452939
1	0xbd75665d	-0.059912074
2	0x3e1fe04e	0.15612909
3	0x3da2aa20	0.07942605
4	0xbbbe6c2b	-0.0058112345
5	0xbcdedd6c	-0.027205192
6	0x3db494a9	0.08817417
7	0x3dd477cc	0.10374412
8	0xbc0a7588	-0.008450873
9	0xbe04ed24	-0.12981087
10	0xbc1bd13b	-0.009510334
11	0x3c77c21f	0.015121966
12	0xbdd6b51e	-0.10483764
13	0xbe0441df	-0.12915753
14	0x3dbf50a6	0.09341554
15	0xbd7bb3b7	-0.061450686
16	0xbce077af	-0.02740082
17	0xbd5b051a	-0.053471662
18	0x3e1f4ca7	0.15556584
19	0x3dd21830	0.1025852

weight f4 [20, 163]
0	0x3dc4ebe5	0.09615306
1	0xbe0157d0	-0.12631154
2	0xbcb0b894	-0.021572389
3	0xbe23212f	-0.15930627
4	0xbe38dd24	-0.18053108
5	0xbc88722b	-0.016656002
6	0x3d9bb592	0.07602991
7	0xbd246378	-0.040133923
8	0x3e56df3c	0.20983595
9	0x3e655d6b	0.22398917
10	0x3dfd9a3f	0.12382936
11	0x3ea782c9	0.3271697
12	0x3e5c28a2	0.21499875
13	0xba5fd87c	-0.00085390336
14	0x3d9b6b78	0.075888574
15	0x3cad117e	0.021126505
16	0x3c953a2f	0.01821622
17	0xbde7450f	-0.11292469
18	0x3d1da11b	0.03848372
19	0x3d5e1b4c	0.05422525
20	0xbdf96b4d	-0.12178669
21	0x3ec40e1e	0.3829202
22	0x3ec430f6	0.38318604
23	0xbdeab705	-0.114606895
24	0xbcfeb18e	-0.031090524
25	0xbc939242	-0.018014077
26	0xbe301b5e	-0.1719794
27	0xbb800c01	-0.003907681
28	0x3e064eb8	0.13115966
29	0xbe42bf98	-0.190184
30	0xbdb17b72	-0.086661234
31	0x3de27d2d	0.11059032
32	0x3e45bba7	0.19309865
33	0x3e0d28d6	0.13785109
34	0x3d9d0082	0.076661125
35	0x3e0e6bc3	0.13908295
36	0xbd458cdc	-0.048230037
37	0xbda71f74	-0.08160296
38	0xbe1540df	-0.14575528
39	0x3dcdbb19	0.10045452
40	0x3c17e6c9	0.009271332
41	0xbcb91af2	-0.022595856
42	0x3e448704	0.1919213
43	0x3dabc31e	0.08386825
44	0x3e37ddda	0.17955723
45	0x3d41c40c	0.047306105
46	0x3d99a246	0.07501654
47	0x3e240cb2	0.16020468
48	0xbd458d75	-0.048230607
49	0x3dc46969	0.09590418
50	0xbe532bf1	-0.20622231
51	0x3deabb3d	0.11461494
52	0x3e328b2c	0.17435902
53	0xbd080930	-0.033211887
54	0xbdb66759	-0.08906431
55	0x3ca6e1cc	0.02037134
56	0x3e645594	0.2229827
57	0x3d3a846a	0.045536436
58	0x3e0447d9	0.12918033
59	0x3d68060e	0.0566464
60	0xbb855b36	-0.004069711
61	0xbe02bbb5	-0.12766917
62	0xbe179dc2	-0.14806274
63	0xbe352620	-0.17690325
64	0xbe1fdb9d	-0.1561112
65	0x3d2d0342	0.042239435
66	0x3dc1a37d	0.09455011
67	0xbe2811aa	-0.16412988
68	0x3e234faa	0.15948358
69	0xbbbb1b58	-0.0057100467
70	0x3d602ddd	0.05473124
71	0x3dd471b0	0.10373247
72	0xbdb018fd	-0.08598516
73	0xbd5a45d8	-0.053289264
74	0x3e36a514	0.1783641
75	0xbe01d21b	-0.12677805
76	0x3b7ea55c	0.0038855886
77	0x3d0c2ba4	0.034221306
78	0x3e167c0f	0.14695762
79	0x3d8fc079	0.07019133
80	0x3eb6b21f	0.3568277
81	0x3e345531	0.17610623
82	0x3e8a1b1c	0.26973808
83	0x3d568985	0.052377243
84	0x3e908c21	0.2823191
85	0xbd70247c	-0.058628544
86	0x3e27aecf	0.16375278
87	0xbd577040	-0.052597284
88	0x3db93682	0.090436
89	0xbda11b14	-0.07866493
90	0x3e4bcc51	0.1990216
91	0x3ea427ae	0.32061523
92	0x3db70c92	0.089379445
93	0x3d18b576	0.03728243
94	0x3e0a95db	0.13533728
95	0x3d80d68a	0.0629092
96	0x3e372427	0.17884885
97	0x3ded1a3b	0.11577269
98	0xbe9110ae	-0.28333038
99	0x3d0c0277	0.03418204
100	0xbe3d77ef	-0.18502782
101	0x3e8d8b56	0.27645367
102	0xbe5ba330	-0.2144897
103	0xbe2ad1f2	-0.1668165
104	0xbd9bc21d	-0.076053835
105	0xbe17215d	-0.14758821
106	0xbdfd763d	-0.12376068
107	0x3e15d24c	0.14631003
108	0x3e857824	0.26068223
109	0x3e69cdde	0.22832438
110	0xbe425f2b	-0.18981616
111	0xbdd2da42	-0.102955356
112	0x3e098a96	0.13431773
113	0x3def6a5b	0.116902076
114	0x3e51559a	0.2044281
115	0x3d44efd9	0.0480803
116	0x3e075393	0.13215475
117	0xbc4b8c93	-0.012423652
118	0x3d16fab5	0.036860187
119	0x3cf40983	0.029789692
120	0xbd8badc8	-0.068202555
121	0x3e1a11c4	0.1504584
122	0x3e8461b9	0.25855806
123	0x3eadb303	0.33925638
124	0x3bb36944	0.005475195
125	0x3dd67472	0.10471429
126	0x3e1c6e08	0.15276349
127	0x3e031815	0.12802155
128	0x3de140c9	0.10998685
129	0x3e46b959	0.19406642
130	0x3df4f7dc	0.11961338
131	0xbdc1aa4a	-0.09456308
132	0xbd969545	-0.0735269
133	0xbd25ef1f	-0.040511247
134	0x3d6088ed	0.054818083
135	0x3c34cc47	0.011035032
136	0xbe5fa682	-0.21840861
137	0x3cdb99cd	0.026806736
138	0xbc89bc46	-0.016813409
139	0x3e0ab21c	0.13544506
140	0x3d0e524d	0.034746457
141	0x3da8b766	0.082381055
142	0x3adc8b29	0.0016826141
143	0xbe21214b	-0.15735357
144	0xbd4b70c3	-0.049668085
145	0xbe361cf8	-0.17784488
146	0x3e363359	0.17793025
147	0x3e495ea0	0.19665003
148	0x3d9c02c7	0.07617717
149	0xbdf10fd9	-0.11770601
150	0x3dc407f1	0.09571827
151	0x3cfca74a	0.030841488
152	0x3de7b805	0.11314396
153	0xbe0877ba	-0.13326922
154	0xbc1af731	-0.009458349
155	0x3e04bd0f	0.12962745
156	0x3e5496df	0.20760678
157	0x3ca08704	0.01959563
158	0x3e476b06	0.1947442
159	0xbd9cbbac	-0.07652983
160	0x3dc10d44	0.09426358
161	0x3dcd9053	0.10037293
162	0x3cac8a0b	0.021061918
163	0x3c5ae00a	0.013359079
164	0x3cc94ba5	0.024572203
165	0xbca0d831	-0.019634338
166	0x3c7fd70f	0.015615239
167	0xbd7fe6f4	-0.062476113
168	0xbd62e107	-0.055390384
169	0x3dc65181	0.096835144
170	0x3da9479c	0.082656115
171	0xbd864892	-0.065568104
172	0xbe17200e	-0.14758322
173	0xbe9a17ee	-0.30096382
174	0xbe31eaa2	-0.17374662
175	0xbb6497a3	-0.0034880422
176	0xbe6c89c9	-0.23099436
177	0xbdf9aa12	-0.121906415
178	0xbe88236f	-0.26589534
179	0xbd4dd5ab	-0.050252598
180	0xbdc5feca	-0.09667738
181	0x3dc7803d	0.097412564
182	0x3bd2a737	0.006428625
183	0x3e2dfc3e	0.16990754
184	0xbe915cc2	-0.2839108
185	0xbe61c517	-0.2204784
186	0x3dc62f56	0.09676997
187	0xbdba4b09	-0.09096343
188	0x3d07871c	0.033087835
189	0x3e2ee162	0.17078164
190	0x3dd387a6	0.10328607
191	0xbdf6e4e1	-0.12055374
192	0x3e0851aa	0.13312402
193	0x3e2cdb83	0.16880612
194	0xbdeb835b	-0.114996634
195	0xbd5127c8	-0.05106333
196	0x3cc8b2cc	0.02449932
197	0xbd4061a7	-0.04696813
198	0x3bab7ce0	0.005233392
199	0xbe14110f	-0.14459632
200	0x3e35646b	0.17714088
201	0x3c4c8275	0.012482275
202	0x3d533731	0.051566307
203	0xbd02a6ec	-0.03189747
204	0xbe28d402	-0.16487125
205	0x3e3ee9f8	0.1864394
206	0xbd864573	-0.06556215
207	0x3cb534d1	0.022119911
208	0x3de0e644	0.1098142
209	0xbe1960f8	-0.14978397
210	0xbdf698c9	-0.1204086
211	0xbb4b3633	-0.0031007647
212	0xbd17407f	-0.036926743
213	0x3e10936b	0.14118735
214	0xbe15aacd	-0.14615937
215	0x3d850071	0.06494225
216	0x3dc5d9a6	0.09660654
217	0x3e33a937	0.17545019
218	0xbe4fd527	-0.20296155
219	0x3d97d91d	0.07414458
220	0xbe14d0f9	-0.14532842
221	0xbd278246	-0.040895723
222	0x3de531e0	0.111911535
223	0xbe9985e9	-0.29984978
224	0xbc9f197f	-0.019421337
225	0xbe04ccc4	-0.12968737
226	0xbd9fdb52	-0.07805504
227	0xbb2d6569	-0.002645815
228	0xbcd51cd1	-0.026014717
229	0xbdee9419	-0.11649341
230	0x3de1200d	0.10992441
231	0x3e14f006	0.14544687
232	0x3e2df898	0.16989362
233	0x3d62ce5d	0.055372585
234	0x3d441413	0.047870707
235	0xbd2a540a	-0.041584052
236	0xbe00daf1	-0.1258352
237	0xbe016eb9	-0.12639894
238	0x3d52d2f7	0.051470723
239	0xbd2ec02b	-0.042663734
240	0xbdb88628	-0.09009963
241	0x3d852cef	0.06502711
242	0xbe0f9415	-0.14021333
243	0xbb49230b	-0.0030691053
244	0xbcac57b2	-0.02103791
245	0xbdc1a88f	-0.09455978
246	0xbdaa2dd0	-0.08309519
247	0xbdb62ddf	-0.08895468
248	0xbce74e06	-0.028235447
249	0xbe6172fe	-0.22016522
250	0x3e1985b5	0.14992411
251	0x3e2430e6	0.16034278
252	0x3e2d2157	0.1690725
253	0xbd564cf8	-0.052319497
254	0xbe1757b4	-0.1477955
255	0xbe731c1c	-0.23741192

bias f4 [20]
0	0x3d914dbd	0.070949055
1	0xbdf1c1fd	-0.118045785
2	0x3e29d6a4	0.16585785
3	0x3da9c1e0	0.08288932
4	0x3d0510c9	0.03248671
5	0xbc48adff	-0.012248515
6	0x3e24d5c4	0.1609717
7	0x3e2a108f	0.16607879
8	0x3d0c8898	0.034309953
9	0xbdd3eb30	-0.10347593
10	0xbb14cd6c	-0.0022705449
11	0x3c850128	0.016235903
12	0xbdba6775	-0.09101764
13	0xbe2b7906	-0.16745386
14	0x3e1f39e0	0.15549421
15	0xbde268d4	-0.11055151
16	0x3bf99c37	0.007617499
17	0xbdd4c5f6	-0.103893206
18	0x3e6d95ea	0.23201719
19	0x3dfb7253	0.12277665

weight f4 [20, 163]
0	0x3df1af6d	0.11801038
1	0xbdd50435	-0.10401193
2	0x3da9fd86	0.08300309
3	0xbd84cbcb	-0.06484183
4	0x3dbd1c2e	0.092338905
5	0xbdd4b0fc	-0.103853196
6	0x3e1ea384	0.15492064
7	0xbe03ed79	-0.12883557
8	0xbd62ad20	-0.055340886
9	0x3e387902	0.18014911
10	0x3c9d9cfa	0.019239891
11	0xbdba0dc6	-0.09084658
12	0x3e1f84d9	0.15578021
13	0xbda3b942	-0.079943195
14	0x3dfe3388	0.124121726
15	0x3bfc8798	0.0077065937
16	0xbe061b60	-0.1309638
17	0x3d90e91d	0.07075713
18	0x3d081b5c	0.033229217
19	0x3e09632f	0.13416742
20	0xbd079b8c	-0.033107325
21	0x3dceed02	0.101037994
22	0xbd379b6c	-0.044825956
23	0xbdf6d176	-0.1205167
24	0xbd7593f7	-0.059955563
25	0xbcf06c1a	-0.029348422
26	0xbe0f4c63	-0.13993983
27	0x3e355769	0.17709126
28	0x3d45c199	0.048280332
29	0x3d44ae5e	0.048017852
30	0x3cf184cf	0.029482273
31	0x3dca4970	0.09877288
32	0xbe2b6c35	-0.16740496
33	0xbe2ac8bb	-0.16678135
34	0xbe04c870	-0.12967086
35	0x3da08a37	0.078388624
36	0x3a95822b	0.0011406591
37	0x3e2b22f4	0.16712552
38	0x3da02c4e	0.078209504
39	0x3dbe1d59	0.09282941
40	0x3e28eaa8	0.16495764
41	0x3e30cf0d	0.17266484
42	0xbdeb41e1	-0.11487175
43	0xbe0099f9	-0.12558736
44	0x3dcd155f	0.10013842
45	0x3dd887b6	0.1057276
46	0xbe1270f5	-0.14300902
47	0x3dfc0db2	0.123073
48	0x3de87672	0.11350717
49	0x3dbccb0c	0.092184156
50	0x3e187bd8	0.14890993
51	0x3dc9531a	0.098303035
52	0xbd8459f6	-0.06462471
53	0xbe253e26	-0.16136989
54	0x3ac27f0a	0.0014838886
55	0x3d4d0293	0.050051283
56	0xbe149ab0	-0.14512134
57	0xbddaffdb	-0.10693332
58	0x3d8faf6b	0.0701588
59	0x3de1e5b2	0.11030139
60	0x3e27bd5f	0.16380833
61	0x3de841be	0.11340664
62	0x3e093200	0.1339798
63	0xbd4ab28a	-0.049486674
64	0xbdc88897	-0.097916774
65	0xbd55f205	-0.05223276
66	0xbc941ed1	-0.0180811
67	0xbe14e4cd	-0.14540406
68	0xbd88e068	-0.06683427
69	0x3db9b3fb	0.09067532
70	0x3d96f5ae	0.073710784
71	0xbd7d9bf7	-0.061916318
72	0x3e198d01	0.14995195
73	0xbd2288f6	-0.039681397
74	0xbdf0be8d	-0.11755095
75	0x3e314075	0.17309745
76	0xbd3d7f7f	-0.046264168
77	0xbdb41978	-0.0879392
78	0x3e1b3084	0.15155226
79	0x3e347fd8	0.17626894
80	0x3e338c6c	0.17534035
81	0x3daf5e7e	0.08562945
82	0xbc5b67b2	-0.013391422
83	0x3e389df2	0.18029001
84	0xbe22a20b	-0.15882127
85	0x3e15d918	0.14633596
86	0xbdf31ba2	-0.11870505
87	0xbe374f51	-0.1790135
88	0x3dedcf8a	0.116118506
89	0xbcb527d9	-0.022113727
90	0xbe2e6fea	-0.1703488
91	0xbdb2dc4a	-0.08733423
92	0xbd6f4cbb	-0.058422785
93	0x3d8a144a	0.06742151
94	0xbe1ac436	-0.15113911
95	0xbe1aa0ce	-0.15100405
96	0x3e1ab6dc	0.15108818
97	0x3c8f1dc7	0.017470254
98	0x3dde8894	0.10865894
99	0x3c7a6733	0.015283394
100	0x3dbe5fe7	0.09295636
101	0xbd586291	-0.052828375
102	0xbd997a8e	-0.074940786
103	0xbc67694c	-0.014124226
104	0x3df07f4e	0.117430314
105	0xbdd1a6a4	-0.10236862
106	0xbd814670	-0.06312263
107	0xbca31e9e	-0.01991206
108	0x3e20e698	0.15712965
109	0x3e2ffaac	0.17185467
110	0xbc145db1	-0.009055541
111	0xbe0ef7b8	-0.13961685
112	0x3df7d9dc	0.121021
113	0x3d3b470c	0.045722052
114	0xbde9a0ec	-0.114076465
115	0xbe2ae600	-0.166893
116	0xbd859f33	-0.065245055
117	0xbe037775	-0.12838538
118	0x3d0a9ef5	0.033843
119	0x3d134367	0.03595295
120	0xbe00fe6f	-0.12597059
121	0x3d4af397	0.04954871
122	0xbd822164	-0.06354025
123	0x3def11ca	0.11673315
124	0x3e096b9b	0.13419954
125	0x3e3921a8	0.18079245
126	0x3d05bf43	0.032653105
127	0xbe220127	-0.15820752
128	0x3db790ba	0.08963151
129	0xbbd428f0	-0.0064746067
130	0xbe3808e2	-0.17972139
131	0xbde5d05b	-0.11221381
132	0x3e05c9ed	0.1306531
133	0x3db34aeb	0.08754524
134	0x3e0b6e17	0.13616215
135	0x3e287eed	0.16454668
136	0x3e2699fb	0.16269676
137	0xbdd8c607	-0.10584646
138	0x3d471298	0.048601717
139	0x3e31f178	0.1737727
140	0xbd5c35b6	-0.05376216
141	0x3df07598	0.11741179
142	0xbdb62cc2	-0.088952556
143	0x3ded2153	0.11578622
144	0x3dbf90b6	0.09353773
145	0xbdd85626	-0.105633065
146	0x3e31b107	0.17352687
147	0x3da05d1b	0.078302585
148	0xbe15bd57	-0.14623009
149	0xbe1e8c6d	-0.15483256
150	0x3dcf9058	0.10134953
151	0xbde1099c	-0.10988161
152	0xbe20437b	-0.15650742
153	0x3df580ee	0.11987482
154	0xbdf35dd3	-0.1188313
155	0x3dbf1d30	0.09331739
156	0x3cb41001	0.021980288
157	0x3bec7207	0.0072157416
158	0x3dc97321	0.09836412
159	0xbe34bd55	-0.1765035
160	0x3d79401f	0.060852166
161	0x3a87b460	0.0010353439
162	0xbe149fc2	-0.14514068
163	0xbe194043	-0.1496592
164	0x3dbf2f57	0.09335201
165	0xbc923adb	-0.01785033
166	0xbe274f02	-0.16338733
167	0xbdc24637	-0.09486049
168	0x3e2de4f5	0.16981871
169	0x3d1a037b	0.037600975
170	0x3d45b8bf	0.04827189
171	0x3e2f0081	0.17090036
172	0x3c50f808	0.012754448
173	0x3d14dce5	0.036343474
174	0x3ded25a9	0.11579449
175	0x3caf8d72	0.021429751
176	0xbc99b680	-0.01876378
177	0xbced551d	-0.02897125
178	0x3d9786d8	0.07398766
179	0xbe3504f7	-0.17677675
180	0xbd1bfc2c	-0.038082287
181	0xbe211c06	-0.15733346
182	0x3c1698d6	0.009191712
183	0xbd90cca2	-0.070702806
184	0xbd6c4488	-0.057682544
185	0x3e21d763	0.1580482
186	0xbda98843	-0.08277943
187	0x3e291723	0.16512732
188	0xbe2b897f	-0.1675167
189	0xbd0f6e35	-0.03501721
190	0xbd46437e	-0.04840421
191	0x3e369a9b	0.17832415
192	0xbada26cb	-0.0016643641
193	0xbe32c08f	-0.17456268
194	0xbd30bbf6	-0.043148004
195	0xbdad2c78	-0.08455747
196	0xbe1d04b1	-0.15333821
197	0x3da90b57	0.08254116
198	0x3e0056f7	0.12533174
199	0xbdbc5c64	-0.091973096
200	0x3bd12903	0.006383063
201	0x3e1f8d31	0.15581204
202	0xbe0cbfe0	-0.1374507
203	0xbdac59f0	-0.08415592
204	0x3da518b0	0.080613494
205	0xbd05b0ac	-0.03263919
206	0x3e0d9956	0.13828024
207	0xbcba28c5	-0.022724519
208	0xbd7dd09f	-0.061966535
209	0xbe350a2b	-0.1767966
210	0x3cfeafa2	0.031089608
211	0xbe0c4277	-0.1369723
212	0xbe21e713	-0.15810804
213	0x3c890c01	0.016729357
214	0x3de3aeca	0.11117323
215	0xbd86b2cd	-0.06577072
216	0x3d347a6e	0.04406207
217	0xbd65b337	-0.056079116
218	0xbdba7d46	-0.09105925
219	0xbd86ae53	-0.065762185
220	0x3da97b8f	0.0827552
221	0x3d7430b7	0.05961677
222	0xbd806013	-0.06268325
223	0xbe0ee79f	-0.13955544
224	0xbdecc686	-0.11561303
225	0x3e1fa9cb	0.15592115
226	0x3debfbc1	0.115226276
227	0x3e06496d	0.13113947
228	0x3e117642	0.14205268
229	0xbd5361eb	-0.051607054
230	0x3dc5f2ed	0.09665475
231	0x3ddf04bc	0.10889575
232	0xbde497a4	-0.11161736
233	0xbd8498fc	-0.06474492
234	0xbdebf266	-0.11520843
235	0xbd420273	-0.047365617
236	0x3dd8ceed	0.10586343
237	0x3c32a964	0.010904644
238	0x3be6dd31	0.007045411
239	0xbc973b0e	-0.018460777
240	0xbdf5b50b	-0.11997422
241	0x3d764dc7	0.060132768
242	0x3da172c4	0.07883218
243	0x3dc8a224	0.09796551
244	0xbe04bf55	-0.12963612
245	0x3ddf666f	0.109082095
246	0x3e2bd575	0.16780646
247	0x3d1e32e7	0.038622763
248	0x3dcb776c	0.09934887
249	0xbc9ab65b	-0.018885782
250	0xbe2b394c	-0.16721076
251	0xbe0c3e56	-0.13695654
252	0x3d418da6	0.047254227
253	0x3d5cad6c	0.053876325
254	0x3e12efe3	0.14349322
255	0x3d67ba48	0.056574136

bias f4 [20]
0	0x3d135258	0.0359672
1	0xbd743e0a	-0.059629478
2	0xbd9007a6	-0.07032709
3	0xbd27d348	-0.040972978
4	0xbd3f89dd	-0.046762336
5	0x3caf08f1	0.021366568
6	0x3d339ed3	0.04385264
7	0x3c4c1c0d	0.01245786
8	0x3c572291	0.0131308
9	0xbd886138	-0.06659168
10	0x3d8211c0	0.06351042
11	0xbd2f34e3	-0.042775046
12	0x3bf7b53d	0.007559447
13	0xbc82e84c	-0.015979908
14	0xbc5f3c4a	-0.013625214
15	0x3d3e8c5b	0.046520572
16	0xbd91591a	-0.07097073
17	0x3d8e54d9	0.06949777
18	0xbd676304	-0.056490913
19	0x3cb680a5	0.02227814

att f4 [1, 1, 20]
0	0x3e2cd88e	0.16879484
1	0xbee57216	-0.44813603
2	0x3f0c67b1	0.5484572
3	0xbde8d141	-0.11368037
4	0x3e230962	0.15921548
5	0x3e39f105	0.18158348
6	0xbe55e6ee	-0.20888874
7	0x3ed7eb61	0.42171767
8	0x3b8bbcf2	0.0042644674
9	0x3cd4b927	0.025967194
10	0xbef7ea87	-0.48421118
11	0x3ca6d0de	0.020363268
12	0x3e53806c	0.20654458
13	0xbc05f7be	-0.008176742
14	0xbd5d634e	-0.054049782
15	0x3eb5ddb1	0.355207
16	0x3ed9fe61	0.42576888
17	0x3ec7b6ac	0.39006555
18	0xbdda2895	-0.10652272
19	0x3d8c4abf	0.06850194

bias f4 [20]
0	0x3c629637	0.013829759
1	0x3bb1b943	0.0054236962
2	0x3c9b573a	0.018962491
3	0x3c6eb8f1	0.014570461
4	0x3c51a936	0.012796691
5	0x3cc11491	0.023569377
6	0x3be39a90	0.0069459155
7	0xbc133921	-0.008985789
8	0xbc596190	-0.01326789
9	0xbc08d09c	-0.008350518
10	0x3c32b9b9	0.010908538
11	0xbcb121e5	-0.021622607
12	0x3c18b48f	0.009320392
13	0xb9b20273	-0.0003395263
14	0x3d29a69b	0.041418653
15	0xbcd500f2	-0.026001427
16	0xbc870e8d	-0.01648643
17	0x3cb36c39	0.02190219
18	0xbca59d05	-0.020216474
19	0xbbc19e0b	-0.005908733

weight f4 [20, 163]
0	0xbd993597	-0.074809246
1	0x3e3b59fe	0.18296048
2	0xbe342a47	-0.17594253
3	0xbdaf524a	-0.08560617
4	0xbceafb1f	-0.028684197
5	0xbe052698	-0.13003004
6	0x3ce338ba	0.02773701
7	0x3df4f4da	0.11960764
8	0x3c8f9e00	0.017531395
9	0xbd939c0f	-0.072075
10	0xbd5760ec	-0.052582666
11	0x3d49ca0f	0.049264964
12	0x3e5cd38a	0.21565071
13	0xbd939489	-0.07206065
14	0x3d10a283	0.035311233
15	0xbd6d2a62	-0.057901748
16	0x3d835eef	0.064145915
17	0xbd4a54f7	-0.049397435
18	0x3c03fe3f	0.008056222
19	0x3e14b71b	0.14522974
20	0xbdce161d	-0.100628115
21	0xbe3724df	-0.17885159
22	0x3e56b728	0.20968306
23	0xbdf1b2ac	-0.11801657
24	0x3d81f922	0.063463464
25	0x3e2afef6	0.16698822
26	0x3d0e1902	0.034691818
27	0xbd579d76	-0.0526404
28	0x3e276cd8	0.16350114
29	0x3b186fba	0.0023259954
30	0xbc4916ff	-0.012273549
31	0x3d350b5d	0.04420029
32	0x3d283ca7	0.041073468
33	0xbdef2ba6	-0.11678247
34	0xbdc2dfb8	-0.09515327
35	0xbe07bbcc	-0.13255233
36	0xbdc07db1	-0.09398974
37	0xbdba20b0	-0.09088266
38	0x39a9d49f	0.00032392607
39	0xbded6adf	-0.1159265
40	0xbde7e253	-0.11322465
41	0xbbf54ef9	-0.007486221
42	0x3d090c8f	0.033459242
43	0x3d2cf189	0.042222533
44	0xbd7341f9	-0.05938909
45	0x3c76da58	0.015066706
46	0xbe3458d6	-0.17612013
47	0x3e193448	0.1496135
48	0xbdc8c8b0	-0.09803903
49	0xbd43291a	-0.04764662
50	0x3e03445c	0.12819046
51	0x3cd0f7f7	0.025508864
52	0x3e4044ac	0.18776196
53	0x3d0ff439	0.03514502
54	0x3d4e2a55	0.05033334
55	0x3d4bca1d	0.049753297
56	0x3d97a025	0.07403592
57	0xbddc4d33	-0.10756912
58	0x3d9c4435	0.07630197
59	0x3d7b41d0	0.06134206
60	0x3dbce637	0.092235975
61	0xbcfc5c1d	-0.030805642
62	0xbca9693a	-0.020680059
63	0xbd346702	-0.04404355
64	0xbdecbaf0	-0.11559093
65	0xbe2868bd	-0.16446204
66	0xbdea725a	-0.11447592
67	0xbe4a4bbc	-0.19755453
68	0x3da87f01	0.08227349
69	0x3e46d415	0.1941684
70	0xbd8ca1a3	-0.06866767
71	0x3e2ee175	0.17078193
72	0x3e3c14f9	0.18367375
73	0x3c99f227	0.018792225
74	0xbe343f94	-0.17602378
75	0xbe08c8c6	-0.13357839
76	0xbae67bf5	-0.001758455
77	0x3d8f5293	0.06998172
78	0x3e2b21c6	0.16712102
79	0xbd7803c4	-0.060550466
80	0xbd11dcb1	-0.03561086
81	0x3dd00998	0.1015808
82	0xbd1fdb67	-0.039027598
83	0xbdccf4b5	-0.10007612
84	0x3c2bf8c6	0.010496324
85	0x3e45b069	0.19305576
86	0xbd45d7a2	-0.048301347
87	0x3d280e39	0.04102919
88	0x3dc08888	0.09401041
89	0xbb0ec7a2	-0.002178647
90	0x3e035196	0.12824091
91	0xbd46aac9	-0.048502717
92	0x3e7ae7aa	0.24502435
93	0x3d61f099	0.055161092
94	0xbe13a9e6	-0.1442028
95	0xbe737bff	-0.2377777
96	0xbdcc3d08	-0.09972578
97	0x3e2c508f	0.16827606
98	0xbd3d8c1f	-0.046276208
99	0x3ddfb407	0.10923009
100	0x3e2475df	0.16060589
101	0x3e059ffb	0.13049309
102	0x3d334e93	0.043776106
103	0x3d22d217	0.03975114
104	0x3d83819d	0.06421206
105	0x3d8aa0fc	0.067689866
106	0x3d89a4b9	0.067208715
107	0xbd47db7e	-0.04879331
108	0xbdea3c81	-0.114373215
109	0xbe2a51aa	-0.16632715
110	0xbd686661	-0.05673826
111	0x3e0bc43c	0.13649076
112	0xbdc9bd43	-0.09850552
113	0xbc1cae0d	-0.009562981
114	0x3d82bc8c	0.06383619
115	0x3d9f8e89	0.07790858
116	0xbd518403	-0.051151287
117	0x3d30ca3b	0.043161612
118	0xbddad9f9	-0.10686106
119	0xbdc756b6	-0.09733336
120	0x3cc2a0c3	0.023758298
121	0xbe0b9c4e	-0.13633844
122	0xbc914d19	-0.017736958
123	0x3e09ad43	0.13445
124	0x3c3ca000	0.011512756
125	0x3dcdc196	0.10046689
126	0x3e30b63f	0.17257021
127	0xbdac8d58	-0.08425397
128	0x3e4e53b8	0.20149124
129	0xbda279be	-0.07933377
130	0xbdd4581a	-0.103683665
131	0x3ddb77a2	0.107161775
132	0x3e2c29d0	0.16812825
133	0xbd7587e6	-0.059944056
134	0x3d2c8f11	0.042128626
135	0xbdfdaab0	-0.12386072
136	0xbe0e47f4	-0.13894635
137	0xbe5226c7	-0.20522605
138	0x3e2e71aa	0.17035547
139	0xbe06d1b9	-0.1316594
140	0x3d0052a5	0.031328816
141	0x3dc6fac2	0.09715797
142	0x3e3be5f7	0.18349443
143	0xbe15f932	-0.14645842
144	0xbc2acd95	-0.010424991
145	0xbdedf237	-0.116184644
146	0xbde50747	-0.11183029
147	0x3d36d4a1	0.044636372
148	0x3d3de886	0.04636433
149	0xbc2ba44c	-0.010476183
150	0x3e192e30	0.14959025
151	0x3dc42984	0.09578231
152	0x3e07be59	0.13256206
153	0x3dad4525	0.08460454
154	0x3e000403	0.1250153
155	0xbdddef56	-0.10836665
156	0x3e040da7	0.12895833
157	0xbddec09e	-0.108765826
158	0x3d00da41	0.031458143
159	0x3e258a5d	0.16166063
160	0x3dad7f67	0.08471566
161	0x3e0c7636	0.13716969
162	0x3d77c327	0.060488846
163	0x3d279250	0.04091102
164	0xbd25b1bb	-0.0404527
165	0xbdc7ac81	-0.097496994
166	0xbd2878e0	-0.0411309
167	0xbe0e8889	-0.13919272
168	0x3dd0bc74	0.101921946
169	0xbd203acb	-0.03911857
170	0xbe220215	-0.15821107
171	0x3e531183	0.20612149
172	0xbd488813	-0.048957895
173	0x3e5306fa	0.2060813
174	0xbdd1a2e4	-0.10236147
175	0x3e2a6012	0.1663821
176	0xbdaa6271	-0.083195575
177	0xbdf00757	-0.1172015
178	0x3dd80544	0.10547879
179	0x3e29c290	0.16578126
180	0xbe3185b5	-0.17336161
181	0x3df3401b	0.118774615
182	0xbe19390d	-0.1496317
183	0xbd5aa393	-0.053378653
184	0x3d4e2bc0	0.050334692
185	0x3db164f8	0.086618364
186	0x3c9b05f7	0.018923743
187	0xbd827622	-0.06370188
188	0x3db327b0	0.08747804
189	0x3e4d72ef	0.20063375
190	0x3db6d3f8	0.089271486
191	0xbd3ab5a0	-0.045583367
192	0xbe568ef3	-0.20952968
193	0xbe077b52	-0.13230637
194	0x3d739396	0.05946692
195	0x3e1373d1	0.14399649
196	0x3cf49944	0.029858239
197	0x3c9c8fc4	0.019111522
198	0xbdd249de	-0.10267995
199	0xbdefcdc8	-0.117091715
200	0x3deb96ae	0.11503349
201	0xbd36d3f9	-0.044635747
202	0x3db20cde	0.086938605
203	0x3df20ab5	0.118184485
204	0xbd3f709b	-0.04673825
205	0xbe09b9e2	-0.13449815
206	0xbe1de52f	-0.15419458
207	0xbe187015	-0.14886506
208	0xbdfedbea	-0.12444289
209	0xbd583068	-0.05278054
210	0xbd6c7463	-0.057728183
211	0x3d7eab8b	0.062175315
212	0xbdc61073	-0.09671106
213	0x3d113b0a	0.035456695
214	0xbe53c546	-0.20680723
215	0xbc48c660	-0.012254328
216	0x3e5650e9	0.20929302
217	0xbe12dd38	-0.14342201
218	0x3cf18181	0.029480698
219	0xbdd56329	-0.10419304
220	0x3d5cb1e3	0.053880583
221	0x3ca50aed	0.020146811
222	0x3e0bf0c1	0.13666059
223	0x3dd9bf29	0.10632164
224	0x3d8a8fae	0.06765686
225	0x3caae208	0.020859733
226	0x3cebcb15	0.02878336
227	0x3c53e373	0.012932646
228	0x3e20871a	0.15676537
229	0xbd5dd8c9	-0.05416182
230	0xbce35972	-0.027752612
231	0x3e2cdc4e	0.16880915
232	0x3d33b047	0.043869283
233	0xbc9799d2	-0.018505964
234	0xbd883297	-0.06650274
235	0x3d06c418	0.032901853
236	0x3da6cf8b	0.081450544
237	0xbdf69e2b	-0.12041887
238	0xbe0ad66a	-0.13558355
239	0xbe278a8e	-0.16361448
240	0x3cfb940d	0.030710245
241	0x3e4081b7	0.18799482
242	0x3d9bbc18	0.076042354
243	0x3d5e4dd7	0.054273453
244	0x3e4fcba7	0.20292531
245	0xbdc8c487	-0.098031096
246	0x3e2cd807	0.16879283
247	0x3ddf79cb	0.10911902
248	0x3d814157	0.06311291
249	0x3d7d8e94	0.06190355
250	0x3dd28b2d	0.10280452
251	0x3e22f598	0.15913999
252	0x3dafadf0	0.08578098
253	0x3d6f7f9e	0.058471315
254	0x3e2f01c5	0.17090519
255	0x3e3ba94f	0.18326305

bias f4 [20]
0	0xbcf4d4dd	-0.029886657
1	0xbc633d81	-0.013869644
2	0x3cd8617f	0.026413677
3	0xbd2b099e	-0.04175722
4	0xbd671d70	-0.05642456
5	0xbd6c3785	-0.057670135
6	0xbd19bded	-0.037534643
7	0xbda946e9	-0.08265478
8	0xbd27bbf8	-0.040950745
9	0x3d43386d	0.047661234
10	0x3dd5bd09	0.10436446
11	0xbd107e5b	-0.035276752
12	0xbba933f7	-0.0051636654
13	0xbdbe7f74	-0.093016535
14	0xbc2a27b8	-0.010385446
15	0x3d297de2	0.041379817
16	0xbd81d402	-0.063392654
17	0x3ca73015	0.02040867
18	0x3d8e4874	0.06947413
19	0x3c27f116	0.01025035

weight f4 [20, 9]
0	0xbe7fad00	-0.24968338
1	0x3d9ba6db	0.076001845
2	0xbd6d182a	-0.057884373
3	0x3d7c5a77	0.06160971
4	0xbec82e82	-0.39097983
5	0x3edfd66a	0.43718272
6	0x3d6d65bf	0.05795836
7	0xbee8c00b	-0.45459017
8	0x3d3353a7	0.04378095
9	0x3edbc754	0.42925513
10	0xbe565a0f	-0.20932792
11	0x3e7efb78	0.24900615
12	0x3eb61303	0.3556138
13	0x3ca781b6	0.020447593
14	0x3e0eb6d1	0.13936926
15	0x3ee14f56	0.4400584
16	0xbe14675c	-0.14492553
17	0xbe2f9d0e	-0.17149755
18	0x3e8ae052	0.27124268
19	0x3de19f6f	0.11016738
20	0x3e0c4665	0.13698728
21	0x3d6aaa3b	0.05729125
22	0x3ea4d68e	0.32194942
23	0xbedbf4f9	-0.42960337
24	0xbcae37d2	-0.021266852
25	0xbdb62689	-0.08894069
26	0x3d1a2ed9	0.037642334
27	0x3e0ad7a2	0.1355882
28	0x3eb43de2	0.35203463
29	0x3e39d616	0.18148074
30	0xbe1ec891	-0.15506198
31	0x3e7b37a0	0.24532938
32	0xbedf23ee	-0.435821
33	0xbe090010	-0.1337893
34	0x3e772521	0.24135257
35	0xbea9e3fb	-0.33181748
36	0x3edbd8b6	0.42938775
37	0x3ed55bd3	0.4167162
38	0xbe15c037	-0.14624105
39	0x3e1c5a3e	0.152688
40	0xbcb92287	-0.022599472
41	0x3e539c7b	0.20665161
42	0xbed4a374	-0.41530955
43	0x3edd69a9	0.43244675
44	0xbe862d54	-0.26206458
45	0xbe9aedfb	-0.3025969
46	0x3e5f3d96	0.21800837
47	0x3dbb0dc7	0.09133487
48	0x3dc513b8	0.09622902
49	0x3d2e3855	0.04253419
50	0xbed61fa6	-0.4182102
51	0x3e12866f	0.14309095
52	0x3dc74c4b	0.097313486
53	0x3ebd4198	0.36964107
54	0x3e6ac384	0.22926146
55	0xbd0f1662	-0.034933455
56	0xbe66466c	-0.22487801
57	0x3eb0ba75	0.34517255
58	0x3dc4c38d	0.09607611
59	0x3e14132f	0.14460443
60	0x3dc96763	0.098341726
61	0x3ec308c6	0.3809263
62	0x3e2003cb	0.15626447
63	0xbedf0a84	-0.4356271
64	0x3e6dc0c3	0.23218064
65	0xbd20a5ce	-0.039220624
66	0xbeb6ab57	-0.35677597
67	0x3e52ab14	0.20573074
68	0xbe24fd93	-0.16112356
69	0xbe57bf1b	-0.21068995
70	0xbec09f86	-0.37621707
71	0x3dc9c468	0.09851915
72	0x3e8edcb1	0.2790275
73	0xbe4c797a	-0.19968215
74	0x3d586173	0.05282731
75	0xbe0360c1	-0.12829877
76	0x3ece29b8	0.40266204
77	0xbdc870ff	-0.09787177
78	0x3ca88691	0.020571979
79	0xbdd02379	-0.10163016
80	0xbe4e9be7	-0.2017666
81	0x3e2f613d	0.17126937
82	0x3ed5576f	0.4166827
83	0xbeb0d037	-0.34533855
84	0x3ed9092e	0.42389816
85	0xbe92dafb	-0.28682694
86	0x3e186640	0.14882755
87	0x3e88aebc	0.26695812
88	0xbdbcc602	-0.092174545
89	0x3ebe0469	0.3711274
90	0x3eaff0ec	0.34363496
91	0xbc989686	-0.018626463
92	0xbe1eb8a4	-0.15500122
93	0x3ec2d075	0.38049665
94	0xbe978062	-0.29590136
95	0xbe094294	-0.13404304
96	0x3edf0e84	0.43565762
97	0x3e966bea	0.29379207
98	0xbe68eed6	-0.22747359
99	0xbe8e9d3c	-0.27854335
100	0xbad3505b	-0.001612197
101	0x3dbc2aa9	0.09187824
102	0xbceb74c2	-0.028742198
103	0x3e4ec50f	0.2019236
104	0x3cece73d	0.028918857
105	0xbe788664	-0.24270016
106	0x3e987aba	0.29781133
107	0x3e2fda88	0.17173207
108	0xbe66e6c1	-0.22548963
109	0xbe226927	-0.15860425
110	0x3e9eb30a	0.3099597
111	0x3e42b133	0.19012909
112	0x3d848a23	0.0647166
113	0x3b4956c9	0.0030721894
114	0x3e354430	0.17701793
115	0x3bd7b2f4	0.006582612
116	0xbed724a5	-0.42020145
117	0x3e53c2f5	0.20679839
118	0xbe838cc3	-0.2569333
119	0x3d1e9e71	0.03872532
120	0xbd775092	-0.060379572
121	0xbee29249	-0.44252232
122	0x3d20e303	0.039278995
123	0xbe11be6c	-0.14232796
124	0xbd10da41	-0.035364393
125	0xbe9bc179	-0.30421045
126	0x3de52b54	0.11189905
127	0xbe8ef200	-0.27919006
128	0xbecf90be	-0.40540117
129	0x3eab589b	0.33466038
130	0x3ead3408	0.3382876
131	0xbeb5a96c	-0.3548082
132	0xbed443c3	-0.41457948
133	0x3ee3315f	0.44373605
134	0x3dd28437	0.10279124
135	0xbe6faf68	-0.23406756
136	0xbe9de719	-0.30840376
137	0x3d85f46f	0.06540763
138	0xbed41773	-0.4142414
139	0xbe1a0c9a	-0.1504387
140	0xbed91d23	-0.42405042
141	0xbee050a7	-0.43811533
142	0xbd941cbc	-0.07232043
143	0xbe63281c	-0.2218327
144	0x3d7dd070	0.06196636
145	0xbe9865ce	-0.2976517
146	0x3edb6a78	0.42854667
147	0xbdb8b66a	-0.09019168
148	0x3e2f1b14	0.17100173
149	0x3ec19b39	0.37813738
150	0x3d99ddab	0.07512983
151	0x3ee2f183	0.44324884
152	0xbcfce00c	-0.030868553
153	0x3ee3fc35	0.44528356
154	0x3ebed16e	0.37269157
155	0x3c907538	0.01763402
156	0x3e71daee	0.23618671
157	0xbe8bcc2c	-0.27304208
158	0x3dd44a23	0.10365703
159	0xbdaca57b	-0.084300004
160	0x3e2615bf	0.16219233
161	0x3e5c63de	0.21522471
162	0x3cbdae18	0.023154303
163	0xbe4622c2	-0.19349197
164	0x3ed1610e	0.4089436
165	0xbe8cc0e0	-0.27490902
166	0x3ece2ff6	0.40270966
167	0xbdc5f39c	-0.096656054
168	0xbe5add5b	-0.21373503
169	0xbd4a95de	-0.04945933
170	0xbe38302d	-0.17987128
171	0xbe51fde2	-0.20507005
172	0x3e1d1ebe	0.15343758
173	0x3e9c0e20	0.30479527
174	0xbdec0974	-0.115252405
175	0x3cc230e3	0.023704952
176	0xbda5fc63	-0.081047796
177	0x3d52a252	0.051424332
178	0xbe50ed5f	-0.2040305
179	0xbe540bdd	-0.2070765

bias f4 [20]
0	0xbdc16298	-0.094426334
1	0xbe0968a2	-0.1341882
2	0xbde90fb0	-0.11379945
3	0xbd8cb046	-0.06869559
4	0x3db86820	0.09004235
5	0xbd685326	-0.05671992
6	0xbe285186	-0.16437349
7	0x3e4db5a6	0.20088825
8	0xbe1733b2	-0.14765814
9	0x3e9f411e	0.31104368
10	0x3e2b2b71	0.1671579
11	0x3ea4afa2	0.32165247
12	0x3e7ac20b	0.24488084
13	0x3e123753	0.14278917
14	0xbe3b9676	-0.18319115
15	0xbe869abc	-0.26289928
16	0xbe855301	-0.2603989
17	0x3e06621d	0.13123365
18	0xbe87479f	-0.2642183
19	0xbc959f96	-0.018264573

att f4 [1, 1, 20]
0	0xbec369d5	-0.3816668
1	0xbed24476	-0.41067857
2	0xbdd590fa	-0.10428043
3	0x3d8eedba	0.069789365
4	0xbe9abed2	-0.3022371
5	0xbeded9c4	-0.43525517
6	0x3e82436f	0.25442073
7	0x3e541ee3	0.20714907
8	0xbea5c20b	-0.32374606
9	0x3eaffd14	0.3437277
10	0xbed22d45	-0.41050163
11	0x3ec7f02e	0.3905043
12	0x3e98066f	0.29692408
13	0xbe4495fe	-0.19197842
14	0x3f05a025	0.52197486
15	0xbe991f2c	-0.29906595
16	0xbe83995b	-0.25702938
17	0x3ee077e1	0.4384146
18	0xbe00b035	-0.12567218
19	0xbe669289	-0.22516836

bias f4 [20]
0	0x3c629637	0.013829759
1	0x3bb1b943	0.0054236962
2	0x3c9b573a	0.018962491
3	0x3c6eb8f1	0.014570461
4	0x3c51a936	0.012796691
5	0x3cc11491	0.023569377
6	0x3be39a90	0.0069459155
7	0xbc133921	-0.008985789
8	0xbc596190	-0.01326789
9	0xbc08d09c	-0.008350518
10	0x3c32b9b9	0.010908538
11	0xbcb121e5	-0.021622607
12	0x3c18b48f	0.009320392
13	0xb9b20273	-0.0003395263
14	0x3d29a69b	0.041418653
15	0xbcd500f2	-0.026001427
16	0xbc870e8d	-0.01648643
17	0x3cb36c39	0.02190219
18	0xbca59d05	-0.020216474
19	0xbbc19e0b	-0.005908733

weight f4 [20, 9]
0	0x3d267c7b	0.040646058
1	0x3e37c4eb	0.17946212
2	0xbda421b8	-0.08014244
3	0x3de7400b	0.11291512
4	0xbeac1e92	-0.33617073
5	0x3d7c8daf	0.061658558
6	0x3a73cde9	0.00093003974
7	0x3d6b6ab3	0.057474803
8	0xbdb66714	-0.08906379
9	0x3decd17c	0.115633935
10	0xbee2a3f8	-0.44265723
11	0xbd86159e	-0.06547092
12	0x3ea43545	0.3207189
13	0x3e058962	0.13040689
14	0xbe5057ad	-0.20345946
15	0xbe805a80	-0.25069046
16	0x3d8ada34	0.067799
17	0xbeb2ebf2	-0.34945637
18	0x3eb2cdbd	0.3492259
19	0x3e7bbddd	0.24584146
20	0xbec7234d	-0.3889412
21	0x3eadb085	0.33923736
22	0x3e3229ac	0.17398709
23	0x3eb9933c	0.36245143
24	0x3da468c5	0.08027796
25	0x3ee72de7	0.45152208
26	0xbec5e95c	-0.38654602
27	0xbee64c74	-0.44980204
28	0xbe0ad80c	-0.13558978
29	0xbde29d25	-0.11065129
30	0x3ee9ae89	0.45640972
31	0x3edc45b6	0.43021935
32	0xbc7ba2b0	-0.015358612
33	0x3d969c06	0.07353978
34	0x3ec0db6e	0.37667412
35	0x3dc5f2e5	0.09665469
36	0xbe6fd074	-0.23419362
37	0x3d25d5dc	0.040487155
38	0xbedb284e	-0.42804188
39	0xbead0675	-0.3379399
40	0xbc01bd02	-0.007918598
41	0x3ec6109e	0.38684553
42	0xbe4edec6	-0.20202169
43	0xbdc63cff	-0.09679603
44	0x3ee81fe5	0.45336834
45	0xbebe324b	-0.37147745
46	0x3ed7e073	0.4216343
47	0xbe3eafdd	-0.18621774
48	0xbedd3c9b	-0.432103
49	0x3e4091ef	0.18805669
50	0x3eb7b20e	0.35878032
51	0x3df75e80	0.12078571
52	0xbed4e6fb	-0.41582474
53	0xbe83b590	-0.2572446
54	0xbecedaf7	-0.40401432
55	0xbeda1e75	-0.42601362
56	0xbe5274f7	-0.20552431
57	0x3d52195e	0.051293723
58	0x3e73d191	0.23810412
59	0xbca847ec	-0.020542108
60	0x3e84dff3	0.2595211
61	0x3ea96471	0.33084443
62	0xbeb8d960	-0.36103344
63	0xbe97d9bc	-0.29658306
64	0x3b72760f	0.0036996638
65	0x3e9eff05	0.3105394
66	0x3e1c71cd	0.15277787
67	0x3bc6fba2	0.0060724774
68	0xbe7ca239	-0.24671258
69	0x3e9f5a09	0.3112338
70	0xbe989677	-0.29802296
71	0xbe08e764	-0.13369519
72	0xbc664366	-0.014054155
73	0x3d847048	0.064667284
74	0x3e7c824c	0.2465908
75	0xbc7db73d	-0.015485582
76	0xbe6dd1b5	-0.23224528
77	0x3eb67e3a	0.35643178
78	0xbe759f4f	-0.23986553
79	0x3dc1926d	0.094517566
80	0xbdca2598	-0.09870452
81	0x3d5bdce1	0.053677443
82	0xbe822572	-0.25419194
83	0x3e12f9a1	0.14353038
84	0x3e92aef9	0.2864912
85	0x3e056ca6	0.13029727
86	0xbebab2d0	-0.36464548
87	0xbe81ab14	-0.25325835
88	0xbcd9391c	-0.02651649
89	0xbe4d0d1c	-0.20024532
90	0x3e53c2a2	0.20679715
91	0x3e217764	0.157682
92	0x3e2f6a35	0.17130359
93	0xbec92d09	-0.39292172
94	0x3ef56075	0.47925153
95	0xbe6a3091	-0.22870089
96	0x3def324a	0.11679514
97	0x3e845288	0.25844216
98	0xbe44a7a0	-0.19204569
99	0x3e1fb7d4	0.15597469
100	0x3e51e6a1	0.20498134
101	0xbeb16e75	-0.34654585
102	0x3aa792ed	0.0012784876
103	0xbd18a8f2	-0.037270494
104	0x3ddee8de	0.1088426
105	0xbee6c485	-0.45071808
106	0xbedc7095	-0.43054643
107	0x3ea59a21	0.32344154
108	0xbe23be18	-0.15990484
109	0x3eb67337	0.35634777
110	0xbe93e477	-0.28885242
111	0x3eb8c58a	0.3608821
112	0xbd7e8057	-0.062134113
113	0x3e9fd335	0.31215826
114	0x3cd440a4	0.02590973
115	0xbebf2f8f	-0.37340972
116	0xbedde51e	-0.43338865
117	0x3e6f88f2	0.23392084
118	0x3ea48fa7	0.32140848
119	0xbeeb2d45	-0.45932975
120	0xbe178c39	-0.14799584
121	0x3d82d4b4	0.06388226
122	0x3e44826d	0.19190378
123	0x3eabddf6	0.3356778
124	0x3e8db78b	0.27679095
125	0x3e2f6f33	0.17132263
126	0xbd8de74c	-0.06928882
127	0x3e8cfb6b	0.27535567
128	0x3e84d0cf	0.25940558
129	0xbe2de694	-0.1698249
130	0xbd9f5dc0	-0.07781553
131	0x3e8c7e0c	0.27439916
132	0x3ec41973	0.38300666
133	0xbe25e64e	-0.16201136
134	0xbe946c09	-0.28988674
135	0x3d0b21aa	0.03396765
136	0x3e80f8f2	0.2518993
137	0x3d8c97f6	0.06864922
138	0xbea71bf6	-0.3263852
139	0xbee1e2d9	-0.44118384
140	0xbdf0d6ef	-0.11759745
141	0x3e233c94	0.15941077
142	0xbda00341	-0.07813121
143	0x3db1a31f	0.08673691
144	0x3ec7e638	0.3904283
145	0xbe0ed84d	-0.139497
146	0xbedb5673	-0.42839393
147	0x3e9e107e	0.30871958
148	0x3d3f1ca2	0.046658166
149	0x3ea093be	0.31362718
150	0xbed1c87b	-0.40973267
151	0x3e820f8d	0.2540249
152	0x3ead7f5e	0.33886236
153	0xbda6e324	-0.081487924
154	0xbe85504f	-0.26037833
155	0xbed1aa81	-0.40950397
156	0xbcb1998c	-0.021679662
157	0xbec5f502	-0.3866349
158	0xbec85a9f	-0.39131638
159	0x3eaeab13	0.34114894
160	0x3eded553	0.43522128
161	0x3eb46de1	0.3524008
162	0xbe8494ef	-0.25894877
163	0x3df7a4c5	0.12091974
164	0xbe8239cb	-0.25434718
165	0xbed3dfe3	-0.4138175
166	0xbe22970a	-0.1587793
167	0x3e281c96	0.16417155
168	0xbdff651c	-0.12470457
169	0xbe4811d4	-0.19538051
170	0x3dbfb291	0.09360231
171	0x3e3d3623	0.18477683
172	0xbe06724b	-0.13129537
173	0xbe1d5846	-0.15365705
174	0xbd942c7d	-0.07235048
175	0xbef6ba1b	-0.48188862
176	0x3e8e90ce	0.27844852
177	0xbeb5662e	-0.3542952
178	0x3dfc0fbe	0.1230769
179	0xbe17c01e	-0.1481938

bias f4 [20]
0	0xbe1158da	-0.1419405
1	0xbe8e1be3	-0.2775565
2	0xbdf333a4	-0.11875084
3	0x3c8506b3	0.016238546
4	0x3d136f70	0.035994947
5	0x3cc1aadb	0.02364104
6	0xbe7d953b	-0.24763958
7	0xbe2e9474	-0.17048818
8	0x3e88e2d2	0.2673555
9	0xbe97b537	-0.29630443
10	0x3d4ec1e9	0.050477896
11	0xbe304002	-0.17211917
12	0xbd97befc	-0.07409474
13	0x3e39798e	0.18112776
14	0xbc4f7674	-0.012662519
15	0x3e037f7a	0.12841597
16	0x3c2884c8	0.010285564
17	0x3e6f4011	0.23364283
18	0xbe92bf51	-0.28661588
19	0xbdbf819a	-0.093508914

weight f4 [20, 9]
0	0x3ca8a336	0.020585638
1	0xbe0a7efa	-0.13525
2	0xbea3cf7e	-0.3199424
3	0x3dec27ba	0.11531015
4	0xbea8a692	-0.32939583
5	0x3d1c971b	0.038230043
6	0x3dacb095	0.08432118
7	0x3ecb2822	0.39679056
8	0xbe7cf312	-0.24702099
9	0x3e16ead5	0.14738019
10	0x3eb241bd	0.3481578
11	0xbe1f4274	-0.15552694
12	0xbe0616e2	-0.13094667
13	0x3e3fa104	0.18713766
14	0xbe0dc529	-0.13844742
15	0x3d416fbe	0.047225706
16	0xbe438948	-0.19095337
17	0x3bd6537b	0.0065407134
18	0xbee4f974	-0.44721568
19	0xbe40e2bb	-0.18836491
20	0xbe729a95	-0.23691781
21	0xbebcd285	-0.36879364
22	0x3db2812f	0.08716046
23	0x3ea30ba9	0.31844833
24	0xbe4eb5b9	-0.20186509
25	0xbe5f9a50	-0.2183621
26	0x3d4b8eca	0.04969672
27	0x3e985a9a	0.29756624
28	0xbe7db78e	-0.24777052
29	0x3be2646a	0.006908943
30	0xbdc3c8af	-0.09559762
31	0x3e116a22	0.14200643
32	0xbe799f67	-0.24377213
33	0xbed18b98	-0.40926814
34	0xbece4777	-0.40288898
35	0xbe654c70	-0.2239244
36	0x3edc40d9	0.43018225
37	0xbd9719af	-0.07377946
38	0x3eb0d6f2	0.3453899
39	0xbe1ec97f	-0.15506552
40	0xbd6c2803	-0.057655346
41	0x3eade6db	0.3396519
42	0xbeacfa22	-0.33784586
43	0xbe7ab8ab	-0.24484508
44	0xbb8d5be3	-0.0043139323
45	0xbeb48362	-0.35256487
46	0x3ea7399d	0.32661143
47	0x3e8915f5	0.26774564
48	0xbede9436	-0.4347245
49	0xbeac74f8	-0.3368299
50	0x3e64e239	0.22351922
51	0x3d36cbd2	0.044627972
52	0x3dcf36c0	0.101178646
53	0xbe1b661f	-0.15175675
54	0xbe945270	-0.28969145
55	0xbe22c706	-0.15896234
56	0xbdd5b7bc	-0.10435435
57	0x3e9aed9a	0.302594
58	0x3ec559cd	0.38545075
59	0x3ec668cf	0.38751838
60	0xbe8ac65d	-0.27104464
61	0x3e224c3c	0.15849394
62	0x3cdd747f	0.027033089
63	0xbedef4ac	-0.43546045
64	0x3ecc0958	0.3985088
65	0xbeaadb47	-0.3337042
66	0xbee3e0c0	-0.44507408
67	0xbee4e7ab	-0.44708
68	0x3e2452c1	0.16047193
69	0x3e2e3350	0.17011762
70	0x3eb4bde0	0.35301113
71	0xbea9ee67	-0.331897
72	0xbd842e70	-0.0645417
73	0xbed73054	-0.4202906
74	0xbe811ad5	-0.25215784
75	0x3d987dc6	0.074458644
76	0x3ede6fce	0.43444675
77	0xbe59fb13	-0.21287183
78	0xbe65259c	-0.22377628
79	0xbee14e52	-0.44005066
80	0x3edf87c5	0.4365827
81	0x3e0fe4d5	0.14052136
82	0x3ee8df19	0.4548271
83	0x3e34ccd4	0.1765626
84	0x3e840515	0.25785127
85	0x3ec8a6c2	0.39189726
86	0xbda7c675	-0.081921495
87	0x3e9dc0eb	0.30811247
88	0xbe8fbcb1	-0.28073648
89	0xbec1f854	-0.37884772
90	0xbd65138a	-0.055926837
91	0x3e96f688	0.29484963
92	0xbedbcce9	-0.42929772
93	0xbe71606e	-0.23571941
94	0x3dd7dd2b	0.10540231
95	0x3ee5edc0	0.4490795
96	0xbdae616d	-0.08514676
97	0xbea4b263	-0.32167348
98	0xbe04a45e	-0.12953326
99	0xbe4095a6	-0.18807086
100	0xbe600605	-0.21877296
101	0xba0beabb	-0.0005337407
102	0xbed00bee	-0.40634102
103	0xbd90c9bd	-0.070697285
104	0xbdc953d8	-0.09830445
105	0x3e730c48	0.23735154
106	0xbd6b36bc	-0.057425246
107	0x3e3a693f	0.1820421
108	0x3e42079c	0.18948215
109	0xbe8e221d	-0.277604
110	0xbedd85bd	-0.43266097
111	0x3d2b6377	0.041842904
112	0x3c8b17ed	0.016979182
113	0x3e060819	0.13089027
114	0x3e2f86bd	0.17141242
115	0x3e3ebc67	0.18626557
116	0xbd64a76f	-0.05582374
117	0x3eac4ee1	0.3365393
118	0xbe931ffa	-0.28735334
119	0x3e7598bf	0.2398405
120	0x3ea77eb4	0.32713854
121	0xbedcf3cd	-0.43154755
122	0xbd247360	-0.040149093
123	0x3ec4c348	0.38430238
124	0x3de09d66	0.10967521
125	0x3df93bb5	0.12169591
126	0x3e54e4a9	0.20790352
127	0xbe338683	-0.17531781
128	0x3edb35d7	0.42814514
129	0xbee23d76	-0.44187516
130	0xbec8bb84	-0.39205563
131	0x3d2012d3	0.039080452
132	0xbe07d1b2	-0.13263586
133	0x3eba8f95	0.3643767
134	0xbe96e644	-0.29472554
135	0xbe64b666	-0.22335204
136	0x3e09b5db	0.13448279
137	0xbe12c75e	-0.14333865
138	0x3db5ab06	0.08870511
139	0xbe77ab69	-0.24186482
140	0x3e1de0cb	0.15417783
141	0x3e955fe4	0.2917472
142	0xbdbd99a9	-0.09257824
143	0xbe9bae43	-0.3040639
144	0x3ec70536	0.38871163
145	0x3eb689fc	0.3565215
146	0xbdc86653	-0.09785142
147	0xbc6e8943	-0.014559093
148	0xbe116e0b	-0.14202134
149	0x3e55a0c9	0.20862116
150	0x3e36d773	0.17855625
151	0x3e2775c9	0.16353525
152	0x3d980e3b	0.07424589
153	0x3debb6fb	0.1150951
154	0x3d752989	0.059854064
155	0x3de06366	0.10956459
156	0x3eb12dd4	0.34605277
157	0x3ec9be53	0.39403018
158	0x3e681160	0.22662878
159	0xbee39d55	-0.44455972
160	0x3e9e72fe	0.30947107
161	0xbdc01cc8	-0.093804896
162	0xbe84c08e	-0.25928158
163	0xbe997009	-0.2996829
164	0x3c628595	0.013825794
165	0x3e2ee470	0.1707933
166	0x3c25a1cf	0.010109379
167	0xbe66ffc0	-0.22558498
168	0x3e75992d	0.23984213
169	0x3dc684fc	0.096933335
170	0xbd9eecc7	-0.077600054
171	0xbea442ff	-0.32082364
172	0x3dc1cd71	0.09463013
173	0xbd8c71bd	-0.06857631
174	0xbed0acc1	-0.407568
175	0x3ea19dd3	0.31565723
176	0x3ed5f6c7	0.4178984
177	0x3e645197	0.22296749
178	0x3e19d7d8	0.15023744
179	0x3c7b9693	0.015355724

bias f4 [20]
0	0xbdec1053	-0.11526551
1	0x3d2fab0b	0.04288773
2	0xbe381b63	-0.17979197
3	0xbe17b851	-0.14816405
4	0xbe26ec24	-0.16301018
5	0x3e71c580	0.23610497
6	0x3e049b48	0.1294986
7	0xbe9018f4	-0.28144038
8	0xbe3ca0a9	-0.18420662
9	0x3d16f218	0.036851972
10	0x3e56435c	0.20924133
11	0xbd7dc29e	-0.06195318
12	0x3e9295ed	0.2863001
13	0x3e1dff7c	0.15429491
14	0xbdd3f099	-0.10348625
15	0xbcb56951	-0.022144945
16	0xbd251128	-0.040299565
17	0xbe9b1c38	-0.30294967
18	0x3e9d0536	0.30668038
19	0x3e4bf005	0.19915779

att f4 [1, 1, 5]
0	0x3e1e7238	0.15473258
1	0xbe2d07f0	-0.16897559
2	0x3f21471a	0.6299912
3	0x3f510176	0.81642854
4	0x3ee3bf30	0.44481802

bias f4 [5]
0	0x3e10d397	0.14143215
1	0x3d79be9b	0.06097279
2	0xbe466c6a	-0.19377294
3	0xbe5ad480	-0.21370125
4	0x3d8029ef	0.06257998

weight f4 [5, 20]
0	0xbe3392cc	-0.17536467
1	0x3e55e55c	0.20888275
2	0x3ee1fcbc	0.44138134
3	0x3ec72814	0.38897765
4	0xbe5bf73e	-0.21481034
5	0xbe160535	-0.14650424
6	0x3f0d3dc9	0.551724
7	0xbdafa15e	-0.085757
8	0x3e6177ae	0.2201831
9	0xbedfcd1e	-0.4371118
10	0xbee52019	-0.4475105
11	0xbc0266a9	-0.007959046
12	0xbecce4ff	-0.4001846
13	0xbf1c274b	-0.60997456
14	0x3ea00fc3	0.31262025
15	0x3ce61a67	0.028088761
16	0xbecf9945	-0.40546623
17	0xbe3139e4	-0.1730724
18	0xbcb31f5e	-0.021865543
19	0xbe6a5464	-0.22883755
20	0xbecc0b23	-0.39852247
21	0xbe476b46	-0.19474515
22	0x3e7db3c8	0.24775612
23	0xbe7b1cca	-0.24522701
24	0xbee4a884	-0.44659817
25	0xbf28074d	-0.6563614
26	0x3f15395a	0.58290637
27	0x3e88fd37	0.26755688
28	0xbe18ea3b	-0.14933102
29	0xbe4147d7	-0.18875061
30	0xbdd79d4e	-0.1052805
31	0x3e9ca05a	0.3059109
32	0xbecc4d6a	-0.39902812
33	0xbe67256c	-0.22572869
34	0xbe1d600d	-0.15368672
35	0xbe55c6bb	-0.20876591
36	0xbed62756	-0.41826886
37	0xbd93fc95	-0.072259106
38	0x3e8b5ef3	0.27220878
39	0x3ecbafdf	0.39782616
40	0x3cd9279d	0.026508147
41	0x3ec48186	0.3838007
42	0xbea15f97	-0.31518242
43	0xbf1df3a0	-0.6169987
44	0xbeea3fa9	-0.45751694
45	0xbf08aa52	-0.5338489
46	0x3de53dc9	0.11193425
47	0xbed5bb7a	-0.41744596
48	0xbec19d8e	-0.37815517
49	0xbe4a17ae	-0.19735596
50	0xbf179eee	-0.5922688
51	0x3ee5acb5	0.44858328
52	0x3b694d9b	0.0035599235
53	0x3d65569e	0.055990808
54	0xbebe804c	-0.37207258
55	0x3eaedfa0	0.34154987
56	0xbce24d0b	-0.027624628
57	0xbe56bc58	-0.20970285
58	0xbf204d99	-0.62618405
59	0xbea1ddfe	-0.3161468
60	0xbe46c63d	-0.1941156
61	0xbdcfb27c	-0.10141465
62	0xbee82c07	-0.4534609
63	0xbef461d8	-0.477309
64	0x3e5f97e5	0.21835287
65	0xbf1113b8	-0.56670713
66	0xbf02690a	-0.50941527
67	0xbed69361	-0.41909316
68	0x3e413f0a	0.18871704
69	0xbdb5c22a	-0.088749245
70	0xbf306a79	-0.68912464
71	0x3d4f0d8d	0.050550032
72	0x3d7df1b5	0.061998088
73	0x3edcfdc6	0.43162364
74	0xbe1e3205	-0.15448768
75	0xbe692287	-0.22767077
76	0x3c9de4cf	0.019274144
77	0x3ef9d760	0.4879713
78	0xbef2e6bf	-0.4744167
79	0xbf235d06	-0.6381382
80	0x3f078473	0.52936476
81	0xbedd432d	-0.43215314
82	0x3ddb0e15	0.10696045
83	0x3f02996c	0.51015353
84	0x3f290375	0.660209
85	0x3e9b11da	0.30287057
86	0xbea0e292	-0.3142286
87	0x3f04dcfe	0.5189971
88	0xbebe3865	-0.371524
89	0xbebc008c	-0.36719167
90	0x3e4636e7	0.19356881
91	0xbeba8c7b	-0.36435303
92	0xbee9859c	-0.45609748
93	0xbe9eeb37	-0.3103883
94	0x3e4d0eb3	0.20025139
95	0xbe86fafb	-0.26363358
96	0x3e921014	0.28527892
97	0xbdabe037	-0.08392375
98	0x3e8fc2d6	0.28078336
99	0x3eeb56d4	0.45964682

bias f4 [5]
0	0x3c8398bd	0.016064042
1	0xbe09f4e0	-0.13472319
2	0xbda8797b	-0.082262956
3	0xbe4c5cc3	-0.19957261
4	0xbe1c2a87	-0.15250598

weight f4 [5, 20]
0	0xbe71cb6c	-0.23612756
1	0xbef630d7	-0.48084137
2	0xbe94a25c	-0.2903012
3	0xbe929efe	-0.28636926
4	0xbe93e15f	-0.28882882
5	0x3e56c810	0.20974755
6	0xbef3b2e0	-0.47597408
7	0x3ecd827c	0.40138614
8	0xbebfb3db	-0.37441906
9	0xbca52517	-0.020159287
10	0x3de80db3	0.11330738
11	0x3e160523	0.14650397
12	0x3d8669ba	0.065631345
13	0xbed6802f	-0.4189467
14	0xbeb3bfb5	-0.35107198
15	0x3ed71c84	0.42013943
16	0x3eddf2e6	0.4334938
17	0xbd05f64b	-0.032705586
18	0xbe554490	-0.20826936
19	0xbee5905c	-0.448367
20	0xbe33f81d	-0.17575116
21	0xbde31c62	-0.11089398
22	0x3dd7ed93	0.105433606
23	0x3dba3c49	0.0909353
24	0xbdd4defa	-0.10394092
25	0x3e8623d7	0.2619922
26	0x3e5e9a23	0.21738486
27	0x3e38c657	0.1804441
28	0x3ef73e68	0.482898
29	0x3cf915ba	0.030405868
30	0x3e42458d	0.18971844
31	0xbdd40071	-0.10351647
32	0x3d488839	0.048958037
33	0x3ec14bc6	0.37753123
34	0x3e98383c	0.29730403
35	0x3e9323e4	0.2873832
36	0xbeded063	-0.4351836
37	0xbe337325	-0.17524393
38	0xbd889a37	-0.06670039
39	0x3bc87da1	0.0061184918
40	0x3e518abd	0.2046308
41	0x3e97e1b9	0.296644
42	0xbe7f9566	-0.24959335
43	0xbdd32dcd	-0.1031147
44	0xbeb4b6db	-0.35295758
45	0x3e925dca	0.2858718
46	0xbe27631f	-0.16346405
47	0x3ecdc261	0.40187362
48	0xbebc9abd	-0.36836806
49	0x3eeea008	0.4660647
50	0x3e0d0c6f	0.13774274
51	0xbe9d7f35	-0.30761114
52	0x3ed396c2	0.41325957
53	0xbe82ffa3	-0.2558566
54	0xbeef5607	-0.4674532
55	0x3e825764	0.254573
56	0xbebe4496	-0.37161702
57	0x3dc1ba1d	0.094593264
58	0xbeca208f	-0.39477965
59	0x3e9dfbe2	0.30856234
60	0xbedc4767	-0.43023226
61	0xbef71582	-0.48258597
62	0xbef4216f	-0.47681758
63	0x3ee986df	0.4561071
64	0xbcc15abd	-0.023602838
65	0xbd98debf	-0.074643604
66	0xbcef94c6	-0.029245745
67	0xbe8afe10	-0.2714696
68	0xbeef6ec4	-0.46764195
69	0xbc7a6de2	-0.015284987
70	0x3e7693b4	0.24079782
71	0x3e94f3b8	0.29092193
72	0x3ea289f9	0.3174589
73	0x3e936460	0.28787518
74	0xbcf3d797	-0.029765887
75	0x3d7abe78	0.0612168
76	0xbe2ea96e	-0.1705682
77	0xbc9307e6	-0.017948102
78	0xbd2bc657	-0.0419372
79	0x3e29a78d	0.16567822
80	0xbe90ae80	-0.28258133
81	0xbe854f28	-0.26036954
82	0x3ed56593	0.41679057
83	0x3ef9d3c9	0.48794392
84	0x3e229832	0.1587837
85	0xbe3afef5	-0.18261321
86	0x3e476a0b	0.19474046
87	0xbea3e89b	-0.320134
88	0xbea38f9b	-0.319455
89	0x3dc93783	0.09825041
90	0xbce32a12	-0.027730022
91	0xbecdb070	-0.40173674
92	0xbeb43ec8	-0.35204148
93	0x3e52b15d	0.20575471
94	0xbec0664e	-0.37578052
95	0x3eb58bad	0.35458127
96	0x3ed2e458	0.41189837
97	0xbecb31c9	-0.3968642
98	0xbe92b448	-0.2865317
99	0x3d661e98	0.05618152

bias f4 [5]
0	0x3dde5d10	0.10857594
1	0x3e2d793b	0.16940777
2	0xbe596222	-0.21228841
3	0xbe36433b	-0.17799084
4	0xbe4cbc76	-0.19993767

att f4 [1, 1, 10]
0	0x3e64bee2	0.22338441
1	0x3d94f517	0.0727331
2	0xbd111f47	-0.03543022
3	0x3e15933d	0.14606948
4	0xbd8f9491	-0.07010759
5	0x3ecf0422	0.4043284
6	0x3ed4295d	0.41437808
7	0x3b0d3e86	0.002155216
8	0x3e684b00	0.2268486
9	0xbd44bec1	-0.04803348

bias f4 [10]
0	0x3c77ce02	0.0151248
1	0xbbaa40b4	-0.0051957015
2	0x3d11ee31	0.035627548
3	0x3cbedc7e	0.023298498
4	0x3c988c84	0.01862169
5	0xbc80dbf2	-0.015729878
6	0x3c21145c	0.009831514
7	0x3bd04fad	0.0063571543
8	0xbcb35cd6	-0.021894854
9	0xbce83c73	-0.028349137
