model/tgn/241020_1/epoch_4.pt (torch, 407444 bytes, 85 tensors)

att f4 [1, 1, 20]
0	0x3f0099cf	0.50234693
1	0xbdb93d78	-0.09044927
2	0x3eec11a4	0.4610721
3	0x3e1f0750	0.15530133
4	0x3f0490eb	0.5178363
5	0x3eb544b2	0.35403973
6	0x3ec98e14	0.3936621
7	0x3eee9a92	0.46602303
8	0xbe21b72a	-0.15792528
9	0xbe167ddc	-0.14696449
10	0x3e305c78	0.17222774
11	0x3ef117a2	0.47088343
12	0xbe496df8	-0.19670856
13	0xbed746f0	-0.4204631
14	0xbed615f3	-0.4181362
15	0xbe7ce052	-0.24694946
16	0x3daead28	0.08529121
17	0xbd7d5be8	-0.061855227
18	0xbe11f7a6	-0.14254627
19	0xbe7fe2ae	-0.24988815

bias f4 [20]
0	0x3bfc8f6f	0.0077075283
1	0xbd3d18a5	-0.04616608
2	0x3d9b0e5f	0.075711004
3	0x3cb2be6b	0.021819314
4	0x3c5bf852	0.013425903
5	0xbc8bf2a3	-0.017083472
6	0x3d32c5c2	0.043645628
7	0x3d752e1b	0.059858423
8	0xbc95c078	-0.018280253
9	0xbd1570a7	-0.036484387
10	0x3ca47c4d	0.020078802
11	0x3c39d6a9	0.011342683
12	0xbd192aab	-0.037394207
13	0xbd304dc5	-0.043042917
14	0x3bcbb2a5	0.0062163644
15	0xbd146a88	-0.03623441
16	0xbc2ec48a	-0.010666976
17	0xbce70ba2	-0.02820379
18	0x3da7f9d0	0.08201945
19	0x3d8bd410	0.06827557

weight f4 [20, 163]
0	0x3d9e972f	0.0774368
1	0xbe05cf33	-0.13067321
2	0xbc913320	-0.017724574
3	0xbe1c39a9	-0.1525637
4	0xbe202d33	-0.15642242
5	0xbb4dc2ac	-0.003139655
6	0x3db8a83e	0.09016465
7	0xbcdb56b3	-0.02677474
8	0x3df2dfe7	0.11859112
9	0x3d8dbc94	0.06920734
10	0x3c297af1	0.010344253
11	0x3e79a64d	0.24379845
12	0x3e3a09fb	0.1816787
13	0xbd92e0ac	-0.07171759
14	0x3d8c703f	0.06857347
15	0xbd2ba833	-0.041908454
16	0x3d9b4d54	0.075831085
17	0xbd949a07	-0.07255941
18	0x3db1fe38	0.086910665
19	0x3cd899c6	0.026440512
20	0xbd5914ab	-0.052998226
21	0x3e83d6aa	0.25749713
22	0x3e928bc0	0.28622246
23	0xbdb10851	-0.08644164
24	0xbd5efc55	-0.05443986
25	0xbc939242	-0.018014077
26	0xbe0c18d7	-0.1368135
27	0xbb800c01	-0.003907681
28	0x3e468fb2	0.19390753
29	0xbe11dcd0	-0.1424439
30	0xbdd84d98	-0.10561675
31	0xbc6191cd	-0.013767672
32	0x3e26c4c1	0.16285993
33	0x3b38039f	0.002807833
34	0xbb44ba58	-0.0030018296
35	0x3e13c1b2	0.14429358
36	0xbc6f6cde	-0.014613358
37	0xbd334c72	-0.043774076
38	0xbdbf5235	-0.093418516
39	0x3e259278	0.16169155
40	0x3d5bf4f8	0.053700417
41	0xbcd34a45	-0.02579225
42	0x3e6c71ea	0.2309033
43	0x3d3c1bff	0.045925137
44	0x3e6745b7	0.22585188
45	0x3e14f023	0.1454473
46	0xbd2feff6	-0.042953454
47	0x3e30e7fa	0.17275992
48	0xbd7528f8	-0.059853524
49	0x3df76eac	0.12081656
50	0xbe223707	-0.15841304
51	0x3e02368f	0.12716125
52	0x3e2bc44e	0.16774103
53	0x3cc8dd11	0.024519475
54	0xbdb66759	-0.08906431
55	0x3ba28b83	0.0049604787
56	0x3e209705	0.1568261
57	0xbbdaa754	-0.006672779
58	0x3c20abc3	0.009806576
59	0x3d132229	0.03592125
60	0xbcb7c8f4	-0.02243469
61	0xbe02bbb5	-0.12766917
62	0xbe313567	-0.17305528
63	0xbdfcb652	-0.12339462
64	0xbdf899ff	-0.121387474
65	0xbbb51fca	-0.005527471
66	0x3d9b0f6b	0.075713
67	0xbdbd3565	-0.092387
68	0x3dd19e88	0.102353156
69	0xbcef0f89	-0.029182212
70	0x3d602ddd	0.05473124
71	0x3e191ea4	0.14953095
72	0xbdb28ffd	-0.0871887
73	0xbe0219ad	-0.12705107
74	0x3e36a514	0.1783641
75	0xbdce66a4	-0.10078171
76	0x3b7ea55c	0.0038855886
77	0x3d0c2ba4	0.034221306
78	0x3dbcf796	0.09226911
79	0xbb72cebc	-0.0037049493
80	0x3e8027c9	0.25030354
81	0x3ddc9341	0.10770274
82	0x3e46d33c	0.19416517
83	0x3d568985	0.052377243
84	0x3e4d4a5f	0.20047902
85	0xbdb65904	-0.08903697
86	0x3d18568a	0.037191905
87	0xbd577040	-0.052597284
88	0x3db93682	0.090436
89	0xbda11b14	-0.07866493
90	0x3e6cce2b	0.23125522
91	0x3e8ed226	0.27894706
92	0x3cf7c919	0.030247258
93	0x3d970c39	0.07375378
94	0x3d411460	0.04713857
95	0xbdb4bdb9	-0.08825249
96	0x3e122d67	0.14275132
97	0x3ded1a3b	0.11577269
98	0xbe6ad2f9	-0.22932042
99	0xb97e0a62	-0.00024227196
100	0xbe193f07	-0.1496545
101	0x3e544c3e	0.20732209
102	0xbe4c53a5	-0.19953783
103	0xbe0fd0fe	-0.14044568
104	0xbd9bc21d	-0.076053835
105	0xbe25252c	-0.16127461
106	0xbd903c52	-0.07042755
107	0x3e15d24c	0.14631003
108	0x3e249b1f	0.16074799
109	0x3e62ddf1	0.22154976
110	0xbe026abc	-0.12736028
111	0xbdf2dee8	-0.11858922
112	0x3de99a7c	0.11406419
113	0x3def6a5b	0.116902076
114	0x3e31a5c1	0.17348386
115	0x3dda2e35	0.106533445
116	0x3d8c57d1	0.06852687
117	0xbc4b8c93	-0.012423652
118	0x3dba749d	0.091042735
119	0x3cf40983	0.029789692
120	0xbd8badc8	-0.068202555
121	0x3dd7c56e	0.105357036
122	0x3e249c6e	0.16075298
123	0x3e756543	0.2396441
124	0xbc1d127f	-0.009586929
125	0x3d26d1e1	0.0407275
126	0x3e1c6e08	0.15276349
127	0x3d487d10	0.048947394
128	0x3dd6e0d0	0.10492098
129	0x3e062916	0.1310161
130	0x3df4f7dc	0.11961338
131	0xbdc1aa4a	-0.09456308
132	0xbd969545	-0.0735269
133	0xbd05daaa	-0.032679237
134	0xbd262ab3	-0.040568065
135	0xbd7e1546	-0.062032007
136	0xbe419010	-0.18902612
137	0x3d8184d8	0.06324166
138	0xbc53f7ec	-0.012937527
139	0x3e19cda4	0.15019852
140	0x3d2c38da	0.042046405
141	0x3db06adb	0.08614131
142	0x3be06c21	0.0068488275
143	0xbe1ee3b5	-0.15516551
144	0xbd8c5d5e	-0.06853746
145	0xbe158337	-0.14600836
146	0x3e25a5ab	0.16176479
147	0x3e4bae6c	0.19890755
148	0x3da61816	0.08110063
149	0xbdb289cc	-0.08717689
150	0x3d9a1607	0.07523733
151	0x3d812745	0.06306318
152	0x3dfa5515	0.12223259
153	0xbe064b94	-0.13114768
154	0x3b8fd471	0.0043893387
155	0x3e0c608e	0.13708708
156	0x3e4d0911	0.2002299
157	0x3ca3d783	0.020000225
158	0x3e32e6ed	0.17470904
159	0xbdd7d21b	-0.10538121
160	0x3d8aa23e	0.067692265
161	0x3d85f571	0.06540955
162	0x3d078f83	0.033095848
163	0x3d1dcf39	0.0385277
164	0x3c72f789	0.014829525
165	0xbcdb68bf	-0.026783345
166	0x3cf567f0	0.029956788
167	0xbd8999e5	-0.06718806
168	0xbd1f4eec	-0.038893625
169	0x3de1715e	0.11007951
170	0x3dc56fd6	0.09640472
171	0x3d8894bf	0.06668996
172	0x3d0242e8	0.031802088
173	0xbe188264	-0.1489349
174	0xbd23440d	-0.03985982
175	0x3da0c120	0.07849336
176	0xbddda3ff	-0.108222954
177	0xbda03232	-0.07822074
178	0xbe3a8334	-0.18214113
179	0xbe01bc90	-0.12669587
180	0xbdf22f76	-0.11825459
181	0x3d35d197	0.044389334
182	0xbc5baa8b	-0.01340736
183	0x3da7da8c	0.081959814
184	0xbe4b6c81	-0.1986561
185	0xbdc3da83	-0.09563162
186	0x3d837c42	0.06420185
187	0xbda31f59	-0.079649635
188	0x3d07871c	0.033087835
189	0x3e0326c4	0.12807757
190	0x3dd387a6	0.10328607
191	0xbe202279	-0.1563815
192	0x3dd40527	0.10352545
193	0x3e0d789f	0.13815545
194	0xbc06e849	-0.008234092
195	0xbc1835ee	-0.009290202
196	0x3e090f1b	0.13384669
197	0xbb0a537d	-0.0021106892
198	0x3cd1d9b5	0.025616506
199	0xbe5338bb	-0.2062711
200	0x3de1af4f	0.110197656
201	0xbd721103	-0.059098255
202	0xbd2902df	-0.041262504
203	0xbd6aa6cd	-0.05728798
204	0xbe0cd62f	-0.1375358
205	0x3e105fb4	0.14099008
206	0xbd823157	-0.06357067
207	0xbd60259d	-0.05472337
208	0xbc92e840	-0.017933011
209	0xbdacf9ad	-0.084460594
210	0xbe076a0e	-0.1322405
211	0xbd1fee12	-0.0390454
212	0xbdb3beeb	-0.08776649
213	0x3e104a0a	0.14090744
214	0xbe285f8e	-0.16442701
215	0x3dacbf0f	0.08434879
216	0x3d80b2dd	0.062841155
217	0x3e33a937	0.17545019
218	0xbe49c752	-0.19704941
219	0x3e0e5096	0.13897929
220	0xbd88f7bd	-0.06687877
221	0x3d7a56ec	0.06111805
222	0x3e20d56a	0.15706411
223	0xbe552a40	-0.20816898
224	0xbc9f197f	-0.019421337
225	0xbda12389	-0.07868106
226	0xbdaaa24e	-0.083317384
227	0xbc66272a	-0.014047423
228	0x3d2b1f37	0.041777816
229	0xbdf81bd2	-0.12114681
230	0x3d09bead	0.03362911
231	0x3e309a3c	0.17246336
232	0x3e2ea500	0.1705513
233	0x3d62ce5d	0.055372585
234	0x3c87eceb	0.016592463
235	0xbce5f2d7	-0.028069897
236	0xbd953e74	-0.072873026
237	0xbe016eb9	-0.12639894
238	0x3d481b5e	0.048854224
239	0xbd2ec02b	-0.042663734
240	0xbdb88628	-0.09009963
241	0x3db9e02e	0.09075962
242	0xbd143a53	-0.036188435
243	0x3de82ca6	0.11336641
244	0x3ce64091	0.02810696
245	0xbd336bb4	-0.043803886
246	0xbdaa2dd0	-0.08309519
247	0xbcfcfd51	-0.03088251
248	0x3c736c0a	0.0148573015
249	0xbdd34c33	-0.10317268
250	0x3e1985b5	0.14992411
251	0x3e2430e6	0.16034278
252	0x3e2d2157	0.1690725
253	0xbcfed92b	-0.031109413
254	0xbd5d3940	-0.054009676
255	0xbe3097c3	-0.17245393

bias f4 [20]
0	0x3dac41a9	0.08410961
1	0xbdd59b1d	-0.10429976
2	0x3daefb0c	0.08543977
3	0x3ccf1d6b	0.025282582
4	0x3d53dc5f	0.051723834
5	0xbb0b61dd	-0.0021268048
6	0x3dee79a3	0.11644294
7	0x3dfa4056	0.12219302
8	0x3cc88b74	0.024480559
9	0xbc2649f1	-0.010149465
10	0x3cdfcb42	0.0273186
11	0x3c4c16de	0.012456624
12	0xbcc11eb7	-0.023574216
13	0xbda69536	-0.081339285
14	0x3d8bde2f	0.068294875
15	0xbdaec435	-0.08533517
16	0x3cc77c7a	0.024351347
17	0xbda10652	-0.07862534
18	0x3e22462a	0.15847078
19	0x3db52e30	0.088467

weight f4 [20, 163]
0	0x3df1af6d	0.11801038
1	0xbdd50435	-0.10401193
2	0x3da9fd86	0.08300309
3	0xbd84cbcb	-0.06484183
4	0x3dbd1c2e	0.092338905
5	0xbdd4b0fc	-0.103853196
6	0x3e1ea384	0.15492064
7	0xbe03ed79	-0.12883557
8	0xbd62ad20	-0.055340886
9	0x3e387902	0.18014911
10	0x3c9d9cfa	0.019239891
11	0xbdba0dc6	-0.09084658
12	0x3e1f84d9	0.15578021
13	0xbda3b942	-0.079943195
14	0x3dfe3388	0.124121726
15	0x3bfc8798	0.0077065937
16	0xbe061b60	-0.1309638
17	0x3d90e91d	0.07075713
18	0x3d081b5c	0.033229217
19	0x3e09632f	0.13416742
20	0xbd079b8c	-0.033107325
21	0x3dceed02	0.101037994
22	0xbd379b6c	-0.044825956
23	0xbdf6d176	-0.1205167
24	0xbd7593f7	-0.059955563
25	0xbcf06c1a	-0.029348422
26	0xbe0f4c63	-0.13993983
27	0x3e355769	0.17709126
28	0x3d45c199	0.048280332
29	0x3d44ae5e	0.048017852
30	0x3cf184cf	0.029482273
31	0x3dca4970	0.09877288
32	0xbe2b6c35	-0.16740496
33	0xbe2ac8bb	-0.16678135
34	0xbe04c870	-0.12967086
35	0x3da08a37	0.078388624
36	0x3a95822b	0.0011406591
37	0x3e2b22f4	0.16712552
38	0x3da02c4e	0.078209504
39	0x3dbe1d59	0.09282941
40	0x3e28eaa8	0.16495764
41	0x3e30cf0d	0.17266484
42	0xbdeb41e1	-0.11487175
43	0xbe0099f9	-0.12558736
44	0x3dcd155f	0.10013842
45	0x3dd887b6	0.1057276
46	0xbe1270f5	-0.14300902
47	0x3dfc0db2	0.123073
48	0x3de87672	0.11350717
49	0x3dbccb0c	0.092184156
50	0x3e187bd8	0.14890993
51	0x3dc9531a	0.098303035
52	0xbd8459f6	-0.06462471
53	0xbe253e26	-0.16136989
54	0x3ac27f0a	0.0014838886
55	0x3d4d0293	0.050051283
56	0xbe149ab0	-0.14512134
57	0xbddaffdb	-0.10693332
58	0x3d8faf6b	0.0701588
59	0x3de1e5b2	0.11030139
60	0x3e27bd5f	0.16380833
61	0x3de841be	0.11340664
62	0x3e093200	0.1339798
63	0xbd4ab28a	-0.049486674
64	0xbdc88897	-0.097916774
65	0xbd55f205	-0.05223276
66	0xbc941ed1	-0.0180811
67	0xbe14e4cd	-0.14540406
68	0xbd88e068	-0.06683427
69	0x3db9b3fb	0.09067532
70	0x3d96f5ae	0.073710784
71	0xbd7d9bf7	-0.061916318
72	0x3e198d01	0.14995195
73	0xbd2288f6	-0.039681397
74	0xbdf0be8d	-0.11755095
75	0x3e314075	0.17309745
76	0xbd3d7f7f	-0.046264168
77	0xbdb41978	-0.0879392
78	0x3e1b3084	0.15155226
79	0x3e347fd8	0.17626894
80	0x3e338c6c	0.17534035
81	0x3daf5e7e	0.08562945
82	0xbc5b67b2	-0.013391422
83	0x3e389df2	0.18029001
84	0xbe22a20b	-0.15882127
85	0x3e15d918	0.14633596
86	0xbdf31ba2	-0.11870505
87	0xbe374f51	-0.1790135
88	0x3dedcf8a	0.116118506
89	0xbcb527d9	-0.022113727
90	0xbe2e6fea	-0.1703488
91	0xbdb2dc4a	-0.08733423
92	0xbd6f4cbb	-0.058422785
93	0x3d8a144a	0.06742151
94	0xbe1ac436	-0.15113911
95	0xbe1aa0ce	-0.15100405
96	0x3e1ab6dc	0.15108818
97	0x3c8f1dc7	0.017470254
98	0x3dde8894	0.10865894
99	0x3c7a6733	0.015283394
100	0x3dbe5fe7	0.09295636
101	0xbd586291	-0.052828375
102	0xbd997a8e	-0.074940786
103	0xbc67694c	-0.014124226
104	0x3df07f4e	0.117430314
105	0xbdd1a6a4	-0.10236862
106	0xbd814670	-0.06312263
107	0xbca31e9e	-0.01991206
108	0x3e20e698	0.15712965
109	0x3e2ffaac	0.17185467
110	0xbc145db1	-0.009055541
111	0xbe0ef7b8	-0.13961685
112	0x3df7d9dc	0.121021
113	0x3d3b470c	0.045722052
114	0xbde9a0ec	-0.114076465
115	0xbe2ae600	-0.166893
116	0xbd859f33	-0.065245055
117	0xbe037775	-0.12838538
118	0x3d0a9ef5	0.033843
119	0x3d134367	0.03595295
120	0xbe00fe6f	-0.12597059
121	0x3d4af397	0.04954871
122	0xbd822164	-0.06354025
123	0x3def11ca	0.11673315
124	0x3e096b9b	0.13419954
125	0x3e3921a8	0.18079245
126	0x3d05bf43	0.032653105
127	0xbe220127	-0.15820752
128	0x3db790ba	0.08963151
129	0xbbd428f0	-0.0064746067
130	0xbe3808e2	-0.17972139
131	0xbde5d05b	-0.11221381
132	0x3e05c9ed	0.1306531
133	0x3db34aeb	0.08754524
134	0x3e0b6e17	0.13616215
135	0x3e287eed	0.16454668
136	0x3e2699fb	0.16269676
137	0xbdd8c607	-0.10584646
138	0x3d471298	0.048601717
139	0x3e31f178	0.1737727
140	0xbd5c35b6	-0.05376216
141	0x3df07598	0.11741179
142	0xbdb62cc2	-0.088952556
143	0x3ded2153	0.11578622
144	0x3dbf90b6	0.09353773
145	0xbdd85626	-0.105633065
146	0x3e31b107	0.17352687
147	0x3da05d1b	0.078302585
148	0xbe15bd57	-0.14623009
149	0xbe1e8c6d	-0.15483256
150	0x3dcf9058	0.10134953
151	0xbde1099c	-0.10988161
152	0xbe20437b	-0.15650742
153	0x3df580ee	0.11987482
154	0xbdf35dd3	-0.1188313
155	0x3dbf1d30	0.09331739
156	0x3cb41001	0.021980288
157	0x3bec7207	0.0072157416
158	0x3dc97321	0.09836412
159	0xbe34bd55	-0.1765035
160	0x3d79401f	0.060852166
161	0x3a87b460	0.0010353439
162	0xbe149fc2	-0.14514068
163	0xbe194043	-0.1496592
164	0x3dbf2f57	0.09335201
165	0xbc923adb	-0.01785033
166	0xbe274f02	-0.16338733
167	0xbdc24637	-0.09486049
168	0x3e2de4f5	0.16981871
169	0x3d1a037b	0.037600975
170	0x3d45b8bf	0.04827189
171	0x3e2f0081	0.17090036
172	0x3c50f808	0.012754448
173	0x3d14dce5	0.036343474
174	0x3ded25a9	0.11579449
175	0x3caf8d72	0.021429751
176	0xbc99b680	-0.01876378
177	0xbced551d	-0.02897125
178	0x3d9786d8	0.07398766
179	0xbe3504f7	-0.17677675
180	0xbd1bfc2c	-0.038082287
181	0xbe211c06	-0.15733346
182	0x3c1698d6	0.009191712
183	0xbd90cca2	-0.070702806
184	0xbd6c4488	-0.057682544
185	0x3e21d763	0.1580482
186	0xbda98843	-0.08277943
187	0x3e291723	0.16512732
188	0xbe2b897f	-0.1675167
189	0xbd0f6e35	-0.03501721
190	0xbd46437e	-0.04840421
191	0x3e369a9b	0.17832415
192	0xbada26cb	-0.0016643641
193	0xbe32c08f	-0.17456268
194	0xbd30bbf6	-0.043148004
195	0xbdad2c78	-0.08455747
196	0xbe1d04b1	-0.15333821
197	0x3da90b57	0.08254116
198	0x3e0056f7	0.12533174
199	0xbdbc5c64	-0.091973096
200	0x3bd12903	0.006383063
201	0x3e1f8d31	0.15581204
202	0xbe0cbfe0	-0.1374507
203	0xbdac59f0	-0.08415592
204	0x3da518b0	0.080613494
205	0xbd05b0ac	-0.03263919
206	0x3e0d9956	0.13828024
207	0xbcba28c5	-0.022724519
208	0xbd7dd09f	-0.061966535
209	0xbe350a2b	-0.1767966
210	0x3cfeafa2	0.031089608
211	0xbe0c4277	-0.1369723
212	0xbe21e713	-0.15810804
213	0x3c890c01	0.016729357
214	0x3de3aeca	0.11117323
215	0xbd86b2cd	-0.06577072
216	0x3d347a6e	0.04406207
217	0xbd65b337	-0.056079116
218	0xbdba7d46	-0.09105925
219	0xbd86ae53	-0.065762185
220	0x3da97b8f	0.0827552
221	0x3d7430b7	0.05961677
222	0xbd806013	-0.06268325
223	0xbe0ee79f	-0.13955544
224	0xbdecc686	-0.11561303
225	0x3e1fa9cb	0.15592115
226	0x3debfbc1	0.115226276
227	0x3e06496d	0.13113947
228	0x3e117642	0.14205268
229	0xbd5361eb	-0.051607054
230	0x3dc5f2ed	0.09665475
231	0x3ddf04bc	0.10889575
232	0xbde497a4	-0.11161736
233	0xbd8498fc	-0.06474492
234	0xbdebf266	-0.11520843
235	0xbd420273	-0.047365617
236	0x3dd8ceed	0.10586343
237	0x3c32a964	0.010904644
238	0x3be6dd31	0.007045411
239	0xbc973b0e	-0.018460777
240	0xbdf5b50b	-0.11997422
241	0x3d764dc7	0.060132768
242	0x3da172c4	0.07883218
243	0x3dc8a224	0.09796551
244	0xbe04bf55	-0.12963612
245	0x3ddf666f	0.109082095
246	0x3e2bd575	0.16780646
247	0x3d1e32e7	0.038622763
248	0x3dcb776c	0.09934887
249	0xbc9ab65b	-0.018885782
250	0xbe2b394c	-0.16721076
251	0xbe0c3e56	-0.13695654
252	0x3d418da6	0.047254227
253	0x3d5cad6c	0.053876325
254	0x3e12efe3	0.14349322
255	0x3d67ba48	0.056574136

bias f4 [20]
0	0x3d135258	0.0359672
1	0xbd743e0a	-0.059629478
2	0xbd9007a6	-0.07032709
3	0xbd27d348	-0.040972978
4	0xbd3f89dd	-0.046762336
5	0x3caf08f1	0.021366568
6	0x3d339ed3	0.04385264
7	0x3c4c1c0d	0.01245786
8	0x3c572291	0.0131308
9	0xbd886138	-0.06659168
10	0x3d8211c0	0.06351042
11	0xbd2f34e3	-0.042775046
12	0x3bf7b53d	0.007559447
13	0xbc82e84c	-0.015979908
14	0xbc5f3c4a	-0.013625214
15	0x3d3e8c5b	0.046520572
16	0xbd91591a	-0.07097073
17	0x3d8e54d9	0.06949777
18	0xbd676304	-0.056490913
19	0x3cb680a5	0.02227814

att f4 [1, 1, 20]
0	0x3e0deee0	0.13860655
1	0xbee26434	-0.44217074
2	0x3f079609	0.5296331
3	0xbdb31d4a	-0.08745821
4	0x3dc5e394	0.09662548
5	0x3e343ad4	0.17600566
6	0xbe5552fd	-0.20832439
7	0x3ed86030	0.42260885
8	0xbbac9958	-0.0052673034
9	0x3d37c799	0.044868086
10	0xbf00fa94	-0.5038235
11	0x3d8e10cf	0.069368
12	0x3e3c4441	0.18385412
13	0x3da1f63f	0.07908296
14	0xbd734275	-0.05938955
15	0x3ed05bda	0.40695077
16	0x3ed2db3d	0.4118289
17	0x3ebfb969	0.37446144
18	0xbdb74568	-0.08948785
19	0x3db9afa5	0.09066705

bias f4 [20]
0	0x3bfd34f9	0.007727262
1	0x3c1cee33	0.0095782755
2	0x3c5d5c49	0.013510772
3	0x3c734a16	0.014849206
4	0x3c212ac7	0.009836859
5	0x3c069959	0.008215272
6	0x3c6bbf76	0.01438891
7	0xbc7e40ff	-0.015518426
8	0xbc2aecad	-0.0104324045
9	0xbb4fa770	-0.0031685494
10	0x3cc609ae	0.024174538
11	0xbc129e9c	-0.008948948
12	0x3c232150	0.009956673
13	0xbbd5a327	-0.0065196934
14	0x3c5d1f90	0.013496295
15	0xbcd29f41	-0.025710704
16	0xbcbbd21b	-0.022927335
17	0x3b9ff798	0.0048818104
18	0xbc8a1ede	-0.016860422
19	0xbbff21d0	-0.007786013

weight f4 [20, 163]
0	0xbd6fdd22	-0.058560498
1	0x3e317a3f	0.1733179
2	0xbe1e25e1	-0.15444137
3	0xbd9a689a	-0.075394824
4	0x3b117c69	0.0022199398
5	0xbe02b374	-0.12763768
6	0x3cf37a06	0.029721271
7	0x3dfa53c1	0.12223006
8	0xbb86c920	-0.0041133314
9	0xbddfb2bf	-0.10922765
10	0xbda4edac	-0.08053145
11	0x3c953408	0.018213287
12	0x3e35fffb	0.1777343
13	0xbde0786b	-0.10960468
14	0x3c7fc8a2	0.015611799
15	0xbda97b5d	-0.08275483
16	0xbcd495c8	-0.025950328
17	0xbcfa0f15	-0.03052477
18	0x3d05252d	0.032506157
19	0x3e07397f	0.13205527
20	0xbe21f755	-0.15817006
21	0xbe18c581	-0.14919092
22	0x3e3e1803	0.18563847
23	0xbdda0ec2	-0.10647346
24	0x3cf6b7b2	0.03011689
25	0x3e2afef6	0.16698822
26	0x3cebeb99	0.028798865
27	0xbd579d76	-0.0526404
28	0x3e1e19e8	0.1543957
29	0x3dcd2c90	0.10018265
30	0xbc5efafa	-0.013609642
31	0x3db62bed	0.08895097
32	0x3d06359a	0.032765962
33	0xbda8eecf	-0.08248674
34	0xbe044f2e	-0.1292083
35	0xbe056572	-0.1302698
36	0xbd82cb9b	-0.06386491
37	0xbcff8018	-0.03118901
38	0x3d38a9da	0.045083858
39	0xbdaf1a6c	-0.085499614
40	0xbda13d09	-0.0787297
41	0x3c952669	0.018206792
42	0x3d8a4724	0.0675185
43	0x3d04b87a	0.032402493
44	0xbc2d2f51	-0.010570363
45	0x3d97a2b7	0.07404082
46	0xbe23eb0c	-0.16007632
47	0x3e2fc4a6	0.17164859
48	0xbdbb94ed	-0.09159265
49	0xbc854d2b	-0.016272148
50	0x3e1994d8	0.14998186
51	0x3d80e509	0.06293685
52	0x3e3a7c67	0.18211518
53	0xbd2c3e55	-0.042051632
54	0x3d4e2a55	0.05033334
55	0x3cec4ae2	0.0288443
56	0x3dfef965	0.12449912
57	0xbe027e18	-0.12743413
58	0x3d56e391	0.052463118
59	0x3d0b7c20	0.03405392
60	0x3e0b5ed1	0.13610388
61	0xbcfc5c1d	-0.030805642
62	0xbdc96639	-0.098339505
63	0xbca4da65	-0.02012367
64	0xbdef153c	-0.11673972
65	0xbe0fe4bb	-0.14052097
66	0xbde38ed7	-0.11111229
67	0xbe0ebadd	-0.1393847
68	0x3dbc1275	0.09183208
69	0x3e19f753	0.15035753
70	0xbd8ca1a3	-0.06866767
71	0x3e15fd59	0.14647426
72	0x3e31b86d	0.17355509
73	0xbc599e20	-0.013282329
74	0xbe343f94	-0.17602378
75	0xbdc416a4	-0.09574631
76	0xbae67bf5	-0.001758455
77	0x3d8f5293	0.06998172
78	0x3e27eaff	0.16398238
79	0xbd7a3df2	-0.061094232
80	0xbce476cd	-0.02788868
81	0x3d2a0849	0.041511808
82	0xbcc8fa59	-0.024533438
83	0xbdccf4b5	-0.10007612
84	0x3d41e89a	0.047340967
85	0x3e213f36	0.1574677
86	0xbdf04116	-0.11731164
87	0x3d280e39	0.04102919
88	0x3dc08888	0.09401041
89	0xbb0ec7a2	-0.002178647
90	0x3dab598f	0.08366691
91	0xbdd3d680	-0.10343647
92	0x3e487ebc	0.19579595
93	0x3d1beb3b	0.03806613
94	0xbde3cf6f	-0.11123549
95	0xbe42c16a	-0.19019094
96	0xbd94f73c	-0.07273719
97	0x3e2c508f	0.16827606
98	0xbd12d6ab	-0.035849255
99	0x3e18517b	0.14874832
100	0x3e14047a	0.14454833
101	0x3dd3f34e	0.10349141
102	0x3d0ba1f6	0.034090005
103	0x3d4ff38e	0.05076938
104	0x3d83819d	0.06421206
105	0xbc42e43c	-0.011895236
106	0x3df7619a	0.12079163
107	0xbd47db7e	-0.04879331
108	0xbdc3bae5	-0.09557132
109	0xbe204d4a	-0.15654483
110	0xb9be4d33	-0.00036297142
111	0x3e0dbab8	0.13840759
112	0xbe17ff64	-0.14843518
113	0xbc1cae0d	-0.009562981
114	0x3d6607ef	0.05615991
115	0x3d97af9d	0.074065425
116	0xbdc28982	-0.09498884
117	0x3d30ca3b	0.043161612
118	0xbd9bcbef	-0.076072566
119	0xbdc756b6	-0.09733336
120	0x3cc2a0c3	0.023758298
121	0xbe1b4e76	-0.15166649
122	0xbc7f496f	-0.015581473
123	0x3e046e96	0.1293281
124	0xbd360723	-0.0444404
125	0x3dd41c58	0.10356969
126	0x3e30b63f	0.17257021
127	0xbd92faa3	-0.071767114
128	0x3e36ef86	0.17864808
129	0xbe0c6c71	-0.13713242
130	0xbdd4581a	-0.103683665
131	0x3ddb77a2	0.107161775
132	0x3e2c29d0	0.16812825
133	0xbcd83482	-0.026392225
134	0xbcf8d50d	-0.030375028
135	0xbdd320e4	-0.10309008
136	0xbe26634c	-0.16248816
137	0xbe337d34	-0.1752823
138	0x3e2ddf8e	0.1697981
139	0xbe048b0b	-0.12943666
140	0x3d0a5c05	0.033779163
141	0x3dc6514b	0.09683474
142	0x3e3e05f2	0.18556955
143	0xbe17a04d	-0.14807244
144	0xbbb192b3	-0.0054190992
145	0xbdd75565	-0.105143346
146	0xbde4b869	-0.11167986
147	0x3d310052	0.043213196
148	0x3d40150b	0.04689507
149	0x3abfb857	0.0014627081
150	0x3e200918	0.15628469
151	0x3dc9b85d	0.09849618
152	0x3e04b4ea	0.12959638
153	0x3da7afb6	0.08187811
154	0x3e049900	0.1294899
155	0xbdd9009c	-0.10595819
156	0x3e013f44	0.1262179
157	0xbde1e725	-0.110304154
158	0x3cfdae9a	0.030967046
159	0x3e1481fe	0.14502713
160	0x3dcd8a54	0.100361496
161	0x3e275cca	0.1634399
162	0x3c852ce6	0.01625676
163	0x3d3c0e30	0.045911968
164	0xbd7d728f	-0.06187683
165	0xbdb0f79d	-0.086409785
166	0xbd305fac	-0.04305999
167	0xbde29f09	-0.1106549
168	0x3dbb64de	0.09150098
169	0xbd4c8f83	-0.04994155
170	0xbe2bf86f	-0.16793989
171	0x3e2a8aec	0.16654557
172	0xbdb81253	-0.0898787
173	0x3e1cefb1	0.1532581
174	0xbe2407b9	-0.16018571
175	0x3de3296c	0.11091885
176	0xbe116110	-0.14197183
177	0xbe25fc35	-0.1620949
178	0x3d7f7b45	0.06237342
179	0x3e005ec6	0.12536153
180	0xbe31906e	-0.17340252
181	0x3dd944b5	0.10608808
182	0xbe20baec	-0.15696305
183	0xbddf6762	-0.109083906
184	0x3da2c8c2	0.07948448
185	0x3d2abc57	0.04168352
186	0x3d26c042	0.040710695
187	0xbdb13c25	-0.0865405
188	0x3db327b0	0.08747804
189	0x3e1f4c18	0.15556371
190	0x3db6d3f8	0.089271486
191	0xbdb8e750	-0.09028494
192	0xbe3276e4	-0.17428166
193	0xbe02d1ae	-0.12775299
194	0x3dd54cee	0.10415064
195	0x3e133ba1	0.14378215
196	0x3d8b5376	0.06803028
197	0xbc82b1ce	-0.015953925
198	0xbde64f6d	-0.11245618
199	0xbdcd26fd	-0.10017202
200	0x3e285133	0.16437225
201	0xbc034a71	-0.008013354
202	0x3e01dae2	0.12681153
203	0x3e12f9b2	0.14353064
204	0xbcc62250	-0.024186283
205	0xbde0d3f3	-0.10977926
206	0xbe3fe1ac	-0.1873843
207	0xbdac110e	-0.084016904
208	0xbd4c424b	-0.04986791
209	0xbd710732	-0.058844753
210	0xbd623852	-0.055229492
211	0x3d8561ae	0.065127715
212	0xbd495949	-0.049157415
213	0x3d6ca7f0	0.057777345
214	0xbe2f5f3b	-0.17126171
215	0xbd0c2c85	-0.034222145
216	0x3e06e0bc	0.13171667
217	0xbe12dd38	-0.14342201
218	0x3c629c8a	0.013831267
219	0xbd7dc9c6	-0.061960004
220	0x3c7123be	0.014717994
221	0xbcc31733	-0.023814773
222	0x3dc8de75	0.09808055
223	0x3dbd2b2a	0.092367485
224	0x3d8a8fae	0.06765686
225	0xbd86411d	-0.06555388
226	0x3d343d8b	0.044004004
227	0x3c799886	0.015234118
228	0x3e0e68f8	0.1390723
229	0xbd59eaac	-0.053202316
230	0x3cfbaede	0.030723032
231	0x3e301a39	0.17197503
232	0x3c9412f5	0.018075446
233	0xbc9799d2	-0.018505964
234	0xbdb8e462	-0.090279356
235	0x3cb5b662	0.022181693
236	0x3d6d04e7	0.057866003
237	0xbdf69e2b	-0.12041887
238	0xbdda0f3f	-0.10647439
239	0xbe278a8e	-0.16361448
240	0x3cfb940d	0.030710245
241	0x3e3aca25	0.18241175
242	0x3d81f220	0.0634501
243	0x3d297dd6	0.041379772
244	0x3e17f1fb	0.14838402
245	0xbd9760a1	-0.073914774
246	0x3e2cd807	0.16879283
247	0x3e10cca1	0.1414056
248	0x3ce9875f	0.028506933
249	0xba9f6926	-0.0012162074
250	0x3dd28b2d	0.10280452
251	0x3e22f598	0.15913999
252	0x3dafadf0	0.08578098
253	0x3c781aa9	0.015143075
254	0x3de2df46	0.11077742
255	0x3e0fb023	0.14032035

bias f4 [20]
0	0xbce0dc3a	-0.027448762
1	0xbcc1ac54	-0.023641743
2	0x3cd59777	0.0260732
3	0xbd280a59	-0.041025493
4	0xbd781cd8	-0.060574383
5	0xbd2c9a20	-0.042139173
6	0xbd32bff3	-0.04364009
7	0xbd973aeb	-0.073842846
8	0xbd3fd75f	-0.046836253
9	0x3d0a764b	0.03380422
10	0x3da7f64f	0.082012765
11	0xbd3c377e	-0.04595136
12	0xbc080645	-0.008302276
13	0xbda2d269	-0.07950289
14	0xbba8cfe1	-0.005151734
15	0x3d4546bf	0.04816317
16	0xbd66ce2a	-0.056348957
17	0x3d00d343	0.031451475
18	0x3d82e232	0.063907996
19	0x3cab2d26	0.020895552

weight f4 [20, 9]
0	0xbe7fba33	-0.24973373
1	0x3d9ba6db	0.076001845
2	0xbd6d182a	-0.057884373
3	0x3d7c5a77	0.06160971
4	0xbec82e82	-0.39097983
5	0x3edfd66a	0.43718272
6	0x3d6d65bf	0.05795836
7	0xbee8c00b	-0.45459017
8	0x3d3353a7	0.04378095
9	0x3edc278e	0.42998928
10	0xbe565a0f	-0.20932792
11	0x3e7efb78	0.24900615
12	0x3eb61303	0.3556138
13	0x3ca781b4	0.02044759
14	0x3e0eb6d1	0.13936926
15	0x3ee14f56	0.4400584
16	0xbe14675c	-0.14492553
17	0xbe2f9d0e	-0.17149755
18	0x3e8a68d2	0.27033097
19	0x3de19f6d	0.11016736
20	0x3e0c4665	0.13698728
21	0x3d6aaa3b	0.05729125
22	0x3ea4d68e	0.32194942
23	0xbedbf4f9	-0.42960337
24	0xbcae37d2	-0.021266852
25	0xbdb62689	-0.08894069
26	0x3d1a2ed5	0.03764232
27	0x3e0afe37	0.13573538
28	0x3eb43de2	0.35203463
29	0x3e39d616	0.18148074
30	0xbe1ec891	-0.15506198
31	0x3e7b37a0	0.24532938
32	0xbedf23ee	-0.435821
33	0xbe090010	-0.1337893
34	0x3e772521	0.24135257
35	0xbea9e3fb	-0.33181748
36	0x3edbb9ee	0.4291529
37	0x3ed55bd3	0.4167162
38	0xbe15c037	-0.14624105
39	0x3e1c5a3e	0.152688
40	0xbcb92287	-0.022599472
41	0x3e539c7b	0.20665161
42	0xbed4a374	-0.41530955
43	0x3edd69a9	0.43244675
44	0xbe862d54	-0.26206458
45	0xbe9af5de	-0.30265707
46	0x3e5f3d96	0.21800837
47	0x3dbb0dc7	0.09133487
48	0x3dc513b8	0.09622902
49	0x3d2e3855	0.04253419
50	0xbed61fa6	-0.4182102
51	0x3e12866f	0.14309095
52	0x3dc74c4b	0.097313486
53	0x3ebd4198	0.36964107
54	0x3e6b2178	0.22961986
55	0xbd0f1661	-0.03493345
56	0xbe66466c	-0.22487801
57	0x3eb0ba75	0.34517255
58	0x3dc4c38d	0.09607611
59	0x3e14132f	0.14460443
60	0x3dc96763	0.098341726
61	0x3ec308c6	0.3809263
62	0x3e2003cb	0.15626447
63	0xbedf1c7f	-0.43576428
64	0x3e6dc0c3	0.23218064
65	0xbd20a5ce	-0.039220624
66	0xbeb6ab57	-0.35677597
67	0x3e52ab14	0.20573074
68	0xbe24fd93	-0.16112356
69	0xbe57bf1b	-0.21068995
70	0xbec09f86	-0.37621707
71	0x3dc9c468	0.09851915
72	0x3e8edc31	0.27902368
73	0xbe4c797a	-0.19968215
74	0x3d586173	0.05282731
75	0xbe0360c1	-0.12829877
76	0x3ece29b8	0.40266204
77	0xbdc870ff	-0.09787177
78	0x3ca88691	0.020571979
79	0xbdd02379	-0.10163016
80	0xbe4e9be7	-0.2017666
81	0x3e2f5452	0.1712201
82	0x3ed5576f	0.4166827
83	0xbeb0d037	-0.34533855
84	0x3ed9092e	0.42389816
85	0xbe92dafb	-0.28682694
86	0x3e186640	0.14882755
87	0x3e88aebc	0.26695812
88	0xbdbcc602	-0.092174545
89	0x3ebe0469	0.3711274
90	0x3eb05b45	0.34444633
91	0xbc989641	-0.018626334
92	0xbe1eb8a4	-0.15500122
93	0x3ec2d075	0.38049665
94	0xbe978062	-0.29590136
95	0xbe094294	-0.13404304
96	0x3edf0e84	0.43565762
97	0x3e966bea	0.29379207
98	0xbe68eed6	-0.22747359
99	0xbe8e9eb0	-0.27855444
100	0xbad3505d	-0.0016121973
101	0x3dbc2aa9	0.09187824
102	0xbceb74c2	-0.028742198
103	0x3e4ec50f	0.2019236
104	0x3cece73d	0.028918857
105	0xbe788664	-0.24270016
106	0x3e987aba	0.29781133
107	0x3e2fda88	0.17173207
108	0xbe66fa06	-0.22556314
109	0xbe226927	-0.15860425
110	0x3e9eb30a	0.3099597
111	0x3e42b133	0.19012909
112	0x3d848a23	0.0647166
113	0x3b4956c9	0.0030721894
114	0x3e354430	0.17701793
115	0x3bd7b2f4	0.006582612
116	0xbed724a5	-0.42020145
117	0x3e53ba3c	0.20676512
118	0xbe838cc3	-0.2569333
119	0x3d1e9e71	0.03872532
120	0xbd775092	-0.060379572
121	0xbee29249	-0.44252232
122	0x3d20e303	0.039278995
123	0xbe11be6c	-0.14232796
124	0xbd10da41	-0.035364393
125	0xbe9bc179	-0.30421045
126	0x3de55328	0.111975014
127	0xbe8ef200	-0.27919006
128	0xbecf90be	-0.40540117
129	0x3eab589b	0.33466038
130	0x3ead3408	0.3382876
131	0xbeb5a96c	-0.3548082
132	0xbed443c3	-0.41457948
133	0x3ee3315f	0.44373605
134	0x3dd28437	0.10279124
135	0xbe6fd38d	-0.23420544
136	0xbe9de719	-0.30840376
137	0x3d85f46f	0.06540763
138	0xbed41773	-0.4142414
139	0xbe1a0c9a	-0.1504387
140	0xbed91d23	-0.42405042
141	0xbee050a7	-0.43811533
142	0xbd941cbc	-0.07232043
143	0xbe63281c	-0.2218327
144	0x3d7ae490	0.06125313
145	0xbe9865ce	-0.2976517
146	0x3edb6a78	0.42854667
147	0xbdb8b66a	-0.09019168
148	0x3e2f1b14	0.17100173
149	0x3ec19b39	0.37813738
150	0x3d99ddab	0.07512983
151	0x3ee2f183	0.44324884
152	0xbcfce023	-0.030868595
153	0x3ee3b1e5	0.4447166
154	0x3ebed16e	0.37269157
155	0x3c907529	0.017633991
156	0x3e71daee	0.23618671
157	0xbe8bcc2c	-0.27304208
158	0x3dd44a23	0.10365703
159	0xbdaca57b	-0.084300004
160	0x3e2615bf	0.16219233
161	0x3e5c63de	0.21522471
162	0x3cbeca3d	0.023289794
163	0xbe4622c2	-0.19349197
164	0x3ed1610e	0.4089436
165	0xbe8cc0e0	-0.27490902
166	0x3ece2ff6	0.40270966
167	0xbdc5f39c	-0.096656054
168	0xbe5add5b	-0.21373503
169	0xbd4a95de	-0.04945933
170	0xbe38302d	-0.17987128
171	0xbe52058c	-0.20509928
172	0x3e1d1ebe	0.15343758
173	0x3e9c0e20	0.30479527
174	0xbdec0974	-0.115252405
175	0x3cc230e3	0.023704952
176	0xbda5fc63	-0.081047796
177	0x3d52a252	0.051424332
178	0xbe50ed5f	-0.2040305
179	0xbe540bdd	-0.2070765

bias f4 [20]
0	0xbdc16298	-0.094426334
1	0xbe09689f	-0.13418816
2	0xbde90fde	-0.113799796
3	0xbd8cb046	-0.06869559
4	0x3db86820	0.09004235
5	0xbd685326	-0.05671992
6	0xbe285186	-0.16437349
7	0x3e4db5a6	0.20088825
8	0xbe1733b2	-0.14765814
9	0x3e9f411e	0.31104368
10	0x3e2b2b76	0.16715798
11	0x3ea4afa2	0.32165247
12	0x3e7ac20b	0.24488084
13	0x3e123753	0.14278917
14	0xbe3b9676	-0.18319115
15	0xbe869abc	-0.26289928
16	0xbe855301	-0.2603989
17	0x3e06621b	0.13123362
18	0xbe87479f	-0.2642183
19	0xbc959f96	-0.018264573

att f4 [1, 1, 20]
0	0xbec00e40	-0.37510872
1	0xbec81cf0	-0.39084578
2	0xbdb2597b	-0.08708473
3	0x3d5c3ced	0.05376904
4	0xbea380d7	-0.31934234
5	0xbee746ff	-0.45171353
6	0x3e73aea7	0.23797093
7	0x3e4284db	0.18995993
8	0xbeb4b7e0	-0.35296535
9	0x3eba878f	0.36431548
10	0xbec897da	-0.39178354
11	0x3ed0abb3	0.40755996
12	0x3e8faf89	0.2806361
13	0xbe32dfed	-0.17468233
14	0x3f01a830	0.5064726
15	0xbe9a5319	-0.30141523
16	0xbe754578	-0.23952281
17	0x3ed55dfb	0.41673264
18	0xbe135f95	-0.1439193
19	0xbe586787	-0.21133243

bias f4 [20]
0	0x3bfd34f9	0.007727262
1	0x3c1cee33	0.0095782755
2	0x3c5d5c49	0.013510772
3	0x3c734a16	0.014849206
4	0x3c212ac7	0.009836859
5	0x3c069959	0.008215272
6	0x3c6bbf76	0.01438891
7	0xbc7e40ff	-0.015518426
8	0xbc2aecad	-0.0104324045
9	0xbb4fa770	-0.0031685494
10	0x3cc609ae	0.024174538
11	0xbc129e9c	-0.008948948
12	0x3c232150	0.009956673
13	0xbbd5a327	-0.0065196934
14	0x3c5d1f90	0.013496295
15	0xbcd29f41	-0.025710704
16	0xbcbbd21b	-0.022927335
17	0x3b9ff798	0.0048818104
18	0xbc8a1ede	-0.016860422
19	0xbbff21d0	-0.007786013

weight f4 [20, 9]
0	0x3d28be20	0.041196942
1	0x3e31d002	0.17364505
2	0xbdb37a58	-0.087635696
3	0x3dd6f896	0.10496633
4	0xbeb806a5	-0.3594257
5	0x3d6d5071	0.057938043
6	0x3a73cde9	0.00093003974
7	0x3c02c4a2	0.007981451
8	0xbd1a2e6f	-0.03764194
9	0x3deba5ec	0.115062565
10	0xbee20a9d	-0.44148722
11	0xbd7b053e	-0.061284296
12	0x3ea468a3	0.3211108
13	0x3df48054	0.11938539
14	0xbe5ceb3f	-0.21574114
15	0xbe805a80	-0.25069046
16	0x3da6f514	0.08152214
17	0xbeb9ddc3	-0.36302003
18	0x3eaedff5	0.3415524
19	0x3e77f2e2	0.24213746
20	0xbec98d78	-0.39365745
21	0x3eacafc0	0.33727837
22	0x3e1f78f0	0.15573478
23	0x3eb24bfc	0.34823596
24	0x3da468c5	0.08027796
25	0x3ed80997	0.42194816
26	0xbeb60345	-0.3554937
27	0xbee66715	-0.4500052
28	0xbe0920cf	-0.13391422
29	0xbde611e0	-0.11233878
30	0x3ee9e951	0.4568582
31	0x3ed7aa65	0.42122188
32	0xbcb6749d	-0.022272402
33	0x3d969c06	0.07353978
34	0x3eb9a423	0.3625804
35	0x3de38959	0.11110181
36	0xbe70640e	-0.23475668
37	0x3d200177	0.039063897
38	0xbedb75cb	-0.42863306
39	0xbeae8b5e	-0.34090704
40	0xbd5d3348	-0.054003984
41	0x3ecab345	0.39589897
42	0xbe4edec6	-0.20202169
43	0xbdc641c7	-0.09680515
44	0x3eecd97c	0.46259677
45	0xbecb9a35	-0.39766088
46	0x3ed0d9b7	0.40791103
47	0xbe46605e	-0.19372699
48	0xbededd53	-0.43528232
49	0x3e1aa851	0.1510327
50	0x3eb6d5ab	0.3570989
51	0x3df75e80	0.12078571
52	0xbecca87a	-0.39972287
53	0xbe7fc4df	-0.24977444
54	0xbecac2dd	-0.39601794
55	0xbed7948e	-0.42105526
56	0xbe53d4cf	-0.20686649
57	0x3d5d3c91	0.05401284
58	0x3e794206	0.24341592
59	0xbd0968cd	-0.03354721
60	0x3e84dff3	0.2595211
61	0x3eadab9a	0.33919984
62	0xbeb78e52	-0.3585077
63	0xbe9abc31	-0.30221704
64	0xbb354302	-0.0027658348
65	0x3e9fee48	0.31236482
66	0x3e19db94	0.15025169
67	0x3cc086b8	0.023501739
68	0xbe6d23dc	-0.2315821
69	0x3e9f5a09	0.3112338
70	0xbea32b4f	-0.3186898
71	0xbe08c9aa	-0.13358179
72	0xbc82d521	-0.015970768
73	0x3d869bfe	0.06572722
74	0x3e7f30e9	0.24921001
75	0xbc85fa04	-0.016354568
76	0xbe85d351	-0.26137784
77	0x3eb76369	0.3581803
78	0xbe759f4f	-0.23986553
79	0x3dd99b51	0.106253274
80	0xbdc4bccf	-0.09606325
81	0x3d73ac04	0.05949022
82	0xbe7efbec	-0.24900788
83	0x3e153813	0.14572172
84	0x3e91ab55	0.28451028
85	0x3e01dff9	0.12683095
86	0xbebbdc58	-0.36691546
87	0xbe81ab14	-0.25325835
88	0xbd37df3b	-0.044890624
89	0xbe5c6dbf	-0.2152624
90	0x3e6367a6	0.22207507
91	0x3e2b86a0	0.16750574
92	0x3e37bd72	0.17943361
93	0xbec7381c	-0.38909996
94	0x3eec6d6d	0.46177235
95	0xbe7a1dd7	-0.24425445
96	0x3def324a	0.11679514
97	0x3e71d96d	0.23618098
98	0xbe172ba9	-0.14762749
99	0x3e2a61fe	0.16638944
100	0x3e5e1a5b	0.21689741
101	0xbeae2a70	-0.34016752
102	0x3c5f8d73	0.013644564
103	0xbcc233bf	-0.023706315
104	0x3de8cbbe	0.11366986
105	0xbee6c485	-0.45071808
106	0xbec8e2d9	-0.3923557
107	0x3e956cce	0.29184574
108	0xbe222f3f	-0.15838335
109	0x3eb51302	0.35366064
110	0xbe962662	-0.2932616
111	0x3eb8fce4	0.3613044
112	0xbc7be8d3	-0.015375334
113	0x3e9d61af	0.3073859
114	0x3cd440a4	0.02590973
115	0xbec70056	-0.38867444
116	0xbedfbcb6	-0.43698663
117	0x3e68df80	0.22741508
118	0x3e9f821f	0.31153962
119	0xbeeace71	-0.45860627
120	0xbe18f07d	-0.14935489
121	0x3d953e01	0.07287217
122	0x3e483763	0.19552378
123	0x3eabddf6	0.3356778
124	0x3e8f23b2	0.2795692
125	0x3e475e71	0.1946962
126	0xbdbb0e27	-0.09133559
127	0x3e87518c	0.26429403
128	0x3e745c8a	0.23863426
129	0xbe339f0d	-0.17541142
130	0xbcf6336c	-0.030053817
131	0x3e88268d	0.26591912
132	0x3ec41973	0.38300666
133	0xbe332058	-0.17492807
134	0xbe95b0c4	-0.29236424
135	0x3d08bdf6	0.033384286
136	0x3e810500	0.25199127
137	0x3d9f6323	0.07782581
138	0xbea89557	-0.32926437
139	0xbeda022a	-0.42579776
140	0xbdcb4420	-0.09925103
141	0x3e233c94	0.15941077
142	0xbd9d347e	-0.07676028
143	0x3d8083a9	0.06275112
144	0x3ec5d3ea	0.3863824
145	0xbe16ea64	-0.1473785
146	0xbed9edd3	-0.42564258
147	0x3e9b648b	0.30350146
148	0x3d62a6a8	0.055334717
149	0x3ea9b4db	0.33145794
150	0xbed1c87b	-0.40973267
151	0x3e6af9c0	0.22946835
152	0x3ebb9992	0.36640602
153	0xbdc2bc6c	-0.09508595
154	0xbe869516	-0.2628562
155	0xbed8f780	-0.42376328
156	0xbcc454ee	-0.023966279
157	0xbeae0a03	-0.33992013
158	0xbecb676c	-0.39727342
159	0x3eaeab13	0.34114894
160	0x3ed7b20e	0.42128032
161	0x3eb3a057	0.35083267
162	0xbe839e30	-0.25706625
163	0x3dfed5d1	0.12443126
164	0xbe7adf71	-0.24499299
165	0xbed41efd	-0.41429892
166	0xbe1e0cc6	-0.1543456
167	0x3e371609	0.178795
168	0xbdff651c	-0.12470457
169	0xbe37cb8e	-0.17948744
170	0x3d89308d	0.066987135
171	0x3e3638ef	0.17795156
172	0xbe0797e9	-0.13241543
173	0xbe1c6898	-0.15274274
174	0xbd90f02f	-0.070770614
175	0xbeeb3477	-0.45938465
176	0x3e901b43	0.281458
177	0xbeb5662e	-0.3542952
178	0x3e365318	0.17805135
179	0xbe49d67c	-0.19710726

bias f4 [20]
0	0xbe17989c	-0.1480431
1	0xbe8bfb4f	-0.2734017
2	0xbdfe5deb	-0.12420257
3	0x3c874fdd	0.016517574
4	0x3d074661	0.033026103
5	0x3c07c30b	0.008286248
6	0xbe75f5a3	-0.24019484
7	0xbe3544c7	-0.17702018
8	0x3e8a5601	0.2701874
9	0xbe950dfe	-0.29112238
10	0x3d828c1b	0.06374379
11	0xbe2345b1	-0.15944554
12	0xbd966de7	-0.07345181
13	0x3e332571	0.17494752
14	0xbd2633f5	-0.040576894
15	0x3e03cbb1	0.12870671
16	0x3b7bf5a6	0.0038445978
17	0x3e5dd3e3	0.2166286
18	0xbe910765	-0.28325954
19	0xbdc359d6	-0.09538619

weight f4 [20, 9]
0	0x3c89b2ff	0.016808985
1	0xbe0a5799	-0.13509978
2	0xbea3c712	-0.31987816
3	0x3dec2c45	0.11531881
4	0xbea89b17	-0.32930824
5	0x3d1d05c2	0.03833557
6	0x3dacb095	0.08432118
7	0x3ecb2736	0.39678353
8	0xbe7cf9d1	-0.24704672
9	0x3e1335d7	0.14376007
10	0x3eb25684	0.3483163
11	0xbe1f311a	-0.15546075
12	0xbe06147a	-0.13093749
13	0x3e3fb8e4	0.18722874
14	0xbe0da8ac	-0.13833874
15	0x3d416fbe	0.047225706
16	0xbe438b2f	-0.19096063
17	0x3bd56dd0	0.006513335
18	0xbee68d66	-0.45029753
19	0xbe40e0d0	-0.18835759
20	0xbe7299e7	-0.23691522
21	0xbebcd273	-0.3687931
22	0x3db2835a	0.087164596
23	0x3ea30c45	0.31845298
24	0xbe4eb5b9	-0.20186509
25	0xbe5f9a5f	-0.21836232
26	0x3d4b8d6d	0.04969542
27	0x3e998f01	0.29991916
28	0xbe7db8bf	-0.24777506
29	0x3be2589e	0.0069075366
30	0xbdc3c8c5	-0.09559778
31	0x3e116973	0.14200382
32	0xbe79a024	-0.24377495
33	0xbed18b98	-0.40926814
34	0xbece477b	-0.4028891
35	0xbe654c37	-0.22392355
36	0x3eda563c	0.42643917
37	0xbd96d6c8	-0.07365185
38	0x3eb0de8f	0.345448
39	0xbe1ec797	-0.15505825
40	0xbd6bdb02	-0.05758191
41	0x3eadf2cc	0.33974302
42	0xbeacfa22	-0.33784586
43	0xbe7aba27	-0.24485074
44	0xbb8e0bd6	-0.004334907
45	0xbeb6c941	-0.3570042
46	0x3ea73e5e	0.3266477
47	0x3e891819	0.26776198
48	0xbede93f3	-0.4347225
49	0xbeac723c	-0.33680904
50	0x3e64e8f4	0.2235449
51	0x3d36cbd2	0.044627972
52	0x3dcf35e6	0.10117702
53	0xbe1b67b5	-0.1517628
54	0xbe9229d8	-0.2854755
55	0xbe22cc21	-0.15898181
56	0xbdd5bbd0	-0.10436213
57	0x3e9aed7d	0.30259314
58	0x3ec55859	0.38543966
59	0x3ec66715	0.3875052
60	0xbe8ac65d	-0.27104464
61	0x3e224c75	0.15849479
62	0x3cdd7b8f	0.027036456
63	0xbedce8f4	-0.4314648
64	0x3ecc0743	0.3984929
65	0xbeaadc16	-0.33371037
66	0xbee3e0dd	-0.44507495
67	0xbee4e8d9	-0.447089
68	0x3e244ffb	0.16046135
69	0x3e2e3350	0.17011762
70	0x3eb4bded	0.35301152
71	0xbea9ee0b	-0.33189425
72	0xbd8d8150	-0.0690943
73	0xbed72cae	-0.42026275
74	0xbe811936	-0.25214547
75	0x3d987e9a	0.07446022
76	0x3ede71ec	0.4344629
77	0xbe59f5d0	-0.21285176
78	0xbe65259c	-0.22377628
79	0xbee14e77	-0.44005176
80	0x3edf872d	0.43657818
81	0x3e13b566	0.14424667
82	0x3ee8cc56	0.45468396
83	0x3e34bbd7	0.1764978
84	0x3e8403fa	0.25784284
85	0x3ec89be1	0.39181426
86	0xbda7fc28	-0.08202392
87	0x3e9dc0eb	0.30811247
88	0xbe8fbbd5	-0.28072992
89	0xbec1f53a	-0.37882406
90	0xbd7408a7	-0.059578564
91	0x3e970b43	0.2950078
92	0xbedbc44c	-0.429232
93	0xbe715e09	-0.23571028
94	0x3dd80cdd	0.105493285
95	0x3ee5fbf1	0.4491878
96	0xbdae616d	-0.08514676
97	0xbea4b357	-0.32168075
98	0xbe04ab88	-0.12956059
99	0xbe3c0fb9	-0.18365373
100	0xbe600ea9	-0.21880592
101	0xba0fca94	-0.00054852036
102	0xbed00c27	-0.40634272
103	0xbd90d3a2	-0.07071616
104	0xbdc9600f	-0.09832775
105	0x3e730c48	0.23735154
106	0xbd6b352e	-0.057423763
107	0x3e3a6aae	0.18204758
108	0x3e461624	0.19344383
109	0xbe8e30f8	-0.27771735
110	0xbedd8bd2	-0.43270737
111	0x3d2b5c9d	0.04183637
112	0x3c8a8f68	0.016914085
113	0x3e05f3e9	0.13081326
114	0x3e2f86bd	0.17141242
115	0x3e3ebdbe	0.18627068
116	0xbd6492cf	-0.05580407
117	0x3eaa2052	0.33227783
118	0xbe931688	-0.28728127
119	0x3e75a040	0.23986912
120	0x3ea77f32	0.3271423
121	0xbedcee6a	-0.43150645
122	0xbd2440a4	-0.04010071
123	0x3ec4c348	0.38430238
124	0x3de09bb1	0.10967196
125	0x3df93519	0.12168331
126	0x3e587076	0.2113665
127	0xbe33bb76	-0.1755198
128	0x3edb2aa5	0.42805973
129	0xbee23efe	-0.44188684
130	0xbec8cad3	-0.39217243
131	0x3d1f8000	0.03894043
132	0xbe07d1b2	-0.13263586
133	0x3eba90c5	0.36438575
134	0xbe96e1af	-0.29469058
135	0xbe696539	-0.2279252
136	0x3e09bc0b	0.13450639
137	0xbe12c4b4	-0.14332849
138	0x3db5abb9	0.08870644
139	0xbe77a7d0	-0.24185109
140	0x3e1de52c	0.15419453
141	0x3e955fe4	0.2917472
142	0xbdbd9a41	-0.09257937
143	0xbe9baec8	-0.30406785
144	0x3ec4f22b	0.3846601
145	0x3eb696c9	0.35661915
146	0xbdc85190	-0.09781182
147	0xbc6e71a9	-0.014553466
148	0xbe115f5c	-0.14196533
149	0x3e55b229	0.20868744
150	0x3e36d773	0.17855625
151	0x3e2774a0	0.16353083
152	0x3d98055a	0.07422896
153	0x3df31484	0.118691474
154	0x3d7479b1	0.059686366
155	0x3de03ef8	0.1094951
156	0x3eb12c8e	0.34604305
157	0x3ec9b1c5	0.3939344
158	0x3e67f349	0.226514
159	0xbee39d55	-0.44455972
160	0x3e9e7402	0.30947882
161	0xbdc00d83	-0.09377577
162	0xbe86aec1	-0.26305202
163	0xbe996e8a	-0.29967147
164	0x3c629c5c	0.013831224
165	0x3e2ee491	0.17079379
166	0x3c25bd1b	0.010115887
167	0xbe66fd92	-0.22557667
168	0x3e75992d	0.23984213
169	0x3dc684b2	0.09693278
170	0xbd9eedb0	-0.07760179
171	0xbea666eb	-0.32500395
172	0x3dc1d666	0.094647214
173	0xbd8c6e19	-0.06856937
174	0xbed0aca2	-0.40756708
175	0x3ea19f1e	0.3156671
176	0x3ed5f852	0.41791016
177	0x3e645197	0.22296749
178	0x3e19d7a4	0.15023667
179	0x3c7b8a13	0.015352744

bias f4 [20]
0	0xbdebcb1a	-0.11513348
1	0x3d303f4f	0.043029126
2	0xbe3819a2	-0.17978528
3	0xbe17b968	-0.1481682
4	0xbe26cecd	-0.16289826
5	0x3e71cdec	0.23613709
6	0x3e04969d	0.1294808
7	0xbe901add	-0.28145495
8	0xbe3c9a54	-0.18418247
9	0x3d166ff1	0.03672785
10	0x3e566824	0.20938164
11	0xbd7de138	-0.061982363
12	0x3e9288af	0.28619906
13	0x3e1e10a5	0.15436037
14	0xbdd44da2	-0.1036637
15	0xbcb53e4d	-0.022124434
16	0xbd24b4f0	-0.040211618
17	0xbe9b2faa	-0.30309802
18	0x3e9d067c	0.3066901
19	0x3e4bf411	0.19917323

att f4 [1, 1, 5]
0	0x3e1e7238	0.15473258
1	0xbe2d07f0	-0.16897559
2	0x3f21471a	0.6299912
3	0x3f510176	0.81642854
4	0x3ee3bf30	0.44481802

bias f4 [5]
0	0x3d4b0325	0.049563546
1	0x3cfc9644	0.030833371
2	0xbdc22ea4	-0.09481552
3	0xbde1c658	-0.11024159
4	0x3d170f16	0.03687962

weight f4 [5, 20]
0	0xbdd8fd9e	-0.10595249
1	0x3e828177	0.254894
2	0x3eaefce3	0.34177312
3	0x3ec70984	0.38874447
4	0xbdd3d98b	-0.103442274
5	0x3c0d3358	0.008618198
6	0x3ed88a7d	0.42293158
7	0xbe1f1f42	-0.15539268
8	0x3dae164f	0.08500349
9	0xbeb7e783	-0.35918817
10	0xbeb606ec	-0.35552156
11	0x3b9f1e74	0.004855925
12	0xbea365d7	-0.31913635
13	0xbefe8d9a	-0.49717408
14	0x3e9826be	0.29717058
15	0x3d916f36	0.0710129
16	0xbe877122	-0.264535
17	0xbe05dc53	-0.13072328
18	0xbdc99d37	-0.098444395
19	0xbe98c813	-0.29840145
20	0xbea8e428	-0.3298657
21	0xbe531c8a	-0.20616356
22	0x3e56e0d4	0.20984203
23	0xbe499fad	-0.19689818
24	0xbeb79678	-0.35856986
25	0xbf09ed3e	-0.5387763
26	0x3efd32fd	0.49452963
27	0x3e85a38e	0.26101345
28	0xbe4769e3	-0.19473986
29	0xbe37703d	-0.1791391
30	0xbccfac9d	-0.025350863
31	0x3e8add37	0.271219
32	0xbec5cf3c	-0.3863467
33	0xbe41a9f6	-0.18912491
34	0xbddd8917	-0.108171634
35	0xbe601d0d	-0.21886082
36	0xbe9d8561	-0.30765823
37	0xbd90128f	-0.0703479
38	0x3e83521e	0.25648588
39	0x3ec52c46	0.3851034
40	0x3e0d479a	0.13796845
41	0x3e911582	0.28336722
42	0xbe524720	-0.20534945
43	0xbf00a842	-0.5025674
44	0xbeb8bd37	-0.3608186
45	0xbecf3b1f	-0.40474793
46	0x3e52f4e5	0.20601232
47	0xbe9e4a48	-0.30916047
48	0xbe86e0ee	-0.26343483
49	0xbe9b5d17	-0.3034446
50	0xbef61592	-0.48063332
51	0x3eb1675c	0.3464917
52	0xbdb2dc69	-0.08733446
53	0xbd29f787	-0.041495826
54	0xbe80879a	-0.25103456
55	0x3e804369	0.2505143
56	0x3db70f82	0.08938505
57	0xbe7e2840	-0.24820042
58	0xbf044721	-0.51671034
59	0xbe4f8dbb	-0.2026891
60	0xbdc9b8d2	-0.09849705
61	0xbe43ee20	-0.19133806
62	0xbeae1fe3	-0.34008703
63	0xbebc18e0	-0.36737728
64	0x3e9818ad	0.29706326
65	0xbef11e28	-0.4709332
66	0xbedddf98	-0.4333465
67	0xbea1261c	-0.31474388
68	0x3ea3169d	0.3185319
69	0xbe3ef321	-0.18647434
70	0xbf1a335b	-0.6023461
71	0xbd1b703a	-0.037948824
72	0xbcd548f1	-0.026035758
73	0x3ea9cdd1	0.33164838
74	0xbd18200d	-0.03713994
75	0xbe9d538f	-0.30727813
76	0x3de2b2c2	0.110692516
77	0x3edb85ba	0.42875463
78	0xbebce0ac	-0.3689016
79	0xbf0819b3	-0.53164214
80	0x3ecfeed7	0.40611908
81	0xbeb75b3b	-0.3581179
82	0x3db9d5ca	0.0907398
83	0x3ed5028f	0.41603515
84	0x3f094bda	0.53631365
85	0x3e1d93f3	0.1538847
86	0xbe802546	-0.25028437
87	0x3eee66af	0.46562716
88	0xbeb16630	-0.34648275
89	0xbea48230	-0.32130575
90	0x3d794186	0.060853504
91	0xbe8dd0cd	-0.27698365
92	0xbed162bd	-0.40895644
93	0xbe983472	-0.29727513
94	0x3ddb24f2	0.10700406
95	0xbe4b24e5	-0.19838293
96	0x3e1900f5	0.14941771
97	0xbd441423	-0.047870766
98	0x3e737831	0.23776318
99	0x3ed61d7a	0.41819364

bias f4 [5]
0	0xbd9b3f6f	-0.075804584
1	0xbe28d1bf	-0.16486262
2	0x3c88c2d8	0.016694471
3	0xbdc4d6e1	-0.096112974
4	0xbe367bba	-0.17820635

weight f4 [5, 20]
0	0xbe71cb6c	-0.23612756
1	0xbef630d7	-0.48084137
2	0xbe94a25c	-0.2903012
3	0xbe929efe	-0.28636926
4	0xbe93e15f	-0.28882882
5	0x3e56c810	0.20974755
6	0xbef3b2e0	-0.47597408
7	0x3ecd827c	0.40138614
8	0xbebfb3db	-0.37441906
9	0xbca52517	-0.020159287
10	0x3de80db3	0.11330738
11	0x3e160523	0.14650397
12	0x3d8669ba	0.065631345
13	0xbed6802f	-0.4189467
14	0xbeb3bfb5	-0.35107198
15	0x3ed71c84	0.42013943
16	0x3eddf2e6	0.4334938
17	0xbd05f64b	-0.032705586
18	0xbe554490	-0.20826936
19	0xbee5905c	-0.448367
20	0xbe33f81d	-0.17575116
21	0xbde31c62	-0.11089398
22	0x3dd7ed93	0.105433606
23	0x3dba3c49	0.0909353
24	0xbdd4defa	-0.10394092
25	0x3e8623d7	0.2619922
26	0x3e5e9a23	0.21738486
27	0x3e38c657	0.1804441
28	0x3ef73e68	0.482898
29	0x3cf915ba	0.030405868
30	0x3e42458d	0.18971844
31	0xbdd40071	-0.10351647
32	0x3d488839	0.048958037
33	0x3ec14bc6	0.37753123
34	0x3e98383c	0.29730403
35	0x3e9323e4	0.2873832
36	0xbeded063	-0.4351836
37	0xbe337325	-0.17524393
38	0xbd889a37	-0.06670039
39	0x3bc87da1	0.0061184918
40	0x3e518abd	0.2046308
41	0x3e97e1b9	0.296644
42	0xbe7f9566	-0.24959335
43	0xbdd32dcd	-0.1031147
44	0xbeb4b6db	-0.35295758
45	0x3e925dca	0.2858718
46	0xbe27631f	-0.16346405
47	0x3ecdc261	0.40187362
48	0xbebc9abd	-0.36836806
49	0x3eeea008	0.4660647
50	0x3e0d0c6f	0.13774274
51	0xbe9d7f35	-0.30761114
52	0x3ed396c2	0.41325957
53	0xbe82ffa3	-0.2558566
54	0xbeef5607	-0.4674532
55	0x3e825764	0.254573
56	0xbebe4496	-0.37161702
57	0x3dc1ba1d	0.094593264
58	0xbeca208f	-0.39477965
59	0x3e9dfbe2	0.30856234
60	0xbedc4767	-0.43023226
61	0xbef71582	-0.48258597
62	0xbef4216f	-0.47681758
63	0x3ee986df	0.4561071
64	0xbcc15abd	-0.023602838
65	0xbd98debf	-0.074643604
66	0xbcef94c6	-0.029245745
67	0xbe8afe10	-0.2714696
68	0xbeef6ec4	-0.46764195
69	0xbc7a6de2	-0.015284987
70	0x3e7693b4	0.24079782
71	0x3e94f3b8	0.29092193
72	0x3ea289f9	0.3174589
73	0x3e936460	0.28787518
74	0xbcf3d797	-0.029765887
75	0x3d7abe78	0.0612168
76	0xbe2ea96e	-0.1705682
77	0xbc9307e6	-0.017948102
78	0xbd2bc657	-0.0419372
79	0x3e29a78d	0.16567822
80	0xbe90ae80	-0.28258133
81	0xbe854f28	-0.26036954
82	0x3ed56593	0.41679057
83	0x3ef9d3c9	0.48794392
84	0x3e229832	0.1587837
85	0xbe3afef5	-0.18261321
86	0x3e476a0b	0.19474046
87	0xbea3e89b	-0.320134
88	0xbea38f9b	-0.319455
89	0x3dc93783	0.09825041
90	0xbce32a12	-0.027730022
91	0xbecdb070	-0.40173674
92	0xbeb43ec8	-0.35204148
93	0x3e52b15d	0.20575471
94	0xbec0664e	-0.37578052
95	0x3eb58bad	0.35458127
96	0x3ed2e458	0.41189837
97	0xbecb31c9	-0.3968642
98	0xbe92b448	-0.2865317
99	0x3d661e98	0.05618152

bias f4 [5]
0	0x3dde5d10	0.10857594
1	0x3e2d793b	0.16940777
2	0xbe596222	-0.21228841
3	0xbe36433b	-0.17799084
4	0xbe4cbc76	-0.19993767

att f4 [1, 1, 10]
0	0x3e29163b	0.16512387
1	0x3e1ae996	0.15128168
2	0x3c841712	0.016124282
3	0x3dd3fdf1	0.1035117
4	0xb9bce4cf	-0.0003602863
5	0x3ef24884	0.4732095
6	0x3ed096b1	0.40739968
7	0xbd7fbdf7	-0.062437024
8	0x3e89e59e	0.26932997
9	0x3ca553d9	0.020181583

bias f4 [10]
0	0x3caef0c7	0.021355046
1	0x3afc83cc	0.0019265353
2	0x3ca366d1	0.019946488
3	0x3cc30a15	0.023808518
4	0x3c14154e	0.009038283
5	0xbccdfbf5	-0.025144557
6	0x39cd105c	0.00039112836
7	0x3c058a29	0.008150616
8	0xbc340b1e	-0.010988979
9	0xbcdc9080	-0.026924372
