model/tgn/241020_1/epoch_15.pt (torch, 407598 bytes, 85 tensors)

att f4 [1, 1, 20]
00000000: cf99 003f 783d b9bd a411 ec3e 5007 1f3e
00000010: eb90 043f b244 b53e 148e c93e 929a ee3e
00000020: 2ab7 21be dc7d 16be 785c 303e a217 f13e
00000030: f86d 49be f046 d7be f315 d6be 52e0 7cbe
00000040: 28ad ae3d e85b 7dbd a6f7 11be aee2 7fbe
0.50234693 -0.09044927 0.4610721 0.15530133 0.5178363 0.35403973 0.3936621 0.46602303
-0.15792528 -0.14696449 0.17222774 0.47088343 -0.19670856 -0.4204631 -0.4181362 -0.24694946
0.08529121 -0.061855227 -0.14254627 -0.24988815

bias f4 [20]
00000000: 9390 b5b9 41c4 89bd 73ad 1c3e 1a58 a83d
00000010: 9e23 61bb c7e5 c5bc 6981 ac3d acc1 d23d
00000020: 1392 52bc fda7 04be 31a5 2cbb 6f1a 323c
00000030: 15e7 cfbd 4f7d 00be 1f41 c63d 1a74 66bd
00000040: 1de4 14bd 520b 30bd 0a96 253e 7b82 de3d
-0.00034630726 -0.067268856 0.1530054 0.08219929 -0.0034353505 -0.024157418 0.084231205 0.10290846
-0.01285221 -0.12954707 -0.002634358 0.01087056 -0.10151497 -0.12547801 0.096803896 -0.056263067
-0.03635036 -0.042979546 0.16170517 0.10864731

weight f4 [20, 163]
00000000: 580b bf3d f14b 0cbe 23de 21bd b612 21be
00000010: 11c4 35be e0cc 10bc 40a9 a73d 1789 0fbd
00000020: 509d 713e 90c3 563e e248 e13d 9475 9f3e
00000030: b661 5b3e fe55 6bbc d224 b93b 0de6 e5bc
00000040: a804 f83b c69a 01be cd00 023d 3a3a 1c3d
00000050: c94a 22be 0bc6 ca3e cd9e c63e 23b4 00be
00000060: 8f4d 3fbc 4292 93bc e2bd 18be 010c 80bb
00000070: 59c3 ee3d 90bc 5bbe 20f2 84bd c123 e73d
00000080: 79af fd3d c6f8 253e 7099 923d d276 153e
00000090: a81d 4fbd d918 b3bd 8d66 2ebe c8d1 d23d
000000a0: f4bb 1a3c 9c71 9dba 952c 403e e8ec f73d
000000b0: b290 423e 8928 e63c 61fe 0b3e 7cae 473e
000000c0: 4faf 82bd f672 ad3d 4b49 62be 2dfb e63d
000000d0: f361 403e 5bc9 02bd 5967 b6bd a567 41bb
000000e0: 0e09 653e 5066 313d 0ebc 1b3e d4d0 a43d
000000f0: 1cb1 83bb b5bb 02be 59de 0fbe 4840 11be
00000100: a294 37be a4ae 1e3d bda5 b83d 0541 4bbe
00000110: 6bc5 323e 210e 2dbc dd2d 603d c850 8d3d
00000120: 45fe a4bd 0e66 02bd 14a5 363e a2f5 08be
00000130: 5ca5 7e3b a42b 0c3d cb9e 303e a91f 9e3d
00000140: 7a90 b43e 50dd 3b3e 9bad 743e 8589 563d
00000150: bf5e a13e b0ed 2fbd 3635 303e 4070 57bd
00000160: 8236 b93d 141b a1bd bb8e 1b3e 19d3 913e
00000170: 9538 a33d 3cb4 a23c aa3f 2f3e 7881 c13d
00000180: d5ef 243e 3b1a ed3d a170 98be 04b0 253d
00000190: 6b86 52be 6143 9f3e b72c 49be 89ae 2fbe
000001a0: 1dc2 9bbd db6e 0cbe 9d64 b4bd 4cd2 153e
000001b0: 8364 953e 79ab 573e 765c 65be 2361 f7bd
000001c0: f552 033e 5b6a ef3d 0126 6e3e 4fb8 163d
000001d0: 8b65 233e 938c 4bbc 4daf 7a3c 8309 f43c
000001e0: c8ad 8bbd 268a 213e 3632 8b3e c2a9 a53e
000001f0: 1693 00bc e91e 7d3d 086e 1c3e 12bc 233e
00000200: e275 f23d 9250 143e dcf7 f43d 4aaa c1bd
00000210: 4595 96bd ea75 b0bc 2d37 aa3d 9ccb a73c
00000220: 887b 5ebe 858f c43b 93c0 17bc 67cc 1c3e
00000230: c96a 2c3d 4975 ae3d abe5 483b 0696 1abe
00000240: 923b 47bd 05df 40be 5a45 533e de51 483e
00000250: d5b4 9f3d 742f 14be 5540 b43d 619e f53c
00000260: 798d 013e baa8 04be aeb2 e2bb bc93 fb3d
00000270: 829f 593e 1829 9a3c 276e 4a3e 461f 8dbd
00000280: f7be bb3d 3c01 ea3d baf5 293c 281d 513c
00000290: 6bcf 133d 56b2 28bc 8c97 313c f8c6 7bbd
000002a0: 3735 86bd 74c0 b53d 3135 9a3d 3ead d4bd
000002b0: 9e1f 17be c0ed 95be e324 28be b704 06bc
000002c0: afc7 61be 4e8e 36bd 6e1b 53be 7833 f7bc
000002d0: 9550 b3bd fcee d83d 7300 d13c 6c22 633e
000002e0: 6d56 9cbe ac0f 70be c440 da3d 4134 fabd
000002f0: 1c87 073d 2602 2d3e a687 d33d a18d debd
00000300: 12bd 373e 91e0 2d3e ee9b 03be 7d4b ff3a
00000310: 9611 b6bb 6934 bfbc 4b74 b4ba faf8 10be
00000320: de33 3c3e d078 f83c bb4b 713d 33c1 1fbd
00000330: 7d81 50be 7aa5 423e 14af 8fbd 16ba 8a3c
00000340: ebe5 0e3e 1c25 4cbe 773e 20be 3a48 903c
00000350: cdc9 d3bc 6f15 183e 4446 14be f1c1 503d
00000360: ca43 ae3d 37a9 333e 4e82 3bbe 466b 8b3d
00000370: 1e56 10be 0d8a 8abd 2661 ac3d adfc 9fbe
00000380: 7f19 9fbc e1c4 10be ad37 fbbd 542a b53b
00000390: 5517 1cbd 6278 e0bd c568 173e 5b2a 013e
000003a0: 411b 313e 5dce 623d 81c6 953d c4d1 49bd
000003b0: b9f9 18be b96e 01be b509 5a3d 2bc0 2ebd
000003c0: 2886 b8bd e3d7 353d cf09 21be fbee 9abb
000003d0: 3b0c 00bd abaf 82bd d02d aabd c493 f6bd
000003e0: 8ff1 4abd 8acd 5fbe b585 193e e630 243e
000003f0: 5721 2d3e 34e5 34bc 7f28 f1bd 60ae 70be
0.093283355 -0.13700844 -0.039518487 -0.15729794 -0.17750575 -0.0088379085 0.08186579 -0.03504285
0.23595166 0.20973039 0.110002294 0.31144392 0.21423993 -0.014363764 0.0056501413 -0.028063798
0.0075689144 -0.12656698 0.031739045 0.038141467 -0.15848841 0.3960422 0.3879303 -0.12568717
-0.011676206 -0.018014077 -0.14916185 -0.003907681 0.11658353 -0.2145865 -0.06491494 0.112861164
0.123869844 0.16208181 0.07158172 0.14596108 -0.05056539 -0.08744974 -0.17031308 0.10293919
0.009444226 -0.0012012008 0.18767007 0.12105733 0.1900051 0.0280955 0.13671257 0.19500154
-0.06381094 0.08469193 -0.22098272 0.11278377 0.18787365 -0.03193031 -0.08906431 -0.002951124
0.22366735 0.043310463 0.15208456 0.08047643 -0.004018916 -0.12766917 -0.14049663 -0.14184678
-0.17927793 0.03874077 0.09015987 -0.19849022 0.17458121 -0.010562451 0.05473124 0.069001734
-0.080563106 -0.03183561 0.1783641 -0.13374951 0.0038855886 0.034221306 0.17248075 0.077208824
0.35266477 0.18346143 0.2389435 0.052377243 0.31517598 -0.042951286 0.17207798 -0.052597284
0.090436 -0.07866493 0.15191166 0.28481367 0.079697765 0.019861333 0.1711413 0.09448522
0.16107114 0.11577269 -0.2977343 0.040451065 -0.20559089 0.31106094 -0.19645964 -0.17156424
-0.076053835 -0.13714163 -0.08808253 0.14631003 0.29178247 0.21061505 -0.22398552 -0.12079074
0.12824614 0.116902076 0.23256685 0.036796864 0.15956704 -0.012423652 0.015300584 0.029789692
-0.068202555 0.15775356 0.27186745 0.32356077 -0.007847568 0.061797056 0.15276349 0.15989712
0.118388906 0.1448386 0.11961338 -0.09456308 -0.0735269 -0.0215406 0.08311305 0.02048283
-0.21726811 0.005998554 -0.009262222 0.15312348 0.042094026 0.08518464 0.003065447 -0.15096292
-0.048640795 -0.18835075 0.20631924 0.1956248 0.07798163 -0.14471227 0.08801333 0.029982748
0.12651624 -0.12954989 -0.006918273 0.122840375 0.21252254 0.018818423 0.19768582 -0.068907306
0.09167283 0.11426017 0.010373527 0.012763299 0.03608648 -0.010296425 0.010839354 -0.06146905
-0.06553119 0.08874598 0.07529677 -0.10384606 -0.14758155 -0.2928295 -0.16420321 -0.008179835
-0.2204883 -0.044569306 -0.20615932 -0.03017591 -0.08755604 0.10592458 0.02551291 0.221811
-0.30534688 -0.23443478 0.10656884 -0.12216998 0.033087835 0.16895351 0.10328607 -0.10866857
0.17943218 0.16980197 -0.12852451 0.0019477453 -0.0055562956 -0.02334042 -0.0013767568 -0.14157477
0.18379161 0.030331045 0.058910113 -0.03900261 -0.20361896 0.19008437 -0.070158154 0.016934436
0.13954894 -0.19936031 -0.15648828 0.017612565 -0.025853062 0.14851926 -0.14479929 0.050966207
0.085090235 0.17545019 -0.18311426 0.0680757 -0.14095351 -0.06764612 0.08416967 -0.31247464
-0.019421337 -0.14137603 -0.12266479 0.0055287275 -0.03810819 -0.10960461 0.1478606 0.12613814
0.17295553 0.055372585 0.07313252 -0.049272314 -0.14939012 -0.12639894 0.053231914 -0.042663734
-0.09009963 0.04439534 -0.15726398 -0.0047281957 -0.031261664 -0.06381162 -0.08309519 -0.12039903
-0.049546774 -0.2185575 0.14992411 0.16034278 0.1690725 -0.011040974 -0.11775302 -0.23504019

bias f4 [20]
00000000: 11c3 9b3d 8869 00be c9a3 263e da6f af3d
00000010: 1acc 0e3d acbe 16bc 21cc 203e 7e35 293e
00000020: ec02 f53c e060 d3bd 25e9 963b a05a 443c
00000030: 6c99 b3bd 7ab4 27be 24b2 223e 04c9 d7bd
00000040: d998 aeba 1049 bfbd 4ddf 733e 50ee 033e
0.07605565 -0.12540257 0.16273417 0.08566256 0.034862615 -0.009200733 0.15702869 0.16524312
0.02990862 -0.10321212 0.0046054297 0.011984497 -0.08769497 -0.1637744 0.15888268 -0.105363876
-0.0013320699 -0.093401074 0.23815651 0.12883878

weight f4 [20, 163]
00000000: 6daf f13d 3504 d5bd 86fd a93d cbcb 84bd
00000010: 2e1c bd3d fcb0 d4bd 84a3 1e3e 79ed 03be
00000020: 20ad 62bd 0279 383e fa9c 9d3c c60d babd
00000030: d984 1f3e 42b9 a3bd 8833 fe3d 9887 fc3b
00000040: 601b 06be 1de9 903d 5c1b 083d 2f63 093e
00000050: 8c9b 07bd 02ed ce3d 6c9b 37bd 76d1 f6bd
00000060: f793 75bd 1a6c f0bc 634c 0fbe 6957 353e
00000070: 99c1 453d 5eae 443d cf84 f13c 7049 ca3d
00000080: 356c 2bbe bbc8 2abe 70c8 04be 378a a03d
00000090: 2b82 953a f422 2b3e 4e2c a03d 591d be3d
000000a0: a8ea 283e 0dcf 303e e141 ebbd f999 00be
000000b0: 5f15 cd3d b687 d83d f570 12be b20d fc3d
000000c0: 7276 e83d 0ccb bc3d d87b 183e 1a53 c93d
000000d0: f659 84bd 263e 25be 0a7f c23a 9302 4d3d
000000e0: b09a 14be dbff dabd 6baf 8f3d b2e5 e13d
000000f0: 5fbd 273e be41 e83d 0032 093e 8ab2 4abd
00000100: 9788 c8bd 05f2 55bd d11e 94bc cde4 14be
00000110: 68e0 88bd fbb3 b93d aef5 963d f79b 7dbd
00000120: 018d 193e f688 22bd 8dbe f0bd 7540 313e
00000130: 7f7f 3dbd 7819 b4bd 8430 1b3e d87f 343e
00000140: 6c8c 333e 7e5e af3d b267 5bbc f29d 383e
00000150: 0ba2 22be 18d9 153e a21b f3bd 514f 37be
00000160: 8acf ed3d d927 b5bc ea6f 2ebe 4adc b2bd
00000170: bb4c 6fbd 4a14 8a3d 36c4 1abe cea0 1abe
00000180: dcb6 1a3e c71d 8f3c 9488 de3d 3367 7a3c
00000190: e75f be3d 9162 58bd 8e7a 99bd 4c69 67bc
000001a0: 4e7f f03d a4a6 d1bd 7046 81bd 9e1e a3bc
000001b0: 98e6 203e acfa 2f3e b15d 14bc b8f7 0ebe
000001c0: dcd9 f73d 0c47 3b3d eca0 e9bd 00e6 2abe
000001d0: 339f 85bd 7577 03be f59e 0a3d 6743 133d
000001e0: 6ffe 00be 97f3 4a3d 6421 82bd ca11 ef3d
000001f0: 9b6b 093e a821 393e 43bf 053d 2701 22be
00000200: ba90 b73d f028 d4bb e208 38be 5bd0 e5bd
00000210: edc9 053e eb4a b33d 176e 0b3e ed7e 283e
00000220: fb99 263e 07c6 d8bd 9812 473d 78f1 313e
00000230: b635 5cbd 9875 f03d c22c b6bd 5321 ed3d
00000240: b690 bf3d 2656 d8bd 07b1 313e 1b5d a03d
00000250: 57bd 15be 6d8c 1ebe 5890 cf3d 9c09 e1bd
00000260: 7b43 20be ee80 f53d d35d f3bd 301d bf3d
00000270: 0110 b43c 0772 ec3b 2173 c93d 55bd 34be
00000280: 1f40 793d 60b4 873a c29f 14be 4340 19be
00000290: 572f bf3d db3a 92bc 024f 27be 3746 c2bd
000002a0: f5e4 2d3e 7b03 1a3d bfb8 453d 8100 2f3e
000002b0: 08f8 503c e5dc 143d a925 ed3d 728d af3c
000002c0: 80b6 99bc 1d55 edbc d886 973d f704 35be
000002d0: 2cfc 1bbd 061c 21be d698 163c a2cc 90bd
000002e0: 8844 6cbd 63d7 213e 4388 a9bd 2317 293e
000002f0: 7f89 2bbe 356e 0fbd 7e43 46bd 9b9a 363e
00000300: cb26 daba 8fc0 32be f6bb 30bd 782c adbd
00000310: b104 1dbe 570b a93d f756 003e 645c bcbd
00000320: 0329 d13b 318d 1f3e e0bf 0cbe f059 acbd
00000330: b018 a53d acb0 05bd 5699 0d3e c528 babc
00000340: 9fd0 7dbd 2b0a 35be a2af fe3c 7742 0cbe
00000350: 13e7 21be 010c 893c caae e33d cdb2 86bd
00000360: 6e7a 343d 37b3 65bd 467d babd 53ae 86bd
00000370: 8f7b a93d b730 743d 1360 80bd 9fe7 0ebe
00000380: 86c6 ecbd cba9 1f3e c1fb eb3d 6d49 063e
00000390: 4276 113e eb61 53bd edf2 c53d bc04 df3d
000003a0: a497 e4bd fc98 84bd 66f2 ebbd 7302 42bd
000003b0: edce d83d 64a9 323c 31dd e63b 0e3b 97bc
000003c0: 0bb5 f5bd c74d 763d c472 a13d 24a2 c83d
000003d0: 55bf 04be 6f66 df3d 75d5 2b3e e732 1e3d
000003e0: 6c77 cb3d 5bb6 9abc 4c39 2bbe 563e 0cbe
000003f0: a68d 413d 6cad 5c3d e3ef 123e 48ba 673d
0.11801038 -0.10401193 0.08300309 -0.06484183 0.092338905 -0.103853196 0.15492064 -0.12883557
-0.055340886 0.18014911 0.019239891 -0.09084658 0.15578021 -0.079943195 0.124121726 0.0077065937
-0.1309638 0.07075713 0.033229217 0.13416742 -0.033107325 0.101037994 -0.044825956 -0.1205167
-0.059955563 -0.029348422 -0.13993983 0.17709126 0.048280332 0.048017852 0.029482273 0.09877288
-0.16740496 -0.16678135 -0.12967086 0.078388624 0.0011406591 0.16712552 0.078209504 0.09282941
0.16495764 0.17266484 -0.11487175 -0.12558736 0.10013842 0.1057276 -0.14300902 0.123073
0.11350717 0.092184156 0.14890993 0.098303035 -0.06462471 -0.16136989 0.0014838886 0.050051283
-0.14512134 -0.10693332 0.0701588 0.11030139 0.16380833 0.11340664 0.1339798 -0.049486674
-0.097916774 -0.05223276 -0.0180811 -0.14540406 -0.06683427 0.09067532 0.073710784 -0.061916318
0.14995195 -0.039681397 -0.11755095 0.17309745 -0.046264168 -0.0879392 0.15155226 0.17626894
0.17534035 0.08562945 -0.013391422 0.18029001 -0.15882127 0.14633596 -0.11870505 -0.1790135
0.116118506 -0.022113727 -0.1703488 -0.08733423 -0.058422785 0.06742151 -0.15113911 -0.15100405
0.15108818 0.017470254 0.10865894 0.015283394 0.09295636 -0.052828375 -0.074940786 -0.014124226
0.117430314 -0.10236862 -0.06312263 -0.01991206 0.15712965 0.17185467 -0.009055541 -0.13961685
0.121021 0.045722052 -0.114076465 -0.166893 -0.065245055 -0.12838538 0.033843 0.03595295
-0.12597059 0.04954871 -0.06354025 0.11673315 0.13419954 0.18079245 0.032653105 -0.15820752
0.08963151 -0.0064746067 -0.17972139 -0.11221381 0.1306531 0.08754524 0.13616215 0.16454668
0.16269676 -0.10584646 0.048601717 0.1737727 -0.05376216 0.11741179 -0.088952556 0.11578622
0.09353773 -0.105633065 0.17352687 0.078302585 -0.14623009 -0.15483256 0.10134953 -0.10988161
-0.15650742 0.11987482 -0.1188313 0.09331739 0.021980288 0.0072157416 0.09836412 -0.1765035
0.060852166 0.0010353439 -0.14514068 -0.1496592 0.09335201 -0.01785033 -0.16338733 -0.09486049
0.16981871 0.037600975 0.04827189 0.17090036 0.012754448 0.036343474 0.11579449 0.021429751
-0.01876378 -0.02897125 0.07398766 -0.17677675 -0.038082287 -0.15733346 0.009191712 -0.070702806
-0.057682544 0.1580482 -0.08277943 0.16512732 -0.1675167 -0.03501721 -0.04840421 0.17832415
-0.0016643641 -0.17456268 -0.043148004 -0.08455747 -0.15333821 0.08254116 0.12533174 -0.091973096
0.006383063 0.15581204 -0.1374507 -0.08415592 0.080613494 -0.03263919 0.13828024 -0.022724519
-0.061966535 -0.1767966 0.031089608 -0.1369723 -0.15810804 0.016729357 0.11117323 -0.06577072
0.04406207 -0.056079116 -0.09105925 -0.065762185 0.0827552 0.05961677 -0.06268325 -0.13955544
-0.11561303 0.15592115 0.115226276 0.13113947 0.14205268 -0.051607054 0.09665475 0.10889575
-0.11161736 -0.06474492 -0.11520843 -0.047365617 0.10586343 0.010904644 0.007045411 -0.018460777
-0.11997422 0.060132768 0.07883218 0.09796551 -0.12963612 0.109082095 0.16780646 0.038622763
0.09934887 -0.018885782 -0.16721076 -0.13695654 0.047254227 0.053876325 0.14349322 0.056574136

bias f4 [20]
00000000: 5852 133d 0a3e 74bd a607 90bd 48d3 27bd
00000010: dd89 3fbd f108 af3c d39e 333d 0d1c 4c3c
00000020: 9122 573c 3861 88bd c011 823d e334 2fbd
00000030: 3db5 f73b 4ce8 82bc 4a3c 5fbc 5b8c 3e3d
00000040: 1a59 91bd d954 8e3d 0463 67bd a580 b63c
0.0359672 -0.059629478 -0.07032709 -0.040972978 -0.046762336 0.021366568 0.04385264 0.01245786
0.0131308 -0.06659168 0.06351042 -0.042775046 0.007559447 -0.015979908 -0.013625214 0.046520572
-0.07097073 0.06949777 -0.056490913 0.02227814

att f4 [1, 1, 20]
00000000: 91a7 e33d f4fb ffbe 7042 043f f3a5 7cbe
00000010: a400 7b3e 8fbd 703e 38c8 83be 33d4 0a3f
00000020: bc99 903d 34f0 7bbb 2228 02bf 1579 f13c
00000030: 5d70 583e 8cc1 0f3c cd73 40be 335c c13e
00000040: 592d f23e 399a 003f da5b 56be cf63 bb3d
0.11115945 -0.49996912 0.51663876 -0.2467268 0.24511963 0.23509811 -0.25738692 0.5423004
0.070605725 -0.0038442733 -0.5084249 0.029476682 0.21136613 0.0087741725 -0.18794174 0.37765655
0.47300223 0.50235325 -0.20933476 0.09149896

bias f4 [20]
00000000: 7da2 493c 1895 dcbb a4c5 4c3b 4b42 d33b
00000010: b08a 393c b297 d13c cd07 cc3b 6093 eebb
00000020: fdb3 32bc d451 1bbc 8e97 1e3c 9c8c 9fbc
00000030: bc1b c13b 5a22 ab3a 847a 0e3d dbad c5bc
00000040: 0b42 71bc 33e2 b63c 8120 0bbc 7b7e 94bb
0.012306807 -0.0067316405 0.0031245733 0.0064471117 0.01132457 0.02558503 0.006226516 -0.007280752
-0.01090717 -0.009479959 0.009679688 -0.019476227 0.005893199 0.0013056502 0.03478481 -0.024130752
-0.0147252185 0.022324657 -0.008491636 -0.004531679

weight f4 [20, 163]
00000000: fd17 b3bd 2abb 453e 2fcc 5fbe 0f7a dfbd
00000010: ac5f 5fbd e3c1 10be d92e 833c 3620 dc3d
00000020: 1bbf 083d f76e fabc e146 d8bc 6e6d aa3d
00000030: d4f1 783e e306 42bd 76a8 113d a924 66bd
00000040: fd5d ef3d 3ab1 7ebd d0fd 7fbc 5861 073e
00000050: ab95 abbd bd40 56be 334d 733e 15b1 25be
00000060: f6ca 843d f6fe 2a3e 0417 123d 769d 57bd
00000070: 085f 2a3e 7a32 6dbd 0e09 29bd 800d 063d
00000080: 6a90 4c3d d791 efbd 8e4e 99bd 0337 10be
00000090: 28ac 10be 5d8c 12be f955 48bd 28ce 2fbe
000000a0: 5f9a 20be 6908 b1bc 985a 88bc a116 163d
000000b0: c9cf 22be c205 9abd acd3 6dbe 62d2 d83d
000000c0: eb3c e4bd 6516 e4bd 5a5e d93d 989a b93c
000000d0: 6f0e 393e 8fb0 483d 552a 4e3d 24d0 b93c
000000e0: fad7 5a3d 0def 8bbd 3232 d13d 6d85 8a3d
000000f0: 51da 833d 1d5c fcbc 9e3e b83d 9703 62bd
00000100: 6843 fabd 098f 0dbe f440 debd f55c 5abe
00000110: 37bc 743d 8241 2d3e a3a1 8cbd 0b02 fa3d
00000120: c149 2b3e 5856 a93d 943f 34be 3b42 50be
00000130: f57b e6ba 9352 8f3d 352a fe3d 43aa e9bb
00000140: b7a3 acbc 8612 d33d c18e 5cbd b5f4 ccbd
00000150: abdf 083c 77e5 723e 2653 e5bc 390e 283d
00000160: 8888 c03d a2c7 0ebb 46b3 103e 2551 e3bc
00000170: b380 783e 7234 913d 829b 09be 4a2c 83be
00000180: ad99 b1bd 8f50 2c3e d991 24bd f2a4 d83d
00000190: bb3b 1a3e 41ad d63d 93e3 813d 20d5 603d
000001a0: 9d81 833d 9e1e 123e 1ba7 4e3d 7edb 47bd
000001b0: bdd3 e2bd 4b22 1fbe 70d7 bbbd 9b51 053e
000001c0: 1072 f7bd 0dae 1cbc 1845 8f3d 45bb 873d
000001d0: f5d3 333c 3bca 303d 0c1d 22be b656 c7bd
000001e0: c3a0 c23c 7f4b 28be 9768 1d3d 95cb 133e
000001f0: 4043 5d3b 3bb3 ba3d 3fb6 303e 5947 81bd
00000200: 35d2 733e 83aa 97bd 1a58 d4bd a277 db3d
00000210: d029 2c3e b824 73bd 152f 8b3d 3041 1bbe
00000220: 3a5d aabd a324 5fbe 269d 1c3e 372a 03be
00000230: 7290 613c 4f98 a13d 9d76 253e 16dd 28be
00000240: dc7d 3dbd e679 febd 6cb2 03be 1c95 9e3c
00000250: 439a d13c cc37 14bd 0939 d43d 8833 cb3d
00000260: 7396 e93d e93b 843d 599e e53d ed83 09be
00000270: 96f8 d43d 340e f8bd 305e fbbb caae 183e
00000280: 0183 523d e626 fa3d 418d 333d f6e5 903c
00000290: 3e84 37bd bb1a 0cbe de84 98bd 8afa 27be
000002a0: f989 af3d 526d 65bd faff 33be ec0e 6c3e
000002b0: 938c 243a cb36 733e debe 88bd b205 4f3e
000002c0: 8583 57bd b9e8 08be 3111 b53d e1a0 543e
000002d0: 7fcb 45be f999 bc3d b876 30be dea6 68bd
000002e0: c21e 463c 6c3e 033e 8e79 60bd 1d4d 8fbd
000002f0: b027 b33d d736 5b3e f8d3 b63d b179 a5bc
00000300: a662 74be 9ca3 13be 518a 2c3d f234 cb3d
00000310: 01b8 f23c c4a8 393d e7a6 efbd ca3e 1ebe
00000320: fbdc 843d 9d7e adbd 5c41 043d 4640 9b3d
00000330: 14e4 89bd dd9e 2fbe e332 05be 8a59 86be
00000340: ad49 71be dcda 04be cf62 b8bd b5cf 373d
00000350: e08e 4bbe 01a1 7bbb 62ca 6bbe 6171 a0bc
00000360: dc3c 803e 38dd 12be 76e5 45bb cb84 fcbd
00000370: 5605 e43d b8e5 383d 1599 0a3e 7148 d13d
00000380: ae8f 8a3d b5f4 f43d 3f38 603c 6a9b da3b
00000390: d66b 313e b615 8abd 3ac0 30bd f88f 1c3e
000003a0: a55f e33c d299 97bc 637b cbbd 8326 a83c
000003b0: 3b9a 193e 2b9e f6bd 3fe4 4fbe 8e8a 27be
000003c0: 0d94 fb3c fc75 f63d 3d95 0d3e fa83 953d
000003d0: 4dca 523e afa5 f5bd 07d8 2c3e 741f c73d
000003e0: c7b7 f33d 40a3 c43d 2d8b d23d 98f5 223e
000003f0: f0ad af3d f95f 8d3d 040f 673e 84b3 2f3e
-0.0874481 0.19309679 -0.21855234 -0.10911953 -0.0545346 -0.14136462 0.01601355 0.10748331
0.033385377 -0.03057049 -0.026400985 0.08321653 0.24311 -0.04736985 0.035561047 -0.056187306
0.11687849 -0.062180735 -0.015624478 0.13220727 -0.08378156 -0.20923133 0.23759918 -0.16180833
0.06484024 0.16698822 0.03566648 -0.0526404 0.16637814 -0.057909466 -0.0412684 0.03272772
0.04994241 -0.116977386 -0.07485686 -0.14083485 -0.14128172 -0.14311357 -0.048910115 -0.17168486
-0.15683888 -0.021610456 -0.016644761 0.036642674 -0.15899576 -0.075206295 -0.23225278 0.10587002
-0.11144432 -0.11137084 0.10613699 0.022656724 0.18071912 0.048996504 0.05033334 0.022682257
0.053428628 -0.06832705 0.10214652 0.0676373 0.06438125 -0.030805642 0.08996318 -0.055179205
-0.12219888 -0.13824095 -0.108522326 -0.21324523 0.05974981 0.1691952 -0.06866767 0.12207421
0.16727354 0.08268422 -0.17602378 -0.20337765 -0.001758455 0.06998172 0.12410394 -0.0071308925
-0.02107416 0.103062674 -0.05384708 -0.10007612 0.008354108 0.23720346 -0.02799375 0.04102919
0.09401041 -0.002178647 0.14130887 -0.027748654 0.24267845 0.07090081 -0.13438228 -0.25619727
-0.086718895 0.16827606 -0.040178154 0.10578336 0.15061848 0.10482264 0.063422345 0.05489075
0.06421206 0.14269492 0.050452333 -0.04879331 -0.11075542 -0.15540425 -0.09171951 0.13019411
-0.120823026 -0.009562981 0.069956005 0.06627516 0.010975827 0.043161612 -0.15831393 -0.09733336
0.023758298 -0.1643505 0.038429823 0.14433129 0.0033762008 0.09116217 0.17257021 -0.063124366
0.23810656 -0.074055694 -0.103683665 0.107161775 0.16812825 -0.05936119 0.067960896 -0.15161586
-0.08318563 -0.2179132 0.15294322 -0.12809072 0.013767349 0.07890379 0.16158529 -0.16490588
-0.046262607 -0.12425594 -0.12861031 0.01935821 0.025586253 -0.036186025 0.10362441 0.09921938
0.11405649 0.064567395 0.11211843 -0.13429232 0.103989765 -0.12112084 -0.00767114 0.14910427
0.051394466 0.122144505 0.043835882 0.017687779 -0.04480385 -0.13682072 -0.074472174 -0.16404167
0.08571238 -0.05601246 -0.17578116 0.23052567 0.00062770507 0.2375137 -0.0667703 0.20217016
-0.05261566 -0.13370027 0.088411696 0.20764495 -0.19315909 0.092090555 -0.17232788 -0.056799762
0.012092294 0.12816781 -0.054803424 -0.0699713 0.08747804 0.21407638 0.089271486 -0.020199629
-0.23865756 -0.14417881 0.042124096 0.09922208 0.029628756 0.045326963 -0.11701756 -0.1545364
0.06487461 -0.08471415 0.032288894 0.075806186 -0.067329556 -0.17150445 -0.13007693 -0.26240188
-0.23563261 -0.12974113 -0.09003221 0.04487582 -0.19878721 -0.0038395526 -0.23026422 -0.019585313
0.25046432 -0.14342201 -0.0030196584 -0.12330016 0.1113383 0.045140952 0.13534959 0.10218895
0.06765686 0.11960737 0.013685285 0.006671359 0.17326292 -0.06742422 -0.04315207 0.15289295
0.027755568 -0.018505964 -0.099356435 0.020526176 0.1500024 -0.12041887 -0.20301913 -0.16361448
0.030710245 0.120342225 0.13826461 0.07300563 0.20584984 -0.11994492 0.16879283 0.09722796
0.11900287 0.0960145 0.10280452 0.15913999 0.08578098 0.06903071 0.22564322 0.17158324

bias f4 [20]
00000000: 7c99 2bbd 8fd5 00bd fcc0 833c b0b7 36bd
00000010: 8541 85bd 2dd6 d2bd ef76 13bd a18a a2bd
00000020: 1e63 a9bc 2147 653d b798 fc3d a3f2 66ba
00000030: 6a72 08bb bc45 d6bd 9c8a ebbc eee0 4f3d
00000040: 2d68 79bd 2033 2bbd cc3f a63d 4f2e 20bb
-0.04189442 -0.031453665 0.016083233 -0.04460877 -0.065066375 -0.10294757 -0.036002096 -0.079365976
-0.020677146 0.055976037 0.123338155 -0.00088099594 -0.002082015 -0.104625195 -0.028752618 0.05075162
-0.060890365 -0.041796803 0.08117637 -0.0024441665

weight f4 [20, 9]
00000000: 87b9 7fbe dba6 9b3d 2a18 6dbd 775a 7c3d
00000010: 822e c8be 6ad6 df3e bf65 6d3d 0bc0 e8be
00000020: a753 333d 7424 dc3e 135a 56be 79fb 7e3e
00000030: 0313 b63e c581 a73c d1b6 0e3e 564f e13e
00000040: 5c67 14be 139d 2fbe 466f 8a3e 6f9f e13d
00000050: 6146 0c3e 3baa 6a3d 8ed6 a43e f9f4 dbbe
00000060: d237 aebc 8926 b6bd e22e 1a3d ae11 0b3e
00000070: e23d b43e 16d6 393e 91c8 1ebe a037 7b3e
00000080: ee23 dfbe 1000 09be 2125 773e fbe3 a9be
00000090: 97b2 db3e d35b d53e 37c0 15be 3e5a 1c3e
000000a0: 8722 b9bc 7b9c 533e 74a3 d4be a969 dd3e
000000b0: 542d 86be 9af5 9abe 963d 5f3e c70d bb3d
000000c0: b813 c53d 5538 2e3d a61f d6be 6f86 123e
000000d0: 4b4c c73d 9841 bd3e d91c 6b3e 6616 0fbd
000000e0: 6c46 66be 75ba b03e 8dc3 c43d 2f13 143e
000000f0: 6367 c93d c608 c33e cb03 203e de1f dfbe
00000100: c3c0 6d3e cea5 20bd 57ab b6be 14ab 523e
00000110: 93fd 24be 1bbf 57be 869f c0be 68c4 c93d
00000120: b1d6 8e3e 7a79 4cbe 7361 583d c160 03be
00000130: b829 ce3e ff70 c8bd 9186 a83c 7923 d0bd
00000140: e79b 4ebe 725c 2f3e 6f57 d53e 37d0 b0be
00000150: 2e09 d93e fbda 92be 4066 183e bcae 883e
00000160: 02c6 bcbd 6904 be3e 2a55 b03e 9796 98bc
00000170: a2b8 1ebe 75d0 c23e 6280 97be 9442 09be
00000180: 840e df3e ea6b 963e dbee 68be 549e 8ebe
00000190: 5c50 d3ba a92a bc3d c274 ebbc 0fc5 4e3e
000001a0: 3de7 ec3c 6486 78be ba7a 983e 88da 2f3e
000001b0: 01f7 66be 2769 22be 0ab3 9e3e 33b1 423e
000001c0: 238a 843d c956 493b 3044 353e f4b2 d73b
000001d0: a524 d7be 12c9 533e c38c 83be 719e 1e3d
000001e0: 9250 77bd 4992 e2be 03e3 203d 6cbe 11be
000001f0: 41da 10bd 79c1 9bbe cc8f e53d 00f2 8ebe
00000200: be90 cfbe 9b58 ab3e 0834 ad3e 6ca9 b5be
00000210: c343 d4be 5f31 e33e 3584 d23d f6cc 6fbe
00000220: 19e7 9dbe 6ff4 853d 7317 d4be 9a0c 1abe
00000230: 231d d9be a750 e0be bc1c 94bd 1c28 63be
00000240: 4e1d 7b3d ce65 98be 786a db3e 6ab6 b8bd
00000250: 141b 2f3e 399b c13e abdd 993d 83f1 e23e
00000260: f8df fcbc f5a3 e33e 6ed1 be3e 5e75 903c
00000270: eeda 713e 2ccc 8bbe 234a d43d 7ba5 acbd
00000280: bf15 263e e363 5c3e 8973 bf3c c222 46be
00000290: 0e61 d13e e0c0 8cbe f62f ce3e 9cf3 c5bd
000002a0: 5bdd 5abe de95 4abd 2d30 38be 3603 52be
000002b0: be1e 1d3e 200e 9c3e 7409 ecbd e330 c23c
000002c0: 63fc a5bd 52a2 523d 5fed 50be dd0b 54be
-0.24973117 0.076001845 -0.057884373 0.06160971 -0.39097983 0.43718272 0.05795836 -0.45459017
0.04378095 0.42996562 -0.20932798 0.24900617 0.3556138 0.020447621 0.13936926 0.4400584
-0.14492553 -0.17149763 0.2703802 0.11016738 0.13698722 0.05729125 0.32194942 -0.42960337
-0.021266852 -0.08894069 0.037642367 0.13580963 0.35203463 0.18148074 -0.15506198 0.24532938
-0.435821 -0.1337893 0.24135257 -0.33181748 0.4290969 0.4167162 -0.14624105 0.152688
-0.022599472 0.20665161 -0.41530955 0.43244675 -0.26206458 -0.30265504 0.21800837 0.09133487
0.09622902 0.04253419 -0.4182102 0.14309095 0.097313486 0.36964107 0.22960223 -0.03493347
-0.22487801 0.34517255 0.09607611 0.14460443 0.098341726 0.3809263 0.15626447 -0.43579
0.23218064 -0.039220624 -0.35677597 0.20573074 -0.16112356 -0.21068995 -0.37621707 0.09851915
0.27898172 -0.19968215 0.05282731 -0.12829877 0.40266204 -0.09787177 0.020571979 -0.10163016
-0.2017666 0.17125109 0.4166827 -0.34533855 0.42389816 -0.28682694 0.14882755 0.26695812
-0.092174545 0.3711274 0.34439975 -0.018626494 -0.1550012 0.38049665 -0.29590136 -0.13404304
0.43565762 0.29379207 -0.22747366 -0.2785517 -0.0016121971 0.09187824 -0.028742198 0.2019236
0.028918857 -0.24270016 0.29781133 0.17173207 -0.22555162 -0.15860425 0.3099597 0.19012909
0.0647166 0.0030721894 0.17701793 0.006582612 -0.42020145 0.20682171 -0.2569333 0.03872532
-0.060379572 -0.44252232 0.039278995 -0.14232796 -0.035364393 -0.30421045 0.11209068 -0.27919006
-0.40540117 0.33466038 0.3382876 -0.3548082 -0.41457948 0.44373605 0.10279123 -0.2341803
-0.30840376 0.06540763 -0.4142414 -0.1504387 -0.42405042 -0.43811533 -0.07232043 -0.2218327
0.061307244 -0.2976517 0.42854667 -0.09019168 0.17100173 0.37813738 0.07512983 0.44324884
-0.030868515 0.44461027 0.37269157 0.01763409 0.23618671 -0.27304208 0.10365703 -0.084300004
0.16219233 0.21522479 0.023370521 -0.19349197 0.4089436 -0.27490902 0.40270966 -0.096656054
-0.21373503 -0.04945933 -0.17987128 -0.20509037 0.15343758 0.30479527 -0.115252405 0.023704952
-0.081047796 0.051424332 -0.2040305 -0.2070765

bias f4 [20]
00000000: 9862 c1bd 9068 09be c30f e9bd 47b0 8cbd
00000010: 1c68 b83d 2753 68bd 8351 28be a6b5 4d3e
00000020: b233 17be 1e41 9f3e 802b 2b3e a2af a43e
00000030: 0bc2 7a3e 5337 123e 7596 3bbe bc9a 86be
00000040: 0753 85be 1162 063e 9f47 87be 969f 95bc
-0.094426334 -0.13418794 -0.113799594 -0.0686956 0.09004232 -0.056719925 -0.16437344 0.20088825
-0.14765814 0.31104368 0.16715813 0.32165247 0.24488084 0.14278917 -0.18319114 -0.26289928
-0.26039907 0.13123347 -0.2642183 -0.018264573

att f4 [1, 1, 20]
00000000: c66a bbbe 048c c8be c0ff adbd 03f2 5c3d
00000010: 2523 a4be b62e e7be 3a03 753e 0864 423e
00000020: 03fe a7be 142e b93e a2e5 c7be 9063 ce3e
00000030: e31b 903e bea7 32be 0254 023f dff1 95be
00000040: 7417 76be e6a0 d53e 911e 13be 01ab 55be
-0.366049 -0.39169323 -0.08496046 0.053941738 -0.32058063 -0.45152825 0.23927012 0.18983471
-0.32810983 0.36167967 -0.39042383 0.40310335 0.28146276 -0.17446801 0.50909436 -0.29286095
-0.24032384 0.41724318 -0.14367129 -0.20866014

bias f4 [20]
00000000: 7da2 493c 1895 dcbb a4c5 4c3b 4b42 d33b
00000010: b08a 393c b297 d13c cd07 cc3b 6093 eebb
00000020: fdb3 32bc d451 1bbc 8e97 1e3c 9c8c 9fbc
00000030: bc1b c13b 5a22 ab3a 847a 0e3d dbad c5bc
00000040: 0b42 71bc 33e2 b63c 8120 0bbc 7b7e 94bb
0.012306807 -0.0067316405 0.0031245733 0.0064471117 0.01132457 0.02558503 0.006226516 -0.007280752
-0.01090717 -0.009479959 0.009679688 -0.019476227 0.005893199 0.0013056502 0.03478481 -0.024130752
-0.0147252185 0.022324657 -0.008491636 -0.004531679

weight f4 [20, 9]
00000000: 247d 223d 2ffa 363e 8a3d a9bd 7aad de3d
00000010: 8d2b a6be d238 7a3d e9cd 733a 703c a93d
00000020: 9f50 edbd 203b d93d 8897 e8be 884a afbd
00000030: 8360 a13e d0d2 0d3e afdf 51be 805a 80be
00000040: cab5 a33d bc2d a7be 43bd ad3e 1298 703e
00000050: 1c5b d1be 374b a13e 4ca0 3f3e 2c41 b93e
00000060: c568 a43d 9e09 f83e 19a2 ccbe 1f11 e9be
00000070: 1735 10be 79c1 fdbd 7732 e43e 4307 e33e
00000080: fb89 72bc 069c 963d 4356 d43e 6ad3 9f3d
00000090: aeab 70be b174 1d3d b5e5 dbbe 7290 abbe
000000a0: ecea 6abc 919c c23e c6de 4ebe 56a2 09be
000000b0: 4510 f03e 83fe bdbe 6ad1 d73e 1996 37be
000000c0: d353 dabe 0664 383e de1e b43e 805e f73d
000000d0: fa62 e8be 86d2 75be 8c1a cfbe c842 dabe
000000e0: f449 54be 94df 483d 5e4d 7b3e d8a8 9bbc
000000f0: f3df 843e 7e42 bf3e e501 c6be aa56 97be
00000100: e075 a93b 37b9 a03e 612b 1e3e 46cb 433b
00000110: 11d7 7abe 095a 9f3e 774e 9abe 6d4a 12be
00000120: b9aa 4ebc 80e6 863d cfb4 803e fee2 16bc
00000130: 6b0d 7bbe 88e2 b33e 4f9f 75be 2a0a 443d
00000140: fe4b adbd 2ac1 593d 3e96 82be 7d91 103e
00000150: 0110 923e 8c2a 0e3e 7ea9 babe 14ab 81be
00000160: 97f4 b4ba a5c2 48be 5125 533e 2fd8 203e
00000170: db44 2c3e 5a37 cabe 3ab4 f63e 22e1 6bbe
00000180: 4a32 ef3d 4b4a 893e 8a31 74be bb02 213e
00000190: f77f 533e 4323 afbe 08d7 da3b 39ce 4bbd
000001a0: 5b10 df3d 85c4 e6be 8f5c e9be eb39 af3e
000001b0: e239 25be 1732 b83e 899a 98be 34bc ae3e
000001c0: 92ff 57bd 9cee a43e a440 d43c 9c69 a8be
000001d0: c47a e8be 3712 703e 6d22 a53e 3a82 e9be
000001e0: 817f 16be cb19 613d 3aa7 443e f6dd ab3e
000001f0: 5062 803e 3604 1c3e 7833 91bd 0afa 943e
00000200: 25d7 803e ab9e 52be 9073 8cbd 06d8 913e
00000210: 7319 c43e d439 f1bd 826e 9fbe 03a6 0f3d
00000220: 6a96 813e e9c9 933d db16 a5be 3606 e6be
00000230: fc67 f0bd 943c 233e 58c3 edbd 5075 c83d
00000240: 2f71 c83e 3c5b 0dbe 167d d9be 5866 9f3e
00000250: 8de2 213d 76a2 a03e 7bc8 d1be 6f6a 5b3e
00000260: feb5 a23e aff1 a5bd 1481 7fbe bf87 d4be
00000270: d2a6 43bd 486c c1be 98d9 c2be 13ab ae3e
00000280: 30f3 f43e ad78 a93e 5178 81be 824b 023e
00000290: 8b93 77be d61e cbbe b4be 31be b352 253e
000002a0: 1c65 ffbd b627 77be cb7a 023e 73f7 3d3e
000002b0: 61d7 05be 0199 1abe cea6 8dbd e1fc fabe
000002c0: b51b 8f3e 2e66 b5be c982 cc3d 414c d6bd
0.039670125 0.17868875 -0.08263691 0.10872932 -0.32455102 0.061089344 0.00093003974 0.08263481
-0.11587643 0.1060698 -0.4542811 -0.085591376 0.31518945 0.1384995 -0.20495485 -0.25069046
0.07993658 -0.3265208 0.33933458 0.2349551 -0.40889823 0.31502697 0.18713492 0.36182535
0.08027796 0.48444837 -0.3996742 -0.45520875 -0.14082752 -0.123904176 0.44569752 0.44341478
-0.014803405 0.07353978 0.41472062 0.07803996 -0.2350299 0.038441364 -0.4294869 -0.3350864
-0.014338236 0.38010076 -0.20202169 -0.13440832 0.46887413 -0.3710824 0.42151958 -0.17928351
-0.42642078 0.18006906 0.351798 0.12078571 -0.45388013 -0.2400609 -0.4044994 -0.42629075
-0.20731336 0.049041346 0.24541232 -0.01900141 0.2595211 0.37355417 -0.3867332 -0.29558307
0.0051715225 0.31391308 0.15446235 0.00298758 -0.24496104 0.3112338 -0.3013799 -0.14286204
-0.012613946 0.06586933 0.25137946 -0.009209393 -0.24516837 0.35133767 -0.23986553 0.047861256
-0.0846176 0.05316273 -0.2550525 0.14118 0.28527835 0.13883418 -0.36457437 -0.25325835
-0.0013805804 -0.19605501 0.20619704 0.15707467 0.16823141 -0.39495355 0.48184377 -0.230351
0.11679514 0.26814494 -0.23847023 0.15723698 0.20654283 -0.3420659 0.0066784658 -0.049757216
0.108917914 -0.45071808 -0.4557843 0.34223875 -0.16135362 0.35975716 -0.298054 0.34127963
-0.052733965 0.32213295 0.02590973 -0.32893074 -0.45406163 0.23444448 0.32252827 -0.45607167
-0.14697076 0.05495624 0.19204417 0.3356778 0.25075006 0.15235981 -0.07089895 0.29097015
0.25164142 -0.2056834 -0.06857979 0.28485125 0.38300666 -0.11778608 -0.31138998 0.03507043
0.2531007 0.07216246 -0.32244 -0.44926614 -0.117385834 0.15941077 -0.116095245 0.097880006
0.39148852 -0.13804334 -0.42478245 0.3113277 0.039522696 0.31373948 -0.40973267 0.2142732
0.31779474 -0.08102738 -0.24951583 -0.41509816 -0.047766514 -0.37777925 -0.38056636 0.34114894
0.47841787 0.3309988 -0.25287107 0.12724116 -0.24177377 -0.39671963 -0.17357904 0.16144828
-0.12470457 -0.24136242 0.12742154 0.18551426 -0.13070442 -0.15097429 -0.06916581 -0.49021056
0.27950826 -0.3542952 0.09985883 -0.10463763

bias f4 [20]
00000000: 1be8 12be 2355 94be a2d1 09be 50f7 043c
00000010: 8c66 0d3d be29 d23c c351 7ebe 73d5 2cbe
00000020: 2c18 8a3e 4249 98be 5bb9 493d 520d 2ebe
00000030: 5fc0 9ebd ce28 3b3e 6a91 9dbc e069 053e
00000040: a35f 453c 42b2 6f3e b6be 8cbe 99af bcbd
-0.14346354 -0.28971204 -0.13458875 0.0081156045 0.034521624 0.02565467 -0.24835877 -0.168783
0.26971567 -0.2974339 0.049249034 -0.16997269 -0.077515356 0.18277285 -0.019234378 0.1302867
0.012046727 0.23407844 -0.2748925 -0.0921318

weight f4 [20, 9]
00000000: bf90 943c ac00 0bbe f9d6 a3be 2a18 ec3d
00000010: d8a2 a8be c947 1d3d 95b0 ac3d 8027 cb3e
00000020: effb 7cbe ce70 143e 19fc b13e 8952 1fbe
00000030: 411f 06be eca8 3f3e b095 0dbe be6f 413d
00000040: ad8a 43be 8a21 d53b cbe7 e5be 06ea 40be
00000050: 779b 72be b7d2 bcbe e881 b23d dc0c a33e
00000060: b9b5 4ebe 679a 5fbe b08c 4b3d 9d35 993e
00000070: 91b2 7dbe b478 e23b 14c8 c3bd e269 113e
00000080: 02a1 79be 988b d1be 7247 cebe 0c4c 65be
00000090: ade1 da3e 8be5 97bd 5cd1 b03e 9bcf 1ebe
000000a0: 770e 6cbd a9f8 ad3e 22fa acbe 74b9 7abe
000000b0: e52e 8ebb 99d0 b5be ca2a a73e 5714 893e
000000c0: 1795 debe 1574 acbe 73ec 643e d2cb 363d
000000d0: 3f36 cf3d 1868 1bbe 6627 93be 3db5 22be
000000e0: 9fb3 d5bd 23ee 9a3e 4e59 c53e d965 c63e
000000f0: 5dc6 8abe 6b4c 223e 1f7e dd3c 72d2 ddbe
00000100: 9e10 cc3e 6bda aabe 52e0 e3be 06e8 e4be
00000110: f34d 243e 5033 2e3e f6bd b43e e7ed a9be
00000120: a32b 89bd 493b d7be 021c 81be 317b 983d
00000130: 6c70 de3e 88f3 59be 9c25 65be 6a4e e1be
00000140: 0f87 df3e 6792 123e 8918 e93e 23d9 343e
00000150: 8708 843e 25a3 c83e f916 a8bd ebc0 9d3e
00000160: 3ebc 8fbe 96f4 c1be ece2 6ebd 0fb1 963e
00000170: e7d4 dbbe c768 71be edec d73d 6e05 e63e
00000180: 6d61 aebd 0cb3 a4be e7ad 04be bffa 3dbe
00000190: 64eb 5fbe 3b03 09ba 210b d0be f4cc 90bd
000001a0: 2f66 c9bd 480c 733e de35 6bbd f96a 3a3e
000001b0: 7775 443e 50ef 8dbe dd7f ddbe c37b 2b3d
000001c0: 07ea 8a3c 9ae5 053e bd86 2f3e 64bd 3e3e
000001d0: a48b 64bd fb21 ab3e 4c41 93be ca90 753e
000001e0: b77c a73e 08f2 dcbe 5b1a 24bd 48c3 c43e
000001f0: 019c e03d 7f32 f93d a266 573e 4ad7 32be
00000200: cf3f db3e 2638 e2be a6c0 c8be 4b21 1f3d
00000210: b2d1 07be 6690 ba3e 44e0 96be cd23 67be
00000220: 29a1 093e b4c9 12be 8da8 b53d 35aa 77be
00000230: d6e7 1d3e e45f 953e 0c9a bdbd f1ae 9bbe
00000240: f9cf c53e c05d b63e 107b c8bd bcdd 6ebc
00000250: 2069 11be a2be 553e 73d7 363e ec74 273e
00000260: 0e02 983d 3690 f03d e877 773d 1185 e03d
00000270: 4332 b13e 1aba c93e edde 673e 559d e3be
00000280: b073 9e3e 8008 c0bd 620d 86be 3c74 99be
00000290: 0c78 623c efe3 2e3e eaaa 253c c2fc 66be
000002a0: 2d99 753e e184 c63d cded 9ebd 0665 a5be
000002b0: 2eae c13d 5575 8cbd 38ad d0be 409e a13e
000002c0: 67f9 d53e 9751 643e b5d7 193e 8585 7b3c
0.018135427 -0.13574475 -0.3199995 0.115280464 -0.3293674 0.038398538 0.08432118 0.39678574
-0.2470548 0.14496157 0.34762648 -0.15558828 -0.1309786 0.18716782 -0.13826632 0.047225706
-0.1909587 0.0065042423 -0.44903407 -0.18839273 -0.23692118 -0.36879513 0.08716184 0.31845748
-0.20186509 -0.21836244 0.049694717 0.29923716 -0.24775149 0.0069113616 -0.09559646 0.14200547
-0.24377826 -0.40926814 -0.40288883 -0.22392291 0.42750302 -0.07416829 0.3453473 -0.15508883
-0.057630982 0.33978775 -0.33784586 -0.24484807 -0.0043390864 -0.3551071 0.32649833 0.2677333
-0.43473122 -0.33682314 0.22355823 0.044627972 0.101177685 -0.15176427 -0.28740996 -0.1588945
-0.10434651 0.3025981 0.38544697 0.3874958 -0.27104464 0.15849464 0.027037678 -0.4332462
0.39856428 -0.33369765 -0.4450708 -0.4470827 0.1604536 0.17011762 0.3530118 -0.33189318
-0.06697776 -0.42037418 -0.2521668 0.07445372 0.43445146 -0.21284306 -0.22377628 -0.44005138
0.4365773 0.1431366 0.4552653 0.17660956 0.25787756 0.3918697 -0.08207507 0.30811247
-0.28073305 -0.37881917 -0.05832188 0.2943196 -0.4293587 -0.23575126 0.10543237 0.44926018
-0.08514676 -0.32167852 -0.12956963 -0.18552683 -0.21867138 -0.00052266166 -0.4063349 -0.07070342
-0.09833943 0.23735154 -0.05742442 0.1820487 0.19185434 -0.27721643 -0.43261614 0.041866075
0.016957296 0.13075867 0.17141242 0.18626934 -0.055797234 0.33424363 -0.28760755 0.23981014
0.32712337 -0.43153405 -0.040064197 0.38430238 0.109672554 0.121678345 0.21035245 -0.17464939
0.4282212 -0.44183463 -0.3920948 0.03885011 -0.13263586 0.36438292 -0.29467976 -0.2257225
0.13440384 -0.14334756 0.08870039 -0.24186023 0.1542047 0.2917472 -0.09257898 -0.30406907
0.38635233 0.356184 -0.09789097 -0.014579233 -0.14200258 0.20873502 0.17855625 0.16353196
0.07422267 0.11746256 0.060417086 0.109628804 0.3460866 0.39399797 0.22643633 -0.44455972
0.30947638 -0.09376621 -0.26182085 -0.29971492 0.013822567 0.17079137 0.01011155 -0.22557357
0.23984213 0.096933134 -0.07760201 -0.32303637 0.0945705 -0.06858317 -0.40757155 0.31566048
0.4179184 0.22296749 0.15023692 0.015351658

bias f4 [20]
00000000: e612 edbd db80 2d3d 8d22 38be 6cb3 17be
00000010: ee53 27be 2da7 713e 3bad 043e a911 90be
00000020: efb6 3cbe c2c3 183d 4eb9 553e 8e55 7dbd
00000030: a0c8 923e 0dbd 1d3e 8994 d2bd 2611 b6bc
00000040: 7f72 26bd 08d3 9abe cd00 9d3e 51e0 4b3e
-0.1157587 0.042359214 -0.1798193 -0.14814538 -0.1634061 0.23598929 0.12956707 -0.28138474
-0.18429159 0.037296064 0.2087147 -0.06184917 0.2866869 0.15404148 -0.10282237 -0.022224974
-0.040636536 -0.3023913 0.30664673 0.19909789

att f4 [1, 1, 5]
00000000: 3872 1e3e f007 2dbe 1a47 213f 7601 513f
00000010: 30bf e33e
0.15473258 -0.16897559 0.6299912 0.81642854 0.44481802

bias f4 [5]
00000000: 41c6 0b3e c0a6 693d ad2a 4cbe 3631 5dbe
00000010: 5081 883d
0.13649847 0.05704379 -0.19938155 -0.21600804 0.066652894

weight f4 [5, 20]
00000000: e212 41be 320d 5d3e 2ddb e23e 48b4 c83e
00000010: e5c5 62be 984c 26be 4452 0d3f 2252 b9bd
00000020: 6b92 7c3e aac4 e1be f87b ebbe 5913 94bb
00000030: 04fc d0be a2ad 1dbf 6188 9e3e 4a28 ce3c
00000040: c492 c9be eece 34be a139 c9bc f08c 72be
00000050: 1bb0 cebe 7b2e 48be cbbb 7d3e ce7d 78be
00000060: 256b e4be 5504 28bf 94b8 143f 0d66 883e
00000070: 9714 15be 88ff 43be 02c5 dcbd 6120 9c3e
00000080: f497 cfbe a434 69be 552f 1ebe 49fd 5fbe
00000090: 5e4d cdbe 9d44 90bd bd63 8b3e 67c5 ca3e
000000a0: aa21 a63c fce8 c33e 9231 a2be 866b 1ebf
000000b0: 2433 e9be 3ba8 0abf 4d37 e33d e2ad d6be
000000c0: a2a2 c6be 04e0 4abe 1602 19bf ed20 e73e
000000d0: 5a50 0dbb 0e80 633d d852 c0be 41bc a93e
000000e0: 2089 8bbc 9061 55be 3b85 20bf 7284 a3be
000000f0: f803 43be e400 debd fdc4 e8be 63b9 f2be
00000100: d7db 673e 257c 0dbf 508e 03bf a539 d5be
00000110: 43ef 323e 4e86 b9bd 5f8d 2ebf a4d9 383d
00000120: 2ddc 693d 1e73 dd3e 98c8 1cbe 521c 77be
00000130: c7e4 213d 8f66 fc3e f59a f1be 926a 22bf
00000140: ac51 093f 11c3 ddbe ebcf d93d 4eaa 013f
00000150: 5536 293f 0b10 9c3e 48e6 9fbe 0c64 053f
00000160: 4ea2 c4be 2c4f babe 1616 4b3e 542a babe
00000170: bf07 e6be ee1e 9dbe 7993 4d3e 458d 82be
00000180: 9f3d 893e 4dc2 adbd 17f3 8f3e fedc ec3e
-0.1885486 0.21587065 0.44307843 0.39200044 -0.22145803 -0.16240156 0.5520365 -0.09048869
0.24665229 -0.44095355 -0.45993018 -0.004518908 -0.40817273 -0.6159307 0.30963424 0.025165696
-0.39369786 -0.17657062 -0.024563612 -0.23686576 -0.40368733 -0.19548981 0.24778669 -0.2426674
-0.44612995 -0.6563161 0.58094144 0.2664036 -0.14558636 -0.19140446 -0.10779764 0.30493453
-0.4054562 -0.22773987 -0.15447743 -0.21873964 -0.4009809 -0.07044337 0.27224532 0.3960373
0.020279724 0.3826369 -0.31678444 -0.6188282 -0.4554683 -0.5416295 0.11094532 -0.41929537
-0.38795954 -0.19812018 -0.5976881 0.45142308 -0.0021562786 0.055542044 -0.37563205 0.3315144
-0.01703316 -0.20837998 -0.62703294 -0.31936985 -0.19044483 -0.108400136 -0.4546279 -0.47407064
0.22642456 -0.55267555 -0.51389027 -0.41645542 0.17474084 -0.0905882 -0.68184465 0.045129433
0.05709474 0.4325189 -0.15310895 -0.24131897 0.03952482 0.49296996 -0.47188535 -0.63443863
0.53640246 -0.43312886 0.1063536 0.5065049 0.6609853 0.3048099 -0.31230378 0.52105784
-0.3840508 -0.36388528 0.19832644 -0.3636042 -0.44927785 -0.3068766 0.20075788 -0.25498405
0.26804826 -0.084843256 0.2811515 0.46262354

bias f4 [5]
00000000: ca5b 363c cefa 0dbe 1cf6 b3bd 79b9 4ebe
00000010: dbfe 17be
0.011130283 -0.13865206 -0.08787176 -0.2018794 -0.14843313

weight f4 [5, 20]
00000000: 6ccb 71be d730 f6be 5ca2 94be fe9e 92be
00000010: 5fe1 93be 10c8 563e e0b2 f3be 7c82 cd3e
00000020: dbb3 bfbe 1725 a5bc b30d e83d 2305 163e
00000030: ba69 863d 2f80 d6be b5bf b3be 841c d73e
00000040: e6f2 dd3e 4bf6 05bd 9044 55be 5c90 e5be
00000050: 1df8 33be 621c e3bd 93ed d73d 493c ba3d
00000060: fade d4bd d723 863e 239a 5e3e 57c6 383e
00000070: 683e f73e ba15 f93c 8d45 423e 7100 d4bd
00000080: 3988 483d c64b c13e 3c38 983e e423 933e
00000090: 63d0 debe 2573 33be 379a 88bd a17d c83b
000000a0: bd8a 513e b9e1 973e 6695 7fbe cd2d d3bd
000000b0: dbb6 b4be ca5d 923e 1f63 27be 61c2 cd3e
000000c0: bd9a bcbe 08a0 ee3e 6f0c 0d3e 357f 9dbe
000000d0: c296 d33e a3ff 82be 0756 efbe 6457 823e
000000e0: 9644 bebe 1dba c13d 8f20 cabe e2fb 9d3e
000000f0: 6747 dcbe 8215 f7be 6f21 f4be df86 e93e
00000100: bd5a c1bc bfde 98bd c694 efbc 10fe 8abe
00000110: c46e efbe e26d 7abc b493 763e b8f3 943e
00000120: f989 a23e 6064 933e 97d7 f3bc 78be 7a3d
00000130: 6ea9 2ebe e607 93bc 57c6 2bbd 8da7 293e
00000140: 80ae 90be 284f 85be 9365 d53e c9d3 f93e
00000150: 3298 223e f5fe 3abe 0b6a 473e 9be8 a3be
00000160: 9b8f a3be 8337 c93d 122a e3bc 70b0 cdbe
00000170: c83e b4be 5db1 523e 4e66 c0be ad8b b53e
00000180: 58e4 d23e c931 cbbe 48b4 92be 981e 663d
-0.23612756 -0.48084137 -0.2903012 -0.28636926 -0.28882882 0.20974755 -0.47597408 0.40138614
-0.37441906 -0.020159287 0.11330738 0.14650397 0.065631345 -0.4189467 -0.35107198 0.42013943
0.4334938 -0.032705586 -0.20826936 -0.448367 -0.17575116 -0.11089398 0.105433606 0.0909353
-0.10394092 0.2619922 0.21738486 0.1804441 0.482898 0.030405868 0.18971844 -0.10351647
0.048958037 0.37753123 0.29730403 0.2873832 -0.4351836 -0.17524393 -0.06670039 0.0061184918
0.2046308 0.296644 -0.24959335 -0.1031147 -0.35295758 0.2858718 -0.16346405 0.40187362
-0.36836806 0.4660647 0.13774274 -0.30761114 0.41325957 -0.2558566 -0.4674532 0.254573
-0.37161702 0.094593264 -0.39477965 0.30856234 -0.43023226 -0.48258597 -0.47681758 0.4561071
-0.023602838 -0.074643604 -0.029245745 -0.2714696 -0.46764195 -0.015284987 0.24079782 0.29092193
0.3174589 0.28787518 -0.029765887 0.0612168 -0.1705682 -0.017948102 -0.0419372 0.16567822
-0.28258133 -0.26036954 0.41679057 0.48794392 0.1587837 -0.18261321 0.19474046 -0.320134
-0.319455 0.09825041 -0.027730022 -0.40173674 -0.35204148 0.20575471 -0.37578052 0.35458127
0.41189837 -0.3968642 -0.2865317 0.05618152

bias f4 [5]
00000000: 105d de3d 3b79 2d3e 2262 59be 3b43 36be
00000010: 76bc 4cbe
0.10857594 0.16940777 -0.21228841 -0.17799084 -0.19993767

att f4 [1, 1, 10]
00000000: 20c9 b13e 0d77 3fbd 30bc a4bd 466c 863e
00000010: 82a2 23be 80a5 953e 9fb8 f43e 5fc9 e73d
00000020: 6ba0 1c3e 99b2 2ebe
0.3472376 -0.046744395 -0.080437064 0.2625448 -0.1597996 0.2922783 0.47797105 0.11317705
0.1529557 -0.17060317

bias f4 [10]
00000000: 48db 7d3c 5e24 85bb 70ff 013d 545a b23c
00000010: 3616 843c 6e84 5cbc 0b38 0e3c 061c a63b
00000020: b8e7 b8bc 7601 d2bc
0.015494175 -0.004063173 0.031737745 0.021771587 0.016123872 -0.013459308 0.008680354 0.0050692586
-0.02257143 -0.025635462

weight f4 [10, 20]
00000000: c89a 063f bce6 f0be a3d4 bfbd 9eb8 ac3e
00000010: 92b4 74be 3c7b 8c3e ea13 ac3e cd08 9c3e
00000020: 68a9 573e 1685 f2be d184 ad3e 2c94 83bd
00000030: 4fd1 2abe 6dea 7fbe 07c0 fb3e d28f c03e
00000040: ae0e 093f c8ca 9f3e b2a4 0cbe 5cb8 cf3d
00000050: 186c 833c b84c 7dbe 379c 8ebe 743e d8be
00000060: 94d1 e6be de34 a93d 1595 18bf 134f e3be
00000070: 00c0 2e3e 9dec 313e 08e8 cdbe fa20 a63d
00000080: 4f8d 67be f52c ad3d c858 4e3e 14b0 013f
00000090: 4518 c8be 11fa 8abc 174e 0fbf df2d 98be
000000a0: ea83 b03e 75df 59bd 9790 073f 5413 66be
000000b0: 6277 12be ccba 8ebc 8290 113f 037d 60bd
000000c0: e8b5 603e 7c59 3f3b 5f55 ed3d 6892 a53e
000000d0: fb58 4fbe d804 d3be 21b5 8dbd 0426 a2bb
000000e0: c8b4 cebe 7dbd 84be e4cb d13e b33b e7bd
000000f0: 7d86 e53e d196 503e 93f8 013f 5532 293e
00000100: 6ed5 933e 12f4 9bbd 797b e83d 29e9 8dbe
00000110: 13d8 053f efa0 04bf a939 e23e 5a76 29bd
00000120: 0725 663e 41e7 0bbf 564b 00be 61c4 d5be
00000130: 8d28 9abe 7e62 dfbe dd93 db3e ebd0 fa3e
00000140: 3763 79be a249 7bbe a0bd 0b3e 228f 21be
00000150: dc8e 3c3e f780 66be f238 7fbe 8c57 72bb
00000160: a964 b13e 5c52 a1bd e64e c0be fe91 9ebd
00000170: 289a d03d fbe0 753c 970f 06be 0954 513e
00000180: 66b7 c4be 1c11 72be 8997 ff3e 299e 5a3e
00000190: 83a7 dfbd 7cdf 10be feec adbe a086 873d
000001a0: da3c bf3c 9c4a cdbe 7240 e1be 3c7f ffbe
000001b0: de27 0f3e 0b38 be3e 45fa c7be b913 d9bd
000001c0: 0e17 003f 8be5 eb3e a542 76be c79c 2cbd
000001d0: 3c84 8c3e 6259 a3bd 7538 d9be f8a8 dfbd
000001e0: 7160 893d fe5f debe 06ec 96bc 074f 073e
000001f0: 8c4b 383e 8dca eb3e 3e62 ff3d dfdd 73be
00000200: cf11 b53e 445b 33be aa3d b63e 4d45 00bf
00000210: 168a 02bf 77cd 0e3d 5205 ee3e 73f2 e13d
00000220: 05ae afbd e7a3 92be a5da 92be 739e 6abe
00000230: c711 b0bd c7e1 203e 6bc9 84be d4b2 9f3e
00000240: 7731 1cbe d2fa e33e f438 433d d7b7 df3e
00000250: 8ec4 0d3e b2b9 2d3e e50a f83d c603 aabe
00000260: b2d3 f5bb 3808 cebe d0a5 8fbd 6a7a 73be
00000270: a898 ca3e c2ee c63e e3e3 cb3e a599 ff3e
00000280: 6057 353e f4da b8be d588 f4bd 4acb 89bd
00000290: 52c8 df3e cd47 8bbe 83a6 04be 0199 76be
000002a0: 2481 2c3e ed61 9cbd 7248 3abe fa51 a1bd
000002b0: 38ae 0dbf 2ed4 c8be b63a 5fbe b894 dd3d
000002c0: 78cf b0bc 6a6f 463e da77 ecbd 4105 c23e
000002d0: e9de 17bf 1532 193f bc06 a4be 6230 793e
000002e0: 38a7 24be 87c6 a8be b081 d5be e51c 7c3e
000002f0: aac4 afbd d65f 1e3f b9b9 b3bd a2b2 8cba
00000300: 930f 0d3f b5eb 093e 009a d3be 61cc 87be
00000310: e732 1ebd e998 0fbe 6023 14bf 9c02 12be
0.5257993 -0.47051036 -0.09366729 0.33734602 -0.23897007 0.2743777 0.33608943 0.30475464
0.21060717 -0.47367162 0.33890393 -0.06424746 -0.16681407 -0.2499177 0.49169943 0.37609726
0.53538024 0.31209397 -0.13734701 0.10142586 0.016042754 -0.24736297 -0.27853557 -0.42235148
-0.4508177 0.08262037 -0.5960248 -0.44396266 0.1706543 0.17375417 -0.40216088 0.081117585
-0.22612499 0.084558405 0.20151055 0.506593 -0.39081016 -0.016964944 -0.5597853 -0.29722497
0.34475642 -0.05319162 0.52955 -0.2246831 -0.14303353 -0.017423056 0.56861126 -0.05480672
0.21944392 0.0029197624 0.11588549 0.32338262 -0.20248787 -0.41214633 -0.06919313 -0.0049483795
-0.403723 -0.25925818 0.4097587 -0.112906836 0.4482917 0.20370032 0.5076992 0.16523106
0.2887377 -0.07614912 0.113516755 -0.2771695 0.5228283 -0.51808065 0.44184616 -0.041372634
0.22475062 -0.5464974 -0.12528738 -0.41751388 -0.30109063 -0.4362983 0.42886248 0.48987517
-0.24354254 -0.24539807 0.13646555 -0.15777257 0.18413872 -0.22510134 -0.24924067 -0.0036978452
0.3464711 -0.07877037 -0.37560195 -0.077426895 0.10185653 0.015007253 -0.13091885 0.20442213
-0.38421172 -0.23639339 0.499203 0.21349396 -0.10920622 -0.14147753 -0.33969873 0.066174746
0.023344446 -0.40095985 -0.4399448 -0.4990176 0.13980052 0.37152132 -0.39058128 -0.10599465
0.5003518 0.46073565 -0.2404886 -0.042141702 0.27444637 -0.07976033 -0.42425886 -0.109209
0.06707848 -0.4343261 -0.018423092 0.1321374 0.17997569 0.4605297 0.1246991 -0.23815106
0.3536515 -0.17515284 0.3559392 -0.50105745 -0.5099195 0.034863915 0.46488434 0.11032572
-0.085781135 -0.28640673 -0.28682438 -0.22912006 -0.08597141 0.15711127 -0.2593492 0.31191123
-0.15253244 0.44527298 0.047661737 0.43694946 0.13844511 0.16965368 0.12111453 -0.33206004
-0.0075020427 -0.40240645 -0.07014048 -0.23777166 0.39569592 0.38854033 0.398223 0.4992191
0.17709112 -0.36104548 -0.11940161 -0.067282274 0.4370752 -0.27203217 -0.12954144 -0.24081804
0.16846138 -0.07635865 -0.18191698 -0.07876964 -0.5534396 -0.3922438 -0.2179974 0.108193815
-0.021583304 0.19378439 -0.11546297 0.37894633 -0.5932451 0.59842044 -0.32036388 0.24334863
-0.16079414 -0.32963964 -0.41700506 0.24620397 -0.085824326 0.61864984 -0.08775658 -0.0010734389
0.5510189 0.13468821 -0.4132843 -0.26523116 -0.038622763 -0.14023174 -0.5786648 -0.14258808

bias f4 [10]
00000000: 905d fbbd 6c7f adbd 5862 d13d 80c2 563d
00000010: 06a8 a53e f7e7 e0bd 9b98 1d3e 3bc1 f63d
00000020: 1b17 b23d fe8d c9be
-0.12273705 -0.084715694 0.10223836 0.052431583 0.32354754 -0.10981744 0.15390246 0.120485745
0.08695813 -0.39366144
