model/gnn/240929_10/epoch_3.pt (torch, 739960 bytes, 73 tensors)

att_src f4 [1, 1, 25]
000000 95 82 09 be d9 1b 83 be 50 92 36 3e 05 02 7f 3d
       -0.1342872 -0.25607184 0.17829251 0.062257785
000010 d8 b7 39 be 07 72 4f 3e 91 1d d0 3d cc 0e 43 3e
       -0.18136537 0.20258342 0.10161889 0.19048613
000020 62 81 f7 3b 5f a4 06 3e b2 0c 64 be 6c 76 91 be
       0.0075532654 0.1314864 -0.22270468 -0.2841066
000030 e4 be e2 bd db a2 53 3e 25 0a f5 bd 37 c2 84 3e
       -0.11071566 0.20667593 -0.119648255 0.25929424
000040 5a fe 0c 3e 52 c1 86 be 22 b3 8a be 3b a2 1c 3e
       0.13768902 -0.26319367 -0.27089792 0.15296261
000050 81 d3 6d 3d 1a f1 9f 3d c2 be 8f bd d9 3c 3f 3e
       0.058063034 0.07809658 -0.07018806 0.18675555
000060 a5 dd 0f be
       -0.14049394

att_dst f4 [1, 1, 25]
000000 5f 60 25 3e f1 e7 61 3e 62 03 48 3e 5d a6 16 be
       0.16150044 0.22061135 0.1953254 -0.147119
000010 27 ed 2c 3e 56 0a 8d 3d 20 a7 9a be cc ed a8 3e
       0.16887341 0.06886737 -0.3020563 0.32993925
000020 fe 26 c3 be 9f bf 68 3e c0 02 2e be 6c 20 99 3e
       -0.38115686 0.22729348 -0.16993237 0.29907548
000030 88 ca a2 3e 5b 6e a6 3e 73 27 2c be 0e 55 28 be
       0.31795144 0.3250607 -0.16811924 -0.16438696
000040 ab 86 87 3d ac b6 93 bd ed 26 c5 be 2e a1 00 be
       0.06617483 -0.07212576 -0.3850626 -0.12561485
000050 df 29 9f be 2f 92 08 be 42 ba c4 3e 7c 77 b8 3e
       -0.31086633 -0.13337015 0.38423353 0.3602866
000060 5d ee a7 3e
       0.32799044

bias f4 [25]
000000 fe 83 32 bc c6 ec 1d bc 7c 4f 05 3d 1e 75 e9 bc
       -0.010895727 -0.009638971 0.032546505 -0.028498229
000010 f7 3a 95 3b 13 37 03 bc 98 45 32 3c 5d ab b6 3c
       0.0045541483 -0.008008736 0.01088085 0.02229851
000020 0f 10 a0 3b 50 c9 d7 3c 8d 50 ed bc 7c a7 05 3d
       0.004884727 0.02634111 -0.028969074 0.03263043
000030 de 87 d8 bb 00 88 4b 3c 33 27 24 bc 08 b1 0f bc
       -0.0066079935 0.012422562 -0.010019111 -0.008770235
000040 e7 cb 05 3d 90 83 c5 bc 7f 8b 6c bc ba a3 07 bc
       0.03266516 -0.024110585 -0.014437555 -0.008278782
000050 8d 92 61 bd f8 36 16 bc c6 3a 55 3c 3c f7 ec 3c
       -0.055071402 -0.009168379 0.013014501 0.028926484
000060 a4 9b 92 3c
       0.01789648

weight f4 [25, 163]
000000 5a bb 60 bd 90 45 20 be 2a fd f9 bd 72 62 80 3d
       -0.054866172 -0.15651536 -0.1220649 0.06268777
000010 25 06 e0 3c 9b 18 84 bd be db bd 3d 1c 3a 9d 3d
       0.02734668 -0.064500056 0.09270428 0.07677099
000020 50 39 0c be e5 a1 33 3d 14 02 60 3d 94 d4 39 bd
       -0.13693738 0.043855567 0.05468948 -0.045368746
000030 ba 2d 8c bd 36 75 03 3d 2c df 25 3e 0d d9 1c be
       -0.06844659 0.032094203 0.16198415 -0.15317173
000040 23 34 20 bc 38 93 2f 3d c9 19 90 be a3 2a 91 bd
       -0.009778055 0.042865008 -0.28144673 -0.070882104
000050 05 62 7b be ad 44 20 be 81 58 f5 bc 41 2d 3e bd
       -0.2454911 -0.15651198 -0.029949429 -0.046429876
000060 2c 3f 91 bc dc ab 2a 3d 8f 78 3e 3e 8e 28 f9 3c
       -0.017730318 0.041667804 0.18600677 0.030414846
000070 0a ae b1 3c cc f7 92 3d 1f ac 03 be ce 75 a8 be
       0.021689434 0.0717617 -0.12858628 -0.32902378
000080 e5 de 02 bd 54 e9 90 be 4f cc 67 bc 04 5d 1d 3e
       -0.03195085 -0.28303015 -0.014147832 0.15367514
000090 ae f7 18 3d bb df d3 3c 74 67 d5 3e 9b 2f 5c 3e
       0.03734558 0.025863519 0.4168049 0.21502535
0000a0 f0 48 bf 3d c3 58 b8 3d 6e c7 8f be 41 31 45 be
       0.093400836 0.09001305 -0.2808184 -0.1925707
0000b0 fe b7 ee 3d 0e 54 59 3d 51 24 8f 3d e5 d0 8e be
       0.116561875 0.053058676 0.06989349 -0.2789375
0000c0 3f fa 53 3b 84 c4 c9 3d de bb 48 3e 2a f7 18 3e
       0.0032345203 0.098519355 0.19602916 0.14938036
0000d0 57 0d 34 be d9 7d 90 bd 7e 89 b8 3d 6b 23 3d 3c
       -0.17583214 -0.070552535 0.090105996 0.011544089
0000e0 49 58 77 bc 83 46 1d be e8 8a e5 be 29 a4 84 3d
       -0.015096732 -0.1535893 -0.4483254 0.064766236
0000f0 0a 9f 36 3d 7f db 08 3e 28 52 94 be fe 72 a1 3d
       0.044585265 0.13364981 -0.2896893 0.07883261
000100 21 f1 f2 3e 66 05 7a 3e 5d 96 62 bd 94 d6 a3 bd
       0.47449592 0.24416122 -0.05531918 -0.07999912
000110 07 2f e7 bd 87 69 66 3e 44 c7 6d 3d 94 48 23 be
       -0.11288267 0.22501193 0.058051363 -0.15945655
000120 42 78 2b 3e 9f 9d 11 be 44 17 21 bd 7b 6b 67 be
       0.16745093 -0.14220284 -0.03932883 -0.22599594
000130 7d 43 09 3e a5 20 9e 3c 05 a3 fd be f1 e4 24 be
       0.13404651 0.019302676 -0.49538437 -0.16102959
000140 ab b1 d9 be 08 bc 7c 3e f9 7a 61 be 76 ae 01 3e
       -0.42518362 0.24681103 -0.22019567 0.12664208
000150 84 dd e5 be 11 cd 8a bd a5 b3 cd be f8 ba de bc
       -0.44895566 -0.067773946 -0.4017612 -0.027188763
000160 95 1b ff bd 46 a3 3a bd 10 67 44 be 33 d2 bc 3d
       -0.12456433 -0.045565866 -0.1917994 0.0921978
000170 4e 66 82 bd 02 2a f3 3d b3 30 41 be d5 00 70 3d
       -0.06367169 0.11873247 -0.18866234 0.058594543
000180 25 cc c2 3c c6 43 b4 3d d6 68 ae 3d e4 62 95 be
       0.023778984 0.08801989 0.085160896 -0.2917701
000190 a6 0c 88 bc 44 b0 1a be 47 74 27 3e 83 08 a9 3d
       -0.016607594 -0.15106302 0.1635295 0.082535766
0001a0 ec 9b 71 bd d4 b8 a0 3d a0 d0 18 3e fb e1 d6 3d
       -0.05898659 0.07847753 0.14923334 0.10492321
0001b0 ea 06 28 3e a4 7e dd bc 0a 7c ab 3b 9b 54 1d be
       0.16408888 -0.027037926 0.0052332925 -0.15364306
0001c0 d0 7d c1 bc e4 6e 80 bc de 8e 32 be 0d 9f 8b bd
       -0.023619562 -0.015677877 -0.17437312 -0.06817446
0001d0 d6 aa 3f 3d 22 df f5 bc 47 5b 46 be ee 1f 89 3d
       0.04679378 -0.030013625 -0.19370757 0.06695543
0001e0 f4 85 6b bd d0 7a dd bd db 31 2d bc b3 f4 14 be
       -0.057500795 -0.1081444 -0.0105709685 -0.1454647
0001f0 60 b3 c0 3d 8c a6 24 bc 52 31 b2 3d 53 c1 a1 bc
       0.09409213 -0.0100494735 0.08700813 -0.019745504
000200 cd 4a 47 3c ea ba c8 bd 7f e7 11 3e 3f f4 b4 bd
       0.01216383 -0.09801276 0.14248465 -0.08835649
000210 7d 4d d7 bd f4 6e 4e 3d 30 c4 ea 3c f5 cd 43 3d
       -0.105128266 0.050398782 0.028658003 0.047803838
000220 c1 0b 0a 3c 2f 83 5a 3d 15 ce ce 3d b3 5a fe 3b
       0.008425654 0.053347763 0.10097901 0.007762277
000230 74 84 11 be cf 93 12 3e 20 f9 75 3c c1 fd e1 bd
       -0.14210683 0.14314197 0.015013009 -0.11034728
000240 24 21 0e be 65 2b 25 bb 90 40 f4 bb d8 7e dc 3d
       -0.1387983 -0.0025202867 -0.0074539855 0.10766381
000250 af 6e c6 3c b8 e8 19 be 79 7e e9 bd d6 b4 b8 3d
       0.0242227 -0.15030181 -0.11401076 0.09018867
000260 22 3b 70 3d a7 7c 65 3c 5d 85 2d be e9 e1 11 3e
       0.058650143 0.01400677 -0.16945405 0.14246334
000270 36 ac 34 3d 52 7f f6 3a ac 43 8c 3d ec ec c4 bd
       0.044109546 0.0018806255 0.06848845 -0.09615502
000280 4a e3 36 3e 36 b0 cf bd 9b 75 09 3e ae 36 00 3d
       0.17860141 -0.101410314 0.13423769 0.031302147
000290 8a 89 d3 3d b3 2d d8 3c ca fd 39 bd b0 07 02 3d
       0.10328968 0.026388979 -0.045408048 0.031745613
0002a0 c9 e8 e9 3c 0a a3 78 3d d1 c8 9c 3d cf 19 10 be
       0.028553383 0.06070236 0.0765549 -0.14072345
0002b0 cd 31 c8 3d 78 03 54 3c bd ef 1e 3d 39 53 5c bb
       0.09775124 0.01294028 0.03880285 -0.003361894
0002c0 33 46 c0 bd c8 a4 b7 bd 8a 9c c3 3c 27 24 c0 bc
       -0.093883894 -0.089669764 0.023878355 -0.023454739
0002d0 fe 18 3d bd d0 cd c2 bd 78 27 02 3d db 83 1c be
       -0.046166413 -0.09511912 0.03177592 -0.15284674
0002e0 01 c2 0a 3d 1d d6 43 be c4 17 49 3d d3 2e 60 3c
       0.033876423 -0.19124646 0.04909493 0.013683039
0002f0 4c f4 da 3b fb 36 0e 3e c2 80 de bc 9c f5 d3 bc
       0.0066819545 0.13888161 -0.027161006 -0.025873952
000300 03 90 c7 bd f4 57 17 bd 87 51 4f 3d 22 b3 1f 3d
       -0.09744265 -0.036949113 0.05061486 0.038989194
000310 27 cd 86 be 7c c4 30 3b ed 9a e0 3c 69 e4 88 be
       -0.26328394 0.0026972583 0.027417624 -0.26736763
000320 fa 43 2c bd 86 ec 4e be 34 69 e8 3e f0 5a af be
       -0.042057015 -0.20207414 0.45392764 -0.34249067
000330 42 80 a7 be 6b f9 69 be 8b 7f a5 3d 4d b4 24 be
       -0.3271504 -0.22849052 0.080809675 -0.16084404
000340 5e 8a 35 bd 4d bf df bd 7e 92 38 bd 9d 39 52 3c
       -0.04432141 -0.109251596 -0.04506158 0.012831119
000350 a6 93 04 3e 8b 33 b6 be 69 c6 38 3e 38 4a 2c 3e
       0.12946948 -0.355862 0.18044437 0.16825187
000360 5e d6 51 3d e5 7e 79 bd fc a0 3a be be d7 85 bd
       0.051229827 -0.06091203 -0.18225473 -0.0653529
000370 dc 9f 0c 3e 77 46 81 3d 07 93 8f bd 91 4f 88 be
       0.13732857 0.06312268 -0.07010465 -0.26623204
000380 2a 2f 91 bd da 81 98 3d a7 17 7d be a7 54 bb 3e
       -0.07089074 0.07446642 -0.24716054 0.36588022
000390 d3 89 25 be 92 3d 0c bb d8 96 21 be 47 35 6a be
       -0.16165857 -0.0021399003 -0.15780199 -0.22871886
0003a0 ae 4e 02 be ae 56 0b 3e 34 46 98 3d ab 37 15 be
       -0.12725326 0.13607284 0.07435265 -0.14572017
0003b0 56 bb 5c 3e 9f d0 ba bd c8 d0 10 3e 86 a7 98 3d
       0.21555838 -0.091218226 0.14142144 0.074538276
0003c0 bd bc 4d 3b 11 b0 16 3e c9 6a 67 be e5 7a c6 3c
       0.0031393014 0.14715602 -0.22599329 0.024228523
0003d0 29 c1 1f bd 77 5a 3c 3e ba fd 3d 3d 61 b9 80 be
       -0.03900257 0.18393885 0.04638455 -0.25141433
0003e0 f6 3b e6 3d 96 3a 04 be 5b 34 8e bd 39 5b 7a 3d
       0.112419054 -0.12912974 -0.0694358 0.061122153
0003f0 de e1 9e bd 8a a5 41 3d fc b4 9f 3d fe 8a 7d 3d
       -0.077579245 0.04727701 0.07798192 0.06190013

weight f4 [25, 163]
000000 f6 55 31 3d f3 65 e6 bd 4d 94 09 3c 4f 5c e3 bd
       0.04329487 -0.11249914 0.008397174 -0.11101591
000010 a4 a5 c8 3c 1f 9c f7 3d 40 22 f3 bb 04 e9 8d 3d
       0.024493046 0.120903246 -0.0074198544 0.0692921
000020 43 67 5b bd 1e 61 e8 bd 23 c3 e6 3d cf 6c fe 3c
       -0.053565275 -0.11346649 0.11267688 0.031057743
000030 57 aa e8 bc f5 be ff bd 0f 6a e9 3b 25 e9 f7 bd
       -0.028401537 -0.12487594 0.007123239 -0.12105016
000040 68 36 a1 bd f4 b0 d5 3d 15 63 82 bd a7 01 00 3e
       -0.07871705 0.10434142 -0.06366555 0.1250063
000050 a4 9d 1f 3d eb 3c ad 3c 2e 5a ea bd 40 b8 03 be
       0.038968697 0.021147212 -0.11442982 -0.12863255
000060 e0 4d 0d 3d 4e 5d 36 3d 22 f5 0b bd 4b 26 e5 bd
       0.034498096 0.044522576 -0.034169324 -0.111889444
000070 80 9e 0c be 35 f4 ab bd 4a c1 c9 bd 26 99 dd bd
       -0.13732338 -0.08396188 -0.0985132 -0.10820226
000080 19 07 82 3d 03 17 03 3d 96 cd 43 bc ef 60 c9 bb
       0.0634901 0.032004368 -0.011950871 -0.0061455886
000090 5e f3 95 3d fa b2 80 bd 72 7f e4 3d a0 83 ca bd
       0.07321809 -0.06284137 0.11157121 -0.09888387
0000a0 73 cd 0c 3e c9 6f 12 be 9b 70 7c bb df c5 0f be
       0.13750248 -0.14300455 -0.0038519267 -0.14040326
0000b0 a5 e5 c0 bc 70 b1 11 3e 65 a6 33 bd d8 69 13 bb
       -0.023547003 0.14227843 -0.043859858 -0.0022493508
0000c0 57 58 8e 3d 65 1b 72 3d b6 e7 d1 bd f4 50 e8 bc
       0.06950443 0.059108157 -0.102492735 -0.028358914
0000d0 6e 38 63 3c 07 bc 0c 3e f3 db 7a bb 64 eb e9 bd
       0.013868434 0.13743602 -0.0038278073 -0.1142185
0000e0 55 87 fb bc 60 73 9f bd b4 a9 11 be 36 7b 95 3d
       -0.03070418 -0.07785678 -0.14224893 0.07298891
0000f0 a8 4c 0e 3e d5 75 0f 3e ff 80 57 bd 97 3a 10 bd
       0.1389643 0.14009793 -0.052613255 -0.035212126
000100 ea 1f 78 bd fc 9f 0e 3e 0a d2 fd 3d f6 ca d5 3d
       -0.06057731 0.13928217 0.123935774 0.10439102
000110 cf da 25 bd f6 70 03 be 5e 05 04 be 9e da 77 3d
       -0.040491875 -0.1283606 -0.12892672 0.060511224
000120 4e 5d 24 3d 8b 32 eb 3d 28 cb 41 bd dd 91 04 bd
       0.040128045 0.1148425 -0.047312886 -0.03236567
000130 4d 04 04 bd 8b 60 dd bb e4 f0 54 bd 69 52 ae 3d
       -0.032230664 -0.0067558936 -0.051987544 0.08511812
000140 cb f7 ff bd 01 7c e9 bd 64 14 3e 3d b3 df e4 3d
       -0.12498435 -0.11400605 0.046406165 0.1117548
000150 d8 6b 6f bd e5 d9 c5 3d 0e eb 0e be 7f 84 29 3d
       -0.058452457 0.09660701 -0.13956854 0.041386124
000160 26 82 b9 bc 5f a1 e4 3d 96 7e 1a bd 0c b2 a4 3c
       -0.022645067 0.111635916 -0.037718378 0.02010443
000170 b8 c6 c1 bd 8f 22 bb bd f3 95 07 be ac 4e c5 bd
       -0.09461731 -0.09137451 -0.13240795 -0.09634146
000180 32 75 97 bd 59 67 fb 3c 28 c3 b0 3d 11 d4 a7 3c
       -0.073954 0.030688928 0.08630973 0.020486863
000190 6a ea a4 bc 08 52 16 3d 1c bb fb 3d 42 0f 1e bd
       -0.020131309 0.036699325 0.12291548 -0.03858877
0001a0 3e 6d 3e bd dd 0e 97 bd 29 80 36 3d 7a 0c 99 bd
       -0.0464909 -0.07375882 0.044555817 -0.07473083
0001b0 d3 d9 12 3d 9a 54 1b bd 8a 58 06 bd 1a 50 9f 3d
       0.035852265 -0.03792248 -0.03279928 0.0777895
0001c0 bf 93 82 bd f8 40 08 3e 17 e1 12 bc fa eb c2 bd
       -0.063758366 0.13306034 -0.008964798 -0.09517665
0001d0 8b b5 fa 3c d8 67 e5 bd 31 14 c0 3c ab b8 5d 3d
       0.030604145 -0.11201447 0.023447128 0.05413119
0001e0 2f 6f be bd 49 84 17 bb bd b5 1d bc 45 54 71 3d
       -0.0929855 -0.002311962 -0.009625849 0.058918256
0001f0 8b 80 37 bd 23 ad e7 3d 65 14 3f 3d c5 26 25 bd
       -0.044800323 0.1131232 0.04665031 -0.040320177
000200 83 3a 0c be 59 be 12 be 1d 6c bc bd e1 2d 03 be
       -0.13694195 -0.14330424 -0.092003085 -0.1281047
000210 e5 6a 18 3d 80 1a 6d 3d 37 c2 0b be f9 7b 32 3d
       0.037211318 0.0578866 -0.13648306 0.04357526
000220 a9 3d 03 ba 9f d1 e5 3d 15 fb c6 3d 2a cf ee 3c
       -0.00050064415 0.11221623 0.09715859 0.029151518
000230 ed 5a 13 be 20 3b f7 3d 60 fc d7 bd 6e 8d a2 3d
       -0.14390154 0.12071824 -0.105461836 0.07937132
000240 df eb cb bd b5 23 9d 3d bc 00 4e bd f4 b5 0a 3e
       -0.09957098 0.07672826 -0.05029367 0.13545972
000250 19 fd 64 3d 56 fb cc bd f0 22 05 3e 77 b6 dc bc
       0.055905435 -0.10008876 0.13001609 -0.026942475
000260 96 a3 94 b9 49 eb aa bd 5b c2 13 3c 63 c7 dd 3d
       -0.0002835064 -0.08345658 0.009018506 0.108290456
000270 2b eb c5 3d bf 6c e6 bd 06 82 b4 bb 1f 13 d7 bd
       0.09663995 -0.112512104 -0.005508664 -0.10501694
000280 28 5f a2 3d 98 82 4b 3d 97 92 fe 3d 41 2b ec bd
       0.07928306 0.04968509 0.124303035 -0.115316875
000290 f1 40 8a 3c a6 37 dc bd ae 00 19 bd 65 55 a9 bd
       0.01687667 -0.107528016 -0.037354164 -0.08268241
0002a0 13 75 b7 3d 55 6a 50 bb 26 79 ac 3d 22 c0 bd 3d
       0.08957877 -0.003180166 0.08421545 0.09265162
0002b0 76 e2 b9 bb 55 c5 07 3e bd 9d 10 3e 29 18 99 3d
       -0.005672748 0.1325887 0.14122672 0.07475311
0002c0 02 ee e0 3d 0c d9 05 3e 0e 58 4d 3a 6a 78 82 bd
       0.109828964 0.13071078 0.00078332506 -0.063706234
0002d0 9b 6a 0a 3e 20 90 08 3e fd ba ff 3d 05 d8 65 3d
       0.1351723 0.1333623 0.12486837 0.056114215
0002e0 44 6f ab bb 52 ff 04 be f3 19 ac bd 23 e5 ca bd
       -0.0052317698 -0.12988022 -0.08403387 -0.099069856
0002f0 fd 21 0e 3d 7c 0b d9 bc 32 b3 e3 bd 1b f2 ed bd
       0.034700383 -0.026494734 -0.11118163 -0.116184436
000300 7a 7f da 3d 5b 31 17 3d d1 f5 ce bd 43 ad 9f 3d
       0.106688455 0.036912303 -0.101054795 0.07796719
000310 6d a5 8f 3d 57 75 78 bc c6 4e 52 3d fb 03 98 3d
       0.07013974 -0.015164695 0.051344655 0.07422634
000320 56 28 a1 3d 51 ac 6a 3b 5d c7 02 3e e1 ff 11 3d
       0.078690216 0.0035808275 0.12771364 0.035644416
000330 f6 01 5c bd d4 f3 07 be 92 28 30 3d ea 5f e8 3d
       -0.053712808 -0.13276607 0.04300744 0.11346419
000340 42 46 be bd 57 f3 96 3d 19 78 b5 bd 41 8e 97 3d
       -0.09290744 0.07370632 -0.088607974 0.0740018
000350 e7 5e fd bd 55 d4 09 3d 51 96 e4 3d a7 77 50 3d
       -0.12371617 0.03364976 0.11161483 0.05089536
000360 49 d6 40 3c 11 a2 c0 bd 70 7b 85 bd 5a 8f f5 3c
       0.01176984 -0.09405912 -0.065176845 0.029975582
000370 fa 71 b3 bd cf 04 ec bd e6 17 3d 3d ad 5b 29 bd
       -0.08761974 -0.11524355 0.04616537 -0.041347194
000380 8e db 72 bc 2e ae 0b 3e 9e 18 ee 3d 33 a3 f7 3d
       -0.014822854 0.13640663 0.11625789 0.12091675
000390 2c e0 06 be 35 2f 05 bd e5 ec fa 3d 0f 4c d1 bc
       -0.13171452 -0.032515723 0.12252215 -0.025548963
0003a0 5b 23 01 3e 68 8c c1 bc 60 a3 d6 bc 1c b6 88 bd
       0.12611143 -0.023626521 -0.02620095 -0.066753596
0003b0 17 9e 9a 3b 78 5b e5 bd 91 83 51 bd e4 a6 71 3b
       0.004718553 -0.11199087 -0.051150862 0.0036873156
0003c0 20 a4 d5 bd 8d df cf bb 1a 8e 5d 3c 63 25 92 3c
       -0.10431695 -0.006343788 0.013522649 0.017840093
0003d0 d9 27 07 be 25 f1 7c bd 14 36 13 be ac 66 61 3d
       -0.13198794 -0.06175341 -0.14376098 0.055029556
0003e0 ce eb f8 bb 9a 73 0e 3e 9d 1b 23 bd 6a 49 c9 bb
       -0.0075964695 0.13911286 -0.039821256 -0.006142785
0003f0 26 e6 fb bc 48 04 fb 3d 49 2a 0d 3e 5f df 05 3e
       -0.030749392 0.12256676 0.13785662 0.1307349

att_src f4 [1, 1, 20]
000000 e3 e3 a8 3d 13 f4 b7 be 82 89 03 be 36 f4 86 3e
       0.08246591 -0.359284 -0.12845424 0.26358193
000010 4d c8 f1 3d 93 29 52 3e f2 6c 3d 3d 43 15 fe 3d
       0.118057825 0.20523672 0.046246476 0.12406399
000020 cf 36 d7 be 68 42 81 bd ef 93 b7 3d 4a 8c c1 3d
       -0.42034003 -0.06311494 0.08963763 0.09450586
000030 26 58 bd 3d 06 20 fd bd f2 44 7c 3e 5d c5 08 3e
       0.092453286 -0.123596236 0.24635676 0.13356538
000040 4c 1c 02 3e 0f 85 95 3e 05 77 2d bc b2 17 a0 3e
       0.12706107 0.29203078 -0.0105874585 0.31268078

att_dst f4 [1, 1, 20]
000000 12 20 66 3c b6 0b d6 be 62 fe 7e 3e cf 73 ba 3e
       0.014045732 -0.4180581 0.24901727 0.3641648
000010 52 10 88 3c 41 9f ce 3e e5 ee 6e be 63 da ce 3e
       0.016609345 0.40355876 -0.23333319 0.4040099
000020 67 89 00 be 91 d4 9c be 07 49 49 bd 8c e6 94 be
       -0.12552415 -0.30630925 -0.04914191 -0.29082143
000030 1b 83 87 be 32 0c dd bd 42 43 64 be 9c 14 c9 be
       -0.26467213 -0.10793342 -0.22291282 -0.39273536
000040 0c f8 2b be 67 5f 3c 3d de 13 9b 3e d4 ad b3 3e
       -0.16793841 0.04598942 0.30288595 0.35093558

bias f4 [20]
000000 cd 3c 41 3d d9 35 5d bc 38 5b 02 3d e8 3f d9 bc
       0.047177125 -0.013501608 0.031825274 -0.02651973
000010 62 bd cc 3c e4 3c 8c bd 7e 97 56 3d e3 54 32 3d
       0.024992649 -0.068475515 0.052390568 0.043537986
000020 5c 1c 1e 3d b7 a1 bb 3c 9a e4 3b bc b1 4d 3a bd
       0.038601264 0.02290426 -0.011468077 -0.04548425
000030 74 d7 5c 3c 54 f1 20 bd d0 7a 24 3c 72 2f 02 3d
       0.013479102 -0.03929265 0.010039046 0.03178353
000040 69 13 6c bc 59 75 fe ba 69 05 e1 3a 0d 4e 68 bd
       -0.014408925 -0.0019413634 0.001716775 -0.05671506

weight f4 [20, 163]
000000 30 c5 37 bd d4 57 1a 3d 4a 0b 23 bd 2f a0 d5 bd
       -0.044865787 0.037681416 -0.039805688 -0.10430943
000010 ce d3 cd 3d 1e 43 13 3e 02 67 a3 bd 37 44 f7 3d
       0.10050164 0.14381072 -0.079786316 0.12073558
000020 16 36 65 3d d2 d2 00 3d 87 5c ad bd 39 4c d2 bd
       0.055959783 0.031451054 -0.08464914 -0.102684446
000030 3e b8 3a 3d f4 24 10 3d b0 3d a5 bd c4 9f 2e bd
       0.045585863 0.03519149 -0.080684066 -0.042632833
000040 d7 67 5e 3d 05 70 a3 3c c6 e0 0b 3e 06 f6 02 3e
       0.05429825 0.019950876 0.13659963 0.12789163
000050 8f d0 61 3d 15 3a 05 3e cf 5c b5 3d 05 15 64 3b
       0.055130538 0.13010438 0.088555925 0.0034802568
000060 8c fe 13 3e 24 d5 8d 3d f9 c2 d7 bd be 6c 0f 3b
       0.1445257 0.06925419 -0.10535235 0.0021884884
000070 be 7f 14 3d 65 74 ef bd b8 77 a1 bc 61 41 bc 3d
       0.036254637 -0.11692122 -0.019710407 0.091921575
000080 e3 26 57 bc 97 73 8c bd 8f 9a a0 3d 49 78 ed 3d
       -0.01313183 -0.068579845 0.0784198 0.11595208
000090 ed 8a 30 bd 2f 1d cf 3c 82 3d b5 3d f1 66 c9 3d
       -0.04310124 0.02528247 0.08849622 0.09834088
0000a0 fe fa bb bc 33 e5 24 bc 9e 49 9d 3d cd f9 a2 bd
       -0.02294683 -0.010064411 0.07680057 -0.07957802
0000b0 0c d2 d5 bd b1 f0 85 3c 5d ee 03 bd 4f 52 05 be
       -0.10440454 0.016350122 -0.032209743 -0.1301968
0000c0 0d 9d d9 bc bc 5e 86 3d 1d 32 65 3c 1b 63 a6 bd
       -0.026564145 0.06561038 0.013988999 -0.081243716
0000d0 b8 b2 5a 3d 74 fb c1 bc 94 0e b2 3d 4f 7f 03 3e
       0.053393096 -0.023679473 0.08694187 0.12841533
0000e0 ba 67 c1 3c 12 52 3d 3d 2e 5a 35 bd 4b ac fe bc
       0.023609031 0.046220846 -0.044275455 -0.031088015
0000f0 b5 ad f2 bc 2b 1c d6 3d 26 61 81 3d c3 36 19 bd
       -0.029623846 0.10454591 0.06317358 -0.03740574
000100 92 31 f6 3d 15 50 f5 3d b0 3a 42 bd c1 8d a9 bd
       0.120211735 0.11978165 -0.04741925 -0.082789905
000110 55 f3 e9 3b be 59 02 bd 2c 1f 97 39 76 ea aa bb
       0.007139603 -0.031823866 0.0002882419 -0.005215938
000120 7a 34 eb 3c 36 dc c7 3d d3 bf 95 bd 0e 1e df 3d
       0.028711546 0.09758799 -0.07311978 0.10894404
000130 ee 5c e8 3d 82 4d 00 be e7 e5 e4 bc 82 0f f8 3a
       0.1134585 -0.12529567 -0.027941657 0.001892552
000140 6c a0 77 3d ec ab 8a 3c fe 84 86 3d 02 a6 01 bd
       0.060455725 0.016927682 0.06568335 -0.031652458
000150 94 f0 9b 3d 48 a1 ca 3d 5c fb 8e bd b5 20 d4 3d
       0.07614246 0.09894043 -0.06981537 0.10357801
000160 19 aa c6 bc 4a 53 96 bd ae 2e fe 3d 7b 65 f3 bc
       -0.02425103 -0.07340105 0.12411247 -0.029711476
000170 2b 28 55 3d f6 0e b7 bd 39 88 13 be 69 85 c8 bd
       0.05204026 -0.089384004 -0.14407434 -0.09791071
000180 ff 82 19 3e 39 aa ba 3d 3b bc c8 bd 99 87 d1 bd
       0.14991377 0.09114499 -0.09801527 -0.10230941
000190 26 99 1e bc af 1b 9b 3d a0 06 b3 3d 84 74 55 3d
       -0.009680068 0.075736396 0.08741498 0.05211307
0001a0 0f 31 43 bd 51 fd 15 3e 17 4e df bd 16 7a c3 3d
       -0.047654208 0.14647414 -0.10903566 0.095447704
0001b0 24 2e da bd b3 dc 59 bd 0d c5 9c 3d 85 3a a4 bc
       -0.10653332 -0.05318899 0.07654772 -0.020047436
0001c0 5b d0 2f bd 1b 82 13 bd 68 cd a4 3d 65 57 d4 bd
       -0.042923313 -0.03601275 0.08046991 -0.10368232
0001d0 29 42 9e 3d 87 c2 09 3e 4a 7d 08 bd af 00 ed bd
       0.07727463 0.13453113 -0.03332261 -0.11572396
0001e0 0d 71 95 3d 5b be 94 3d ea a8 0e be 52 a1 c6 3c
       0.07296953 0.0726287 -0.13931623 0.024246845
0001f0 91 65 4d 3d 34 55 09 be 26 11 50 3d 29 a7 ef 3d
       0.05014569 -0.13411409 0.050797604 0.11701805
000200 d8 91 7d 3d 3d 87 ad bd 78 d2 08 be 09 95 f3 bd
       0.061906666 -0.0847306 -0.13361537 -0.118936606
000210 63 bd 36 bd e3 de dc 3d aa af 0d 3e 23 8e 6d bc
       -0.044614207 0.107847 0.13836542 -0.01449922
000220 3d 9c 49 bd 83 a0 6b bd ac 31 6e 3d cd 5c bb bd
       -0.049221266 -0.057526123 0.05815284 -0.0914856
000230 09 99 db 3c 7c ca 81 bb a3 75 d0 bd 72 8e 94 3d
       0.026806371 -0.0039609056 -0.101786874 0.07253732
000240 e3 e5 32 3d e8 5f 93 bd 2f 19 ba bd 14 54 99 3d
       0.04367627 -0.07196027 -0.09086835 0.0748674
000250 34 09 92 bd 3e 86 c4 3d 10 88 1f bd f3 f3 12 bd
       -0.071306616 0.09595917 -0.03894812 -0.03587718
000260 d6 7f e6 3d 6e 9f 22 3d f3 9b b8 bd be 22 d8 bb
       0.112548515 0.039702825 -0.0901412 -0.0065959385
000270 2d 90 76 bd 34 20 a9 3a f3 ab 19 3d 9e ef 5d bc
       -0.06019609 0.0012903274 0.0375175 -0.013545899
000280 86 92 9b bd fc f5 e0 3d 76 5b d8 3d 5c a9 2c 3e
       -0.075963065 0.10984418 0.1056432 0.1686148
000290 e5 56 d7 3d 4f 82 b9 bd 24 e3 d7 bd 90 f4 f6 3d
       0.10514621 -0.090580575 -0.105413705 0.12058365
0002a0 d2 c1 9d bd be 8d 9f 3d 4d 88 33 bd d0 b5 9f bb
       -0.07702984 0.07790707 -0.04383116 -0.0048739687
0002b0 23 cb c1 bd 3a 28 51 3d 2f e1 3f 3e f6 31 ee 3d
       -0.094625734 0.051063754 0.18738244 0.11630623
0002c0 d7 3c bb bd 41 45 15 3d f5 04 6e 3d 63 29 86 3d
       -0.09142464 0.036443 0.058110196 0.06550863
0002d0 9f af 07 3e d4 4a 2f 3e 39 97 53 3c a3 b9 d7 3d
       0.13250588 0.17118388 0.012914472 0.10533454
0002e0 fb 1c 2a 3d a1 b0 23 3d cb d5 98 bd 82 ce 9b 3d
       0.041531544 0.03996337 -0.07462653 0.076077476
0002f0 c4 51 a2 3d 3c 6d 6d bd e9 ed 09 be d4 35 93 3d
       0.07925752 -0.057965502 -0.13469662 0.07188001
000300 12 39 ba 3c 45 14 bd bd 10 1a b4 3d 0c 51 4a bd
       0.022732291 -0.09232382 0.087940335 -0.0493937
000310 37 a0 62 3d 46 cd f1 bd dd cb e8 bd a4 9f d9 3d
       0.055328574 -0.11806731 -0.11367009 0.10626152
000320 f5 35 fc 3d f5 b5 4c 3e e5 ba e0 3d 01 4b 6b 3d
       0.12314979 0.19991286 0.10973147 0.057444576
000330 75 02 8e 3d 75 3d 0f 3e 6f 01 f6 bc 67 eb 01 3e
       0.069340624 0.13988288 -0.03002998 0.12687455
000340 7d 67 1a 3e f2 ea 16 be 44 0a 81 3c 43 86 ed bc
       0.1507854 -0.14738062 0.015751965 -0.028994685
000350 e0 f4 20 bb 79 f4 85 3a 9e 10 22 3e 49 44 32 bd
       -0.002456002 0.0010219953 0.15826651 -0.043522153
000360 e7 44 c9 3d 50 77 0f 3e 4b 06 c4 3d f7 84 cb 3d
       0.09827595 0.14010358 0.09571513 0.099374704
000370 4d ac c5 bd 4a c1 f7 bd 63 36 2c be bd 04 09 be
       -0.096520044 -0.12097414 -0.16817622 -0.13380714
000380 b0 a6 8b 3c 29 9d 91 bc 20 ff ff bd cb ce bd bd
       0.017047256 -0.017775135 -0.12499833 -0.09267958
000390 12 7f b3 3d 2c 38 52 3e e9 7b 83 bd 54 87 02 3e
       0.08764471 0.2052924 -0.06420118 0.12746936
0003a0 39 06 93 3d 7b ba 8e bd 52 f0 ac bc 4f 9a 43 3d
       0.07178921 -0.06969162 -0.021110687 0.047754582
0003b0 ea dc 2f 3d d7 6e 10 3e 85 ec e6 3d dc c8 6f 3d
       0.04293529 0.14104782 0.11275581 0.058541164
0003c0 da a8 0d 3e 93 e4 eb 3d bf c5 05 3e 0d 37 8c bd
       0.13833943 0.115182064 0.13063715 -0.068464376
0003d0 1d 3c 01 be 80 36 09 be ff 15 cd 3d 82 5a 4e bd
       -0.12620588 -0.13399696 0.10013961 -0.050379284
0003e0 57 02 96 3c 3d d5 f3 bd ca 42 4e 3d 86 38 ba bd
       0.018311663 -0.11905906 0.050356664 -0.09092812
0003f0 39 ac 01 be c7 24 c5 bd a6 60 a6 3d 02 63 ee bd
       -0.12663354 -0.09626155 0.08123903 -0.11639978

weight f4 [20, 9]
000000 76 d1 6d 3c 8f b7 a4 be a5 9b 87 be eb e2 19 be
       0.014515271 -0.32171294 -0.26485935 -0.15027969
000010 dc 8c 95 be c6 c8 cd bd f0 da cc bd 1f 2f 86 be
       -0.2920903 -0.1004806 -0.100026965 -0.26207826
000020 1d 0c a8 be fe b8 07 3d df 83 99 be 49 2e 88 be
       -0.32821742 0.033135407 -0.29983422 -0.26597813
000030 36 a6 3c be ff ad 15 be 6f 1e 8f be 23 a1 cb bd
       -0.1842278 -0.14617155 -0.27952906 -0.09942844
000040 3c f8 51 be 74 6d 0a be db 10 a2 3e 6a 4a 1c 3e
       -0.2050485 -0.13518316 0.31653485 0.15262762
000050 39 46 22 be b3 e7 30 bd d1 11 0a 3e da 29 10 be
       -0.158471 -0.043189716 0.13483359 -0.14078465
000060 46 a6 0e be a5 d2 74 be c3 82 0b 3d 95 05 ab bd
       -0.13930616 -0.2390848 0.03406025 -0.08350674
000070 91 1b ac be c6 43 76 3e 15 44 ec 3d 0c 5a 6e 3b
       -0.33614781 0.24049291 0.11536423 0.003636959
000080 09 fd 54 3e d0 38 bb 3e 68 3c d1 b9 55 bb 0d 3e
       0.2079965 0.36566782 -0.00039908593 0.13840993
000090 f0 a1 46 be 00 fe 82 3e 61 47 ba be c2 25 a0 be
       -0.19397712 0.25584412 -0.36382583 -0.31278807
0000a0 36 31 92 3d 1b 26 92 3e 5a 74 5c 3d 15 b7 72 be
       0.071382925 0.28544697 0.0538219 -0.23702653
0000b0 84 ed 42 be 59 ed e7 ba ae 0a b3 bd 39 f3 42 be
       -0.19035918 -0.0017694636 -0.08742271 -0.19038095
0000c0 26 b7 b9 3e 7e 2d 9e 3e 65 f9 22 be e9 f1 29 be
       0.36272544 0.30894083 -0.15915449 -0.16596188
0000d0 7a 44 ba 3e e1 b9 32 3e 1d e8 13 3e 3c 90 2c be
       0.36380368 0.1745372 0.14444013 -0.16851896
0000e0 af 01 a8 bd 29 0b bb 3d ab 5a 5e 3e 11 21 85 be
       -0.08203446 0.09132988 0.21714275 -0.2600179
0000f0 2a c0 af bd 70 bf 99 be 06 0f ba 3d cd 64 b4 3e
       -0.08581574 -0.30028868 0.09084897 0.35233155
000100 89 be ad 3e 52 97 86 bd f4 0b 8d 3c b2 90 3c 3e
       0.3393443 -0.06571831 0.017217614 0.18414572
000110 49 0b f6 bd f3 69 87 3e d1 51 b0 be 38 f4 29 3e
       -0.12013871 0.2644802 -0.3443742 0.16597068
000120 d0 e1 aa bd cf f4 90 3d db ff 03 3e 24 fd 8c 3e
       -0.083438516 0.070779435 0.1289057 0.2753688
000130 68 44 67 be 48 8c ad 3e c7 f6 2b 3c c2 74 60 bd
       -0.22584689 0.3389609 0.010495848 -0.05479885
000140 5e f2 ea 3d 15 24 93 bc 9a f5 9e 3d af 57 5b 3e
       0.11472009 -0.017961541 0.077616885 0.21420167
000150 67 26 83 3d 08 d7 8a be 54 00 01 3e 07 ed 86 3e
       0.06403809 -0.2711718 0.12597781 0.26352713
000160 e1 4d b9 3e bf 33 fe 3d 28 0c 17 3c 5f 9f b4 3e
       0.3619223 0.124122135 0.009219207 0.3527784
000170 02 25 c4 3d dc f9 f4 bd bf 88 a9 bd e6 d0 ad 3d
       0.09577371 -0.119617194 -0.08278035 0.0848711
000180 7e 86 c0 3d ee 4d 2a be b3 95 13 3e 6b df 35 3d
       0.09400652 -0.1663129 0.14412574 0.04440252
000190 8d fb 6f 3e 2b 89 15 bc 3d 8f 8b be f1 7b 71 3d
       0.23435803 -0.009126942 -0.2725772 0.05895609
0001a0 b3 e4 ac be 36 fe 86 3d 1f f5 06 3e 9e 06 a2 3e
       -0.33768234 0.06591456 0.13179444 0.31645674
0001b0 da ea a2 be 04 fe bd bc dc 65 4a 3e da 8a 38 be
       -0.31819803 -0.023192413 0.19765419 -0.18021718
0001c0 e5 9e 0e bc a3 ff e0 bd cc 22 24 be 6a 7e 9e be
       -0.008704876 -0.10986259 -0.16028899 -0.3095582
0001d0 cb 6d 7a 3d 8d 90 f1 bd 43 56 ad be 1b ec 82 3e
       0.061139863 -0.11795149 -0.33854875 0.2557076
0001e0 7b 6c 0c be 19 db 54 3e 17 8c 0e bd 4f 74 18 be
       -0.13713257 0.20786704 -0.03480157 -0.14888118
0001f0 48 72 56 3e 42 a8 8c be cb b8 94 bd 30 a6 2d be
       0.20942032 -0.2747212 -0.07261809 -0.16957927
000200 35 b7 9e be 70 41 bc 3d 3e 4b 8e be 3d f7 12 3e
       -0.3099915 0.09192169 -0.2779178 0.14352126
000210 84 14 90 3e 91 11 75 3e b0 5c 3b 3e e9 23 54 3e
       0.28140652 0.23932482 0.18297076 0.20716824
000220 98 ac 50 3e 04 30 85 3b 71 6f d9 bd 80 9f 7a 3e
       0.2037834 0.004064562 -0.10616959 0.24474907
000230 a6 b5 87 3e b9 57 a7 3e f0 8f 4c 3e c6 db 6d bd
       0.26505774 0.32684115 0.19976783 -0.05807092
000240 38 f8 25 3e 56 ee 8f be 36 26 b8 be 8b a3 70 be
       0.16207969 -0.28111523 -0.35966653 -0.23499887
000250 51 41 32 be 29 8a f4 3d 0a 99 41 3e f7 15 b4 be
       -0.17407729 0.119404145 0.18906036 -0.35173008
000260 a8 d7 29 bd 19 31 33 3e b6 82 0c 3e d6 18 39 be
       -0.04146543 0.17499198 0.13721737 -0.1807588
000270 e9 20 5b 3e 57 fa 25 3e 4e c0 56 be 27 aa 8b 3e
       0.21399273 0.16208778 -0.20971796 0.27278253
000280 77 4f 3d 3e ef b6 5c be 66 a3 ed 3d 7e 96 9d 3e
       0.18487345 -0.21554159 0.116034314 0.3077888
000290 e7 e7 12 be 32 f2 0b be aa 49 8d be ea 5a b8 be
       -0.14346276 -0.13666609 -0.27595264 -0.36006862
0002a0 10 a3 94 be 15 86 3f 3e 6e 59 00 3e 6f c7 d2 3d
       -0.29030657 0.18703492 0.12534115 0.10291945
0002b0 cf ac 20 be 21 61 3b 3e 4a 8c b9 bd 0c d4 c7 bd
       -0.15690921 0.1829877 -0.09059961 -0.097572416
0002c0 1e 47 3f be c6 83 5c 3e fe 57 b5 be 77 bd 16 be
       -0.18679473 0.21534643 -0.35418695 -0.14720713

att_src f4 [1, 1, 20]
000000 f8 41 ac 3d 97 22 97 be 18 d8 24 3e cf 9e b9 be
       0.0841102 -0.29518577 0.16098058 -0.36253974
000010 21 ef 06 3e 62 d3 07 be c9 b1 05 3c 06 f1 67 3e
       0.13177158 -0.1326423 0.008160063 0.22650537
000020 f7 fd 8d 3d 30 7c 0f 3e a0 06 5d be 5d e2 b4 3e
       0.069332056 0.14012218 -0.21584558 0.3532895
000030 f3 b9 02 bc ac ba a8 3e cd dc c8 be 45 7c ca 3e
       -0.007978904 0.3295492 -0.39230958 0.39547935
000040 51 1d 7a 3e 4e ae a0 3d 26 b5 7c 3e 1f 8c 97 3d
       0.24425246 0.07845746 0.24678478 0.07399773

att_dst f4 [1, 1, 20]
000000 95 60 00 be ee 75 bf be eb 35 13 bd eb 18 d8 bd
       -0.12536843 -0.3739466 -0.035940092 -0.10551628
000010 d2 b2 b8 3e 85 92 38 bd 7d 43 98 be af e3 67 bd
       0.3607393 -0.045061607 -0.2973899 -0.05661362
000020 35 b9 24 bd 62 c3 c8 3e 95 a6 5f 3e 70 a7 92 bd
       -0.04021569 0.39211565 0.2184089 -0.071608424
000030 58 d2 be be c9 1e c8 be 9a 44 c3 3e 10 62 e3 3d
       -0.37269855 -0.39085987 0.38138276 0.11102688
000040 22 a2 1a be a2 f5 b2 bd f7 d9 d6 3e 19 2b 97 bd
       -0.15100911 -0.08738257 0.4196317 -0.07381267

bias f4 [20]
000000 cd 3c 41 3d d9 35 5d bc 38 5b 02 3d e8 3f d9 bc
       0.047177125 -0.013501608 0.031825274 -0.02651973
000010 62 bd cc 3c e4 3c 8c bd 7e 97 56 3d e3 54 32 3d
       0.024992649 -0.068475515 0.052390568 0.043537986
000020 5c 1c 1e 3d b7 a1 bb 3c 9a e4 3b bc b1 4d 3a bd
       0.038601264 0.02290426 -0.011468077 -0.04548425
000030 74 d7 5c 3c 54 f1 20 bd d0 7a 24 3c 72 2f 02 3d
       0.013479102 -0.03929265 0.010039046 0.03178353
000040 69 13 6c bc 59 75 fe ba 69 05 e1 3a 0d 4e 68 bd
       -0.014408925 -0.0019413634 0.001716775 -0.05671506

weight f4 [20, 9]
000000 ab 80 74 be 00 70 ce 3d 62 17 8c 3d f1 fe 97 3e
       -0.23877208 0.10079956 0.068403974 0.29686692
000010 84 13 85 3c c1 be 27 3e fd 9f 01 be ee 0a 02 3e
       0.016244657 0.1638136 -0.12658687 0.12699482
000020 d9 9a 65 3e 17 88 77 3e bf e3 e8 3d e8 e1 b2 be
       0.22422351 0.24173008 0.11371564 -0.34937978
000030 d6 c4 91 be a5 01 04 3c b2 51 87 be 96 f8 a7 be
       -0.28470486 0.008057033 -0.26429516 -0.32806844
000040 72 45 38 be 0d 26 1f 3e da a4 9b be 5d 5f f7 3d
       -0.17995241 0.15541859 -0.3039921 0.12078736
000050 cf 44 43 be a9 a0 b2 3e 03 58 bc 3c f1 17 ba 3d
       -0.19069217 0.348882 0.022991186 0.09086598
000060 a7 a5 8e 3e af 7d a0 bd 8c a6 94 bd 6b 48 86 be
       0.27860758 -0.07836472 -0.07258329 -0.26227126
000070 95 45 a2 be 6c 02 a7 3e 77 42 98 3e 39 be 9d 3e
       -0.31693712 0.32619035 0.2973821 0.3080919
000080 00 2c a2 be 67 2d a5 3e a0 3b 2d 3e 9b 8c cf bc
       -0.31674194 0.32261202 0.16917276 -0.0253356
000090 06 9d 1c 3d 74 be 3a be af d5 40 3e 85 fc 83 3e
       0.038235687 -0.18236715 0.18831514 0.25778595
0000a0 6c 0c 52 be 5a d9 18 3e 8c d7 01 3e d4 59 c3 bd
       -0.20512551 0.14926663 0.12679881 -0.09538618
0000b0 b9 b5 b6 3d 11 a7 67 3e ed e7 97 be bf 8d d3 be
       0.089213796 0.22622325 -0.29669133 -0.4131908
0000c0 9c 7e b7 be 13 13 88 3e 5a 82 ad be b1 c1 a7 bc
       -0.35838783 0.26577052 -0.33888513 -0.020478101
0000d0 d8 ca 62 be 35 97 ce 3d bf d7 51 bd b9 e0 82 bd
       -0.22147691 0.10087434 -0.051231142 -0.06390519
0000e0 8c 5c 23 3d f9 51 81 3e aa 2a b5 3e 5c bf 83 be
       0.03988318 0.25257853 0.35384113 -0.25731933
0000f0 23 cc a1 bd 4e ec 3f 3e c0 2f 06 3d 6d c0 6a be
       -0.07900264 0.18742487 0.03276038 -0.22924967
000100 9d f8 3d 3e 6b 54 4a bd f2 4e d5 3d c4 00 8c bd
       0.1855187 -0.049396913 0.10415448 -0.068360835
000110 35 16 b1 3e 6a 66 b4 be ec d6 8b be 04 df 9a 3e
       0.34587255 -0.35234386 -0.2731241 0.30248272
000120 60 d0 54 be 50 6a ae 3e 74 7e c6 3e 54 a5 26 3e
       -0.20782614 0.34065485 0.3876835 0.16274005
000130 12 a9 28 be 48 dd 19 be 6b a7 8d bd 9e 1c 97 bd
       -0.16470745 -0.15025818 -0.06916698 -0.07378505
000140 22 2e 23 be 8a 3a a8 3e a6 ad aa be 37 cd 9e 3d
       -0.15935567 0.32857162 -0.33335608 0.077539854
000150 3e 91 6f bb a1 67 9e 3e a9 5c d0 bc 0b 8c aa be
       -0.0036555077 0.30938438 -0.025434809 -0.3330997
000160 e6 10 62 3e c6 e8 6c be 04 fa 05 be c4 23 5b 3b
       0.22076759 -0.23135671 -0.13083655 0.0033438066
000170 39 32 54 3d 89 98 9d 3e 8b d6 37 bd 5e 31 75 bd
       0.05180571 0.30780438 -0.04488234 -0.059861533
000180 4a f7 3d 3d 11 c5 c5 bd 3c 7e 9a 3e cf 44 ab be
       0.04637841 -0.09656728 0.30174434 -0.33450934
000190 30 5c 8a be a1 aa 43 be 17 fb b1 bd 1f 9e 99 3e
       -0.27023458 -0.19108059 -0.0869047 0.3000345
0001a0 99 30 41 be fd a6 af be a4 cb 00 3e ed 62 9e bd
       -0.18866195 -0.3430709 0.12577683 -0.07733712
0001b0 6f c2 34 be 6d 40 98 3d dd f2 ab be fe 49 50 3e
       -0.17652296 0.07434163 -0.33583727 0.20340726
0001c0 ac 9f 0a 3d 1d 5c 8d bd 9f 5b 73 bd 51 83 72 bd
       0.03384368 -0.06902335 -0.05941355 -0.059207264
0001d0 31 1b cc bd db 36 82 bd e3 79 a5 3d 4f 18 4a be
       -0.09966124 -0.06358119 0.08079889 -0.19735835
0001e0 74 31 e7 bc 95 db b6 3e 5f ef 9d 3e 0a fa 72 3e
       -0.028221823 0.35714403 0.30846688 0.23728195
0001f0 52 88 94 3e 11 61 81 3e bf c1 93 3d 4b 17 78 3e
       0.29010254 0.25269368 0.072146885 0.24227636
000200 3f 45 7a be 84 d9 b1 be e4 61 a6 be 01 aa 2f be
       -0.24440478 -0.34736264 -0.3249656 -0.17154695
000210 01 28 ea bc d3 81 18 3d 24 e1 a9 3e a8 37 2e be
       -0.028583528 0.037233185 0.3317958 -0.17013419
000220 55 0d 02 bd 05 af ae 3e d7 c3 e5 3d 4b 66 a2 be
       -0.031750996 0.34117904 0.11218994 -0.31718668
000230 0f 30 88 3c e7 a8 8c be 7a 69 4f be d0 f7 59 3c
       0.016624479 -0.27472612 -0.2025508 0.013303712
000240 71 0c 89 3c 12 36 90 3e bb 6c 90 3e c2 99 cd be
       0.016729565 0.28166252 0.28207955 -0.4015637
000250 00 ea 99 be 9b bb 6c be b1 28 b0 be 5c a5 71 3e
       -0.3006134 -0.23118441 -0.34406045 0.23598236
000260 ed 14 fe bd cf 85 d7 3d 0f df 6b be f7 9e 9f be
       -0.12406335 0.10523569 -0.23034309 -0.31175968
000270 bb 4a 58 be 93 44 92 be 83 27 04 be 3a 2a b0 bd
       -0.21122257 -0.28567943 -0.12905698 -0.08601804
000280 a2 dc 36 bd 4a e1 80 be e9 d4 e4 3d cf d7 1f be
       -0.044644006 -0.25171882 0.11173422 -0.15609668
000290 2d e9 de bc 6b be 2c 3e 5e 25 23 3e 41 85 a3 3d
       -0.027210796 0.16869514 0.15932223 0.079844005
0002a0 a3 8d de bd d8 76 1f 3e f7 5d b0 bd a4 86 fa 3d
       -0.10866859 0.15572679 -0.08611672 0.12232712
0002b0 3a f0 23 3a f5 5d 4c be 8f c2 ac 3e d6 ae 2f bd
       0.0006253753 -0.19957717 0.33742186 -0.042891346
0002c0 2f 11 b7 3d 3f 9d 81 be 6d b6 e8 bd 04 66 11 be
       0.089388244 -0.25315282 -0.1136292 -0.14199072

weight f4 [20, 9]
000000 ce 8c fc 3d 58 24 4d 3e a5 9d e3 3d 44 7e 0c 3d
       0.12331544 0.20033395 0.11114053 0.034300104
000010 ff 77 3e be 37 c8 0e 3e ca ee ac bb f6 01 6d be
       -0.18600462 0.13943563 -0.0052774893 -0.2314528
000020 bf 76 3c 3d 70 c6 a4 be c6 92 63 3e 66 2d a8 be
       0.046011683 -0.32182646 0.22223958 -0.32847136
000030 69 bf 69 be 7c 00 8c 3e 26 5a 80 3e e7 d5 b2 3e
       -0.22826923 0.2734412 0.25068778 0.3492882
000040 27 69 a7 be 1e 03 a3 be 13 ac 8c 3e d5 bb a8 3d
       -0.32697412 -0.31838316 0.27475032 0.08238951
000050 dd 43 86 3e d9 af e9 bc b6 ad 92 be 60 51 a5 be
       0.2622365 -0.028526234 -0.28648156 -0.32288647
000060 14 f8 f9 bd 14 27 a8 bc 46 4a 8f 3e 43 a0 2f 3e
       -0.1220552 -0.020526446 0.27986354 0.17150979
000070 46 b3 ca bc 69 25 2d bd 0b 5e 8e 3d 04 1b 79 be
       -0.024743687 -0.042272005 0.06951531 -0.24326712
000080 19 36 ad 3e b8 b7 a3 3e 41 a2 3a bd f1 ba ab 3e
       0.33830336 0.31976104 -0.045564894 0.33541062
000090 c7 56 a9 be a4 a6 3e be 2e 43 3e 3e 32 37 7d be
       -0.33074018 -0.18618256 0.18580315 -0.24728087
0000a0 83 a1 13 bd 78 48 79 bd 30 c5 62 3e 46 2b 23 3e
       -0.0360427 -0.060860127 0.22145534 0.15934476
0000b0 02 5e 9b 3d 4d 53 ad 3e 06 b2 94 bd 42 a6 73 3e
       0.0758629 0.33852616 -0.07260518 0.23793891
0000c0 14 50 3f bc a3 32 52 be be b9 84 3e 8c 35 0b be
       -0.011676807 -0.20527129 0.2592296 -0.13594645
0000d0 25 23 31 be b2 b3 8a be 91 d8 27 3d bc 09 97 be
       -0.17298563 -0.27090222 0.04097802 -0.29499614
0000e0 ad 0d 88 3d fd e8 be bd 96 9a 8b be 29 ec 4d be
       0.066432334 -0.09321783 -0.27266377 -0.20109619
0000f0 ad 6e a8 3e fe 18 a3 3d 41 04 2e bd c8 d0 96 3e
       0.3289694 0.07963751 -0.042484526 0.29456162
000100 be 6d 2e 3e 0d 62 7f 3e 24 45 42 be ca a9 b0 be
       0.17034051 0.24939747 -0.18971688 -0.3450454
000110 df d5 56 be 69 58 1e bc 78 93 8a 3e 7c 41 18 3e
       -0.20980023 -0.009664633 0.27065635 0.1486873
000120 a9 3e c6 3d 0e d6 34 be 53 2c 9f 3e 63 bf 14 be
       0.0967992 -0.1765978 0.31088504 -0.14526133
000130 39 c4 08 3d 89 c0 9a 3e 2c 08 83 be df 78 7a be
       0.033390258 0.30225018 -0.25592172 -0.24460171
000140 7e 73 8e 3e 0e c8 36 be 73 68 94 be 4f 8c 5c be
       0.2782249 -0.17849752 -0.28985938 -0.21537898
000150 a4 05 df 3d bb a5 a3 be ca 10 49 bd 6c 7b eb bd
       0.10889748 -0.3196238 -0.049088277 -0.1149815
000160 28 2a 00 3e 81 cb e7 bd 0a 44 22 be fc 0a a7 be
       0.12516081 -0.11318112 -0.15846267 -0.32625568
000170 73 8d 6f 3e a0 89 b6 3e dd c3 2c be c2 aa 12 3e
       0.23393802 0.35651875 -0.16871591 0.14322951
000180 5a 72 30 be 9c 82 88 3e 9e 20 f9 3d 5f 0b 81 be
       -0.17231122 0.26662147 0.12164424 -0.25203988
000190 78 0d ba 3e ba e3 54 be 1f d8 b0 3e 44 a3 60 3d
       0.363384 -0.20789996 0.34539887 0.054843202
0001a0 44 69 93 be 86 d5 93 bd ae 4d 31 be 36 ca 92 3e
       -0.2879125 -0.07218461 -0.17314789 0.286699
0001b0 77 b6 ad 3e 7b da a1 3e f8 2a f3 bd 47 c0 bb be
       0.33928272 0.31612 -0.1187343 -0.36670133
0001c0 fd f6 90 be c2 cb 74 3c 28 cf 09 be b6 d3 cf bd
       -0.28313437 0.014941158 -0.1345793 -0.101478025
0001d0 35 5f a2 3e 2a 73 3f 3d ab 82 2a 3d 3b 52 42 bd
       0.31713262 0.04674069 0.04162852 -0.047441702
0001e0 88 3e b9 bd 50 ee 7f 3e 6d 4b a1 be 05 cd 30 be
       -0.0904513 0.24993253 -0.31502858 -0.17265709
0001f0 f9 85 50 be 9f 6d b4 be 3a d6 06 3e 36 7a 5c 3e
       -0.20363607 -0.35239884 0.13167658 0.21530995
000200 d9 c3 cd bd a1 65 b0 bd e5 12 a3 be 16 52 57 be
       -0.100471206 -0.08613134 -0.31850353 -0.21027407
000210 0c 98 39 bd e5 10 d4 bd 61 d6 d9 bd c8 f4 f4 bc
       -0.04531102 -0.10354785 -0.10636593 -0.029901877
000220 5d b6 32 be 93 e2 d3 bd 95 9e 79 3e f0 1a 95 be
       -0.17452379 -0.1034595 0.243769 -0.29122114
000230 12 ff 3d 3e c6 95 c3 3c 78 7e 7a 3e b7 7b 28 be
       0.18554333 0.023875128 0.24462306 -0.16453443
000240 65 43 4a bd 15 5c bb 3d 14 9d a2 be 74 02 34 be
       -0.04938068 0.09148423 -0.31760466 -0.17579061
000250 a0 95 6f bd 9b 32 8c 3e d2 69 8d 3d c4 63 ff 3d
       -0.058492303 0.2738236 0.06904949 0.12470201
000260 50 1c 83 be af 2d 9b be 99 a4 95 bd 91 5a 7c 3e
       -0.25607538 -0.3030829 -0.07306785 0.24643923
000270 b9 56 5d 3e 87 8c 8f be f5 77 53 be db 73 ba 3e
       0.21615113 -0.280369 -0.20651229 0.36416516
000280 79 54 98 be 80 fe 89 3b c4 38 b8 3e 15 e5 88 be
       -0.29751948 0.004211247 0.3598081 -0.26737276
000290 3a 6d b3 3e d9 b0 e1 bd 71 aa be bd 33 8b 98 3c
       0.3504427 -0.11020059 -0.09309853 0.018621063
0002a0 50 98 bf 3d 69 aa 3d 3d 70 b5 26 be 27 36 01 bd
       0.09355223 0.046305094 -0.1628015 -0.031545784
0002b0 d3 2d 1b 3e 8f e6 56 bc 9c 97 85 3e b4 e1 9f be
       0.151542 -0.013116493 0.2609223 -0.31226885
0002c0 71 48 df bd 4c 94 ba 3e 3c 6c 8e bb bb b1 95 be
       -0.10902489 0.36441267 -0.0043463986 -0.2923716

att_src f4 [1, 1, 10]
000000 30 9c 17 3f 5c 6c 60 3e 08 4d 8f bc 6e d9 02 3e
       0.592227 0.21916336 -0.017492786 0.12778255
000010 42 83 2b be f1 3d 65 bd d6 d8 3b 3e 1b 87 d1 be
       -0.1674929 -0.055967275 0.18344435 -0.4092339
000020 03 55 6d be 53 cc b2 be
       -0.2317696 -0.34921512

att_dst f4 [1, 1, 10]
000000 79 9d b4 be d3 53 06 3f 67 fb 04 3f f9 87 fd 3e
       -0.35276392 0.52471656 0.5194611 0.495178
000010 6a 19 b4 3e 39 63 0b 3e 5e f8 ee 3d 42 6a b5 3d
       0.3517564 0.13612069 0.11668466 0.08858158
000020 2d fc 13 3f 54 9f 03 3f
       0.57806665 0.5141499

bias f4 [10]
000000 f6 7e 27 3d f5 d0 8f 3d a5 78 1a 3c 52 d9 8b bd
       0.040892564 0.07022277 0.009428178 -0.0682856
000010 f2 47 24 3d 73 d5 9e 39 d3 18 ad bb 7d 73 18 3c
       0.040107675 0.0003029514 -0.0052825003 0.009304878
000020 11 6e d4 bc cd e3 ba bd
       -0.02593139 -0.09125481

weight f4 [10, 25]
000000 99 f6 67 be 11 4d aa 3e 57 ab 2a be 41 45 39 3e
       -0.22652663 0.33261922 -0.16666923 0.18092825
000010 79 30 9c be 4c 3e 25 3c 34 2d 05 3e 02 8a cc 3e
       -0.30505732 0.0100856535 0.13005525 0.39949042
000020 a3 d1 c2 be a6 aa 5c 3e bd c5 b1 be 54 72 69 3e
       -0.38050565 0.21549472 -0.34721175 0.22797519
000030 fd 3e 16 be 83 3b ea 3e 9b 16 b5 3e 23 5c 97 be
       -0.14672466 0.4574853 0.3536881 -0.29562482
000040 4b 5e bd bd a6 fd 03 be 50 39 b3 3e 92 f8 42 be
       -0.092465006 -0.12889728 0.35004663 -0.19040135
000050 b9 10 ac be 2f 94 d1 bc c3 88 50 be 73 49 8d 3e
       -0.33606508 -0.025583355 -0.2036467 0.275951
000060 e9 12 14 be d4 82 bd bc 3e a1 ed be c3 e3 66 bf
       -0.14460339 -0.023133673 -0.4641208 -0.90191287
000070 bd 95 a1 3e 0e 79 34 3d b7 5f 8d 3d da 13 c7 3e
       0.31559554 0.04406076 0.06903022 0.38882333
000080 48 d2 1d be 3b 72 43 be ab 19 83 be 82 2e d1 bd
       -0.15412247 -0.19086544 -0.2560552 -0.10213949
000090 43 b7 04 bf df 2c b3 3e 2d 81 a1 bd 11 a9 f7 3d
       -0.51842135 0.3499517 -0.078859664 0.12092794
0000a0 55 58 4d bd a0 08 63 3e c5 7e be bd f0 d4 84 bd
       -0.050133068 0.22171259 -0.09301523 -0.06485927
0000b0 e3 30 81 3d be e3 d9 bc 60 10 8e bc 2c 97 34 3f
       0.063081525 -0.026597854 -0.017341793 0.7054317
0000c0 72 a1 24 3e c2 db e2 be 49 bc 87 be 43 af 15 bf
       0.16077211 -0.44308287 -0.26510838 -0.58470553
0000d0 1a 86 67 be 8f fd 25 3e 32 16 b4 bd 4e e3 d9 be
       -0.2260975 0.16210006 -0.08793296 -0.42556232
0000e0 99 5a 01 bd 3e 9d c5 3e 5c aa a4 3c dd b7 c0 bc
       -0.03158054 0.3859653 0.020100765 -0.023525173
0000f0 26 05 ed 3e 98 40 f2 be 7d a5 c2 3e ed f9 d3 be
       0.4629299 -0.47314906 0.38016883 -0.41401616
000100 48 2b df 3e 61 0e 72 be 59 17 b1 3e b4 07 11 be
       0.43587708 -0.23638298 0.34588125 -0.14163095
000110 fa 9f 82 3e 4c 53 9c be 21 b8 37 3c 1c 35 97 bd
       0.25512677 -0.305323 0.011213333 -0.07383177
000120 b6 fe 54 3e b0 62 c1 be 9a 18 83 bc 70 3f 1f bf
       0.2080029 -0.37770605 -0.016002942 -0.6220617
000130 11 94 15 3e c4 3d 1c bf 76 bf 88 3e 1b 22 94 3e
       0.14607264 -0.61031747 0.26708573 0.2893227
000140 bb 51 24 bf 92 b4 82 3e 03 18 d1 be 13 1e d6 be
       -0.6418721 0.2552839 -0.40838632 -0.4181982
000150 30 cd 4b 3e 10 ef 88 3e b9 3d 08 bf 1e 9a 10 3e
       0.19902492 0.2674489 -0.5321918 0.14121291
000160 98 ea 06 bf fd ae bb bd ee 2b 72 3e 7f ae 43 3e
       -0.5270171 -0.09164236 0.2364957 0.19109534
000170 2b da e5 be 74 0b 30 3e 0f 01 06 be 8e 75 34 3d
       -0.4489301 0.17191869 -0.13086341 0.04405742
000180 4a 21 5a be b6 1b e1 3e 7d 40 0e bf c2 05 42 3e
       -0.21301761 0.43966454 -0.5556715 0.18947509
000190 84 b1 b5 be af 77 9d be f5 c4 54 bf b6 3e 30 3e
       -0.35486996 -0.30755374 -0.8311303 0.17211422
0001a0 79 93 8b be 62 28 fc bd dd 98 26 3e b6 00 b9 3e
       -0.2726095 -0.1231239 0.1626925 0.36133355
0001b0 63 6f 38 3e 9c 24 53 3d 76 b4 80 3e d0 5d ee be
       0.1801124 0.051548585 0.2513768 -0.46555948
0001c0 7f a5 e1 be 2e 10 59 be fc 58 e8 3e 15 6e f0 3d
       -0.44071576 -0.21197578 0.4538039 0.117397465
0001d0 b2 56 4d 3d 46 28 31 3e 65 bb a1 3e 7d 0a 93 be
       0.050131507 0.1730052 0.31588283 -0.2871894
0001e0 9e c3 e7 3d fd 6e 52 be e2 b8 c6 3e f0 3e 84 be
       0.11316608 -0.20550151 0.3881293 -0.25829268
0001f0 2d 43 9d 3d db a7 8b 3e b3 47 51 3e e0 1c 86 3e
       0.076788284 0.272765 0.20437507 0.26193905
000200 2d 77 94 3e b0 8f 80 be 7c 0e 0c 3e 66 03 de bd
       0.28997174 -0.25109625 0.136774 -0.10840492
000210 3f d1 7c be 92 f0 6f 3e b8 63 bf be 0b f6 d6 3d
       -0.24689196 0.23431614 -0.37380767 0.10496148
000220 09 a6 c3 3e 82 75 86 3d 28 88 9f 3e 6c b6 cc bd
       0.38212612 0.065653816 0.31158566 -0.09995732
000230 ca 64 94 bc 76 35 d0 be 7d f5 8c 3e 2e 32 f7 3d
       -0.018114466 -0.40665787 0.27531043 0.12070118
000240 f3 91 46 be c2 e3 e1 be a2 b5 cd 3e b4 f8 a7 be
       -0.19391613 -0.44119078 0.40177637 -0.32806933
000250 7e 01 92 3e 09 7d b3 3d cb c9 9d 3e 82 9b 94 bd
       0.28516763 0.08764083 0.30818018 -0.07256223
000260 9f 3b 91 bc fd e2 29 3e 00 fe 37 be fa ce 96 3e
       -0.017728625 0.16590495 -0.17967987 0.29454786
000270 4e d3 9a 3e 17 bd bf be a4 dd a1 be 59 bd f7 be
       0.30239338 -0.37448952 -0.3161441 -0.48386648
000280 bd 85 c0 be 50 01 51 3e 5b 71 32 be 94 ed 59 be
       -0.37602034 0.20410657 -0.17426054 -0.21282035
000290 e9 40 48 be 2c bd 51 3e 51 c3 ce 3d 07 22 3b 3e
       -0.19556011 0.2048232 0.100958474 0.18274699
0002a0 4d 33 b2 3e b5 9e de be 2b fd eb bd 12 fb a7 3e
       0.34804764 -0.4348046 -0.11522897 0.3280874
0002b0 dd 83 98 3e a5 f5 63 be 49 e1 a9 bc 49 8d d1 bd
       0.29788104 -0.22261675 -0.020737307 -0.10232026
0002c0 c5 9d 91 be 4d c8 c0 be 9e 0b 92 be be 50 d7 be
       -0.2844068 -0.37652817 -0.28524488 -0.4205379
0002d0 04 a2 01 bf 03 1c be 3e 80 9a 56 be 25 9a b4 be
       -0.5063784 0.37130746 -0.20957375 -0.35273853
0002e0 6f d4 8f 3e 9a 5f 39 bd 73 b6 aa 3d 66 c4 c4 be
       0.2809176 -0.04525719 0.08335581 -0.3843109
0002f0 33 90 65 3e 04 d5 b4 3d 52 4b 90 3e 4e 33 83 3e
       0.22418289 0.08829692 0.28182465 0.2562508
000300 43 1e 52 3e a1 30 7d be 04 5e 8a bc 9e a8 03 3e
       0.20519356 -0.24725582 -0.016890533 0.12857291
000310 b4 ba 06 be eb 34 8c be 24 f6 05 3e b7 cd 35 3b
       -0.13157159 -0.27384123 0.13082176 0.0027741024
000320 a6 90 8b bd bb 25 2e be 0e f6 09 bf 5d 23 b2 3d
       -0.06814699 -0.1700658 -0.53891075 0.08698151
000330 84 e5 0b 3d 5a 64 ae be ac 2c d1 3d d5 a0 67 3e
       0.03415443 -0.34060937 0.102135986 0.22619946
000340 3c ff d1 bd 55 d4 2a 3e e6 51 51 3e 35 26 33 bf
       -0.1025376 0.1668256 0.20441398 -0.69980174
000350 86 56 42 3e 78 00 aa 3e 02 63 63 be f4 1b b7 be
       0.18978319 0.33203483 -0.22205737 -0.35763514
000360 7b 45 7c 3e a5 5d e6 bd fb f3 22 be d4 f3 b0 be
       0.2463588 -0.1124833 -0.15913384 -0.34561026
000370 d2 a1 5c be 8f e7 89 3e 86 3a 0d 3f ed df 23 3d
       -0.21546105 0.26934478 0.55167425 0.040008474
000380 48 45 db 3e 06 cb c9 be 73 b1 b1 be 87 11 2a bf
       0.42826295 -0.39412707 -0.34705696 -0.66432995
000390 29 7f 13 3e e7 71 cb 3e 40 ba 65 be 4d 5c 23 be
       0.14403977 0.39735338 -0.2243433 -0.15953179
0003a0 14 9a 21 bd f9 16 87 3e cf 00 85 3e 8b d8 fe 3e
       -0.03945358 0.26384714 0.2597718 0.49774584
0003b0 30 55 5a bf 8b 40 e4 3c b3 df bf bb 71 c0 cd 3e
       -0.85286236 0.027862808 -0.0058555244 0.40185884
0003c0 05 9a c6 3d 93 23 ac be d0 e2 cc 3e 47 f7 e6 bb
       0.09697346 -0.3362089 0.40016794 -0.0070485207
0003d0 26 d2 0e 3e f2 b8 0e 3e b3 4c e3 3d 5a 7a ba 3e
       0.13947353 0.13937739 0.110986136 0.36421472
0003e0 fe 88 97 be 0c be a8 bd
       -0.29596704 -0.082393736
