model/gnn/240930_3/epoch_3.pt (torch, 551262 bytes, 37 tensors)

att f4 [1, 3, 10]
0	0x3f054bde	0.5206889
1	0x3f1e2c7e	0.6178664
2	0x3e5f7f30	0.21825862
3	0xbe127bc8	-0.14305031
4	0x3e151270	0.14557815
5	0x3f24bf90	0.643548
6	0x3f2564bc	0.64606833
7	0xbf2cd198	-0.67507315
8	0x3f1cfd60	0.6132412
9	0xbe563b6e	-0.20921108
10	0xbe6e2e4e	-0.23259851
11	0xbf1b1b8e	-0.6058892
12	0x3eb568e0	0.35431576
13	0x3e4f048c	0.20216578
14	0x3ef0ad40	0.4700718
15	0xbeb2e39f	-0.34939286
16	0x3ee7d558	0.45279956
17	0xbf22cc2b	-0.63592786
18	0x3eff2510	0.49832964
19	0x3ef59978	0.4796865
20	0xbf1b31ed	-0.60623056
21	0xbf099f46	-0.53758657
22	0x3e069c0c	0.13145465
23	0x3ea54cb4	0.32285082
24	0x3f2a20d0	0.6645632
25	0x3eb0d040	0.34533882
26	0xbeef334d	-0.46718827
27	0x3e62b878	0.22140682
28	0xbf202981	-0.6256333
29	0xbeb03071	-0.34411958

bias f4 [30]
0	0x00000000	0.0
1	0x00000000	0.0
2	0x00000000	0.0
3	0x00000000	0.0
4	0x00000000	0.0
5	0x00000000	0.0
6	0x00000000	0.0
7	0x00000000	0.0
8	0x00000000	0.0
9	0x00000000	0.0
10	0x00000000	0.0
11	0x00000000	0.0
12	0x00000000	0.0
13	0x00000000	0.0
14	0x00000000	0.0
15	0x00000000	0.0
16	0x00000000	0.0
17	0x00000000	0.0
18	0x00000000	0.0
19	0x00000000	0.0
20	0x00000000	0.0
21	0x00000000	0.0
22	0x00000000	0.0
23	0x00000000	0.0
24	0x00000000	0.0
25	0x00000000	0.0
26	0x00000000	0.0
27	0x00000000	0.0
28	0x00000000	0.0
29	0x00000000	0.0

weight f4 [30, 163]
0	0xbdf44534	-0.11927262
1	0xbdcf71ba	-0.101291135
2	0xbd259621	-0.040426377
3	0xbda215a3	-0.07914283
4	0x3d0d9a5e	0.034571044
5	0xbe00f451	-0.125932
6	0x3e0ae5df	0.13564251
7	0xbdd27507	-0.102762274
8	0x3e1a1970	0.15048766
9	0xbdf6fd28	-0.120600045
10	0x3ca946da	0.020663667
11	0x3dcc0576	0.09961979
12	0x3ddd464f	0.10804426
13	0x3db3fa51	0.087879784
14	0xbdb558e0	-0.08854842
15	0xbe2dfe50	-0.16991544
16	0xbbdc791b	-0.006728304
17	0x3e20fde6	0.15721855
18	0xbdd4e34a	-0.103949144
19	0xbd89c0a5	-0.06726197
20	0x3dca3fbb	0.09875437
21	0xbd125b56	-0.035731636
22	0x3cf9f7aa	0.030513603
23	0xbe00aeb8	-0.1256665
24	0xbdd4d1c8	-0.10391575
25	0xbdeb1de0	-0.114803076
26	0xbdff37ba	-0.12461801
27	0xbde7635d	-0.11298249
28	0xbe2e3b72	-0.17014864
29	0xbe27a5c0	-0.16371822
30	0xbde6f235	-0.11276666
31	0x3d35f50b	0.044423144
32	0x3e220347	0.15821563
33	0x3e34280b	0.175934
34	0x3cb3de3a	0.021956552
35	0xbd0ef09a	-0.034897424
36	0x3bfda670	0.007740788
37	0xbdd21761	-0.102583654
38	0xbe2c8178	-0.16846263
39	0x3e0df6ee	0.13863727
40	0x3d7abd46	0.06121566
41	0xbdef582c	-0.11686739
42	0x3e139e60	0.14415884
43	0x3dee7bb7	0.116446905
44	0xbdb8c16b	-0.090212665
45	0xbda534b2	-0.080666915
46	0x3e1faa13	0.15592222
47	0xbd3d231e	-0.04617607
48	0x3e0ca17e	0.1373348
49	0x3d9e2f9a	0.07723923
50	0x3d3fc784	0.046821132
51	0x3e09804a	0.13427845
52	0xbd45354a	-0.048146524
53	0x3e135e9d	0.14391561
54	0xbc920164	-0.017822929
55	0x3e20b24b	0.15693013
56	0x3c4f4288	0.01265014
57	0x3c90aeaa	0.017661411
58	0xbd89503f	-0.06704759
59	0x3e07799b	0.13229983
60	0x3df9c393	0.12195506
61	0xbdec70e8	-0.11544973
62	0x3d9aa545	0.07551054
63	0xbc6ae426	-0.014336621
64	0xbdb1812b	-0.08667215
65	0x3e2fed2d	0.17180319
66	0x3e1635cf	0.14668964
67	0xbe1d85de	-0.15383098
68	0x3d221f5e	0.039580695
69	0x3e1509d2	0.14554527
70	0x3e159748	0.1460849
71	0xbbf37151	-0.00742928
72	0x3d6d2c29	0.057903443
73	0x3c673180	0.014110923
74	0xbd5db166	-0.05412426
75	0x3e0e07c0	0.13870144
76	0xbe188b55	-0.14896901
77	0x3cfd2043	0.030899173
78	0x3db1c09f	0.08679318
79	0xbd32e490	-0.043675005
80	0xbd395539	-0.04524729
81	0xbda46faf	-0.080291145
82	0x3cb2f42a	0.021844942
83	0xbdc08feb	-0.0940245
84	0x3df090ba	0.117463544
85	0xbe1a79dd	-0.1508555
86	0x3d43040f	0.047611292
87	0xbdfd645c	-0.12372658
88	0x3db63338	0.08896488
89	0x3e2f5e74	0.17125875
90	0x3d85f640	0.06541109
91	0xbd2e59c7	-0.042566087
92	0xbce637f1	-0.028102847
93	0xbd8903c3	-0.066901706
94	0x3e1ccdb8	0.1531285
95	0x3d8c87f9	0.06861872
96	0xbcef9db1	-0.029249998
97	0x3e27de72	0.1639345
98	0x3babeaf1	0.005246513
99	0xbddcb852	-0.10777344
100	0xbdcc8fa5	-0.099883355
101	0xbdc770b6	-0.09738295
102	0x3da39ded	0.07989106
103	0x3d8962a6	0.06708269
104	0xbe016524	-0.12636238
105	0x3e1d5dba	0.15367785
106	0x39a63680	0.00031702593
107	0x3c0dfeb7	0.008666686
108	0xbd9f4c8f	-0.07778274
109	0xbd2c54ec	-0.042073175
110	0xbd2a6efd	-0.041609753
111	0x3dcd916b	0.10037502
112	0x3df75f1f	0.1207869
113	0xbcd2342e	-0.025659647
114	0x3b6a6f84	0.0035772035
115	0x3d8f9e6e	0.0701264
116	0xbdcd15ee	-0.100139484
117	0xbdc66e74	-0.09689036
118	0x3d42c6eb	0.047552984
119	0x3e33ec87	0.17570697
120	0xbe11e3a5	-0.14246996
121	0x3aa22367	0.001237017
122	0xbe2df6a2	-0.16988614
123	0xbb487a81	-0.0030590596
124	0x3e0c83a3	0.1372209
125	0xbdd1bb6f	-0.10240828
126	0x3e1a575b	0.15072386
127	0xbdf04dfc	-0.11733624
128	0x3d0156a6	0.031576775
129	0xbe32d4b6	-0.17463955
130	0xbddb3e7c	-0.10705277
131	0x3d8fd7b0	0.07023561
132	0xbe2a7ea4	-0.16649872
133	0xbd8face4	-0.07015398
134	0xbe0619d7	-0.13095795
135	0x3ca9e682	0.020739798
136	0x3d862744	0.06550458
137	0xbe2a34a8	-0.1662165
138	0x3dfd31d4	0.123630196
139	0xbdef4e97	-0.11684912
140	0xbd8c45a5	-0.06849221
141	0xbddaa6d6	-0.10676353
142	0x3dbcd1d0	0.09219706
143	0xbdd733e4	-0.10507944
144	0x3d7d9cb2	0.061917014
145	0x3e23fe74	0.16015035
146	0x3e15e94b	0.14639775
147	0x3cb1d3b5	0.021707395
148	0x3d031b91	0.03200871
149	0xbce99b51	-0.028516443
150	0xbc11006e	-0.0088502
151	0x3dacf053	0.08444276
152	0xbd207c5f	-0.03918111
153	0x3df4582f	0.11930882
154	0x3b87a4f9	0.0041395393
155	0xbba9c93d	-0.00518146
156	0xbcad7661	-0.021174612
157	0xbcb8cc2e	-0.022558298
158	0xbd2f866e	-0.04285281
159	0x3cf7f259	0.030266928
160	0x3da891e8	0.082309544
161	0x3d682b57	0.056681957
162	0xbe304aaa	-0.17215982
163	0xbe15ec04	-0.14640814
164	0x3de57da7	0.11205607
165	0x3deaf8db	0.11473247
166	0xbd63e88c	-0.055641696
167	0x3def0770	0.116713405
168	0xbd5cc884	-0.053902164
169	0xbda46b59	-0.080282874
170	0xbe21a07f	-0.1578388
171	0x3d508d21	0.05091584
172	0x3e342b87	0.1759473
173	0xbdb778a9	-0.08958561
174	0x3e1794be	0.14802834
175	0x3d395e5f	0.045256015
176	0x3dd76049	0.10516412
177	0xbe27db59	-0.16392268
178	0x3dc5098a	0.0962096
179	0xbe2c727c	-0.16840547
180	0x3e309189	0.17243017
181	0x3e1fe397	0.15614162
182	0xbdc77e29	-0.0974086
183	0x3da087d5	0.07838408
184	0xbe27fc64	-0.16404873
185	0xbdbd2f14	-0.09237495
186	0x3c136458	0.008996092
187	0xbe22b33b	-0.15888683
188	0xbe2f7d2c	-0.17137593
189	0x3d52a533	0.051427078
190	0xbd6d3910	-0.057915747
191	0x3e316a78	0.17325771
192	0x3e051773	0.12997226
193	0xbe20fc06	-0.1572114
194	0xbd0ae79c	-0.033912286
195	0xbddc86b6	-0.107678816
196	0xbc185c6f	-0.009299382
197	0x3dce7ca3	0.10082366
198	0xbd283a38	-0.041071147
199	0x3dca597e	0.098803505
200	0xbe2b4b19	-0.16727866
201	0x3d733a10	0.059381545
202	0xbe1a9969	-0.15097584
203	0xbe2e1ad0	-0.17002416
204	0x3ddafe0e	0.10692988
205	0xbd802055	-0.06256167
206	0x3dac4658	0.084118545
207	0x3e0c1ae7	0.13682137
208	0x3e1f4fed	0.15557833
209	0x3e0ce0e3	0.13757662
210	0xbcd41566	-0.02588911
211	0xbcc9c47c	-0.024629824
212	0x3e1a29f8	0.15055072
213	0x3e171b72	0.14756563
214	0x3e331688	0.17489064
215	0x3db0b237	0.08627742
216	0xbe0a9049	-0.13531603
217	0x3d8c5257	0.068516426
218	0xbdfea916	-0.12434594
219	0x3d861b66	0.065481946
220	0xbe0c3b67	-0.13694535
221	0x3dff4e8d	0.12466154
222	0xbd95e2ec	-0.073186725
223	0xbc63b766	-0.013898706
224	0x3e2219a9	0.15830101
225	0xbdea76c7	-0.11448436
226	0x3c951861	0.018200101
227	0x3d798591	0.060918394
228	0xbe227e44	-0.15868479
229	0x3da7d248	0.08194405
230	0x3d31507c	0.043289647
231	0x3def9a00	0.11699295
232	0x3d012e0d	0.031538058
233	0x3e0c7996	0.13718256
234	0xbe0c0021	-0.13671924
235	0x3d405356	0.046954475
236	0xbd9a30a1	-0.075288065
237	0xbd9f4b94	-0.07778087
238	0xbe0077f5	-0.1254576
239	0xbe1a379a	-0.15060273
240	0xbdfdb96a	-0.123888806
241	0x3e2586ae	0.16164657
242	0x3e0ca788	0.13735783
243	0x3df01da8	0.117244065
244	0xbe2ff67f	-0.17183875
245	0x3cd9a470	0.026567668
246	0x3d57a0f9	0.05264375
247	0xbe0b7f4a	-0.13622776
248	0x3cf1d2b4	0.029519416
249	0x39e28eca	0.00043212465
250	0x3ce32bef	0.02773091
251	0xbe2d9ce1	-0.16954376
252	0xbe270110	-0.16308999
253	0x3e33fa68	0.17575991
254	0xbcc60f8a	-0.024177331
255	0x3d949a2b	0.07255968

bias f4 [30]
0	0x3b195d8f	0.0023401713
1	0x3d5ea286	0.054354213
2	0x3d5bc6ab	0.05365626
3	0xbc8d8f83	-0.017280346
4	0xbd15290b	-0.036416095
5	0x3d22a68f	0.039709624
6	0xbd19559d	-0.037435163
7	0xbd746501	-0.059666637
8	0x3d95d1e5	0.07315425
9	0xbd833f3f	-0.064085476
10	0xbd8dc147	-0.0692163
11	0x3d315322	0.043292172
12	0xbd6e0d79	-0.058118317
13	0x3c0b8f36	0.008518031
14	0xbcee4706	-0.029086601
15	0xbd8c948a	-0.06864269
16	0xbceda038	-0.029007062
17	0xbc607502	-0.013699772
18	0x3d397edf	0.04528701
19	0x3d5effb7	0.054443087
20	0xbc0c3634	-0.008557845
21	0xbcd5e128	-0.02610834
22	0xbd5f0ed2	-0.054457493
23	0x3d87b4bb	0.066262685
24	0xbcdcbe4e	-0.026946213
25	0xbceca0db	-0.028885296
26	0xbd2f227a	-0.04275749
27	0xbc2a5064	-0.010395143
28	0xbd597215	-0.053087313
29	0xbd05b659	-0.032644603

weight f4 [30, 163]
0	0x3c8e166e	0.01734468
1	0xbe19b7a2	-0.15011457
2	0xbc29f329	-0.010372915
3	0xbd5efde7	-0.05444136
4	0x3d7a3e48	0.061094552
5	0xbc25088e	-0.01007284
6	0xbe337298	-0.17524183
7	0x3dfee24a	0.12445505
8	0x3d8ccc4c	0.06874904
9	0x3e31f3d5	0.17378171
10	0x3dd8d370	0.105872035
11	0x3d4b5f8c	0.049651667
12	0x3e0dd829	0.1385199
13	0xbe10e936	-0.14151463
14	0x3e308fde	0.17242381
15	0xbd5444f0	-0.051823556
16	0x3d1c8e14	0.038221434
17	0x3daafb8c	0.0834876
18	0x3dd2bab9	0.10289521
19	0x3d538c39	0.0516474
20	0x3de2f8e6	0.1108263
21	0x3d11d697	0.03560504
22	0xbe14c007	-0.14526378
23	0xbd972d22	-0.07381655
24	0x3ce755e8	0.028239205
25	0x3d3eec88	0.046612293
26	0xbdc48b27	-0.09596854
27	0x3e07a4eb	0.13246505
28	0x3e076114	0.13220626
29	0x3dbdd94c	0.09269962
30	0x3d731220	0.059343457
31	0xbe305550	-0.17220044
32	0xbe18737a	-0.14887801
33	0xbdbcd45d	-0.092201926
34	0x3ddeef42	0.108854786
35	0xbe1c8e4b	-0.15288655
36	0xbdc5aed6	-0.09652488
37	0xbe2a9d97	-0.16661678
38	0xbda25c4f	-0.07927763
39	0xbdaefd7b	-0.08544441
40	0xbcb253ac	-0.021768413
41	0xbd14894e	-0.036263756
42	0xbdcc2eee	-0.09969889
43	0xbdfa078e	-0.12208472
44	0xba02bd69	-0.0004987331
45	0x3d659d01	0.056057934
46	0x3ca5d537	0.02024327
47	0xbdb015da	-0.08597918
48	0x3e220464	0.15821987
49	0xbe02053e	-0.12697312
50	0xbd59133e	-0.052996866
51	0xbcec7132	-0.02886257
52	0xbca5a89c	-0.020222
53	0xbda679eb	-0.08128723
54	0xbdc265e2	-0.09492089
55	0xbd6a2f9a	-0.057174303
56	0x3e325d0a	0.17418304
57	0xbe13942d	-0.14411993
58	0x3dd48ec2	0.103787914
59	0x3e0d06ba	0.13772097
60	0x3e0823c3	0.13294892
61	0xbda398d8	-0.07988137
62	0x3d03b8f9	0.032158826
63	0x3dbf3af5	0.09337417
64	0x3dbdd76d	0.09269605
65	0x3dce9bb9	0.100882955
66	0xbde5d436	-0.11222117
67	0x3b2a55f1	0.0025991166
68	0x3d8c901e	0.06863426
69	0xbceaf1f8	-0.028679833
70	0xbdc165d1	-0.09443248
71	0x3e2ac5a3	0.16676955
72	0x3e1c3700	0.15255356
73	0xbddc67b1	-0.10761965
74	0xbe1265e8	-0.14296687
75	0xbcff78fa	-0.031185616
76	0xbd70fd91	-0.05883557
77	0x3e1c126b	0.15241401
78	0xbd85ece9	-0.06539328
79	0x3c978b74	0.018499114
80	0xbe028cf6	-0.12749085
81	0xbda242ee	-0.07922922
82	0x3db930ed	0.09042535
83	0x3cf78339	0.030213939
84	0xbdde1263	-0.10843351
85	0xbd6078d8	-0.054802746
86	0x3dd0c7ff	0.10194396
87	0xbcf26eae	-0.029593792
88	0xbd8dfb2f	-0.06932675
89	0x3d639608	0.055563003
90	0x3d504dcf	0.050855454
91	0x3d7dcfe0	0.061965823
92	0x3e1e08b9	0.15433015
93	0x3d361114	0.04444988
94	0x3e1a2259	0.15052165
95	0xbd9c3179	-0.07626624
96	0xbe1aeac5	-0.1512862
97	0x3d9dcae9	0.07704718
98	0xbda3c1fe	-0.079959854
99	0x3d3315e3	0.043722045
100	0x3e2afb1b	0.16697352
101	0x3bd93464	0.00662856
102	0x3d5e74dc	0.054310665
103	0x3dbad3a8	0.091224015
104	0xbbc5a157	-0.006031196
105	0x3d27051f	0.04077637
106	0x3e249759	0.1607336
107	0x3d755de2	0.059903987
108	0x3d6bdd0c	0.057583854
109	0x3d1f7973	0.038934182
110	0x3c853a73	0.016263222
111	0x3dd5b9b8	0.10435814
112	0x3d3ad876	0.04561659
113	0x3df7e860	0.12104869
114	0xbcb3a8a6	-0.021931004
115	0x3cf0a7e4	0.029376931
116	0x3da654fb	0.081216775
117	0x3e0e028f	0.13868164
118	0x3e0acc68	0.13554537
119	0xbd0b232c	-0.03396909
120	0xbdb3ccf6	-0.087793276
121	0xbd142689	-0.036169562
122	0x3e1afbdf	0.15135144
123	0x3da4f7b8	0.08055061
124	0x3df36e73	0.11886301
125	0x3d7f0cce	0.06226807
126	0x3e09ce82	0.13457683
127	0x3e09a9f0	0.13443732
128	0xbe054835	-0.13015826
129	0x3ddec510	0.108774304
130	0x3da4494e	0.08021794
131	0xbe063ebd	-0.1310987
132	0xbdacdf40	-0.08441019
133	0xbd792663	-0.060827624
134	0xbdae1cfb	-0.08501621
135	0xbc902637	-0.017596347
136	0x3e1e8a66	0.15482482
137	0x3d9aa86c	0.07551655
138	0x3d6ed90e	0.05831247
139	0xbdf47128	-0.11935645
140	0xbe2480da	-0.16064778
141	0x3de0642e	0.10956608
142	0xbe2a6f03	-0.1664391
143	0x3daaf335	0.08347169
144	0xbbbd1d9b	-0.0057713515
145	0x3d818965	0.06325034
146	0x3e01aae8	0.12662852
147	0x3deeea06	0.1166573
148	0xbdb38e6c	-0.08767399
149	0x3dc44ab8	0.09584564
150	0x3d93e4ec	0.07221398
151	0x3e1212e0	0.14265013
152	0xbe312d66	-0.17302474
153	0x3e1544dc	0.14577049
154	0xbe2f19f2	-0.17099741
155	0x3d4f1a0b	0.050561946
156	0xbe30ee59	-0.17278422
157	0xbe1bb2e7	-0.15204965
158	0xbde2f7bd	-0.110824086
159	0x3d71fa8d	0.059076834
160	0x3cf257c8	0.029582873
161	0x3daa6262	0.08319546
162	0x3d9e2e47	0.077236705
163	0xbce0669b	-0.027392676
164	0x3db208d6	0.086930916
165	0xbc73c718	-0.014879011
166	0xbdf14d4d	-0.11782322
167	0x3cffece8	0.031240895
168	0xbe2609a3	-0.16214614
169	0x3e252fad	0.16131468
170	0x3e206855	0.156648
171	0x3e328dc8	0.17436898
172	0xbe2c1aac	-0.1680705
173	0xbde7f55b	-0.11326095
174	0x3ba39f5e	0.0049933633
175	0x3d9d3d32	0.07677688
176	0xbe0169b8	-0.12637985
177	0x3e0db50d	0.13838597
178	0x3ddfe595	0.10932461
179	0x3d923e88	0.07140833
180	0xbe07b45b	-0.13252394
181	0xbcd40326	-0.025880408
182	0x3de0457d	0.10950754
183	0xbe17061f	-0.14748429
184	0x3d7fe297	0.062471952
185	0xbd45fae9	-0.04833499
186	0xbda50e0b	-0.08059319
187	0xbd367ffc	-0.04455565
188	0xbd6f4a76	-0.05842062
189	0xbdf7cfd0	-0.12100184
190	0x3dceaccb	0.100915514
191	0x3beb499f	0.007180407
192	0x3d3b8f1b	0.045790773
193	0x3e09637e	0.1341686
194	0x3de36384	0.111029655
195	0xbd5e0ea1	-0.05421317
196	0x3df5b3f3	0.11997213
197	0xbe2bf322	-0.16791967
198	0xbdc3c2ee	-0.09558664
199	0x3dc0e02c	0.094177574
200	0x3e040c9d	0.12895437
201	0xbdfbe906	-0.12300305
202	0xbdfa94cf	-0.12235414
203	0x3e23e478	0.16005123
204	0x3de9b245	0.11410955
205	0xbc999e80	-0.018752337
206	0xbda771c9	-0.08176
207	0xbe11ae37	-0.14226614
208	0x3d8fa13a	0.070131734
209	0xbdcfa026	-0.10137968
210	0x3caa5999	0.020794677
211	0xbc28ff66	-0.010314798
212	0xbe085233	-0.13312607
213	0xbcbaf2c1	-0.022820832
214	0xbe016a0c	-0.1263811
215	0x3da5eec3	0.08102181
216	0x3aef9606	0.0018278963
217	0x3dc49393	0.0959846
218	0x3e1179ea	0.14206663
219	0xbc5c44df	-0.0134441545
220	0xbdd07db7	-0.10180228
221	0x3bd5cfd9	0.0065250215
222	0x3d0c680f	0.034278926
223	0x3d4de365	0.05026569
224	0x3d3712c5	0.044695634
225	0x3dccbb74	0.09996691
226	0xbc2c78ec	-0.010526877
227	0x3e131f9b	0.14367525
228	0x3e162c59	0.14665355
229	0x3d95823c	0.07300231
230	0x3dc7d7b8	0.09757942
231	0xbb704ac0	-0.0036665648
232	0x3da426f5	0.08015243
233	0xbca0930d	-0.01960137
234	0x3e2a3ad9	0.16624011
235	0x3d29f502	0.041493423
236	0xbdfea4b1	-0.12433756
237	0x3e22a14f	0.15881847
238	0x3e1fcf97	0.15606533
239	0x3cf7cb9a	0.030248452
240	0x3db3c463	0.08777692
241	0x3dea45e8	0.11439115
242	0xbe083d5d	-0.13304658
243	0xbe27585d	-0.16342302
244	0xbdb898b9	-0.090135045
245	0x3e1182a6	0.14209995
246	0xbe32239a	-0.17396393
247	0xbd60e50f	-0.054905947
248	0xbd151cd7	-0.036404457
249	0x3e3171ae	0.17328522
250	0x3e1491bd	0.1450872
251	0x3dc7c0c9	0.09753568
252	0xbcb4cab7	-0.022069318
253	0x3e2311b4	0.15924722
254	0xbe0df602	-0.13863376
255	0x3e226783	0.15859799

bias f4 [30]
0	0x3c35759d	0.0110754045
1	0xbd8cf9b2	-0.06883563
2	0x3ca76b18	0.020436808
3	0xbcd46c2e	-0.02593049
4	0xbd973c3f	-0.07384538
5	0x3d44faed	0.048090864
6	0xbd9ff5e1	-0.078105696
7	0x3d2fc8e6	0.0429162
8	0x3d887a00	0.06663895
9	0x3d0e6789	0.034766708
10	0xbd71cef7	-0.059035268
11	0xbd1b6769	-0.037940416
12	0xbd7d73dc	-0.06187807
13	0x3d3c6e13	0.046003412
14	0x382e96b9	4.1625204e-05
15	0x3d8ca937	0.06868213
16	0xbd0368fc	-0.032082543
17	0xbc237b13	-0.009978074
18	0x3cc3c48c	0.023897432
19	0x3d339f8c	0.043853328
20	0xbd87e87d	-0.066361405
21	0xbd8e76ac	-0.069562286
22	0xbcab2f12	-0.020896468
23	0xbd13c859	-0.03607974
24	0xbd1e1432	-0.03859348
25	0x3d6c07b3	0.05762453
26	0xbd867570	-0.06565368
27	0xbd969285	-0.07352165
28	0xbcbaf81e	-0.02282339
29	0x3d559967	0.05214825

att f4 [1, 1, 15]
0	0x3f3f64dd	0.7476328
1	0x3e82f8f9	0.25580576
2	0x3f01f357	0.5076193
3	0xbe340b53	-0.17582445
4	0x3f037105	0.5134433
5	0x3e8df4a0	0.27725697
6	0xbd318ad8	-0.043345302
7	0x3f03c465	0.5147155
8	0x3df99873	0.121872805
9	0xbf115ffc	-0.56787086
10	0x3edb9c8c	0.42892873
11	0x3ecea99d	0.4036378
12	0x3f2b7451	0.6697436
13	0xbdeda290	-0.11603272
14	0xbec84f6e	-0.391231

bias f4 [15]
0	0xbe0dde5f	-0.13854359
1	0xbde676ac	-0.112531036
2	0xbe796521	-0.24354984
3	0xbf0034a7	-0.5008034
4	0x3eb978c9	0.36224964
5	0xbe57b9ea	-0.21067014
6	0x3ee02444	0.43777668
7	0xbf16a0ac	-0.58838916
8	0xbe815598	-0.25260615
9	0x3d6d7c61	0.057979945
10	0xbeafb466	-0.3431732
11	0xbeeeba6c	-0.46626604
12	0xbe970f9c	-0.29504097
13	0xbe41bfae	-0.18920776
14	0x3ec6ac4b	0.38803324

weight f4 [15, 163]
0	0x3dd657f8	0.104659975
1	0xbcf42751	-0.029803904
2	0x3cf214d9	0.029550957
3	0xbcad5cf7	-0.021162493
4	0x3d816efb	0.06319996
5	0x3caa3832	0.02077875
6	0xbca6b46d	-0.020349706
7	0xbba136fb	-0.0049198843
8	0xbd16713b	-0.03672908
9	0xbd404a12	-0.04694564
10	0xbd06acfb	-0.03287981
11	0x3cd82493	0.026384627
12	0x3dc99368	0.09842569
13	0x3d72ebbe	0.059306853
14	0x3efce4bc	0.4939326
15	0x3f228654	0.6348622
16	0xbea02f42	-0.31286055
17	0xbdc7edfd	-0.097621895
18	0x3e18eff4	0.14935285
19	0x3c241b06	0.0100162085
20	0x3c7f0d18	0.015567087
21	0x3cdf213f	0.027237533
22	0xbcc9a210	-0.02461341
23	0x3dfa6958	0.12227124
24	0xbeab816c	-0.3349718
25	0x39d322f6	0.00040271104
26	0xbc807ad5	-0.01568357
27	0xbd12f067	-0.035873797
28	0xbe5f2f4b	-0.21795385
29	0xbda8d098	-0.08242911
30	0x3f621ce4	0.88325334
31	0xbeaa2e83	-0.3323861
32	0x3e96f37e	0.29482645
33	0x3f2c4a11	0.67300516
34	0x3f759a7c	0.9593885
35	0xbd624d62	-0.05524958
36	0x3ceb7a52	0.02874485
37	0xbc03f9cd	-0.008055163
38	0x3d886429	0.06659729
39	0xbdee8e24	-0.11648205
40	0xbdb27156	-0.08713023
41	0xbe4f41db	-0.20239966
42	0xbdad79e5	-0.08470515
43	0xbd61914a	-0.0550702
44	0xbdeea06f	-0.11651694
45	0xbe4fde6c	-0.20299691
46	0x3d845d6a	0.0646313
47	0xbd8904e2	-0.066903844
48	0x3d181d14	0.037137106
49	0xbdc0a9c2	-0.09407379
50	0xbdb9b1f7	-0.09067147
51	0xbb5d99f8	-0.0033813696
52	0x3d3fcfe8	0.046829134
53	0xbde8c4ee	-0.11365686
54	0x3d16b4d2	0.036793537
55	0x3ce8445c	0.028352909
56	0x3dab835b	0.083746634
57	0xbda1d3b4	-0.07901707
58	0xbf51e386	-0.819878
59	0xbe126889	-0.1429769
60	0x3edc67ea	0.4304803
61	0x3c423663	0.011853787
62	0xbf1a376d	-0.60240823
63	0x3e97ee63	0.29674062
64	0xbb4a0193	-0.0030823692
65	0x3f2498a9	0.6429544
66	0xba9a298e	-0.0011761652
67	0xbeb39088	-0.35071206
68	0xbda6f096	-0.08151357
69	0xbf845ad9	-1.0340225
70	0x3d5e2a3e	0.054239504
71	0x3dbffef0	0.09374797
72	0xbe6bf0bb	-0.2304105
73	0xbf15d49a	-0.5852753
74	0x3c311c45	0.010809963
75	0x3ddc7930	0.10765302
76	0x3c3d672b	0.011560242
77	0xbd81322e	-0.06308399
78	0xbe002b4a	-0.12516513
79	0xbe60634d	-0.2191288
80	0x3cf1ff9f	0.029540835
81	0xbf054195	-0.52053195
82	0x3e4ddee0	0.20104551
83	0xbd4f4266	-0.05060043
84	0x3f05a558	0.5220542
85	0xbc2704b7	-0.010193995
86	0x3ddf3da5	0.1090043
87	0x3d5e98d7	0.05434498
88	0xbd9b425d	-0.07581017
89	0xbc89941e	-0.01679426
90	0xbd2cfd97	-0.04223403
91	0xbd817bb4	-0.063224226
92	0xbd621129	-0.055192146
93	0x3ce7d3ef	0.0282993
94	0x3f1e8f93	0.61937827
95	0x3f2b8ff6	0.6701654
96	0xbd58b641	-0.052908186
97	0xbd771e05	-0.060331363
98	0x3e90d846	0.28290004
99	0xbf83eb62	-1.0306208
100	0xbd1d0b54	-0.03834088
101	0x3f0ab490	0.54181767
102	0xbe6f0dd7	-0.23345123
103	0x3f2bb142	0.6706735
104	0xbd6aa378	-0.057284802
105	0xbf495467	-0.7864441
106	0x3e44d243	0.19220833
107	0x3c5d7bb7	0.013518265
108	0x3eb398ce	0.35077518
109	0x3e5d72c7	0.21625815
110	0xbd9b1ab4	-0.075734526
111	0x3dc220f0	0.094789386
112	0xbe91f109	-0.28504208
113	0x3d070813	0.032966685
114	0x3de98962	0.11403157
115	0xbe610cbf	-0.21977518
116	0xbdf013b0	-0.11722505
117	0xbd81acff	-0.063318245
118	0x3e237a8c	0.15964717
119	0xbd1eda16	-0.0387822
120	0xbb2ba476	-0.0026190556
121	0xbe73ef83	-0.23821835
122	0x3d0318b5	0.032005984
123	0x3dbc115f	0.09183001
124	0xbec84320	-0.39113712
125	0x3ef8438b	0.4848903
126	0x3d8ef1f9	0.06979746
127	0xbdcd46c2	-0.100232616
128	0xbf52116c	-0.82057834
129	0x3f02bc39	0.51068455
130	0xbd6782ea	-0.056521334
131	0xbb75f9b8	-0.0037532877
132	0xbd872098	-0.06598014
133	0xbe458433	-0.19288711
134	0x3e24adbe	0.16081902
135	0x3d793a05	0.060846347
136	0x3e3cb434	0.18428117
137	0xbd2ff274	-0.04295583
138	0xbda67fc5	-0.08129839
139	0xbbac341c	-0.0052552354
140	0xbcac4ac8	-0.021031752
141	0xbd632be3	-0.055461776
142	0xbcc77048	-0.024345532
143	0x3d3803de	0.044925563
144	0xbcad9a95	-0.021191875
145	0xbddf19d7	-0.108936004
146	0xbd75c27a	-0.05999992
147	0x3d17a9cf	0.037027176
148	0x3c989baa	0.018628914
149	0xbdffcfd5	-0.12490813
150	0xbda989bb	-0.08278223
151	0x3d852b6f	0.06502425
152	0xbd7c6418	-0.061618894
153	0xbd994216	-0.07483308
154	0x3d74514b	0.05964784
155	0xbd6ea594	-0.058263376
156	0xbd86972c	-0.065718025
157	0xbe41c5d8	-0.18923128
158	0xbd832981	-0.064044006
159	0xbdd327f1	-0.103103526
160	0xbe0ee050	-0.13952756
161	0xbd84645c	-0.064644545
162	0x3ef7adf2	0.48374897
163	0xbdc3fc92	-0.09569658
164	0xbdceddb4	-0.1010088
165	0xbd389777	-0.045066323
166	0xbd24c989	-0.04023126
167	0xbdd2d85c	-0.102951735
168	0xbdde7d82	-0.108637825
169	0xbc36c393	-0.011155027
170	0xbdc82a60	-0.097737074
171	0xbdba502f	-0.09097325
172	0xbc533edd	-0.012893406
173	0xbd8cbc03	-0.06871798
174	0xbd6c9716	-0.057761274
175	0xbd846a45	-0.06465582
176	0xbd50ee5e	-0.051008575
177	0xbd86d00b	-0.0658265
178	0xbe184a03	-0.14871983
179	0xbcaecfe8	-0.021339372
180	0xbdea80ae	-0.11450325
181	0xbdab00de	-0.08349775
182	0xbdb99abc	-0.09062716
183	0xbdb93528	-0.09043342
184	0xbc2764c9	-0.0102169
185	0xbc7dc64b	-0.015489171
186	0x3af4e598	0.0018684147
187	0xbbbc447c	-0.0057454687
188	0xbcb74c55	-0.022375265
189	0xbe34ec4e	-0.17668268
190	0x3d9249b4	0.07142964
191	0xbdaaa90a	-0.08333023
192	0xbda6d6c4	-0.08146432
193	0xbe06153c	-0.13094038
194	0xbdb8f342	-0.09030773
195	0xbd4219a7	-0.047387745
196	0x3c1ca381	0.009560467
197	0xbc64c842	-0.013963761
198	0xbd8a1eaf	-0.06744134
199	0xbdb1b865	-0.086777486
200	0xbe0c0ecd	-0.13677521
201	0xbdddbbfb	-0.1082687
202	0xbdb81170	-0.08987701
203	0xbdf755ed	-0.12076936
204	0x3beed737	0.007288839
205	0xbde85939	-0.11345143
206	0xbd0e7ac0	-0.034785032
207	0xbd875739	-0.06608433
208	0xbdd72859	-0.105057426
209	0xbd45a183	-0.048249733
210	0xbe06aff5	-0.1315306
211	0xbd2da1cc	-0.04239063
212	0xbda4d864	-0.08049086
213	0xbdbfa915	-0.09358422
214	0xbdce9f54	-0.10088983
215	0xbdb58e52	-0.08865036
216	0xbe04658b	-0.1292936
217	0x3c83a8bd	0.016071672
218	0xbafa96de	-0.0019118448
219	0xbcd5eb0f	-0.026113061
220	0xbc832dd7	-0.01601307
221	0xbd17f67b	-0.037100296
222	0x3b8e4e96	0.0043428643
223	0xbd4dc8a4	-0.050240174
224	0xbd4a5d80	-0.049405575
225	0xbe0e07a7	-0.13870107
226	0xbe1c38e1	-0.15256073
227	0x3ded2ee6	0.11581211
228	0xbe02a3e2	-0.12757829
229	0xbe576844	-0.21035868
230	0xbd6e1a28	-0.058130413
231	0x3d7f63f3	0.06235118
232	0xbd5f16e2	-0.054465182
233	0x3c8966c2	0.016772632
234	0xbdf69340	-0.120398045
235	0xbdd9aba5	-0.10628442
236	0xbd1fd940	-0.039025545
237	0x3cd14bf1	0.025548907
238	0xbcf4ac07	-0.029867185
239	0x3d588c9a	0.052868463
240	0x3d7eaf88	0.06217912
241	0xbd159a7d	-0.036524285
242	0xbd935489	-0.07193858
243	0xbe17f8da	-0.14841023
244	0xbe2dc083	-0.16967969
245	0xbdfe2de8	-0.124111
246	0xbd115260	-0.03547895
247	0xbe01dd09	-0.12681974
248	0xbd3ce27e	-0.046114437
249	0x3bfe2ce6	0.007756817
250	0xbd5ee110	-0.054413855
251	0xbb2c5f79	-0.0026302023
252	0xbd53e8d3	-0.05173571
253	0xbdf8a153	-0.12140145
254	0xbde4ce52	-0.11172165
255	0xbddd76f3	-0.108137034

bias f4 [15]
0	0xbcc53571	-0.024073334
1	0xbd8c92e8	-0.06863958
2	0xbe86dd0e	-0.26340526
3	0xbefef29d	-0.49794474
4	0x3e71955c	0.23592132
5	0xbdb8bf2c	-0.09020838
6	0x3ef18d53	0.47178134
7	0x3d831ce8	0.06401998
8	0xbe807cf5	-0.25095335
9	0x3dd0d16c	0.10196194
10	0xbe8ed9da	-0.27900583
11	0xbedceddf	-0.4315023
12	0xbede686f	-0.43439052
13	0xbdcc1782	-0.09965421
14	0x3ed90ae7	0.4239113

weight f4 [15, 9]
0	0xbe2a3d1f	-0.16624878
1	0x3e14f91f	0.14548157
2	0x3dd1bf3a	0.10241552
3	0xbc3d2e25	-0.011546646
4	0xbe2c5d08	-0.16832364
5	0x3e096a6b	0.13419501
6	0xbda335c7	-0.079692416
7	0xbda8a506	-0.08234601
8	0x3c3b8d9a	0.011447335
9	0xbe0d42b5	-0.13794978
10	0x3d7c6d25	0.061627526
11	0xbda6bb8e	-0.08141242
12	0xbe2bfa9a	-0.16794816
13	0x3e4f4a49	0.20243181
14	0x3e0ce8ca	0.13760677
15	0x3d97766b	0.07395633
16	0xbe07783c	-0.1322946
17	0x3d0e061f	0.034673806
18	0xbe2f1bcc	-0.17100447
19	0x3e3025d7	0.17201935
20	0xbe227a59	-0.15866984
21	0xbe4dbb66	-0.20091018
22	0x3d42ebf3	0.0475883
23	0x3dc9c28b	0.09851559
24	0xbc47afdb	-0.012187923
25	0xbd94a7bd	-0.07258556
26	0xbe58efc2	-0.2118521
27	0x3ebde9da	0.37092477
28	0x3d4d3fe0	0.050109744
29	0xbdba9b8a	-0.09111698
30	0x3e0b0116	0.13574633
31	0xbd940ff1	-0.07229603
32	0xbd8b2b34	-0.0679535
33	0xbddb92f5	-0.10721389
34	0xbe368c85	-0.17827041
35	0x3c60f394	0.013729949
36	0xbe19c145	-0.15015133
37	0x3c9eca7d	0.019383663
38	0xbe139c28	-0.14415038
39	0x3e54cf53	0.20782213
40	0xbd189334	-0.03724976
41	0xbe52e5d6	-0.20595488
42	0x3dfe499f	0.12416386
43	0x3ccd7b28	0.02508314
44	0xbdbdf382	-0.09274961
45	0xbd966f94	-0.073455006
46	0x3dac60bb	0.084168874
47	0x3e31fbbb	0.17381184
48	0xbcf39bb7	-0.029737337
49	0x3ce86889	0.028370159
50	0xbc84fe63	-0.016234582
51	0x3dcc8dc6	0.09987979
52	0x3de45107	0.11148267
53	0x3e2eac5f	0.17057942
54	0xbe79b718	-0.24386251
55	0xbd283686	-0.041067623
56	0xbca470d5	-0.020073334
57	0x3d960d30	0.07326734
58	0xbd8b760f	-0.06809627
59	0x3d4773c9	0.048694406
60	0x3e30e885	0.17276199
61	0x3d838b93	0.06423106
62	0xbe3147d0	-0.1731255
63	0xbe4bc3ad	-0.19898863
64	0x3d8fdb36	0.07024233
65	0x3e0af49c	0.13569874
66	0xbe1ad390	-0.15119767
67	0xbe2ee5d8	-0.17079866
68	0xbe44896b	-0.19193046
69	0x3e3431f1	0.17597176
70	0x3e2bc656	0.16774878
71	0x3e1d4c38	0.15361106
72	0xbe01bef2	-0.12670496
73	0xbe046065	-0.12927397
74	0xbdef94e0	-0.116983175
75	0xbddfd10f	-0.10928547
76	0x3d954c75	0.07289974
77	0xbe4f6f8d	-0.20257397
78	0xbe0cf970	-0.13767028
79	0xbe0cb7df	-0.13742016
80	0xbd23e706	-0.040015243
81	0xbe3918c3	-0.18075852
82	0xbde8648d	-0.113473035
83	0xbe19c55f	-0.15016697
84	0x3d1a1e68	0.037626654
85	0x3ce932d0	0.028466612
86	0x3df381d0	0.11889994
87	0x3d99af54	0.07504144
88	0x3cdfac0e	0.027303722
89	0x3d45083f	0.048103567
90	0x3e90906f	0.28235194
91	0x3d97014b	0.073732935
92	0xbda1750e	-0.078836545
93	0xbe55d0a5	-0.20880373
94	0xbd27cb32	-0.040965267
95	0xbdb4d390	-0.08829415
96	0xbd05a255	-0.032625515
97	0x3b2b7138	0.0026160013
98	0xbddf7999	-0.10911865
99	0xbde6f989	-0.11278064
100	0x3e4cae01	0.19988252
101	0xbd91246b	-0.07087024
102	0xbe3f6927	-0.18692456
103	0x3d44b756	0.048026405
104	0xbd9301a5	-0.07178048
105	0x3c2dab3b	0.010599907
106	0xbd59adc4	-0.05314423
107	0x3e1d44e9	0.15358318
108	0xbe1870b1	-0.14886738
109	0xbd995aff	-0.07488059
110	0x3cc118a6	0.023571324
111	0x3e499169	0.19684376
112	0x3d8801d7	0.06640976
113	0x3bf77aa6	0.0075524626
114	0xbc09f724	-0.008420739
115	0x3e551c01	0.20811464
116	0xbe4c01c2	-0.19922546
117	0xbd5c174b	-0.05373315
118	0xbe2d36af	-0.16915391
119	0x3e4dc95d	0.20096345
120	0xbe4f07f4	-0.20217878
121	0xbdd1b751	-0.10240043
122	0x3d9bc70e	0.07606326
123	0xbe24c7c0	-0.16091824
124	0xbd787fee	-0.06066888
125	0xbcd971c9	-0.026543515
126	0x3d1ffe35	0.03906079
127	0xbceb2b87	-0.028707279
128	0x3e3339af	0.17502473
129	0x3db75d36	0.089533255
130	0xbb3d771a	-0.0028910101
131	0xbe352336	-0.17689213
132	0x3e12905a	0.14312878
133	0x3cb95125	0.0226217
134	0x3e489bc9	0.19590677

bias f4 [15]
0	0x3db2df78	0.087340295
1	0xbde4891a	-0.111589625
2	0xbd81b7e4	-0.063339025
3	0xbdc88a95	-0.097920574
4	0x3ba0ccc3	0.004907222
5	0xbc915246	-0.017739426
6	0x3e0ccf00	0.13750839
7	0xbcc1a906	-0.023640167
8	0x3de6c4c1	0.112679966
9	0xbd57ec1d	-0.05271541
10	0xbdabbfca	-0.0838619
11	0xbdcb9b22	-0.099416986
12	0xbcee5e02	-0.02909756
13	0x3d3c560d	0.045980502
14	0xbd7ba11d	-0.061432946

att f4 [1, 1, 15]
0	0x3ec16527	0.37772486
1	0x3e6118e6	0.21982154
2	0xbe8880fd	-0.2666091
3	0x3da9fc5a	0.08300085
4	0xbebac8e1	-0.36481383
5	0x3effe570	0.49979734
6	0xbd433e16	-0.04766663
7	0x3ee7bb1f	0.4525995
8	0xbd43006e	-0.04760783
9	0x3f01ab51	0.50652033
10	0xbe9148bd	-0.28375807
11	0x3dd95f00	0.10613823
12	0xbd04eac0	-0.032450438
13	0xbe7f84c7	-0.24952994
14	0x3ef19893	0.47186717

bias f4 [15]
0	0xbe0dde5f	-0.13854359
1	0xbde676ac	-0.112531036
2	0xbe796521	-0.24354984
3	0xbf0034a7	-0.5008034
4	0x3eb978c9	0.36224964
5	0xbe57b9ea	-0.21067014
6	0x3ee02444	0.43777668
7	0xbf16a0ac	-0.58838916
8	0xbe815598	-0.25260615
9	0x3d6d7c61	0.057979945
10	0xbeafb466	-0.3431732
11	0xbeeeba6c	-0.46626604
12	0xbe970f9c	-0.29504097
13	0xbe41bfae	-0.18920776
14	0x3ec6ac4b	0.38803324

weight f4 [15, 9]
0	0xbdf094a3	-0.117471
1	0x3ed36daf	0.4129462
2	0x3f07af66	0.5300201
3	0xbd3329a9	-0.043740902
4	0xbe565a89	-0.20932974
5	0xbef0aa16	-0.47004765
6	0xbda9b295	-0.08286015
7	0x3d1a7aa9	0.037714634
8	0xbdbbaff1	-0.091644175
9	0xbdc6f320	-0.09714341
10	0xbb80a717	-0.0039261687
11	0xbea8425e	-0.32863134
12	0xbc70cfd0	-0.014697984
13	0xbcf17045	-0.02947248
14	0x3c98591b	0.018597176
15	0xbe25d2f4	-0.16193753
16	0xbec5e113	-0.3864828
17	0xbecf51b3	-0.4049202
18	0xbe351f37	-0.17687689
19	0xbeaeca00	-0.3413849
20	0xbee3e38e	-0.44509548
21	0xbe03aafb	-0.12858193
22	0x3eda5022	0.4263926
23	0xbedaea7b	-0.4275702
24	0x3dbf7cb2	0.093499556
25	0xbeb1d959	-0.34736136
26	0x3c556808	0.013025291
27	0xbee6c9ae	-0.45075744
28	0xbefa5d13	-0.48899135
29	0xbf18174d	-0.59410554
30	0xbecd4971	-0.40095094
31	0xbe4c3197	-0.19940792
32	0xbf1cd41a	-0.6126114
33	0x3cbe0981	0.023197891
34	0xbf0353c1	-0.51299673
35	0xbeeaef33	-0.4588562
36	0x3f0ca4f7	0.54939216
37	0x3efe6157	0.4968364
38	0x3ef5e2f2	0.48024708
39	0x3f08dbc4	0.53460336
40	0x3f36679c	0.71251845
41	0x3ebdce98	0.3707168
42	0x3e55197c	0.20810503
43	0x3da078bf	0.078355305
44	0x3eb214de	0.34781545
45	0xbea18059	-0.31543234
46	0xbd973bcb	-0.073844515
47	0xbc3bde4b	-0.011466573
48	0xbd842cb6	-0.064538404
49	0xbf21f399	-0.63262326
50	0xbf09bc95	-0.5380338
51	0x3e05de6a	0.13073125
52	0xbee37e00	-0.44432068
53	0xbf79139b	-0.9729554
54	0xbd03eadf	-0.032206412
55	0x3e0f4793	0.13992147
56	0xbd9ef50a	-0.07761581
57	0x3e9fe391	0.31228307
58	0x3ef8326a	0.48475963
59	0x3ecefe15	0.40428224
60	0x3d0db3ba	0.03459523
61	0x3ed31e4c	0.41234052
62	0x3f02b57c	0.51058173
63	0xbee7abf1	-0.45248368
64	0xbf22d3f2	-0.6360465
65	0xbed71557	-0.42008469
66	0xbec88e72	-0.39171177
67	0x3d8e2658	0.06940907
68	0xbefe3d8a	-0.49656326
69	0xbc20b342	-0.009808363
70	0xbe82a73f	-0.25518224
71	0xbe21af0e	-0.15789434
72	0xbec0b9ce	-0.37641758
73	0xbec398a2	-0.38202387
74	0xbed5597b	-0.4166983
75	0xbe9be8e7	-0.30451128
76	0xbd66a4c4	-0.056309476
77	0xbdda4f32	-0.106596366
78	0x3dce45e8	0.10071927
79	0xbefc1509	-0.492348
80	0xbeb5a80b	-0.3547977
81	0xbed9cf8c	-0.42541158
82	0x3e441976	0.19150338
83	0x3ca2cf29	0.019874172
84	0x3cea0ed9	0.028571533
85	0xbf2b6725	-0.6695426
86	0xbef6223e	-0.48073
87	0x3e10a226	0.14124355
88	0x3db3d45c	0.08780739
89	0x3dc1ea4c	0.09468517
90	0xbe45b0d4	-0.19305736
91	0xbf042146	-0.5161327
92	0xbeee47a8	-0.46539044
93	0xbe71bbbd	-0.23606773
94	0x3b8dc544	0.0043264944
95	0xbe0fc1fc	-0.14038843
96	0x3e579548	0.2105304
97	0xbe984a07	-0.29743978
98	0xbe4d2b5f	-0.20036076
99	0xbec9316d	-0.3929552
100	0xbe85d6c0	-0.26140404
101	0xbf1a5491	-0.6028529
102	0xbf11600b	-0.56787175
103	0xbe80019c	-0.25001228
104	0xbf21e163	-0.6323454
105	0x3cb1538b	0.021646282
106	0xbe69fef0	-0.22851157
107	0xbeedafc0	-0.4642315
108	0xbd8b3ed8	-0.06799096
109	0xbe1fa378	-0.15589702
110	0xbe85be33	-0.26121673
111	0xbeacbaaf	-0.33736178
112	0xbe0c18e6	-0.13681373
113	0xbe80d7c6	-0.25164622
114	0x3e4459c7	0.19174872
115	0xbf0684ba	-0.52546275
116	0xbe9c1917	-0.30487892
117	0xbe7db89a	-0.24777451
118	0xbde29b3b	-0.11064764
119	0xbe4b2fd0	-0.19842458
120	0xbe9fa5d7	-0.31181213
121	0x3e27a543	0.16371636
122	0xbbf45425	-0.00745632
123	0xbc54c559	-0.0129865045
124	0xbeeb4d51	-0.45957425
125	0x3d6d2c62	0.057903655
126	0xbede4d7e	-0.43418497
127	0x3e97cdd0	0.2964921
128	0x3f3904f4	0.7227318
129	0x3e51fe2f	0.2050712
130	0xbf8fe1f5	-1.1240832
131	0xbf88bbe4	-1.068234
132	0xbde68e4a	-0.11257608
133	0x3e661a53	0.2247098
134	0xbf0bb7cf	-0.54577345

bias f4 [15]
0	0x3efcf645	0.4940664
1	0xbe11a5c2	-0.14223388
2	0xbe5709b6	-0.20999798
3	0xbed187be	-0.40923876
4	0x3eb48019	0.3525398
5	0xbe915bbf	-0.2839031
6	0x3e433e11	0.19066645
7	0xbef11068	-0.4708283
8	0xbea0f3c2	-0.31435972
9	0x3d2ffa0f	0.042963084
10	0xbed67847	-0.4188864
11	0xbf0960c0	-0.53663254
12	0xbe3ec3fe	-0.18629453
13	0xbd699338	-0.057025164
14	0x3ed07021	0.40710548

weight f4 [15, 9]
0	0x3f1f71cb	0.6228301
1	0x3ed08f8c	0.40734518
2	0x3e70ebeb	0.23527496
3	0x3ead06f1	0.33794358
4	0x3f18a704	0.59629846
5	0x3f176d4a	0.59151137
6	0xbe575f50	-0.21032453
7	0x3ee47870	0.44623137
8	0x3f069350	0.5256853
9	0x3db90298	0.09033698
10	0xbd0d1b0d	-0.034449626
11	0xbc6f1b16	-0.01459386
12	0xbdd453bb	-0.10367533
13	0x3c38d872	0.011282073
14	0x3e2724e2	0.16322663
15	0x3e13315f	0.14374302
16	0xbe29c6f8	-0.16579807
17	0x3d5deae4	0.054179087
18	0x3c4902be	0.01226872
19	0xbdfd6b58	-0.1237399
20	0x3d81e1f3	0.063419245
21	0xbe174c94	-0.14775306
22	0xbc82e7aa	-0.015979607
23	0xbe02e5d3	-0.12782983
24	0x3e1b1a39	0.15146722
25	0xbde70f48	-0.112822115
26	0x3d9189af	0.07106339
27	0x3d1013a7	0.035174992
28	0x3bb26089	0.005443637
29	0x3e57493f	0.21024035
30	0x3e31138c	0.17292613
31	0xbe0e2f6e	-0.1388528
32	0x3d835f58	0.0641467
33	0xbd9750a1	-0.073884256
34	0xbe09305b	-0.13397352
35	0xba88e6af	-0.0010444726
36	0x3f989adf	1.1922263
37	0x3e2d417e	0.16919515
38	0x3e2ab9df	0.16672467
39	0xbd220ab0	-0.039560974
40	0xbdd84d0c	-0.105615705
41	0x3e22cd49	0.15898623
42	0xba487435	-0.0007646711
43	0x3dde7b83	0.10863402
44	0x3e34d715	0.17660172
45	0xbf9da741	-1.2316667
46	0x3e34ce63	0.17656855
47	0x3e047709	0.12936033
48	0xbd85bb72	-0.06529893
49	0x3e19ccac	0.15019482
50	0xbd415e1e	-0.047208898
51	0xbe369806	-0.1783143
52	0xbce4bd65	-0.027922342
53	0xbe0dd381	-0.13850214
54	0x3d947774	0.072493464
55	0x3dbfbfc9	0.09362752
56	0x3d58e152	0.052949257
57	0x3d5a58a8	0.053307205
58	0x3dba21a1	0.090884455
59	0x3d8db528	0.069193184
60	0xbddd31e3	-0.10800531
61	0x3e265eae	0.16247055
62	0x3d3ec085	0.04657032
63	0xbf735a95	-0.9506009
64	0xbbdf2532	-0.006809854
65	0x3e1858a2	0.1487756
66	0xbde8e74f	-0.113722436
67	0xbc882bca	-0.016622443
68	0xbd9090c4	-0.07058862
69	0x3e1ad6d4	0.15121013
70	0x3e413c2e	0.18870613
71	0x3e32add2	0.1744912
72	0xbc64038d	-0.013916862
73	0x3db5769a	0.08860512
74	0x3d83809b	0.06421014
75	0xbc95ce8b	-0.018286964
76	0x3a6d478f	0.00090514956
77	0xbdca45ea	-0.09876616
78	0x3cfa629b	0.030564597
79	0x3e1fa58c	0.15590495
80	0x3ccb66b9	0.024829255
81	0xbf979ae6	-1.1844146
82	0x3ddc0a97	0.10744207
83	0x3c904e87	0.01761557
84	0x3de5b5ee	0.11216341
85	0x3e2fea44	0.17179209
86	0xbe15a4f1	-0.14613701
87	0xbe563082	-0.20916942
88	0x3dd3e04e	0.10345517
89	0x3e2a42a9	0.16626991
90	0xbdbeeba9	-0.09322292
91	0x3dcbd351	0.09952415
92	0xbd10bb69	-0.03533498
93	0x3e596ed1	0.2123368
94	0x3ea1c761	0.31597427
95	0x3d119e22	0.035551198
96	0x3e30d53c	0.17268842
97	0x3e1b8c42	0.15190223
98	0x3dba4fc4	0.09097245
99	0xbde4edd3	-0.11178174
100	0x3c1dc43a	0.009629304
101	0x3da9f673	0.082989596
102	0xbdb37b28	-0.087637246
103	0x3e13f96b	0.14450614
104	0x3dd1f834	0.10252419
105	0xbd7c38d4	-0.061577633
106	0xbe3058ab	-0.17221324
107	0xbe279c73	-0.16368274
108	0x3d595b98	0.053065866
109	0xb8f411a0	-0.000116381096
110	0xbdbcd08a	-0.09219463
111	0x3e200ce7	0.15629922
112	0xbe49d8a9	-0.19711556
113	0x3d623da4	0.055234566
114	0x3da503af	0.08057343
115	0x3d237215	0.03990372
116	0xbd150a1a	-0.036386587
117	0x3d32bbee	0.043636255
118	0x3da00dae	0.07815109
119	0xbdb0665c	-0.086132735
120	0x3d9e9bbb	0.07744547
121	0x3c85c463	0.016328996
122	0x3d433ad2	0.047663517
123	0xbe42e9cb	-0.19034497
124	0x3e536776	0.20644936
125	0x3e33cd5e	0.1755881
126	0x3f1442a3	0.5791418
127	0x3f055b3f	0.52092355
128	0x3f29138e	0.66045463
129	0x3e94780d	0.2899784
130	0x3ea286f3	0.31743583
131	0x3e2987c5	0.16555698
132	0x3ce5c8e8	0.028049901
133	0xbd43bdbc	-0.047788367
134	0x3dd4f7c9	0.10398824

bias f4 [15]
0	0x3e8f0649	0.27934483
1	0xbda720d0	-0.08160555
2	0x3d8296c1	0.0637641
3	0xbbe711ee	-0.007051698
4	0x3d68e2c4	0.056856886
5	0x3c5a1877	0.013311497
6	0xbbd10cf2	-0.006379717
7	0x3ca0281a	0.019550372
8	0x3ccd5213	0.02506355
9	0x3c4e99f1	0.012609945
10	0x3e256c79	0.1615466
11	0x3d7b8048	0.061401635
12	0xbda76f14	-0.08175483
13	0xbccdff74	-0.025146224
14	0x3ef06148	0.4694922

att f4 [1, 1, 10]
0	0x3eb52126	0.35376853
1	0x3e5c716f	0.21527646
2	0xbe7e68bd	-0.24844642
3	0x3f141ded	0.57858163
4	0x3e953d3e	0.29148287
5	0x3d8d3455	0.06894747
6	0xbe1793d8	-0.14802492
7	0x3e850ed6	0.2598788
8	0x3f12a7cb	0.5728728
9	0x3ee267ef	0.4421992

bias f4 [10]
0	0xbf0e4e98	-0.55588675
1	0xbeb942bc	-0.36183727
2	0xbc192089	-0.009346136
3	0xbee0a3ee	-0.43875068
4	0xbda4dd67	-0.08050042
5	0xbeaf5380	-0.34243393
6	0xbeb087f6	-0.3447873
7	0x3faa100d	1.3286148
8	0xbf1f9bc6	-0.62347066
9	0xbeec5c59	-0.46164206

weight f4 [10, 15]
0	0x3f3a222d	0.727084
1	0x3deaa5d1	0.11457408
2	0x3da025c5	0.07819704
3	0xbece96b0	-0.4034934
4	0xbee2f6ac	-0.4432882
5	0x3f24b809	0.64343315
6	0x3f1230c5	0.57105666
7	0x3f394262	0.7236692
8	0x3f1ff581	0.62483984
9	0x3f216d42	0.6305734
10	0xbf15ff45	-0.58592635
11	0xbe1e0901	-0.15433122
12	0xbeebabb9	-0.4602945
13	0xbf00f1f8	-0.50369215
14	0x3efa0b78	0.48836875
15	0x3ef45b2f	0.47725818
16	0xbd14dbeb	-0.036342543
17	0x3d7d16df	0.06178939
18	0xbe4f28f9	-0.20230474
19	0xbdd817b6	-0.105513975
20	0x3ef8a42f	0.48562762
21	0x3db99b6c	0.090628475
22	0x3eac2fef	0.3363032
23	0x3e9f87e2	0.31158358
24	0x3d7a7163	0.06114329
25	0x3d0b6997	0.034036245
26	0xbd38ddc6	-0.045133375
27	0xbe87eab2	-0.26546246
28	0xbecba86b	-0.3977693
29	0x3d34a399	0.04410133
30	0x3dbcf529	0.09226448
31	0x3c745922	0.014913829
32	0x3c384582	0.011247041
33	0x3ecd2f9c	0.40075386
34	0xbe16c018	-0.14721715
35	0x3ee263e2	0.4421683
36	0x3d9e770c	0.0773755
37	0x3f5fd18c	0.8742912
38	0xbf5f6d7b	-0.8727643
39	0xbde09858	-0.10966557
40	0x3e55318d	0.20819683
41	0x3e099c98	0.13438642
42	0xbd8a2b3e	-0.06746529
43	0xbe02e868	-0.12783968
44	0x3ed42457	0.41433975
45	0x3edd99a9	0.43281296
46	0xbd464133	-0.048402023
47	0x3e07e65c	0.13271469
48	0xbe11ba64	-0.14231259
49	0xbe66f52e	-0.22554466
50	0x3ec75565	0.38932338
51	0x3ee95027	0.45568964
52	0x3f0ef01f	0.55835146
53	0xbe63f8d1	-0.22262885
54	0xbc831ef1	-0.016005965
55	0x3e11068e	0.14162657
56	0xbd59d9a4	-0.053186074
57	0xbef31612	-0.47477776
58	0x3ec79077	0.38977405
59	0x3f23aaf8	0.6393275
60	0x3e864850	0.26227045
61	0xbe2b0c53	-0.1670392
62	0xbdf1b54e	-0.11802159
63	0x3e3c355a	0.18379727
64	0xbe0fd988	-0.14047825
65	0xbddab16a	-0.1067837
66	0xbd2f44c7	-0.0427902
67	0x3e643617	0.22286259
68	0xbcd278c4	-0.025692351
69	0x3df24abe	0.11830662
70	0x3c9b5d86	0.018965494
71	0x3e146607	0.14492045
72	0x3c59facd	0.0133044245
73	0xbde2cf37	-0.11074679
74	0x3cfca0a9	0.030838327
75	0xbea69df9	-0.325424
76	0x3dd49cfa	0.103815034
77	0x3f23bace	0.63956916
78	0xbd4e8c9c	-0.050427064
79	0xbedac61b	-0.42729267
80	0x3e1b58ab	0.15170543
81	0xbdcd29f8	-0.100177705
82	0x3f01c423	0.50689906
83	0xbe94dc86	-0.29074496
84	0x3d79b3cd	0.060962487
85	0x3d706a68	0.058695227
86	0x3ea1b84d	0.31585923
87	0xbc6d9946	-0.014501875
88	0x3e6578c2	0.22409347
89	0x3edd87cc	0.43267667
90	0x3e93ce8c	0.2886852
91	0xbdffe831	-0.12495459
92	0x3d807a5c	0.06273338
93	0x3e972086	0.29517
94	0xbec86dbd	-0.39146224
95	0x3f146ae5	0.5797561
96	0x3e91f1c4	0.28504765
97	0x3f6a9be6	0.9164413
98	0x3e5a2746	0.21304044
99	0x3cc91dee	0.024550404
100	0x3e688f25	0.22710855
101	0xbd342e5f	-0.043989535
102	0xbebd549d	-0.36978617
103	0xbeb3bffe	-0.35107416
104	0x3ec18f39	0.37804583
105	0x3ee5daf6	0.44893616
106	0x3ef0ee96	0.47057027
107	0x3e1f2a69	0.15543522
108	0xbeb4a8a3	-0.3528491
109	0xbf0caf86	-0.5495533
110	0x3f04d621	0.51889235
111	0x3e499c01	0.19688417
112	0x3ef0eba2	0.47054774
113	0x3db853c9	0.09000356
114	0x3e558e60	0.20855093
115	0xbe9dc284	-0.30812466
116	0xbe780f12	-0.24224499
117	0xbf0bef49	-0.54661995
118	0x3eb71208	0.35755944
119	0x3ee8996c	0.45429552
120	0x3f135d82	0.57564557
121	0x3dc075dd	0.09397481
122	0x3cb10c94	0.021612443
123	0xbe7c4da6	-0.24638996
124	0xbeb83b1a	-0.3598259
125	0x3f80a1cb	1.0049375
126	0x3f14d51b	0.58137673
127	0x3f7dcdc5	0.99142104
128	0x3f44f440	0.76935196
129	0x3ec3c304	0.38234723
130	0xbeb30377	-0.3496358
131	0x3e0e2024	0.13879448
132	0xbea8e03c	-0.32983577
133	0xbe818d1d	-0.25302973
134	0x3e9a5789	0.3014491
135	0x3e9b2084	0.30298245
136	0x3e89e1e0	0.2693014
137	0x3ef57300	0.479393
138	0x3e830db1	0.25596383
139	0xbf159613	-0.5843212
140	0x3ed14eb9	0.40880373
141	0x3edb76e8	0.42864156
142	0x3de4189e	0.11137508
143	0xbeb2e4d8	-0.3494022
144	0xbeb9a5b0	-0.36259222
145	0x3e853c21	0.26022437
146	0x3ed191c2	0.40931517
147	0xbecfdeba	-0.40599614
148	0x3e9ce530	0.30643606
149	0x3ee46f84	0.4461633

bias f4 [10]
0	0xbefc4193	-0.4926878
1	0xbec32d02	-0.38120276
2	0xbd3b4a78	-0.045725316
3	0xbefff6bc	-0.4999293
4	0xbe1de8db	-0.15420859
5	0xbee1f8c7	-0.44135115
6	0xbe9048bc	-0.28180492
7	0xbe563c6b	-0.20921485
8	0xbf1f2cb1	-0.6217757
9	0xbf00a791	-0.50255686

weight f4 [10, 15]
0	0xbf4c8cc8	-0.79902315
1	0xbea9c085	-0.33154693
2	0xbe452464	-0.19252163
3	0x3d85f272	0.065403834
4	0x3f734b09	0.9503637
5	0xbf090da3	-0.53536433
6	0xbf0dbbe3	-0.5536482
7	0xbf1f682b	-0.6226832
8	0x3eba44bc	0.36380565
9	0x3e44923f	0.19196413
10	0xbe8b2253	-0.27174625
11	0xbeafd4c6	-0.3434202
12	0x3f5524f5	0.83259517
13	0xbef09298	-0.46986842
14	0xbf389e99	-0.72117
15	0x3f020ab7	0.507976
16	0x3c441bc9	0.011969515
17	0x3d6a2be0	0.05717075
18	0x3da5866e	0.08082281
19	0xbea70b15	-0.32625642
20	0x3f11183e	0.56677616
21	0x3eede6ff	0.464653
22	0x3ed3f70c	0.4139942
23	0xbe685e08	-0.2269212
24	0x3e6ff00b	0.23431413
25	0x3c8ba6f6	0.017047387
26	0x3e4cdcf4	0.20006162
27	0xbed528cb	-0.41632685
28	0x3e8598f5	0.2609326
29	0x3ed472c6	0.41493815
30	0x3dd6f3f8	0.10495752
31	0xbdb3d169	-0.08780176
32	0x3e8d3038	0.2757585
33	0xbec1eaa3	-0.37874326
34	0xbdfb1fb5	-0.12261907
35	0x3c85edc6	0.01634873
36	0xbdd46f55	-0.103727974
37	0x3ddb51dd	0.107089736
38	0xbebfc5f7	-0.37455723
39	0xbf060f38	-0.5236697
40	0x3ed61edd	0.41820422
41	0xbea0f3d1	-0.31436017
42	0x3d81a148	0.0632959
43	0x3f15809b	0.5839936
44	0x3dd0acab	0.10189184
45	0x3e8d1b7c	0.2756003
46	0x3dbc8a9d	0.09206126
47	0x3e0a600c	0.13513201
48	0xbeaad643	-0.33366594
49	0xbea32821	-0.31866553
50	0x3f0005d9	0.5000892
51	0x3e6b4789	0.22976507
52	0x3efd7ed6	0.4951083
53	0x3ef1f80c	0.47259557
54	0x3eb7f37f	0.3592796
55	0xbec65567	-0.38737032
56	0x3e028905	0.12747581
57	0xbeb14743	-0.3462468
58	0x3e228f4e	0.15874979
59	0x3df4404c	0.11926326
60	0x3d89241e	0.06696342
61	0x3a4580b5	0.00075341325
62	0x3dd3e895	0.10347096
63	0xbe7c9a64	-0.2466827
64	0x3da8a95d	0.082354285
65	0x3d223ab0	0.03960675
66	0x3e4afe51	0.19823577
67	0x3ddb71eb	0.107150875
68	0x3ecd042d	0.40042248
69	0x3e9409d8	0.2891376
70	0xbc18acdd	-0.009318558
71	0xbd0bdd71	-0.03414673
72	0xbe4492ef	-0.19196676
73	0x3e8cabd4	0.27474844
74	0xbd73b2ba	-0.05949662
75	0x3e0f3d88	0.13988316
76	0x3d99feb5	0.07519285
77	0xbbf43b70	-0.0074533746
78	0xbec37a5b	-0.38179287
79	0xbe650643	-0.2236567
80	0x3ef1fb02	0.47261816
81	0x3def1314	0.11673561
82	0x3e968e3c	0.2940539
83	0x3e545461	0.20735313
84	0x3e2b9d27	0.16759168
85	0xbc6a875a	-0.014314497
86	0x3c88a740	0.016681314
87	0xbd83cc60	-0.06435466
88	0x3e9da4fe	0.30789942
89	0x3e85a1ce	0.2610001
90	0xbdde5d3a	-0.10857625
91	0x3e20fef6	0.1572226
92	0x3d9f05e4	0.077647954
93	0x3e073815	0.13204987
94	0x3da5e950	0.081011415
95	0xbe23ebc1	-0.16007902
96	0xbc0d6f34	-0.00863247
97	0xb9e6c9af	-0.00044019285
98	0xbdbf3e41	-0.09338046
99	0x3dbd4532	0.092417136
100	0xbe5eb918	-0.21750295
101	0xbe10bc1c	-0.14134258
102	0x3d779098	0.06044063
103	0xbb4d4cfa	-0.00313264
104	0xbe36d7c7	-0.1785575
105	0xbe662f7b	-0.2247905
106	0x3dda2fa6	0.106536195
107	0x3d67f26a	0.05662767
108	0x3e7eb5ff	0.24874114
109	0x3d83f09c	0.06442377
110	0xbedc9233	-0.4308029
111	0xbe7666f7	-0.24062715
112	0xbf10be33	-0.5654022
113	0xbeb59a0c	-0.3546909
114	0xbeb8768e	-0.3602795
115	0x3e68399f	0.2267823
116	0x3d8ce3c7	0.068793826
117	0x3e94cfc1	0.29064754
118	0x3ec4bdb3	0.3842598
119	0xbe8eab40	-0.27865028
120	0x3f0bd581	0.54622656
121	0x3f0319e6	0.5121139
122	0x3ea6b3d0	0.3255906
123	0x3f763009	0.96167046
124	0xbebb4429	-0.3657544
125	0x3edcca5c	0.43123138
126	0x3f09a773	0.5377113
127	0x3e97c244	0.296404
128	0xbf1070ac	-0.56421924
129	0x3f07f50b	0.5310828
130	0x3f19c30f	0.6006326
131	0x3f1f561a	0.62240756
132	0xbea49b5e	-0.32149786
133	0x3e218da2	0.15776685
134	0x3ea03288	0.31288552
135	0x3daeb62e	0.08530842
136	0xbe748d6e	-0.23882076
137	0xbcb36ba8	-0.02190192
138	0xbe6dc750	-0.23220563
139	0xbe5fa168	-0.21838915
140	0xbdd209c7	-0.10255771
141	0x3e3dd256	0.18537268
142	0x3d682458	0.056675285
143	0x3e82c993	0.25544414
144	0x3e6db8f0	0.2321508
145	0xbdec78c3	-0.11546471
146	0xbde60a18	-0.11232394
147	0xbe500040	-0.20312595
148	0x3e2f0ac6	0.17093953
149	0xbe1975b2	-0.14986303

bias f4 [10]
0	0x3f1704cc	0.58991694
1	0xbec5cadb	-0.3863133
2	0x3bfad561	0.0076548313
3	0xbe951963	-0.2912093
4	0x3d8f6f28	0.07003623
5	0xbeba3ee4	-0.36376107
6	0xbe77763c	-0.24166197
7	0x3e50af7e	0.20379445
8	0xbecff815	-0.4061896
9	0x3d290254	0.041261986

att f4 [1, 1, 5]
0	0x3f47f2b0	0.78104687
1	0xbf1c66c2	-0.61094296
2	0x3eb82894	0.3596846
3	0xbf62c2d6	-0.88578546
4	0x3f153ff4	0.5830071

bias f4 [5]
0	0x00000000	0.0
1	0x00000000	0.0
2	0x00000000	0.0
3	0x00000000	0.0
4	0x00000000	0.0

weight f4 [5, 10]
0	0x3ec6945f	0.38785073
1	0x3f0c2213	0.54739493
2	0xbe195e7c	-0.14977449
3	0xbeac70ad	-0.33679715
4	0x3f0f9932	0.5609313
5	0xbe9a5c4e	-0.30148548
6	0x3f00f94d	0.503804
7	0xbe91eda7	-0.28501627
8	0xbec610bc	-0.38684642
9	0x3f025c5c	0.5092218
10	0xbe33121b	-0.17487375
11	0xbd3ab513	-0.045582842
12	0x3ef43608	0.47697473
13	0x3ecbf090	0.39831972
14	0xbdcc17fb	-0.099655114
15	0xbec229ef	-0.37922618
16	0xbec82ff1	-0.39099076
17	0x3e8a2842	0.2698384
18	0xbf012986	-0.50453985
19	0xbd2bc01c	-0.041931257
20	0xbeb45a55	-0.35225168
21	0xbef43b29	-0.47701386
22	0xbeeccc52	-0.46249634
23	0xbf083752	-0.5320941
24	0x3e1002e1	0.14063598
25	0x3ef66c6a	0.48129588
26	0x3dff77e5	0.1247404
27	0xbf1d5879	-0.61463124
28	0xbec7c8e0	-0.39020443
29	0xbeff30ae	-0.49841827
30	0x3e468825	0.19387873
31	0xbf12094a	-0.57045424
32	0x3f05a041	0.52197653
33	0x3bbe0695	0.0057991245
34	0xbf107663	-0.56430644
35	0x3eafdd59	0.34348562
36	0x3f1faa06	0.6236881
37	0xbf0bb7c2	-0.5457727
38	0x3c7ab452	0.015301781
39	0x3e67fb0f	0.22654365
40	0x3e99777f	0.2997398
41	0x3f1a6682	0.60312665
42	0xbf0a81a4	-0.54104066
43	0xbea07981	-0.313427
44	0x3ea0325d	0.31288424
45	0xbe568941	-0.20950796
46	0x3e5594b1	0.20857503
47	0xbec07682	-0.37590414
48	0x3e1fa20e	0.15589163
49	0xbe8788dc	-0.26471603

bias f4 [5]
0	0xbd924742	-0.071424976
1	0xbe6ba2f5	-0.23011382
2	0x3e9dca4b	0.308184
3	0xbe3b7419	-0.18306006
4	0x3e8ca99d	0.27473155

weight f4 [5, 10]
0	0x3f0e1314	0.5549786
1	0xbe7bac32	-0.24577406
2	0x3e078d74	0.13237554
3	0xbe4e0940	-0.20120716
4	0xbe93bcf4	-0.28855097
5	0x3d6513f7	0.055927243
6	0x3e665b24	0.22495705
7	0x3e1e3119	0.15448417
8	0xbf1e9890	-0.6195154
9	0xbe115270	-0.14191604
10	0xbe1b21ff	-0.15149687
11	0xbed4cf97	-0.41564628
12	0x3ea2ef04	0.3182298
13	0xbf196621	-0.5992146
14	0xbe8da50f	-0.27664992
15	0xbe486641	-0.19570257
16	0xbbe19533	-0.006884241
17	0x3e9db553	0.30802402
18	0x3dcad772	0.09904374
19	0x3e5a228b	0.2130224
20	0x3efdc966	0.49567717
21	0xbe32cc4c	-0.17460746
22	0xbe6d0a48	-0.23148453
23	0x3dbf6a4c	0.093464464
24	0xbe61004b	-0.21972768
25	0x3eada620	0.33915806
26	0xbf1bb6d9	-0.6082588
27	0xbe0abdc6	-0.13548955
28	0x3ea60bca	0.3243087
29	0xbdeec6f2	-0.116590396
30	0x3e92c988	0.2866938
31	0xbcb398c0	-0.021923423
32	0x3d0d5b5e	0.034510963
33	0x3d2d2bbc	0.042278036
34	0xbe5a183a	-0.21298304
35	0x3e43bc77	0.19114862
36	0x3cdc7698	0.026912019
37	0x3d9270ec	0.071504444
38	0x3e391f6f	0.18078397
39	0x3e44dc1d	0.19224592
40	0x3edce263	0.4314147
41	0xbea483d7	-0.32131836
42	0x3ee9588b	0.45575365
43	0x3f022b3d	0.50847226
44	0xbe8c33df	-0.27383325
45	0x3e962bdc	0.29330337
46	0xbe458692	-0.19289616
47	0xbf20543f	-0.6262855
48	0x3d8f0abe	0.06984471
49	0x3e63028f	0.22168945

bias f4 [5]
0	0xbd1dafc2	-0.038497694
1	0xbe95df0a	-0.29271728
2	0xbe228373	-0.15870456
3	0x3c7a5459	0.015278899
4	0x3db22ac1	0.08699561
