model/gnn/240930_3/epoch_2.pt (torch, 551262 bytes, 37 tensors)

att f4 [1, 3, 10]
00000000: de4b 053f 7e2c 1e3f 307f 5f3e c87b 12be
00000010: 7012 153e 90bf 243f bc64 253f 98d1 2cbf
00000020: 60fd 1c3f 6e3b 56be 4e2e 6ebe 8e1b 1bbf
00000030: e068 b53e 8c04 4f3e 40ad f03e 9fe3 b2be
00000040: 58d5 e73e 2bcc 22bf 1025 ff3e 7899 f53e
00000050: ed31 1bbf 469f 09bf 0c9c 063e b44c a53e
00000060: d020 2a3f 40d0 b03e 4d33 efbe 78b8 623e
00000070: 8129 20bf 7130 b0be
0.5206889 0.6178664 0.21825862 -0.14305031 0.14557815 0.643548 0.64606833 -0.67507315
0.6132412 -0.20921108 -0.23259851 -0.6058892 0.35431576 0.20216578 0.4700718 -0.34939286
0.45279956 -0.63592786 0.49832964 0.4796865 -0.60623056 -0.53758657 0.13145465 0.32285082
0.6645632 0.34533882 -0.46718827 0.22140682 -0.6256333 -0.34411958

bias f4 [30]
00000000: 0000 0000 0000 0000 0000 0000 0000 0000
00000010: 0000 0000 0000 0000 0000 0000 0000 0000
00000020: 0000 0000 0000 0000 0000 0000 0000 0000
00000030: 0000 0000 0000 0000 0000 0000 0000 0000
00000040: 0000 0000 0000 0000 0000 0000 0000 0000
00000050: 0000 0000 0000 0000 0000 0000 0000 0000
00000060: 0000 0000 0000 0000 0000 0000 0000 0000
00000070: 0000 0000 0000 0000
0.0 0.0 0.0 0.0 0.0 0.0 0.0 0.0
0.0 0.0 0.0 0.0 0.0 0.0 0.0 0.0
0.0 0.0 0.0 0.0 0.0 0.0 0.0 0.0
0.0 0.0 0.0 0.0 0.0 0.0

weight f4 [30, 163]
00000000: 3445 f4bd ba71 cfbd 2196 25bd a315 a2bd
00000010: 5e9a 0d3d 51f4 00be dfe5 0a3e 0775 d2bd
00000020: 7019 1a3e 28fd f6bd da46 a93c 7605 cc3d
00000030: 4f46 dd3d 51fa b33d e058 b5bd 50fe 2dbe
00000040: 1b79 dcbb e6fd 203e 4ae3 d4bd a5c0 89bd
00000050: bb3f ca3d 565b 12bd aaf7 f93c b8ae 00be
00000060: c8d1 d4bd e01d ebbd ba37 ffbd 5d63 e7bd
00000070: 723b 2ebe c0a5 27be 35f2 e6bd 0bf5 353d
00000080: 4703 223e 0b28 343e 3ade b33c 9af0 0ebd
00000090: 70a6 fd3b 6117 d2bd 7881 2cbe eef6 0d3e
000000a0: 46bd 7a3d 2c58 efbd 609e 133e b77b ee3d
000000b0: 6bc1 b8bd b234 a5bd 13aa 1f3e 1e23 3dbd
000000c0: 7ea1 0c3e 9a2f 9e3d 84c7 3f3d 4a80 093e
000000d0: 4a35 45bd 9d5e 133e 6401 92bc 4bb2 203e
000000e0: 8842 4f3c aaae 903c 3f50 89bd 9b79 073e
000000f0: 93c3 f93d e870 ecbd 45a5 9a3d 26e4 6abc
00000100: 2b81 b1bd 2ded 2f3e cf35 163e de85 1dbe
00000110: 5e1f 223d d209 153e 4897 153e 5171 f3bb
00000120: 292c 6d3d 8031 673c 66b1 5dbd c007 0e3e
00000130: 558b 18be 4320 fd3c 9fc0 b13d 90e4 32bd
00000140: 3955 39bd af6f a4bd 2af4 b23c eb8f c0bd
00000150: ba90 f03d dd79 1abe 0f04 433d 5c64 fdbd
00000160: 3833 b63d 745e 2f3e 40f6 853d c759 2ebd
00000170: f137 e6bc c303 89bd b8cd 1c3e f987 8c3d
00000180: b19d efbc 72de 273e f1ea ab3b 52b8 dcbd
00000190: a58f ccbd b670 c7bd ed9d a33d a662 893d
000001a0: 2465 01be ba5d 1d3e 8036 a639 b7fe 0d3c
000001b0: 8f4c 9fbd ec54 2cbd fd6e 2abd 6b91 cd3d
000001c0: 1f5f f73d 2e34 d2bc 846f 6a3b 6e9e 8f3d
000001d0: ee15 cdbd 746e c6bd ebc6 423d 87ec 333e
000001e0: a5e3 11be 6723 a23a a2f6 2dbe 817a 48bb
000001f0: a383 0c3e 6fbb d1bd 5b57 1a3e fc4d f0bd
00000200: a656 013d b6d4 32be 7c3e dbbd b0d7 8f3d
00000210: a47e 2abe e4ac 8fbd d719 06be 82e6 a93c
00000220: 4427 863d a834 2abe d431 fd3d 974e efbd
00000230: a545 8cbd d6a6 dabd d0d1 bc3d e433 d7bd
00000240: b29c 7d3d 74fe 233e 4be9 153e b5d3 b13c
00000250: 911b 033d 519b e9bc 6e00 11bc 53f0 ac3d
00000260: 5f7c 20bd 2f58 f43d f9a4 873b 3dc9 a9bb
00000270: 6176 adbc 2ecc b8bc 6e86 2fbd 59f2 f73c
00000280: e891 a83d 572b 683d aa4a 30be 04ec 15be
00000290: a77d e53d dbf8 ea3d 8ce8 63bd 7007 ef3d
000002a0: 84c8 5cbd 596b a4bd 7fa0 21be 218d 503d
000002b0: 872b 343e a978 b7bd be94 173e 5f5e 393d
000002c0: 4960 d73d 59db 27be 8a09 c53d 7c72 2cbe
000002d0: 8991 303e 97e3 1f3e 297e c7bd d587 a03d
000002e0: 64fc 27be 142f bdbd 5864 133c 3bb3 22be
000002f0: 2c7d 2fbe 33a5 523d 1039 6dbd 786a 313e
00000300: 7317 053e 06fc 20be 9ce7 0abd b686 dcbd
00000310: 6f5c 18bc a37c ce3d 383a 28bd 7e59 ca3d
00000320: 194b 2bbe 103a 733d 6999 1abe d01a 2ebe
00000330: 0efe da3d 5520 80bd 5846 ac3d e71a 0c3e
00000340: ed4f 1f3e e3e0 0c3e 6615 d4bc 7cc4 c9bc
00000350: f829 1a3e 721b 173e 8816 333e 37b2 b03d
00000360: 4990 0abe 5752 8c3d 16a9 febd 661b 863d
00000370: 673b 0cbe 8d4e ff3d ece2 95bd 66b7 63bc
00000380: a919 223e c776 eabd 6118 953c 9185 793d
00000390: 447e 22be 48d2 a73d 7c50 313d 009a ef3d
000003a0: 0d2e 013d 9679 0c3e 2100 0cbe 5653 403d
000003b0: a130 9abd 944b 9fbd f577 00be 9a37 1abe
000003c0: 6ab9 fdbd ae86 253e 88a7 0c3e a81d f03d
000003d0: 7ff6 2fbe 70a4 d93c f9a0 573d 4a7f 0bbe
000003e0: b4d2 f13c ca8e e239 ef2b e33c e19c 2dbe
000003f0: 1001 27be 68fa 333e 8a0f c6bc 2b9a 943d
-0.11927262 -0.101291135 -0.040426377 -0.07914283 0.034571044 -0.125932 0.13564251 -0.102762274
0.15048766 -0.120600045 0.020663667 0.09961979 0.10804426 0.087879784 -0.08854842 -0.16991544
-0.006728304 0.15721855 -0.103949144 -0.06726197 0.09875437 -0.035731636 0.030513603 -0.1256665
-0.10391575 -0.114803076 -0.12461801 -0.11298249 -0.17014864 -0.16371822 -0.11276666 0.044423144
0.15821563 0.175934 0.021956552 -0.034897424 0.007740788 -0.102583654 -0.16846263 0.13863727
0.06121566 -0.11686739 0.14415884 0.116446905 -0.090212665 -0.080666915 0.15592222 -0.04617607
0.1373348 0.07723923 0.046821132 0.13427845 -0.048146524 0.14391561 -0.017822929 0.15693013
0.01265014 0.017661411 -0.06704759 0.13229983 0.12195506 -0.11544973 0.07551054 -0.014336621
-0.08667215 0.17180319 0.14668964 -0.15383098 0.039580695 0.14554527 0.1460849 -0.00742928
0.057903443 0.014110923 -0.05412426 0.13870144 -0.14896901 0.030899173 0.08679318 -0.043675005
-0.04524729 -0.080291145 0.021844942 -0.0940245 0.117463544 -0.1508555 0.047611292 -0.12372658
0.08896488 0.17125875 0.06541109 -0.042566087 -0.028102847 -0.066901706 0.1531285 0.06861872
-0.029249998 0.1639345 0.005246513 -0.10777344 -0.099883355 -0.09738295 0.07989106 0.06708269
-0.12636238 0.15367785 0.00031702593 0.008666686 -0.07778274 -0.042073175 -0.041609753 0.10037502
0.1207869 -0.025659647 0.0035772035 0.0701264 -0.100139484 -0.09689036 0.047552984 0.17570697
-0.14246996 0.001237017 -0.16988614 -0.0030590596 0.1372209 -0.10240828 0.15072386 -0.11733624
0.031576775 -0.17463955 -0.10705277 0.07023561 -0.16649872 -0.07015398 -0.13095795 0.020739798
0.06550458 -0.1662165 0.123630196 -0.11684912 -0.06849221 -0.10676353 0.09219706 -0.10507944
0.061917014 0.16015035 0.14639775 0.021707395 0.03200871 -0.028516443 -0.0088502 0.08444276
-0.03918111 0.11930882 0.0041395393 -0.00518146 -0.021174612 -0.022558298 -0.04285281 0.030266928
0.082309544 0.056681957 -0.17215982 -0.14640814 0.11205607 0.11473247 -0.055641696 0.116713405
-0.053902164 -0.080282874 -0.1578388 0.05091584 0.1759473 -0.08958561 0.14802834 0.045256015
0.10516412 -0.16392268 0.0962096 -0.16840547 0.17243017 0.15614162 -0.0974086 0.07838408
-0.16404873 -0.09237495 0.008996092 -0.15888683 -0.17137593 0.051427078 -0.057915747 0.17325771
0.12997226 -0.1572114 -0.033912286 -0.107678816 -0.009299382 0.10082366 -0.041071147 0.098803505
-0.16727866 0.059381545 -0.15097584 -0.17002416 0.10692988 -0.06256167 0.084118545 0.13682137
0.15557833 0.13757662 -0.02588911 -0.024629824 0.15055072 0.14756563 0.17489064 0.08627742
-0.13531603 0.068516426 -0.12434594 0.065481946 -0.13694535 0.12466154 -0.073186725 -0.013898706
0.15830101 -0.11448436 0.018200101 0.060918394 -0.15868479 0.08194405 0.043289647 0.11699295
0.031538058 0.13718256 -0.13671924 0.046954475 -0.075288065 -0.07778087 -0.1254576 -0.15060273
-0.123888806 0.16164657 0.13735783 0.117244065 -0.17183875 0.026567668 0.05264375 -0.13622776
0.029519416 0.00043212465 0.02773091 -0.16954376 -0.16308999 0.17575991 -0.024177331 0.07255968

bias f4 [30]
00000000: 8f5d 193b 86a2 5e3d abc6 5b3d 838f 8dbc
00000010: 0b29 15bd 8fa6 223d 9d55 19bd 0165 74bd
00000020: e5d1 953d 3f3f 83bd 47c1 8dbd 2253 313d
00000030: 790d 6ebd 368f 0b3c 0647 eebc 8a94 8cbd
00000040: 38a0 edbc 0275 60bc df7e 393d b7ff 5e3d
00000050: 3436 0cbc 28e1 d5bc d20e 5fbd bbb4 873d
00000060: 4ebe dcbc dba0 ecbc 7a22 2fbd 6450 2abc
00000070: 1572 59bd 59b6 05bd
0.0023401713 0.054354213 0.05365626 -0.017280346 -0.036416095 0.039709624 -0.037435163 -0.059666637
0.07315425 -0.064085476 -0.0692163 0.043292172 -0.058118317 0.008518031 -0.029086601 -0.06864269
-0.029007062 -0.013699772 0.04528701 0.054443087 -0.008557845 -0.02610834 -0.054457493 0.066262685
-0.026946213 -0.028885296 -0.04275749 -0.010395143 -0.053087313 -0.032644603

weight f4 [30, 163]
00000000: 6e16 8e3c a2b7 19be 29f3 29bc e7fd 5ebd
00000010: 483e 7a3d 8e08 25bc 9872 33be 4ae2 fe3d
00000020: 4ccc 8c3d d5f3 313e 70d3 d83d 8c5f 4b3d
00000030: 29d8 0d3e 36e9 10be de8f 303e f044 54bd
00000040: 148e 1c3d 8cfb aa3d b9ba d23d 398c 533d
00000050: e6f8 e23d 97d6 113d 07c0 14be 222d 97bd
00000060: e855 e73c 88ec 3e3d 278b c4bd eba4 073e
00000070: 1461 073e 4cd9 bd3d 2012 733d 5055 30be
00000080: 7a73 18be 5dd4 bcbd 42ef de3d 4b8e 1cbe
00000090: d6ae c5bd 979d 2abe 4f5c a2bd 7bfd aebd
000000a0: ac53 b2bc 4e89 14bd ee2e ccbd 8e07 fabd
000000b0: 69bd 02ba 019d 653d 37d5 a53c da15 b0bd
000000c0: 6404 223e 3e05 02be 3e13 59bd 3271 ecbc
000000d0: 9ca8 a5bc eb79 a6bd e265 c2bd 9a2f 6abd
000000e0: 0a5d 323e 2d94 13be c28e d43d ba06 0d3e
000000f0: c323 083e d898 a3bd f9b8 033d f53a bf3d
00000100: 6dd7 bd3d b99b ce3d 36d4 e5bd f155 2a3b
00000110: 1e90 8c3d f8f1 eabc d165 c1bd a3c5 2a3e
00000120: 0037 1c3e b167 dcbd e865 12be fa78 ffbc
00000130: 91fd 70bd 6b12 1c3e e9ec 85bd 748b 973c
00000140: f68c 02be ee42 a2bd ed30 b93d 3983 f73c
00000150: 6312 debd d878 60bd ffc7 d03d ae6e f2bc
00000160: 2ffb 8dbd 0896 633d cf4d 503d e0cf 7d3d
00000170: b908 1e3e 1411 363d 5922 1a3e 7931 9cbd
00000180: c5ea 1abe e9ca 9d3d fec1 a3bd e315 333d
00000190: 1bfb 2a3e 6434 d93b dc74 5e3d a8d3 ba3d
000001a0: 57a1 c5bb 1f05 273d 5997 243e e25d 753d
000001b0: 0cdd 6b3d 7379 1f3d 733a 853c b8b9 d53d
000001c0: 76d8 3a3d 60e8 f73d a6a8 b3bc e4a7 f03c
000001d0: fb54 a63d 8f02 0e3e 68cc 0a3e 2c23 0bbd
000001e0: f6cc b3bd 8926 14bd dffb 1a3e b8f7 a43d
000001f0: 736e f33d ce0c 7f3d 82ce 093e f0a9 093e
00000200: 3548 05be 10c5 de3d 4e49 a43d bd3e 06be
00000210: 40df acbd 6326 79bd fb1c aebd 3726 90bc
00000220: 668a 1e3e 6ca8 9a3d 0ed9 6e3d 2871 f4bd
00000230: da80 24be 2e64 e03d 036f 2abe 35f3 aa3d
00000240: 9b1d bdbb 6589 813d e8aa 013e 06ea ee3d
00000250: 6c8e b3bd b84a c43d ece4 933d e012 123e
00000260: 662d 31be dc44 153e f219 2fbe 0b1a 4f3d
00000270: 59ee 30be e7b2 1bbe bdf7 e2bd 8dfa 713d
00000280: c857 f23c 6262 aa3d 472e 9e3d 9b66 e0bc
00000290: d608 b23d 18c7 73bc 4d4d f1bd e8ec ff3c
000002a0: a309 26be ad2f 253e 5568 203e c88d 323e
000002b0: ac1a 2cbe 5bf5 e7bd 5e9f a33b 323d 9d3d
000002c0: b869 01be 0db5 0d3e 95e5 df3d 883e 923d
000002d0: 5bb4 07be 2603 d4bc 7d45 e03d 1f06 17be
000002e0: 97e2 7f3d e9fa 45bd 0b0e a5bd fc7f 36bd
000002f0: 764a 6fbd d0cf f7bd cbac ce3d 9f49 eb3b
00000300: 1b8f 3b3d 7e63 093e 8463 e33d a10e 5ebd
00000310: f3b3 f53d 22f3 2bbe eec2 c3bd 2ce0 c03d
00000320: 9d0c 043e 06e9 fbbd cf94 fabd 78e4 233e
00000330: 45b2 e93d 809e 99bc c971 a7bd 37ae 11be
00000340: 3aa1 8f3d 26a0 cfbd 9959 aa3c 66ff 28bc
00000350: 3352 08be c1f2 babc 0c6a 01be c3ee a53d
00000360: 0696 ef3a 9393 c43d ea79 113e df44 5cbc
00000370: b77d d0bd d9cf d53b 0f68 0c3d 65e3 4d3d
00000380: c512 373d 74bb cc3d ec78 2cbc 9b1f 133e
00000390: 592c 163e 3c82 953d b8d7 c73d c04a 70bb
000003a0: f526 a43d 0d93 a0bc d93a 2a3e 02f5 293d
000003b0: b1a4 febd 4fa1 223e 97cf 1f3e 9acb f73c
000003c0: 63c4 b33d e845 ea3d 5d3d 08be 5d58 27be
000003d0: b998 b8bd a682 113e 9a23 32be 0fe5 60bd
000003e0: d71c 15bd ae71 313e bd91 143e c9c0 c73d
000003f0: b7ca b4bc b411 233e 02f6 0dbe 8367 223e
0.01734468 -0.15011457 -0.010372915 -0.05444136 0.061094552 -0.01007284 -0.17524183 0.12445505
0.06874904 0.17378171 0.105872035 0.049651667 0.1385199 -0.14151463 0.17242381 -0.051823556
0.038221434 0.0834876 0.10289521 0.0516474 0.1108263 0.03560504 -0.14526378 -0.07381655
0.028239205 0.046612293 -0.09596854 0.13246505 0.13220626 0.09269962 0.059343457 -0.17220044
-0.14887801 -0.092201926 0.108854786 -0.15288655 -0.09652488 -0.16661678 -0.07927763 -0.08544441
-0.021768413 -0.036263756 -0.09969889 -0.12208472 -0.0004987331 0.056057934 0.02024327 -0.08597918
0.15821987 -0.12697312 -0.052996866 -0.02886257 -0.020222 -0.08128723 -0.09492089 -0.057174303
0.17418304 -0.14411993 0.103787914 0.13772097 0.13294892 -0.07988137 0.032158826 0.09337417
0.09269605 0.100882955 -0.11222117 0.0025991166 0.06863426 -0.028679833 -0.09443248 0.16676955
0.15255356 -0.10761965 -0.14296687 -0.031185616 -0.05883557 0.15241401 -0.06539328 0.018499114
-0.12749085 -0.07922922 0.09042535 0.030213939 -0.10843351 -0.054802746 0.10194396 -0.029593792
-0.06932675 0.055563003 0.050855454 0.061965823 0.15433015 0.04444988 0.15052165 -0.07626624
-0.1512862 0.07704718 -0.079959854 0.043722045 0.16697352 0.00662856 0.054310665 0.091224015
-0.006031196 0.04077637 0.1607336 0.059903987 0.057583854 0.038934182 0.016263222 0.10435814
0.04561659 0.12104869 -0.021931004 0.029376931 0.081216775 0.13868164 0.13554537 -0.03396909
-0.087793276 -0.036169562 0.15135144 0.08055061 0.11886301 0.06226807 0.13457683 0.13443732
-0.13015826 0.108774304 0.08021794 -0.1310987 -0.08441019 -0.060827624 -0.08501621 -0.017596347
0.15482482 0.07551655 0.05831247 -0.11935645 -0.16064778 0.10956608 -0.1664391 0.08347169
-0.0057713515 0.06325034 0.12662852 0.1166573 -0.08767399 0.09584564 0.07221398 0.14265013
-0.17302474 0.14577049 -0.17099741 0.050561946 -0.17278422 -0.15204965 -0.110824086 0.059076834
0.029582873 0.08319546 0.077236705 -0.027392676 0.086930916 -0.014879011 -0.11782322 0.031240895
-0.16214614 0.16131468 0.156648 0.17436898 -0.1680705 -0.11326095 0.0049933633 0.07677688
-0.12637985 0.13838597 0.10932461 0.07140833 -0.13252394 -0.025880408 0.10950754 -0.14748429
0.062471952 -0.04833499 -0.08059319 -0.04455565 -0.05842062 -0.12100184 0.100915514 0.007180407
0.045790773 0.1341686 0.111029655 -0.05421317 0.11997213 -0.16791967 -0.09558664 0.094177574
0.12895437 -0.12300305 -0.12235414 0.16005123 0.11410955 -0.018752337 -0.08176 -0.14226614
0.070131734 -0.10137968 0.020794677 -0.010314798 -0.13312607 -0.022820832 -0.1263811 0.08102181
0.0018278963 0.0959846 0.14206663 -0.0134441545 -0.10180228 0.0065250215 0.034278926 0.05026569
0.044695634 0.09996691 -0.010526877 0.14367525 0.14665355 0.07300231 0.09757942 -0.0036665648
0.08015243 -0.01960137 0.16624011 0.041493423 -0.12433756 0.15881847 0.15606533 0.030248452
0.08777692 0.11439115 -0.13304658 -0.16342302 -0.090135045 0.14209995 -0.17396393 -0.054905947
-0.036404457 0.17328522 0.1450872 0.09753568 -0.022069318 0.15924722 -0.13863376 0.15859799

bias f4 [30]
00000000: 9d75 353c b2f9 8cbd 186b a73c 2e6c d4bc
00000010: 3f3c 97bd edfa 443d e1f5 9fbd e6c8 2f3d
00000020: 007a 883d 8967 0e3d f7ce 71bd 6967 1bbd
00000030: dc73 7dbd 136e 3c3d b996 2e38 37a9 8c3d
00000040: fc68 03bd 137b 23bc 8cc4 c33c 8c9f 333d
00000050: 7de8 87bd ac76 8ebd 122f abbc 59c8 13bd
00000060: 3214 1ebd b307 6c3d 7075 86bd 8592 96bd
00000070: 1ef8 babc 6799 553d
0.0110754045 -0.06883563 0.020436808 -0.02593049 -0.07384538 0.048090864 -0.078105696 0.0429162
0.06663895 0.034766708 -0.059035268 -0.037940416 -0.06187807 0.046003412 4.1625204e-05 0.06868213
-0.032082543 -0.009978074 0.023897432 0.043853328 -0.066361405 -0.069562286 -0.020896468 -0.03607974
-0.03859348 0.05762453 -0.06565368 -0.07352165 -0.02282339 0.05214825

att f4 [1, 1, 15]
00000000: 12f3 873f b3e9 613e b3aa 213f 7d87 8cbe
00000010: fbb2 3b3f 7588 ba3e 6d25 dbbb 10e4 313f
00000020: 5ba4 d33d 3049 41bf 113d dd3e af71 fe3e
00000030: 87ee 443f 0b0d 2cbe 8981 04bf
1.0621054 0.22061805 0.6315109 -0.2744712 0.7331998 0.36432233 -0.006687811 0.6948862
0.10334083 -0.755023 0.43210652 0.4969611 0.76926464 -0.1680185 -0.51760155

bias f4 [15]
00000000: 4edd 493e 233e 19be 871e a5be aba9 2abf
00000010: 9d74 f73e 3e54 b5be 45c3 0c3f 89ba 47bf
00000020: a596 acbe 84e7 9c3d 2cb5 e9be 13b9 1ebf
00000030: 9dfb c8be b101 83be 97ba 033f
0.19713327 -0.1496511 -0.32249853 -0.6666514 0.48331156 -0.35415834 0.5498546 -0.78019005
-0.33708683 0.076613456 -0.45646036 -0.6200115 -0.39254466 -0.25587228 0.5145659

weight f4 [15, 163]
00000000: eb90 b83e fabb 973e 7daa 973e e6d1 973e
00000010: d090 c63e 2141 b73e 5a44 9c3e 66d3 a63e
00000020: 48b2 a03e 9673 803e cfd8 a43e c262 d53e
00000030: 050c e83e 017c d03e c781 ff3e 7a84 f73e
00000040: c451 293e 108d 6a3e 9596 c33e 4e16 9a3e
00000050: ecfc b13e 305d b03e 7834 b13e eb14 af3e
00000060: 67a9 c53e af76 0c3a 2da5 c63e 7982 43bd
00000070: 0d88 993e 1799 423e 9b20 663e eacd 893e
00000080: 860c 2c3e 9a91 603e 8b4c 403e 135a 8c3e
00000090: 826c cd3e 17de b43e 7da2 ba3e f6e1 793e
000000a0: 1cea 903e 3a95 543e acbf b13e 1ec9 a03e
000000b0: c6d1 8c3e c24a 873e dd72 a43e 235b 7c3e
000000c0: bcd0 b53e 747f 8b3e 4f22 7a3e 2fde af3e
000000d0: 4030 c23e 4d9a 9f3e a085 483d 952b a43e
000000e0: 5c88 4d3e 2b16 d03e 46f1 ae3e ee72 8e3e
000000f0: dc0c f23e 5734 813c c1a8 dc3e 6c2f cd3e
00000100: bac9 29bc 058a a43e 50c9 373e e450 9f3e
00000110: 76a4 a8bd 47c5 ae3d f1cc 933d 912a cfbc
00000120: dc9e e63e a647 2fbd 5ea7 6b3c fee0 143e
00000130: 8702 7c3c d0e6 abbd 1a1b b03e ea38 ac3e
00000140: ed9b ec3e 04e3 903e c36e 623e 64e2 89bd
00000150: bbfe b73e 0808 cb3d 8f02 4c3e 8d16 943d
00000160: 6e94 cebd 0b0e b7bc 293a 9c3e 2e6f bf3e
00000170: c04e a83e 6ba3 f63e cb49 963e 50c6 f93d
00000180: 4541 a93e 9766 a4bd 8ee1 303f 0412 a33e
00000190: 0be1 6f3e be2b d33e 7737 833e 0cd4 963e
000001a0: 5019 9cbd 52ce 093f 25de c83e 74d1 a23c
000001b0: f7c1 003f 9517 b33e fd23 903e ced5 f03d
000001c0: 5d42 183e 80aa 333d e8a0 af3d f381 923e
000001d0: f715 c0bd 3a8a acbd a327 1f3e 285c 53bd
000001e0: eb60 64bb c315 9d3e 2ef7 af3e ad73 0b3f
000001f0: 9663 d23e 4754 933e 0e32 be3d 1f8b b23e
00000200: 4b56 8b3b 51fe 523e b704 9abd 19a4 a3bb
00000210: 18cb b3bd c883 cd3e edd9 bd3e f8a6 b13e
00000220: 1cba f33c e471 58ba 7724 683e 393a 953e
00000230: 0202 9c3e 8b01 8b3e 6e7a a53e f214 cb3e
00000240: 169f c03e bfd0 753e 8a16 843e 170b cb3e
00000250: b09d c23e b6c2 913e 3ef0 a83e 0de9 c33e
00000260: a30f 6d3e 7572 673e d8dd d53e 319f 8f3e
00000270: 8a17 7a3e 2e32 673e e42e a83e a6da 813e
00000280: 263b 9b3e 0e78 f83e 3206 fd3e 3697 02be
00000290: bde0 09be 24cf 75bd 6eac 5bbd e76c 0cbe
000002a0: dc24 14be 7103 75bc 0645 05be bcdf f7bd
000002b0: be8a 8dbc 7a29 bbbd ab4b 9dbd da2f b0bd
000002c0: 79da 8abd e793 b3bd c601 4bbe f4c1 eebc
000002d0: 1d12 1cbe 3bbe e3bd 314f f7bd de90 f6bd
000002e0: f9c8 61bc 042d a8bc 097a 2d3b c33b f4bb
000002f0: 11e3 f3bc d11b 71be 98a4 c23d 41f7 e2bd
00000300: 1e98 debd a611 34be 8f43 f3bd 0883 67bd
00000310: 0114 4a3c bcfe a3bc 16f1 b7bd 3f16 ecbd
00000320: 7412 3abe 425e 13be 8ec1 f4bd a45a 24be
00000330: 10d3 1e3c 15c4 1abe fa8c 3bbd 57f3 b3bd
00000340: 0a0b 0fbe b758 83bd 283d 33be 4d45 67bd
00000350: 8ed2 dabd c119 ffbd 7b9d 09be 9ad4 f1bd
00000360: 74f6 2fbe c12d af3c aa52 0abb 0917 0fbd
00000370: fe22 b0bc c072 3abd b4e2 963b 96be 8bbd
00000380: d9a0 86bd 6a26 3cbe 1777 50be 5b73 1d3e
00000390: bf42 2ebe 272d 8fbe 8e7f a3bd 4a50 a93d
000003a0: b05a 93bd b4d1 b63c cba0 25be 8c37 10be
000003b0: 7fe4 3ebd 583d 0b3d b27a 0dbd 8410 903d
000003c0: 896f a93d cd2b 42bd c53b c5bd 904a 4abe
000003d0: d0fd 65be b70e 29be 805b 41bd 93d2 2bbe
000003e0: 6a64 7bbd 0173 243c 9146 94bd c359 65bb
000003f0: 56fa 8cbd edaa 25be 3c28 18be 357e 12be
0.36048064 0.29635602 0.2962226 0.29652327 0.38782358 0.35791877 0.30520898 0.3258316
0.31386018 0.25088185 0.32196662 0.4167691 0.4532167 0.40719607 0.499037 0.4834326
0.16535097 0.22905374 0.38200822 0.30095142 0.34763277 0.34446096 0.34610343 0.34195647
0.38605806 0.00053582614 0.38797894 -0.04773185 0.2998661 0.19003712 0.22473375 0.26914912
0.16801652 0.21930543 0.18779199 0.2741247 0.40121847 0.3532569 0.36452094 0.24402604
0.2830361 0.2076005 0.34716547 0.3140344 0.27503794 0.26424223 0.32118884 0.24644141
0.35510814 0.27245677 0.2442715 0.343492 0.37927437 0.3117241 0.04895556 0.320645
0.20071548 0.40641913 0.34168452 0.2782206 0.47275436 0.015772028 0.430975 0.40075243
-0.010363037 0.3213655 0.17947888 0.31116402 -0.082344934 0.085337214 0.07216824 -0.025288852
0.45043075 -0.04279294 0.014383165 0.14538953 0.015381462 -0.08393633 0.34395677 0.33637172
0.46212712 0.282982 0.22112565 -0.06732634 0.3593653 0.09913641 0.19922851 0.07230864
-0.100869045 -0.022345563 0.30513123 0.3738951 0.3287258 0.48171553 0.29353175 0.12196028
0.3305761 -0.0802738 0.6909417 0.31849682 0.23425691 0.4124431 0.25628254 0.29458654
-0.076220155 0.53830445 0.39231983 0.019875266 0.50295967 0.3497893 0.28152457 0.1175953
0.14869066 0.043863773 0.08575612 0.28614768 -0.093791895 -0.08424802 0.15542464 -0.05160156
-0.0034847807 0.30680665 0.3436827 0.5447338 0.41091603 0.28775236 0.09286891 0.34871766
0.0042522303 0.20604827 -0.075204305 -0.004993927 -0.087789714 0.40139604 0.37080327 0.346977
0.02975183 -0.0008256717 0.2267016 0.29145983 0.30470282 0.27149615 0.3231997 0.39664418
0.37621373 0.24005412 0.25798446 0.39656898 0.3801093 0.28468865 0.3299579 0.3826374
0.23150496 0.22602256 0.41770816 0.2805114 0.24423042 0.22577736 0.32848275 0.25362128
0.30318564 0.48529094 0.4941879 -0.12752995 -0.13464637 -0.060011998 -0.05363124 -0.13713418
-0.14467186 -0.014954434 -0.13014612 -0.12103221 -0.017278071 -0.091387704 -0.07680448 -0.08602877
-0.067799516 -0.087684445 -0.19824895 -0.029145218 -0.15241285 -0.11120268 -0.120756514 -0.1203935
-0.013780826 -0.020529278 0.0026470444 -0.007453413 -0.02977136 -0.23545767 0.0950405 -0.11082316
-0.10868858 -0.17584857 -0.1187812 -0.056521446 0.012333871 -0.020018928 -0.0898153 -0.115276806
-0.18171102 -0.14391425 -0.1195098 -0.16050202 0.009693876 -0.15113862 -0.045788743 -0.08786648
-0.13969055 -0.064134054 -0.17503798 -0.056462575 -0.10684691 -0.12456084 -0.1343898 -0.11808129
-0.17183858 0.021384122 -0.00211064 -0.034934077 -0.02150106 -0.04551959 0.004604662 -0.06823461
-0.06573648 -0.18374029 -0.20357929 0.15376036 -0.17017649 -0.27964136 -0.079833135 0.08267267
-0.07195032 0.022316791 -0.16174619 -0.1408369 -0.04660463 0.03399405 -0.03454084 0.070344
0.08273227 -0.047405053 -0.09630541 -0.19755006 -0.22460103 -0.1650952 -0.0472064 -0.16779546
-0.06137506 0.010037185 -0.07240022 -0.003499613 -0.06883685 -0.16178484 -0.14859098 -0.14305957

bias f4 [15]
00000000: f870 993e 1b40 bbbd 5034 b2be 09b7 29bf
00000010: 6328 a13e 3047 46be 6215 163f 4c03 b53d
00000020: 5b69 abbe c871 0a3e 65f2 bdbe a1cf 12bf
00000030: 52f5 13bf 0f6b 0ebe f492 113f
0.29969 -0.091430865 -0.34805536 -0.66294914 0.31476125 -0.19363093 0.5862638 0.088385195
-0.33478817 0.13519967 -0.37098995 -0.57348067 -0.57796204 -0.13908027 0.5686486

weight f4 [15, 9]
00000000: 1586 63be 2637 463e f989 0b3e b5b6 7bbc
00000010: 7d56 65be 8bd6 363e b628 d9bd bf63 e0bd
00000020: fb8b 793c a724 3cbe b2ee a73d 80d8 ddbd
00000030: 77d3 64be 9be7 893e 8e7c 3b3e 3387 c93d
00000040: b63f 34be 33f8 3c3d bb9a 69be 735f 6a3e
00000050: 432f 58be 45de 88be 24ad 813d c539 063e
00000060: b4d8 84bc 15cb c5bd 7f52 90be 13fe fc3e
00000070: 518c 883d 2c4a f8bd a9f3 383e 1c01 c5bd
00000080: a12b b9bd aa13 12be f3e3 72be b7a7 953c
00000090: 9d4e 4dbe cd46 d33c f966 44be b193 8d3e
000000a0: 2f02 4bbd 0d4e 8cbe bf2b 293e 83b3 083d
000000b0: 3ebd fcbd 68c1 c8bd 565b e53d b6d0 6c3e
000000c0: f710 22bd 829d 1a3d 63f4 b0bc 9115 083e
000000d0: 95e4 173e 4669 683e 5722 a6be d5d0 5fbd
000000e0: cecb dabc 8ba6 c73d 478f b9bd c5b0 843d
000000f0: a262 6b3e f806 af3d 51e1 6bbe 92e4 87be
00000100: 3d68 bf3d 05e3 383e 0801 4ebe bdb5 68be
00000110: 36c0 82be 29c2 6f3e f38d 643e b84a 513e
00000120: c9b4 2cbe 2222 30be 2f63 1fbe 3be6 14be
00000130: 1fa6 c63d 6600 8abe b692 3bbe 793b 3bbe
00000140: 7f14 5abd 748a 75be c39a 1abe 8399 4cbe
00000150: f00f 4d3d 1024 1b3d bdff 213e 367c cc3d
00000160: a7cd 143d a514 833d 92ea bf3e 20eb c83d
00000170: cdd3 d6bd db3e 8ebe e141 5fbd 2599 f0bd
00000180: 7cce 31bd f61c 643b 18ac 14be a122 1abe
00000190: 022b 883e 6c1e c1bd 5fae 7ebe c2de 823d
000001a0: 6099 c3bd 1113 673c e4d0 90bd 0741 513e
000001b0: cd65 4bbe 0d0c ccbd 2976 003d 1319 863e
000001c0: d4f6 b43d eca3 243c cd91 37bc b2c6 8d3e
000001d0: 70b8 87be 8724 92bd 0e78 66be 88e7 883e
000001e0: 7fbb 89be c784 0bbe 1545 cf3d 8a3f 5bbe
000001f0: 0052 a5bd f9a8 10bd 8ed6 5e3d a372 1cbd
00000200: fa77 6e3e 8df9 f33d b017 7cbb 1f03 71be
00000210: ae02 433e b592 f63c b775 853e
-0.22219117 0.19356975 0.13626851 -0.015363385 -0.22396274 0.17855279 -0.10603468 -0.10956525
0.015231128 -0.18373357 0.081998244 -0.1083231 -0.22346292 0.26934513 0.18309233 0.0984024
-0.17602429 0.04613514 -0.22812931 0.22887973 -0.21111779 -0.26732078 0.06331852 0.13107975
-0.016216613 -0.096578754 -0.2818794 0.49412593 0.06667388 -0.12123522 0.18061699 -0.09619352
-0.09041525 -0.14265314 -0.23719768 0.01826845 -0.2004952 0.025790596 -0.19179906 0.27651742
-0.04956263 -0.27403298 0.16520594 0.03337432 -0.123407826 -0.09802514 0.111990616 0.23126492
-0.03956696 0.037747867 -0.021600908 0.13289477 0.14833291 0.22696409 -0.32448074 -0.054642517
-0.02670851 0.097485624 -0.09060531 0.064790286 0.22986844 0.08546251 -0.2303517 -0.26541573
0.09346054 0.18055351 -0.20117581 -0.22725578 -0.2553727 0.2341391 0.22319774 0.20438659
-0.16865839 -0.1720052 -0.1556518 -0.14540951 0.09699654 -0.2695343 -0.18317685 -0.18284406
-0.053242203 -0.23978597 -0.150981 -0.19980435 0.050064027 0.03787619 0.15820213 0.09984629
0.036328938 0.06400422 0.3748365 0.098104715 -0.104896165 -0.2778233 -0.054506186 -0.1174796
-0.04340981 0.00348073 -0.14518774 -0.15052272 0.26595312 -0.09429631 -0.24871205 0.06390144
-0.09550738 0.014103667 -0.07071093 0.20434962 -0.19863053 -0.09963236 0.031362686 0.26191005
0.08836141 0.010048848 -0.011204195 0.27690655 -0.26507902 -0.07135873 -0.22506735 0.26739144
-0.2690086 -0.1362487 0.10120598 -0.21410957 -0.08072281 -0.035317395 0.054403834 -0.038195264
0.23287955 0.119128324 -0.0038466267 -0.23536347 0.19043991 0.030099252 0.26066372

bias f4 [15]
00000000: 97ff ed3d ef09 18be bf98 acbd 136a 05be
00000010: 12f0 d53b 975b c1bc 3e5a 3b3e a6d6 00bd
00000020: 3886 193e 9fa5 8fbd 9885 e4bd 3674 07be
00000030: 8994 1ebd 3f97 7a3d 4e66 a7bd
0.116210155 -0.1484754 -0.084275715 -0.13028745 0.0065288628 -0.023603244 0.18296143 -0.031454705
0.14992607 -0.070140116 -0.111582935 -0.13227925 -0.038715873 0.061179396 -0.0817381

att f4 [1, 1, 15]
00000000: 6ea9 003f 03b5 953e ffa0 b5be 0e13 e23d
00000010: 9581 f8be 033b 2a3f b4e6 81bd 4923 1a3f
00000020: 58c8 81bd aa86 2c3f 3350 c1be 2094 103e
00000030: d3da 30bd c1ff a9be 41b5 203f
0.5025853 0.29239663 -0.35474393 0.11038791 -0.48536363 0.66496295 -0.06342831 0.6021009
-0.06337041 0.6739298 -0.377565 0.14119005 -0.043177437 -0.33202937 0.6277657

bias f4 [15]
00000000: 4edd 493e 233e 19be 871e a5be aba9 2abf
00000010: 9d74 f73e 3e54 b5be 45c3 0c3f 89ba 47bf
00000020: a596 acbe 84e7 9c3d 2cb5 e9be 13b9 1ebf
00000030: 9dfb c8be b101 83be 97ba 033f
0.19713327 -0.1496511 -0.32249853 -0.6666514 0.48331156 -0.35415834 0.5498546 -0.78019005
-0.33708683 0.076613456 -0.45646036 -0.6200115 -0.39254466 -0.25587228 0.5145659

weight f4 [15, 9]
00000000: 74b4 b13d 4719 703f ac40 893f 3427 7d3e
00000010: 65ed 87be 31b7 c7be 7aca e1bd 2809 23bd
00000020: 41c7 c2be c453 04be 2464 a7bb c5cd dfbe
00000030: f40c 9fbc c21d 20bd 23f8 cb3c 08a3 5cbe
00000040: 9a6f 03bf b7b9 09bf 4743 6fbe ada4 e7be
00000050: 9e1f 17bf 39e4 2cbe d95e 113f d116 11bf
00000060: 62c8 fe3d 8cf6 ebbe 4074 8e3c b898 19bf
00000070: 71a5 26bf 2074 4abf eda9 08bf cfe6 87be
00000080: 8dc1 50bf 8dda fc3c e20f 2fbf 9ae7 1cbf
00000090: 1579 3b3f ce88 293f f3d9 233f b25d 363f
000000a0: b48e 723f 4fcd fc3e 04c5 8d3e 44ca 053e
000000b0: d3fa f73e bf8f f2be c8ab 37be f242 cabd
000000c0: 58d9 2dbe 60d0 59bf 2871 4ebf 6d1e 323e
000000d0: 68c3 2bbf c741 b0bf 0bae 4ebd 67c3 2b3e
000000e0: 76d6 eabd 10c4 ca3e 16b9 243f d5d1 023f
000000f0: 9e8a 3c3d 4980 013f 5276 273f c5a3 19bf
00000100: fdda 57bf f543 0ebf 3e88 04bf f94a c33d
00000110: ec29 28bf b0d1 55bc 0d87 b9be e390 91be
00000120: 6e67 00bf e766 02bf 5337 0ebf 660e d0be
00000130: f14b 9bbd 436a 12be 673a 093e f833 28bf
00000140: f5a1 f1be 8201 11bf 5c29 823e 48cd d33c
00000150: d411 193d e12c 64bf 61e9 23bf 0571 403e
00000160: 3234 ee3d b230 013e 2276 83be a2c3 2fbf
00000170: d07a 1ebf 62ba a0be a389 be3b eb1a 3fbe
00000180: fb6b 8f3e 6cfc cabe e814 89be dcc6 05bf
00000190: 06de b1be dc3b 4dbf cd4f 41bf 5f38 aabe
000001a0: aa47 57bf edf0 eb3c 5773 9bbe 685b 1ebf
000001b0: 023a b9bd 8c63 54be 93f1 b1be 27d1 e5be
000001c0: 986a 3abe 586e abbe 7da0 823e bcde 32bf
000001d0: a896 cfbe 3ebc aabe 134f 1bbe ff7f 89be
000001e0: 3fce d6be 85a0 5d3e 7e1e 64bc 058d 8dbc
000001f0: ebd9 1dbf b6d7 a33d ee5d 14bf d577 cb3e
00000200: dd8d 773f 6285 8c3e 772d bfbf 6619 b6bf
00000210: 0662 19be 82fe 9f3e c79d 3cbf
0.08676997 0.9378857 1.0722861 0.24721986 -0.26548305 -0.3900695 -0.110249475 -0.039803654
-0.38042644 -0.12922579 -0.0051083732 -0.43711677 -0.019415356 -0.03909088 0.024898594 -0.21546566
-0.51342165 -0.53799003 -0.23365508 -0.45242825 -0.5903262 -0.16883935 0.5678535 -0.5667544
0.12440564 -0.46086538 0.017389417 -0.59998655 -0.65096194 -0.7908344 -0.53384286 -0.2654328
-0.81545335 0.030865932 -0.6838361 -0.61290896 0.7323163 0.6622437 0.6400444 0.7123672
0.94749 0.49375388 0.27689373 0.1306544 0.4843355 -0.47375295 -0.17936623 -0.0987605
-0.16977441 -0.8508358 -0.8064141 0.17394419 -0.6709504 -1.3770074 -0.05045895 0.16773759
-0.114666864 0.3960271 0.6434492 0.5110143 0.046030633 0.5058637 0.6541492 -0.6001552
-0.84318525 -0.55572444 -0.5177039 0.09535784 -0.6568897 -0.013050482 -0.36235848 -0.28430852
-0.5015782 -0.50938267 -0.5555317 -0.40635985 -0.07582844 -0.14298348 0.13401185 -0.657043
-0.47193876 -0.56642926 0.2542218 0.025854722 0.037370518 -0.8913098 -0.6402798 0.18793114
0.11631049 0.12616232 -0.25676066 -0.68657887 -0.61906147 -0.313922 0.0058147474 -0.18662612
0.2801207 -0.39645708 -0.26773763 -0.5225656 -0.34739703 -0.80169463 -0.7551239 -0.33246133
-0.84093726 0.028801406 -0.30361435 -0.61858225 -0.09044267 -0.20741099 -0.3475462 -0.44886133
-0.18204725 -0.33482623 0.25513068 -0.69871116 -0.4054463 -0.33346742 -0.15166883 -0.26855466
-0.41954228 0.21643265 -0.0139232855 -0.017279157 -0.6166064 0.08000128 -0.57955825 0.39739862
0.9670084 0.27445513 -1.493575 -1.4226501 -0.14978799 0.31248862 -0.7367825

bias f4 [15]
00000000: 1d28 843f 44b6 41be f328 8ebe f878 0bbf
00000010: 39d7 f03e 1138 e7be 6271 793e 6aaf 1fbf
00000020: 50a8 d6be b3f7 673d aaa4 0ebf f8b0 36bf
00000030: 1ecd 7dbe 9ed5 a3bd 113d 0a3f
1.0324742 -0.18917185 -0.27765617 -0.5448146 0.47039202 -0.45159963 0.24359658 -0.62377036
-0.41925287 0.05663271 -0.5572001 -0.7136378 -0.24785277 -0.079997286 0.5399943

weight f4 [15, 9]
00000000: 0526 543f febf 0a3f 5c47 a03e a038 e63e
00000010: 771c 4b3f 0f7b 493f 1c48 8fbe fcfe 173f
00000020: 1d0f 333f 45d1 f53d 07ac 3bbd 1e1f a0bc
00000030: 1d42 0dbe 06d0 743c c173 5e3e d6d8 433e
00000040: d6e0 61be 6da7 933d 2dba 853c db97 28be
00000050: aed0 ac3d 9c4f 49be 117b adbc 9d3c 2ebe
00000060: 095f 4e3e 96b8 19be e8a4 c13d 6fb3 3f3d
00000070: e256 ed3b 6e39 8f3e ca9b 6b3e 6031 3dbe
00000080: 8fd7 ae3d e554 c9bd 1989 36be 97dc b5ba
00000090: 2224 cb3f 255d 663e 8b3d 643e 8385 57bd
000000a0: b64d 0fbe 8120 583e 5d5b 85ba e8db 133e
000000b0: a58a 703e f1df d1bf b69c 703e 1df3 2f3e
000000c0: cbf2 b1bd 0e79 4c3e 1b5f 80bd 2ff3 72be
000000d0: de01 18bd a9af 3cbe b38a c53d ac21 ff3d
000000e0: e248 903d 9642 913d 31d0 f73d 726b bc3d
000000f0: ba27 13be 565c 5d3e 83cd 7d3d a402 a2bf
00000100: ecdb 13bc 466e 4a3e 20f3 1abe b75f b6bc
00000110: 121b c0bd 5105 4e3e c192 803e 8bc2 6d3e
00000120: 10b1 97bc 2272 f13d 65f8 ae3d 3453 c7bc
00000130: dbdc 9f3a 8d94 06be 2693 263d db6a 543e
00000140: 4051 073d 48d0 c9bf 1d6e 123e da94 bd3c
00000150: 9fd0 183e 8fe5 693e cef8 46be a57e 8ebe
00000160: 84ff 0c3e 718f 623e 7207 febd 7199 073e
00000170: 1b92 40bd 08a7 903e d443 d73e e3b6 413d
00000180: e948 6b3e 3df3 4e3e 7be3 f73d ea4c 18be
00000190: b8ea 513c b524 e23d e3ce eebd 15da 443e
000001a0: 55b7 0b3e f1cb a7bd 1da2 6abe 8603 5fbe
000001b0: bfa4 903d 4385 25b9 8330 fbbd 8cf4 543e
000001c0: 2147 86be b07e 963d 518f db3d 2776 593d
000001d0: 1f4f 46bd 53d8 6d3d fbe6 d43d 7d78 eabd
000001e0: 7a0a d33d 8da3 b23c 1dbf 813d b3ab 81be
000001f0: 87a1 8c3e c139 6f3e 4744 453f 4471 313f
00000200: 81f3 603f 368b c53e 5208 d83e d532 623e
00000210: abde 183d f8d7 81bd 5ac3 0d3e
0.82870513 0.54199207 0.31304443 0.44965076 0.7934031 0.787034 -0.27984703 0.5937345
0.69944936 0.120028056 -0.045818355 -0.019546088 -0.13794751 0.014942175 0.21723844 0.19125685
-0.22058424 0.07209668 0.016324127 -0.16464178 0.0843824 -0.19659275 -0.021176847 -0.1701531
0.2015344 -0.1501182 0.094552815 0.04680198 0.0072430233 0.27973503 0.23008648 -0.18475866
0.08537208 -0.098306455 -0.17825736 -0.0013874945 1.5870402 0.2249647 0.22289102 -0.05261756
-0.13994488 0.2110615 -0.0010174323 0.14439356 0.23490389 -1.6396466 0.2349728 0.17182584
-0.08688887 0.19968054 -0.0626814 -0.2372558 -0.037111156 -0.18426384 0.096455954 0.12457594
0.07045151 0.070927784 0.12100256 0.09200181 -0.14370623 0.21617255 0.06196357 -1.2657056
-0.009024601 0.19768628 -0.15131807 -0.022262437 -0.09380163 0.20119216 0.25111964 0.23218744
-0.018517047 0.11789347 0.08543471 -0.024331667 0.0012196557 -0.13142605 0.040667675 0.20743887
0.03303647 -1.5766687 0.14299817 0.023142267 0.14923333 0.22841476 -0.19430849 -0.27830997
0.13769346 0.22125031 -0.12403764 0.13242127 -0.047014337 0.28252435 0.42043936 0.047293555
0.22977032 0.20209976 0.12103935 -0.1487309 0.012812309 0.110421576 -0.11660554 0.19223817
0.13644154 -0.081931956 -0.22913404 -0.21778688 0.07062673 -0.0001578527 -0.12265112 0.20796412
-0.26226142 0.073483825 0.10720695 0.053091194 -0.0484153 0.05806763 0.103956185 -0.114487626
0.103047326 0.021806503 0.0633528 -0.2532631 0.27466986 0.23361875 0.7705731 0.69313455
0.8787156 0.38582772 0.42193848 0.22089703 0.037321728 -0.06340021 0.13844052

bias f4 [15]
00000000: 184d be3e d88b debd 38c1 ad3d 88b9 19bc
00000010: 7f45 9c3d 1b69 8f3c 8513 0bbc c890 d33c
00000020: 3298 083d 08c1 873c bb1a 5c3e 2f51 a73d
00000030: 28c1 debd a1f6 08bd 42eb 1f3f
0.37168193 -0.10866517 0.08484119 -0.009382613 0.07630443 0.017506173 -0.008488541 0.025825873
0.03334827 0.016571537 0.21494572 0.081697814 -0.108766854 -0.03343833 0.6246835

att f4 [1, 1, 10]
00000000: b265 f13e 2eda 923e 5152 a9be c631 453f
00000010: caeb c63e ecfb bb3d 43e3 49be 7afb b03e
00000020: 4a28 433f 4b4a 163f
0.471479 0.28682083 -0.33070615 0.77029073 0.38851768 0.0917891 -0.197156 0.3456686
0.7623335 0.5870711

bias f4 [10]
00000000: a051 3dbf e79f f6be 3302 51bc 218e 15bf
00000010: 3bc1 ddbd 5d8e 843d dd01 ebbe a719 e23f
00000020: c722 55bf 1b56 1dbf
-0.73952675 -0.4816887 -0.012756872 -0.58419997 -0.108278714 0.06472466 -0.4589986 1.7664078
-0.8325619 -0.6145951

weight f4 [10, 15]
00000000: fff4 713f 5a13 1c3e 030b d53d 6d71 09bf
00000010: f6c9 16bf 1706 5b3f e381 423f cafd 753f
00000020: 71a5 543f dfb6 563f 5794 47bf c04e 52be
00000030: 41c9 1cbf 0598 2bbf 7c20 263f 3c5a 223f
00000040: 5a06 46bd 9962 a83d e6cd 89be 1567 10be
00000050: 459a 253f 7b07 f73d 7618 e63e a0ce d43e
00000060: 7f3a a73d a980 393d 60ef 75bd f3d7 b4be
00000070: d778 07bf 188c 723d 0fb7 0c3e c12a a33c
00000080: cae4 753c 4d84 083f e350 4abe 54d9 163f
00000090: 29fa d23d e91a 953f 6c9a 94bf 2fbc 14be
000000a0: f9d5 8d3e 802c 373e 63d6 b7bd 97d4 2dbe
000000b0: 678b 0d3f b3f2 0b3f b4be 83bd c4d4 343e
000000c0: 74cf 41be 6d19 9abe e3ab 043f f13b 1b3f
000000d0: b741 3e3f a1a8 97be 1c3f a9bc 7bf7 403e
000000e0: 3ce5 90bd f2b7 21bf bcd7 043f d8e5 593f
000000f0: ab63 a23e 5470 63be b9c8 20be 3992 7a3e
00000100: a1b7 41be 0ee3 0bbe 23b3 68bd 14c3 a73e
00000110: d04f f0bc 8f57 223e 5fc5 ce3c 727b 453e
00000120: 0b08 913c 06ee 15be 6c3d 2f3d 37b8 a2bc
00000130: 0f56 063d a850 ad3e d570 06be f56a 5ebd
00000140: 428f a3be b08d 8bbe 3434 9b3e d1b7 68bf
00000150: 9982 d8be e967 853d e570 893e 28e3 c4bc
00000160: 4d6c 63be d0b7 653d 1baa cb3e a534 2abe
00000170: b2ff aa3d 631a c93e 5a99 05bf 9ba2 453f
00000180: b535 c23e 5636 9c3f c8d9 913e 54e7 073d
00000190: f7b7 9a3e de8f 6fbd aee9 fbbe d814 efbe
000001a0: ae02 013f 89ee 0d3f 32ce 213f 669b 643e
000001b0: de57 f0be 732b 3ebf 2ecd 313f 9c34 863e
000001c0: b3ea 293f ddbf fd3d d6f0 8e3e 2de6 d1be
000001d0: 23f4 a4be 3430 3abf 7745 f53e 93d6 1d3f
000001e0: feb6 483f 3e8e 003e a539 ec3c 5d7f a7be
000001f0: a560 f9be 4a32 ac3f 0f27 463f 859a aa3f
00000200: 9bfe 843f 2161 033f 132c eebe 6f3e 3d3e
00000210: b4b1 e0be 09ec abbe fa0c d13e b048 ca3e
00000220: b2ae b73e d85d 233f 7281 ae3e c74f 47bf
00000230: d748 0b3f 470a 123f bde0 173e 0b05 eebe
00000240: 90fc f6be 6560 b13e 537d 0b3f 5a4a 0abf
00000250: 00da d03e 040c 183f
0.9451446 0.15241757 0.10402491 -0.536887 -0.5890192 0.8555617 0.7597944 0.96090376
0.83064944 0.8387279 -0.77960724 -0.20537853 -0.6124459 -0.6702884 0.6489332 0.63418937
-0.0483459 0.08221931 -0.269149 -0.14101823 0.6468852 0.12061974 0.44940537 0.41563892
0.08165454 0.045288716 -0.06004274 -0.35321006 -0.5291876 0.059215635 0.13741706 0.019917848
0.015008161 0.53326875 -0.19757418 0.58925366 0.103016205 1.1648837 -1.1609626 -0.14524911
0.2770231 0.17888069 -0.08976438 -0.16975628 0.55290836 0.54667205 -0.06432858 0.17659289
-0.18926793 -0.30097523 0.5182478 0.6063834 0.7431902 -0.2962084 -0.020659976 0.18844406
-0.07074973 -0.63171303 0.51891685 0.8511634 0.31716666 -0.22210819 -0.1570157 0.24469842
-0.18917705 -0.13660833 -0.056811463 0.3276602 -0.029334933 0.15853713 0.025240598 0.19285372
0.01770403 -0.1464158 0.042783186 -0.019863231 0.032796916 0.33850598 -0.1312898 -0.05430122
-0.31945235 -0.27256536 0.30313265 -0.9090548 -0.42287138 0.0651396 0.26843944 -0.024034098
-0.22209282 0.0560835 0.39778218 -0.16621645 0.08349551 0.39277944 -0.5218712 0.7720124
0.379316 1.2204082 0.28486466 0.033179596 0.3021848 -0.05848681 -0.4920172 -0.4669559
0.50394714 0.554421 0.63205254 0.22324905 -0.46942037 -0.7428505 0.69453704 0.26212013
0.6637375 0.12390111 0.27918118 -0.40995923 -0.32217512 -0.727298 0.4790456 0.6165554
0.78404224 0.12554261 0.02883608 -0.32714358 -0.48706546 1.3452847 0.7740335 1.3328406
1.03902 0.5132008 -0.46518 0.18480848 -0.43885577 -0.33578518 0.40830213 0.3950858
0.3587547 0.6381507 0.34083134 -0.77856106 0.5440802 0.5704693 0.14831825 -0.46488222
-0.48239565 0.34643856 0.54488105 -0.540197 0.4079132 0.59393334

bias f4 [10]
00000000: daca 27bf a4e8 01bf 3d84 7abd ce64 2abf
00000010: 984d 53be 4cfd 88bd de19 c0be cd3a 8fbe
00000020: ea8e 54bf c945 2bbf
-0.655439 -0.50745606 -0.06116127 -0.66560066 -0.20635068 -0.066889375 -0.37519735 -0.2797455
-0.8303057 -0.6690336

weight f4 [10, 15]
00000000: 0b14 88bf 8bdd e1be 6327 83be a838 b23d
00000010: 40db a13f 225b 36bf 7595 3cbf 4919 54bf
00000020: ced6 f73e 11c6 823e f01f b9be aff3 e9be
00000030: a9cc 8d3f f00b 20bf 23a5 75bf 7892 2d3f
00000040: 8bb4 813c c89e 9b3d b011 dc3d 031f debe
00000050: d90a 413f 0044 1e3f 6700 0d3f ba96 9abe
00000060: 1575 9f3e 1f74 b93c 0b3f 883e 31cf 0dbf
00000070: e5b9 b13e 414f 0d3f 6d00 0f3e 9741 efbd
00000080: 98db bb3e f401 01bf f710 27be e432 b23c
00000090: cc53 0dbe 58e8 113e e229 ffbe 595f 32bf
000000a0: e572 0e3f a427 d6be 9a7a ac3d 85eb 463f
000000b0: 6ad3 0a3e e9c2 bb3e 05dd fa3d 671d 383e
000000c0: 7b4e e3be ec15 d9be 0a57 2a3f 8386 9c3e
000000d0: 1ca4 283f 7df9 203f 55c1 f43e 38f2 03bf
000000e0: f4ae 2d3e 96e0 ebbe 984a 583e 867d 223e
000000f0: ae0f 0b3e fcbd 083a facf 0c3e 1157 a8be
00000100: 0e9b 063e cad7 4d3d 76f0 863e 74c3 0e3e
00000110: 17e4 073f 9ec3 c33e e718 4cbc 9939 3bbd
00000120: 0cc9 82be c561 ba3e b4ad a7bd 35a3 3e3e
00000130: c4e5 cc3d b17b 22bc e10b 02bf 315c 98be
00000140: 4dfb 203f e60c 1f3e 614d c83e e140 8d3e
00000150: 9f56 643e ab06 9cbc 95d2 b53c 315d afbd
00000160: 74c0 d13e 12cd b13e e4ee 13be 7436 563e
00000170: 7d96 d33d 55ea 333e d1c0 dc3d bd1a 5abe
00000180: 6d2f 3cbc f06e 19ba 4675 febd 42d5 fb3d
00000190: f52b 94be 9d93 40be cab2 a43d bd94 88bb
000001a0: 1448 73be b822 99be 5027 113e e74e 9a3d
000001b0: d273 a93e 788d af3d 7cbd 12bf ccec a3be
000001c0: 5896 40bf 48a1 f1be f26f f5be 447e 9a3e
000001d0: e675 bb3d 3400 c63e fbe2 023f f5d3 bdbe
000001e0: 5f2a 3a3f f76b 2e3f a6cb dd3e aac7 a33f
000001f0: 0f25 f9be 44e2 123f 7c27 373f f4ea c93e
00000200: 462f 40bf 84dd 343f 6c95 4c3f 4700 543f
00000210: 6904 dbbe 45f1 563e ee23 d53e 8757 043e
00000220: 3bd0 a2be dd2c f1bc 42a2 9ebe 5f63 82be
00000230: a687 0cbe bf7b 7c3e 1681 983d cccf ad3e
00000240: ebc2 9d3e e983 1dbe 34a7 19be 7a64 8abe
00000250: 6c50 683e 6931 4dbe
-1.0631117 -0.44114336 -0.25615987 0.087022126 1.2645035 -0.7123281 -0.73665553 -0.8285108
0.4840607 0.25541738 -0.3615718 -0.45693728 1.1078082 -0.62518215 -0.95955104 0.6780162
0.01583316 0.075986445 0.10745561 -0.43383035 0.7540718 0.6182251 0.5507874 -0.3019312
0.31144014 0.022638379 0.26610598 -0.55394274 0.3471214 0.55199057 0.13965006 -0.11682432
0.36690974 -0.50393605 -0.16315065 0.021752782 -0.13801497 0.14248788 -0.49836642 -0.6967674
0.55644065 -0.41827118 0.08421822 0.77703124 0.1355721 0.36672142 0.122491874 0.17979966
-0.44395813 -0.42399538 0.6653906 0.30571374 0.6587541 0.6288069 0.4780375 -0.5154147
0.1696127 -0.46069783 0.21122205 0.15868196 0.135802 0.0005216298 0.13751212 -0.32878926
0.13145086 0.05025462 0.26355332 0.13941747 0.5308241 0.38235182 -0.012457109 -0.045709226
-0.25544012 0.36402717 -0.08187428 0.18616946 0.10004762 -0.009917186 -0.50799376 -0.29757836
0.62883455 0.15532264 0.39121535 0.2758856 0.22298668 -0.019046148 0.02219514 -0.08562697
0.40967143 0.3472677 -0.14446598 0.2091921 0.10331438 0.1756986 0.10778964 -0.21299262
-0.011485917 -0.0005853018 -0.12424712 0.12296535 -0.28939787 -0.1880631 0.08041914 -0.0041681216
-0.23757964 -0.299093 0.14175153 0.07534581 0.33096176 0.08571905 -0.5732038 -0.320166
-0.75229406 -0.4719336 -0.4793697 0.30174458 0.09153347 0.3867203 0.51127595 -0.37075773
0.72720903 0.6813349 0.43319434 1.2795308 -0.48661086 0.57376504 0.71544623 0.39437068
-0.75072134 0.70650506 0.799155 0.82812923 -0.42776802 0.20990475 0.41628975 0.12924014
-0.31799492 -0.029440338 -0.30983168 -0.2546644 -0.13723621 0.2465658 0.07446496 0.339476
0.30812773 -0.15382351 -0.15005189 -0.27029783 0.22686929 -0.2003838

bias f4 [10]
00000000: 00f0 483f 4591 03bf 73df 263c f561 c6be
00000010: cc2b c13d c1ce f7be 45a1 a4be 41d5 8a3e
00000020: de59 0abf 2048 623d
0.7849121 -0.5139354 0.01018511 -0.3874661 0.09432182 -0.48399928 -0.3215429 0.27115825
-0.54043376 0.055244565

att f4 [1, 1, 5]
00000000: b0f2 473f c266 1cbf 9428 b83e d6c2 62bf
00000010: f43f 153f
0.78104687 -0.61094296 0.3596846 -0.88578546 0.5830071

bias f4 [5]
00000000: 0000 0000 0000 0000 0000 0000 0000 0000
00000010: 0000 0000
0.0 0.0 0.0 0.0 0.0

weight f4 [5, 10]
00000000: 5f94 c63e 1322 0c3f 7c5e 19be ad70 acbe
00000010: 3299 0f3f 4e5c 9abe 4df9 003f a7ed 91be
00000020: bc10 c6be 5c5c 023f 1b12 33be 13b5 3abd
00000030: 0836 f43e 90f0 cb3e fb17 ccbd ef29 c2be
00000040: f12f c8be 4228 8a3e 8629 01bf 1cc0 2bbd
00000050: 555a b4be 293b f4be 52cc ecbe 5237 08bf
00000060: e102 103e 6a6c f63e e577 ff3d 7958 1dbf
00000070: e0c8 c7be ae30 ffbe 2588 463e 4a09 12bf
00000080: 41a0 053f 9506 be3b 6376 10bf 59dd af3e
00000090: 06aa 1f3f c2b7 0bbf 52b4 7a3c 0ffb 673e
000000a0: 7f77 993e 8266 1a3f a481 0abf 8179 a0be
000000b0: 5d32 a03e 4189 56be b194 553e 8276 c0be
000000c0: 0ea2 1f3e dc88 87be
0.38785073 0.54739493 -0.14977449 -0.33679715 0.5609313 -0.30148548 0.503804 -0.28501627
-0.38684642 0.5092218 -0.17487375 -0.045582842 0.47697473 0.39831972 -0.099655114 -0.37922618
-0.39099076 0.2698384 -0.50453985 -0.041931257 -0.35225168 -0.47701386 -0.46249634 -0.5320941
0.14063598 0.48129588 0.1247404 -0.61463124 -0.39020443 -0.49841827 0.19387873 -0.57045424
0.52197653 0.0057991245 -0.56430644 0.34348562 0.6236881 -0.5457727 0.015301781 0.22654365
0.2997398 0.60312665 -0.54104066 -0.313427 0.31288424 -0.20950796 0.20857503 -0.37590414
0.15589163 -0.26471603

bias f4 [5]
00000000: 4247 92bd f5a2 6bbe 4bca 9d3e 1974 3bbe
00000010: 9da9 8c3e
-0.071424976 -0.23011382 0.308184 -0.18306006 0.27473155

weight f4 [5, 10]
00000000: 1413 0e3f 32ac 7bbe 748d 073e 4009 4ebe
00000010: f4bc 93be f713 653d 245b 663e 1931 1e3e
00000020: 9098 1ebf 7052 11be ff21 1bbe 97cf d4be
00000030: 04ef a23e 2166 19bf 0fa5 8dbe 4166 48be
00000040: 3395 e1bb 53b5 9d3e 72d7 ca3d 8b22 5a3e
00000050: 66c9 fd3e 4ccc 32be 480a 6dbe 4c6a bf3d
00000060: 4b00 61be 20a6 ad3e d9b6 1bbf c6bd 0abe
00000070: ca0b a63e f2c6 eebd 88c9 923e c098 b3bc
00000080: 5e5b 0d3d bc2b 2d3d 3a18 5abe 77bc 433e
00000090: 9876 dc3c ec70 923d 6f1f 393e 1ddc 443e
000000a0: 63e2 dc3e d783 a4be 8b58 e93e 3d2b 023f
000000b0: df33 8cbe dc2b 963e 9286 45be 3f54 20bf
000000c0: be0a 8f3d 8f02 633e
0.5549786 -0.24577406 0.13237554 -0.20120716 -0.28855097 0.055927243 0.22495705 0.15448417
-0.6195154 -0.14191604 -0.15149687 -0.41564628 0.3182298 -0.5992146 -0.27664992 -0.19570257
-0.006884241 0.30802402 0.09904374 0.2130224 0.49567717 -0.17460746 -0.23148453 0.093464464
-0.21972768 0.33915806 -0.6082588 -0.13548955 0.3243087 -0.116590396 0.2866938 -0.021923423
0.034510963 0.042278036 -0.21298304 0.19114862 0.026912019 0.071504444 0.18078397 0.19224592
0.4314147 -0.32131836 0.45575365 0.50847226 -0.27383325 0.29330337 -0.19289616 -0.6262855
0.06984471 0.22168945

bias f4 [5]
00000000: c2af 1dbd 0adf 95be 7383 22be 5954 7a3c
00000010: c12a b23d
-0.038497694 -0.29271728 -0.15870456 0.015278899 0.08699561
