model/gnn/241004_3p/epoch_2.pt (torch, 199196 bytes, 61 tensors)

att f4 [1, 1, 10]
0.009096255 0.052388098 -0.08009932 -0.22262459 -0.1539149 -0.04680319 0.10338919 0.25529104
0.0053278403 0.10278603
00000000: 7508 153c e794 563d 1d0b a4bd b3f7 63be
00000010: de9b 1dbe b4b4 3fbd b6bd d33d 82b5 823e
00000020: 2a95 ae3b 7b81 d23d

bias f4 [10]
0.1295462 -0.24721332 -0.15385374 0.026495252 0.13355668 -0.15235707 0.113923095 0.14502363
-0.03646876 0.107046485
00000000: c2a7 043e 7d25 7dbe d68b 1dbe 920c d93c
00000010: 15c3 083e 7e03 1cbe 8350 e93d 1381 143e
00000020: 4460 15bd 303b db3d

weight f4 [10, 163]
0.1817196 0.058171824 -0.100720465 0.1628331 0.19595602 0.079059996 0.1845091 0.06095579
1.4402945 0.9204615 0.4969499 0.5219976 0.34516925 0.34485963 0.19326416 0.2272987
-0.59708965 0.24607909 0.41467062 0.50688386 0.38135245 0.4598317 1.2613819 0.24238051
-0.40612724 0.022561831 -0.4457006 0.049748115 0.22693537 -0.8136482 -0.715246 1.1510925
0.5463834 0.0044619218 -0.2502235 0.06671821 0.025217712 0.16722432 0.26270816 -0.1318047
0.20603435 -0.041158527 -0.52603006 -0.06783872 -0.4074667 -0.420186 -0.35703066 0.012883674
-0.112768434 -0.24918222 0.2624494 0.21712078 -0.002722029 -0.040629156 -0.0149851395 0.43289936
0.15762454 0.6759674 0.22530541 0.73228294 0.689935 0.04444608 1.0015608 0.239576
0.045293294 0.8199869 0.27551708 0.32789525 1.0724018 0.51874006 -0.015550946 -0.24804944
-0.8356831 -0.383593 -0.0021791516 -0.6045222 0.069638744 0.07115447 0.17957553 1.1715894
1.0217437 0.20067352 0.8209747 -0.06811579 -0.73710215 0.21776511 0.631965 -0.03592098
0.043445174 -0.039082557 0.46672657 0.85640484 0.86063534 0.30502072 0.7354733 -0.0155397495
1.5748276 -0.040795617 0.5736167 0.49393907 -0.27366906 0.2694314 0.28932014 -0.16071197
0.044753116 -1.6253467 -0.33990344 0.013503914 1.091496 0.124358274 0.329858 0.82964534
0.32932785 -0.054399155 -0.023213383 -0.857307 -0.40597528 0.045992874 -0.5297353 0.035664577
0.053398564 0.26683536 0.9608709 0.15441561 0.08354301 0.520057 -0.015566577 -0.38016105
-0.019178696 0.0521009 -0.023698159 -0.04867423 -0.040845025 0.4746262 0.5535526 0.7279877
0.37210178 0.33936614 0.16805086 0.021158133 0.19124855 0.052860502 0.02284512 0.073629454
-0.019614711 0.07349249 0.08712997 0.079405144 0.14246944 -0.019365529 -0.057816017 0.13132599
0.38436192 0.060626224 0.053515058 -0.10983817 0.13807556 -0.17604177 0.030272532 0.03532182
0.20635727 -0.5581616 -0.11817231 -0.272222 -0.05282331 -0.14622913 -0.25583085 -0.28431287
-0.20794381 -0.26905346 -0.1976243 -0.2617848 -0.3377202 -0.40047458 -0.33904073 -0.21600579
-0.37261537 -0.36708546 -0.19379269 -0.39058027 -0.31261724 -0.22791894 -0.22164802 -0.09500579
-0.5087878 -0.3154277 -0.116938874 -0.026982894 -0.03593691 -0.022170363 -0.04942845 -0.0908697
-0.13678658 0.17074648 -0.77863497 -0.26658183 0.010936157 0.08955335 -0.33150297 -0.16526999
-0.28123462 -0.11910329 -0.22547442 -0.2710627 -0.009452758 -0.21788664 -0.18352154 -0.3511675
-0.121007346 -0.22554493 -0.20208225 -0.2731899 -0.26569986 -0.31460124 -0.20277192 -0.19609882
-0.005859259 0.022120634 -0.06807309 -0.044412762 -0.6048046 0.327233 0.4988653 0.09706421
-0.05296959 -0.18009333 -0.24811438 -0.034327485 0.055710692 -0.4294975 0.06862739 -0.039020274
-0.01605429 0.043440815 -0.042111333 0.07810673 0.0071623367 0.042860948 -0.071961105 0.06700129
-0.028847357 0.011512333 -0.08528904 -0.62846273 0.15863477 -0.12585442 -0.04566147 0.10254681
0.11024437 -0.027803008 0.06445845 -0.06284724 0.029891865 -0.45542514 -0.29089782 -0.31166717
00000000: b414 3a3e 9445 6e3d 8846 cebd b8bd 263e
00000010: b2a8 483e 35ea a13d f4ef 3c3e c7ac 793d
00000020: 925b b83f 5da3 6b3f 3870 fe3e a2a1 053f
00000030: 06ba b03e 7191 b03e 0ae7 453e fec0 683e
00000040: deda 18bf 28fc 7b3e b54f d43e 24c3 013f
00000050: a140 c33e 106f eb3e f674 a13f 9932 783e
00000060: e9ef cfbe 97d3 b83c de32 e4be aec4 4b3d
00000070: bf61 683e 404b 50bf 5d1a 37bf 0057 933f
00000080: c8df 0b3f 5035 923b 4b1d 80be 8fa3 883d
00000090: 6095 ce3c da3c 2b3e af81 863e d0f7 06be
000000a0: abfa 523e d895 28bd e8a9 06bf 07ef 8abd
000000b0: 7a9f d0be 9f22 d7be b9cc b6be 0c16 533c
000000c0: 23f3 e6bd a029 7fbe c55f 863e e954 5e3e
000000d0: 1264 32bb c26a 26bd 3b84 75bc fca4 dd3e
000000e0: 5468 213e 330c 2d3f 76b6 663e e576 3b3f
000000f0: 959f 303f 180d 363d 2533 803f 6953 753e
00000100: 7685 393d a9ea 513f 9310 8d3e e3e1 a73e
00000110: 7644 893f 26cc 043f 65c9 7ebc ac00 7ebe
00000120: 54ef 55bf 4d66 c4be 19d0 0ebb f8c1 1abf
00000130: c29e 8e3d 6fb9 913d a6e2 373e a4f6 953f
00000140: 7fc8 823f 5c7d 4d3e 662b 523f 4b80 8bbd
00000150: bab2 3cbf d1fd 5e3e 75c8 213f e121 13bd
00000160: 91f3 313d 0815 20bd c9f6 ee3e 593d 5b3f
00000170: 9952 5c3f ad2b 9c3e fa47 3c3f 6f9a 7ebc
00000180: f393 c93f 4e19 27bd 8bd8 123f 95e5 fc3e
00000190: 5a1e 8cbe eaf2 893e c521 943e ae91 24be
000001a0: 0b4f 373d 5c0b d0bf d307 aebe 853f 5d3c
000001b0: 24b6 8b3f 8daf fe3d 26e3 a83e a363 543f
000001c0: a99d a83e a6d1 5ebd fe29 bebc 7978 5bbf
000001d0: fedb cfbe 0663 3c3d bc9c 07bf 0515 123d
000001e0: 74b8 5a3d a59e 883e a3fb 753f 201f 1e3e
000001f0: 9918 ab3d 7522 053f f50a 7fbc 78a4 c2be
00000200: a41c 9dbc c167 553d a422 c2bc a15e 47bd
00000210: 1d4d 27bd 3502 f33e a0b5 0d3f 675d 3a3f
00000220: 2084 be3e 66c1 ad3e 8615 2c3e d253 ad3c
00000230: a9d6 433e 4184 583d b025 bb3c 0acb 963d
00000240: 08af a0bc 3b83 963d 3371 b23d 2a9f a23d
00000250: 82e3 113e 75a4 9ebc 7dd0 6cbd 527a 063e
00000260: 16cb c43e 3453 783d 9b32 5b3d d6f2 e0bd
00000270: ae63 0d3e 4b44 34be 1afe f73c 9dad 103d
00000280: 524f 533e aee3 0ebf 5304 f2bd af60 8bbe
00000290: 415d 58bd 17bd 15be 43fc 82be 7591 91be
000002a0: 39ef 54be 60c1 89be 065e 4abe a808 86be
000002b0: a9e9 acbe 010b cdbe bf96 adbe 9f30 5dbe
000002c0: 71c7 bebe a0f2 bbbe 9771 46be 23fa c7be
000002d0: 5e0f a0be 9563 69be b3f7 62be 6592 c2bd
000002e0: eb3f 02bf bd7f a1be a67d efbd 3b0b ddbc
000002f0: 9532 13bd 9f9e b5bc 7d75 4abd e519 babd
00000300: c811 0cbe 2ad8 2e3e 9f54 47bf 6a7d 88be
00000310: 912d 333c bf67 b73d c2ba a9be 893c 29be
00000320: fcfd 8fbe 6dec f3bd c4e2 66be bbc8 8abe
00000330: bedf 1abc ad1d 5fbe 12ed 3bbe 3acc b3be
00000340: b3d2 f7bd 40f5 66be a6ee 4ebe 8cdf 8bbe
00000350: d009 88be 6a13 a1be 71a3 4fbe 21ce 48be
00000360: 07ff bfbb 5536 b53c e769 8bbd 28ea 35bd
00000370: 79d4 1abf 158b a73e 466b ff3e 9ac9 c63d
00000380: a4f6 58bd 636a 38be b211 7ebe fa9a 0cbd
00000390: e530 643d 19e7 dbbe 848c 8c3d b9d3 1fbd
000003a0: 4984 83bc ffee 313d ef7c 2cbd 6cf6 9f3d
000003b0: 09b2 ea3b f68e 2f3d 5860 93bd f937 893d
000003c0: 4b51 ecbc 399e 3c3c 05ac aebd efe2 20bf
000003d0: 2771 223e fbdf 00be 8607 3bbd 1004 d23d
000003e0: cdc7 e13d 22c3 e3bc cb02 843d 0eb6 80bd
000003f0: c9df f43c 7c2d e9be 8ff0 94be d792 9fbe

bias f4 [10]
0.14003068 -0.2509086 -0.1323674 0.05104779 0.1462002 -0.16248901 0.1134307 0.16051142
-0.017777976 0.12000565
00000000: 3464 0f3e 1877 80be 528b 07be 7d17 513d
00000010: 81b5 153e 8563 26be 5b4e e83d 1b5d 243e
00000020: 1ea3 91bc 86c5 f53d

weight f4 [10, 163]
-0.01592085 0.06184659 0.0032796636 -0.0235942 0.0333633 0.05808174 0.044278186 -0.033847157
0.056019846 -0.070969276 0.06396343 -0.04632831 0.062215056 0.04860385 -0.024793988 0.026473727
0.051695183 -0.02760644 -0.055813503 0.042909075 0.009628916 0.028951574 -0.048686508 -0.071561515
0.05879313 0.05135216 0.025312494 -0.005256172 -0.009577071 -0.04658079 -0.06194818 0.020705204
-0.0369461 -0.010103047 -0.025450667 -0.029950364 0.048161976 -0.054181777 0.0498375 -0.002711285
-0.06337699 0.06398069 -0.057472367 0.041663967 0.0678065 0.0355776 0.04491226 -0.064370096
0.024444392 -0.01679529 -0.0034555693 -0.010122359 0.0549395 -0.05775316 -0.0328483 -0.02842838
0.004763874 0.032528266 -0.06591894 0.00021792823 0.027888933 -0.05556086 0.021834716 0.05400634
-0.010947292 0.0017189268 0.013370629 -0.064219646 0.00011027577 -0.034490325 0.04990426 0.058972444
0.023725854 -0.0043076463 0.03773067 0.027435288 0.07235171 0.04429155 -0.053926438 0.003436947
-0.002453352 -0.01697688 -0.013656262 0.023335002 -0.014616343 0.007619305 0.030960577 -0.028444596
-0.037196234 -0.06536929 -0.038593505 -0.0439321 -0.046919696 0.041550767 -0.05831686 0.010556258
-0.06772958 -0.014810741 0.018786136 0.007995561 -0.036841698 0.05993397 -0.048809953 0.053860538
-0.058220956 0.049142975 -0.054324407 -0.020628743 -0.019763228 0.050492413 -0.022269076 0.0054069115
0.04629149 -0.037618276 0.07142585 -0.0070670806 -0.034945093 0.016245052 0.045582827 0.05042924
-0.06837254 0.04341731 -0.058710244 -0.057004422 -0.05803608 -0.038985327 0.011740852 0.0627665
-0.041642133 -0.05884016 0.042197406 0.06714793 -0.042359963 -0.013683748 0.024765354 -0.048043843
-0.04782042 0.058355063 -0.040623583 0.02111548 0.042406723 -0.04663852 0.029472142 0.029090881
0.013776559 -0.03749138 -0.01402624 0.0113870045 -0.012618556 0.033509884 0.004078236 0.031797197
0.009360084 0.01576687 -0.044847723 0.06204038 -0.0021729278 -0.0013690174 0.035645936 0.0019827292
0.023485564 -0.024689028 -0.012038817 0.030815877 0.06827445 -0.06720373 0.05913157 0.059174545
0.049492747 -0.021539105 -0.041954488 -0.03445818 0.06236889 -0.058887053 0.00847994 -0.02168716
0.044238105 0.026354358 0.008570036 0.00029308212 -0.03856662 0.04462985 -0.059678923 0.03320956
0.062386274 0.013532903 -0.023613527 -0.017042918 0.020991778 -0.05513751 -0.039742038 -0.011107
-0.06736141 0.03934847 0.064814344 0.056518484 0.040941827 -0.046153583 0.014956617 -0.047047623
0.048444625 -0.0013917802 0.048345502 0.066282876 0.030599313 -0.04479401 -0.045106847 -0.013046211
0.005257988 0.04670771 -0.062844984 0.041814342 0.063299246 -0.05037356 0.04757678 -0.064586625
0.0028569791 0.011569192 -0.019835807 -0.038376283 -0.043996193 -0.05983075 -0.040577132 -0.046121478
0.05721773 -0.0022851748 -0.0392928 0.0068086013 -0.016749915 -0.036880646 0.0060170004 0.021300081
-0.012363917 0.027214643 0.021298945 0.065086894 -0.02983434 -0.013802293 -0.021777073 -0.0055508367
0.020822892 -0.00871632 -0.04730235 -0.018487835 0.054497696 0.04679327 0.06796348 -0.038283493
0.009149463 -0.06780374 0.051081505 0.0126890065 -0.06194218 -0.041618977 -0.036885656 0.06966355
00000000: 716c 82bc da52 7d3d a0ef 563b a048 c1bc
00000010: f5a7 083d 1ee7 6d3d 0b5d 353d 51a3 0abd
00000020: 1175 653d 5758 91bd 42ff 823d c1c2 3dbd
00000030: 37d5 7e3d d514 473d c31c cbbc 6edf d83c
00000040: 54be 533d e726 e2bc b39c 64bd 6dc1 2f3d
00000050: 9ac2 1d3c da2b ed3c 816b 47bd d88e 92bd
00000060: 11d1 703d a456 523d 265c cf3c f73b acbb
00000070: 26e9 1cbc 80cb 3ebd 60bd 7dbd f69d a93c
00000080: cb54 17bd 4087 25bc eb7d d0bc 775a f5bc
00000090: 7e45 453d b6ed 5dbd 6822 4c3d d0af 31bb
000000a0: cccb 81bd 4f08 833d 2568 6bbd d6a7 2a3d
000000b0: 22de 8a3d d1b9 113d ebf5 373d 78d4 83bd
000000c0: 9b3f c83c 4796 89bc d576 62bb 40d8 25bc
000000d0: 3e08 613d 948e 6cbd f08b 06bd a2e2 e8bc
000000e0: 461a 9c3b 5c3c 053d 8200 87bd aa83 6439
000000f0: 5577 e43c c993 63bd b8de b23c c135 5d3d
00000100: 455c 33bc 9d4d e13a 7c10 5b3c 9785 83bd
00000110: da43 e738 ba45 0dbd 6968 4c3d 178d 713d
00000120: b95c c23c 2827 8dbb 7a8b 1a3d f8bf e03c
00000130: 222d 943d 0e6b 353d f8e1 5cbd 673e 613b
00000140: 6bc8 20bb 1913 8bbc 84be 5fbc 0c29 bf3c
00000150: 6379 6fbc 5dab f93b 09a1 fd3c a404 e9bc
00000160: 145b 18bd 56e0 85bd 3914 1ebd 25f2 33bd
00000170: de2e 40bd 2331 2a3d a9dd 6ebd 28f4 2c3c
00000180: ceb5 8abd c0a8 72bc 62e5 993c d0ff 023c
00000190: 52e7 16bd 537d 753d f2ec 47bd de9c 5c3d
000001a0: 1979 6ebd 254a 493d 4583 5ebd 9cfd a8bc
000001b0: 7ee6 a1bc 22d1 4e3d a36d b6bc 762c b13b
000001c0: 259c 3d3d 9f15 1abd b747 923d f892 e7bb
000001d0: 9622 0fbd 5814 853c 0fb5 3a3d e48e 4e3d
000001e0: e706 8cbd 59d6 313d 277a 70bd 787d 69bd
000001f0: 3eb7 6dbd 14af 1fbd b45c 403c b98b 803d
00000200: f190 2abd 6102 71bd 30d7 2c3d db84 893d
00000210: a481 2dbd cd31 60bc b6e0 ca3c 9fc9 44bd
00000220: 58df 43bd b805 6f3d ea64 26bd 5ffa ac3c
00000230: acb2 2d3d 0808 3fbd 906f f13c 0050 ee3c
00000240: 14b7 613c 9090 19bd 51ce 65bc 8f90 3a3c
00000250: 0fbe 4ebc a941 093d b9a2 853b c73d 023d
00000260: 0a5b 193c 8629 813c 3fb2 37bd 0e1e 7e3d
00000270: ae67 0ebb 9a70 b3ba 7901 123d adf0 013b
00000280: cc64 c03c a540 cabc 753e 45bc 9471 fc3c
00000290: 7ad3 8b3d 1ca2 89bd f233 723d 0261 723d
000002a0: e8b8 4a3d c772 b0bc 78d8 2bbd 0524 0dbd
000002b0: 8576 7f3d 8d33 71bd 72ef 0a3c 45a9 b1bc
000002c0: 0433 353d 18e5 d73c 5669 0c3c d1a8 9939
000002d0: 08f8 1dbd cacd 363d e371 74bd bf06 083d
000002e0: c088 7f3d 1cb9 5d3c 2871 c1bc 979d 8bbc
000002f0: f3f6 ab3c dfd7 61bd 8cc8 22bd 22fa 35bc
00000300: c7f4 89bd dc2b 213d 62bd 843d ed7f 673d
00000310: 9eb2 273d 8a0b 3dbd 990c 753c 02b5 40bd
00000320: df6d 463d 656c b6ba ef05 463d 51bf 873d
00000330: 69ab fa3c ed79 37bd f5c1 38bd c6bf 55bc
00000340: 334b ac3b 9550 3f3d dfb4 80bd 8445 2b3d
00000350: 09a3 813d 8254 4ebd dfdf 423d fe45 84bd
00000360: 283c 3b3b b58c 3d3c b47e a2bc 7330 1dbd
00000370: 5a35 34bd 1711 75bd 3534 26bd e0e9 3cbd
00000380: 235d 6a3d dfc2 15bb 7df1 20bd b01a df3b
00000390: 1e37 89bc 2910 17bd 422a c53b 827d ae3c
000003a0: 0792 4abc 3ef1 de3c 207b ae3c 474c 853d
000003b0: 2567 f4bc 0323 62bc d565 b2bc cbe3 b5bb
000003c0: c594 aa3c e5ce 0ebc 1cc0 41bd cd73 97bc
000003d0: fa38 5f3d 4daa 3f3d 7030 8b3d 27cf 1cbd
000003e0: a1e7 153c b0dc 8abd d73a 513d 8de5 4f3c
000003f0: 15b7 7dbd a978 2abd 6a15 17bd c3ab 8e3d

bias f4 [10]
0.008063209 -0.028244253 -0.009772641 -0.025178965 -0.029392146 0.0037025125 -0.0048129074 -0.0049776044
0.0019407966 -0.015066139
00000000: 8d1b 043c 7e60 e7bc 6d1d 20bc 1e44 cebc
00000010: ccc7 f0bc daa5 723b 98b5 9dbb 2c1b a3bb
00000020: 5462 fe3a f8d7 76bc

weight f4 [15, 163]
0.08856573 -0.0146037955 -0.05189888 0.032574136 0.09990332 -0.042806752 0.04999774 -0.01912993
-0.18412271 -0.08316681 -0.06469957 -0.019753188 -0.058264304 -0.085572496 -0.079294026 -0.106205314
0.050072923 -0.10697893 -0.16880533 -0.08665775 -0.06263592 0.05807391 -0.20284598 -0.087389015
0.05735177 -0.018608574 0.015635224 0.026034852 -0.012335803 0.024082206 0.0005237844 -0.1681666
0.049947467 -0.005562368 -0.055181757 0.10394398 0.045094408 0.03767628 0.019237457 0.15310079
0.0696482 0.001166051 0.032198634 0.10502143 -0.059703857 -0.015378931 0.07331725 -0.06784488
0.032537892 0.022307746 0.109803885 -0.07924793 -0.15950383 -0.0152519215 -0.023165809 -0.17458929
-0.117154054 -0.0026852265 0.018471956 0.089161955 0.07379025 0.020004274 -0.106263705 -0.08436534
0.0015659515 -0.06264391 -0.17957203 0.0013474579 0.025603274 0.008742663 -0.004736418 -0.02282612
-0.009769904 0.019345053 0.012115084 -0.013269528 -0.01713144 -0.0007405822 -0.040923152 0.09436373
0.012408966 -0.11104806 -0.03125862 0.019820452 -0.0281853 0.018371899 -0.10478987 -0.0064482656
0.025362307 -0.020704936 0.028456978 0.094885625 -0.12337429 0.13606696 -0.020806283 -0.016286124
-0.15457384 -0.008930659 0.034220144 -0.060422707 -0.038467932 -0.021974143 0.036085933 -0.030368408
0.0009493586 0.022433497 -0.14391312 -0.005380923 -0.056713674 -0.15646367 -0.025149047 0.0069279945
0.054211 -0.028861634 -0.007004737 0.014447849 0.019043062 0.0015476631 -0.027255796 0.009569555
-0.024932595 -0.04672697 0.07789181 0.059322704 -0.06943715 -0.009468582 -0.022094214 0.0042994176
0.029146869 -0.064535394 -0.013790245 -0.008855224 -0.0045152297 -0.008924752 0.011808293 0.05125944
-0.04742025 -0.00757143 -0.0004152367 -0.13627931 0.061117478 -0.073749594 0.09973294 -0.092330225
-0.0047866125 0.030201659 -0.08644683 0.024250602 0.09046588 0.2752915 0.011418631 -0.10005221
0.13838382 -0.08072235 0.2348256 0.010778007 0.026432209 0.01954259 -0.080905184 -0.020182174
-0.056204725 0.0070431945 -0.060503285 0.030198388 -0.029646622 -0.027874548 -0.08776458 -0.025807653
0.036674082 -0.06870967 0.053231597 0.034486614 -0.017049965 0.016138496 0.0023318434 0.057072602
0.021389335 -0.01864438 0.0074346005 -0.0331956 -0.04045804 -0.018086068 -0.09033086 -0.042189624
0.011222525 -0.010377771 -0.024667317 0.097265564 0.00929885 0.061762746 -0.006969479 0.071854785
-0.11070146 0.025484823 -0.08226145 -0.031938978 -0.009250736 0.08134138 0.02883386 0.08597236
0.10002512 0.049181677 -0.10292826 0.07966197 0.026627794 0.0163698 -0.07220454 0.062407225
0.08239031 0.13022596 -0.06521533 -0.025350425 0.03310284 0.0868397 0.094013065 -0.049781308
-0.0090819 -0.012171479 0.019305892 -0.08487787 0.12460461 -0.023409573 -0.01690696 -0.021971557
0.017301997 -0.09116328 -0.08654586 0.014104362 -0.061954334 -0.13206412 -0.0074167317 -0.019736646
0.002191689 -0.019322999 -0.0024140417 0.014928085 0.015275678 0.008228693 0.0056347805 -0.00012649977
-0.018036587 -0.03255399 -0.004955398 0.049827717 -0.024435274 -0.05397628 -0.022636496 -0.033787146
0.0030123957 0.015969004 -0.012019324 -0.01220059 -0.028202808 0.007633662 0.15851973 -0.11221373
00000000: f361 b53d c244 6fbc ec93 54bd 756c 053d
00000010: 1d9a cc3d 2256 2fbd 6eca 4c3d 5fb6 9cbc
00000020: aa8a 3cbe 5c53 aabd 3581 84bd 70d1 a1bc
00000030: 8da6 6ebd a240 afbd e864 a2bd 2c82 d9bd
00000040: 4419 4d3d c517 dbbd 4edb 2cbe 9e79 b1bd
00000050: 4347 80bd e9de 6d3d dbb6 4fbe 03f9 b2bd
00000060: b1e9 6a3d 0271 98bc 7115 803c 0b47 d53c
00000070: 1c1c 4abc 0c48 c53c 934e 093a dd33 2cbe
00000080: b795 4c3d 8644 b6bb 4406 62bd 95e0 d43d
00000090: eab4 383d 7152 1a3d df97 9d3c 74c6 1c3e
000000a0: b7a3 8e3d 2ed6 983a b7e2 033d 7a15 d73d
000000b0: 088c 74bd e9f7 7bbc 5b27 963d 42f2 8abd
000000c0: 7446 053d bcbe b63c dce0 e03d bd4c a2bd
000000d0: f954 23be 32e3 79bc 39c6 bdbc 89c7 32be
000000e0: 77ee efbd a0fa 2fbb 8052 973c 8b9a b63d
000000f0: 581f 973d 01e0 a33c c9a0 d9bd bcc7 acbd
00000100: 9d40 cd3a 734b 80bd bbe1 37be 2f9d b03a
00000110: f5bd d13c 633d 0f3c f433 9bbb d8fd babc
00000120: f311 20bc 8479 9e3c 587e 463c 6f68 59bc
00000130: 3c57 8cbc a123 42ba 099f 27bd c541 c13d
00000140: fa4e 4b3c 2a6d e3bd 0a09 00bd 805e a23c
00000150: dce4 e6bc aa80 963c 129c d6bd f94b d3bb
00000160: 9dc4 cf3c 669d a9bc 9c1e e93c 6553 c23d
00000170: a9ab fcbd 2355 0b3e f071 aabc 7a6a 85bc
00000180: 9b48 1ebe e651 12bc 6c2a 0c3d cd7d 77bd
00000190: 8d90 1dbd 1e03 b4bc d8ce 133d 2bc7 f8bc
000001a0: 61de 783a 74c6 b73c f65d 13be 7452 b0bb
000001b0: 994c 68bd 0338 20be 6005 cebc 3b04 e33b
000001c0: 5b0c 5e3d 3c6f ecbc fe87 e5bb acb6 6c3c
000001d0: 3200 9c3c f5da ca3a 8c47 dfbc 9fc9 1c3c
000001e0: 713f ccbc c764 3fbd be85 9f3d 5dfc 723d
000001f0: 1135 8ebd 1d22 1bbc edfe b4bc 21e2 8c3b
00000200: 6ac5 ee3c 222b 84bd 7bf0 61bc 8015 11bc
00000210: 7ef4 93bb 1f39 12bc 9277 413c 6bf5 513d
00000220: bc3b 42bd c219 f8bb 20b4 d9b9 ce8c 0bbe
00000230: 5256 7a3d 070a 97bd c940 cc3d a117 bdbd
00000240: 04d9 9cbb 7869 f73c 090b b1bd 33a9 c63c
00000250: 2d46 b93d 02f3 8c3e 3615 3b3c 2ce8 ccbd
00000260: 7db4 0d3e c251 a5bd 1f76 703e 3d96 303c
00000270: 5c88 d83c c817 a03c 9eb1 a5bd 1655 a5bc
00000280: ed36 66bd 99ca e63b 4bd2 77bd 9c62 f73c
00000290: 79dd f2bc 2a59 e4bc ebbd b3bd 926a d3bc
000002a0: 9037 163d a8b7 8cbd 6009 5a3d d641 0d3d
000002b0: 5eac 8bbc e134 843c d7d1 183b f6c4 693d
000002c0: b038 af3c 19bc 98bc f39d f33b 1cf8 07bd
000002d0: 54b7 25bd 3c29 94bc 63ff b8bd 07cf 2cbd
000002e0: aede 373c 8707 2abc 1d13 cabc 2b33 c73d
000002f0: 345a 183c effa 7c3d 3a60 e4bb 9a28 933d
00000300: 72b7 e2bd 8cc5 d03c b178 a8bd 72d2 02bd
00000310: 6690 17bc 4f96 a63d fd34 ec3c 4712 b03d
00000320: f8d9 cc3d ba72 493d 0dcc d2bd d125 a33d
00000330: 8822 da3c f519 863c f9df 93bd b89e 7f3d
00000340: 40bc a83d f459 053e 9d8f 85bd b2ab cfbc
00000350: d896 073d 03d9 b13d ec89 c03d 7ce7 4bbd
00000360: 40cc 14bc e26a 47bc 6427 9e3c 73d4 adbd
00000370: b430 ff3d 6fc5 bfbc 7780 8abc b2fd b3bc
00000380: ebbc 8d3c d0b3 babd f53e b1bd fb15 673c
00000390: d4c3 7dbd d13b 07be 0e08 f3bb bfae a1bc
000003a0: 71a2 0f3b 444b 9ebc e634 1ebb ed94 743c
000003b0: d646 7a3c a4d1 063c f7a3 b83b 06a5 04b9
000003c0: 77c1 93bc 5557 05bd e460 a2bb 2618 4c3d
000003d0: 7c2c c8bc 3b16 5dbd 2c70 b9bc 6464 0abd
000003e0: 9d6b 453b 6ed1 823c b3ec 44bc fce4 47bc
000003f0: 9309 e7bc cc23 fa3b ff52 223e 50d0 e5bd

bias f4 [15]
-0.0051401067 -0.024142085 -0.006478991 0.008075784 -0.01742432 -0.01666922 -0.029043626 0.029755047
-0.013317719 0.00459917 0.009617855 -0.030583184 -0.020831171 -0.015734516 -0.006035094
00000000: 576e a8bb 9fc5 c5bc b74d d4bb 4b50 043c
00000010: 73bd 8ebc e38d 88bc e6ec edbc dbc0 f33c
00000020: 9032 5abc a2b4 963b 3594 1d3c 9689 fabc
00000030: 22a6 aabc ace5 80bc 0ac2 c5bb

weight f4 [15, 9]
0.118285954 -0.048096143 0.005136062 0.12993366 0.1308079 0.044459574 -0.08156989 -0.07615735
0.049772393 0.051362216 0.011037393 -0.103516 0.0981695 -0.01057052 0.0004121631 0.08130892
0.11399982 -0.089369774 -0.1249026 -0.13790777 -0.09383864 -0.09686283 0.10518897 0.023572091
-0.10378341 -0.111227795 -0.10855291 -0.06624576 -0.12775375 -0.09208881 0.0068592792 0.051818352
-0.04659878 0.06717908 0.09764093 0.064616494 -0.020362375 0.0976563 -0.12807578 0.06068445
-0.09043594 -0.0008504076 -0.032555163 0.048778567 -0.07498522 -0.16456036 -0.115395606 0.06489878
0.020433336 -0.009056239 -0.1327641 0.036530953 0.031002149 -0.065612055 -0.20936574 -0.07900952
-0.044511274 -0.0027982409 -0.043561753 0.033486463 -0.0007787679 -0.08455402 0.019036336 0.16552946
-0.008398105 0.030415868 0.10224377 -0.10007881 0.07292819 0.098716065 0.0029583822 0.08045341
0.15137552 0.06668443 0.0921319 0.015878476 0.08314 -0.08600155 -0.030757219 -0.108916014
-0.020352675 -0.024595784 0.04766857 -0.13686934 -0.07999528 0.011290252 -0.05673054 0.117931485
-0.0068367077 0.041109458 -0.006428758 -0.13587442 -0.11873478 -0.09306376 -0.1103646 0.07421008
-0.11328928 -0.06461004 -0.012054577 -0.1799546 0.12182234 -0.074526735 -0.090458006 0.058035377
-0.027489653 0.035171393 -0.10960072 -0.028383747 -0.078530796 -0.0542812 -0.09237395 0.03419762
0.029499568 -0.10580422 -0.12469251 -0.07974119 0.09706848 -0.14671797 -0.11107937 -0.014684062
-0.037589315 -0.029878028 0.013755305 -0.043025725 -0.043894053 -0.12184939 -0.22151423 -0.09907037
-0.05350204 0.06934636 0.11822389 0.04900908 0.08100054 -0.0017471109 -0.011468175
00000000: e83f f23d 7600 45bd 694c a83b 540d 053e
00000010: 82f2 053e 3e1b 363d 1d0e a7bd 62f8 9bbd
00000020: 23de 4b3d 3061 523d 2ed6 343c 3200 d4bd
00000030: 170d c93d f92f 2dbc 9817 d839 4b85 a63d
00000040: bd78 e93d 8007 b7bd efcc ffbd b237 0dbe
00000050: 792e c0bd 0560 c6bd 516d d73d 421a c13c
00000060: 658c d4bd 66cb e3bd fd50 debd dbab 87bd
00000070: e1d1 02be 0f99 bcbd cec3 e03b 7b3f 543d
00000080: 5dde 3ebd 2f95 893d f8f7 c73d a755 843d
00000090: ffce a6bc 0700 c83d 4c26 03be 4290 783d
000000a0: 7a36 b9bd e3ed 5eba 9058 05bd 09cc 473d
000000b0: da91 99bd 8382 28be 8854 ecbd a7e9 843d
000000c0: d063 a73c 9f60 14bc 50f3 07be 7ba1 153d
000000d0: 38f8 fd3c 9d5f 86bd f963 56be becf a1bd
000000e0: 7451 36bd b162 37bb cf6d 32bd 1a29 093d
000000f0: 3b26 4cba a82a adbd 17f2 9b3c 8e80 293e
00000100: 3598 09bc b32a f93c 2f65 d13d 1ef6 ccbd
00000110: 605b 953d a62b ca3d 6be1 413b c2c4 a43d
00000120: 2f02 1b3e d991 883d a6af bc3d 9413 823c
00000130: 4e45 aa3d 9521 b0bd 90f6 fbbc 5c0f dfbd
00000140: a7ba a6bc 197d c9bc 1e40 433d 7a27 0cbe
00000150: 91d4 a3bd c0fa 383c 485e 68bd 1086 f13d
00000160: 7606 e0bb 6462 283d 55a8 d2bb aa22 0bbe
00000170: 382b f3bd 3698 bebd d606 e2bd 74fb 973d
00000180: 3604 e8bd 4552 84bd 8f80 45bc 0546 38be
00000190: fe7d f93d 79a1 98bd 0c42 b9bd 81b6 6d3d
000001a0: fb31 e1bc e10f 103d 5876 e0bd 0885 e8bc
000001b0: c1d4 a0bd f755 5ebd 8e2e bdbd ce12 0c3d
000001c0: 14a9 f13c e2af d8bd c95e ffbd 594f a3bd
000001d0: d7cb c63d 3c3d 16be 957d e3bd 6c95 70bc
000001e0: 41f7 19bd c4c2 f4bc ee5d 613c be3b 30bd
000001f0: 40ca 33bd 2c8c f9bd a0d4 62be 68e5 cabd
00000200: f524 5bbd 7705 8e3d 5e1f f23d bfbd 483d
00000210: 9ce3 a53d 50ff e4ba 03e5 3bbc

bias f4 [15]
-0.06765366 0.108034424 0.10519196 -0.04590168 -0.004491655 0.06055957 -0.09195804 -0.034945734
0.045184586 -0.11884692 -0.07085241 0.009999234 0.114100866 -0.025847537 -0.05122444
00000000: 018e 8abd 2741 dd3d e26e d73d 6603 3cbd
00000010: bc2e 93bb 500d 783d 7f54 bcbd 4223 0fbd
00000020: 7913 393d 0466 f3bd 111b 91bd d4d3 233c
00000030: b7ad e93d 37be d3bc b8d0 51bd

weight f4 [15, 163]
0.10078723 0.01032173 0.087642476 0.076349534 0.07671259 0.06402659 0.089404665 0.07282786
0.21157098 0.21492718 0.21960685 0.21315812 0.2100693 0.23728164 0.30984518 0.2660539
-0.06720196 0.09054621 0.18718381 0.11982785 0.07599498 0.1373091 0.22835098 0.07859562
-0.08264037 0.009350309 0.15542959 -0.013998202 0.12865965 -0.079127744 0.41514298 0.030200439
0.017139211 -0.018781582 0.35750195 0.10527785 0.1402955 0.1510684 0.15577002 0.18419857
0.06140786 0.069973834 0.12141068 0.12549613 0.16379292 0.22015865 0.16969065 0.09619237
0.1884822 0.1679674 0.030899778 0.13602462 0.1308298 -0.02712338 0.030297615 -0.03975784
-0.045787994 0.44030488 -0.15919998 0.036778104 -0.13088658 0.028369464 0.12654604 0.4328072
0.006917916 0.14117615 0.13882558 0.03420781 0.014967364 0.0058802613 0.027320532 -0.0034002422
0.049420312 -0.02020925 0.024111401 0.012747224 -0.0056598256 0.024038797 -0.05431169 0.098194994
0.40803945 -0.25922167 -0.005639284 0.0020205309 0.1262302 0.103814945 0.24810684 0.016552879
-0.013712411 -0.0040065893 0.47492513 0.33074513 -0.04273893 0.41246733 0.19107814 -0.015333936
0.05346928 -0.016541222 -0.029611064 -0.13093278 0.077024125 -0.024106968 -0.18640846 -0.1317098
0.0072186003 0.12785092 0.31971213 0.029475195 0.19067867 0.08792358 0.11004807 0.01254247
0.047039997 0.007763395 -0.028512696 0.07147546 0.0054976405 -0.00094544 0.044508185 0.027025126
-0.009457092 -0.012691229 -0.00198795 0.4307523 -0.17165056 0.016156731 -0.02036523 0.080866665
0.10311814 0.24106559 0.009525088 -0.011944106 0.019342221 0.17752266 0.21462761 -0.09986927
0.071386136 -0.010935377 0.08544338 0.05493348 0.091661274 0.086430475 0.08981598 0.07559625
0.094992824 0.115873754 0.071895085 0.12692596 0.07116017 0.034019943 0.06855553 0.09447956
0.089225054 0.09723296 0.11296925 0.111793645 0.098459736 0.08153229 0.14679934 0.17703557
0.21296272 0.18071467 0.12115686 -0.24995093 -0.21257937 -0.28193223 -0.28917596 -0.24125463
-0.30938008 -0.24701019 -0.2923986 -0.37106308 -0.32639602 -0.39202437 -0.4349638 -0.40506995
-0.43752983 -0.35233486 -0.3438919 -0.07712149 -0.2825867 -0.21041952 -0.3126762 -0.1692074
-0.3059413 -0.32874075 -0.18001238 -0.21749155 -0.02173699 -0.10459853 0.026666956 -0.21897484
-0.17468663 -0.14061584 -0.3743575 -0.12168952 -0.017603835 -0.16821738 -0.29658413 -0.19122678
-0.16666503 -0.12162415 -0.17215183 -0.16506964 -0.11631198 -0.27808857 -0.20459765 -0.24312277
-0.25758058 -0.10684579 -0.21951626 -0.27979925 -0.25995296 -0.24774118 -0.29822373 -0.29237935
0.00018986939 0.02647983 -0.18389864 -0.13662283 -0.5230547 0.0513511 -0.10455669 0.07764533
-0.011907609 -0.13027668 -0.22651628 0.017392423 -0.16294177 -0.19557934 -0.015900383 0.00048084505
0.10962719 -0.009284766 -0.02398142 0.020876676 -0.07254971 -0.024413437 -0.04062181 -0.014791076
-0.021519283 0.0023579563 -0.29461262 -0.38164383 0.049860846 -0.20341659 0.014081748 -0.14689326
-0.04823744 -0.027037406 -0.026513385 -0.019161738 -0.009325419 -0.23981012 -0.35429284 -0.09084402
00000000: 8969 ce3d 791c 293c e67d b33d 255d 9c3d
00000010: 7e1b 9d3d 5f20 833d cb19 b73d c626 953d
00000020: 10a6 583e df15 5c3e 9ee0 603e 1f46 5a3e
00000030: 681c 573e f5f9 723e 07a4 9e3e 3738 883e
00000040: 2ea1 89bd 4b70 b93d 1dad 3f3e 4e68 f53d
00000050: 42a3 9b3d c29a 0c3e d7d4 693e bef6 a03d
00000060: 5b3f a9bd 0a32 193c ef28 1f3e b758 65bc
00000070: 5bbf 033e ba0d a2bd 9f8d d43e e966 f73c
00000080: 8867 8c3c d5db 99bc 7f0a b73e ea9b d73d
00000090: a0a9 0f3e adb1 1a3e 2d82 1f3e 8d9e 3c3e
000000a0: cf86 7b3d 714e 8f3d 2aa6 f83d 0f82 003e
000000b0: 55b9 273e 4571 613e 63c3 2d3e 8100 c53d
000000c0: 7a01 413e a5ff 2b3e 8821 fd3c 0a4a 0b3e
000000d0: 3ff8 053e da31 debc b432 f83c 1ed9 22bd
000000e0: 318c 3bbd a46f e13e 5205 23be a3a4 163d
000000f0: 2207 06be 1467 e83c 4995 013e e898 dd3e
00000100: afaf e23b 7b90 103e 4b28 0e3e 7d1d 0c3d
00000110: ad39 753c 35af c03b 4fcf df3c 99d6 5ebb
00000120: f46c 4a3d de8d a5bc 4685 c53c bcd9 503c
00000130: 0f76 b9bb 03ed c43c ef75 5ebd 751a c93d
00000140: 8cea d03e b4b8 84be bec9 b8bb e26a 043b
00000150: 7d42 013e ee9c d43d b80f 7e3e e799 873c
00000160: 05aa 60bc b549 83bb 6329 f33e 6d57 a93e
00000170: 040f 2fbd eb2e d33e fda9 433e 303b 7bbc
00000180: 9b02 5b3d 7581 87bc e792 f2bc 3e13 06be
00000190: d3be 9d3d fa7b c5bc dce1 3ebe efde 06be
000001a0: 028a ec3b 5aeb 023e 4fb1 a33e f775 f13c
000001b0: 4541 433e 4711 b43d e260 e13d ef7e 4d3c
000001c0: 03ad 403d 1464 fe3b 7593 e9bc ba61 923d
000001d0: 8d25 b43b 68d7 77ba 374e 363d cc63 dd3c
000001e0: ebf1 1abc dfee 4fbc 4448 02bb 918b dc3e
000001f0: 2ac5 2fbe 1f5b 843c fcd4 a6bc 6c9d a53d
00000200: 9a2f d33d e6d9 763e 1d0f 1c3c 36b1 43bc
00000210: 9473 9e3c 80c8 353e 57c7 5b3e 4388 ccbd
00000220: e532 923d 4c2a 33bc f0fc ae3d ee01 613d
00000230: e8b8 bb3d 7602 b13d 71f1 b73d 35d2 9a3d
00000240: 998b c23d 384f ed3d bb3d 933d e1f8 013e
00000250: 6cbc 913d 7f58 0b3d d766 8c3d 807e c13d
00000260: a0bb b63d 1322 c73d 6c5c e73d 11f4 e43d
00000270: 42a5 c93d 67fa a63d 9152 163e d048 353e
00000280: e612 5a3e 440d 393e 1621 f83d 23f3 7fbe
00000290: 68ae 59be 6c59 90be df0e 94be 740b 77be
000002a0: 1167 9ebe 3df0 7cbe 45b5 95be fbfb bdbe
000002b0: 611d a7be 6bb7 c8be 93b3 debe 5465 cfbe
000002c0: e903 e0be 3c65 b4be 9912 b0be dff1 9dbd
000002d0: 34af 90be 3778 57be 1817 a0be b444 2dbe
000002e0: 57a4 9cbe b550 a8be 2a55 38be 1bb6 5ebe
000002f0: c611 b2bc c137 d6bd a974 da3c f13a 60be
00000300: 0de1 32be 99fd 0fbe c9ab bfbe 5b38 f9bd
00000310: eb35 90bc 2d41 2cbe e0d9 97be f4d0 43be
00000320: 3daa 2abe 1516 f9bd 9248 30be 0408 29be
00000330: fa34 eebd a061 8ebe 0c82 51be 2df5 78be
00000340: 9ae1 83be f7d1 dabd dfc8 60be d941 8fbe
00000350: 8e18 85be ddaf 7dbe c8b0 98be bfb2 95be
00000360: ad17 4739 3aec d83c ed4f 3cbe dbe6 0bbe
00000370: eae6 05bf 8855 523d d121 d6bd 8404 9f3d
00000380: 2218 43bc 4067 05be e2f3 67be 8e7a 8e3c
00000390: 35da 26be f345 48be 8541 82bc ee19 fc39
000003a0: 3884 e03d 221f 18bc af74 c4bc 9005 ab3c
000003b0: f194 94bd b0fe c7bc 0e63 26bd 4556 72bc
000003c0: 3549 b0bc f187 1a3b 77d7 96be d266 c3be
000003d0: e33a 4c3d 704c 50be 22b7 663c 306b 16be
000003e0: 9f94 45bd 8d7d ddbc 9932 d9bc 14f9 9cbc
000003f0: a4c9 18bc c990 75be df65 b5be 6e0c babd

bias f4 [15]
0.086552545 -0.2690646 0.014150635 0.031540226 0.29203933 -0.01951573 0.4567335 0.0673884
0.039983127 -0.19137749 0.13292447 -0.26874334 -0.20191123 -0.05169497 -0.14303568
00000000: 7642 b13d d6c2 89be 11d8 673c 5330 013d
00000010: 2e86 953e 74df 9fbc f9d8 e93e ee02 8a3d
00000020: 59c5 233d 76f8 43be 5a1d 083e ba98 89be
00000030: d1c1 4ebe 1bbe 53bd f277 12be

weight f4 [15, 9]
-0.195389 -0.12839764 -0.11503403 0.03797189 0.056967966 0.13731152 0.0008294373 -0.089701265
0.06363932 -0.079404004 -0.11659543 -0.029240513 0.080129325 -0.23657684 -0.3170013 0.028973443
-0.036357 0.14547664 -0.23194167 -0.059530064 -0.24926183 -0.037747834 0.035499536 0.09860116
0.04547336 0.07939728 0.07237553 -0.16254427 0.011411331 0.016738228 0.038029995 -0.26581678
0.13148256 0.011470774 0.023614908 0.0042636767 -0.07836106 0.038263064 0.025979144 0.04219484
-0.111253306 0.00043614206 -0.09152937 -0.17639755 -0.10356672 -0.11655959 -0.08899872 -0.15219046
-0.14692353 0.19630055 -0.09064652 -0.050407797 -0.22968382 0.25364208 0.10739706 -0.018116238
0.15686695 0.043587998 -0.012568866 0.2443707 0.10938114 0.05700063 -0.19787702 -0.06523719
-0.13001035 0.094005115 -0.03425969 -0.044165377 0.008155496 -0.014695303 0.11554164 -0.06259752
-0.10312065 -0.13272123 0.011571831 -0.1197478 -0.13967104 -0.2196173 0.028007602 -0.12392287
-0.13440394 -0.081233636 0.0051048365 -0.05768523 -0.0064497273 -0.14696611 -0.27141228 0.07819991
-0.26904514 -0.15544944 -0.14751633 -0.041266188 -0.043775987 -0.14626302 0.035212196 0.041431528
0.014264441 -0.12714191 0.065275155 0.07208462 -0.06814495 -0.06725821 -0.12942013 -0.03068236
-0.0460486 0.08100525 -0.2877301 -0.03082584 -0.09091028 -0.11423168 -0.10683809 -0.21378893
-0.03826041 -0.035569444 -0.091922075 -0.027287293 -0.05918614 -0.16038144 -0.13722055 -0.12341182
0.061454434 -0.18716745 -0.08503308 -0.10870794 -0.05101417 -0.18480395 -0.0027604701 -0.052676797
0.110909864 0.17721803 -0.47618496 -0.30861273 0.08951916 -0.26991415 -0.14571361
00000000: 0e14 48be ac7a 03be f696 ebbd 6a88 1b3d
00000010: 3e57 693d 649b 0c3e 986e 593a 4cb5 b7bd
00000020: 5555 823d 919e a2bd 96c9 eebd cd89 efbc
00000030: d81a a43d 3341 72be ff4d a2be b759 ed3c
00000040: 14eb 14bd d4f7 143e 1e82 6dbe ccd5 73bd
00000050: 7e3e 7fbe 799d 1abd f667 113d 68ef c93d
00000060: 4642 3a3d 0b9b a23d 9f39 943d 0172 26be
00000070: 97f6 3a3c 9c1e 893c 57c5 1b3d 2319 88be
00000080: 5da3 063e eaef 3b3c 0d74 c13c 50b6 8b3b
00000090: c37b a0bd bbb9 1c3d 37d2 d43c 7fd4 2c3d
000000a0: c6d8 e3bd ffa9 e439 c073 bbbd 8fa1 34be
000000b0: ca1a d4bd cbb6 eebd f644 b6bd d1d7 1bbe
000000c0: 1f73 16be 0303 493e e2a4 b9bd 6878 4ebd
000000d0: 3c32 6bbe 60dd 813e fdf2 db3d 8168 94bc
000000e0: bba1 203e 5489 323d a5ed 4dbc 503c 7a3e
000000f0: 3803 e03d 7e79 693d 46a0 4abe 139b 85bd
00000100: 6f21 05be c185 c03d e453 0cbd c1e6 34bd
00000110: a19e 053c 91c4 70bc 18a1 ec3d 2133 80bd
00000120: eb30 d3bd 13e8 07be c797 3d3c 563e f5bd
00000130: ed05 0fbe 5ce3 60be 3370 e53c 46cb fdbd
00000140: 30a1 09be d25d a6bd 7946 a73b 5947 6cbd
00000150: 3c58 d3bb 497e 16be 8df6 8abe 4627 a03d
00000160: 49c0 89be 232e 1fbe 850e 17be bc06 29bd
00000170: 734e 33bd f9c5 15be aa3a 103d 1bb4 293d
00000180: 67b5 693c 7d31 02be fbae 853d 1aa1 933d
00000190: 948f 8bbd acbe 89bd b686 04be 9359 fbbc
000001a0: 759d 3cbd 15e6 a53d 5c51 93be 7986 fcbc
000001b0: 2b2f babd 4df2 e9bd eecd dabd 7ceb 5abe
000001c0: f3b6 1cbd 44b1 11bd a441 bcbd 9a89 dfbc
000001d0: 2a6d 72bd 083b 24be 8b83 0cbe 56bf fcbd
000001e0: a5b7 7b3d d3a8 3fbe d325 aebd 45a2 debd
000001f0: 3cf4 50bd 3f3d 3dbe 01e9 34bb a0c3 57bd
00000200: b624 e33d a578 353e 84ce f3be 7d02 9ebe
00000210: d255 b73d 3032 8abe f335 15be

bias f4 [15]
-0.12956798 -0.11104332 -0.24276991 0.020304235 0.11781718 0.023746863 0.0640973 0.038414106
0.056539763 0.06199874 0.04638222 -0.045905083 -0.1848055 0.004614563 0.081938
00000000: 78ad 04be ae6a e3bd ad98 78be 1155 a63c
00000010: 224a f13d c888 c23c 7245 833d 1c58 1d3d
00000020: 3d96 673d 64f2 7d3d 48fb 3d3d f806 3cbd
00000030: a73d 3dbe c335 973b 1ccf a73d

weight f4 [15, 9]
-0.021718942 0.06541169 0.065071575 0.10702547 0.024663877 -0.016514141 -0.056375213 0.11954605
0.021264354 0.092929855 -0.008102005 0.09619236 0.084468916 -0.059362087 0.1049574 -0.017316112
0.11896754 -0.12032571 -0.054411337 0.0067292205 -0.1087192 -0.063642256 -0.04088337 0.10482816
-0.0065411455 0.036114316 0.06768656 0.008657338 0.094681464 -0.05132793 0.108350076 -0.04213288
0.08254815 -0.0021048575 -0.023616087 -0.09130995 0.021662809 0.06443895 -0.0688027 -0.055314433
-0.0976959 -0.04728579 -0.01133084 -0.077360496 -0.046017062 -0.004427593 0.12440595 -0.0301739
0.07802831 0.08907302 -0.03717744 0.033796724 -0.07880653 -0.052037165 0.13323595 0.017730659
-0.0134250475 -0.009039062 0.02756836 0.077615395 -0.03381313 0.043650534 -0.064554445 -0.11672829
-0.0644814 -0.005832526 -0.01940008 0.11347425 -0.0051731663 0.01751479 -0.031087883 0.117045835
-0.011227215 -0.010961598 -0.06277684 0.04219566 0.014299415 -0.098055266 -0.05492817 0.03999109
0.025850087 0.13736154 -0.025728056 -0.038512234 0.060528185 -0.0892255 0.0007252999 -0.01045347
-0.11432998 0.08567744 -0.052033667 0.07927995 -0.10087351 -0.00015484917 0.0627936 0.10279432
-0.109410636 -0.1271845 -0.07263144 0.12609762 -0.06722027 0.049947795 0.02589645 -0.0827581
-0.117733076 -0.0774809 0.08772707 -0.051645923 0.1457899 -0.11470324 -0.09084541 -0.044490602
0.05222408 0.11866038 -0.037678156 -0.051490102 0.04999269 0.044457663 0.122623906 0.0004228939
0.06895881 -0.084410064 -0.097064614 -0.05696261 0.022750668 -0.0516454 0.06910646 0.06644586
0.040232975 0.05340822 -0.11923843 0.10388247 0.1207368 -0.12330177 0.000508288
00000000: eceb b1bc 90f6 853d 3f44 853d 2b30 db3d
00000010: e60b ca3c aa48 87bc b2e9 66bd 8fd4 f43d
00000020: 9532 ae3c 0252 be3d 46be 04bc 8000 c53d
00000030: 0afe ac3d a925 73bd e8f3 d63d 85da 8dbc
00000040: 41a5 f33d 536d f6bd 6cde 5ebd cb80 dc3b
00000050: 2ca8 debd df56 82bd 5275 27bd 25b0 d63d
00000060: 1b57 d6bb 9bec 133d 409f 8a3d 82d7 0d3c
00000070: 5be8 c13d 3c3d 52bd a5e6 dd3d 8793 2cbd
00000080: 010f a93d a6f1 09bb 8676 c1bc b600 bbbd
00000090: 3476 b13c 91f8 833d 6ee8 8cbd 6391 62bd
000000a0: ca14 c8bd bfae 41bd fda4 39bc 2e6f 9ebd
000000b0: 637c 3cbd 5815 91bb 8cc8 fe3d 412f f7bc
000000c0: 4ecd 9f3d ea6b b63d 5f47 18bd 6f6e 0a3d
000000d0: 5165 a1bd ec24 55bd 016f 083e e33f 913c
000000e0: bbf4 5bbc 9318 14bc 0bd7 e13c d2f4 9e3d
000000f0: a37f 0abd e7ca 323d 1f35 84bd 3e0f efbd
00000100: d30e 84bd c61e bfbb ebec 9ebc 3065 e83d
00000110: aa83 a9bb 2d7b 8f3c 04ac febc bab5 ef3d
00000120: 5af2 37bc 4698 33bc 2591 80bd 5bd5 2c3d
00000130: 1848 6a3c 33d1 c8bd 5cfc 60bd b2cd 233d
00000140: 90c3 d33c 81a8 0c3e a5c3 d2bc 01bf 1dbd
00000150: 67ec 773d dcbb b6bd 0d22 3e3a 0845 2bbc
00000160: d625 eabd a777 af3d 4121 55bd 875d a23d
00000170: c596 cebd 025f 22b9 ee99 803d d485 d23d
00000180: af12 e0bd a73c 02be cbbf 94bd bc1f 013e
00000190: c8aa 89bd 0f96 4c3d cb24 d43c 147d a9bd
000001a0: 0a1e f1bd 4eae 9ebd 40aa b33d ad8a 53bd
000001b0: f349 153e 88e9 eabd 290d babd c73b 36bd
000001c0: ebe8 553d 3704 f33d 6954 1abd 49e7 52bd
000001d0: 23c5 4c3d 3d19 363d 3e22 fb3d dcb7 dd39
000001e0: 473a 8d3d 2fdf acbd d0c9 c6bd a051 69bd
000001f0: 9c5f ba3c 208a 53bd b087 8d3d c414 883d
00000200: 55cb 243d 94c2 5a3d 4733 f4bd 55c0 d43d
00000210: db44 f73d a385 fcbd a13e 053a

bias f4 [15]
0.016287468 0.09123263 0.05194219 0.044841047 0.12846288 0.07945614 0.08659827 -0.1295265
0.022385623 -0.015706018 -0.072792046 0.11572645 0.059629057 -0.0038138337 0.046669062
00000000: 4c6d 853c 2cd8 ba3d 55c1 543d 3fab 373d
00000010: c68b 033e e7b9 a23d 6f5a b13d 98a2 04be
00000020: 0e62 b73c e8a9 80bc ff13 95bd fd01 ed3d
00000030: 993d 743d 83f1 79bb 0f28 3f3d

weight f4 [15, 9]
-0.06539032 0.024036711 -0.016681535 -0.01028709 0.0009685915 0.097327575 0.06278257 0.04404323
-0.025980307 0.019777587 0.10387022 -0.0826991 -0.03629346 -0.009755338 -0.058325134 -0.055449836
0.005030073 0.04048393 0.026348652 0.1002248 0.11573721 0.112698376 0.05643781 -0.06290509
-0.02385364 -0.036562815 -0.09452531 0.0033945844 -0.023820942 0.025504695 -0.12366079 0.009390897
0.025750784 0.045527965 0.040840067 0.018949335 -0.010613989 -0.003310337 0.10799038 -0.04883111
0.1254701 -0.098936744 0.12660335 -0.010338413 0.010360138 0.073251545 -0.053504065 0.11255916
-0.067573026 -0.094966374 0.034952503 0.028623123 -0.04685503 0.0023891777 0.10620248 -0.06941326
-0.10439504 0.04396924 -0.026795365 0.07096461 0.11240191 0.095040046 0.08127473 -0.08005168
-0.056561977 0.011855949 0.1235061 0.057046942 0.020317955 -0.09922792 -0.0036873496 0.054311603
0.038130265 0.05519887 -0.066058606 -0.057842147 0.09169349 -0.118502885 -0.0060755224 -0.11646599
0.05104041 0.13751347 0.092801064 -0.10473212 0.10456583 -0.11011763 -0.050030343 0.060450625
0.06522146 -0.08947446 -0.029795354 -0.0042652595 0.04655396 -0.02721744 0.10466615 -0.088617064
0.09827981 0.101793624 0.06203021 0.12754223 -0.10065775 -0.0752442 0.032252807 -0.08405071
-0.098862536 -0.09037171 0.09658812 -0.038300436 0.13508244 -0.09367698 0.048653666 -0.110979274
0.045488033 -0.122610494 0.066087306 -0.091936104 0.07925812 0.040903766 0.1269088 -0.07026677
-0.11824189 0.056347843 0.0136165265 0.09232525 0.061903846 0.11270293 -0.04004632 0.00033552136
0.09702062 0.030520145 0.06529474 0.09980152 0.12622802 0.06005993 0.011269711
00000000: 5ceb 85bd a3e8 c43c b7a7 88bc 2f8b 28bc
00000010: 13e9 7d3a ae53 c73d 2694 803d ad66 343d
00000020: a7d4 d4bc 9b04 a23c e9b9 d43d 255e a9bd
00000030: 73a8 14bd dad4 1fbc 56e6 6ebd 5e1f 63bd
00000040: 50d3 a43b 7ad2 253d 21d9 d73c a942 cd3d
00000050: a107 ed3d 68ce e63d 552b 673d 62d4 80bd
00000060: b568 c3bc e4c2 15bd 7c96 c1bd ad77 5e3b
00000070: 2324 c3bc 39ef d03c de41 fdbd 47dc 193c
00000080: 4ff3 d23c 887b 3a3d ea47 273d a33b 9b3c
00000090: 4ce6 2dbc 3df2 58bb 0f2a dd3d 2103 48bd
000000a0: 3c7b 003e 599f cabd 4fa4 013e 7262 29bc
000000b0: 91bd 293c e804 963d 1427 5bbd 6b85 e63d
000000c0: ba63 8abd bb7d c2bd 5b2a 0f3d 0a7b ea3c
000000d0: 0feb 3fbd c093 1c3b b080 d93d 8a28 8ebd
000000e0: 11cd d5bd 1719 343d f481 dbbc e555 913d
000000f0: f932 e63d 5ba4 c23d 5e73 a63d 23f2 a3bd
00000100: 88ad 67bd 743f 423c c4f0 fc3d 0eaa 693d
00000110: d771 a63c 0238 cbbd 76a7 71bb d875 5e3d
00000120: 7b2e 1c3d 3618 623d bc49 87bd e3eb 6cbd
00000130: ccc9 bb3d a4b1 f2bd 2d15 c7bb b985 eebd
00000140: c00f 513d 55d0 0c3e 7c0e be3d cb7d d6bd
00000150: 9c26 d63d 5a85 e1bd 9eec 4cbd 139b 773d
00000160: d492 853d 633e b7bd 6315 f4bc 97c3 8bbb
00000170: 5daf 3e3d 1cf7 debc 355b d63d dd7c b5bd
00000180: ed46 c93d 2d79 d03d 6413 7e3d 6e9a 023e
00000190: a725 cebd a219 9abd 851b 043d c722 acbd
000001a0: 7178 cabd ce14 b9bd fecf c53d ebe0 1cbd
000001b0: 0d53 0a3e b7d9 bfbd 1149 473d 1a49 e3bd
000001c0: a951 3a3d 361b fbbd c858 873d ff48 bcbd
000001d0: 1552 a23d b58a 273d 61f4 013e 06e8 8fbd
000001e0: ce28 f2bd ffcc 663d da17 5f3c 0515 bd3d
000001f0: e38e 7d3d cbd0 e63d 9c07 24bd eae8 af39
00000200: bfb2 c63d 6205 fa3c 40b9 853d bd64 cc3d
00000210: eb41 013e 6701 763d 98a4 383c

bias f4 [15]
-0.02216079 0.09152133 -0.006305923 -0.051389966 -0.06009748 -0.10946903 0.11481953 -0.064118505
0.026857426 0.05019296 0.0046257963 0.09308082 -0.08253472 0.04520448 -0.013166757
00000000: 8c8a b5bc 896f bb3d eba1 cebb 497e 52bd
00000010: c628 76bd 4c31 e0bd 8026 eb3d 9050 83bd
00000020: 1b04 dc3c 2297 4d3d fe93 973b 28a1 be3d
00000030: f707 a9bd 5528 393d 62b9 57bc

weight f4 [15, 9]
-0.018474244 -0.10799665 -0.07867361 -0.15037772 -0.020688724 0.22632201 0.12322724 -0.108147725
0.0040027034 0.07335052 0.019600777 0.033859752 0.016234592 -0.21422444 -0.21679208 0.09335062
-0.091164485 0.21822283 0.001997269 -0.09354904 -0.104580544 -0.037970696 -0.011940092 0.0255946
0.062072113 0.1967396 0.18087912 -0.019116124 0.061579756 -0.13960803 -0.14252295 0.08555907
0.040879622 -0.07229242 0.004236708 0.025714682 0.04285715 -0.03621564 0.1269173 -0.031294286
-0.019568563 0.018087545 -0.06740029 0.04294448 0.058606125 0.036668446 -0.051098615 -0.14231429
0.06579942 0.08004081 -0.16410139 0.004843963 -0.061832123 -0.19002052 0.004097701 0.0011500078
0.088063635 0.002208036 0.025101073 0.076932855 0.023536582 0.018221002 0.2011196 0.018292
0.026667064 -0.0011484596 -0.13757588 -0.021142855 -0.073215626 -0.099210694 0.06638668 -0.048730846
-0.06693827 -0.048314095 -0.014557529 -0.055576842 -0.27678272 -0.20265512 -0.08025711 -0.2548506
-0.24315977 -0.06429845 0.03166329 -0.03755227 0.039612893 -0.20327923 -0.18404919 -0.037043262
-0.27064946 -0.06489967 -0.018064432 -0.187859 -0.124136895 -0.07555905 -0.2162216 -0.15830503
-0.12954415 -0.09454356 0.0134465 -0.13790756 -0.11260638 -0.10287591 -0.16840136 -0.062144358
0.01374712 0.08170308 -0.24370678 -0.23150852 -0.2606798 -0.23536076 -0.23204759 -0.1364343
-0.23953179 -0.22294609 -0.12570722 0.030352267 0.09398832 -0.11917395 0.052980382 -0.04202951
-0.07411144 -0.1111244 -0.15245043 -0.030742457 -0.11573243 -0.32222027 0.17596859 0.03079471
-0.02526719 0.13515499 -0.04609671 -0.22762239 0.062149145 -0.24131145 -0.15936343
00000000: 4c57 97bc 592d ddbd a11f a1bd 9efc 19be
00000010: 667b a9bc f5c0 673e 905e fc3d 8e7c ddbd
00000020: 1c29 833b cc38 963d cf91 a03c 86b0 0a3d
00000030: 68fe 843c a75d 5bbe befe 5dbe 9c2e bf3d
00000040: 72b4 babd ce75 5f3e 9de4 023b a496 bfbd
00000050: 532e d6bd 2987 1bbd 60a0 43bc c4ab d13c
00000060: 543f 7e3d 1b76 493e 6038 393e 6b99 9cbc
00000070: 0e3b 7c3d 68f5 0ebe 89f1 11be 9839 af3d
00000080: 6471 273d 0c0e 94bd 15d4 8a3b 99a7 d23c
00000090: fb8a 2f3d da56 14bd 9cf6 013e 702e 00bd
000000a0: 404e a0bc 552c 943c 2a09 8abd 8de6 2f3d
000000b0: fa0c 703d a731 163d c84c 51bd d6ba 11be
000000c0: d9c1 863d 70ec a33d 320a 28be 1bba 9e3b
000000d0: ae43 7dbd bd94 42be 0246 863b dcbb 963a
000000e0: b55a b43d b2b4 103b c4a0 cd3c f98e 9d3d
000000f0: cacf c03c 3644 953c 4cf2 4d3e 1bd9 953c
00000100: e374 da3c e987 96ba b1e0 0cbe c833 adbc
00000110: 13f2 95bd fa2e cbbd bdf5 873d ff99 47bd
00000120: ef16 89bd 00e5 45bd b482 6ebc 8ba4 63bd
00000130: 77b6 8dbe d384 4fbe d75d a4bd c77b 82be
00000140: e0fe 78be e8ae 83bd 5eb1 013d 69d0 19bd
00000150: 2141 223d 6e28 50be 6477 3cbe adba 17bd
00000160: 9192 8abe 1eea 84bd dcfb 93bc 1c5e 40be
00000170: 7c3b febd b4be 9abd 3269 5dbe b71a 22be
00000180: 39a7 04be 0ea0 c1bd b54e 5c3c a437 0dbe
00000190: 2c9e e6bd 9bb0 d2bd 6871 2cbe 158b 7ebd
000001a0: 9a3b 613c f253 a73d 458e 79be 9210 6dbe
000001b0: d377 85be 6902 71be e29d 6dbe 6fb5 0bbe
000001c0: d247 75be fb4b 64be 65b9 00be 51a5 f83c
000001d0: f37c c03d 7911 f4bd f501 593d 2327 2cbd
000001e0: bdc7 97bd 3095 e3bd f71b 1cbe 9bd7 fbbc
000001f0: 2005 edbd 0efa a4be 1c31 343e 3045 fc3c
00000200: 23fd cebc 1266 0a3e e7cf 3cbd d815 69be
00000210: 1a90 7e3d 591a 77be 2b30 23be

bias f4 [15]
-0.0771458 0.009080329 -0.22016571 -0.12869035 0.016230427 0.06157399 0.012995205 -0.0710122
0.08821949 -0.020072583 -0.07468221 -0.06948373 -0.11911481 0.0026507415 0.041827213
00000000: 9efe 9dbd a9c5 143c 1f73 61be 67c7 03be
00000010: acf5 843c 0235 7c3d d7e9 543c d86e 91bd
00000020: 6cac b43d 426f a4bc fdf2 98bd 7c4d 8ebd
00000030: 77f2 f3bd 10b8 2d3b 0353 2b3d

weight f4 [15, 9]
0.0066298153 -0.17597461 -0.14352399 0.07454828 0.2729566 0.124164045 -0.112511404 -0.24286287
0.06603427 -0.039560303 0.0042001633 0.052516863 -0.026604092 -0.12305702 -0.411689 0.1100821
-0.21235414 0.18731155 -0.25183946 -0.08227878 -0.17136388 -0.16800532 -0.12246937 -0.078727596
0.067452036 0.0015071577 0.20644009 -0.22424366 -0.1094527 -0.14791527 0.04848656 -0.11344933
-0.045119792 -0.045899812 -0.04276151 0.036527243 -0.07130309 0.035451584 -0.07608848 -0.07722671
-0.24823454 0.1537932 -0.048558317 -0.17677745 0.017418168 -0.18639764 0.030162217 -0.108261086
-0.101758644 0.021300578 -0.11419538 0.040685773 -0.17549999 0.4303757 0.1604304 0.110497236
0.18416585 -0.03251116 -0.12971601 0.08105783 0.0638938 0.19707341 -0.10992501 -0.07972805
-0.13400523 -0.058790803 -0.16107887 -0.0424164 -0.053818434 0.055780735 0.041561853 0.061034564
-0.044447176 -0.13620742 0.033191465 0.0077787824 -0.19162114 -0.23559682 0.067138605 -0.34844306
-0.18798159 -0.07798576 0.0041574817 0.064261764 -0.06966437 -0.1703213 -0.035662983 -0.10986257
-0.15874673 -0.16428062 -0.13227239 -0.0784655 -0.0955003 -0.16985244 0.014494561 0.08335584
-0.027002022 0.022170845 -0.049110804 0.053039175 0.053306766 0.004333592 -0.07645321 -0.09865374
-0.08296951 0.030908125 -0.057374347 0.0289919 -0.196185 -0.03054551 -0.19997784 -0.014382805
0.01901505 -0.27992144 0.046825513 -0.002105331 0.01839857 0.02048576 -0.00085132907 -0.038026262
0.06281432 -0.24471597 -0.14939006 0.12427592 -0.060732298 -0.19170654 0.054224852 0.111597076
0.16512041 5.152271e-05 -0.5500345 -0.24916784 0.104125 -0.21779045 -0.24615112
00000000: ec3e d93b b032 34be f4f7 12be c5ac 983d
00000010: f8c0 8b3e b849 fe3d 616c e6bd 0bb1 78be
00000020: fa3c 873d fc09 22bd 86a1 893b ec1b 573d
00000030: d3f0 d9bc 5205 fcbd e7c8 d2be b972 e13d
00000040: 5d73 59be 99ce 3f3e 1af1 80be c781 a8bd
00000050: 037a 2fbe 9609 2cbe 39d1 fabd ef3b a1bd
00000060: 4b24 8a3d d28b c53a 0865 533e 21a0 65be
00000070: bd28 e0bd 1a77 17be d899 463d 1f58 e8bd
00000080: 88cf 38bd 7101 3cbd b126 2fbd 979d 153d
00000090: 5b07 92bd ae35 113d 47d4 9bbd 0a29 9ebd
000000a0: 3231 7ebe f77b 1d3e 16e5 46bd 2605 35be
000000b0: 8cb0 8e3c 06df 3ebe c116 f73c fdb7 ddbd
000000c0: d666 d0bd 8d7e ae3c 44df e9bd 20a6 263d
000000d0: 45b6 33be 345a dc3e de47 243e 604c e23d
000000e0: f995 3c3e 6c2a 05bd 46d4 04be a601 a63d
000000f0: c1da 823d 9dcd 493e 5d20 e1bd 7648 a3bd
00000100: ab38 09be a0ce 70bd dcf1 24be d2bc 2dbd
00000110: b870 5cbd 577a 643d c33c 2a3d 61ff 793d
00000120: 3e0e 36bd f579 0bbe c6f3 073d 28e5 fe3b
00000130: 5538 44be 4b40 71be f77f 893d 2167 b2be
00000140: 3f7e 40be 00b7 9fbd 7c3b 883b ac9b 833d
00000150: 31ac 8ebd b568 2ebe 5913 12bd a1ff e0bd
00000160: 818e 22be 2e39 28be 6a72 07be 85b2 a0bd
00000170: a995 c3bd cced 2dbe 987a 6d3c 77b6 aa3d
00000180: 5833 ddbc a29f b53c 6928 49bd 9b3f 593d
00000190: 3258 5a3d ce00 8e3b 8093 9cbd f90a cabd
000001a0: ebeb a9bd 0933 fd3c 5d01 6bbd 6c80 ed3c
000001b0: b8e4 48be 943a fabc fec6 4cbe dba5 6bbc
000001c0: 73c5 9b3c dd51 8fbe 1ccc 3f3d 98f9 09bb
000001d0: 99b8 963c c1d1 a73c ba2b 5fba 6dc1 1bbd
000001e0: cba4 803d d396 7abe b5f9 18be 6084 fe3d
000001f0: 6ec2 78bd b84e 44be e11a 5e3d 028d e43d
00000200: 5315 293e 171a 5838 10cf 0cbf db25 7fbe
00000210: 7d3f d53d 7604 5fbe 0a0f 7cbe

bias f4 [15]
-0.1341177 0.01548874 -0.18641976 -0.1941177 -0.02721942 0.017647209 -0.038072478 0.010345918
0.076696105 0.07784629 -0.1260181 0.089829214 -0.21637525 -0.10598541 0.16215959
00000000: 2656 09be 7cc4 7d3c d2e4 3ebe cac6 46be
00000010: 43fb debc e190 903c e3f1 1bbd ed81 293c
00000020: d912 9d3d e06d 9f3d e40a 01be 61f8 b73d
00000030: 7991 5dbe e10e d9bd 2a0d 263e

att f4 [1, 1, 3]
0.7046828 -0.53405213 -0.40639108
00000000: 1866 343f a4b7 08bf 7e12 d0be

bias f4 [3]
0.0 0.0 0.0
00000000: 0000 0000 0000 0000 0000 0000

weight f4 [3, 10]
-0.38402486 0.2066698 0.5942019 -0.20769703 0.66055495 -0.660411 -0.36230752 0.19919504
-0.06622701 -0.45046538 -0.4957661 -0.31851998 0.30737433 0.10377976 0.5382083 0.39000893
0.602452 -0.021527618 0.44564256 -0.5247385 -0.5659202 0.23688224 -0.6321657 0.117968075
0.36053282 0.50894463 0.50556415 -0.5198358 0.10553426 0.28762653
00000000: e89e c4be 40a1 533e 9e1d 183f 88ae 54be
00000010: 211a 293f b210 29bf 5f80 b9be c9f9 4b3e
00000020: 07a2 87bd 66a3 e6be 0ed5 fdbe 0d15 a3be
00000030: 2b60 9d3e 7c8a d43d 05c8 093f 40af c73e
00000040: 4b3a 1a3f b05a b0bc 432b e43e 4355 06bf
00000050: 25e0 10bf 4291 723e 9cd5 21bf 3f99 f13d
00000060: c297 b83e 324a 023f a76c 013f f613 05bf
00000070: 5922 d83d c943 933e

bias f4 [3]
0.2530757 0.08801042 -0.16656864
00000000: 2393 813e cf3e b43d f890 2abe
