model/gnn/241004_3p/epoch_3.pt (torch, 199196 bytes, 61 tensors)

att f4 [1, 1, 10]
00000000: 3dd5 b93b 9dc8 053d c68c 4cbd 1421 0ebe
00000010: c486 c4bd fa0a efbc 3b03 843d fafb 223e
00000020: 04b1 593b 113e 833d
0.005671172 0.032662023 -0.04993894 -0.13879806 -0.09596017 -0.029180039 0.06445929 0.15916434
0.0033217082 0.064083226

bias f4 [10]
00000000: a068 e73c 9422 67be 3c51 30be 384e 9abb
00000010: 7a6c ac3c 9350 22be 00d8 1a3d 7fb3 143d
00000020: edcf 15bd f15e da3d
0.028248131 -0.22571784 -0.17218488 -0.0047090314 0.02104782 -0.15851049 0.03780365 0.036303993
-0.036575247 0.1066264

weight f4 [10, 163]
00000000: efb8 ac3d e38e 693e 47ab a4be ecd4 d73d
00000010: 16c8 fc3c eccd 4fbc 096e 8e3d 6a73 50bc
00000020: 1bff 9b3f a4d3 1c3f 897b ac3e 2154 db3e
00000030: 0af6 4c3e a35a 583e e9be 1e3e 5a97 073e
00000040: 12f2 d2be cb35 ea3d 6f7e ae3e b5f3 e93e
00000050: 343a ac3e a27c ac3e 536d 813f ae60 013e
00000060: 3e17 c3be f776 663c 4acf 03bf 7015 fe3c
00000070: b155 c8bd 068f 11bf dc35 26bf f36e b53f
00000080: 1f71 743e 844f 363b 64e0 3dbe 1a12 d9bd
00000090: cd31 18bc e11c ff3d 881e 8e3e 7172 d0bd
000000a0: 4d09 8d3d 895d 4cbe 9f30 2dbf 5be3 89be
000000b0: 3e11 f8be c111 d1be 5da5 78bd f99e a3bb
000000c0: 3f13 07be dda0 84be 4ae3 063e 902b 353d
000000d0: 78c3 62bd 7a82 cfbc 0612 19bc 5b54 9e3e
000000e0: ce11 bcbd b696 f73e b3c8 fe3d 8b74 273f
000000f0: 3522 223f 1101 e33c cd6a 683f 5f9a 66bd
00000100: cd54 e73c 8c84 ac3e 82c8 d23d b950 ad3e
00000110: 75a6 ab3f 06c3 0e3f 98d9 1ebc d40f 42be
00000120: 6100 5cbf 9b9f e8be b513 b2ba ad38 3bbf
00000130: 2ed6 313d 1ab5 353d c162 3b3e 171f 823f
00000140: 1ed3 513f 748e e03d 2790 143f 89f2 2dbd
00000150: ee7c 92bf e760 133e 5e66 0a3f 8676 b7bc
00000160: 5ae4 dd3c 469c c7bc ed6f f53d 8027 253f
00000170: ccae 313f fb80 333e d8d9 593f 57bc 1ebc
00000180: 8609 a33f 115c d0bc b1db dc3e a59e e23e
00000190: 4bff 23be 3a2b 9b3e 96f2 853c 7fcc a2be
000001a0: 8d92 e43c 49e5 fdbf 4316 04bf 9ef0 093c
000001b0: e988 383f d0c1 083e 33c5 953e f210 843f
000001c0: f79e b83e 54eb 0abd c51e 6dbc 3ad7 64bf
000001d0: 36a8 ebbe 75e7 ea3c 17c9 2abf 4a27 b63c
000001e0: 325d 083d e9b4 b43e 7a14 393f 21e0 e73d
000001f0: 424e babb dca5 9e3e 7502 1fbc a22b 4bbf
00000200: f75e d0bc 2f72 6a3d 8112 72bc 5e99 f8bc
00000210: b29c d0bc c0d0 e63e 563a 133f 82fd 033f
00000220: 2c1f b83e 2852 da3e 80d8 173d fdf0 13bd
00000230: 0378 943d dec8 95bd a1a6 bcbd c21f 01bd
00000240: 6bbb 5bbd fa9e abbd b8b0 243d 0922 6cbc
00000250: 86a9 1abc 3824 efbd b1c7 b8bd 0563 c5bc
00000260: eb93 963e 74fd b9bd f2ed 1abd 4ebb 82be
00000270: 98a5 c83c dcba 33be 919a 5e3d d345 4bbc
00000280: 18f3 5d3e fcf9 21bf 472f 6cbe bff3 81be
00000290: 8aa1 7dbd 9e96 1cbe 33a2 72be 52d6 82be
000002a0: 6036 4cbe e29d 72be e8f5 46be e6c6 7fbe
000002b0: 1255 a4be c79e b9be 9c96 9ebe 07e1 62be
000002c0: 1e00 acbe 3ae9 99be 4db5 45be 0736 38be
000002d0: 2e69 87be 55dc 69be 0504 68be 59d0 3bbe
000002e0: 1f03 cdbe 139f 9cbe e055 06be 75bb 09be
000002f0: 588b b7bc aeae a1bd 8573 fcbc d905 27be
00000300: dcb5 a9bd 7ecf e43d 86ad 33bf 34d3 27be
00000310: e46b df3b 99f5 c33c 6b6c 8fbe 4419 09be
00000320: d832 52be 0a99 dcbd fd6e 40be d792 4ebe
00000330: d457 b9bc 4145 2cbe 0d9a 1fbe 7d50 84be
00000340: 5a82 d0bd 5e11 45be f098 2dbe 7656 6bbe
00000350: ef57 6dbe b8f9 82be e794 39be 1038 4cbe
00000360: 9f67 6fbb 4df5 613c 1a99 d3bd bf72 48bc
00000370: cf45 0abf 33ac 903e a2aa 7b3e 52bc 583d
00000380: be44 07bd a1e5 71be 8aee 3dbe 0153 afbc
00000390: 9392 7e3c efcb 9ebe 3921 203d 3d85 c6bc
000003a0: b66a 4b3c a9de dd3c f912 d7bc fb17 4b3d
000003b0: adb8 493c 8ae8 da3c 8663 3fbd f719 2b3d
000003c0: ce55 93bc a364 113d 926b bfbc f896 13bf
000003d0: c273 633e 2250 6fbd 3736 e9bc 5b27 743d
000003e0: 7605 a63d 1dea cebd 929b 243d 437e 20bd
000003f0: 7dab 983c 2641 bdbe 16db 91be 50ae 66be
0.08433711 0.22808413 -0.32161924 0.105386585 0.030857127 -0.012683373 0.06954581 -0.012722829
1.2187227 0.6126044 0.33688 0.42837623 0.20015731 0.21128325 0.15502514 0.1324133
-0.4120031 0.114360414 0.34080836 0.45693746 0.33638155 0.33688837 1.0111488 0.12634537
-0.3810367 0.014066449 -0.51488173 0.031016082 -0.09781969 -0.5685886 -0.6492593 1.4174484
0.23871277 0.002781839 -0.1854263 -0.10599156 -0.009289217 0.1245668 0.27757668 -0.10178078
0.068865396 -0.19957556 -0.67652315 -0.2693127 -0.48450655 -0.40833858 -0.060704578 -0.0049933163
-0.13190936 -0.2590398 0.13172641 0.044230998 -0.055362195 -0.02533077 -0.009342676 0.30923733
-0.091830835 0.4835717 0.12440624 0.65412205 0.63333446 0.02771047 0.90787965 -0.056299563
0.028238678 0.33694875 0.1029215 0.3385065 1.3410174 0.5576633 -0.009695433 -0.1895135
-0.8593808 -0.4543427 -0.0013586195 -0.73133355 0.04341715 0.044362165 0.1829939 1.0165738
0.81962764 0.10964671 0.5803246 -0.042467628 -1.1444376 0.14392434 0.5406245 -0.022395384
0.027086426 -0.02436651 0.11984239 0.645134 0.69407344 0.17529671 0.8509803 -0.009688458
1.2737281 -0.025434526 0.4313636 0.4426166 -0.16015355 0.30306417 0.016351026 -0.31796643
0.027901912 -1.9835597 -0.5159647 0.008419184 0.7208391 0.13355184 0.29252014 1.0317671
0.3605878 -0.033915833 -0.014472668 -0.8939091 -0.46026772 0.02867482 -0.6671309 0.022235531
0.033292003 0.35294273 0.7229687 0.11322046 -0.0056855986 0.30985916 -0.009705176 -0.79363453
-0.025435908 0.0572378 -0.0147749195 -0.030346569 -0.025465343 0.4508114 0.5751089 0.515587
0.35961282 0.42640805 0.037071705 -0.036118496 0.07249453 -0.07313703 -0.092114694 -0.031524427
-0.053645533 -0.08379932 0.040207595 -0.0144124115 -0.009439832 -0.1167683 -0.09022463 -0.024095068
0.29409727 -0.090815455 -0.03782458 -0.25533527 0.024493024 -0.1755175 0.054346625 -0.012406784
0.21674764 -0.6327207 -0.2306491 -0.25381276 -0.061921634 -0.15291831 -0.23694687 -0.25554138
-0.19942617 -0.2369304 -0.19429743 -0.24978217 -0.32096153 -0.3625395 -0.3097428 -0.22156154
-0.3359384 -0.3006075 -0.19307442 -0.1798936 -0.26447433 -0.22837956 -0.22657783 -0.18341197
-0.40041444 -0.30590114 -0.13118696 -0.13450415 -0.022405311 -0.07894646 -0.030816803 -0.16310824
-0.0828664 0.111723885 -0.7018665 -0.16389161 0.0068182815 0.023920821 -0.28012404 -0.13388544
-0.20527208 -0.107713774 -0.18792339 -0.20173202 -0.022624888 -0.16823293 -0.1558611 -0.25842658
-0.101811126 -0.19244906 -0.16952872 -0.22982201 -0.23178075 -0.25581145 -0.18123208 -0.19943261
-0.003653027 0.013791394 -0.10331936 -0.012234389 -0.5401277 0.28256378 0.2457681 0.05291397
-0.033024542 -0.23622753 -0.18548027 -0.021401884 0.015537876 -0.31014964 0.039094184 -0.024233455
0.012415579 0.027083712 -0.026254164 0.049583416 0.012312097 0.026722211 -0.046725772 0.04177281
-0.01798525 0.035496365 -0.023366723 -0.57652235 0.22212127 -0.05842603 -0.028468234 0.059607845
0.0810651 -0.10103247 0.040187426 -0.039182913 0.01863646 -0.36963767 -0.28487462 -0.22527432

bias f4 [10]
00000000: 867a 0e3d 807e 69be 9699 22be 83a5 2d3c
00000010: c7ff ec3c 83c8 28be 2596 193d 9240 3c3d
00000020: b429 ccbc f1ea ea3d
0.034784816 -0.22802162 -0.15878901 0.010598543 0.028930558 -0.16482739 0.037496705 0.045960017
-0.02492223 0.11470593

weight f4 [10, 163]
00000000: e2a0 22bc 14f0 1d3d 2d01 063b a002 71bc
00000010: 6066 aa3c ca52 143d 8125 e23c 01df acbc
00000020: d80e 0f3d 063c 35bd f757 233d 179e ecbc
00000030: f8e0 1e3d 643d f83c 0b44 7dbc 4836 873c
00000040: 9e03 043d 50ff 8cbc ec87 0ebd 6827 db3c
00000050: 13b7 c43b 10de 933c 62a9 f8bc 38bf 36bd
00000060: dc23 163d 5d23 033d fb47 813c 61c3 56bb
00000070: e9a7 c3bb 2ee8 edbc 7732 1ebd f27f 533c
00000080: e0b2 bcbc c766 cebb a4fc 81bc fdf7 98bc
00000090: 91fb f53c 385d 0abd 518a fe3c e38f ddba
000000a0: 91d8 21bd 3e63 233d 6bc4 12bd 73cb d43c
000000b0: 6228 2d3d 92b5 b53c 9762 e53c d061 24bd
000000c0: e5b1 793c 8c8f 2bbc 2431 0dbb c6cb cebb
000000d0: 964c 0c3d 077c 13bd ffc4 a7bc f831 91bc
000000e0: f2a5 423b 8d22 a63c 5a56 28bd 6078 0e39
000000f0: ae70 8e3c c7e2 0dbd 8f09 5f3c 8aea 093d
00000100: 26a6 dfbb d577 8c3a 1594 083c 70ff 23bd
00000110: 662f 9038 f427 b0bc a4e1 fe3c 1b99 163d
00000120: e95a 723c cf01 30bb b8b4 c03c 851f 8c3c
00000130: c6c3 383d 0237 e23c 4ab6 09bd 566e 0c3b
00000140: f37b c8ba 6e6a 2dbc 017f 0bbc da5c 6e3c
00000150: 9e4d 15bc dca8 9b3b d720 9e3c 2b47 91bc
00000160: e9f9 bdbc 09ef 26bd dc1c c5bc ff60 e0bc
00000170: 49a3 efbc 7037 d43c 88ec 14bd 0ea9 d73b
00000180: 16f6 2cbd fb49 17bc 9ae5 3f3c a258 a33b
00000190: 5c2a bcbc b60d 193d d04a f9bc 3a8b 093d
000001a0: d2ad 14bd 46fe fa3c 7bba 0abd 02b8 52bc
000001b0: aae0 49bc 4bf1 003d 7479 63bc 1aec 5c3b
000001c0: ee6d ec3c bd21 c0bc 8366 363d b360 90bb
000001d0: 8d7a b2bc aaf0 253c 5ccf e83c 02c8 003d
000001e0: 639a 2ebd f5bf dd3c afed 15bd 8492 11bd
000001f0: f434 14bd 2c1d c7bc 78dc ef3b 7649 203d
00000200: e7ae d4bc 9d42 16bd f084 d73c d279 2b3d
00000210: 7d59 d8bc e2c6 0bbc 38f9 7c3c 1d61 f5bc
00000220: 0d3d f4bc 8005 153d 287b cfbc cbb0 573c
00000230: 9496 d83c b233 eebc b586 963c 2a94 943c
00000240: 92b9 0c3c d67b bfbc 8346 0fbc dca1 e83b
00000250: 6fe5 00bc fe25 ab3c 30a2 263b b166 a23c
00000260: 1639 bf3b 3a0e 213c 350e e5bc c36e 1e3d
00000270: 8091 b1ba 7dbf 5fba e80e b63c 9006 a23a
00000280: 83e6 6f3c 9a31 7cbc cdf2 f5bb a063 9d3c
00000290: 495a 2e3d 529e 2bbd 2901 173d 3a1d 173d
000002a0: a6c7 fc3c 9604 5cbc 5447 d6bc edfd afbc
000002b0: 8545 1f3d 4461 16bd ef3d ad3b c387 5dbc
000002c0: 1af1 e13c 329a 863c 2b15 af3b 139a 3f39
000002d0: b5f9 c4bc 61f1 e33c fd66 18bd 5c9d a93c
000002e0: e450 1f3d 6e3c 0a3c 2935 71bc 1517 2ebc
000002f0: 5c6d 563c 06ce 0cbd 93fa cabc 6be9 e2bb
00000300: 5e05 2cbd f4f7 c83c 3f84 253d d754 103d
00000310: 451b d13c a2b9 ebbc 70c7 183c 984a f0bc
00000320: 256d f73c e877 63ba 8aeb f63c 4944 293d
00000330: 8148 9c3c fcc7 e4bc 0261 e6bc c043 05bc
00000340: 5fd6 563b 1f8e ee3c c87c 20bd 0890 d53c
00000350: bba5 213d 99a3 00bd 77fe f23c 60ef 24bd
00000360: d077 e93a 9e5a ec3b 769e 4abc ca00 c4bc
00000370: d3b4 e0bc 3aca 18bd 663e cfbc a28f ebbc
00000380: f91d 123d b6bd baba 31af c8bc e018 8b3b
00000390: e318 2bbc 4e5d bcbc 9dd9 753b 8c93 593c
000003a0: 1297 fcbb 01ff 8a3c 9090 593c 6636 263d
000003b0: 4560 98bc e2fc 0cbc da72 5ebc 8bcd 62bb
000003c0: b7b3 543c 3412 b2bb 9a97 f1bc 82d9 3cbc
000003d0: c22b 0b3d 01fe ee3c fc8e 2d3d 8687 c3bc
000003e0: 86eb ba3b 9126 2dbd 7572 023d a79d 013c
000003f0: 8c2e 1ebd a790 d4bc d063 bcbc 63e6 313d
-0.009926053 0.038559034 0.0020447478 -0.0147100985 0.02080077 0.036211766 0.027605774 -0.02110243
0.034926265 -0.044246696 0.03987881 -0.028883977 0.038788766 0.03030271 -0.015458117 0.016505376
0.032230012 -0.017211586 -0.034797594 0.026752189 0.0060032695 0.018050224 -0.030354206 -0.044615954
0.036655292 0.032016147 0.015781393 -0.0032770263 -0.005970944 -0.029041376 -0.038622346 0.0129089225
-0.023034513 -0.006298873 -0.015867539 -0.018672938 0.030027183 -0.033780307 0.031071814 -0.0016903843
-0.039513174 0.039889567 -0.03583185 0.025975918 0.04227484 0.022181306 0.028001113 -0.040132344
0.015240167 -0.010471236 -0.0021544183 -0.006310913 0.034252726 -0.036006954 -0.020479677 -0.017724022
0.0029700962 0.020280147 -0.041097976 0.00013587018 0.017387714 -0.0346401 0.013613119 0.03367094
-0.0068252264 0.0010716865 0.008336087 -0.040038526 6.875284e-05 -0.021503426 0.031113453 0.036767107
0.0147921825 -0.0026856547 0.023523673 0.017104873 0.04510858 0.02761412 -0.03362111 0.002142807
-0.0015295729 -0.010584457 -0.008514167 0.014548505 -0.009112744 0.004750354 0.019302769 -0.01773413
-0.023190456 -0.040755305 -0.024061613 -0.027390001 -0.029252665 0.02590534 -0.036358386 0.006581432
-0.042226873 -0.009233947 0.011712456 0.004984931 -0.022969417 0.03736659 -0.030431181 0.033580042
-0.03629858 0.030638825 -0.033869248 -0.012861254 -0.0123216305 0.031480115 -0.013883937 0.0033710063
0.028861012 -0.023453588 0.044531357 -0.0044060587 -0.021786952 0.01012818 0.02841919 0.031440742
-0.042627703 0.027069071 -0.036603626 -0.03554012 -0.036183313 -0.024305902 0.007319983 0.039132558
-0.025962306 -0.03668462 0.026308507 0.041864224 -0.026409859 -0.008531304 0.015440278 -0.029953534
-0.029814268 0.0363822 -0.02532728 0.013164709 0.026438989 -0.029077385 0.01837478 0.018137056
0.008589165 -0.02337448 -0.008744839 0.0070993733 -0.007867201 0.02089214 0.002542626 0.019824358
0.0058356626 0.009830052 -0.027960876 0.03867985 -0.0013547391 -0.0008535309 0.022223905 0.0012361575
0.014642361 -0.015392685 -0.0075057507 0.019212544 0.04256657 -0.041899033 0.03686634 0.036893107
0.030856919 -0.013428828 -0.026157059 -0.021483386 0.03888466 -0.036713853 0.005286924 -0.013521138
0.027580786 0.016430948 0.0053430996 0.00018272577 -0.02404485 0.02782506 -0.037207592 0.020704918
0.038895503 0.008437259 -0.014722147 -0.01062562 0.013087597 -0.034376167 -0.024777686 -0.0069247982
-0.041997306 0.024532296 0.040409323 0.03523716 0.025525698 -0.02877504 0.009324893 -0.029332444
0.030203411 -0.000867723 0.03014161 0.041324887 0.019077541 -0.027927391 -0.028122429 -0.008133829
0.0032781584 0.029120503 -0.0391815 0.026069656 0.039464694 -0.03140602 0.029662354 -0.04026735
0.0017812196 0.007212951 -0.012366882 -0.023926158 -0.027429974 -0.037302233 -0.025298309 -0.028755013
0.035673115 -0.0014247212 -0.0244976 0.0042449087 -0.010442945 -0.02299371 0.003751374 0.013279807
-0.0077084387 0.016967298 0.013279095 0.040579222 -0.018600592 -0.008605214 -0.013577187 -0.0034607376
0.0129823005 -0.005434299 -0.029491235 -0.011526467 0.033977278 0.029173853 0.04237269 -0.023868334
0.005704346 -0.042273108 0.031847436 0.007911122 -0.03861861 -0.025947882 -0.022996813 0.043432605

bias f4 [10]
00000000: 77ba a43b 4441 90bc bca6 c7bb 6599 80bc
00000010: 1d1e 96bc 2b48 173b dba6 44bb 8b61 4bbb
00000020: 4f99 9e3a d6e5 19bc
0.005027111 -0.017609246 -0.0060928743 -0.015698144 -0.018324906 0.0023083787 -0.003000668 -0.0031033482
0.0012100133 -0.009393176

weight f4 [15, 163]
00000000: d015 853d e771 a9bd fbce 35bd d191 433d
00000010: 9c5d 083e b49b 83bd af9b c6bc 6987 963b
00000020: e0f1 efbd 99bf 96bd d435 48bd d872 88bc
00000030: c5d5 71bd 3fbb 8bbd 2b12 e0bc a1bc 2fbd
00000040: 527e 94bd 55e7 a1bd 344b e4bd 6616 3abd
00000050: 6c86 85bc d29a 8c3d 3cc3 18be 0b68 a4bc
00000060: 68ea 1a3d 4515 3ebc 884d ac3b 7cf8 843c
00000070: 5e8b f5bb b9a2 e43c 13c8 12bb dfe1 e1bd
00000080: 3bd3 b83c 3146 63bb cc98 23bd 6433 6d3d
00000090: e27b 0f3d dd08 b23c d8c0 263c 7670 b93d
000000a0: 6005 8a3d 5868 543c 0938 003b 11d6 453d
000000b0: b9e6 2fbd 4bf4 6fbc fb6e 123d d86f 88bd
000000c0: 8a81 d53c da10 733c b9bb af3d 7225 83bd
000000d0: ac2f efbd a8cb 1bbc 63a2 6cbc 314b e5bd
000000e0: eed4 b7bd 0d44 5ebd 6cee 723c 616d 283d
000000f0: 40f5 4c3d 0357 4c3c d640 353d 3103 a7bc
00000100: 31ef 7f3a 3d14 20bd 71e3 e4bd c939 5c3a
00000110: 33c4 823c eb44 b23b cb86 41bb 122a 69bc
00000120: 7898 c7bb 2e9b 453c a181 f73b b08b 07bc
00000130: 8ffe 2ebc b113 f2b9 e764 b9bd 0b26 573d
00000140: 307e 953c 5003 91bd d296 64bd 4d76 4a3c
00000150: 37f5 8fbc 89ae 3b3c 98c9 93bd 5abc 83bb
00000160: 1a89 813c 2e7f 53bc 0504 113e a1d6 98bc
00000170: 58ab 97bd fe57 ad3d 0223 e9bc 125c 26bc
00000180: 564b d2bd 3373 b6bb d60d a7bd b629 b33d
00000190: b9ab bdbc 827b 06bd 5b48 943c 8dc1 2cbd
000001a0: 0a29 1b3a ccd0 553c bb21 053b 44dc 5bbb
000001b0: aeef 10bd 60c5 c7bd 4972 80bc 4a89 8d3b
000001c0: 7565 0a3d 7868 93bc a91a 8fbb fc94 133c
000001d0: 6c85 423c 07f2 7c3a dc34 8bbc 9f80 c33b
000001e0: 85ae 7ebc 4fce c0bd 3f0f 2d3d 769c 403d
000001f0: c938 37bd 453e 2ebd 31b0 61bc f6a2 2f3b
00000200: bee2 943c 22b1 3abd 59dd 0cbc afe8 b4bb
00000210: 2c7d 38bb d0af 3abb 24ae 983c 1049 9a3d
00000220: 1b45 f2bc 76ae 9abb aa26 12bd f0ca 2dbd
00000230: 4582 8f3c 550b 8ebd 318c 473d c99b a7bd
00000240: 5c3a 08bd 742c 40bb 5265 01bd ff01 87bc
00000250: 922b 2d3d cb01 213e 3551 1f3b 7d70 1abd
00000260: 5cf7 8c3d 318b 49bd e946 083e 2430 dd3b
00000270: 2a71 9aba 75c4 633c 1870 72bd cdd4 fcbc
00000280: 1b3e a2bd 3528 b1bd a1ee 26bd d3d7 023d
00000290: 8d48 c4bd 6d73 dcbc 3d5c a4bc ecc7 733d
000002a0: e499 71bc a28f c2bd 1c7f 2f3d ad54 9c3c
000002b0: e6b1 39bd 0f1c 39bb 920a ccbb 7000 b33b
000002c0: 73dc ecbb 076e 5c3c 9016 f63c dbb4 dbbd
000002d0: af11 00bd 1b61 b4bc 3bff 32bd b2e0 4a3c
000002e0: e613 813d 38eb 1cbd acf3 c23c c6e4 783d
000002f0: cdf8 bd3b e09a 0b3d 3f62 8ebb 8a44 483d
00000300: 1e93 5cbd 962a 073c 523c 57bd 33c7 56bd
00000310: 2bfd bcbb f68d e93c 2420 5b3c b173 713d
00000320: 1d69 5f3d d5ab d33c 324e 98bd abff c83d
00000330: 0c5c 103d 5075 d6bc 394d 89bd 300f 0b3d
00000340: 03ac 413d 76ee 853d 4bfe bcbd 35e9 1bbc
00000350: a86a bc3c b6e7 a13d c4b6 063d a428 65bd
00000360: 278a b9bb 92a8 f8bb 7e0f c73b b484 9dbc
00000370: 32b5 bf39 e2fc 30bc 07c8 9fbc a345 0fbc
00000380: 9bbc 303c fad1 433d 0dee 18bd c612 103c
00000390: 6549 1ebd 1876 a8bd 5d85 97bb 289b 49bc
000003a0: bc6a b23a 7c61 45bc 9945 c5ba d17c 183c
000003b0: c709 1c3c f21b a83b 973b 663b dd65 a5b8
000003c0: 823d 38bc 18dc 0dbd fcb5 24bc 5245 3e3d
000003d0: 8297 72bc 2257 b9bd 3f3a 67bc d290 acbc
000003e0: da41 f63a 6415 6abc e78c f5bb dc40 f9bb
000003f0: 0c0b 90bc 97f3 dd3d b29b 9b3c c1cf 88bd
0.06498301 -0.08273678 -0.044386845 0.047746483 0.13316959 -0.064261824 -0.024244158 0.004593779
-0.11716056 -0.07360763 -0.04887946 -0.016656324 -0.059041757 -0.06822824 -0.027352413 -0.0429045
-0.07250656 -0.07905451 -0.11147156 -0.045431517 -0.016299449 0.06865467 -0.14918226 -0.020069143
0.037821203 -0.011601751 0.005258266 0.016231768 -0.0074934205 0.027909623 -0.0022397086 -0.110294096
0.02256166 -0.0034679289 -0.03994064 0.057910338 0.035030253 0.021732742 0.0101778135 0.09054653
0.067393064 0.012964331 0.001956465 0.048299853 -0.042944644 -0.014645646 0.03575037 -0.066619575
0.026062746 0.014835561 0.08580727 -0.064036265 -0.116790146 -0.009509005 -0.014443013 -0.11195982
-0.0897616 -0.054264117 0.014827352 0.041119937 0.050038576 0.012471917 0.044251285 -0.020387264
0.00097631203 -0.0390818 -0.111761935 0.00084009446 0.015962696 0.0054403446 -0.0029529806 -0.014231222
-0.0060911737 0.0120609235 0.0075532948 -0.00827305 -0.010680809 -0.00046172508 -0.09052449 0.052526515
0.018248647 -0.0708071 -0.055807896 0.012357307 -0.017572982 0.011455187 -0.07216185 -0.004020256
0.015812445 -0.01290874 0.1416169 -0.01865703 -0.07405728 0.08464049 -0.028459076 -0.010153787
-0.102682754 -0.005567932 -0.08156936 0.0874819 -0.023153173 -0.03283263 0.018100908 -0.042176772
0.0005918896 0.013050269 0.0020314294 -0.0033548037 -0.035384826 -0.09754443 -0.015679495 0.0043193446
0.033788163 -0.01799415 -0.004367192 0.009007689 0.011872631 0.0009649102 -0.016992979 0.0059662606
-0.015544538 -0.0941435 0.042250868 0.047024213 -0.04473189 -0.042539854 -0.013774917 0.0026800013
0.018174525 -0.045579083 -0.008597695 -0.005520902 -0.002815078 -0.002848614 0.018637724 0.07533467
-0.029573968 -0.0047205044 -0.035681404 -0.042429864 0.017518172 -0.06935755 0.04871768 -0.081840105
-0.03325878 -0.002932337 -0.031590767 -0.016480444 0.04227788 0.1572334 0.0024309878 -0.037704933
0.068831176 -0.04920501 0.133083 0.0067501236 -0.0011782993 0.0139018195 -0.059188932 -0.03086319
-0.07922002 -0.08650247 -0.040754918 0.031944107 -0.095841505 -0.026910508 -0.020063514 0.059516832
-0.014746163 -0.09500052 0.04284583 0.019083345 -0.045335673 -0.0028245484 -0.006226846 0.0054626986
-0.007228428 0.013453967 0.030040056 -0.10727855 -0.031266864 -0.02201896 -0.043700438 0.012382673
0.063026235 -0.03831026 0.023797832 0.06076505 0.0057974816 0.034083247 -0.004345208 0.04889349
-0.05385124 0.008249899 -0.05254776 -0.052436065 -0.0057674847 0.028510075 0.013374362 0.058948223
0.054543603 0.025838772 -0.074367896 0.0981439 0.035244033 -0.026178986 -0.06704182 0.03395003
0.047283184 0.065396234 -0.0922819 -0.00951605 0.023000076 0.079055235 0.032889143 -0.05594696
-0.005662221 -0.0075884545 0.006074845 -0.019228317 0.0003656536 -0.010802479 -0.01950456 -0.00874463
0.010787155 0.04780767 -0.037336398 0.008793538 -0.038644213 -0.082256496 -0.0046240524 -0.012305059
0.0013612132 -0.012047168 -0.0015050649 0.009307102 0.0095238155 0.0051302845 0.0035130733 -7.8867866e-05
-0.011245133 -0.034633726 -0.010053154 0.046452828 -0.01480663 -0.090498224 -0.014113008 -0.02106515
0.0018787936 -0.0142873265 -0.0074936035 -0.007606609 -0.017583393 0.10837477 0.01899514 -0.06680251

bias f4 [15]
00000000: cdf8 4cbb 5722 76bc 38ee 86bb 6692 a33b
00000010: 7423 32bc 93e8 2bbc ab55 95bc c3c7 983c
00000020: 6293 06bc 2433 3b3b 6da3 c43b d121 9dbc
00000030: 34b4 55bc 0139 22bc 3b43 7fbb
-0.0031276227 -0.015022836 -0.0041177534 0.0049918173 -0.0108727105 -0.010492462 -0.018229326 0.018649941
-0.00821385 0.0028564418 0.006000927 -0.019181164 -0.013043452 -0.009901286 -0.0038949985

weight f4 [15, 9]
00000000: a598 e13d 4180 eabc 47c7 983b 711a a63d
00000010: f945 a73d f72d e43c 244e 50bd 8e7e 42bd
00000020: af50 fe3c 6d52 97bb 4dc8 6a3b 64be 8bbd
00000030: 8067 793d 8331 ebbb 1b03 b738 88a3 4f3d
00000040: 7b94 913d 01fe 63bd 6659 c4bd 33e7 b2bd
00000050: dbb0 73bd 938b 77bd 737a 863d 0a3a 733c
00000060: 1684 84bd 3e05 8ebd 8199 8abd 79ff 253c
00000070: 506c 9dbd 0be3 62bd 001a 903b 7a0b 053d
00000080: 1a56 edbc 298e 2b3d c75a 793d 3902 253d
00000090: 5b36 ad3b 3d89 833d 712e 9cbd 660e 1c3d
000000a0: 4013 65bd 2ce5 c4b9 b845 a6bc 9a11 f93c
000000b0: 1294 3fbd 751d f1bd 78a2 95bd a2fc 203d
000000c0: 74bb 4f3c 211a b9bb 068e a9bd 1094 ba3c
000000d0: 2850 9e3c 568e 27bd b55e 02be fced 46bd
000000e0: 976c debc f90b e3ba 3cf7 debc c474 aa3c
000000f0: 1f8f feb9 52ea 57bd 24a8 423c 507b ee3d
00000100: cc45 94bb 3705 a03c 12a3 823d f77b 7fbd
00000110: eec2 393d 6817 7c3d 6c1a f23a 6f67 4d3d
00000120: e3ce d13d 47da 293d dacc 6b3d 8e8a 223c
00000130: 7f22 543d bc0e 5cbd f416 9dbc c111 8bbd
00000140: e5f5 4fbc 1dd9 99ba 2e94 043d e2ea a8bd
00000150: a354 4bbd da57 fb3b 73f1 0fbd be94 963d
00000160: 84ca 8bbb 6af3 d13c 3475 08bd b1a7 b3bd
00000170: 2079 9bbd 973e 6ebd 0d2a 8dbd efa5 3d3d
00000180: 51a7 90bd 6d07 25bd 0f89 f6bb b184 2dbe
00000190: 0f42 983d 4e16 45bd 8d59 67bd cdc4 133d
000001a0: 357c 8dbc 72a2 b33c cef0 8bbd d407 91bc
000001b0: 0a10 9d3b 8978 02bd 8e05 66bd 74df af3c
000001c0: 6d67 9b3c b221 86bd bd36 9fbd dda6 4bbd
000001d0: bada 773d 3a5c e8bd b07f 8fbd 875e 21bc
000001e0: ef60 c0bc 65c2 99bc 9383 0a3c f2bf dbbc
000001f0: 6b2d e0bc 0696 9bbd 76e3 1cbe 5935 80bd
00000200: 9dfd 0bbd 47e6 303d a5e1 963d 2d00 fa3c
00000210: e9d9 4e3d 7da4 8eba ef32 eabb
0.11015443 -0.02862561 0.0046624276 0.08110512 0.08167643 0.027853949 -0.05085577 -0.047483973
0.031044332 -0.00461798 0.0035824955 -0.068234235 0.06088972 -0.007177533 8.7266984e-05 0.050693065
0.071083985 -0.05566216 -0.09587364 -0.08735504 -0.059494834 -0.060435843 0.06566324 0.014845381
-0.06470506 -0.069345936 -0.0676756 0.01013171 -0.076866746 -0.055392306 0.0043976307 0.032481648
-0.02897172 0.04188362 0.060877588 0.040285323 0.0052860207 0.064226605 -0.076260455 0.03809967
-0.05592656 -0.0003755478 -0.020296916 0.0304039 -0.04677207 -0.117731966 -0.07306379 0.03930343
0.01267897 -0.0056488668 -0.08279042 0.02277568 0.01932533 -0.040907227 -0.1273144 -0.048566803
-0.027151389 -0.0017322294 -0.0272175 0.020807631 -0.0004855329 -0.0527137 0.011880908 0.11644614
-0.004524922 0.019533737 0.063787594 -0.06237408 0.045351915 0.06154576 0.0018471009 0.05014747
0.10244539 0.04146793 0.05756841 0.009920729 0.05179071 -0.05372499 -0.019175984 -0.06790496
-0.012692903 -0.0011737678 0.032367878 -0.08247925 -0.049641263 0.007670385 -0.035142373 0.07352589
-0.004266085 0.025628764 -0.0333149 -0.08772219 -0.07591462 -0.05816516 -0.06892786 0.046300825
-0.07063163 -0.040290285 -0.007523663 -0.16945149 0.07434475 -0.048116975 -0.056481887 0.036076356
-0.01727114 0.021928046 -0.06833039 -0.017703928 0.004793172 -0.031853233 -0.05615764 0.021468855
0.018970216 -0.065493956 -0.077741124 -0.04971968 0.06051133 -0.11345716 -0.07006776 -0.009849197
-0.023483722 -0.018769452 0.008454221 -0.026824925 -0.027365407 -0.07596974 -0.15321144 -0.06260175
-0.03417741 0.04318836 0.07367257 0.030517662 0.050500784 -0.0010882762 -0.007147185

bias f4 [15]
00000000: 7626 21bd 0cc1 753d 41d0 833d e39c cebc
00000010: de07 ff3a e78c 143d 344d 6abd 3ebd a8bc
00000020: d06f ec3c 17a7 8fbd ec64 44bd a6ad 743b
00000030: 2a3d 9b3d 5ec0 8fbc b267 08bd
-0.03934332 0.059998557 0.06436206 -0.025221294 0.0019457301 0.036267187 -0.057202533 -0.02059805
0.02886191 -0.07014292 -0.04794781 0.0037334948 0.075800255 -0.017547783 -0.033302017

weight f4 [15, 163]
00000000: d947 823d 53df e23b f105 623d ecb2 453d
00000010: 6151 453d b027 263d d0d1 663d 559d 3c3d
00000020: 9490 073e 28e2 093e 1a54 0d3e fc55 093e
00000030: 5069 073e c796 183e 18bc 463e 2fdb 2a3e
00000040: 5fa7 37bd 54f5 693d 0f84 f03d 4299 9a3d
00000050: 760e 483d e675 b03d eb78 123e 9aa8 4a3d
00000060: a13f 50bd f605 bf3b 6418 c83d 2dfd 0ebc
00000070: e3b7 a33d 8d13 47bd b4e6 843e fd34 983c
00000080: 4ef7 2f3c a9d9 3fbc 49b5 653e d7bb 873d
00000090: 7fb2 b43d bcc5 c23d 5a37 ca3d 650a ec3d
000000a0: 2907 203d a528 353d 6ca8 9c3d 98a6 a03d
000000b0: b6bc d33d 5bde 0d3e f775 df3d ff8f 773d
000000c0: f0c9 f13d 6432 d83d d289 a33c eb4f af3d
000000d0: 9554 a83d ac87 8abc 00be 9a3c 5eab bebc
000000e0: 18d6 e6bc be48 8d3e d24c d0bd 384f ba3c
000000f0: bf09 a8bd f6e4 903c 5381 a13d a229 8a3e
00000100: 9354 8d3b e4af bb3d 0788 b23d 5fda ae3c
00000110: f4b9 1a3c ecaf 753b 7c89 8b3c 6aee 0abb
00000120: 741a fc3c 94d7 51bc 144b 763c a455 043c
00000130: 9a41 67bb 538d 753c 5864 0abd 6f2f 883d
00000140: 5c97 823e 3732 26be 5223 6cbb 5d1d a53a
00000150: 6469 a13d dc34 823d 1d4e 1f3e a115 293c
00000160: d311 0cbc cab4 23bb ddd9 993e ea9c 533e
00000170: 7f81 ccbc 6439 843e 4104 f93d 1ca2 1cbc
00000180: ef1a 073d 26f7 28bc cfb8 95bc 7117 a9bd
00000190: 6b14 4a3d 6b8d 7dbc 01ef eebd 3759 a9bd
000001a0: 2e79 933b 499f 9d3d d796 4b3e b48a 963c
000001b0: 83a4 fb3d 5ef9 633d b885 8c3d e450 013c
000001c0: d7bb f33c 6f9a 9e3b 3ca0 91bc 894f 363d
000001d0: da94 523b 1385 1aba 0c72 e43c 4507 8a3c
000001e0: 7334 c1bb abde f7bb 32a8 4a3b bedc 893e
000001f0: 1b64 d9bd 1143 383c e906 50bc f065 513d
00000200: b02c 823d b84b 1b3e 0f98 c23b 7e03 f4bb
00000210: bc93 453c edbb dd3d 7236 0a3e 001c 81bd
00000220: 84e9 223d 8c52 e5bb faf3 5c3d 7dd8 0e3d
00000230: 52c5 6c3d 96a0 5f3d 252f 683d 40c1 433d
00000240: c724 763d eaa0 953d d145 3a3d cd79 a33d
00000250: 3f89 383d e096 b23c d1ca 323d 2524 743d
00000260: 656d 663d d336 7b3d 218e 913d d226 903d
00000270: 592f 7e3d f99c 513d 5df9 bc3d 76d4 e33d
00000280: 8a76 083e 21f6 e53d 5561 9c3d 466a 36be
00000290: b531 28be 3c2b 45be edb8 4ebe 98c0 1abe
000002a0: 9934 5dbe d6fb 32be 3aab 4fbe 8f8b 5abe
000002b0: de33 65be 68c7 96be 90ce a5be e5ef 8ebe
000002c0: fd89 9bbe e905 8fbe 4485 8cbe 5f36 0bbd
000002d0: 377f 4ebe d576 2cbe ef9f 5dbe dbbe 35be
000002e0: c9eb 47be 773b 6bbe f9e8 0cbe 50ef 02be
000002f0: 080a 5ebc e8f0 8cbd eb32 883c 4454 10be
00000300: 2aaf 05be e186 3ebe dc90 78be 589a 3abb
00000310: ead1 33bc 585d 04be e077 59be 44bc 20be
00000320: c76f 16be 7f28 e2bd e91d debd 82e3 0fbe
00000330: a5e8 aebd 1f65 42be 01c0 edbd 3e05 4fbe
00000340: b1a9 3fbe e826 3fbe bcd7 37be cc54 46be
00000350: 2935 3cbe 080f 38be 3080 5cbe 026a 4fbe
00000360: ea40 f838 423e 873c 8d08 4bbe c0ac 0c3d
00000370: a02c b3be 9817 8f3d b643 6ebd 729e 2f3e
00000380: 9b44 f3bb 41ea 5fbd 9685 1fbe 0ea9 313c
00000390: 66f6 f3bd e5ec 5bbe f5fe 27bc f18d 67b9
000003a0: 2753 8e3d 2daf bdbb 34f7 74bc b7fc 553c
000003b0: 67eb 37bd ef60 79bc 32bd d0bc 8916 17bc
000003c0: c5d0 5bbc 460a 08bd ef14 9ebe 56ea 84be
000003d0: 912b f33c d420 8dbd aad7 0f3c 1379 98bd
000003e0: 9f9a a4bc d035 dd3b 226a 87bc cfbb 43bc
000003f0: cf83 bebb 8165 2ebe ef56 1ebe 5d00 a7bd
0.0636136 0.006923595 0.055181447 0.048266336 0.048173312 0.040565193 0.056352437 0.04604848
0.13238746 0.13465178 0.13801613 0.13411707 0.13223767 0.14901267 0.1940769 0.16685174
-0.044837352 0.05711873 0.11743938 0.07548763 0.048841916 0.08616237 0.14303939 0.049477197
-0.05084193 0.005829568 0.09770277 -0.008727354 0.07994058 -0.04860263 0.25957263 0.018579954
0.010740114 -0.011709609 0.22432436 0.066276245 0.08823108 0.09510371 0.09873839 0.1152542
0.03906933 0.044228215 0.076493114 0.07844275 0.10338728 0.13854353 0.10911172 0.06044006
0.11806095 0.10556486 0.019963179 0.08560165 0.08219258 -0.016910397 0.018889427 -0.023275074
-0.02817826 0.2759456 -0.10170902 0.022742853 -0.08204984 0.017687302 0.07885995 0.26984888
0.0043130605 0.09164408 0.087173514 0.021344362 0.009443749 0.003748889 0.017033331 -0.0021199235
0.030774333 -0.0128077455 0.015032548 0.008077059 -0.0035286904 0.014987308 -0.0337871 0.06649672
0.25506103 -0.16230093 -0.0036031795 0.0012597252 0.0788143 0.063577384 0.15557142 0.010320098
-0.0085491715 -0.0024979585 0.3004903 0.20665327 -0.024964092 0.25825036 0.121590145 -0.009560134
0.03298467 -0.010312831 -0.0182766 -0.08256424 0.04933588 -0.015475611 -0.1166668 -0.082689695
0.0045005297 0.07696397 0.1988176 0.018376686 0.122872375 0.055657737 0.06861442 0.007892821
0.029752655 0.0048401873 -0.017776601 0.044509444 0.003213218 -0.00058944634 0.027886413 0.01684917
-0.005896145 -0.007564386 0.0030923006 0.26926225 -0.10614797 0.011246459 -0.01269696 0.051122606
0.0635618 0.15165603 0.005938537 -0.0074467054 0.012059148 0.108268596 0.13497332 -0.06304169
0.03977348 -0.0069983657 0.05394361 0.034874428 0.057805367 0.054596506 0.056685586 0.04779172
0.060093667 0.073060825 0.04547674 0.07982216 0.045052763 0.021800458 0.043650452 0.059604783
0.05625667 0.06133158 0.07107187 0.070386544 0.062056873 0.05117509 0.0922725 0.11124508
0.13326469 0.11228586 0.07635752 -0.17813978 -0.16425212 -0.19254774 -0.20187731 -0.15112531
-0.21602096 -0.1747888 -0.20280161 -0.213423 -0.22383067 -0.2944901 -0.32384157 -0.279174
-0.30378714 -0.27934197 -0.27445424 -0.0339874 -0.20165716 -0.16842206 -0.21643041 -0.17748587
-0.19523539 -0.22971903 -0.13760747 -0.12786603 -0.013552196 -0.06881887 0.016625842 -0.14094645
-0.13055101 -0.1860614 -0.2427401 -0.0028473344 -0.01097534 -0.12926233 -0.21237135 -0.15696818
-0.14691077 -0.1104288 -0.10845549 -0.14051631 -0.08540467 -0.18983887 -0.116088875 -0.20216843
-0.18717076 -0.18667185 -0.1795339 -0.19368285 -0.18379654 -0.17974484 -0.21533275 -0.20255283
0.00011837653 0.016509179 -0.1982748 0.034344435 -0.34994984 0.06986922 -0.058170043 0.17150286
-0.00742395 -0.05466676 -0.15578303 0.010843528 -0.11912231 -0.21477087 -0.010253658 -0.00022082754
0.06949454 -0.005788705 -0.014951516 0.01306074 -0.04490223 -0.015220865 -0.02548084 -0.009221681
-0.013416474 -0.033212923 -0.30875346 -0.25960034 0.02968386 -0.06891027 0.008779446 -0.07444968
-0.02009326 0.0067507997 -0.0165301 -0.0119466325 -0.0058140527 -0.17030908 -0.1546285 -0.08154366

bias f4 [15]
00000000: 27b1 5f3d 5663 42be b8cb 5d3d 97d1 043d
00000010: 4de4 463e 0070 aabc 3666 833e bc44 343d
00000020: 7246 c23c 216d f4bd 758f 3b3e c053 2cbe
00000030: 7db0 57bd 9db5 00bd 4b61 82be
0.054612305 -0.18983206 0.05414936 0.032426443 0.19423027 -0.020805359 0.25663918 0.044010863
0.023715232 -0.11934877 0.18316443 -0.16828823 -0.052658547 -0.0314232 -0.25464854

weight f4 [15, 9]
00000000: a87c f9bd c336 a4bd fcf0 93bd 4786 bf3c
00000010: 21c5 103d 4998 ad3d 868f 073a b096 62bd
00000020: 5248 243d 609f 58bd d6a0 a2bd 4e55 02bd
00000030: 69fb 3a3d d7c5 13be 2806 46be a1fa 933c
00000040: 928a b6bd 74d5 9b3d 4538 10be 090f efbc
00000050: 33cf 13be 6b51 7cbc 4d65 193d 879e be3d
00000060: 4440 e83c 0b53 2b3d bf35 0a3d da47 cabd
00000070: ab78 323c dc23 953c 0d88 ef3c 448e 0cbe
00000080: ab7e 0a3e f657 ea3b 28df 603c 1306 e739
00000090: c782 44bd 61fe c53c 91fc 443c 2935 d13c
000000a0: 7abe 9abd 0481 c0bc 22bd 69bd ca66 abbd
000000b0: 0338 41bd 65b3 94bd 0ae6 60bd b24c bebd
000000c0: 799b b8bd 421c 003e 03a3 6bba f8b9 00bd
000000d0: 1379 36be 1c5a 1f3e ad6f 7b3d 2ea5 adbc
000000e0: d54c b83d 3217 813c 3a6e 25bd 0750 ed3d
000000f0: dba9 8b3d ec6f 713d 1662 e2bd c125 26bd
00000100: 8ee2 a1bd a0ab 823d 638b 84bc be5f 8dbc
00000110: bb39 a13c 111c 16bc c024 913d 91b7 2cbd
00000120: eab2 83bd 535e a9bd b602 f33b 4086 98bd
00000130: 0cc7 b0bd b320 0bbe cd0b 8f3c e27c a1bd
00000140: 2821 aebd fb6b 4fbd 2cd8 523b 8e08 13bd
00000150: 8243 81bb 8112 bbbd 4de1 2cbe 07b3 473d
00000160: 055d 2cbe 8147 c7bd 057d b4bd da4f a2bc
00000170: 66e5 dbbc fcda b3bd 998f bd3c 11f8 023d
00000180: 6ab5 113c f726 80bd 6756 453d f4b0 383d
00000190: df12 2dbd eeb3 29bd cc48 a4bd 5411 90bc
000001a0: d034 d9bc 0add 4e3d 864b 38be 7d35 a4bc
000001b0: 6506 54bd bfed 7fbd cd1b 75bd db6f fdbd
000001c0: c1f2 d7bb fe81 783c dbbd 6abd 6410 d6bc
000001d0: 17c7 3dbd 9c99 ccbd 4ef1 aebd 5b4f 9dbd
000001e0: 279e 1d3d b01d eebd 8cff 56bd d0cd 8abd
000001f0: f656 04bd 406b ecbd 8d4c 13bd 4e78 8bbd
00000200: 1a0f 8c3d e875 c13d 43b7 afbe 5fa2 62be
00000210: ec9a 643d 6211 83be 54fa d8bd
-0.121819794 -0.080182575 -0.072236985 0.023379458 0.035344247 0.08476312 0.0005171228 -0.055319488
0.040108033 -0.052886367 -0.07940833 -0.031819634 0.04564992 -0.14430939 -0.19338286 0.018063845
-0.08913149 0.07609072 -0.14083965 -0.029181974 -0.14434509 -0.015400271 0.037450124 0.093075804
0.028350957 0.041827243 0.033742663 -0.09876986 0.010893027 0.018205576 0.029239679 -0.13726145
0.13524882 0.007151599 0.01372508 0.0004406428 -0.04797628 0.024169149 0.012023107 0.025538044
-0.07555862 -0.02349902 -0.057065137 -0.08369215 -0.047172558 -0.07260779 -0.054906882 -0.09291972
-0.09014029 0.1251078 -0.0008988829 -0.031427354 -0.17819624 0.15561718 0.0613858 -0.021196928
0.089990295 0.01575813 -0.040388323 0.1158753 0.06819507 0.058944628 -0.11053865 -0.04056335
-0.0790454 0.06380391 -0.016179746 -0.017257567 0.019680848 -0.009161965 0.07087088 -0.04216725
-0.064306095 -0.08269944 0.0074160947 -0.07447481 -0.08631715 -0.13586693 0.017461682 -0.07885148
-0.08502418 -0.050640088 0.0032172306 -0.03589683 -0.003944815 -0.09134389 -0.1688282 0.04875472
-0.16832359 -0.09730435 -0.08812908 -0.019813467 -0.026842784 -0.08782002 0.023139762 0.031974856
0.00889335 -0.06257432 0.048178103 0.04509063 -0.042254325 -0.04143136 -0.080216974 -0.017586388
-0.02651444 0.050503768 -0.1799756 -0.020045036 -0.05176391 -0.06248259 -0.059840966 -0.1237485
-0.006590218 0.015167711 -0.057309967 -0.026130863 -0.046332445 -0.09990236 -0.08542119 -0.076811515
0.038480904 -0.11626756 -0.052489802 -0.06777537 -0.032309495 -0.11543894 -0.035961676 -0.06810056
0.06838818 0.09446317 -0.34319505 -0.22132252 0.055811808 -0.255992 -0.10594621

bias f4 [15]
00000000: c29a a5bd ae59 98bd 6d8c 14be 486d 863c
00000010: 6da7 963d 56b2 763c a79d 023d 7ebd d13c
00000020: d29e 103d 6476 1e3d dcc8 073d df8c e8bc
00000030: c226 ddbd 02ac 443b 08b7 b23c
-0.08086158 -0.0743898 -0.14506693 0.016409531 0.07356153 0.015057167 0.03188863 0.025603052
0.035307713 0.038687125 0.03315054 -0.028387485 -0.10798408 0.0030009751 0.021815792

weight f4 [15, 9]
00000000: e229 9bbd 7b87 263d 6008 263d b1a4 883d
00000010: e47c 793c 5723 2bbc 29f7 0fbd 80a4 983d
00000020: 8a78 593c 76c5 a23d 03c6 a4bb 30ac 753d
00000030: 86b6 573d 387b 17bd 2012 863d 81e1 30bc
00000040: 66e7 973d e1a5 99bd 6464 3a3c 5a8b 8b3b
00000050: 69c8 8abd d482 22bd e530 d0bc 1401 863d
00000060: 0da2 85bb 5573 b83c 49d3 2c3d b9f3 323c
00000070: cdce 713d 2912 03bd f158 8a3d 8924 d7bc
00000080: a5d3 523d 7f01 acba de3b 71bc 872e 69bd
00000090: 8fec 31bc f073 243d f8ba 2fbd f842 0dbd
000000a0: 809c 79bd 26c2 f1bc 1e7c e7bb 3f8e 45bd
000000b0: b901 ebbc f91a 823d 9f25 9f3d 30c8 99bc
000000c0: 294a 473d 192e 643d bc73 bcbc 0f9d ac3c
000000d0: 993f 49bd c4f5 04bd df9c 1d3e da36 383c
000000e0: 3948 08bc af5d b8bb 34a7 8e3c b121 473d
000000f0: 7eb2 acbc e2f0 de3c 69f5 24bd 0701 0cbe
00000100: 8a3c 25bd 61d2 70bb 2247 46bc 9a8c 903d
00000110: ee44 5ebb 04e9 323c 45c7 9ebc 6d7d 953d
00000120: 2e0c 323d b460 ddbb bc39 20bd 898a d73c
00000130: 8f98 133c 8805 7abd 3245 0cbd 3040 cc3c
00000140: 80f3 833c 80f0 253e d759 81bc 0922 c4bc
00000150: cc9e 1a3d 50a1 62bd 15f7 443a 7d8f d5bb
00000160: 7efb 91bd 6aa8 5a3d a9ed 8fbd bd41 4a3d
00000170: f9d3 80bd 0e69 cfb8 d01d 203d 1d22 833d
00000180: 7cb3 8bbd 5065 a2bd 1273 39bd 3458 1d3e
00000190: f1b5 2abd 46a0 ff3c ec5a 843c 9634 52bd
000001a0: b7c2 95bd fadc 45bd 6b07 603d d903 04bd
000001b0: 3acc 2a3e 68f5 91bd 86b7 67bd 9d22 e3bc
000001c0: 4a8f 063d f41b 983d 0470 c0bc 8c7d 03bd
000001d0: 8210 ff3c 8605 9b3d c4b8 9c3d 6cbb 9439
000001e0: 521d 303d ab33 57bd 8384 77bd 2c77 11bd
000001f0: e164 683c 8bed 03bd f456 4abc 0e4e 293d
00000200: 7147 cd3c dd5e 083d b079 98bd ba6a 843d
00000210: b829 9a3d 1c70 9dbd c633 ab39
-0.07576348 0.040656548 0.04053533 0.066720374 0.01522753 -0.010445437 -0.03514782 0.07453251
0.013273368 0.07947819 -0.0050284876 0.059978664 0.052664302 -0.036982745 0.06546426 -0.010795952
0.074171826 -0.07502342 0.011376474 0.0042585554 -0.067765065 -0.03967555 -0.02541394 0.065431744
-0.004078156 0.022515932 0.042193685 0.010922366 0.05903511 -0.03199974 0.067552455 -0.026262539
0.05147137 -0.0013123004 -0.014723746 -0.056929138 -0.010859623 0.04014963 -0.042902917 -0.034487695
-0.060940266 -0.029511523 -0.0070643565 -0.04823136 -0.028687345 0.06352801 0.077708475 -0.018772215
0.04865471 0.055708025 -0.023004405 0.021070985 -0.049132917 -0.032460943 0.15391873 0.011243546
-0.0083180005 -0.0056264023 0.017413713 0.048616115 -0.021081205 0.027214471 -0.040273104 -0.13672267
-0.040340938 -0.003674649 -0.01210192 0.070580676 -0.0033915597 0.010919813 -0.019382128 0.07299314
0.043468647 -0.0067559127 -0.03911756 0.026311176 0.009008541 -0.06104043 -0.034245677 0.02493295
0.01610732 0.16205025 -0.01578991 -0.02394201 0.037749097 -0.05532962 0.0007513625 -0.0065173493
-0.071280465 0.05338327 -0.07027752 0.0493791 -0.062904306 -9.890097e-05 0.03909093 0.06402991
-0.06821343 -0.0792948 -0.045275755 0.15365678 -0.04167742 0.031204354 0.016156636 -0.05131968
-0.073125295 -0.048306443 0.054694574 -0.032230232 0.16679469 -0.07126886 -0.056571506 -0.027726466
0.032851495 0.07427207 -0.023490913 -0.032102153 0.031135801 0.07569413 0.07652429 0.000283684
0.042996712 -0.05253951 -0.060429107 -0.03551404 0.014184208 -0.03220896 -0.012349833 0.041334204
0.02505848 0.033293594 -0.07445085 0.06465669 0.075274885 -0.07687399 0.00032654236

bias f4 [15]
00000000: 99ec 233c ab17 693d 0ff4 043d 8011 e53c
00000010: 1ff7 a33d 169f 4b3d 3312 5e3d ffb9 a5bd
00000020: ef31 663c 5388 1bbc 0621 3abd 2755 943d
00000030: 4378 193d 4e20 16bb 8674 ed3c
0.01000514 0.056907337 0.032459315 0.027962446 0.08006119 0.049712263 0.054216575 -0.080921166
0.014049991 -0.009492951 -0.04544165 0.07242804 0.037468206 -0.0022907439 0.028986227

weight f4 [15, 9]
00000000: 6123 8bbd 3008 753c 7c85 2abc 7435 d2bb
00000010: 35c4 143a 9265 783d f353 203d 4ff2 e03c
00000020: 40b1 84bc 9c5d aa3d ccfe 843d 4102 53bd
00000030: 8e4b b9bc 5842 c0bb bc10 14bd 2f9a 0dbd
00000040: 7b86 4d3b 03c5 ce3c f9d1 33bd 537b 7f3d
00000050: 14b9 933d 55e3 8f3d c592 0f3d 6731 21bd
00000060: 11a9 73bc bebd babc da63 71bd d0f3 9d3c
00000070: 7d0d 73bc d44b 823c 14e5 9dbd b581 c03b
00000080: e1ae 833c a287 e83c 3596 d03c 6890 413c
00000090: 8379 f53c 0f4c 04bb fee8 893d ef61 f9bc
000000a0: 2b51 a03d 216f 7cbd 58a7 a13d b935 d3bb
000000b0: c8a7 d33b d0ef c23c 28b9 08bd e6b5 8f3d
000000c0: d490 2cbd 689f 72bd 754d b23c 9c30 923c
000000d0: bc4e efbc 203d c33a 06f5 113e 6841 30bd
000000e0: 802c 85bd 43aa e03c 3174 86bc 416c 363d
000000f0: 3b85 8f3d 36b4 723d 848d 4f3d 4601 febd
00000100: 2854 11bd ff79 f03b 7fad 9d3d 6e9f 103d
00000110: a84f 4b3c 1066 7dbd a7a9 16bb d3b1 0a3d
00000120: 0e57 80bb a9d6 0c3d 53b9 28bd abb7 13bd
00000130: d902 6a3d 4f62 97bd c83d 78bb b2b5 94bd
00000140: 9257 023d f2fd 253e 9d01 6e3d 3c9a 85bd
00000150: 168a 853d c0fe 8bbd 1917 fdbc 765f 1a3d
00000160: 678e 263d 667d 64bd beeb 97bd 919a 34bb
00000170: 9393 ed3c 5b0c 8bbc 2a68 853d 23c6 62bd
00000180: 44fa 7a3d b5f9 813d 0668 1e3d 2203 1e3e
00000190: e40e 80bd 39ec 3fbd 47d1 a43c 9586 55bd
000001a0: ba59 7bbd 53c8 66bd 4ca8 763d 019d c3bc
000001b0: afb1 253e d121 6ebd 5d07 f93c 86ad 8dbd
000001c0: 77ee ea3c 70e7 9bbd 6ac4 283d fdc6 6abd
000001d0: 3067 4a3d 2a8b 9b3d ec34 a23d 5e5c 33bd
000001e0: 36f8 96bd ff48 103d e3a5 0c3c 6fc5 6b3d
000001f0: 8315 1e3d b4e7 8f3d a392 2a3d 4aa4 b939
00000200: 15e8 773d 7bef 9b3c 9d73 273d 5f92 7f3d
00000210: a82c a13d 0d60 193d df3d e63b
-0.06793857 0.014955565 -0.010407802 -0.0064150635 0.0005674989 0.06064374 0.03914256 0.027459292
-0.0161978 0.08318636 0.06493911 -0.05151582 -0.022619035 -0.005867284 -0.03614877 -0.03457087
0.0031360674 0.025240427 -0.043901417 0.06237347 0.07213035 0.07025782 0.03505208 -0.039353754
-0.014871852 -0.022795554 -0.058933116 0.019281298 -0.014834759 0.015905298 -0.07709709 0.0058748373
0.0160746 0.028384987 0.02546225 0.011814214 0.029965168 -0.0020186936 0.06733893 -0.030442206
0.078279816 -0.06162942 0.078932464 -0.006445613 0.00645921 0.023795992 -0.033379704 0.07017116
-0.042130306 -0.059234053 0.02176545 0.017845444 -0.029212348 0.0014895536 0.14253625 -0.043031126
-0.06502628 0.027424937 -0.016412826 0.044536833 0.070078336 0.059253894 0.05067207 -0.12402587
-0.03548065 0.007338762 0.076991074 0.035308294 0.012409128 -0.061864913 -0.0022989304 0.033860993
-0.0039166277 0.034384403 -0.041192364 -0.03606383 0.057131622 -0.07391798 -0.0037878621 -0.07261218
0.031821795 0.16210154 0.058107007 -0.065235585 0.065204784 -0.06835699 -0.030894803 0.037688695
0.04066315 -0.05578365 -0.07418011 -0.002755795 0.029001033 -0.016973665 0.06514008 -0.05536474
0.06127383 0.06346456 0.038673423 0.15430883 -0.0625284 -0.04685614 0.020119322 -0.0521303
-0.061364867 -0.056343388 0.060219094 -0.023878576 0.16181062 -0.05813772 0.030399019 -0.069178626
0.028678162 -0.076125026 0.04120294 -0.057318676 0.049414814 0.07594903 0.0792025 -0.04378926
-0.07371561 0.035225864 0.008584472 0.057561334 0.038594734 0.07026616 0.04164375 0.00035408355
0.060524065 0.019035092 0.04088174 0.06239545 0.07869846 0.037445117 0.0070264186

bias f4 [15]
00000000: d6f6 62bc 1599 6a3d a73e 85bb 2e27 03bd
00000010: 0e40 19bd 41d4 8bbd 2c35 933d 35cc 24bd
00000020: c3e0 883c 3565 013d 2173 353b cad0 6e3d
00000030: 6c77 51bd 07a8 e73c 99a9 03bc
-0.013852796 0.057274897 -0.0040663066 -0.032019787 -0.037414603 -0.068275936 0.07187876 -0.04023381
0.016708737 0.03159066 0.002768703 0.058304586 -0.05113928 0.028278364 -0.008036041

weight f4 [15, 9]
00000000: e4df 3cbc db1e 8abd b2c5 4abd 2569 c0bd
00000010: 81cd 5bbc 3604 103e c857 9d3d 4c72 8bbd
00000020: 64d4 4d3b 6f16 283d 2936 9a3b c0b2 f63b
00000030: 2cc7 d43b 6a0c 06be a9e8 05be c363 6e3d
00000040: a5a1 84bd 5e07 f03d 4d35 933b 42ac 4ebd
00000050: fb56 5bbd 9fa6 80bc 1afa 193c 8fd7 2f3d
00000060: 7f83 1e3d 4dc4 f03d 6dc8 d73d 074c 2ebc
00000070: 629d 2c3d b45d a2bd 06f4 aabd 466a 8a3d
00000080: 08f2 a73d 079d 38bd 8153 bcbc 5ee9 213c
00000090: ae2c df3c eb80 b6bc 7a55 993d 6555 a7bc
000000a0: e6a0 a0bc 1633 00bc cf1e 2cbd ed46 843d
000000b0: 3fe5 333d ad79 bb3c 7c50 ffbc 7f25 b0bd
000000c0: 0c6a 2f3d b7ea 6a3d eba4 23bd b0eb 453b
000000d0: ccfc 7dbd 9faa f5bd 921b 43bb 825e 12bc
000000e0: 92e9 3e3d 59d4 20bc 8c9e e1bb 65b1 3d3c
000000f0: f46b 703c 7eda 603c 0ebc 0b3e edfb 393c
00000100: eb6c 983c 9c5f 913b 5b03 a5bd c537 9b3a
00000110: 5461 0bbd ce5a 7dbd 8d5d 113d 8678 07bd
00000120: 8509 2bbd a65e f6bc 0f7f 11bc d51c 0dbd
00000130: cc83 2fbe e682 00be e8f3 4cbd 3aac 24be
00000140: cf33 1cbe 212f 24bd 5bfe a13c 6a3f bfbc
00000150: c0fd ca3c 3956 01be 4164 eabd e531 bdbc
00000160: aa4f 2dbe 9cbe 26bd f7b9 fcbb 8570 e3bd
00000170: 24ca 9dbd 6b3c 34bd 03fa 0abe 53c0 bebd
00000180: 9768 a5bd 10ad 87bd 4054 813c 8917 b0bd
00000190: 974d 8fbd a552 82bd 2a17 d6bd f1dd 16bd
000001a0: 2a19 293c 3ba5 503d 7e5c 1fbe b401 15be
000001b0: 21ba 21be 2741 0dbe d049 0dbe 0828 9bbd
000001c0: 7ddb f7bd bfd6 debd 6982 a0bd ba19 3cbc
000001d0: 7717 4a3d a1ff 97bd 29d5 073d 9f9a d5bc
000001e0: 399e 3cbd 860b 8dbd 75a9 c1bd 9f03 9dbc
000001f0: 7a62 96bd 2a2a 4ebe 67d1 9d3d 6d51 79bc
00000200: 0e4e 92bc a03b 9a3d 5a12 0bbc 76d9 5ebe
00000210: deb5 1e3d a7ea 92be 913a e6bd
-0.011527989 -0.067441665 -0.049504943 -0.09395055 -0.013415695 0.14064106 0.076827586 -0.0680891
0.0031407112 0.04103702 0.0047061634 0.007528633 0.0064934697 -0.13090673 -0.13077034 0.05820061
-0.06476144 0.11720155 0.004492438 -0.050457247 -0.053549748 -0.015704451 0.009398008 0.042930182
0.038699623 0.117561914 0.10536275 -0.0106382435 0.04214228 -0.07928029 -0.08347325 0.06758551
0.08200461 -0.045071628 -0.022989037 0.009882299 0.027242985 -0.02227827 0.074870065 -0.020426461
-0.019607972 -0.00782468 -0.04202157 0.064588405 0.043919798 0.022885168 -0.031166308 -0.08600902
0.042825744 0.057352748 -0.0399522 0.0030200295 -0.062008664 -0.11995434 -0.0029771072 -0.008933665
0.04660947 -0.009816253 -0.0068853553 0.011577939 0.0146741755 0.013723968 0.13645956 0.011351568
0.018606624 0.0044364464 -0.08057281 0.0011842182 -0.034028366 -0.061854176 0.035489608 -0.033073924
-0.041757125 -0.030074429 -0.008880391 -0.034451324 -0.1714012 -0.12549934 -0.050037295 -0.16081324
-0.15254138 -0.040084008 0.019774606 -0.023345668 0.0247792 -0.12630548 -0.11444903 -0.02309508
-0.1692492 -0.040709123 -0.0077125984 -0.11105446 -0.07704571 -0.04400293 -0.13571934 -0.09314027
-0.080765896 -0.06624806 0.015787244 -0.08598239 -0.06997221 -0.063634194 -0.10453637 -0.036832754
0.010320941 0.050938826 -0.15562627 -0.14551431 -0.15793659 -0.13794385 -0.13797688 -0.07575995
-0.12102411 -0.10880803 -0.07837374 -0.011480743 0.049338784 -0.07421804 0.03316227 -0.026074706
-0.04604933 -0.068869635 -0.094561495 -0.019166766 -0.07343002 -0.20133272 0.07705956 -0.015217167
-0.017859485 0.07530904 -0.008488262 -0.21762642 0.03874766 -0.2869465 -0.112416394

bias f4 [15]
00000000: b056 45bd a0c9 033a 0e1e 06be 19a3 9cbd
00000010: 1f8b 273c fe45 1e3d af34 ee37 7992 2ebd
00000020: 7185 613d 477e 4cbc ce60 2dbd f07c 30bd
00000030: 3346 89bd 09dd e83a 282d 51bb
-0.048178375 0.0005027298 -0.13097402 -0.07648296 0.01022604 0.03864097 2.8396344e-05 -0.042620156
0.0550589 -0.012481279 -0.04232865 -0.0430879 -0.067028426 0.0017766069 -0.0031917784

weight f4 [15, 9]
00000000: b760 873b 62f6 e0bd aa51 b8bd e02a 3d3d
00000010: c915 2e3e b8ce 9c3d 12a9 8fbd f26d 1abe
00000020: 0266 2a3d 41bf e5bc 2c3e 86bb e0e6 9c3c
00000030: a32a abbc 1299 96bd ca3c 81be f68e 8c3d
00000040: bea1 4bbe 3140 d13d 56ec 1cbe 799f 31bd
00000050: a027 c4bd ebdb c5bd 9302 7abd 7936 8fbc
00000060: 9b40 2c3d a3ab dcbb 1749 f03d e587 0cbe
00000070: 3904 84bd fbf3 acbd fc77 123d 0f1f 2dbd
00000080: 69fa cd3c d36d eabc 5693 e2bc 9c64 a83c
00000090: af7c 32bd 5fa2 b73c 6167 53bd ff5c 48bd
000000a0: 02d3 24be 1fb0 933d d301 f8bc 04e3 abbd
000000b0: 447b e73c a5df edbd 76ce 9e3c 5135 86bd
000000c0: 83e0 7dbd 5216 833c 5d46 7fbc 7ccc cf3c
000000d0: 68e1 13be 7417 883e 1f6f c13d 299e 713d
000000e0: 2528 db3d 0cca 01bd 734b e8bd 604a 663c
000000f0: 752a 233d 11c9 153e bf29 64bd 1d27 4bbd
00000100: 59fc a6bd c3da 00bd b210 c3bd f470 84bc
00000110: dd4c 9bbc 8b72 0e3d b4ba ca3c ad00 0f3d
00000120: 4320 e3bc dcd1 adbd 482c ab3c 92ed a43b
00000130: 301c f3bd 5954 15be b973 2b3d 6e15 60be
00000140: 4b8a f2bd b620 47bd e022 2c3b 0762 243d
00000150: e196 31bd bde4 d8bd 26f9 b2bc 3447 8cbd
00000160: 63e4 cbbd 2d8e d2bd 2806 a1bd e426 30bd
00000170: 6209 72bd d0f9 d1bd aa7e 273c f207 6e3d
00000180: 08e9 89bc d8fd f93c 618a bdbc 120e 083d
00000190: e813 093d 22f1 513b 8f4e 41bd cc9c 75bd
000001a0: 63e3 4abd 41dc 9d3c 61eb 14bd f14d 8d3c
000001b0: c16e f0bd 6be0 28bc e37a f1bd 7765 163a
000001c0: b68a ee3c 0f78 0cbe 2828 ef3c 31e6 2abc
000001d0: 399c 053b b1b9 523c bcc1 d1b9 3f24 c1bc
000001e0: 3117 213d 65cc 1bbe 62ac bdbd 8bae 9e3d
000001f0: 2b28 1dbd 843b f5bd 023e e3b9 1a91 0c3d
00000200: 1f47 d13d fc04 83bc 174a c7be d8ae 3cbe
00000210: c0f3 843d c5db 64be 5b9c 2cbe
0.0041314024 -0.10984494 -0.08999951 0.046183467 0.17000498 0.07656616 -0.070146695 -0.15081003
0.04160119 -0.028045299 -0.004096767 0.019153059 -0.020894354 -0.073534146 -0.2524169 0.06863205
-0.19885918 0.10217322 -0.1532453 -0.043364976 -0.0957787 -0.09661087 -0.06103761 -0.01748203
0.0420538 -0.006734328 0.11732691 -0.13723715 -0.06446118 -0.08444973 0.035758957 -0.042265948
0.025143819 -0.028616821 -0.027658146 0.020555787 -0.04357594 0.022416292 -0.05161226 -0.048916813
-0.16096118 0.07211327 -0.030274307 -0.08392909 0.02825702 -0.116149224 0.019385558 -0.06553138
-0.06198169 0.016001854 -0.015580741 0.02536606 -0.14441454 0.26580393 0.09445023 0.058988724
0.10701016 -0.031686828 -0.11342516 0.014055818 0.039835412 0.14627482 -0.055703875 -0.04959785
-0.081536 -0.031458627 -0.09524669 -0.016167141 -0.01895755 0.034777205 0.02474723 0.034912754
-0.027725345 -0.08487293 0.020895138 0.0050332034 -0.11870611 -0.14582957 0.04185841 -0.21883175
-0.118427835 -0.04861518 0.0026265904 0.04013255 -0.04335678 -0.10590503 -0.021847319 -0.068495184
-0.09955671 -0.10281024 -0.07862502 -0.04300584 -0.05909098 -0.10252726 0.01022307 0.058113046
-0.01683475 0.03051655 -0.023137273 0.033216543 0.03346625 0.0032034595 -0.04719406 -0.059963986
-0.04953326 0.019270064 -0.036357287 0.01724908 -0.11739875 -0.010307412 -0.11791017 0.00057371653
0.029118877 -0.13717674 0.029193953 -0.0104308585 0.0020387305 0.012861655 -0.0004000793 -0.023576854
0.039328758 -0.15214689 -0.09261395 0.07748135 -0.038368385 -0.11974242 -0.00043343013 0.034318067
0.102186434 -0.015993588 -0.38923714 -0.18426073 0.06491804 -0.2234946 -0.1685652

bias f4 [15]
00000000: f369 abbd 1b65 933b 7525 e1bd a12d f0bd
00000010: ef24 8abc c563 383c 9a4b 02bd eec4 043c
00000020: 0b18 443d afee 463d be3c 98bd 9159 663d
00000030: 0cbb 02be df12 87bd 2d1c 933d
-0.083698176 0.0044981367 -0.109934725 -0.11727453 -0.016863314 0.011254256 -0.03181038 0.008103592
0.04787449 0.04856747 -0.07433461 0.05623776 -0.12766665 -0.06595396 0.071831085

att f4 [1, 1, 3]
00000000: 1866 343f a4b7 08bf 7e12 d0be
0.7046828 -0.53405213 -0.40639108

bias f4 [3]
00000000: 0000 0000 0000 0000 0000 0000
0.0 0.0 0.0
