model/gnn/241004_3p/epoch_4.pt (torch, 199196 bytes, 61 tensors)

att f4 [1, 1, 10]
00000000: 46b8 673b 7bd1 a63c 070f ffbc 7839 b1bd
00000010: bc0d 75bd ca08 95bc 1f9c 243d a93a cb3d
00000020: f8b8 073b 40a6 233d
0.0035357638 0.02036356 -0.031135095 -0.086535394 -0.05982755 -0.018192668 0.04018795 0.09923298
0.0020709615 0.03995347

bias f4 [10]
00000000: 7c0e ad3d 39d3 17bf 20b0 19bf 4500 6d3c
00000010: 12d0 ae3d 59d6 f5be 61aa a93d b42f c03d
00000020: 1cb4 7abe 2b51 fc3d
0.08450028 -0.59306675 -0.6003437 0.014465396 0.0853578 -0.48015097 0.0828445 0.09384099
-0.24482769 0.12320169

weight f4 [10, 163]
00000000: 1936 273e 2fd2 9b3e b84a 9cbe 7af7 043e
00000010: dae9 283e 9d86 703d c1b8 e23d 7b39 6f3d
00000020: d509 933f f41f d13e 41cc 973e d33b c03e
00000030: 1d94 2a3e 0a08 403e 885f 223e f9f1 e23d
00000040: a96d 0dbe 7abf 1a3e 6899 063e 6759 9c3e
00000050: 1a98 d73d 199b a03e 0531 623f 4b51 323d
00000060: fce1 4dbe a9af 0f3c 848f f2be 6f69 9e3c
00000070: c2e4 363e 3054 b0be 894d 1bbf bb9a b23f
00000080: 4cf2 f13d d753 e33a 1062 9abe 5992 a0bd
00000090: a7ad e3bc 09a6 883e 8430 3d3e d794 63bd
000000a0: 75c7 0a3d e530 30be ed9f 2fbf 938e efbc
000000b0: f28a 11bf 4522 ebbe 99b0 033e 61ea f3bc
000000c0: f3c9 4cbe 235d 9abe 23ae b63e c322 e13d
000000d0: a51a bbbd e35f 81bc 09de bebb dfbc 8a3e
000000e0: a572 42be d38d a73e b22a ce3d 013a db3e
000000f0: baa2 ef3e 5987 8d3c c2a0 413f 6bea 49bc
00000100: f439 903c f81a 8a3e d5fc ee3d 3dcf cd3e
00000110: dad2 a93f 8fd9 033f f112 c6bb be9f 66be
00000120: 7de4 74bf d83d 4abf 750c 5eba 48ab 68bf
00000130: c4bf dd3c 5293 e23c 6bec 4c3e ef19 303f
00000140: f8c5 333f f378 793d 3e02 ed3e 4be6 d8bc
00000150: 4cd7 5fbf d158 083f 5e82 923e c4c3 64bc
00000160: 6157 8a3c 36e6 78bc 98ca b03c a071 053f
00000170: 44fe f03e 3aca afbc b64b 2d3f 71ee c5bb
00000180: 00de 6c3f 86e7 81bc dec7 c13e 93d3 fb3e
00000190: 5882 13be 7414 623e 0808 42bc 7f28 8fbe
000001a0: 9f81 8e3c 0826 e6bf f6ba afbe 2f00 ac3b
000001b0: a8ff 223f f11e ea3d f5dd af3e 159a 863f
000001c0: fc5f bb3e cd38 adbc e5d5 13bc a4aa 74bf
000001d0: 0919 48bf 3874 923c 6aad 55bf b921 633c
000001e0: 2a09 aa3c 3556 ea3e f377 fb3e 6c51 7d3d
000001f0: ab18 6abd 0fb4 973e ea45 c6bb c666 b7be
00000200: 0b30 c63e f82b 08be 51ec 16bc 01fe 9abc
00000210: d00f 82bc adfa 9d3e 785b e13e 8ed5 0c3f
00000220: 024e f33e 0005 0b3f d693 d23d e13e 0e3d
00000230: 3a47 2f3e 3384 15bd 11bb 33bd b7e7 dd3c
00000240: 6be4 d2bd 45ce 06be 1796 883d 0e07 253b
00000250: f032 283c 90ac 44be e487 2dbe f5ab b63d
00000260: 4193 ce3e 0f16 c4bb ea07 513c 5e9d 8abe
00000270: 590b a43d 89e6 69be 4d5c 2bbc 43fb e4bd
00000280: 5023 ab3d cd6a 2dbf 593a b6be c66c 1dbf
00000290: 7bc8 30be ad7d d1be 537d 26bf ddba 6bbf
000002a0: 5f97 15bf 1155 17bf aff3 12bf e2ec b73d
000002b0: a9da bfbd 8b9c 59be c4ea 08be 840a 313d
000002c0: be77 11be bb40 b1be 2c17 6cbe a175 50bf
000002d0: d6d9 19bf 91d6 91bf 6ead 4dbf d651 89bf
000002e0: e5eb 56bf d044 ba3c 6ca9 e6be d722 90bf
000002f0: b5dd 64bc a922 55bf d064 9dbc 853e c13d
00000300: 10c9 c6be 87cc 473e a0ed 81bf fa60 ffbe
00000310: 7f4b 8b3b 9fa0 3c3c 69e6 1fbf eab6 07bf
00000320: c49b 2cbf 5d01 c1be 69f4 26bf 3901 e8be
00000330: 5c08 83be 6510 16bf 0bf9 1bbf 4729 f7be
00000340: e5c4 acbe 63c5 78bf 7891 cebe b39e 5ebf
00000350: 8363 19bf 26c3 30bf fe1f 44bf 4d0b 08bf
00000360: 8542 15bb 61e0 0c3c 70db 413e 1ca3 b93e
00000370: fc0c 01bf 9188 283f bbbf 523f 6d72 cebd
00000380: 6bab a8bc fc18 babe fd4f c63e b69d 5abc
00000390: 3962 8d3d a313 82bd 4850 ebbd cb0a 19bc
000003a0: ed20 033f d953 8a3c bc82 b93b ed87 0e3d
000003b0: 0076 693e 2f7b 883c 7f46 53bd c659 d53c
000003c0: 46b7 37bc cf1b 823e 08ff 90be 06ca c6be
000003d0: 3495 f33e b2e5 473e 1a66 91bc 4201 3e3e
000003e0: a0e0 e23e 513c 26bc e040 cd3c 7c1f c8bc
000003f0: 2a5e 3e3c b8be 12bf 0b61 19be a8a8 6cbe
0.1632923 0.30433795 -0.30525756 0.1298503 0.16495457 0.058722127 0.11070395 0.058404427
1.1487375 0.4084469 0.2964802 0.37545642 0.16658063 0.18753067 0.15856755 0.11081309
-0.13811363 0.15112105 0.13144457 0.3053696 0.10527058 0.3136833 0.8835605 0.04353456
-0.20105737 0.008769908 -0.4737512 0.019337384 0.17860702 -0.3443923 -0.60665184 1.395347
0.118137926 0.0017343712 -0.3015294 -0.078404136 -0.027792765 0.26689175 0.18475538 -0.055561867
0.033881623 -0.17206152 -0.686034 -0.02924279 -0.5685264 -0.45924583 0.12860335 -0.029774847
-0.19998913 -0.30149183 0.3567973 0.109929584 -0.091359414 -0.015792793 -0.0058248085 0.27097222
-0.18989046 0.3272539 0.10066737 0.4281769 0.46803838 0.017276453 0.7563592 -0.012323956
0.01760576 0.269737 0.11669318 0.40197173 1.3267472 0.51503843 -0.0060447385 -0.22521874
-0.95661145 -0.79000616 -0.0008470484 -0.90886354 0.02706898 0.027658138 0.20012061 0.6878957
0.7022395 0.06090636 0.46290773 -0.026477 -0.8743789 0.53260523 0.28615087 -0.01396269
0.016887369 -0.015191605 0.02158098 0.52126503 0.4706899 -0.021458734 0.6769365 -0.0060403873
0.92526245 -0.01585747 0.378478 0.49184856 -0.14405191 0.22078115 -0.011842735 -0.27960584
0.017395793 -1.7980356 -0.34322327 0.0052490453 0.6367135 0.11431683 0.34349027 1.0515772
0.36596668 -0.021145249 -0.009023164 -0.95572877 -0.781632 0.017877683 -0.83467734 0.013863021
0.020756323 0.45768896 0.49114951 0.061845228 -0.05715243 0.2962956 -0.006050815 -0.35820597
0.3870853 -0.13298023 -0.009211616 -0.018919947 -0.01587668 0.30855313 0.44015098 0.5501336
0.47520453 0.54304504 0.10282104 0.034727935 0.17117015 -0.036503028 -0.043879572 0.02708803
-0.102974735 -0.13164623 0.06669252 0.0025181207 0.010266051 -0.19206452 -0.1694637 0.08919517
0.4034672 -0.005984075 0.0127582345 -0.27073187 0.08009977 -0.22841848 -0.010459018 -0.11180737
0.08356345 -0.6774109 -0.3559139 -0.614941 -0.17263977 -0.40916196 -0.6503498 -0.92082006
-0.584341 -0.59114176 -0.5740308 0.08980729 -0.09367878 -0.21251123 -0.13370806 0.04322292
-0.14205834 -0.34619698 -0.23055714 -0.8142949 -0.60098016 -1.1393605 -0.8034276 -1.0728099
-0.83953696 0.02273789 -0.45051134 -1.1260632 -0.013968875 -0.8325601 -0.01921311 0.09435753
-0.38825274 0.19511615 -1.0150642 -0.49878675 0.004250943 0.011512904 -0.62460953 -0.5301348
-0.6742518 -0.37696353 -0.6521669 -0.45313433 -0.25592315 -0.58618766 -0.60926884 -0.4827368
-0.3374397 -0.9717619 -0.4034536 -0.86960906 -0.5991747 -0.6904777 -0.76611316 -0.53142244
-0.0022775244 0.008598418 0.18931365 0.36257255 -0.5041044 0.65833384 0.8232381 -0.10080419
-0.020589551 -0.36347187 0.387329 -0.013343265 0.069035 -0.06351402 -0.11489922 -0.009340952
0.51222116 0.016885685 0.0056613367 0.034797598 0.2279892 0.016660301 -0.051580902 0.026043784
-0.011213129 0.2541184 -0.28319573 -0.38826007 0.4757477 0.19521216 -0.017748881 0.18555167
0.44312 -0.0101462165 0.025055349 -0.024429075 0.01161913 -0.57322264 -0.14978425 -0.23111212

bias f4 [10]
00000000: 2467 b53d 5b31 18bf c88c 17bf b6ae c43c
00000010: b9e0 b83d 96da f7be 1146 a93d 0684 cc3d
00000020: 9343 73be 1451 033e
0.08857563 -0.5945031 -0.5919919 0.02400909 0.090272374 -0.48408955 0.08265317 0.09986119
-0.23756246 0.12823898

weight f4 [10, 163]
00000000: 21c9 cabb c4ef c43c f817 a73a cc42 16bc
00000010: d079 543c bbf2 b83c 6cfe 8c3c b38e 57bc
00000020: e961 b23c 5afc e1bc 61ad cb3c ae85 93bc
00000030: 231c c63c abc4 9a3c d9e6 1dbc 6e99 283c
00000040: a09c a43c 2bd0 2fbc afb9 b1bc 5da2 883c
00000050: 084a 753b 2f61 383c ff07 9bbc 28df e3bc
00000060: a436 bb3c fb84 a33c 3b34 213c 98e5 05bb
00000070: e3f7 73bb 7a53 94bc 8742 c5bc bcdc 033c
00000080: 114b 6bbc 01af 80bb 7d15 22bc 89bd 3ebc
00000090: 695c 993c 9a87 acbc 3fb2 9e3c b522 8aba
000000a0: 49cf c9bc 70bb cb3c 0102 b7bc 69ab 843c
000000b0: 2aea d73c f693 623c 5003 8f3c e3f8 ccbc
000000c0: ebac 1b3c 5eec d5bb 420e b0ba f5ed 80bb
000000d0: 4ef1 ae3c ece6 b7bc 2332 51bc 2d0c 35bc
000000e0: 32b6 f23a 7028 4f3c 68e7 d1bc 48a6 b138
000000f0: bb9c 313c c9eb b0bc 2c0e 0b3c 9df8 ab3c
00000100: ce6f 8bbb 3e27 2f3a 9a4d aa3b 337e ccbc
00000110: bec9 3338 3ea7 5bbc b5e8 9e3c e7c8 bb3c
00000120: 6b19 173c ae77 dbba 364a 703c 19b9 2e3c
00000130: 4763 e63c 5109 8d3c 76b7 abbc 5d1b af3a
00000140: 1ffd 79ba 8b3c d8bb f5f0 adbb 3c9c 143c
00000150: 7f2b babb 8d18 423b 972c 453c a226 35bc
00000160: d7e2 6cbc 6b27 d0bc e4c8 75bc 4de4 8bbc
00000170: b967 95bc 214f 843c 77b2 b9bc c674 863b
00000180: 7dab d7bc 5ca5 bcbb f047 ef3b 34ae 4b3b
00000190: e6a0 6abc a4d8 be3c a76c 9bbc c281 ab3c
000001a0: 3964 b9bc 247c 9c3c e0fb acbc 1760 03bc
000001b0: e7b9 fbbb 1bc8 a03c 5bd2 0dbc 9ebc 093b
000001c0: a867 933c ef92 6fbc 8e70 e33c 3a07 34bb
000001d0: b58c 5ebc 35ea ce3b f225 913c a794 a03c
000001e0: 85b7 d9bc ad40 8a3c 18f3 babc 8e84 b5bc
000001f0: 84cd b8bc c647 78bc 688b 953b a8dd c73c
00000200: 9499 84bc f35c bbbc 445e 863c 46d1 d53c
00000210: c8e2 86bc 8b4a aebb 35b8 1d3c 21fc 98bc
00000220: 0e46 98bc 91d1 b93c 525b 81bc a279 063c
00000230: e008 873c 8b82 94bc e9b1 3b3c 4144 393c
00000240: 3479 af3b 17c4 6ebc 5fa7 b2bb 9a09 913b
00000250: 5cb9 a0bb cb68 553c 92c7 cf3a 8480 4a3c
00000260: e070 6e3b 00d3 c83b c0ce 8ebc c78d c53c
00000270: 1e6a 5dba 9e7f 0bba 5f03 633c ac08 4a3a
00000280: a591 153c bc3b 1dbc f756 99bb 9f40 443c
00000290: 9b67 d93c d6fe d5bc 904a bc3c 9a6d bc3c
000002a0: 4c99 9d3c 482c 09bc 4798 85bc e772 5bbc
000002b0: 8d99 c63c 3b83 bbbc 1605 583b ab1d 0abc
000002c0: c5dd 8c3c c9d6 273c b050 5a3b bfe9 ee38
000002d0: 1c9d 75bc 221d 8e3c c608 bebc 287f 533c
000002e0: b3a7 c63c ba5e ac3b 4f62 16bc c813 d9bb
000002f0: f5af 053c b192 afbc 6d19 7dbc 9378 8dbb
00000300: 507f d6bc c597 7a3c 0863 ce3c 6ef8 b33c
00000310: b95e 823c 3bf7 92bc 0a81 be3b 0ad0 95bc
00000320: d742 9a3c 6cd1 0dba 08f2 993c 1a10 d33c
00000330: 99df 423c f8a2 8ebc f9a1 8fbc c92b a6bb
00000340: 6cf1 053b f4ba 943c a21d c8bc fa25 853c
00000350: f08f c93c 4367 a0bc 687f 973c 54a9 cdbc
00000360: 008f 913a 9c5b 933b 99a6 fcbb be66 74bc
00000370: 9818 8cbc 8884 bebc 7035 81bc 0bdd 92bc
00000380: 7332 b63c 22da 68ba 083d 7abc 9e71 2d3b
00000390: 7458 d5bb 55e0 6abc 3d47 193b 95a6 073c
000003a0: fe7a 9dbb 5951 2d3c b8a4 073c 2941 cf3c
000003b0: 7100 3ebc 1ecd afbb 3fb0 0abc 3767 0dbb
000003c0: a19c 043c 970a 5ebb a99f 96bc 407b ebbb
000003d0: 2e89 ad3c b000 953c 186a d83c 7bcf 73bc
000003e0: 4913 693b dde7 d7bc 5ea8 a23c 0c9f a13b
000003f0: ad3d c5bc c086 84bc 78e8 6abc fad3 dd3c
-0.006188527 0.02404011 0.0012748232 -0.009171199 0.0129684955 0.02257668 0.017211162 -0.013156581
0.021775203 -0.02758615 0.024862947 -0.01800808 0.024183339 0.018892607 -0.009637558 0.010290487
0.020094216 -0.010730783 -0.021694986 0.016678983 0.003742816 0.011253639 -0.018924711 -0.02781637
0.022853203 0.019960871 0.009839113 -0.0020431038 -0.003722661 -0.018106211 -0.024079574 0.008048233
-0.014361159 -0.003927112 -0.0098928185 -0.011641868 0.018720822 -0.021060754 0.019372104 -0.0010538908
-0.024634974 0.02486965 -0.022339823 0.016195016 0.026356775 0.013829222 0.017457634 -0.025021022
0.009501676 -0.0065284213 -0.0013431984 -0.0039346167 0.021355297 -0.02244898 -0.012768301 -0.011050266
0.0018517433 0.012643918 -0.025623038 8.47099e-05 0.01084059 -0.021596806 0.008487266 0.020992571
-0.0042552715 0.0006681568 0.005197239 -0.02496252 4.2864813e-05 -0.013406573 0.019398073 0.022922946
0.009222369 -0.0016744041 0.014666131 0.010664248 0.028123511 0.017216356 -0.020961504 0.0013359595
-0.0009536314 -0.006599014 -0.0053082653 0.009070452 -0.0056814547 0.0029616684 0.012034557 -0.011056574
-0.01445838 -0.025409421 -0.015001509 -0.017076636 -0.018237935 0.016151013 -0.022668106 0.004103276
-0.02632689 -0.005757017 0.007302277 0.0031079175 -0.014320588 0.023296662 -0.018972708 0.020935897
-0.022630798 0.019102164 -0.021116197 -0.008018515 -0.0076820734 0.019626668 -0.00865611 0.0021016966
0.017993763 -0.014622434 0.027763631 -0.0027470128 -0.013583352 0.0063145407 0.017718289 0.019602133
-0.026576767 0.016876543 -0.022820994 -0.022157934 -0.022558935 -0.015153831 0.0045637377 0.024397686
-0.016186513 -0.02287147 0.016402371 0.026100766 -0.01646556 -0.005318945 0.009626438 -0.018674912
-0.018588092 0.022682937 -0.015790615 0.00820771 0.016483724 -0.018128654 0.011455991 0.011307777
0.0053550247 -0.014573119 -0.005452081 0.0044261934 -0.004904909 0.013025473 0.0015852323 0.012359742
0.0036383197 0.006128669 -0.01743257 0.024115456 -0.00084462937 -0.00053214456 0.013855784 0.00077069807
0.009128963 -0.009596761 -0.0046795565 0.0119782975 0.02653866 -0.026122492 0.022984773 0.02300148
0.019238137 -0.008372374 -0.016307963 -0.013394094 0.02424314 -0.022889724 0.0032962016 -0.008429925
0.017195592 0.01024408 0.0033312254 0.00011392263 -0.014991071 0.017347876 -0.023197543 0.012908734
0.024249887 0.0052603157 -0.009178712 -0.0066246726 0.008159627 -0.021432253 -0.0154479565 -0.004317352
-0.026183754 0.015294974 0.025193706 0.021969046 0.015914308 -0.017940154 0.0058137225 -0.018287677
0.0188307 -0.00054099294 0.018792167 0.025764514 0.01189413 -0.017411694 -0.01753329 -0.0050711376
0.0020438088 0.018155552 -0.024428193 0.01625346 0.024604768 -0.019580489 0.01849337 -0.025105156
0.0011105239 0.0044970047 -0.0077102897 -0.014917074 -0.017101571 -0.023256555 -0.015772551 -0.017927667
0.022240853 -0.0008882602 -0.01527334 0.0026465426 -0.0065107886 -0.0143357115 0.0023388409 0.008279462
-0.0048059216 0.010578477 0.008279018 0.025299625 -0.011596785 -0.005365028 -0.008464872 -0.0021576413
0.008093984 -0.0033880824 -0.018386679 -0.0071863234 0.021183576 0.018188804 0.026417777 -0.01488101
0.0035564473 -0.026355678 0.019855674 0.00493229 -0.02407726 -0.016177535 -0.014337651 0.027078617

bias f4 [10]
00000000: 6567 4d3b 07e0 33bc 44f3 78bb 835a 20bc
00000010: 7e2f 3bbc 20a3 bc3a ba35 f5ba d099 fdba
00000020: c8c2 453a 28e6 bfbb
0.0031342146 -0.010978705 -0.0037986794 -0.009787205 -0.011424897 0.0014391877 -0.0018708028 -0.0019348208
0.0007543978 -0.005856294

weight f4 [15, 163]
00000000: eee0 3dbd fcb7 e9bc 32a1 afbc 7d30 8d3d
00000010: d98f 393e 98d8 623d c1c8 cfbd d225 b4bd
00000020: 62b0 bcbd 83d4 4ebd b3d0 4abc 19b6 d73b
00000030: 48b3 acbc 2ef4 b7bc 483a e9ba 2ac3 1cbb
00000040: b6a4 1b3e cf64 223d de5a bdbd b986 46bd
00000050: 4b05 cfbd fb52 94bc e8ee 83bd 1684 11bd
00000060: cf41 c5bc fb04 edbb 0d51 983c eccd 253c
00000070: d2ce a9bd f6cc 8c3b 2bf6 0a3c cd96 0d3e
00000080: efd2 413c 6cb2 0dbb f6fd ffbb d6dc 883d
00000090: 407f cabd 1806 51bd 6938 f6bc 3b58 f4bc
000000a0: 6760 a7bc 3e44 76bd 1460 043d 17ff 543b
000000b0: d518 a5bd 21ca aebd 7c41 65bb 67e6 b23c
000000c0: c8b0 94bd c3c1 4939 0066 0a3d 68cd cbbd
000000d0: 3980 59bd f843 c2bb 5988 13bc 4d4e a6bd
000000e0: ad78 8d3d 1930 bebb 4cd3 8a3d 1413 c5bd
000000f0: b721 34bd e0cb fe3b 9ee0 533d fc42 f93d
00000100: cb90 1f3a 0019 cfbc 4d54 93bd 435e a3bd
00000110: 4f0e 233c 02b9 183d 1f50 f1ba 865e 11bc
00000120: 2659 79bb 6a66 f63b 974f 9a3b e403 a9bb
00000130: 7334 dabb 06ed 96b9 6ae0 62bd 4694 2b3c
00000140: f22f 233d b281 62bd 03f8 8cbd 7f74 fc3b
00000150: aa20 03bd f7ec 3c3c 5139 31bd bc43 24bb
00000160: 6d85 213c 40dc 03bc c5e2 853d f90f abbd
00000170: 4ec3 6abd 5628 a63d 225c a3bc 1b70 cfbb
00000180: 9e6a b8bc 6780 63bb 5ef8 dc3c c55f 353d
00000190: 76fe 723d 7401 ab3d 8f72 1d3d d171 2cbe
000001a0: 2679 c139 e6ce 453b 8e13 bf3d 2113 09bb
000001b0: 6291 8cbc 9332 98bd bf29 20bc 387c 303b
000001c0: 652b 613d 87ce 37bc b170 32bb 3cca b73b
000001d0: aa8d f23b b6b3 1d3a 8094 2dbc e0c6 733b
000001e0: d3c8 1ebc c5e9 8bbd 82fb 883b aba0 5c3d
000001f0: cfcc 65bd c0ca 88bd 4ab5 0cbc 9f97 983b
00000200: aae9 2a3c f2d6 b5bc c4a5 afbb 7994 61bb
00000210: 420b e6ba ace6 b63d 168a e2bc efa6 153d
00000220: c326 97bc 4ee0 40bb e8f1 62be 5c19 d83d
00000230: 1d05 3ebe fc5a 59be 09a4 1ebe 44d8 81be
00000240: 0049 30be 322c 13be 60e3 46bd 8be9 55be
00000250: 3e6b 25be 7ca3 6d3e 4358 12be 3ad1 063e
00000260: f74e 6c3d d3e2 26be df54 1cbe bd55 edbd
00000270: fab7 37be 32c0 383d 9efa 21be fd32 28bd
00000280: d87c d6bc dca7 c7bd b72c 54be 27b5 733d
00000290: 7f6d a5bd 77e3 95bc 63bf 84bc 0112 eb3c
000002a0: 66f5 abbd 6f29 32bd 81eb 7c3d 48b6 11ba
000002b0: d8fb 7bbd 6e62 28bd 1463 44bd 094a 14bd
000002c0: a11a 4fbd f2ee 30ba 4027 e93b 0739 33be
000002d0: e6c4 37be fe43 53bb eab7 8cbb c7d5 8b3d
000002e0: 40db 9a3d 628c 8bbd efe5 913d 2083 1b3d
000002f0: 77e1 6c3b 435e 243c bd8a 31bb 4a95 273d
00000300: 3767 d63c dff7 0dbb 00b6 cfbd fea4 1abd
00000310: a8a7 6bbb 0104 46bc 9537 e8bb 5588 dc3d
00000320: fafa a73d 7ded 733d fb84 7bbc 4a15 fb3d
00000330: 6721 ab3d d458 95bc 48b9 41bd e7c9 913d
00000340: 8abb ca3d 9b0b 6d3d ca0f fcbd f682 253d
00000350: 3e81 113d c9a9 723d fd78 943d 46a7 37bd
00000360: a65a 67bb 8207 9bbb 5333 513c 80d6 06be
00000370: 6680 78bd 35e3 dabc eb1a 323d 83c2 df3c
00000380: a960 dc3b a913 583d 58a9 9abd 09a6 b33b
00000390: c100 bbbc a252 5dbd 2931 033d 3e63 fbbb
000003a0: c33f 45bb 791e f6bb a8fb 75ba 981f be3b
000003b0: 6191 c23b a79e 513b a08a 0f3b 1e3d 4eb8
000003c0: e3bb e5bb 45c3 0fbd 6e4d 273c a43a 1cbc
000003d0: 43f4 68bc 6161 25bd 6b29 10bc 63cf 3cbc
000003e0: d8b3 173a 46c8 19bb 6b17 99bb 6e66 9bbb
000003f0: 6c9c 33bc 5bee fb3d 2d6d bc3c 6a4b cbbc
-0.046357088 -0.028530113 -0.021439169 0.06894014 0.1812128 0.05538234 -0.10145713 -0.08796276
-0.0921333 -0.050495636 -0.012378859 0.006582987 -0.021081582 -0.022455301 -0.0017793858 -0.0023920038
0.15199551 0.03964692 -0.09245847 -0.048468325 -0.101084314 -0.018105974 -0.06442052 -0.035526358
-0.024079232 -0.0072332597 0.018593336 0.010119896 -0.08291401 0.004296894 0.008481543 0.13827057
0.011830076 -0.002162124 -0.007812257 0.06682746 -0.09887552 -0.051031202 -0.030056195 -0.029827228
-0.02043171 -0.060123675 0.03231819 0.0032500678 -0.08061377 -0.08534647 -0.0034981659 0.02183838
-0.07260281 0.00019241036 0.03378868 -0.099512875 -0.0531008 -0.0059285127 -0.009004676 -0.081204034
0.06907783 -0.0058040735 0.06778583 -0.096227795 -0.043977465 0.0077757686 0.051727884 0.121709794
0.00060869445 -0.025280476 -0.071938135 -0.07976963 0.009952142 0.037285812 -0.0018410719 -0.008872634
-0.0038047521 0.007519533 0.004709195 -0.0051579345 -0.0066590845 -0.00028786826 -0.0553898 0.010472363
0.039840646 -0.05529947 -0.06883242 0.007704317 -0.032013573 0.011531106 -0.04326755 -0.0025064787
0.009858471 -0.008048117 0.065373935 -0.08352656 -0.057315163 0.08113162 -0.019941393 -0.0063305027
-0.022511777 -0.0034713985 0.0269739 0.044280786 0.059324704 0.083498865 0.03843933 -0.16840293
0.0003690209 0.0030183136 0.09329902 -0.0020915943 -0.017159168 -0.07431521 -0.009775578 0.002692951
0.054973025 -0.011218674 -0.0027227814 0.005608825 0.0074021416 0.0006015854 -0.010594487 0.0037197396
-0.009691435 -0.068316974 0.0041803727 0.053864162 -0.056103524 -0.066792965 -0.008588145 0.0046567465
0.010431686 -0.02219722 -0.005360337 -0.0034420772 -0.0017550963 0.08930716 -0.027653735 0.036536153
-0.0184511 -0.002943057 -0.22162592 0.10551712 -0.18556638 -0.21226114 -0.15492262 -0.2536031
-0.17215347 -0.14372328 -0.048556685 -0.20889871 -0.16154191 0.23206896 -0.14291482 0.13165751
0.057692494 -0.16297464 -0.15266751 -0.11588619 -0.17941275 0.045105167 -0.15818259 -0.04106425
-0.026182577 -0.097488135 -0.20720182 0.059498932 -0.08077525 -0.01829694 -0.016204542 0.028695108
-0.083964154 -0.043496545 0.06174803 -0.0005558473 -0.061519474 -0.041109495 -0.04794605 -0.036203418
-0.050562505 -0.0006749473 0.0071152747 -0.17502223 -0.17946205 -0.0032236571 -0.004294385 0.06827884
0.0756135 -0.06813885 0.071239345 0.037966847 0.003614513 0.010032239 -0.002709075 0.040913858
0.026172264 -0.0021662635 -0.101421356 -0.037755005 -0.0035958085 -0.012085916 -0.007086704 0.10768191
0.08202167 0.05955266 -0.015351529 0.1225992 0.0835598 -0.018230833 -0.04729584 0.07118588
0.098990515 0.057872396 -0.12307699 0.040408097 0.035523646 0.05924395 0.07249639 -0.04483726
-0.0035301833 -0.0047311196 0.012768584 -0.13167763 -0.060669325 -0.026719669 0.043482702 0.02731443
0.00672539 0.052753124 -0.07551831 0.0054824394 -0.022827508 -0.054033883 0.032029305 -0.0076717427
-0.003009782 -0.007510957 -0.0009383508 0.005802106 0.0059377407 0.0031985433 0.0021902695 -4.9171147e-05
-0.0070109232 -0.035098333 0.010211332 -0.009535465 -0.014218393 -0.04037607 -0.008798937 -0.011524054
0.00057869917 -0.002346532 -0.004671981 -0.004742435 -0.010962587 0.12301322 0.023001278 -0.024816234

bias f4 [15]
00000000: c142 f0ba 0486 19bc 1b81 2fbb a5aa 4a3b
00000010: ffce ddbb 5ca8 dabb 7f70 3cbc 78a5 403c
00000020: f405 a4bb c6ae e93a 8f29 723b c15c 47bc
00000030: 2f49 05bc 24d4 cebb 47fd 2abb
-0.0018330441 -0.009370331 -0.0026779834 0.0030924466 -0.0067690606 -0.006672902 -0.0115014305 0.011758201
-0.0050055925 0.0017828576 0.003695104 -0.01216811 -0.008135124 -0.00631191 -0.0026090906

weight f4 [15, 9]
00000000: 3c3e a63d be13 88bc 43fb 953b d77f 4f3d
00000010: 9c6a 4e3d b2f9 9d3c d8de 01bd 1686 f2bc
00000020: d003 a33c 5c49 79bd 5e34 bcbb 25a7 50bd
00000030: 7e28 193d 5e2f 1bbc f95f a0ba 7774 013d
00000040: 1189 353d 40a8 05bd bbe9 853d 1129 46bd
00000050: e5f2 e4bc 9270 18bd b6e4 363d 34e8 e73b
00000060: c83c 25bd cf16 31bd d3bf 2abd 5eb6 0a3e
00000070: 4a6f 1fbd d266 cabc 3483 563b 8de4 e33c
00000080: 4767 87bc aaea d53c c976 1b3d eda7 c43c
00000090: fcab 07bb 56ae 233d 27f9 52bd cad3 c13c
000000a0: d499 05bd 6d1d ab3a 4354 4fbc 3a46 9b3c
000000b0: ac08 01bd a7f6 83bc b873 2dbd 96c9 f23c
000000c0: 1b93 053c f834 9dba f182 59bd 3ba6 683c
000000d0: 4464 453c 016e cebc 9f44 d4bd 730a 02bd
000000e0: a9d2 a0bc 23e4 9cba 9551 7abc 9667 483c
000000f0: 48b5 9eb9 f39c 06bd 4a1a ec3b 9d6d 823d
00000100: dea3 29bb 4dbb 3a3c fedb 223d 21f5 23bd
00000110: d818 f73c 6c2b 1d3d 8d08 973a 47fa fc3c
00000120: 4819 8e3d 27e0 da3c b297 1a3d c423 cd3b
00000130: 7e0c f83c 03af 05bd 08e1 43bc d168 2dbd
00000140: ede7 fcbb c42d e93c 69dc d63c f456 30bd
00000150: cb7b f8bc 140c 1d3c 2449 a4bc 68c3 3b3d
00000160: ca56 2ebb 9108 703c 3544 f43d 6675 23bd
00000170: 4f83 c2bc ce21 0fbd 593d 19bd 9be0 cf3c
00000180: 475f 34bd 60ca cdbc a7bd 80bb 87cc 0cbe
00000190: 3955 363d 9a6d 07bd 4bc0 10bd 12a0 bb3c
000001a0: 5366 4ebc a6fd 5f3c 877e 2ebd 78cd 35bc
000001b0: 419e dd3d e386 59bc dd42 f3bc 8bfa 603c
000001c0: e14c a13c 64bf 26bd 2387 46bd 37f2 fdbc
000001d0: fbb9 113d f5bd ddbd ebde 3cbd 3137 22bc
000001e0: f098 72bc 5285 2dbc df22 983b 7301 89bc
000001f0: b2c3 8bbc 859e 42bd 2686 f3bc 92f6 13bd
00000200: b516 8dbc 6353 de3c 4164 483d f1cf 923c
00000210: c4f6 003d d9d3 31ba 4b78 9dbb
0.08117339 -0.016610976 0.004577072 0.050659027 0.05039464 0.019284103 -0.03170666 -0.029604953
0.019899279 -0.060860977 -0.0057435473 -0.05094065 0.037392132 -0.009471742 -0.0012235633 0.03160521
0.04432017 -0.03263116 0.06538721 -0.048379008 -0.027947852 -0.03721673 0.04465171 0.0070772413
-0.04034117 -0.043234643 -0.041686844 0.1354613 -0.038924493 -0.024707232 0.0032732012 0.027818942
-0.016528739 0.026112873 0.03795508 0.024005855 -0.0020701876 0.03996118 -0.05150714 0.02366056
-0.032617405 0.0013055034 -0.012654367 0.018954385 -0.03150241 -0.016108824 -0.042346686 0.02963714
0.008152748 -0.0011993935 -0.05310339 0.014199789 0.012047831 -0.025198938 -0.10364651 -0.031748246
-0.0196317 -0.0011969846 -0.01527824 0.012231728 -0.00030271173 -0.032864522 0.0072052823 0.06368563
-0.0025885026 0.011397195 0.039760582 -0.040028695 0.030163214 0.03837149 0.0011522934 0.03088106
0.06938416 0.026718212 0.037742324 0.006260367 0.030279394 -0.032637607 -0.011955507 -0.04233629
-0.0077180774 0.028464206 0.026228147 -0.043051675 -0.030332467 0.009585399 -0.020054407 0.04584065
-0.0026602023 0.01465048 0.11927072 -0.03990688 -0.023744253 -0.034944348 -0.03741202 0.025375655
-0.044036176 -0.025120914 -0.0039288583 -0.13749896 0.04451487 -0.03306351 -0.035339635 0.022903476
-0.012597638 0.013671314 -0.042601135 -0.011096351 0.108212 -0.013276788 -0.029694969 0.013731609
0.019689979 -0.040709868 -0.04846872 -0.030999286 0.035577755 -0.10827247 -0.04611103 -0.009900854
-0.014806971 -0.010590868 0.004642829 -0.016724324 -0.017061088 -0.047514457 -0.029727053 -0.03612382
-0.017222742 0.027139371 0.048923735 0.01792142 0.031485334 -0.0006783582 -0.0048056

bias f4 [15]
00000000: b6a7 b6bc 797c d03c caf9 503d e5e9 ddba
00000010: e5e2 81b8 18b7 eb3c b7d0 1dbd fbed 59bc
00000020: 9443 a03c 51d9 0dbd 9b9b 69bb a9aa 02ba
00000030: 98c5 633d 0512 75bc 1817 83bc
-0.022296768 0.025449978 0.051019467 -0.0016930668 -6.193462e-05 0.02877383 -0.038529124 -0.013301368
0.019563474 -0.034631077 -0.0035645727 -0.0004984537 0.055608362 -0.0149579095 -0.016002223

weight f4 [15, 163]
00000000: 3f1f 4e3d 7e0b f63b 1deb 233d cc96 1c3d
00000010: 0f88 3e3d c11d 073d 3a3a 2e3d 5b38 143d
00000020: 1161 9d3d de11 9e3d 86b7 a43d 6021 a13d
00000030: 0196 9c3d 13b8 b33d cde9 f13d 3b6d ce3d
00000040: 23fd c7bc 6954 2e3d 7d59 a73d cde4 643d
00000050: 40fe 4d3d b8c7 7b3d 7119 aa3d 7c61 1e3d
00000060: 8672 ccbc 1431 6e3b 8a65 9a3d ec4b b2bb
00000070: 9017 423d 04b7 17bc 0705 253e f583 263c
00000080: d492 8a3b 0c39 efbb 7d52 0e3e 7656 463d
00000090: 12e5 7f3d e85b 8c3d 400c 913d 9018 a13d
000000a0: be03 fc3c e903 073d 824a 5d3d c9df 5d3d
000000b0: 08a5 8c3d eeb6 b43d 6b0d bf3d ea99 2e3d
000000c0: 8826 ac3d 0283 913d 8e94 ac3c aeb8 803d
000000d0: 085c 6e3d 93bc 2cbc b0f3 403c 8c50 d8bc
000000e0: df2c aebc 49e8 2b3e 356f 89bd 9943 3f3c
000000f0: 0d9b 61bd 2aac 343c 9fd4 6a3d 14de 213e
00000100: 7f3a 303b 3edb 863d 35fe 623d 4849 5e3c
00000110: 6055 d03b 233d 44bb fdfd 2d3c 0433 72ba
00000120: e21b 9f3c 9ddf 28bc fc8d 193c 5bd8 af3b
00000130: 012e 10bb ae17 193c 1bc5 b0bc 4e0f 1f3d
00000140: 8f7c 1b3e 4055 dfbd f5d0 1dbc c1e2 4d3a
00000150: 422e 393d 3ec0 333d 32bb bd3d f7d5 d23b
00000160: 05a8 aebb 2021 ccba 49c6 383e 027a f03d
00000170: faa1 54bc 86a4 203e 55a4 b73d 554f c3bb
00000180: beed 803c eaaf d2bb 296a a1bc c6f5 84bd
00000190: 09f8 0f3d 67c9 13bc 0895 96bd 7bb5 76bd
000001a0: 64e3 373b e6b6 6b3d 5cde fa3d dfb6 3b3c
000001b0: f3e9 af3d e01d 133d e461 303d 657c b43b
000001c0: 631f 613c 37c4 453b a295 35bc 552b e43c
000001d0: 70b9 90b9 b7ac c0b9 9c1b 913c 701c 2c3c
000001e0: 77e9 70bb 973d d4bb 445b fe39 14b0 243e
000001f0: a23b 96bd 2d49 7e3b 6eb2 01bc f4b0 763c
00000200: 4893 2d3d ab49 b73d e8a4 723b 2322 98bb
00000210: 225d f63b 986c 853d 6001 ab3d 84c8 39bd
00000220: 095a a9ba 4bc4 cdbb c607 2b3d 79e3 e13c
00000230: 41c8 343d 96e3 2c3d 4989 313d f604 1b3d
00000240: a4ac 493d 380f 5f3d d66e 113d 3a6c 723d
00000250: 7310 143d b42e a03c c3be 1d3d 8f1e 363d
00000260: 7ad0 2d3d ac8f 3d3d 74f7 533d bfde 533d
00000270: 29a7 463d beaa 273d 2330 8e3d c49d a93d
00000280: 2b31 c43d 95e8 8e3d 18f4 1e3d c094 8fbd
00000290: 2582 6ebd 7724 84bd e235 81bd f4e6 80bc
000002a0: 0736 a2bd 4ec2 5cbd 9f61 91bd 9f25 20be
000002b0: 3611 22be 7542 42be 12c5 52be 2814 3fbe
000002c0: 30cf 42be 0474 f9bd 9f99 05be e445 803d
000002d0: fb34 9ebd 8b5d ab3d 37e8 5cbd bf2c fc3b
000002e0: cd87 1bbd 3092 32be 7fda 51bd 7278 ea3b
000002f0: e06e 0abc 6c3a 223e 6fd4 293c 54ac a6bd
00000300: fe69 46bd 2d22 31be b92a babd ce7f 4e3d
00000310: dd38 e0bb fbc2 11bd 18d0 9dbd 6080 21bd
00000320: 6811 9dbc a40e febb 536a 3f3c 0223 45bd
00000330: e0de 7bbb fc1c 59bd 3e6d f03c b3e5 b7bd
00000340: f885 b8bd 9a56 353d adcf 93bd b20e 28bd
00000350: b219 8cbd 1de5 53bd f948 6abd 29d6 97bd
00000360: dfc6 9a38 57a3 283c 4c23 32be 1c2c 89bb
00000370: 40dd 38be c109 80bd 7ff0 55be 1eea 623e
00000380: 23ab 97bb b5ff adbb 8414 5dbe 7687 dd3b
00000390: bec0 4ebd d5d8 1abe c338 a63b 2c8d ce38
000003a0: 2b8c 0fbd a085 6cbb a4af 28bc d41a f43b
000003b0: 4b03 14bd 727a 1bbc 2c29 75bc 3665 bcbb
000003c0: f90b 09bc d3ed 10bd e179 5abe f408 19be
000003d0: ec11 0ebc 51b5 31bd 605c b33b 1e43 b2bd
000003e0: 854d 2fbd 42d6 7d3c 11da 28bc b510 f4bb
000003f0: de8e 6dbb e33f 2cbd 2fa5 aebd 7ff1 1ebd
0.050322767 0.007508694 0.040019143 0.03822975 0.046516474 0.03298736 0.042535998 0.036186557
0.076845296 0.07718252 0.08042817 0.07867694 0.076457985 0.08775344 0.11812172 0.10079428
-0.024412697 0.04256097 0.081713654 0.055882264 0.0502913 0.061469764 0.08305634 0.038667187
-0.024956953 0.003634517 0.07538898 -0.0054411795 0.047385752 -0.009259943 0.16115199 0.010163297
0.004228929 -0.0073005017 0.13898654 0.0484223 0.062474318 0.06853467 0.070824146 0.07866013
0.030763503 0.032962713 0.054026134 0.054168496 0.06867415 0.088239536 0.09328731 0.042627253
0.08405787 0.07105066 0.02106693 0.06285225 0.058193237 -0.0105430065 0.01177685 -0.026405595
-0.02126163 0.16787829 -0.06710664 0.011673831 -0.05507951 0.011027375 0.057331678 0.15807372
0.0026890335 0.06584786 0.055418212 0.013567276 0.0063578337 -0.0029943667 0.010619638 -0.00092391693
0.019422475 -0.01030722 0.009372231 0.0053663678 -0.0022000077 0.009344025 -0.021578362 0.038832955
0.15184234 -0.10904932 -0.009632339 0.00078539184 0.04521013 0.04388451 0.0926422 0.006434198
-0.005330088 -0.0015573837 0.1804439 0.11742021 -0.012978071 0.1568776 0.08966891 -0.005960385
0.015738364 -0.006429662 -0.019703941 -0.0649219 0.035148654 -0.009020186 -0.07352644 -0.060231667
0.002805912 0.057547472 0.12249443 0.011457174 0.08589544 0.035917163 0.043062106 0.005507993
0.013740393 0.0030176768 -0.0110830385 0.027852694 -0.00027603982 -0.00036749776 0.01771336 0.010504827
-0.003676025 -0.0064770686 0.00048514653 0.16082793 -0.07335593 0.003880094 -0.007916076 0.015056837
0.042376786 0.08949598 0.0037024561 -0.0046427413 0.0075184265 0.06514853 0.08349872 -0.045357242
-0.0012920509 -0.0062795035 0.04175546 0.027574288 0.04413629 0.04220923 0.043343816 0.037846528
0.04923691 0.054457873 0.035506092 0.059185244 0.0361485 0.01955352 0.038512003 0.044462737
0.042435147 0.046279594 0.05174966 0.0517261 0.04849926 0.040934317 0.06942775 0.082820445
0.095796905 0.06977955 0.038807005 -0.07010794 -0.058229584 -0.064522676 -0.063091055 -0.015735127
-0.07920461 -0.05389624 -0.07098698 -0.15639351 -0.15826878 -0.18970664 -0.20582989 -0.18660033
-0.19024348 -0.12180331 -0.13046883 0.062633306 -0.07724949 0.08367451 -0.053932395 0.007695764
-0.037971307 -0.17438579 -0.051233765 0.0071554715 -0.008449286 0.15842599 0.0103655895 -0.08138338
-0.048440926 -0.17298193 -0.0909018 0.050414853 -0.006842716 -0.03558634 -0.07705706 -0.03942907
-0.019173339 -0.00775321 0.0116830645 -0.04812909 -0.0038432404 -0.053006157 0.029348966 -0.089793585
-0.090099275 0.044272043 -0.072173454 -0.04102964 -0.068408385 -0.05173217 -0.0571985 -0.07413895
7.380335e-05 0.0102928495 -0.17396277 -0.0041861665 -0.1805315 -0.062518604 -0.20892523 0.22159621
-0.0046285554 -0.0053100237 -0.21589857 0.006760533 -0.050476782 -0.15121777 0.0050726845 9.849141e-05
-0.035045784 -0.003609039 -0.010295782 0.007449487 -0.036135953 -0.009489642 -0.014963429 -0.00574937
-0.008364671 -0.035383057 -0.21335556 -0.14944822 -0.008671265 -0.043385807 0.0054736584 -0.08704208
-0.042798538 0.015492978 -0.010305897 -0.0074482807 -0.0036248486 -0.042053115 -0.085276 -0.038804527

bias f4 [15]
00000000: 9e2a 2a3d fb3c 81bd c54d d03d e5b0 4c3d
00000010: d20b 303e d294 b5bc e5c2 7f3e f08c 02bb
00000020: 8d67 203c 989b 9abd 4009 f43e b740 fdbd
00000030: 1edb 523e 171e 76bc 11a0 8dbe
0.04154455 -0.06310459 0.10171083 0.049973387 0.17192009 -0.02216569 0.2497669 -0.001992043
0.009790313 -0.075492084 0.47663307 -0.12365859 0.20591399 -0.015021822 -0.27661183

weight f4 [15, 9]
00000000: 0291 9bbd f8c6 4bbd b044 37bd dc29 733c
00000010: 8145 b43c c1fd 5c3d b308 a939 0f29 ffbc
00000020: c7d6 cc3c 03be 1cbd 1ea9 65bd 99d3 50bd
00000030: da00 8f3c 5e8b bfbd ff22 e9bd d984 383c
00000040: cb6e 64bd 5daf 2e3d 21d8 9dbd 4ab9 a4bb
00000050: 2377 8cbd 939b cf3b c8f0 f33c 751e 5f3d
00000060: c0cc 903c 2783 a43d 10d2 d33d 28b4 52bd
00000070: 46a4 513c a94b b53c e871 cc3c 61c5 a1bd
00000080: 0e19 b73d c11a 923b 9af8 2b3c 0499 ce3b
00000090: 40e0 eabc b97f 853c 39e3 d03b 590d 923c
000000a0: 9edf 36bd de55 80bc 36ba 11bd 446e 893c
000000b0: c942 fd3c 8045 35bd 8cdd f9bc 49c7 5cbd
000000c0: 0bd9 5bbd bc4c a23d dbdd 033d 2683 a0bc
000000d0: 2d33 0bbe 5b02 bf3d c08c c43c d867 ebbc
000000e0: 102a 333d 9a6e 24bc 5f0a 22bd 8fc9 a63d
000000f0: 6226 2e3d 7d1e d5bd b81e 16be bb1e c3bc
00000100: 4700 4bbd d027 2b3d 0b26 35bc 7580 39bc
00000110: 9d16 023c e72c bbbb 8081 2d3d 3423 ebbc
00000120: 56c0 23bd 23e5 52bd 43f4 9d3b a721 3ebd
00000130: d17c 5cbd 004d adbd 275e 323c f88b 51bd
00000140: 4a79 61bd 3903 01bd 2c7c 073b c7ae b6bc
00000150: a26c 1dbb 0919 69bd ad93 d7bd 9002 f93c
00000160: 460d d7bd 6a19 79bd 7776 3bbd 9323 853a
00000170: f8cd 10bc f659 18bd ef79 a93c e6da 0d3d
00000180: 11b0 b53b 9651 9b3d d046 c73d 43b1 f03c
00000190: 1a49 cebc a34c d0bc 196d 50bd 5f5a 27bb
000001a0: bc1d 9ebc baf8 003d 9296 f6bd bd10 77bc
000001b0: 282f 8fbc ef9f b1bc dec2 b9bc 30a8 66bd
000001c0: 802d 973b 1511 e53c 495a 12bd 37a6 603d
000001d0: 15cf 783d 539a 7dbd a981 58bd e3b5 42bd
000001e0: c027 c83c a8d3 93bd 685c 04bd ff13 2dbd
000001f0: 8d90 87bc 9a78 91bd 7325 19bd 67a4 52bd
00000200: c18f 343d 5607 743d 3dea 48be 074f fdbd
00000210: df86 0e3d 9ba9 1ebe 8c49 84bd
-0.075960174 -0.0497503 -0.04474324 0.014841523 0.022005798 0.053952936 0.00032240673 -0.031147508
0.025004758 -0.038267147 -0.056069486 -0.050983045 0.01745646 -0.09352754 -0.11383628 0.011262142
-0.055769723 0.04264771 -0.07707239 -0.005026971 -0.06858661 0.0063356846 0.0297779 0.054472405
0.017675757 0.08032828 0.103428006 -0.05144134 0.0127955135 0.022130804 0.024956658 -0.07898975
0.08940326 0.0044587557 0.010496283 0.006304862 -0.028671384 0.016296254 0.0063747433 0.01782863
-0.04464685 -0.015665945 -0.035577975 0.016776212 0.030915635 -0.044255733 -0.03050115 -0.05390099
-0.053673785 0.07924792 0.032194 -0.019593786 -0.13593741 0.09326621 0.023992896 -0.02873604
0.043741286 -0.010036135 -0.039560672 0.08143913 0.042517073 -0.10406206 -0.14660156 -0.023818364
-0.04956081 0.041786015 -0.011056433 -0.01132213 0.007939962 -0.00571214 0.04235983 -0.02870331
-0.039978348 -0.051488053 0.004820378 -0.046418812 -0.05382997 -0.08461952 0.0108867055 -0.051158875
-0.05504731 -0.031497214 0.0020673377 -0.022300137 -0.002402105 -0.05690864 -0.10526214 0.03039673
-0.105005786 -0.060815252 -0.045767274 0.0010157697 -0.008838169 -0.03719517 0.020688025 0.034632586
0.0055446704 0.07583921 0.09730303 0.0293814 -0.025181342 -0.025427168 -0.050885294 -0.0025536043
-0.019301288 0.031487204 -0.12040438 -0.015079674 -0.01747854 -0.021682708 -0.022675928 -0.05631274
0.0046135783 0.027962247 -0.035730634 0.054846015 0.060744364 -0.061914753 -0.05285803 -0.047536742
0.024433017 -0.072181046 -0.032314688 -0.042255398 -0.01654842 -0.07103081 -0.03738923 -0.051426318
0.044082407 0.05957731 -0.19620605 -0.12368589 0.03479659 -0.15494387 -0.064593405

bias f4 [15]
00000000: ddf5 4dbd 06cd 5ebd 5abe 9ebd 71f1 8e3c
00000010: d9c7 403d de45 2d3c 9672 a73b c5b2 853c
00000020: 990d b53c ad20 c63c e34f 053d 1123 8bbc
00000030: b733 4ebd 1699 153b 02b9 5f3b
-0.0502833 -0.054394744 -0.077511504 0.017449113 0.04706559 0.01057574 0.0051100953 0.016320596
0.02210121 0.024185503 0.03254689 -0.016984494 -0.050342288 0.0022826842 0.0034137373

weight f4 [15, 9]
00000000: ba66 d3bb 89f3 cf3c bedb ce3c f260 2a3d
00000010: 5e66 1c3c 57de d4bb 9d83 b3bc 5d5b 3f3d
00000020: 552d 063c e391 493c dfe5 4dbb e553 193d
00000030: 2c82 063d a72d bdbc 8833 273d 9f8e dcbb
00000040: c061 3b3d bc0a 3fbd 30a8 70bb dc95 2c3b
00000050: d020 2dbd 699e cabc 4c9e 82bc c28e 263d
00000060: 61a1 26bb c701 5e3c befc d73c d6ce 9b3b
00000070: 889f 163d ef81 a3bc 767d 2c3d f5d8 85bc
00000080: 2588 033d 747a 56ba e073 10bc 03a8 11bd
00000090: d76d 623c 5ed4 cc3c af47 dbbc 6138 b0bc
000000a0: 5a17 1bbd d37a 95bc 7a52 90bb e916 edbc
000000b0: bcde 93bc 85e3 2ebb e429 463d 82e9 3fbc
000000c0: b27a f83c e4e9 0d3d 9f41 6cbc 783c 573c
000000d0: 7652 fbbc 0e9b a5bc d091 6c3d 67bd e83b
000000e0: 261c a6bb 4c7c 64bb 4660 313c d173 f83c
000000f0: 2e57 57bc ef67 773c 6468 cabc 54f7 3abd
00000100: 5e7e cebc 2807 1cbb 39c2 f7bb 5f63 343d
00000110: fa47 0bbb 7416 df3b 014d 2ebc 5b1b 393d
00000120: 1897 34bc 2119 8bbb e5c3 c7bc d166 863c
00000130: 81e6 b33b d175 1cbd 13e8 aebc aadb 743c
00000140: c4d9 253c cdf3 833d 4e20 1fbc 0d2e 72bc
00000150: 9f05 c13c 5d65 0dbd 842d 023a 9925 85bb
00000160: d95a 3fbd 5850 0a3d da79 babb 7869 fc3c
00000170: d6bf 20bd c73d 85b8 72fc c73c d884 233d
00000180: 6032 2ebd 0e65 49bd 5ef9 e7bc 7c8b 703d
00000190: ffea d3bc eb77 a03c d570 253c 312a 03bd
000001a0: 71a3 3abd 7cb8 f6bc c211 033d 1df0 a0bc
000001b0: 49b8 893d 5e75 35bd 24df 0fbd 5163 8dbc
000001c0: 7995 a73c 9bc7 3d3d 82f4 6fbc 3fa5 b6bc
000001d0: f401 a33c 7d5a f83b 0f50 433d 43c0 5639
000001e0: fb9e db3c ed59 06bd 2f56 1abd 7562 b5bc
000001f0: 42b4 0b3c 96ae a3bc 2252 e03a cc64 d33c
00000200: 4633 803c c10a aa3c acc8 3dbd 2d94 253d
00000210: d13a 403d b13f 43bd b544 3c39
-0.006451455 0.025384681 0.025251266 0.04159636 0.009545891 -0.0064962315 -0.021913344 0.04671799
0.008189519 0.0123028485 -0.0031417531 0.037433524 0.032838985 -0.023093058 0.04082063 -0.006730869
0.04574752 -0.046641096 -0.0036721341 0.002633444 -0.04226762 -0.024733739 -0.015944622 0.04066349
-0.002542578 0.013550228 0.026365634 0.0047548814 0.036773235 -0.019959418 0.042111836 -0.016338805
0.03211226 -0.0008181699 -0.008816689 -0.03556062 0.013820133 0.025003608 -0.02676758 -0.021511259
-0.037864067 -0.018247044 -0.004404363 -0.028941588 -0.018050544 -0.0026685905 0.048379794 -0.011713387
0.030331943 0.034646884 -0.014419942 0.0131369755 -0.030678969 -0.020215537 0.057756245 0.0071026566
-0.0050692735 -0.0034864126 0.010826176 0.030328663 -0.013143344 0.015100463 -0.02470798 -0.045646027
-0.025206741 -0.0023807976 -0.007560995 0.04404008 -0.0021252618 0.0068080965 -0.010638476 0.045192104
-0.011022352 -0.004244939 -0.024385402 0.016406449 0.0054901247 -0.038198296 -0.021350896 0.01494495
0.01012272 0.06442986 -0.009712292 -0.014781487 0.02356225 -0.034520496 0.0004965889 -0.00406332
-0.0467175 0.033768028 -0.0056907954 0.03081201 -0.03924545 -6.353441e-05 0.024412367 0.03992161
-0.04252851 -0.04916864 -0.02831715 0.058726773 -0.02586889 0.019588431 0.010097702 -0.03202266
-0.045566026 -0.030117266 0.031999357 -0.019645745 0.06724603 -0.044301383 -0.035124913 -0.017259272
0.020457016 0.046332937 -0.014645698 -0.022295592 0.019898392 0.0075791464 0.04768377 0.00020480253
0.026809206 -0.032800604 -0.037679847 -0.022141675 0.0085268635 -0.01998071 0.0017114321 0.0258049
0.01564945 0.020757081 -0.046333954 0.040424515 0.04693109 -0.047668163 0.00017954673

bias f4 [15]
00000000: 80b9 cd3b 4842 113d 6e3e a53c 95b6 8e3c
00000010: 3da0 4c3d 1b44 fd3c 4993 0a3d eaaf 4ebd
00000020: a349 0e3c e833 c0bb 3cdd e7bc 7323 393d
00000030: a2cb bf3c 4a25 bfba 4e98 943c
0.006278217 0.0354636 0.02017137 0.017421046 0.049957503 0.030916264 0.03383187 -0.050460733
0.008684549 -0.0058655627 -0.028303735 0.045199823 0.02341253 -0.0014583257 0.01813903

weight f4 [15, 9]
00000000: c186 d2bb 5895 1a3c 6e1e d5bb 6bee 82bb
00000010: 63a5 a639 d0ab 1a3d bfea c73c 723f 8c3c
00000020: e18a 25bc 5a7e 413c 2e49 253d bd81 03bd
00000030: 5c20 67bc df22 6dbb 4a3e b8bc 4491 b0bc
00000040: d224 003b 2af4 803c 718e cd3b 1581 1f3d
00000050: 4b46 383d 776d 333d 79d7 b33c 5618 c8bc
00000060: bfe9 17bc 20db 68bc 767d 16bd e769 e837
00000070: b6f2 17bc a187 223c 03e3 44bd 062b 6e3b
00000080: 3fa2 233c 3ef9 903c 630d 823c 5b5f f13b
00000090: af8f 88bc 91da aaba 0fee 2b3d 577e 9bbc
000000a0: 31aa 473d 27b8 1dbd fb91 493d 41a6 83bb
000000b0: a2df 833b 1d23 3cb9 25eb aabc 5248 333d
000000c0: bd30 d7bc f60a 17bd e078 5f3c ae49 363c
000000d0: 2f33 95bc 4fd1 743a 53d9 553d 3b87 ddbc
000000e0: b6dc 25bd 7b05 8c3c 92fe 23bc 013c e53c
000000f0: 91f5 323d e051 173d 476f 013d 926b 23bd
00000100: 3d9e b3bc 1aa5 943b bda2 443d b3e1 b23c
00000110: abcb f73b 0dfc 1dbd 85ee bbba 86e1 ac3c
00000120: f51a d43b 9ea6 af3c ed3d d2bc 2231 b8bc
00000130: 8515 123d 8d77 3cbd e7c4 1abb 886e 39bd
00000140: cf91 a23c da94 843d 1e7a 133d bb5f 26bd
00000150: 2c7d 263d 8c8e 2dbd e3d8 9bbc cd7d c03c
00000160: 1db0 cf3c 8b6b 0ebd b4fb adbb b1e3 d1ba
00000170: bb0c 943c 0d50 2dbc 5147 263d 887d 0dbd
00000180: a279 1c3d b611 223d 217b c53c 2144 713d
00000190: 1f8f 20bd f9ed eebc a26a 4d3c 3336 04bd
000001a0: 56d4 1bbd 5fe2 0fbd fec8 193d 94c8 73bc
000001b0: 80e2 843d ba65 15bd 95b6 9b3c c1af 30bd
000001c0: f896 943c 3b62 41bd b870 d23c 2f5f 12bd
000001d0: da73 fc3c fe27 f13b 15c4 493d 6d8d dfbc
000001e0: ea43 3cbd b625 b43c a9a1 b03b 9cfe 123d
000001f0: 601e c53c ab75 333d d6a0 3abb e136 3439
00000200: 917b 1a3d c666 423c 3cf8 cf3c 19e7 1e3d
00000210: edf8 483d f93e bf3c 9e7e 8f3b
-0.0064247553 0.00943502 -0.0065038716 -0.003995707 0.0003178521 0.03776151 0.024403928 0.017120097
-0.010103912 0.01180991 0.040352993 -0.03210615 -0.014106836 -0.0036184115 -0.02249064 -0.021553643
0.0019553197 0.015741426 0.006273084 0.03894146 0.04498891 0.043805566 0.021953331 -0.024425667
-0.009272038 -0.0142124 -0.036740743 2.770587e-05 -0.009274175 0.009920032 -0.048068058 0.0036341562
0.009987413 0.017696973 0.015875524 0.0073661036 -0.016670076 -0.0013035109 0.041975077 -0.018981142
0.04874629 -0.0385057 0.049211483 -0.0040176217 0.004024462 -0.00017942158 -0.020864079 0.043770142
-0.026268357 -0.036875688 0.013639659 0.011125965 -0.018212883 0.0009339051 0.05220921 -0.027042022
-0.04049369 0.017092457 -0.010009425 0.027982714 0.04369122 0.036943316 0.031600263 -0.03989751
-0.02192604 0.004536283 0.04800676 0.021836137 0.007562121 -0.038570452 -0.0014338052 0.021103632
0.00647294 0.021441754 -0.025664294 -0.022484366 0.035665054 -0.04601245 -0.0023615898 -0.045271426
0.019844918 0.06473704 0.036005132 -0.04061864 0.040646717 -0.04237227 -0.019024318 0.023497486
0.025352532 -0.03477053 -0.0053095464 -0.0016013292 0.018072477 -0.010578168 0.040595356 -0.034543544
0.038201936 0.03956767 0.024106564 0.058902863 -0.03919899 -0.029166209 0.01253763 -0.03227825
-0.038044296 -0.035127994 0.037545197 -0.0148793645 0.06488514 -0.036473967 0.01900796 -0.043136362
0.018138394 -0.04721282 0.025688514 -0.035735305 0.030816961 0.007359504 0.049259264 -0.027289117
-0.045963205 0.021990638 0.005390365 0.035887346 0.024062335 0.04381339 -0.0028477213 0.00017186582
0.0377155 0.011865323 0.025386922 0.03879461 0.04906552 0.023345457 0.0043791076

bias f4 [15]
00000000: 73a8 0bbc 34b1 113d 9ef8 21bb bebd a3bc
00000010: a97f bfbc ae8e 2ebd 44b2 363d 21e8 cbbc
00000020: 39d8 2a3c 3792 9f3c 8545 f23a 6e06 143d
00000030: 4b80 03bd 7268 8f3c f316 a6bb
-0.008524048 0.035569385 -0.0024714838 -0.019987937 -0.023376303 -0.04261654 0.0446036 -0.024890961
0.010427528 0.0194789 0.0018483853 0.036138944 -0.03210477 0.017505858 -0.0050686537

weight f4 [15, 9]
00000000: e99c eabb 4f3c 2bbd 081b fabc 11fa 6ebd
00000010: 517f 03bc 1fd4 b33d df31 443d 2e88 fbbc
00000020: 1746 e13a 1301 873c 8f75 b6bb ddae dcbc
00000030: e3f7 9cbb 5e3e 9fbd 5033 a2bd 88a0 143d
00000040: c0d6 cebc f205 8d3d 13f9 363c efc5 94bc
00000050: 876f 36bc 42f4 d83b 54e2 873c a053 c63c
00000060: 98a7 c53c c62b ac3c 8d30 1a3e 6eeb 1dba
00000070: c786 033d 949b 1cbd a728 37bd eb22 443d
00000080: 6436 3d3d ef32 e6bc 75f7 46bd fe64 ab3d
00000090: c1cf 8d3c f1c1 4ebc 5e69 3d3d 93a4 2ebc
000000a0: 9c60 1ebc 2a7b efbb 029f d6bc 9c1e bb3d
000000b0: 9aad 813d 4bf9 743c 38fa 71bc 5d64 45bd
000000c0: 915b f23c c829 213d 5bf8 e63c d7ca f63a
000000d0: a44e a0bd 649f 99bd 84dc 5fbc e548 adbc
000000e0: 494f 883c cddb d6bc 2599 66bc 066d a33b
000000f0: d7e4 153c bf85 283e 6376 0d3d 187b 0d3c
00000100: 45a4 363c ff6f 963b a773 4fbd 5825 ddb9
00000110: 6ace d1bc 0df5 1dbd ffe2 863b 36d0 ae3b
00000120: 8f1f d4bc 360c 99bc ee74 afbb bfc4 afbc
00000130: 6bac dabd 993a a0bd 8a8f ffbc 3548 d4bd
00000140: 2f2e c1bd 6012 ccbc 7df7 4a3c f931 6dbc
00000150: 312f 7e3c 0806 a1bd 2b32 92bd 7ae9 6bbc
00000160: e684 dbbd 3d36 c2bc ef63 703b 4890 64bd
00000170: afbd 1ebd ce8a 04bc 4047 8dbd ab5e 7dbd
00000180: 8540 4ebd ad12 263d 1c67 da3d 6083 5dbd
00000190: 14b7 2dbd b1cc 21bd e1be 86bd 46a2 d2bc
000001a0: 6c8c b43b 2315 023d 053a d1bd 589d c2bd
000001b0: 07d5 abbd bbbd 8cbd 4e10 91bd 4c6e cfbc
000001c0: 40e2 3cbd 83cc 80bd a924 48bd 54d6 c4bc
000001d0: 261b 143e 28f7 3bbd 699d ac3c 3f3a 82bc
000001e0: 7d77 e7bc eaa5 2dbd e863 70bd eac8 43bc
000001f0: 1c40 42bd 3208 f8bd 4d6a 0d3d 9997 93bc
00000200: 0e92 23bc 0f7b 443d 01d6 693c 5e86 dabd
00000210: 68e6 c53c fcea 60be 3789 05be
-0.0071598184 -0.04180556 -0.030530468 -0.05834395 -0.00802596 0.08780693 0.047899123 -0.030704584
0.0017187026 0.016480004 -0.0055682133 -0.02693885 -0.0047902926 -0.077755675 -0.07919943 0.036285907
-0.025248885 0.068858996 0.011167782 -0.018160788 -0.011134989 0.0066209147 0.016587414 0.024209797
0.024127766 0.021016967 0.15057583 -0.00060241565 0.032110956 -0.03823431 -0.044716503 0.047884863
0.04619445 -0.028100459 -0.048575837 0.08368872 0.017310979 -0.012619481 0.046243064 -0.010659355
-0.009666588 -0.0073083835 -0.026198868 0.09136698 0.0633194 0.014952014 -0.014769129 -0.048191417
0.029584678 0.039346486 0.028194597 0.0018828762 -0.078274995 -0.075011045 -0.013663415 -0.021152923
0.016639369 -0.026227856 -0.014074598 0.004987362 0.009148798 0.1645727 0.03453673 0.008635305
0.011147563 0.0045909877 -0.050647404 -0.00042180228 -0.025611121 -0.038563777 0.0041164155 0.0053348793
-0.025893955 -0.01868258 -0.0053545153 -0.02145612 -0.10677417 -0.078236766 -0.031196374 -0.10365335
-0.09432637 -0.024911106 0.012388107 -0.014477246 0.015514181 -0.078624785 -0.07138475 -0.014398927
-0.10718708 -0.023707503 0.0036680659 -0.05580166 -0.038755115 -0.008089734 -0.068983555 -0.06185786
-0.0503545 0.040545154 0.10664198 -0.054080367 -0.042410925 -0.03950185 -0.06579376 -0.025712144
0.0055099037 0.03175844 -0.102161445 -0.09502667 -0.08390241 -0.06872126 -0.07083188 -0.025321148
-0.046114206 -0.062890075 -0.048863087 -0.02402798 0.14463481 -0.045890003 0.021071153 -0.015896915
-0.028255219 -0.042394556 -0.058689028 -0.011949757 -0.04742442 -0.12110938 0.034525204 -0.018016623
-0.009983553 0.04796892 0.014272214 -0.1067016 0.024157718 -0.2196464 -0.13040625

bias f4 [15]
00000000: 91fe f4bc 9c61 fcbb c0bf 8cbd 8bbf 25bd
00000010: 7053 f83b a816 cf3c e7b8 71bc cabe d6bc
00000020: 0df7 0c3d 3dd7 fcbb 00c2 6dbc d437 d6bc
00000030: 123a cbbc 7d24 c73a 5884 47bc
-0.029906543 -0.0077020656 -0.06872511 -0.040465873 0.007578306 0.025279358 -0.014753557 -0.026214022
0.034415293 -0.007716088 -0.014511585 -0.026149668 -0.024807964 0.001519337 -0.012177549

weight f4 [15, 9]
00000000: d225 283b 57c3 8bbd e8a0 64bd 170d ee3c
00000010: 8502 d93d 0a0f 483d 4322 33bd a0b7 b9bd
00000020: 1777 d43c 799c babc 5c59 15bc a550 9dbc
00000030: 76dd c4bc 8b59 4abd d541 1abe 0d44 2f3d
00000040: 8652 febd bd4a 713d 3faf adbd 0c3d 63bc
00000050: 1de8 1cbd d06f 35bd c989 01bd dfd9 6cbc
00000060: 2ac9 d63c 5a03 4d3d cf45 1f3e 1178 9abd
00000070: 9305 0cbd de80 2bbd d3bd ed3c 58e7 a1bc
00000080: 6b0a aa3c 6128 92bc 29c0 7abc c562 9a3c
00000090: d666 d4bc c617 793c 1a65 08bd fc37 eabc
000000a0: aa7b c8bd 64ff 333d 8a9f 9abc 6b38 883c
000000b0: b1a0 9f3d 593b 92bd 8393 813c 3bd6 16bd
000000c0: 5af0 13bd bbe6 373c 48bf bc3c 028e 813c
000000d0: 1144 ebbd cfd9 253e 2cb6 363d 8d22 ae3c
000000e0: bca0 5e3d b244 22bd 0847 aebd cf1d 933c
000000f0: a074 cb3c 1939 4bbd 6339 e6bd 5043 f1bc
00000100: 7b5c 51bd c63b 90bc 6033 77bd 065d 2ebc
00000110: 3e4c 84bc 099f b13c 01e1 5e3c 978a 9e3c
00000120: 7eab 8cbc 0272 58bd b9a9 583c 1989 4e3b
00000130: 8399 97bd 8005 babd b0c9 d53c fac0 0dbe
00000140: 7863 9bbd d8ae f7bc 3eb4 de3a 50a1 cd3c
00000150: a5f8 dcbc 2724 87bd 463b 5fbc 95ea 2ebd
00000160: 607e 7ebd 6794 83bd 3131 23bd 6c43 5cbc
00000170: 6d1b edbc d3e8 3dbd b902 4f3c a69a 503d
00000180: c0f6 2bbc 4817 093e 696f 583d e50b b43c
00000190: 4673 b43c b859 1d3b ff30 f8bc dc5b edbc
000001a0: 5fd7 09bd 0ed7 443c ddd5 fcbc 19e3 053c
000001b0: 2e34 6fbd b0b5 313c 102c 71bd 78a6 ad3c
000001c0: e42c dc3c 3041 89bd fb1a 953c 025f 843d
000001d0: cb2a ba3d 7173 093c c7b2 1c39 860f 6bbc
000001e0: 4e7c cc3c a5a3 c1bd 88d3 6abd 40dd 453d
000001f0: 8882 a6bc 4ff7 96bd b7ab 79bc 339e 4b3c
00000200: 9e6f 853d 052e 18bc 3f4f 66be 81fc cdbd
00000210: 07c8 253d 54ea 09be 103e d4bd
0.0025657308 -0.068243675 -0.055817515 0.029058976 0.10596184 0.048842467 -0.043733846 -0.09068227
0.025935693 -0.02277969 -0.009115543 -0.019203493 -0.024031382 -0.0494018 -0.15064175 0.042789508
-0.12418084 0.058909167 -0.08480691 -0.013869535 -0.038307298 -0.044296086 -0.031625543 -0.014456241
0.02621897 0.050052024 0.15553974 -0.07542432 -0.034185003 -0.041870944 0.02902118 -0.019763634
0.02075692 -0.01784152 -0.015304604 0.018845925 -0.025927942 0.015203422 -0.033299543 -0.028591149
-0.09789212 0.04394473 -0.018874902 0.016628465 0.07794321 -0.07140226 0.01581741 -0.0368254
-0.03611789 0.011224444 0.023040429 0.015814785 -0.11487592 0.16196369 0.044607326 0.02125671
0.054352507 -0.039616294 -0.08509642 0.01795855 0.024835885 -0.049615 -0.112414144 -0.029451042
-0.051113587 -0.017606627 -0.06035173 -0.010642296 -0.016149636 0.02168228 0.01360345 0.019353194
-0.017171618 -0.0528431 0.013224059 0.0031514822 -0.07402327 -0.0908308 0.026097149 -0.13843146
-0.075873315 -0.03023474 0.0016990972 0.025101334 -0.026974032 -0.065986924 -0.013624972 -0.042704184
-0.06213224 -0.0642479 -0.039841834 -0.013443809 -0.028943742 -0.046364617 0.0126349265 0.050928734
-0.0104958415 0.13387787 0.052840624 0.021978328 0.022027623 0.0024009775 -0.0302968 -0.028974466
-0.03365266 0.012014164 -0.030863697 0.00817182 -0.05839937 0.01084654 -0.058879912 0.021197543
0.026876874 -0.06701887 0.018201342 0.06463434 0.09090193 0.00838934 0.00014943919 -0.014346963
0.024961617 -0.09455041 -0.05733064 0.048306704 -0.020325914 -0.07371389 -0.015238694 0.012427854
0.0651543 -0.009288316 -0.22491167 -0.10057927 0.040473964 -0.13468295 -0.103634

bias f4 [15]
00000000: 4b34 55bd a4c1 aabb 12c5 63bd 71f5 86bd
00000010: c28c 18bc 456d 063c c7bc 0dbd 2149 b13b
00000020: 943c f53c 3397 f83c 472c 0dbd 028a 123d
00000030: 883b 80bd 94bd 26bd fdb4 0d3d
-0.052051824 -0.005211072 -0.055607863 -0.06589783 -0.009310903 0.008204763 -0.03460386 0.005410329
0.029936112 0.030345535 -0.034466054 0.035776146 -0.06261355 -0.04070814 0.034596432

att f4 [1, 1, 3]
00000000: 1866 343f a4b7 08bf 7e12 d0be
0.7046828 -0.53405213 -0.40639108

bias f4 [3]
00000000: 0000 0000 0000 0000 0000 0000
0.0 0.0 0.0
