model/gnn/240929_8/epoch_3.pt (torch, 659919 bytes, 44 tensors)

att_src f4 [1, 1, 20]
0	0xbdf65744	-0.12028363
1	0xbe3f0ba8	-0.1865679
2	0xbd76443b	-0.060123663
3	0x3ebe47fa	0.3716429
4	0xbd99a92f	-0.07502972
5	0xbe3f96c7	-0.1870986
6	0xbe086d6e	-0.13322994
7	0xbe1f385d	-0.15548845
8	0xbe411414	-0.18855315
9	0xbeb86fb2	-0.36022717
10	0x3eae86ed	0.34087315
11	0xbe807d02	-0.25095373
12	0x3e770880	0.24124336
13	0x3ea6c504	0.32572186
14	0x3e46119e	0.19342658
15	0x3e365c68	0.17808688
16	0x3e5c4c26	0.21513423
17	0xbea4fd00	-0.32224274
18	0xbecce6dc	-0.40019882
19	0xbec55ef4	-0.38549006

att_dst f4 [1, 1, 20]
0	0x3dc5d6c1	0.09660102
1	0x3e265f75	0.16247351
2	0x3dd43937	0.10362475
3	0xbea67903	-0.325142
4	0xbdbcf7c4	-0.09226945
5	0xbce6ed21	-0.028189244
6	0x3ecb35b7	0.3968942
7	0x3e1f2aef	0.15543722
8	0xbdf50cd0	-0.119653344
9	0xbe85e761	-0.2615309
10	0xbec5c10c	-0.38623846
11	0xbcd9fcac	-0.026609741
12	0x3e8c86bb	0.2744654
13	0xbd8a44d2	-0.06751408
14	0x3e13c74a	0.14431491
15	0xbd1bf72b	-0.038077515
16	0xbe6c2f69	-0.2306496
17	0x3e4c1044	0.1992808
18	0x3e749989	0.23886694
19	0x3ec50547	0.3848059

bias f4 [20]
0	0xbebb28da	-0.36554605
1	0xbdf5fcdf	-0.12011122
2	0x3c8237f0	0.015895814
3	0xbcaf6d97	-0.021414561
4	0x3d0544f7	0.032536473
5	0xbe434c8c	-0.19072169
6	0x3e4939f1	0.19651009
7	0xbc983062	-0.018577758
8	0x3d5be8d4	0.05368884
9	0xbdb37b6b	-0.087637745
10	0x3d2aea92	0.04172761
11	0xbc2655a0	-0.0101522505
12	0xbd3adb24	-0.045619145
13	0x3d0f4fe6	0.034988306
14	0xbe5e424e	-0.2170498
15	0xbd8e7315	-0.06955544
16	0x3d3bc5ea	0.045843042
17	0xbbe07e3a	-0.006850985
18	0xbc388d8a	-0.011264214
19	0xbd06ac97	-0.03287944

weight f4 [20, 163]
0	0x3e364da9	0.17803062
1	0x3cbb7841	0.02288449
2	0x3d97c7f3	0.07411184
3	0xbe63ab73	-0.22233371
4	0xbc8fa075	-0.017532567
5	0xbed2e7ac	-0.41192377
6	0xbe9276be	-0.28606218
7	0xbeee7c57	-0.4657924
8	0x3f939962	1.1531184
9	0x3f67d87e	0.90564716
10	0xbdacbcc6	-0.08434443
11	0xbe13d5cf	-0.1443703
12	0x3ccd2fdb	0.025047233
13	0x3e344573	0.17604618
14	0x3f033098	0.51246023
15	0x3ee89196	0.45423573
16	0xbdae6c5a	-0.0851676
17	0xbf3ff163	-0.749777
18	0x3f41f911	0.7577067
19	0x3f146874	0.5797188
20	0x3e4dcb79	0.2009715
21	0x3f5f8838	0.8731723
22	0x3f680c97	0.9064421
23	0x3d4d7843	0.05016352
24	0x3e451568	0.19246447
25	0x3e0b572c	0.13607472
26	0xbe3d433b	-0.18482678
27	0xbe0cd3f5	-0.1375273
28	0x3d967808	0.07347113
29	0xbf376ec0	-0.71653366
30	0x3e4a5b7d	0.19761463
31	0x3f7cede9	0.9880052
32	0x3e7ad8fb	0.24496834
33	0x3ee2a676	0.44267625
34	0x3dd68473	0.104744814
35	0xbddfc010	-0.10925305
36	0xbe9bcd6b	-0.3043016
37	0xbe4312b1	-0.19050099
38	0xbe5b2f7e	-0.21404836
39	0xbf05bca2	-0.52240956
40	0xbe978359	-0.29592398
41	0x3e38b9f6	0.18039688
42	0xbf3781bd	-0.7168234
43	0x3da18663	0.0788696
44	0xbc655299	-0.013996744
45	0xbe44b2fa	-0.19208899
46	0x3f0a2ee9	0.5397783
47	0xbe7ca081	-0.24670602
48	0xbea59e9c	-0.32347572
49	0x3ec9c584	0.39408505
50	0xbe85d98e	-0.26142544
51	0xbf132661	-0.57480437
52	0xbe918204	-0.28419507
53	0xbf017082	-0.505623
54	0xbc3be509	-0.01146818
55	0x3f2c6df5	0.6735528
56	0x3eca5445	0.39517418
57	0x3ea191c6	0.3155653
58	0xbee85293	-0.453755
59	0x3f40617c	0.7514875
60	0xbe2b5842	-0.16732886
61	0xbbe9733c	-0.0071243327
62	0x3f045aaa	0.5170084
63	0xbe864be0	-0.26229763
64	0xbf467dc4	-0.77535653
65	0xbe0214e3	-0.1270328
66	0xbd41cf25	-0.04731669
67	0xbf71821a	-0.94339144
68	0x3f9694d2	1.1764166
69	0x3e06ec4f	0.13176082
70	0xbcdf194d	-0.027233744
71	0x3e66e436	0.22547993
72	0xbde22a40	-0.11043215
73	0x3e4aafe7	0.19793664
74	0x3d242b58	0.0400804
75	0xbf84698e	-1.0344713
76	0x3de8547b	0.11344238
77	0x3de7babd	0.113149144
78	0x3e30fe55	0.1728452
79	0x3f48799e	0.78310573
80	0x3f421b7a	0.75823176
81	0x3eab71db	0.33485302
82	0x3f3a2a38	0.7272067
83	0x3d6cefc2	0.05784584
84	0x3f3742e8	0.71586466
85	0x3e27c29e	0.16382834
86	0x3f84c1da	1.0371659
87	0x3dba729d	0.09103892
88	0x3e021237	0.12702261
89	0xbd1eff60	-0.038817763
90	0x3ebd8ece	0.37023014
91	0x3ec1046d	0.3769869
92	0x3e2e7cf6	0.17039856
93	0x3ddc06f8	0.10743517
94	0x3ec4d704	0.38445294
95	0x3f2ca2ae	0.6743573
96	0x3f028b02	0.5099336
97	0x3d126e0e	0.035749488
98	0xbd5d0709	-0.053961787
99	0x3dc52ee7	0.096280865
100	0xbe85043d	-0.25979796
101	0x3ef629dc	0.4807881
102	0xbf3cd3da	-0.7376076
103	0xbe667e5f	-0.22509144
104	0xbc94607c	-0.018112414
105	0xbe9d5e02	-0.30735785
106	0xbe0fa327	-0.14027081
107	0xbe8261a2	-0.25465113
108	0xbd0b5a02	-0.034021385
109	0x3e3f1a63	0.1866241
110	0xbf263c54	-0.64935803
111	0x3f413466	0.7547058
112	0x3db9ee0e	0.090786085
113	0xbd60f9a0	-0.05492556
114	0x3eb43e39	0.35203722
115	0xbd33e928	-0.043923527
116	0xbe51bb25	-0.20481546
117	0x3d21cc49	0.039501462
118	0xbf0534be	-0.52033603
119	0x3dea1443	0.11429646
120	0xbdc0d756	-0.09416072
121	0x3e4c3d98	0.19945371
122	0x3e8832ba	0.266012
123	0x3eac66e0	0.33672237
124	0x3e678c31	0.22612073
125	0x3ed54c6d	0.4165987
126	0x3d1fe78b	0.039039176
127	0x3ecdef06	0.40221423
128	0xbc674f82	-0.014118077
129	0x3ec31c93	0.38107738
130	0xbddf2196	-0.10895078
131	0xbc7eaffc	-0.015544888
132	0xbdec2425	-0.115303315
133	0x3e8f44c0	0.2798214
134	0x3ea70d67	0.32627413
135	0x3ec40ddf	0.38291833
136	0x3e6eaa98	0.23307264
137	0xbeb473c4	-0.35244572
138	0xbdcab4d8	-0.098977745
139	0xbf83961a	-1.0280182
140	0xbe9dce16	-0.30821294
141	0xbdaf7d32	-0.08568801
142	0xbe2a8485	-0.16652115
143	0xbea2af61	-0.31774428
144	0x3e9b3c04	0.30319226
145	0xbf28e999	-0.6598144
146	0xbf03e62c	-0.5152309
147	0x3dcfc085	0.10144142
148	0xbe655a01	-0.22397615
149	0x3e9d8059	0.30761984
150	0x3e9f9554	0.31168616
151	0xbf745c2f	-0.9545316
152	0xbec1075d	-0.3770093
153	0xbd5003d7	-0.050784912
154	0xbe5d8f15	-0.21636613
155	0xbde4ebbe	-0.11177777
156	0x3ec1e72a	0.37871677
157	0xbe446216	-0.19178042
158	0x3dc5f2c0	0.096654415
159	0x3f103376	0.56328523
160	0x3f4187b4	0.7559769
161	0x3f228194	0.6347897
162	0x3f0f496d	0.55971414
163	0xbdae6f11	-0.08517278
164	0xbea063d2	-0.31326157
165	0xbb819f34	-0.003955746
166	0xbe568a5a	-0.20951214
167	0xbc70d19b	-0.014698411
168	0xbde39705	-0.11112789
169	0xbe3f827e	-0.18702123
170	0x3c4407ff	0.011964797
171	0x3f41f307	0.75761455
172	0x3f6d3f34	0.92674565
173	0x3c9af216	0.018914264
174	0x3d7b80cc	0.061402127
175	0x3da407eb	0.08009323
176	0x3dc90105	0.098146476
177	0xbc76cf36	-0.015064051
178	0x3d46e2d3	0.04855616
179	0xbc1fc407	-0.009751326
180	0xbe9a4ce7	-0.30136797
181	0x3ebfca0b	0.37458834
182	0x3eb21cb6	0.3478753
183	0xbc87c6ec	-0.016574346
184	0x3f6ca9ae	0.9244641
185	0x3f16a493	0.5884487
186	0xbd223d04	-0.03960897
187	0x3cf57762	0.029964153
188	0x3d6860e8	0.056733042
189	0x3f031cef	0.51216024
190	0x3dbd7be1	0.09252144
191	0x3e0ed784	0.139494
192	0xbf36768f	-0.71274656
193	0xbdd49932	-0.10380782
194	0x3f8fd35c	1.1236377
195	0x3dd7518f	0.10513603
196	0x3ec04715	0.3755423
197	0xbd221aa9	-0.039576206
198	0xbdf4d128	-0.11953956
199	0xbceb14e8	-0.028696492
200	0xbd495cc2	-0.049160726
201	0xbea60fa9	-0.32433823
202	0xbe67016b	-0.22559135
203	0xbdb05e33	-0.08611717
204	0x3e2c5681	0.16829874
205	0xbeee6a7f	-0.46565625
206	0x3ef6ff8d	0.48241845
207	0x3e1cc1fe	0.15308377
208	0x3e53d960	0.2068839
209	0x3ec8d84b	0.39227518
210	0x3ea8fa12	0.33003289
211	0xbe888dc9	-0.26670673
212	0x3ed5b86a	0.4174226
213	0xbdcf94dd	-0.10135815
214	0xbe1a5911	-0.15073039
215	0x3d0ed291	0.03486878
216	0xbe5988a7	-0.21243535
217	0x3dadb364	0.08481482
218	0x3f1d90df	0.6154918
219	0x3eedf5a9	0.46476486
220	0x3ef0389e	0.46918195
221	0x3f2900ca	0.6601683
222	0x3d9ce9ba	0.07661767
223	0x3dfd08c3	0.12355187
224	0x3dcdfeaf	0.10058343
225	0xbe1dd69d	-0.154139
226	0xbf373713	-0.7156841
227	0xbf5353d9	-0.82549816
228	0xbf0c22b9	-0.5474048
229	0x3e2e43e0	0.1701808
230	0xbf93afe8	-1.1538057
231	0x3f352a58	0.70767736
232	0xbb5d58fc	-0.0033774963
233	0xbcbf3913	-0.023342645
234	0x3f1df33d	0.6169928
235	0x3e0b43ed	0.1360013
236	0x3e414227	0.18872891
237	0xbd1b0cf5	-0.037854154
238	0xbf114f50	-0.56761646
239	0x3e12a110	0.14319253
240	0x3e05b28a	0.13056388
241	0xbd26a580	-0.040685177
242	0x3f683544	0.90706277
243	0x3f7fc6e8	0.9991288
244	0x3ecd7a46	0.4013235
245	0x3f6df97d	0.92958814
246	0xbe013659	-0.12618388
247	0x3f11c0fd	0.569351
248	0xbee78561	-0.45218948
249	0x3e2179df	0.15769146
250	0x3ce47a2b	0.027890285
251	0x3da53278	0.08066267
252	0xbe000916	-0.12503466
253	0x3cfc464e	0.030795243
254	0x3e0b25f6	0.135887
255	0x3b2fa91b	0.0026803676

weight f4 [20, 163]
0	0x3d899f91	0.06719888
1	0x3d276d52	0.04087574
2	0xbdd7078a	-0.10499485
3	0xbdcf0879	-0.10109038
4	0x3da41c7f	0.08013248
5	0xbb4374a2	-0.0029824157
6	0xbcfe358f	-0.031031398
7	0x3db64c37	0.089012556
8	0xbc99d242	-0.018777017
9	0xbdaac58f	-0.083384626
10	0xbd249d31	-0.040188972
11	0x3e00cb29	0.125775
12	0x3d66fcf8	0.056393594
13	0x3e0760c0	0.13220501
14	0x3d978f6d	0.07400403
15	0xbd372096	-0.04470881
16	0x3d92e2f3	0.071721934
17	0x3b906f72	0.0044078166
18	0xbd6d96e6	-0.058005236
19	0x3c9b0296	0.018922132
20	0xbd656bf7	-0.056011166
21	0xbdc80aed	-0.09767709
22	0xbe02b90e	-0.12765905
23	0x3e02fad6	0.12790999
24	0x3d59d604	0.053182617
25	0x3daf740e	0.085670575
26	0x3e0e4954	0.1389516
27	0xbdc25a2b	-0.094898544
28	0x3d6a1d2b	0.057156723
29	0x3d8e86ba	0.06959291
30	0x3da8a4d3	0.08234563
31	0xbab7c0ae	-0.0014019215
32	0x3d9c5b31	0.07634581
33	0xbcfb7ee2	-0.03070015
34	0xbdd3a23b	-0.103336774
35	0xbd8cf38f	-0.068823926
36	0x3da523ed	0.08063493
37	0x3dbd1ca6	0.0923398
38	0xbda79aab	-0.081837974
39	0xbcf6002d	-0.03002938
40	0xbe067de2	-0.13133958
41	0xbdbe5a6b	-0.092945896
42	0xbe08f9da	-0.13376561
43	0x3d4b1f19	0.049590204
44	0xbe002f1d	-0.12517972
45	0x3ddd3f14	0.10803047
46	0xbc403cc0	-0.011733234
47	0xbce0094a	-0.02734818
48	0x3dd6e79c	0.10493395
49	0x3c8fea27	0.017567707
50	0xbc88d852	-0.016704712
51	0x3e14239a	0.14466706
52	0x3d973834	0.07383767
53	0x3d7273c4	0.059192434
54	0xbcf7a623	-0.030230587
55	0x3d87e881	0.066361435
56	0x3d92d8d0	0.0717026
57	0xbde2c17a	-0.11072059
58	0xbe0fff4b	-0.1406223
59	0x3d950192	0.0727569
60	0xbe0f174f	-0.13973735
61	0x3da2b090	0.07943833
62	0x3d5a3a76	0.05327841
63	0xbd9f55cd	-0.07780037
64	0x3dcf7381	0.101294525
65	0x3d93dba1	0.07219625
66	0xbc3a119c	-0.011356737
67	0x3cd081e2	0.025452558
68	0xbd5a341a	-0.053272344
69	0xbd71deae	-0.059050255
70	0xbe081845	-0.13290508
71	0xbd334bbb	-0.043773394
72	0x3e0e0c78	0.13871944
73	0xbd962bad	-0.07332549
74	0x3e0bef47	0.13665496
75	0x3cb3a813	0.02193073
76	0xbddad9e3	-0.1068609
77	0x3d9eb27e	0.077488884
78	0x3de0298f	0.10945427
79	0xbd6453ab	-0.055743854
80	0xb8820ebb	-6.201627e-05
81	0xbd7410db	-0.059586387
82	0xbe1526a4	-0.14565521
83	0x3e0c255e	0.1368613
84	0x3c0d1a9b	0.0086123
85	0x3dfb8463	0.1228111
86	0xbd375712	-0.04476077
87	0xbcfd4a4b	-0.030919215
88	0x3d0d847d	0.03455018
89	0xbdd1a7db	-0.10237094
90	0xbc8f3905	-0.017483244
91	0xbdc206fa	-0.09473987
92	0x3e044a6e	0.12919018
93	0xbde406f3	-0.11134138
94	0xbde67d58	-0.11254376
95	0xbdc1b56b	-0.09458431
96	0xbe081de4	-0.13292652
97	0xbcd578c1	-0.026058557
98	0x3dda0177	0.10644811
99	0x3dc25f73	0.09490862
100	0xbd625815	-0.055259783
101	0xbcf2c7d9	-0.02963631
102	0x3ca37cd0	0.019956976
103	0xbe045a11	-0.12924983
104	0xbd31240b	-0.043247264
105	0x3d60609e	0.05477964
106	0xbe036497	-0.1283134
107	0xbc4a762b	-0.012357275
108	0xbdf944b7	-0.121713094
109	0x3db3b52d	0.08774791
110	0xbdfda2e6	-0.12384586
111	0x3ddd81ed	0.10815797
112	0xbd93cbc3	-0.07216599
113	0x3cd5bc8f	0.026090888
114	0x3d30f3f2	0.043201394
115	0x3d66619e	0.05624544
116	0xbd92b957	-0.07164257
117	0x3da15dc6	0.07879214
118	0xbda510e5	-0.08059863
119	0x3e0c2e40	0.13689518
120	0xbe113920	-0.14181948
121	0x3dd06c34	0.10176888
122	0xbde8995a	-0.113573745
123	0x3bf3316e	0.007421664
124	0xbded67eb	-0.115920864
125	0xbde345cd	-0.11097298
126	0x3d3687f8	0.044563264
127	0x3d59c553	0.0531667
128	0xbdf161aa	-0.11786206
129	0xbc0c8c9b	-0.008578445
130	0x3c9b9e36	0.01899634
131	0xbd8f74cd	-0.070047
132	0x3e003ccc	0.12523192
133	0xbd47ed4f	-0.0488103
134	0x3bc9cac8	0.0061582066
135	0x3d9fa51f	0.07795166
136	0xbdc1f6f8	-0.09470934
137	0x3dd530b6	0.104096815
138	0xbda034ba	-0.07822557
139	0x3ddfad64	0.109217435
140	0x3db64b9b	0.08901139
141	0xb9a9b265	-0.00032367106
142	0x3df0c416	0.117561504
143	0x3c0b9ff0	0.008522019
144	0x3cf98a71	0.030461522
145	0xbe03ec05	-0.12883003
146	0xbd976180	-0.073916435
147	0x3c9682c9	0.01837291
148	0xbd37c973	-0.04486985
149	0x3dd8f9af	0.10594498
150	0x3be99851	0.0071287532
151	0x3d4b8ac7	0.049692895
152	0xbd16ecb0	-0.036846817
153	0xbd12662a	-0.035741962
154	0x3e139e58	0.14415872
155	0xbd9c3795	-0.07627789
156	0xbd9a0b3e	-0.075216755
157	0xbd10df40	-0.035369158
158	0xbdf14990	-0.11781609
159	0x3d6ab123	0.057297837
160	0x3dd77c7e	0.10521792
161	0x3d26df2a	0.04074017
162	0xbd4ab2d4	-0.04948695
163	0xbb091b20	-0.0020920709
164	0xbe06be8d	-0.13158627
165	0x3da353ae	0.07974945
166	0xbdb32d68	-0.08748895
167	0x3d155b27	0.036463883
168	0xbb8d2ce1	-0.0043083285
169	0x3e12caec	0.14335221
170	0x3d88add0	0.06673777
171	0xbc06a766	-0.008218622
172	0x3b4c5fb6	0.0031184978
173	0x3d96d996	0.0736572
174	0x3a33ed75	0.0006863692
175	0x3df19c08	0.11797339
176	0x3e02e157	0.12781273
177	0xbc529853	-0.0128537
178	0x3cf085b3	0.029360628
179	0xbbeb1748	-0.007174406
180	0xbd915273	-0.07095804
181	0x3e134113	0.14380293
182	0xbde16327	-0.1100524
183	0xbd20e718	-0.03928289
184	0x3df42deb	0.11922821
185	0x3d618e1c	0.055067167
186	0xbd6bd491	-0.057575766
187	0xbd353587	-0.0442405
188	0xbca0864d	-0.01959529
189	0x3d766210	0.060152113
190	0x3e10f38a	0.14155403
191	0x3d8fab9f	0.07015156
192	0xbe06cb53	-0.131635
193	0xbcff84a8	-0.031191185
194	0xbe0f002f	-0.13964914
195	0xbd0a873c	-0.033820376
196	0xbda6ff47	-0.08154159
197	0x3b0386a1	0.0020069259
198	0xbe036510	-0.12831521
199	0x3de4910b	0.11160477
200	0x3d2cafef	0.04215997
201	0x3e04b710	0.12960458
202	0xbb83e859	-0.0040255007
203	0xbde6d658	-0.112713516
204	0xbe116990	-0.14200425
205	0xbde525be	-0.111888394
206	0xbd94644b	-0.07245692
207	0x3dcc160f	0.09965145
208	0xbd2bdbc5	-0.041957635
209	0x3d8b3ee4	0.06799105
210	0xbcb1cdad	-0.02170452
211	0x3cb9a88c	0.022663377
212	0xbd0fb1fb	-0.035081845
213	0xbe1161e1	-0.14197494
214	0xbda8a118	-0.08233851
215	0xbe136bab	-0.14396541
216	0xbe0e500b	-0.13897721
217	0x3caf35c2	0.021387938
218	0x3d2a58ad	0.041588474
219	0xbbcb8c04	-0.0062117595
220	0x3dc1c13c	0.09460685
221	0xbd853c71	-0.06505669
222	0x3dbc391e	0.09190582
223	0x3ddff6b2	0.10935725
224	0xbe14a576	-0.14516243
225	0xbbf44622	-0.0074546495
226	0x3d3bff76	0.045897923
227	0x3e14dd71	0.14537598
228	0x3dfc00ba	0.12304826
229	0x3d49f7dc	0.049308643
230	0x3c1011d1	0.00879331
231	0x3abf9678	0.0014616987
232	0xbd9e2583	-0.077219985
233	0xbc909455	-0.017648855
234	0x3cba1ab5	0.022717813
235	0xbd3b87e6	-0.0457839
236	0x3df96d7d	0.12179086
237	0xbcd25988	-0.025677457
238	0xbd49ae4e	-0.049238496
239	0xbd5bdf1f	-0.05367958
240	0x3c80e28c	0.015733026
241	0xbe14abac	-0.14518613
242	0x3d7ec8a0	0.06220305
243	0xbdebfa41	-0.115223415
244	0x3ced6d6e	0.028982844
245	0x3c35eca1	0.01110378
246	0xbd092bb8	-0.03348896
247	0x3d80ff83	0.06298735
248	0xbdb3cc9b	-0.0877926
249	0xbd55ba0d	-0.052179385
250	0x3af9d60c	0.0019060983
251	0x3c89c821	0.016819062
252	0x3b25b47e	0.0025284584
253	0xbdc97fc5	-0.09838823
254	0x3c6a7637	0.014310411
255	0x3daa182c	0.08305392

att_src f4 [1, 1, 15]
0	0xbc46b07a	-0.012127036
1	0xbd883d6e	-0.06652342
2	0x3e5d07bb	0.2158498
3	0xbebefaad	-0.37300625
4	0x3cfa435b	0.030549696
5	0x3f1801f1	0.5937796
6	0x3f004682	0.50107586
7	0xbe5dbffb	-0.21655266
8	0x3f4ad43d	0.792301
9	0xbf08f63f	-0.5350074
10	0xbf4ecf6c	-0.8078525
11	0xbf1a6604	-0.60311913
12	0xbe777fe5	-0.24169882
13	0x3f65cf03	0.89769
14	0x3e98b7fc	0.2982787

att_dst f4 [1, 1, 15]
0	0xbda16505	-0.07880596
1	0x3e143d8d	0.14476605
2	0xbe0378ec	-0.12839097
3	0xbd8f9868	-0.07011491
4	0xbb75a592	-0.003748272
5	0x3eef6503	0.46756753
6	0xbebd2567	-0.36942598
7	0xbe1f3290	-0.15546632
8	0x3a5e812a	0.0008487875
9	0xbe4858c9	-0.19565119
10	0xbde2dfde	-0.110778555
11	0xbe5fac3a	-0.21843043
12	0x3e23951d	0.15974851
13	0xbee5955b	-0.44840512
14	0x3cb82256	0.02247731

bias f4 [15]
0	0x3dd40fb8	0.103545606
1	0x3d61d055	0.05513032
2	0xbd0a5701	-0.03377438
3	0xbe1a8c28	-0.15092528
4	0xbdaf8f35	-0.085722364
5	0xbc805607	-0.015666021
6	0x3bd4e6ce	0.0064972406
7	0x3e14f219	0.14545478
8	0x3db9dceb	0.0907534
9	0xbdfe869e	-0.1242802
10	0xbbab0673	-0.0052192747
11	0xbdf58fb8	-0.11990303
12	0xbdb06178	-0.08612341
13	0x3bf54694	0.00748522
14	0xbd8cf7f6	-0.06883232

weight f4 [15, 163]
0	0x3f2b66f9	0.66954
1	0x3f1e0c67	0.61737674
2	0x3f02f2c3	0.51151675
3	0x3eead48c	0.45865285
4	0x3f15b506	0.58479345
5	0x3f288255	0.6582387
6	0x3ef5c5da	0.4800251
7	0x3f2e771b	0.6815049
8	0x3ed60c7b	0.41806397
9	0x3eb735a0	0.357831
10	0x3ee202c1	0.44142726
11	0x3ed7c87a	0.4214514
12	0x3ee143f6	0.43997163
13	0x3ecca9c3	0.39973268
14	0x3e5ea05b	0.21740858
15	0x3ece63fb	0.40310654
16	0x3e64767a	0.2231082
17	0x3f292ac5	0.66080886
18	0x3f26a508	0.6509557
19	0x3eef10f3	0.4669262
20	0x3f44d654	0.7688954
21	0x3ef5ba1a	0.47993547
22	0x3f12a789	0.5728689
23	0x3f20d61d	0.6282671
24	0x3dd8de57	0.10589283
25	0xbda4f9b6	-0.08055441
26	0x3f32a4e1	0.69782835
27	0x3dbfe5be	0.09369992
28	0x3ed218fc	0.41034687
29	0x3e95e4f0	0.29276228
30	0x3e5424d1	0.2071717
31	0x3ec247f4	0.3794552
32	0x3dcf1bf4	0.101127535
33	0x3da97e53	0.082760476
34	0x3da7d1db	0.08194324
35	0x3f0f2bc8	0.5592618
36	0x3f04c1f0	0.51858425
37	0x3efa31b8	0.48866057
38	0x3f583295	0.8445218
39	0x3f0c9d38	0.54927397
40	0x3ef3621e	0.47535795
41	0x3ed67db4	0.4189278
42	0x3f33b412	0.7019664
43	0x3f3d6322	0.7397939
44	0x3f25a3ae	0.6470288
45	0x3f23e80d	0.64025956
46	0x3eaf9e34	0.34300387
47	0x3f14d085	0.58130676
48	0x3f2f2728	0.6841912
49	0x3f0e6695	0.5562528
50	0x3ef51a41	0.47871593
51	0x3f0d36f1	0.5516196
52	0x3f2fc0d5	0.68653613
53	0x3efc10f0	0.49231672
54	0xbd99f0e5	-0.0751665
55	0x3eea18df	0.457221
56	0xbd3d2e89	-0.046186958
57	0x3ea04e79	0.3130987
58	0x3ea46ce7	0.32114336
59	0x3d7ca142	0.061677225
60	0x3e80d009	0.25158718
61	0xbda9432c	-0.08264765
62	0x3c97518f	0.018471507
63	0x3e8c9698	0.27458644
64	0xbe22a561	-0.158834
65	0xbdb462b4	-0.088078886
66	0x3ed71a5b	0.42012295
67	0x3cf97e09	0.030455606
68	0xbe4af877	-0.19821344
69	0x3e759d8e	0.23985884
70	0x3d39806d	0.045288492
71	0xbc1df7d0	-0.009641603
72	0xbd84b35c	-0.064795226
73	0xbc735a07	-0.014853007
74	0x3d880647	0.06641822
75	0x3d344be7	0.0440177
76	0x3db39999	0.08769531
77	0x3d17e148	0.03708008
78	0x3e77839d	0.241713
79	0x3d2ab29a	0.041674234
80	0x3f0d572a	0.55211127
81	0x3ea7b7b4	0.32757342
82	0x3eb7b519	0.35880354
83	0x3e0f2939	0.13980569
84	0x3e5df286	0.21674547
85	0xbd8404a8	-0.064462006
86	0x3dfa8327	0.122320466
87	0xbd937fa7	-0.07202082
88	0xbda8cf3d	-0.082426526
89	0xba5f770d	-0.0008524515
90	0x3ef45744	0.47722828
91	0x3ed508cf	0.41608283
92	0x3ea8f1ac	0.3299688
93	0x3e1ef712	0.15523937
94	0xbd8859a1	-0.0665772
95	0x3e02345b	0.12715285
96	0x3df29f81	0.11846829
97	0xbe0c67be	-0.1371145
98	0x3e4eb4ed	0.20186205
99	0xbe7871c5	-0.2426215
100	0x3e8d71c2	0.27625853
101	0xbdb01d7b	-0.08599373
102	0x3e8ba20e	0.27272075
103	0x3e4ad034	0.19805986
104	0x3ccbfa89	0.024899738
105	0x3d000ac5	0.03126027
106	0x3e665956	0.22495016
107	0xbda63e1c	-0.08117315
108	0x3d7efa87	0.06225064
109	0x3e238885	0.15970047
110	0x3da139cc	0.07872352
111	0xbceacbd9	-0.028661655
112	0x3e03eadf	0.12882565
113	0xbde85548	-0.11344391
114	0xbd98f1fe	-0.07468031
115	0xbe999181	-0.29993823
116	0xbe323db2	-0.17406347
117	0x3dbd01b4	0.092288405
118	0xbbb4f00e	-0.005521781
119	0xbbc0cc5e	-0.0058837375
120	0xbdd9a045	-0.10626272
121	0x3db31a16	0.0874521
122	0x3dacd910	0.08439839
123	0x3f23dc19	0.6400772
124	0x3e63e287	0.22254382
125	0x3e810034	0.25195467
126	0x3bacd434	0.00527432
127	0xbca4233e	-0.020036336
128	0x3c7e77cb	0.015531491
129	0x3e12457e	0.14284322
130	0x3cdd7242	0.027032021
131	0xbcfb791b	-0.030697396
132	0x3caff919	0.021481084
133	0x3de0088c	0.1093913
134	0x3eb6d1f0	0.35707045
135	0x3e71fdd0	0.23631978
136	0xbdeb9e92	-0.11504854
137	0xbdbb2064	-0.091370374
138	0x3f38b86a	0.72156394
139	0x3f1b1722	0.6058217
140	0x3f03e3ff	0.5151977
141	0x3f385920	0.72010994
142	0x3f2da03d	0.6782263
143	0x3f0d62a4	0.5522864
144	0x3efbd16a	0.49183208
145	0x3f17686a	0.591437
146	0x3f347f50	0.70506763
147	0x3f1c6261	0.61087614
148	0x3f003704	0.5008395
149	0x3eb8a648	0.36064363
150	0x3f049707	0.5179295
151	0x3efcd99c	0.49384773
152	0x3f2adcad	0.66742975
153	0x3f27eaa8	0.6559243
154	0x3f108b3d	0.5646246
155	0x3f29ff84	0.6640551
156	0x3f24ed96	0.6442503
157	0x3f1328ae	0.5748395
158	0x3efb69eb	0.49104246
159	0x3f27472a	0.6534296
160	0x3eb813dd	0.35952654
161	0x3e6c2f95	0.23065026
162	0x3f1b2f91	0.60619456
163	0x3cebaab0	0.028767914
164	0x3bfd3008	0.007726673
165	0x3e2fabc1	0.17155363
166	0x3ca13be8	0.019681886
167	0x3d0c2a28	0.03421989
168	0x3dc9087b	0.09816071
169	0x3e4057ce	0.18783495
170	0x3d8dee4a	0.06930216
171	0x3d83a490	0.06427872
172	0x3dc1f406	0.09470372
173	0xbddf51ee	-0.10904299
174	0x3d27972e	0.04091566
175	0x3be9a591	0.0071303328
176	0xbe117266	-0.14203796
177	0x3c921d4c	0.017836235
178	0x3df89691	0.12138093
179	0x3dfd8419	0.12378711
180	0x3e4efaca	0.20212856
181	0x3d65be5d	0.056089748
182	0xbba7a325	-0.005115884
183	0x3cd02749	0.025409358
184	0x3e6d6179	0.23181714
185	0x3cc65c3b	0.0242139
186	0x3e155c67	0.1458603
187	0x3de11947	0.109911494
188	0xbc8870e6	-0.016655397
189	0x3d7264fb	0.059178334
190	0x3bfe8983	0.0077678575
191	0xbdbb3051	-0.09140075
192	0x3da6102a	0.08108552
193	0x3bc9bfdf	0.006156906
194	0x3df7f8b1	0.12107981
195	0x3e1e157e	0.15437886
196	0x3d8a1aa9	0.06743366
197	0x3dbe1712	0.09281744
198	0x3d56e251	0.052461926
199	0xbbafeed9	-0.005369049
200	0x3d255aa4	0.040369645
201	0x3e054776	0.13015541
202	0x3cb95e8f	0.022628097
203	0xbce41092	-0.027839933
204	0x3e3526d2	0.1769059
205	0x3e53091e	0.20608947
206	0x3dcbeca0	0.09957242
207	0x3e008ee8	0.12554514
208	0x3d850283	0.0649462
209	0xbd267c32	-0.040645786
210	0x3e538c91	0.2065909
211	0x3da3f55f	0.08005785
212	0xbddd86e3	-0.10816743
213	0x3e7b2098	0.24524152
214	0x3de97bb4	0.114005476
215	0x3e8c7169	0.27430275
216	0x3c51c9df	0.0128044775
217	0x3deb3a35	0.114857115
218	0xbc114fd5	-0.008869131
219	0x3e0ef965	0.13962324
220	0x3c38c4cb	0.011277388
221	0xbd2e6063	-0.04257239
222	0xbdae0e30	-0.084988
223	0xbdc87211	-0.097873814
224	0x3d8b0458	0.06787938
225	0x3e361c2b	0.17784183
226	0x3df22af1	0.11824597
227	0x3d8f1c3b	0.069878064
228	0x3def76e7	0.11692601
229	0x3e0d5b27	0.13804303
230	0xbdf75d74	-0.12078372
231	0xbd418f52	-0.04725582
232	0xbe03152c	-0.12801045
233	0xbd5f2dab	-0.05448691
234	0x3de9d309	0.11417205
235	0x3d8e9b7b	0.06963249
236	0x3aae32e2	0.0013290311
237	0x3d4adf24	0.04952921
238	0x3e0820fe	0.13293836
239	0x3db3450c	0.08753404
240	0x3dd5d4c9	0.10440976
241	0x3e412fe4	0.18865925
242	0x3daebfe9	0.08532698
243	0xbdbb15e4	-0.09135035
244	0x3d97abd5	0.07405821
245	0xbd657193	-0.056016516
246	0x3d0a1833	0.033714484
247	0x3c5db8db	0.0135328425
248	0x3e09b10f	0.13446449
249	0xbd9b7206	-0.075901076
250	0xbe0588a1	-0.13040401
251	0xbae31f4b	-0.0017328052
252	0xbcdc13a3	-0.026864832
253	0x3cc8b298	0.024499223
254	0xbd58fae8	-0.052973658
255	0xbd8cb71a	-0.06870861

weight f4 [15, 9]
0	0xbd2a8ebe	-0.041640036
1	0x3d835a89	0.064137526
2	0x3ebe021c	0.37110984
3	0xbea8effe	-0.329956
4	0xbe284986	-0.16434297
5	0x3e92400a	0.28564483
6	0x3e92ea9e	0.28694624
7	0x3e712f88	0.23553288
8	0xbd78d3b5	-0.060748775
9	0xbec36d5f	-0.3816938
10	0xbd30f306	-0.043200515
11	0xbe2985e5	-0.16554983
12	0xbe524058	-0.20532358
13	0xbcb83ac8	-0.022488967
14	0x3e092dd8	0.13396394
15	0xbe3d3c81	-0.18480112
16	0x3d084a13	0.033273768
17	0x3e7ec94e	0.24881479
18	0x3d64a3fa	0.055820443
19	0x3ea17d11	0.3154073
20	0xbd919e7f	-0.07110309
21	0x3e26d53a	0.16292277
22	0xbec2eca8	-0.3807118
23	0x3e6d3bc6	0.23167333
24	0x3e370c5f	0.17875813
25	0x3e259846	0.16171369
26	0xbea89922	-0.3292933
27	0x3df5903c	0.11990401
28	0x3de83436	0.113380834
29	0xbec32f62	-0.38122088
30	0xbeb71bae	-0.35763305
31	0xbe2f5f7c	-0.17126268
32	0x3e20e3bc	0.15711874
33	0xbe8428d4	-0.258124
34	0x3e16d0ae	0.14728042
35	0x3de78491	0.11304582
36	0xbeb1504f	-0.34631583
37	0x3dcfd76e	0.10148512
38	0xbe0121e4	-0.12610584
39	0x3e96bd6a	0.29441386
40	0xbd8b105e	-0.06790231
41	0xbebbef60	-0.36706066
42	0x3ec77d15	0.38962618
43	0xbe26c47c	-0.1628589
44	0xbe8a5e29	-0.27024963
45	0x3d92adc3	0.07162049
46	0xbe265e4b	-0.16246907
47	0x3e53a961	0.20670082
48	0xbebdaaf3	-0.37044486
49	0xbea575dc	-0.32316482
50	0x3e66b59a	0.22530213
51	0xbec69622	-0.38786417
52	0x3e9e64d3	0.30936298
53	0xba1ca107	-0.00059749227
54	0x3e6659ba	0.22495165
55	0xbc0d11d0	-0.008610204
56	0xbe8e9ddc	-0.27854812
57	0x3c7d7406	0.015469557
58	0x3ca3e8b8	0.02000843
59	0xbe6d09a6	-0.23148212
60	0xbe8bfafa	-0.27339917
61	0x3e6b8a89	0.23002066
62	0xbd4e130d	-0.050311137
63	0x3e3df36c	0.1854989
64	0xbde4e850	-0.111771226
65	0xbdf79b8b	-0.12090214
66	0x3ce37f52	0.027770672
67	0x3db28a5c	0.08717796
68	0xbec0452a	-0.37552768
69	0xbe04758f	-0.1293547
70	0x3e9b3c98	0.30319667
71	0x3ec258f2	0.37958485
72	0xbeacd645	-0.33757225
73	0xbe9900c2	-0.2988339
74	0xbe760656	-0.24025854
75	0xbe7f8831	-0.24954297
76	0xbe67657d	-0.22597308
77	0xbdfafeb9	-0.12255616
78	0xbe65c241	-0.22437383
79	0xbec26e76	-0.379749
80	0x3e8df677	0.277271
81	0x3ea74a7c	0.32674015
82	0xbbe6af73	-0.007039958
83	0x3e81e0c9	0.2536681
84	0xbe272797	-0.16323696
85	0xbd53d434	-0.051716045
86	0x3daf8cb1	0.08571757
87	0x3b7fc5ef	0.003902789
88	0xbde40619	-0.111339755
89	0x3e2cf549	0.16890444
90	0xbe6c043c	-0.2304849
91	0xbde16c9c	-0.11007044
92	0xbec40c3f	-0.38290593
93	0xbeb298a0	-0.3488207
94	0x3e0ef7e1	0.13961746
95	0xbda89252	-0.082310334
96	0xbe0e2c55	-0.13884099
97	0x3d19b34e	0.037524514
98	0x3d21a9e3	0.039468657
99	0x3deb78e9	0.11497671
100	0xbe84af1b	-0.25914845
101	0xbe5f3db4	-0.21800882
102	0x3eb82f8d	0.35973778
103	0xbe13dfa9	-0.14440788
104	0xbdcdf288	-0.10056025
105	0x3c5bada2	0.0134080965
106	0xbecd6a0a	-0.40119964
107	0xbc1f6b8d	-0.009730232
108	0xbea9361d	-0.33049098
109	0xbe98f7f5	-0.29876676
110	0x3eafa53d	0.34305754
111	0xbe0225b1	-0.1270969
112	0xbdb5badf	-0.088735335
113	0xbe1de7a7	-0.154204
114	0xbe8126fc	-0.25225055
115	0xbdd59aa5	-0.10429887
116	0xbe12732f	-0.14301752
117	0xbdac314e	-0.084078416
118	0xbe237c0a	-0.15965286
119	0xbeb4d3e7	-0.3531792
120	0x3ea02162	0.3127547
121	0x3ecaf812	0.39642388
122	0x3d6126f4	0.05496879
123	0x3ec3b5a4	0.38224518
124	0xbd66a20f	-0.056306895
125	0x3d384ba4	0.04499401
126	0x3e357d3b	0.17723553
127	0x3d3eadf7	0.046552625
128	0xbeaafb8f	-0.3339505
129	0xbea60f05	-0.32433334
130	0xbcfffa78	-0.031247362
131	0x3e12746c	0.14302224
132	0xbdcf8aaa	-0.1013387
133	0xbdec12d8	-0.11527032
134	0x3a3650f8	0.00069548143

att_src f4 [1, 1, 15]
0	0x3c6501ec	0.013977509
1	0x3eeb2a18	0.45930552
2	0x3e76d3a6	0.24104175
3	0xbd05b406	-0.032642387
4	0xbe815b87	-0.25265142
5	0xbf0e666a	-0.5562502
6	0xbe0130e8	-0.12616313
7	0x3e293088	0.1652242
8	0xbcd669b9	-0.02617346
9	0xbefe1e71	-0.496326
10	0xbd929d76	-0.071589395
11	0x3e0cf61c	0.13765758
12	0x3e20d5ee	0.15706608
13	0x3edb9d93	0.42893657
14	0x3e3bd782	0.18343928

att_dst f4 [1, 1, 15]
0	0xbde0c8da	-0.109758094
1	0x3eb0f7a5	0.34563938
2	0x3e991182	0.2989617
3	0xbec2bfc8	-0.38036942
4	0x3ec43448	0.38321137
5	0xbc99102f	-0.018684475
6	0x3ef0ab4a	0.47005683
7	0x3ea8e93a	0.32990438
8	0xbec92245	-0.39283958
9	0x3ebde9e2	0.370925
10	0xbeff1f41	-0.49828532
11	0x3ec1c28f	0.3784375
12	0xbe9aeca6	-0.30258673
13	0xbd037fc3	-0.032104265
14	0x3e89aa27	0.26887628

bias f4 [15]
0	0x3dd40fb8	0.103545606
1	0x3d61d055	0.05513032
2	0xbd0a5701	-0.03377438
3	0xbe1a8c28	-0.15092528
4	0xbdaf8f35	-0.085722364
5	0xbc805607	-0.015666021
6	0x3bd4e6ce	0.0064972406
7	0x3e14f219	0.14545478
8	0x3db9dceb	0.0907534
9	0xbdfe869e	-0.1242802
10	0xbbab0673	-0.0052192747
11	0xbdf58fb8	-0.11990303
12	0xbdb06178	-0.08612341
13	0x3bf54694	0.00748522
14	0xbd8cf7f6	-0.06883232

weight f4 [15, 9]
0	0x3e2984c2	0.1655455
1	0x3edeaf03	0.43492898
2	0xbe58ffa2	-0.21191266
3	0xbbfe4b8b	-0.0077604703
4	0x3e6b7540	0.22993946
5	0xbd899f87	-0.067198806
6	0x3d5e05ab	0.054204624
7	0x3bc4207c	0.0059853178
8	0x3f1b9b52	0.60783875
9	0xbe02035e	-0.12696597
10	0xbe814c44	-0.252535
11	0x3d443591	0.047902647
12	0x3e2bd12a	0.16779009
13	0xbd902ceb	-0.070398174
14	0xbe8e1433	-0.27749786
15	0x3ec69564	0.3878585
16	0xbe82cb38	-0.2554567
17	0x3e47ca19	0.19510688
18	0xbe59403b	-0.21215908
19	0xbe494e22	-0.19658712
20	0x3ec41deb	0.38304076
21	0x3ecc41eb	0.3989404
22	0x3e90f9e6	0.28315657
23	0xbdd4e300	-0.10394859
24	0x3b3ed1c0	0.002911672
25	0xbe6c68ff	-0.23086928
26	0xbec6cae9	-0.38826683
27	0x3db0a3a3	0.08624961
28	0x3c96cc14	0.018407859
29	0xbd2ecd54	-0.042676285
30	0x3e0d0fb5	0.13775523
31	0x3dd1e8e8	0.102495015
32	0xbe6097e2	-0.21932939
33	0xbdf445ca	-0.11927374
34	0xbecd6068	-0.40112615
35	0xbe7e1ed2	-0.24816445
36	0x3e97d493	0.2965437
37	0x3e5f03de	0.21778819
38	0xbd908473	-0.07056513
39	0x3cbd9ea9	0.023146944
40	0xbd1e029f	-0.03857672
41	0xbe95f1c7	-0.29286024
42	0x3c890af4	0.016728856
43	0xbc7c6102	-0.015403988
44	0xbcb3d6df	-0.021953044
45	0x3dae914f	0.08523809
46	0x3b3521c1	0.0027638527
47	0x3e9258cc	0.28583372
48	0x3e405627	0.18782865
49	0x3e5380c6	0.20654592
50	0xbe1d532a	-0.15363756
51	0x3beffbb2	0.0073237056
52	0xbea62d2d	-0.3245634
53	0x3eb0f779	0.34563807
54	0xbe44828f	-0.19190429
55	0xbe5d2d34	-0.21599275
56	0x3e7be19d	0.24597783
57	0x3dc2e0dc	0.09515545
58	0x3e12233a	0.1427125
59	0x3e893dd3	0.2680498
60	0x3e6ef734	0.23336488
61	0x3d4b819d	0.049684156
62	0x3eb5d84c	0.35516584
63	0xbe040eed	-0.12896319
64	0x3ec0a982	0.37629324
65	0xbe188bc2	-0.14897063
66	0xbe2b1d66	-0.16710433
67	0x3e0010cd	0.12506409
68	0x3e6b05e8	0.22951472
69	0x3d6336a6	0.05547204
70	0x3e826421	0.25467017
71	0x3ea04b56	0.31307477
72	0x3ed6253b	0.4182528
73	0xbdf4c816	-0.11952226
74	0x3ebc1980	0.36738205
75	0x3ee7aaa6	0.45247382
76	0x3d4301bd	0.04760908
77	0xbdc0552d	-0.09391246
78	0x3ec1a0d8	0.37818027
79	0xbe7a365e	-0.24434802
80	0x3e4b90c6	0.19879445
81	0x3e81b4ef	0.25333354
82	0xbed3dc7f	-0.41379163
83	0x3cdada23	0.026715344
84	0xbe06504e	-0.13116571
85	0x3e786ec2	0.24261001
86	0x3e0d9a79	0.13828458
87	0x3ecd0c90	0.40048647
88	0xbe00f7bb	-0.12594502
89	0xbe905a27	-0.2819378
90	0x3ea53b54	0.32271826
91	0x3e35905e	0.17730853
92	0xbe137d9a	-0.14403382
93	0x3e99a72e	0.3001036
94	0x3d10e14f	0.03537112
95	0xbed6471c	-0.41851127
96	0xbd63723a	-0.055528857
97	0x3dcfd612	0.101482525
98	0x3d58482d	0.052803207
99	0xbeaf011b	-0.3418053
100	0x3dd5fd52	0.10448708
101	0x3e8a5d6d	0.27024403
102	0x3e54623f	0.20740603
103	0xbe0d4e6f	-0.13799451
104	0x3e36d12e	0.17853233
105	0x3e840d12	0.25791222
106	0x3dd7e127	0.10540991
107	0xbebe55db	-0.37174878
108	0x3e6c2808	0.23062146
109	0x3df7fef3	0.121091746
110	0x3c356e91	0.011073724
111	0xbeb216a0	-0.34782887
112	0x3e5aacb3	0.21354942
113	0xbe433dfd	-0.19066615
114	0x3dfdcea7	0.123929314
115	0x3e23aaaf	0.1598308
116	0xbd5276c7	-0.051382806
117	0xbe9b9e6b	-0.303943
118	0x3da3ddc8	0.08001286
119	0x3c0057f7	0.007833472
120	0x3eb69281	0.3565865
121	0x3e3a5e6d	0.18200083
122	0xbe9eb437	-0.30996868
123	0xbdf4656c	-0.11933407
124	0xbe331bf1	-0.17491128
125	0x3dab5a54	0.08366838
126	0xbe07e1f9	-0.13269795
127	0x3e021048	0.12701523
128	0x3e6a3a18	0.22873724
129	0xbbad093d	-0.0052806423
130	0x3e839918	0.2570274
131	0xbe54cfc7	-0.20782386
132	0x3eb68f8b	0.3565639
133	0xbe5f8ac0	-0.21830273
134	0xbe1b778d	-0.15182324

weight f4 [15, 9]
0	0xbe1f9523	-0.15584235
1	0xbe672828	-0.22573912
2	0xbdf5489b	-0.11976739
3	0xbe42a696	-0.1900886
4	0xbecbd78c	-0.39812887
5	0xbe5aa24e	-0.21350977
6	0xbeb0d7bd	-0.34539595
7	0xbdd6dd19	-0.1049139
8	0xbdf86b9c	-0.121299
9	0x3ec11f91	0.37719396
10	0xbde04ea8	-0.109525025
11	0x3cfd4bab	0.03091987
12	0xbe331c26	-0.17491207
13	0x3e722a3d	0.23648925
14	0xbc42fa50	-0.011900499
15	0xbe243ed1	-0.16039588
16	0x3ea1a19d	0.31568614
17	0xbe349d99	-0.17638244
18	0x3eb44a2e	0.35212845
19	0xbe6d6227	-0.23181973
20	0xbe3b2659	-0.18276347
21	0xbe5069e3	-0.20352893
22	0xbc8e49f8	-0.017369255
23	0xbe94af9c	-0.2904023
24	0x3ec6fc4e	0.38864368
25	0x3ead9da1	0.33909324
26	0x3ea22d4c	0.31675184
27	0xbd1f2ed0	-0.038863003
28	0x3e25db70	0.1619699
29	0x3e3194da	0.17341939
30	0x3ec98a0f	0.39363143
31	0x3e360444	0.17775065
32	0x3e81d2a5	0.25356022
33	0xbe1129ae	-0.14176056
34	0x3e3db721	0.1852689
35	0xbe10e704	-0.14150625
36	0xbd0dbbe7	-0.034603026
37	0xbe6f0a8f	-0.23343872
38	0xbeba0194	-0.3632933
39	0x3e91dfed	0.28491154
40	0x3c030969	0.007997849
41	0x3ddbb4d0	0.107278466
42	0x3d5fca31	0.054636184
43	0x3e84668b	0.25859484
44	0xbea121dc	-0.31471145
45	0x3e56d904	0.20981222
46	0x3da49fc4	0.080382854
47	0xbdc7f481	-0.09763432
48	0xbd911cef	-0.07085597
49	0xbeaabde9	-0.33348015
50	0x3ebcb73e	0.36858553
51	0x3e243cc4	0.16038805
52	0x3eab829c	0.33498085
53	0xbb228e66	-0.0024804114
54	0x3eb4f897	0.3534591
55	0xbeb02fe0	-0.34411526
56	0xbd0ba509	-0.034092937
57	0xbdade679	-0.08491225
58	0x3eaad4e7	0.33365557
59	0x3e1a0080	0.15039253
60	0xbe368dad	-0.17827483
61	0xbcf9f4dd	-0.030512268
62	0xbc9ef7da	-0.019405294
63	0x3d064aa2	0.03278602
64	0x3c92b2dd	0.017907554
65	0x3dd97c87	0.10619455
66	0x3d8429c9	0.064532824
67	0xbdd325e6	-0.10309963
68	0xbe9d671a	-0.30742723
69	0x3dede365	0.11615638
70	0x3e6cd366	0.23127517
71	0x3ec7c766	0.39019316
72	0xbea12f08	-0.31481194
73	0xbe80fcb1	-0.25192788
74	0x3eb8094b	0.3594459
75	0xbd660b23	-0.056162965
76	0x3ebfd42b	0.3746656
77	0x3e99bdb9	0.3002756
78	0xbebad4ed	-0.36490574
79	0x3e416816	0.18887362
80	0x3e39a47a	0.18129149
81	0xbd566098	-0.052338213
82	0x3ecbdae4	0.39815438
83	0x3c1430a5	0.009044801
84	0xbd591023	-0.052993905
85	0x3d573beb	0.052547377
86	0xbda63290	-0.08115113
87	0xbeb20e01	-0.3477631
88	0xbdb365c7	-0.08759647
89	0x3eb71ac9	0.35762623
90	0xbd833feb	-0.06408676
91	0xbc650da4	-0.013980303
92	0x3e3f17a6	0.18661365
93	0x3d25662e	0.04038065
94	0x3d99c4d4	0.07508245
95	0xbe1116bb	-0.14168827
96	0xbe06123e	-0.13092896
97	0x3e8a4690	0.2700696
98	0x3eb7c126	0.35889548
99	0x3ec8d196	0.392224
100	0x3ea9464d	0.33061448
101	0xbeca1939	-0.39472368
102	0x3ecdd502	0.40201575
103	0x3e9ed5e2	0.31022555
104	0xbe822f4d	-0.25426713
105	0x3e9cac17	0.30600044
106	0x3e8da8ab	0.27667746
107	0x3eb3bb09	0.35103634
108	0x3dd27551	0.102762826
109	0x3e1a82c1	0.15088941
110	0x3ddfe399	0.10932083
111	0xbc289760	-0.010289997
112	0xbece1777	-0.40252277
113	0xbe9a27a0	-0.30108356
114	0xbe3c720c	-0.1840288
115	0xbe9e2ff7	-0.3089597
116	0x3d855cd9	0.0651185
117	0xbeb3f1d7	-0.35145447
118	0x3d1aeb41	0.03782201
119	0xbe4a267f	-0.19741248
120	0x3b497865	0.0030741927
121	0x3e015069	0.1262833
122	0xbc866699	-0.016406344
123	0xbde0f06b	-0.10983356
124	0xbe3d0ca3	-0.18461852
125	0x3e5e8ba3	0.21732955
126	0x3e6da1d3	0.23206262
127	0x3e5f0df5	0.21782668
128	0xbeae2666	-0.3401367
129	0x3d5aea8e	0.053446345
130	0xbead2baa	-0.33822376
131	0x3ec9f1ad	0.39442196
132	0xbeb39fb3	-0.35082778
133	0xbea761a9	-0.32691696
134	0x3e0b4a85	0.13602646

att_src f4 [1, 1, 15]
0	0x3ed7cd0a	0.4214862
1	0x3e2f489c	0.17117542
2	0xbdde68a0	-0.108597994
3	0xbef98a04	-0.4873811
4	0x3f196a27	0.599276
5	0x3ee1a79e	0.44073194
6	0xbed54838	-0.4165666
7	0xbe58b80c	-0.21163958
8	0xbf046b03	-0.51725787
9	0x3e9751c8	0.29554582
10	0xbf0ac634	-0.54208684
11	0xbeff8e78	-0.49913383
12	0xbe8a1efb	-0.2697676
13	0x3eaa9f3e	0.33324617
14	0xbf1069de	-0.5641154

att_dst f4 [1, 1, 15]
0	0x3e67e7b0	0.22646976
1	0xbf1a4807	-0.60266155
2	0x3d31d8e0	0.04341972
3	0x3d98c368	0.07459146
4	0xbed87d78	-0.42283225
5	0x3bdf6e80	0.0068185925
6	0x3f043045	0.51636153
7	0xbef2125c	-0.47279632
8	0xbe72205c	-0.23645157
9	0xbd862758	-0.06550473
10	0xbec617cc	-0.3869003
11	0x3e9e1074	0.30871928
12	0xbebfa18d	-0.3742794
13	0x3ee50f56	0.44738263
14	0x3d809008	0.06277472

bias f4 [15]
0	0x00000000	0.0
1	0x00000000	0.0
2	0x00000000	0.0
3	0x00000000	0.0
4	0x00000000	0.0
5	0x00000000	0.0
6	0x00000000	0.0
7	0x00000000	0.0
8	0x00000000	0.0
9	0x00000000	0.0
10	0x00000000	0.0
11	0x00000000	0.0
12	0x00000000	0.0
13	0x00000000	0.0
14	0x00000000	0.0

weight f4 [15, 20]
0	0x3e09ec3d	0.13469024
1	0xbe72b938	-0.23703468
2	0x3e16abe1	0.14714004
3	0x3da96caa	0.08272679
4	0xbd24c053	-0.040222477
5	0x3e337a38	0.17527092
6	0x3d6393f1	0.05556101
7	0xbe8f1f5f	-0.27953622
8	0x3eafff24	0.34374344
9	0x3e9ba342	0.30397993
10	0xbeb74002	-0.35791022
11	0xbe90ee8a	-0.2830699
12	0x3e2d7ad5	0.16941388
13	0x3e77601b	0.24157755
14	0xbd97568b	-0.07389554
15	0xbe95d4d4	-0.29263937
16	0xbec4a92e	-0.38410324
17	0x3ea6fcbc	0.32614696
18	0x3ec25e76	0.37962693
19	0x3e24d5eb	0.16097228
20	0xbe95eec6	-0.29283732
21	0x3bbfdc3f	0.005855113
22	0x3d87444f	0.06604826
23	0x3ea2bdc2	0.317854
24	0x3e1c2b8c	0.15250987
25	0xbe0a99be	-0.1353521
26	0xbe3644e2	-0.17799714
27	0x3eb97a81	0.36226276
28	0x3e99fbb2	0.3007484
29	0xbdd6eed7	-0.10494774
30	0x3ec96553	0.39335117
31	0x3d4c3b21	0.049861077
32	0x3e606dcf	0.21916889
33	0xbea05f54	-0.3132273
34	0x3ecdcf4d	0.4019722
35	0x3ec1ddfe	0.3786468
36	0xbec265da	-0.37968332
37	0x3e91639d	0.2839631
38	0x3e83eac8	0.2576506
39	0x3e9f5a1a	0.3112343
40	0x3e04a33d	0.12952895
41	0xbd4d1430	-0.05006808
42	0xbe733b76	-0.23753151
43	0x3eb8d52b	0.36100134
44	0xbe42435a	-0.18971005
45	0xbd9a8a0b	-0.07545861
46	0x3db726ee	0.08942972
47	0xbeb5983f	-0.35467717
48	0x3e0566ef	0.13027547
49	0xbd857963	-0.06517293
50	0x3e61c12a	0.22046342
51	0x3eb6bef2	0.35692555
52	0x3eac2c4e	0.33627552
53	0x3b3e0e97	0.0029000395
54	0xbe021934	-0.12704927
55	0xbe04ad8e	-0.12956831
56	0xbe881c57	-0.26584122
57	0x3e445111	0.1917155
58	0xbbe5f16c	-0.007017305
59	0x3eb1e129	0.34742096
60	0x3cf1c6d8	0.029513761
61	0x3eace203	0.33766183
62	0x3dc24bb6	0.09487097
63	0xbeb80826	-0.35943717
64	0xbe8feed5	-0.28111902
65	0x3e238fee	0.15972874
66	0x3e70fc78	0.23533809
67	0x3ea41ff1	0.3205562
68	0x3df675ee	0.12034212
69	0x3eacd47a	0.33755857
70	0x3c6890ff	0.014194726
71	0x3eaeaff1	0.34118608
72	0xbe4aa5ea	-0.19789854
73	0x3eb4cf64	0.35314476
74	0xbec67c8d	-0.387669
75	0x3ead65f9	0.3386686
76	0xbd888e7b	-0.06667801
77	0x3e86be3b	0.2631701
78	0x3e4e0554	0.2011922
79	0xbe252b95	-0.16129906
80	0xbdba740f	-0.09104168
81	0xbe37cecd	-0.17949982
82	0xbe2184c3	-0.15773301
83	0xba2978b3	-0.0006464824
84	0xbe72705d	-0.23675676
85	0xbec34b65	-0.3814346
86	0x3e6a117b	0.22858231
87	0xbeab9b01	-0.33516696
88	0xbec87c9b	-0.39157566
89	0x3ea305f1	0.3184047
90	0x3e42f36c	0.1903817
91	0x3eaf902f	0.3428969
92	0xbe81effe	-0.25378412
93	0x3e9ce50a	0.30643493
94	0x3ea462ed	0.32106724
95	0x3eb2fe7c	0.3495978
96	0xbd596bee	-0.053081445
97	0xbea54ec5	-0.3228666
98	0xbebd02de	-0.3691625
99	0xbe917f50	-0.28417444
100	0xbdc9ef35	-0.09860078
101	0xbd5cc664	-0.053900138
102	0x3e83be39	0.25731066
103	0xbd4a89bc	-0.04944776
104	0xbeadbdb8	-0.33933806
105	0xbebf47b0	-0.3735938
106	0x3e10f99f	0.14157723
107	0xbdff5e0e	-0.124691114
108	0x3dbefc12	0.09325422
109	0x3d49d2ba	0.04927323
110	0x3ea93c34	0.33053744
111	0xbeb636f8	-0.35588813
112	0xbe8ba86c	-0.27276933
113	0x3ea9aeac	0.33141077
114	0x3e48c0a2	0.19604734
115	0xbd08137c	-0.033221707
116	0xbe720303	-0.23633961
117	0x3e9e9dd7	0.30979797
118	0x3e341f01	0.17589952
119	0xbe861a8f	-0.26192138
120	0xbe8e7054	-0.27820075
121	0x3ecfd736	0.4059388
122	0x3e6907f1	0.22756936
123	0xbe8ca79c	-0.27471626
124	0xbd55fe7a	-0.05224464
125	0xbeba80ad	-0.36426297
126	0xbe16856b	-0.14699332
127	0x3e80fc05	0.25192276
128	0xbe8b8678	-0.2725103
129	0x3eaa0864	0.33209527
130	0xbd29ae1c	-0.04142581
131	0x3ebf9f95	0.3742644
132	0x3e8f3d32	0.27976376
133	0xbe00d178	-0.12579906
134	0x3e55edb5	0.2089146
135	0x3e91ac2e	0.28451675
136	0x3eb1c47e	0.34720224
137	0x3e92d6fa	0.2867964
138	0xbe6ca3a0	-0.23109293
139	0xbe7be908	-0.24600613
140	0xbe5ea166	-0.21741256
141	0xbe50f7e0	-0.20407057
142	0x3dca6ac2	0.09883644
143	0xbe280ac4	-0.16410357
144	0x3eadde5d	0.33958712
145	0x3ec8c81e	0.39215177
146	0x3d227fac	0.03967254
147	0x3c1543b1	0.009110377
148	0xbe69e4de	-0.22841212
149	0xbc05061d	-0.008119133
150	0x3e201cdf	0.15636013
151	0xbe3cfea7	-0.18456517
152	0x3d7e1c6a	0.062038817
153	0xbe0ee90c	-0.13956088
154	0xbc8928b6	-0.016743045
155	0x3ec49496	0.38394612
156	0xbdc139cc	-0.09434852
157	0x3eb31c26	0.34982413
158	0x3e36c79c	0.17849582
159	0xbdbee499	-0.09320945
160	0x3c8b7d72	0.01702759
161	0x3ebf63a0	0.37380695
162	0x3e897398	0.26846004
163	0xbdd6a7a0	-0.10481191
164	0x3db539f0	0.08848941
165	0x3ec2c9aa	0.38044482
166	0x3e98af11	0.29821065
167	0x3e179aad	0.14805098
168	0xbe00c0c3	-0.12573533
169	0x3ec14d06	0.37754077
170	0xbec747c6	-0.38921946
171	0xbe85d6c7	-0.26140425
172	0x3d72a734	0.05924149
173	0x3e4e1941	0.20126821
174	0xbd478c89	-0.04871801
175	0xbe76b9c8	-0.24094307
176	0x3ead7cbf	0.33884236
177	0xbe6bf242	-0.23041633
178	0xbe5fa134	-0.21838838
179	0x3ecbbc72	0.3979221
180	0xbe85f03e	-0.26159853
181	0x3e71af0a	0.23601928
182	0x3e2998e7	0.16562234
183	0xbdabbf75	-0.08386127
184	0xbe4e2c4b	-0.20134084
185	0x3ec42347	0.38308164
186	0x3defa1ac	0.11700758
187	0xbeb8a816	-0.3606574
188	0xbe950990	-0.29108858
189	0x3bccc373	0.0062488853
190	0x3e6d8822	0.23196462
191	0xbecf6b30	-0.40511465
192	0xbea50053	-0.3222681
193	0xbe0f7fc4	-0.14013582
194	0xbec63c49	-0.3871787
195	0xbe36faf6	-0.17869172
196	0x3e1097f5	0.14120467
197	0x3e68dbe6	0.22740135
198	0x3c5965ed	0.01326893
199	0x3e83a469	0.25711372
200	0x3ecad741	0.3961735
201	0xbe95dab5	-0.29268423
202	0x3ec18b23	0.37801465
203	0x3e46b511	0.19405009
204	0xbdddebee	-0.10836016
205	0xbea6b019	-0.32556227
206	0xbe5d11bf	-0.21588801
207	0x3eaabe56	0.3334834
208	0xbecff5b1	-0.40617135
209	0x3e6ae8d5	0.22940381
210	0xbd91541a	-0.07096119
211	0x3e2ef539	0.17085733
212	0xbec35724	-0.3815242
213	0x3eaa98d8	0.33319736
214	0x3ecf224a	0.40455848
215	0x3e11ca91	0.14237429
216	0xbc2c3063	-0.010509583
217	0xbe031da4	-0.12804276
218	0xbec9b00e	-0.39392132
219	0x3dc25fd1	0.09490932
220	0xbdcff2ae	-0.10153709
221	0xbde1942a	-0.11014588
222	0xbecf34c2	-0.4046994
223	0x3e3dcdd9	0.18535556
224	0x3e93ce20	0.28868198
225	0x3e5d7979	0.2162837
226	0xbd5783fc	-0.052616104
227	0x3e3029da	0.17203465
228	0x3cc89b44	0.024488099
229	0x3d18cb48	0.03730324
230	0xbe3ca19c	-0.18421024
231	0xbecef5f5	-0.40422025
232	0xbe6c73ad	-0.23091002
233	0xbe46fd64	-0.19432598
234	0xbdb86ac2	-0.090047374
235	0x3e988827	0.29791376
236	0x3da52d24	0.080652505
237	0xbeaf815c	-0.3427838
238	0xbe4cb916	-0.1999248
239	0x3e688c49	0.22709765
240	0xbe7ada2a	-0.24497285
241	0xbde1e8dc	-0.110307425
242	0x3c904647	0.017611636
243	0x3d41e420	0.047336698
244	0xbec39212	-0.3819738
245	0x3ea30551	0.31839994
246	0x3e59f681	0.2128544
247	0xbec928bf	-0.392889
248	0xbcb65f2e	-0.022262182
249	0x3e9d8409	0.30764797
250	0x3e15b7b0	0.14620852
251	0x3dd2911a	0.10281582
252	0xbe5f2a70	-0.21793532
253	0x3cba762f	0.022761432
254	0xbea2dea6	-0.31810492
255	0x3eac7eb3	0.33690414

weight f4 [15, 20]
0	0xbdeb8105	-0.11499218
1	0x3d6162eb	0.055025976
2	0xbecd1d7a	-0.4006155
3	0xbc925362	-0.017862026
4	0xbed38752	-0.4131418
5	0x3e5fd1d1	0.21857382
6	0xbec3e71c	-0.3826226
7	0x3ea00a64	0.31257927
8	0xbe5eb8aa	-0.21750131
9	0xbeba4051	-0.36377195
10	0x3df175d3	0.11790051
11	0xbe2446a8	-0.16042578
12	0x3e8bb9b2	0.27290112
13	0x3e62c538	0.22145545
14	0xbeb813d6	-0.35952634
15	0x3ea7472f	0.32671496
16	0xbec72b01	-0.38899997
17	0xbe166852	-0.14688233
18	0xbe382325	-0.17982157
19	0xbca34d16	-0.019934218
20	0xbe9849b2	-0.29743725
21	0x3ea86987	0.3289301
22	0x3de34596	0.11097257
23	0xbdb58622	-0.088634744
24	0xbd41b32a	-0.047290005
25	0x3eb57ff4	0.35449183
26	0x3dd759c7	0.105151705
27	0xbe41b173	-0.18915348
28	0xbc98e2fc	-0.018662922
29	0x3e95f5dd	0.2928914
30	0xbe8e2dd5	-0.27769342
31	0x3dd27535	0.10276262
32	0x3e39d147	0.18146239
33	0xbed39ce1	-0.41330627
34	0x3e9afddb	0.302718
35	0xbdeaba1d	-0.114612795
36	0x3d0ef606	0.034902595
37	0x3e178112	0.1479533
38	0xbd185ff1	-0.03720087
39	0x3ccd6f7c	0.025077574
40	0x3e6e13df	0.23249768
41	0x3e9f46f3	0.31108817
42	0xbea9a0e9	-0.33130577
43	0x3d437936	0.047723018
44	0x3d11df31	0.035613243
45	0x3e97230c	0.29518926
46	0x3e5b1700	0.21395493
47	0x3e487ffb	0.1958007
48	0x3c825df4	0.015913941
49	0xbe122942	-0.14273551
50	0xbe2b37db	-0.16720526
51	0x3ec63c0a	0.3871768
52	0x3de0a3eb	0.10968765
53	0xbe608684	-0.21926314
54	0x3e884f7f	0.2662315
55	0xbe270290	-0.16309571
56	0xbe022b68	-0.1271187
57	0xbdc6c520	-0.09705567
58	0xbdc5423b	-0.09631773
59	0xbd239439	-0.039936278
60	0xbeb5ba57	-0.3549373
61	0x3eaa4373	0.33254585
62	0x3deeffc9	0.11669881
63	0x3e3b345b	0.18281691
64	0x3e70b81a	0.23507729
65	0x3ecdd751	0.40203336
66	0xbe9daf83	-0.30797967
67	0x3e8054b2	0.25064617
68	0x3e0a0b27	0.13480817
69	0xbdc5e581	-0.09662915
70	0x3da67bb6	0.08129065
71	0x3ecf551d	0.40494624
72	0x3eb8df54	0.36107886
73	0xbd700480	-0.05859804
74	0x3e3c5f5f	0.18395756
75	0xbe92e3b0	-0.28689337
76	0x3de646a3	0.11243942
77	0x3e976801	0.29571536
78	0xbeb99dd0	-0.36253214
79	0x3e045a01	0.12924959
80	0x3e08d32f	0.1336181
81	0x3e89593d	0.26825896
82	0x3e4a3c06	0.1974946
83	0x3eb81c9a	0.3595932
84	0x3e9dec17	0.30844185
85	0xbde6c584	-0.11268142
86	0x3ec39804	0.38201916
87	0x3e2571d1	0.16156699
88	0x3d3e7408	0.046497375
89	0x3e454b4d	0.19267006
90	0x3e0b9823	0.13632254
91	0x3e0bdff6	0.13659653
92	0xbe4a1450	-0.19734311
93	0x3eca737f	0.39541242
94	0xbe5f84e3	-0.21828036
95	0xbe12955e	-0.14314792
96	0xbecc89e6	-0.39948958
97	0x3c93457e	0.017977472
98	0x3e6aa325	0.22913797
99	0xbe31bba5	-0.17356737
100	0x3ebd7159	0.3700054
101	0xbebe1591	-0.3712583
102	0x3cac7ea4	0.02105648
103	0xbd92f91a	-0.071764186
104	0x3c695a03	0.014242652
105	0x3c32811c	0.01089504
106	0xbe92f567	-0.28702852
107	0xbe6b715c	-0.22992462
108	0xbb97b307	-0.004629496
109	0xbb8ab6b5	-0.004233206
110	0x3ecb3c70	0.39694548
111	0x3ec19460	0.37808514
112	0xbe957a13	-0.29194698
113	0x3de6610f	0.11248981
114	0x3e1a6927	0.15079175
115	0xbe335a53	-0.17514925
116	0xbe6a5ef6	-0.22887787
117	0x3e92afe0	0.28649807
118	0x3dc726fe	0.09724234
119	0xbe1ce841	-0.15322973
120	0x3dd8638a	0.105658606
121	0xbe0d8ebe	-0.13823983
122	0x3de18146	0.11010985
123	0xbe16c64f	-0.14724086
124	0x3ea8371d	0.32854548
125	0xbe1b8ddc	-0.15190834
126	0xbeb28b3f	-0.3487186
127	0xbd78d24c	-0.06074743
128	0x3e9c6366	0.30544585
129	0x3e1db0a8	0.1539942
130	0xbddbd6f8	-0.107343614
131	0x3e4b7ed8	0.19872606
132	0x3db9f0fe	0.09079169
133	0x3e649771	0.22323395
134	0x3e1cd19e	0.15314338
135	0xbd92658c	-0.07148275
136	0xbe5fd795	-0.21859582
137	0xbea4b019	-0.32165602
138	0xbeac8c78	-0.3370092
139	0xbe9e47a9	-0.30914047
140	0xbe58098d	-0.21097393
141	0x3ea63987	0.32465765
142	0x3e9af38b	0.30263934
143	0xbe7f6e64	-0.24944454
144	0x3e869b2d	0.26290265
145	0x3e51f12e	0.20502159
146	0x3e87baa9	0.26509598
147	0x3e4a011a	0.19726983
148	0xbda5e85d	-0.081009604
149	0xbe4b6287	-0.19861804
150	0x3eb946c1	0.36186793
151	0xbe5f30bb	-0.21795933
152	0xbeb455f9	-0.35221842
153	0x3df11656	0.11771838
154	0x3e9fccbe	0.31210893
155	0xbc51c325	-0.012802874
156	0xbe67401f	-0.22583054
157	0x3ec3a238	0.382097
158	0x3e2c125f	0.16803883
159	0x3daa7b5f	0.083243124
160	0x3e912f47	0.28356382
161	0xbeb314d4	-0.34976828
162	0xbe2bcaaa	-0.16776529
163	0x3cdd4095	0.027008334
164	0x3ecbbcb9	0.3979242
165	0x3e921351	0.28530362
166	0x3e32c641	0.1745844
167	0x3e08dccc	0.13365477
168	0x3d9e790d	0.07737932
169	0x3ec275d5	0.37980524
170	0xbea9f1ab	-0.3319219
171	0x3d11bd3e	0.035580866
172	0xbe3521e2	-0.17688707
173	0x3eb37534	0.35050356
174	0xbd275ad3	-0.0408581
175	0x3ea51aa8	0.322469
176	0x3eb66d7d	0.35630408
177	0xbe807328	-0.25087857
178	0xbebab5c7	-0.3646681
179	0xbe1175dd	-0.14205118
180	0x3e374e7f	0.17901038
181	0xbdff271e	-0.12458633
182	0xbeccdafe	-0.40010828
183	0x3d91aecd	0.07113419
184	0x3d822562	0.063547865
185	0xbdf4e5b5	-0.11957876
186	0xbde0da9f	-0.10979199
187	0x3e99d214	0.3004309
188	0xbe5a9da6	-0.213492
189	0x3e18451e	0.14870116
190	0x3e799a6c	0.24375314
191	0xbebcd36c	-0.36880052
192	0xbe23a063	-0.15979151
193	0x3e9cc0d8	0.30615878
194	0x3eb91f87	0.36156866
195	0xbe3a736d	-0.18208094
196	0xbeae51e4	-0.34046853
197	0x3e809bf1	0.25118974
198	0x3e5b1d6e	0.21397945
199	0xbeaa89c5	-0.33308235
200	0x3eca3df2	0.39500386
201	0x3e01827c	0.12647432
202	0xbecbdd10	-0.39817095
203	0x3bbc60d2	0.0057488466
204	0xbd62fc04	-0.055416122
205	0xbe4ffc93	-0.20311193
206	0xbd9a3cab	-0.07531103
207	0x3ba4e70a	0.005032425
208	0xbe0f3e13	-0.13988523
209	0xbdfa41e0	-0.12219596
210	0xbdc5cd27	-0.0965827
211	0x3e10220c	0.14075488
212	0xbe9c2979	-0.3050039
213	0xbd089cf9	-0.033352826
214	0xbe34abaf	-0.17643617
215	0xbde3d4e2	-0.111245885
216	0xbd5937af	-0.05303162
217	0x3ed35e15	0.41282716
218	0xbeab5208	-0.33461022
219	0x3da91494	0.08255878
220	0x3e7aa859	0.24478282
221	0xbd3c9744	-0.046042696
222	0x3ddf295b	0.1089656
223	0xbea63cb4	-0.32468188
224	0x3e13d328	0.14436018
225	0xbd3d483e	-0.046211474
226	0xbd07038a	-0.03296236
227	0xbe6408d2	-0.2226899
228	0xbe03eee9	-0.12884106
229	0xbebc530f	-0.3678212
230	0x3ec389c2	0.38191038
231	0x3ea9733b	0.33095726
232	0xbeac0ecd	-0.33605042
233	0xbe7c4e19	-0.24639167
234	0xbed1b3bf	-0.40957448
235	0x3eafc4a0	0.343297
236	0xbe957a46	-0.2919485
237	0x3e9ca132	0.30591732
238	0xbe527734	-0.20553285
239	0x3e98108c	0.29700124
240	0x3d5b2bf9	0.053508732
241	0xbe13f48d	-0.14448757
242	0xbe91458d	-0.28373376
243	0x3da8aa67	0.08235627
244	0x3e8b5da4	0.2721988
245	0xbea8ab0e	-0.32943004
246	0xbea894a2	-0.32925898
247	0x3ddf0022	0.10888697
248	0xbe241c70	-0.16026473
249	0xbec9de7e	-0.3942756
250	0xbe35cd52	-0.17754105
251	0x3e8af4c2	0.2713986
252	0x3ecadbdb	0.3962086
253	0x3db852ed	0.09000192
254	0x3e5736b4	0.21016961
255	0x3e3d44f8	0.1848334

att_src f4 [1, 1, 10]
0	0xbe42885e	-0.18997332
1	0xbeba9886	-0.3644449
2	0x3dd72c47	0.10506492
3	0x3ef4045a	0.4765957
4	0x3eeb1cb7	0.45920345
5	0xbec7c1b5	-0.39014974
6	0x3c1ef74e	0.009702517
7	0xbede7764	-0.43450463
8	0xbf0cdca9	-0.550242
9	0xbca283f0	-0.019838303

att_dst f4 [1, 1, 10]
0	0xbec28ba6	-0.37997168
1	0x3ea46dde	0.32115072
2	0x3ebc8bb6	0.3682534
3	0x3c8af94e	0.01696458
4	0xbd7dd7a0	-0.061973214
5	0xbe5b0a0c	-0.21390551
6	0x3e460ff4	0.19342023
7	0x3f0ca802	0.5494386
8	0xbf0a7119	-0.54078823
9	0x3e84412a	0.25830966

bias f4 [10]
0	0x3ec4e5a3	0.3845645
1	0xbd8b25fd	-0.06794355
2	0xbdd7c2af	-0.1053518
3	0xbb2e5a29	-0.0026604033
4	0xbcc4894f	-0.023991255
5	0x3ebbf251	0.3670831
6	0xbe0171ac	-0.12641019
7	0x3e914494	0.28372633
8	0xbdf345a7	-0.118785195
9	0xbdb55981	-0.08854962
