model/gnn/241004_4p/epoch_3.pt (torch, 152418 bytes, 59 tensors)

att f4 [1, 1, 10]
-0.0009848542 -0.0010624771 -0.0016606671 0.023362149 -0.029926656 0.00932321 0.023715546 0.025084695
-0.0207549 0.03349221
00000000: 3916 81ba d142 8bba beaa d9ba fa61 bf3c
00000010: bf28 f5bc 61c0 183c 1b47 c23c 6b7e cd3c
00000020: 2e06 aabc 212f 093d

bias f4 [10]
-0.008796907 -0.007225777 -0.008505686 -0.15831614 -0.17641951 -0.0087344125 -0.0069661047 -0.009315119
-0.008142779 -0.0046407906
00000000: e720 10bc 36c6 ecbb 6f5b 0bbc a01d 22be
00000010: 51a7 34be c81a 0fbc ec43 e4bb 719e 18bc
00000020: 4a69 05bc c611 98bb

weight f4 [10, 163]
-0.009038498 0.0010790776 -0.0012348407 0.0004656338 -0.0052894587 -0.0088912165 0.00045218907 -0.01778256
-0.0054707523 -0.012029711 -0.0035363 -0.011805601 -0.013798299 -0.005808178 -0.015590487 -0.0038970008
-0.0013216148 -0.0057274573 -0.016802972 -0.0045681223 -0.013274325 -0.0053793755 0.00039772395 -0.0025190557
-0.017461335 0.010734144 -0.0034430055 0.008451833 -0.01906666 -0.017139345 -0.00040556514 -0.008878484
-0.014464886 0.008567042 0.0069819964 -0.0030368902 -0.0064279404 -0.016433198 -0.016814366 -0.010971925
-0.0017332297 -0.017851928 0.0023345572 0.0041630077 -0.0042663617 -0.011489666 -0.004634232 -0.009559531
-0.0053026476 -0.009136866 -0.0022613513 -0.0010282599 -0.0111737745 0.0064496575 0.010511856 0.00020827574
-0.0103828125 -0.012340162 -0.0143372575 -0.0132563375 0.007873099 -0.002827716 -0.009681349 -0.001771978
0.006660649 -0.003570429 -0.010992556 -0.016923513 -0.008810338 -0.0005330511 0.0077891382 -0.009592451
0.007366354 -0.011561807 0.0029143936 -0.008166093 0.008183338 0.0076642297 -0.014709578 -0.0062342086
-0.011414795 0.0037133547 -0.014529361 -0.0016363404 -0.0044325087 0.0073975166 -0.0068133343 -0.0054570017
-0.0076717157 0.0026379505 -0.0015173573 0.002631784 -0.0071334788 -0.02102189 -0.0028443795 -0.00818874
-0.00045134645 0.005654056 0.0029882616 -0.02266961 -0.009402228 -0.0063301036 -0.007285111 0.0028143108
-0.00032525175 -0.015639694 -0.017604433 -0.0059506116 -0.010143574 0.0005191035 -0.018302966 -0.004062225
0.0146251265 -0.008634767 -0.007899779 -0.005638811 -0.007472891 0.0070184595 -0.0058252057 -0.0059683933
0.010161022 0.0028448107 -0.008510109 -0.013106159 -0.009090079 -0.011435068 -0.0014077723 0.010914378
0.008963719 -0.011755856 -0.0047000744 -0.0011351106 -0.00014684537 0.0013482925 -0.0024252601 0.006255607
0.01549614 0.0013115578 -0.011545568 -0.011339753 -0.012098672 -0.0022224148 -0.008555846 -0.0064235777
-0.0055695446 -0.015244182 -0.00540668 -0.011406551 -0.0047091735 -0.017857581 -0.02040754 -0.005365525
-0.007098407 -0.015392595 -0.0016005357 -0.0021354847 -0.011181773 -0.005686476 -0.0018983077 -0.0001421071
-0.015414455 -0.0012780936 -0.0070702415 -0.013583449 0.001935235 -0.00029388166 0.000914087 -0.014236609
-0.0017357934 0.0012652549 -0.007152174 -0.009170215 -0.004035302 -0.012671779 -0.0068826145 -0.010901326
-0.012235579 -0.0036337483 -0.01804245 -0.00097603374 -0.007921169 -0.017892001 -0.0039951014 -0.009015563
-0.014016047 0.0025477656 -8.870311e-05 -0.013034564 -0.0011550388 0.0013415186 0.006779885 -0.022023644
-0.0061970213 -0.014817217 0.003993539 0.0032331115 0.008190042 0.012125098 -0.0060642944 -0.00096871867
-0.005828478 -0.0023625277 -0.0032988256 -0.0057314103 -0.0090418495 -0.01143314 -0.008437148 -0.009052366
0.0007061108 -0.015606422 -0.00061286334 -0.007835593 0.0033470362 -0.01777323 -0.005388304 -0.012269437
-0.0046121823 0.0027250207 -0.015402828 -0.017059077 0.0011221701 -0.008344653 -0.012712484 -0.008277827
0.0072430866 0.0028102153 0.003105898 0.007333756 -0.02056029 -0.0066351607 0.001253487 0.0066366713
-0.0025997567 6.4541535e-05 -0.0042868434 -0.008116268 -0.0013219157 0.01033461 0.0003172651 -0.00740066
0.003850137 0.0015948849 -0.0036183686 -0.003934302 -0.011189538 0.003162084 -0.003732457 0.0034814717
0.0054273703 0.007454338 -0.0010770267 0.0027036415 -0.008373765 -0.017605575 -0.0023769815 3.9846786e-05
00000000: 3516 14bc d66f 8d3a 61da a1ba 5020 f439
00000010: 3253 adbb 77ac 11bc ca13 ed39 bbac 91bc
00000020: ff43 b3bb 4418 45bc 45c1 67bb 486c 41bc
00000030: 4312 62bc 8752 bebb 3e6f 7fbc d364 7fbb
00000040: 093a adba 65ad bbbb 63a6 89bc 30b0 95bb
00000050: 8e7c 59bc 7945 b0bb 9b85 d039 be16 25bb
00000060: 130b 8fbc 43de 2f3c 0ca4 61bb 8f79 0a3c
00000070: af31 9cbc d067 8cbc 08a2 d4b9 1077 11bc
00000080: 21fe 6cbc c75c 0c3c 3bc9 e43b 9006 47bb
00000090: 79a1 d2bb ea9e 86bc 48be 89bc 97c3 33bc
000000a0: 8a2d e3ba 353e 92bc 5fff 183b d769 883b
000000b0: d6cc 8bbb 273f 3cbc c1da 97bb 949f 1cbc
000000c0: d5c1 adbb cbb2 15bc 2e33 14bb adc6 86ba
000000d0: 3512 37bc a657 d33b eb39 2c3c 9864 5a39
000000e0: ac1c 2abc 642e 4abc d1e6 6abc 1c31 59bc
000000f0: 2cfe 003c 3451 39bb 859e 1ebc b741 e8ba
00000100: 9341 da3b dcfd 69bb 1f1a 34bc 2ea3 8abc
00000110: 3c59 10bc 74bc 0bba 073c ff3b a829 1dbc
00000120: 7561 f13b bc6d 3dbc 69ff 3e3b 14cb 05bc
00000130: 6813 063c 3824 fb3b 7100 71bc 5548 ccbb
00000140: 1f05 3bbc c15b 733b 8f0c 6ebc 797a d6ba
00000150: 943e 91bb de66 f23b 6442 dfbb a6d0 b2bb
00000160: 0463 fbbb 77e1 2c3b 10e2 c6ba 027a 2c3b
00000170: f5bf e9bb 1936 acbc c568 3abb 112a 06bc
00000180: b2a2 ecb9 a945 b93b b6d6 433b 9eb5 b9bc
00000190: cd0b 1abc c26c cfbb f1b7 eebb 4d70 383b
000001a0: 8d86 aab9 d11e 80bc 2c37 90bc 59fd c2bb
000001b0: 3c31 26bc 7214 083a 1af0 95bc 6a1c 85bb
000001c0: 3a9e 6f3c d678 0dbc 136e 01bc c6c5 b8bb
000001d0: 27df f4bb 1bfb e53b 5ee1 bebb 8392 c3bb
000001e0: 6a7a 263c 0170 3a3b fc6d 0bbc 37bb 56bc
000001f0: 8eee 14bc 275a 3bbc 0085 b8ba 38d2 323c
00000200: 90dc 123c a29b 40bc 1503 9abb fec7 94ba
00000210: 81fa 19b9 30b9 b03a 1df1 1ebb d6fb cc3b
00000220: 86e3 7d3c 94e8 ab3a 9f29 3dbc 5fca 39bc
00000230: 8239 46bc efa5 11bb d22d 0cbc e07c d2bb
00000240: ba80 b6bb bcc2 79bc 852a b1bb 8be2 3abc
00000250: 694f 9abb 104a 92bc b72d a7bc 49d1 afbb
00000260: c199 e8bb 3931 7cbc 11c9 d1ba 7df3 0bbb
00000270: c133 37bc 9e55 babb a3d0 f8ba 9602 15b9
00000280: e98c 7cbc b485 a7ba 7cad e7bb 1d8d 5ebc
00000290: b6a7 fd3a 2114 9ab9 579f 6f3a ab40 69bc
000002a0: 9083 e3ba e9d6 a53a c95c eabb ab3e 16bc
000002b0: 913a 84bb 4b9d 4fbc 8e87 e1bb 7a9b 32bc
000002c0: bd77 48bc 2e24 6ebb c3cd 93bc 84dc 7fba
000002d0: cac7 01bc 3f92 92bc 57e9 82bb 03b6 13bc
000002e0: 90a3 65bc 6af8 263b 1f06 bab8 ed8e 55bc
000002f0: ac64 97ba e5d5 af3a cc29 de3b ee6a b4bc
00000300: 6210 cbbb eac3 72bc 3cdc 823b 9ce2 533b
00000310: 872f 063c 59a8 463c fdb6 c6bb 9cf1 7dba
00000320: d1fc bebb a3d4 1abb 1c31 58bb 8ece bbbb
00000330: 4424 14bc 1152 3bbc f73b 0abc 6050 14bc
00000340: 4b1a 393a 14b2 7fbc 90a8 20ba dc60 00bc
00000350: f359 5b3b 2a99 91bc 5f90 b0bb c005 49bc
00000360: ca21 97bb 4396 323b 255c 7cbc 7abf 8bbc
00000370: c815 933a 03b8 08bc 0648 50bc b99f 07bc
00000380: 6a57 ed3b 972b 383b 528c 4b3b 0150 f03b
00000390: 0e6e a8bc c36b d9bb 0b4c a43a 6f78 d93b
000003a0: ae60 2abb 795a 8738 a678 8cbb 18fa 04bc
000003b0: 2144 adba 7f52 293c 9a56 a639 3c81 f2bb
000003c0: 9552 7c3b 750b d13a 2722 6dbb 51eb 80bb
000003d0: 5354 37bc f73a 4f3b 3d9c 74bb 6729 643b
000003e0: 15d8 b13b 8543 f43b 052b 8dba 942f 313b
000003f0: 1e32 09bc 9139 90bc 22c7 1bbb 2921 2738

bias f4 [10]
-0.004649444 -0.011018529 -0.01239997 -0.15543249 -0.17917024 -0.0088415295 -0.00473663 -0.013034558
-0.0074682347 -0.0053704353
00000000: 5d5a 98bb 0f87 34bc 3e29 4bbc b229 1fbe
00000010: 6778 37be 10dc 10bc bb35 9bbb e68e 55bc
00000020: 18b8 f4bb 7afa afbb

weight f4 [10, 163]
0.010637437 0.009767291 -0.005690866 -0.010122144 -0.010317547 0.003923377 0.009631094 -0.001083103
0.0014340397 -0.0065567107 0.0017081308 0.007453094 -0.0052913046 -0.000263572 0.005829621 0.0048879557
0.007910983 -0.00011037084 -0.008819673 -0.008780706 0.010276886 8.8605935e-05 -0.0019468928 0.005475998
0.0030218223 -0.001173921 0.0096610235 0.0063073826 -0.010424521 -0.004375512 -0.009320448 0.008130555
-0.004154811 0.006831148 0.0070110047 0.00495203 0.004874585 -0.0031887596 -0.0027708432 0.007031236
0.009618417 0.0016248309 0.002288303 -0.0038703098 -0.0070959493 0.0046541602 0.0008722412 0.0080463085
0.0055352156 0.009219318 -0.010731637 0.006377052 -0.01077119 0.008113424 -0.0030566256 -0.0033056228
0.005562022 -0.0025871636 -0.002466221 0.005328241 -0.0103767915 -0.0065271673 0.008185113 -0.0024817982
0.009775405 -0.00013509377 -0.0070514367 0.005398092 -0.006982246 -0.010383575 -0.004984726 -0.008573814
-0.007589468 -0.010511971 -0.009290472 0.002295011 0.0028118566 0.010498034 -0.007468741 0.0010234085
-0.006400732 -0.0011590691 0.0041921586 0.009733109 -0.008701908 -0.0048539867 -0.010055297 -0.0076374905
0.0014282145 0.010061323 -0.0051066508 0.010630274 0.0076541468 0.009876033 -0.0070945267 0.0003536063
0.0068292925 -0.0013531329 -0.0056508225 -0.0068482067 -0.0049864203 0.00651125 -0.0031870753 -0.0010077239
0.00015271596 0.0019962995 -0.0060820216 -0.008907251 0.00071881874 -0.0017360589 -0.0090878345 -0.003965345
-0.005727734 0.0040090038 -0.0018639131 0.00019090068 -0.008335744 -0.0030985898 0.0066042696 0.005399038
0.009658586 -0.0004896258 -0.006605378 0.010338354 0.0024920087 -0.0107778935 0.01072741 -0.0020171194
0.008037587 0.0077150105 0.008837247 -0.005402318 1.1808668e-05 -0.005575064 -0.007403757 -0.005787413
0.0033779591 0.00045287397 0.005240074 -0.0011872055 0.00697149 -0.0084427595 -0.009209133 -0.0023551204
0.009723183 0.00033863288 -0.0026566854 0.0058767674 -0.0058526783 -0.010567292 0.009781672 0.007330637
0.002256167 0.0108703915 -0.0018400282 -0.003093187 -0.0071184426 -0.009990843 -0.0008549028 0.00919278
0.0014807906 0.0022449202 -0.0021750133 0.0014439168 -0.008582061 -0.0016627678 0.005555976 0.009908411
-0.006547104 0.0034990497 0.0021865505 -0.00088193105 -0.009205223 0.008904774 -0.009321461 -0.0050662365
0.010492085 0.00037049185 0.0022286756 -0.0073716324 0.0029161107 0.010419649 -0.00548924 0.0067477296
9.302118e-06 -0.0060456363 -0.0014058872 -0.0076530967 -0.0045665745 -0.0071858643 -0.008962307 -0.0010957102
-0.0020549472 -0.00823356 -0.008159828 -0.009525518 -0.0023759764 0.007920253 0.008658691 -8.6442036e-05
-0.010350141 -0.001346015 -0.010629007 -0.007191674 -0.0043843263 -0.0048402017 0.0041426863 0.0026279823
0.002508854 -0.0044801 0.010691539 -0.0053085885 0.0019971002 0.008289109 -0.0060303807 0.00088610966
-0.00035553813 -0.009530271 -0.0063692173 0.009195635 -0.0048613753 0.0043950914 -0.005479478 0.005570005
0.003789784 -0.0026817545 -0.010269413 0.005271866 -0.0028850243 -0.0016460143 -0.0012684264 0.0029518562
-0.0008420931 -0.0009661269 0.0089863455 -0.0034665163 -0.0070813424 -0.009805447 -0.0027193436 -0.006494713
-0.0030036052 -0.004793758 -0.0059106885 -0.005444067 0.007434267 -0.005812579 0.0034540398 -0.0035205516
-0.0015928511 0.005295974 0.0007065661 0.010274191 0.007094022 0.009932703 -0.004779886 -0.007792486
00000000: a548 2e3c fd06 203c 727a babb 59d7 25bc
00000010: ee0a 29bc ac8f 803b bccb 1d3c e8f6 8dba
00000020: 63f6 bb3a add9 d6bb 5ce3 df3a 1539 f43b
00000030: ae62 adbb 0930 8ab9 6806 bf3b 252b a03b
00000040: 119d 013c e576 e7b8 6480 10bc f3dc 0fbc
00000050: 6260 283c f3d1 b938 e22e ffba 0070 b33b
00000060: c409 463b 41de 99ba 4549 1e3c 29ae ce3b
00000070: 9ccb 2abc 7460 8fbb cbb4 18bc 0536 053c
00000080: 1525 88bb d3d7 df3b 92bc e53b a344 a23b
00000090: fcba 9f3b 82fa 50bb 0997 35bb 4866 e63b
000000a0: 9196 1d3c 47f8 d43a 5bf7 153b 06a5 7dbb
000000b0: 2385 e8bb ed81 983b 1ea7 643a aad4 033c
000000c0: c160 b53b 9f0c 173c bfd3 2fbc 97f6 d03b
000000d0: a579 30bc 2bee 043c ab51 48bb 26a3 58bb
000000e0: 9f41 b63b 678d 29bb 53a0 21bb 8698 ae3b
000000f0: 6b03 2abc d9e1 d5bb da1a 063c aaa5 22bb
00000100: 0529 203c f5a7 0db9 bd0f e7bb 7ae2 b03b
00000110: 53cb e4bb df1f 2abc ea56 a3bb 2f79 0cbc
00000120: 12b1 f8bb 673a 2cbc 1037 18bc e567 163b
00000130: 2047 383b f2ff 2b3c 57bc f4bb e423 863a
00000140: 3bbd d1bb e8eb 97ba 605e 893b 9e77 1f3c
00000150: 7392 0ebc 310e 9fbb f9be 24bc ea43 fabb
00000160: ed32 bb3a 3fd8 243c b155 a7bb 9a2a 2e3c
00000170: a3cf fa3b 16cf 213c 3479 e8bb 3c64 b939
00000180: 42c8 df3b 9b5b b1ba 892a b9bb ec66 e0bb
00000190: 2065 a3bb 535c d53b 40de 50bb 9a15 84ba
000001a0: 6122 2039 59d4 023b b24b c7bb b8ef 11bc
000001b0: 1c6f 3c3a 788c e3ba 24e5 14bc baef 81bb
000001c0: b7af bbbb f65d 833b 8c4e f4ba 832c 4839
000001d0: a592 08bc b611 4bbb a168 d83b 6aea b03b
000001e0: 0c3f 1e3c 3b5a 00ba ed71 d8bb 3362 293c
000001f0: f850 233b c395 30bc 05c2 2f3c a631 04bb
00000200: 15b0 033c 33ce fc3b 1aca 103c ee05 b1bb
00000210: d81d 4637 07af b6bb 379b f2bb 57a4 bdbb
00000220: c060 5d3b b76f ed39 edb4 ab3b 029c 9bba
00000230: 1971 e43b 8053 0abc e7e1 16bc 5d58 1abb
00000240: fc4d 1f3c 898a b139 c91b 2ebb e691 c03b
00000250: d3c7 bfbb 6f22 2dbc 4e43 203c d735 f03b
00000260: 33dc 133b ba19 323c 1a2d f1ba 11b7 4abb
00000270: d341 e9bb a2b0 23bc 8e1b 60ba 509d 163c
00000280: 1617 c23a 831f 133b ab8a 0ebb cf41 bd3a
00000290: c69b 0cbc 3bf1 d9ba e80e b63b e356 223c
000002a0: 1789 d6bb 5050 653b 3b4c 0f3b 6431 67ba
000002b0: 81d1 16bc 54e5 113c 0bb9 18bc ac02 a6bb
000002c0: fee6 2b3c 933e c239 f90e 123b bc8d f1bb
000002d0: 381c 3f3b 2db7 2a3c 15df b3bb 0f1c dd3b
000002e0: 4b10 1c37 791a c6bb bf45 b8ba d4c6 fabb
000002f0: 34a3 95bb 6677 ebbb a4d6 12bc ef9d 8fba
00000300: 4bac 06bb 0ee6 06bc cdb0 05bc eb10 1cbc
00000310: 45b6 1bbb f3c3 013c 2fdd 0d3c 3748 b5b8
00000320: a393 29bc c56c b0ba 4925 2ebc 22a8 ebbb
00000330: 65aa 8fbb 8e9a 9ebb 5fbf 873b 3a3a 2c3b
00000340: 966b 243b cdcd 92bb 912b 2f3c abf3 adbb
00000350: c8e1 023b 0bcf 073c 809a c5bb d049 683a
00000360: 8567 bab9 db24 1cbc deb4 d0bb 4aa9 163c
00000370: 2c4c 9fbb b304 903b 318d b3bb 9784 b63b
00000380: 065e 783b 60c0 2fbb 0a41 28bc 9ebf ac3b
00000390: ad12 3dbb 13bf d7ba 5441 a6ba ee73 413b
000003a0: e9bf 5cba ae43 7dba 773b 133c 7e2e 63bb
000003b0: 9b0a e8bb 07a7 20bc 0437 32bb 9ad1 d4bb
000003c0: 22d8 44bb f514 9dbb 73ae c1bb 2564 b2bb
000003d0: 279b f33b 7277 bebb 2c5d 623b 0eb9 66bb
000003e0: 37c7 d0ba da89 ad3b d938 393a 1555 283c
000003f0: f874 e83b c7bc 223c 97a0 9cbb 1c58 ffbb

bias f4 [10]
0.0009888225 0.0014517653 -0.0009884102 0.0015945736 -0.003467223 -0.0024565198 0.0016612079 0.0006618055
-0.0017098795 -0.00045929273
00000000: 619b 813a 2949 be3a 8b8d 81ba 0301 d13a
00000010: 593a 63bb 90fd 20bb e3bc d93a 047d 2d3a
00000020: 091e e0ba 3acd f0b9

weight f4 [15, 163]
0.0014814954 -0.026737006 -0.0034642895 -0.03415255 -0.024752121 0.073380224 -0.068881564 -0.014872563
0.0049383645 0.011705392 0.063542664 0.065434925 0.025242915 0.037740696 -0.06299387 -0.0521292
0.064615674 0.16706349 0.08422497 0.022733767 -0.0068509975 0.013830809 0.00496969 -0.09752491
-0.07889848 0.00048510032 0.007008142 0.0004706575 -0.008895818 0.33747426 0.096559666 -0.13493678
0.02009678 -0.0019329134 0.022049902 0.040242694 0.076423846 0.053877003 -0.013402114 -0.043586325
-0.012580354 -0.037781227 -0.02562565 0.00945436 0.09910307 0.067683816 0.01352081 0.018196737
0.17100886 0.17731288 -0.026380917 -0.055742923 0.022775736 -0.0004960468 -0.000108307744 0.19369656
-0.1777274 0.06279809 -0.03916533 0.1101412 -0.0066110836 -5.311163e-05 0.00045097253 -0.003329374
0.001459554 -0.0054109897 -0.048065897 -0.003779023 -0.003722957 0.04875608 0.0029938172 0.0019633456
0.00048636115 0.004132109 0.0044249324 0.0033966785 0.0034949572 -0.0019054853 -0.003894193 -0.009651084
0.034677926 0.12863612 -0.18985605 -0.0024991198 -0.00795608 -0.0004505267 0.038347386 -0.0008103156
-0.0007288213 0.0005544485 0.12846941 -0.012286867 0.008438406 0.005038555 0.063354366 -0.003602134
-0.057405002 -5.8483136e-05 -0.05147139 0.013261451 0.030365178 0.0031099434 0.08156747 -0.01663988
0.0010279912 0.0018285183 -0.011767187 -0.0025811745 0.00073716836 -0.011424437 -0.0008300461 -8.9194466e-05
0.034412675 -0.0016958232 -0.001632814 -0.00020523329 -0.0037627409 0.0017574141 0.00037049767 -0.0040725893
-0.0014703312 0.013977082 -0.020063695 0.025998853 0.124761455 -0.18110824 -0.0037716867 -0.008492794
-0.0015624969 0.05193817 -0.0036800837 0.00179095 -0.004249746 -0.0071417075 0.00960885 -0.0078890305
-0.0032249703 0.0017550375 0.120828666 -0.058960285 0.10315073 0.1189396 0.06523096 0.11545404
0.08366035 -0.066688724 0.017436571 0.10604456 0.066277705 -0.024247617 0.03874976 -0.042257965
0.047488913 0.15572074 0.06746895 0.11240563 0.13184261 0.07340164 0.06794001 0.14907415
0.029366614 0.08970513 -0.08759605 -0.0018306539 0.005891843 0.0017393695 0.0060800575 0.0066800937
-0.038512986 0.04000069 0.0101883 -0.0050220108 -0.009815103 -0.03287643 -0.034505606 -0.020681323
-0.017824655 0.0663338 0.06896906 -0.014882081 -0.10618196 -0.04737528 -0.018372376 0.009548391
-0.0031543598 -0.011970171 0.023991987 0.030095069 -0.0021764855 -0.0029514527 0.0021982156 -0.00038183198
-0.12381402 -0.04898913 -0.001891292 -0.011720417 0.0017782914 -0.017479338 -0.008799138 -0.026830703
-0.011911172 0.008654651 0.027959745 -0.001396806 0.017114265 0.0061936034 -0.010678 -0.058036234
-0.05250266 -0.013080117 0.0037852866 -0.09285735 -0.092704974 0.0035688756 0.0268293 0.00020099543
0.0043789246 -0.002012535 -0.18623975 0.1546904 0.010092034 0.014499527 -0.05149651 0.007420986
0.002264395 -0.006389044 -0.005619969 -0.0018831902 0.0028438263 0.016635714 0.0025413593 0.00050797994
-0.04279902 -0.001927668 0.0034904422 0.0013793523 0.0014195767 -0.0021524995 0.0029421004 -0.0035934257
-2.8698569e-05 0.0067555388 0.0027323274 -0.005660505 -0.07911547 0.14934158 -0.00039818764 0.006709199
0.000106067775 -0.04142683 0.0012721465 0.0032184017 0.0009247284 -0.073186666 -0.04901857 -0.00843347
00000000: bd2e c23a 9107 dbbc 2209 63bb 8be3 0bbd
00000010: f6c4 cabc 5f48 963d c711 8dbd 0dac 73bc
00000020: 01d2 a13b f9c7 3f3c a822 823d bf02 863d
00000030: 3bca ce3c fd95 1a3d ee02 81bd 6e85 55bd
00000040: 3955 843d b112 2b3e 247e ac3d 2a3c ba3c
00000050: 557e e0bb 9e9a 623c c8d8 a23b 24bb c7bd
00000060: 8795 a1bd 1055 fe39 8ea4 e53b 95c2 f639
00000070: c4bf 11bc 6dc9 ac3e 13c1 c53d de2c 0abe
00000080: 01a2 a43c d059 fdba ffa1 b43c 86d5 243d
00000090: 1b84 9c3d 22ae 5c3d 8a94 5bbc 9387 32bd
000000a0: d41d 4ebc 7dc0 1abd e2ec d1bc 76e6 1a3c
000000b0: 8df6 ca3d d09d 8a3d 6386 5d3c 5311 953c
000000c0: f21c 2f3e 8291 353e cb1c d8bc b152 64bd
000000d0: 2e94 ba3c 2309 02ba 4723 e3b8 6458 463e
000000e0: 2cfe 35be 499c 803d d36b 20bd b691 e13d
000000f0: caa1 d8bb 2ec4 5eb8 8270 ec39 a031 5abb
00000100: 814e bf3a ac4e b1bb bfe0 44bd 7ca9 77bb
00000110: dbfc 73bb 75b4 473d eb33 443b 79ab 003b
00000120: 4afe fe39 a566 873b 06ff 903b cf9a 5e3b
00000130: a70b 653b 7ac1 f9ba b835 7fbb 951f 1ebc
00000140: 710a 0e3d 30b9 033e a069 42be 46c8 23bb
00000150: 385a 02bc ac34 ecb9 2612 1d3d 5c6b 54ba
00000160: 5f0e 3fba 6958 113a 7c8d 033e db4e 49bc
00000170: 3d41 0a3c 761a a53b efbf 813d c811 6cbb
00000180: 8221 6bbd ca4b 75b8 aad3 52bd 8f46 593c
00000190: 65c0 f83c 31d0 4b3b d90c a73d 5c50 88bc
000001a0: a9bd 863a e5aa ef3a 29cb 40bc ec28 29bb
000001b0: 883e 413a 902d 3bbc 7397 59ba ea0d bbb8
000001c0: 4ef4 0c3d 6246 deba 2504 d6ba e433 57b9
000001d0: 5198 76bb 0859 e63a 5b3f c239 5b73 85bb
000001e0: 21b8 c0ba 2200 653c 9e5c a4bc 8cfb d43c
000001f0: ef82 ff3d 7074 39be 672e 77bb 5c25 0bbc
00000200: b2cc ccba 1ebd 543d 8f2d 71bb 4fbe ea3a
00000210: 7441 8bbb fc04 eabb 706e 1d3c fe40 01bc
00000220: 065a 53bb 4909 e63a 0575 f73d 5780 71bd
00000230: b140 d33d 9b96 f33d cf97 853d 2b73 ec3d
00000240: 1e56 ab3d 1994 88bd 24d7 8e3c e42d d93d
00000250: 9bbc 873d f0a2 c6bc 11b8 1e3d b016 2dbd
00000260: bc83 423d 4275 1f3e 292d 8a3d ec34 e63d
00000270: c001 073e 9953 963d 2224 8b3d e5a6 183e
00000280: 4192 f03c 53b7 b73d 8f65 b3bd 8df2 efba
00000290: 5c10 c13b 8efb e33a 383b c73b b0e4 da3b
000002a0: cbbf 1dbd c3d7 233d d4ec 263c ae8f a4bb
000002b0: 87cf 20bc 6fa9 06bd c055 0dbd e16b a9bc
000002c0: 0305 92bc 04da 873d a73f 8d3d f9d3 73bc
000002d0: ed75 d9bd 950c 42bd aa81 96bc db70 1c3c
000002e0: 60b9 4ebb 891e 44bc d88a c43c ef89 f63c
000002f0: 5ea3 0ebb 296d 41bb f00f 103b 9f30 c8b9
00000300: 3492 fdbd d3a8 48bd 3be5 f7ba fe06 40bc
00000310: 8f15 e93a d430 8fbc 422a 10bc 10cc dbbc
00000320: 1427 43bc 3dcc 0d3c d60b e53c 0815 b7ba
00000330: 3733 8c3c b6f3 ca3b c7f2 2ebc 67b7 6dbd
00000340: 070d 57bd fd4d 56bc 9212 783b ff2b bebd
00000350: 1bdc bdbd cce3 693b 1fc9 db3c 4dc2 5239
00000360: 157d 8f3b bce4 03bb a2b5 3ebe 2967 1e3e
00000370: 0f59 253c 6d8f 6d3c 01ee 52bd be2b f33b
00000380: 3e66 143b 305b d1bb b827 b8bb 61d5 f6ba
00000390: 7d5f 3a3b 9f47 883c ef8c 263b f529 053a
000003a0: 064e 2fbd cea9 fcba e7bf 643b 62cb b43a
000003b0: 1711 ba3a f310 0dbb 41d0 403b ae7f 6bbb
000003c0: b5bd f0b7 915d dd3b d910 333b c27b b9bb
000003d0: 4b07 a2bd 00ed 183e d7c3 d0b9 d7d8 db3b
000003e0: b470 de38 2eaf 29bd 27be a63a d2eb 523b
000003f0: 7969 723a e4e2 95bd b2c7 48bd 892c 0abc

bias f4 [15]
-0.004327153 0.0021593713 -0.0025973772 0.0042027407 -0.004082126 -0.002219565 -0.0008535276 0.0032967322
-0.0013222941 0.0034503546 -0.002887143 -0.0028901908 -0.0016629855 -0.0036240143 -0.002125426
00000000: caca 8dbb 3d84 0d3b c238 2abb 25b7 893b
00000010: 5bc3 85bb 1f76 11bb 45bf 5fba fd0d 583b
00000020: d450 adba 581f 623b 3936 3dbb 5b69 3dbb
00000030: 89f8 d9ba df80 6dbb bb4a 0bbb

weight f4 [15, 9]
0.28346503 -0.01632306 0.0053300913 0.011780856 -0.011001685 0.01902688 -0.0060696593 0.011486484
0.009973193 -0.049274646 -0.014139056 -0.014494179 -0.008634822 -0.0019110057 -0.008047976 -0.010054841
-0.0028256972 -0.004655165 0.03047603 -0.01607232 -0.017412465 -0.010801357 0.012314507 -0.004359168
0.019517325 -0.015510109 -0.015471099 0.010815821 0.016009994 0.018509872 0.008744356 0.0042522885
-0.002967751 -0.005462089 0.015192595 -0.014360127 0.08154768 -0.015309756 0.010392985 -0.014261096
0.016792962 8.972612e-05 0.016883928 -0.0063412488 0.005261639 -0.2613217 -0.01509343 -0.0033406655
0.007334413 0.016344514 0.002106847 -0.014659575 -0.0012065459 -0.01943556 0.049867805 -0.011509838
0.014161352 -0.019089956 -0.0051852204 0.0053930525 0.005204779 0.0023112195 -0.010416136 0.042558137
0.016883519 -0.016200434 0.0141124725 0.013771782 0.009666904 -0.018458406 0.017286448 -0.0032406354
-0.01340989 -9.933586e-05 -0.006141332 0.015430133 -0.012750205 -0.018528543 0.007508641 -0.0040892554
0.009863549 0.17703737 -0.00529072 0.012880529 -0.017945623 -0.010689457 -0.015024277 -0.005798561
-0.019240929 0.013936436 -0.04769279 0.010053376 0.0110381665 0.016727293 -0.00932518 0.0065603736
-0.011599011 0.0035770827 -0.009565197 -0.21910258 0.00872717 0.0051321606 0.0030542177 -0.019605758
-0.016981877 -0.0019877756 -0.0051606577 -0.0012120847 0.01493482 0.007151957 -0.011884991 -0.016754566
0.0081649 0.015217821 -0.017954128 -0.016983392 -0.008368548 0.014974837 -0.00862613 0.006434799
-0.01672982 0.015639728 0.0031363275 -0.002363833 0.013976249 0.0044340882 -0.2752758 -0.011004
-0.009480583 -0.01938936 0.014776203 -0.014326067 0.014313837 -0.014858576 -0.016813489
00000000: 5422 913e f0b7 85bc 0ca8 ae3b 7e04 413c
00000010: 6940 34bc 42de 9b3c fee3 c6bb ce31 3c3c
00000020: 9a66 233c 36d4 49bd 80a7 67bc fe78 6dbc
00000030: 1279 0dbc b67a faba a8db 03bc 0fbd 24bc
00000040: 552f 39bb 5b8a 98bb dea8 f93c 19aa 83bc
00000050: 96a4 8ebc 2df8 30bc c9c2 493c 5ad7 8ebb
00000060: cce2 9f3c 1d1e 7ebc 7e7a 7dbc d734 313c
00000070: 6427 833c 04a2 973c 7d44 0f3c c856 8b3b
00000080: 997e 42bb 53fb b2bb 5dea 783c bd46 6bbc
00000090: 7802 a73d c5d5 7abc 5747 2a3c 5fa7 69bc
000000a0: 6591 893c 582b bc38 2a50 8a3c 40ca cfbb
000000b0: d469 ac3b f5cb 85be 6f4a 77bc 11ef 5abb
000000c0: 8455 f03b eee4 853c 0713 0a3b b72e 70bc
000000d0: f624 9eba 5337 9fbc 2f42 4c3d c293 3cbc
000000e0: 0405 683c 8a62 9cbc c8e8 a9bb 34b8 b03b
000000f0: da8c aa3b d477 173b 71a8 2abc 7151 2e3d
00000100: 4e4f 8a3c c6b6 84bc 0038 673c 0aa3 613c
00000110: ef61 1e3c 1536 97bc 4f9c 8d3c d760 54bb
00000120: 28b5 5bbc 8952 d0b8 3a3d c9bb abce 7c3c
00000130: 3ce6 50bc 2cc9 97bc 0c0b f63b 29ff 85bb
00000140: b99a 213c 4949 353e c75d adbb db08 533c
00000150: b302 93bc d522 2fbc 6328 76bc db01 bebb
00000160: 279f 9dbc a655 643c 8459 43bd eab6 243c
00000170: 6dd9 343c ad07 893c a4c8 18bc 67f8 d63b
00000180: c709 3ebc 7d6d 6a3b 58b7 1cbc 6d5c 60be
00000190: 67fc 0e3c af2b a83b 4529 483b 419c a0bc
000001a0: 941d 8bbc 5745 02bb bc1a a9bb d0de 9eba
000001b0: 2db1 743c f75a ea3b 44b9 42bc df40 89bc
000001c0: 13c6 053c 2b54 793c 8914 93bc c120 8bbc
000001d0: 3c1c 09bc 0559 753c 9d54 0dbc 02db d23b
000001e0: fa0c 89bc e31e 803c d88a 4d3b 89ea 1abb
000001f0: a3fc 643c d44b 913b f3f0 8cbe 1f4a 34bc
00000200: 7254 1bbc 6fd6 9ebc e317 723c e1b7 6abc
00000210: 9584 6a3c 6271 73bc 71bc 89bc

bias f4 [15]
0.011169215 0.0070598815 -0.012292423 -0.009278116 0.0014440381 -0.018937146 -0.0036440294 0.00019586374
0.0035407946 -0.0028775975 0.010996443 -0.00015373822 -0.009131559 -0.015540244 -0.011936728
00000000: 15ff 363c 9456 e73b 2966 49bc 3d03 18bc
00000010: e145 bd3a 1322 9bbc abd0 6ebb c660 4d39
00000020: ad0c 683b 1396 3cbb 6d2a 343c ca34 21b9
00000030: 899c 15bc 829c 7ebc 4492 43bc

weight f4 [15, 163]
0.001166394 7.7986995e-05 -0.0015425484 -0.0036526471 -0.0024822599 -0.0048076357 -0.0020400216 -0.0006528357
-0.003706637 0.0008224799 -0.0005372995 -0.008280813 -0.0021649406 -0.008019029 -0.0075478326 -0.005541203
-0.004422449 -0.005661108 -0.008503287 -0.0002544935 -0.008425365 0.0005933693 -0.0043771905 -0.0072419294
9.6758384e-05 0.002582508 0.0060815904 0.0004134626 0.01845027 -0.0013951256 -0.017818218 0.008421377
-0.002268115 0.0044304808 -0.016943933 0.0026869874 -0.003294344 -0.00016500737 -0.001146697 -0.0065093767
-0.00063905003 -0.0010051286 -0.00037299027 -0.007448768 -0.0009900819 -0.003614955 -0.0023308196 -0.004123019
-0.002452041 0.0036770033 0.0022804085 -0.0022883816 -0.0034932587 -0.0013192564 0.0007905593 0.00019141463
-0.006944044 -0.0067845522 -0.017195707 0.042615827 -0.0013462531 -0.002382134 -0.006891137 0.0001691268
0.0040866076 0.16857113 -0.0060482305 -0.0044215 0.0034680185 -0.013431335 0.0015698475 0.0026937006
-0.0014699048 -0.007532546 -0.0033636321 0.00042919966 -0.00069104263 -0.0024368975 -0.036205616 -0.015678613
-0.005220389 -0.010836925 -0.004724034 0.0006236225 -0.04113355 0.012540711 -0.0075421035 0.00019960359
-0.0016898961 -0.0020052323 -0.012090813 -0.011085232 -0.012675943 0.08030411 0.00997985 5.9602426e-05
0.0049047256 -0.0031835947 0.12940429 0.001978609 -0.013987431 -0.017519983 0.16029884 0.004029251
0.002596419 -0.009572475 -0.027566133 -0.0029543033 0.1563261 -0.0054696538 -0.001961883 -0.0022022123
-0.008133974 0.0034686606 0.0027059254 0.0023035866 -0.00088095077 -0.0007890444 -0.0040078983 -0.003144292
0.0013071283 -0.07155602 -0.009706812 -0.011707799 -0.01371232 -0.012196172 0.0013719795 -0.037459947
0.009925737 -0.0073211947 -0.0019768367 -0.004092738 -0.002664985 0.03234216 -0.009320423 -0.006946343
0.012493593 0.0025791326 0.0017281676 -0.0042826924 0.002722783 0.0019020946 -0.0018580103 -0.0024648395
-0.00039740387 0.0015774578 -0.0017895148 -0.002260265 0.0009137609 0.0035986516 -0.0004296819 -0.004955992
-0.0052032517 -0.0063722357 -0.0001160004 -0.0030272193 -0.005472588 -0.002966008 -0.0052528013 0.0003831452
-0.00079320656 0.004769306 -0.021618214 -0.10406079 -0.1043819 -0.10352518 -0.10461194 -0.11122418
-0.11044602 -0.1137037 -0.10704128 -0.0049916552 -0.08292943 -0.0877128 -0.10021827 -0.06864851
-0.09276927 -0.103935316 -0.108899154 -0.11287849 -0.11117818 -0.058001377 -0.07761145 -0.025041414
-0.099695675 -0.049900696 -0.11306922 -0.14286555 0.0035673073 -0.12379831 0.004115379 0.12254651
-0.14543328 -0.03751457 0.0712424 0.008368826 0.0034468772 0.013997665 -0.11050024 -0.08303052
-0.06826708 -0.06368488 -0.047486614 -0.0793483 -0.08065955 -0.094995365 -0.021840366 -0.102128625
-0.1035855 -0.094008245 -0.08064054 -0.10141902 -0.12304322 -0.1187421 -0.0945265 -0.094556
0.0031133788 0.00097613415 -0.071074516 0.20686446 -0.030607753 -0.07524422 0.0083169425 0.04973851
0.0005734304 -0.085812576 -0.096465915 -0.0006729299 -0.14269684 0.076561056 -0.15478516 0.003608148
-0.004015524 -0.004485106 -0.0032366724 0.0007566648 -0.0015502204 0.0014026685 -0.0014783703 0.0018851501
-0.0019298308 -0.019281246 0.105861284 -0.07433806 -0.009777457 -0.024092874 -0.0004213897 -0.07923476
-0.0020717438 -0.067686245 -0.00051149604 0.00133804 0.0020013847 0.08261552 -0.10066785 0.11282298
00000000: b0e1 983a f38c a338 562f caba 4061 6fbb
00000010: 69ad 22bb 5f89 9dbb e2b1 05bb 1023 2bba
00000020: 0deb 72bb b19b 573a 8fd9 0cba 3fac 07bc
00000030: ade1 0dbb 3f62 03bc cf53 f7bb fb92 b5bb
00000040: 31ea 90bb d180 b9bb 5f51 0bbc 8a6d 85b9
00000050: 8b0a 0abc 578c 1b3a 896e 8fbb b54d edbb
00000060: c3ea ca38 4b3f 293b 1448 c73b 03c6 d839
00000070: 0525 973c a6dc b6ba 83f7 91bc d1f9 093c
00000080: a8a4 14bb 912d 913b 01ce 8abc 2b18 303b
00000090: ece5 57bb d405 2db9 c44c 96ba 9c4c d5bb
000000a0: ec85 27ba 85be 83ba e88d c3b9 cb14 f4bb
000000b0: a3c5 81ba e2e8 6cbb aac0 18bb 641a 87bb
000000c0: 6cb2 20bb e1f9 703b e872 153b acf8 15bb
000000d0: 28ef 64bb e6ea acba 893d 4f3a 79b6 4839
000000e0: dd8a e3bb f350 debb 03de 8cbc ef8d 2e3d
000000f0: c274 b0ba 941d 1cbb 0ccf e1bb a157 3139
00000100: f3e8 853b e99d 2c3e 3c30 c6bb 3be2 90bb
00000110: b247 633b 1a0f 5cbc 57c3 cd3a cc88 303b
00000120: d2a9 c0ba 93d3 f6bb 6270 5cbb 3406 e139
00000130: 1627 35ba 5bb4 1fbb 574c 14bd 6f70 80bc
00000140: cc0f abbb 5c8d 31bc 12cc 9abb 997a 233a
00000150: a77b 28bd 8e77 4d3c c023 f7bb ae4c 5139
00000160: 817f ddba 376a 03bb 8c18 46bc d59e 35bc
00000170: c2ae 4fbc 7b76 a43d 8682 233c 9efd 7938
00000180: d2b7 a03b dba3 50bb 8f82 043e 8dab 013b
00000190: 8a2b 65bc 1186 8fbc 6125 243e cf07 843b
000001a0: af28 2a3b dfd5 1cbc 5fd2 e1bc fc9c 41bb
000001b0: f313 203e c83a b3bb ef92 00bb fe52 10bb
000001c0: 5c44 05bc 7852 633b e555 313b c5f7 163b
000001d0: 9bef 66ba e0d7 4eba b054 83bb 7710 4ebb
000001e0: f353 ab3a f68b 92bd 5209 1fbc 11d2 3fbc
000001f0: a3a9 60bc 74d2 47bc fed3 b33a 9a6f 19bd
00000200: 8f9f 223c a2e6 efbb d18d 01bb 601c 86bb
00000210: 07a7 2ebb 3679 043d b0b4 18bc 269e e3bb
00000220: edb1 4c3c aa06 293b af83 e23a d455 8cbb
00000230: b870 323b b44f f93a 7b88 f3ba 2589 21bb
00000240: a55a d0b9 b3c2 ce3a 278e eaba f420 14bb
00000250: 7589 6f3a 5bd7 6b3b ee46 e1b9 e065 a2bb
00000260: 0a80 aabb 30ce d0bb 3e45 f3b8 5064 46bb
00000270: 6553 b3bb 5b61 42bb b11f acbb e1e0 c839
00000280: 31ef 4fba d747 9c3b ae18 b1bc d31d d5bd
00000290: 2dc6 d5bd 0205 d4bd c93e d6bd 81c9 e3bd
000002a0: 8631 e2bd 7cdd e8bd 7538 dbbd 0a91 a3bb
000002b0: e8d6 a9bd c5a2 b3bd 3d3f cdbd 9797 8cbd
000002c0: d1fd bdbd 0adc d4bd 8506 dfbd d62c e7bd
000002d0: 63b1 e3bd da92 6dbd c0f2 9ebd a723 cdbc
000002e0: 3f2d ccbd ac64 4cbd d690 e7bd 594b 12be
000002f0: 7cc9 693b f889 fdbd 4dda 863b aaf9 fa3d
00000300: 76ec 14be e1a8 19bd 89e7 913d 661d 093c
00000310: 01e5 613b 7656 653c f34d e2bd e80b aabd
00000320: 9ccf 8bbd 386d 82bd 5381 42bd 5d81 a2bd
00000330: d630 a5bd ee8c c2bd 91ea b2bc d028 d1bd
00000340: a224 d4bd 6587 c0bd de26 a5bd c6b4 cfbd
00000350: 15fe fbbd 0f2f f3bd 1c97 c1bd 93a6 c1bd
00000360: d409 4c3b 41e3 7f3a 848f 91bd 47d4 533e
00000370: 1cbd fabc a419 9abd c943 083c 9cba 4b3d
00000380: 4352 163a 81be afbd ec8f c5bd 9067 30ba
00000390: 1f1f 12be 0bcc 9c3d 0080 1ebe ae76 6c3b
000003a0: a894 83bb ccf7 92bb 5a1e 54bb ea5a 463a
000003b0: c430 cbba bfd9 b73a e0c5 c1ba 2417 f73a
000003c0: 60f2 fcba b4f3 9dbc cdcd d83d 8e3e 98bd
000003d0: a131 20bc 6b5e c5bc f8ed dcb9 d545 a2bd
000003e0: 18c6 07bb 169f 8abd eb15 06ba 2c61 af3a
000003f0: aa29 033b 5332 a93d f22a cebd bc0f e73d

bias f4 [15]
0.001298593 -0.10930041 -0.24638744 -0.23356813 -0.075206175 0.18069693 -0.075606994 -0.17079706
0.083248764 -0.014185132 -0.15900137 -0.30307457 0.16383983 0.041160654 -0.050826743
00000000: 8d35 aa3a e5d8 dfbd fd4c 7cbe 7c2c 6fbe
00000010: b205 9abd 9e08 393e d7d7 9abd 6de5 2ebe
00000020: 547e aa3d c268 68bc 41d1 22be 972c 9bbe
00000030: a1c5 273e 1398 283d b42f 50bd

weight f4 [15, 9]
0.00016197223 -0.016528202 -0.0138322115 -0.014948403 0.009801415 -0.009122455 0.00056108163 0.018745942
-0.019347273 -0.12636587 -0.1575454 -0.1419347 -0.12941915 -0.12662548 0.11507575 0.011038009
-0.056971338 -0.057064876 -0.17941575 -0.17373 -0.20633242 -0.1679432 -0.21538813 -0.19125456
0.0142851975 -0.16654474 -0.23580222 -0.245071 -0.24001473 -0.26183692 -0.22153848 -0.13175231
-0.21616875 -0.0045003737 -0.050249882 -0.20497045 -0.07192244 -0.14520311 -0.12435901 -0.10201296
-0.16709873 -0.16583294 0.019404035 0.02713325 -0.06248915 0.15510944 0.18028621 0.17085508
0.19096315 0.18779905 0.10128096 0.014966507 -0.112152815 0.11571502 -0.083245836 -0.063553914
-0.09311559 -0.09105933 -0.08888637 -0.07427946 0.0045569506 -0.035770696 -0.06003435 -0.12911306
-0.10216158 -0.14138664 -0.119130835 -0.113297604 -0.18406093 0.011969069 -0.16033983 -0.12598605
0.097146 0.098061636 0.06620049 0.09688536 0.047089174 0.06698334 0.00018292385 -0.046981536
0.05411407 -0.0108561795 0.0120092835 -0.020604378 -0.013289518 -0.013743906 0.007153576 0.008545685
-0.014826001 -0.008418575 -0.15865396 -0.19394624 -0.15536852 -0.16693972 -0.16459031 -0.119341105
0.015727028 -0.009110207 -0.085656986 -0.34509197 -0.37971184 -0.33975166 -0.34054267 -0.3234411
-0.30075336 -0.008450522 -0.08663865 -0.26225874 0.20009184 0.24202418 0.19934055 0.2740683
0.17641059 0.046764538 -0.009128816 -0.30879557 0.046801735 0.08335745 0.070341 0.07723213
0.05801462 0.058915593 0.0729072 0.0041762646 -0.127017 0.060439132 -0.01919863 -0.025749724
-4.2921038e-06 0.0018576669 -0.0040006232 0.008264856 -0.017619075 -0.017371422 -0.019308733
00000000: 17d7 2939 2766 87bc 80a0 62bc 26ea 74bc
00000010: 1d96 203c 5976 15bc 8d15 133a 1791 993c
00000020: 2c7e 9ebc 0e66 01be 9553 21be 5457 11be
00000030: 7486 04be 1caa 01be d6ac eb3d c4d8 343c
00000040: c75a 69bd dcbc 69bd c3b8 37be 47e6 31be
00000050: ce48 53be 4df9 2bbe b58e 5cbe 3cd8 43be
00000060: 760c 6a3c b48a 2abe 2376 71be e4f3 7abe
00000070: 6cc6 75be 7d0f 86be fcda 62be 14ea 06be
00000080: 575b 5dbe df77 93bb d2d2 4dbd c6e3 51be
00000090: 124c 93bd 20b0 14be f0af febd 2cec d0bd
000000a0: ee1b 2bbe 1cd0 29be 36f5 9e3c 8d46 de3c
000000b0: 9ff4 7fbd 02d5 1e3e f39c 383e a2f4 2e3e
000000c0: d88b 433e 654e 403e 646c cf3d 1536 753c
000000d0: 60b0 e5bd fffb ec3d cb7c aabd 8e28 82bd
000000e0: 63b3 bebd 507d babd 0f0a b6bd d41f 98bd
000000f0: 7952 953b 4b84 12bd 94e6 75bd 3736 04be
00000100: 173a d1bd a9c7 10be defa f3bd 9308 e8bd
00000110: 787a 3cbe ea19 443c 2030 24be 7d02 01be
00000120: 7bf4 c63d 8ad4 c83d 1f94 873d d56b c63d
00000130: 94e0 403d 902e 893d 3fcf 3f39 b66f 40bd
00000140: b7a6 5d3d 1ede 31bc 96c2 443c 83ca a8bc
00000150: 47bc 59bc 1f2e 61bc 8b68 ea3b 3303 0c3c
00000160: c1e8 72bc 10ee 09bc 2f76 22be d899 46be
00000170: ed18 1fbe 3ff2 2abe 5d8a 28be 1c69 f4bd
00000180: f8d5 803c fa42 15bc ee6c afbd e5af b0be
00000190: 9769 c2be eef3 adbe 9c5b aebe 129a a5be
000001a0: 58fc 99be 0f74 0abc 9b6f b1bd c746 86be
000001b0: e0e4 4c3e 30d5 773e ee1f 4c3e ae52 8c3e
000001c0: faa4 343e 2c8c 3f3d 0891 15bc 741a 9ebe
000001d0: 2db3 3f3d 50b7 aa3d f10e 903d e12b 9e3d
000001e0: bda0 6d3d 7a51 713d 5f50 953d 0cd9 883b
000001f0: bf10 02be 068f 773d 7246 9dbc 16f1 d2bc
00000200: e404 90b6 f57c f33a a917 83bb 5269 073c
00000210: e155 90bc 834e 8ebc 592d 9ebc

bias f4 [15]
-0.017507948 -0.15830125 -0.17479283 -0.23817442 -0.117237724 0.17092198 -0.06585832 -0.121614926
0.07963407 0.002476571 -0.17712465 -0.34071907 0.2332507 0.05762208 -0.006742074
00000000: d46c 8fbc b919 22be e4fc 32be ffe3 73be
00000010: 551a f0bd 2c06 2f3e bae0 86bd 3f11 f9bd
00000020: 3017 a33d f74d 223b 2a60 35be bb72 aebe
00000030: 46d9 6e3e 2105 6c3d 9eec dcbb

weight f4 [15, 9]
-0.15604071 0.008629755 0.007751551 0.008510368 -0.04117853 0.032811895 0.018084293 -0.075473465
0.0014942503 -0.019742684 0.0064827404 -0.018713215 0.0073273364 -0.030346407 -0.003236488 0.004298986
-0.018389033 0.0050334465 -0.07265 -0.012743668 -0.014006116 0.009575935 -0.04966785 0.011088952
0.009114753 -0.0882615 0.028505646 -0.07876753 -0.001991851 -0.004853621 -0.009745171 -0.06337833
0.04926915 -0.017334867 -0.10894857 0.01540144 0.09986173 0.008382284 0.00039474474 -0.00794556
0.032711357 0.0026094804 -0.016069688 0.055274926 0.0071272827 -0.12159431 -0.01855412 0.014803679
-0.00085913384 -0.035217185 -0.003233593 0.008858179 -0.036969554 -0.010154921 -0.08844194 -0.013782187
0.0068446 -0.01091306 -0.022808816 0.005061155 0.0045326576 -0.030934965 0.0007167806 -0.08880171
-0.00225401 -0.013641404 0.004589568 -0.07848583 0.029964834 0.012846712 -0.08805222 0.004641183
0.032209072 -0.016138155 -0.0075181993 0.014912188 0.0024868466 -0.011578859 -0.007722263 0.0093505075
0.014463031 -0.14238577 -0.010626433 -0.008523435 0.004818727 -0.047234602 -0.002533229 -0.0029182967
-0.07072911 -0.0050038476 0.05444449 0.0079767145 -0.007438643 -0.012199962 0.016991623 -0.011559747
0.014271515 0.022509502 0.012121541 -0.18308021 0.01552151 0.002302587 -0.0006364438 -0.088654935
0.043255836 0.0024127506 -0.14844577 0.050295826 -0.057792645 -0.0006969468 0.017576003 0.013549146
-0.027983854 0.021763053 0.003355827 -0.009276781 0.011308936 0.113874845 0.004233535 -0.014815254
0.0008402856 0.07339662 -0.03390071 -0.0073573436 0.09049093 -0.0014500815 0.10706456 -0.006774481
-0.01707697 -0.006003229 0.0032364207 -0.01808347 -0.005612112 0.03345324 0.0035053308
00000000: 23c9 1fbe d163 0d3c b900 fe3b 126f 0b3c
00000010: d1aa 28bd c465 063d 8325 943c d591 9abd
00000020: b8da c33a 69bb a1bc 2b6d d43b 754c 99bc
00000030: 271a f03b 0799 f8bc 421b 54bb 82de 8c3b
00000040: 99a4 96bc 9cef a43b 86c9 94bd d1ca 50bc
00000050: e979 65bc 62e4 1c3c 8470 4bbd 70ae 353c
00000060: 0c56 153c 72c2 b4bd ac84 e93c df50 a1bd
00000070: b789 02bb 200b 9fbb 36aa 1fbc 7fcc 81bd
00000080: 73ce 493d da01 8ebc 6e20 dfbd 5256 7c3c
00000090: 4f84 cc3d d955 093c bef5 ce39 182e 02bc
000000a0: 58fc 053d d103 2b3b 94a4 83bc f667 623d
000000b0: fb8b e93b 7006 f9bd cffe 97bc 218b 723c
000000c0: 7f37 61ba e53f 10bd b0ea 53bb e521 113c
000000d0: 636d 17bd d360 26bc 0c21 b5bd afce 61bc
000000e0: ab48 e03b b1cc 32bc 8ed9 babc 0cd8 a53b
000000f0: b086 943b 536b fdbc 55e6 3b3a acdd b5bd
00000100: 03b8 13bb 3280 5fbc 1664 963b 2ebd a0bd
00000110: d078 f53c 047b 523c b954 b4bd 1115 983b
00000120: a9ed 033d 2a34 84bc 3a5b f6bb 4052 743c
00000130: 5dfa 223b 41b5 3dbc 0a0b fdbb df32 193c
00000140: 59f6 6c3c 93cd 11be 7e1a 2ebc e1a5 0bbc
00000150: 69e6 9d3b 1279 41bd 8804 26bb e540 3fbb
00000160: 6cda 90bd 51f7 a3bb 2f01 5f3d c4b0 023c
00000170: dcbf f3bb 59e2 47bc 0432 8b3c 1865 3dbc
00000180: 13d3 693c d965 b83c 6e99 463c 6179 3bbe
00000190: ee4d 7e3c 00e7 163b 05d7 26ba b890 b5bd
000001a0: 082d 313d 3d1f 1e3b 2b02 18be ff02 4e3d
000001b0: fbb7 6cbd 4fb3 36ba 8dfb 8f3c 3dfd 5d3c
000001c0: 653e e5bc 6e48 b23c 6fed 5b3b a4fd 17bc
000001d0: 1e49 393c 3737 e93d 77b9 8a3b aebb 72bc
000001e0: 9d46 5c3a f850 963d 79db 0abd df15 f1bb
000001f0: 4f53 b93d a910 beba aa44 db3d 77fc ddbb
00000200: 00e5 8bbc bcb6 c4bb 211a 543b c923 94bc
00000210: cfe5 b7bb 4406 093d b1b9 653b

bias f4 [15]
0.0030513932 -0.017543223 0.002473097 -0.015161513 -0.014600518 -0.006705035 -0.011782174 0.0055209547
0.016894529 0.0026234607 -0.014596311 0.013560353 -0.009462452 -0.015041387 0.016207818
00000000: e2f9 473b ceb6 8fbc af13 223b ff67 78bc
00000010: 0337 6fbc e9b5 dbbb 050a 41bc 20e9 b43b
00000020: 6566 8a3c 5eee 2b3b 5e25 6fbc 3e2c 5e3c
00000030: 6608 1bbc 2670 76bc 42c6 843c

weight f4 [15, 9]
-0.031848952 0.0010398532 -0.008583524 -0.007890029 0.016704252 0.011131347 0.011972008 0.0111435605
-0.004106708 0.008609598 0.015289362 0.012043408 -0.009029619 6.754398e-05 -0.010156645 -0.01320504
5.2798332e-05 0.0084181335 0.049133815 -0.008673315 0.004924615 0.0041954666 0.0013690329 0.007783097
0.010081109 -0.018718908 -0.018290082 0.027697114 -0.017827047 6.313715e-05 0.01726649 -0.008210593
-0.009404008 0.009088698 0.013082538 0.008753381 0.16456921 -0.011309058 0.0073361457 0.016326796
0.013183414 -0.009653838 -0.0015716588 0.0025491167 0.015014271 -0.018806456 0.012669823 -0.01071558
-0.018195167 -0.0017269938 -0.015260497 0.00075677625 -0.011780649 -0.013018293 -0.119424276 -0.015522197
0.0013031883 -0.014569691 -0.013138669 -0.0026387575 -0.0017263922 0.0018573436 -0.019182159 0.021215416
0.012201146 0.011558694 0.011066757 -0.0076910243 0.007890427 0.015912004 0.0020904494 -0.015825089
0.02470059 -0.017586721 8.761795e-05 0.018715255 0.0052852086 -0.018061372 0.0019215785 0.018961115
-0.012858382 -0.028826024 0.0076139104 -0.008475816 -0.0072187604 -0.015899163 0.013473452 -0.00391449
-0.00096619077 -0.00685982 0.10577517 -0.008470471 0.012823862 -0.0076454366 0.01672875 -0.016668212
0.017429411 0.012003999 0.0046247863 -0.18768145 0.017780125 0.018680232 -0.011623612 -0.008024374
0.00759702 -0.0030401284 0.014367488 -0.017465994 -0.020763597 -0.012951282 0.018860128 0.018073205
-0.018477533 0.014285112 0.0102581475 -0.016569003 0.0031434656 -0.012346951 -0.016780749 -0.0074728685
0.01216253 -0.0056617614 -0.007644261 0.016773751 0.0028120745 -0.013755654 0.00617552 0.00475129
-0.015520621 0.014651251 -0.018661644 0.0071434453 0.005354774 0.001209429 -0.0074838586
00000000: 0c74 02bd af4b 883a e9a1 0cbc 2e45 01bc
00000010: 5bd7 883c 4160 363c 3e26 443c 7b93 363c
00000020: 9091 86bb 450f 0d3c 3b80 7a3c b751 453c
00000030: f8f0 13bc 66a6 8d38 0f68 26bc f459 58bc
00000040: c773 5d38 36ec 093c 8a40 493d 851a 0ebc
00000050: aa5e a13b 207a 893b 1f71 b33a 5a09 ff3b
00000060: 3c2b 253c 6558 99bc 15d5 95bc 0fe5 e23c
00000070: 070a 92bc 8068 8438 7472 8d3c b985 06bc
00000080: 4513 1abc c3e8 143c 2458 563c 576a 0f3c
00000090: d584 283e a149 39bc 0d64 f03b c6bf 853c
000000a0: 3fff 573c 222b 1ebc 1e00 ceba 150f 273b
000000b0: 6bfe 753c ff0f 9abc 1795 4f3c 6690 2fbc
000000c0: 080e 95bc 4c5c e2ba 2a07 7abc 6562 463a
000000d0: a003 41bc ae4a 55bc b794 f4bd d050 7ebc
000000e0: becf aa3a b7b5 6ebc 9243 57bc 01ef 2cbb
000000f0: 1c48 e2ba 1c72 f33a e723 9dbc f4cb ad3c
00000100: 51e7 473c ad60 3d3c 5851 353c fd04 fcbb
00000110: d946 013c e459 823c ecff 083b 9ea3 81bc
00000120: e458 ca3c 0712 90bc 87bf b738 bc50 993c
00000130: 8b2f ad3b 71f5 93bc 7add fb3a 5754 9b3c
00000140: f7ab 52bc 8e24 ecbc 1c7e f93b 26de 0abc
00000150: 5a8b ecbb f63e 82bc c1bf 5c3c 1f45 80bb
00000160: f747 7dba 57c8 e0bb a7a0 d83d bbc7 0abc
00000170: 2d1b 523c 9286 fabb bb0a 893c c68b 88bc
00000180: 20c8 8e3c 6cac 443c 858b 973b 912f 40be
00000190: a0a7 913c 4907 993c f670 3ebc aa78 03bc
000001a0: 6cf0 f83b e43c 47bb 9d65 6b3c d814 8fbc
000001b0: 6b18 aabc 9d31 54bc 8e80 9a3c 420e 943c
000001c0: 325e 97bc 1a0c 6a3c ca11 283c b8bb 87bc
000001d0: 9a02 4e3b de4a 4abc c877 89bc f7de f4bb
000001e0: 5945 473c 4c86 b9bb b57c fabb 1b69 893c
000001f0: c84a 383b 655f 61bc 045c ca3b b6b0 9b3b
00000200: 344a 7ebc cd0b 703c 4ee0 98bc 9013 ea3b
00000210: 1a77 af3b b485 9e3a 283b f5bb

bias f4 [15]
-0.011232453 0.007363139 -0.0035108433 -0.015516207 -0.011969713 0.014653519 -0.005770633 -0.00065847806
-0.0067783794 0.0006323995 0.0055920007 -0.014671924 0.0119626 0.0077892775 -0.001256311
00000000: 5308 38bc 7d46 f13b 2d16 66bb b037 7ebc
00000010: 9d1c 44bc 5015 703c 9417 bdbb b79d 2cba
00000020: 2b1d debb 9dc7 253a 1a3d b73b 8262 70bc
00000030: c8fe 433c 323d ff3b cdaa a4ba

weight f4 [15, 9]
-0.010557132 -0.013781271 0.008211829 -0.016401991 0.013305346 0.013405097 -0.012248278 -0.013692148
-0.007770285 -0.11804848 -0.1356501 -0.12103452 -0.14675432 -0.100804195 0.050566178 -0.019225696
-0.011685816 -0.10406335 -0.14308123 -0.15880603 -0.19607446 -0.18520568 -0.14913069 -0.21323925
0.0075528924 -0.18103257 -0.16003904 -0.29683444 -0.22749199 -0.25577796 -0.24705452 -0.20708327
-0.25243312 0.0147990715 -0.124073714 -0.22243302 -0.12696221 -0.1406935 -0.12542652 -0.12499578
-0.2373977 -0.17508039 0.014293755 -0.046527945 -0.06843023 0.19872953 0.18935958 0.16474508
0.20273127 0.24530539 0.13732553 0.0028130817 -0.08009338 0.18394522 -0.10617407 -0.09665039
-0.08410253 -0.0891694 -0.04834588 -0.11374793 0.0097656865 -0.123710625 -0.057581708 -0.087136574
-0.09145369 -0.11132736 -0.10377784 -0.1202486 -0.09116649 -0.0076654996 -0.14968368 -0.12517883
0.10334768 0.11310959 0.07830051 0.10866704 0.19728398 0.0086303195 0.0100375535 -0.108089045
0.13512675 -0.006303421 0.002333559 -0.009380381 -0.020428604 0.011404247 -0.02115415 -0.019238044
-0.011351562 0.010210426 -0.21041702 -0.19830014 -0.15600114 -0.19381101 -0.23065786 -0.12598184
-0.011157172 -0.06830502 -0.11271855 -0.3950167 -0.3535192 -0.31882423 -0.34532964 -0.3935319
-0.3077215 -0.01776336 -0.112556495 -0.2950941 0.26120925 0.2675795 0.20065136 0.25726718
0.23880854 0.13577683 -0.0052506416 0.03158519 0.23609333 0.10935002 0.08591192 0.06669289
0.07974873 0.20668933 0.056974318 -0.019245485 -0.15012114 0.064215116 0.0068150256 0.007475596
-0.026784703 0.0010417239 -0.014626027 -0.00068367063 -0.0033307476 0.006599059 -0.009482715
00000000: d2f7 2cbc d7ca 61bc e88a 063c 785d 86bc
00000010: aafe 593c 0da1 5b3c 00ad 48bc 0855 60bc
00000020: e09d febb 67c3 f1bd dce7 0abe f2e0 f7bd
00000030: c446 16be 6e72 cebd 7b1e 4f3d 357f 9dbc
00000040: dd75 3fbc 2a1f d5bd e383 12be 0c9e 22be
00000050: bec7 48be 8fa6 3dbe b7b5 18be 645b 5abe
00000060: 417e f73b 9a60 39be 46e1 23be affa 97be
00000070: a9f3 68be 54f5 82be dcfb 7cbe a30d 54be
00000080: ea3e 81be ce77 723c 5c1a febd 7bc5 63be
00000090: 6202 02be f511 10be cf6f 00be cafd ffbd
000000a0: 6218 73be 4648 33be 5b30 6a3c 1694 3ebd
000000b0: 2625 8cbd c17f 4b3e 7ae7 413e efb2 283e
000000c0: c998 4f3e 5631 7b3e 109f 0c3e ae5b 383b
000000d0: ff07 a4bd 235c 3c3e ca71 d9bd a4f0 c5bd
000000e0: f23d acbd 729e b6bd 5406 46bd adf4 e8bd
000000f0: 4200 203c ff5b fdbd ccda 6bbd a974 b2bd
00000100: 124c bbbd 99ff e3bd 7a89 d4bd e644 f6bd
00000110: 7fb5 babd df2e fbbb ae46 19be e12e 00be
00000120: f3a7 d33d 00a6 e73d 055c a03d d38c de3d
00000130: d004 4a3e 2f66 0d3c 8d74 243c ca5d ddbd
00000140: ab5e 0a3e ee8c cebb a0ee 183b 2bb0 19bc
00000150: e359 a7bc e1d8 3a3c 784b adbc 1a99 9dbc
00000160: e7fb 39bc a149 273c 8f77 57be 310f 4bbe
00000170: c3be 1fbe 6576 46be 9331 6cbe 6201 01be
00000180: 92cc 36bc 81e3 8bbd fcd8 e6bd a13f cabe
00000190: 7800 b5be ee3c a3be 0ccf b0be 037d c9be
000001a0: ac8d 9dbe 7784 91bc 0584 e6bd 9316 97be
000001b0: 38bd 853e 2e00 893e 8d77 4d3e 86b8 833e
000001c0: 3a8a 743e 1509 0b3e 930d acbb 795f 013d
000001d0: 73c2 713e e7f2 df3d 97f2 af3d 4896 883d
000001e0: 4d53 a33d 5ea6 533e e75d 693d b5a8 9dbc
000001f0: 5bb9 19be 3783 833d 9450 df3b d8f5 f43b
00000200: 986b dbbc 748a 883a 01a2 6fbc 5c38 33ba
00000210: ac48 5abb eb3c d83b 645d 1bbc

bias f4 [15]
0.012255457 -0.124702014 -0.18357307 -0.23603947 -0.13651572 0.20602912 -0.066831015 -0.11979147
0.07409976 -0.015521816 -0.17249188 -0.37581825 0.24931484 0.0906293 -0.022494845
00000000: 1dcb 483c c563 ffbd 94fa 3bbe 55b4 71be
00000010: c7ca 0bbe 4cf9 523e b3de 88bd 3b55 f5bd
00000020: 9dc1 973d 374f 7ebc b6a1 30be 406b c0be
00000030: 644c 7f3e db9b b93d 1c47 b8bc

weight f4 [15, 9]
0.012584814 -0.0038916613 0.0057961345 -0.017312547 0.0052701384 0.0077052778 -0.0037624887 0.002532231
-0.004490711 -0.13352938 -0.15311772 -0.122247905 -0.12780353 -0.100655355 0.11687747 -0.006524855
-0.09125044 -0.05895957 -0.19199368 -0.15852425 -0.2010736 -0.17843422 -0.19950475 -0.21954213
0.017051404 -0.17259495 -0.20503683 -0.21472512 -0.26607952 -0.25421587 -0.22243723 -0.13242602
-0.21421085 0.010472246 -0.050246928 -0.19132832 -0.10743459 -0.14359279 -0.117109686 -0.11749759
-0.16826688 -0.18108441 0.008737528 0.026530223 -0.062499005 0.15659152 0.18435203 0.17817707
0.18264313 0.16677092 0.10914093 0.0023306566 -0.11304145 0.119035296 -0.062522486 -0.07759042
-0.097335406 -0.09772473 -0.10281885 -0.052303713 0.018379945 -0.025205199 -0.06798118 -0.12901692
-0.10209865 -0.14440753 -0.09890552 -0.12948555 -0.18932214 -0.011673826 -0.16291507 -0.11005694
0.100204505 0.077819236 0.05824674 0.10412665 0.045424245 0.049467724 0.010784324 -0.041209582
0.05303159 0.005049278 -0.0086078085 -0.017994719 -0.019875098 -0.019184656 -0.004547549 0.016234268
-0.009953035 -0.016079267 -0.17789984 -0.17845282 -0.18058673 -0.17060068 -0.16366561 -0.117548734
-0.0007708445 0.00980439 -0.09255629 -0.34468448 -0.35716534 -0.33078542 -0.3662072 -0.3123101
-0.27628618 -0.015636463 -0.07272594 -0.24190588 0.19351259 0.23481043 0.19428119 0.2630073
0.14933859 0.0491865 -0.0015831259 -0.332396 0.04681919 0.08489373 0.084468216 0.08483543
0.09084416 0.059604865 0.087426744 0.0032767882 -0.09354257 0.04938841 -0.00042918022 -0.015661921
0.008352839 -0.007001725 -0.024376407 -0.014401161 -0.0033293222 0.017004356 0.015409217
00000000: 8930 4e3c 3e0b 7fbb 80ed bd3b 0bd3 8dbc
00000010: 20b1 ac3b 8e7c fc3b 1694 76bb c9f3 253b
00000020: d026 93bb edbb 08be e4ca 1cbe 1c5d fabd
00000030: eede 02be 6524 cebd 745d ef3d 73ce d5bb
00000040: 83e1 babd 977f 71bd fe99 44be 2e54 22be
00000050: 3de6 4dbe 76b7 36be f94a 4cbe a7cf 60be
00000060: 63af 8b3c bbbc 30be 2df5 51be e7e0 5bbe
00000070: 933b 88be 9528 82be 96c6 63be b09a 07be
00000080: 175a 5bbe c993 2b3c b9cf 4dbd 92eb 43be
00000090: ab06 dcbd fd09 13be 34d7 efbd 94a2 f0bd
000000a0: 274e 2cbe 316e 39be d927 0f3c e955 d93c
000000b0: f5fe 7fbd 8759 203e c7c6 3c3e 0d74 363e
000000c0: cd06 3b3e ffc5 2a3e 4885 df3d eebd 183b
000000d0: 4782 e7bd c7c8 f33d ca0b 80bd bae7 9ebd
000000e0: c957 c7bd e723 c8bd b092 d2bd 6b3c 56bd
000000f0: 8a91 963c 227b cebc b839 8bbd 031d 04be
00000100: 1919 d1bd 91df 13be fa8e cabd dc97 04be
00000110: aadd 41be 9343 3fbc 35d3 26be 8865 e1bd
00000120: 0538 cd3d b15f 9f3d 2294 6e3d 5a40 d53d
00000130: c60e 3a3d ab9e 4a3d bcb0 303c 61cb 28bd
00000140: a737 593d 6a74 a53b c407 0dbc a969 93bc
00000150: 1ad1 a2bc 2429 9dbc 9b03 95bb bafd 843c
00000160: 0e12 23bc abb8 83bc 602b 36be 56bc 36be
00000170: baeb 38be f2b1 2ebe f597 27be 64bd f0bd
00000180: 8012 4aba 98a2 203c 278e bdbd 7c7a b0be
00000190: 60de b6be b55c a9be 837f bbbe 1ce7 9fbe
000001a0: 6275 8dbe 0a18 80bc 56f1 94bd 2db6 77be
000001b0: 2a28 463e 2572 703e a6f1 463e e5a8 863e
000001c0: 37ec 183e c977 493d e480 cfba cf2f aabe
000001d0: 7bc5 3f3d c4dc ad3d acfd ac3d 33be ad3d
000001e0: 810c ba3d 3b24 743d cb0c b33d 62bf 563b
000001f0: 3f93 bfbd 804b 4a3d 9803 e1b9 6e4d 80bc
00000200: 59da 083c ba6e e5bb 08b1 c7bc d9f2 6bbc
00000210: c230 5abb b84c 8b3c f176 7c3c
