model/gnn/241004_2p/epoch_4.pt (torch, 199196 bytes, 61 tensors)

att f4 [1, 1, 10]
0	0xbd46b7ef	-0.048515256
1	0x3e21ef42	0.15813926
2	0x3d8f5732	0.06999053
3	0xbcade7d6	-0.021228712
4	0x3d16ee9a	0.036848642
5	0x3d920385	0.071295775
6	0x3a88b9f1	0.0010431391
7	0xbe13e021	-0.14440967
8	0xbde1e9f5	-0.11030952
9	0xbdf91a35	-0.12163202

bias f4 [10]
0	0xbda5d7ef	-0.08097827
1	0x3e033cd5	0.12816174
2	0x3dfbad55	0.1228892
3	0x3da19178	0.07889074
4	0xbde9c128	-0.11413795
5	0xbdb3fbef	-0.08788287
6	0xbda713dd	-0.081580855
7	0xbe81aa19	-0.25325087
8	0xbe63c310	-0.22242379
9	0x3e19ea61	0.15030815

weight f4 [10, 163]
0	0xbd7e7543	-0.06212355
1	0xbd2457e0	-0.040122867
2	0xbdd5fb55	-0.104483284
3	0xbd6e856d	-0.058232713
4	0xbde4c060	-0.11169505
5	0xbdb20633	-0.08692589
6	0xbdb0cba1	-0.08632589
7	0xbdd35219	-0.10318393
8	0xbde52f68	-0.11190683
9	0xbdf85118	-0.121248424
10	0xbddd823a	-0.10815854
11	0xbe0161d1	-0.1263497
12	0xbde88154	-0.113527924
13	0xbd8d1970	-0.068896174
14	0x3da32210	0.07965481
15	0x3dbef2c4	0.093236476
16	0xbde1661c	-0.11005804
17	0xbd6e84c2	-0.058232076
18	0xbdff9fac	-0.12481627
19	0xbdf123e0	-0.11774421
20	0xbd90a081	-0.07061864
21	0xbd849054	-0.06472841
22	0xbd414cf9	-0.047192547
23	0xbdd1cf6b	-0.1024464
24	0xbdbb0bd5	-0.09133116
25	0x3cb9d1f9	0.02268313
26	0xbd98f948	-0.074694216
27	0x3cde9451	0.027170332
28	0xbd8e1e34	-0.069393545
29	0xbde87150	-0.11349738
30	0x3d42d86c	0.047569677
31	0xbd7ab333	-0.061206054
32	0x3d89afd7	0.06722992
33	0x3cfe7f45	0.031066546
34	0x3d242fcd	0.04008465
35	0xbd3e7911	-0.046502177
36	0xbde6e109	-0.11273391
37	0xbdbf274e	-0.09333669
38	0xbdf4a282	-0.119450584
39	0xbd3e2e07	-0.046430614
40	0xbdc524b6	-0.09626143
41	0xbde8393e	-0.11339043
42	0xbdf3246b	-0.118721806
43	0xbd45faf9	-0.04833505
44	0xbdb065b4	-0.08613148
45	0xbdce68f7	-0.10078614
46	0xbdd49906	-0.103807494
47	0xbddb25ee	-0.10700594
48	0xbda7087b	-0.081559144
49	0xbd9575bf	-0.07297849
50	0xbd709722	-0.05873788
51	0xbd61b028	-0.055099636
52	0xbd6401a4	-0.055665627
53	0xbcc41574	-0.02393601
54	0x3c66e3c7	0.014092392
55	0xbd1568ff	-0.036477085
56	0xbd89e55c	-0.067332
57	0xbe2de917	-0.16983448
58	0xbd412d3a	-0.047162272
59	0xbd55fcd2	-0.05224306
60	0xbd947ff9	-0.07250971
61	0x3b867be7	0.004104126
62	0xbdd63c31	-0.10460699
63	0xbd8a7f62	-0.067625776
64	0xbd229bc4	-0.03969933
65	0x3dc4ba6e	0.09605871
66	0xbda3d461	-0.079994924
67	0x3c87582b	0.016521534
68	0x3cdface1	0.027304115
69	0x3dc9f38b	0.09860905
70	0x3cb1c33c	0.02169954
71	0x3cb806d5	0.022464195
72	0xbb8cc2c6	-0.0042956797
73	0xbbb28987	-0.0054485234
74	0xbcf55a05	-0.029950151
75	0xbd1df614	-0.038564757
76	0xbc861c74	-0.01637099
77	0xbba52ee9	-0.0050409925
78	0xbd9607be	-0.073256955
79	0xbdfa20d8	-0.12213296
80	0xbd64136b	-0.05568258
81	0xbdae9349	-0.08524186
82	0x3d30aa0f	0.04313093
83	0xbcb2681c	-0.021778159
84	0x3d69362e	0.056936435
85	0x3d82a5a2	0.06379248
86	0xbdebe07b	-0.115174256
87	0xbd2da33b	-0.042391997
88	0xbc97731a	-0.018487502
89	0xbbfd78be	-0.007735341
90	0xbd98e27b	-0.07465073
91	0xbd30f23a	-0.043199755
92	0xbd8af339	-0.06784672
93	0x3d04aea3	0.03239311
94	0x3d9a7262	0.07541348
95	0xbd1a8bb9	-0.037730906
96	0xbdaea4f2	-0.085275546
97	0x3cb18e89	0.021674411
98	0xbda41e53	-0.080135964
99	0x3ddc1a29	0.10747177
100	0xbda48347	-0.08032852
101	0xbdeb6ec0	-0.11495733
102	0xbdce5172	-0.10074128
103	0xbdaa4735	-0.08314363
104	0x3ceffb88	0.029294744
105	0xbd1a0772	-0.037604757
106	0xbdfe4bc1	-0.12416793
107	0x3c899619	0.016795205
108	0x3d975b39	0.07390446
109	0xbd35318d	-0.04423671
110	0xbd27c584	-0.04095985
111	0xbd045526	-0.032307766
112	0x3dbc87b9	0.092055745
113	0xbccdef6d	-0.025138581
114	0x3b7e9699	0.0038847087
115	0xbc922899	-0.017841624
116	0x3b400655	0.002930065
117	0x3d01e2a7	0.031710293
118	0x3a2829d6	0.00064149254
119	0xbc326577	-0.010888449
120	0x3ce150e6	0.027504396
121	0xbd256275	-0.0403771
122	0x3d9ddfe0	0.077087164
123	0x3cff2ed0	0.031150252
124	0xbdc94fef	-0.09829699
125	0x3dc8dcb3	0.0980772
126	0x3c96e99d	0.018421942
127	0x3da26a02	0.07930376
128	0x3d9c6bd9	0.07637758
129	0x3d37e615	0.044897158
130	0xbcc1204c	-0.02357497
131	0xbd38686e	-0.045021467
132	0xbcf3ad80	-0.029745817
133	0x3d27888e	0.040901713
134	0xbd029932	-0.03188438
135	0xbd515c71	-0.05111355
136	0xbd69e5ac	-0.057103798
137	0xbcebda5e	-0.028790649
138	0xbd4fa9db	-0.050699096
139	0xbd84dcfe	-0.064874634
140	0xbdb077a1	-0.086165674
141	0xbde1fe8d	-0.1103488
142	0xbd18fbe2	-0.03734959
143	0xbdbb22d0	-0.09137499
144	0xbd8083b9	-0.06275124
145	0xbd819e32	-0.063290015
146	0xbda2409e	-0.07922481
147	0xbdb37460	-0.08762431
148	0xbdbf464f	-0.09339582
149	0xbddb25d0	-0.107005715
150	0xbd585703	-0.052817356
151	0xbdd7e9d3	-0.10542645
152	0xbdc88cd3	-0.09792485
153	0xbde98189	-0.1140166
154	0xbd654832	-0.055977054
155	0xbd827414	-0.063697964
156	0xbdc7250a	-0.097238615
157	0xbda3740f	-0.07981121
158	0xbdedae08	-0.116054595
159	0xbd803d60	-0.06261706
160	0xbd6c6f1a	-0.057723142
161	0xbde8f4b6	-0.113748
162	0xbdeaa388	-0.11456972
163	0x3f99a581	1.2003633
164	0x3feddd23	1.858311
165	0xc00f09c1	-2.2349703
166	0xbe801bd1	-0.25021222
167	0x3ec09862	0.3761626
168	0xbd24c6c2	-0.040228613
169	0x3e2db1e4	0.16962391
170	0x3df09e80	0.117489815
171	0x40ce3380	6.4437866
172	0x40388704	2.8832407
173	0x3fd96557	1.6984051
174	0x403d296d	2.9556534
175	0x402d7375	2.710172
176	0x3f9e3ed6	1.2362926
177	0x3ed53dee	0.4164881
178	0x3f5b4d0e	0.8566445
179	0xc0a9cfe5	-5.3066278
180	0x3f368ede	0.7131175
181	0x3fd0a3e3	1.6300014
182	0x3fed3aca	1.8533566
183	0x4012f74c	2.2963438
184	0x3ca94391	0.020662101
185	0x408aa8b0	4.3330917
186	0x3e0c778d	0.1371748
187	0x3fa4529e	1.2837713
188	0x3b90edc1	0.0044228737
189	0xbfeca2cb	-1.848718
190	0x3c8903fa	0.016725529
191	0xbdadf253	-0.08493485
192	0xc043c5e9	-3.0589545
193	0xc01d3d92	-2.456883
194	0x4082f1f3	4.092035
195	0x3f9d6055	1.2295023
196	0x3caed539	0.021341907
197	0x3e8c1373	0.2735859
198	0x3c3bc1f4	0.011459816
199	0x386d913d	5.6640467e-05
200	0x3f9bc099	1.2168151
201	0x3f9daf0b	1.2319044
202	0x3eb59815	0.35467592
203	0x3f293cb2	0.6610824
204	0xbf9172e8	-1.1363192
205	0xc0bae3bb	-5.840299
206	0x3ff7b806	1.9353034
207	0xc0633503	-3.5501106
208	0xbfa7bdbb	-1.3104776
209	0x3fe97831	1.8239805
210	0x3ee7c859	0.4527004
211	0xbf998baa	-1.1995747
212	0xc02f2cbb	-2.7371051
213	0x3fb43cb6	1.4081028
214	0x3f9f6f3f	1.2455825
215	0xbee0a62d	-0.43876782
216	0xbcc57e0f	-0.024107961
217	0xbca6f4fd	-0.020380491
218	0x40404c75	3.0046666
219	0x3fcb5bc7	1.5887383
220	0x4026c4db	2.605765
221	0x3f3747b5	0.7159379
222	0x409e362c	4.944113
223	0x3f3a1cdd	0.7270029
224	0xbd1a1df4	-0.03762622
225	0x40945acf	4.636085
226	0x3f52e4c6	0.8238033
227	0xbc7a8404	-0.015290264
228	0x3dd236f6	0.10264389
229	0xc0118263	-2.2735832
230	0x401d9ea6	2.4628081
231	0x413650fe	11.3947735
232	0x3f3689d9	0.7130409
233	0xbc130d85	-0.008975391
234	0xc04f92f9	-3.2433455
235	0xc14970ea	-12.590067
236	0xc0cdbd86	-6.429385
237	0x3c8cf150	0.01720491
238	0xbfd72a23	-1.6809734
239	0xbd27f864	-0.041008368
240	0x3c6baff8	0.014385216
241	0x403907e9	2.8911078
242	0x402a098f	2.6568334
243	0x406955e8	3.6458683
244	0x3fcc1a91	1.5945607
245	0x40411e40	3.0174713
246	0x3cda418d	0.026642585
247	0xc077dc81	-3.8728335
248	0x400d6bc0	2.2097015
249	0x40a18cae	5.048423
250	0xbbdfce62	-0.0068300227
251	0x3d1af360	0.037829757
252	0xbc10af73	-0.008830893
253	0x3fb56181	1.4170381
254	0x409094e4	4.518175
255	0x40a20a57	5.063762

bias f4 [10]
0	0xbda0901c	-0.07839987
1	0x3de86ee1	0.113492735
2	0x3df63289	0.120213576
3	0x3da3e841	0.08003283
4	0xbdec252b	-0.11530527
5	0xbd8d1ca8	-0.06890231
6	0xbda8237c	-0.08209893
7	0xbe87ec3e	-0.26547426
8	0xbe65be21	-0.2243581
9	0x3e0c8837	0.13723837

weight f4 [10, 163]
0	0x3d0f264b	0.03494863
1	0x3d248618	0.040166944
2	0x3d277a31	0.040888015
3	0x3d28106f	0.041031297
4	0xbd1aa0a2	-0.037750848
5	0x3c5869b8	0.013208799
6	0x3c87948a	0.016550321
7	0xbbe8a703	-0.0070999875
8	0xbc9d1113	-0.01917318
9	0x3a23e633	0.0006252259
10	0x3b902d8a	0.00439996
11	0x3c7be6be	0.015374837
12	0xbcbb48c2	-0.022861842
13	0xbc35b07f	-0.011089443
14	0x3b198941	0.0023427757
15	0xbd0db079	-0.034592126
16	0xbd28f33b	-0.041247588
17	0xbd2082e8	-0.039187342
18	0x3bab8245	0.005234035
19	0xbbce9624	-0.0063045193
20	0x3cfc4c77	0.03079818
21	0x3ba48e42	0.0050218413
22	0x3d15e127	0.036591675
23	0xba6aa691	-0.0008951212
24	0xba74b951	-0.00093354756
25	0xbd252ae9	-0.040324125
26	0xbc90c848	-0.017673627
27	0xbd114af3	-0.035471868
28	0x3c0b466c	0.008500677
29	0xbbd7d813	-0.0065870374
30	0xbb847ab3	-0.004042947
31	0x3d047c3a	0.032345034
32	0x3b660f3d	0.0035104298
33	0xbd2a8873	-0.041634034
34	0x3d098981	0.0335784
35	0xbccdace2	-0.025106851
36	0x3cf998c8	0.03046836
37	0xbd30db17	-0.04317769
38	0xbcf87441	-0.030328872
39	0xbd14d0a9	-0.036331806
40	0xbc4b3760	-0.012403339
41	0xbca7f194	-0.020500936
42	0x3d334255	0.04376443
43	0xbcdd7390	-0.027032644
44	0x3d2dd97e	0.042443745
45	0xbd105bce	-0.0352438
46	0xbd358b1f	-0.04432213
47	0xbc9db65f	-0.019252
48	0xbca516ed	-0.020152533
49	0x3d1ce6e1	0.03830612
50	0xbd0e5edb	-0.03475843
51	0x3cefd02b	0.029274067
52	0x3c90bf13	0.017669236
53	0xbcd4d8d5	-0.0259823
54	0xbcbeb5d1	-0.023280056
55	0xbc8668c0	-0.01640737
56	0xbcaaca2e	-0.02084836
57	0x3d013803	0.031547558
58	0xbc9aa334	-0.01887665
59	0x3c9e4758	0.019321129
60	0x3d30b479	0.043140862
61	0x3d0bc62a	0.03412453
62	0x3cef9231	0.029244514
63	0x3c956b84	0.018239744
64	0xbcb2284a	-0.021747727
65	0xbc6519ba	-0.0139831845
66	0xbba3220c	-0.004978424
67	0x3ca12d8d	0.01967504
68	0xbca8bb0f	-0.020597009
69	0x3d282cb5	0.04105826
70	0x3cc777ab	0.024349054
71	0x3cfa287b	0.03053688
72	0x39fe0196	0.00048447837
73	0x3cf7f757	0.030269308
74	0x3c967ede	0.018371042
75	0xbcdd8bec	-0.027044259
76	0xbcb7fc10	-0.02245906
77	0x3c2e70ce	0.010647012
78	0xbcd2930e	-0.025704887
79	0x3d1b9a56	0.037988983
80	0xbc919d89	-0.017775314
81	0x3cd9c945	0.02658523
82	0x3d36946a	0.044575132
83	0xbd1917a9	-0.03737608
84	0x3d2ba546	0.041905664
85	0x3c2393dc	0.009983983
86	0xbccf4ed2	-0.02530614
87	0xbcf9569a	-0.030436803
88	0x3c912f87	0.017722858
89	0x3d088570	0.03333038
90	0x3cc2c188	0.023773924
91	0x3c8f5456	0.01749627
92	0x3c64eeeb	0.013972978
93	0xbc9d0d17	-0.01917128
94	0xbb81b360	-0.0039581507
95	0x3ba028b8	0.0048876666
96	0xbbfca19c	-0.007709695
97	0x3cd04b57	0.02542655
98	0x3d389a52	0.045069046
99	0x3ceff351	0.029290827
100	0x3c695e2a	0.014243642
101	0x3d026755	0.031836826
102	0xbcc640be	-0.024200793
103	0xbc8f8eba	-0.017524112
104	0xbc86b6db	-0.016444614
105	0xbd1f13db	-0.038837295
106	0x3bb62fb2	0.005559885
107	0xbbe95314	-0.0071204994
108	0xbc128d53	-0.008944827
109	0xbcb026c4	-0.02150286
110	0x3c928991	0.017887862
111	0xbb4a4707	-0.003086509
112	0xbc780795	-0.015138526
113	0x3d3648f6	0.044503175
114	0x3d097030	0.033554256
115	0xbd12f9da	-0.03588281
116	0xbd066698	-0.032812685
117	0xbc4e1fec	-0.012580853
118	0x3c7aa06f	0.015297039
119	0xbd22f53e	-0.039784662
120	0x3cf1e7c2	0.029529456
121	0xbd0432d0	-0.03227502
122	0x3cefb3fe	0.029260632
123	0xbcd3ab58	-0.025838539
124	0xbc1d429f	-0.009598403
125	0xbcb28a23	-0.021794384
126	0x3cab240b	0.02089121
127	0xbc8e4769	-0.017368035
128	0xbca6df53	-0.020370161
129	0x3cabdbca	0.020978827
130	0xbd08f3a6	-0.033435486
131	0x3c4fa486	0.012673503
132	0xbc8e3f96	-0.017364305
133	0x3c3e1eb2	0.011603998
134	0xbc934c49	-0.017980712
135	0xbd02a8bc	-0.0318992
136	0x3c5afd02	0.013365986
137	0xbd307040	-0.0430758
138	0x3ae8fe6d	0.001777602
139	0x3cd6e866	0.026233863
140	0xbb5b64c8	-0.0033476818
141	0xbd14ea40	-0.03635621
142	0xbd38362d	-0.04497354
143	0xbd138f91	-0.036025587
144	0xbb26ef93	-0.0025472387
145	0xbd2afd7a	-0.04174564
146	0x3b636611	0.0034698287
147	0x3c28261b	0.010262991
148	0xbca8ed2c	-0.020620905
149	0x3d1d484f	0.038399037
150	0x3cd0e4e4	0.025499769
151	0xbd0a7b80	-0.033809185
152	0xbcf2a99c	-0.029621892
153	0x3c00e4e7	0.007867075
154	0x3bed0067	0.007232714
155	0x3b32c723	0.002727934
156	0xbc0f8b6b	-0.008761267
157	0xbb1109f9	-0.0022131188
158	0x3c43e847	0.011957235
159	0xbb9ce510	-0.0047880486
160	0xbd07bdba	-0.03313992
161	0xbccf19b0	-0.025280803
162	0x3d117ddd	0.035520423
163	0x3ce294cd	0.027658844
164	0xbcd980d8	-0.026550695
165	0x3c6bd83a	0.014394814
166	0x3bc1d0fc	0.0059148055
167	0x3cd3b50e	0.02584317
168	0xbd015f4d	-0.031585027
169	0x3cca649b	0.024706176
170	0xbcd0715f	-0.025444685
171	0xbcb4aba0	-0.022054493
172	0x3c66f7cc	0.014097165
173	0x3c9b4eff	0.018958567
174	0xbd2ebef6	-0.042662583
175	0xbc959c6b	-0.018263062
176	0xbd0d9118	-0.0345622
177	0xbd00575e	-0.03133332
178	0x3ba77e2f	0.005111478
179	0xbd17d03a	-0.037063815
180	0xbcf68678	-0.030093417
181	0x3d04cb6f	0.032420572
182	0x3d0bc670	0.03412479
183	0x3ba793f5	0.0051140734
184	0xbce11223	-0.027474469
185	0x3d2c2d56	0.042035423
186	0xbc0593b6	-0.008152893
187	0x3cf21c31	0.029554458
188	0x3cfe9655	0.031077543
189	0xbcc9c333	-0.024629211
190	0xbcb3309e	-0.021873768
191	0xbd100e31	-0.035169784
192	0x3cd2ec46	0.02574743
193	0xbc8960b0	-0.016769737
194	0x3bc7c739	0.0060967472
195	0x3d06e9b2	0.032937713
196	0xbcc842ba	-0.02444588
197	0x3d0de70c	0.03464417
198	0xbd03b7ed	-0.032157827
199	0xbc08489b	-0.008318092
200	0x3bf9d160	0.0076238364
201	0xbc76e543	-0.015069309
202	0x3b169e03	0.0022982366
203	0xbcbe3b31	-0.023221584
204	0x3d24e6c8	0.040259153
205	0xbd147a4c	-0.036249444
206	0x3d20557b	0.03914402
207	0xbc1f5e12	-0.009727018
208	0xbd142169	-0.036164675
209	0xbc5e744a	-0.01357753
210	0xba5a1799	-0.00083195564
211	0xbcaf29d5	-0.021382252
212	0xbcdb3bc0	-0.02676189
213	0x3d06fc65	0.032955546
214	0xbd232ac4	-0.039835706
215	0xbbe6456a	-0.007027318
216	0x3c86c2be	0.016450282
217	0xbccad35f	-0.024758993
218	0x3ca13686	0.01967932
219	0xbce8b554	-0.028406776
220	0x3bc85485	0.006113591
221	0x3bcbdadf	0.00622116
222	0xbc62c56d	-0.013841015
223	0x3d35ad57	0.044354763
224	0xbd0c6a39	-0.03428099
225	0x3d17d1fb	0.037065487
226	0x3c6c2aae	0.0144144725
227	0x3d08ccbb	0.03339837
228	0x3bea1d51	0.007144608
229	0x3c9b2c21	0.01894194
230	0x3c87db36	0.01658402
231	0xba95014e	-0.0011368187
232	0x3d388f7b	0.04505871
233	0x3cfb8b4b	0.030706069
234	0xbd058a5e	-0.03260266
235	0x3d1b8d36	0.037976466
236	0x3cf017e9	0.029308276
237	0x3ce2bd96	0.027678292
238	0xbcc22510	-0.023699313
239	0xbd24ef81	-0.04026747
240	0x3bfe1ca2	0.007754878
241	0xbd115dce	-0.03548985
242	0x3c5ee686	0.013604766
243	0x3bc814ea	0.006106009
244	0x3c0f7fac	0.008758467
245	0xbce00ad3	-0.027348911
246	0x3cef0ef4	0.029181935
247	0xbcfa4f1a	-0.030555297
248	0xbbb20316	-0.005432497
249	0x3c17ff18	0.009277128
250	0x3cf1ea06	0.029530536
251	0xbd024dca	-0.031812467
252	0x3d0349f6	0.032052957
253	0x3ce15945	0.027508387
254	0x3c6da305	0.014504199
255	0xbb815625	-0.003947037

bias f4 [10]
0	0x3c208036	0.009796193
1	0xbb8f2ab4	-0.0043691043
2	0xbaa3bb6b	-0.0012491768
3	0xbc7f3d62	-0.0155786
4	0x3c05e568	0.0081723705
5	0xbbcb53b0	-0.0062050447
6	0x3bf6aeac	0.0075281467
7	0xbc8dc577	-0.017306073
8	0xbc8a9f32	-0.016921613
9	0xbaaae6c8	-0.0013038749

weight f4 [15, 163]
0	0xbd43915a	-0.04774604
1	0x3d4bc42d	0.049747635
2	0x3d0a61f4	0.03378482
3	0x39a00e97	0.00030528448
4	0x3a7f87e2	0.0009747726
5	0x3d602950	0.0547269
6	0xbd652197	-0.055940237
7	0xbc386fa3	-0.011257085
8	0x3d9ab20a	0.075534895
9	0x3c2cefb3	0.010555196
10	0x3d8f1ee6	0.06988315
11	0x3d3b353d	0.04570507
12	0x3d885543	0.066568874
13	0x3c39b1c7	0.011333889
14	0x3d53cbc2	0.05170799
15	0x3d35b36b	0.04436056
16	0xbd738c22	-0.059459813
17	0xbbbf1ad7	-0.005832057
18	0xbd4666b6	-0.048437797
19	0x3df1e3db	0.11811038
20	0x3e0c8d01	0.13725664
21	0x3da6e6ce	0.08149491
22	0x3ca909d7	0.020634575
23	0x3df73d34	0.120722204
24	0x3d9dd53c	0.07706687
25	0x380c0214	3.3380536e-05
26	0x3daad115	0.083406605
27	0xbc78222d	-0.015144867
28	0x3b9a14c8	0.0047021843
29	0x3e1043bf	0.14088343
30	0x3b8207b8	0.0039682053
31	0x3cd57ffc	0.026062004
32	0x3ccfc035	0.025360206
33	0xbbc674f8	-0.006056424
34	0xbc44b988	-0.012007125
35	0xbddce8ee	-0.10786615
36	0x3d868f3c	0.065702885
37	0x3d4eb37f	0.05046415
38	0x3da39ad9	0.07988519
39	0xbd11e4d4	-0.035618618
40	0x3cf094c1	0.029367806
41	0xbd90687c	-0.07051179
42	0xbd2675f0	-0.040639818
43	0xbda3defc	-0.08001515
44	0x3d0ece51	0.034864727
45	0x3d29c933	0.041451644
46	0xbd94f4e1	-0.072732694
47	0xbd492dbb	-0.049115878
48	0x3dc87f43	0.09789898
49	0x3c662a57	0.014048181
50	0xbc86080f	-0.016361265
51	0x3e11c626	0.14235744
52	0x3c178bae	0.009249611
53	0x3c2ff6b9	0.010739976
54	0x3b5198e1	0.0031981992
55	0xbd5e8777	-0.054328408
56	0x3b88744e	0.004164255
57	0x3d330840	0.04370904
58	0xbd260c88	-0.040539294
59	0x3d5cd1c5	0.05391099
60	0x3ce8c3e2	0.028413717
61	0x3b323833	0.0027194142
62	0x3c25304e	0.0100823175
63	0x3badb1b2	0.005300724
64	0x3b571e87	0.0032824592
65	0x399371f5	0.0002812293
66	0xbd137e2c	-0.036009
67	0x3b6185ae	0.0034411955
68	0xbc090844	-0.008363787
69	0x3ca7f24f	0.020501284
70	0xbbed4508	-0.007240895
71	0xbab9e56c	-0.0014182753
72	0x3be6d452	0.0070443535
73	0x3ba3f793	0.0050038784
74	0xbc31588f	-0.010824337
75	0xbc032a37	-0.00800567
76	0x3c72132e	0.014775081
77	0xbc7edf1f	-0.015556126
78	0xbb8ec9b2	-0.00435754
79	0x3d1aac97	0.03776225
80	0x3d056e34	0.0325758
81	0xbd018806	-0.031623863
82	0x3d1801c7	0.03711107
83	0xbb8efa86	-0.004363361
84	0xbc1050d5	-0.008808334
85	0x3a839aa2	0.0010040591
86	0x3c9c7773	0.019099927
87	0xbc163a78	-0.0091692135
88	0x3b6e01fa	0.0036317096
89	0x3bc25f3b	0.0059317625
90	0xbdd2e005	-0.102966346
91	0xbd1bc32d	-0.03802793
92	0x3b2bda39	0.00262226
93	0xbc88ade9	-0.01668449
94	0xbc348a28	-0.011019267
95	0xbb6554c8	-0.003499316
96	0x3d9b8d9c	0.07595369
97	0xbc90c684	-0.017672785
98	0x3d85bdf6	0.06530373
99	0xbc8216e3	-0.015880054
100	0xbbccd83a	-0.006251362
101	0xbc3643c5	-0.011124556
102	0x3d45c266	0.048281096
103	0x3d1c97be	0.03823065
104	0x3c803ef1	0.015655013
105	0xbc35021a	-0.011047864
106	0xbc0e7752	-0.00869544
107	0xbc91e6f8	-0.01781033
108	0xbb1cb6bb	-0.0023912627
109	0xbcc2785b	-0.02373903
110	0x3d078bbe	0.033092253
111	0x3c8d4ecb	0.017249485
112	0x3ce6e58b	0.028185626
113	0x3c6eb1ea	0.014568785
114	0x3bb57b7d	0.0055384026
115	0xbb838985	-0.0040141963
116	0xbc3a34a8	-0.011365093
117	0xbc8c37a6	-0.017116379
118	0x3c2a0d42	0.0103791375
119	0x3b6bd87b	0.0035987187
120	0x3c888ea1	0.016669573
121	0xbc555c44	-0.013022486
122	0x3c488ff3	0.012241351
123	0x3c3fe592	0.011712449
124	0xbcfaef30	-0.030631632
125	0x3c96dbb7	0.018415315
126	0xbc84eea0	-0.016227067
127	0xbc450c66	-0.012026882
128	0x3c402f2f	0.011729999
129	0x3c8d95bd	0.017283315
130	0xbb8f9ff9	-0.004383084
131	0xbb822089	-0.0039711636
132	0xbbdce6a7	-0.006741363
133	0xbd5cd97e	-0.053918354
134	0xbcae5b72	-0.021283839
135	0xbbd73bd0	-0.0065684095
136	0x3c7b27f3	0.015329349
137	0x3c737bfb	0.014861102
138	0xbc802be4	-0.015645929
139	0xbd0a5067	-0.033768084
140	0xbb1e8fe6	-0.0024194657
141	0xbdddbea9	-0.10827381
142	0xbdaa4cdf	-0.08315443
143	0xbd95b292	-0.0730945
144	0xbb8a81f4	-0.0042269174
145	0xbd8520f4	-0.06500426
146	0x3dc7f848	0.09764153
147	0xbc8b2778	-0.016986594
148	0xbdadbba1	-0.08483053
149	0xbd1e0a33	-0.038583945
150	0x3d9a2b10	0.07527745
151	0x3d5e30cd	0.05424576
152	0xbdc4cb35	-0.09609071
153	0xbcf88f39	-0.030341731
154	0x3c49158a	0.012273202
155	0xbda0cd15	-0.07851616
156	0xbd4827f1	-0.048866216
157	0x3daa13f5	0.08304588
158	0x3d5c3dc9	0.05376986
159	0x3d8f97b8	0.0701136
160	0x3caa0830	0.020755857
161	0xbd34d27a	-0.04414604
162	0x3db3b73b	0.08775183
163	0x3da7846d	0.08179555
164	0xbd93e9b8	-0.07222313
165	0xbca12b5d	-0.019673998
166	0x3d57508a	0.052567042
167	0xbc1f57d1	-0.009725527
168	0xbcfddda2	-0.030989472
169	0x3d9c2e72	0.07626046
170	0x3c748d7a	0.014926309
171	0xbdba62e8	-0.09100896
172	0x3cb871d9	0.022515224
173	0xbe7c2d79	-0.24626721
174	0xbe5c5ccd	-0.21519776
175	0xbe5bd7d0	-0.21469045
176	0xbe94bde2	-0.2905112
177	0xbd8f8e20	-0.0700953
178	0xbd8ddca1	-0.06926847
179	0xbdf272ec	-0.11838326
180	0x3e164908	0.14676297
181	0x3d317042	0.043319948
182	0x3c5f7804	0.013639454
183	0x3c8c29f3	0.017109847
184	0xbdaa25ae	-0.08307968
185	0xbd96aa16	-0.0735666
186	0x3d4dccbe	0.050244085
187	0xbc9d8e1d	-0.019232804
188	0x3c55b93a	0.01304465
189	0xbd97c916	-0.07411401
190	0xbc416419	-0.01180365
191	0xbe1b363d	-0.15157409
192	0x3d02af07	0.0319052
193	0xbcbeed0d	-0.023306394
194	0x3cae1580	0.021250486
195	0xbd667daf	-0.056272205
196	0xba489ef4	-0.00076530804
197	0xbbb2af9e	-0.005453064
198	0xbe49d8ee	-0.19711658
199	0xbd531839	-0.051536772
200	0x3d5faff1	0.05461115
201	0x3d57431c	0.052554235
202	0x3e0a287c	0.13492006
203	0x3d801c44	0.06255391
204	0x3dbb8edd	0.091581084
205	0xbc957bf4	-0.018247582
206	0x3aa9f138	0.0012965566
207	0xbdf5ba47	-0.1199842
208	0xbdc3ce14	-0.09560791
209	0x3d49e9ba	0.049295165
210	0xbd259727	-0.040427353
211	0xbd945f07	-0.072446875
212	0xbd75a7d1	-0.059974495
213	0x3d0f2086	0.034943126
214	0xbb7bdbec	-0.0038430644
215	0xbd2510d9	-0.04029927
216	0xbc81e77e	-0.015857454
217	0x3c959403	0.018259054
218	0xbc607965	-0.013700818
219	0x3e34f0a3	0.1766992
220	0xbe0ac87d	-0.13553043
221	0xbd5f1ca8	-0.054470688
222	0xbe0ab76c	-0.13546532
223	0xbcf3376f	-0.029689519
224	0xbb2e1150	-0.0026560612
225	0xbb8a75f5	-0.0042254874
226	0x3ca16fdf	0.019706665
227	0xbc2e1bff	-0.010626792
228	0xbb5adc4e	-0.0033395472
229	0xbe421a4b	-0.18955342
230	0x3ba3b5a9	0.004996021
231	0xbc2aafd0	-0.0104178935
232	0x3d9ac3dc	0.075568885
233	0xbc321ced	-0.010871154
234	0x3c2f1a99	0.010687494
235	0xbc1ff17a	-0.009762162
236	0x388d5b2c	6.740386e-05
237	0xbc61c460	-0.01377973
238	0xbac4743a	-0.0014988251
239	0xbc7a04a3	-0.015259895
240	0x3c9690dd	0.018379623
241	0x3dbe9bd6	0.09307067
242	0xbb360cd8	-0.0027778652
243	0xbe218605	-0.1577378
244	0xbdc399ed	-0.095508434
245	0x3ce30cb6	0.027716022
246	0x3c7db306	0.015484577
247	0x3c92fc7a	0.017942656
248	0x3ba19936	0.0049315942
249	0x3c2570d5	0.010097702
250	0x3c22f0be	0.009945093
251	0xbc250010	-0.010070816
252	0xbc9ae003	-0.018905645
253	0xbe1e1259	-0.15436687
254	0xbe0f2837	-0.13980184
255	0xbde3ef94	-0.1112968

bias f4 [15]
0	0x3b75eedf	0.0037526411
1	0x3adfba07	0.001706899
2	0xbafdd73f	-0.0019366516
3	0xba7c6217	-0.00096276536
4	0xbb045c43	-0.0020196594
5	0x3c97e865	0.018543432
6	0x3c27b4a3	0.010235938
7	0x3b1dda26	0.0024086325
8	0x3c843ebb	0.016143193
9	0xbbbea5a9	-0.005818088
10	0xbbac8e3c	-0.005265979
11	0x3b99ba47	0.0046913954
12	0x3c85d2a3	0.016335791
13	0xbc9221a5	-0.017838309
14	0xbb93bdb6	-0.0045086993

weight f4 [15, 9]
0	0x3e1d838d	0.15382214
1	0x3d88ec45	0.0668569
2	0xbd05006f	-0.032471117
3	0x3c0ce15f	0.0085986545
4	0xbc38252b	-0.01123933
5	0x3cbe5eb1	0.023238512
6	0xba3260fd	-0.00068046135
7	0xba50ee19	-0.00079700496
8	0x3d360ea6	0.044447564
9	0x3dabbd58	0.08385724
10	0xbd72f665	-0.05931701
11	0xbd8a634e	-0.06757222
12	0x3c41ee8b	0.011836658
13	0x3c330513	0.010926503
14	0x3d58f96c	0.052972242
15	0x3d9b8a85	0.0759478
16	0x3d750651	0.059820477
17	0xbd668f29	-0.056288872
18	0x3e93c868	0.28863835
19	0xbd1238cb	-0.035698693
20	0xbd9da27f	-0.07697009
21	0x3d6a5705	0.057211895
22	0xbb4e1c53	-0.0031449988
23	0xbca37389	-0.019952552
24	0xbd8198fa	-0.06328006
25	0x3ab90492	0.0014115742
26	0xbd4aa4f6	-0.049473725
27	0x3d4c589a	0.049889185
28	0xbd931688	-0.07182032
29	0xbd531e0a	-0.05154232
30	0xbb5f8bec	-0.00341105
31	0xbc45984d	-0.012060237
32	0xbd4072b6	-0.046984397
33	0xbc1461a6	-0.009056484
34	0x3da01964	0.07817343
35	0xbca2f24d	-0.019890929
36	0xbe19c14a	-0.1501514
37	0x3d43fc79	0.0478482
38	0xbd323ac0	-0.04351306
39	0x3cfff531	0.031244846
40	0x3d3c74e0	0.0460099
41	0xbd8e7d10	-0.069574475
42	0xbc8c155a	-0.017100025
43	0x3d329761	0.043601397
44	0x391c3137	0.00014895653
45	0xbdada2f2	-0.08478345
46	0x3d63e130	0.055634677
47	0xbd9c69b1	-0.076373465
48	0xbd861dd3	-0.06548657
49	0x3d69599a	0.056970216
50	0x3d0161be	0.031587355
51	0xbc05a857	-0.008157811
52	0xbd88dd4c	-0.06682834
53	0x3cadbff9	0.021209704
54	0xbd1bdb5e	-0.038051
55	0xbd7b81bb	-0.061403017
56	0x3d00638a	0.031344928
57	0xbc0f2a3b	-0.008738096
58	0xbd49d62f	-0.049276527
59	0xbd02cf0c	-0.031935737
60	0x3d593f3e	0.053038828
61	0xb5960b69	-1.1179192e-06
62	0x3d23031b	0.039797883
63	0xbe6842f5	-0.22681792
64	0xbd1d7735	-0.038443763
65	0xbd70dae3	-0.058802497
66	0xbd1e2d04	-0.03861715
67	0xbc8b1869	-0.016979413
68	0xbcf814d9	-0.030283378
69	0x3d3a8a54	0.045542076
70	0xbcd58589	-0.026064651
71	0xbd1b840a	-0.03796772
72	0xbbbbc396	-0.005730103
73	0x3cb1b0fc	0.021690838
74	0x3d5a93a3	0.053363454
75	0x3cc655a5	0.02421076
76	0x3da21d9b	0.07915803
77	0x3cde5b5a	0.02714317
78	0x3d3e7f70	0.046508253
79	0x3b4faecf	0.0031689887
80	0xbd2b2131	-0.0417797
81	0xbdcb2ac8	-0.09920269
82	0xbd966ee6	-0.07345371
83	0xbd9ba827	-0.07600432
84	0xbca35bd8	-0.019941255
85	0x3cb86d4c	0.022513054
86	0xbd0f5e1f	-0.03500187
87	0xbcf36c7c	-0.029714815
88	0xbd4fc464	-0.050724402
89	0xbd131742	-0.035910852
90	0x3d212443	0.039341222
91	0xbc0052ee	-0.007832272
92	0x3cdc363f	0.026881335
93	0x3d8bac35	0.06819955
94	0xbd6638f8	-0.056206673
95	0xbd70a8e4	-0.058754817
96	0x38a92158	8.064759e-05
97	0xbda44475	-0.0802087
98	0xbd20e6a3	-0.039282452
99	0x3df2b610	0.11851132
100	0xbca20478	-0.019777521
101	0x3d42c80c	0.04755406
102	0xbd8ce3af	-0.06879365
103	0x3d00ef82	0.031478412
104	0xbbda9281	-0.0066702967
105	0xbc2d7b2b	-0.010588448
106	0xbc5cfa5c	-0.013487425
107	0x3d0f71b9	0.035020564
108	0xbe9c021f	-0.30470368
109	0xbcb837f8	-0.022487625
110	0x3d26631b	0.040621858
111	0xbd555da5	-0.05209126
112	0x3d9b4e6b	0.075833164
113	0xbd817f74	-0.06323138
114	0xbc7c4c20	-0.015399009
115	0x3d9f8a43	0.07790043
116	0xbd83eeed	-0.06442056
117	0x3e8e4428	0.27786374
118	0xbd0bf03a	-0.034164645
119	0x3d34c185	0.044129867
120	0xbcefd34f	-0.029275564
121	0x3cc2cf40	0.023780465
122	0x3d951870	0.07280052
123	0x3d8dc2b8	0.06921905
124	0xbd84fe49	-0.064938135
125	0xbcc0d128	-0.023537233
126	0x3e554a72	0.2082918
127	0x3b5fd5e0	0.003415458
128	0x3cf99ebe	0.030471202
129	0xbcd4b0e6	-0.025963258
130	0xbd7d98b1	-0.061913196
131	0x3d0db781	0.03459883
132	0xbd25e4ea	-0.040501513
133	0x3c82cca8	0.015966728
134	0x3b17a4a5	0.0023138907

bias f4 [15]
0	0xbd88f7df	-0.06687903
1	0xbd8ab6fe	-0.06773184
2	0x3d0fabdb	0.035076004
3	0xbd20ea90	-0.039286196
4	0x3d9c9661	0.0764587
5	0xbd387871	-0.045036737
6	0xbda2cb8f	-0.07948982
7	0x3cf9f0de	0.030510362
8	0x3d941cc1	0.07232047
9	0xbc7bf91b	-0.015379216
10	0xbd9a278a	-0.07527073
11	0xbbcbca21	-0.006219164
12	0x3cb5475d	0.022128755
13	0x38ddd0fa	0.00010577026
14	0x3d41610e	0.0472117

weight f4 [15, 163]
0	0xbdf14939	-0.11781544
1	0xbe3828c2	-0.17984298
2	0xbe4a16d4	-0.1973527
3	0xbe1408e8	-0.14456522
4	0xbe2d99dc	-0.16953224
5	0xbe07bf5d	-0.13256593
6	0xbe042dab	-0.12908046
7	0xbe089831	-0.13339306
8	0xbd83eb96	-0.06441419
9	0xbda17e2a	-0.07885392
10	0xbdc20d13	-0.0947515
11	0xbda53992	-0.08067621
12	0xbd79151d	-0.06081115
13	0xbda9f788	-0.08299166
14	0xbdbb1c00	-0.091362
15	0xbda515e5	-0.08060817
16	0xbdd6f617	-0.10496157
17	0xbe0545c0	-0.13014889
18	0xbe2f7364	-0.17133862
19	0xbe0ace37	-0.13555227
20	0xbdaa66e2	-0.083204046
21	0xbe2e5419	-0.17024268
22	0xbd81afe9	-0.0633238
23	0xbe32b58e	-0.1745207
24	0xbe081644	-0.13289744
25	0x3ae5e38c	0.0017539128
26	0xbd83e07e	-0.06439303
27	0xbbcab39c	-0.006185962
28	0xbd4e144e	-0.050312333
29	0xbe0b5f8f	-0.13610671
30	0xbd9e4dda	-0.07729693
31	0xbe5c8955	-0.21536763
32	0xbe47acb9	-0.19499482
33	0xbc8f2650	-0.017474324
34	0xbd0a57eb	-0.03377525
35	0xbdfd421c	-0.12366125
36	0xbe1c2b26	-0.15250835
37	0xbe3c6908	-0.18399441
38	0xbe64f2e0	-0.22358274
39	0xbddfc7e8	-0.10926801
40	0xbe2c48ba	-0.16824618
41	0xbe5b5bc6	-0.21421728
42	0xbe14730f	-0.14497016
43	0xbdfc674f	-0.12324392
44	0xbe290d86	-0.16509065
45	0xbe21faf8	-0.15818393
46	0xbdeb5be7	-0.11492138
47	0xbe3e80a1	-0.18603756
48	0xbdd0ca40	-0.10194826
49	0xbdec9640	-0.115520954
50	0xbe1160ab	-0.14197032
51	0xbe0f1682	-0.1397343
52	0xbe07ead2	-0.1327317
53	0xbc173ffb	-0.009231563
54	0x3c07e426	0.008294141
55	0xbd4a4486	-0.049381755
56	0xbe17211b	-0.14758722
57	0xbdaaebf8	-0.08345789
58	0xbe001a60	-0.12510061
59	0xbe7917c7	-0.24325477
60	0xbdad3132	-0.08456649
61	0x3c0b8d67	0.0085176
62	0xbdab74fb	-0.08371922
63	0xbe8a8810	-0.27056932
64	0x3c5f548c	0.013630997
65	0xbe17741c	-0.14790386
66	0xbe3de121	-0.18542911
67	0x3b854744	0.0040673334
68	0x3aedaa59	0.0018132433
69	0xbe2fd5a1	-0.17171337
70	0xbc92a82a	-0.017902452
71	0x3b2cbf19	0.002635902
72	0x3d62f4a8	0.055409104
73	0x3d425197	0.04744109
74	0x3b23f927	0.0025020333
75	0xbc8a5b26	-0.016889166
76	0x3bc1228c	0.005894011
77	0xbc63899e	-0.013887791
78	0xbe503b82	-0.203352
79	0xbdead3d7	-0.114661865
80	0xbdf41bab	-0.1191934
81	0xbdc8f09d	-0.09811518
82	0xbd67f6e3	-0.056631934
83	0x3b6a3603	0.003573776
84	0xbe73f03d	-0.23822112
85	0xbe00a2a2	-0.1256204
86	0xbd974492	-0.073861256
87	0x3c5ba31d	0.013405588
88	0xbb77916d	-0.003777589
89	0x3c51d241	0.012806476
90	0xbd8d6337	-0.06903689
91	0xbe348d1c	-0.17631954
92	0xbdc224d9	-0.094796844
93	0xbd6735a1	-0.05644763
94	0xbe49791e	-0.19675109
95	0x3c1b3a47	0.009474344
96	0xbe58a6ff	-0.21157454
97	0xbc752353	-0.014962035
98	0x3c3f519a	0.01167717
99	0xbe44dc14	-0.19224578
100	0xbb85bbf7	-0.004081245
101	0xbe493d78	-0.19652355
102	0xbe3e03d8	-0.18556154
103	0xbdfce01c	-0.12347433
104	0x3c3167a4	0.0108279325
105	0xbd080bca	-0.033214368
106	0xbc422d81	-0.011851669
107	0x3bd682cb	0.0065463535
108	0xbe9614ea	-0.2931283
109	0xbe4c3c16	-0.19944796
110	0xbc5fdbd9	-0.013663256
111	0x3b3147c3	0.002705083
112	0xbe37e883	-0.1795979
113	0x3c8f8883	0.017521149
114	0xbc789f95	-0.015174766
115	0x3d94f9e2	0.07274224
116	0x3d3afe13	0.04565246
117	0x3c32cefc	0.010913607
118	0x3b8250b2	0.003976905
119	0xbc5bd6fe	-0.013417957
120	0xbc507847	-0.012723989
121	0xbe26cf15	-0.16289933
122	0xbde841f1	-0.11340702
123	0xbde6f4b8	-0.11277145
124	0xbd1e13f8	-0.038593262
125	0xbd83f3fe	-0.06443022
126	0x3c8e98cd	0.017406845
127	0xbe49b7bc	-0.19698995
128	0xbe0c04fe	-0.1367378
129	0xbd664aa7	-0.056223538
130	0x3c638908	0.013887651
131	0xbbcdd2b2	-0.0062812204
132	0x3c486a38	0.012232356
133	0xbcd625ea	-0.026141126
134	0xbe5b2e6c	-0.21404427
135	0x3d790fa0	0.060805917
136	0xbe55d124	-0.20880562
137	0xbad1ee01	-0.0016016365
138	0xbddfdb87	-0.109305434
139	0xbe0f1cbf	-0.1397581
140	0xbe10acf7	-0.14128481
141	0xbe019c8a	-0.12657371
142	0xbe10a2a2	-0.1412454
143	0xbe01e636	-0.12685475
144	0xbdf6d90a	-0.12053116
145	0xbe286e03	-0.16448216
146	0xbe01f6f0	-0.12691855
147	0xbdce4591	-0.100718625
148	0xbdebe7fd	-0.11518858
149	0xbe4ec48b	-0.20192163
150	0xbe38cc2d	-0.18046637
151	0xbdc9a908	-0.09846693
152	0xbe0715b3	-0.13191871
153	0xbdb2d3f2	-0.087318316
154	0xbe1a0941	-0.15042593
155	0xbe0556f3	-0.1302145
156	0xbe0284d7	-0.12745987
157	0xbdab572f	-0.08366238
158	0xbd931a02	-0.07182695
159	0xbda446f3	-0.08021345
160	0xbdc4d940	-0.0961175
161	0xbe04baf1	-0.12961937
162	0xbd41f9da	-0.047357418
163	0x3c25323a	0.010082776
164	0x3ca99245	0.02069963
165	0x3d205986	0.039147876
166	0x39d73462	0.00041047024
167	0x3cdda619	0.02705674
168	0xbc787076	-0.0151635315
169	0x3b75c354	0.0037500458
170	0xbbf17425	-0.007368582
171	0xbd8b6f85	-0.0680838
172	0xbd9803cd	-0.074226
173	0xbdbe898e	-0.0930358
174	0xbdab2f37	-0.08358615
175	0xbdc3a16d	-0.09552274
176	0xbd8fbaa8	-0.07018024
177	0xbd819e80	-0.063290596
178	0xbdd9280c	-0.106033415
179	0x3d092078	0.03347823
180	0x3c7f9478	0.015599363
181	0x3d47ec74	0.048809484
182	0x3b9b1f2b	0.00473394
183	0xbd8f57b6	-0.069991514
184	0x3ce074c6	0.027399432
185	0xbd8f640f	-0.070015065
186	0x3cdf140a	0.027231235
187	0xbd60c656	-0.054876648
188	0x3c88cb13	0.016698396
189	0xbe03d3e3	-0.12873797
190	0x3c2e4414	0.010636348
191	0xbdb328d1	-0.087480195
192	0xbbbe9cb9	-0.0058170226
193	0xbc0d548b	-0.008626114
194	0x3dacaa91	0.084309705
195	0xbd312bfc	-0.043254837
196	0x3b2f88e0	0.0026784465
197	0xbd7fc3df	-0.062442657
198	0xbb821f7e	-0.0039710393
199	0x3b84b02a	0.0040493207
200	0x3d1b8e1b	0.03797732
201	0x3d5c3d53	0.05376942
202	0xbbee1633	-0.00726583
203	0x3d0a48b1	0.03376073
204	0x3cf8b374	0.030359007
205	0x3beffb33	0.0073236465
206	0xbd7c08f5	-0.06153198
207	0x3d192900	0.037392616
208	0x3d11a6a6	0.03555932
209	0xbdd80d1e	-0.10549377
210	0x3cdbe000	0.02684021
211	0x3c5cfcdd	0.013488022
212	0x3cf1481c	0.02945333
213	0xbc04df6a	-0.008109907
214	0xbc690a59	-0.0142236585
215	0x3c64d0d1	0.013965801
216	0x3c5a0804	0.013307575
217	0xb98c4cfd	-0.00026760242
218	0xbda06091	-0.078309186
219	0x3de824fa	0.11335178
220	0xbd5132b0	-0.05107373
221	0x3ba20f82	0.0049456963
222	0x3d973c7f	0.073845856
223	0xbcb47250	-0.022027165
224	0xbc428044	-0.011871401
225	0xbe01bd29	-0.12669815
226	0x3b1a7fef	0.002357479
227	0xbc4c79e1	-0.01248023
228	0xbdd1319e	-0.10214542
229	0x3ddcc69d	0.1078007
230	0x3d1a5969	0.037682924
231	0xbb1658fb	-0.002294122
232	0xbd256ddf	-0.040387984
233	0x3c384cf1	0.011248813
234	0x3c8846d5	0.016635338
235	0xbd8b4e7e	-0.068020806
236	0xbd9a2b99	-0.07527847
237	0xbbd83f88	-0.0065993704
238	0x3b7df968	0.0038753394
239	0xbc203476	-0.009778133
240	0xbc7b3b3c	-0.015333947
241	0x3d62211a	0.05520735
242	0xbe305f00	-0.1722374
243	0xbd63f538	-0.05565378
244	0xbd747062	-0.05967749
245	0xbd5995ec	-0.053121492
246	0xbc8a9636	-0.01691733
247	0xbcefbfba	-0.029266227
248	0xbda867e6	-0.08222942
249	0xbd3dba1a	-0.04632006
250	0x3abb346e	0.0014282593
251	0x3bf5ca97	0.007500957
252	0x3c84bfad	0.01620468
253	0xbdc37569	-0.095438786
254	0xbdaec4ec	-0.085336536
255	0xbd9f2e81	-0.07772542

bias f4 [15]
0	0xbe085a1b	-0.13315623
1	0x3c357425	0.011075054
2	0x3e984f30	0.29747915
3	0xbe0ea001	-0.13928224
4	0xbdfc4a00	-0.12318802
5	0xbdccb236	-0.099949285
6	0xbe1683ad	-0.14698668
7	0xbe1b734f	-0.15180705
8	0xbd99ed64	-0.07515982
9	0xbf06efb5	-0.52709514
10	0x3f292432	0.66070855
11	0xbee8f211	-0.45497182
12	0x3e7cf796	0.24703822
13	0x3f1ad566	0.6048187
14	0xbdc01c2b	-0.093803726

weight f4 [15, 9]
0	0xbd5d9d78	-0.054105252
1	0xbdd5e22c	-0.104435295
2	0x3bbd4c83	0.005776943
3	0xbcce3816	-0.025173228
4	0xbe46a55d	-0.19399019
5	0xbdc3c7f4	-0.095596224
6	0x3cdda50e	0.027056243
7	0xbe58e53f	-0.211812
8	0xbd7d1db2	-0.061795898
9	0xbd5298c0	-0.051415205
10	0xbddf4a4f	-0.10902845
11	0xbdf20416	-0.118171856
12	0xbcdde196	-0.027085107
13	0xbddab8b3	-0.1067976
14	0x3ccf6167	0.025315
15	0x3d9b38b0	0.07579172
16	0x3d52d9f1	0.051477376
17	0xbca5249f	-0.020159064
18	0x3e33149d	0.17488332
19	0x3e5ba954	0.21451312
20	0x3e1015b3	0.14070778
21	0x3df57bde	0.119865164
22	0x3e42b3df	0.19013928
23	0xbcda2474	-0.02662871
24	0xbd63b100	-0.055588722
25	0x3cbd9ea9	0.023146944
26	0x3e5ec5b0	0.217551
27	0xbe2af162	-0.16693643
28	0xbe6b5b5e	-0.22984073
29	0xbea123fb	-0.31472763
30	0xbe8eae02	-0.27867132
31	0xbe47ac69	-0.19499363
32	0x3d0c34a6	0.034229897
33	0xbd9d7901	-0.07689095
34	0xbde84182	-0.113406196
35	0xbd427988	-0.047479182
36	0xbdca9c2e	-0.0989307
37	0xbe1976ca	-0.1498672
38	0xbddc681d	-0.107620455
39	0xbe2cf4ae	-0.16890213
40	0xbddbe5f9	-0.10737223
41	0x3c51fba2	0.012816342
42	0x3d405efb	0.04696558
43	0x3cd1c9e7	0.02560897
44	0xbda31403	-0.07962801
45	0xbda9e269	-0.082951374
46	0xbe15a0a0	-0.14612055
47	0xbcf28b51	-0.029607447
48	0xbd104681	-0.035223488
49	0xbddd49da	-0.10805102
50	0xbe94acd8	-0.2903812
51	0x3d9c55fa	0.07633586
52	0xbdd73c9f	-0.105096094
53	0xbcfa798d	-0.030575538
54	0xbe26794d	-0.1625721
55	0xbcdde09a	-0.027084637
56	0xbdb47376	-0.08811085
57	0xbe2aa59a	-0.16664734
58	0xbe192b4f	-0.14957927
59	0xbde10c3c	-0.10988662
60	0x3cc9fc84	0.024656542
61	0xbe2a9d97	-0.16661678
62	0xbe1e6129	-0.15466751
63	0xbe55c1cf	-0.20874713
64	0xbdb3e22f	-0.087833755
65	0xbe351a53	-0.17685823
66	0xbde5e20b	-0.11224755
67	0xbdd2235f	-0.10260653
68	0xbdb0cf1b	-0.08633252
69	0x3d7e685e	0.06211125
70	0xbe2e5026	-0.17022762
71	0xbe75a8d6	-0.23990187
72	0xbdbde666	-0.09272461
73	0xbdf0e3c0	-0.1176219
74	0x3b9ecab6	0.0048459424
75	0xbe106274	-0.14100057
76	0xbd7c2053	-0.061554264
77	0xbdb9dad3	-0.090749405
78	0xbb294770	-0.0025829934
79	0xbcb14f32	-0.021644209
80	0xbdb85bd4	-0.0900189
81	0xbd3aeac3	-0.045634042
82	0xbd4d2452	-0.050083466
83	0x3d358fc6	0.044326566
84	0xbd834bfd	-0.06410978
85	0xbe155c34	-0.14585954
86	0x3e1d2e00	0.15349579
87	0x3d8cacbf	0.06868886
88	0x3c92dead	0.017928446
89	0xbe629a47	-0.22129165
90	0x3e929952	0.286326
91	0x3e9c20e7	0.30493852
92	0x3e6f38f9	0.23361577
93	0x3e8497fa	0.258972
94	0x3e9313c7	0.28726026
95	0x3cc4a4cd	0.024004364
96	0x3a0893d2	0.0005210015
97	0xbc7f2232	-0.015572118
98	0x3ea0de78	0.3141973
99	0xbecc46c4	-0.3989774
100	0xbec63657	-0.38713333
101	0xbed72ba1	-0.42025474
102	0xbeac8c91	-0.33700994
103	0xbee45a0f	-0.4459996
104	0xbdc687f1	-0.096938975
105	0xbcc03e67	-0.023467256
106	0xbebff538	-0.37491775
107	0xbf0885c5	-0.53329116
108	0x3f1a8e58	0.6037345
109	0x3f1ccb2b	0.6124751
110	0x3f1384a7	0.57624286
111	0x3f22b1f5	0.6355279
112	0x3f0bd723	0.5462515
113	0x3de49ff9	0.11163325
114	0x3d3768b9	0.044777606
115	0x3ddca6dd	0.10774014
116	0x3f09879c	0.5372255
117	0x3f200fe0	0.62524223
118	0x3f3c4dcb	0.735562
119	0x3f17168b	0.5901877
120	0x3f2bf6eb	0.6717364
121	0x3f0c3104	0.5476229
122	0x3de6c9fa	0.11268993
123	0xbd7f74e0	-0.06236732
124	0x3e4ca56d	0.1998498
125	0x3f2da291	0.6782618
126	0xbc95da62	-0.01829261
127	0xbe2be19c	-0.16785282
128	0xbd1ff8a6	-0.03905549
129	0xbe120ee9	-0.142635
130	0xbe11b5a3	-0.14229445
131	0x3d45ce52	0.048292466
132	0xbd8a7659	-0.06760854
133	0x3dad65aa	0.084666565
134	0xbe402175	-0.18762763

bias f4 [15]
0	0xbdf0dcfc	-0.117608994
1	0xbdfc7745	-0.12327436
2	0x3e44e136	0.19226536
3	0xbe6b7f48	-0.22997773
4	0xbdbbb098	-0.09164542
5	0xbd3751a8	-0.044755608
6	0xbd7d61cb	-0.06186084
7	0xbdb24b02	-0.08705713
8	0xbd9e80c3	-0.07739403
9	0xbd9f19ef	-0.07768618
10	0x3e61e2bf	0.22059153
11	0xbea529c3	-0.32258424
12	0x3f1bc3c8	0.60845613
13	0x3f1e1948	0.61757326
14	0xbd8750b6	-0.06607191

weight f4 [15, 9]
0	0xba65ff00	-0.00087736547
1	0xbcd6aee6	-0.026206445
2	0x3d839987	0.064257674
3	0xbd1efa59	-0.03881297
4	0xbd9b5870	-0.075852275
5	0xbcf30fa1	-0.029670538
6	0xbbed2046	-0.0072365133
7	0x3dbda984	0.09260848
8	0xbaa27a4e	-0.0012396069
9	0xbb19fbc9	-0.0023496023
10	0xbd65978d	-0.056052733
11	0xbd81a011	-0.06329358
12	0xbd822d1a	-0.06356259
13	0x3c34412f	0.011001869
14	0xbaf763c2	-0.0018874335
15	0x3d2514c9	0.040303025
16	0xbd8db9cb	-0.06920203
17	0xbd9be918	-0.076128185
18	0xbe10721f	-0.14106034
19	0xbd394aa3	-0.045237195
20	0x3d94d1a1	0.07266546
21	0xbd1238e4	-0.035698786
22	0xbd23d2ac	-0.039995834
23	0xbd89f415	-0.06736008
24	0x3d98ddc4	0.074641734
25	0x3d57fb16	0.05272969
26	0x3d004dea	0.031324305
27	0xbe0d5d29	-0.13805069
28	0xbd25e532	-0.04050178
29	0xbda37d05	-0.0798283
30	0x3cbaef7b	0.022819271
31	0x3d4c1c36	0.04983159
32	0xbc8a4f79	-0.016883599
33	0xbd254454	-0.040348366
34	0xbd6c8dcb	-0.05775241
35	0x3ceecee7	0.029151393
36	0x3e04b1f0	0.12958503
37	0x3d1c180e	0.038108878
38	0x3d9038ba	0.0704207
39	0xbc6c8ded	-0.014438135
40	0x3da4e334	0.08051148
41	0x3d5de293	0.054171156
42	0x3d9b5d2f	0.07586133
43	0x3b2fbe0c	0.0026816158
44	0xbcd3a18b	-0.025833866
45	0xbc90da44	-0.017682202
46	0xbc821c0c	-0.015882514
47	0x3c9acd71	0.01889679
48	0xbaf93645	-0.0019013366
49	0x3d86dab9	0.06584687
50	0xbcfbc196	-0.030731957
51	0xb702bf1a	-7.793098e-06
52	0x3cb22bc3	0.021749383
53	0x3d956015	0.07293717
54	0xbd49ea66	-0.049295805
55	0x3d81a128	0.06329566
56	0xbda09c30	-0.078422904
57	0xbd228f7d	-0.039687622
58	0x3d7373f3	0.05943675
59	0x3cae7451	0.021295698
60	0xbd21b2cf	-0.039477166
61	0x3d92c070	0.07165611
62	0xbaf1dda4	-0.0018452895
63	0xbe192d3b	-0.1495866
64	0x3d82942b	0.06375917
65	0xbd87794d	-0.06614933
66	0xbc17e1d4	-0.00927015
67	0xbc157226	-0.009121453
68	0xbac1186c	-0.001473201
69	0xbd506866	-0.050880812
70	0x3c6cc707	0.014451749
71	0xbd7d394b	-0.061822217
72	0x3d20f674	0.039297536
73	0x3d29e0f9	0.041474316
74	0x3d224c0f	0.039623316
75	0xbd3af130	-0.04564017
76	0xbd9d9cd4	-0.07695928
77	0x3c36e52d	0.011163038
78	0x3cc0c818	0.023532912
79	0xbd88ef8a	-0.066863135
80	0xbd97eedb	-0.07418605
81	0x3d40456f	0.046941217
82	0xbcace4c2	-0.021105174
83	0x3cded164	0.027199455
84	0x3d3394ab	0.043842953
85	0xbd1f752b	-0.0389301
86	0xbd0742ba	-0.03302262
87	0x3c14e2d5	0.009087284
88	0xbd7b788d	-0.061394263
89	0x3c1dd7bc	0.009633955
90	0x3e0c73d7	0.13716064
91	0xbcbef647	-0.023310794
92	0xbd99497a	-0.07484718
93	0x3d987539	0.074442334
94	0x3c4c9bc0	0.012488306
95	0x3da63c9c	0.08117029
96	0x3d6b51e6	0.05745115
97	0xbcc6975a	-0.024242092
98	0x3d1564e9	0.03647319
99	0x3d25d996	0.04049071
100	0xbce058a4	-0.027386017
101	0xbd3b5912	-0.04573924
102	0xbd84a323	-0.06476428
103	0x3cd2982c	0.025707327
104	0xbb40620c	-0.0029355315
105	0xba6a60db	-0.0008940824
106	0xbd65f434	-0.056141093
107	0xbc8b67b0	-0.017017215
108	0xbe11e171	-0.14246155
109	0x3c8e8b28	0.01740034
110	0xba0bd486	-0.00053340977
111	0x3d982afa	0.07430072
112	0xbc83b8c3	-0.016079312
113	0x3d4d5433	0.050129127
114	0x3d2ec7de	0.042671077
115	0x3d570b1e	0.052500837
116	0xbc624fa6	-0.013812935
117	0xbd26fcbc	-0.04076837
118	0xbd9cface	-0.07665025
119	0x3c79ee35	0.015254547
120	0x3d026561	0.031834964
121	0xbc9138b2	-0.01772723
122	0x3d099dfc	0.03359793
123	0x3da554ea	0.08072837
124	0x3d67a859	0.056557033
125	0x3cddf32d	0.027093494
126	0x3cbed02b	0.023292622
127	0x3ca065e3	0.019579833
128	0xbd499507	-0.04921439
129	0xbd82616c	-0.06366238
130	0x3d8c42bf	0.06848668
131	0xbaebf999	-0.0018003463
132	0xbd88cdab	-0.06679853
133	0x3d09af11	0.033614222
134	0xbd80a1b0	-0.062808394

bias f4 [15]
0	0x39c89d6b	0.00038264258
1	0x3d01424d	0.03155737
2	0x3d39558a	0.045247592
3	0xbd4cda46	-0.05001285
4	0x3d756ab2	0.059916206
5	0x3d18b22a	0.037279285
6	0xbc01502a	-0.007892648
7	0x3cf2e6eb	0.029651126
8	0xbaf55a4a	-0.0018718925
9	0xbcd9ebfb	-0.026601782
10	0x3d4b1e2d	0.049589325
11	0xbd91d870	-0.0712136
12	0xbc8b98bc	-0.017040603
13	0xbd7feedb	-0.06248365
14	0xbc2d9779	-0.010595196

weight f4 [15, 9]
0	0xbd3e46e2	-0.046454318
1	0xbd7de401	-0.06198502
2	0x3d9aafa5	0.07553033
3	0xbd1004a5	-0.03516068
4	0xbd38a1aa	-0.04507605
5	0xbc40e721	-0.011773855
6	0x3c4b3e0a	0.012404928
7	0x3d532124	0.051545277
8	0xbd45d0eb	-0.048294943
9	0x3d890c2e	0.06691776
10	0xbb1672d5	-0.0022956629
11	0x3d64323d	0.055711973
12	0xbcc835e8	-0.024439767
13	0x3d5d1eea	0.05398456
14	0xbda65149	-0.08120973
15	0xbd848dfc	-0.06472394
16	0xbd598b37	-0.05311128
17	0xbd7b145b	-0.06129871
18	0x3e0de18b	0.13855569
19	0x3b51ece5	0.003203207
20	0xbbdfc6ae	-0.0068291044
21	0x3cec8f3e	0.028876897
22	0x3d414977	0.047189202
23	0x3cdbd0ad	0.026832903
24	0x3d904981	0.0704527
25	0x3d5d0e55	0.053968746
26	0xbc314965	-0.010820721
27	0x3da76f3b	0.081755124
28	0x3c2e7fb5	0.010650565
29	0xbb150314	-0.002273743
30	0xbd8e1a34	-0.069385916
31	0x3d893fb4	0.067016035
32	0xbce28c4c	-0.02765479
33	0x3d74b4f8	0.059742898
34	0xbd95d771	-0.07316483
35	0x3d7653a1	0.06013835
36	0xbe0b0cba	-0.13579074
37	0xbd0328b0	-0.032021224
38	0xbd8f10e0	-0.069856405
39	0xbbf2ddb4	-0.007411683
40	0xbd6b35a7	-0.057424214
41	0x3b1a8a3d	0.0023580932
42	0x3c41a879	0.011819952
43	0xbd75e44d	-0.060032178
44	0x3b807b91	0.0039209803
45	0xbd3d578b	-0.046226066
46	0x3cd8a6ce	0.026446726
47	0xbd762d7e	-0.06010198
48	0xbd305a58	-0.04305491
49	0x3d33631c	0.04379569
50	0xbd5eaf7c	-0.054366574
51	0xbcb22555	-0.021746317
52	0x3da5563e	0.0807309
53	0xbcc22ce8	-0.023703054
54	0xbcdd8863	-0.027042573
55	0xbcc8a7a9	-0.02449401
56	0xbd8a16c5	-0.06742624
57	0x3b551913	0.0032516166
58	0xbd300ec0	-0.042982817
59	0xbc0ec618	-0.008714221
60	0x3d5e1200	0.054216385
61	0x3d327101	0.0435648
62	0xbd998c1b	-0.07497426
63	0x3dff1433	0.124550246
64	0x3d918722	0.07105853
65	0x3cdbb310	0.026818782
66	0xbb54053b	-0.003235175
67	0x3b94cb4f	0.004540838
68	0xba175e42	-0.00057742384
69	0xbd818ad1	-0.06325305
70	0xbd406489	-0.046970878
71	0xbc69e756	-0.014276346
72	0x3ca2e540	0.019884706
73	0x3c88c7c6	0.016696822
74	0x3d710235	0.058839995
75	0xbd12aa86	-0.035807155
76	0x3d34771f	0.044058915
77	0xbbd3d61c	-0.006464733
78	0xbc00405e	-0.007827846
79	0x3d84d348	0.06485611
80	0xbcc69260	-0.024239719
81	0x3cbf9784	0.023387678
82	0x3d8ff99f	0.07030033
83	0xbd9d0efa	-0.07668872
84	0xbcfadda5	-0.030623266
85	0xbd7b57fd	-0.06136321
86	0xbc079b3f	-0.00827676
87	0xbd2b9b7d	-0.041896332
88	0x3d4ba634	0.04971905
89	0xbd952b1e	-0.072836146
90	0xbdae16e1	-0.085004576
91	0xbccbd5cd	-0.024882222
92	0x3d93c524	0.07215336
93	0xbd7e5d11	-0.062100474
94	0x3d6853db	0.056720596
95	0xbd60d380	-0.054889202
96	0x3cb52c6c	0.022115909
97	0xbd634d30	-0.055493534
98	0x3c725fa1	0.0147933075
99	0x3d53adac	0.0516793
100	0x3d9a57ca	0.07536276
101	0x3d9d7606	0.07688527
102	0xbd7ed628	-0.062215954
103	0xbd6a8cf2	-0.057263322
104	0x3d34c9b0	0.044137657
105	0x3b18fca2	0.002334394
106	0x3d6fa4dc	0.05850683
107	0x3d70ab0f	0.058756884
108	0x3dd1afaf	0.10238587
109	0xbd96ab74	-0.07356921
110	0xbb37c3c0	-0.002804026
111	0x3cae358f	0.021265773
112	0xbd1d842a	-0.03845612
113	0x3d539237	0.051653113
114	0xbd840432	-0.06446113
115	0x3c38d9c5	0.011282389
116	0x3d6f76af	0.058462795
117	0xbc52ddb6	-0.012870243
118	0xbcd59961	-0.026074113
119	0x3d883819	0.06651325
120	0x3d5908d5	0.05298694
121	0xbd851afb	-0.06499287
122	0x3d13d158	0.036088318
123	0xbd8bd0ba	-0.06826921
124	0xbd6b0e0d	-0.057386447
125	0x3d8e2cc1	0.0694213
126	0x3d0c5edd	0.034270156
127	0xbd300366	-0.04297199
128	0xbd024efb	-0.031813603
129	0xbd5fd253	-0.05464394
130	0xbd843c1f	-0.0645678
131	0xbd49a54c	-0.049229905
132	0x3c7b899a	0.015352631
133	0x3d6919dd	0.05690943
134	0x3cc62500	0.024187565

bias f4 [15]
0	0xbd2814e1	-0.041035537
1	0x3ba33db5	0.0049817213
2	0xbd830c7f	-0.06398868
3	0x3947ce87	0.00019055056
4	0x3b637b2c	0.0034710867
5	0xbd3d56a1	-0.046225194
6	0x3d9421d9	0.072330184
7	0x3d40a45f	0.047031756
8	0xbaf621f4	-0.0018778429
9	0x397a520a	0.0002387242
10	0xbd909d23	-0.070612215
11	0x3b9777ab	0.00462242
12	0xbd72cae6	-0.05927553
13	0x3c42651d	0.011864928
14	0xbd95b9e1	-0.07310844

weight f4 [15, 9]
0	0xbd91da13	-0.071216725
1	0xbce9067d	-0.028445477
2	0x3b2f7b33	0.0026776313
3	0xbde3519b	-0.110995494
4	0xbe6a5654	-0.22884494
5	0xbe866346	-0.26247615
6	0x3d061947	0.03273895
7	0xbdbc8c18	-0.09206408
8	0xbc32eba4	-0.010920439
9	0xbe09baf7	-0.13450228
10	0xbda6ae5c	-0.08138725
11	0xbe021f1f	-0.12707184
12	0xbd6bf9b7	-0.057611194
13	0x3c75ed16	0.015010139
14	0xbd624431	-0.055240814
15	0xbbaf6906	-0.005353096
16	0x3b4b0323	0.0030977211
17	0xbd9f7519	-0.077860065
18	0x3e46cf2f	0.19414972
19	0x3e86345c	0.26211822
20	0x3e5c1ab9	0.21494569
21	0x3e5a411f	0.21313904
22	0x3e0114b8	0.1260556
23	0x3d0316f7	0.032004323
24	0xbd906aaa	-0.070515946
25	0xbd67d9a8	-0.056604058
26	0x3d97ad7b	0.07406136
27	0xbe7933aa	-0.24336115
28	0xbe60469d	-0.21901937
29	0xbec9cacd	-0.39412537
30	0xbe96b346	-0.2943365
31	0x3c5c931a	0.013462806
32	0xbca55f8b	-0.02018716
33	0xbbda10e2	-0.0066548446
34	0xbdd53d63	-0.10412099
35	0xbe407df4	-0.18798047
36	0xbdde70b1	-0.10861338
37	0xbe6553fc	-0.22395319
38	0xbda20885	-0.07911781
39	0xbe2abb9b	-0.16673128
40	0xbe0f61fd	-0.14002223
41	0xbbc2be5c	-0.0059431028
42	0xbc2277bc	-0.009916242
43	0x3e03b72a	0.1286284
44	0xbe7c9078	-0.24664485
45	0xbde95be9	-0.113944836
46	0xbcc36f2c	-0.023856722
47	0xbcdf548b	-0.027261993
48	0xbcc0967b	-0.023509255
49	0xbdda3a8f	-0.106557004
50	0xbd85fbb2	-0.06542148
51	0xbd5b7f13	-0.053587984
52	0x3b0899f7	0.0020843723
53	0xbe056098	-0.13025129
54	0xbdac7673	-0.0842103
55	0xbdc5b678	-0.09653944
56	0xbdf3fd49	-0.11913545
57	0xbe11d4a3	-0.1424127
58	0xbdb2a7fe	-0.08723448
59	0xbdd8b77d	-0.105818726
60	0xbd0e8258	-0.034792274
61	0xbda1e003	-0.07904055
62	0xbd4c32ad	-0.049853016
63	0xbe6294a7	-0.22127019
64	0xbe0a05af	-0.1347873
65	0xbe1f0604	-0.15529639
66	0xbe198332	-0.14991453
67	0xbe5faf4a	-0.21844211
68	0xbe4080dd	-0.18799157
69	0xbd195b01	-0.037440304
70	0xbe2c5fa4	-0.16833359
71	0xbe0c1bb9	-0.1368245
72	0xbe02b70a	-0.12765136
73	0xbdeae62d	-0.11469684
74	0x3c459c42	0.012061181
75	0xbdd2a843	-0.102859996
76	0xbdce9115	-0.10086266
77	0xbe0a8d3a	-0.13530436
78	0x3d56e22d	0.05246179
79	0xbd687875	-0.0567555
80	0x3d18230f	0.03714281
81	0x3c21c65d	0.009873954
82	0xbdb2bc43	-0.08727314
83	0xbd78c8d3	-0.060738396
84	0xbcaf265e	-0.0213806
85	0xbd855f53	-0.06512322
86	0x3e45fd8f	0.19335006
87	0x3c4d0389	0.01251305
88	0x3e0d3333	0.13789062
89	0xbde0ebbb	-0.10982462
90	0x3e570eab	0.21001689
91	0x3ea90661	0.3301268
92	0x3eb68396	0.35647267
93	0x3e744246	0.23853406
94	0x3e84b718	0.2592094
95	0x3d1acc84	0.037792698
96	0xbd42de1a	-0.047575094
97	0x3e7c7281	0.24653055
98	0x3e7073e3	0.23481707
99	0xbead4b2a	-0.33846408
100	0xbed177b4	-0.4091164
101	0xbeafa75c	-0.34307373
102	0xbecb248a	-0.39676315
103	0xbeff669e	-0.49882978
104	0xbdd74fa0	-0.10513234
105	0x3d90af5d	0.07064698
106	0xbecceae0	-0.40022945
107	0xbeaaaa51	-0.33333066
108	0x3f297fb8	0.6621051
109	0x3f0d9b14	0.55314755
110	0x3f0267f4	0.5093987
111	0x3f2f0f6f	0.68382925
112	0x3e8a5199	0.2701538
113	0x3de27d0a	0.110590056
114	0x3da0a4fb	0.078439675
115	0x3ed7fdd4	0.42185843
116	0x3f2c0309	0.6719213
117	0x3f30aed3	0.6901676
118	0x3f3d66a2	0.7398473
119	0x3f16a2a3	0.58841914
120	0x3f24512d	0.64186364
121	0x3eaad112	0.33362633
122	0x3e30d4b5	0.17268641
123	0xbd18b6cb	-0.0372837
124	0x3ed65c79	0.41867426
125	0x3f33263e	0.6998023
126	0xbdcd6183	-0.100283645
127	0xbd72f2de	-0.059313647
128	0xbdbe619f	-0.092959635
129	0xbe1a996c	-0.15097588
130	0xbd899f94	-0.0671989
131	0xbd918317	-0.071050815
132	0xbd5ce970	-0.05393356
133	0x3d885e91	0.06658662
134	0xbe065c68	-0.13121188

bias f4 [15]
0	0xbd58f62f	-0.052969154
1	0xbcf2395d	-0.029568369
2	0x3e34a7bb	0.17642109
3	0xbe5dc920	-0.21658754
4	0xbe44b31a	-0.19208947
5	0xbe20cde2	-0.15703538
6	0xbcf202f3	-0.029542422
7	0xbe0e06d3	-0.1386979
8	0xbc3fbfdb	-0.011703457
9	0xbd08667d	-0.033300865
10	0x3e8a5f43	0.27025804
11	0xbeb79ce7	-0.35861894
12	0x3f2ef159	0.6833702
13	0x3f302525	0.6880668
14	0xbde548c0	-0.111955166
